models/with_mismatch/kalman_process_50n_local_params_r4_linear_20deg.pth (torch, 269954 bytes, 28 tensors)

gkf.gat_rnn.fc_delta_y_innov.0.weight f4 [64, 3]
00000000: 9fc8 dc3e a1e7 f03e ec65 89bd b271 043f
00000010: 1a7b f2bd cb7a 2b3e 6f6f 99be 958b 9b3e
00000020: f250 183f 9797 dcbe 5fde 143f badb 903d
00000030: 1bc0 da3e af74 ed3d a501 9b3e 6c8f 84bd
00000040: e520 003f 6991 d83d a8b8 8dbe 0fdf 313e
00000050: ec90 80be b262 95b9 3958 88be e0dd fa3e
00000060: c9a7 efbe 9ad1 75be d4d2 2ebe 781e b9be
00000070: c6fd 1f3e 501b 1abf 7b47 0b3f 1177 f8be
00000080: 50c4 063f fe88 e23d daae 5ebe c7ba dc3e
00000090: 6da7 563d 4c47 003f b8ee 5d3d 8e59 47be
000000a0: 2370 423e 2bd5 49be 11e7 7f3e f46b 173f
000000b0: 5293 ad3e 7dca 80be 9e56 b43e 75cc 1a3e
000000c0: 82f0 a83e 6465 a9be d3d9 07bf 65a3 58be
000000d0: ad34 eabe f223 0c3f 258f 2e3e 86f7 963e
000000e0: c639 5d3e b99e 5b3c 3162 073f 8e34 f4be
000000f0: d7e0 d93d fb5a 01bf 0398 873e f0c3 4fbe
00000100: 7c3b 493e 50b9 ddbd da5e f63e a925 84be
00000110: ec63 c0be 309d abbe 7174 183f c388 3e3e
00000120: 0218 103f 3147 d9be d69c 0fbf 7368 e6be
00000130: 42dc acbe 61f1 693e ef2c 533e a2e8 0f3f
00000140: 5b4e 9dbe f88f c4be 2091 bf3e 261e 65be
00000150: 3cd9 bc3e bbce cdbd 10d5 bd3e dedc e5be
00000160: a6f3 8fbe 950f 6a3e 3a1a 093e 01ef 0fbe
00000170: 653e b03e 29d0 d53e c6c2 b5be c002 a4be
00000180: c736 033f 88de 6bbe 44dd f3bd 87c0 10bf
00000190: f623 a8be a815 423e c6c0 48bd db4a e2be
000001a0: 6669 0b3e 38ca c9be 5b3f f0be a4eb 97be
000001b0: fe7d ffbe 6665 e2be be5e 1c3f e821 023e
000001c0: 78ec 493e f155 10bf 17c9 c9be 03d8 5bbe
000001d0: 5f1a 2a3e 5e9b 01bf 7180 76be 4e3f a6be
000001e0: 7459 273c ee79 63be 201f 1e3d 7a2a cebe
000001f0: 7fc8 c9be f1ab 90be 9a58 29be 1000 00bf
00000200: 1301 083f 4ac7 abbd a33d 093f 0280 573e
00000210: 1ccb fbbe 5523 e83e 1c35 ffbd 763d 7bbe
00000220: 8f77 fabe 34be 00bf 22aa 413e 3e99 c1bd
00000230: 3445 773e f071 fcbe a49e f53e 211a e2be
00000240: 857b a4bd 086a f53d fa06 ac3e 109d f33e
00000250: efed 1f3f 1ed4 02bf f172 2f3e 893b 4dbe
00000260: 2d3d 23bd 74d8 d9be 58a4 1d3f f4f6 f4be
00000270: e322 9e3e 8da0 a93e fb59 da3d 6e0f a4be
00000280: cc51 1f3f 0e64 d93d 4f46 ef3d 9745 15bf
00000290: 5bc9 b23e 0c4d 91bd aa5f 90be 9997 0f3f
000002a0: 1cca 053e aebd a1be e7c6 79be 6569 97bc
000002b0: 740e c73e a6bd 13be 2ac2 acbe b5e5 20be
000002c0: d239 efbe ed60 523e b998 013f 9e9b 23bf
000002d0: 4a28 0c3e d036 ad3e 8539 023e ab55 69be
000002e0: 5b4f b93e bc84 983e 8123 503e da77 c9bd
000002f0: 475f 34be 88b0 c03d 9ec8 8ebd 0bf0 f3bd
0.43121812 0.4705172 -0.06708893 0.51735985 -0.11839886 0.1674606 -0.2996783 0.3037993
0.5949851 -0.43084404 0.5815181 0.070731595 0.4272469 0.11594521 0.30274692 -0.06472668
0.50050193 0.1057461 -0.27679944 0.17370246 -0.25110567 -0.00028493028 -0.2662981 0.48997402
-0.46807697 -0.24005738 -0.17072612 -0.36156058 0.1562415 -0.60197926 0.54405946 -0.4852834
0.526433 0.110612854 -0.21746388 0.4311125 0.052405763 0.5010879 0.054182738 -0.19467756
0.1898809 -0.19710223 0.24990489 0.591491 0.3390146 -0.25154486 0.35222334 0.15117057
0.32995993 -0.33085167 -0.5306675 -0.2115608 -0.45743313 0.5474235 0.17046793 0.2948572
0.2160407 0.013404542 0.52884203 -0.47696346 0.10638588 -0.5052945 0.26483163 -0.20289588
0.19651598 -0.10826361 0.4811924 -0.25809982 -0.37576234 -0.33518362 0.59552675 0.18606858
0.56286633 -0.42437127 -0.5609869 -0.45001563 -0.33761793 0.22845985 0.2062261 0.56214345
-0.30723843 -0.3839109 0.3741541 -0.22374782 0.36884487 -0.10049196 0.37076616 -0.4489507
-0.28115577 0.22857507 0.13388911 -0.14056017 0.34422603 0.41760376 -0.35500163 -0.32033348
0.5125546 -0.23034108 -0.119074374 -0.56543773 -0.32839936 0.18953574 -0.049011968 -0.44197735
0.13614425 -0.39412093 -0.46923336 -0.29671967 -0.49900812 -0.44217986 0.61082065 0.12708247
0.19719112 -0.56381136 -0.39411232 -0.2146912 0.16611622 -0.50627697 -0.24072434 -0.32470173
0.010214198 -0.22214481 0.038603902 -0.40266782 -0.3941078 -0.2825618 -0.16537705 -0.50000095
0.5312664 -0.08387621 0.53609675 0.21044925 -0.49178398 0.45339456 -0.12461302 -0.24535164
-0.4891934 -0.50290227 0.18912557 -0.09453057 0.24147493 -0.49305677 0.47972596 -0.4416056
-0.08031372 0.119831145 0.33599073 0.47580767 0.6247243 -0.51104915 0.1713369 -0.20042242
-0.039853264 -0.42547953 0.61578894 -0.4784466 0.3088599 0.33130303 0.10661694 -0.32043022
0.6223419 0.10614787 0.11683332 -0.5830931 0.34919247 -0.07094774 -0.28197986 0.56090695
0.1306538 -0.31590027 -0.24392281 -0.018482873 0.38878214 -0.14427814 -0.33741885 -0.15712626
-0.467238 0.20544787 0.5062366 -0.6390933 0.13687244 0.3383088 0.12717254 -0.22786586
0.36193356 0.29788768 0.20326044 -0.09837313 -0.1761447 0.09408671 -0.069718584 -0.11911019

gkf.gat_rnn.fc_delta_y_innov.0.bias f4 [64]
00000000: 3bb8 c23e 07d9 043f 74ec 28bd 3962 a7bd
00000010: b1a1 233d eb64 6e3c 2ee0 293e 0320 6a3e
00000020: bc67 01bf 6fde 36be bd30 063f bfc0 843e
00000030: 6db3 d6bb 7f4f a8be 1693 9cbe 1cc2 fbbe
00000040: 6811 1cbe 6651 683e 24c3 d53e 5490 ac3e
00000050: f696 e6be ae0d a6be 4a26 4ebd e676 1a3f
00000060: 2e9c fa3d 7766 13be 984b 923e f6fe 3bbe
00000070: 5d5a a9be 9566 e63e f386 83be c1a1 99bd
00000080: 11ef 0ebf ea8b cc3e c55d f23e ad92 653e
00000090: 8383 e0be 0458 0ebf 49bf e3be 6648 e23e
000000a0: 1a45 9d3e 7560 013f d92d a13e 0efa 3b3e
000000b0: 36a1 3e3d 77b2 d4be fe57 ecbe 2061 febe
000000c0: 661c 803e 261c 68be 72e2 8ebd f1e9 97be
000000d0: 7a9a 93bd c618 bdbe db5c 9cbe d86f 603e
000000e0: 8b40 1fbe 66cd c83e 145f 2dbe 58e2 ccbe
000000f0: 8193 93bd 2d92 72be 5963 3cbe 9ff1 03bf
0.38031182 0.5189366 -0.041241124 -0.08173031 0.039949123 0.014550428 0.16589424 0.22863774
-0.5054891 -0.17858289 0.5241812 0.25928304 -0.006552151 -0.3287315 -0.30580968 -0.4917153
-0.15241015 0.22687301 0.41750443 0.33703864 -0.4503705 -0.32432312 -0.050329484 0.60337675
0.1223682 -0.14394556 0.28573298 -0.18358979 -0.33076754 0.4500014 -0.25688896 -0.07501555
-0.55833536 0.39950496 0.47337165 0.22419234 -0.43850335 -0.5560305 -0.44481876 0.4419586
0.30716783 0.50537807 0.3148029 0.18357107 0.04654046 -0.41542408 -0.46160883 -0.49683475
0.25021666 -0.22666988 -0.06976785 -0.2967067 -0.072071984 -0.36932963 -0.30539593 0.21917665
-0.15551965 0.39219207 -0.169308 -0.40016437 -0.072058685 -0.23688574 -0.18397273 -0.5154056

gkf.gat_rnn.fc_delta_y_innov.2.weight f4 [64, 64]
00000000: 8756 bc3d af55 9ebd 3b56 c53d 9140 cc3d
00000010: 43ff c63d 7b7b 0abd d1ae 0c3e d624 ebbd
00000020: 6297 463d 5e5e 1b3e e6ef 80bc 75f7 aebb
00000030: ca5f 803c 5510 a9bd a819 9b3d 0937 cbbd
00000040: a401 ad3d dde7 c03d 7aad 103e 925e 853d
00000050: 5053 4ebe adde 473d ed6e 9c3d 93bb a1bd
00000060: 4b94 a8bc 2d25 84bd 0097 be3c 8fae 9abc
00000070: 93c4 5ebd d6d9 3ebc cd85 06be d5aa d93d
00000080: 94c1 e03d 2cba 0e3c 3148 f8bc dab1 f6bc
00000090: b3df e7bd 6f16 e4bd 062d 323d 6022 07bd
000000a0: f7fd d9bd e845 ba3c 4ea7 4dbd 61e1 3b3c
000000b0: 5c11 423d eb40 d8bc d98f 63bd 5943 b8bc
000000c0: 3d44 a4bd 87a0 003e 2746 5cbd 57e8 ac3d
000000d0: 3145 febc b0c1 5e3d d706 9f3d 6434 f73c
000000e0: 5c2f e3bd 872f f73d fee7 063e 2e11 723d
000000f0: 7e29 d73d e214 223e 2bb9 41bc 14f7 09bb
00000100: 9a48 31bd 88db 623c f9dd 5d3d 0334 4d3c
00000110: f542 1ebd dd1d debd e284 07be 794e 32be
00000120: f5e9 00be 7f2f 47bd 4397 f43d bf52 463d
00000130: d854 4abd 34ea fdbd 9cab d93d e533 e8bd
00000140: f2ca d23c d5a6 903d 1ed3 a1bc 81fd 253d
00000150: 5d5a 23bc 60d9 58bd b742 c9bc bb08 06be
00000160: 6046 7dbd daf3 bebd 7b12 2a3e b088 f7bd
00000170: 20dd 59bd cdec 95bc 76c0 693d 2652 d93d
00000180: 88ac 063e 5a01 df3c 9726 24be 250b 21bc
00000190: 9da9 3a3d 5dff 643d 01c5 d3bd 3a6c 733d
000001a0: fc88 17bd faa2 03be 50d7 ecbd a8c2 e839
000001b0: dc7c b93a a035 6abc 8f39 543d b95c dfbd
000001c0: bff0 08be ad78 523d 9ad4 183e 78be 143c
000001d0: 16ce fbbc 7c76 a0bd 4cd8 dbbd 0d93 bfbd
000001e0: 0769 723d 2aed e03d 5b6d 9f3d d283 57bd
000001f0: 51b7 023e af10 18be 8cf8 b13d 9add 233e
00000200: 7f4e 6f3c 9b62 033e 7b87 bdbd abf8 17bd
00000210: 2d97 ad3d a5cd 68bc b2fa 6dbc 939a f4bc
00000220: 4d78 ba3d 6c3f 8b3d d5d7 683d e73a 39bd
00000230: 5503 b5bd 5e1b 943c 2567 3f3d a6c0 4fbd
00000240: 69ce f5bc 446b d03d d111 fc3c 36f4 9d3c
00000250: 296b 6fbd b0f4 dcbd d67f ddbd 8d97 3abd
00000260: 4236 5ebd 8a48 443d edde cdbc dde9 24bd
00000270: f753 073e bed0 653d 9333 d73d 217b 55bd
00000280: d7e4 29bd 84b0 6a3d 94bc 82bd 94d3 97bd
00000290: 7210 4e3b 7d34 91bd 1e8e b5bd b69f ac3d
000002a0: 0063 073e e507 fc3c 1717 0dbb 084a d2bd
000002b0: 73fa 10bd 81f6 b03c a158 8b3d e0ca 11bc
000002c0: 3e5d 07bd 5b75 9a3d 1557 bdbd efb0 b53d
000002d0: 8ba3 17bd f314 3b3c d7c5 21bb b9a1 193d
000002e0: 2dc6 0bbd a82b dd3d 8ebe 043b 5995 be3d
000002f0: 7b13 073e 4b52 52bd 9b0f adbd 016b 4c3d
00000300: 0d92 da3d 8877 a3bd 5141 913b 555b eebd
00000310: 4d07 b6bd e5c5 943c 0426 1a3d 4735 bf3d
00000320: 42bb aebc 5f54 f33d 317a 1d3d b8d2 20bd
00000330: 6a6d 66bc 96a4 083d 0eac 533d 3bad a4bd
00000340: 7713 413d ccf8 11bd 139e b5bd 2797 b8bd
00000350: 857f fd3d 5bf8 e43d ece4 f43d 0ddb a13d
00000360: ae43 d13d 7b61 213b 5f33 8dbd 7a57 8a3d
00000370: d0e5 4bbd d4a0 8abd bc9c 9cbc 7428 093d
00000380: b484 923d 5da9 04bd 8cc0 19bd 1f1c 023d
00000390: 48ef 54bd cb0d 03be 39e4 a53d 1913 20bc
000003a0: c244 233e b3d1 093e 0c14 903d 58a5 293d
000003b0: 1abc 0f3d 5963 fa3a 20f0 18ba 0143 a53b
000003c0: 7153 803d e773 ec3d 6bd0 c7bc cacd 4ebd
000003d0: a182 a0bc ffe5 61bd 9f81 9a3d a87d 0d3e
000003e0: c9a2 c33d 6bc3 4c3d 086c acbd d2fc b0bd
000003f0: b093 a0bc 1bfa 4cbc d379 593c a11c 30be
0.09196191 -0.077311866 0.09635588 0.099732526 0.09716656 -0.033809166 0.13738562 -0.11481635
0.048484214 0.15172717 -0.015739392 -0.005339558 0.015670676 -0.08255068 0.07573253 -0.099226065
0.084475785 0.094192244 0.14128676 0.065121785 -0.20148969 0.048796345 0.07638345 -0.07897105
-0.020578524 -0.06452403 0.023265362 -0.018882064 -0.054386687 -0.011648616 -0.13136978 0.10628287
0.10974422 0.008711379 -0.030307861 -0.030114103 -0.11321964 -0.11137091 0.04349997 -0.032991767
-0.10644143 0.022738412 -0.050208382 0.011467309 0.047379836 -0.026398143 -0.055557106 -0.022493051
-0.08020828 0.12561236 -0.05377784 0.08442753 -0.031038852 0.054383934 0.077649765 0.030176349
-0.110930175 0.12069612 0.13174435 0.059098415 0.10505961 0.15828279 -0.011823933 -0.002105181
-0.04328213 0.013846286 0.054166768 0.012524608 -0.038638074 -0.1084554 -0.13234285 -0.17412747
-0.12589248 -0.04862928 0.119429134 0.048418757 -0.04939732 -0.12398186 0.10628435 -0.11338023
0.025731537 0.07063071 -0.019753989 0.040524963 -0.009970275 -0.05294168 -0.024567945 -0.13089268
-0.061834693 -0.09323855 0.16608612 -0.12086618 -0.053189397 -0.018301392 0.05706831 0.10611372
0.13151753 0.027222324 -0.16030346 -0.009829317 0.045571912 0.055907596 -0.1034031 0.059429385
-0.036995873 -0.1285514 -0.11564505 0.00044395518 0.0014151591 -0.014295012 0.051812705 -0.10906357
-0.13373087 0.051384617 0.14924851 0.009078614 -0.030737918 -0.07835099 -0.10734615 -0.093542196
0.059182193 0.109827355 0.0778453 -0.052615948 0.12765242 -0.14850114 0.08689985 0.16002503
0.014606117 0.12830584 -0.092543565 -0.037102383 0.084761 -0.014209186 -0.014525102 -0.029858863
0.09104977 0.06799206 0.05684646 -0.04522219 -0.08838526 0.018079456 0.046729226 -0.050720833
-0.03000565 0.10176709 0.030770214 0.019281488 -0.058451805 -0.10788858 -0.108153984 -0.045554686
-0.054250963 0.04792074 -0.025130713 -0.040262092 0.13215624 0.056107275 0.10507884 -0.052119378
-0.041478004 0.057297245 -0.06383625 -0.07413402 0.0031442908 -0.070900895 -0.08864997 0.084289
0.13221359 0.030765483 -0.0021528655 -0.102680266 -0.035395097 0.021601917 0.06804014 -0.008898467
-0.033047907 0.07541915 -0.09245125 0.08871638 -0.0370212 0.011418569 -0.0024684572 0.037507746
-0.034124542 0.107993424 0.002025518 0.093058296 0.13191025 -0.051348012 -0.08450242 0.049906734
0.10672388 -0.07981783 0.004432835 -0.11638514 -0.08888111 0.01816077 0.03763391 0.09336334
-0.021329526 0.11881327 0.03844661 -0.039263457 -0.014064172 0.033360086 0.051677756 -0.080408536
0.047137704 -0.03563766 -0.08868041 -0.09013205 0.12377838 0.111801825 0.11957726 0.07903109
0.10217987 0.0024624753 -0.06894564 0.06754966 -0.049779713 -0.06768957 -0.019117706 0.033485845
0.07154217 -0.03238808 -0.037537143 0.0317651 -0.05198601 -0.1279823 0.08100171 -0.009770178
0.15944198 0.134589 0.07035074 0.04141745 0.035091497 0.0019103094 -0.0005834121 0.005043388
0.06265915 0.11545544 -0.024391374 -0.050489224 -0.019593539 -0.055150982 0.075442545 0.13817465
0.09552533 0.049991053 -0.08419043 -0.08641972 -0.019601673 -0.012510802 0.013273674 -0.17198421

gkf.gat_rnn.fc_delta_y_innov.2.bias f4 [64]
00000000: 6768 ca3c 837d bb3d 47b0 3a3d 7386 9cbd
00000010: 6cc3 b13d a49c cd3d 3292 7bbc b663 05bd
00000020: bf2d cebd 2a4e adbc 07fa 1bbd 7eca 563c
00000030: d91d 033d 23b9 db3b 355d 073e d0a3 f73c
00000040: 168e 48bd 1101 20bc 6964 37bd a43b 6dbc
00000050: 2b64 c6bd db9a b73c 25eb b1bd f396 653d
00000060: 39aa d13d 070b ecbd bb50 13bd 5bc2 edbd
00000070: 195f 473d f874 393c 66f1 30bd 5a6f 023e
00000080: a518 3c3d f958 f8bd e618 c43c 010b e9bb
00000090: 402e 8a3b 3b28 0b3e 2717 383c 7c6d 6abd
000000a0: 0389 fb3d 9415 b2bd b875 31bd 6cb2 bc3d
000000b0: d033 e43d 9fc8 273e 19d8 d03b 5c92 a73d
000000c0: 5b77 b2bd 1e87 193b 586f 95ba d6f5 913d
000000d0: fcc3 0abd 0e96 633d 759c c73d 9687 da3d
000000e0: 2dad b0bb 0bd0 ff3d cdfb d4bd 6f7d c3bc
000000f0: 295a 553d 699b 8c3d 6c38 963d 12cd 43bd
0.024707986 0.09154799 0.045578267 -0.07642832 0.08679852 0.100396425 -0.01535468 -0.032565795
-0.10067319 -0.021155436 -0.03808024 0.013109801 0.032010887 0.0067054196 0.1321915 0.03022948
-0.04896363 -0.009765879 -0.044773493 -0.014479551 -0.09687074 0.022412708 -0.086874284 0.05605216
0.102375455 -0.11525541 -0.035965662 -0.11609336 0.048674677 0.011319391 -0.043198965 0.1273779
0.04592194 -0.12126345 0.023937654 -0.0071119075 0.004216939 0.13589565 0.011235989 -0.05723332
0.12281992 -0.08695522 -0.043325156 0.09213719 0.11142695 0.16385125 0.006373417 0.08182213
-0.087141715 0.0023426483 -0.0011400981 0.071269676 -0.03387831 0.055563025 0.09746639 0.10670392
-0.005391738 0.12490853 -0.1039959 -0.023863522 0.052087937 0.0686558 0.0733498 -0.047802992

gkf.gat_rnn.fc_r.0.weight f4 [64, 1]
00000000: 56f8 2a3f ea87 73bf 8609 2bbf 08cf 0abd
00000010: 9fb0 7abf 0009 77bf b316 61bf 5bd8 633f
00000020: 1e7d 923e 38ec 96be 9d13 5ebd 4218 61bf
00000030: 6a85 73bf 6af9 39bf c98c 79bf 6e90 353f
00000040: f65c b7be e3b5 86be 84ce 61bf 7fd0 4c3e
00000050: 32ad 3ebe e644 34bf 364c 2c3f 8cf4 603f
00000060: 3f12 3bbf 91b8 223f e2e5 32be eaef 703c
00000070: 6076 ea3e e9c6 18be f335 693f 527e 293f
00000080: 51ba 28bf 12af 1ebf f617 81bf 9ed0 b03e
00000090: 5398 45bf b0b0 59bf 65b0 25bf c68b 7ebf
000000a0: e4ee 54bf 70c5 733f bfd7 173f 0541 6e3f
000000b0: fd3f 00bf 970a d7be 35a6 aebe f0fe 773d
000000c0: 2875 3bbf 670b 443e 9839 1ebf bde1 543e
000000d0: 78fc 793f ad53 543e 4e0a 423f b208 3abf
000000e0: 51da efbd 8421 21bf b60f 11be e468 c3be
000000f0: 19e5 14bf f974 79bf c18a c0be e455 393e
0.6678518 -0.95129263 -0.66811407 -0.033888847 -0.9792575 -0.9649811 -0.8792526 0.8900201
0.28611082 -0.29477096 -0.054217923 -0.8792764 -0.9512545 -0.726462 -0.97480446 0.7092351
-0.3581311 -0.26310644 -0.8820574 0.2000141 -0.18620756 -0.7041763 0.6730379 0.8787315
-0.73074716 0.63562876 -0.17470506 0.0147056375 0.45793438 -0.14919628 0.91097945 0.66208375
-0.65909296 -0.61985886 -1.0085437 0.34534162 -0.77185553 -0.8503523 -0.6472228 -0.9943203
-0.8317702 0.9522314 0.5931358 0.9306796 -0.5009764 -0.42000267 -0.3411118 0.06054586
-0.7322564 0.19144975 -0.6180663 0.20789237 0.9765086 0.20735045 0.75796974 -0.7266952
-0.117115624 -0.62941766 -0.1416615 -0.38165963 -0.58162075 -0.9744411 -0.3760586 0.18099171

gkf.gat_rnn.fc_r.0.bias f4 [64]
00000000: da6f cdbd f4c3 61bf ddb5 523f 7449 563f
00000010: 31c2 14bf d087 253e 7e42 363f f428 5bbf
00000020: 1102 56bf 25ad 283f b8bc e03b 6a79 a93e
00000030: 9a59 b9be 0726 5e3e ad49 333f 6286 0ebe
00000040: 4bf7 c5be 2250 78bf fb2d 00be 0f5b 3d3f
00000050: 18ae 73bf 7813 74bd cdd9 4e3f 830a 81be
00000060: f7f7 96be 7ddf 7cbe 0ed2 d0be d611 653e
00000070: 9a04 60bf fe03 e93e 8021 23be 8343 a0bd
00000080: 39db 8fbd 332c 223f 7618 0ebf 63b3 58bf
00000090: be00 33bf db85 3ebf ed03 04bf 1a4c 5c3f
000000a0: 966d 39bf cc6c 03bf 7f94 51bf 8414 eebe
000000b0: cb4c b5bc d626 1cbf ffc7 f33b 87aa d53e
000000c0: b15a eabd 31fd 063f 537e 513e eb50 7f3f
000000d0: 3fcb b13d aeed 773f b0b9 513f 184c 143f
000000e0: e540 2a3f cb08 28bf 8568 27bf 9aa9 f53e
000000f0: fed3 da3e 4cd1 733f 8a87 00be 973c 1cbe
-0.100310996 -0.88189626 0.8230875 0.8370583 -0.5810881 0.1616509 0.7119521 -0.85609365
-0.83596903 0.658892 0.0068584345 0.33100444 -0.36201173 0.21694194 0.70034295 -0.1391845
-0.38665232 -0.9699727 -0.1251754 0.7396707 -0.9518752 -0.05958888 0.8080109 -0.25203332
-0.29486057 -0.24694629 -0.4078526 0.22370085 -0.8750702 0.45510858 -0.15930748 -0.07825377
-0.07024235 0.6334869 -0.55506074 -0.8464872 -0.6992301 -0.74423 -0.5156849 0.8605362
-0.7243284 -0.51337886 -0.8186721 -0.46500027 -0.022131344 -0.6099676 0.007439613 0.41731665
-0.11443079 0.5273009 0.20458345 0.99732846 0.08681344 0.96847045 0.8192396 0.5792861
0.6650527 -0.65638417 -0.6539386 0.47980958 0.42739862 0.95241237 -0.12551704 -0.15257488

gkf.gat_rnn.fc_r.2.weight f4 [64, 64]
00000000: 5e81 a83d 9392 c9bb 1492 e03d 6645 91bd
00000010: ae77 4bbd 6796 80bb ebdf 703d d4bf ccbd
00000020: 62ba d8ba a815 ab3d 045d 963c 80dd a23d
00000030: f0db 4bbd defe b3bd 5edc bebd 7611 95bd
00000040: cc59 d5bd 0d51 ee3c 4d19 d43c 6bcf b6bd
00000050: 5450 b53d 4252 e03c 2cba 1e3d 563c 62bd
00000060: 1297 a13d 4978 b0bd 87d5 943d 716e 96bd
00000070: 0234 943d 30c4 57bd 8e62 a03d f9de debd
00000080: 530f 06bd af27 2abd d3b8 aabd 764b 15bd
00000090: 4305 39bd 1f27 503b 7ce8 a13d 10c4 e8bc
000000a0: f277 e63d 305f 60bd 833f 53bd 2e81 88bb
000000b0: e5f1 ffbc ad2c df3c b5b2 da3d a5da 103d
000000c0: 9ea5 e5bd 2bb7 53bd d5ae 0abd eba1 fbbd
000000d0: ee8d 0a3d cd00 cd3d f432 5f3d c87d 29bc
000000e0: e729 88bc 929c 8dbd 6ad9 2cbd d7d9 d03d
000000f0: a2b4 93bd b141 473c df89 cabd 0299 abbc
00000100: c01b a83c 5b5b a7bd 6a31 853d ba1e 83bd
00000110: 0ce8 10bd aafa df3d 877f 143e b5ef 6fb9
00000120: 1c35 aebd ab40 88bd f1c7 56bc 3322 22bd
00000130: 9e35 ef3d ff04 86bd 07fe d13d c706 163d
00000140: b01b d4bc ea7e c83d 0edb b63d 4dc9 db3c
00000150: 47b5 c3bd 3bd4 86bc 15f1 773d 701e f83d
00000160: b929 cdbc 7511 23bd 683b f3bd e540 f43d
00000170: 4271 033e a085 fd3d bee1 67bd f977 d33d
00000180: 8feb 90bc 886f c23d 2035 b63d fef9 c3bd
00000190: 092a 333d c995 813d 08f3 7bbd 5060 133e
000001a0: 45ba e23d 2081 ed3d c426 fb3b cd6d 61bd
000001b0: 307a 42bd 4270 593d 813b 84bb 8f0e 0e3e
000001c0: 978f fe3d 5907 1b3d 6204 a1bd 0b0f b03d
000001d0: 5519 013e 69ad 5c3b 0e86 3bbd eb34 d7ba
000001e0: 1385 743d d3d6 a5bd 9ddb 803d e361 ad3d
000001f0: bcfb a7bc 5ab8 8abc 1087 27bd 1c89 d93d
00000200: 2c00 f83d 2997 d63c 14cf 893c bf42 da3d
00000210: 5956 ec3d a21a 353d 5ae9 41bd ec11 ae3d
00000220: 6a2c 1fbd 73f3 fe3c 1c00 b3bd 1300 963b
00000230: 4fe3 633b ecbc 8cbd c938 c13d 8319 253e
00000240: 4ae7 e6bd 7a87 8a3b 7fae afbd 99bf 3b3d
00000250: df5e a1bb 46c6 1dba f226 c73d 31bd 943b
00000260: dec9 ec3d fabe 52bc a88c 423b 282b be3d
00000270: b1c4 df3d 7261 5a3d 9c20 f93d 6cbf a33d
00000280: 17d9 a63d 2bb7 a43c 70af 153d 1d2a 103e
00000290: 9369 4bbd f8e6 70bd a573 aa3d cabe 823d
000002a0: 3ba8 01be b59f b13d 0465 b8bd a7f3 cfbc
000002b0: 1434 533d 8bef 553d 71b3 d3bc 5006 3a3e
000002c0: e288 fe3d fbda 2a3e b1b6 dbbd 79f9 e13c
000002d0: 40f9 663d a75c 323e f7aa 193d b73e 243d
000002e0: 58b6 fe3d b0b1 9abd 4a76 05be 2bbb 153e
000002f0: b41e 313c 07e3 da3d 754b fcbd 9a6d b138
00000300: 4f8c 5e3d 04c6 61bc 9139 073d 5d14 fcbd
00000310: 9302 f43d 7e10 89bd 4e44 5ebc a211 e7bd
00000320: be34 9cbd a235 f3bd 8eda e1bd 6459 febc
00000330: 6368 6dbd e778 b23d 4078 fabb 2660 833d
00000340: 9cf3 c4bc 4a08 db3c 0173 ee3d 11ac 03be
00000350: 7840 2abd 97e3 d23d a9b9 84bd a89c 88bd
00000360: 4346 f43b 8c7e cdbd b123 e43b c77d 94bd
00000370: 0ccb 4b3c 92ae 1cbd b8ed 99bd 5f80 a5bd
00000380: c674 e93c 7d9d 5f3d 1ace eebd f265 e5bd
00000390: 7259 f9bd 1c27 663d 63c0 bb3d fbae 02be
000003a0: dfe8 fa3c f6a8 e5bb 7c8a c7bd 6cb0 b2bb
000003b0: 6398 bc3d 15de f73d df93 4d3d d13b 53bd
000003c0: e1d7 98bd 1e56 aabd ca94 89bb c822 17bd
000003d0: 9568 6b3d c203 12be 9098 cbbc ec52 3fbd
000003e0: dbe0 6fbb 24a8 f23d 4366 093c 9965 fcbc
000003f0: 91cb 49bd a107 08be 5043 efbd cdb8 ac3c
0.082278 -0.006151506 0.10965362 -0.07093315 -0.049674682 -0.0039241794 0.058807295 -0.09997526
-0.0016535039 0.0835374 0.0183549 0.07952404 -0.049770296 -0.087888464 -0.093193755 -0.07278721
-0.10417518 0.029091382 0.02589097 -0.089262806 0.08853212 0.027382974 0.038751766 -0.055233322
0.078901425 -0.086166926 0.072672896 -0.07345284 0.07236482 -0.052677333 0.07831298 -0.108823724
-0.032729458 -0.04154175 -0.08336034 -0.03644892 -0.045171034 0.00317616 0.07905671 -0.028413802
0.112533465 -0.054778278 -0.05157424 -0.00416579 -0.031243274 0.027242983 0.10678617 0.035364766
-0.112132296 -0.051688354 -0.03385814 -0.12286743 0.03382676 0.10009918 0.054491952 -0.01034493
-0.016621543 -0.06914629 -0.04219953 0.101978 -0.07212187 0.012161658 -0.09889578 -0.020946983
0.020521045 -0.081717215 0.065035656 -0.06402345 -0.035377547 0.10936482 0.14501773 -0.00022882114
-0.085062236 -0.066529594 -0.013109193 -0.039583396 0.116801485 -0.06543922 0.1025353 0.036627557
-0.025892109 0.09789832 0.089285 0.026829386 -0.0955606 -0.016458621 0.060532648 0.121151805
-0.025044309 -0.03981157 -0.11876565 0.1192644 0.12836173 0.123790026 -0.05661177 0.10325617
-0.017690448 0.09493929 0.088968515 -0.095691666 0.04374126 0.063273974 -0.06151107 0.14392209
0.11070684 0.11596894 0.0076645333 -0.055036355 -0.04747981 0.053085573 -0.0040354137 0.13872741
0.12429731 0.037848804 -0.07862164 0.08596619 0.1260732 0.0033672696 -0.04578214 -0.0016418969
0.059697222 -0.08097615 0.06291888 0.08465936 -0.020505778 -0.016933609 -0.04090029 0.10621855
0.12109408 0.026195126 0.016822375 0.10657262 0.11539907 0.044214852 -0.047341682 0.08499512
-0.038860716 0.031121945 -0.08740255 0.0045776456 0.0034772938 -0.068719715 0.09434659 0.16123013
-0.11274584 0.004227576 -0.08578204 0.04583702 -0.0049246396 -0.000601862 0.09724225 0.004539155
0.115619406 -0.012862915 0.0029685888 0.09285575 0.10926188 0.053315587 0.12164423 0.07995495
0.08146875 0.020106873 0.036544263 0.14078565 -0.04966123 -0.05881402 0.08322839 0.063840464
-0.12661831 0.0867304 -0.09003642 -0.025384737 0.051563337 0.0522304 -0.0258424 0.1816647
0.12428452 0.16685097 -0.10728205 0.027584778 0.056390047 0.17418157 0.03751656 0.040098872
0.12437123 -0.075534225 -0.13033405 0.1462218 0.010810543 0.10687833 -0.1231908 8.4604326e-05
0.054333027 -0.013780121 0.033013884 -0.123085715 0.119145535 -0.06692599 -0.01356609 -0.1128266
-0.07627247 -0.11875464 -0.11028014 -0.031048484 -0.05796088 0.087144665 -0.0076437294 0.06414823
-0.024041943 0.026737351 0.11643029 -0.12858607 -0.04156539 0.102973156 -0.06480724 -0.06670505
0.007454665 -0.100339025 0.0069622626 -0.072505526 0.012438547 -0.03825242 -0.075160444 -0.080811255
0.028498065 0.054593552 -0.116604045 -0.11201085 -0.121752635 0.05618964 0.09167554 -0.12762062
0.03062862 -0.007008667 -0.09743211 -0.00545316 0.09208753 0.12102906 0.05018985 -0.051570717
-0.07463051 -0.08317207 -0.0041986452 -0.036898404 0.057472784 -0.14259246 -0.02485302 -0.04670994
-0.003660253 0.118484765 0.0083861975 -0.030810164 -0.0492664 -0.1328416 -0.11682761 0.021084214

gkf.gat_rnn.fc_r.2.bias f4 [64]
00000000: 89d0 ea3c 647c 0d3e 156d cf3d 7ce8 e43c
00000010: 317a b9bd 3cc6 4abd ec05 8dbb 9dfe 3abd
00000020: 188c 813a 72d9 a33c 7013 9b3d ba59 03bc
00000030: f9d2 283d d516 323c 51a5 e73c 8f50 9b3d
00000040: 3367 e7bc 3f9d eb3b 19f7 b53c 87d7 65bd
00000050: bfd3 fb3d 6551 29be f3f8 073e 455a b03d
00000060: 8b03 be3c 1c7d 2ebd 4653 803d 3d0d abbc
00000070: 6c5d 553d 6b21 193e d1c5 f23d e8dc d73c
00000080: 5004 1ebc 8788 0abc e47d fbbd e580 4cbd
00000090: ea69 c3bd 0436 a63d 4f3f bd3c a1dd ed3d
000000a0: 5989 0cbd 4938 1a3e 2e5f e63c eab8 0f3d
000000b0: 9504 e9bd c9e7 3e3e 2b3b 133d 341e fbbd
000000c0: 80ee a63c 0112 a03d 7b24 b6bd 85bf 923d
000000d0: 86fb 923d dc2f acbc c312 ff3d e5d0 963d
000000e0: 2c37 873d 6b9a 80bd 7118 623d 7e48 263d
000000f0: 76d6 6c3d 3a03 e1bc 1ddf 08bd 4e55 dd3d
0.02866389 0.13816983 0.101282276 0.027942888 -0.09056509 -0.049505457 -0.0043036845 -0.045652974
0.000988367 0.020001147 0.07572067 -0.008016998 0.041216824 0.010869701 0.028277071 0.07583725
-0.028247451 0.007190376 0.022212552 -0.056113746 0.12296247 -0.16534956 0.1327856 0.086109675
0.023195049 -0.042599782 0.06265883 -0.020880336 0.052091047 0.14954154 0.11854137 0.026350453
-0.009644583 -0.008455402 -0.12279871 -0.04992761 -0.09541686 0.081157714 0.023101477 0.11614538
-0.034310672 0.15060534 0.028121557 0.035088457 -0.11377827 0.18643107 0.0359451 -0.1226162
0.020377398 0.07815934 -0.08893677 0.07165436 0.071768805 -0.021018915 0.124547504 0.07364062
0.0660232 -0.06279453 0.05519909 0.040596478 0.057821713 -0.027467359 -0.033415902 0.10807286

gkf.gat_rnn.r_input_gru.weight_ih_l0 f4 [192, 64]
00000000: 49f7 14be 1fa0 18bd 0a71 55bd 64ac 593d
00000010: ce4a 743c ad2d aebd a1a3 f03d 2948 56bd
00000020: 7586 22bd abe9 2d3d ed44 8ebd 8d4a e93c
00000030: d23f 23bd 949d 87bd e89a 9ebd 067f 083d
00000040: 9dea 1abd b307 0fbe 5ea5 b53d 504d 4b3d
00000050: 5ab9 163c 518c 133d 1d5f 9d3d 76cf 2bbd
00000060: 84ce eebd 969c febd d463 393c c525 fe3c
00000070: 93a0 623c 073a 9abd af20 87bd 117a 84bd
00000080: 5d90 ac3d 0cf7 3a3c 92ce f9bd 3c74 d2bd
00000090: 9e14 d53d ff36 c93c ad27 263e 4adf 1bbe
000000a0: 07ba afbd 6bf9 c0bd 3904 c93d f966 943d
000000b0: 6424 833d be8e 713d 17b1 cf3d 8ab2 c7bd
000000c0: 423e 0d3e c6ae b9bd 521d 833d b435 6f3d
000000d0: 7db5 04be 7c2a 18bd 3241 78bd 19a8 c93d
000000e0: fc53 c83d 0858 163d 51ce f7bc ca15 cf3c
000000f0: bc2c 753d 4c42 75bd 3790 be3d 51c8 953b
00000100: 9cc7 7f3d 41a6 ad3d 5bbd f33d 8a66 0abe
00000110: dd27 c13d fdf6 88bd cc4b 213c 4511 0f3e
00000120: 3dd9 81bd 9ab6 5dbd d53d d7bc 8ccb 4e3d
00000130: 83b1 68bd fcb7 7cbd 3124 473d f7d3 f8ba
00000140: e983 c8bc 0042 cd3c 6242 a63d 3f14 703d
00000150: bcbc 44bd b115 d53c b494 6d3d 86b0 f3bc
00000160: ff62 9c3d 7a7a 763d b1ef bd3d 1606 043e
00000170: e59f 153d 0b1f 0d3e beb1 2e3d 6a2d 153e
00000180: 3587 643d a2e9 c53d 9f2c bf3d 743a f2bd
00000190: 792b 143e 85a3 0d3d 77ac af3d d0ed 75bd
000001a0: 4237 31bc 69d3 0f3e 019b 0bbd 0055 613d
000001b0: 8bc1 123e 6071 a5bd 8ad0 063d 82fb 65bc
000001c0: ee61 ea3d 104b bcbb 8028 21be 3c08 f9bd
000001d0: 3573 8d3d 625b 8abd 8708 b1bd 0442 0d3d
000001e0: 4602 ac3d 8801 27bd ae82 7cbc 173b e33d
000001f0: df3f 68bd 759a 8ebd 0a59 97bc 0968 083e
00000200: bad3 44bc 24eb 84bd 4d88 90bd ddbe 57bd
00000210: f024 db3d a99b 813d 1b83 d6bc 461f b5bd
00000220: 86a4 45bd 2b60 4e3d 6aa0 e43d df0d 833d
00000230: d98e bcbc 743f c83d 4558 223d eedf 513d
00000240: c38a 8a3d 3e50 9e3b be16 633d f83f 013d
00000250: fdef 833d ef83 d8bc e170 f63d d1cd b2bd
00000260: 95bd 823d 43ba 96bd 2940 3cbd 80cb 51bd
00000270: b144 933c 21a6 213c f206 debd 7e40 ac3d
00000280: 3ca0 513d d12f 133e 3585 55bd c201 eebd
00000290: 6407 453d c0c6 e63d 97f0 cf3d 9d6e ab3d
000002a0: 705e 253d 7199 c23d cc36 0bbd 1508 dcbd
000002b0: 16c7 8ebd 5bda 3abd d4e8 2c3d c168 c23d
000002c0: ef92 1e3d 4208 5bbd 4fd8 8f3c e25b c33d
000002d0: 2b25 223d 6798 bd3c 5295 69bc c6eb 2c3c
000002e0: 8872 873d 36e6 6dbc ac77 6cbc af2b aa3d
000002f0: ff4d 06bc 6dcf 25bd 99db 2d3d 4ec2 053e
00000300: ac97 3bbb ddb6 013d c856 8dbd 5f1e 753d
00000310: 7159 263d 93f3 87bc 547b d1bd 265f bbbc
00000320: e70d 62bd 95a5 673d d18c d13d ae66 443c
00000330: 4146 5e3d 0dd3 003c b510 fcbc 44f0 aabd
00000340: 47e0 80bd 8899 e73d 285b eb3d 544a 153e
00000350: 9215 4d3c 6fc7 2f3c ffcf e03b 0d91 073e
00000360: 823d eebd 8e73 ddbb ce20 babd 4e3e 463d
00000370: 00b6 80bd 7bf0 7bbd 46de 833d b71b 213e
00000380: 0378 0e3e 1344 f33d 6b6f 4ebb d7e4 ffbc
00000390: 5aa8 bdbd 2bbe cb3d 85b3 8a3d 12dd 0a3e
000003a0: d02a cdbd 24f1 c0bc 23c6 31bd b4c3 93bd
000003b0: 4eab 23bd 8c46 943d f515 da3d 33f4 1f3d
000003c0: 3c37 fabc 6448 b63d 1dee d33d d222 69bc
000003d0: ae6e bebc 4446 89bd f82b de3d 2903 76bb
000003e0: fb25 34bd 0798 d33d 6aa0 3d3d 0e0a 79bc
000003f0: f1ce c9bd adc5 0d3d d592 d8bc f129 9a3b
-0.14547457 -0.03726208 -0.052109756 0.05314292 0.014910413 -0.08504806 0.1174996 -0.05231491
-0.03967901 0.04245917 -0.0694674 0.028477931 -0.039855786 -0.066218525 -0.0774439 0.033324264
-0.0378214 -0.13967781 0.08869432 0.049634278 0.009199465 0.036022488 0.07684157 -0.041945897
-0.116604835 -0.1243221 0.011315305 0.03102387 0.013832229 -0.07530599 -0.06598031 -0.06468595
0.084259726 0.01141144 -0.12197603 -0.10276076 0.10404323 0.024562357 0.16226073 -0.15221897
-0.08580404 -0.09422573 0.098152585 0.07246203 0.06403425 0.05897402 0.10141199 -0.097508505
0.1379328 -0.090665385 0.06402077 0.058400825 -0.12959857 -0.03714989 -0.06060905 0.09846515
0.09781644 0.036705047 -0.030249747 0.025278945 0.059857115 -0.05987768 0.093048505 0.0045709987
0.06244622 0.08478976 0.11901351 -0.13515678 0.094314314 -0.06687734 0.009844732 0.13971432
-0.06340263 -0.05412922 -0.026274601 0.050487086 -0.056809913 -0.0616989 0.0486185 -0.0018984069
-0.024476962 0.025055885 0.0811813 0.05861306 -0.048031554 0.02601132 0.058003142 -0.029747259
0.076360695 0.060175397 0.09274233 0.12892947 0.03652944 0.13781373 0.042649977 0.14568105
0.055793006 0.096637025 0.09334683 -0.11827555 0.14469709 0.034579773 0.08577817 -0.06004125
-0.010816397 0.1404549 -0.03408337 0.055012703 0.14331643 -0.08078265 0.032913722 -0.014037015
0.1144446 -0.005746253 -0.15738106 -0.12159774 0.069067396 -0.06755711 -0.086442046 0.034486786
0.08398871 -0.040772945 -0.015412016 0.11095255 -0.056701537 -0.06963054 -0.018475074 0.13320936
-0.01201337 -0.06490162 -0.07057247 -0.052672256 0.10700405 0.06328518 -0.026185563 -0.088438556
-0.048252605 0.05038468 0.11163409 0.0639913 -0.023017334 0.09777728 0.03963496 0.051238947
0.06764748 0.004831343 0.05544161 0.031555146 0.064422585 -0.026430098 0.12033249 -0.087306626
0.06383816 -0.07359745 -0.045959625 -0.051219463 0.01797709 0.009866268 -0.108411685 0.084107384
0.051178202 0.1437371 -0.05212899 -0.11621429 0.04810275 0.11268377 0.10153311 0.08370707
0.040373266 0.09501923 -0.033987805 -0.10743729 -0.069715664 -0.045618396 0.04221423 0.094926365
0.038714346 -0.053474672 0.017559199 0.0953901 0.039586227 0.02314396 -0.014256792 0.01055426
0.06613642 -0.014520219 -0.014432829 0.08309113 -0.008197307 -0.04048102 0.042445753 0.13062403
-0.002862434 0.031668533 -0.06901318 0.059843417 0.04061264 -0.016595637 -0.10228601 -0.022872519
-0.05518904 0.056554396 0.10231937 0.011987371 0.054266218 0.007862818 -0.030769685 -0.08346608
-0.062927775 0.11308581 0.11491996 0.14579135 0.01251735 0.010728701 0.0068607326 0.13238926
-0.116328254 -0.00675816 -0.09088288 0.048399262 -0.06284714 -0.061508637 0.0643888 0.15733229
0.13912968 0.118782185 -0.0031499516 -0.031237049 -0.09260626 0.09948381 0.06772522 0.13560894
-0.100179315 -0.023552485 -0.04340185 -0.07215062 -0.03995829 0.07240018 0.10648719 0.039051246
-0.030543916 0.08900526 0.10348151 -0.014229493 -0.023246136 -0.06702855 0.1084823 -0.0037538505
-0.043981533 0.10331731 0.04629556 -0.015200151 -0.09853924 0.034612346 -0.026437202 0.004704707

gkf.gat_rnn.r_input_gru.weight_hh_l0 f4 [192, 64]
00000000: a802 c03c 7a14 d5bd 52ff c1bd e716 3b3c
00000010: 68e7 d4bd ccc0 783d 105e 303e 3bab e4bd
00000020: 0742 b2bc 5eb7 11be aa1e 753c 2154 5d3d
00000030: b5a6 04be b561 c7bc 68ae 81bd 661b 013e
00000040: 2231 843d fba6 d5bd eb32 423d 9117 81bd
00000050: 90b0 243e 27d2 cb3d 7e8b afbd 4cb1 3b3d
00000060: 8986 3c3d 162e ffbc 5a5a d9bd b2f1 333d
00000070: c123 03be 6aa2 ae3d 3167 9abd 15df ed3d
00000080: 7041 543c 6842 c63d 71e4 82bc 0d2e f83c
00000090: 090e 3c3d 060b 44bd 73bc 2ebd 3c2a 293d
000000a0: 728a da3d abaa 793b 8f22 a9bd d0ae ec3c
000000b0: 90c3 0cbd 39fd 86bd 2e04 be3d 91d1 113e
000000c0: c551 533d b9fc acbd 2621 c13d dec4 8c3d
000000d0: 20d5 8d3d 1749 213e 380c 0bbc 7239 62bd
000000e0: 3218 813b 4623 3f3d 9845 133a d979 483c
000000f0: dec4 ccbd a71b 24be 1c52 f5bd 8e95 1a3e
00000100: 0813 aebc 8387 fbbd 64b0 d33d e7ba f4bd
00000110: eb27 d83c 9606 e53d 6341 46bd 70d9 063c
00000120: 0be6 0e3e 33fa ba3d 1f40 bf3d 1bd7 20bc
00000130: dcb3 3d3d e35d 913d 1174 b83b 6b23 ed3d
00000140: dca1 3f3d cbc1 7b3d bce1 bfbd 85d5 223d
00000150: f54a 06be 46b3 853c 4e0d 983c 854d b33d
00000160: bed9 8b3d 606f 69bd 3cb9 853d 200a fbbd
00000170: 4dfb c53d 0c77 b43d a26f 22bc 8c5a 303d
00000180: 1b03 993d 56d9 dabd be9a a83d 69b0 2f3d
00000190: 3688 dd3d 6adc 003b 20ce 9cbc 785c ff3c
000001a0: ca72 de3d 9f9a babd 349b 713d af37 8f3d
000001b0: 35a0 4ebb 36ef b2bd c875 b43d 0d59 b43d
000001c0: 8c1a e9bc 0fb5 183d 93b9 08bd 2a75 56bd
000001d0: d8bb 1e3e 809e 463d 4309 9b3c 4dfd 8e3d
000001e0: 9210 9a3d 200a 8b3d dcbd 833d e181 b6bd
000001f0: d220 20bd 8d24 c63d 5d3d 0f3d 7710 893c
00000200: 7e47 31bd 7e65 afbd f194 0abe 492f c03d
00000210: ffdf b5bd ba42 5d3d 8348 38be 19c0 7dbd
00000220: 7f42 893d c50b 543d 1d18 a83b 3100 9abd
00000230: e316 213d 4457 45bd 19eb f8bd 103a 05bc
00000240: 64fc 653c b467 1bbd 4d83 98bd ff16 5c3c
00000250: 2b2f 6bbc c748 103e 778f 5cbc d8e7 1d3d
00000260: 8946 283e 0547 5bbd 49d3 483d 2928 aebc
00000270: 3328 8a3d 9b07 3dbd 5d9d 173c f776 a1bd
00000280: a735 a23d 22ef 4cbd 1eb8 023e bff1 01be
00000290: dad5 953d 3545 fabc 2761 a33d 5a67 c5bd
000002a0: 9a96 193e e92f 7f3e fcdc 013c 6fff 1b3e
000002b0: 58d1 153e 9a04 21bd 2fba e53d d2b2 493d
000002c0: 8c7c 4b3d c6a1 05be 9010 b8bd 2bf4 dcbd
000002d0: 783d 19be 3bb6 28bd 2dce bdbd 3a32 9a3d
000002e0: abbe 17bd 53aa c83d 106e 843c 0a7c f9bd
000002f0: 1768 a63d 66e3 03be 54a0 dbbd 8083 173e
00000300: e90a 8e3d c041 103d 8734 15be 914f 063e
00000310: bc46 e9bd 1320 b33c c9e9 9abd a74a 073d
00000320: 16e7 9abd 5061 a0bd 2817 fabd 554f dabd
00000330: edc8 a5bd a5fd 533d 0c75 9abd d933 a9bc
00000340: 22b2 813b 57bf 7d3d a882 e138 c453 eb3d
00000350: b150 23bd 0142 f43d 553e 02be 07e2 78bd
00000360: 56ff 92bc 0d28 903c d8b3 72bd 2291 af3d
00000370: 8136 fcbd c53f 77bc 31c0 f3bd 4f50 2ebd
00000380: 53e4 32bc 27b4 f5bb e0c7 ce3c 0406 b4bc
00000390: afc2 413b 24a3 d8bd c7e5 22bd e88c 983d
000003a0: c8d7 df3d 662a 78bd 9fca f1bd 818e 9ebd
000003b0: ed9d a93d d37d 07be 8ac0 de3d 6bf6 8c3d
000003c0: 9356 363d 88af 9ebd 219f 203d 18b8 9fbd
000003d0: 9831 31bd 38e3 dc3d 385f a6bd 94cf d3ba
000003e0: fecb d4bb e048 553d bd12 2cbd 3af6 f0bd
000003f0: b932 5fbd 7a86 193d 0e29 fabd 053f eabd
0.023438767 -0.10404296 -0.094725266 0.011419035 -0.103957 0.06073074 0.17223382 -0.11165472
-0.02176 -0.14230105 0.014960924 0.05403531 -0.12954219 -0.024338583 -0.063320935 0.12608108
0.06454684 -0.104322396 0.04741184 -0.06303323 0.16082978 0.09952193 -0.08571528 0.04582338
0.04602674 -0.031149905 -0.10612936 0.04393167 -0.12806608 0.08527072 -0.075392134 0.11614815
0.012955055 0.09680635 -0.01597807 0.030295396 0.045911822 -0.047862075 -0.042660188 0.041300043
0.106709376 0.003809611 -0.08258545 0.02889195 -0.03436619 -0.06591267 0.09278141 0.142401
0.051591653 -0.084466405 0.09430151 0.06873487 0.06925416 0.15750538 -0.0084868 -0.055230565
0.003939652 0.0466645 0.0005617975 0.012236082 -0.09998487 -0.16026174 -0.11978552 0.15096113
-0.02124931 -0.12281706 0.10336378 -0.11949711 0.026386222 0.11182897 -0.0484022 0.008230552
0.13954942 0.09129753 0.09338402 -0.00981691 0.046314105 0.070979856 0.0056290706 0.11579021
0.04678522 0.061464112 -0.09369227 0.03975441 -0.13114531 0.016320836 0.018561032 0.0875502
0.068286404 -0.05699098 0.06529471 -0.122577906 0.096670724 0.08811769 -0.009914311 0.043055102
0.074712954 -0.10685985 0.0823264 0.042892847 0.10816996 0.0019662627 -0.019141257 0.031172022
0.10861738 -0.09111523 0.058985904 0.06993043 -0.0031528596 -0.08737032 0.088115275 0.088060476
-0.028455041 0.037282046 -0.033380102 -0.05235783 0.15501344 0.048491 0.018925315 0.06981907
0.07522692 0.067890406 0.06432697 -0.08911491 -0.0390938 0.0967494 0.03497063 0.016731484
-0.04328107 -0.0856428 -0.13533379 0.09384019 -0.088806145 0.054018714 -0.17996411 -0.061950777
0.06702136 0.051769037 0.0051298277 -0.07519568 0.039328467 -0.048178926 -0.12154216 -0.008131519
0.014037225 -0.037940696 -0.07446919 0.013433217 -0.014354507 0.14090262 -0.013461939 0.03855118
0.16433157 -0.053534526 0.049029622 -0.021259384 0.06745949 -0.04614983 0.009253827 -0.07884019
0.079203896 -0.050032742 0.12765548 -0.12689875 0.073161796 -0.030550579 0.07977515 -0.09638853
0.14998856 0.2492062 0.007926222 0.15234159 0.1463064 -0.03931103 0.11217152 0.049242802
0.049679324 -0.13049993 -0.08987534 -0.10788759 -0.14964855 -0.041189414 -0.092678405 0.07529111
-0.03704707 0.09798112 0.016165763 -0.12181862 0.08125322 -0.12879714 -0.107239395 0.14796257
0.06935675 0.035218954 -0.14570819 0.1311629 -0.11390445 0.02186588 -0.07564122 0.03303018
-0.075636074 -0.07831061 -0.12211448 -0.10659663 -0.08094964 0.051755566 -0.07541856 -0.020654606
0.0039580027 0.061950054 0.00010753173 0.114905864 -0.039871875 0.11926652 -0.1271909 -0.06076243
-0.01794402 0.017597223 -0.059253544 0.08572604 -0.12315083 -0.015090887 -0.11901892 -0.042557057
-0.010918695 -0.0074982825 0.025241792 -0.021975525 0.0029565503 -0.105779916 -0.039769914 0.07448751
0.10929829 -0.06058731 -0.11806225 -0.07742024 0.08282075 -0.13231592 0.10876568 0.06882938
0.044516157 -0.07748324 0.039214257 -0.07798785 -0.043260187 0.10785526 -0.0812363 -0.0016159886
-0.0064940443 0.052071452 -0.042010058 -0.11765714 -0.054491732 0.037481762 -0.12214862 -0.11437801

gkf.gat_rnn.r_input_gru.bias_ih_l0 f4 [192]
00000000: 3a8b 013e cc2d 0cbd e44f 1bbd a8ea d43d
00000010: a4a9 89bc 849c 053e 0bc4 9ebc bae3 be3d
00000020: 0888 363d d86c 8d3d da7f f9bd fecd 963a
00000030: ea65 06bc 0443 65bd a674 de3d 03fa 003e
00000040: 128b 023e d684 d03d 801e 96bc 6632 41bd
00000050: 71b1 9f3d f079 d53d efa7 3abd a141 cc3d
00000060: 61bc 07bd 0406 bebc 457c f43d 9c49 ba3d
00000070: 60e5 f4bd 2c74 c13d ea8e f83d 713b 333d
00000080: 54d6 903d 4185 893d 40c9 603c daa4 e53d
00000090: 8a91 66bd 2c9f bcbc 7db4 10bd cbd0 963d
000000a0: 92fb 8dbd 4faa b03d cd1f 2dbd 55b4 0c3e
000000b0: 6a8c 9b3c f40c 83bc f0a8 233d 3bcb dc3c
000000c0: c48f 983d a0da 013e 3907 19bc 7ca3 70bd
000000d0: fbf6 a73d af86 d2bd 6b9d e43c 92ad b73d
000000e0: cebb fc3d 9ae6 e63d 7e35 a0bc 1863 84bd
000000f0: f082 98bc 5ff3 a2bd 2c34 973c 05c7 d03d
00000100: 28b8 9ebc 4ad7 00be 73e9 6a3d 8c12 8fbd
00000110: e617 1cbe e9ae 2cbe 0e7a 84bd 13f2 05be
00000120: b58b d2bd ee80 9c3d 36c9 0dbd f41a 46bc
00000130: b15d 03bd 14d9 a43d 3544 cebd 0254 3abd
00000140: 3af5 11be daa0 9bbd 6e24 74bd fd26 09be
00000150: 3644 3bbd 1694 18be 9bbe 873c b0c0 62bd
00000160: be80 5e3c 1b8c c7bd 4ff6 26bd 263a bbbd
00000170: 35e2 0ebe 218c 403d d161 1abd 2345 753d
00000180: edbb 0dbd a4a8 9fbd ed9b ac3d 8868 d9bd
00000190: dd0c c43b 821f 5ebd 32f8 01be 6988 71bd
000001a0: bce4 cbbd a531 99bd 257e c53d bb6a a5bd
000001b0: 61c5 b4bd e12d 36be 83d4 9f3d ba9b 81bd
000001c0: 7d61 883d e90f 8e3d a83f 78bd 56bf d7bc
000001d0: 799d 303d 1e54 803d 11e2 3abd 08a7 72bd
000001e0: 452c a23d 44ab 213c 7261 a4bd 5601 263d
000001f0: 03db 07be 7585 633c 4540 083d e1e4 07be
00000200: 6c20 0fbd a361 913d 4818 ddbb d44a 04be
00000210: b85a 1f3d ec36 053d c8a6 e9bd 492c 9a3d
00000220: b11b 0fbe 7810 223d 20df b8bc 8086 1cbe
00000230: 59b8 973d a489 c23d 6ecd b0bd 8140 b6bd
00000240: f18f fabd 6f01 88bd 1002 ffba cc6c 003e
00000250: b722 a33d cc71 36bd fe50 32bc a508 123d
00000260: 7b4e 45ba ef68 edbd df10 9dbc 764d b23a
00000270: 4982 00be d90a 8dbd c144 fd3d 10ae 3d3d
00000280: 2628 a5bc df56 de3c 4dfc 223d a694 9c3c
00000290: 542a d33d 1669 0dbd 99b8 1dbd d601 923d
000002a0: f419 01bd 50d5 033e c715 21bc 903b 163d
000002b0: 943c 44bd 3145 0cbe 0df6 3bbd 3967 0c3c
000002c0: 62f3 a4bd 7703 e2bc e874 4ebb d833 cbbc
000002d0: 8a72 05be df7c 823c e50b 02bd 3ff2 6a3c
000002e0: 52a3 ccbd ca81 d03d 8ac1 a4bc 66c2 fd3d
000002f0: d273 003e 1e44 a43c 9228 923d 26e1 e93d
0.12650767 -0.034223363 -0.037917987 0.1039632 -0.016804524 0.13047987 -0.01938059 0.09320779
0.044563323 0.06905526 -0.12182589 0.0011505482 -0.008203009 -0.055972114 0.10862093 0.12595372
0.12748364 0.101815864 -0.01832509 -0.047167204 0.07797516 0.10423648 -0.04557031 0.09973455
-0.033138636 -0.023196228 0.11937765 0.09096071 -0.11957812 0.09445986 0.12136634 0.04375786
0.0707213 0.06714869 0.013719857 0.112130836 -0.05629114 -0.023025118 -0.035328377 0.07364043
-0.06932749 0.08626234 -0.042266656 0.13740666 0.018987853 -0.015997387 0.039956033 0.026952377
0.07449296 0.12681055 -0.009340101 -0.05874966 0.08201405 -0.10279595 0.027907094 0.08968653
0.123405084 0.112744525 -0.019556757 -0.06464213 -0.018617123 -0.079565756 0.018457495 0.1019421
-0.019374922 -0.12582126 0.05735154 -0.069859594 -0.15243492 -0.16863598 -0.064685926 -0.13080625
-0.10280553 0.07641779 -0.034615718 -0.012091387 -0.032071773 0.08049217 -0.10071603 -0.045490272
-0.14253703 -0.075990394 -0.059605055 -0.13393779 -0.045719348 -0.1490024 0.01657038 -0.055359542
0.013580499 -0.0974352 -0.040762242 -0.0914195 -0.13953479 0.047008637 -0.03769094 0.059880387
-0.034603048 -0.077958375 0.08428178 -0.10615641 0.0059829787 -0.054229267 -0.12692335 -0.05896798
-0.09955737 -0.07480172 0.09643201 -0.08076998 -0.088267095 -0.17790939 0.07804205 -0.063285306
0.066592194 0.06936628 -0.060607582 -0.026336353 0.043118928 0.06266044 -0.04562575 -0.059241325
0.079186 0.009867493 -0.08026399 0.040528618 -0.1326714 0.013886799 0.033264417 -0.13270904
-0.03494303 0.07098701 -0.0067472793 -0.1291917 0.038904876 0.03252308 -0.11408764 0.07527978
-0.13975407 0.039566487 -0.022567332 -0.15285683 0.074082084 0.09498909 -0.086329326 -0.08899022
-0.12234486 -0.066408984 -0.0019455571 0.12541503 0.07965606 -0.04454212 -0.010883568 0.035652775
-0.0007526648 -0.1159228 -0.019173084 0.0013603407 -0.125497 -0.06886835 0.123666294 0.046308577
-0.020160746 0.027141033 0.039791394 0.01911385 0.10310808 -0.034524046 -0.038506124 0.071292564
-0.03151889 0.12874341 -0.009831852 0.036677897 -0.047909334 -0.1369827 -0.04588895 0.008569532
-0.08054234 -0.027589543 -0.0031502787 -0.024804994 -0.13031974 0.015928684 -0.031749625 0.0143399825
-0.099920884 0.10181005 -0.020111818 0.12390594 0.12544182 0.020052012 0.071366444 0.11419897

gkf.gat_rnn.r_input_gru.bias_hh_l0 f4 [192]
00000000: 4f26 c4bd f796 5fbd 4d53 853d 23fc 87bb
00000010: a666 59bd 7967 bcbd 4add 8a3d 741d 013e
00000020: 1922 acbc 193f c43d 17d7 543d 96bb c73c
00000030: 5631 8bbd 9e14 b93d 60d0 be3d 97be 19bd
00000040: 562d c93d 9296 d13d 7fc0 50bd 66a1 b5bd
00000050: cb65 393d 4ab0 a03d 3365 38bc 9ddd 033e
00000060: 62b2 413c dbb4 433c 68d2 d53d 3056 30bd
00000070: e84b aa3d 48c1 303d edd1 693d 911b e239
00000080: 0782 5a3c 4b7c 7e3d 4423 92bd 12b5 a1bc
00000090: ce71 323d 642c 26bd dd5b 5ebd e3c9 9ebd
000000a0: 9160 83bc 0cfa 193e 75c1 5dbd 44c9 ad3d
000000b0: fc04 083e 968b 763d 76f9 eebb 8261 45bd
000000c0: e3c0 003e 534d ac3d f5ae b3bd 7eb2 93bd
000000d0: ffce 04ba 967f ac3a 004f 7cbd 7cde 753d
000000e0: ee08 9d3d 32ee 9ebd 1fbc 19bd fa82 a93d
000000f0: 74cc dfbd 70d7 873d 6c64 093d db99 b0bd
00000100: 1878 c1bd c1c1 ba3d 75c1 08ba abef f7bc
00000110: 9cf9 42be 7e1f a3bd 8d32 1bbe ef03 3e3c
00000120: a31a 15be d749 54bd ae26 dd3c 320a 8cbd
00000130: 6948 a93c 5baa 8d3c 52ee 06bd 4dd7 5fbd
00000140: 286e 143d 36bd c63c f135 4bbc 9e24 c83c
00000150: 69a6 afba e5c1 b63c a15c 4cba ed16 b1bd
00000160: eff1 acbd ed87 bbbd fe97 d9bc f09f 2bbe
00000170: 2170 5f3d d17c 1f3d 4d79 a0bd 669b ecbd
00000180: 03bd 0bbc 212c 96bd c311 353d 6235 943d
00000190: ef9e 5d3d dd29 77bd f710 d43d 94e5 1abc
000001a0: 5ed3 5d3d b703 df3c 74e4 d43c cb35 babb
000001b0: ec38 99bd d804 613d bd64 8f3d 3a0b d9bd
000001c0: fbb2 02be e905 a63d 78ec 383d 2266 a7bd
000001d0: 9cbe 12be 016c 83bd 6b3d 7d3c 4021 c83d
000001e0: cda3 0e3c 8009 5cbd 1187 cd3d 2ec1 e63c
000001f0: 06cb 6d3c 7892 2dbd 564c da3d bfe6 10bd
00000200: 1633 4cbb 5a99 863d 71a4 c2bd 7b25 04be
00000210: 0c48 e63d ef69 723d 8bf9 0fbd 9322 d8bd
00000220: 3063 883d d37c a73c 1822 8a3d 6705 f0bd
00000230: 94eb eabc 76ec ff3c a022 08bd ab17 493c
00000240: 2cf6 19be 1837 f1bc dbd5 d0bd a433 133e
00000250: c7fd 543d d7d6 f83c 19f4 cf3d fd11 fd3d
00000260: bd02 333e be96 983d 810e cfbc 286e 2e3d
00000270: 7608 593c a9c6 8a3d 8236 e5bd cd33 57bd
00000280: 11e1 febd 639e 233e 703d a83d 2196 c43d
00000290: 0a1a 033d 36d0 dbbb cff9 09bd 6694 ef3d
000002a0: f687 e23d 64d5 943d 96ff 04be 0f13 ec3d
000002b0: 11d4 50bd fcbe 84bd 77e8 f73d 50a7 51bd
000002c0: d935 b93d 0f14 563d 77ad 44bd 9ba9 27be
000002d0: ab0c 3ebd 65d6 27bd cc9d 13be 4e3a 043e
000002e0: 1aa5 dfbd e88c 38bd d307 8a3d ecf6 70bd
000002f0: b59b e0bc 8408 0fbe a38e 8fbc 5c2c cbbd
-0.09577619 -0.05458733 0.06510029 -0.00414993 -0.05307641 -0.09199423 0.06780489 0.12608892
-0.021012353 0.095823474 0.05196294 0.02438144 -0.067965195 0.090371355 0.09317088 -0.037535276
0.098231 0.10233797 -0.05096483 -0.08868675 0.045263093 0.078461245 -0.0112545965 0.12877508
0.011822315 0.011944975 0.104405224 -0.043050945 0.08315259 0.043153077 0.057084966 0.00043126618
0.013336665 0.062130254 -0.07135633 -0.019739661 0.043565564 -0.040569678 -0.054286826 -0.077533506
-0.016037257 0.15036792 -0.054139573 0.08485654 0.13283151 0.060191713 -0.0072929217 -0.048188694
0.1257358 0.08413186 -0.08773605 -0.07211779 -0.0005066245 0.0013160582 -0.061598778 0.06002663
0.07667719 -0.07760276 -0.037532922 0.08276935 -0.10927668 0.06632888 0.033543035 -0.086230956
-0.09446734 0.09118987 -0.00052168156 -0.03026565 -0.19040531 -0.07964991 -0.15156002 0.0115976175
-0.14560942 -0.05182823 0.026995983 -0.06837882 0.02066441 0.017293146 -0.032942124 -0.054648686
0.036237866 0.024260145 -0.012402997 0.024431523 -0.0013401035 0.022309253 -0.0007795785 -0.08646951
-0.08444583 -0.09156785 -0.026561733 -0.1676023 0.054550294 0.038937394 -0.07835636 -0.115530774
-0.008528951 -0.07332636 0.044206392 0.072367445 0.05410665 -0.06034266 0.10354798 -0.00945415
0.054156654 0.027223451 0.025987841 -0.005682682 -0.0748156 0.05493626 0.07001636 -0.105978444
-0.12763588 0.08106596 0.04514739 -0.08173777 -0.14330524 -0.064170845 0.015456538 0.09771967
0.008706045 -0.053719997 0.100355275 0.028168287 0.014513737 -0.04237601 0.10659091 -0.035376307
-0.003115838 0.06572218 -0.09504021 -0.12904923 0.112442106 0.059183057 -0.035150092 -0.105534695
0.066595435 0.020445263 0.06744784 -0.117197804 -0.028676786 0.031240683 -0.033236146 0.012273709
-0.15035313 -0.029445216 -0.1019704 0.14375168 0.051999833 0.030375881 0.1015398 0.123569466
0.17481513 0.07450627 -0.02527547 0.042585522 0.013246646 0.06776173 -0.11192037 -0.052539635
-0.12445272 0.15978388 0.08214843 0.09598947 0.032007255 -0.0067081703 -0.0336855 0.11698227
0.11061089 0.072672635 -0.12988123 0.11527073 -0.050983492 -0.0648174 0.12104886 -0.051184952
0.09043474 0.052265223 -0.04801699 -0.16373293 -0.0463988 -0.040975947 -0.14415663 0.12912866
-0.109201625 -0.045056254 0.067397736 -0.058829233 -0.027417997 -0.13968092 -0.01752407 -0.0992057

gkf.gat_rnn.gcn_nodes.bias f4 [64]
00000000: 9671 e43d 42d2 f23d 8f4e 943d 3225 e0bd
00000010: 753a 0bbe c302 47bd 6e8a c83d b266 323e
00000020: f05b fcbd 313b 76bd 152f be3d b4f7 793d
00000030: 368b 07be f084 923c bd25 e2bd e5d5 ecbd
00000040: 80a3 80bb 1e28 00be 0d0a 303e 9e11 46be
00000050: 70b0 0b3e 4897 1abe e261 00be 00a9 1a3d
00000060: 29c3 d23d 7b17 2b3d c3ba 283c ef63 6f3d
00000070: 782f 09be f6ba f8bc 5b98 1bbe 09b8 0fbe
00000080: 31df 013d ca66 d1bd 57f7 c13d 234a a5bd
00000090: 3a70 dd3d ba58 9f3d 0aea 493e 51fa 983d
000000a0: 11ae 0d3e f775 10be ad35 583e 3523 3dbe
000000b0: 9fdb f1bc 2e99 0a3e 9548 243e 11e6 f23d
000000c0: 453f a3bd af80 1fbe a651 333e 0819 de3d
000000d0: 83b1 173e c7b9 e7bd 0192 d0bd 75ae 0a3e
000000e0: 0dda 43be c863 803d 0f04 0bbe e973 a5bd
000000f0: ccd9 d23d 1c23 1ebe 5084 15be a28a 153e
0.11154477 0.1185651 0.07241546 -0.109445944 -0.13596518 -0.04858662 0.09792028 0.17421988
-0.12322223 -0.060115043 0.09286324 0.061027244 -0.13236699 0.017885655 -0.11042354 -0.11564235
-0.0039257407 -0.12515303 0.17191334 -0.19342658 0.13641524 -0.15096772 -0.1253734 0.037758827
0.1029113 0.04177044 0.010298434 0.058444913 -0.13397014 -0.030362587 -0.15194838 -0.14035048
0.031706993 -0.102246836 0.094710045 -0.08070781 0.10812421 0.07780595 0.19718185 0.07469619
0.13835932 -0.141075 0.21114226 -0.18470462 -0.029523669 0.13534996 0.16043313 0.11860288
-0.07971052 -0.15576433 0.17511615 0.10844618 0.14813809 -0.11314731 -0.10184098 0.13543113
-0.19126149 0.06269032 -0.13575767 -0.08078749 0.10295448 -0.1544308 -0.14601254 0.14603665
