models/with_mismatch/kalman_process_50n_local_params_r4_20deg.pth (torch, 269730 bytes, 28 tensors)

gkf.gat_rnn.fc_delta_y_innov.0.weight f4 [64, 3]
0.43942845 0.5117012 -0.16239446 0.52129334 -0.16989537 0.16509 -0.27884898 0.33114454
0.56549686 -0.4345845 0.54508173 0.1557395 0.44803977 0.07805458 0.22251968 -0.07849014
0.4597199 0.14518672 -0.27713263 0.15396123 -0.21971141 -0.03885218 -0.2805772 0.4289522
-0.4611157 -0.27922568 -0.117674924 -0.3569286 0.10222494 -0.59244186 0.52698463 -0.50203973
0.5037606 0.055254087 -0.20389502 0.40732247 0.07202631 0.46849126 0.09221774 -0.18567859
0.18117502 -0.20379291 0.2438369 0.5263398 0.39141634 -0.27259302 0.3705853 0.117106155
0.3083927 -0.3279842 -0.5917227 -0.22098991 -0.46778244 0.5354115 0.16750512 0.24285318
0.24339648 0.00550213 0.47658163 -0.3621544 0.058947705 -0.4145213 0.19174215 -0.20338255
0.20442483 -0.1507267 0.4947366 -0.3162619 -0.35950115 -0.33844092 0.5337837 0.24568334
0.56114066 -0.44000116 -0.5731223 -0.46215174 -0.39400753 0.29487938 0.20536852 0.50188434
-0.25933176 -0.3914694 0.34497017 -0.23019117 0.3461829 -0.14708434 0.38906503 -0.45034382
-0.28898227 0.23447639 0.13344286 -0.14074418 0.37377068 0.41036633 -0.3762403 -0.31892174
0.5405314 -0.16780494 -0.19395104 -0.5593536 -0.3303397 0.19980529 -0.07411904 -0.43468374
0.072521746 -0.40419477 -0.45116425 -0.31168455 -0.4963649 -0.41255727 0.60609406 0.13032998
0.2149043 -0.5628854 -0.3839171 -0.2130799 0.13580903 -0.51837426 -0.20523497 -0.33863917
-0.0021005033 -0.20935978 0.02500015 -0.39593628 -0.34644148 -0.33127734 -0.17377375 -0.5007769
0.5297144 -0.11317448 0.49034056 0.2393945 -0.48414218 0.43271425 -0.16827856 -0.2224582
-0.458794 -0.5844647 0.19406103 -0.08098016 0.21067378 -0.49351895 0.48672846 -0.42485717
-0.09711551 0.10808758 0.35406896 0.46583143 0.54413545 -0.42324254 0.15031312 -0.22577365
-0.09744341 -0.4539924 0.56261253 -0.4441168 0.31878313 0.2501514 0.24062444 -0.33563355
0.56198573 0.18137589 0.09942193 -0.51447505 0.28928414 -0.0824985 -0.2813436 0.55106634
0.14279993 -0.2969566 -0.2941638 -0.042059634 0.34004816 -0.08622497 -0.35363412 -0.14941545
-0.43636435 0.21497257 0.44430843 -0.58038324 0.13740689 0.3196162 0.14120664 -0.20519118
0.30840605 0.36049595 0.22439209 -0.08170645 -0.17044912 0.07398148 -0.09330231 -0.17858876
00000000: c4fc e03e dafe 023f bc4a 26be 7b73 053f
00000010: 0df9 2dbe 5a0d 293e 4bc5 8ebe c78b a93e
00000020: 67c4 103f dc81 debe 7a8a 0b3f 2d7a 1f3e
00000030: 7865 e53e 14db 9f3d 33dc 633e 70bf a0bd
00000040: 6860 eb3e d4ab 143e 54e4 8dbe 03a8 1d3e
00000050: 07fc 60be 7723 1fbd d1a7 8fbe 9f9f db3e
00000060: 5b17 ecbe abf6 8ebe 8dff f0bd 58bf b6be
00000070: 4f5b d13d 45aa 17bf 77e8 063f ad85 00bf
00000080: 74f6 003f 1c52 623d dbc9 50be 928c d03e
00000090: 8882 933d 16de ef3e a8dc bc3d 8722 3ebe
000000a0: f285 393e 17af 50be 61b0 793e 35be 063f
000000b0: b967 c83e 5091 8bbe 5bbd bd3e 5ad5 ef3d
000000c0: a6e5 9d3e 8ced a7be 247b 17bf 2e4b 62be
000000d0: 2e81 efbe ba10 093f 7686 2b3e 81ae 783e
000000e0: ed3c 793e 364b b43b 8202 f43e 4d6c b9be
000000f0: 2673 713d 233c d4be 0e58 443e 8443 50be
00000100: be54 513e 1a58 1abe 1e4e fd3e 14ed a1be
00000110: 8910 b8be 2148 adbe 0ca6 083f 6a94 7b3e
00000120: eaa6 0f3f d547 e1be 25b8 12bf 279f ecbe
00000130: 5bbb c9be 6efa 963e 204c 523e 7e7b 003f
00000140: 22c7 84be ad6e c8be ee9f b03e 3cb7 6bbe
00000150: e33e b13e 479d 16be 8833 c73e 7793 e6be
00000160: 7cf5 93be 941a 703e 3fa5 083e 3e1f 10be
00000170: df5e bf3e 891b d23e 92a2 c0be b649 a3be
00000180: 4460 0a3f 0fd5 2bbe 1a9b 46be cc31 0fbf
00000190: 4922 a9be c299 4c3e b9cb 97bd de8e debe
000001a0: 4886 943d 9ef2 cebe 00ff e6be 1e95 9fbe
000001b0: 8a23 febe b53a d3be fb28 1b3f 3975 053e
000001c0: df0f 5c3e 4219 10bf c890 c4be 9e31 5abe
000001d0: 8611 0b3e 2db4 04bf 1e29 52be 1d62 adbe
000001e0: 99a8 09bb 6962 56be 1dcd cc3c 29b8 cabe
000001f0: c760 b1be 2f9d a9be bff1 31be ea32 00bf
00000200: 5d9b 073f 06c8 e7bd eb0d fb3e d523 753e
00000210: 7ce1 f7be b98c dd3e 3751 2cbe 15cc 63be
00000220: 0ce7 eabe 7b9f 15bf efb7 463e edd8 a5bd
00000230: deba 573e 84ae fcbe 7934 f93e e186 d9be
00000240: 7fe4 c6bd 055d dd3d 8748 b53e 7581 ee3e
00000250: 764c 0b3f 3fb3 d8be afeb 193e 3531 67be
00000260: 6990 c7bd b171 e8be 6007 103f 4763 e3be
00000270: 8b37 a33e d813 803e 4166 763e 29d8 abbe
00000280: 4cde 0f3f 9aba 393e ba9d cb3d a3b4 03bf
00000290: 0d1d 943e f9f4 a8bd 450c 90be af12 0d3f
000002a0: 253a 123e b20a 98be a39c 96be b946 2cbd
000002b0: cb1a ae3e b896 b0bd 880f b5be 5d00 19be
000002c0: 266b dfbe c521 5c3e 657c e33e ff93 14bf
000002d0: 64b4 0c3e bca4 a33e 7998 103e a31d 52be
000002e0: 66e7 9d3e ed92 b83e 0ac7 653e b655 a7bd
000002f0: 378a 2ebe 9a83 973d 4815 bfbd f9df 36be

gkf.gat_rnn.fc_delta_y_innov.0.bias f4 [64]
0.37419796 0.5005255 -0.020948796 -0.08024135 -0.018258667 -0.0010690698 0.16345318 0.19654109
-0.50277036 -0.1972967 0.5208605 0.26698303 -0.019957364 -0.35027555 -0.32193372 -0.49081925
-0.1759039 0.23726851 0.4011152 0.28343326 -0.5025376 -0.34247366 -0.06154998 0.59206647
0.10874513 -0.117326625 0.26526064 -0.21230337 -0.3449231 0.45812428 -0.23345236 -0.09180472
-0.5447845 0.41913602 0.47759354 0.23512042 -0.38850883 -0.5458949 -0.45378858 0.4601656
0.31798825 0.50036454 0.32321206 0.16787262 0.0027468507 -0.43325883 -0.46305838 -0.50067145
0.25778726 -0.25973144 -0.11449434 -0.32056773 -0.0553655 -0.3608295 -0.33038378 0.23311348
-0.15198445 0.38968524 -0.16158095 -0.43777928 -0.070189975 -0.25057963 -0.16656351 -0.53675824
00000000: e096 bf3e 7022 003f cf9c abbc 9455 a4bd
00000010: 3393 95bc 0820 8cba 4560 273e 1142 493e
00000020: 8fb5 00bf 2508 4abe 1d57 053f 00b2 883e
00000030: a07d a3bc 5157 b3be 7fd4 a4be a94c fbbe
00000040: 2720 34be 84f6 723e f95e cd3e 2a1e 913e
00000050: 4ea6 00bf b558 afbe d51b 7cbd ab91 173f
00000060: c4b5 de3d f148 f0bd 3ed0 873e 0e66 59be
00000070: c399 b0be 448f ea3e 230e 6fbe 1d04 bcbd
00000080: ff76 0bbf ff98 d63e 2487 f43e 68c3 703e
00000090: a1ea c6be c5bf 0bbf fa56 e8be d39a eb3e
000000a0: 5bcf a23e e417 003f 0d7c a53e cde6 2b3e
000000b0: 8204 343b 1ad4 ddbe fd15 edbe 012c 00bf
000000c0: b1fc 833e 85fb 84be 027c eabd 7421 a4be
000000d0: efc6 62bd a5be b8be 1028 a9be 4db5 6e3e
000000e0: d0a1 1bbe d384 c73e 7a75 25be 9b24 e0be
000000f0: c3bf 8fbd f94b 80be a08f 2abe fd68 09bf

gkf.gat_rnn.fc_delta_y_innov.2.weight f4 [64, 64]
0.10181336 -0.062038697 0.09848031 0.08415525 0.11012296 -0.05100733 0.11644841 -0.024376903
0.023005981 0.114848614 0.005929731 0.029520089 0.014321834 -0.12074239 0.08731047 -0.12461909
0.08457191 0.12729861 0.16222578 0.017170664 -0.13833141 0.017094888 0.08218441 -0.08274847
-0.014917935 -0.08002648 0.026179142 -0.04195633 -0.037297033 -0.0137987705 -0.10191493 0.11374945
0.115649335 -0.004018098 0.023377951 -0.059693135 -0.11782557 -0.117961325 0.023358569 -0.050858706
-0.03495745 -0.00011754775 -0.0067952746 0.0066604456 0.028948791 -0.055286046 -0.035983015 -0.05610332
-0.055065792 0.12657309 -0.043580633 0.05586159 -0.019202745 0.033310186 0.13538769 0.091949396
-0.10645786 0.098936066 0.10121152 0.05057439 0.11636077 0.14879024 -0.007946674 0.011924524
-0.07169979 -0.01743359 0.07811331 0.06434672 -0.067153655 -0.0994415 -0.08160345 -0.18727383
-0.09523556 -0.01774092 0.08474297 -0.017363317 -0.07869257 -0.08467342 0.07606432 -0.08644986
0.005588359 0.024589336 -0.058170468 0.009868968 -0.020269295 -0.016584262 -0.046687894 -0.12102336
-0.08353622 -0.07702985 0.13938029 -0.053206064 -0.07618319 0.018459352 0.022368548 0.08447657
0.11186263 0.06086634 -0.16571222 0.010038575 0.06104828 0.023267576 -0.07696673 0.11945804
-0.09232087 -0.07241684 -0.15405402 0.00041240957 0.058836468 0.0394187 0.03217698 -0.08304631
-0.14310782 0.024773693 0.1265431 0.08266246 -0.060006924 -0.012067501 -0.13097617 -0.11524081
0.03840127 0.07941154 0.11145907 -0.08369857 0.097943574 -0.09390947 0.065186456 0.124855
-0.021948066 0.106846794 -0.06878372 -0.03690637 0.060929976 -0.014499653 -0.023315702 0.0054890597
0.08245164 0.047672715 0.048920948 -0.021861548 -0.13069038 -0.0058238837 0.01715341 -0.061425835
-0.055917468 0.1354076 0.011824423 -0.02815636 -0.03395501 -0.12789863 -0.13499436 -0.027452998
-0.08222288 0.062969 -0.067965515 -0.05278673 0.11526426 0.07811341 0.1171452 -0.07577848
-0.06827429 0.07598038 -0.026025284 -0.07623053 0.023012493 -0.086194105 -0.09095504 0.0819683
0.16129701 0.03410663 0.03233225 -0.08833121 -0.04265033 0.005225829 0.05736673 -0.026456969
-0.0016802571 0.038788 -0.10642405 0.0706247 -0.0639003 0.0031804834 0.016257608 0.0712923
-0.047051586 0.08913965 -0.012338415 0.057666715 0.09782048 -0.036395174 -0.11064257 0.075016074
0.09480015 -0.09159913 0.0059831976 -0.118450545 -0.102864526 0.027918093 0.036452647 0.0743411
-0.042152196 0.10455773 0.028343547 -0.034229293 -0.0149593325 0.013697384 0.039029483 -0.0946368
0.042028796 -0.03437625 -0.09435839 -0.07783098 0.11466717 0.09333671 0.10922497 0.087145686
0.091525026 -0.012921496 -0.075280234 0.0618095 -0.062015906 -0.06970085 -0.021634731 0.024496479
0.060711503 -0.036648896 -0.03556398 0.017439753 -0.06971622 -0.10202601 0.059698958 -0.015561945
0.16729432 0.1282763 0.0727242 0.053365715 0.0316754 -0.014082721 -0.0069990647 -0.005483182
0.07217503 0.10688926 -0.030733695 -0.055547725 -0.032130454 -0.059458386 0.05834156 0.13545138
0.099273406 0.057937972 -0.10225597 -0.0840831 -0.032011084 -0.015111785 0.0057281493 -0.12310149
00000000: 8683 d03d 4a1c 7ebd 0bb0 c93d 9659 ac3d
00000010: 2588 e13d 10ed 50bd 817c ee3d 12b2 c7bc
00000020: 0a77 bc3c c035 eb3d 304e c23b 1dd4 f13c
00000030: 20a6 6a3c c947 f7bd d5cf b23d 4b38 ffbd
00000040: 0a34 ad3d 915a 023e 841e 263e 7ea9 8c3c
00000050: c0a6 0dbe 940a 8c3c 4d50 a83d 0878 a9bd
00000060: 5b6a 74bc ece4 a3bd a475 d63c 67da 2bbd
00000070: c6c4 18bd 3d14 62bc c6b8 d0bd 79f5 e83d
00000080: 8fd9 ec3d 40aa 83bb 1e83 bf3c ca80 74bd
00000090: 884e f1bd b595 f1bd 785a bf3c 3851 50bd
000000a0: 8b2f 0fbd f883 f6b8 e5aa debb de3f da3b
000000b0: 0426 ed3c 9f73 62bd ed62 13bd 98cc 65bd
000000c0: ab8c 61bd 609c 013e 9b81 32bd 1fcf 643d
000000d0: 134f 9dbc 4370 083d 12a3 0a3e f74f bc3d
000000e0: 9406 dabd fe9e ca3d fc47 cf3d 1727 4f3d
000000f0: 8e4e ee3d 785c 183e c432 02bc 145f 433c
00000100: 57d7 92bd e3d0 8ebc dff9 9f3d 37c8 833d
00000110: db87 89bd fca7 cbbd b61f a7bd b6c4 3fbe
00000120: dc0a c3bd 6855 91bc b98d ad3d 843d 8ebc
00000130: 9229 a1bd 4269 adbd 9cc7 9b3d a00c b1bd
00000140: 8e1e b73b 936f c93c 2844 6ebd 74b1 213c
00000150: cb0b a6bc b8db 87bc ce3b 3fbd 18db f7bd
00000160: 0a15 abbd d3c1 9dbd b5b9 0e3e 9aee 59bd
00000170: ef05 9cbd 1138 973c 3f3e b73c 0d02 ad3d
00000180: 3c18 e53d fc4e 793d 77b0 29be d678 243c
00000190: c30d 7a3d a59b be3c bca0 9dbd 6ba6 f43d
000001a0: b912 bdbd 484f 94bd 56c0 1dbe ad38 d839
000001b0: 82fe 703d 8175 213d 02cc 033d 2f14 aabd
000001c0: db8a 12be 33f2 ca3c 8494 013e f04a a93d
000001d0: d2c9 75bd c5b6 45bc 9e1e 06be 6003 ecbd
000001e0: a64a 1d3d 84a2 a23d a744 e43d 286a abbd
000001f0: a496 c83d 9c53 c0bd 7a80 853d fab3 ff3d
00000200: 6ecc b3bc 7ed2 da3d 7bde 8cbd 222b 17bd
00000210: b691 793d f48f 6dbc 9200 bfbc 92dd b33b
00000220: 68dc a83d 7744 433d 5561 483d fd16 b3bc
00000230: b3d3 05be 47d6 bebb 4f85 8c3c a899 7bbd
00000240: b709 65bd 4aa8 0a3e 3abb 413c 2ba8 e6bc
00000250: 6914 0bbd dcf7 02be f63b 0abe 1ce5 e0bc
00000260: 7864 a8bd e4f5 803d 8131 8bbd e636 58bd
00000270: ab0f ec3d ecf9 9f3d d3e9 ef3d bf31 9bbd
00000280: 64d3 8bbd 9a9b 9b3d fa32 d5bc c11e 9cbd
00000290: b284 bc3c 8986 b0bd a346 babd ffde a73d
000002a0: 0b2b 253e 65b3 0b3d d26e 043d fee6 b4bd
000002b0: 1db2 2ebd 6e3d ab3b 60f9 6a3d 49bc d8bc
000002c0: 133c dcba 2ae0 1e3d daf4 d9bd afa3 903d
000002d0: 29de 82bd a86f 503b ad2e 853c b301 923d
000002e0: 2ab9 40bd d98e b63d 1027 4abc ef33 6c3d
000002f0: 1b56 c83d 1b13 15bd 9298 e2bd 07a2 993d
00000300: 9526 c23d 5398 bbbd b30e c43b 3396 f2bd
00000310: a3aa d2bd 7cb4 e43c 5f4f 153d 2640 983d
00000320: c8a7 2cbd 5d22 d63d ba30 e83c 0434 0cbd
00000330: fd17 75bc fe6a 603c 61dd 1f3d f0d0 c1bd
00000340: 6326 2c3d 1cce 0cbd f93e c1bd d965 9fbd
00000350: 9fd6 ea3d 5127 bf3d 57b1 df3d 7079 b23d
00000360: 7971 bb3d afb4 53bc 862c 9abd f52b 7d3d
00000370: 6404 7ebd 52bf 8ebd 523b b1bc d7ac c83c
00000380: a0ac 783d 271d 16bd 89ab 11bd d0dd 8e3c
00000390: 61c7 8ebd 03f3 d0bd e586 743d 87f7 7ebc
000003a0: 344f 2b3e dd5a 033e 6df0 943d 0296 5a3d
000003b0: 10be 013d 37bb 66bc 6958 e5bb 44ac b3bb
000003c0: 81d0 933d c2e8 da3d 3bc5 fbbc 0386 63bd
000003d0: 399b 03bd a38a 73bd 8ff7 6e3d c4b3 0a3e
000003e0: db4f cb3d 5e50 6d3d 946b d1bd c333 acbd
000003f0: 0e1e 03bd 6c97 77bc 33b3 bb3b a21c fcbd

gkf.gat_rnn.fc_delta_y_innov.2.bias f4 [64]
0.05451248 0.04786617 0.053147 -0.07071957 0.0677032 0.1064879 -0.05750615 -0.04508507
-0.07977136 -0.03576238 -0.032008186 0.03957671 0.022750618 -0.011326997 0.11286398 0.021489989
-0.035428207 -0.04543815 -0.04104194 -0.012710271 -0.09503762 0.025215859 -0.071822084 0.05002797
0.11574264 -0.1269594 -0.027871098 -0.103925735 0.036902435 0.0073186057 -0.024962816 0.09625809
0.0478874 -0.11581555 0.018417718 -0.021958204 0.0049529574 0.054196857 0.0035931694 -0.077741265
0.11466408 -0.07082105 -0.029062752 0.07922743 0.1325965 0.14185195 -0.0011744378 0.06665117
-0.089456834 0.00013155474 -0.011911007 0.06206791 -0.05805221 0.052007575 0.068139315 0.11986957
-0.0109561635 0.13613038 -0.08327566 -0.026008977 0.06419275 0.056404803 0.081550784 -0.067141354
00000000: 7a48 5f3d 510f 443d abb0 593d 6cd5 90bd
00000010: faa7 8a3d 5416 da3d 928b 6bbd 1fab 38bd
00000020: 2b5f a3bd 937b 12bd 041b 03bd 301b 223d
00000030: 815f ba3c de94 39bc 3b25 e73d c60b b03c
00000040: 2b1d 11bd 5b1d 3abd 981b 28bd be3e 50bc
00000050: 15a3 c2bd 7d91 ce3c 7517 93bd 21ea 4c3d
00000060: 7a0a ed3d a501 02be ee51 e4bc 04d7 d4bd
00000070: 0227 173d ead0 ef3b d27e ccbc f622 c53d
00000080: 9425 443d b430 edbd c1e0 963c b1e1 b3bc
00000090: 6b4c a23b 86fd 5d3d 617b 6b3b d036 9fbd
000000a0: 00d5 ea3d a00a 91bd 0215 eebc fe41 a23d
000000b0: 60c7 073e a341 113e 98ef 99ba 6980 883d
000000c0: 2535 b7bd f5f1 0939 6226 43bc ec3a 7e3d
000000d0: 27c8 6dbd e505 553d a08c 8b3d 2d7e f53d
000000e0: 7b81 33bc c365 0b3e 6e8c aabd c710 d5bc
000000f0: 7d77 833d b908 673d 1904 a73d 6881 89bd

gkf.gat_rnn.fc_r.0.weight f4 [64, 1]
0.6527811 -0.9636572 -0.6925637 -0.059339184 -0.99235487 -0.9769656 -0.8941236 0.84376717
0.2561247 -0.32621565 -0.0689049 -0.88072264 -0.97448343 -0.73431903 -0.9922202 0.69829786
-0.37620777 -0.2793104 -0.89797413 0.17771594 -0.15980051 -0.7132043 0.66898364 0.9006998
-0.745404 0.60716987 -0.19030271 0.009783829 0.44040546 -0.17431958 0.8864794 0.6389015
-0.6755322 -0.6393226 -1.0200305 0.32591248 -0.77377063 -0.8631723 -0.6387919 -1.0132477
-0.8432504 0.94323117 0.5735166 0.9294076 -0.50975543 -0.42526975 -0.36353725 0.052496146
-0.74482495 0.1304991 -0.6746383 0.1621424 0.94167 0.20166638 0.77675575 -0.7382516
-0.14996685 -0.64157295 -0.13746552 -0.39075863 -0.59481865 -0.993104 -0.36848482 0.18518434
00000000: aa1c 273f 3db2 76bf db4b 31bf a50d 73bd
00000010: f80a 7ebf 6b1a 7abf 49e5 64bf 2001 583f
00000020: c722 833e bd05 a7be 031e 8dbd 0a77 61bf
00000030: bf77 79bf 55fc 3bbf 2502 7ebf a6c3 323f
00000040: 4e9e c0be c601 8fbe a2e1 65bf 2bfb 353e
00000050: bfa2 23be 8f94 36bf 8342 2b3f 4394 663f
00000060: ccd2 3ebf 7c6f 1b3f b7de 42be 5a4c 203c
00000070: d37c e13e d580 32be 50f0 623f 0c8f 233f
00000080: aeef 2cbf a5aa 23bf 5c90 82bf 00de a63e
00000090: d515 46bf dcf8 5cbf de87 23bf 1ab2 81bf
000000a0: 42df 57bf 9977 713f fcd1 123f a8ed 6d3f
000000b0: 557f 02bf f5bc d9be 8e21 babe 3306 573d
000000c0: d9ac 3ebf 8ea1 053e 18b5 2cbf a808 263e
000000d0: 4911 713f a281 4e3e 77d9 463f 0ffe 3cbf
000000e0: e990 19be 203e 24bf c3c3 0cbe 8411 c8be
000000f0: 0946 18bf 103c 7ebf 0baa bcbe f7a0 3d3e

gkf.gat_rnn.fc_r.0.bias f4 [64]
-0.12520058 -0.9012914 0.79046494 0.79387844 -0.57624555 0.14398776 0.69388974 -0.90710056
-0.8492765 0.59737813 0.018909488 0.34565353 -0.37799197 0.22655778 0.7101113 -0.19435474
-0.29030144 -0.94703054 -0.11249919 0.68115187 -0.96089625 -0.040586922 0.7810151 -0.2272027
-0.3328117 -0.25353304 -0.3811622 0.16822214 -0.94843596 0.38562998 -0.20827876 -0.08327977
-0.026218684 0.6104749 -0.585957 -0.91377395 -0.69999 -0.7022697 -0.48573828 0.83407366
-0.7405355 -0.53599656 -0.7885875 -0.45325506 0.009912913 -0.58793986 0.046682928 0.39284343
-0.13580683 0.46521765 0.25798994 1.0179081 -0.004100446 0.91221327 0.8015152 0.52189744
0.61254984 -0.64058316 -0.64343464 0.46916723 0.4102004 0.94848424 -0.13521096 -0.13384548
00000000: 9534 00be 08bb 66bf e95b 4a3f 9e3b 4b3f
00000010: d484 13bf 8771 133e c2a2 313f be37 68bf
00000020: 2f6a 59bf c6ed 183f 12e8 9a3c 80f9 b03e
00000030: 2a88 c1be c3fe 673e dbc9 353f ee04 47be
00000040: 64a2 94be 9870 72bf fa65 e6bd f85f 2e3f
00000050: 4cfd 75bf 793e 26bd 9bf0 473f d3a7 68be
00000060: 4c66 aabe 15cf 81be b127 c3be 6d42 2c3e
00000070: b3cc 72bf 4b71 c53e 0747 55be 968e aabd
00000080: 91c8 d6bc 1548 1c3f 4701 16bf 17ed 69bf
00000090: 8b32 33bf f2c7 33bf b0b2 f8be da85 553f
000000a0: bc93 3dbf 1237 09bf dfe0 49bf 0c11 e8be
000000b0: c569 223c 3a83 16bf 9936 3f3d c622 c93e
000000c0: f210 0bbe 0231 ee3e 4217 843e d04a 823f
000000d0: 095d 86bb cf86 693f 1a30 4d3f 129b 053f
000000e0: 11d0 1c3f 42fd 23bf 22b8 24bf b036 f03e
000000f0: c905 d23e ddcf 723f be74 0abe ca0e 09be

gkf.gat_rnn.fc_r.2.weight f4 [64, 64]
0.09607842 -0.006692469 0.101195864 -0.08131021 -0.051911116 -0.006764131 0.052090507 -0.09057609
-0.0058583333 0.07251552 0.013602434 0.075377494 -0.05344226 -0.09149839 -0.09965647 -0.058652308
-0.1047124 0.055148024 0.02208215 -0.09030705 0.11283189 0.02392271 0.043030556 -0.041366167
0.075520284 -0.07456222 0.08099077 -0.0804838 0.07776984 -0.064152956 0.09218555 -0.09561677
-0.036066137 -0.04916778 -0.08565648 -0.03467337 -0.04581442 0.0021816986 0.07797304 -0.035374235
0.111760564 -0.044239014 -0.044018686 0.0076459735 -0.03445459 0.029040225 0.10343899 0.02967707
-0.11598835 -0.052312694 -0.03781204 -0.1267726 0.045778077 0.09764357 0.059233777 -0.016756566
-0.029729523 -0.06924741 -0.016858514 0.09337052 -0.078461826 0.004560016 -0.10279364 -0.015172855
0.04358101 -0.07958246 0.06351296 -0.06268732 -0.034050696 0.10900349 0.14414391 0.021401517
-0.071054004 -0.06901284 -0.007255673 -0.039988957 0.117557354 -0.06584835 0.10173805 0.059545383
-0.02212702 0.102699555 0.08959784 0.043345563 -0.104222804 -0.01631938 0.08384791 0.1442797
-0.024331268 -0.01703236 -0.11378348 0.124176964 0.1470104 0.120985486 -0.03359027 0.1262997
-0.017256822 0.09371367 0.090158336 -0.0803857 0.045857735 0.06550842 -0.059356708 0.14291018
0.112745665 0.1384884 0.028487468 -0.03237419 -0.04722912 0.056563485 -0.0031559675 0.14731865
0.12434682 0.056988094 -0.07850572 0.09758461 0.14943805 0.016492192 -0.022304334 -0.0027866599
0.05830553 -0.07828006 0.05499897 0.08320719 -0.021470062 -0.017980114 -0.041287497 0.13094506
0.05470929 0.020568153 -0.017975003 0.019833231 0.105706796 0.025213854 -0.075447 0.030036818
-0.05736174 -0.015613166 -0.095312715 -0.017547073 -0.008291028 -0.08994311 0.06706786 0.09609708
-0.11955838 0.02160873 -0.101014234 -0.044140577 0.047176126 -0.016790971 0.01797189 -0.05986939
0.10442156 -0.07789482 0.008293184 -0.0027123508 0.07070624 0.0023516961 0.05603894 0.012742645
0.06512537 -0.011271188 0.026803153 0.112199076 -0.055668343 -0.0658248 0.075861156 0.03472576
-0.13296084 0.02544917 -0.14042392 -0.086982064 0.034395743 0.050735272 -0.042557318 0.088616714
0.10952717 0.07814968 -0.12877539 -0.06371043 -0.011901135 0.08266194 -0.040850062 0.012801621
0.056444 -0.08041215 -0.08966616 0.111376956 -0.016163664 0.07563761 -0.13661586 -0.06655118
0.040477075 -0.02989409 0.015691344 -0.1467501 0.10242332 -0.08461633 -0.031133898 -0.12725312
-0.09054984 -0.1363769 -0.13276055 -0.048627418 -0.07512715 0.06944479 -0.025225114 0.05015206
-0.039504476 0.0215029 0.09894509 -0.14706287 -0.04970792 0.085524686 -0.078124106 -0.0808282
-0.009749919 -0.113869146 -0.0031520182 -0.099611625 -0.0020798065 -0.056558464 -0.08910174 -0.0943991
0.011045325 0.036981046 -0.13355407 -0.12578104 -0.13783064 0.040004306 0.07530816 -0.14522277
0.014452598 -0.021121923 -0.11162702 -0.019590192 0.074698165 0.10691553 0.032102555 -0.07429555
-0.09200885 -0.09762858 -0.02214922 -0.05898012 0.043665864 -0.163192 -0.03824901 -0.06437184
-0.025041025 0.10269205 0.00347017 -0.04816603 -0.06690795 -0.15044282 -0.13305269 0.0076908767
00000000: c3c4 c43d 804c dbbb c73f cf3d f885 a6bd
00000010: c0a0 54bd a5a5 ddbb db5c 553d f57f b9bd
00000020: 43f7 bfbb 0483 943d bedc 5e3c 845f 9a3d
00000030: 45e6 5abd 8263 bbbd b118 ccbd 673d 70bd
00000040: 7473 d6bd e5e2 613d a0e5 b43c e7f2 b8bd
00000050: 6814 e73d 8ff9 c33c cf40 303d 926f 29bd
00000060: 61aa 9a3d 14b4 98bd 7dde a53d b1d4 a4bd
00000070: cb45 9f3d a062 83bd c7cb bc3d bad2 c3bd
00000080: 16ba 13bd 2764 49bd aa6c afbd aa05 0ebd
00000090: e7a7 3bbd d4fa 0e3b 54b0 9f3d 93e4 10bd
000000a0: b9e2 e43d f833 35bd f04c 34bd 138b fa3b
000000b0: 4220 0dbd c4e5 ed3c d2d7 d33d 541d f33c
000000c0: 4d8b edbd d645 56bd cce0 1abd add0 01be
000000d0: cb81 3b3d 5af9 c73d 1e9f 723d 1145 89bc
000000e0: 548b f3bc 96d1 8dbd de1a 8abc 0b39 bf3d
000000f0: 98b0 a0bd 306c 953b 7985 d2bd 9197 78bc
00000100: 0082 323d 21fc a2bd 1513 823d 3662 80bd
00000110: be78 0bbd 393d df3d 769a 133e 3c52 af3c
00000120: c384 91bd 9b56 8dbd ffc0 edbb 76cb 23bd
00000130: e9c1 f03d 80db 86bd 0a5c d03d dce5 733d
00000140: b943 b5bc 2554 d23d 137f b73d 1e8b 313d
00000150: c472 d5bd 38b0 85bc 74b8 ab3d 0fbe 133e
00000160: 5e52 c7bc 7387 8bbc 5007 e9bd 7e50 fe3d
00000170: e589 163e 3dc7 f73d f395 09bd b554 013e
00000180: 2e5e 8dbc f4ec bf3d efa4 b83d 42a1 a4bd
00000190: 52d5 3b3d 4729 863d 0520 73bd 0c57 123e
000001a0: 33e7 e63d e7cf 0d3e 8d5e e93c cc9a 04bd
000001b0: 5273 41bd 1daf 673d 59d4 4ebb b3da 163e
000001c0: 8ca9 fe3d 596c 693d 9bc7 a0bd 71da c73d
000001d0: 4a06 193e a21a 873c 94b7 b6bc 65a0 36bb
000001e0: c8d1 6e3d 4c51 a0bd 9a46 613d 8868 aa3d
000001f0: fce1 afbc 084b 93bc 141d 29bd 7616 063e
00000200: d916 603d 8b7e a83c 5040 93bc 4d79 a23c
00000210: ce7c d83d 498d ce3c f583 9abd c60f f63c
00000220: 25f4 6abd 5dce 7fbc 5033 c3bd e1be 8fbc
00000230: 18d7 07bc 1834 b8bd e05a 893d 8cce c43d
00000240: 06db f4bd cb04 b13c 8de0 cebd c0cc 34bd
00000250: c13b 413d 388d 89bc c939 933c 9b39 75bd
00000260: f9da d53d 5287 9fbd 23e0 073c b2c1 31bb
00000270: 6fce 903d ea1e 1a3b 1689 653d 87c6 503c
00000280: 7360 853d caaa 38bc 4992 db3c a1c8 e53d
00000290: 7d04 64bd 27cf 86bd 185d 9b3d 993c 0e3d
000002a0: e326 08be c77a d03c 4acb 0fbe a723 b2bd
000002b0: 8de2 0c3d cacf 4f3d 9550 2ebd ae7c b53d
000002c0: c84f e03d f00c a03d b2dd 03be 9d7a 82bd
000002d0: fafc 42bc aa4a a93d 6552 27bd e4bd 513c
000002e0: d331 673d 20af a4bd e4a2 b7bd 9a19 e43d
000002f0: a969 84bc e4e7 9a3d 07e5 0bbe fc4b 88bd
00000300: 4acb 253d 73e4 f4bc 228b 803c a945 16be
00000310: 51c3 d13d 544b adbd 840c ffbc a44e 02be
00000320: 3272 b9bd 63a6 0bbe 62f2 07be 8b2d 47bd
00000330: 43dc 99bd 1239 8e3d e6a4 cebc 3f6c 4d3d
00000340: 72cf 21bd da26 b03c b9a3 ca3d a697 16be
00000350: 889a 4bbd 9127 af3d 88ff 9fbd 4189 a5bd
00000360: 20be 1fbc 3a34 e9bd 1792 4ebb 2e01 ccbd
00000370: 5d4d 08bb d9a9 67bd f97a b6bd 5154 c1bd
00000380: 73f7 343c 7079 173d 66c2 08be bfcc 00be
00000390: 7a23 0dbe 8edb 233d 2a3b 9a3d 47b5 14be
000003a0: 97ca 6c3c e207 adbc b59c e4bd 9c7b a0bc
000003b0: 5afb 983d 88f6 da3d f87d 033d 4428 98bd
000003c0: 236f bcbd 7ef1 c7bd 4872 b5bc 2395 71bd
000003d0: fada 323d ce1b 27be feaa 1cbd 62d5 83bd
000003e0: d622 cdbc 3650 d23d cb6b 633b be49 45bd
000003f0: 0907 89bd af0d 1abe f73e 08be c003 fc3b

gkf.gat_rnn.fc_r.2.bias f4 [64]
0.02050119 0.14193568 0.010874731 0.0008279132 -0.057114273 -0.04451496 -0.023840591 -0.041461993
-0.01988379 -0.064210095 0.007288834 -0.08411243 0.078660876 0.04041464 0.041267306 0.09202032
-0.114316426 -0.013279422 0.024405958 -0.073282294 0.06001745 -0.12571749 0.13558696 0.09625396
-0.013869784 -0.01742389 0.13533174 -0.047142997 0.035396744 0.115598775 0.1686194 0.051920846
0.03452688 0.025867881 -0.08375826 0.08036413 -0.053363547 0.029842459 0.001372927 0.11895669
-0.015443712 0.049791224 0.0098805735 0.020435192 -0.067082584 0.1573259 0.038449287 -0.1498477
0.054042052 0.09228847 -0.06878713 0.13933092 0.10267207 -0.03961376 0.17258869 0.12835972
0.005750541 0.02665227 0.055170685 -0.0039788513 0.11477329 -0.071082436 -0.09745104 0.09407615
00000000: 1df2 a73c 9657 113e ed2b 323c 5008 593a
00000010: a8f0 69bd 5255 36bd 584d c3bc 0dd4 29bd
00000020: 54e3 a2bc 9580 83bd 2cd7 ee3b 2343 acbd
00000030: f418 a13d d289 253d e807 293d 2675 bc3d
00000040: bb1e eabd ef91 59bc 01ef c73c 0715 96bd
00000050: dcd4 753d 16bc 00be 4fd7 0a3e cc20 c53d
00000060: 173e 63bc 8cbc 8ebc 6794 0a3e 0419 41bd
00000070: 2dfc 103d 0dbf ec3d 90aa 2c3e f4aa 543d
00000080: 0f6c 0d3d e1e8 d33c 7389 abbd f395 a43d
00000090: bc93 5abd 2c78 f43c c9f3 b33a 919f f33d
000000a0: 9f07 7dbc e2f1 4b3d 21e2 213c b467 a73c
000000b0: 9862 89bd 0a1a 213e 007d 1d3d ad71 19be
000000c0: 335b 5d3d bd01 bd3d 44e0 8cbd c4ac 0e3e
000000d0: bc45 d23d 0a42 22bd 17bb 303e bb70 033e
000000e0: 096f bc3b dd55 da3c a8fa 613d 0661 82bb
000000f0: 420e eb3d ab93 91bd 6994 c7bd ffaa c03d

gkf.gat_rnn.r_input_gru.weight_ih_l0 f4 [192, 64]
-0.110910185 -0.029206084 -0.05152972 0.053781237 0.018546976 -0.08196622 0.113190174 -0.044601448
-0.0021725206 0.053119045 -0.069063 -0.0061926744 -0.042526145 -0.019713013 -0.03296528 0.090492
-0.04831076 -0.069890104 0.0678308 0.052082773 0.026284857 0.014879807 0.13077077 -0.022785611
-0.12332448 -0.10522187 0.04378139 0.05637903 0.018766364 -0.09063061 -0.08841095 -0.07530938
0.091639556 0.03654327 -0.059054136 -0.10267534 0.08325524 0.01735376 0.12328063 -0.095170185
-0.090151586 0.010262497 0.09413396 0.094292186 0.13319111 0.09593007 0.06914981 -0.08626918
0.13387825 -0.045497637 0.06856015 0.064214654 -0.06560699 -0.009756303 0.0081338445 0.10635495
0.09960238 0.040029988 -0.061906878 0.04643321 0.1163314 -0.050763868 0.092855446 0.046250157
0.066944875 0.035384893 0.07883602 -0.10351629 0.04450663 -0.12037861 -0.015970508 0.091417104
-0.10818459 -0.101151034 -0.060110968 -0.0015146032 -0.0280237 -0.104397856 0.009982324 -0.03963596
-0.0634456 0.00059385604 0.035966493 0.0141085 -0.07642181 0.0835718 0.013198536 -0.05571178
0.113581814 0.02025398 0.0628729 0.08048262 -0.0056994767 0.09607134 -0.008457145 0.091351196
0.0063458774 0.050476253 0.056854244 -0.073494256 0.102211714 0.002475913 0.036667947 -0.10023992
-0.05626173 0.087382756 -0.086841546 0.01128524 0.103235476 -0.122033566 -0.006795742 0.027174775
0.07217649 -0.048442185 -0.11689641 -0.07882163 0.028002208 -0.09419829 -0.111595735 -0.010382737
0.021093577 -0.085178666 -0.058045037 0.06198846 -0.09007353 -0.106996216 -0.032010373 0.09611071
-0.03912127 -0.09189025 -0.09033834 -0.022826873 0.08205747 0.03957726 -0.054717936 -0.114639975
-0.080327995 0.021022568 0.09244712 0.059200652 -0.021891473 0.061594453 0.0038513269 0.010611437
0.04824318 -0.042504594 0.024215333 0.006489406 0.038418934 -0.025260722 0.075794645 -0.119123384
0.088710055 -0.110558055 -0.09359739 -0.08180477 -0.018896032 -0.025095014 -0.12752365 0.0591221
0.023448456 0.11481967 -0.09432314 -0.11294155 0.023467261 0.089089185 0.072780535 0.04446058
0.012734194 0.07142107 -0.056786016 -0.1358031 -0.10868376 -0.089110374 0.02019605 0.1187113
0.07326537 -0.086316146 0.040442076 0.10137438 -0.0008057963 -0.023334904 -0.07315303 -0.014594045
0.08103347 -0.041790597 -0.02855521 0.055945 -0.054050647 -0.06833349 0.028358182 0.08551614
0.014148157 -0.029077696 -0.11910805 0.10141036 -0.01741436 -0.07686857 -0.14095205 -0.08301074
-0.11012023 0.0031472791 0.06588651 -0.032865055 0.051850826 -0.04797263 -0.083704084 -0.13717471
-0.10444805 0.067292154 0.059842326 0.097472236 -0.04111361 0.042679206 -0.039782684 0.11752959
-0.076955676 -0.064710535 -0.1508103 -0.007257629 -0.12812705 -0.1169868 0.0071848715 0.1012095
0.07858942 0.061040565 -0.053162053 -0.03295837 -0.13808005 0.060949672 0.010273661 0.08714378
-0.1460792 -0.0069112163 -0.102608606 -0.12162292 -0.093847334 0.012604843 0.05821899 0.077952325
-0.067462154 0.033811778 0.14578433 -0.026002774 -0.06641209 -0.09706422 0.055632148 -0.052637722
-0.119178906 0.047432337 0.0054730214 -0.072716564 -0.14860566 -0.012011437 -0.01491496 -0.051439893
00000000: e124 e3bd 9941 efbc d410 53bd b749 5c3d
00000010: d4ef 973c e8dd a7bd 40d0 e73d 02b0 36bd
00000020: d960 0ebb 5b93 593d e770 8dbd ebeb cabb
00000030: e52f 2ebd 2f7d a1bc 9a06 07bd df53 b93d
00000040: 81e1 45bd 8b22 8fbd e0ea 8a3d bf54 553d
00000050: 5753 d73c 6fca 733c c6e8 053e e4a8 babc
00000060: 8c91 fcbd 907e d7bd 1d54 333d b3ed 663d
00000070: ebbb 993c 8b9c b9bd cd10 b5bd ce3b 9abd
00000080: 85ad bb3d 65ae 153d c0e2 71bd 7347 d2bd
00000090: b981 aa3d 7929 8e3c 8e7a fc3d 96e8 c2bd
000000a0: 65a1 b8bd 0824 283c 4ec9 c03d 431c c13d
000000b0: 4063 083e fc76 c43d 6a9e 8d3d e5ad b0bd
000000c0: 6117 093e bb5b 3abd 4469 8c3d f982 833d
000000d0: f55c 86bd e7d8 1fbc d143 053c a0d0 d93d
000000e0: 55fc cb3d 7cf6 233d 1192 7dbd c030 3e3d
000000f0: 283f ee3d c6ed 4fbd ff2a be3d ce70 3d3d
00000100: 651a 893d c0ef 103d c774 a13d 5900 d4bd
00000110: 964c 363d 1089 f6bd 95d4 82bc e438 bb3d
00000120: e28f ddbd 4628 cfbd eb36 76bd a685 c6ba
00000130: f591 e5bc 8bce d5bd e78c 233c 5159 22bd
00000140: c4ef 81bd 01ad 1b3a 9a51 133d 5727 673c
00000150: 0a83 9cbd b127 ab3d ac3e 583c 0932 64bd
00000160: 959d e83d adeb a53c 82c3 803d 12d4 a43d
00000170: adc2 babb 0dc1 c43d d68f 0abc 5616 bb3d
00000180: 14f1 cf3b 30c0 4e3d ffdf 683d 2884 96bd
00000190: 6054 d13d ed42 223b 2131 163d 964a cdbd
000001a0: b372 66bd bbf5 b23d fbd9 b1bd bae5 383c
000001b0: 1f6d d33d bcec f9bd d1ae debb a29d de3c
000001c0: 45d1 933d 506b 46bd 6367 efbd 3c6d a1bd
000001d0: e364 e53c 08eb c0bd 4e8c e4bd 5b1c 2abc
000001e0: 70cc ac3c 2772 aebd a2c0 6dbd 9de7 7d3d
000001f0: 7978 b8bd d520 dbbd 4f1d 03bd b1d5 c43d
00000200: a03d 20bd f530 bcbd 4f03 b9bd 6cff babc
00000210: bf0d a83d c41b 223d ea1f 60bd 5dc8 eabd
00000220: 0183 a4bd 8537 ac3c ea54 bd3d 627c 723d
00000230: bf55 b3bc 774a 7c3d 8b66 7c3b 98db 2d3c
00000240: a49a 453d 4c19 2ebd 3c5f c63c 15a5 d43b
00000250: 2c5d 1d3d 93ef cebc 393a 9b3d f6f6 f3bd
00000260: 9ead b53d 436c e2bd fdaf bfbd 4289 a7bd
00000270: dacb 9abc 0f94 cdbc 8f95 02be 042a 723d
00000280: fa16 c03c 9326 eb3d 7e2c c1bd e64d e7bd
00000290: 6a3e c03c 6474 b63d f60d 953d 4c1c 363d
000002a0: 15a3 503c 3645 923d 7498 68bd f80f 0bbe
000002b0: 9795 debd 807f b6bd 3072 a53c e91e f33d
000002c0: 280c 963d 85c6 b0bd 97a6 253d 5f9d cf3d
000002d0: 133c 53ba d728 bfbc 41d1 95bd dc1b 6fbc
000002e0: e0f4 a53d 9e2c 2bbd 9eec e9bc 9626 653d
000002f0: 3664 5dbd 6ef2 8bbd 6b4f e83c 1623 af3d
00000300: accd 673c 5934 eebc ecee f3bd 3cb0 cf3d
00000310: 8fa8 8ebc 456d 9dbd bc55 10be 8901 aabd
00000320: b786 e1bd 9542 4e3b 82ef 863d 829d 06bd
00000330: 8861 543d f37e 44bd 0c6d abbd 8777 0cbe
00000340: dce8 d5bd 78d0 893d 3a1d 753d 869f c73d
00000350: bf66 28bd 64d0 2e3d 2bf3 22bd 5bb3 f03d
00000360: f09a 9dbd f586 84bd 046e 1abe 68d1 edbb
00000370: bd33 03be c796 efbd 126f eb3b ed46 cf3d
00000380: 7df3 a03d ac05 7a3d 74c0 59bd 5bff 06bd
00000390: db64 0dbe 5da6 793d dc52 283c 7078 b23d
000003a0: c995 15be 7c77 e2bb 7624 d2bd 7015 f9bd
000003b0: 0833 c0bd 8b84 4e3c 0977 6e3d 78a5 9f3d
000003c0: 9929 8abd 387e 0a3d 7d48 153e c503 d5bc
000003d0: 1003 88bd 9bc9 c6bd 89de 633d a79a 57bd
000003e0: 1214 f4bd 6948 423d 0857 b33b 6cec 94bd
000003f0: 152c 18be 9ecb 44bc e05d 74bc a3b2 52bd

gkf.gat_rnn.r_input_gru.weight_hh_l0 f4 [192, 64]
-0.0095596565 -0.08904641 -0.08255732 0.0047481703 -0.08395194 0.084199116 0.100717835 -0.053383473
-0.0016071781 -0.0673381 0.026031842 0.06432923 -0.09827122 -0.06015532 0.001377625 0.124576375
0.06675356 -0.09744048 0.039747953 -0.10020431 0.14903556 0.07719795 -0.07707619 0.03434236
0.038802903 -0.050054763 -0.09351385 0.04899306 -0.124240465 0.05447354 -0.061545156 0.047506936
0.024435928 0.04590767 -0.033283062 0.040654063 0.05243847 0.025795361 -0.031017363 0.01805387
0.05054198 0.044921517 -0.040716898 -0.035835132 -0.061855752 -0.012056062 0.0859867 0.13079791
0.036340594 -0.06443162 0.09287422 0.08609314 -0.002720436 0.09911671 0.0067039174 -0.01958821
0.012860503 0.0034377198 0.026436556 -0.052375093 -0.111475244 -0.09379622 -0.10599505 0.10664147
-0.029059732 -0.10807847 0.121806405 -0.1004632 0.01819244 0.09917225 -0.08187574 0.00745755
0.10234484 0.1250424 0.0692768 -0.032206755 0.07367058 0.07168223 0.022262882 0.11831648
0.012494628 0.08441348 -0.0855924 0.025126878 -0.09609259 0.034461115 0.02815995 0.07298797
0.06634604 -0.026797112 0.07760848 -0.13138397 0.10552703 0.04220399 -0.027052935 0.023467889
0.06663464 -0.11197065 0.089738116 0.019026728 0.14084521 0.0262791 0.012895524 0.020772647
0.096507244 -0.11214658 0.061363734 0.061043642 -0.02571149 -0.056068048 0.11376878 0.059216816
-0.04386413 -0.0025139553 -0.037547167 -0.06929791 0.098123744 0.044925816 -0.012704714 0.08845434
0.08963799 0.043364946 0.051299073 -0.095209815 -0.07614282 0.12641698 0.04688348 0.046792552
-0.0684982 -0.059499897 -0.042333815 0.06616858 -0.055098686 0.09289679 -0.081691645 -0.011585655
0.104412384 -0.042948574 0.003983369 -0.04287051 0.036808405 -0.05175022 -0.09006269 -0.03953983
0.031885963 -0.033337474 -0.07565383 -0.026051098 -0.04988898 0.11865631 -0.025568547 0.037798375
0.1213975 -0.066010706 0.068254344 0.016171183 0.099347465 -0.013935195 0.020561479 -0.12916918
0.11343022 -0.10466975 0.1084017 -0.08405893 0.040717162 0.009983706 0.08142363 -0.12082254
0.101672955 0.0987488 0.04305788 0.10522246 0.095836475 0.029242 0.07606335 0.011120293
0.0161277 -0.08947283 -0.010917683 -0.072594255 -0.08475423 -0.08417197 -0.06970658 0.019823957
-0.02723327 0.052008044 0.038263593 -0.049212843 0.07323463 -0.07725547 -0.070757374 0.13967264
0.038271517 0.07455869 -0.1402283 0.06874966 -0.085117064 0.032581024 -0.039674986 0.028797796
-0.058994874 -0.1269434 -0.09778603 -0.0762436 -0.030788453 0.0011426219 -0.05069633 -0.048768356
0.041354284 0.1258131 -0.059688628 0.10442534 -0.071578234 0.088261776 -0.02985638 -0.04789214
-0.047067914 -0.03400043 -0.09998915 0.102112636 -0.08840971 0.016289517 -0.09271984 -0.06199481
0.024941718 -0.005719153 -0.03673821 0.02092231 -0.05654374 -0.13020065 0.016235074 0.012917745
0.110467196 -0.052173708 -0.08964419 -0.09327808 0.0753234 -0.115641 0.07942875 0.02106292
0.10664687 -0.030479183 0.07751591 -0.032523204 0.00064085814 0.121065594 -0.05172782 -0.042885214
0.034114953 0.060417563 0.010845566 -0.07428602 -0.018723788 0.023807982 -0.07291969 -0.11254674
00000000: 1ba0 1cbc f75d b6bd d013 a9bd 8a96 9b3b
00000010: ffee abbd 9670 ac3d 2745 ce3d a1a8 5abd
00000020: f3a7 d2ba 8fe8 89bd bb40 d53c 0bbf 833d
00000030: 6c42 c9bd 6d65 76bd 6d91 b43a e621 ff3d
00000040: 17b6 883d e08e c7bd c0ce 223d eb37 cdbd
00000050: c79c 183e f519 9e3d 1fda 9dbd 93aa 0c3d
00000060: cbef 1e3d 3906 4dbd 3084 bfbd f2ac 483d
00000070: c971 febd a61f 5f3d c616 7cbd a296 423d
00000080: db2d c83c ae09 3c3d d253 08bd e084 263d
00000090: b9c9 563d cb50 d33c 2018 febc b6e5 933c
000000a0: 1b05 4f3d a0ff 373d c3c6 26bd dcc7 12bd
000000b0: 755c 7dbd ca86 45bc cc19 b03d e3ef 053e
000000c0: e0d9 143d baf4 83bd d734 be3d 9a51 b03d
000000d0: 5849 32bb b4fd ca3d 89ac db3b 7477 a0bc
000000e0: dcb4 523c 5e4b 613b 7a91 d83c 4487 56bd
000000f0: 224d e4bd 3c18 c0bd ef13 d9bd d866 da3d
00000100: ad0e eebc 3f58 ddbd a375 f93d a6bf cdbd
00000110: 5008 953c d21a cb3d 78ae a7bd 775e f43b
00000120: 2c9a d13d 1d0b 003e ffe0 8d3d 3beb 03bd
00000130: 9ae0 963d 22ce 923d a660 b63c e94f f23d
00000140: 45b6 4c3c f9e0 ac3d 114b afbd e2d6 cd3c
00000150: 31cc c4bd 1927 0d3d b2af e63c b87a 953d
00000160: 6fe0 873d 9e85 dbbc 32f1 9e3d 8589 06be
00000170: 8e1e d83d 17de 2c3d 1e9e ddbc bb3f c03c
00000180: be77 883d de50 e5bd 9ec8 b73d f1dd 9b3c
00000190: ba39 103e 4447 d73c bf47 533c 662b aa3c
000001a0: 97a5 c53d 1bad e5bd 8a58 7b3d e608 7a3d
000001b0: e7a0 d2bc 9ca7 65bd 9bff e83d 558d 723d
000001c0: e0aa 33bd 2cc1 24bb 0fcb 19bd 10ec 8dbd
000001d0: 1af5 c83d 2204 383d 6f27 50bc 8d27 b53d
000001e0: 1f94 b73d 719f 313d fa1e 523d 5dfd c2bd
000001f0: c4f0 9bbd 7473 013e e408 403d 8ca9 3f3d
00000200: c948 8cbd 2ab6 73bd 3966 2dbd 6483 873d
00000210: 29af 61bd ac40 be3d f34d a7bd c2d1 3dbc
00000220: 29d6 d53d d8ea 2fbd ec86 823b fd98 2fbd
00000230: 69c4 163d 0af8 53bd ca72 b8bd 84f4 21bd
00000240: db9a 023d e08c 08bd 65f0 9abd 1d69 d5bc
00000250: 6358 4cbd 1402 f33d 2175 d1bc 78d2 1a3d
00000260: 419f f83d 9f30 87bd efc8 8b3d 6e79 843c
00000270: af76 cb3d 7250 64bc 8c70 a83c ed44 04be
00000280: 1a4e e83d 185d d6bd b601 de3d 1727 acbd
00000290: 0ac7 263d b392 233c 6fc1 a63d cf71 f7bd
000002a0: e939 d03d d03c ca3d 765d 303d e07e d73d
000002b0: ea45 c43d eb8c ef3c 1ac7 9b3d e431 363c
000002c0: 3d1e 843c 883d b7bd 15e0 32bc 4cac 94bd
000002d0: a093 adbd 5b62 acbd 53c2 8ebd da65 a23c
000002e0: 4f18 dfbc 6306 553d 49ba 1c3d 6893 49bd
000002f0: 0afc 953d 1e38 9ebd 3ee9 90bd 5806 0f3e
00000300: 98c2 1c3d 3ab2 983d 0298 0fbe 9fcc 8c3d
00000310: db51 aebd ae73 053d 3d82 22bd 5be9 eb3c
00000320: 9ca4 71bd 73fd 01be 0b44 c8bd 9b25 9cbd
00000330: 1138 fcbc 07c4 953a f4a6 4fbd 54c1 47bd
00000340: 1c63 293d 26d5 003e 107c 74bd f4dc d53d
00000350: 9c97 92bd 97c2 b43d 5e95 f4bc 8c2a 44bd
00000360: 49ca 40bd 0944 0bbd 1dc7 ccbd 6e20 d13d
00000370: 2610 b5bd 9871 853c e6e3 bdbd 45ee 7dbd
00000380: 9352 cc3c bc67 bbbb ce7a 16bd 4465 ab3c
00000390: 699a 67bd 5253 05be 6bff 843c f3a4 533c
000003a0: a03c e23d 19b4 55bd 6097 b7bd 9408 bfbd
000003b0: 2843 9a3d 30d5 ecbd 8aab a23d 258c ac3c
000003c0: ad69 da3d 7baf f9bc a9c0 9e3d 0d37 05bd
000003d0: 43ff 273a 3df1 f73d 8de0 53bd 68a8 2fbd
000003e0: 1fbc 0b3d 6878 773d 9ab1 313c 4523 98bd
000003f0: a162 99bc f508 c33c eb56 95bd e87e e6bd

gkf.gat_rnn.r_input_gru.bias_ih_l0 f4 [192]
0.14300956 -0.0708691 -0.07281446 0.04871857 -0.012993119 0.1262158 -0.05466781 0.053419717
0.033542454 0.03262386 -0.10499435 0.00057272194 0.0025197882 -0.047621667 0.082407095 0.12023896
0.12292341 0.10133105 -0.038025126 -0.07534852 0.090863355 0.11021909 -0.071424484 0.06967327
-0.039498147 -0.011986429 0.103215374 0.110657364 -0.10072941 0.07733031 0.104080215 0.037613917
0.06816329 0.044622093 0.02171823 0.08322466 -0.07502245 -0.0014145041 -0.019112822 0.05340097
-0.10093549 0.07355377 -0.050071403 0.09587045 0.0057774847 0.028911795 0.061804302 0.04658545
0.073942505 0.092067674 -0.0110207675 -0.061841693 0.047146257 -0.09997947 0.04734432 0.048005916
0.118319005 0.08915737 -0.07027878 -0.07635487 -0.009941345 -0.095316425 0.035160013 0.076025434
0.031117871 -0.14836961 0.021459462 -0.09660248 -0.095025025 -0.13410743 -0.07915543 -0.07959108
-0.07651594 0.07339215 -0.05062118 0.0050338744 -0.06301094 0.045201585 -0.11824155 -0.058978803
-0.1161709 -0.0979302 -0.0578862 -0.13070635 -0.038980234 -0.15986878 -0.007159261 -0.012696244
0.04942939 -0.12217357 -0.05714405 -0.030859396 -0.15412506 0.031055035 0.025935074 0.04561255
-0.04509999 -0.023352444 0.05299652 -0.07382506 0.0014126472 0.008341274 -0.14124788 -0.092861965
-0.09405376 -0.12367858 0.07174472 -0.07673163 -0.073233426 -0.12492479 0.07110215 -0.058795195
0.07589282 0.0710416 -0.07330075 -0.020576434 0.022707548 0.101975635 -0.05982969 -0.07701447
0.09106132 0.07186413 -0.115204334 0.01629711 -0.13534762 -0.005122853 -0.0016637951 -0.08606374
-0.010646887 0.03963791 0.03459648 -0.06531126 0.0102457935 0.010344984 -0.082765505 0.13316254
-0.07555524 0.06069302 -0.11439814 -0.15448 0.03344749 0.11801802 -0.06620511 -0.05338559
-0.09285407 -0.14061211 0.045115247 0.08253591 0.075873464 -0.039478626 -0.079298034 -0.025060518
-0.039685406 -0.07028124 0.026908627 -0.03148041 -0.11287995 -0.118970536 0.10352678 -0.023680218
-0.05588306 -0.091725826 0.10920843 -0.023424804 0.1390781 0.013269493 -0.10774756 0.10522437
-0.06885551 0.063934974 0.0019867574 -0.02086978 -0.10142923 -0.09623945 -0.03203377 0.05756859
-0.13632081 -0.0581093 0.023035802 0.0043832674 -0.14775856 -0.060547773 -0.04931004 0.036561273
-0.06997679 0.085379206 -0.026802203 0.073772125 0.07342851 0.09725105 0.020252086 0.15187348
00000000: 1971 123e d223 91bd bf1f 95bd 208d 473d
00000010: 17e1 54bc b73e 013e 5beb 5fbd a2ce 5a3d
00000020: d063 093d 99a0 053d 4707 d7bd b822 163a
00000030: 0823 253b f00e 43bd 0dc5 a83d d83f f63d
00000040: 45bf fb3d a786 cf3d 3cc0 1bbd 5350 9abd
00000050: 9116 ba3d 8cba e13d 0047 92bd dcb0 8e3d
00000060: cfc8 21bd ba62 44bc 9562 d33d 54a0 e23d
00000070: 394b cebd 5b5f 9e3d 0228 d53d 0d11 1a3d
00000080: 3299 8b3d a8c5 363d 6eea b13c b171 aa3d
00000090: 5fa5 99bd e266 b9ba 7e92 9cbc faba 5a3d
000000a0: 44b7 cebd 5ca3 963d ac17 4dbd ba57 c43d
000000b0: 0e51 bd3b 6ed8 ec3c 8226 7d3d 63d0 3e3d
000000c0: 2b6f 973d fa8d bc3d 7390 34bc b74d 7dbd
000000d0: 6f1c 413d 09c2 ccbd 1eec 413d daa1 443d
000000e0: 3c51 f23d 2498 b63d 52ee 8fbd f15f 9cbd
000000f0: 06e1 22bc 4235 c3bd f203 103d 39b3 9b3d
00000100: e8ea fe3c 34ee 17be c1cb af3c 85d7 c5bd
00000110: 7b9c c2bd 7553 09be 3e1c a2bd a600 a3bd
00000120: 64b4 9cbd a04e 963d 2858 4fbd 33f3 a43b
00000130: e10b 81bd 4c25 393d a028 f2bd c293 71bd
00000140: 02eb edbd a18f c8bd 141a 6dbd e3d7 05be
00000150: bda9 1fbd a4b4 23be 3c98 eabb e803 50bc
00000160: 7976 4a3d 2336 fabd e10f 6abd d8cc fcbc
00000170: f6d2 1dbe 2167 fe3c cb75 d43c 3ad4 3a3d
00000180: c4ba 38bd a04d bfbc e112 593d 9831 97bd
00000190: 9328 b93a d7a9 083c 49a3 10be 6a2e bebd
000001a0: 429f c0bd 324b fdbd e5ee 923d 7925 9dbd
000001b0: 68fb 95bd 91d8 ffbd 019e 913d 3bd3 70bd
000001c0: b26d 9b3d 427e 913d b41e 96bd e98f a8bc
000001d0: 2e05 ba3c 9ad8 d03d fa0f 75bd c3b9 9dbd
000001e0: 5b7e ba3d 802d 933d 40f0 ebbd 8481 853c
000001f0: 9198 0abe 9bdd a7bb b313 daba 3042 b0bd
00000200: 4870 2ebc 5c5b 223d 0ab5 0d3d e9c1 85bd
00000210: f9dd 273c 027e 293c f680 a9bd c35b 083e
00000220: b5bc 9abd 3e99 783d 9249 eabd 0130 1ebe
00000230: 3c00 093d 6fb3 f13d 8b96 87bd d9aa 5abd
00000240: 462a bebd 9ffc 0fbe c4ca 383d 9608 a93d
00000250: 8c63 9b3d 57b4 21bd 0267 a2bd b74b cdbc
00000260: 2a8d 22bd 9cef 8fbd 7b6f dc3c 9af1 00bd
00000270: 9a2d e7bd d3a6 f3bd d905 d43d 04fd c1bc
00000280: a3e5 64bd c0da bbbd aba8 df3d 60e5 bfbc
00000290: 7d6a 0e3e 4a68 593c c1aa dcbd e07f d73d
000002a0: 1e04 8dbd 57f0 823d 4234 023b 1af7 aabc
000002b0: 21ba cfbd 3019 c5bd d835 03bd 0bcd 6b3d
000002c0: af97 0bbe 0404 6ebd 94b5 bc3c 83a1 8f3b
000002d0: 054e 17be f100 78bd 53f9 49bd 46c1 153d
000002e0: fe4f 8fbd 4bdb ae3d 4b90 dbbc d715 973d
000002f0: b061 963d 8f2b c73d b4e7 a53c b984 1b3e

gkf.gat_rnn.r_input_gru.bias_hh_l0 f4 [192]
-0.07927462 -0.091232955 0.030203784 -0.059394374 -0.049264714 -0.09625917 0.03251769 0.08630072
-0.0320334 0.059391953 0.06879436 0.023803625 -0.057242043 0.09872178 0.06695715 -0.04324974
0.09367075 0.101853125 -0.07066464 -0.116868146 0.058151063 0.08444385 -0.037108682 0.09871358
0.0054629063 0.023154765 0.088243075 -0.023354545 0.1020013 0.02602355 0.039798684 -0.0057128225
0.010778819 0.03960365 -0.06335792 -0.048646316 0.024834506 -0.018959098 -0.03807109 -0.09777285
-0.047645 0.13765968 -0.06194415 0.043320645 0.11962149 0.10510061 0.014555532 -0.028555516
0.1251853 0.049388368 -0.08941652 -0.07521011 -0.03537434 0.0041322517 -0.04216161 0.018345937
0.07159119 -0.10118991 -0.08825473 0.07105657 -0.10060095 0.05057864 0.050245687 -0.1121475
-0.04397469 0.06864181 -0.03641384 -0.057008762 -0.1329953 -0.045121092 -0.16602944 0.06281279
-0.11931929 -0.054854155 0.010990547 -0.051253513 -0.010274678 -0.017997514 -0.050467577 -0.068137005
0.06260437 0.0023206107 -0.010684162 0.027663164 0.0053991047 0.011442176 -0.024509152 -0.043806244
-0.04859701 -0.11630648 -0.042943493 -0.10704179 0.039958872 0.022983817 -0.014730127 -0.12979859
-0.019026004 -0.01872047 0.01292114 0.104698725 0.049535993 0.0022279127 0.08922303 -0.043348704
0.059660263 -0.021653732 0.0013005816 -0.0016445564 -0.059782054 0.10792033 0.063076474 -0.1014885
-0.11833529 0.082741275 0.03245421 -0.07597803 -0.16371676 -0.024855664 0.0012527456 0.079946585
0.020581001 0.008276429 0.06541495 0.003936762 0.011837605 -0.06138551 0.071662925 0.01126905
0.02690488 0.009923272 -0.045730732 -0.07232486 0.07987918 0.027718218 -0.0025077637 -0.04997535
0.12830015 0.024504988 -0.008976236 -0.11990196 -0.06496015 0.05062087 -0.010760291 0.045325033
-0.122070804 -0.097828954 -0.06194054 0.06882354 0.048720416 0.051833015 0.03763848 0.0764681
0.1413656 0.11336881 0.01262163 0.015266804 0.022025907 0.03120525 -0.120710865 -0.13797767
-0.16019072 0.049449693 0.14184782 0.056952048 0.06712907 0.050779752 -0.09424945 0.14373834
0.047983363 -0.033571355 -0.11964117 0.06506146 -0.10373432 -0.017639877 0.13752674 -0.05066144
0.048266202 0.025256256 -0.028068237 -0.14218454 -0.056328416 -0.12045207 -0.15839747 0.15517588
-0.07891616 -0.0774364 0.06418803 -0.06508482 -0.06363636 -0.058841582 -0.061452236 -0.05968097
00000000: bb5a a2bd 58d8 babd ed6d f73c 8447 73bd
00000010: ccc9 49bd 8723 c5bd 4531 053d 6fbe b03d
00000020: 7435 03bd fa44 733d 0fe4 8c3d d2ff c23c
00000030: a276 6abd a52e ca3d d520 893d a426 31bd
00000040: 73d6 bf3d 5f98 d03d 9fb8 90bd 9158 efbd
00000050: cf2f 6e3d e6f0 ac3d 46ff 17bd 582a ca3d
00000060: 2e02 b33b 10af bd3c c9b8 b43d 0852 bfbc
00000070: 0fe6 d03d 572f d53c f203 233d a132 bbbb
00000080: a599 303c 7037 223d ccc1 81bd 5c41 47bd
00000090: bc71 cb3c 1c50 9bbc 6ef0 1bbd 223d c8bd
000000a0: 6727 43bd a9f6 0c3e 26b9 7dbd fd70 313d
000000b0: 1dfc f43d fd3e d73d 537a 6e3c 42ed e9bc
000000c0: 9330 003e 754b 4a3d 0220 b7bd c207 9abd
000000d0: afe4 10bd d767 873b a7b1 2cbd 384a 963c
000000e0: 679e 923d a83c cfbd e5be b4bd 1b86 913d
000000f0: df07 cebd 8c2b 4f3d 6cce 4d3d 97ad e5bd
00000100: ce1e 34bd 1494 8c3d ae26 15bd 0582 69bd
00000110: ec2f 08be e5d0 38bd 9f03 2abe fea3 803d
00000120: ac5d f4bd c0ae 60bd b211 343c 34ef 51bd
00000130: 1f57 28bc 866f 93bc 17b7 4ebd 6a8b 8bbd
00000140: b836 803d 6315 183b a00c 2fbc dc9d e23c
00000150: f9ea b03b f777 3b3c 6bc7 c8bc 2d6e 33bd
00000160: a90d 47bd 1732 eebd 84e5 2fbd ba38 dbbd
00000170: eaab 233d 8f48 bc3c a156 71bc ece9 04be
00000180: 6cdc 9bbc ac5b 99bc 30b3 533c 496c d63d
00000190: 41e6 4a3d 2c02 123b 90ba b63d 698e 31bd
000001a0: 525e 743d 2b63 b1bc 4778 aa3a 288e d7ba
000001b0: 07de 74bd 5505 dd3d 3d2e 813d 34d9 cfbd
000001c0: c659 f2bd 4274 a93d b5ee 043d 5f9a 9bbd
000001d0: 5ea5 27be 1b9e cbbc 2b33 a43a 09bb a33d
000001e0: 7d99 a83c dc99 073c 46f8 853d f4ff 803b
000001f0: 84f2 413c 5f6f 7bbd 03c4 923d d2a1 383c
00000200: 9f67 dc3c 3895 223c 2650 3bbd 0e1f 94bd
00000210: b297 a33d 5111 e33c 4b59 24bb f4b2 4cbd
00000220: 1d61 033e afbe c83c 1011 13bc 298f f5bd
00000230: d409 85bd d457 4f3d ee4b 30bc bea6 393d
00000240: 4200 fabd 8c5a c8bd 5db5 7dbd 5bf3 8c3d
00000250: 0f8f 473d db4e 543d cf2a 1a3d 4f9b 9c3d
00000260: 25c2 103e e82d e83d f4ca 4e3c 9e21 7a3c
00000270: ad6f b43c 27a2 ff3c 4237 f7bd 054a 0dbe
00000280: 0909 24be c38b 4a3d 8e40 113e 8d46 693d
00000290: f77a 893d 6efe 4f3d db05 c1bd 2530 133e
000002a0: 348a 443d 1e82 09bd 6e06 f5bd f13e 853d
000002b0: a972 d4bd 8181 90bc cfd3 0c3e 5f82 4fbd
000002c0: c8b2 453d 35e6 ce3c 5cef e5bc d398 11be
000002d0: a0b8 66bd 93af f6bd f232 22be 6de6 1e3e
000002e0: cc9e a1bd fa96 9ebd 0475 833d 314b 85bd
000002f0: c853 82bd df03 71bd 57b5 7bbd 0874 74bd

gkf.gat_rnn.gcn_nodes.bias f4 [64]
0.08094195 -0.10292167 0.052656785 -0.08009207 0.08040405 -0.079845086 0.089092836 -0.08545973
-0.091420256 0.08869627 0.08435523 0.07767473 0.090742484 -0.08461979 -0.08428774 -0.088887595
-0.06327917 -0.087528974 0.08450667 -0.09224669 -0.089575104 0.08759212 0.044610456 0.08391625
0.0868031 0.07150812 -0.013111902 0.055294376 -0.0823319 -0.009732821 -0.08716179 -0.05143874
-0.08752977 -0.08622484 -0.07932581 -0.0885287 -0.074555166 0.079931386 -0.084263876 -0.08831943
-0.08681312 0.07442318 -0.07703379 0.028323105 -0.094810665 0.086379245 -0.065156765 0.086751394
-0.078637235 -0.09163766 0.08706202 0.08612804 0.09057076 0.088847995 -0.08269915 -0.08354014
-0.0710018 0.09062831 0.08491661 -0.07697241 0.08432127 -0.08703261 -0.089908026 -0.08659828
00000000: e5c4 a53d 99c8 d2bd a4ae 573d 5007 a4bd
00000010: e1aa a43d d285 a3bd 4e76 b63d 8305 afbd
00000020: 8b3a bbbd 64a6 b53d 6fc2 ac3d ee13 9f3d
00000030: 32d7 b93d 244d adbd 0d9f acbd b30a b6bd
00000040: 8298 81bd 6442 b3bd d511 ad3d d5eb bcbd
00000050: 2773 b7bd 7f63 b33d 74b9 363d 48dc ab3d
00000060: d3c5 b13d d972 923d 4ed3 56bc 5b7c 623d
00000070: a19d a8bd 6976 1fbc e181 b2bd 6eb1 52bd
00000080: cf42 b3bd a696 b0bd 9275 a2bd 894e b5bd
00000090: 61b0 98bd 11b3 a33d 8a92 acbd d1e0 b4bd
000000a0: 14cb b1bd 2e6b 983d e4c3 9dbd db05 e83c
000000b0: 182c c2bd 9ae7 b03d e970 85bd b7aa b13d
000000c0: 8f0c a1bd 87ac bbbd 934d b23d e663 b03d
000000d0: 2a7d b93d f0f5 b53d 2c5e a9bd 1817 abbd
000000e0: 6469 91bd 569b b93d c2e8 ad3d b6a3 9dbd
000000f0: a1b0 ac3d 273e b2bd b321 b8bd 705a b1bd
