models/with_mismatch/kalman_process_50n_local_params_r2_linear_20deg.pth (torch, 269954 bytes, 28 tensors)

gkf.gat_rnn.fc_delta_y_innov.0.weight f4 [64, 3]
00000000: 2dd2 e63e e1c4 063f ff25 03be 91df 093f
00000010: 9d7b a0bd 24b0 eb3d 9c16 95be 188b bb3e
00000020: 6efc 063f 2071 debe ba65 103f d5cb ae3d
00000030: 9dd9 de3e a0ce be3d 5d6b a13e 542e 85bd
00000040: 197d 023f 13b4 5f3d 57af 8ebe 6202 593e
00000050: 19c8 97be f6dc c1bc fb08 9dbe 5686 eb3e
00000060: e9e8 eebe 0498 51be a341 38be d045 b8be
00000070: d8c1 023e a102 28bf 1080 073f 50a6 fdbe
00000080: 6d51 023f 25b7 c23d 1b5a 76be c25c e73e
00000090: cf89 6b3d 6616 023f 28b6 f33c cf9f 3dbe
000000a0: 1c4c 0e3e f274 26be f8fe 7b3e 952d 133f
000000b0: 42ef 9f3e 2937 81be e179 ae3e 91e2 013e
000000c0: e9dc 9c3e 4cde c2be 74db 08bf 25ea 61be
000000d0: fa51 e9be 087a 083f ab58 1c3e 1299 9e3e
000000e0: 8825 2c3e 640b 5ebc 4a08 063f 45c7 f3be
000000f0: 1e3d dc3d b500 f5be 8505 693e 52ab 4fbe
00000100: a429 393e a8d8 eabd b252 003f bd29 96be
00000110: e990 9bbe 2009 b1be 91c3 103f f23b 293e
00000120: 0f83 113f f21e e8be d047 12bf eee2 e5be
00000130: 7782 c3be a7b7 693e 5160 4c3e 5444 0a3f
00000140: 7998 b2be 6b74 ccbe cdcd 9b3e 85f4 33be
00000150: 5c44 b63e ae43 c3bd c0d2 a93e 02d9 e2be
00000160: d029 8bbe f4f6 6d3e 34f1 143e 55b5 4dbe
00000170: 5b9b d13e 3671 d23e 7c9e cebe 1c68 83be
00000180: 6144 093f c068 2abe 2b78 41be d99f 0fbf
00000190: 0448 99be 1460 243e 6b91 9bbd 8492 cdbe
000001a0: aa5f 593d d2f9 cdbe 4a96 f2be edc5 97be
000001b0: 5ac4 03bf e801 d7be ed6e 1e3f 7713 ca3d
000001c0: 4566 293e c163 0dbf 91ab c4be 059c 4ebe
000001d0: dd8b ef3d fb46 07bf 1277 83be f397 8ebe
000001e0: b2b3 4a3c 0f1f 51be 3d00 1fb8 a96b cbbe
000001f0: 784a c2be 6a1c 9cbe dba9 2ebe f6a1 02bf
00000200: c775 083f c2bf e3bd 01c9 0d3f df27 f73d
00000210: 6aa8 fdbe e419 de3e 49be dcbd 5f0f 75be
00000220: c0cb 0abf 9a17 01bf 5c3a 3a3e 2180 11be
00000230: 3e72 8f3e 99ce f9be 46b7 ea3e 62c2 e6be
00000240: 8805 aabd 9e13 2d3e e5f6 9f3e 99ed f83e
00000250: ca3e 173f 8903 f2be bb34 2c3e 9208 93be
00000260: 925a 893c bffb e3be 4a2f 143f 192a fabe
00000270: 9ae6 9e3e 6080 883e 9424 2c3e 2a5a 9fbe
00000280: f8e7 123f 6a59 e53d 9ebb 193e 088c 16bf
00000290: 633d af3e 2b3e babd be5c 86be 2bde 063f
000002a0: bca1 0d3e 85a7 a0be ff70 85be b6d1 89bc
000002b0: e4f6 c53e d3b9 46be c44c b0be 3675 3cbe
000002c0: 5954 e2be 4ee6 633e 68d3 053f 280d 19bf
000002d0: ca5b 093e 6cba bb3e de61 8b3d 6d38 6cbe
000002e0: 5d84 b33e deb8 b93e f286 633e 942a 02be
000002f0: 3614 efbd 3707 b73d 5d0f 65bd a53d 43be
0.45082226 0.52644163 -0.12807463 0.5385676 -0.07836077 0.115082055 -0.29118812 0.36629558
0.5272893 -0.43445683 0.5640522 0.085349716 0.435254 0.09316754 0.31527224 -0.06502977
0.50972134 0.05461509 -0.2786815 0.21192315 -0.2964485 -0.023664933 -0.30670914 0.46000928
-0.4666207 -0.20468146 -0.17993788 -0.35990763 0.12769258 -0.6562901 0.5292978 -0.4954095
0.50905496 0.09507588 -0.2405781 0.45187956 0.05750447 0.5081543 0.029749945 -0.18517993
0.13896221 -0.16255549 0.24608982 0.5749143 0.31237227 -0.25237396 0.3407736 0.12684084
0.3063729 -0.38060224 -0.5345986 -0.22061975 -0.45570356 0.53311205 0.15268199 0.30976158
0.16811192 -0.01355252 0.523564 -0.47612968 0.10753845 -0.47852102 0.22756012 -0.20280197
0.18082291 -0.11467105 0.50126183 -0.2932872 -0.30383995 -0.34577274 0.5654841 0.16526774
0.56840605 -0.4533611 -0.5714083 -0.44899696 -0.38185474 0.22823964 0.19958617 0.5401051
-0.34881952 -0.3993257 0.3043045 -0.17573746 0.3559903 -0.09534393 0.33168602 -0.4430619
-0.27180338 0.23238736 0.14545137 -0.20088704 0.4093884 0.41101998 -0.4035529 -0.25665367
0.5361996 -0.16641521 -0.18893497 -0.56103283 -0.29937756 0.16052276 -0.07596096 -0.40150845
0.053069748 -0.4022966 -0.47380286 -0.29643193 -0.51471484 -0.41993642 0.6188801 0.09866994
0.16542919 -0.5523034 -0.38412145 -0.20176704 0.11696599 -0.5284268 -0.2567678 -0.27850303
0.012371944 -0.20422004 -3.7908776e-05 -0.39730576 -0.3794744 -0.30490428 -0.17056982 -0.5102838
0.53304714 -0.11120559 0.5538483 0.12068152 -0.49542552 0.43379128 -0.107784815 -0.23931645
-0.5421715 -0.5042664 0.18186325 -0.14209034 0.28016847 -0.48790434 0.45842952 -0.45070177
-0.08301836 0.16902015 0.31243053 0.48618773 0.59080184 -0.47268322 0.1681699 -0.28717476
0.01676682 -0.44528005 0.5788466 -0.48860243 0.3103531 0.26660442 0.16810828 -0.31123477
0.57385206 0.11198695 0.15012977 -0.5880742 0.34226522 -0.09093889 -0.26242632 0.5268275
0.13831228 -0.31377807 -0.26062772 -0.01682363 0.38664925 -0.19406824 -0.34433568 -0.18404087
-0.44204977 0.22255823 0.52275705 -0.597857 0.13413921 0.36665666 0.06805776 -0.230684
0.35061923 0.36273855 0.22219446 -0.12711555 -0.11673777 0.08936923 -0.055922855 -0.19066484

gkf.gat_rnn.fc_delta_y_innov.0.bias f4 [64]
00000000: dced d03e a0de 093f d4c3 04bd 7089 aabd
00000010: b73e 103d b15f 703c 2366 3e3e dc49 4f3e
00000020: 1e56 fdbe 8394 2fbe 911b 033f c4b6 883e
00000030: 824f 26bb 3a0b b8be 33e7 9fbe 3209 01bf
00000040: d292 2cbe 383b 6b3e bb64 db3e 76f5 ac3e
00000050: e7b6 f1be 2088 b0be 574c 2abd 2171 153f
00000060: e741 cc3d cf2d 19be f359 843e 40bd 4bbe
00000070: 9731 b4be 060a ef3e 528d 5cbe fc92 aabd
00000080: 8480 0cbf 8cbe d43e 28a8 f63e ef10 6e3e
00000090: 3e71 d1be ee56 15bf 301d eebe 0cd2 ee3e
000000a0: d334 9f3e 1d68 043f 41c9 9d3e e59c 2e3e
000000b0: 574f 343d bf04 debe 5e23 ecbe 67bd 05bf
000000c0: 1e36 8f3e 7c7a 68be d104 5ebd 184b 9dbe
000000d0: 2367 9bbd 5b59 bfbe 1f6d 8fbe 55fc 5a3e
000000e0: 070a 1ebe a9e8 c43e ec7d 2dbe 17c8 babe
000000f0: 7729 77bd 00c5 65be 6ad7 26be a485 05bf
0.40806472 0.53855324 -0.03241332 -0.083269954 0.03521606 0.014671252 0.1859365 0.20243019
-0.49479765 -0.17146496 0.5121394 0.2670194 -0.002537698 -0.35946065 -0.31231079 -0.50404656
-0.16852883 0.22971809 0.4285029 0.33781022 -0.47209856 -0.34478855 -0.04157671 0.58375746
0.099735074 -0.14958881 0.25849876 -0.19896412 -0.35194084 0.46687335 -0.21538284 -0.08328816
-0.548836 0.41551626 0.48175168 0.23248647 -0.4090671 -0.5833577 -0.46506643 0.46644628
0.3109499 0.51721364 0.30817607 0.17052038 0.044020977 -0.43362996 -0.46120733 -0.5224213
0.27970976 -0.22702974 -0.054203812 -0.30721354 -0.07588031 -0.3737286 -0.2801294 0.2138532
-0.15433513 0.38458756 -0.16942567 -0.3648078 -0.06034228 -0.22438431 -0.16293111 -0.52157044

gkf.gat_rnn.fc_delta_y_innov.2.weight f4 [64, 64]
00000000: 9d62 cc3d c86f adbd 3d7d f03d 2987 073e
00000010: a00a ad3d 3535 3ebb b8c0 343e 803e f1bd
00000020: bdae cc3c 6629 333e d9d7 0dbd 68b1 05bd
00000030: da84 263d f79f 96bd 689b a03d 0117 bebd
00000040: 25d4 983d 8bcd 803d 22bd 1a3e 9e9c 863d
00000050: 1553 65be c8e7 613d 7fc3 813d 1926 47bd
00000060: 9f38 f5bc 871c d0bd 3f09 3e3d e0ff 173c
00000070: 4878 9abd d14c 86bb 719b 31be aac2 b13d
00000080: 162f c73d bf01 6e3c b05b ebbc 0fa5 41bd
00000090: 4a4e 23be 789a 3cbd f55f 1f3c 216e 56bc
000000a0: f0f7 aabd daa2 243d 68d3 a1bd 940e 2e3d
000000b0: 457f a73d 9e53 8bbd a51e c1bd ba72 0b3b
000000c0: c961 62bd 9bb8 123e efed bdbd fa6d f93d
000000d0: 4c1c 1abd 96ce b33d 6eb5 113d 8bde 8c3c
000000e0: d821 0abe d787 0a3e e952 003e cc1f d53d
000000f0: 8414 f03d a501 313e 6cdf ebbc 3794 c6bc
00000100: 752c 5cbd a9c2 453c fd3d 9a3d 9d41 2f3d
00000110: 3b94 25bd 4504 fcbd 27cd e5bd c16d b2bd
00000120: a5c8 f5bd f10b 4fbd 5184 fe3d 86b0 743d
00000130: 8172 88bd 05e6 02be 7b7d c93d 55e5 e3bd
00000140: 7781 3c3c 845c bc3d 4d85 c8bc 9fc6 96bb
00000150: 678a 95bc 3733 5fbd 92f1 f9bc 1c54 08be
00000160: 7a5e 8dbd 121d f8bd 0a04 183e aa17 b7bd
00000170: 9a79 46bd 045d 1a3c 8bfd 923d 0642 cc3d
00000180: b129 fd3d 1afd 023d 18bf afbd ba2a 563b
00000190: bb46 8e3c 53da 0a3c e05a c1bd a8dc 563d
000001a0: 508f 37bc c142 0abe 31cb 92bd de61 6bbb
000001b0: fe5a 073d 31f8 26bc e6c3 4e3d b0e7 e7bd
000001c0: b385 a0bd 30b4 023d 545d 123e f277 263d
000001d0: 0f1e 0fbd 8822 30bd 1233 48bd ce03 9abc
000001e0: 2bad 3d3d 8c93 af3d 4b21 a23d b5c8 aebd
000001f0: 5577 f13d 6ccd 1cbe b654 973d 9214 733d
00000200: 3cdf d03c e555 fa3d c0f1 cabd 41b1 17bd
00000210: c757 9b3d 6ce9 1f3c 3b14 16bc cd72 8cbd
00000220: 78d4 7b3d 4152 783d 747d 1b3d d828 a1bd
00000230: ec20 72bd d78d f63a 9be6 503d f181 85bd
00000240: 2124 14bd 1c08 903d 71fb 143d 8ed2 683d
00000250: 8c7f d8bd d643 00be 1403 f0bd 8b0f 1bbd
00000260: 4910 7cbd 3c7b e43c 2bc0 053b cc4c 39bd
00000270: 5292 e63d 5a48 2f3d 34ba 863d ff31 84bd
00000280: 8bd6 53bd be2f 343d 21e6 b2bd 2f2f b7bd
00000290: 6f32 acbc 16d8 fabc f281 f4bd b71c 9e3d
000002a0: 7b4a dc3d 5cfc b23c 863d 0dbd fdcc adbd
000002b0: c1f3 0dbd 9d73 44bc 4d55 123d 5d67 6dbc
000002c0: 7812 0bbd 79d9 b63d de68 eebd 03c1 b93d
000002d0: 2959 26bd 906c 1e3c b1ca 91bd bb5d 7d3b
000002e0: 6d13 46bd 6fa4 073e 8d89 abbc a0ad 033e
000002f0: 0c66 133e 6754 76bd 923f bfbd e1d5 a73d
00000300: 4d60 033e 1012 93bd b311 bebb fd78 00be
00000310: 26cc adbd 8b7f 403d 0494 0b3d 4f49 2c3d
00000320: f986 37bd 7bb4 e23d 7050 133d 300d 57bd
00000330: 718e d23c db84 c83c 468a 843d 1b09 c1bd
00000340: 9378 443d d92f 82bd 551a 89bd dcd4 10bd
00000350: 4f41 9b3d e756 cd3d 5c64 f73d a466 af3d
00000360: c8bb d53d badf cbbc ad36 17bd 1fa8 723d
00000370: 26e9 77bd 9767 acbd cf8d 1dbd fe0f fe3c
00000380: 6a6a 8f3d 6868 4cbd bcc3 7abd a814 0c3c
00000390: e0a2 a8bd 7517 c1bd b636 5f3d 6fef c1bc
000003a0: b368 133e 0a97 f43d 9610 303d 0ea8 823d
000003b0: 2365 dd3c 2a9b e9bc 6cd3 8fbc dc95 0bbb
000003c0: 0171 863d c9f1 0b3e c8ea 10bd 84c2 5fbd
000003d0: d894 3fbc 9850 81bd 13ac a438 bbf7 d93d
000003e0: 447e ae3d 6a8c b33d 30ca cdbd 2aac 49bd
000003f0: 5b06 a1b9 149d ddbc 575c 793c b9b5 24be
0.099797465 -0.08468586 0.11742637 0.13235153 0.08449292 -0.0029023413 0.17651641 -0.11779499
0.024985665 0.17496261 -0.034629676 -0.03263989 0.04065404 -0.073547296 0.078421414 -0.092817314
0.07462338 0.06289204 0.15111211 0.06572841 -0.22394975 0.055152684 0.06336116 -0.048620317
-0.029934226 -0.10161691 0.046395537 0.009277314 -0.07542473 -0.0040985127 -0.17344452 0.08679707
0.09725778 0.0145267835 -0.028730243 -0.047276553 -0.15947834 -0.04604575 0.009727468 -0.01308778
-0.083480716 0.04019437 -0.07901651 0.04249437 0.081785716 -0.06803058 -0.09429673 0.00212781
-0.055269036 0.14328234 -0.09273898 0.121791795 -0.037624642 0.087796375 0.035573415 0.01719596
-0.13489473 0.13528381 0.12531628 0.104064554 0.11722663 0.17285784 -0.02879306 -0.024240596
-0.053753335 0.012070336 0.075313546 0.042787183 -0.040424567 -0.12305502 -0.1122077 -0.0871234
-0.120011605 -0.050548498 0.12427581 0.05973866 -0.06662465 -0.12783058 0.098383866 -0.11127726
0.011505476 0.091973335 -0.024477625 -0.004601314 -0.018254472 -0.0544922 -0.030510698 -0.13313335
-0.069027856 -0.1211492 0.14845291 -0.089400604 -0.048455812 0.009421591 0.07177266 0.099735305
0.12361468 0.031979658 -0.0858137 0.0032679276 0.017367711 0.008474904 -0.09441161 0.052456528
-0.011203602 -0.13502027 -0.07167662 -0.0035916488 0.03304576 -0.010191009 0.050479792 -0.11323488
-0.07838001 0.03191012 0.14293414 0.040641733 -0.034940775 -0.04300168 -0.04887683 -0.018800642
0.046307724 0.08573064 0.079165064 -0.085343756 0.11790339 -0.15312737 0.07389204 0.05934579
0.025497071 0.12223414 -0.099093914 -0.037034277 0.075851016 0.009760242 -0.009160097 -0.06857834
0.061481923 0.06062532 0.03796144 -0.078691185 -0.059113428 0.0018810582 0.051001173 -0.06518925
-0.036167268 0.07032797 0.036372606 0.056841426 -0.10571203 -0.12525877 -0.11719337 -0.03785662
-0.06153897 0.027890794 0.002040873 -0.045239255 0.11258377 0.04279361 0.06578484 -0.064548485
-0.051718276 0.043990843 -0.087353 -0.089445464 -0.021020142 -0.030620616 -0.119388476 0.07720321
0.107563935 0.02184885 -0.0344825 -0.08486364 -0.03465629 -0.011990455 0.03572588 -0.014489976
-0.03395316 0.08928198 -0.116410956 0.09070017 -0.040612374 0.009669438 -0.071187384 0.0038660604
-0.04835837 0.1324632 -0.020939613 0.12859201 0.14394397 -0.060139086 -0.09338297 0.08195091
0.12829705 -0.071811795 -0.0058004498 -0.12546153 -0.08486204 0.046996634 0.034076706 0.0420621
-0.044806454 0.1106958 0.035965383 -0.05250281 0.025702687 0.024477413 0.06471686 -0.09425565
0.04796655 -0.063567825 -0.066944756 -0.03535925 0.07580816 0.10026341 0.12079689 0.08564499
0.10436207 -0.024886955 -0.036917377 0.059242364 -0.060525082 -0.08418196 -0.038465317 0.031013485
0.07002719 -0.049904257 -0.061221823 0.008549847 -0.08234191 -0.09428302 0.054495536 -0.023673741
0.14395408 0.11942871 0.042984568 0.0637971 0.027025765 -0.02851637 -0.017556868 -0.002129904
0.065645225 0.13666452 -0.035380155 -0.054628864 -0.011693202 -0.063142 7.852181e-05 0.10642954
0.08520177 0.08767016 -0.1004833 -0.049236454 -0.00030713048 -0.02705244 0.015219769 -0.16084947

gkf.gat_rnn.fc_delta_y_innov.2.bias f4 [64]
00000000: 7f93 3e3d c73e ba3d 5724 353d 5d58 6ebd
00000010: 1e5d bd3d 2258 dc3d 3ab0 84bd fb1c 28bd
00000020: c142 d5bd 10ea d4bc 1fae ecbc f9e0 d33a
00000030: b23d 993c 99c9 413c 76e1 e13d 32f0 fc3c
00000040: c390 acbd e71f b2bc 11e4 6abd 021d dfbc
00000050: 7070 c5bd 2fcf 1d3d 4ec2 c0bd 50de b53c
00000060: 46dd ea3d dccc d4bd 344a 22bd 62ff ffbd
00000070: 4891 8f3d b9a0 983c 2ad4 cabc 8f43 ce3d
00000080: 201a d23d fda7 03be e165 0b3d f218 acbc
00000090: eecb 52ba 7cd0 083e 5726 fe3b aa29 87bd
000000a0: ccec 023e 1465 cfbd ad4f 7ebc 2868 943d
000000b0: 3f4b 0a3e 1eec 103e 4a9d 453b 43ab a53d
000000c0: e730 c3bd 2753 b23a 07d1 d03b 348f 643d
000000d0: d884 5bbd 47e8 5d3d 7ee9 863d 9f0e fa3d
000000e0: 8a35 25b9 5eed 003e 590c c6bd e31a c6bc
000000f0: 6555 183d a572 763d c018 a53d 8d47 84bd
0.046527382 0.09094005 0.04422411 -0.05818974 0.09246276 0.107589975 -0.06478925 -0.041043263
-0.10413123 -0.025990516 -0.028891621 0.001616507 0.018706176 0.01182785 0.110293314 0.030876253
-0.084260486 -0.021743728 -0.057346407 -0.027235512 -0.096405864 0.038527664 -0.09412061 0.022200733
0.11467986 -0.10390636 -0.039621547 -0.12499882 0.07010132 0.018631326 -0.02475937 0.100714795
0.10258889 -0.12857051 0.034032706 -0.021007989 -0.0008041252 0.1336078 0.0077560353 -0.06599744
0.12785643 -0.10126701 -0.015521926 0.07246429 0.13505267 0.14152572 0.0030153566 0.08089306
-0.09530812 0.0013605104 0.0063725743 0.05580063 -0.053593487 0.054176595 0.06587504 0.1220982
-0.00015755571 0.12590548 -0.09670324 -0.024182742 0.037190814 0.060167927 0.08061361 -0.0645896

gkf.gat_rnn.fc_r.0.weight f4 [64, 1]
00000000: 5460 2c3f 6cfc 73bf f0fe 33bf 24e8 dcbc
00000010: ce8c 76bf 4d41 78bf de0c 60bf 6329 5d3f
00000020: 1d50 8c3e 0078 97be 27c2 86bd d358 61bf
00000030: f704 76bf 35a6 37bf 2f2b 7cbf 89f2 353f
00000040: ab12 bebe 676f 86be 455b 63bf a5fe 753e
00000050: c992 09be f217 31bf 315a 2d3f 73db 663f
00000060: 9612 3bbf a3ef 1b3f fc84 37be 1e95 f1bb
00000070: 803d f23e 2623 30be 76b5 693f 8438 263f
00000080: 4f9f 29bf afc0 1ebf 7f9f 82bf 7ee7 b63e
00000090: 4afb 4abf 3db2 58bf 8241 24bf 42aa 80bf
000000a0: a589 54bf 705f 733f 76df 173f 59a5 753f
000000b0: 6104 f4be cd4b d6be 380c b2be 4fc7 573d
000000c0: c654 3dbf e76a 333e a7a1 25bf 1cd0 593e
000000d0: f22b 763f 0e42 523e 659e 4a3f 5575 39bf
000000e0: b681 06be 3b15 23bf 46c2 35be d57a d5be
000000f0: 2b80 17bf 7301 7cbf d4c3 c1be 9ff5 403e
0.67334485 -0.9530704 -0.7031088 -0.026966162 -0.963086 -0.9697464 -0.87519634 0.86391276
0.27404872 -0.2958374 -0.0658 -0.8802616 -0.96101326 -0.71737987 -0.9850339 0.71073204
-0.37123618 -0.26256868 -0.8881114 0.2402292 -0.134349 -0.6917716 0.67715746 0.901786
-0.73075235 0.6091253 -0.17921823 -0.0073725125 0.47312546 -0.17200908 0.9129251 0.64929986
-0.6625871 -0.6201276 -1.0204924 0.3572349 -0.79289687 -0.8464697 -0.64162457 -1.0051959
-0.8302253 0.950675 0.5932535 0.95955426 -0.4765959 -0.41854706 -0.34774947 0.05268031
-0.7395748 0.17521249 -0.64699787 0.21270794 0.96160805 0.2053301 0.7914794 -0.7244466
-0.13135418 -0.6370427 -0.1774989 -0.41695276 -0.59179944 -0.9843971 -0.37844718 0.18843697

gkf.gat_rnn.fc_r.0.bias f4 [64]
00000000: eca5 f5bd 7f99 68bf 96ec 513f 88b9 493f
00000010: d3db 1dbf 72ea 083e ede2 2e3f 9eda 5dbf
00000020: 6051 54bf 885c 1b3f 8e45 093d 4589 b13e
00000030: b270 babe 388d 5d3e 4247 353f ec13 37be
00000040: b1a9 92be 2fb9 75bf 5cc2 fcbd 1c30 343f
00000050: 4ec0 79bf c2df 33bd b743 443f a55f 66be
00000060: 32d0 a6be 536c 80be f662 c4be b6d0 3d3e
00000070: 4dc8 65bf 7eb4 d83e 9dbf 46be bfa1 9ebd
00000080: 716c 91bd 77cd 1a3f d43f 15bf c454 5dbf
00000090: bb22 25bf ae88 34bf 50cf f9be 6440 543f
000000a0: 55aa 40bf b997 04bf b66b 46bf a903 e8be
000000b0: d84d cdbc 570a 1dbf 2950 fb3b 5ef1 c93e
000000c0: c625 0dbe a4dd f83e ae52 763e 3554 803f
000000d0: e8ed a23c 3c79 663f 8ddc 4d3f 9f09 003f
000000e0: b9f7 1b3f c74f 23bf f546 1cbf d519 f03e
000000f0: 091b d43e 94bf 743f ee0a fcbd ecd0 01be
-0.11994538 -0.90859216 0.82001626 0.78798723 -0.6166355 0.13370684 0.6831501 -0.8666171
-0.8293667 0.60688066 0.0335136 0.3467504 -0.36414105 0.21635902 0.70811856 -0.17878693
-0.2864509 -0.9598569 -0.123417586 0.7038591 -0.9755906 -0.043914564 0.76665825 -0.22497423
-0.32580715 -0.25082645 -0.3835675 0.18536648 -0.8975876 0.42325205 -0.19409032 -0.07745694
-0.07100762 0.60469764 -0.5830052 -0.8645747 -0.6450612 -0.70521057 -0.4879098 0.8291075
-0.75259906 -0.5179401 -0.77508104 -0.45315292 -0.025061533 -0.613439 0.007669468 0.3944196
-0.1378394 0.48606598 0.24054977 1.0025698 0.019888833 0.9002874 0.8041466 0.5001468
0.6092487 -0.63793606 -0.6104577 0.46894708 0.41426876 0.95604825 -0.12306772 -0.12677354

gkf.gat_rnn.fc_r.2.weight f4 [64, 64]
00000000: 52d1 093e 247c b2bb 5d5e ef3d 3461 25bd
00000010: 5742 50bd c4de 5abb 9b02 803d 1554 73bd
00000020: cffa 5f3b 3425 c83d 6e97 953c 9584 a53d
00000030: 5a26 57bd 658e b1bd 8d87 b8bd 5478 a0bc
00000040: 5a9e d4bd 3f2f 503d 3eb7 c33c df53 53bd
00000050: 9251 b13d 0431 d63c 2bc3 a33d e5f0 46bb
00000060: 7d7f 9c3d 6605 0abd 6a18 aa3d a7e3 31bd
00000070: dd29 cb3d f60d 0ebd fa0a 063e b30c 6cbd
00000080: b5b8 0abd 93a1 13bd 95b2 adbd 8cc2 8dbc
00000090: cd6e 38bd 9b3e 543b 9a7d a13d 37c0 c6bc
000000a0: b56a e73d d75e cdbb 7a89 82bc 971f 3c3d
000000b0: 35a7 01bd 12ca 003d e1f8 d83d 53f9 903d
000000c0: 1f70 eabd 959c 6abc f55d 04bd 6044 b1bd
000000d0: 8c8c a93d b7f7 0b3e b0e0 c43d c373 f0bb
000000e0: 38d9 f93b 121a 8bbd 8c1c 15bd 535d df3d
000000f0: 1cb2 8dbd 550d 903c 552a d0bd 1c6a ad3c
00000100: 70da 923c c174 a5bd 9f13 633d 7f19 aabd
00000110: 1af1 12bd e9eb d63d 6ba9 0c3e 141e 99bb
00000120: 8f32 f1bd c053 a3bd 4434 88bc 8759 39bd
00000130: a6d2 eb3d 9a7f 90bd 6828 c33d 41e3 0a3d
00000140: c7d0 bebc 98a5 de3d 3039 b13d 9a19 8e3c
00000150: 074f bbbd 282c a0bc 340f 6f3d a77b f23d
00000160: 23cd d8bc bbe1 2ebd 58d3 e6bd f1c4 d03d
00000170: f502 f03d f269 e13d 6950 72bd 2cb2 ce3d
00000180: dc96 a8bc ddb5 b03d f5f3 b43d 73e0 e5bd
00000190: da07 383d 7a8c 833d 771a 79bd 8b46 0b3e
000001a0: 87a8 e43d 9f62 e73d 4a06 e93a f6ea 6dbd
000001b0: d888 4fbd c7d1 653d 4fe3 00bc d3eb f83d
000001c0: 09ae f83d 2608 013d 218f abbd 230f 933d
000001d0: b156 fd3d e2a1 17bc 3099 44bd 9874 16bc
000001e0: d5f4 2f3d 1ca8 a2bd d99c 693d 4cc8 993d
000001f0: fba1 e3bc cb56 d0bc 234c 2fbd baaf cc3d
00000200: 8e32 e13d 5532 553c fcd5 febc 1b1b 733d
00000210: 77b5 c13d 276b 063c deac babd b1c1 9f3d
00000220: 657a 11bd 5fb4 a6bc a050 f9bd 0d43 0ebd
00000230: c5cd b3bc dba8 dbbd d208 513d aa4f 1a3e
00000240: 33bb 04be 796b a43c c55a efbd b9c0 7d3c
00000250: 1f96 1e3d c6a2 07bd c84e a03d 1a13 b9bb
00000260: 38da ba3d b3a4 c4bc af61 733b a628 213d
00000270: 6822 dd3d 312f 7b3b 4806 e33d 7f46 8c3d
00000280: b765 493d 8fea d2bc 5026 753c 1830 123e
00000290: 38bd 84bd 1559 99bd 725c 883d c7bf 9e3c
000002a0: bdb3 10be dd42 9f3d e572 c4bd 5763 0dbd
000002b0: b6c6 943c 9fb2 3d3d 2859 70bd 2526 143e
000002c0: 8f8b c03d 6f3c 0d3e 1257 15be df0c f3bb
000002d0: c5c0 343d 2823 103e 1060 9d3c 135b 56bb
000002e0: 9ab3 9c3d f2f4 b3bd 7729 c7bd cbbd c83d
000002f0: 6976 05bd 95e2 7a3d 1ed9 1abe c432 3dbc
00000300: 14b1 4b3d 86da 11bd 147c 0c3d 1ec3 babd
00000310: 7070 d03d afbf 9bbd 591f 84bc fabb 00be
00000320: 0810 a4bd b0c3 e0bd f63f f1bd 2ae8 19bd
00000330: f74f 95bd f838 a33d f070 32bc 3141 6f3d
00000340: 4537 2fbd 4724 d2bc bdd1 d53d 7266 d8bd
00000350: f9f6 99bd 652f bc3d 71af 62bd 6305 94bd
00000360: 9d29 08bc 5e99 dabd a394 ddbc 1524 23bd
00000370: adc0 5dbb 613f dcbc 9d51 a4bd f22c adbd
00000380: 9bed 8b3c 5b9e 5c3d 100b 09be bbf3 01be
00000390: 61a2 11be 9a3c 143d e50a 943d 95e1 04be
000003a0: ff0a 1d3c 67de 80bc 7712 e5bd e200 5cbc
000003b0: 8333 a73d 6fa4 be3d 9f14 223d 562e 87bc
000003c0: 6f9f b2bd aef8 70bd bfd5 35bc c50a a0bb
000003d0: 5ece 603d 5c6f e5bd 231c 87bc 9889 4dbd
000003e0: 773f 913c db5b c53d 3fe2 42bd c97d f4bc
000003f0: 3a08 58bd 29df 08be 0287 05be 3ff7 683c
0.13458756 -0.0054469276 0.1168792 -0.040375903 -0.050844517 -0.0033396939 0.06250497 -0.05940636
0.0034176593 0.09772721 0.018260684 0.08081929 -0.05252681 -0.08669738 -0.09010229 -0.019588627
-0.10381766 0.050826307 0.023891088 -0.051593658 0.086581364 0.02614642 0.0799621 -0.0030355987
0.07641504 -0.033696555 0.08305438 -0.043429997 0.09920094 -0.034681283 0.13090125 -0.0576293
-0.033867557 -0.03604276 -0.084813274 -0.017304681 -0.045027543 0.0032385949 0.07885285 -0.024261577
0.112996496 -0.0062674093 -0.015934695 0.045928564 -0.0316536 0.03144271 0.10594345 0.07078805
-0.11447167 -0.014319559 -0.032316167 -0.086556196 0.0827876 0.13668714 0.09613168 -0.0073380186
0.0076247714 -0.06792082 -0.036404178 0.10906472 -0.06918737 0.017584482 -0.10164324 0.021168761
0.017926425 -0.0807891 0.055438634 -0.08305644 -0.035874464 0.10494215 0.13736503 -0.004672775
-0.117772214 -0.079749584 -0.016626485 -0.045251396 0.115147874 -0.07055588 0.09529191 0.033908132
-0.023292912 0.10871428 0.08653486 0.017346192 -0.09145933 -0.019552305 0.05836411 0.11839991
-0.026465004 -0.042695742 -0.11270779 0.101938136 0.11719314 0.110065356 -0.059158716 0.10092577
-0.020579748 0.08628438 0.088355936 -0.11224451 0.044929363 0.06423278 -0.060816254 0.13601129
0.111649565 0.11298107 0.0017778364 -0.058085404 -0.050667614 0.056108262 -0.007866695 0.12154355
0.121425696 0.03150191 -0.08376909 0.071806215 0.12370051 -0.009254904 -0.047997653 -0.009183072
0.0429581 -0.079422206 0.057034347 0.07508907 -0.0277872 -0.025432011 -0.04279722 0.09994455
0.10995971 0.013012488 -0.031107895 0.05935202 0.0945844 0.008204258 -0.09115003 0.078006156
-0.035517115 -0.02034968 -0.12173581 -0.034731913 -0.021948704 -0.10725566 0.051033802 0.15069452
-0.12962036 0.020070778 -0.11687235 0.015487843 0.038717385 -0.033114217 0.07827526 -0.005648029
0.09123653 -0.024004316 0.0037137081 0.039345406 0.10797578 0.0038327689 0.110851824 0.068493836
0.04916927 -0.025746612 0.014962748 0.14276159 -0.06481403 -0.07487694 0.066582575 0.019378556
-0.14131065 0.07776425 -0.09592227 -0.034518566 0.018161159 0.046312924 -0.058678776 0.14467676
0.09401619 0.13792585 -0.14583996 -0.007417306 0.04412915 0.14075911 0.019210845 -0.0032708093
0.07651444 -0.08786954 -0.09724706 0.09801825 -0.032583628 0.06125124 -0.15121886 -0.011547748
0.04972942 -0.03560879 0.034298018 -0.09119247 0.10177696 -0.0760492 -0.016128229 -0.12571707
-0.0801087 -0.109748244 -0.11779778 -0.037574925 -0.07290643 0.0796985 -0.010891184 0.05841178
-0.04277732 -0.025652064 0.10440395 -0.10566415 -0.075178094 0.09188727 -0.055343095 -0.0722759
-0.008310703 -0.10673784 -0.027048415 -0.039829332 -0.0033836768 -0.02688569 -0.08023379 -0.08455838
0.017081073 0.053861957 -0.13383126 -0.12690632 -0.14222099 0.036190607 0.072286405 -0.12976678
0.009585141 -0.01573105 -0.111851625 -0.013427945 0.08164122 0.09308707 0.039570447 -0.016501587
-0.08721816 -0.05883091 -0.011098324 -0.0048840963 0.054884307 -0.11202881 -0.016492909 -0.050180048
0.017730458 0.09636661 -0.047579046 -0.029845135 -0.05274222 -0.13366379 -0.13039783 0.014219104

gkf.gat_rnn.fc_r.2.bias f4 [64]
00000000: 8b6b 773d 2a75 f53d 53a5 643d 47e6 753d
00000010: bad7 86bd 422c 95bd 30fa 52bc 1af3 a1bd
00000020: 7c63 1abc a18b 33bd 8fdd 073c 9a26 bfbd
00000030: ef48 d83d 4241 553c 7e02 4c3d 8289 8f3d
00000040: 023a 85bd e069 f9bb 14e4 2e3b 8135 b6bd
00000050: d03d ae3d 3183 84bd 6373 053e a480 ec3d
00000060: 331d a23c 0852 19bd fb70 d03d 3f5e 8bbd
00000070: d0da fc3c 79c0 f93d d8d1 043e f142 003c
00000080: fa9c 023d 4888 0d3d 7378 9ebd ead0 6d3d
00000090: 351a 58bd 78e8 0c3d 5d25 4f3a 0f47 dc3d
000000a0: 5548 ebbc e1b1 413e e51d 1f3c 5975 6d3d
000000b0: 3dc0 debd 28fc 2d3e eaf6 893c 92ca 13be
000000c0: bfe2 443d 85fe ad3d ebfa 6cbd 3e69 143e
000000d0: 62cd a43d 8914 093d 2284 153e 15fd da3d
000000e0: 76c5 193d e0db 21bc 738e 173d e30d b3bb
000000f0: 886b c63d efbb cdbd 662e f7bc faa0 bd3d
0.060405295 0.11985238 0.055821728 0.060034063 -0.06584115 -0.07283832 -0.012877032 -0.07907696
-0.009423133 -0.043834332 0.00829257 -0.093335345 0.10560786 0.013016047 0.049807064 0.070086494
-0.06505205 -0.0076114982 0.0026686238 -0.08896924 0.085078835 -0.06470335 0.13032298 0.11547974
0.019789314 -0.037431747 0.10177799 -0.068050854 0.030866057 0.12194914 0.12970674 0.00782846
0.031887986 0.034553796 -0.077378176 0.058060564 -0.052759368 0.034401387 0.0007901991 0.10755741
-0.028721014 0.18915512 0.009711717 0.05797324 -0.1087651 0.16990721 0.01684137 -0.14432743
0.048067804 0.084958114 -0.05785648 0.14493272 0.08046986 0.03346685 0.14601186 0.10692803
0.03754183 -0.009879082 0.037001085 -0.005464302 0.09688479 -0.10045611 -0.030173492 0.092592195

gkf.gat_rnn.r_input_gru.weight_ih_l0 f4 [192, 64]
00000000: d09a d2bd fe2f afbb 773d 14bd 0fe9 e83c
00000010: 55da 253d 6664 47bd eb61 673d e08a a5bc
00000020: 67c8 b03c 0aa4 9a3d 629d 9dbd bc00 3d3c
00000030: b940 c7bc c8be e63b 7646 c437 ad87 f43d
00000040: 00fe 15bd 702a 88bd 6005 aa3d 2738 8f3d
00000050: 4168 323d cb34 e63c 4d09 1f3e 149e 02ba
00000060: fb46 14be 4aee afbd 5fa5 843d a6f2 b83d
00000070: e623 223d 7050 97bd 3232 80bd 6dc6 59bd
00000080: 4728 f73d e9ad 7b3d 2407 e7bc 305f dfbd
00000090: badc d63d 5e5c d13c cf2c 1d3e 8b19 98bd
000000a0: d1ea 94bd c10a 65bc 747b e63d 8264 ba3d
000000b0: 0a6e 1a3e 707c dd3d dc7d bc3d 3839 e6bd
000000c0: 53c6 f23d ef3e adbc 7b4e 453d c5c7 a13b
000000d0: 084e 22bd c01b e83c 82e6 db3c f679 093e
000000e0: 3a49 c73d 4e1a 703d 09c5 5ebd 2106 993d
000000f0: dbb1 0c3e 1c21 55bd 8084 e93d ecdb 953d
00000100: 7587 fa3d ce38 4d3d 1731 ed3d 5ff5 f5bd
00000110: 4e15 8e3d 538e fbbd c731 d93c 797b c73d
00000120: 23ea 03be 3b06 83bd 0d89 64bc a585 41bd
00000130: 2eab 44bc 777c efbd 437c 2c3c 8a6a 30bd
00000140: e5ed b4bc 8c51 c53c d8b6 963d 8f99 f6bb
00000150: 8a21 9dbd 73ec ec3d dace 613b a921 46bd
00000160: 663c cd3d 87fa 2d3d 3916 bc3d 6344 983d
00000170: 28bb ba3c 163f 063e 77c1 8dbc edf4 fa3d
00000180: 9994 f03c 5bb0 8d3d c58c 353d 99af fabb
00000190: 063e 053e f1dc 443d d902 9d3d f082 07be
000001a0: 65ee 94bd c77c e73d 30e5 6abd 2008 373d
000001b0: 3a27 803d dfbc c0bd 345b 263c dd92 3c3c
000001c0: d83e 063e 42ff a1bd fa6f f2bd 0380 19bd
000001d0: 766d 813d cc93 65bd f3d7 f4bd 5838 5bbb
000001e0: ac18 923d 9821 c9bd a564 95ba f99c 763d
000001f0: c1b4 82bd 98aa 7bbd af96 1d3c 1954 bc3d
00000200: eb4f eebc e0ba b2bd 56df cfbd 3ef9 35bd
00000210: ed4c a83d 051e 373d 3e50 b3bd 6ec2 debd
00000220: 35e7 18bd d785 b53c 8efb b33d 7664 363d
00000230: 6bb9 ff3c cf66 c73d a1a6 363d b22b 943c
00000240: e3a3 303d 10fa 06bd 8a6d e53c 542a 683d
00000250: fc5f 823d a4f6 1a3d 271f ff3d 3cfe b2bd
00000260: 8327 ac3d a869 c0bd 57be 71bd 6c19 3cbd
00000270: 4f31 a93b b467 93bc dcd1 02be 42bd 813d
00000280: b33f 163d cabd f13d 5064 47bd 3a98 c1bd
00000290: 95ad 113d 2628 b13d 86a2 a03d 9860 b03d
000002a0: 09e5 383d 9e91 e53d 217d 89bd 434b 13be
000002b0: bed4 95bd e29a b5bd 1a60 b33c c82f e73d
000002c0: 3f6e 3c3d e879 2abd 3194 143d d1d6 8c3d
000002d0: 21a5 bc3c 33f5 063d 7e4a f8bb 1c2a 123c
000002e0: b1a8 703d 8310 ffbc 07d9 3fbd 0b46 9b3d
000002f0: 8f9b 21bd 8099 9dbd 6045 123c 4840 053e
00000300: 2cef 623d 1d32 bc37 42fd 2dbd 1471 813d
00000310: bf52 c93c fea9 b0bd 9cf0 9dbd 3af7 7fbd
00000320: 9313 01be 5ff8 8f3d bfc5 183e 055c d6bd
00000330: 9bc7 803c 4484 63bd 7220 9bbd dcd1 0ebe
00000340: c400 ebbc 5e21 9a3d e8f6 083e c70d 893d
00000350: eeb7 b3bb c446 af3c 3cbc 70bd 9139 f13d
00000360: 5786 d4bd 1304 22bc cfb0 a6bd 8629 84bc
00000370: e8f0 81bd deb1 48bd 6d88 85ba 0c9f 163e
00000380: 0836 eb3d cc43 b73d c635 72bd 1036 c53d
00000390: 3af4 c1bd a19b 133e 0ce2 903d d236 3a3d
000003a0: f17c 2bbe 115c f1bd fc0c 6cbd f5e7 9abd
000003b0: aeac 14be a84a 803d 72c0 bd3d b0be 563d
000003c0: 5624 973a 2bbe 213b 4d08 053e 8ce6 a43c
000003d0: 4221 e7bc 8e72 a6bd cfbf 643d a7e6 0bbd
000003e0: 4471 1fbd 7428 2d3d 9cd8 b73d db11 8cbd
000003f0: 58ac d7bd e8fc 9a3d 8072 7f3c 7189 1abd
-0.102834344 -0.0053462973 -0.03619143 0.028431443 0.04049142 -0.04867973 0.056489866 -0.020207822
0.021579934 0.07550819 -0.07696034 0.01153582 -0.024322854 0.007041786 2.3397832e-05 0.119399406
-0.036619186 -0.06648719 0.083018064 0.06993132 0.043556456 0.028101346 0.15530892 -0.0004982662
-0.14480202 -0.08590372 0.064768545 0.090306565 0.039585017 -0.07388389 -0.06259574 -0.05316775
0.12068229 0.06144515 -0.028201647 -0.109068274 0.10491319 0.02555674 0.15349124 -0.07426747
-0.0727135 -0.013979615 0.112540156 0.091012016 0.15081039 0.1081475 0.09203693 -0.11241382
0.118542336 -0.021148173 0.048170548 0.0049371445 -0.039625198 0.028333545 0.026843313 0.1342543
0.09730764 0.058618836 -0.054387126 0.07471872 0.13739721 -0.05203353 0.114022255 0.073173374
0.12232868 0.050103 0.11581629 -0.120096914 0.06937657 -0.122830056 0.026512993 0.097403474
-0.12882285 -0.06397673 -0.013948691 -0.047246594 -0.012003703 -0.11693662 0.010527673 -0.043070354
-0.022086093 0.024086736 0.073590934 -0.00752563 -0.07672413 0.115685366 0.0034455569 -0.048371945
0.10021286 0.04247525 0.09183926 0.07434919 0.022794321 0.13110003 -0.017304165 0.12253747
0.029367732 0.06918403 0.0443237 -0.0076503274 0.13011941 0.04806227 0.07666559 -0.13233542
-0.07272033 0.11303096 -0.057347476 0.044685483 0.06257482 -0.09411024 0.01015358 0.011509624
0.1310991 -0.07910015 -0.11837764 -0.037475597 0.06319706 -0.056049153 -0.119552515 -0.0033450332
0.07133612 -0.098208606 -0.0011397792 0.060208295 -0.06382132 -0.061441988 0.009618445 0.09195728
-0.029090842 -0.0872705 -0.1015002 -0.04442715 0.082177974 0.044706363 -0.08755539 -0.10876928
-0.03732987 0.022158546 0.087882146 0.0445294 0.031216344 0.09736406 0.044592503 0.018087242
0.043125045 -0.032953322 0.028006334 0.056680992 0.06365964 0.03783287 0.12457114 -0.087398976
0.08405974 -0.09395152 -0.059019413 -0.04592268 0.0051633487 -0.017993785 -0.12775367 0.06334926
0.036681842 0.118037775 -0.04867965 -0.09452863 0.03556593 0.08650236 0.07843499 0.08612174
0.0451403 0.11209415 -0.067133196 -0.14384179 -0.07315968 -0.08867432 0.02189641 0.112884104
0.046003576 -0.041620165 0.03627414 0.068769105 0.023027958 0.032948684 -0.0075772395 0.0089211725
0.058754627 -0.031135803 -0.046837833 0.07581719 -0.039454993 -0.076952934 0.008927673 0.13012803
0.055403873 2.2434682e-05 -0.042477854 0.06320396 0.02457559 -0.086261734 -0.07711908 -0.062491633
-0.12605123 0.07029795 0.14919184 -0.1046677 0.01572018 -0.05554606 -0.07574548 -0.13947242
-0.028686889 0.075258955 0.13375437 0.06692081 -0.0054845726 0.021396048 -0.058773264 0.11778558
-0.10377186 -0.009888667 -0.08139192 -0.016133081 -0.06344777 -0.048997752 -0.0010187753 0.14709109
0.11484915 0.08948478 -0.059133314 0.09629452 -0.09470411 0.14414836 0.07074365 0.045462437
-0.1674688 -0.117851384 -0.05762957 -0.075637735 -0.14518997 0.062642395 0.09265222 0.052427948
0.0011531215 0.002468 0.12991448 0.020129465 -0.0282141 -0.08127318 0.055846985 -0.034155514
-0.038926378 0.042274907 0.08976862 -0.06839343 -0.10530919 0.07567769 0.015591264 -0.03772873

gkf.gat_rnn.r_input_gru.weight_hh_l0 f4 [192, 64]
00000000: 85c7 953c b45a eebd d56b b8bd e5b9 033d
00000010: adf3 cfbd d202 733d 2701 1a3e c9e4 0cbe
00000020: 4d04 2bbd 792a 3ebd 2d81 fc3d 3245 403d
00000030: 46e9 64bd 181e 51bc 1836 92bd bf98 283e
00000040: f62e 223d d42e 00be 27f5 2ebd bc68 35bd
00000050: 5dd8 2e3e c139 bf3d 4161 abbd 3ebd 2d3c
00000060: bdbb 7f3d a9f0 fcbc a893 82bd e30a a73c
00000070: 719f 13be 5142 173d c69b bcbd 8fbb fb3d
00000080: fc25 28b9 fac5 aa3c 8a40 34bc c032 983c
00000090: 11dd 943d f2dc 14bd 70d3 a0bd c151 22bd
000000a0: e7f0 b93d f410 983d 9157 d0bd c262 423d
000000b0: 63f6 abbd 346b 9fbd 194e da3d 8f23 303e
000000c0: 999b 033e 64b3 b3bd 6f7d c03c 2729 143e
000000d0: aa28 b7bc a354 243e 267a 3fbc 48d9 96bd
000000e0: 90a1 d0bc 9b82 a63d 2699 29bc 7918 64bd
000000f0: 819e f6bd fe8e 2dbe f6b0 03be f064 fd3d
00000100: 60d4 5bbc c765 e8bd b929 133e 5267 cfbd
00000110: 782c 813b 05b7 b03d 3022 dcbc 32d2 1cbd
00000120: af72 c63d dce4 0a3e 7c38 d23d e6f5 44bd
00000130: 043d 633d fc1d 683d d148 30bc 3536 c23d
00000140: ecef 853b 5881 ae3d b181 02be 5019 7f3d
00000150: 2ff6 b4bd 2bd9 183d 4104 393c 4c13 723d
00000160: 5cc7 a43d 48c0 1cbc f219 9b3d 18e4 08be
00000170: 33ed af3d 4056 2f3d 7241 2dbd 559a 9a3d
00000180: 63fb 493d 8296 e6bd 5c17 d43d 3fcd 9f3b
00000190: a475 1d3e b5b1 b3bc 5867 0c3d c738 a7bc
000001a0: c418 f53d e90d b8bd 52a9 783d 8e05 c73d
000001b0: aaf0 23bd b61c eabd 4961 f33d b873 ad3d
000001c0: 8261 14bd 9f60 88bc e6b5 85bd 07ca 79bd
000001d0: 7310 bd3d 4486 a83d aa22 78bc a44c 2b3d
000001e0: 8c2a d33d d1f1 b13d 8b00 8f3c 5a55 90bd
000001f0: 2a6a 8ebd 138b ad3d a978 eb3c 5d09 7d3d
00000200: a26e 66bd 1fdf bcbd 1b25 8bba 4729 bf3d
00000210: 074a 97bd b901 7a3d 0df4 e9bc daea 2bbd
00000220: 8b4d a23d b314 ecbc 62fe 853c 60c9 67bd
00000230: 4a20 6f3d 58e6 9ebc 64b1 e6bd 4c0d c2bc
00000240: 4023 0c3d 747e a3bd d2f6 04be 7dc4 8abb
00000250: 0b25 d3bc 75e3 d23d 01c8 1bbd 9836 233d
00000260: 3cc3 203e 0180 68bd c29d 7d3d 1278 70bc
00000270: 2529 a03d 3fbe f13c 7abc c93c 296e c2bd
00000280: 2116 b73d fed5 f5bd d2b5 e93d d01f e2bd
00000290: 996d 813d 15d0 c6bc 6eca 5f3d 39a5 33be
000002a0: 59ea 203e 99ee f43d 6d8d a5bb 4f93 0d3e
000002b0: bfa3 04bc 4e2e c0bc 1970 ca3d f328 393c
000002c0: a976 9a3d decd f2bd 7ec7 8dbd 4220 d0bb
000002d0: c65a c7bd cfdb 6cbd b05b 8fbd f894 f1bc
000002e0: b5e4 1dbd 456a 963d 4e23 203d 7e8c a537
000002f0: 0205 423d 4783 e3bd 7e77 debd 3e2b 093e
00000300: ae81 d33d 4fee 993c 43b2 c8bd bde7 023e
00000310: 2eb3 1abe fe1c 07bd 1114 1bbd fecd 37bc
00000320: 02e5 e7bd a3e3 81bd c9d1 87bd bd69 06be
00000330: a88a 9bbd 806c 883d 83e7 b8bd 89c9 09bb
00000340: 6bc8 c5bc a31a 553d 9527 cbbd f8a0 183e
00000350: 3360 4bbc fcd8 1d3e 11a7 c6bd 9cbb e7bd
00000360: 6c23 a03c 4ad6 0a3d c791 0fbd c820 3d3d
00000370: 9173 1cbe 0a5c 12bd 8b21 21be 2c51 04bd
00000380: ef4f 37bd d2b2 a6bd 0286 033d 25d7 2abd
00000390: be46 a63b cf18 1ebe 90b8 3ebd 67af 7c3c
000003a0: 4d55 9a3d 3a19 9ebd 20b3 0dbe d15c 54bd
000003b0: b913 bd3c 3ac8 07be cdf9 103e 7931 a03d
000003c0: 5491 183e 02dc c4bd 541d 0f3d 7b9e edbc
000003d0: 5ec8 76bd 4307 233e 292f eabd d220 64bd
000003e0: 194a dcbc 52f0 c13d e850 39bd 9f23 d3bd
000003f0: 32b3 84bd 86fd e4bb f701 0fbe 128f 42bd
0.018283615 -0.11638394 -0.09004942 0.032159705 -0.10153899 0.05932886 0.15039502 -0.1375915
-0.04175215 -0.046427224 0.12329326 0.04694099 -0.05588653 -0.012763523 -0.07139224 0.16464518
0.039595567 -0.12517864 -0.042714264 -0.044289336 0.17074724 0.093371876 -0.08368159 0.010604201
0.0624349 -0.030876474 -0.063758194 0.020390933 -0.14416291 0.03692848 -0.09209399 0.12291633
-0.00016035879 0.020846356 -0.011001715 0.018578887 0.072687276 -0.036343522 -0.078528285 -0.039628748
0.090791516 0.074251086 -0.10172952 0.047457464 -0.08396604 -0.07784119 0.10659427 0.17201065
0.12852325 -0.087744504 0.023497311 0.14468823 -0.022358257 0.16047911 -0.011686837 -0.07365662
-0.025467664 0.0813038 -0.010351455 -0.0556874 -0.12041951 -0.16949078 -0.12860474 0.12372768
-0.013417333 -0.113475375 0.14371385 -0.10127129 0.0039420687 0.08628658 -0.02687177 -0.038286395
0.09689843 0.13563865 0.1026468 -0.04808607 0.05547811 0.05666922 -0.010759548 0.094829954
0.004087439 0.08520764 -0.12744786 0.06228 -0.08836018 0.037316483 0.011292518 0.059100434
0.08045837 -0.009567328 0.07573308 -0.13368261 0.08590164 0.042806864 -0.04229874 0.07548968
0.049312007 -0.11259176 0.10356018 0.004876762 0.15376908 -0.021935323 0.034278244 -0.020412816
0.11967614 -0.08987028 0.06070835 0.09717856 -0.040024437 -0.114312574 0.1188379 0.08469337
-0.036225803 -0.016647635 -0.06528835 -0.060983684 0.09231653 0.08228734 -0.015144983 0.041821137
0.103108495 0.08688701 0.017456314 -0.070475295 -0.06953843 0.08473792 0.028744059 0.061776508
-0.05625785 -0.092222445 -0.0010615917 0.09334045 -0.073871665 0.0610368 -0.028558755 -0.04197202
0.079249464 -0.028818464 0.01635665 -0.05658853 0.058380403 -0.019396946 -0.11264303 -0.023687981
0.034213305 -0.079831034 -0.1298478 -0.004234849 -0.0257745 0.1029729 -0.038032535 0.039846987
0.15699476 -0.0567627 0.061918028 -0.0146770645 0.07820348 0.029509662 0.024626005 -0.09493668
0.08939768 -0.120037064 0.114116326 -0.11041224 0.06319732 -0.024269143 0.05463641 -0.17543496
0.15714397 0.119595714 -0.0050522597 0.13825725 -0.008095681 -0.02345958 0.09884662 0.011301267
0.07542164 -0.11855672 -0.06922816 -0.0063515017 -0.097341105 -0.057826813 -0.0699991 -0.02948998
-0.03854819 0.07344488 0.03909617 1.9734955e-05 0.047368057 -0.111090235 -0.10862635 0.13395402
0.10327469 0.018790392 -0.09799626 0.12783714 -0.15107414 -0.032986633 -0.037860934 -0.011218546
-0.11322977 -0.063422464 -0.0663181 -0.13126273 -0.07594806 0.0666132 -0.09028532 -0.0021024665
-0.024143418 0.052027356 -0.09919659 0.14905155 -0.012413072 0.15414804 -0.09699834 -0.113150805
0.01954814 0.03389577 -0.035051133 0.04617384 -0.1527846 -0.035732307 -0.15735452 -0.032303974
-0.044753965 -0.08139576 0.03211022 -0.041709084 0.005074351 -0.15439151 -0.04656273 0.015422679
0.07535801 -0.07719655 -0.13837862 -0.05184633 0.023080694 -0.13259974 0.14157791 0.07821936
0.14899188 -0.09612276 0.03494008 -0.029006233 -0.06024968 0.15920739 -0.11434776 -0.055695362
-0.026890801 0.094696656 -0.045243174 -0.103095286 -0.06479491 -0.00698823 -0.13965593 -0.047499724

gkf.gat_rnn.r_input_gru.bias_ih_l0 f4 [192]
00000000: 0d3c 293e a22b 5bbd 21a2 18bd 43f3 ca3d
00000010: e62c 04bd 52ac f13d f033 b0bc 64d5 923d
00000020: 4248 003d 2857 643d 98b5 85bd d0b0 a03a
00000030: 4dbb 4b3c cfa8 69bd eac7 913d ef6e 073e
00000040: 049f ea3d eb31 c03d 5c9a 2dbd 76c3 41bd
00000050: 1a25 c53d a4d3 c23d b699 07bd 1a9f ce3d
00000060: b192 44bd 0965 8bbb d41f e33d 431f 183e
00000070: 75dd c4bd e03c a73d 0d53 e73d 573f 883d
00000080: 2840 533d 93ed 713d b48b 013d ecb0 8c3d
00000090: 612b 6fbd efd2 353c c1fa d5bc 4cc9 013e
000000a0: 2934 91bd b968 9b3d b7bb 2dbd 84be 8e3d
000000b0: 958f bf3c 108c d63c fcb7 363d 35fb 873d
000000c0: 956f 8c3d b5b9 e03d 5efa b83b bd36 60bd
000000d0: 9cbd 903d ff57 febd e42b 983c c635 ec3d
000000e0: ad22 c83d f573 ab3d 047c 90bd 4e3a 96bd
000000f0: 0cb8 6ebc 46df cabd b31a 563d 7607 c53d
00000100: 6d70 e13c 0b0e 01be d7ed ba3c 650d 00be
00000110: 97ec 00be 383c 23be 3725 8cbd 5c65 15be
00000120: 46e2 babd ef92 473d ac46 6dbd 8e91 d0ba
00000130: ffbf 0fbc a45e 9b3d b4ad d9bd 024f 74bd
00000140: c01b 21be 7744 9dbd 12d2 b1bd bb4d 06be
00000150: 1f64 01bd 9e9a 28be 2691 d839 adab b53c
00000160: 0af2 623d 8289 1dbe 19cc 94bc ba4c f3bd
00000170: 23f9 15be b05c 3c3d 4486 ba3b cf1d c43b
00000180: 888f bbbd 70a7 b33c 8ca6 833d af3b d7bd
00000190: b1af c73c 68fc c2bb 5a26 f3bd cbd1 92bd
000001a0: 354d 94bd eb41 88bd 5a88 aa3d 23c1 fbbd
000001b0: 78af f5bc 1180 27be 0b6c 9d3d 47b6 84bd
000001c0: aab9 ad3d 6e59 823d 437b 53bd b4ea 283c
000001d0: d7bf 0f3c 78ac 623d b53d afbd 5e0f 78bd
000001e0: a8f9 e43d 2b19 8cba 5e03 03be 63be 84bc
000001f0: 4641 d9bd 1e3b 13bd ecfb 6e3c a6b5 69bd
00000200: eab1 67bd 604f a33d 451d ca3b 6075 e8bd
00000210: 94f0 703b 83ef 5b3c b0a5 98bd d0da 003d
00000220: 62b6 fabd 82d0 783d 9fd3 a4bd 5d1c ebbd
00000230: 166e a23d 12e2 993d 6164 efbd ee47 cbbd
00000240: 0217 b1bd 4401 85bd 7d81 6bbb 112e bd3d
00000250: 074e d63c b4c2 1fbd eb2e cabc 8c38 90bb
00000260: 5648 b3bd 959d c0bd fc02 963b b4c3 2abc
00000270: 7665 ecbd 0714 a7bd a3a1 c43d 89ce 093c
00000280: 8cb3 a0bd c81b 6ebd 85a7 bf3d 0b25 463c
00000290: 8f76 af3d 009c 7ebc 8440 31bd f64c e83d
000002a0: 9110 82bd fb7d 0b3e 6ff8 2cbb 6f5b 513d
000002b0: d849 4dbd 5207 c8bd 6def 98bd a3ab 343d
000002c0: b365 e6bd 6138 d6bc 3b02 27bb f49a 183d
000002d0: d6a4 23be 15ea 09bc e255 24bd 4333 0a3d
000002e0: 0838 a0bc 81b9 1f3e a90f 393b 26d5 f93d
000002f0: e740 e03d 0a80 133d e4c2 dc3c 4876 df3d
0.16526814 -0.05350841 -0.037263993 0.0990968 -0.03226938 0.118004456 -0.02150914 0.07169607
0.03131891 0.05574718 -0.06528777 0.0012259725 0.012434793 -0.057045754 0.07118209 0.13225912
0.11456111 0.09384521 -0.042383537 -0.047305547 0.09626217 0.095130235 -0.033105575 0.1008894
-0.04799146 -0.0042539877 0.11090055 0.14855675 -0.09612552 0.08165908 0.112951376 0.06652706
0.051574856 0.05906446 0.031627372 0.06869683 -0.05839098 0.011097654 -0.026120545 0.12674445
-0.07090027 0.07588334 -0.042415347 0.06969932 0.023383895 0.026189834 0.044609055 0.06639711
0.0685722 0.10972921 0.0056450805 -0.054739702 0.07067415 -0.12419128 0.018575616 0.11533694
0.09772239 0.083717264 -0.07054904 -0.073353395 -0.014570247 -0.09905867 0.052271556 0.09620564
0.02751943 -0.12603013 0.022818489 -0.1250511 -0.12590252 -0.1594094 -0.06843036 -0.14589447
-0.091251895 0.04872411 -0.057928726 -0.0015912519 -0.008773803 0.07586411 -0.10628834 -0.05964566
-0.15733242 -0.07679074 -0.08682646 -0.1311559 -0.031589624 -0.16465232 0.00041306874 0.022176588
0.055406608 -0.15384486 -0.018163728 -0.11879869 -0.1464582 0.04598683 0.0056922752 0.005984999
-0.09158236 0.021930426 0.06428251 -0.105094306 0.024375768 -0.0059504993 -0.11872549 -0.07168921
-0.072412886 -0.06653198 0.08326788 -0.12292697 -0.029990897 -0.16357447 0.07686623 -0.06480079
0.08482678 0.063647136 -0.051631223 0.010309864 0.0087737655 0.05534026 -0.085566916 -0.06056153
0.11180431 -0.0010688653 -0.12794253 -0.016204065 -0.10608153 -0.03594505 0.01458643 -0.057058
-0.056566156 0.07974124 0.00616804 -0.113505125 0.003676449 0.013423803 -0.074534774 0.031458676
-0.12241818 0.060745724 -0.08048176 -0.11480019 0.079311535 0.075138226 -0.11689068 -0.09925829
-0.086469665 -0.06494382 -0.0035935335 0.09237302 0.026160253 -0.039004043 -0.024680575 -0.004401272
-0.08754031 -0.094050564 0.0045779925 -0.010422636 -0.1154279 -0.08158117 0.09601142 0.008411058
-0.07846746 -0.058131963 0.09358124 0.012093793 0.08567535 -0.015540123 -0.043274418 0.11342804
-0.06350816 0.13622276 -0.0026393195 0.05111259 -0.05011925 -0.09767021 -0.07467542 0.044108998
-0.11249866 -0.02614993 -0.0025483507 0.03725715 -0.15980849 -0.008417626 -0.040120967 0.033740293
-0.019557968 0.15598108 0.0028238094 0.12198858 0.10949879 0.03601078 0.0269484 0.10911232

gkf.gat_rnn.r_input_gru.bias_hh_l0 f4 [192]
00000000: f289 69bd 524a 97bd 13aa 863d 64b9 13bc
00000010: 4e5f 8cbd 34f4 d5bd 4481 863d 962c d63d
00000020: 0951 0cbd ccfd a83d d235 de3d c259 c83c
00000030: 29da 41bd d4e1 b63d 6c47 643d 22d6 ffbc
00000040: fcb5 ae3d a343 c13d bea5 99bd f3e9 b5bd
00000050: a626 823d fe09 8e3d 65a1 9e3a 470c 053e
00000060: 8e9b 46bb 8107 fd3c 0876 c43d 264e 6e3c
00000070: d353 da3d 70a5 f83c 315a 473d f00e be3c
00000080: 9a60 bebb 5b5f 5d3d 27ed 5abd 4261 81bd
00000090: 29d8 293d 3b41 d3bb 88a4 38bd 0e20 c8bc
000000a0: b042 90bc 3759 0f3e 6b5d 5ebd fb7d 8c3c
000000b0: 6585 0c3e 26ac d13d c000 2dbb 9642 0fbc
000000c0: 6a61 f53d c751 893d 4bfe 94bd 287c 8bbd
000000d0: 0d18 42bc de7d a4bc e743 91bd 6977 af3d
000000e0: acdf 503d d760 dabd 9c4c b5bd b5ab 973d
000000f0: d182 d7bd 12d7 3f3d a0f2 893d 5a59 bcbd
00000100: 08dc 42bd 0e54 ba3d 6a95 0fbd 4904 afbd
00000110: 3fce 27be 133a 90bd 0908 1fbe 49c1 64bb
00000120: d445 09be 5edc a2bd 1b5f 713b 7312 6dbd
00000130: 0112 343d 3481 4f3c f0c1 1dbd 16e9 8cbd
00000140: cba8 af3c 152f c03c 294d 22bd f0ed de3c
00000150: 748b 513c dd2f da3b 47bf 8abc 465d 12bc
00000160: fb91 2ebd 7a87 17be 24dd 81bb eaa8 47be
00000170: 0f13 433d 7b4d 1b3d db3f 0fbd 207e 2dbe
00000180: 2729 86bd 7a99 d93c a64d c63c 3162 963d
00000190: 647a 943d 77a7 45bc d8da e43d 33aa b5bc
000001a0: 4081 a63d 0761 113d 341b 523c a7f3 43bd
000001b0: ac7d 87bc d2dd 8d3d 42fc 8c3d d625 dcbd
000001c0: ce0d e0bd 6e4f 9a3d d1b0 5d3d f3b1 38bd
000001d0: 1eea 35be 086a 92bd dc93 c8bc 156d c53d
000001e0: 4a43 293d a76a 84bd abc3 573d beff e9bc
000001f0: 245c 283d 50d7 bcbd aa0b b43d 39f7 243d
00000200: 7a71 85bc 6934 533d d79b 9cbd f75f 02be
00000210: 550b 9f3d 0e21 0a3d fabe 523c 76cc 17be
00000220: 14c4 aa3d a8b1 e33c 5764 cb3c 88d5 abbd
00000230: 4139 e6bc 68b5 6c3c b2a3 6fbd 09a8 f13b
00000240: cc9a ecbd e9e0 f0bc 709f f8bd 8100 d13d
00000250: f05a f93a a42c 2b3d a18f ad3d 5ceb bd3d
00000260: 0ec0 d73d a1cb ba3d 20e0 b5bb bc97 413d
00000270: 34ca 843c 3eba 643d 7d43 f5bd 5d48 cebd
00000280: 6b58 3abe 165c aa3d c436 063e ac21 b83d
00000290: f37e 8e3c fe85 cb3b b423 1dbd 3ef3 173e
000002a0: 799e 7a3d 14b4 1f3d 35f0 fdbd ee43 043e
000002b0: 930e 47bd ec03 cabc 355f cb3d 5b66 56bd
000002c0: a953 9e3d 0605 5d3d 73fb 87bd 9308 ddbd
000002d0: 0ef3 91bd de50 85bd 7659 1cbe d9ff 0c3e
000002e0: 757b 30bd a5b2 f5bb d12b 893d abe3 70bd
000002f0: 3624 0fbd bb54 02be 8bce 69bd 6408 c9bd
-0.05701632 -0.07387222 0.06575408 -0.009016369 -0.068541154 -0.10446969 0.06567624 0.10457723
-0.03425697 0.08251533 0.10850109 0.024456862 -0.047327194 0.08929792 0.055732176 -0.031230036
0.085308045 0.09436729 -0.07502316 -0.08882513 0.06355028 0.069354996 0.0012102543 0.12992965
-0.003030512 0.030887367 0.09592825 0.014544999 0.106605195 0.030352324 0.048669998 0.023200482
-0.0058098556 0.054046016 -0.053448822 -0.063173786 0.041465912 -0.006446985 -0.045078784 -0.024429347
-0.017609924 0.13998877 -0.05428831 0.017149916 0.13722761 0.10237913 -0.0026398152 -0.008743903
0.11981471 0.06705051 -0.07275065 -0.0681079 -0.011846554 -0.02007955 -0.070930295 0.085676976
0.05099456 -0.10663002 -0.08852503 0.074057974 -0.10522998 0.046835966 0.0673573 -0.0919673
-0.04757312 0.090980634 -0.0350546 -0.08545739 -0.1638727 -0.07042327 -0.15530409 -0.0034905246
-0.13405544 -0.07952188 0.003683037 -0.057878923 0.043962482 0.012665082 -0.03851503 -0.06880395
0.021442791 0.02345995 -0.039624367 0.027213067 0.012789596 0.006658538 -0.016936911 -0.008933371
-0.042619687 -0.14797774 -0.0039631296 -0.1949803 0.047625598 0.037915688 -0.034973007 -0.16942644
-0.06550818 0.026562441 0.024206948 0.07342947 0.07249907 -0.0120638525 0.11174554 -0.022175884
0.08130121 0.035492923 0.012823869 -0.047839787 -0.016539417 0.069270745 0.06884052 -0.10749404
-0.10940133 0.07534681 0.054123703 -0.04509158 -0.1776509 -0.0714913 -0.024484567 0.09639946
0.041323937 -0.06465655 0.052676838 -0.02856433 0.041103497 -0.09220755 0.08791287 0.040274832
-0.016289461 0.051563654 -0.076469116 -0.1273192 0.07765833 0.03372293 0.012862915 -0.1482409
0.0833818 0.027794674 0.02482812 -0.08390337 -0.028103473 0.0144475475 -0.05850572 0.0073747677
-0.11552963 -0.02940412 -0.12139785 0.10205174 0.0019024294 0.04179062 0.08474661 0.09273407
0.105346784 0.091208704 -0.0055503994 0.047263846 0.0162097 0.055841677 -0.11975763 -0.10072396
-0.18197791 0.08318345 0.13106829 0.089907974 0.017394518 0.0062110415 -0.038364127 0.14838883
0.061186288 0.038990095 -0.123993315 0.12916538 -0.048597883 -0.024660073 0.09930269 -0.052343708
0.07730801 0.05395987 -0.06639757 -0.10792651 -0.07126437 -0.06509565 -0.15268502 0.13769473
-0.043086488 -0.0074981027 0.066978104 -0.05881087 -0.034946643 -0.12727635 -0.05708174 -0.098160535

gkf.gat_rnn.gcn_nodes.bias f4 [64]
00000000: 24fa af3d 8c15 723d 78f0 993d 407a 86bd
00000010: c411 ebbd cc42 bdbd 709f 8f3d d6c5 ca3d
00000020: a438 9abd 5ac3 513d e1a9 a53d 0a45 a63d
00000030: cf32 a3bd 00ff 3dbb cfa7 c9bd 60e9 a8bd
00000040: 872d 04bc 085d d5bd ad79 743d 0864 efbd
00000050: 4b58 e13d ab46 dfbd b0a1 89bd 807f ad3d
00000060: ee6f 47bd a5b0 9f3d 3561 e23d e088 223d
00000070: 9358 d53d d291 2fbd f8fa 85bd 78b6 d23d
00000080: de3a 313d 82fd cabd 89cb e23d 5363 74bd
00000090: 3c74 e13d 6d4f 573d b6ed da3d e04f f13d
000000a0: e38c bd3d c3e1 29bd b8a4 c83d 5ef1 04bd
000000b0: 75cd 88bd 225a f13d 353a c53d 829f 373d
000000c0: a1f0 d1bd a0b6 c2bd 38e0 f93c 7f29 b83d
000000d0: 07e8 bf3d 98c0 0bbd fac6 bcbd b586 c73d
000000e0: 0915 133d 3be8 c13d a756 c3bd 6b0d 7bbd
000000f0: 05f7 ceba cfcb 65bd f9ef b9bd af2f c8bd
0.085926324 0.05910258 0.07516569 -0.06566286 -0.11477998 -0.09241256 0.07012832 0.099010155
-0.075303346 0.051211692 0.080890425 0.08118637 -0.07968675 -0.0028991103 -0.0984646 -0.08247638
-0.008067495 -0.10418135 0.05968635 -0.11689001 0.11003169 -0.10902151 -0.067202926 0.08471584
-0.04869073 0.07797364 0.11053697 0.039681315 0.10417285 -0.042863674 -0.06542009 0.102887094
0.04326903 -0.09911634 0.110739775 -0.059665035 0.11008498 0.05256598 0.10689871 0.11782813
0.09255388 -0.04147507 0.097970426 -0.03245675 -0.06679813 0.117847696 0.09630243 0.044829853
-0.102509744 -0.09507489 0.030502424 0.0899229 0.093704276 -0.03411922 -0.09217639 0.0974249
0.035908733 0.094681226 -0.09538012 -0.061292093 -0.001579017 -0.05610257 -0.09078974 -0.0977472
