models/with_mismatch/kalman_process_50n_local_params_linear_20deg.pth (torch, 269858 bytes, 28 tensors)

gkf.gat_rnn.fc_delta_y_innov.0.weight f4 [64, 3]
00000000: 9826 e23e 99f1 043f 31ca 10be 4d90 093f
00000010: b844 08be 95e2 283e e56d 91be 5acb ba3e
00000020: 5678 043f e99e dcbe d9b6 0b3f fbdb b93d
00000030: f4f8 e13e 5461 9d3d a8e9 943e 1e21 7fbd
00000040: b767 023f f04d 233d 7ff6 8fbe 5885 573e
00000050: 2f2d 8fbe a1c8 c5bc fceb 94be 5203 df3e
00000060: b36f efbe dd7e 6bbe 7ed8 25be 3d19 bbbe
00000070: 2fed e63d 4942 23bf 36bd 0a3f 00df f1be
00000080: 8788 ec3e 4366 b73d 5028 71be 39ba d53e
00000090: f9c9 9d3d 977a fd3e 51ae a63d 77bb 37be
000000a0: ad9d 2a3e 7a7e 4bbe 2ab0 7d3e 21ed 103f
000000b0: 1ad1 9b3e 2855 85be 020d af3e 3df5 f83d
000000c0: ad55 8c3e 7ba2 c7be 12d7 0ebf 7f6a 64be
000000d0: 05d9 efbe 4900 093f 79a3 303e 9084 983e
000000e0: 710d 4d3e 7e6e 29bc 8616 023f 3602 f0be
000000f0: 8a44 d63c ed15 e6be 2282 3c3e 7c16 44be
00000100: 0083 213e 6c1a 06be aab4 013f af98 8ebe
00000110: dd8d a4be cd5e adbe 3752 0e3f 0b45 563e
00000120: 2c3e 0f3f 3dab e2be f478 15bf c0b1 eabe
00000130: f5ba c4be 742b 6b3e 0e9d 4c3e d4ce 0a3f
00000140: 85fd a9be 0365 c9be 30ce 923e 0246 47be
00000150: 3f47 ba3e 3f26 c3bd 7dde a43e c57d e4be
00000160: 2b31 82be eee3 5e3e 671b 073e f11b 37be
00000170: 5a81 a43e 3b58 d03e 7d0d c6be d58a b7be
00000180: 935a 0a3f 1807 2abe a012 45be 71a9 0fbf
00000190: 6dc1 96be e416 353e 818b 91bd 1b5b cdbe
000001a0: 181f 613d 5b92 ccbe e2ad f4be 9bf3 99be
000001b0: 267e 02bf fd30 c9be 9b92 0b3f 948b 063e
000001c0: 712f 393e 5ad6 0bbf 8e2c c2be 94dd 60be
000001d0: fa60 063e 8c59 02bf b56e 7bbe 870b 9bbe
000001e0: 6fef 42b9 67a2 49be dc2a a03c 59dc d2be
000001f0: 55a2 acbe fc6b 9bbe 5119 20be 8ba1 fcbe
00000200: 5d78 0a3f 1643 e2bd c1cf 013f bc9c 4c3e
00000210: f730 fabe 3831 cc3e dc5a 12be 4749 83be
00000220: faa9 06bf 279a 01bf e799 363e 93a8 1ebe
00000230: 273a 813e 89f2 f6be 1527 df3e 3f46 d4be
00000240: 2b3e a0bd 7537 083e a558 ae3e e8dc f33e
00000250: d652 193f 6936 ebbe fa3a 273e 9e43 93be
00000260: 0da9 03bd 5afb e1be fd91 0c3f 0bb3 f8be
00000270: 33c0 a03e e87b 863e bbd3 113e bdac a0be
00000280: 9d2b 133f 2859 013e 2b48 ff3d 3669 0cbf
00000290: 34ad 983e 71f8 c4bd 86e1 70be 2b5d 063f
000002a0: 562e 1a3e a1a3 a6be 41fd 8ebe 165d 0dbd
000002b0: 7ed9 bd3e ce57 2ebe 7683 a7be 4128 52be
000002c0: 8515 edbe 807a 7c3e dc24 033f 4ba6 16bf
000002d0: f90e 153e 34ae b43e 7069 b63d 9b94 69be
000002e0: f716 ac3e af01 b43e 3f17 6d3e 55e0 74bd
000002f0: 0736 11be 7a3a 823d 44bc b4bd 1e62 48be
0.4417007 0.5193115 -0.1413963 0.5373581 -0.13307464 0.16492684 -0.28404155 0.3648327
0.5174612 -0.4308999 0.5457588 0.09075161 0.4413525 0.076845795 0.29084516 -0.062287442
0.50939506 0.03986925 -0.2811775 0.2104696 -0.2796416 -0.024143519 -0.29086292 0.4355722
-0.46764907 -0.22997613 -0.16195866 -0.36542693 0.11275708 -0.6377302 0.5419496 -0.47240448
0.46197912 0.08955052 -0.23550534 0.4174364 0.07704539 0.4950759 0.08138717 -0.17942606
0.16661711 -0.19872466 0.24774233 0.5661183 0.3043297 -0.26041532 0.34189612 0.121561505
0.27409115 -0.3899115 -0.5579692 -0.2230625 -0.4684526 0.5351606 0.1724986 0.29788637
0.20024659 -0.010341285 0.5081562 -0.46876687 0.026155729 -0.44938603 0.18409017 -0.19149202
0.15772629 -0.13096017 0.50666296 -0.27850863 -0.32139483 -0.3386139 0.555942 0.20924775
0.5595424 -0.4427127 -0.58387685 -0.45838737 -0.38423887 0.22965795 0.19981787 0.54221845
-0.33201233 -0.39334878 0.28672934 -0.194603 0.3638248 -0.09528779 0.32200995 -0.44627205
-0.25428137 0.21766636 0.13194047 -0.17881753 0.32129937 0.40692315 -0.38682166 -0.35848108
0.54044455 -0.16604269 -0.19245386 -0.5611792 -0.29444447 0.17684513 -0.071066864 -0.4010857
0.054961294 -0.3995541 -0.47788912 -0.3006867 -0.5097374 -0.39295188 0.5452058 0.13139182
0.18084504 -0.5462395 -0.37924618 -0.21959525 0.13122931 -0.5091789 -0.2455395 -0.30282232
-0.00018590478 -0.19690858 0.019551687 -0.41183737 -0.337176 -0.30355823 -0.15634657 -0.49341998
0.5408991 -0.11047952 0.5070763 0.19981664 -0.48865482 0.398813 -0.14292473 -0.25641844
-0.52603114 -0.5062584 0.17832147 -0.15493993 0.2523968 -0.48231915 0.43584505 -0.41459844
-0.078243576 0.13302405 0.34052005 0.47629476 0.5989202 -0.4593995 0.16331092 -0.28762525
-0.03214364 -0.4413708 0.5491026 -0.485741 0.31396636 0.26266408 0.14240925 -0.3138179
0.57488424 0.12631667 0.12464937 -0.5484804 0.29819643 -0.09617699 -0.2352353 0.52485913
0.15056738 -0.32546714 -0.27927592 -0.0345126 0.37079996 -0.17025682 -0.32717484 -0.20523168
-0.4630548 0.24656105 0.5122812 -0.5884749 0.14556493 0.35289156 0.08906829 -0.22810595
0.3361127 0.35157534 0.23153399 -0.059784252 -0.14180766 0.0635881 -0.08824971 -0.19568679

gkf.gat_rnn.fc_delta_y_innov.0.bias f4 [64]
00000000: 3d14 cd3e f3bf 043f bdb4 27bd 55d1 b9bd
00000010: 6458 6b3c 38c8 913c 4936 443e cdc1 433e
00000020: ef5d 03bf c181 31be 9630 033f 21a5 863e
00000030: 6919 0e3c fb61 bbbe 524d a1be 4890 febe
00000040: 3a68 5fbe 62d9 723e 22cc dc3e 7d3f a53e
00000050: 8ffc 0dbf 5a0d babe 060e 32bd c356 183f
00000060: 13c6 dd3d 490e 1bbe 189b 923e ce33 61be
00000070: 335d b7be db5f ef3e 8086 94be e51b c9bd
00000080: fb95 0cbf 5b8f d93e eea4 f53e 1ad7 693e
00000090: 5b56 e1be 067d 10bf 21aa eebe 845b e93e
000000a0: 7cad a13e 0f27 0b3f 91a9 ad3e a025 2b3e
000000b0: 1ae0 323c c064 d4be 2c07 f5be 300a 05bf
000000c0: 130d 873e 01ac 5dbe 7e15 c6bd 6be0 a4be
000000d0: 8ed0 90bd 5e51 b7be e7ad a4be e539 633e
000000e0: 2697 27be 109a c73e 4c3c 4bbe 27d9 b9be
000000f0: ee85 78bd 522a 6bbe 7581 07be 347a 0ebf
0.40054503 0.5185539 -0.04094385 -0.0907313 0.014364336 0.017795667 0.19161333 0.19116898
-0.51315206 -0.17334653 0.5124601 0.26297858 0.00867305 -0.3659819 -0.31504303 -0.49719453
-0.21817103 0.23715737 0.4312449 0.32275 -0.554635 -0.3633831 -0.043470405 0.5950739
0.10828795 -0.15142168 0.28633952 -0.21992418 -0.35813293 0.4675282 -0.29008865 -0.098197736
-0.5491635 0.42492184 0.47977394 0.22835961 -0.44011196 -0.5644077 -0.46614173 0.45577633
0.3157767 0.54356474 0.3391843 0.16713572 0.010917688 -0.41483116 -0.47857034 -0.5196867
0.26377162 -0.21647646 -0.09672068 -0.32202467 -0.07071029 -0.35804266 -0.32163927 0.22190054
-0.16366252 0.38984728 -0.1984722 -0.36298487 -0.0606746 -0.22965363 -0.13232978 -0.5565522

gkf.gat_rnn.fc_delta_y_innov.2.weight f4 [64, 64]
00000000: ceeb d93d f60f 9abd f66c dd3d c806 e93d
00000010: 3650 be3d 7587 0cbd 5739 193e fe11 b0bd
00000020: 37a0 093d b2c1 1a3e 8a99 d0bc 7fa1 6ebc
00000030: 6482 ab3c d248 9ebd 367e b63d a25a cabd
00000040: 7124 9f3d e75c a33d c8f6 1a3e b952 043d
00000050: 6d70 22be d59d 493d 579a 953d 2c03 96bd
00000060: 7bf2 aebc c783 bbbd 1da1 173d c096 33bc
00000070: cac1 7ebd 9392 46bb 153c 10be 3872 cd3d
00000080: d35b d83d f0f1 943c 6291 bbbc fa81 28bd
00000090: a8cd 12be c227 d2bd 16f4 9f3c d02c 8fbc
000000a0: f8ef 99bd 5b76 1e3d 9c73 71bd 55cc 503c
000000b0: 04e4 783d 3ad0 80bd 37f7 89bd 56d5 c0bc
000000c0: 4cdd 85bd 1975 143e 0830 8ebd f12c bd3d
000000d0: 4acb debc d4fb 8a3d 83e6 9c3d aa8c 1b3d
000000e0: 9842 0fbe 0173 db3d d9c1 013e 2db5 a23d
000000f0: 672b fa3d d40c 2d3e 30d3 85bc f851 66bc
00000100: 2046 afbc 61a4 bb3c 3f69 e13d fd4d c43d
00000110: 3c4d 26bd 319b 24bd da92 3ebd 3cf7 48be
00000120: 0c73 dabd 72ed 2a3c b0b1 c83d 1adf a2bb
00000130: 7407 e1bc 7509 64bd 2a8f fc3d 33b1 87bd
00000140: 48f1 183b 5a0b ac3c d1f5 8c3b ade1 623d
00000150: bc9d 95bd 7ba1 b53b 904f 1cbd 66c2 8fbd
00000160: ce17 8fbd e019 b3bd 6af3 403e 724c e0bc
00000170: 532f cdbd 2710 163d 3e33 99bc deaf 9d3d
00000180: 6391 d63d a8b0 9a3d 2d61 14be 61b0 313c
00000190: f3a4 243d fc59 a23c b5a9 cebd 7b3e 0d3e
000001a0: 54f2 06bd 6583 68bd fb6f 22be b28d 6f3d
000001b0: c64b b53d 1954 81bc 3dd1 e8bc fbd3 62bd
000001c0: 37f6 b4bd 894e 8c3d 6f68 983d 272e ed3d
000001d0: ef2f aabc 8379 9b3c 3796 22be 09a0 efbd
000001e0: 91c8 2abc ec6a 073e e7d9 fa3d c1a6 29bd
000001f0: e204 1a3e 3e18 99bd 612b 853d 3079 783d
00000200: e684 9b3c 07f7 f33d ea24 b2bd 66e8 99bc
00000210: 3916 983d cb1e c83a d573 1a3c 36be 87bd
00000220: 2a83 9e3d 38f9 933d f3d3 193d 29a6 9abd
00000230: b8b7 a0bd b12d a23c 3f0b 413d fc5b 60bd
00000240: 473d d4bc b93b af3d b461 b53c 6c97 103d
00000250: ffca 61bd 74ac e2bd b148 e3bd c3a2 14bd
00000260: 0ca8 6abd 9d41 4a3d 2ab6 5cbc 4796 f1bc
00000270: 1668 fe3d 7866 613d 8920 a53d 97d6 57bd
00000280: 05fc 26bd c57f 683d b58a abbd 5712 92bd
00000290: a6fd 503b e3ac 48bd 7aa8 d0bd e17e bd3d
000002a0: 2e1b c63d 42d6 123d 06a5 bbbc 2f38 bdbd
000002b0: e073 7abc 0017 99bc 8b6f 493d 84e5 16bb
000002c0: 68a8 1cbd f7d6 b03d 7b52 c7bd 8f38 e83d
000002d0: 39e4 30bd bb1a f53c fa7c 4bbd 3fd5 4c3c
000002e0: c061 82bd 4fbd ee3d 6a78 e1bb 88c9 ea3d
000002f0: 9180 0c3e 09ed 41bd 90f4 aabd f10b b33d
00000300: 5f80 fc3d 8ab5 9fbd f5bc 9a3c 8cd2 ccbd
00000310: def9 c4bd a141 863d 8276 7d3d f8da 663d
00000320: 8fc5 29bd 054a f53d aa02 ea3c c957 35bd
00000330: 3e07 ef3c e7c5 ed3c fa7b 5e3d 46fc aebd
00000340: 0dcc c53c 849c 40bd 3cc1 8abd d388 dbbc
00000350: 01d5 9f3d 2b55 d83d 6d08 de3d 8f51 e03d
00000360: f3df b93d bd9b 81bc fe4a 1dbd cb27 983d
00000370: a0a8 87bd 3055 86bd 7e49 2bbd c42d a63c
00000380: d7eb 683d 31e4 0abd 5697 20bd 5e72 9f3c
00000390: 37a4 9abd 6b29 0fbe 8f9b 6e3d 25d1 9ebb
000003a0: 4fd2 213e f504 0d3e 851e 7f3d d168 aa3d
000003b0: 0711 523d 70b7 9dbd bd1d debc d7b5 f83b
000003c0: 85bb b43d 281a f93d 1684 26bd 68c8 07bd
000003d0: bcf6 b6bc 1789 25bd d8c7 c6bb 4532 f83d
000003e0: 537c 2d3d 5663 cc3d 01d9 c3bd c62d 8dbd
000003f0: 8edd a2bb a38a 27bc 0d53 693b db25 21be
0.10640679 -0.075225756 0.10811798 0.113782465 0.09292643 -0.03430887 0.1496328 -0.08597182
0.03360006 0.15112951 -0.025463838 -0.014564871 0.020936199 -0.07728733 0.089107916 -0.09880568
0.077706225 0.07976704 0.15133202 0.032305453 -0.158632 0.049222786 0.073048286 -0.07324824
-0.021355858 -0.09155994 0.037018884 -0.010961235 -0.06219653 -0.0030299767 -0.1408542 0.10031551
0.10564389 0.018181771 -0.022896472 -0.04113958 -0.14336264 -0.102614895 0.019525569 -0.017477423
-0.075164735 0.03868709 -0.058948144 0.012744029 0.060764328 -0.06289716 -0.067366056 -0.023539227
-0.0653635 0.14497794 -0.06942755 0.092370875 -0.027196545 0.06786314 0.07661154 0.037975945
-0.13990247 0.10715295 0.12671603 0.07944713 0.122153096 0.16899425 -0.016336054 -0.014057629
-0.021395743 0.02290553 0.11006402 0.095851876 -0.040601 -0.040187065 -0.046526767 -0.19625562
-0.10666475 0.010432588 0.09799516 -0.0049704434 -0.027469374 -0.05567308 0.12331994 -0.06625595
0.0023337174 0.021001507 0.0043017645 0.055391002 -0.07305476 0.0055429316 -0.038161814 -0.070195004
-0.06986962 -0.0874517 0.18842855 -0.027380202 -0.10018792 0.036636498 -0.018701192 0.0769956
0.10476949 0.07553226 -0.14490195 0.010845275 0.04019637 0.019818299 -0.10090963 0.13793366
-0.032945946 -0.056765933 -0.1586303 0.05848474 0.08852343 -0.015787171 -0.028420085 -0.05537794
-0.08836024 0.06850917 0.07441794 0.115810685 -0.02077481 0.01897884 -0.15877615 -0.11700446
-0.010423795 0.13224381 0.12248593 -0.041418795 0.15040925 -0.07475327 0.065024145 0.06066245
0.01898427 0.11912351 -0.08698447 -0.018787574 0.07426114 0.0015267966 0.009427031 -0.06628077
0.07739861 0.07225269 0.037555646 -0.07551224 -0.078475416 0.019797178 0.047129866 -0.054775223
-0.025908126 0.08556313 0.022141315 0.035300657 -0.055125233 -0.11068049 -0.11097849 -0.036288034
-0.05728917 0.04937898 -0.013471166 -0.029490603 0.124221966 0.055029362 0.08062846 -0.052694883
-0.04076769 0.056762476 -0.08376066 -0.07132404 0.0031889468 -0.048993003 -0.10188384 0.09252716
0.09673153 0.035848863 -0.022905838 -0.09239232 -0.015286416 -0.018687725 0.04917864 -0.0023024986
-0.038246542 0.08634751 -0.09732529 0.11338913 -0.0431864 0.029919973 -0.049679734 0.012502014
-0.063663006 0.116572015 -0.0068808096 0.1146422 0.13720919 -0.047345195 -0.08347428 0.08742512
0.12329172 -0.07798298 0.01888893 -0.10001096 -0.09617971 0.065554865 0.061880596 0.05636117
-0.041448172 0.11977009 0.028565723 -0.04427317 0.029178258 0.029025031 0.054317452 -0.08544211
0.02414515 -0.047024265 -0.06775138 -0.026798641 0.07804299 0.105631195 0.10841451 0.10953056
0.09075918 -0.015821332 -0.038401596 0.07429465 -0.066239595 -0.06559217 -0.041818134 0.020285495
0.05686554 -0.033909027 -0.039206825 0.019463714 -0.07550853 -0.13980643 0.05825382 -0.0048467093
0.15802883 0.13771422 0.062284965 0.083207734 0.05128577 -0.077010036 -0.02711379 0.0075900364
0.08824829 0.12163192 -0.04065331 -0.033150107 -0.022334449 -0.040413942 -0.0060663037 0.12118963
0.042354893 0.09979884 -0.095628746 -0.06893496 -0.004970259 -0.010225925 0.003560248 -0.15737097

gkf.gat_rnn.fc_delta_y_innov.2.bias f4 [64]
00000000: 7dc6 1f3d 4179 e43d 3708 073d 3e52 45bd
00000010: 0ac9 be3d e17b c93d 8d7a 28bd 2d38 53bd
00000020: 6402 b8bd 11a1 85bc 4260 19bd 65d1 a43c
00000030: b519 e53c 5be7 20bc c36a dd3d 74e6 0c3d
00000040: a054 55bd dd9b d6bb 8f49 bfbd 6fe7 c8bc
00000050: e79c cdbd dd09 3f3d fa9a 8bbd 0cbb 6c3d
00000060: 7ed8 e53d 851e f1bd fa9c 1abd 89a7 fabd
00000070: 61ec 003d 5d68 ec3b de69 43bd 0a8d c33d
00000080: 6de6 a53d 1b43 0abe 43d1 253d 1e4a 0fbb
00000090: dacf 01bc e3c6 823d 5719 443c d6f2 d9bd
000000a0: d2dd f63d e1c3 b6bd a3bd 4abc be9d b63d
000000b0: 6d0a 073e 1cf1 1b3e 4b03 d0bc 5b60 9d3d
000000c0: 7f43 b2bd 6ba8 1c3c 9e09 bcba 5b77 7d3d
000000d0: 3622 5fbd 0fb1 9d3d b7bb a83d ad5f 053e
000000e0: 30a5 ee3b 2c40 e43d 0f1c c5bd 3302 bcbc
000000f0: 20b6 563d a8a2 ab3d a1b3 9e3d 7e42 6bbd
0.039007653 0.1115594 0.03296682 -0.048174135 0.09315689 0.09838081 -0.0411325 -0.051567245
-0.08984831 -0.016312154 -0.037445314 0.020119378 0.02796636 -0.009820784 0.10811379 0.034399465
-0.052082658 -0.006549342 -0.09340202 -0.024524419 -0.10039692 0.046640266 -0.06816669 0.05779557
0.11222933 -0.11773399 -0.03774736 -0.12238986 0.03147543 0.0072145895 -0.047708385 0.095483854
0.08100591 -0.13502161 0.04048277 -0.0021864246 -0.007923091 0.06385591 0.011968932 -0.106420204
0.120540276 -0.0892408 -0.0123743145 0.08916806 0.13187571 0.15228695 -0.025392195 0.07684394
-0.0870428 0.009561638 -0.0014346128 0.061881404 -0.054475985 0.07699787 0.08238929 0.13024779
0.0072828755 0.11145052 -0.096244924 -0.022950267 0.05241978 0.083806336 0.07749105 -0.05743646

gkf.gat_rnn.fc_r.0.weight f4 [64, 1]
00000000: 1833 2b3f 4ebb 78bf ad1f 39bf 738f 8ebd
00000010: 4ec8 7bbf 17c7 7cbf 5395 68bf db20 5d3f
00000020: 7ee9 853e 2d5c 9bbe 07ee a9bd f06a 62bf
00000030: c898 77bf f5bb 3cbf 74aa 80bf 99ba 333f
00000040: aca3 cabe fb00 86be 9659 65bf fe35 4c3e
00000050: 9fe4 1abe 493c 3abf 22dd 2b3f fcb3 643f
00000060: 5750 3ebf 5a8b 1b3f bad4 1ebe 32d2 8fbb
00000070: aa49 ec3e d993 4fbe 279b 673f 2a06 2c3f
00000080: 11df 2cbf 1f35 28bf 071a 84bf d076 b93e
00000090: 825b 48bf 9930 5dbf 43f8 24bf 080c 85bf
000000a0: a04a 5ebf 820a 6f3f 9cde 0e3f ba9e 6f3f
000000b0: 3c48 01bf 1f7f d5be 07a9 b3be 20c3 4d3d
000000c0: 0345 39bf 589f 253e 5593 26bf 257e 273e
000000d0: abc7 6f3f 3151 6e3e b455 443f f8a8 3fbf
000000e0: d22e 17be 9daf 24bf 138a ebbd 3947 d8be
000000f0: c3a3 1dbf 5ad6 81bf 2372 b8be 3028 353e
0.6687484 -0.97160804 -0.7231396 -0.069609545 -0.98352516 -0.98741287 -0.9085285 0.8637826
0.26154703 -0.30343762 -0.08297353 -0.88444424 -0.967175 -0.737243 -1.0052018 0.702066
-0.39577997 -0.26172623 -0.8958982 0.19942471 -0.15126275 -0.7274824 0.67134297 0.89337134
-0.7434134 0.6075951 -0.15510836 -0.004389071 0.4614995 -0.20271243 0.9047112 0.67196906
-0.6752787 -0.65706056 -1.0320443 0.3622346 -0.7826463 -0.8640228 -0.6444132 -1.0394297
-0.8683262 0.9337541 0.55808425 0.9360157 -0.50500846 -0.41698548 -0.35089895 0.050234914
-0.7237093 0.16174066 -0.6506856 0.16356714 0.93664044 0.2327316 0.7669327 -0.748672
-0.14763954 -0.64330465 -0.11500945 -0.4224184 -0.61578006 -1.014354 -0.3602458 0.17691112

gkf.gat_rnn.fc_r.0.bias f4 [64]
00000000: d3ba e3bd 1e0d 61bf a7aa 493f 10fb 463f
00000010: c670 18bf 0ebb 003e d22f 2d3f ed9b 62bf
00000020: 5e91 57bf 6697 123f 6e4b ad3c 2584 aa3e
00000030: cfc8 bfbe 4f53 5a3e 1535 2f3f 10b1 44be
00000040: abe0 8fbe 1b8f 76bf f82b 01be 6605 2b3f
00000050: 57ed 77bf 2132 10bd e098 403f 50f2 67be
00000060: ec27 a1be 1323 83be 6408 d3be 52f4 1d3e
00000070: 8639 6dbf 5bf9 c73e 076d 4bbe 2911 93bd
00000080: b3be 22bd 266b 143f abf3 10bf f6d2 5fbf
00000090: 5424 33bf f1db 34bf 08fd 00bf dfec 503f
000000a0: 6c38 36bf 69a9 0cbf ce18 4fbf af63 e7be
000000b0: 7e58 00bc 1a3d 1cbf ff43 053c 79ec c53e
000000c0: 0535 19be 42d1 f33e 473d 5c3e 6edd 7d3f
000000d0: b9e2 37bb bd1a 653f ec01 483f b668 f73e
000000e0: ce23 163f a311 21bf de15 2cbf 800b f13e
000000f0: e67c c73e 5063 6e3f 4e40 07be e1c9 0cbe
-0.11119618 -0.8791064 0.7877602 0.7772684 -0.5954708 0.12571356 0.67651093 -0.88519174
-0.8420619 0.57262266 0.021154132 0.33303943 -0.37457892 0.21320842 0.6844037 -0.19208169
-0.28101096 -0.9631211 -0.12614429 0.6680511 -0.96846527 -0.035204057 0.7523327 -0.22651029
-0.3147577 -0.25612697 -0.4121734 0.15425232 -0.926659 0.3905743 -0.1986581 -0.071810074
-0.039732646 0.57975996 -0.5662181 -0.87431276 -0.6997731 -0.70648104 -0.50386095 0.81611437
-0.7117984 -0.54946 -0.80897224 -0.4519324 -0.007833598 -0.61030734 0.008133887 0.38656977
-0.14961632 0.4762059 0.2150775 0.99166 -0.0028058721 0.89493924 0.7812793 0.48322076
0.58648384 -0.62917536 -0.67220867 0.47079086 0.38962477 0.9312029 -0.13208124 -0.13748886

gkf.gat_rnn.fc_r.2.weight f4 [64, 64]
00000000: f323 1f3e cf07 c0ba 4b45 f63d 522a f4bc
00000010: 9279 35bd aa02 1f3b 405f 893d 26f8 77bd
00000020: 4021 1dbd da2b cf3d 45cf c53c 0fe1 b03d
00000030: 9e91 36bd fb90 a6bd 0ee0 aebd 0283 18ba
00000040: 02d7 c9bd 447e 3d3d 8d80 fd3c 5184 1bbd
00000050: 4e79 9d3d 3e10 063d 4202 cb3d 62f3 8b3c
00000060: 6546 ac3d ac8c a0bc b92c 9f3d 765f 0fbd
00000070: 6517 8a3d facf fdbc 4e89 1a3e 58f7 13bd
00000080: 4de6 debc b4e1 03bd 0889 9fbd 836b 62bd
00000090: a0e4 25bd ecc6 013c 202b ac3d 33bb a2bc
000000a0: 6e24 f03d a84f a63b c16a 09bd e7ce 773d
000000b0: 290b d2bc e4c7 003d 62d4 e63d 8cd7 aa3d
000000c0: 3e31 dbbd b004 1c39 2ff9 dcbc ec00 97bd
000000d0: ce1b d63d f5fc 193e 25de ec3d 1784 2cbb
000000e0: 27c0 843c b27c 83bd 35be 49bd 6429 e73d
000000f0: 8b69 84bd 0e14 b13c a943 c0bd fc59 a13c
00000100: 797e 973c de5a 8bbd 3860 503d 24c3 babd
00000110: 3e1b d8bc e6d4 dd3d 7a7e 0a3e 1d32 84bb
00000120: 4ec7 d2bd 568c b2bd 91fa 7bbc 810e 34bd
00000130: b096 fb3d 7a9a 8cbd 47a7 bf3d b4ab 0d3d
00000140: cee2 4fbc ec13 f13d a7c4 bc3d 620d 623c
00000150: b5a2 bebd af34 6fbc 0c94 6d3d 8f37 f43d
00000160: 7e2e 96bc 87b8 2dbd e1a8 bebd 6064 c03d
00000170: 6029 f73d e4fe cf3d d27f 6fbd 2d9a cf3d
00000180: a252 80bc f8b9 a93d 93c2 c73d 224a dabd
00000190: 80ca 6a3d f064 9b3d f939 4abd 22a9 083e
000001a0: 1e54 fd3d d200 e83d eb0e 293b 1d0c 6bbd
000001b0: cf6e 3dbd 6438 983d 042c 58bb ab98 ee3d
000001c0: 0294 023e e7b7 e63c 5575 a8bd 0c94 893d
000001d0: 4ea4 fe3d 5bb6 60bc 352d 45bd 684d 30bc
000001e0: fda8 093d c9b0 87bd 8826 753d 48d6 8f3d
000001f0: 5ae7 eebc a8cd ecbc d062 12bd c874 d13d
00000200: 480c 023e e7c2 d93b 731a 5dbd 6296 863d
00000210: a075 b03d 75bc 60bc 26a2 eabd df84 bf3d
00000220: ae0e f3bc 5ce7 24bd 0c88 0ebe b172 6ebd
00000230: cc50 09bd a29f 05be d609 e23c 4f80 2b3e
00000240: f9f5 0bbe 36c0 453c 3c60 09be 96b8 cf3c
00000250: 1fe2 e63c bade 56bd dd19 be3d 6fbe 3f3c
00000260: d9f9 a43d 395a 00bc fbea 93ba 18df 2b3d
00000270: 504a ef3d b596 7bbc ea18 033e 4d91 af3d
00000280: fb07 f43c ef9e 48bd 21eb c73b 990e 1a3e
00000290: d188 8fbd 8b36 a6bd 793b 763d f824 83bb
000002a0: 4f33 17be 713c c03d 2947 abbd 9339 90bc
000002b0: cea6 04bb f153 233d 58c1 a2bd 7212 1c3e
000002c0: 8b0e a13d 02f9 173e 7155 2dbe c742 e73a
000002d0: 49cf 7a3d 0e84 1a3e 7ef2 0b3d 92b7 dbbc
000002e0: 4ed0 973d 432e c0bd b50a dabd 46ed 9a3d
000002f0: 69ed 65bd 4c00 1c3d 6bd4 26be 2325 32ba
00000300: ca12 ba3d daa5 9fbc ec6c 063d b342 ecbd
00000310: 74a8 eb3d e053 8dbd 7806 6ebc 1c5e 97bd
00000320: 4cd0 aabc 46a3 f0bd a013 e5bd b2a7 05bd
00000330: 2ebc 7abd b7ef ae3d 466e 0ebc 039d ce3d
00000340: 0536 e1bc 0539 103d 9e23 e93d 72f5 d4bd
00000350: 2e25 3cbd de1d ce3d 69f9 0bbd 16ec f5bc
00000360: 8046 7e3b af6d 7ebd dbc1 923b f451 84bd
00000370: 9aea 613d 4bc1 1abd 5434 1ebd de9a 35bd
00000380: 82a4 d63c 62d0 5c3d 6c17 f7bd 4ea3 89bd
00000390: 5362 02be 25b3 513d fb2e b13d 199d 03be
000003a0: 8686 cf3c 86cf fc3c 64f3 69bd 4f17 033d
000003b0: 1365 b83d 4591 e83d 5606 433d 19c3 08bd
000003c0: bd45 9ebd aa27 60bd 7195 c8bb 59d9 8bbc
000003d0: 1b79 be3d 6fc6 f6bd 52e2 c93b 2301 44bd
000003e0: dbb0 afba 42f6 e63d 99c2 683c 6e7a fdbc
000003f0: e254 4ebd cec7 08be ead7 f4bd 8c10 843d
0.15541057 -0.0014650765 0.12024935 -0.029805336 -0.04430539 0.0024263063 0.067076206 -0.060539387
-0.038361788 0.10115786 0.024146685 0.086366765 -0.044572465 -0.081331216 -0.08538829 -0.00058178615
-0.098554626 0.046262994 0.030945087 -0.037967984 0.07689153 0.032730334 0.0991254 0.017083827
0.08411864 -0.019598328 0.07772202 -0.035003148 0.067427434 -0.03098296 0.1509144 -0.036124557
-0.027209425 -0.03219767 -0.077898085 -0.055278312 -0.040501237 0.007920962 0.08406663 -0.019864654
0.117256984 0.0050754137 -0.033549074 0.06050005 -0.025640087 0.03144063 0.112709776 0.083418936
-0.107027516 0.00014879066 -0.026974289 -0.07373223 0.10454522 0.15037902 0.11565808 -0.002632385
0.016204907 -0.06420268 -0.04925366 0.112871915 -0.06465443 0.021616008 -0.09387905 0.019696228
0.018492924 -0.06804441 0.05087301 -0.09119251 -0.026380178 0.10831623 0.1352481 -0.0040342943
-0.102919206 -0.08718173 -0.015379564 -0.043959145 0.12284601 -0.068654016 0.093580775 0.034587577
-0.012688352 0.11771378 0.09217196 0.013797136 -0.09308378 -0.014599963 0.058002517 0.119246595
-0.018332716 -0.042412307 -0.09309555 0.09394145 0.120684385 0.101560384 -0.05847151 0.101368286
-0.015664402 0.08287424 0.09753909 -0.10658671 0.057322025 0.07587612 -0.049371693 0.13345769
0.1236956 0.113282815 0.0025796245 -0.0573846 -0.046248253 0.07432631 -0.003298522 0.11650213
0.12751773 0.028163863 -0.08225504 0.06717691 0.124336824 -0.013715352 -0.048138816 -0.010760643
0.033608425 -0.06625516 0.0598512 0.07023293 -0.029163051 -0.028906658 -0.035738766 0.102273524
0.12699997 0.0066455486 -0.053980302 0.06571652 0.08616185 -0.013716807 -0.114567086 0.09351515
-0.029670086 -0.040259704 -0.13919085 -0.058214847 -0.03352432 -0.13049176 0.02759258 0.16748165
-0.1366805 0.012069752 -0.13415617 0.025356572 0.028183995 -0.052458502 0.09282277 0.011703118
0.08055467 -0.007834011 -0.001128524 0.041960806 0.11684096 -0.015355756 0.12802473 0.08572636
0.029788962 -0.048979696 0.0061010276 0.15044631 -0.070085175 -0.08115872 0.06011531 -0.0040022098
-0.14765666 0.09386528 -0.08363182 -0.017605579 -0.0020241025 0.039874975 -0.07947034 0.15241411
0.07864102 0.14841083 -0.16927125 0.0017643803 0.06123284 0.15089437 0.034166805 -0.026820932
0.07412778 -0.09383824 -0.106465735 0.075647876 -0.056134615 0.03808622 -0.16291969 -0.0006795695
0.09085615 -0.019488264 0.03281872 -0.11536159 0.11506739 -0.069007635 -0.014527909 -0.07390997
-0.020851277 -0.11749892 -0.11185384 -0.03263063 -0.06121462 0.08541816 -0.008693283 0.10088541
-0.027491579 0.035210628 0.113837466 -0.103983775 -0.045933895 0.100642905 -0.034173403 -0.030019801
0.0038799345 -0.06211632 0.004478676 -0.06460944 0.055155374 -0.037781995 -0.038624123 -0.044337146
0.02620149 0.053909667 -0.12065014 -0.06720601 -0.1273282 0.051196236 0.08651539 -0.12852897
0.0253327 0.030860674 -0.05711688 0.03200465 0.090036534 0.11355833 0.047613464 -0.033389185
-0.07728145 -0.054725327 -0.0061213304 -0.017071413 0.09300443 -0.12049567 0.0061610127 -0.047852647
-0.0013404147 0.11277439 0.014206552 -0.030942168 -0.05037392 -0.1335747 -0.11955245 0.064484686

gkf.gat_rnn.fc_r.2.bias f4 [64]
00000000: e095 953d dcef e53d 0470 873d 4eaa 173d
00000010: cf04 9ebd 63a8 78bd 03a4 9ebc 7e87 92bd
00000020: c33b 40bd 155a 87bd 69a1 983c e0f9 84bd
00000030: 828f a33c e1c6 6c3c 1a94 413d 5ef3 5a3d
00000040: 1abb aabd 2a25 b2bb 919d cb3c 688d b9bd
00000050: 2b6c b53d bbca 41bd 189d e33d b46c 183e
00000060: b049 33ba 2673 49bd 167b cb3d f9e0 6dbd
00000070: 6a05 a43c 75ca ec3d ddf8 043e bc38 2b3d
00000080: 002c 803c 88ea 153c a05a bfbd d684 a13d
00000090: 9e43 91bd 2691 743d b5ef dabc e0e9 033e
000000a0: 33fb 06bd caee 213e e92e ca3a 83c4 b83c
000000b0: 17af bebd d70e ea3d 4839 bf3c 435e 00be
000000c0: 5283 373d 6301 973d 8c11 2cbd 3379 173e
000000d0: b413 b03d 607f 873b 11ad 1e3e 56d4 d03d
000000e0: 895a b63c c0d2 c3ba 8396 593d b756 cdbc
000000f0: 8c72 b83d d4a7 ccbd 922b 25bd 8099 b33d
0.07303977 0.1122739 0.06613162 0.03702765 -0.07715761 -0.06070746 -0.019365316 -0.07154749
-0.046931993 -0.06608979 0.018631654 -0.064929724 0.01996589 0.014451713 0.04726038 0.05345475
-0.08336468 -0.005436559 0.024855407 -0.09060174 0.08858522 -0.04731248 0.11113948 0.14885217
-0.00068392884 -0.04918208 0.09935586 -0.05807588 0.020022113 0.11562053 0.12985559 0.041802153
0.01564598 0.009150155 -0.09343457 0.078866646 -0.07092975 0.059708737 -0.02672563 0.12882185
-0.032954406 0.15813747 0.0015425357 0.022554642 -0.093107395 0.11428612 0.023342744 -0.12535958
0.04480297 0.07373311 -0.04200892 0.14792328 0.08597508 0.0041350573 0.15495707 0.1019675
0.022259967 -0.0014940128 0.053122055 -0.025065763 0.09006223 -0.09992948 -0.040324755 0.08769512

gkf.gat_rnn.r_input_gru.weight_ih_l0 f4 [192, 64]
00000000: ae97 fcbd 7598 45bd 73f0 87bd b1ec 913d
00000010: 78e4 bfba 902a d3bd 6341 ac3d 88e7 7fbd
00000020: c8a5 e2bc 6f3c 1e3d ad97 bebd 64c0 13bc
00000030: aa8c f1bc 6da5 34bd 8a21 78bd 4d6d 883d
00000040: 9c3a 80bd fe11 c7bd 8aa4 4d3d 9632 cd3c
00000050: 8088 ecbb 1073 ae3c 8fa2 ca3d 0f94 62bd
00000060: 0b48 e1bd 96dc 02be 7bfb ad3c 2817 053d
00000070: ee1c 54ba 6620 eebd d737 cbbd 6b5f b5bd
00000080: d306 a33d 9311 a83c 224a a5bd 3592 08be
00000090: e3e0 863d 38b2 03bc 4648 003e 59bc efbd
000000a0: 8b48 f3bd d06d 05bd ac6f 9f3d 31bb 9c3d
000000b0: 881e da3d 5f82 803d d803 413d ad29 94bd
000000c0: 9f94 f83d 6494 8bbd 7d54 be3d 15fb 183d
000000d0: 1754 cebd 644a 143a eab2 a8bc df38 903d
000000e0: 4735 ca3d 41f9 513c b3e8 99bd 4ea4 b53c
000000f0: 05e1 b83d c187 9abd 5ae2 ab3d 3d15 b03c
00000100: 2c30 0e3e 981c 953c 8282 f03d 364a 88bd
00000110: 7d8a 223d 9700 45be d536 8f3d 6822 ac3d
00000120: 0762 35be 46aa 8dbd 5bbe 413b e74c 5ebc
00000130: 7714 56bd ffea 27be c997 1bbd 15ba e8bd
00000140: b171 8abc b9dd 9b3d 86e3 833d d728 8bbd
00000150: f93a d7bd 3ed9 173e 68df 98bd fa47 c7bd
00000160: 7cd2 d93d 34b5 e0bc caf5 773b f64c f23b
00000170: dfb6 29bc ce11 e73d 9856 35bd 60ca ce3d
00000180: a9cb 023c d035 853d c798 92bc 4e31 39bb
00000190: 7064 0f3d f846 5a3d a6cf a9bc 03bf 37be
000001a0: 249f 0fbe e3be 97bc fe3d 9abd b1e7 943d
000001b0: 54a8 ec3c 2063 08be 3359 ddbc b70c 583d
000001c0: adcd 0a3e a4bf fdbd 7421 97bd 5c6e adbc
000001d0: 1919 63bd 8bb8 f7bd afe6 4ebe fbe8 89bd
000001e0: edcc 933d 20a2 12be aba8 51bb bcdf f2bb
000001f0: 859f ffbd ccc2 60bd 9530 a93c be8a 743d
00000200: 7570 65bc 854f 7dbd af8d 8fbd 28a7 6cbd
00000210: 4ec2 d93d 5dd1 8b3d 42ae 10bd eaf8 b2bd
00000220: a9bc 6bbd 0b33 473d 4a12 f23d a887 ac3d
00000230: 3d94 34bd fb00 ab3d b652 003d ca71 183d
00000240: 16de a13d a4ab 33bc 3f44 803d e354 103d
00000250: 0792 913d 851b 58bc 4325 d73d db2f b1bd
00000260: b064 723d ae18 88bd eb48 3fbd a66c 6dbd
00000270: a822 bd3c 3a55 643c a6b9 cebd 7c96 b23d
00000280: b3d3 673d 5905 173e 4e3d 87bd a3ef c1bd
00000290: 9e8d 723d 50af e23d b0e1 de3d 3b7b 8b3d
000002a0: c319 333d d3cc 9d3d 4b17 04bd c22a dbbd
000002b0: db73 b6bd c62f 7dbd 7176 483d cd7c b93d
000002c0: 7226 be3d 686b 71bd cb03 833c c913 f83d
000002d0: 1aad a53c c694 e93c df8a f1bc 7a5d d43a
000002e0: 5ef5 e33d a5a5 9abc b86a 80bb 6f08 a53d
000002f0: 89ea ccbc c3ac 36bd 56ac c83c 43fc 033e
00000300: 8069 e23c 603c 93bc 478d babd accf a83d
00000310: bc48 e5bb 8c28 a4bd ec47 ecbd 7147 90bd
00000320: 7796 d9bd c8a9 e83c df61 bb3d 25b9 0dbd
00000330: 0a46 5d3d eabe 2bbd 666d 81bd 4fe1 0dbe
00000340: cfd5 a8bd c579 f23d 41bc a43d 831b c83d
00000350: acaa d5bb 9c1f 7d3d a201 30bd 6ce2 f63d
00000360: 451e bebd 6070 22bd 1b40 03be 3692 16bc
00000370: d7b0 c7bd 84ea c2bd 8b43 113c 4f25 f13d
00000380: fcac c03d 95b8 c33d 8d09 52bd 6f34 2f3a
00000390: 7185 ffbd 6444 b33d 4f36 ae3c ed79 a63d
000003a0: e24e 17be ccbc a6bd 83ac c4bd c90a c8bd
000003b0: 0889 c7bd a904 ff3c 6491 963d dca2 933d
000003c0: 3770 4fbd a246 0c3d 89ac 0a3e 4f78 30bb
000003d0: 48fb a7bd 1d34 c8bd a5fe 9f3d 1f52 3dbd
000003e0: c101 e6bd c7b6 553d 4a5a b93c 9345 8cbd
000003f0: 8a4b 05be 2499 803c 5ca3 79bc 60b8 a0bc
-0.12333618 -0.048241097 -0.06637659 0.071252234 -0.0014640233 -0.103108525 0.08410909 -0.062476665
-0.027666941 0.038631853 -0.093062736 -0.0090180375 -0.02948602 -0.044103075 -0.06057886 0.066614725
-0.06261179 -0.097202286 0.050205745 0.025048535 -0.0072184205 0.0212951 0.09894287 -0.05531698
-0.11000069 -0.1277946 0.02123808 0.032492787 -0.0008091469 -0.11627273 -0.0992276 -0.0885609
0.07960286 0.020516193 -0.0807078 -0.13337024 0.065858625 -0.008038096 0.1252757 -0.11705846
-0.11879071 -0.03257543 0.077849716 0.076528914 0.106503546 0.06274866 0.047122806 -0.072345115
0.12137722 -0.06815413 0.092934586 0.037348825 -0.100746326 0.0005656837 -0.020593125 0.07042097
0.09873443 0.012815774 -0.07515087 0.022173073 0.09027294 -0.07545424 0.083927825 0.021494502
0.13885564 0.018202111 0.117436424 -0.066547796 0.039682854 -0.19238506 0.0699288 0.08405
-0.17713176 -0.06917243 0.0029562924 -0.01356814 -0.05226561 -0.16398238 -0.03798655 -0.11363617
-0.016899915 0.076106496 0.06439881 -0.06794899 -0.10509295 0.14828965 -0.07464486 -0.09730525
0.1063585 -0.027430154 0.003783571 0.0073944284 -0.010358541 0.11282693 -0.044272035 0.10097194
0.007983127 0.065044045 -0.017895116 -0.0028258148 0.035007894 0.053290337 -0.020728897 -0.17943959
-0.14025551 -0.018523639 -0.07531355 0.07270754 0.028888859 -0.13319063 -0.027020073 0.0527465
0.13555022 -0.12390068 -0.073794276 -0.021170788 -0.055443857 -0.12095746 -0.20205186 -0.067338906
0.07216821 -0.14319658 -0.0031991403 -0.007411925 -0.12481598 -0.054873273 0.020653049 0.059702627
-0.014003863 -0.061843414 -0.07009446 -0.0577766 0.10632764 0.06827042 -0.035322435 -0.08738883
-0.057552967 0.048632663 0.118198946 0.08424312 -0.044086684 0.083497964 0.03132888 0.037217893
0.07903688 -0.010966215 0.06263017 0.035237204 0.07107931 -0.013190155 0.10505154 -0.08651706
0.059178054 -0.06645332 -0.0467004 -0.057964943 0.023087814 0.013936335 -0.100940034 0.08720109
0.056598376 0.14748134 -0.0660349 -0.09469535 0.059217088 0.110685945 0.1088289 0.06810614
0.04372574 0.07705083 -0.032248776 -0.10701515 -0.089088164 -0.06181314 0.04894108 0.09057007
0.092846766 -0.05894032 0.01599302 0.12113149 0.020224143 0.028513324 -0.029485164 0.0016202175
0.111307845 -0.018877814 -0.003918972 0.08058249 -0.025014179 -0.044598352 0.024496239 0.12889199
0.027638197 -0.017973125 -0.09108978 0.08242735 -0.006997196 -0.08015546 -0.115371555 -0.07044876
-0.10624402 0.02840127 0.09149527 -0.034600396 0.054021873 -0.041930117 -0.06319694 -0.1385548
-0.08243906 0.11839632 0.08043719 0.097708724 -0.00652059 0.061797723 -0.042970307 0.12054905
-0.09283117 -0.03965795 -0.12817423 -0.009190133 -0.097505264 -0.095173866 0.008866201 0.11774694
0.09407994 0.095566906 -0.05127864 0.00066835334 -0.12476624 0.08753279 0.02126613 0.08128724
-0.14776185 -0.08141479 -0.096032165 -0.09767682 -0.097429335 0.031130152 0.0735195 0.07208797
-0.050644126 0.03424705 0.1354238 -0.0026927178 -0.08202225 -0.09775565 0.078122415 -0.046220895
-0.11230803 0.052176263 0.022626061 -0.06849208 -0.13017097 0.015698023 -0.015236702 -0.019619167

gkf.gat_rnn.r_input_gru.weight_hh_l0 f4 [192, 64]
00000000: 3f15 4cbc 83ca 6bbd db0c 0cbe 9d8c 1b3c
00000010: b1ae 96bd 8b6c b53d 0c20 fa3d 883b 89bd
00000020: e68f b8bb 87d6 78bd a2fa 483d 79e0 8c3d
00000030: c365 cabd 0d5b 54bd 03e2 83bd 669b 0c3e
00000040: f400 843d 6966 c3bd 0764 1ebd 4b7a d2bd
00000050: dc19 453e f849 503d c3a8 a2bd 41d2 a63d
00000060: 6915 a53d 5eb8 05bd 9e01 f7bd 010c 953d
00000070: 3172 e6bd dc23 8b3d 7985 2fbd bd23 ce3d
00000080: a70b a33c 1dad e63c 3527 883b 0b31 803c
00000090: 6ffe 753d 73bd 18bd 5fed 41bd e634 9c3b
000000a0: 15e6 f13c 201c c5bb 2e38 babd 9731 043d
000000b0: 9aac 99bb 4b77 7bbd ad44 9f3d aee6 b43d
000000c0: 012b eb3d 4f3f a0bd 1a57 c63d 1f74 523e
000000d0: a18c f93b 579a 1e3e 2734 8e3c 8492 0abd
000000e0: 9e00 283b 186a 493d 8f12 903c dfb2 883c
000000f0: 4f50 1cbe 42cb 11be c8ed d1bd bc13 f63d
00000100: 3be2 d8bc 4b1b 92bd 00cd a63d 2706 a8bd
00000110: 92ec d33b a25a b83d 86a6 4fbd f56d 033d
00000120: 663a b73d 0c3f 123e 1f9f 5e3d 58d6 38bd
00000130: c397 723d 4080 6f3d b25e e6bc f888 0f3e
00000140: b9ee fcbb ac57 6d3d 08c9 15be e017 033c
00000150: 8cc4 97bd ec8c da3c 9b5e 5a3c 049a a23d
00000160: ce58 a23d 6056 c03c 3fa1 723d 8759 0bbe
00000170: 2494 b83d 1bc1 c83c 190c 05ba 16df 6c3d
00000180: 831d b13d cd7c 03be a8d4 e93d 5c0b 5abc
00000190: 39ee 313e 2458 d0bc 44fd d1ba 7365 983c
000001a0: 7a76 713d f2ce 09be 0133 fe3c ec3e d83d
000001b0: 8ba8 343d e683 e8bd b3d9 fc3d a399 343d
000001c0: 7057 f2ba ef6d dfbc af6d 8fbc 5a19 8ebb
000001d0: da6b c33d bdb7 c43d 2372 93bc 48b0 763d
000001e0: 8e5c 833d ca5c c03d f35b ae3c 51de 92bd
000001f0: 0d5a e7bd 0bdb a63d feaa 163d 3163 7b3d
00000200: 8c76 63bd 90ab c4bd f631 68bd a3c2 cc3d
00000210: e4c5 b1bd 0c42 853d 866a ccbd 8dfc ba3c
00000220: 641c 873d 4afa debc 9d5a debb e0fa 8fbd
00000230: cbd1 183d 7b21 c8bd 23a0 07be 43ea 39bc
00000240: 529c 913c 8b03 9bbd dd08 fabd 08d1 c73b
00000250: dbc9 16bd 85b4 0c3e 5aed 4fbd 040e 703d
00000260: c5a2 183e 7b58 b4bd 1b6c 963d a219 d1bc
00000270: 126b 913d fb8d d5bc 1705 cb3c 4176 2bbe
00000280: 0bbd b33d eae1 febd 1b34 ed3d e29e e8bd
00000290: aade 653d 0108 dd3c e5e8 6b3d 599e eabd
000002a0: cba8 a23d 0695 c13d 13dd d1bb 5951 1f3e
000002b0: a1a3 c93d 1745 bcbc 9f82 e23d 36aa e23c
000002c0: dbfa a13d 55af f4bd e7e7 b5bd afab b4bd
000002d0: 036d e2bd 3782 21bd bc57 b3bd 42ee 213d
000002e0: 0833 20bd 3aaf b43d b917 b93c a533 82bd
000002f0: d0d5 393d 24d2 f4bd 2d75 ddbd a16b f13d
00000300: 9f23 bb3d 368c 6b3d 495e 1abe 6bea 083e
00000310: 28a1 f0bd 56ef 5abc a060 a0bd 397f 5e3d
00000320: ace9 acbd c180 8cbd 6c68 aabd abd3 e3bd
00000330: 0396 a9bd d733 b03c 2811 8bbd f3d3 43bc
00000340: 0358 84bc e961 af3d b7cc b0bd 083e e93d
00000350: 2601 78ba f11e f13d 48ff acbd 6dcd 98bd
00000360: b2a0 953c f937 043c 2803 92bd bb03 953d
00000370: 16d4 03be c7c5 acbc f85d 19be 72a9 bebd
00000380: 3970 b43a ca9f 88bd 1122 353d 4802 0ebd
00000390: ff75 59bc 779a f1bd 75e9 c8bc 1c09 833d
000003a0: 34d6 5e3d f571 08be 69d6 d9bd bc03 a6bd
000003b0: b088 a13d 2c26 25be 14db eb3d 9bf6 8e3d
000003c0: 4594 c13d 08d0 94bd b435 bb3d 2693 dabc
000003d0: 7427 cebc 8768 fd3d 4f9c aabd c8f9 51bb
000003e0: 30d7 17bc f142 793d ac93 25bd 70aa c1bd
000003f0: cb11 8cbd 0457 b33c d18c d8bd e216 95bd
-0.012456237 -0.057566177 -0.13676779 0.009493974 -0.073575385 0.088585936 0.12213144 -0.06700808
-0.0056323884 -0.060751464 0.049067147 0.06878752 -0.09882691 -0.051844645 -0.06439593 0.13731155
0.06445494 -0.095410176 -0.038669612 -0.10277232 0.19248146 0.050851792 -0.07942345 0.081455715
0.08060724 -0.03264653 -0.12060855 0.0727768 -0.11252249 0.06793949 -0.0428519 0.1006541
0.019903017 0.028158719 0.0041550645 0.015648386 0.0600571 -0.037290048 -0.047345515 0.004767048
0.029528657 -0.0060153157 -0.09092747 0.032273855 -0.004689765 -0.061393064 0.07776771 0.08833061
0.11482812 -0.07824575 0.09684582 0.20552109 0.007615641 0.15488563 0.017358853 -0.033831134
0.0025635133 0.049173445 0.017586974 0.016686855 -0.1526501 -0.14237693 -0.10250431 0.12015483
-0.026475063 -0.07134112 0.081445694 -0.082042985 0.0064674104 0.09001662 -0.05069592 0.032087285
0.089466855 0.14281863 0.05435097 -0.04512629 0.059226763 0.058471918 -0.028121326 0.14017093
-0.0077188876 0.05794494 -0.14627469 0.008001298 -0.07410535 0.026678525 0.01332822 0.079395324
0.079270944 0.023478687 0.059235808 -0.1360837 0.090126306 0.024506142 -0.000507535 0.05782994
0.08648207 -0.12840576 0.11417514 -0.013308372 0.17376031 -0.025432654 -0.0016020914 0.018603062
0.05895088 -0.1345785 0.03103018 0.105588764 0.044106048 -0.11353283 0.1234621 0.044091832
-0.0018489193 -0.0272741 -0.017508356 -0.0043365182 0.095420554 0.09605358 -0.01799876 0.06022671
0.06414138 0.09392698 0.02128408 -0.0717131 -0.11296473 0.08147248 0.036784165 0.061373893
-0.055532977 -0.096030354 -0.05668827 0.099980615 -0.08680323 0.06506738 -0.09981255 0.022825504
0.06597212 -0.027218957 -0.0067857043 -0.070302725 0.03730945 -0.09772011 -0.13244681 -0.011347356
0.017774735 -0.07569035 -0.12208722 0.0060979165 -0.036813598 0.13740738 -0.050763465 0.058607116
0.14905842 -0.08805939 0.07344838 -0.025524918 0.071005 -0.026068678 0.0247827 -0.16744329
0.087762915 -0.124454334 0.11582204 -0.113584295 0.056120552 0.026981356 0.057595152 -0.11455984
0.07942351 0.09452252 -0.006404528 0.15558375 0.09845663 -0.022982163 0.1106007 0.027669054
0.07909175 -0.119475044 -0.088821225 -0.088218085 -0.110559486 -0.039430823 -0.087569684 0.03953386
-0.039111167 0.08822484 0.02259432 -0.06357507 0.045369923 -0.11954144 -0.10813365 0.11788107
0.091376536 0.057506762 -0.1507503 0.13370673 -0.11749488 -0.013362726 -0.0783093 0.054320548
-0.08443007 -0.06860495 -0.08320698 -0.11124357 -0.082805656 0.021509094 -0.06790382 -0.011952388
-0.016155249 0.08563597 -0.08632796 0.11388785 -0.00094606203 0.1177348 -0.084471285 -0.07461057
0.018265102 0.008069986 -0.07129508 0.07276102 -0.12873873 -0.021090401 -0.14977252 -0.09309663
0.0013766355 -0.06671102 0.04422194 -0.034670144 -0.013272761 -0.1179704 -0.024525383 0.06398222
0.0544035 -0.13324721 -0.106365986 -0.08106181 0.07887399 -0.16127843 0.11516395 0.0698063
0.09452108 -0.07266241 0.091411024 -0.026681494 -0.025165297 0.12373453 -0.08330595 -0.003203975
-0.009267613 0.060854856 -0.040424034 -0.094563365 -0.06839331 0.021892078 -0.105737336 -0.07279755

gkf.gat_rnn.r_input_gru.bias_ih_l0 f4 [192]
00000000: 2b0e f63d b1b4 72bd 3b8e 25bd c4cc a93d
00000010: 8dcd 5fbc 08c5 2b3e e8fa 13bd 8293 753d
00000020: 0aa6 a23c dbe0 8f3d eb86 d2bd 8f66 cb39
00000030: 7633 8fbb 1d42 babc bc91 863d eace ed3d
00000040: cd12 eb3d 00b9 da3d d434 a4bc bfda efbc
00000050: 555f c03d 558b f23d fde9 e8bc 07de d13d
00000060: 9fdd 48bd e02c 823b 7ff4 093e 1b46 0e3e
00000070: 490d dabd 2dda f33d 2c8a ee3d 1caa 183d
00000080: 3b5f 493d 8ff3 703d d4ac d23c 9cca a23d
00000090: 19b6 78bd fa6a 323b 2bb8 e5bc 2df2 883d
000000a0: f2eb 8cbd a741 8a3d 6ef8 eebc b738 ef3d
000000b0: 4aa2 e4bc edeb c43c a5c8 5c3d 98fa fe3c
000000c0: 5c31 a73d 8334 a03d ad25 903b b05d 64bd
000000d0: a467 883d 83b9 d9bd 6deb 1d3d 6bb1 9d3d
000000e0: db56 da3d a1d1 d93d 78e7 89bd a583 b9bd
000000f0: a2e2 fb3b d932 9cbd c7ad 213d fc78 a13d
00000100: d10c f23c 4cc7 30be 34d5 523d 4224 7dbd
00000110: 1d8f c5bd 7ea6 23be 69dd 82bd 166c b6bd
00000120: d984 cbbd 9e1d d23d 0846 28bd aadc 2abd
00000130: 19ba b2bd 68db 0d3d 46b4 88bd f569 d1bc
00000140: 453c 8ebd 94a2 84bd f5cf 58bd 453c dbbd
00000150: 17de 08bc d19e 0dbe 7650 bcbc 1c45 da3c
00000160: bbc6 4e3d 3011 debd 84c3 a3bd 2ddf e8bb
00000170: 097d 24be eb20 25bc 5c5c 693d 74de 473d
00000180: 7b8f 1cbd 6c80 5c3c 50a6 8c3d 583c 91bd
00000190: addc a1bc 123e 673b a483 fabd a24a 81bd
000001a0: 80f4 a9bd bc28 babd 3f90 a83d 822b 17bd
000001b0: c2b1 b6bd a579 21be 53f4 783d 40cc 8fbc
000001c0: 1a36 bc3d 6716 883d 7c70 c5bd 1c40 cebc
000001d0: 2c6f 533c 14ab ed3d 72e8 84bd 6cea 70bd
000001e0: 5aa1 f83d 83ca dd3b 26dd dabd a123 5dbc
000001f0: a2a7 fabd 128c b4ba bfc6 45bc 59c4 63bd
00000200: b2b7 43bd ec73 6a3d ebd1 ea3a e09c dcbd
00000210: 4986 cc3c 3fe9 193d df8f 8fbd 2206 d43d
00000220: 54e7 c2bd 1ba7 dc3c d895 9cbd 4a11 2dbe
00000230: 8322 e03d f866 cb3d 0e08 d8bd ceb6 a8bd
00000240: e06a 84bd b1e0 b3bd 3970 b93c 3ff3 b83d
00000250: 0202 5b3c 542c 2abd 5980 7bbd 6aac 983b
00000260: 6da8 a0bd 74c4 b2bd 504f e03a 2bc7 9e3b
00000270: aa85 c7bd 0228 c3bd 0450 e03d cec4 2f3b
00000280: be75 a1bc 84d0 83bd 81fb a13d d95b a13b
00000290: 7548 f33d 93ff 31bd 735f 99bd 2541 d03d
000002a0: a5ed 7ebd ed18 033e c350 2dbc d526 153d
000002b0: 6a33 53bd 8169 eabd 1bbe 89bd 5ebc 523d
000002c0: 540d c6bd e4bf acbc 58a0 74bb 78be f03c
000002d0: 9848 01be 7e6e a2bc d2b9 51bc 0879 013d
000002e0: c763 51bd 73e1 fa3d cd0c dfbc 35fe f33d
000002f0: 9db9 c33d 8883 303d 5cc8 d93c 88e7 e13d
0.12014421 -0.059254352 -0.040418845 0.08291009 -0.013659847 0.1677438 -0.036127955 0.059955128
0.019854564 0.0702531 -0.1027964 0.0003879559 -0.0043701483 -0.022736603 0.065707654 0.11611731
0.11478195 0.10679817 -0.020044722 -0.029279111 0.09393183 0.11842982 -0.028431887 0.102474265
-0.04903948 0.0039726347 0.13472174 0.1389393 -0.10647065 0.11906848 0.11647448 0.037271604
0.049163084 0.058826026 0.025717176 0.07948801 -0.060720537 0.0027224408 -0.02804192 0.06686816
-0.068809405 0.067508034 -0.029171195 0.116807394 -0.027909417 0.02403828 0.053902287 0.031125352
0.081637114 0.07822516 0.0043990226 -0.05575341 0.06660393 -0.10631087 0.038554598 0.076998554
0.106610976 0.10635687 -0.06733602 -0.09058312 0.007686929 -0.07626886 0.039472368 0.07884404
0.029547127 -0.17263526 0.051472858 -0.061802156 -0.09646437 -0.1598148 -0.06389887 -0.089073345
-0.09937448 0.10259555 -0.041082412 -0.041714348 -0.087269016 0.03463307 -0.066750094 -0.02556322
-0.06945089 -0.06476322 -0.0529327 -0.10704855 -0.008353732 -0.13830115 -0.022987586 0.026644282
0.050482493 -0.10843122 -0.07996276 -0.0071066828 -0.16063322 -0.010078649 0.056972846 0.048796132
-0.03822277 0.013458353 0.06867659 -0.07091588 -0.019758547 0.00352848 -0.1223214 -0.06313063
-0.08298588 -0.09089801 0.08230638 -0.036906727 -0.08920623 -0.1576906 0.06077988 -0.017553449
0.091900066 0.06644898 -0.09640595 -0.025177054 0.012904923 0.11604896 -0.06489648 -0.058817312
0.1214015 0.006768526 -0.10686712 -0.013497264 -0.12239005 -0.0013774654 -0.012071311 -0.055607174
-0.047782607 0.057239458 0.0017915344 -0.10772109 0.024966376 0.037575956 -0.07009863 0.10352732
-0.095167786 0.02693515 -0.07645768 -0.16901127 0.109440826 0.09931749 -0.10548411 -0.08237992
-0.06465697 -0.08783091 0.02263652 0.090307705 0.013367178 -0.04154618 -0.0614017 0.0046592252
-0.07844625 -0.08728877 0.0017113481 0.00484552 -0.09742291 -0.09529115 0.10952762 0.0026820186
-0.019709464 -0.064362556 0.07909299 0.004924279 0.118790545 -0.043456625 -0.074889086 0.10168675
-0.062238354 0.12802477 -0.010578337 0.036413986 -0.051562704 -0.114459045 -0.06725713 0.051449172
-0.09670511 -0.021087594 -0.0037327018 0.029387698 -0.12625349 -0.019828077 -0.012800651 0.031609565
-0.051120546 0.12250032 -0.027227784 0.119137205 0.09556887 0.043094188 0.026584797 0.11030489

gkf.gat_rnn.r_input_gru.bias_hh_l0 f4 [192]
00000000: c82e d1bd e90e a3bd 1134 803d ae76 cebc
00000010: ff84 4cbd d22c 60bd c021 513d 0221 be3d
00000020: 3946 3bbd 05b3 c63d 7264 913d 417c c13c
00000030: b757 83bd 9825 fd3d 07db 4d3d 9208 42bd
00000040: fb29 af3d b8ca db3d a7cb 57bd e6fe 90bd
00000050: 75c1 7a3d abc1 bd3d 9dcd c03b d6ab 063e
00000060: 8fa6 85bb f435 203d 483f f53d a576 a13b
00000070: ff23 c53d 98c6 8a3d ddc7 553d 9269 c6bb
00000080: 12b4 06bc 6565 5c3d c622 73bd f08e 56bd
00000090: 594d 203d 39d8 72bc 3683 40bd 90a8 acbd
000000a0: 5c44 7ebc bfc5 063e e51d 28bd 6599 833d
000000b0: 5dfe af3d ef43 cd3d b704 da3b b849 34bd
000000c0: 9611 083e 5f99 113d ad8b 97bd b58f 8dbd
000000d0: ef63 82bc 5522 10bb 57b2 50bd 4ce6 413d
000000e0: f747 753d 2b03 acbd fab7 aebd a6c4 683d
000000f0: a3ed a9bd f697 8e3d 4678 5f3d f7e7 dfbd
00000100: bd8d 3abd 58c3 353d 7aba d1bb 27ee b5bc
00000110: 15a9 09be d30e 91bd 1f64 1abe 4571 5a3d
00000120: 2497 11be 8021 d2bc 9f2d a83c 3fb5 c8bd
00000130: 4072 0dbd 4203 eabc a42f 863a 3238 0ebd
00000140: 75e5 df3d 155b 113d 5ac7 bbbb 6835 523d
00000150: 7f8f 133d 1835 073d de38 25bd 4055 92bb
00000160: 55bd 42bd 240d d2bd 4bae 86bd 4893 aabd
00000170: ad03 093d c6ae 94bc 8297 853c 5ca7 01be
00000180: 3d0b 47bc 2f32 943c 784c ea3c 9a61 dc3d
00000190: e75c e83c 9866 29bb 987d dd3d 611a 5fbc
000001a0: 06da 903d 824e 363c c359 423c 0663 1c3d
000001b0: 5d25 9bbd d3ea 993d bf14 583d 1dc5 76bd
000001c0: 5e91 d1bd 670c a03d b02c 193c 4e06 a5bd
000001d0: 2baf 31be 24a9 30bc e8f6 79bb 87ff c83d
000001e0: e292 503d 1fbb 68bd 600b 973d 44d3 d3bc
000001f0: 551f cb3c 1118 6cbd f2e6 7a3d 65e8 2a3d
00000200: f64f ecbb e0d6 023d 0e09 adbd 7f43 debd
00000210: 8dde b73d ddab 493d 1aae 023d 0652 8fbd
00000220: 8a6e dd3d 53ac 53bb 6d82 923c 60b4 02be
00000230: 4b53 5cbb 20f5 f73c f090 4fbd f62d 893c
00000240: e08e bbbd 8e01 52bd 4ee5 c5bd 17af cd3d
00000250: 099f 26bc 2fa1 cc3c 7651 5f3d fc38 d93d
00000260: c6e8 d63d 4dae c93d 0013 eebb 6f5b 423d
00000270: ef9e 233d 4a0b 5e3d 5753 c1bd d342 cbbd
00000280: 56cb 02be dbc6 a03d 3a10 e73d 00b4 a13d
00000290: 330f 4e3d aa0b 4ebc 3e34 82bd b6f1 f83d
000002a0: 7f5e 943d 5cc3 f43c dc1a 06be cf5b fb3d
000002b0: 13c6 48bd f146 09bd 743d d43d b2b8 85bd
000002c0: 1672 b43d 3df3 633d 5b0b 5bbd d3bc e7bd
000002d0: 3633 41bd e506 9cbd 7e7b 00be 91de 003e
000002e0: 01e9 7dbd 7bac cfbc 6b4b 7f3d ab91 f0bc
000002f0: b74f 3fbd 3f17 debd f84f 5dbd 683d ccbd
-0.10214001 -0.07961828 0.06259931 -0.025203075 -0.049931522 -0.054730244 0.051057577 0.092836395
-0.045721266 0.09702114 0.070992365 0.02361882 -0.06413215 0.12360686 0.05025771 -0.047371455
0.08552929 0.10732025 -0.052684452 -0.07079868 0.06121965 0.09265455 0.005883886 0.13151488
-0.004078693 0.039113954 0.119749606 0.0049274736 0.09626006 0.0677616 0.052192558 -0.0060550654
-0.008221643 0.053807635 -0.059359334 -0.05238241 0.039136264 -0.014822059 -0.047000133 -0.08430588
-0.015519228 0.13161372 -0.041044135 0.06425742 0.08593438 0.10022723 0.006653394 -0.044015616
0.13287959 0.035546657 -0.07399688 -0.069121756 -0.015916793 -0.002199312 -0.050951328 0.04733877
0.059883084 -0.08399042 -0.085311845 0.056828164 -0.08297279 0.06962578 0.05455806 -0.10932916
-0.04554533 0.044375747 -0.0064004036 -0.022208286 -0.13443406 -0.070829056 -0.15077256 0.05333068
-0.14217812 -0.02565074 0.020529566 -0.09800195 -0.034532785 -0.028566007 0.0010237587 -0.03472156
0.10932437 0.035487253 -0.0057305517 0.051320463 0.03602552 0.03300962 -0.040337436 -0.004465729
-0.047543842 -0.102564126 -0.065762125 -0.08328873 0.03345077 -0.018149745 0.016307596 -0.12661499
-0.0121486755 0.018090336 0.028600916 0.107608035 0.028364612 -0.0025848504 0.10814971 -0.013617129
0.07072835 0.011127116 0.011862221 0.038180374 -0.07575486 0.07515492 0.05275416 -0.060246576
-0.10232805 0.078148656 0.009349033 -0.08057843 -0.17351978 -0.010782514 -0.0038141552 0.09814363
0.05092133 -0.056819078 0.073752165 -0.025857575 0.024795214 -0.05764014 0.061255403 0.041725535
-0.0072116805 0.031943202 -0.08448993 -0.108527176 0.08977995 0.049236167 0.031904317 -0.069980666
0.10812099 -0.0032298758 0.017884457 -0.1276412 -0.0033618982 0.030268252 -0.050675333 0.016745549
-0.091581106 -0.051271014 -0.09662877 0.10043161 -0.010169753 0.024979202 0.054521047 0.10606572
0.10493617 0.09847698 -0.0072654486 0.04745048 0.039946493 0.054209985 -0.09439724 -0.09924855
-0.12772879 0.07850429 0.11282392 0.078956604 0.050307464 -0.012576023 -0.06357621 0.12155478
0.07244586 0.02987831 -0.13096184 0.122733705 -0.049017023 -0.03351492 0.10363284 -0.065293685
0.08810823 0.055651892 -0.053477626 -0.11315312 -0.04716798 -0.076185025 -0.12547109 0.12584902
-0.061989788 -0.0253508 0.062327784 -0.029366335 -0.04670688 -0.108442776 -0.054031342 -0.0997265

gkf.gat_rnn.gcn_nodes.bias f4 [64]
00000000: 4adb 473d 75dc aabd 706b 453d db21 93bd
00000010: 467c 81bd 8993 3dbd 7696 a13c f8d7 b03d
00000020: bd29 68bd fb99 983d 607e 293d 3456 123c
00000030: da82 36bd d9a6 88bd f942 94bd 16a3 95bd
00000040: b373 c03d a202 a9bd 9c9b 693d 3c70 a3bd
00000050: cca8 953d 3109 9bbd 3395 90bd 8661 753d
00000060: 4f56 943d 175c 1cbc a6b3 a53d 7d3c 823c
00000070: fcbe b23d 78e5 25bd 8ca0 50bc 1924 9d3d
00000080: 0cee e13c 86ea 7fbd 4a5a 943d d560 11bd
00000090: 0a39 563d 9b31 8a3d 0184 a73d 5b44 9bbd
000000a0: 1283 a33d eb0b 92bd 7de2 6cbc 3454 073d
000000b0: 5016 74bd 9cc3 16bc 1772 ae3d cd37 0fbd
000000c0: 9022 80bc 5590 8cbd 2e6f bd3c b833 833d
000000d0: 72e5 993d 1b16 dfbc bcac 76bd 85fe 7c3c
000000e0: 14cc 923d 802c 1e3d 4e74 4ebd 62e0 84bd
000000f0: 2d87 0cbd ac69 643d a7d1 8bbd 350f 9c3b
0.048793115 -0.0834283 0.048198164 -0.07184192 -0.063225314 -0.04628328 0.019725066 0.08634943
-0.05668043 0.074512444 0.041380286 0.008931685 -0.044558384 -0.06672449 -0.072393365 -0.07306497
0.09397068 -0.08252455 0.057033166 -0.079803914 0.07307586 -0.075701125 -0.070597075 0.05990746
0.072430246 -0.00954344 0.08090906 0.015897984 0.08727834 -0.04050204 -0.01273359 0.07672901
0.02757933 -0.06247952 0.07243784 -0.035492737 0.05230049 0.06747743 0.081794746 -0.07581397
0.07983984 -0.071311794 -0.014458296 0.033039287 -0.05959159 -0.00920191 0.08517855 -0.034965325
-0.01564148 -0.06863467 0.023124304 0.06406349 0.07514466 -0.02723222 -0.060223326 0.015441542
0.07167831 0.038616657 -0.050403886 -0.0648811 -0.0343086 0.05576484 -0.068270974 0.004762555
