models/with_mismatch/kalman_process_50n_local_params_r_half_linear_20deg.pth (torch, 270082 bytes, 28 tensors)

gkf.gat_rnn.fc_delta_y_innov.0.weight f4 [64, 3]
000000 5a 99 e0 3e 22 c5 05 3f c7 11 31 be 98 b7 0e 3f
       0.43866998 0.52253926 -0.17291938 0.5574889
000010 c1 46 36 be 34 9e 44 3e 8d a6 91 be 22 2f b8 3e
       -0.17800428 0.19200975 -0.2844738 0.3597346
000020 17 d5 06 3f 19 4a cf be 04 82 0d 3f f1 87 b7 3d
       0.526689 -0.4048622 0.55276513 0.08961476
000030 ea b6 e5 3e c5 18 8b 3d 10 18 97 3e 09 a6 7b bd
       0.44866115 0.06791834 0.29510546 -0.06143764
000040 c6 7c 00 3f b9 fc 15 3d ae 77 84 be bf 50 54 3e
       0.5019039 0.03661797 -0.25872558 0.20733927
000050 09 6a 82 be 3c 18 d7 bc 1f f8 8d be 9a 4e da 3e
       -0.25471523 -0.026256673 -0.27728364 0.42638093
000060 e6 f6 f5 be ea 77 73 be 2b 0f 0f be 72 b7 b6 be
       -0.4803993 -0.23776212 -0.1397063 -0.35686833
000070 5b 5c 7d 3d e3 10 15 bf 62 56 0a 3f 78 26 00 bf
       0.061855655 -0.5822889 0.5403806 -0.500587
000080 af d1 00 3f b5 2b e9 3d 18 4d 5c be 86 d0 cb 3e
       0.5031995 0.113852896 -0.21513784 0.39807528
000090 c4 99 bc 3d de 7a f9 3e ae 9c a5 3d 68 ca 4e be
       0.09209016 0.48726553 0.08086525 -0.201944
0000a0 41 3a 14 3e d7 43 26 be 5e 92 85 3e 54 f5 12 3f
       0.14475347 -0.16236816 0.26088232 0.5740559
0000b0 1f e2 a6 3e 0d 0b 83 be c2 76 9f 3e 94 d8 ee 3d
       0.32594392 -0.2559437 0.31145293 0.11662403
0000c0 e6 2d 9c 3e 20 45 be be 3e 24 10 bf 61 25 54 be
       0.30503768 -0.37162113 -0.563053 -0.20717384
0000d0 a0 65 e7 be 2d e2 06 3f cd e1 31 3e e2 d2 94 3e
       -0.4519472 0.52688867 0.17371292 0.2906714
0000e0 cb 64 44 3e 72 eb 22 3c 59 ea 00 3f 9f 10 eb be
       0.19179074 0.00994383 0.50357586 -0.45911118
0000f0 7b 00 b9 3c ca 89 e8 be a5 3e 39 3e a9 7a 45 be
       0.022583237 -0.45417625 0.18090303 -0.19285072
000100 fb 95 1d 3e 3a d4 05 be 81 a3 ff 3e bc 5f 9a be
       0.15389244 -0.1306924 0.4992943 -0.30151165
000110 88 e2 aa be 9a c2 b2 be 8d 1e 12 3f 70 b3 29 3e
       -0.33375955 -0.34914094 0.57077867 0.16572356
000120 05 8d 0a 3f f9 f3 f2 be f0 70 1a bf e1 5d ed be
       0.5412143 -0.4745176 -0.6032858 -0.46360686
000130 27 a0 ca be 59 d3 66 3e 61 ff 4b 3e 40 ba 08 3f
       -0.39575312 0.2254156 0.19921638 0.53409195
000140 be 17 a8 be 93 e1 cd be 65 73 a8 3e ed 46 75 be
       -0.32830614 -0.40211162 0.3290054 -0.23952837
000150 7f 12 c4 3e c9 c1 e7 bd 24 65 be 3e 0e 0d e3 be
       0.3829536 -0.113162585 0.3718654 -0.44345897
000160 36 ea 90 be e8 b2 6c 3e 07 56 07 3e ea dc 24 be
       -0.2830369 0.23115122 0.1321641 -0.16099897
000170 76 b7 bf 3e dc 54 cc 3e 87 49 c9 be 5f 54 a5 be
       0.37444657 0.39908493 -0.3931391 -0.32290933
000180 78 76 0b 3f f3 ff 16 be 35 4b 3e be 3c c1 10 bf
       0.54477644 -0.14746074 -0.18583377 -0.5654485
000190 e3 55 91 be bc 19 2b 3e 75 66 82 bd 60 06 e2 be
       -0.2838584 0.16709036 -0.063671984 -0.4414549
0001a0 0b 16 9b 3d 56 1d cf be 76 c7 ee be d5 9e a1 be
       0.07572564 -0.4045207 -0.46636552 -0.31566492
0001b0 3e 23 03 bf d5 22 cf be ee a0 1b 3f 4d 92 0f 3e
       -0.5122565 -0.40456262 0.60792434 0.14020653
0001c0 18 f4 47 3e de 3d 0c bf a4 d1 c7 be 2b 13 48 be
       0.19526708 -0.547819 -0.3902713 -0.19538562
0001d0 7b 61 c9 3d e3 f1 03 bf 97 d8 4f be 7d e1 b4 be
       0.09833046 -0.51540965 -0.20297466 -0.35328284
0001e0 56 09 13 3c 91 76 67 be d3 a0 a3 3b 37 5f c7 be
       0.008974394 -0.22603823 0.004993537 -0.3893983
0001f0 e0 95 af be 64 19 a5 be 58 05 26 be f3 01 f8 be
       -0.34294033 -0.32245934 -0.16212976 -0.48438987
000200 f4 98 0b 3f 48 18 e2 bd aa 79 07 3f 9b 24 35 3e
       0.5453026 -0.110397875 0.5292002 0.17689745
000210 79 9c 00 bf 77 66 d7 3e a8 3d 2b be aa 4d 85 be
       -0.5023876 0.42070362 -0.16722739 -0.26035815
000220 2d ff 02 bf 5a 60 05 bf e1 df 48 3e e3 0c e5 bd
       -0.5117062 -0.52100146 0.19616653 -0.111840986
000230 fc 33 78 3e 76 fa fe be 10 aa ef 3e 96 89 dd be
       0.2423858 -0.49800462 0.46809435 -0.43269032
000240 97 5d a2 bd 10 75 ed 3d 24 0e ad 3e 40 33 f5 3e
       -0.07928007 0.115945935 0.3379985 0.47890663
000250 a9 a0 17 3f 26 ce ed be ff cd 43 3e 4a 35 6c be
       0.5922952 -0.4644634 0.1912155 -0.23067203
000260 18 33 c3 bc b2 6f e1 be 5f ea 0f 3f e7 f1 e1 be
       -0.023828074 -0.4403053 0.56216997 -0.4412987
000270 87 b3 98 3e 46 67 87 3e 8b 6b 21 3e 7c 7f a2 be
       0.29824468 0.2644598 0.1576368 -0.31737888
000280 fc 2e 16 3f ac be ed 3d ba d7 e2 3d 97 d5 0e bf
       0.5866544 0.116086334 0.11076303 -0.5579466
000290 84 32 95 3e 07 a5 af bd 71 f5 83 be 9f a0 07 3f
       0.29140103 -0.08576398 -0.25773194 0.52979463
0002a0 22 da 17 3e 45 b3 a8 be 66 38 8a be 12 67 f2 bc
       0.14829305 -0.32949272 -0.26996154 -0.029590163
0002b0 17 3e bf 3e 6b 6f 47 be 67 9c ac be cf 68 55 be
       0.37352058 -0.19476096 -0.33713076 -0.20840763
0002c0 cc e7 d3 be 85 08 7a 3e 31 69 05 3f 20 26 14 bf
       -0.41387784 0.24417312 0.52113634 -0.57870674
0002d0 c2 90 14 3e 37 10 b8 3e 1e c7 98 3d 53 cb 5d be
       0.14508346 0.3594987 0.074598536 -0.21659593
0002e0 2a cb aa 3e ad 2c 9a 3e 4e 6d 6f 3e 2f fd dd bd
       0.33358127 0.3011221 0.2338154 -0.108393066
0002f0 c5 d8 f8 bd 9b cb 45 3d 01 7b e5 bd 9c af 49 be
       -0.121507205 0.048289876 -0.11205102 -0.19695896

gkf.gat_rnn.fc_delta_y_innov.0.bias f4 [64]
000000 3a 74 c4 3e b7 be 03 3f 4c 2d fd bc 14 c4 aa bd
       0.38369924 0.5146288 -0.030905388 -0.0833818
000010 f0 71 3e 3c ee 9e 4f 3c 5b 7c 49 3e 29 96 47 3e
       0.0116238445 0.012672169 0.19676344 0.19490875
000020 f2 00 fc be 38 7e 57 be 61 65 08 3f bc 4a 80 3e
       -0.4921947 -0.21044242 0.5327969 0.25057018
000030 e5 59 f8 39 e6 01 b8 be 18 45 98 be 3c cb 07 bf
       0.00047369223 -0.35938948 -0.29740214 -0.53044486
000040 39 e5 41 be 67 41 7c 3e c1 d5 d8 3e 7f ea a2 3e
       -0.18935098 0.24634324 0.4235058 0.3181953
000050 1d b9 10 bf 99 d7 bd be c8 22 60 bd ea 55 17 3f
       -0.5653246 -0.3707855 -0.05472067 0.5911547
000060 c3 29 53 3d 7b e4 34 be c6 0b 8f 3e 86 ab 4b be
       0.0515535 -0.17665283 0.2793867 -0.1988965
000070 b9 b8 a4 be 0c 8d ef 3e ca 7a 73 be 1c be db bd
       -0.32172182 0.46787298 -0.23777309 -0.1072962
000080 42 09 08 bf 4e bf dc 3e 27 96 ef 3e f9 7e 67 3e
       -0.53139126 0.43114704 0.46794245 0.2260703
000090 4d e4 c6 be 68 58 0d bf 65 44 ed be ba a7 ea 3e
       -0.38846055 -0.5521302 -0.46341243 0.4583109
0000a0 90 8f 99 3e a4 71 09 3f 43 94 b5 3e 37 88 2d 3e
       0.29992342 0.53689027 0.35464677 0.16946493
0000b0 cd 39 48 3c 03 d5 d1 be 68 91 ef be 6e ad 00 bf
       0.012220812 -0.40982828 -0.46790624 -0.5026463
0000c0 72 79 82 3e 78 b3 64 be b5 e2 87 bd db 8e 9b be
       0.2548328 -0.22334087 -0.06635038 -0.30382428
0000d0 0c 3e 86 bd 98 c2 b1 be 16 9c a8 be ce b1 62 3e
       -0.06554803 -0.34718776 -0.32931584 0.2213814
0000e0 26 b5 22 be 25 9c c8 3e 0b b7 42 be aa ad b3 be
       -0.15889415 0.3918163 -0.19015138 -0.35093433
0000f0 d9 6d 79 bd 3b 5f 7f be 67 5a 21 be d7 c8 12 bf
       -0.060895775 -0.24938671 -0.15757142 -0.5733771

gkf.gat_rnn.fc_delta_y_innov.2.weight f4 [64, 64]
000000 aa 35 cb 3d 4f d9 a1 bd ee 07 b7 3d 7b d9 b3 3d
       0.09922345 -0.079027764 0.08937059 0.087817155
000010 64 d6 ba 3d b3 42 54 bd bb d5 fb 3d 7c 85 a3 bd
       0.09122923 -0.05182142 0.12296625 -0.079844445
000020 fc 7a 1c 3d 12 97 06 3e 24 16 b8 bc 5e 3e 14 bc
       0.038203225 0.13143566 -0.022471495 -0.009048073
000030 8e 95 21 3c 15 f6 bf bd b0 a9 a5 3d 59 2f e8 bd
       0.009862317 -0.09373108 0.08089006 -0.11337156
000040 63 ef 80 3d 83 ef 92 3d 81 74 15 3e f7 b5 7a 3c
       0.062956594 0.071745895 0.14595224 0.015302173
000050 c4 bb 14 be a6 6f 26 3d c8 bd 82 3d 37 ba b5 bd
       -0.14524752 0.04063382 0.06383854 -0.08873408
000060 6d b8 fa bc 10 74 a8 bd 16 01 e2 3c dd 16 16 bd
       -0.03060552 -0.08225262 0.027588408 -0.036642898
000070 07 4f 87 bd 3a 6c a2 bc 4b ae 0f be 83 4a ba 3d
       -0.0660687 -0.019826997 -0.14031331 0.09096243
000080 c1 e9 bf 3d 87 c3 ab ba ed af 00 bd 6c 88 48 bd
       0.09370757 -0.0013104536 -0.031417776 -0.048958227
000090 b6 34 05 be 6a 38 f8 bd b7 d9 08 3d c5 5d 28 bd
       -0.13008389 -0.12120135 0.033410754 -0.04110505
0000a0 c2 94 aa bd 35 04 7d 3c d9 7a 77 bd af 06 34 b9
       -0.083291546 0.015442898 -0.06041989 -0.00017168628
0000b0 36 ae 0a 3d 50 92 97 bd 86 9b 90 bd ae 73 39 bd
       0.033857547 -0.07400954 -0.07060914 -0.045276336
0000c0 cd 37 94 bd fb c7 0a 3e 98 7c 96 bd d5 35 83 3d
       -0.07237206 0.13552849 -0.07347983 0.06406752
0000d0 c1 27 05 bd 96 33 25 3d 98 2a a4 3d 3f ca 1d 3d
       -0.032508615 0.0403324 0.080159366 0.038522955
0000e0 b9 3f 1c be b4 87 be 3d 03 86 fc 3d e2 2d 95 3d
       -0.15258683 0.09303227 0.12330248 0.07284142
0000f0 2a ff ea 3d 14 03 14 3e e7 05 f8 bc 94 e6 fd bb
       0.1147445 0.14454299 -0.030276252 -0.0077484343
000100 a5 99 fb bc b0 c2 b5 3c 6e 7a f1 3d 82 fe ca 3d
       -0.030712912 0.02218756 0.1179093 0.09911825
000110 89 8c 31 bd c9 09 47 bd 1d 2e 3d bd ee a8 0a be
       -0.043346915 -0.048593316 -0.046186555 -0.13541004
000120 78 60 db bd b6 40 2f bc c0 7d bc 3d ed 5b 81 3c
       -0.10711759 -0.010696581 0.092036724 0.015790904
000130 05 ef 24 bd ff 81 ae bd 85 e8 ef 3d 5b e2 a1 bd
       -0.04026701 -0.085208885 0.117142715 -0.07904502
000140 6d c3 eb bc 95 55 3e 3d 7f 6a f8 ba 7c 89 17 3d
       -0.02877971 0.046468336 -0.0018952637 0.03699635
000150 02 6c 85 bd c6 22 75 bc 2f 97 60 bd 3f 82 81 bd
       -0.065147415 -0.014961904 -0.05483168 -0.063236706
000160 6a 5d ae bd 42 51 9f bd 76 49 34 3e 1e d8 0b bd
       -0.08513911 -0.077791706 0.17606148 -0.034141652
000170 56 1a d7 bd 92 75 15 3d 6e d0 86 3b c8 f0 67 3d
       -0.1050307 0.036489077 0.004114202 0.05662611
000180 a3 ad ac 3d be b8 97 3d 11 99 02 be ed 3b 26 3c
       0.08431556 0.07408284 -0.12753703 0.010146123
000190 29 ff 79 3d be ca 0d bc ae 1c b3 bd 9d 57 10 3e
       0.061034355 -0.008654295 -0.087457046 0.14095922
0001a0 b0 e2 11 bd 3a 1e 61 bd 9e c3 fc bd 4d e8 6d 3d
       -0.035616577 -0.054960467 -0.123419985 0.058082867
0001b0 6b de b4 3d de 43 85 bd cd 17 1a bc 2a 14 94 bd
       0.08831485 -0.06507085 -0.009405089 -0.072304085
0001c0 9d 88 93 bd 54 dd 62 3d c2 8f ab 3d d7 ac d2 3d
       -0.07203791 0.055386856 0.08377029 0.10286873
0001d0 53 03 ce bc 50 36 7d 3c 49 b2 06 be 92 b3 91 bd
       -0.02514807 0.015454844 -0.13153948 -0.071143284
0001e0 cb d8 a2 bc 15 25 fa 3d 66 de df 3d 65 41 81 bd
       -0.019878766 0.12214104 0.10931091 -0.06311301
0001f0 4c bc 10 3e 56 c0 94 bd ab bf 19 3d 2c e0 58 3d
       0.1413433 -0.07263248 0.037536304 0.052948162
000200 14 be c1 3a 59 1b 04 3e 47 2e a6 bd 8a d4 5e bd
       0.0014781379 0.12901057 -0.081142955 -0.05440191
000210 3c ae b5 3d f9 29 4e bd 3f 06 5c bd 69 0e dd ba
       0.08871123 -0.050332997 -0.053716894 -0.0016865256
000220 e9 d3 76 3d 96 97 6d 3c ce c2 85 3d 9a 8b 05 bd
       0.060260687 0.014501473 0.06531297 -0.032603838
000230 3e 18 e0 bd bf b4 1b bd 8c d1 22 3d 16 b3 bc bd
       -0.10942124 -0.03801417 0.03975062 -0.092138454
000240 e1 0f 04 bd 84 0c 04 3e 50 b2 a1 3c f0 09 3d bc
       -0.032241706 0.128954 0.019738346 -0.011538014
000250 e1 b3 b2 bc 2d 12 25 be cd 8c d5 bd ec a5 96 bd
       -0.021814289 -0.16120215 -0.10427246 -0.07355866
000260 72 ee 58 bd f2 72 7a 3d c7 bb 38 bd 6b c4 94 bd
       -0.052961774 0.061144777 -0.045100953 -0.07264026
000270 0b ba 12 3e b2 20 93 3d a5 46 e9 3d 09 9c 3d bd
       0.14328782 0.071839705 0.113904275 -0.046291385
000280 31 e4 24 bd 2e 2f 91 3d 6b 0c 02 bd 54 ec 8b bd
       -0.040256683 0.07089077 -0.031750124 -0.068321854
000290 91 e5 8d 3c 81 81 63 bd 1f 58 d9 bd a4 63 c5 3d
       0.01732138 -0.055543426 -0.10612511 0.096381456
0002a0 ac c4 10 3e 65 47 33 3d 51 10 e7 3c 2f f6 02 be
       0.14137524 0.04376926 0.028206022 -0.12789224
0002b0 6b c9 49 bd a1 bd 0c bb 30 bb 81 3d 4e c9 6f bd
       -0.049264353 -0.0021475332 0.06334531 -0.05854159
0002c0 5b 1d 8c bc e6 17 84 3d 8e 82 a3 bd 82 01 23 3d
       -0.017103842 0.06449871 -0.07983886 0.03979636
0002d0 f0 69 22 bd 4a ac 4b bc 01 ab de ba 3d 4c 83 3d
       -0.03965181 -0.012431214 -0.0016988219 0.06411026
0002e0 1c 2e 6b bd c6 32 9f 3d 0a 18 28 bd cc ce ba 3d
       -0.05741702 0.07773356 -0.04103855 0.091214746
0002f0 19 19 f2 3d 67 2a 17 bd da fa a1 bd 96 39 a4 3d
       0.11821193 -0.036905672 -0.07909174 0.08018796
000300 46 5b ea 3d f4 72 d6 bd dd 85 d4 3c 98 95 a8 bd
       0.1144319 -0.10471144 0.025942737 -0.08231658
000310 26 ce f6 bd a1 98 9c 3d 75 18 9f 3d 2c 6c e0 bc
       -0.120510384 0.07646299 0.07768337 -0.02739533
000320 a1 c7 9d bd 8b ca fc 3d fd 63 a0 bb 01 75 ca bd
       -0.07704092 0.123433195 -0.004894732 -0.09885598
000330 e0 75 f4 3c 5e bc 73 3c 90 47 30 3d 68 3e bf bd
       0.029841363 0.014876453 0.043036997 -0.09338075
000340 cd 6f 78 3c 04 e2 d0 bd f5 ed 97 bd a1 e4 99 bc
       0.015163374 -0.10199359 -0.074184336 -0.018785777
000350 82 37 94 3d ce f0 c5 3d f1 39 b6 3d fc 13 f9 3d
       0.0723715 0.096650705 0.0889777 0.12162015
000360 4e 91 96 3d a9 01 49 bd 4b fe 0f bd 4d db b7 3d
       0.073519334 -0.04907385 -0.035154622 0.08977375
000370 dd 38 c0 bd e4 e2 83 bd 10 27 99 bd 25 2f 52 ba
       -0.09385846 -0.0643976 -0.07478154 -0.00080178893
000380 58 fd 17 3d 66 54 08 bd 76 5b 96 bd d1 8e be 3b
       0.03710684 -0.033283614 -0.073416635 0.005815365
000390 01 12 f6 bd 0a 1e ee bd f2 3a 8a 3c 52 87 06 3c
       -0.12015153 -0.11626823 0.01687381 0.008210974
0003a0 25 cd fb 3d 27 22 16 3e 98 56 a4 3b de 85 be 3d
       0.122949876 0.14661466 0.0050152056 0.09302877
0003b0 ba 7c 8a 3d 1e 69 99 bd 15 f2 52 bd 84 8c 8c 3c
       0.06762071 -0.07490753 -0.0515004 0.017156847
0003c0 1f 5b b8 3d 6d 7d ef 3d 25 46 91 bd 74 b1 80 bc
       0.09001755 0.11693845 -0.07093457 -0.015709616
0003d0 fa d7 25 bd 11 e3 c7 bc 36 5a c6 bc 0e 5f 77 3d
       -0.040489174 -0.024400266 -0.024212938 0.060393386
0003e0 42 c1 32 3d 16 d8 da 3d b3 ac eb bd 4f 16 75 bd
       0.043641336 0.10685746 -0.11507549 -0.05983573
0003f0 87 d6 40 bc 64 95 4e ba 9c 28 8f bc 95 66 22 be
       -0.011769897 -0.00078805373 -0.017475419 -0.15859444

gkf.gat_rnn.fc_delta_y_innov.2.bias f4 [64]
000000 ca 15 04 3d 0d 8c e7 3d a8 25 0c 3d 45 a4 47 bd
       0.032247342 0.113060094 0.0342156 -0.048740644
000010 77 a5 b0 3d ce 97 e0 3d 2a 2c 97 bc b2 98 26 bd
       0.0862531 0.109664544 -0.018453676 -0.040672965
000020 ad 16 a2 bd 9b 31 be bc 0f 23 b6 bc 88 c4 c0 3c
       -0.07914481 -0.023217013 -0.022233514 0.023531213
000030 f0 82 9d 3c 5b 79 34 bd 93 f9 d0 3d 53 23 fe 3c
       0.019227475 -0.044061046 0.102038525 0.031022703
000040 de 40 60 bd 83 f2 9c bc 27 27 87 bd fc 6b c4 bc
       -0.054749362 -0.019158607 -0.065992646 -0.023977272
000050 5c 47 b7 bd f9 e8 27 3d df 96 84 bd c9 e1 88 3d
       -0.089491576 0.040993664 -0.06474089 0.0668369
000060 2e b6 ee 3d b9 00 e6 bd 16 3a 82 bd fe ee f0 bd
       0.11655842 -0.112306066 -0.06358735 -0.11764334
000070 8d a4 f9 3c 9f f5 bb 3c b8 d3 43 bd 79 0c 07 3e
       0.030473972 0.02294427 -0.047809333 0.13188352
000080 f0 73 a7 3d e4 02 d2 bd d7 57 0e 3d 4a d3 a3 bc
       0.0817641 -0.102544576 0.03475174 -0.019998211
000090 fc 72 bf 3a 1a 22 69 3d 7f 81 0b bc db f7 bd bd
       0.0014606412 0.056917287 -0.008514761 -0.0927579
0000a0 c5 c8 d0 3d 74 8d a0 bd 46 f9 16 bc 2e fe 99 3d
       0.10194544 -0.0783948 -0.009214705 0.07519184
0000b0 79 6b 0c 3e 45 cb 0e 3e 4c 30 15 3c 7d 70 86 3d
       0.13712873 0.13944729 0.009105753 0.06564424
0000c0 26 19 d7 bd 23 2e 37 3c 9a 7c a4 3b 07 29 87 3d
       -0.105028436 0.011180433 0.0050197365 0.06599622
0000d0 01 bf 60 bd 78 85 5e 3d 37 3a 61 3d 5a 13 01 3e
       -0.054869656 0.054326504 0.05498716 0.12605038
0000e0 fa 99 fd 3b 2c 01 0d 3e 50 66 c2 bd 04 a9 1e bd
       0.0077393027 0.13769978 -0.09492171 -0.038735405
0000f0 8c e6 44 3d d8 99 b3 3d 69 64 a1 3d 46 a7 84 bd
       0.04807143 0.08769578 0.0788048 -0.064772174

gkf.gat_rnn.fc_r.0.weight f4 [64, 1]
000000 95 73 2a 3f 24 9a 77 bf c8 e7 3b bf 6b 1f 7f bd
       0.66582614 -0.96719575 -0.73400545 -0.062285822
000010 88 cf 7c bf 11 8b 7d bf 45 9a 69 bf bf 30 50 3f
       -0.9875417 -0.99040323 -0.9125102 0.8132438
000020 3a fa 61 3e ba a6 9a be 0e 7c 82 bd fb 83 66 bf
       0.2206811 -0.30205327 -0.06371318 -0.90045136
000030 49 58 75 bf eb 01 3e bf 68 7f 81 bf 5a f4 2f 3f
       -0.9583784 -0.74221677 -1.0117006 0.68732226
000040 b6 6c c5 be 4f 01 8b be f1 6c 65 bf 5c 24 50 3e
       -0.38559502 -0.27149436 -0.89619356 0.2032637
000050 e9 0c 1a be b5 54 36 bf 27 f6 2f 3f 28 54 63 3f
       -0.15043987 -0.71223 0.68734974 0.8880029
000060 43 9e 3f bf a0 c7 1e 3f ed 4b 2a be 8a 3a 78 bc
       -0.74850863 0.62023354 -0.16630526 -0.015150676
000070 2e 1a e2 3e 1c 8f 1b be 9c 84 64 3f c7 43 26 3f
       0.441606 -0.1519131 0.89264846 0.6494717
000080 6a 3f 2d bf e1 01 28 bf 18 d3 81 bf c5 33 a5 3e
       -0.6767489 -0.65627867 -1.0142546 0.3226606
000090 21 08 44 bf 42 ba 5c bf 50 7e 26 bf 97 76 88 bf
       -0.76574904 -0.86221707 -0.6503649 -1.0661191
0000a0 e6 a0 55 bf 6d 2e 6c 3f be e6 0c 3f d6 85 6b 3f
       -0.83448637 0.9225834 0.55039585 0.9200109
0000b0 64 4e fd be 06 15 d1 be 7a 32 aa be ed 33 0a 3d
       -0.4947387 -0.40836352 -0.33241636 0.033740927
0000c0 e2 34 35 bf f7 6f 2d 3e 4a 5e 28 bf ce 3a 2c 3e
       -0.7078382 0.16937242 -0.65768874 0.16819307
0000d0 de ae 76 3f 7c 00 64 3e 2a 4d 46 3f a8 af 3a bf
       0.96360576 0.2226581 0.77461493 -0.7292428
0000e0 47 fa 07 be 20 ee 21 bf dc b1 ee bd 3f c5 cf be
       -0.13279067 -0.63253975 -0.11655018 -0.40580174
0000f0 cb e1 1d bf 5c 94 84 bf bd c6 ca be 57 af 25 3e
       -0.6167266 -1.0357776 -0.3960475 0.16180168

gkf.gat_rnn.fc_r.0.bias f4 [64]
000000 19 a9 00 be 32 67 64 bf 33 66 47 3f c8 9d 43 3f
       -0.12564506 -0.89219964 0.7789032 0.7641263
000010 68 11 17 bf ba 16 19 3e 89 cb 33 3f af e3 71 bf
       -0.59010935 0.14950076 0.70232445 -0.9448804
000020 2a 88 64 bf d2 81 18 3f b2 dc 63 3c 3d 2b ac 3e
       -0.8927027 0.5957309 0.013907598 0.33626738
000030 5e 50 c5 be ee f9 62 3e f7 d4 30 3f 97 9a 5e be
       -0.38537878 0.22165653 0.6907496 -0.21738659
000040 0e 28 89 be ac 16 73 bf e9 15 c4 bd 48 1e 24 3f
       -0.26788372 -0.9495647 -0.095744915 0.64108706
000050 c0 3f 71 bf 36 80 14 bc 7c 3c 42 3f 41 13 7a be
       -0.942379 -0.009063771 0.7587354 -0.24421407
000060 2f 1e 9a be 1a ce 8e be d5 1c cb be a4 71 f5 3d
       -0.30101153 -0.27891618 -0.39670435 0.11984566
000070 ef 33 72 bf 05 25 ca 3e 47 21 51 be f0 d2 07 be
       -0.94610494 0.3948137 -0.2042285 -0.1326406
000080 76 4f 7f bc a4 61 14 3f 5a d6 16 bf 03 f9 67 bf
       -0.01558291 0.5796149 -0.58920825 -0.90614337
000090 4a cb 34 bf e8 a0 33 bf db b0 ee be 51 55 51 3f
       -0.70622694 -0.701674 -0.46619305 0.8177081
0000a0 9c b0 3b bf b4 c9 17 bf 78 e1 54 bf 88 92 f5 be
       -0.7331636 -0.5929215 -0.8315654 -0.47963357
0000b0 a5 3f 19 3a 06 74 1d bf b8 0b a6 bc f0 da c8 3e
       0.00058459706 -0.6150516 -0.02026926 0.39229536
0000c0 d8 28 3e be bd f3 ec 3e 62 7a 74 3e d6 1e 81 3f
       -0.18570268 0.46279708 0.2387481 1.0087535
0000d0 25 d0 22 3c 4e 40 63 3f 26 9f 47 3f 34 50 f8 3e
       0.009937321 0.88769996 0.77977216 0.4849869
0000e0 f7 e5 19 3f 8a 38 26 bf d2 f0 29 bf d8 e5 e7 3e
       0.60116524 -0.6493002 -0.6638309 0.45292544
0000f0 67 67 ca 3e b2 83 6f 3f 1a f4 af bd 7e d3 20 be
       0.39532015 0.93560326 -0.085914806 -0.15705678

gkf.gat_rnn.fc_r.2.weight f4 [64, 64]
000000 27 e0 f8 3d d5 7a cc ba 6b ce d2 3d d7 f6 31 bd
       0.12152129 -0.0015600572 0.10293277 -0.043448295
000010 57 86 44 bd 7a d0 73 bc d1 23 47 3d 03 78 bd bd
       -0.04797968 -0.014881248 0.04861814 -0.09251406
000020 38 48 53 bd 30 42 b1 3d d3 bd 39 3b ba b9 89 3d
       -0.051582545 0.086552024 0.0028341904 0.06724878
000030 92 41 54 bd a3 9a cd bd 9a ad d5 bd 69 04 15 bd
       -0.051820345 -0.1003926 -0.104335025 -0.03638116
000040 08 0e cd bd d5 8a 62 3d 94 a7 93 3c e9 93 3b bd
       -0.10012442 0.05530818 0.018024243 -0.045795355
000050 ab fd d9 3d b5 da 92 3c 85 c3 b9 3d e0 ea 94 bc
       0.106440865 0.017926553 0.090704955 -0.018178403
000060 5f dc 9e 3d e8 0b 6a bd 8b a6 ae 3d 3a 85 45 bd
       0.07756876 -0.05714026 0.08527859 -0.048222758
000070 48 60 69 3d 0a 92 39 bd 98 03 ef 3d b6 74 8c bd
       0.056976587 -0.04530529 0.11670607 -0.06858198
000080 10 66 2a bd a0 54 4e bd 6a cc a7 bd 7c ac 7e bd
       -0.04160124 -0.050373673 -0.08193286 -0.062176213
000090 36 db 26 bd f2 09 e6 3b 3e 41 a9 3d 9c fd 1d bd
       -0.0407364 0.0070202285 0.08264397 -0.03857194
0000a0 c9 5d ef 3d 60 33 02 bd 4e 5f 55 bd 8d ed bc 3c
       0.1168781 -0.031787276 -0.052092843 0.023062492
0000b0 40 b7 24 bd c4 f0 0c 3d a7 a2 ca 3d 2d 4e 90 3d
       -0.040213823 0.0344093 0.09894305 0.07046161
0000c0 e0 fa ee bd b5 e2 d2 bb ee b8 3c bd 7e ea aa bd
       -0.11668944 -0.006435717 -0.0460748 -0.08345507
0000d0 da d7 a0 3d 82 6e 10 3e bb cc da 3d bc 6b af bc
       0.078536704 0.14104655 0.106835805 -0.021413676
0000e0 82 c0 19 3b 38 3d 83 bd 8a a0 b4 bc df 07 c4 3d
       0.002346069 -0.06408161 -0.022049207 0.09571814
0000f0 05 97 ab bd d0 b7 67 3b 34 f4 d6 bd ea 30 a2 bc
       -0.08378414 0.0035357364 -0.10495797 -0.019798715
000100 c3 e6 b3 3c fd ae c5 bd b9 3a 72 3d cf 41 92 bd
       0.021960622 -0.09652517 0.059138034 -0.07141458
000110 7c 05 46 bd 8f c4 d5 3d 5e 7f 10 3e 23 d7 90 3b
       -0.048345074 0.10437881 0.14111087 0.0044201775
000120 44 a3 b2 bd 2b 8b 9d bd cc c4 8d bc 64 5e 30 bd
       -0.08722547 -0.0769256 -0.017305754 -0.043058768
000130 0e 21 d8 3d 7b aa 8d bd 84 71 ca 3d 71 be 1f 3d
       0.1055318 -0.06917282 0.09884933 0.03899998
000140 91 dc 1a bd ca 0f d6 3d 01 45 a7 3d 92 b9 c5 3c
       -0.037808005 0.1045223 0.08167458 0.024136338
000150 64 74 b7 bd a3 2d bb bc eb 6d 65 3d 97 c9 fc 3d
       -0.089577466 -0.02284891 0.05601303 0.12343138
000160 45 68 16 bd 82 8c 13 bd eb a2 02 be 7a c4 e5 3d
       -0.036720533 -0.03602267 -0.12757461 0.112191156
000170 1a d9 fd 3d 70 ed e6 3d be 97 60 bd 0f 9d d5 3d
       0.123949245 0.11275756 -0.054832213 0.10430347
000180 13 dd c5 bc 55 77 b8 3d c6 f4 9b 3d d9 59 d6 bd
       -0.024153268 0.09007136 0.07615046 -0.10466356
000190 20 1c f0 3c 2d 8b 4a 3d 61 b5 98 bd 70 1c 0f 3e
       0.029310286 0.049449135 -0.0745647 0.13975692
0001a0 08 9f c4 3d e3 bd f6 3d 89 7b 20 3c f9 8f 50 bd
       0.09600645 0.12047937 0.009795078 -0.050918553
0001b0 e9 eb 5c bd 8c d3 1e 3d c9 58 33 bc 3b ee 0c 3e
       -0.05393592 0.038775966 -0.010946461 0.13762753
0001c0 be 13 e9 3d 48 fe 13 3d 23 58 a7 bd 2c f1 a6 3d
       0.11380719 0.036131173 -0.081711076 0.08151469
0001d0 26 80 00 3e c6 f9 49 ba 3c bd 4e bd ab 6d c0 bb
       0.12548885 -0.00077047606 -0.050473437 -0.0058724484
0001e0 6c 69 4d 3d 6a c5 c3 bd 05 08 82 3d 02 9e a0 3d
       0.050149366 -0.09559138 0.06349186 0.078426376
0001f0 1c 83 c6 bc fa c9 b0 bc c3 36 4c bd 1a 39 e8 3d
       -0.02423244 -0.021580685 -0.049856912 0.11339016
000200 c3 1d a7 3d be 39 e8 3c e9 7f e8 bc 20 cc d5 3c
       0.081599735 0.028347846 -0.028381305 0.026098311
000210 00 a1 e0 3d 9f 42 71 3c c9 81 b0 bd 9f 29 4e 3d
       0.10968208 0.014725356 -0.086185046 0.05033266
000220 69 10 5b bd b2 d9 bf bc 16 63 d5 bd d9 9c ee bc
       -0.053482447 -0.023419235 -0.1041929 -0.029127525
000230 dd b4 01 bc 6d 5c d0 bd 66 dd 64 3d 46 2d fa 3d
       -0.007916656 -0.10173879 0.055875205 0.122156665
000240 c9 8b e8 bd 89 f0 01 3d 32 79 db bd 07 4b 84 bc
       -0.11354787 0.031723533 -0.107164755 -0.016149057
000250 d1 3d 65 3d f6 c7 ca bc cd 44 51 3d 21 66 09 bd
       0.055967156 -0.024753552 0.051091004 -0.033544663
000260 4c 09 d8 3d 3c bd 58 bd 17 e2 99 3c 61 56 f5 3b
       0.10548648 -0.052914843 0.018784566 0.007487104
000270 24 21 b1 3d 25 c5 a1 bb 8c 54 a9 3d 56 06 23 3d
       0.08648899 -0.0049368315 0.08268079 0.039800964
000280 a0 1c 6b 3d 90 a1 b4 bc a1 4c f9 3c a2 44 fd 3d
       0.057400346 -0.022049695 0.030432047 0.12366606
000290 63 91 45 bd 17 87 72 bd 7d 65 a7 3d de e3 c1 3c
       -0.048234355 -0.059210863 0.08173654 0.023668226
0002a0 3e 82 00 be 5b 06 49 3d f4 6c f8 bd b0 54 80 bd
       -0.12549683 0.049078327 -0.12130156 -0.06266153
0002b0 00 0a d7 3c a8 26 77 3d e8 4e 4d bd 56 65 dc 3d
       0.026249886 0.0603396 -0.05012408 0.10761516
0002c0 41 cc da 3d 9b d3 db 3d 84 c1 0f be c6 ba 23 bd
       0.106834896 0.1073372 -0.14038664 -0.039973043
0002d0 99 cd 89 3c e9 5c de 3d a5 e4 fb bb 5f a1 ee 3a
       0.01682167 0.10857565 -0.0076871687 0.0018206051
0002e0 b2 86 5c 3d a8 f8 93 bd 4b 47 a3 bd e8 aa cf 3d
       0.053839393 -0.07225162 -0.079725824 0.1014002
0002f0 67 4d e2 bc 93 0f 85 3d 5d aa 0f be 7f e8 3d bd
       -0.027624799 0.06497111 -0.14029832 -0.046364304
000300 7b 8f ba 3d bf 94 5c bc b7 5e 19 3d d4 69 f0 bd
       0.09109398 -0.013463198 0.037443843 -0.11738935
000310 b7 35 f8 3d 1d f1 7e bd 46 d8 0e bc bf d0 98 bd
       0.1211962 -0.062241662 -0.008718556 -0.0746169
000320 1b e3 45 bd 42 65 ec bd 4e 70 da bd 4b 78 d5 bc
       -0.048312288 -0.11542751 -0.10665952 -0.026058337
000330 f9 7c 61 bd 59 9a bc 3d 41 c5 31 bb 8d 59 cf 3d
       -0.055050824 0.09209127 -0.002712563 0.10124502
000340 e2 73 af bc ae 27 08 3d 13 bb f6 3d 69 2c d5 bd
       -0.021417562 0.033240966 0.120474 -0.10408861
000350 3d d6 46 bd 55 06 dc 3d 8a 66 03 bd aa b5 f3 bc
       -0.048544157 0.10743395 -0.03208021 -0.02974971
000360 4c de 26 3c cd 6b 7e bd 72 45 2d 3c 5e c7 83 bd
       0.010184836 -0.062114526 0.010575639 -0.06434511
000370 c1 e5 40 3d 25 3f 13 bd d8 2d 1d bd 05 b1 33 bd
       0.04709411 -0.03594889 -0.038373798 -0.04386999
000380 22 bf 06 3d 26 6f 72 3d 97 c1 ea bd 4f 49 a4 bd
       0.032897122 0.05918803 -0.114627056 -0.08021795
000390 9d 6f f8 bd 26 c8 6a 3d 9d 74 be 3d 57 99 fb bd
       -0.121306635 0.057319783 0.09299586 -0.12285107
0003a0 8a ba ff 3c d9 bb ff 3c fd 34 74 bd 99 3c 04 3d
       0.031216878 0.031217502 -0.059620846 0.032284353
0003b0 64 1b c6 3d 6f bc f6 3d 21 06 5d 3d 9e 68 12 bd
       0.09673193 0.120476596 0.053960923 -0.035744302
0003c0 ea 7e 91 bd d0 55 5d bd f1 38 09 3a b6 56 96 bc
       -0.07104285 -0.054036915 0.000523462 -0.018351894
0003d0 25 5b bf 3d 41 fe f8 bd 54 cb 04 3c ef f1 2a bd
       0.09343556 -0.1215787 0.008105118 -0.041734632
0003e0 f4 61 c9 ba 8b e2 f2 3d ed 17 1c 3c 18 c3 d7 bc
       -0.0015364275 0.11859616 0.009527189 -0.026338145
0003f0 ed 3e 35 bd 75 6f 03 be 89 cf e6 bd c0 2a 7d 3d
       -0.044249464 -0.12835486 -0.11270053 0.061808348

gkf.gat_rnn.fc_r.2.bias f4 [64]
000000 0b 52 78 3d 2f 97 08 3e 30 87 c0 3c 13 07 0e 3d
       0.060625117 0.13338922 0.023501962 0.034674715
000010 ca 33 b7 bd 39 1f 8c bd 8f 15 58 bd fe e6 70 bd
       -0.08945425 -0.06841893 -0.052754935 -0.05881404
000020 c4 53 22 bd 5b 20 47 bd 66 ef 1b 3c 16 d8 7d bd
       -0.039630666 -0.04861484 0.009517526 -0.061973654
000030 79 e6 83 3d b5 e3 c8 3c 7a 8c d3 3c de 9c 4e 3d
       0.064404435 0.024522642 0.02582382 0.05044257
000040 08 5f b8 bd 0b fb 78 bd ca 01 86 3c 9b 8f c1 bd
       -0.09002501 -0.06078629 0.016358275 -0.09451219
000050 2e 4d c3 3d 6e 8d 58 bd f6 47 fa 3d 9e d6 12 3e
       0.09536205 -0.052869253 0.12220757 0.14339682
000060 28 d9 f3 bb 33 4f 25 bd 08 a0 e4 3d 43 74 89 bd
       -0.0074416585 -0.040358733 0.11163336 -0.06711628
000070 6a 85 c7 3c 6a 2a a7 3d 89 84 01 3e 26 65 f0 3c
       0.024355609 0.08162387 0.12648214 0.029345106
000080 9f cd a2 3c 33 48 3c bc fa 55 95 bd 3f 5c 3f 3d
       0.019873438 -0.011491823 -0.07291789 0.046718832
000090 03 eb 8c bd c2 39 12 3d d3 db 04 bd 9d 38 ef 3d
       -0.068807624 0.035699613 -0.032436203 0.1168072
0000a0 67 58 32 bd 8f 55 01 3e 2f a3 2f bc 3b 4c e5 bc
       -0.04354134 0.12630294 -0.010720058 -0.027990451
0000b0 e0 5c c3 bd 9f 87 11 3e cb 8b cb 3b 50 35 02 be
       -0.09539199 0.14211892 0.006211733 -0.1271565
0000c0 a2 3d 81 bb b5 d2 a4 3d d4 5a b4 bc a7 67 e0 3d
       -0.003944115 0.08048002 -0.022015966 0.1095727
0000d0 c9 32 b8 3d ec cd 3e 3b 22 0f 16 3e 29 e4 c5 3d
       0.089940615 0.0029114438 0.1465421 0.09662659
0000e0 e7 ec 02 3c 31 f5 2b bb dc 85 63 3d 93 1c 08 bd
       0.007991052 -0.0026238675 0.05554758 -0.033230375
0000f0 5d b8 b5 3d 9b e2 0d be 16 2c 1a bc d0 5c 98 3d
       0.08873055 -0.13855974 -0.009409925 0.074395776

gkf.gat_rnn.r_input_gru.weight_ih_l0 f4 [192, 64]
000000 af 5c cd bd f4 08 68 bd cb 0a 86 bd f4 bb c0 3d
       -0.100274436 -0.056649163 -0.06545027 0.09410849
000010 63 68 38 ba 28 ae e5 bd 76 f6 e3 3d 07 ee 84 bd
       -0.0007034598 -0.11214858 0.11130993 -0.064907126
000020 75 70 33 bd 7f 9e 30 3d 9a f5 8b bd 69 35 0b bd
       -0.04380842 0.043119904 -0.06833954 -0.033986483
000030 6c 0a c7 bd cc 24 73 bd ca 98 a0 bd 3e 33 90 3d
       -0.09718785 -0.059361264 -0.07841642 0.07041024
000040 f8 ce 57 bd 52 d3 a9 bd 01 9f 74 3d e2 7a 46 3c
       -0.052687615 -0.08292259 0.05972195 0.0121142585
000050 5f 72 bf 3b af 43 8a 3d ee 52 9d 3d ff 35 74 bd
       0.0058424915 0.06751191 0.07681833 -0.059621807
000060 9b 3d cf bd 13 3b 02 be 91 40 a8 3b f4 15 8a 3c
       -0.10119172 -0.12717848 0.00513465 0.016856171
000070 8b 37 bb bb 1b 06 b8 bd b0 15 fb bd 05 3a bb bd
       -0.0057134083 -0.089855395 -0.12259996 -0.09141926
000080 48 e6 92 3d 94 1b c5 bb 8d 0a dd bd b9 e0 df bd
       0.07172829 -0.0060152505 -0.10793028 -0.10931534
000090 c7 9b c2 3c 50 53 80 3c 94 53 f3 3d 1c 11 05 be
       0.023755921 0.015664726 0.11881176 -0.12994808
0000a0 89 1d d9 bd 7e 97 29 bd 38 d0 9e 3d a3 db b7 3d
       -0.106013365 -0.04140424 0.07754558 0.08977439
0000b0 a7 8e ca 3d c5 2f ac 3d f2 b5 30 3d 6a 83 77 bd
       0.0989049 0.08407549 0.043142267 -0.06042806
0000c0 43 f0 d8 3d e1 49 b5 bd a7 3e cd 3d 4f 8b 38 3d
       0.10592701 -0.08851982 0.100217156 0.04505473
0000d0 e8 0d 9b bd 55 35 88 bd ee e1 c7 bc cc 0b 85 3d
       -0.07571012 -0.06650797 -0.024399724 0.06496391
0000e0 78 db cd 3d e2 63 f4 b9 da a4 9c bd d9 c6 07 3c
       0.10051626 -0.00046613725 -0.076486304 0.008287155
0000f0 d0 51 a1 3d 9c 83 54 bd 26 17 27 3e 59 9f 08 3d
       0.078769326 -0.051883325 0.16317424 0.03335509
000100 7c c5 c8 3d c2 1b 4d 3d 1a 9f bd 3d 6e 34 bd bd
       0.09803292 0.0500753 0.09258862 -0.09238516
000110 c5 e7 84 3d 3b cc f4 bd a4 31 52 3d 09 da d7 3d
       0.06489519 -0.11953016 0.051316872 0.10539634
000120 19 60 ef bd 99 81 9d bd f5 61 33 3a c7 4d 82 bb
       -0.11688251 -0.076907344 0.0006842905 -0.003976557
000130 ed 9c 62 bd 69 a3 e6 bd 20 ed ad bb b0 24 d3 bc
       -0.055325437 -0.11261637 -0.0053078085 -0.02577433
000140 58 c2 9f bc 15 e4 8c 3b 0b 81 92 3d 90 9f f2 3a
       -0.01950185 0.0042996504 0.07153519 0.0018510688
000150 fc 75 b4 bd 40 90 11 3e 71 83 8b bc 36 a6 7e bd
       -0.08811566 0.14215183 -0.01703045 -0.06217023
000160 69 62 cf 3d 2c 2d 59 3c 5f 11 1f 3d aa 7c 92 3d
       0.10126192 0.013255399 0.038834926 0.07152684
000170 67 d3 ef 38 6d 2b 1c 3e 3b 47 5d bc 88 4c e3 3d
       0.00011435785 0.1525094 -0.013505752 0.110985816
000180 29 26 e2 3c 9d bb 4c 3d 50 41 26 3d 7b 80 ca bc
       0.027606087 0.04998361 0.04058963 -0.024719467
000190 2f fb af 3d e1 9a 45 3d 8c 30 6b 3d 84 e1 dd bd
       0.08592831 0.048243407 0.057419345 -0.10834029
0001a0 a8 1f d9 bc cb 65 39 3d 8c f7 7a bd 9b b1 75 3d
       -0.026504353 0.045263093 -0.061271235 0.05998383
0001b0 19 3b ce 3d f9 77 b1 bd 5e 67 4d 3b d1 2e b3 3c
       0.10069866 -0.08665461 0.003134213 0.02187291
0001c0 a5 ca 96 3d 36 34 77 bd 13 9f f4 bd 48 f8 ad bd
       0.0736287 -0.060352527 -0.119444035 -0.084946215
0001d0 9f 6f a7 3d 48 46 0b be 21 40 01 be 61 03 1c bc
       0.08175587 -0.13601029 -0.1262212 -0.00952229
0001e0 6b 22 91 3d 54 84 bb bd 26 58 e3 bc a3 5b 60 3d
       0.07086643 -0.09156099 -0.027751993 0.05477489
0001f0 0f ba c2 bd 88 9b 68 bd 35 a7 06 3d 44 01 b3 3d
       -0.09508144 -0.05678895 0.032874305 0.08740476
000200 09 be 2a bd fe 61 b9 bd 40 a7 c6 bd 16 3d 39 bd
       -0.041685138 -0.09051894 -0.09699869 -0.04522427
000210 05 11 a5 3d 8f 88 54 3d b9 e0 92 bd 58 99 e5 bd
       0.08059887 0.051888045 -0.07171769 -0.112108886
000220 d5 bc 8e bd 7d 23 a3 3c cb 8d ae 3d 98 62 89 3d
       -0.069696106 0.019914383 0.085231386 0.067082584
000230 c8 8c 4e bc ce 67 9a 3d 19 d2 8e 3c ce 80 96 bb
       -0.012606807 0.075393304 0.017434167 -0.0045929914
000240 68 ae 1a 3d c9 bc 16 bd df 43 9f 3c ac b8 94 3c
       0.037763983 -0.036801133 0.019441543 0.018154465
000250 92 f3 77 3d a1 f6 15 bd e8 e8 ba 3d 4f 1e ca bd
       0.06053502 -0.036612157 0.091264546 -0.09869062
000260 3a 55 b4 3d 0f c5 ac bd 51 7c 76 bd cc b4 91 bd
       0.08805318 -0.084360234 -0.06017715 -0.071145624
000270 4c 0f 92 bb 8c 0f 1d bd 3c e1 f1 bd 0f 56 69 3d
       -0.00445739 -0.038344905 -0.11810538 0.056966837
000280 8b f5 ab 3c 6b 01 ff 3d 66 69 a3 bd df a7 de bd
       0.020991107 0.12451442 -0.079790875 -0.108718626
000290 72 a4 3e 3d 03 7f 9d 3d 85 53 86 3d 3c 47 5c 3d
       0.046543546 0.07690241 0.06558899 0.053778872
0002a0 36 b7 64 3a 2c df 91 3d c4 2e 84 bd 04 51 2b be
       0.00087248103 0.07122645 -0.06454232 -0.16730124
0002b0 13 39 d1 bd 7f 6b b9 bd 22 37 cb 3c ea 7c ec 3d
       -0.10215964 -0.090537064 0.024806563 0.11547263
0002c0 fd 6b ac 3d 5a 1d 97 bd 30 e3 02 3d c1 2e d8 3d
       0.08419035 -0.07378645 0.031954944 0.105557926
0002d0 4b 76 57 bc c4 2f 89 3b 2f 78 2c bd 17 51 8c bb
       -0.013150762 0.0041866023 -0.042106804 -0.0042821276
0002e0 42 ca 44 3d 1a a1 dd bc 4c e9 02 bd 30 43 8d 3d
       0.04804445 -0.027054358 -0.03196077 0.068975806
0002f0 37 b0 14 bd 50 dc ad bd cd cd 0b 3b eb e9 f9 3d
       -0.036300864 -0.08489287 0.0021332384 0.122028194
000300 4a 7b 0e 3d 3e bd 00 bc c5 b6 c6 bd 51 12 a3 3d
       0.034785546 -0.007857619 -0.09702829 0.07962478
000310 ea 69 28 3b 52 a9 9a bd 36 ed cf bd 0d 5b 7d bd
       0.0025697895 -0.075518265 -0.10152666 -0.06185441
000320 0b dc d7 bd f1 4c e4 3c 15 f2 c6 3d 86 ec 20 bd
       -0.10540017 0.02786872 0.09714142 -0.039288066
000330 d6 4f 6f 3d 98 65 2f bd 87 86 9b bd 23 89 f2 bd
       0.058425747 -0.042821497 -0.075940184 -0.11842563
000340 2e 02 a4 bd 9a 7f b5 3d 39 a5 ae 3d 1c 5a d9 3d
       -0.08008228 0.08862229 0.085276075 0.1061289
000350 b1 b8 88 bb 89 33 8b 3d fa 58 e5 bc a1 e2 04 3e
       -0.0041724076 0.06796939 -0.027996529 0.12977077
000360 5e 3e c6 bd ac d8 0b bd 8e 0b df bd 14 38 75 bb
       -0.09679864 -0.03414218 -0.10890876 -0.0037417458
000370 2a d8 cb bd 5a 47 a9 bd d6 49 51 3c 42 f6 03 3e
       -0.099533394 -0.08265562 0.0127739515 0.12886909
000380 df c0 df 3d 57 b2 8f 3d be 14 46 bd 3b 66 8f bb
       0.10925459 0.070164375 -0.048359625 -0.0043762005
000390 aa 95 00 be fe 47 b3 3d a0 f2 fc 3c 47 2b ae 3d
       -0.12557092 0.08753966 0.030877411 0.08504348
0003a0 4e 1c 03 be 06 e2 15 bd b9 b0 a6 bd e7 9e be bd
       -0.12803766 -0.036592506 -0.08139176 -0.09307652
0003b0 e1 98 c1 bd 12 3e 24 3d 69 f9 a0 3d 48 08 86 3d
       -0.094529875 0.040098257 0.07860071 0.06544548
0003c0 cf 52 63 bd 52 c6 1b 3d 2c 6c 06 3e 15 a4 8a 3a
       -0.055498894 0.03803093 0.13127202 0.0010577465
0003d0 f4 ef db bc 95 2b c9 bd e8 f5 cf 3d ba 83 45 bd
       -0.026847817 -0.09822766 0.10154325 -0.048221327
0003e0 69 62 c3 bd 6a 18 65 3d 82 a2 c1 3c ca f6 85 bd
       -0.095402546 0.055931486 0.02363706 -0.06541212
0003f0 1b 13 06 be 61 24 9c 3c 6a c1 84 bb f9 03 88 bc
       -0.13093226 0.019060316 -0.004051377 -0.016603457

gkf.gat_rnn.r_input_gru.weight_hh_l0 f4 [192, 64]
000000 fd 8b 58 bd b0 aa 2c bd e0 8c e5 bd 37 9c 82 bc
       -0.05286788 -0.042154968 -0.112085104 -0.01594363
000010 6a 89 34 bd 6d cd e0 3d 0b 66 ff 3d 07 7d a2 bd
       -0.04407636 0.10976682 0.12470635 -0.07934003
000020 5a 90 16 3c a5 3a d0 bd a8 d0 82 3d c8 79 c3 3d
       0.0091896895 -0.101674356 0.06387454 0.09544712
000030 a1 19 4a bd 55 a0 71 bd c1 8e 13 bc a7 cb cb 3d
       -0.049340848 -0.058990795 -0.009006203 0.09950953
000040 1c 44 b9 3d 9a a2 85 bd 08 42 60 bc cd 53 c9 bd
       0.09046194 -0.065251544 -0.013687618 -0.09830437
000050 5d e0 e0 3d e5 dc 55 3d da 96 3b bd 7a db 55 3d
       0.10980294 0.052212615 -0.04579816 0.052211262
000060 26 f1 c2 3c 4c ee a1 bd 4b 01 02 be d3 29 c0 3d
       0.02379663 -0.0790678 -0.12695806 0.09382977
000070 08 a6 be bd b6 cf c4 3d 89 27 bd bc 1f 68 9e 3d
       -0.09309012 0.0960993 -0.02309014 0.07734703
000080 1f c1 37 3d 72 5f 7a 3d b6 8e 30 bc ec 1f 84 3d
       0.04486191 0.06112618 -0.010776212 0.06451401
000090 84 4a 0b 3d e2 55 ce bc a3 d6 84 3b 02 39 4a bc
       0.03400661 -0.025187436 0.004053907 -0.012342693
0000a0 7b 55 9a 3d 89 37 93 3d 4d b3 58 bd 45 07 c7 39
       0.07535835 0.07188327 -0.05290537 0.00037961654
0000b0 db f4 51 bc ef 4d 06 bd c8 81 7e 3d 08 e1 b4 3d
       -0.012814726 -0.032789167 0.062135488 0.08831984
0000c0 6c 02 a8 3d 3a be e3 bc ed 75 c8 3d e4 0a 1b 3e
       0.08203587 -0.027800668 0.097881176 0.15140873
0000d0 d7 ae 20 3d 24 b6 d8 3d 51 dc 69 3d c7 32 09 bd
       0.03922924 0.105816156 0.057094876 -0.03349569
0000e0 59 8e 1d 3d 9c 92 62 3d 00 9b df 3c 04 44 c9 bc
       0.03846583 0.0553156 0.02729559 -0.024568565
0000f0 aa 84 c0 bd 1b 6e a0 bd 43 61 af bd b7 9e b2 3d
       -0.09400304 -0.07833501 -0.08563473 0.08721679
000100 5d d4 1e bd 92 01 cf bd 52 92 d2 3d 4e 5b 01 be
       -0.038776744 -0.101077214 0.10281815 -0.12632486
000110 5d 12 d3 3c 72 8c ee 3d df 15 5d bd 98 35 5c 3c
       0.025765592 0.116478816 -0.053975936 0.013440512
000120 76 24 09 3e 0e c6 b9 3d 99 08 de 3d 19 da 4d bc
       0.13392815 0.09070979 0.108414836 -0.012564206
000130 da 8c a8 3d 3c 4a 49 3d 75 b6 8d b9 40 45 e2 3d
       0.0822999 0.04914306 -0.00027029557 0.11048365
000140 25 28 64 3d 1c da ac 3d bf c4 a7 bd 39 e0 c8 3c
       0.055702347 0.084400386 -0.08191823 0.02452098
000150 5a 8a 06 be 64 75 8f bc 7e de 4e 3d 43 ea 9a 3d
       -0.13138714 -0.01751203 0.050505154 0.07564213
000160 05 ff 8a 3d e8 09 5d bd 02 4e 88 3d d9 21 f0 bd
       0.06786922 -0.053964525 0.06655504 -0.11725206
000170 c6 27 e7 3d df 58 92 3d df 1d 89 bc 62 c2 44 3d
       0.11286883 0.07145857 -0.016737876 0.04803694
000180 23 c7 b8 3d 97 e2 96 bd af b1 85 3d 8f a6 34 3d
       0.09022357 -0.07367437 0.06528031 0.044104155
000190 de bd d0 3d 79 74 82 3b 8b 9a 63 3c a4 79 56 3d
       0.10192464 0.00398117 0.013891826 0.0523621
0001a0 62 77 d4 3d 78 da c7 bd 4c ba bb 3d 26 fb 6f 3d
       0.10374333 -0.097584665 0.09166393 0.058589123
0001b0 3b 66 bd 3c b9 c6 fb bd e0 51 be 3d 5e 87 89 3d
       0.023120036 -0.12293763 0.0929296 0.06715272
0001c0 e3 d8 5f bd 06 26 2c 3d 17 e2 65 bc 46 cb 40 bd
       -0.0546502 0.04202845 -0.014030955 -0.047068857
0001d0 52 f2 0b 3e 3a 4f 24 3d 2c bc 9d 3c 00 c4 a5 3d
       0.13666657 0.04011462 0.019254766 0.08094025
0001e0 7a 5e c6 3d 09 f8 72 3d 58 c3 5e 3d b1 ea c9 bd
       0.09685989 0.059318576 0.054385513 -0.09859217
0001f0 4a c1 58 bd 83 2f ce 3d c2 17 51 3d fd d7 79 3c
       -0.05291871 0.10067656 0.051048048 0.0152492495
000200 c5 a7 98 bd 2a 42 95 bd ab c9 e8 bd 0e bf a2 3d
       -0.074538745 -0.072880104 -0.1136659 0.07946597
000210 89 4b 4c bd d0 28 9d 3d 93 24 02 be b7 0c 7c bd
       -0.049876723 0.076738 -0.12709264 -0.061535563
000220 c5 6c c6 3d 4c c1 e6 bc f3 d3 47 bc 65 b4 4a bd
       0.09688715 -0.028168343 -0.012196529 -0.049488444
000230 99 fe 7e 3c 55 8f 55 bd ca ca 1a bd f9 0e d2 bc
       0.0155636305 -0.052138645 -0.03779105 -0.025641905
000240 73 2e 58 3d 46 14 41 bd 53 f0 ff bd 45 da 86 3c
       0.052778672 -0.047138475 -0.1249701 0.0164615
000250 6b 7e 52 bd 81 b7 22 3e 05 b1 6e bd ab 8f 0c 3d
       -0.051390093 0.15890314 -0.058274288 0.0343167
000260 04 50 2c 3e d7 99 91 bd 58 95 a3 3d f9 ff 6c bb
       0.16827399 -0.07109421 0.079874694 -0.0036163314
000270 29 a6 ba 3d 90 50 1d bd c0 ad 84 3c 0b 17 16 be
       0.09113724 -0.03840691 0.016196132 -0.14657228
000280 b6 09 b1 3d 81 42 0e be a8 72 13 3e 5c e1 e5 bd
       0.0864443 -0.13892557 0.14399207 -0.112246245
000290 c4 2f 1c 3d 17 e4 77 bd 55 ec 97 3d eb 31 0a be
       0.03813149 -0.060520258 0.07418124 -0.13495605
0002a0 ba b2 8a 3d 8b 51 c0 3d 62 bf f3 3b 16 2e 04 3e
       0.06772371 0.09390553 0.007438586 0.12908205
0002b0 17 db a4 3d f1 29 8e 3d b5 bb b5 3d 03 64 20 3d
       0.080496006 0.069415934 0.08873693 0.03915788
0002c0 84 aa 36 3d 5b 93 0d be bb 2a a4 bd dd 26 a0 bd
       0.04459621 -0.13825743 -0.08015963 -0.078199126
0002d0 0d 66 bd bd 0e 78 50 bd 84 76 98 bd 1e c6 a9 3d
       -0.0924798 -0.050895743 -0.0744448 0.08289741
0002e0 b0 62 18 bd bf d6 c6 3d 81 85 91 3d 63 45 1c bd
       -0.03720349 0.09708928 0.07105542 -0.03815211
0002f0 bb 6d d7 3d 4b 3d df bd 9d 5d c4 bd d7 b5 2e 3e
       0.10518976 -0.109003626 -0.09588168 0.17061554
000300 9b bd 86 3d c2 42 49 3d 54 50 05 be d4 b3 ea 3d
       0.06579133 0.04913593 -0.13018924 0.11460081
000310 c9 a8 f8 bd dd d0 c6 bb a9 8a 57 bd 2f 1c e7 3c
       -0.12141568 -0.006067379 -0.05262247 0.028211681
000320 b3 bf a0 bd 23 70 a4 bd 81 cd 06 be b4 54 e4 bd
       -0.07849064 -0.08029201 -0.13164331 -0.11148968
000330 93 d0 5e bd 4b 2d 1f 3d 97 f7 66 bd 34 70 9d bb
       -0.05439813 0.038861554 -0.056388464 -0.0048046354
000340 43 5d cd 3b 0b 9a bd 3d 3c 4b 91 bd 75 bf c2 3d
       0.006267221 0.09257897 -0.07094428 0.09509174
000350 0a ce 25 bd 4f 2f 06 3e fd 16 72 bd 5d 65 b9 bd
       -0.040479697 0.13103984 -0.059103955 -0.09052537
000360 9c b0 dc bb 19 c3 50 bd a2 30 c4 bd 50 5c a0 3d
       -0.0067349207 -0.05096731 -0.095795885 0.07830107
000370 2b 12 03 be d3 a5 8e bc 1f 00 c0 bd e7 37 dc bd
       -0.127999 -0.017413056 -0.09375023 -0.1075285
000380 3a 6e 0c bd 39 cd 80 bd f0 ff 99 3c 83 ae a8 bc
       -0.034284808 -0.06289143 0.018798798 -0.020591026
000390 33 d0 c1 bc 85 8e 10 be 91 50 85 bc 56 f3 52 3c
       -0.023658847 -0.14116867 -0.016273769 0.012875399
0003a0 30 e8 e5 3d 63 ae b1 bd 7c 9a ec bd 66 0d b1 bd
       0.11225927 -0.0867584 -0.11552903 -0.08645134
0003b0 77 6a 41 3d a6 28 96 bd 7b e5 ed 3d ee 97 4a 3d
       0.047220673 -0.07331972 0.116160356 0.049461298
0003c0 4a 8d 11 3e b1 44 c3 bd 03 bd e3 3d ec 29 79 bc
       0.14214054 -0.09534586 0.111200355 -0.015207749
0003d0 ba 5b 0d bd 23 c7 05 3e 4b 45 a4 bd d6 6f 33 bd
       -0.034511305 0.13064246 -0.08021029 -0.043807827
0003e0 5c 1e 39 bc 18 d9 8b 3d 2e a9 24 bd bc cb c8 bd
       -0.011298742 0.06828517 -0.040200405 -0.09804484
0003f0 e3 8d 1f 3c ce 0d 4b 3d 1e fd ea bd df 2c a4 bd
       0.009738418 0.049573712 -0.114740595 -0.08016371

gkf.gat_rnn.r_input_gru.bias_ih_l0 f4 [192]
000000 fd ff fd 3d cf 30 83 bd b6 1e 7a bd 42 45 99 3d
       0.124023415 -0.06405794 -0.061064444 0.07483913
000010 15 69 fa 3b 74 f4 16 3e c3 67 90 bd e7 ce 90 3d
       0.0076419213 0.14741689 -0.07051041 0.070707135
000020 ba d0 d6 3c ef e7 52 3d a7 ce db bd 0b c9 dd ba
       0.026222575 0.05149072 -0.10732775 -0.0016920877
000030 ac 83 d2 bb 00 a0 dd bc da 5d b9 3d 73 69 1a 3e
       -0.006424388 -0.027053833 0.09051104 0.15079288
000040 e3 f1 ff 3d 77 77 d0 3d 41 de 83 3c d4 92 79 bc
       0.12497308 0.10179036 0.01609719 -0.01523276
000050 51 2a b0 3d ce 44 03 3e e3 3f 13 bd b8 af a3 3d
       0.08601821 0.12819216 -0.0359496 0.079925
000060 f8 14 1f bd a5 a8 0b 3c cc 3c c8 3d 9d 9f fc 3d
       -0.038838357 0.008524095 0.09777221 0.12335131
000070 c4 4e ad bd 1e c7 e4 3d 00 9b f7 3d 6c 69 30 3d
       -0.08462289 0.11170791 0.12090111 0.043069288
000080 45 31 72 3d c3 59 87 3d 7a 51 7d 3c ef 4b 60 3d
       0.05912902 0.066089176 0.01546132 0.054759916
000090 3b 69 6e bd 4a d5 75 ba 93 d1 9f bc 1f 59 ba 3d
       -0.058205824 -0.0009377791 -0.019509112 0.0909903
0000a0 eb a2 92 bd 4d d8 9d 3d f9 af 09 bd 69 30 ec 3d
       -0.071599804 0.07707272 -0.033615086 0.11532671
0000b0 cc ef e9 3b 61 75 50 3b 0a b7 8f 3d c6 8b ab 3c
       0.0071391817 0.0031808245 0.07017334 0.020940673
0000c0 e4 88 ab 3d b6 d3 a0 3d 84 92 9b bc bd b2 51 bd
       0.08375719 0.07852881 -0.018990763 -0.05119585
0000d0 11 70 64 3d cc 28 fc bd b0 61 3e 3d 66 81 a8 3d
       0.055770937 -0.12312469 0.04647988 0.08227806
0000e0 45 1e 00 3e 9a e1 99 3d 5f 52 35 bd 1b 2f 95 bd
       0.12511547 0.07513733 -0.04426801 -0.07284375
0000f0 cf 89 1e 3c 0c d4 62 bd 47 a1 12 3d f7 7e a1 3d
       0.009676411 -0.055378005 0.035798337 0.07885545
000100 3e f9 29 3c 2a ca 05 be d3 19 26 3d 12 30 ae bd
       0.010374365 -0.130654 0.04055197 -0.085052624
000110 29 18 bc bd ea d4 97 bd 4a 43 42 bd b4 50 ba bd
       -0.09184296 -0.07413657 -0.047427453 -0.09097424
000120 a2 0a d5 bd 9b 01 d9 3d d5 da 77 bc f8 38 2d 3d
       -0.10402419 0.10596009 -0.015127857 0.042290658
000130 f9 43 d6 bc 49 e5 53 3d 63 bc d3 bd 88 0e 3d bc
       -0.026155459 0.051732335 -0.10338666 -0.011539109
000140 f4 d7 ae bd 26 9a 06 be 8d bb a3 bd 9e 48 14 be
       -0.085372835 -0.1314474 -0.07994757 -0.14480826
000150 89 ad 78 bc ec 65 08 be 7b 54 92 3a 2c 91 8c 3d
       -0.015178093 -0.1332013 0.0011164093 0.06863627
000160 d4 d7 5b 3d 32 58 b6 bd 37 c0 3e bc 75 76 44 bd
       0.053672627 -0.08903541 -0.011642507 -0.047964532
000170 dc 6b 33 be 54 9f a8 3c bc 01 5c 3d 64 b3 8f 3d
       -0.17521614 0.020583786 0.05371259 0.07016638
000180 cd a3 29 bc 90 e1 ce 3c bb eb 8b 3c d2 10 b9 bd
       -0.010353995 0.025254041 0.017080178 -0.09036411
000190 a8 9b 42 3d 08 17 55 bc 55 b1 03 be c3 de b8 bd
       0.047511727 -0.013005979 -0.12860616 -0.090268634
0001a0 9a 8c 97 bd a9 70 d3 bd 4f 53 b7 3d 79 00 c6 bd
       -0.073998645 -0.103242226 0.08951437 -0.09668059
0001b0 0f ab 8e bc 47 e0 f3 bd 15 f5 52 3d 41 02 92 bc
       -0.017415551 -0.11908012 0.05150326 -0.01782334
0001c0 ad ac a3 3d 74 79 c5 3d 76 e0 63 bd ad 04 4c bc
       0.0799192 0.09642306 -0.055633985 -0.012452287
0001d0 4a de 33 3d 0a 1d 8b 3d 93 b0 b2 bd c5 66 7d bd
       0.043913163 0.06792648 -0.08725085 -0.061865587
0001e0 da be 05 3e ae 5d b5 3c 3b 89 af bd 82 b6 92 bc
       0.13061085 0.022139397 -0.085710965 -0.017909292
0001f0 cc 1f a5 bd 51 5b 41 bc 53 ed 27 3d bb ae 45 bd
       -0.080627054 -0.011801557 0.040997814 -0.04826234
000200 6c 3d 46 bd 8f 75 81 3d 33 59 83 ba c8 0d af bd
       -0.04839842 0.06321251 -0.001002109 -0.085475504
000210 5a ba 3d 3d 7f 3d 16 3d 91 f5 9c bd fb 2d bd 3d
       0.046320297 0.03667974 -0.076640256 0.09237286
000220 c4 92 e4 bd 0d e0 ae 3c eb 97 a6 bd 16 91 fa bd
       -0.11160806 0.02134707 -0.08134445 -0.12234704
000230 6b a1 9d 3d 9e dc e6 3d 58 b5 f4 bd 19 a7 95 bd
       0.07696804 0.11272548 -0.11948651 -0.07307262
000240 4d 89 9c bd aa 69 04 be f9 0d 8c bb 4e e8 d5 3d
       -0.076433755 -0.12930933 -0.0042741266 0.10444699
000250 54 51 1a 3d 6f 69 37 bd e7 f4 6a bd 70 d4 5b 3c
       0.037675217 -0.044778284 -0.057362463 0.013417348
000260 35 88 af bd 2b 4d b9 bd bc c2 c5 bb 4b e1 b4 3b
       -0.08570901 -0.09047922 -0.006035177 0.005520021
000270 27 d5 ba bd a1 4a 8e bd 52 dd e1 3d 57 3f 98 ba
       -0.09122687 -0.06947828 0.110285416 -0.0011615556
000280 0f 04 ae bc 34 e4 57 bd 67 87 b6 3d 7a 7b 56 bb
       -0.02124217 -0.052707866 0.08912545 -0.0032727406
000290 c3 3b dd 3d 22 7c 30 bd cf 68 a6 bd 76 2f bd 3d
       0.10802414 -0.043087132 -0.081254594 0.09237568
0002a0 79 02 29 bd ee 30 d5 3d 6b fb 9b bc 98 f1 3e 3d
       -0.041262124 0.10409723 -0.019040784 0.04661712
0002b0 79 52 7c bd ea 13 17 be 0e 14 83 bd 4e 30 07 3d
       -0.06160209 -0.1475369 -0.064003095 0.03300505
0002c0 4e 63 b8 bd 62 b4 26 3c 39 1e 82 bc 02 c1 0e 3d
       -0.09003316 0.010174843 -0.015883552 0.034852035
0002d0 c0 3c fb bd 63 40 7e bc 80 99 6d bc 52 a8 13 3d
       -0.122674465 -0.015518281 -0.014501929 0.036049195
0002e0 d4 93 34 bd 41 2b db 3d 26 d7 f0 bc 58 55 e1 3d
       -0.044086292 0.107016094 -0.029399466 0.11002606
0002f0 c4 46 d1 3d 72 31 10 3d d2 d9 4a 3d 07 6a e3 3d
       0.102185756 0.035203405 0.049524136 0.111042075
