models/with_mismatch/kalman_process_50n_local_params_20deg.pth (torch, 269570 bytes, 28 tensors)

gkf.gat_rnn.fc_delta_y_innov.0.weight f4 [64, 3]
0	0x3edd76a2	0.43254572
1	0x3ee956db	0.45574078
2	0xbe1927ad	-0.14956541
3	0x3f08b5d3	0.5340244
4	0xbe0a26fa	-0.13491431
5	0x3e315bc0	0.17320156
6	0xbe90096b	-0.28132185
7	0x3eac51c9	0.33656147
8	0x3f0082d5	0.50199634
9	0xbedab482	-0.42715842
10	0x3f05fd44	0.5233958
11	0x3e29cafb	0.16581337
12	0x3ed91b0c	0.42403448
13	0x3d8c3920	0.06846833
14	0x3e8e3045	0.27771202
15	0xbd924031	-0.0714115
16	0x3ee79486	0.45230502
17	0x3e0290fa	0.12750617
18	0xbe8cf060	-0.27527142
19	0x3e266009	0.16247572
20	0xbe8bbb3e	-0.27291292
21	0xbd0eddf7	-0.03487965
22	0xbe875048	-0.26428437
23	0x3ee04eec	0.43810213
24	0xbee8634c	-0.45388258
25	0xbe9553f8	-0.29165626
26	0xbe0ae035	-0.1356209
27	0xbeb4331f	-0.35195252
28	0x3dae411e	0.08508514
29	0xbf1ad68f	-0.6048364
30	0x3f06d11e	0.5266284
31	0xbf02eeb3	-0.51145476
32	0x3eee46e6	0.46538466
33	0x3db014cd	0.085977174
34	0xbe56af31	-0.20965268
35	0x3ebacd3a	0.364847
36	0x3daf4a72	0.08559121
37	0x3efd92e4	0.4952613
38	0x3d71a8a5	0.058998723
39	0xbe3627c8	-0.17788613
40	0x3e3feebd	0.18743415
41	0xbe42c581	-0.19020654
42	0x3e7b032a	0.24512926
43	0x3f0b881a	0.5450455
44	0x3ecf07e7	0.40435717
45	0xbe897f2d	-0.2685484
46	0x3ebc416b	0.3676866
47	0x3e1a7279	0.1508273
48	0x3e9d10a9	0.30676773
49	0xbeb8b0dd	-0.36072436
50	0xbf0ab702	-0.541855
51	0xbe52ece1	-0.20598175
52	0xbeecf81c	-0.46283042
53	0x3f0b5ce4	0.54438615
54	0x3e331266	0.17487487
55	0x3e81c1f1	0.25343278
56	0x3e6df93d	0.23239608
57	0xbbb67d22	-0.005569116
58	0x3eee0120	0.46485233
59	0xbec3471a	-0.38140184
60	0x3c95e55f	0.01829785
61	0xbed97eb3	-0.42479476
62	0x3e1344f6	0.14381775
63	0xbe5b6bf4	-0.214279
64	0x3e4aa939	0.19791116
65	0xbe08aef3	-0.13347988
66	0x3ef79d46	0.48362178
67	0xbeb4cea7	-0.35313913
68	0xbeb1402c	-0.34619272
69	0xbea9620e	-0.33082622
70	0x3f0dfd38	0.55464506
71	0x3e7aedcd	0.24504776
72	0x3f0f5aac	0.5599773
73	0xbeecd01a	-0.4625252
74	0xbf15d476	-0.58527315
75	0xbee78852	-0.45221192
76	0xbece7efa	-0.4033125
77	0x3e98dfca	0.29858238
78	0x3e57a674	0.2105959
79	0x3ef83e59	0.48485067
80	0xbea69cb7	-0.3254144
81	0xbecc58f1	-0.39911607
82	0x3e9cf0b0	0.3065238
83	0xbe44a3cb	-0.19203107
84	0x3eb21ea7	0.3478901
85	0xbe0bc6fd	-0.13650127
86	0x3ecd2ba4	0.40072358
87	0xbee36fcf	-0.4442124
88	0xbe982ff7	-0.29724094
89	0x3e31a9ba	0.17349902
90	0x3dc0ef02	0.09420587
91	0xbe1b1ffd	-0.15148921
92	0x3ed1f40b	0.41006503
93	0x3ece9e63	0.40355214
94	0xbec145be	-0.37748522
95	0xbeb299d2	-0.3488298
96	0x3f0afd54	0.542928
97	0xbe498dc6	-0.19682989
98	0xbe22b87b	-0.15890686
99	0xbf0f0f87	-0.5588307
100	0xbeb1a4cc	-0.34696043
101	0x3e273f37	0.16332708
102	0xbd9842da	-0.07434626
103	0xbece6520	-0.40311527
104	0x3cc6c195	0.024262229
105	0xbed520dd	-0.41626635
106	0xbef232b5	-0.4730431
107	0xbeac3a14	-0.3363806
108	0xbef92b1f	-0.4866571
109	0xbec6efdd	-0.38854876
110	0x3f158d76	0.5841898
111	0x3e0a731c	0.13520473
112	0x3e6ba1c9	0.23010935
113	0xbf0af6c7	-0.542828
114	0xbec0f00b	-0.37683138
115	0xbe516558	-0.20448816
116	0x3d922a5b	0.07136985
117	0xbf039c09	-0.51409966
118	0xbe8b8c61	-0.27255538
119	0xbeba1a3b	-0.36348137
120	0xbbe10c6a	-0.006867935
121	0xbe51170b	-0.20418946
122	0x3990b0a6	0.00027597434
123	0xbecbfe2c	-0.39842355
124	0xbecd7458	-0.40127826
125	0xbeb5b6c2	-0.35490996
126	0xbe2db374	-0.16962987
127	0xbef59c09	-0.47970608
128	0x3f0980b3	0.53712004
129	0xbdbda107	-0.09259229
130	0x3f038efb	0.51390046
131	0x3e629b8e	0.22129652
132	0xbefe4d27	-0.49668238
133	0x3ed2143a	0.41031057
134	0xbe146fc2	-0.14495757
135	0xbe7cd416	-0.2469028
136	0xbef4221a	-0.47682267
137	0xbf092ebb	-0.5358693
138	0x3e20a8ef	0.15689443
139	0xbe11c8b9	-0.14236726
140	0x3e6f3100	0.23358536
141	0xbefb2e14	-0.49058592
142	0x3ee3f1ed	0.44520512
143	0xbee579c9	-0.44819477
144	0xbdba81e6	-0.091068074
145	0x3dd750b6	0.10513441
146	0x3eaf0664	0.34184563
147	0x3eecdcb6	0.4626214
148	0x3f0932b7	0.5359301
149	0xbecf009b	-0.4043015
150	0x3e0a6e51	0.13518645
151	0xbe83a438	-0.25711226
152	0xbd13055d	-0.035893787
153	0xbee2642b	-0.44217047
154	0x3f0cd57a	0.5501324
155	0xbed329d1	-0.4124284
156	0x3e9d85d8	0.30766177
157	0x3e772675	0.24135764
158	0x3e5f0af1	0.21781518
159	0xbea5975a	-0.32342035
160	0x3f0c4d0d	0.5480507
161	0x3e39f2c5	0.18159015
162	0x3e09fc94	0.13475257
163	0xbf073342	-0.5281259
164	0x3eab284a	0.33429176
165	0xbd986d60	-0.074427366
166	0xbe8b5571	-0.27213624
167	0x3f0b11da	0.54324114
168	0x3e146ff6	0.14495835
169	0xbea3c0c4	-0.31983006
170	0xbe85b998	-0.2611816
171	0xbc809d77	-0.015700085
172	0x3ea0b5ae	0.3138861
173	0xbe0ed2e5	-0.13947637
174	0xbeb47157	-0.3524272
175	0xbe377fe9	-0.17919888
176	0xbee6609e	-0.44995588
177	0x3e50fa10	0.20407891
178	0x3eeca516	0.462197
179	0xbf0fbf1d	-0.5615099
180	0x3e100c1f	0.14067124
181	0x3e94f6cc	0.2909454
182	0x3df79510	0.12088978
183	0xbe458f68	-0.19292986
184	0x3e9e3859	0.30902365
185	0x3ebad6c9	0.36491993
186	0x3e60ce63	0.2195373
187	0xbdbf1790	-0.09330666
188	0xbe26f25a	-0.16303387
189	0x3d41c2c6	0.04730489
190	0xbe06f4e8	-0.13179362
191	0xbe3f3a94	-0.1867469

gkf.gat_rnn.fc_delta_y_innov.0.bias f4 [64]
0	0x3eb9d601	0.36296085
1	0x3f04e58d	0.51912767
2	0xbd549803	-0.051902782
3	0xbdfcdafb	-0.12346455
4	0xbc969e6e	-0.018386092
5	0xbcccf44e	-0.025018837
6	0x3e307913	0.17233686
7	0x3e1d4107	0.15356837
8	0xbf055b15	-0.52092105
9	0xbe5c29e6	-0.21500358
10	0x3eff0acc	0.49812925
11	0x3e6051a5	0.21906145
12	0xbcc7aec4	-0.024375327
13	0xbeb94170	-0.36182737
14	0xbea6a781	-0.3254967
15	0xbf00e741	-0.50352865
16	0xbe2d13aa	-0.16902032
17	0x3e5c65ac	0.2152316
18	0x3ec878c9	0.39154652
19	0x3e8c9843	0.27459916
20	0xbf0885a5	-0.53328925
21	0xbeb0a2cd	-0.34499207
22	0xbd95435d	-0.07288239
23	0x3f146156	0.5796102
24	0x3dd398dd	0.10331891
25	0xbe03799d	-0.1283936
26	0x3e800d59	0.25010183
27	0xbe5671c4	-0.20941836
28	0xbebb1e97	-0.36546776
29	0x3ee3671c	0.44414604
30	0xbe71144d	-0.235429
31	0xbdcbeb69	-0.0995701
32	0xbf0bfa31	-0.54678637
33	0x3ecd2359	0.4006603
34	0x3ef777ca	0.4833358
35	0x3e692614	0.22768432
36	0xbed5f487	-0.41788122
37	0xbf0abb41	-0.54191977
38	0xbeed0d31	-0.46299127
39	0x3edc9620	0.43083286
40	0x3ea763f1	0.32693437
41	0x3f0126aa	0.5044962
42	0x3ea0b52c	0.31388223
43	0x3e1e2e89	0.15447439
44	0xbc768b2a	-0.015047828
45	0xbecfe013	-0.40600643
46	0xbf00379b	-0.5008485
47	0xbf0aef64	-0.5427153
48	0x3e816856	0.25274915
49	0xbe8f51a5	-0.27991977
50	0xbe0e4b1a	-0.13895836
51	0xbead60e2	-0.33862978
52	0xbda7b3d6	-0.08188598
53	0xbecdc2a5	-0.40187564
54	0xbea26d51	-0.31724027
55	0x3e696667	0.2279297
56	0xbe11364d	-0.1418087
57	0x3ebbcb16	0.3667838
58	0xbe2a9029	-0.16656555
59	0xbeddefca	-0.43347007
60	0xbdc383b7	-0.09546607
61	0xbe885fa5	-0.2663547
62	0xbe25c85e	-0.16189715
63	0xbf0b0cd9	-0.5431648

gkf.gat_rnn.fc_delta_y_innov.2.weight f4 [64, 64]
0	0x3d8e2105	0.06939892
1	0xbda9e45f	-0.082955115
2	0x3dd51b8a	0.10405643
3	0x3da11551	0.07865394
4	0x3dbf7edd	0.09350369
5	0xbd9cfe04	-0.07665637
6	0x3dd6db1e	0.10491012
7	0x3c2d147c	0.010563966
8	0x3d125d1f	0.03573334
9	0x3dcef290	0.10104859
10	0xbb6a4714	-0.0035747932
11	0x3d3ae3f3	0.045627546
12	0xbcbf2f20	-0.0233379
13	0xbe04a5c7	-0.12953864
14	0x3d89787d	0.067124344
15	0xbe01b8e3	-0.12668185
16	0x3d657cb2	0.05602712
17	0x3e1b4be3	0.15165667
18	0x3e069a6f	0.13144849
19	0xbcc9b91e	-0.024624404
20	0xbdafa1f9	-0.08575816
21	0x3c0a7f05	0.008453135
22	0x3d71d752	0.059043236
23	0xbdc8c2fa	-0.09802814
24	0xbd27cac7	-0.040964868
25	0xbd53df85	-0.051726837
26	0xbc5aadad	-0.013347072
27	0xbd4b553b	-0.04964183
28	0xbd0f86e2	-0.035040744
29	0xbbf39d3d	-0.0074345157
30	0xbd4f6617	-0.05063447
31	0x3dbc12ad	0.091832496
32	0x3dc6f93f	0.09715509
33	0x3bd68dd9	0.0065476713
34	0x3ccac614	0.024752654
35	0xbd7089bb	-0.0587251
36	0xbda3ccc3	-0.079980396
37	0xbe20225a	-0.15638104
38	0x3d390e57	0.04517969
39	0xbd6a0316	-0.05713185
40	0xbd4d7095	-0.050156195
41	0xba939e99	-0.0011262476
42	0x3c87258e	0.0164974
43	0xbc89f630	-0.016841024
44	0x3cae5c2f	0.021284191
45	0xbd5691cb	-0.052385133
46	0xbaf19a6b	-0.0018432861
47	0xbd861464	-0.06546858
48	0xbd6ee752	-0.058326073
49	0x3dbe63c8	0.092963755
50	0xbd3e8610	-0.04651457
51	0x3d3a1c5b	0.045437198
52	0xbd24cb40	-0.040232897
53	0x3cf919ef	0.030407874
54	0x3e3c1d0d	0.18370457
55	0x3dfcc95b	0.12343093
56	0xbe0028cd	-0.12515564
57	0x3d5c256b	0.053746622
58	0x3dc2d7ff	0.09513854
59	0x3c535074	0.0128975995
60	0x3db4003c	0.08789107
61	0x3e20e8c5	0.15713795
62	0xbd02851e	-0.03186523
63	0xb8423210	-4.629983e-05
64	0xbdd7f469	-0.105446644
65	0xbd13432d	-0.035952736
66	0x3dcd0a0b	0.10011681
67	0x3da97a15	0.082752384
68	0xbdcc5ccb	-0.09978636
69	0xbdc15e9c	-0.094418734
70	0xbd6bdb03	-0.057581913
71	0xbe11c277	-0.14234339
72	0xbd818261	-0.06323696
73	0x3c288473	0.010285485
74	0x3d99e3e2	0.07514168
75	0xbcdb1dfd	-0.026747698
76	0xbde47563	-0.11155202
77	0xbd886167	-0.06659203
78	0x3c985890	0.018596917
79	0xbd97d826	-0.07414274
80	0xbc6fdf5b	-0.014640654
81	0x3d88d4a8	0.06681186
82	0xbd973e0c	-0.073848814
83	0xbbaa1f74	-0.005191738
84	0xbcc06331	-0.023484798
85	0x3b0c6f57	0.0021428668
86	0xbd8b038d	-0.06787787
87	0xbdc8f089	-0.098115034
88	0xbdcde7bd	-0.10053966
89	0xbd311523	-0.04323305
90	0x3dd84fb1	0.10562075
91	0xbd058402	-0.032596596
92	0xbde72978	-0.112872064
93	0x3d5d9469	0.054096613
94	0xbd4cf534	-0.05003853
95	0x3d830136	0.06396715
96	0x3da7ab75	0.08187
97	0x3dc36698	0.095410526
98	0xbdc6a95f	-0.09700274
99	0x3d543b08	0.05181411
100	0x3db653b4	0.08902684
101	0xbca36294	-0.019944467
102	0xbd4a2b45	-0.04935767
103	0x3e1c247e	0.15248296
104	0xbcbe980a	-0.023265857
105	0xbd0d9e3d	-0.034574736
106	0xbdd95cb1	-0.106133826
107	0x3c34c038	0.011032157
108	0x3da37691	0.07981599
109	0x3da00000	0.078125
110	0xbc0731af	-0.008251592
111	0xbd8133d9	-0.06308717
112	0xbde76e43	-0.11300328
113	0xbc9e1026	-0.01929481
114	0x3dce3f2f	0.10070645
115	0x3dcc3fbc	0.09973094
116	0xbdcb8244	-0.099369556
117	0x3a267e02	0.0006351174
118	0xbe01b258	-0.12665689
119	0xbd88f625	-0.06687573
120	0x3ca29907	0.01984836
121	0x3da656a9	0.08121998
122	0x3e189e24	0.14904076
123	0xbe1ca618	-0.15297735
124	0x3d4fb47a	0.050709225
125	0xbda453e5	-0.08023814
126	0x3d20297b	0.03910206
127	0x3dc87441	0.09787799
128	0xbc9d36a4	-0.019191094
129	0x3de63149	0.11239869
130	0xbd8c1bd0	-0.06841242
131	0xbd2962d9	-0.041354034
132	0x3d9ead91	0.07747949
133	0xbd17e2cf	-0.037081536
134	0xbd2cb782	-0.042167194
135	0x3ca0ef94	0.01964549
136	0x3daca7dd	0.08430455
137	0x3d152772	0.03641457
138	0x3d8062c6	0.062688395
139	0xbc3ef8f4	-0.011656035
140	0xbdf73f0c	-0.12072572
141	0xbb34a2e8	-0.002756292
142	0x3d28c438	0.041202754
143	0xbd4be16b	-0.049775522
144	0xbd8edbe6	-0.06975536
145	0x3e0ed5ca	0.13948742
146	0x3c54e5a0	0.0129942
147	0xbd00ef1a	-0.031478025
148	0x3d22bc73	0.0397305
149	0xbdffc911	-0.12489522
150	0xbe0af722	-0.13570836
151	0xbd5f8dfb	-0.054578763
152	0xbdb5fd4c	-0.08886203
153	0x3d861339	0.06546635
154	0xbd8f797f	-0.070055954
155	0xbd6afe1c	-0.057371244
156	0x3e1a272b	0.15054004
157	0x3d829d4b	0.063776575
158	0x3e2bd595	0.16780694
159	0xbd9e8b17	-0.07741373
160	0xbd6f658f	-0.058446463
161	0x3d82d55f	0.063883536
162	0xbd531c66	-0.051540755
163	0xbdb7b35d	-0.08969758
164	0x3cffe9a9	0.031239348
165	0xbd94b320	-0.07260728
166	0xbda957ae	-0.08268677
167	0x3d8abc14	0.06774154
168	0x3dfa48d5	0.12220923
169	0x3c62ce38	0.013843112
170	0x3d112858	0.035438865
171	0xbde919a2	-0.11381842
172	0xbd507641	-0.050894026
173	0xb9a92190	-0.00032259198
174	0x3df69d1b	0.12041684
175	0xbcfc5552	-0.030802403
176	0xbb9ccf53	-0.004785457
177	0x3d281a8e	0.04104095
178	0xbdb1b807	-0.086776786
179	0x3d81d5e6	0.06339626
180	0xbd48fb52	-0.049067803
181	0x3c11bbcf	0.008894875
182	0x3d5ac065	0.053406138
183	0x3dabf24d	0.083958246
184	0xbd74a0dc	-0.05972372
185	0x3d2ffc9f	0.042965528
186	0xbcba6d73	-0.022757268
187	0x3d76d5bc	0.060262427
188	0x3de6db37	0.11272281
189	0xbccfa8c7	-0.025349034
190	0xbddfe06b	-0.10931476
191	0x3db5af98	0.088713825
192	0x3dcf6912	0.101274624
193	0xbdafb4fa	-0.085794404
194	0xbba4fd63	-0.005035089
195	0xbdf1ce71	-0.11806954
196	0xbdcca259	-0.09991903
197	0x3c479c28	0.012183227
198	0x3d44def9	0.048064206
199	0x3d35c18b	0.04437403
200	0xbcb34368	-0.021882728
201	0x3dfd86af	0.123792045
202	0x3d0019a6	0.03127446
203	0xbd60ad39	-0.054852698
204	0xbca1b35a	-0.019738842
205	0x3cbf61fb	0.02336215
206	0x3d0bba8a	0.034113444
207	0xbdc6e87e	-0.09712313
208	0x3d596faa	0.053085007
209	0xbd30a537	-0.04312631
210	0xbdc36eca	-0.09542616
211	0xbd9bc0a3	-0.07605102
212	0x3db00350	0.08594382
213	0x3dd3b4d9	0.10337228
214	0x3df0f041	0.11764575
215	0x3dad8630	0.0847286
216	0x3dd003a1	0.10156942
217	0xbafe6a8e	-0.0019410418
218	0xbd8e7602	-0.06956102
219	0x3d8cf290	0.068822026
220	0xbd76ffd4	-0.06030257
221	0xbd8737fb	-0.06602474
222	0xbd040615	-0.032232363
223	0x3d0cb099	0.034348104
224	0x3d84125b	0.064488135
225	0xbd020131	-0.031739417
226	0xbcb70930	-0.022343248
227	0x3d28996b	0.041161936
228	0xbd81ae2c	-0.06332049
229	0xbe022ef4	-0.12713224
230	0x3d98423d	0.07434509
231	0xbab1439f	-0.0013524181
232	0x3e3c6225	0.18396814
233	0x3e15255f	0.14565037
234	0x3d7b1eb8	0.061308593
235	0x3d1d8279	0.038454507
236	0x3d1bfff7	0.038085904
237	0x3c40892b	0.011751453
238	0xbbc4f4c9	-0.006010626
239	0x3b48496b	0.0030561339
240	0x3d75ef9f	0.060042974
241	0x3ddfca2b	0.10927232
242	0xbc8cf87c	-0.01720833
243	0xbd467933	-0.04845543
244	0xbcfe4e2f	-0.03104314
245	0xbd81baed	-0.063344814
246	0x3d2464f2	0.04013533
247	0x3de951ce	0.11392556
248	0x3de490a4	0.111604005
249	0x3d7d3348	0.061816484
250	0xbd9b7831	-0.07591284
251	0xbdb890f6	-0.09012024
252	0xbd08d2aa	-0.03340403
253	0xbcee1ba2	-0.02906591
254	0x3c2fd56b	0.010732035
255	0xbe09cb5a	-0.13456479

gkf.gat_rnn.fc_delta_y_innov.2.bias f4 [64]
0	0x3c5a6dce	0.013331844
1	0x3d8d9622	0.06913401
2	0x3c3d9f03	0.011573556
3	0xbd831a23	-0.064014696
4	0x3d7ea044	0.06216456
5	0x3de43c70	0.1114434
6	0xbda06e05	-0.078334846
7	0xbd814327	-0.063116364
8	0xbdc82972	-0.0977353
9	0xbd2c9643	-0.04213549
10	0xbd03a160	-0.03213632
11	0x3d1e54e2	0.03865517
12	0x3bdc22a1	0.0067179953
13	0xbca587ad	-0.020206297
14	0x3db485e3	0.08814599
15	0x3cc3f6a8	0.023921326
16	0xbd892078	-0.06695646
17	0xbd36f164	-0.0446638
18	0xbd8f8261	-0.0700729
19	0xbd27206a	-0.040802397
20	0xbde9923d	-0.11404846
21	0x3c1b8cbc	0.009494003
22	0xbdbd2a05	-0.0923653
23	0x3d4a327d	0.049364556
24	0x3dfafc1c	0.12255117
25	0xbd9c17ef	-0.076217525
26	0xbd66b72f	-0.05632704
27	0xbdc3af76	-0.09554951
28	0x3c92ae4a	0.017905373
29	0x3baa38b4	0.005194748
30	0xbd5591a4	-0.052140847
31	0x3d989a7e	0.07451342
32	0x3d6e4698	0.058172792
33	0xbdff21b4	-0.124576
34	0x3c9868b9	0.018604623
35	0xbccb38da	-0.024807382
36	0x3b8923ea	0.0041851895
37	0x3d81073e	0.063002095
38	0x3bebcc41	0.00719598
39	0xbdaaf0b3	-0.08346691
40	0x3dcb0325	0.09912709
41	0xbdda5199	-0.10660095
42	0xbce98c5e	-0.028509315
43	0x3d9b133d	0.07572029
44	0x3e0e439a	0.13892975
45	0x3e0ea3f7	0.13929735
46	0xbcea2774	-0.028583266
47	0x3d85a0ac	0.06524786
48	0xbdbe83e9	-0.093025036
49	0x3b99482f	0.0046777944
50	0xbcaec196	-0.021332543
51	0x3d7a0a60	0.06104505
52	0xbd921b05	-0.0713406
53	0x3d56b610	0.052419722
54	0x3d84d602	0.06486131
55	0x3df93173	0.12167635
56	0xbcd251c2	-0.02567375
57	0x3e03e3c2	0.12879851
58	0xbdd02eb8	-0.10165161
59	0xbd31fd57	-0.043454494
60	0x3d488611	0.04895598
61	0x3d6a6cc4	0.057232633
62	0x3dacbba5	0.08434228
63	0xbdb03876	-0.08604519

gkf.gat_rnn.fc_r.0.weight f4 [64, 1]
0	0x3f23fd2f	0.640582
1	0xbf71b923	-0.9442312
2	0xbf2c01f6	-0.6719049
3	0xbd89a34f	-0.06720602
4	0xbf7b3695	-0.9813016
5	0xbf7573a8	-0.958796
6	0xbf626fb7	-0.88451713
7	0x3f55ba14	0.8348706
8	0x3e4fd0a2	0.20294431
9	0xbea368ca	-0.31915885
10	0xbd5dbc09	-0.054134402
11	0xbf5e1590	-0.8675165
12	0xbf721108	-0.9455724
13	0xbf36690f	-0.71254057
14	0xbf7bc2b9	-0.98344
15	0x3f347d94	0.70504117
16	0xbeb5ae8b	-0.35484728
17	0xbe83ac9a	-0.25717622
18	0xbf5ff30c	-0.87480235
19	0x3e369490	0.1783011
20	0xbe3709aa	-0.1787478
21	0xbf2fdd26	-0.6869682
22	0x3f2c145e	0.6721858
23	0x3f62ae54	0.88547254
24	0xbf36aaab	-0.7135417
25	0x3f183d47	0.594685
26	0xbe20df0c	-0.15710086
27	0xbc568fa3	-0.013095769
28	0x3ee21166	0.441539
29	0xbe41b8b3	-0.18918113
30	0x3f615f1e	0.8803576
31	0x3f1f055c	0.6211755
32	0xbf2a5557	-0.6653647
33	0xbf1fa244	-0.6235697
34	0xbf815684	-1.0104527
35	0x3ea3a549	0.3196204
36	0xbf43464d	-0.76279145
37	0xbf59b180	-0.8503647
38	0xbf24e809	-0.6441656
39	0xbf7f276c	-0.9966953
40	0xbf512f65	-0.81712943
41	0x3f6d1e95	0.9262479
42	0x3f12977a	0.57262385
43	0x3f652314	0.8950665
44	0xbefb4f1d	-0.49083796
45	0xbed3554d	-0.41276017
46	0xbeaea69a	-0.34111482
47	0x3d0b4715	0.034003336
48	0xbf36dfc5	-0.71435195
49	0x3e1ffcbc	0.15623754
50	0xbf25e8d6	-0.64808404
51	0x3e1e0e06	0.15435037
52	0x3f70598d	0.93886644
53	0x3e2c26c4	0.16811663
54	0x3f465710	0.77476597
55	0xbf3b3a50	-0.7313585
56	0xbe15debd	-0.14635749
57	0xbf21015d	-0.62892705
58	0xbe107696	-0.14107737
59	0xbec50ed2	-0.3848787
60	0xbf157be8	-0.5839219
61	0xbf7c8eef	-0.986556
62	0xbebb3b05	-0.36568466
63	0x3e30cfb8	0.17266738

gkf.gat_rnn.fc_r.0.bias f4 [64]
0	0xbe0d8a13	-0.13822202
1	0xbf6bb7e8	-0.92077494
2	0x3f4531c0	0.7702904
3	0x3f42ffa7	0.76171345
4	0xbf182592	-0.5943233
5	0x3dd930fc	0.10605046
6	0x3f2b0e15	0.6681836
7	0xbf6ae3e8	-0.9175401
8	0xbf652dc0	-0.89522934
9	0x3f104992	0.5636226
10	0xbc0f1233	-0.008732366
11	0x3e9f7aa7	0.31148264
12	0xbed093b8	-0.407377
13	0x3e46d885	0.19418533
14	0x3f2eded2	0.68308747
15	0xbe4919b6	-0.19638714
16	0xbea2438a	-0.31692153
17	0xbf77ab44	-0.96745706
18	0xbe0a1526	-0.1348463
19	0x3f26dc6f	0.65180105
20	0xbf6ce60a	-0.9253851
21	0xbd7b8794	-0.061408594
22	0x3f42219a	0.7583252
23	0xbe79515c	-0.24347442
24	0xbeb4bef1	-0.35301927
25	0xbe8b58ad	-0.27216092
26	0xbed0d31c	-0.40786064
27	0x3e14920e	0.1450884
28	0xbf7326a8	-0.9498086
29	0x3ec1113e	0.37708467
30	0xbe635405	-0.2220002
31	0xbde8acca	-0.11361082
32	0xbd1e2b0b	-0.038615268
33	0x3f155431	0.5833159
34	0xbf1a97ea	-0.6038805
35	0xbf6b160b	-0.9183051
36	0xbf3769a6	-0.7164558
37	0xbf396dc7	-0.7243313
38	0xbefa8758	-0.48931384
39	0x3f4d7578	0.8025737
40	0xbf44c325	-0.76860267
41	0xbf0f2e8b	-0.55930394
42	0xbf497cf0	-0.78706264
43	0xbefdad2f	-0.4954619
44	0xbc87f21f	-0.016594945
45	0xbf19c8fe	-0.60072315
46	0x3bf33d1e	0.007423057
47	0x3eb97ab9	0.36226442
48	0xbe30f25f	-0.17279957
49	0x3ee63e3e	0.44969362
50	0x3e69a1d0	0.22815633
51	0x3f7e899c	0.99428725
52	0xbce2856d	-0.027651513
53	0x3f619b25	0.88127357
54	0x3f48faac	0.78507495
55	0x3efec732	0.4976135
56	0x3f16ace4	0.5885756
57	0xbf297dac	-0.66207385
58	0xbf259a7f	-0.6468887
59	0x3ee99248	0.45619416
60	0x3ec7927b	0.38978943
61	0x3f6c2c37	0.92254966
62	0xbe0ef0c9	-0.1395904
63	0xbe1a21db	-0.15051977

gkf.gat_rnn.fc_r.2.weight f4 [64, 64]
0	0x3dd8cdcb	0.10586127
1	0x3b7d9b8d	0.0038697452
2	0x3dfb92ea	0.12283881
3	0xbd631552	-0.055440255
4	0xbd23b2e7	-0.039965536
5	0x3c0d8c9a	0.008639479
6	0x3d927265	0.07150725
7	0xbdbe05ed	-0.09278474
8	0xbd32f5b1	-0.04369134
9	0x3dc6b5f4	0.097026736
10	0x3ce94699	0.028476046
11	0x3dbd2a93	0.09236636
12	0xbd270b36	-0.040782176
13	0xbd99c455	-0.075081505
14	0xbda52202	-0.08063127
15	0xbd47374f	-0.04863673
16	0xbdc009f2	-0.09376897
17	0x3d3af7f0	0.045646608
18	0x3d13c9f4	0.03608127
19	0xbd9a45e8	-0.07532865
20	0x3dc4a30f	0.096014135
21	0x3d1c8e8e	0.03822189
22	0x3d661825	0.05617537
23	0xbd01540c	-0.031574294
24	0x3db3ef67	0.08785897
25	0xbd84c352	-0.06482567
26	0x3da89941	0.08232356
27	0xbd762f5b	-0.060103755
28	0x3d700255	0.058595974
29	0xbd1ee25a	-0.038790084
30	0x3dd0f4b1	0.10202921
31	0xbdb07a62	-0.08617093
32	0xbcb171e9	-0.021660762
33	0xbcea50d2	-0.028602991
34	0xbd96f08c	-0.073700994
35	0xbd7c5b98	-0.061610788
36	0xbd0fde04	-0.03512384
37	0x3c58675c	0.013208237
38	0x3db6c3bf	0.08924054
39	0xbc7f86e9	-0.01559613
40	0x3dfadd2c	0.122492164
41	0xbd151242	-0.036394365
42	0xbd50ca14	-0.050973967
43	0x3c856697	0.01628427
44	0xbca2882c	-0.019840322
45	0x3d191db4	0.037381843
46	0x3df295ef	0.11845004
47	0x3d4bba13	0.049738
48	0xbdd1ce26	-0.10244398
49	0xbd1afa1f	-0.03783619
50	0xbcab5137	-0.02091275
51	0xbddf1a56	-0.10893695
52	0x3d62beeb	0.055357855
53	0x3de94ba2	0.11391379
54	0x3d9404e7	0.072274975
55	0x3b11bbc2	0.0022237157
56	0xbaf3a9c6	-0.0018590025
57	0xbd718ec1	-0.05897403
58	0xbd061760	-0.032737136
59	0x3debde1f	0.115169756
60	0xbd743e9c	-0.05963002
61	0x3ccde6ea	0.025134522
62	0xbdb84d5f	-0.08999132
63	0xbc5dd7be	-0.0135402065
64	0x3d1e11e1	0.03859127
65	0xbdac3a21	-0.08409525
66	0x3d3b4af6	0.045725785
67	0xbdae4e6c	-0.085110515
68	0xbd293b2d	-0.0413162
69	0x3dc62cfd	0.096765496
70	0x3e032ccf	0.12810062
71	0x3c995052	0.018715058
72	0xbd8359d6	-0.06413619
73	0xbdb6c206	-0.08923726
74	0xbcac5a06	-0.02103902
75	0xbd5bd50a	-0.053669967
76	0x3ddf432c	0.10901484
77	0xbda1fd7d	-0.07909677
78	0x3db020d1	0.08600009
79	0x3d609ab2	0.05483503
80	0xbce46065	-0.027877996
81	0x3df61eb9	0.12017579
82	0x3da226ec	0.0791758
83	0x3cf327b9	0.029682027
84	0xbd941fac	-0.072326034
85	0xbcde4bc3	-0.027135735
86	0x3d9b6e26	0.075893685
87	0x3e0ece9a	0.13946
88	0xbd051170	-0.032487333
89	0xbcaf8aa7	-0.02142842
90	0xbddbac22	-0.10726191
91	0x3dcb9e30	0.09942281
92	0x3e181f4b	0.14855687
93	0x3dcd3e4d	0.100216486
94	0xbd1d4459	-0.03839526
95	0x3df7fae8	0.121084034
96	0xbce7ac23	-0.028280323
97	0x3d9cfd65	0.07665519
98	0x3da9b45f	0.08286356
99	0xbd9a7a39	-0.07542843
100	0x3d28b93c	0.04119228
101	0x3d75d2d0	0.0600155
102	0xbd857a17	-0.065174274
103	0x3e019a0f	0.12656425
104	0x3ddcdedc	0.107846946
105	0x3e09af76	0.1344584
106	0x3cdaa0e4	0.026688047
107	0xbd1646be	-0.03668856
108	0xbd704af1	-0.05866522
109	0x3d642470	0.055698812
110	0xbc7609bd	-0.01501697
111	0x3e02e6ae	0.1278331
112	0x3dea3969	0.11436731
113	0x3d376db8	0.04478237
114	0xbdbcdb46	-0.092215106
115	0x3da5aedc	0.080899924
116	0x3e137114	0.14398605
117	0x3a5f5374	0.00085192104
118	0xbcf5b88f	-0.029995231
119	0xbc97cf96	-0.018531602
120	0x3d137368	0.03599873
121	0xbda890b0	-0.08230722
122	0x3da6c44d	0.0814291
123	0x3d8573d9	0.06516237
124	0xbd18062d	-0.037115265
125	0xbd0f4a0a	-0.03498272
126	0xbd4b7e98	-0.049681276
127	0x3e01979b	0.12655489
128	0x3d42c4aa	0.047550835
129	0x3cd7f535	0.026362041
130	0xbc4388f5	-0.011934509
131	0x3ca69c03	0.020338064
132	0x3de6d1fe	0.112705216
133	0x3d07d28c	0.033159778
134	0xbd8c27b0	-0.06843507
135	0x3ccfc03c	0.02536022
136	0xbd85a276	-0.065251276
137	0xbc3c9f36	-0.011512568
138	0xbdb3a6bb	-0.08772036
139	0xbc20d975	-0.009817471
140	0xba67b8b3	-0.0008839473
141	0xbda815b4	-0.082072645
142	0x3d980833	0.07423439
143	0x3db6ccba	0.08925767
144	0xbde86b76	-0.113486215
145	0x3c2fc461	0.010727973
146	0xbdbee146	-0.09320311
147	0xbd4cc1c5	-0.04998948
148	0x3ce5cbfd	0.02805137
149	0xbc123eb7	-0.008926085
150	0x3bfc40d6	0.0076981587
151	0xbd88c1ea	-0.06677611
152	0x3de4b065	0.11166457
153	0xbdac6897	-0.084183864
154	0x3bb59e78	0.0055425726
155	0x3acd6cda	0.0015672699
156	0x3d8367c5	0.06416277
157	0x3bb33dc6	0.0054700105
158	0x3d48b177	0.04899737
159	0x3bb0b7b3	0.0053929924
160	0x3d9590df	0.073030226
161	0xbb98c7c5	-0.0046624863
162	0x3d0a6f82	0.03379775
163	0x3dd31d6a	0.10308345
164	0xbd4bded1	-0.04977304
165	0xbd741d6b	-0.059598368
166	0x3da8b45c	0.08237526
167	0x3d2aa4d8	0.041661114
168	0xbe021626	-0.12703761
169	0x3ca0cb94	0.019628324
170	0xbe1403b4	-0.14454538
171	0xbdbe6d14	-0.09298149
172	0x3d2d1764	0.042258635
173	0x3d5f280e	0.05448156
174	0xbd0e6b30	-0.03477019
175	0x3dbba1b2	0.091617
176	0x3df0264e	0.11726056
177	0x3d8eae4b	0.069668375
178	0xbdf7cd8e	-0.12099753
179	0xbd8267be	-0.063674435
180	0xbca2a162	-0.019852344
181	0x3da609f0	0.08107364
182	0xbd512a5d	-0.05106579
183	0x3ca3c2d0	0.019990355
184	0x3d6833a1	0.056689862
185	0xbd99662a	-0.074901894
186	0xbdd736df	-0.10508513
187	0x3df052ad	0.11734519
188	0xbc122588	-0.008920081
189	0x3da85f81	0.08221341
190	0xbe0439a2	-0.1291261
191	0xbd91f885	-0.071274795
192	0x3d8535f0	0.065044284
193	0xbb0bd143	-0.0021334447
194	0x3d3ba329	0.0458099
195	0xbde6feb8	-0.112790525
196	0x3e05bf72	0.13061312
197	0xbd633cef	-0.055478033
198	0xbab97a48	-0.0014150823
199	0xbdc7208f	-0.09723007
200	0xbd781c57	-0.060573902
201	0xbdd7cdb1	-0.105372794
202	0xbdd054b9	-0.101724096
203	0xbc9ef971	-0.019406052
204	0xbd3f51e2	-0.04670895
205	0x3dca3509	0.09873397
206	0x3b921756	0.0044583483
207	0x3d99e989	0.075152464
208	0xbc387128	-0.011257447
209	0x3d3cca82	0.046091564
210	0x3e02dc66	0.12779388
211	0xbdfcd4ea	-0.12345298
212	0xbcd5899f	-0.0260666
213	0x3dea4c92	0.11440386
214	0xbd735471	-0.0594067
215	0xbd64e6c5	-0.05588414
216	0x3c98f0fe	0.018669602
217	0xbdb3ebb1	-0.08785189
218	0x3cbf721f	0.023369847
219	0xbd780f34	-0.060561374
220	0x3d007159	0.031358097
221	0xbcd17bb4	-0.025571682
222	0xbd83b886	-0.064316794
223	0xbd8fc722	-0.070204034
224	0x3d23c3fe	0.039981835
225	0x3d894b1b	0.06703778
226	0xbdd7cd24	-0.10537174
227	0xbdbf486d	-0.09339986
228	0xbde1886c	-0.110123485
229	0x3d8b25a2	0.06794287
230	0x3dd32b6a	0.10311015
231	0xbdec512f	-0.11538922
232	0x3d2d53f2	0.042316385
233	0x3bbe4d93	0.0058075874
234	0xbda4773e	-0.08030556
235	0x3be10022	0.006866471
236	0x3dd490f4	0.1037921
237	0x3e090e5e	0.13384387
238	0x3d7a6bfc	0.06113814
239	0xbd351058	-0.04420504
240	0xbd81832f	-0.063238494
241	0xbd9e1e6b	-0.077206455
242	0x3beb528c	0.007181471
243	0xbd175676	-0.03694769
244	0x3d890cd4	0.066919
245	0xbe12353b	-0.14278118
246	0xbc9dfb65	-0.019284913
247	0xbd0ddf3e	-0.03463673
248	0x3beaa7e7	0.007161129
249	0x3e057f0d	0.13036747
250	0x3cf49bb7	0.029859407
251	0xbc932255	-0.017960707
252	0xbd1848ff	-0.03717899
253	0xbdf6b621	-0.12046457
254	0xbdd6feb1	-0.10497797
255	0x3d1d4ade	0.038401477

gkf.gat_rnn.fc_r.2.bias f4 [64]
0	0x3d34700c	0.04405217
1	0x3df95b01	0.12175561
2	0x3c4f566a	0.01265488
3	0x3d0b355c	0.033986434
4	0xbdaa423c	-0.083134145
5	0xbd959f06	-0.07305722
6	0xbd24c2bf	-0.040224787
7	0xbd75f62f	-0.060049232
8	0xbd1ff8c0	-0.039055586
9	0xbd87c524	-0.066293985
10	0xbcd13cf3	-0.025541758
11	0xbdb812b2	-0.08987941
12	0x3d497c0e	0.049190573
13	0x3ca544ea	0.020174462
14	0x3cd1d597	0.025614543
15	0x3d57b390	0.05266148
16	0xbddd01d7	-0.107913665
17	0xbc845d0e	-0.016157653
18	0x3c39d280	0.011341691
19	0xbdef0146	-0.11670165
20	0x3d868602	0.06568529
21	0xbdd95082	-0.10611059
22	0x3de51377	0.11185353
23	0x3e117936	0.14206395
24	0x3c90c507	0.017672075
25	0xbd23a66a	-0.039953627
26	0x3de73204	0.112888366
27	0xbdb535c1	-0.08848143
28	0x3c90615b	0.017624548
29	0x3d7d3873	0.061821412
30	0x3e0f0fc6	0.13970861
31	0x3c959607	0.018260015
32	0x3c71d728	0.01476077
33	0xbaf2ede7	-0.0018534035
34	0xbdd0cc5e	-0.1019523
35	0x3d6d25c8	0.05789736
36	0xbdc47a84	-0.095936805
37	0x3c5d5d81	0.013511063
38	0xbce3e191	-0.02781752
39	0x3daf06cf	0.085462205
40	0xbd509db6	-0.050931655
41	0x3dcbbc9b	0.09948083
42	0xbcb0f12a	-0.021599371
43	0x3c1fdb64	0.009756897
44	0xbde2e5c2	-0.11078979
45	0x3e01781f	0.12643479
46	0x3ce5eb51	0.02806631
47	0xbe0275df	-0.12740277
48	0x3cbe47a3	0.023227518
49	0x3d803b47	0.06261306
50	0xbcf44172	-0.029816363
51	0x3df67b23	0.12035205
52	0x3d9ada7b	0.07561203
53	0xbcdbb742	-0.026820783
54	0x3e138091	0.14404513
55	0x3db98c9a	0.09060021
56	0xbc4922b9	-0.012276345
57	0x3b28e8a9	0.0025773442
58	0x3d10083d	0.035164107
59	0xbd21e53a	-0.039525248
60	0x3de7172a	0.11283715
61	0xbddb922c	-0.107212394
62	0xbda817d4	-0.0820767
63	0x3da363a7	0.079779916

gkf.gat_rnn.r_input_gru.weight_ih_l0 f4 [192, 64]
0	0xbdffc0f9	-0.124879785
1	0xbd3adbbb	-0.045619708
2	0xbd93a84d	-0.07209835
3	0x3d0d20d4	0.034455135
4	0x3a1a756c	0.0005892131
5	0xbdc59baf	-0.09648835
6	0x3de0ad96	0.10970609
7	0xbd8063c2	-0.06269027
8	0xbcb2d9d0	-0.021832377
9	0x3cfcbc26	0.030851435
10	0xbd8ec306	-0.069707915
11	0xbcaeae84	-0.02132345
12	0xbd65067e	-0.055914395
13	0xbd1e9df1	-0.038724843
14	0xbd5cec52	-0.05393631
15	0x3d960d02	0.073267
16	0xbd3e0d21	-0.04639924
17	0xbd87eb52	-0.06636681
18	0x3d99d967	0.07512169
19	0x3d37c651	0.044866864
20	0x3c10bf76	0.00883471
21	0x3cf662bb	0.030076375
22	0x3de22140	0.11041498
23	0xbd22d91d	-0.039757837
24	0xbdd88ce0	-0.10573745
25	0xbdf82aff	-0.12117576
26	0x3ce51708	0.027965084
27	0x3d228f9c	0.039687738
28	0x3beb9384	0.007189216
29	0xbdacc630	-0.08436239
30	0xbdd85192	-0.10562433
31	0xbdbfd009	-0.093658514
32	0x3d9c64b9	0.07636399
33	0x3c920aec	0.017827474
34	0xbda1b09b	-0.07895013
35	0xbdcdfb60	-0.100577116
36	0x3dbf1440	0.09330034
37	0x3ccbb319	0.024865674
38	0x3e126af3	0.1429861
39	0xbde3ee57	-0.11129444
40	0xbddcf52a	-0.10788949
41	0x3b18fa7f	0.0023342667
42	0x3d9b3a9f	0.075795405
43	0x3dd109bd	0.102069356
44	0x3ded1757	0.11576717
45	0x3daf18af	0.0854963
46	0x3d487d03	0.048947345
47	0xbd8d9037	-0.069122724
48	0x3e0efe23	0.13964133
49	0xbd832061	-0.0640266
50	0x3db2375f	0.087019674
51	0x3d4ce9df	0.050027724
52	0xbda75111	-0.08169759
53	0x3b9f6bd0	0.004865147
54	0xbc38f9d2	-0.011290031
55	0x3db27ab7	0.08714812
56	0x3dac3e8f	0.084103696
57	0x3cc1b96c	0.023647986
58	0xbd9946c7	-0.07484203
59	0x3ce57754	0.028011002
60	0x3dd4084d	0.10353146
61	0xbd38ec4a	-0.045147218
62	0x3dde04ea	0.10840781
63	0x3cf9b302	0.030480865
64	0x3d82889b	0.06373712
65	0x3d20e0db	0.03927694
66	0x3d9db44e	0.07700406
67	0xbdb79048	-0.08963066
68	0x3d46305d	0.048385967
69	0xbde390ae	-0.1111158
70	0xbbf93566	-0.0076052425
71	0x3dc3a8f2	0.09553708
72	0xbdd1ab38	-0.102377355
73	0xbdbfe269	-0.09369356
74	0xbd5ebb34	-0.05437775
75	0x3bbb862a	0.0057227807
76	0xbc8bffc5	-0.017089734
77	0xbdc8320d	-0.097751714
78	0x3c8a8791	0.016910346
79	0xbd04e5e8	-0.03244582
80	0xbd84d59a	-0.06486054
81	0x3b21c480	0.0024683774
82	0x3d156a36	0.036478244
83	0x3c946ab5	0.018117288
84	0xbdad6a39	-0.08467526
85	0x3d9b6814	0.07588211
86	0x3cc44d5d	0.023962671
87	0xbd585b5a	-0.052821495
88	0x3de215f2	0.11039342
89	0x3cb29422	0.02179915
90	0x3d83be29	0.064327545
91	0x3db68c57	0.089134865
92	0xbb145751	-0.0022635052
93	0x3dcdf13c	0.100557774
94	0xbaa8701b	-0.0012850793
95	0x3dcb7c01	0.09935761
96	0x3c29eee5	0.010371898
97	0x3d62a409	0.055332217
98	0x3d82467b	0.06361099
99	0xbd8a3e21	-0.067501314
100	0x3dd3da48	0.10344368
101	0x3a001033	0.00048852264
102	0x3d3bf6fb	0.045889836
103	0xbdbbfb60	-0.09178805
104	0xbd473cde	-0.04864203
105	0x3db5c0f8	0.088746965
106	0xbda30ffc	-0.07962033
107	0x3c9d1929	0.019177036
108	0x3de15b29	0.110037155
109	0xbdfd09b6	-0.12355368
110	0xbaabb636	-0.0013100568
111	0x3caee1b2	0.021347854
112	0x3d98cdda	0.07461138
113	0xbd2a9868	-0.041649252
114	0xbdf82231	-0.121158965
115	0xbd9e1a16	-0.07719819
116	0x3d16f688	0.036856204
117	0xbdc641f8	-0.09680551
118	0xbddb157c	-0.10697457
119	0xbbb90baf	-0.0056471447
120	0x3d011fa3	0.03152431
121	0xbda8dc41	-0.08245135
122	0xbd5d0a45	-0.053964872
123	0x3d8b874a	0.06812914
124	0xbdb81094	-0.08987537
125	0xbdd7914c	-0.1052576
126	0xbd1a3c3a	-0.037655093
127	0x3dc1ba11	0.094593175
128	0xbce7d98d	-0.028301978
129	0xbdae4a5b	-0.08510276
130	0xbdab076d	-0.08351026
131	0xbc5065ff	-0.01271963
132	0x3db5d3d1	0.088782914
133	0x3d3f7fe2	0.046752818
134	0xbd6cdc4d	-0.057827283
135	0xbdd96072	-0.106140986
136	0xbd8e4396	-0.06946485
137	0x3d02f0ca	0.031967916
138	0x3dbfb08b	0.09359845
139	0x3d948467	0.07251816
140	0xbc1603e3	-0.0091562
141	0x3d9547bf	0.07289075
142	0x3c68c17f	0.014206289
143	0x3cb483b3	0.022035455
144	0x3d35a255	0.044344265
145	0xbd36a8e8	-0.044594675
146	0x3cba9bbc	0.022779338
147	0x3a2c0ebd	0.00065634755
148	0x3d2ac3c1	0.04169059
149	0xbd127505	-0.03575613
150	0x3db0e404	0.086372405
151	0xbde11c52	-0.1099173
152	0x3da3c9ec	0.07997498
153	0xbdcb4633	-0.09925499
154	0xbda5aea8	-0.08089954
155	0xbd8d9c18	-0.06914538
156	0xbc292d6c	-0.010325771
157	0xbcc138f3	-0.023586726
158	0xbdeea8ec	-0.11653313
159	0x3d956f53	0.07296624
160	0x3cebe49a	0.02879553
161	0x3dfe6a81	0.12422658
162	0xbda9cc3f	-0.0829091
163	0xbdec54cf	-0.115396135
164	0x3cbc6bfc	0.02300071
165	0x3dae4f25	0.08511189
166	0x3db1410c	0.08654985
167	0x3d6eaf86	0.05827286
168	0x3ccb1adf	0.024793087
169	0x3da79bba	0.08183999
170	0xbd3b73d3	-0.045764755
171	0xbe0ac015	-0.13549836
172	0xbdc516f6	-0.0962352
173	0xbda79c44	-0.08184102
174	0x3cffb271	0.031213017
175	0x3ddc5a96	0.107594654
176	0x3d8fe231	0.070255645
177	0xbd993710	-0.074812055
178	0x3d00692e	0.031350307
179	0x3de91c1b	0.11382314
180	0x3c26a081	0.010170103
181	0xbcdb2da6	-0.026755165
182	0xbd8863de	-0.06659673
183	0xbb8a6819	-0.004223835
184	0x3dbf2851	0.093338616
185	0xbd1560b2	-0.03646917
186	0xbcc23691	-0.02370766
187	0x3d897baf	0.06713044
188	0xbd5a056c	-0.053227827
189	0xbd882f51	-0.0664965
190	0x3c9d205d	0.019180471
191	0x3dbabbca	0.09117849
192	0x3c937538	0.01800023
193	0xbc34dc4d	-0.011038852
194	0xbdce500f	-0.10073864
195	0x3d8349e7	0.0641058
196	0xba9010a6	-0.001099129
197	0xbd74a84b	-0.05973081
198	0xbde8df8d	-0.11370764
199	0xbd846883	-0.064652465
200	0xbdc10e45	-0.0942655
201	0x3ca46ec6	0.020072352
202	0x3db383f4	0.087654024
203	0xbd02bf8f	-0.031920966
204	0x3d8bec96	0.068322346
205	0xbd0443e3	-0.032291304
206	0xbd8918c6	-0.06694178
207	0xbdf89966	-0.121386334
208	0xbdb77e62	-0.089596525
209	0x3db165b6	0.08661978
210	0x3d9e78b6	0.077378675
211	0x3def5f39	0.11688084
212	0xbc9c0438	-0.01904498
213	0x3d1880c0	0.03723216
214	0xbcbe8414	-0.02325634
215	0x3e011b7c	0.1260814
216	0xbdc0b021	-0.09408594
217	0xbd2bae0a	-0.041914023
218	0xbe00280f	-0.12515281
219	0x3be22d48	0.0069023706
220	0xbdd31b1b	-0.10307904
221	0xbdc5235d	-0.09625886
222	0x3cba9ef5	0.022780875
223	0x3df557aa	0.11979611
224	0x3dc99c23	0.09844234
225	0x3da3ff76	0.0800771
226	0xbd1b6468	-0.03793755
227	0xbc2d8f27	-0.010593212
228	0xbde948ae	-0.11390816
229	0x3d9abfcf	0.07556116
230	0x3d09704a	0.033554353
231	0x3dc8498d	0.09779654
232	0xbe074808	-0.13211071
233	0xbc7ef6d1	-0.015561775
234	0xbdb369bc	-0.087604016
235	0xbdd4c236	-0.10388605
236	0xbda7751f	-0.08176636
237	0x3cfae2de	0.030625757
238	0x3d9beb39	0.076132245
239	0x3d7cfc86	0.061764263
240	0xbd45da61	-0.048303965
241	0x3d479995	0.04873045
242	0x3e0451c0	0.1292181
243	0xbb604f01	-0.0034226777
244	0xbd656af1	-0.05601019
245	0xbdca8d54	-0.098902375
246	0x3da75ef1	0.081724055
247	0xbd160a1e	-0.036630742
248	0xbdd6268d	-0.10456572
249	0x3d89c060	0.06726146
250	0x3c9b95fa	0.018992413
251	0xbd6796e2	-0.056540377
252	0xbe00c542	-0.12575248
253	0x3bde08fd	0.006775974
254	0xbd0497e6	-0.032371424
255	0xbce2e153	-0.027695334

gkf.gat_rnn.r_input_gru.weight_hh_l0 f4 [192, 64]
0	0xbcec0883	-0.028812652
1	0xbd810a34	-0.06300774
2	0xbdc21337	-0.09476321
3	0xbc83d3c1	-0.016092183
4	0xbd7b71fe	-0.06138801
5	0x3dd758e2	0.10515
6	0x3de8d80c	0.11369333
7	0xbd86f9d8	-0.06590623
8	0x3bbdce1e	0.0057923933
9	0xbdbc8ec8	-0.09206921
10	0x3d41b5be	0.047292463
11	0x3db1affd	0.08676145
12	0xbda1ab2e	-0.07893978
13	0xbd961093	-0.0732738
14	0xbc9fd207	-0.019509329
15	0x3dd0a1cf	0.101871125
16	0x3db35b44	0.08757642
17	0xbd9fdb64	-0.07805517
18	0x3cab6546	0.020922314
19	0xbdb9084c	-0.09034786
20	0x3e020206	0.12696084
21	0x3d718d2f	0.058972534
22	0xbd69c84e	-0.05707579
23	0x3d6ac81e	0.057319753
24	0x3cb12e1c	0.021628432
25	0xbd9ce6ff	-0.076612465
26	0xbde8b93f	-0.11363458
27	0x3d988410	0.07447064
28	0xbdd08fd5	-0.10183684
29	0x3d9f0c0a	0.07765968
30	0xbd38ab29	-0.045085106
31	0x3d8e971e	0.06962417
32	0x3d210c12	0.03931815
33	0x3d86d044	0.06582692
34	0xbd49e10d	-0.04928689
35	0x3d791543	0.060811292
36	0x3d12e715	0.03586491
37	0x3ba9cb98	0.005181741
38	0xbc137722	-0.009000571
39	0x3af01f3e	0.0018319858
40	0x3d7ef322	0.06224359
41	0x3d848dde	0.064723715
42	0xbd147a8b	-0.03624968
43	0xbc866f0c	-0.016410373
44	0xbd15a336	-0.036532603
45	0xbd078eba	-0.0330951
46	0x3d82fbc8	0.0639568
47	0x3deb5ccc	0.11492309
48	0x3d49885c	0.049202308
49	0xbd281c49	-0.0410426
50	0x3d90fc91	0.07079423
51	0x3de1f287	0.110325865
52	0x3cbaa079	0.022781597
53	0x3de72db9	0.11288018
54	0x3d0a85c4	0.033818975
55	0xbd078dcb	-0.03309421
56	0x3d174648	0.03693226
57	0x3d074fbf	0.033035036
58	0x3cf48d6e	0.029852595
59	0xbce739e0	-0.02822584
60	0xbdb1965e	-0.086712584
61	0xbde47a6c	-0.111561626
62	0xbd902b19	-0.0703947
63	0x3db1781a	0.08665486
64	0xbd06377f	-0.03276777
65	0xbdd25dbc	-0.10271785
66	0x3dcc1a04	0.099658996
67	0xbde4870d	-0.111585714
68	0x3cd6a7d1	0.026203068
69	0x3de27edd	0.110593535
70	0xbda03bf8	-0.07823938
71	0xbc81e454	-0.015855946
72	0x3e0af1e0	0.1356883
73	0x3dd985f7	0.10621255
74	0x3db65824	0.0890353
75	0xbc8c14ce	-0.017099764
76	0x3d9569d9	0.072955795
77	0x3d57b31a	0.05266104
78	0x3ac73ce8	0.0015200647
79	0x3dea006d	0.114258625
80	0x3cbd5908	0.023113742
81	0x3db15371	0.08658493
82	0xbdd0f144	-0.10202268
83	0x3d180d6f	0.037122186
84	0xbddc19fd	-0.10747144
85	0x3ccfad02	0.025351051
86	0x3d10852e	0.03528326
87	0x3da041b1	0.0782503
88	0x3d905dee	0.07049166
89	0xbd2903f0	-0.04126352
90	0x3d8ae7fa	0.06782527
91	0xbdf0c345	-0.11755995
92	0x3dd703ac	0.10498747
93	0x3d6e1741	0.058127645
94	0xbcb28832	-0.021793459
95	0x3d3155e9	0.04329482
96	0x3d99761f	0.07493233
97	0xbdd0255c	-0.10163376
98	0x3d93e28e	0.07220946
99	0x3ce49e87	0.027907623
100	0x3e039f70	0.1285379
101	0x3c9c11b2	0.019051407
102	0x3ca1f862	0.019771758
103	0x3ced7eec	0.028991185
104	0x3db99ca9	0.09063084
105	0xbdd4f4ac	-0.1039823
106	0x3d94ec3d	0.072716214
107	0x3d7152d8	0.058916897
108	0xbc117dd5	-0.008880098
109	0xbd9c3a0e	-0.076282606
110	0x3dc97045	0.09835867
111	0x3d96fbb7	0.073722295
112	0xbd0cc29a	-0.034365274
113	0x3c2c90a5	0.010532533
114	0xbd64ab5e	-0.05582749
115	0xbd850444	-0.06494954
116	0x3df07860	0.1174171
117	0x3d6e1caf	0.058132824
118	0x3be7c8ae	0.0070734834
119	0x3d9113c9	0.07083852
120	0x3db6a583	0.089182876
121	0x3d5e4668	0.054266363
122	0x3d30fc10	0.043209136
123	0xbdb80a48	-0.08986336
124	0xbd63d311	-0.05562121
125	0x3de92b46	0.11385207
126	0x3d59c010	0.05316168
127	0x3d0a3952	0.03374607
128	0xbda37c21	-0.0798266
129	0xbd77684a	-0.060402192
130	0xbd327963	-0.043572795
131	0x3d781b55	0.06057294
132	0xbd457d50	-0.04821521
133	0x3dbd4f5a	0.09243651
134	0xbdc0a44d	-0.09406338
135	0xbc9d4b7e	-0.019201037
136	0x3de36549	0.11103303
137	0xbd5b98a1	-0.053612355
138	0xb6ebe05c	-7.0296646e-06
139	0xbd085521	-0.03328431
140	0x3d44ef4a	0.048079766
141	0xbd835c60	-0.064141035
142	0xbdc9087b	-0.09816071
143	0xbd2f8ae0	-0.04285705
144	0x3d46ad42	0.048505075
145	0xbd10941e	-0.035297506
146	0xbdd1240d	-0.10211954
147	0xbcab22bd	-0.020890588
148	0xbd67fdeb	-0.05663864
149	0x3dd8d8d4	0.10588232
150	0xbc6f3b96	-0.014601609
151	0x3d644ae9	0.055735502
152	0x3dfe1d21	0.124079
153	0xbdaa17cc	-0.0830532
154	0x3d485555	0.048909504
155	0x3c8138fe	0.015774246
156	0x3ddb38c8	0.107041895
157	0x3b4da439	0.0031378402
158	0x3d331ed2	0.043730564
159	0xbdf754dc	-0.120767325
160	0x3ded4428	0.115852654
161	0xbdc04e74	-0.09389964
162	0x3db4daa1	0.08830763
163	0xbdb221e9	-0.08697874
164	0x3ce0d6b4	0.027446128
165	0xbb51f88c	-0.0032039015
166	0x3dafcaf3	0.08583631
167	0xbdef422d	-0.11682544
168	0x3dd9ca3e	0.10634278
169	0x3df5f63b	0.12009855
170	0x3d0477dc	0.03234087
171	0x3de8cdb4	0.1136736
172	0x3dccd58e	0.1000167
173	0x3c0fe9bf	0.008783757
174	0x3d90cd84	0.07070449
175	0x3beab1a4	0.0071622897
176	0x3cfe52b6	0.031045299
177	0xbdb374cd	-0.08762512
178	0xbd0be75a	-0.03415618
179	0xbd88aafc	-0.06673238
180	0xbd94b5d2	-0.07261242
181	0xbd9e4784	-0.07728484
182	0xbd646ffe	-0.055770867
183	0x3cde1d2b	0.027113518
184	0xbc123d18	-0.008925699
185	0x3d67af53	0.056563687
186	0x3d4881d2	0.04895193
187	0xbd119cf5	-0.035550077
188	0x3dbb6d40	0.09151697
189	0xbdb2253c	-0.08698508
190	0xbd96e168	-0.073672116
191	0x3df7616e	0.1207913
192	0x3d39557d	0.045247544
193	0x3d919558	0.07108563
194	0xbdff4d0c	-0.124658674
195	0x3d90f904	0.07078746
196	0xbdcbc2a5	-0.09949235
197	0x3cc95d7f	0.024580715
198	0xbd637e81	-0.055540565
199	0x3d3982dd	0.045290817
200	0xbd9e1cc2	-0.07720329
201	0xbde5e8f5	-0.11226074
202	0xbdd33718	-0.10313243
203	0xbdc05341	-0.093908794
204	0xbcacf4a2	-0.021112744
205	0x3ca6b977	0.020352108
206	0xbca6b79a	-0.02035122
207	0xbd33a15a	-0.04385505
208	0x3d047a98	0.032343477
209	0x3de813d4	0.11331907
210	0xbd78bb93	-0.06072576
211	0x3dba735b	0.091040336
212	0xbd880ea0	-0.066434145
213	0x3db8e370	0.09027755
214	0xbd2d4f8a	-0.042312182
215	0xbd3c0b24	-0.045909062
216	0xbd41b5b3	-0.047292423
217	0xbc8b7916	-0.017025512
218	0xbdabda96	-0.08391301
219	0x3db09e37	0.08623927
220	0xbdc79bb4	-0.09746495
221	0x3b3db8fc	0.002894937
222	0xbde277ff	-0.11058044
223	0xbd9a5c5a	-0.07537146
224	0x3cb55e36	0.02213965
225	0xbc314541	-0.010819734
226	0xbd0bdd2b	-0.03414647
227	0x3c671a21	0.014105351
228	0xbd2ba546	-0.041905664
229	0xbe080edd	-0.1328692
230	0x3bb542fd	0.0055316673
231	0x3cc45eac	0.023970924
232	0x3dda0c5f	0.10646891
233	0xbd7eef19	-0.06223974
234	0xbde0cc02	-0.109764114
235	0xbdc4c7ec	-0.096084446
236	0x3d72f58c	0.059316203
237	0xbdb08193	-0.08618464
238	0x3db0fa03	0.08641436
239	0x3d5ddbfe	0.05416488
240	0x3df04809	0.117324896
241	0xbd0bf37a	-0.034167744
242	0x3dce209f	0.10064816
243	0xbca0dc6e	-0.019636359
244	0xbc30ba60	-0.010786623
245	0x3ddf203f	0.10894822
246	0xbd92b507	-0.071634345
247	0x3ba29eae	0.0049627637
248	0x3caca8da	0.021076608
249	0x3d837429	0.0641864
250	0xbb9ffeaa	-0.0048826532
251	0xbdc1f3b3	-0.0947031
252	0xbcfbefc7	-0.030753983
253	0x3c958639	0.018252479
254	0xbdeba039	-0.115051694
255	0xbdeae120	-0.114687204

gkf.gat_rnn.r_input_gru.bias_ih_l0 f4 [192]
0	0x3e023a49	0.12717547
1	0xbd96d7b2	-0.07365359
2	0xbd8db707	-0.06919675
3	0x3d90e722	0.07075335
4	0xbc964b19	-0.018346356
5	0x3e0a5a80	0.13511086
6	0xbd88d7b0	-0.06681764
7	0x3d8e5a91	0.06950868
8	0x3d04da0c	0.03243451
9	0x3d156c91	0.03648049
10	0xbdd4e895	-0.10395924
11	0x3c5c9402	0.013463022
12	0xbbb217d1	-0.005434968
13	0xbd784619	-0.060613725
14	0x3db0913d	0.08621452
15	0x3dfdb8ba	0.123887494
16	0x3ded3d2a	0.11583932
17	0x3dbf8119	0.09350795
18	0xbbe0f75a	-0.006865424
19	0xbd7e3319	-0.06206045
20	0x3dabbcf2	0.08385648
21	0x3dcd9903	0.1003895
22	0xbd884bfa	-0.066551164
23	0x3d9eca6e	0.07753454
24	0xbd6862a4	-0.056734696
25	0xbd041fee	-0.032257013
26	0x3def986b	0.11698993
27	0x3e010fa5	0.12603624
28	0xbddfdeb3	-0.109311484
29	0x3dabbcb2	0.083856
30	0x3e065c59	0.13121165
31	0x3d20f401	0.0392952
32	0x3d82747e	0.06369875
33	0x3cc11832	0.023571108
34	0x3c5841d3	0.0131992875
35	0x3d987606	0.07444386
36	0xbd67289c	-0.056435212
37	0xb9259e0a	-0.000157945
38	0xbc8bf763	-0.017085737
39	0x3d4ca860	0.049965262
40	0xbdaddb83	-0.08489134
41	0x3d8fa47a	0.07013793
42	0xbd0c1ab5	-0.034205157
43	0x3da07f46	0.078367755
44	0x3b5d94f8	0.0033810716
45	0x3d26c1ce	0.04071217
46	0x3d583d4a	0.052792825
47	0x3d1ae267	0.03781357
48	0x3da6803c	0.081299275
49	0x3da6339f	0.08115315
50	0x3af0728d	0.0018344686
51	0xbce3efa9	-0.02782424
52	0x3d83825e	0.0642135
53	0xbde8c736	-0.113661215
54	0x3d33c5d4	0.043889835
55	0x3d9a73ac	0.07541594
56	0x3dfdbb25	0.123892106
57	0x3da57d35	0.08080522
58	0xbd8b7b99	-0.06810684
59	0xbdaadb92	-0.08342661
60	0xbcd8f6f0	-0.026484936
61	0xbdbdb72d	-0.09263454
62	0x3cec8c61	0.028875532
63	0x3dadf6cd	0.08494339
64	0x3d75278b	0.059852164
65	0xbded8993	-0.11598506
66	0x3d42e46d	0.047581125
67	0xbd5e0adf	-0.054209586
68	0xbdb57ad8	-0.08861321
69	0xbdd9c5f6	-0.10633461
70	0xbd649672	-0.05580754
71	0xbd5bccff	-0.053662296
72	0xbd940de2	-0.072292104
73	0x3db7c49a	0.08973046
74	0xbc4ec6d5	-0.012620647
75	0xbb883fd0	-0.0041579977
76	0xbca416e1	-0.02003044
77	0x3da0b83b	0.07847639
78	0xbd8ab328	-0.067724526
79	0xbd3e9313	-0.04652698
80	0xbdcfff18	-0.10156077
81	0xbd92903c	-0.07156417
82	0xbd492bd3	-0.04911406
83	0xbde2be6c	-0.11071476
84	0xbc115ba6	-0.008871948
85	0xbe1014e0	-0.14070463
86	0x3c09c5b4	0.0084089525
87	0x3d0c8a90	0.03431183
88	0x3d6bc077	0.057556596
89	0xbdc5c77b	-0.096571885
90	0xbd0eb501	-0.034840588
91	0xbd12b5d1	-0.035817925
92	0xbe01d7df	-0.12680005
93	0x3d93015a	0.07177992
94	0x3cb421bd	0.021988744
95	0x3d3b00ff	0.045655247
96	0xbcba991e	-0.02277809
97	0xbc84550c	-0.016153835
98	0x3d6bfde2	0.05761517
99	0xbd5c42a7	-0.053774502
100	0x3d13ff6d	0.036132265
101	0x3d98f4cd	0.07468567
102	0xbde708a0	-0.11280942
103	0xbd9ca03d	-0.076477505
104	0xbdad45c0	-0.084605694
105	0xbd9c431d	-0.07629988
106	0x3daed301	0.085363396
107	0xbd7ba07d	-0.06143235
108	0xbd8003ee	-0.062507495
109	0xbe089426	-0.13337764
110	0x3dc741c1	0.097293384
111	0xbd27f8c5	-0.04100873
112	0x3df3362e	0.11875568
113	0x3dd46326	0.103704736
114	0xbd937632	-0.07200278
115	0xbaeadf6d	-0.0017919369
116	0x3ccceae2	0.025014345
117	0x3ddbdd61	0.10735584
118	0xbd152f75	-0.03642221
119	0xbd053bf1	-0.032527868
120	0x3de815b8	0.113322675
121	0x3db42c7b	0.087975465
122	0xbdcbcb24	-0.099508554
123	0x3cead474	0.028665759
124	0xbdf7691e	-0.120805964
125	0x3d1fabd5	0.03898223
126	0x3d84d475	0.064858355
127	0xbd45cace	-0.048289113
128	0xbd35f63c	-0.04442428
129	0x3d79d9ee	0.06099885
130	0x3bef7d9b	0.0073086745
131	0xbdcd42aa	-0.10022481
132	0x3d2e018e	0.04248195
133	0x3cf27efd	0.029601568
134	0xbd9ecbbd	-0.07753704
135	0x3ddb4b67	0.10707741
136	0xbdb95785	-0.09049896
137	0x3d0420c8	0.032257825
138	0xbdcae3e2	-0.099067464
139	0xbe243ca8	-0.16038764
140	0x3d8532fc	0.06503865
141	0x3dda685a	0.10664435
142	0xbdb67d39	-0.08910603
143	0xbd74df87	-0.059783485
144	0xbda89883	-0.08232214
145	0xbdc651c8	-0.09683567
146	0x3bed285b	0.0072374768
147	0x3dba458e	0.09095298
148	0x3ce704fe	0.028200623
149	0xbd48de54	-0.049040154
150	0xbd7ff0ae	-0.06248539
151	0x3c889557	0.016672773
152	0xbd98e124	-0.07464817
153	0xbdce8476	-0.10083859
154	0x3cadaf36	0.021201711
155	0xbca8dc57	-0.020612879
156	0xbda0cc64	-0.078514844
157	0xbdc9b51d	-0.09848998
158	0x3de8b51e	0.1136267
159	0xbc44abf0	-0.012003884
160	0xbd0bbd05	-0.03411581
161	0xbd951a41	-0.07280398
162	0x3db5d623	0.08878734
163	0x3a949541	0.0011335985
164	0x3deebaf7	0.116567545
165	0xbd14b582	-0.03630591
166	0xbdbc35c2	-0.09189941
167	0x3dd4468a	0.10365017
168	0xbd49272d	-0.049109627
169	0x3dbbec9e	0.091759905
170	0xbb80affe	-0.00392723
171	0x3bb5f154	0.00555245
172	0xbda5f3ae	-0.08103119
173	0xbde5a5bf	-0.11213254
174	0xbd893604	-0.06699756
175	0x3d22e5e0	0.039770007
176	0xbdc2dbb1	-0.09514559
177	0xbcc80dba	-0.024420608
178	0x3c5efbc8	0.013609834
179	0x3d224fad	0.039626766
180	0xbe11022b	-0.14160983
181	0xbcdd3d32	-0.02700672
182	0xbcee138b	-0.029062053
183	0x3d1f1fc7	0.038848665
184	0xbd5d5262	-0.054033644
185	0x3debc9d9	0.11513109
186	0xbd06e69c	-0.03293477
187	0x3dd3bdff	0.10338973
188	0x3e031a20	0.12802935
189	0x3d60357e	0.054738514
190	0x3d6b9d9d	0.05752336
191	0x3e02bcb7	0.12767301
