models/with_mismatch/kalman_process_50n_local_params_5deg.pth (torch, 269538 bytes, 28 tensors)

gkf.gat_rnn.fc_delta_y_innov.0.weight f4 [64, 3]
000000 81 5c e2 3e 65 25 f5 3e 93 74 28 be d9 a3 07 3f
       0.442112 0.47880092 -0.1645072 0.52984387
000010 a8 d0 fe bd b0 f9 19 3e 53 82 8d be 41 49 a8 3e
       -0.12442142 0.15036654 -0.27638492 0.32868388
000020 30 93 0e 3f 39 1b da be ca 41 ff 3e 2f e0 1b 3e
       0.5569334 -0.42598894 0.4985488 0.15222238
000030 0c 39 e0 3e ae 3c 9b 3d 30 07 81 3e cc 3f c5 bd
       0.43793523 0.07579933 0.25200796 -0.09631309
000040 bb be dd 3e 83 24 bc 3d 4e ce 8d be 87 8d 1e 3e
       0.43309578 0.091866516 -0.2769646 0.15483676
000050 1a 70 5c be 7e 7e 7b bd 85 1e 80 be 4f 13 cd 3e
       -0.21527138 -0.06139993 -0.25023285 0.40053794
000060 1c 02 ea be 1f 49 8c be de f9 f0 bd ae 26 b5 be
       -0.45704734 -0.27399537 -0.117664084 -0.35381073
000070 b1 1a 8a 3d 6e 35 19 bf 47 80 02 3f e6 94 00 bf
       0.06743372 -0.5984715 0.50976986 -0.502272
000080 fe 12 f8 3e 75 58 a8 3d ae c8 5a be 54 79 c8 3e
       0.4845199 0.08219997 -0.21365616 0.39155066
000090 34 22 a9 3d ac a1 f3 3e 06 98 46 3d 63 91 3d be
       0.08258477 0.47584283 0.048484825 -0.18512492
0000a0 17 41 21 3e 16 cf 34 be 41 00 81 3e 66 7d 08 3f
       0.15747486 -0.17657122 0.25195506 0.5331634
0000b0 d1 56 c0 3e 2b a7 8c be 4c 8a ac 3e b8 6a 28 3e
       0.37566236 -0.2747129 0.33699262 0.1644696
0000c0 78 df 9b 3e 80 a3 b2 be 4a 57 10 bf c4 d9 67 be
       0.3044393 -0.34890366 -0.5638319 -0.22641665
0000d0 2b e8 e9 be 39 1b 02 3f 6d ca 27 3e f4 16 7f 3e
       -0.45684943 0.5082279 0.16385813 0.249111
0000e0 16 40 69 3e 5e ee 84 bc a8 94 ea 3e 1a b8 d6 be
       0.22778353 -0.016226944 0.4581654 -0.41937333
0000f0 4c 48 05 3d c6 d7 ca be b7 7e 28 3e 58 dd 4a be
       0.03253965 -0.39617747 0.16454588 -0.19810998
000100 92 51 34 3e 7f b2 0e be 9a 53 f4 3e c5 b9 b3 be
       0.17609242 -0.13935278 0.47720033 -0.35102668
000110 1e ec a9 be e7 5c ad be 40 ee 06 3f 09 75 31 3e
       -0.33187956 -0.3385994 0.5270729 0.17329802
000120 79 a9 0f 3f 0c bc f1 be 06 f8 08 bf 37 b6 e7 be
       0.5611797 -0.4721378 -0.53503454 -0.45256206
000130 c5 d3 c7 be 65 ea 76 3e 01 7b 50 3e c4 8f f4 3e
       -0.39028755 0.24112852 0.20359422 0.47765934
000140 a2 5c 84 be 5b ca ca be 45 c9 99 3e 32 ef 3e be
       -0.25851923 -0.3960751 0.3003637 -0.18645933
000150 cf 69 b9 3e 46 53 12 be ab f9 bd 3e 4a b4 e8 be
       0.36213538 -0.14289579 0.37104544 -0.4545005
000160 c2 cb 92 be 74 34 6a 3e 89 c3 f3 3d 85 dd 21 be
       -0.2867108 0.22871572 0.1190253 -0.15807159
000170 72 3c c1 3e 87 38 d0 3e cd e6 c9 be 74 c5 a8 be
       0.3774143 0.40668127 -0.394339 -0.32963145
000180 30 df 08 3f 58 e9 3e be 81 f5 3f be c0 7a 0d bf
       0.5346556 -0.18643701 -0.18745996 -0.55265427
000190 7c 78 b0 be e2 7a 30 3e 44 50 98 bd 17 3d d7 be
       -0.34466922 0.17234376 -0.074371845 -0.42038795
0001a0 f2 30 4b 3d 49 5b cf be 5d a9 f8 be 5b ec 87 be
       0.049607225 -0.40499333 -0.48566714 -0.26547512
0001b0 1a 46 01 bf fe 7e c6 be 54 d7 1c 3f c9 7b ed 3d
       -0.5049759 -0.38768762 0.61266065 0.11595876
0001c0 a7 14 3c 3e c2 aa 13 bf 30 73 c1 be 23 41 49 be
       0.18367253 -0.5768243 -0.37783194 -0.19653754
0001d0 6f c2 e0 3d 66 72 04 bf c6 34 74 be b2 27 99 be
       0.10974585 -0.5173706 -0.23848256 -0.29913098
0001e0 44 58 09 3b 03 8a 4f be 4d 96 3c bc ae 3d ca be
       0.0020957151 -0.20267491 -0.011510444 -0.39500183
0001f0 80 a2 c8 be 60 59 93 be 62 b8 3d be 40 0b f2 be
       -0.39186478 -0.28779125 -0.18527368 -0.47274208
000200 c3 f7 fe 3e 77 80 ea bd b6 66 fe 3e b2 82 53 3e
       0.49798402 -0.11450284 0.49687737 0.20655325
000210 9a 74 f8 be 37 56 c4 3e a9 60 24 be e7 b5 5e be
       -0.4852646 0.38347027 -0.16052498 -0.21749078
000220 05 6a f8 be e6 f8 14 bf 9f b0 31 3e 20 32 05 be
       -0.48518386 -0.5819229 0.17352532 -0.13007402
000230 05 7b 86 3e 02 90 f6 be 3d 9b e2 3e 22 92 e4 be
       0.2626573 -0.48156744 0.44259062 -0.4464274
000240 20 4f d5 bd 98 73 eb 3d 89 82 ab 3e a2 d8 f0 3e
       -0.104154825 0.11496657 0.33498028 0.47040278
000250 1b f4 0d 3f ee 9f f5 be 56 6d 0a 3e b8 7d 82 be
       0.554506 -0.4797358 0.13518271 -0.2548654
000260 1a 8a d1 bd a3 5c e1 be 7b 48 06 3f 62 a0 d8 be
       -0.10231419 -0.4401599 0.52454346 -0.42309862
000270 e0 27 a3 3e 6e 4c 41 3e e9 23 70 3e e2 de a1 be
       0.3186636 0.18876812 0.23451199 -0.3161536
000280 48 5e 09 3f 60 02 07 3e ac c7 b8 3d 84 b0 02 bf
       0.53659487 0.131845 0.090224594 -0.5105059
000290 10 f0 85 3e 67 92 95 bd 5d f4 87 be 47 f3 09 3f
       0.26159716 -0.07303315 -0.26553622 0.53886837
0002a0 53 4a 08 3e a1 c8 aa be 4d e7 93 be 90 62 bc bb
       0.13309602 -0.33356193 -0.28887406 -0.0057490543
0002b0 fc 4a b3 3e 97 dc 41 be 8e 77 ac be 94 ef 3d be
       0.35018146 -0.18931805 -0.33684963 -0.18548423
0002c0 89 1a e5 be 47 2c 67 3e c8 40 e9 3e 4e 57 0d bf
       -0.44746807 0.22575484 0.45557237 -0.5521134
0002d0 c4 a2 0d 3e 32 b5 a0 3e bc 5b 13 3e 96 00 5d be
       0.13831621 0.3138824 0.14390463 -0.21582255
0002e0 8a c3 9d 3e ef 92 b3 3e 6b 69 52 3e f5 28 ac bd
       0.30813247 0.3507304 0.20548026 -0.084062494
0002f0 68 23 49 be 01 58 60 3d 24 26 d0 bd 82 a1 07 be
       -0.19642413 0.054771427 -0.10163525 -0.13245204

gkf.gat_rnn.fc_delta_y_innov.0.bias f4 [64]
000000 78 c0 b6 3e 75 84 01 3f 56 fa 3c bd 3f d9 f2 bd
       0.35693717 0.5059274 -0.046137176 -0.11857843
000010 4b 26 5b bc 0d 9e 3d bd a5 8d 1f 3e 53 b6 26 3e
       -0.013375829 -0.046293307 0.15581377 0.16280489
000020 a1 82 05 bf 4d 54 55 be 1c d7 00 3f 0f 65 66 3e
       -0.5215245 -0.2083294 0.5032823 0.22499488
000030 db 6a c0 bc 00 31 b1 be 82 de a6 be 8c 96 fe be
       -0.023488453 -0.34607697 -0.32591635 -0.49724233
000040 1e 37 38 be c7 04 48 3e f9 bc c5 3e 34 33 8c 3e
       -0.17989776 0.19533072 0.38620737 0.27382815
000050 c5 12 04 bf 3c 9f b2 be 62 e4 b0 bd dd d6 0e 3f
       -0.5159114 -0.3488711 -0.086373106 0.55796605
000060 82 8b b7 3d bd a6 1a be a6 64 76 3e 71 c1 5e be
       0.08962156 -0.15102668 0.24061832 -0.2175348
000070 58 89 b9 be be 9a e2 3e 05 56 75 be fe db ca bd
       -0.36237597 0.44258684 -0.23958595 -0.099052414
000080 06 bc 10 bf 57 f0 c1 3e 31 ad e9 3e 15 6e 69 3e
       -0.565369 0.37878677 0.45639947 0.22795899
000090 2b 2c ce be 5b de 10 bf b2 b5 ee be 4c a2 e3 3e
       -0.40268072 -0.5658929 -0.46622998 0.4445976
0000a0 8f b1 95 3e 0e 8a ff 3e d8 01 9b 3e ff fc 1d 3e
       0.2923703 0.49910015 0.30274844 0.15428542
0000b0 2b 90 9c bc 55 9c e1 be cc cd f1 be 58 a0 07 bf
       -0.019111713 -0.44064584 -0.47227323 -0.5297904
0000c0 2c d8 7a 3e 1f 8a 87 be f7 4d ed bd dd ae aa be
       0.24496526 -0.26472566 -0.11587136 -0.33336535
0000d0 98 55 c5 bd b1 eb c9 be 1f 55 be be f7 a5 5c 3e
       -0.09635466 -0.3943763 -0.37174317 0.21547686
0000e0 dc b4 27 be a8 70 b8 3e 0e 99 33 be 4b 11 d5 be
       -0.16377586 0.3602345 -0.17538854 -0.41614756
0000f0 df f2 a3 bd c1 e1 86 be 7f a3 33 be f9 4c 0a bf
       -0.08005308 -0.26344112 -0.17542838 -0.540237

gkf.gat_rnn.fc_delta_y_innov.2.weight f4 [64, 64]
000000 89 6f af 3d 09 1d 9d bd dc fd 8b 3d 8d 04 7a 3d
       0.085661955 -0.07671554 0.06835529 0.061039496
000010 91 df ce 3d 6f dd ad bd 1c 7a c1 3d 0a a0 61 bd
       0.10101236 -0.08489501 0.09447119 -0.055084266
000020 de 9b 1a 3d c5 95 e2 3d 84 80 37 bc 4d 9d 6d 3b
       0.037746303 0.110637225 -0.011200074 0.0036257089
000030 a6 ca 41 bc 2d 04 e4 bd 6b 5a 9d 3d 8a b0 f9 bd
       -0.0118281 -0.11133609 0.076832615 -0.12191875
000040 fc 04 99 3d a2 02 c5 3d ae a7 07 3e 2a ec 81 bc
       0.07471654 0.09619643 0.13247558 -0.015859682
000050 83 bb e3 bd c6 9d b8 3c 47 e2 95 3d 48 39 eb bd
       -0.111197494 0.02253617 0.073185496 -0.11485535
000060 7b 43 c8 bc c8 7b 94 bd c0 06 b4 3b b3 8b 81 bd
       -0.02444624 -0.07250172 0.0054939687 -0.06325474
000070 87 3c 39 bd f5 cb 19 bd 62 b7 e8 bd 52 6e d6 3d
       -0.04522374 -0.037548024 -0.113631025 0.10470261
000080 1a 4b e2 3d 59 c9 8b bc b7 68 86 bc 80 60 62 bd
       0.11049481 -0.017063783 -0.016407354 -0.05526781
000090 fa 13 d5 bd 99 e9 e6 bd a7 f5 2b 3d b7 b2 8f bd
       -0.10404201 -0.11275024 0.04198232 -0.07016509
0000a0 09 a8 a2 bd d0 3b 52 bc 1c 86 21 bd ff b5 e8 bc
       -0.079422064 -0.012831643 -0.039434537 -0.028407095
0000b0 d8 ba f1 3b fd b9 29 bd dd 4a 1a bd e1 d4 81 bd
       0.00737701 -0.041437138 -0.03766905 -0.063394316
0000c0 8b 20 bb bd cf 44 fb 3d 4b 29 56 bd a6 68 04 3d
       -0.091370665 0.122689836 -0.052285474 0.032326363
0000d0 0d 6d f2 bc bc 28 51 3c 07 0b f1 3d e1 f5 7f 3d
       -0.029593015 0.0127660595 0.117696814 0.062490348
0000e0 a7 d9 ee bd 6a ef 81 3d 57 29 de 3d cc da 51 3d
       -0.11662608 0.06344493 0.10847729 0.05123405
0000f0 f7 63 cf 3d b8 8c 05 3e 4d bf 65 bc 2a 6b 67 3c
       0.10126489 0.13041961 -0.01402266 0.014124671
000100 7e 69 94 bd 21 da f0 bb 1d 03 df 3d d0 7a 97 3d
       -0.072466835 -0.0073502217 0.10889266 0.073964715
000110 3c 8f 88 bd 07 99 b5 bd d4 1d 9f bd 37 50 b5 bd
       -0.06667945 -0.08867078 -0.07769361 -0.088531904
000120 f6 28 bc bd b7 55 e4 bc e1 ac db 3d 68 66 75 3d
       -0.091875 -0.027872903 0.107263334 0.059912115
000130 7e 1c a5 bd 16 a2 c6 bd 54 b5 a3 3d be d8 b1 bd
       -0.08062075 -0.09698884 0.0799357 -0.086839184
000140 e9 af de bc c2 f4 af 3d b4 2d 11 bd 85 8b 7a bb
       -0.02718349 0.08591606 -0.035443977 -0.0038230133
000150 75 a4 bf bc eb 43 d2 bc d7 9e 8b bd 13 70 c8 bd
       -0.023393849 -0.025667151 -0.06817406 -0.097870015
000160 96 7c d5 bd 3d 0f 5e bd c2 88 09 3e 70 7c 5e bd
       -0.104241535 -0.05421375 0.13431075 -0.05431789
000170 08 f2 a0 bd 7f c2 36 3d bf 14 97 3d ec 49 80 3d
       -0.07858664 0.04461908 0.07377004 0.062640995
000180 77 2d af 3d 14 32 a8 3d ae ca cf bd 50 34 98 3c
       0.085535936 0.08212677 -0.1014608 0.018579632
000190 9e 82 bb 3d 8a 28 0c bd fa ac 87 bd 59 d0 02 3e
       0.091557726 -0.03421835 -0.066247895 0.12774791
0001a0 af 8b bf bc 71 f6 7e bd 0c f9 ad bd 65 84 a1 3c
       -0.023382036 -0.062246744 -0.084947675 0.019716451
0001b0 ec f3 81 3d cf 3b d7 3c 58 78 84 3c c8 1c b9 bd
       0.063453525 0.026273636 0.016170666 -0.09038693
0001c0 97 53 c5 bd 59 06 1e 3c 5f 49 db 3d b2 4e 9f 3d
       -0.09635084 0.009645068 0.10707354 0.07778682
0001d0 71 a4 78 bd 8a 4c fd bb 9b 56 b6 bd 6d b7 c8 bc
       -0.0607037 -0.0077300714 -0.089032374 -0.024501527
0001e0 1e 35 66 3c 22 d1 a0 3d 5a fb da 3d b2 46 f8 bd
       0.01405075 0.07852389 0.10692473 -0.12122859
0001f0 56 1a cf 3d 2c 49 9a bd 1a 27 15 3d 69 e7 b2 3d
       0.10112445 -0.07533488 0.036414243 0.08735544
000200 65 7d a2 3c 1d 10 04 3e 8a 99 df bd 14 27 5d bd
       0.019835183 0.12896772 -0.10917957 -0.053992346
000210 e1 d2 be 3d ac e8 d1 bc fa 64 0c bd 02 fe 41 bd
       0.09317566 -0.025623642 -0.034275986 -0.04736138
000220 40 1a 9e 3d e8 30 56 3d a3 09 5a 3d 6e 2c 71 bd
       0.077198505 0.052292734 0.053231847 -0.058880262
000230 cf 4c a9 bd 5e 51 71 3b 26 2a 83 3d 3e c3 79 bd
       -0.08266603 0.003682218 0.064045236 -0.060977213
000240 b3 49 15 bd 1f 5b 96 3d 88 e3 ec 3c 15 ac 34 3c
       -0.03644724 0.07341599 0.02891709 0.011027356
000250 c9 fa 9d bc 9a 1d fa bd 6b f1 dc bd 49 39 83 bd
       -0.019284623 -0.12212677 -0.10788234 -0.06407411
000260 49 12 69 bd 64 ce b3 3c 60 75 b9 bc 02 fb 5e bd
       -0.056902204 0.021949 -0.022638977 -0.0544386
000270 76 4f 10 3e b3 09 ac 3c a7 20 e2 3d 00 f6 54 bd
       0.14092812 0.021000719 0.11041384 -0.051992416
000280 25 ea 0f bd 44 69 cc 3c eb ea cf bd 0b 9a c8 bd
       -0.035135407 0.024952538 -0.10152229 -0.09795006
000290 a0 4b d7 bc 65 2f 00 bd 8e cf d0 bd cf a6 6e 3d
       -0.026281178 -0.0312952 -0.10195838 0.05826455
0002a0 4a fd ba 3d 13 d8 23 3b f4 a4 ee bc e8 38 e1 bd
       0.09130342 0.0025000616 -0.02913139 -0.10997182
0002b0 d6 39 4d bd 5b 37 a5 3c 25 a5 ae 3d 38 30 b1 bc
       -0.050103985 0.020167997 0.085275926 -0.021629438
0002c0 64 aa 1d bd 08 61 ae 3d 2f 09 c0 bd 1c 6d 9a 3d
       -0.038492575 0.08514601 -0.09376752 0.07540342
0002d0 fa 77 ce bc 04 28 ac b9 60 77 3d bc 87 ff b5 3c
       -0.025203694 -0.0003283621 -0.011564106 0.022216571
0002e0 9d fd 40 bd 62 0e c4 3d c3 77 70 bc 9e 10 da 3d
       -0.047116864 0.09573056 -0.014676991 0.10647701
0002f0 e3 c6 14 3e 98 a7 9b bd 06 70 a6 bd 0e fc bf 3d
       0.14528994 -0.07600325 -0.081268355 0.093742475
000300 05 4c bd 3d b0 94 ca bd ad 4a 7f 3a 8f 2a ed bd
       0.09243015 -0.09891641 0.00097386056 -0.11580383
000310 95 a1 d8 bd 79 92 cb 3c 60 e4 1d 3d 0b 17 05 3d
       -0.10577694 0.024850117 0.038547873 0.03249268
000320 7e 4b 05 bd bc a7 f0 3d 6c b9 83 3c bd 82 94 bd
       -0.032542698 0.11750743 0.016079627 -0.07251499
000330 85 5f 98 bc 1c a6 08 3d 94 70 12 3d a1 a8 a9 bd
       -0.018600235 0.03336154 0.035751894 -0.082841165
000340 a4 8d 30 3d df 62 81 bd 9a 1a de bd 04 30 a4 bd
       0.04310383 -0.06317686 -0.108449176 -0.08016971
000350 0a 7f 08 3e 74 d1 e2 3d a2 af de 3d 65 a5 a4 3d
       0.13329712 0.11075106 0.10873343 0.08039359
000360 f8 45 ba 3d 6c 87 54 bc d0 c3 9c bd 45 05 8b 3d
       0.09095377 -0.01297174 -0.07654536 0.067881145
000370 9d 24 87 bd a3 a4 a6 bd 14 5a 04 bd 9c ea c1 3c
       -0.0659878 -0.08136871 -0.032312468 0.02367144
000380 9b 0c 7b 3d 76 e6 3a bd 33 ca 96 bd 3d 69 84 3c
       0.06129132 -0.04562994 -0.07362785 0.016163463
000390 62 cf 88 bd 8c 9d c5 bd b9 fe 8b 3d 10 39 9f bc
       -0.0668018 -0.0964919 0.06835694 -0.01943639
0003a0 4e ba ec 3d bb 54 f9 3d 41 4d 1e 3d 76 59 2b 3d
       0.11558972 0.12174364 0.038647894 0.041833363
0003b0 6d ed 0f 3d 0c bd 86 3b cb 73 58 bb 56 fd cf 3b
       0.035138536 0.0041118916 -0.0033028002 0.0063473387
0003c0 5d a7 5c 3d b7 67 df 3d 6b cd 00 bd 5b 0a 42 bd
       0.053870548 0.10908454 -0.0314459 -0.047373157
0003d0 d5 47 0d bd cf 29 5a bd cc b6 e4 3c 31 2a cd 3d
       -0.034492332 -0.053262528 0.027919196 0.10017813
0003e0 8c f4 c8 3d fa d1 3a 3d 38 98 ba bd 14 34 a4 bd
       0.098122686 0.045610406 -0.09111065 -0.080177456
0003f0 c6 e6 10 bd 63 49 6b bc a5 e3 dc 3b b0 b7 e4 bd
       -0.035376333 -0.0143607585 0.0067410045 -0.11167848

gkf.gat_rnn.fc_delta_y_innov.2.bias f4 [64]
000000 48 df 16 3c f4 84 9c 3d 78 c9 b9 3c ad fc c0 bd
       0.009208508 0.07642546 0.022679076 -0.09423194
000010 c9 ea 5c 3d 2d 4d 90 3d 78 ae 63 bd 1b 90 8e bd
       0.053934846 0.0704597 -0.05558631 -0.0696108
000020 cc 66 93 bd 72 23 4b bd 6d a0 aa bc 52 1d 4f 3c
       -0.07197341 -0.04959435 -0.02082845 0.012641268
000030 7a 9c f7 3b bd 39 da bc 5f b5 8b 3d d3 e5 2f 3c
       0.0075564953 -0.02663886 0.06821703 0.010735947
000040 af 23 81 bd 02 26 24 bd 27 bc 9e bd 86 9b 2e bd
       -0.06305634 -0.04007531 -0.07750731 -0.042628787
000050 1a 65 d7 bd 69 61 73 3b c0 a1 d2 bd 88 a8 5e 3d
       -0.105173305 0.0037136918 -0.102847576 0.054359943
000060 f5 56 d4 3d 99 e7 d8 bd 95 69 89 bd eb 5f db bd
       0.10368148 -0.10591049 -0.06709591 -0.10711654
000070 01 be f8 3c 39 24 06 3c 33 3e 5b bd 93 43 ba 3d
       0.030364038 0.008187347 -0.053526115 0.0909492
000080 9a 61 76 3d 87 2f ba bd c7 ba 00 3c 71 13 2f bd
       0.060151674 -0.09091096 0.007857031 -0.04274315
000090 bd e3 bf bb e2 f0 99 3d 58 ca 90 bb 6d 0b b8 bd
       -0.005856006 0.07516648 -0.0044186525 -0.08986554
0000a0 9e 39 a7 3d 9c 7e ce bd d1 77 19 bd f5 06 6d 3d
       0.081652865 -0.100827426 -0.03746778 0.057867963
0000b0 29 e3 fd 3d a3 dc 08 3e 58 bf d2 bc 37 ff 1b 3d
       0.12396843 0.13365416 -0.025726005 0.03808519
0000c0 e1 f7 b7 bd 60 2d 14 bc 28 6e a3 bc 9f ed 51 3d
       -0.08982826 -0.009044021 -0.019949988 0.051252004
0000d0 cc 33 6b bd 02 80 0f 3d 23 db 78 3d ee 61 f4 3d
       -0.057422444 0.035034187 0.06075586 0.11932741
0000e0 d6 cd 99 bc ca 6f ff 3d 79 87 db bd 6c ba 2a bd
       -0.018774908 0.12472494 -0.10719199 -0.041681692
0000f0 4f 62 6d 3d 53 32 0d 3d 20 b9 98 3d 3d d6 ae bd
       0.057955083 0.03447182 0.07457185 -0.085369565

gkf.gat_rnn.fc_r.0.weight f4 [64, 1]
000000 3e 02 1e 3f 9b 41 73 bf 8c a8 2c bf 5a 00 b0 bd
       0.6172217 -0.9502198 -0.6744468 -0.08593817
000010 ea 63 7c bf 14 49 75 bf 57 82 63 bf 66 38 50 3f
       -0.98589957 -0.95814633 -0.8887076 0.8133606
000020 c9 ed 70 3e 8a 96 9f be e5 10 70 bd 18 d8 60 bf
       0.23528208 -0.3116954 -0.058609862 -0.8782973
000030 62 96 72 bf 6d 92 36 bf c5 96 7a bf ea 9e 29 3f
       -0.94760716 -0.7131718 -0.97886306 0.6625811
000040 0c 9b b9 be 2b 63 86 be 37 dd 5f bf 21 24 30 3e
       -0.36251104 -0.26247534 -0.8744692 0.17201282
000050 97 7b 16 be d0 4c 32 bf dd 15 26 3f 85 23 5a 3f
       -0.14695583 -0.69648457 0.6487711 0.8521045
000060 29 f5 37 bf 6d e2 17 3f 14 08 29 be a6 df 80 bb
       -0.7185846 0.59329873 -0.16506988 -0.003932911
000070 08 53 df 3e c5 fa 3c be a4 0f 5a 3f 7b 14 20 3f
       0.43618035 -0.18455036 0.85180116 0.6253125
000080 fa 45 29 bf e7 3d 1e bf 16 2a 80 bf 11 a5 a6 3e
       -0.661224 -0.61813205 -1.0012844 0.3254781
000090 49 7e 42 bf b3 ad 5a bf c2 6f 24 bf 63 84 7d bf
       -0.75973946 -0.85421294 -0.6423303 -0.9903013
0000a0 3f e7 50 bf aa 17 67 3f cf 87 13 3f c7 73 65 3f
       -0.81602854 0.90270483 0.576291 0.8962979
0000b0 6a 9d fc be 46 74 d2 be 04 54 b0 be e2 37 4b 3c
       -0.49338847 -0.41104335 -0.344391 0.01240346
0000c0 25 0f 35 bf 4c f5 1d 3e 56 e2 26 bf fd a7 1a 3e
       -0.70726234 0.15425605 -0.6518911 0.15103145
0000d0 8c 36 6c 3f 7d 71 21 3e cb 50 3c 3f 3e 00 38 bf
       0.9227073 0.15765949 0.7356078 -0.7187537
0000e0 99 66 0f be c1 b6 22 bf 3d dd e5 bd 92 e4 c9 be
       -0.14003982 -0.6356011 -0.112238385 -0.39432198
0000f0 c3 5b 14 bf 4d 71 7b bf c9 f3 bc be b4 c9 16 3e
       -0.5795252 -0.9821976 -0.36904743 0.14725381

gkf.gat_rnn.fc_r.0.bias f4 [64]
000000 59 a5 28 be 83 c5 6b bf b3 1f 43 3f 29 bf 41 3f
       -0.16469325 -0.92098254 0.76220244 0.7568231
000010 5f df 16 bf bd 27 f4 3d 0d 96 2d 3f 78 7a 6f bf
       -0.5893459 0.11921642 0.67807084 -0.9354625
000020 15 1b 60 bf 68 bc 0f 3f 96 40 38 ba 2e db aa 3e
       -0.87541324 0.5614686 -0.0007028667 0.33370346
000030 41 57 d4 be 1d aa 4d 3e d8 b1 2d 3f b8 56 6c be
       -0.4147282 0.20084424 0.67849493 -0.23079956
000040 32 94 9e be 61 83 75 bf 6b ee 0b be 94 58 26 3f
       -0.3097244 -0.95903593 -0.13665168 0.6497891
000050 6c 91 73 bf a3 03 70 bd 94 6b 3f 3f 5d 39 8a be
       -0.9514377 -0.05859722 0.74773526 -0.2699689
000060 69 cc b5 be dd 41 8c be 05 87 ce be 8b 12 d0 3d
       -0.35507515 -0.27394 -0.40337387 0.10159787
000070 52 80 74 bf 9c de c5 3e 62 a5 76 be d4 5d e5 bd
       -0.955083 0.386464 -0.24086526 -0.11199537
000080 23 5e 6b bd a0 1d 14 3f 49 11 1c bf 92 f2 67 bf
       -0.057462823 0.57857704 -0.60963875 -0.9060451
000090 3e 9d 37 bf ab 66 37 bf f3 ee f3 be 7f 34 4c 3f
       -0.7172431 -0.71641034 -0.4764324 0.797676
0000a0 ef eb 43 bf 6c bf 14 bf c7 a4 4c bf 0d 71 fe be
       -0.7653188 -0.58104587 -0.7993893 -0.49695626
0000b0 e8 02 58 bc 77 1a 1b bf 0f ce 94 3b 8f 09 b2 3e
       -0.013184287 -0.6058726 0.0045411657 0.34772918
0000c0 24 6c 3e be b6 46 e2 3e ef ab 6c 3e cb ce 7a 3f
       -0.1859594 0.44194573 0.23112462 0.9797179
0000d0 d5 6c 09 bd 8e 7b 5f 3f fc f8 42 3f 0e 08 fc 3e
       -0.033551056 0.87297904 0.7616117 0.49224895
0000e0 79 87 12 3f db 81 27 bf c3 bd 2a bf 4a 33 e2 3e
       0.57237965 -0.6543252 -0.66695803 0.44179755
0000f0 f9 51 c2 3e cb b8 6b 3f bc d5 0b be ca e9 37 be
       0.37953165 0.92078847 -0.13655752 -0.17960277

gkf.gat_rnn.fc_r.2.weight f4 [64, 64]
000000 a8 37 bc 3d e0 18 12 ba c9 70 f7 3d ef c0 58 bd
       0.09190303 -0.00055731647 0.12082059 -0.05291837
000010 77 82 35 bd 07 55 a5 3b a2 ff 8c 3d 4b be dd bd
       -0.044313874 0.0050455364 0.068846956 -0.10827311
000020 bb af 3e bd 4a 38 c5 3d 85 cf c3 3c 4d 63 b6 3d
       -0.04655431 0.09629877 0.023902664 0.08905659
000030 b8 15 38 bd 1f d4 a0 bd 29 d7 aa bd 70 5f 83 bd
       -0.044942588 -0.07852959 -0.0834182 -0.06414688
000040 ed 34 c9 bd 4f 82 51 3d b8 72 03 3d fe 4d 8c bd
       -0.09824548 0.051149663 0.032091826 -0.06850813
000050 39 48 d5 3d 04 a5 0c 3d 4f 78 5f 3d 58 c9 3e bd
       0.10414166 0.03433706 0.054558095 -0.046578735
000060 c0 54 ab 3d fd 58 a8 bd 42 46 a9 3d 22 46 69 bd
       0.08365774 -0.08220098 0.08265354 -0.05695165
000070 91 42 33 3d 0c 48 1f bd 20 f6 b2 3d 2d e0 c9 bd
       0.043764655 -0.03888707 0.08738351 -0.09857211
000080 ae ca d1 bc 4d 78 fd bc 06 e3 9f bd a7 ea 92 bd
       -0.02560934 -0.030941153 -0.07806973 -0.07173663
000090 83 11 22 bd da 78 0f 3c d8 e1 ad 3d 6d 16 95 bc
       -0.03956748 0.008756841 0.08490342 -0.01819917
0000a0 d8 cc f1 3d 21 eb 5c bd 5a b9 87 bd 98 74 45 ba
       0.11806649 -0.053935174 -0.0662715 -0.00075323274
0000b0 c8 c7 c1 bc 7d 62 09 3d c6 13 eb 3d c9 d1 61 3d
       -0.023654833 0.03354119 0.11478381 0.055131707
0000c0 0d e8 d9 bd 6b 6c 03 bd 47 43 c6 bc 49 cb cf bd
       -0.10639963 -0.032085817 -0.024202002 -0.101461954
0000d0 58 5a 38 3d 37 6e f8 3d 13 24 8f 3d 78 c2 1c ba
       0.045008034 0.12130397 0.069893025 -0.0005979906
0000e0 d2 9d 01 ba 66 d3 81 bd 10 96 cf bc a5 8d e7 3d
       -0.00049444765 -0.06339149 -0.02534011 0.113063134
0000f0 7d 08 80 bd 5c 15 bb 3c cb 7a c0 bd 30 d2 10 bd
       -0.06251619 0.022837333 -0.09398421 -0.0353567
000100 74 a4 1c 3c 15 9c c4 bd 65 da 15 3d c5 7a d0 bd
       0.009560693 -0.09600083 0.03658523 -0.101796664
000110 b4 15 54 bd 3a 38 b4 3d df 73 f4 3d 96 28 e4 bb
       -0.05177851 0.08799787 0.11936163 -0.006962846
000120 a5 0a ae bd cb 3d cb bd 75 d9 f5 bc 67 2e 7f bd
       -0.08498124 -0.099238954 -0.030010918 -0.062300112
000130 54 e7 ca 3d 68 c7 b3 bd c4 3e 9e 3d aa ed d5 3c
       0.099074036 -0.08778268 0.07726815 0.026114304
000140 55 1b 21 bd 9c c6 d0 3d d0 4d 8f 3d ef 0c 80 3a
       -0.039332706 0.10194132 0.069972634 0.000976948
000150 87 f9 b3 bd d2 60 14 bd e7 08 30 3d eb 92 e2 3d
       -0.08787828 -0.036225148 0.04297724 0.11063179
000160 23 95 2e bd ce ef 4a bd f9 d8 fe bd 18 1c a9 3d
       -0.042622697 -0.0495451 -0.12443728 0.082573116
000170 20 66 01 3e ca e7 b7 3d 49 e3 89 bd 13 1a bc 3d
       0.12636614 0.08979757 -0.06732804 0.09184661
000180 e9 e2 18 bd 8d bd 8a 3d 51 31 94 3d b5 51 c7 bd
       -0.037325773 0.06774435 0.07235969 -0.09732381
000190 e3 bb f0 3c 3b f9 46 3d 78 37 9c bd e5 25 f1 3d
       0.029386466 0.04857753 -0.07627767 0.11774806
0001a0 92 b8 c4 3d 98 0a db 3d 94 85 00 3b 4a f5 83 bd
       0.096055165 0.1069538 0.0019610869 -0.064432696
0001b0 24 7b 8a bd 64 7a 2a 3d c9 e1 c4 bc 62 18 d8 3d
       -0.067617685 0.041620627 -0.024033444 0.10551526
0001c0 26 c5 d6 3d de dc 6b 3c bd 95 ce bd 49 77 63 3d
       0.10486822 0.014395921 -0.10087154 0.05553368
0001d0 dc b0 e9 3d 2a e1 d2 bc 58 b9 80 bd 89 19 df bc
       0.114106864 -0.025742132 -0.062853515 -0.027233856
0001e0 0f 83 b8 3c 8a 91 c1 bd 72 3e 84 3d cf 7e 65 3d
       0.022523431 -0.094515875 0.06457223 0.056029137
0001f0 61 ad 3b bd a2 dd 33 bd 1a 79 73 bd 34 32 ce 3d
       -0.045819644 -0.043912537 -0.059441663 0.10068169
000200 51 90 93 3d 17 fc 03 3d 7e 73 4f bc 36 6f c1 3c
       0.072052605 0.032222833 -0.012661813 0.0236126
000210 ff 8b ee 3d 5c fb 0a 3d fc 2c 8d bd 08 53 3a 3d
       0.11647796 0.03393112 -0.06893346 0.04548934
000220 a3 c4 6f bd 9d 78 47 bc a6 2c b0 bd ea 3c 1f bc
       -0.058537137 -0.012174753 -0.08602266 -0.009719113
000230 f0 7e 05 3b f7 63 a7 bd 82 3d 97 3d b6 24 e8 3d
       0.002036985 -0.08173364 0.073847786 0.11335127
000240 c9 84 dd bd c7 54 1a 3d e8 57 bb bd 41 0c fd bc
       -0.108163424 0.037678506 -0.09147626 -0.030889632
000250 15 39 85 3d 08 5a f4 bb f6 b1 0e 3d f5 54 2e bd
       0.06505028 -0.0074570216 0.034837686 -0.04256149
000260 a2 60 eb 3d e4 f5 78 bd 2d 67 be 3c ba b8 c4 3b
       0.114930406 -0.060781375 0.023242557 0.0060034664
000270 e1 72 a2 3d 49 15 9c 3b a6 17 96 3d af 0b f7 3c
       0.07932068 0.0047632796 0.07328729 0.030156938
000280 ed 78 98 3d f9 68 ac bb 3c 00 1a 3d 65 6a ed 3d
       0.0744494 -0.005261537 0.03759788 0.11592559
000290 ba 98 34 bd 06 0c 5f bd d3 21 b2 3d b1 96 28 3d
       -0.044090964 -0.054454826 0.08697858 0.041159336
0002a0 dd 8e f8 bd 79 eb 2c 3d 79 0d 01 be b0 75 8f bd
       -0.12136624 0.04221675 -0.12602796 -0.07004869
0002b0 8d 55 32 3d 6c 5b 82 3d 7a 09 0a bd 36 a7 c9 3d
       0.04353862 0.063650936 -0.033700444 0.09846346
0002c0 72 5d f4 3d 4e 87 bc 3d f7 79 f7 bd 3a 35 56 bd
       0.11931886 0.09205495 -0.1208381 -0.052296855
0002d0 6c 5c b6 3b 75 a0 c2 3d db 4c c3 bc 71 a3 a0 3c
       0.0055652168 0.09503261 -0.023840358 0.019609185
0002e0 fa 88 6c 3d a5 69 8c bd 55 ed 90 bd f6 c0 ee 3d
       0.05774782 -0.068560876 -0.070765175 0.11657898
0002f0 70 b3 17 bc 63 23 a7 3d 0b 8e 01 be 11 3b 50 bd
       -0.00925909 0.08161046 -0.12651841 -0.05083758
000300 9b 74 ca 3d 79 e4 8c bc 29 0f 07 3d 97 9f ec bd
       0.09885522 -0.017198788 0.032973442 -0.11553877
000310 e7 86 ed 3d 91 9a 8e bd 5f 00 73 bc 2e f7 8c bd
       0.11597996 -0.06963075 -0.014831631 -0.06883083
000320 45 ef 2c bd c3 14 f0 bd 43 39 ee bd 41 7e 08 bd
       -0.042220373 -0.1172271 -0.116320156 -0.03332353
000330 03 81 7a bd 9e 8a ad 3d 56 8f 13 bc f5 58 de 3d
       -0.06115819 0.08473705 -0.009006342 0.10856811
000340 47 db d6 bc d0 e0 ab 3c 86 46 e8 3d 15 61 c5 bd
       -0.026227606 0.020981222 0.11341576 -0.096376576
000350 77 97 66 bd 89 f7 cc 3d b5 1e b2 bc 80 e6 b6 bc
       -0.056296792 0.10008151 -0.021743158 -0.022326708
000360 83 b4 86 3b 74 b9 62 bd 27 4d 85 3b 25 16 6d bd
       0.004110874 -0.055352643 0.004068035 -0.057882447
000370 88 7d 5b 3d 6d 68 17 bd 82 e3 fb bc 50 df 13 bd
       0.053586513 -0.036964823 -0.030748133 -0.03610164
000380 5c a6 d2 3c 68 c0 5c 3d 00 b0 f5 bd 29 4c 96 bd
       0.025714092 0.05389443 -0.1199646 -0.07338745
000390 a2 18 00 be 67 5b 59 3d ee f7 b4 3d 07 c6 03 be
       -0.12509397 0.053065684 0.08836351 -0.1286851
0003a0 34 26 e0 3c 61 8a 19 3d c9 b3 5b bd 79 5c 1f 3d
       0.027361967 0.037485484 -0.053638253 0.03890655
0003b0 1f 3c b7 3d c4 9b f1 3d fe 91 40 3d e6 6c ea bc
       0.08947014 0.11797288 0.04701423 -0.02861638
0003c0 24 cf 9e bd e3 06 3c bd 45 44 dc bb 69 bf 32 bc
       -0.07754353 -0.045905005 -0.0067220055 -0.010909894
0003d0 7a 95 d0 3d 13 9d e9 bd 36 5a 97 3c 66 31 45 bd
       0.101847604 -0.11406913 0.018475633 -0.048142813
0003e0 bb f0 6e ba 12 f2 eb 3d a5 04 74 3a ae 48 fc bc
       -0.0009114851 0.115207806 0.00093085534 -0.030796375
0003f0 05 a6 4f bd ef c8 08 be d9 86 f4 bd c8 33 8b 3d
       -0.050695438 -0.133579 -0.11939783 0.06796986

gkf.gat_rnn.fc_r.2.bias f4 [64]
000000 a4 33 44 3d 55 43 d1 3d 8d 92 8f 3c 9a da 2b 3d
       0.04790081 0.10217921 0.017525936 0.04195652
000010 b2 e4 b0 bd b4 e8 b9 bd 57 6d 64 bd d0 1d 91 bd
       -0.0863737 -0.09077588 -0.055768337 -0.070857644
000020 1b 32 8f bd 42 02 90 bd 85 98 bd bc 98 8b ac bd
       -0.06991979 -0.07031681 -0.023144016 -0.08425063
000030 15 98 21 3d 76 94 a2 3c fc 24 a5 3c 4a 5e 5f 3d
       0.039451677 0.019846182 0.020159237 0.05453328
000040 ef c1 c7 bd d6 64 36 bd 95 5e 07 3c 4f ba e4 bd
       -0.09753787 -0.04452976 0.008262296 -0.11168348
000050 a9 c0 59 3d f6 85 d8 bd 02 98 98 3d ff e2 0d 3e
       0.05316225 -0.10572426 0.07450868 0.13856123
000060 ff f1 2c 3c 36 eb 54 bd e7 8f d4 3d 1e be 94 bd
       0.010555743 -0.051982127 0.1037901 -0.072628245
000070 23 93 83 3c ae f4 b1 3d 90 9b 01 3e a7 9a 2b 3c
       0.016061371 0.08689247 0.12656999 0.010473884
000080 04 a0 2e 3c 60 0f c0 3a d4 04 d3 bd 28 c1 14 3d
       0.010658268 0.001465302 -0.10303655 0.03631702
000090 ee 36 c8 bd ab a1 cf 3c a8 0d 4c bc 88 ec c4 3d
       -0.09776102 0.025345644 -0.012454428 0.09615427
0000a0 dd 78 22 bd 1e 45 b2 3d dc 9f 92 bc 98 ea d0 bc
       -0.039666045 0.08704589 -0.017898493 -0.025502488
0000b0 a8 c5 c4 bd 62 a0 fe 3d 6d cc 9a 3c df 2b d4 bd
       -0.096080124 0.12432934 0.018896306 -0.1035993
0000c0 52 43 44 3c d9 8f 54 3d 15 29 cf bc 49 19 c3 3d
       0.011978941 0.051894996 -0.025288144 0.09526307
0000d0 4e a3 a6 3d 4a 6a bd bc 0b 19 0f 3e 20 63 ce 3d
       0.08136617 -0.023121972 0.13974397 0.100775
0000e0 11 f3 85 bb cb 65 18 bb 31 e8 57 3d 79 69 02 bd
       -0.0040878137 -0.0023254033 0.05271167 -0.031838868
0000f0 79 f3 b5 3d 54 6b dd bd 4d f7 9c bd 5c 8e 86 3d
       0.08884329 -0.10811487 -0.076643564 0.06570122

gkf.gat_rnn.r_input_gru.weight_ih_l0 f4 [192, 64]
000000 84 79 f3 bd e9 b5 18 bd 23 eb 7c bd 40 cd 9c 3d
       -0.11888412 -0.037282858 -0.06174768 0.07656336
000010 64 0f 24 3c 2b 8e af bd 82 d6 dc 3d 24 53 5f bd
       0.010013435 -0.08572038 0.107831016 -0.05452265
000020 54 ed bd bc 60 f4 36 3d 63 e4 9c bd 79 cb 2b bc
       -0.023184456 0.044666648 -0.07660749 -0.010485523
000030 05 63 7e bd 48 14 1c bd 66 7e 58 bd 26 09 a9 3d
       -0.06210615 -0.03810528 -0.052854918 0.08253698
000040 c1 06 5a bd 41 02 9a bd a7 59 79 3d 27 09 06 3d
       -0.053229097 -0.07519961 0.060876515 0.032723572
000050 17 d4 f6 3b a4 0a 81 3c 11 0b fb 3d 23 2a 18 bd
       0.0075326073 0.015752144 0.1225797 -0.03714956
000060 60 b2 eb bd 4f c7 f9 bd 73 9f 03 3d 6d bd 24 3d
       -0.11508632 -0.12196218 0.032134484 0.040219713
000070 03 a3 87 3a e9 d0 c6 bd 8d a9 cf bd f2 81 b8 bd
       0.0010348264 -0.09707815 -0.10139761 -0.0900916
000080 94 f5 af 3d 8f a7 c8 3c 9c 0e a1 bd c8 e4 e2 bd
       0.08591762 0.02449396 -0.07864115 -0.11078793
000090 49 a1 85 3d 01 40 12 3c 6c eb 00 3e 65 ba e7 bd
       0.06524903 0.0089263925 0.12589806 -0.11314849
0000a0 3d 04 ca bd d0 77 82 3c ca 5b ac 3d f8 d7 b7 3d
       -0.0986409 0.015926272 0.08415945 0.0897674
0000b0 b4 1f ea 3d 78 31 b0 3d 1c 71 58 3d 63 ab a4 bd
       0.11431828 0.086031854 0.052842245 -0.08040502
0000c0 ff ad fe 3d 78 53 82 bd da a1 c1 3d 93 e2 5d 3d
       0.12435531 -0.06363577 0.09454699 0.054171156
0000d0 c0 66 ae bd be 48 94 bb 30 fd fe bb b4 df ac 3d
       -0.08515692 -0.004525273 -0.007781647 0.084411055
0000e0 ac 7c d3 3d e8 0a c5 3c 99 2f 8c bd b5 17 e4 3c
       0.10326514 0.024053052 -0.06845016 0.027843336
0000f0 4f 31 cd 3d 89 9b 71 bd 3c 47 da 3d 4c 8a f6 3c
       0.100191705 -0.05898622 0.10658118 0.030095242
000100 81 37 90 3d 76 ca 3f 3d f0 a8 aa 3d 24 30 cd bd
       0.070418365 0.04682394 0.083330035 -0.10018948
000110 d6 73 65 3d 78 a9 c7 bd 44 30 47 3c aa ee cb 3d
       0.056018673 -0.097491205 0.0121575035 0.09957631
000120 ff e7 de bd a6 8c b6 bd 52 2d 06 bd af 60 ac 3b
       -0.108840935 -0.08913545 -0.032758065 0.005260549
000130 03 a8 da bc e0 70 d4 bd d3 ee 34 3c b2 66 00 bd
       -0.026691442 -0.10373092 0.011043268 -0.031347938
000140 81 4e 31 bd 2c 8f a5 3c 63 3e 5f 3d 0d 99 77 3c
       -0.043287758 0.020209871 0.054502856 0.015112174
000150 2f 8d a0 bd 9e d9 b4 3d e1 0d a1 3c 6e 35 39 bd
       -0.07839429 0.0883057 0.019659938 -0.04521697
000160 44 b0 da 3d 58 82 d6 3c a6 1c 8e 3d 07 64 a8 3d
       0.10678151 0.0261852 0.06939058 0.08222204
000170 3b 91 ea b9 32 b4 fe 3d eb 47 92 bb a5 b8 c8 3d
       -0.00044740163 0.12436713 -0.0044641397 0.09800843
000180 23 ae a5 3c a1 86 6a 3d d6 fa 66 3d ea c9 4c bd
       0.020224636 0.0572573 0.05639156 -0.049997248
000190 ef 61 d4 3d 10 70 b9 3c 07 90 98 3d 06 71 cc bd
       0.10370242 0.022636443 0.07449346 -0.09982495
0001a0 f0 c4 38 bd 7e 22 92 3d f2 a5 a0 bd 78 50 09 3d
       -0.04510969 0.07135485 -0.078441516 0.033524007
0001b0 d5 c8 d2 3d 3d 2e d6 bd b0 42 0b bb 54 26 9a 3c
       0.10292212 -0.10458038 -0.0021249466 0.018817104
0001c0 aa 3d a1 3d 97 98 46 bd ba bc e6 bd 8b 7f 9b bd
       0.078730896 -0.048485365 -0.112664655 -0.07592686
0001d0 65 e5 e9 3c 00 13 bb bd 72 b5 da bd b6 09 02 bc
       0.028551767 -0.09134483 -0.10679139 -0.007936886
0001e0 45 60 4e 3d 5c a6 a8 bd 5a ab 37 bd f9 27 82 3d
       0.05038478 -0.082348555 -0.044841148 0.063552804
0001f0 8e 53 af bd 5e 9b ac bd 30 56 15 bd ca 3f d5 3d
       -0.08560859 -0.084280714 -0.036459148 0.104125574
000200 22 ae 1b bd b7 6a a8 bd e6 02 b0 bd 39 6e d2 bc
       -0.038007863 -0.08223479 -0.08594303 -0.025687324
000210 6f eb bd 3d 15 89 7d 3d f1 a2 f9 bc 58 8b da bd
       0.09273421 0.06189831 -0.030473204 -0.10671109
000220 b8 84 9a bd d5 b9 04 3d 9f 0c ee 3d 86 11 8b 3d
       -0.07544845 0.032403786 0.11623501 0.06790452
000230 de e9 56 bc 2a 30 89 3d 4e 30 26 3c 15 03 a3 3c
       -0.013117282 0.0669864 0.010143353 0.01989893
000240 17 84 8b 3d b8 b6 b3 bc c5 2d 2f 3d 22 68 30 3c
       0.068123035 -0.021937713 0.04276826 0.010767015
000250 39 71 0e 3d 41 1a 00 bd 47 07 a3 3d 2c d1 ef bd
       0.034775946 -0.031275038 0.079603724 -0.11709818
000260 bf af a4 3d 23 00 dc bd a8 ef b6 bd c0 cf 9c bd
       0.080413334 -0.107422136 -0.089324296 -0.07656813
000270 f6 ee 62 bc 5d 9c 75 ba 90 d0 f6 bd 1c 06 8a 3d
       -0.013850918 -0.0009369308 -0.12051499 0.067394465
000280 d1 1e 14 3d f3 52 fe 3d a7 5b b6 bd 05 2a c0 bd
       0.0361622 0.12418165 -0.089042 -0.093830146
000290 0b 01 e5 3c 0b b1 d2 3d df 82 d9 3d 87 25 57 3d
       0.027954599 0.102876745 0.10620665 0.052526023
0002a0 72 3a ca 3c dd dc 5f 3d f6 39 41 bd b9 29 ee bd
       0.024686072 0.05465399 -0.047174416 -0.11629052
0002b0 bc ac d2 bd 08 ab 9f bd 0c 9d e6 3c 03 43 df 3d
       -0.10286853 -0.077962935 0.028151058 0.10901453
0002c0 59 54 aa 3d f4 e9 a5 bd 30 d6 1b 3d 42 93 db 3d
       0.08316869 -0.08101264 0.038046062 0.107214466
0002d0 18 56 d8 3b 8e 98 e3 bc 7f 8c 95 bd 20 61 cb bb
       0.00660206 -0.027782705 -0.07302188 -0.0062066466
0002e0 e4 91 e3 3d e8 18 0f bd dc d3 7a bc 41 4c 7b 3d
       0.11111811 -0.03493586 -0.0153093 0.06135202
0002f0 f6 40 44 bd b2 dd 55 bd 27 4e 87 3c 06 2b b3 3d
       -0.047913514 -0.05221338 0.016516758 0.087484404
000300 14 38 e6 3a d2 b4 4d bc 2a ba d7 bd 17 66 a6 3d
       0.001756432 -0.012555318 -0.10533555 0.08124941
000310 cb 16 99 ba fa 42 59 bd c6 70 d8 bd 37 2d 8d bd
       -0.0011679766 -0.05304239 -0.10568385 -0.0689339
000320 8c 69 ca bd 14 ee b9 3c 09 86 c3 3d c0 ef fb bc
       -0.09883413 0.022696532 0.095470496 -0.03075397
000330 a6 73 88 3d 73 34 20 bd d6 ac 96 bd 3e bc fc bd
       0.06662683 -0.03911252 -0.073571846 -0.12340592
000340 14 11 a9 bd 8b 4e c4 3d 6f 03 aa 3d cd b9 dc 3d
       -0.082552105 0.095852934 0.08301436 0.10777626
000350 42 8d c3 bc ab 80 17 3d 9d 0d fe bb 2b 2e e1 3d
       -0.023871068 0.03698794 -0.0077530877 0.10995134
000360 83 59 b7 bd c2 31 48 bd 6b 74 09 be 4f 5d bc b9
       -0.0895262 -0.048875578 -0.13423316 -0.00035927675
000370 c5 5a df bd 31 d9 ab bd 82 1c 91 3c b0 d2 ea 3d
       -0.10905985 -0.08391035 0.017713789 0.11465967
000380 19 2c c5 3d bb a0 9b 3d e0 40 35 bd 2c 64 80 bb
       0.096275516 0.07599016 -0.044251323 -0.0039181914
000390 45 c9 fe bd 6d a8 ad 3d f6 20 2d 3d 27 7a bf 3d
       -0.12440733 0.0847939 0.042267762 0.093494706
0003a0 4e 7b 05 be a4 3e ec bc 3e 48 b7 bd f8 91 be bd
       -0.13035318 -0.028838463 -0.08949326 -0.09305185
0003b0 a6 00 b1 bd 58 1e 16 3d bb 65 95 3d 25 36 83 3d
       -0.08642702 0.03665003 0.07294794 0.064068116
0003c0 e4 12 5c bd 69 01 32 3d e0 96 08 3e 02 16 42 bb
       -0.053728953 0.043458376 0.13338804 -0.0029615168
0003d0 46 8e 6b bd 75 bc e4 bd ee 59 93 3d 96 a8 25 bd
       -0.05750873 -0.11168758 0.07194887 -0.04044398
0003e0 51 4c bf bd 93 90 72 3d 4e 50 94 3c ce 0c 81 bd
       -0.09340728 0.059219908 0.018104699 -0.063012704
0003f0 1e 8e 0a be a4 d6 85 3c 5f 3e 21 bd cf 15 0f bd
       -0.13530776 0.0163377 -0.039366122 -0.034932908

gkf.gat_rnn.r_input_gru.weight_hh_l0 f4 [192, 64]
000000 ff 07 13 bd 07 0f 58 bd 46 52 c8 bd a7 d2 8b bc
       -0.035896298 -0.052748706 -0.097813174 -0.01706822
000010 66 ea 3a bd a8 ed e5 3d 36 7c 04 3e 9a 82 b1 bd
       -0.045633696 0.1122697 0.12938008 -0.086674884
000020 a2 5b 41 ba 61 df db bd ee 6f 70 3d c3 fc c0 3d
       -0.000737602 -0.107359655 0.058700494 0.094232105
000030 30 2e 74 bd 9e 24 e0 bd cd 3f 1e bd 44 80 bb 3d
       -0.05961436 -0.10944484 -0.038635064 0.09155324
000040 e2 05 a3 3d cb 0a 78 bd 6e b5 85 3b 96 f3 c9 bd
       0.079601064 -0.060557168 0.004080466 -0.098609135
000050 df c6 f1 3d c4 04 20 3d 6c 09 26 bd 0e 6d 5e 3d
       0.1180551 0.039067045 -0.04053633 0.05430322
000060 03 8e 3a bc e1 81 9f bd 98 46 00 be a1 fb ad 3d
       -0.011386397 -0.07788444 -0.1252693 0.0849526
000070 4b 30 c6 bd 0e c3 af 3d d4 f2 0b bd 04 35 a5 3d
       -0.0967718 0.085821256 -0.034167126 0.080667526
000080 ac df 80 3d ad 3d bd 3d 99 90 3f bd f6 95 9b 3d
       0.06292662 0.09240279 -0.04676876 0.07596962
000090 ee 39 11 3d 89 16 d0 3b b9 de c8 3b 1a 39 a9 ba
       0.035455637 0.0063503426 0.0061300662 -0.0012910694
0000a0 46 f7 b2 3d 61 b4 9f 3d bc 1d 21 bd 7e e4 9a 3c
       0.0873857 0.077980764 -0.039334998 0.018907782
0000b0 03 0a f0 bc 50 9d 8f bd ab 5f 69 3d 1b 62 dc 3d
       -0.029301649 -0.07012427 0.056976 0.107609
0000c0 c7 17 83 3d cd 32 b4 bb d9 e4 af 3d 97 d5 04 3e
       0.064010195 -0.00549922 0.08588571 0.12972103
0000d0 d2 7e 16 3d 9e 55 d9 3d 67 2d 56 3d d1 9f dd bc
       0.03674204 0.10612033 0.052289393 -0.027053745
0000e0 d3 5a 40 3d 86 fe fb 3c 3d 87 35 3d 4d 5f 01 bd
       0.046961617 0.030761015 0.044318426 -0.031585027
0000f0 1c 71 ae bd f4 72 f2 bd 4b f8 a1 bd c5 17 8d 3d
       -0.08517668 -0.11838332 -0.07908686 0.06889299
000100 70 a0 e4 bc 2d 6e d7 bd 4b ba d1 3d 7e db e5 bd
       -0.027908534 -0.10519061 0.10240611 -0.112235054
000110 2e 39 a3 3c bc 2c d7 3d 1b a3 7d bd 95 ee 2e 3b
       0.019924726 0.10506579 -0.061923128 0.00266925
000120 1c b5 e9 3d 63 e6 dd 3d f9 68 aa 3d fd 55 d8 bc
       0.11411497 0.108349584 0.08320803 -0.02640819
000130 da 0a a2 3d 6e 7f 56 3d 04 1d c7 3a aa 71 e9 3d
       0.07912226 0.05236762 0.0015191142 0.11398633
000140 36 11 f9 3c 3c eb 9b 3d b9 12 cb bd 49 2f 1b 3d
       0.030403715 0.07613227 -0.099156804 0.03788689
000150 58 8d df bd ad 91 76 3c ab 9d 03 3d 71 4b 92 3d
       -0.10915631 0.01504938 0.032132786 0.071432956
000160 be d2 87 3d 56 c1 6c bd 61 32 9b 3d 87 f2 fa bd
       0.06631993 -0.057801567 0.075779684 -0.1225329
000170 34 c1 cb 3d 3a c3 71 3d 9d 5f 5b bc 6a fe 23 3d
       0.0994896 0.059024073 -0.013389495 0.04003755
000180 bb b2 86 3d 5e b2 ca bd 0e 05 bd 3d 2f 0e 13 3d
       0.06577059 -0.09897302 0.0922948 0.0359022
000190 ce f5 01 3e da 14 16 3c c7 69 0c 3c 94 9e b3 3c
       0.12691423 0.009160245 0.008570141 0.021926202
0001a0 e9 4a e9 3d 30 bd da bd 39 8c 89 3d 2f 2c 9e 3d
       0.11391241 -0.10680616 0.067161985 0.07723271
0001b0 c5 46 62 bc b3 c8 b2 bd 74 6a d2 3d cf cb 94 3d
       -0.013810818 -0.087296866 0.102742106 0.07265436
0001c0 72 96 06 bd eb 06 c4 3c fe d9 11 bd 5b 3e 3b bd
       -0.03285832 0.02392908 -0.035608284 -0.045713764
0001d0 76 5e f3 3d e1 a2 51 3d 13 95 fd 3b d6 ba 99 3d
       0.11883251 0.051180724 0.0077387183 0.07506339
0001e0 93 78 ae 3d e8 7e 72 3d db 5f 5e 3d da 13 cb bd
       0.085190915 0.05920306 0.054290634 -0.09915896
0001f0 e5 eb 6d bd ed c2 d9 3d c7 f1 06 3d bc 5e 13 3d
       -0.058086295 0.10632882 0.03294542 0.035979018
000200 0a 50 a5 bd 4d e4 6e bd bd 52 3b bd 49 99 7b 3d
       -0.08071907 -0.058323193 -0.045733202 0.06142548
000210 5a 28 5c bd 33 7b bf 3d b0 f1 a8 bd ab b3 9d bc
       -0.05374942 0.0934967 -0.08249223 -0.019250711
000220 54 55 ce 3d e1 c5 48 bd f9 c4 40 3b 96 22 27 bd
       0.10074869 -0.049016837 0.002941428 -0.040804468
000230 1c 2b 3a 3d 7b 70 73 bd 94 a4 d3 bd 6f eb 39 bd
       0.04545127 -0.05943344 -0.10334125 -0.045390543
000240 60 fb 24 3d d5 7a 0c bd 25 92 c4 bd 8f e1 c3 bc
       0.040278792 -0.03429683 -0.09598187 -0.023911266
000250 08 c1 51 bd aa b2 d9 3d 45 63 9c bc da d3 41 3d
       -0.05120948 0.106297806 -0.019090304 0.047321178
000260 bc c8 f2 3d 24 c6 b4 bd 14 5e 5d 3d a9 40 a2 3c
       0.11854693 -0.08826855 0.054044798 0.019806223
000270 af ab d1 3d bf 4f e0 ba 8e 26 0a 3d 9b 78 f8 bd
       0.10237824 -0.001711361 0.033728175 -0.12132379
000280 1b 4b f1 3d 36 bf c8 bd 15 ee d2 3d a1 e7 a1 bd
       0.11781903 -0.098020956 0.10299317 -0.07905508
000290 f0 60 04 3d 9a 08 84 3b 3d 21 b6 3d db cb fe bd
       0.03231901 0.0040293457 0.088930584 -0.12441226
0002a0 a7 42 e5 3d bd f5 e8 3d ed bf 13 3d f0 34 f3 3d
       0.111943536 0.11374996 0.036071707 0.118753314
0002b0 0f 2b cb 3d 22 11 16 3c 2c fd 96 3d 37 03 1e 3c
       0.09920322 0.009159358 0.073725075 0.009644321
0002c0 94 64 cb 3c 6b 36 ad bd d0 53 06 bd 3d ed 6d bd
       0.024828233 -0.08457645 -0.032794774 -0.058087576
0002d0 3b a6 a1 bd ab 92 a2 bd 29 6d 6f bd 86 15 38 3c
       -0.07893034 -0.07938131 -0.058453713 0.0112356
0002e0 39 0d 2c bc 1c 9e 69 3d 53 01 39 3d d2 f9 29 bd
       -0.010501199 0.05703555 0.04516728 -0.041498013
0002f0 cb 7e ae 3d b9 94 ad bd 1c 03 90 bd 25 1d 04 3e
       0.085202776 -0.08475632 -0.07031843 0.12901743
000300 d7 97 89 3d 47 64 87 3d 24 b1 00 be ac be a3 3d
       0.06718414 0.06610923 -0.12567574 0.07995352
000310 b6 09 c4 bd 5c 93 cd 3c ec 20 6b bd 0b 66 3f 3d
       -0.09572165 0.02509468 -0.057404444 0.046728175
000320 cd 4f 81 bd c0 ae ef bd 96 89 d9 bd 87 b6 b2 bd
       -0.06314049 -0.11703253 -0.106219456 -0.087262206
000330 d0 9c 44 bd 18 2f 26 3c 63 60 1f bd a5 cd 39 bd
       -0.04800111 0.010143064 -0.03891028 -0.045362134
000340 9f ef 00 3d 1e 6d e3 3d 07 30 0b bd c9 0e c0 3d
       0.03147852 0.11104797 -0.03398135 0.0937782
000350 65 6e 77 bd c8 e2 c8 3d 11 3a 43 bd 3d dc 64 bd
       -0.060408015 0.0980888 -0.0476628 -0.055874098
000360 07 7a cb bc 63 54 9f bc 5c fd b3 bd 0c 1f bd 3d
       -0.02483846 -0.019449418 -0.08788559 0.09234437
000370 69 da c7 bd 2d e2 c6 3b 3a 91 eb bd 50 f5 9b bd
       -0.09758455 0.0060694427 -0.11502309 -0.07615149
000380 b4 dd 79 3c 1f 35 78 bc 98 56 b5 bc 2b 54 b8 38
       0.015250612 -0.015149384 -0.022136018 8.789481e-05
000390 7b 4b 37 bd 1c 28 e9 bd fe 17 44 3b 8b 8a 21 3d
       -0.04474972 -0.113846034 0.0029921527 0.039438765
0003a0 52 73 b1 3d f4 e9 87 bd df 72 a8 bd 81 c0 df bd
       0.08664574 -0.0663642 -0.08225035 -0.10925389
0003b0 a1 5b 85 3d 1d 64 d0 bd a1 02 b9 3d 34 f6 43 3d
       0.065116175 -0.10175345 0.090337045 0.04784222
0003c0 5b 87 b8 3d c6 49 51 bd 4b 44 b6 3d dd 49 36 bd
       0.09010192 -0.051095746 0.088997446 -0.044504035
0003d0 aa df ef bb 3e 4d d6 3d 91 51 73 bd ea 86 fb bc
       -0.007320364 0.104639515 -0.05940396 -0.03070398
0003e0 d7 78 a8 3c ac e1 3d 3d f5 65 1f bc 44 9a b6 bd
       0.020565433 0.046357796 -0.009728898 -0.089161426
0003f0 b9 7b 08 bd b4 9d 28 3d b5 1f b5 bd ba 2f dd bd
       -0.033321116 0.041166022 -0.08843938 -0.10800119

gkf.gat_rnn.r_input_gru.bias_ih_l0 f4 [192]
000000 70 cf 04 3e 6f c5 84 bd ae 16 8c bd 2e eb 84 3d
       0.12969756 -0.0648297 -0.06840263 0.064901695
000010 4f 1c bf bc 2e d0 03 3e d4 e4 4a bd 07 bd 88 3d
       -0.023328928 0.12872383 -0.049534634 0.06676679
000020 e2 37 75 3c ec 18 19 3d 9e 1e dc bd 9c c5 30 3b
       0.014966937 0.037377283 -0.10748027 0.0026973253
000030 89 ee 80 bb 6b 7a 65 bd 1c 17 9e 3d c3 fa de 3d
       -0.0039346856 -0.05602495 0.077192515 0.10887673
000040 ef 4f f3 3d ba 37 cb 3d dc 05 ab bc d8 6c 7b bd
       0.118804805 0.099227384 -0.020876817 -0.0613831
000050 ad c8 ac 3d 45 f6 c0 3d 83 78 61 bd 41 df 8d 3d
       0.08436713 0.09421972 -0.05504657 0.06927348
000060 d5 0f 6c bd cf a9 3a bd e7 28 ca 3d 2c 93 f9 3d
       -0.057632286 -0.0455721 0.09871083 0.12186274
000070 30 a5 d3 bd e0 6e 96 3d cf 2f dc 3d 42 5e da 3c
       -0.103342414 0.073453665 0.10751306 0.026656274
000080 8a 51 6a 3d de 17 4d 3d d7 1d 5e 3b 9f fb 9a 3d
       0.057206668 0.05007159 0.0033892298 0.07567524
000090 77 07 95 bd 41 4d 14 bc d5 b4 11 bd ac 73 98 3d
       -0.072768144 -0.009051622 -0.035572845 0.07443938
0000a0 60 76 9f bd 12 63 8e 3d 47 f3 38 bd e5 b4 c7 3d
       -0.0778625 0.0695249 -0.045153882 0.097513
0000b0 02 8c c3 3b b0 0a a6 3c 8f 00 62 3d 44 5e 6e 3d
       0.005967618 0.020268768 0.055176314 0.058195367
0000c0 02 87 69 3d 4d 35 b0 3d ae 79 f1 bc e8 29 4e bd
       0.05701352 0.08603916 -0.029476967 -0.050332934
0000d0 58 a2 68 3d 4b ee f4 bd 7b a0 0b 3d 74 62 34 3d
       0.056795448 -0.11959513 0.034088593 0.044039205
0000e0 a9 2c d8 3d 94 c2 c8 3d 37 df 8c bd 87 ea 91 bd
       0.10555393 0.09802738 -0.06878512 -0.07124811
0000f0 07 e2 a1 bc a2 c5 ce bd 79 95 d6 3c 14 c0 6f 3d
       -0.019761099 -0.10096289 0.026194321 0.05853279
000100 ae c7 85 3d ab 8c 02 be 88 39 56 3d 57 ac 8a bd
       0.065322265 -0.12748973 0.05230096 -0.067711525
000110 c8 33 5c bd e0 61 c4 bd 1f cc 21 bd 3a 97 80 bd
       -0.05376032 -0.09588981 -0.039501306 -0.06278844
000120 ce fb 87 bd 07 0d c4 3d 3b 2e 88 bc e2 94 07 3d
       -0.06639825 0.09572797 -0.016623607 0.03310097
000130 ce 1b 2c bd 95 aa 97 3d 59 0a bb bd a7 95 1a bd
       -0.042018704 0.07405583 -0.09132833 -0.037740376
000140 3a 35 9c bd 63 36 a9 bd cb bf 68 bd ba 4f 00 be
       -0.0762734 -0.082623266 -0.056823533 -0.12530413
000150 c1 80 dc bb bb 07 0b be 4a 45 40 3c 60 11 81 3c
       -0.006729216 -0.13577168 0.01173527 0.015755355
000160 a9 5a 98 3d 2b 4f d0 bd cc a4 1c bd 43 d3 a8 bc
       0.07439167 -0.1017135 -0.0382431 -0.02060855
000170 f5 67 d5 bd 32 ec 89 3d b8 2b 72 3d 2a c9 4a 3d
       -0.10420219 0.06734504 0.059123725 0.04950825
000180 43 c1 c0 bc 94 8b b6 3b a9 b8 97 3d 93 9e 73 bd
       -0.023529654 0.005570838 0.07408268 -0.0594774
000190 09 fa 22 3d 5b 50 46 3d e2 f1 01 be fc 03 86 bd
       0.039789233 0.048416477 -0.12689927 -0.06543729
0001a0 fb 06 a9 bd ef c1 ca bd 04 5d 9a 3d 51 ca 77 bd
       -0.082532845 -0.09900271 0.075372726 -0.06049568
0001b0 8a 02 49 bd 30 ea fb bd 8a 40 d7 3d 31 e4 76 bc
       -0.049074687 -0.12300527 0.10510357 -0.0150690535
0001c0 0c d1 af 3d bf 65 af 3d 4b ac 76 bd ef c6 67 bb
       0.085847944 0.085643284 -0.060222905 -0.0035366376
0001d0 40 9d 77 3d 0d 86 ec 3d 9b 64 0e bd 77 6e 3f bd
       0.0604527 0.11549006 -0.034763914 -0.046736207
0001e0 50 b5 e8 3d fe fa 80 3d 8f 46 9d bd 4b 05 34 3d
       0.113627076 0.06297873 -0.076794736 0.04395036
0001f0 a7 c9 d6 bd 13 ff d1 3c 64 b4 00 3d b0 d6 70 bd
       -0.10487681 0.025634324 0.031422034 -0.058798492
000200 94 55 72 bd 3d dd 6a 3d 33 d2 16 3c 16 a1 b6 bd
       -0.059163645 0.057339896 0.009205389 -0.089174435
000210 17 d9 4f 3d be 13 1d 3d 60 25 8a bd eb 85 bd 3d
       0.050744142 0.038348906 -0.0674541 0.092540585
000220 6b fe c7 bd 43 d6 0b 3d b2 87 bb bd 08 01 05 be
       -0.09765323 0.034139883 -0.09156741 -0.12988675
000230 84 38 8f 3d 7d bb e1 3d df 11 e4 bd eb f8 9f bd
       0.069932014 0.11022089 -0.11136221 -0.07811149
000240 7c 79 89 bd ce e9 da bd 10 87 b5 bb 32 4e df 3d
       -0.067126244 -0.10689126 -0.0055397823 0.109035864
000250 95 89 23 3d 9c 86 4e bd bb ca 57 bd e4 9b e7 b9
       0.03992613 -0.050421342 -0.052683573 -0.000441759
000260 bd f1 a1 bd 63 a9 ed bd 6b 3e a5 3b a8 78 50 3b
       -0.07907436 -0.116045736 0.005042841 0.0031810198
000270 27 69 a3 bd 55 f7 c8 bd d0 f6 ff 3d 56 85 1c 3c
       -0.079790406 -0.098128 0.124982476 0.009553274
000280 96 0a e1 bc 26 08 7a bd fb 2f b0 3d 15 7f 44 3c
       -0.027470868 -0.061042927 0.086029015 0.011993189
000290 46 ab d4 3d a8 6b 12 bd 0e aa a4 bd d2 3a 9a 3d
       0.1038423 -0.0357472 -0.08040248 0.0753075
0002a0 c2 0f 2f bd 67 b7 c8 3d e4 1e 0f bc 92 26 9c 3c
       -0.042739637 0.09800606 -0.008735392 0.01906136
0002b0 86 bb a8 bd 96 fe fe bd 70 ab 6b bd c0 a6 15 3d
       -0.08238892 -0.12450902 -0.057536542 0.03653598
0002c0 99 a0 eb bd 5c 7c d6 bc 0e 20 72 bc 07 e8 08 3d
       -0.11505241 -0.026182346 -0.01477815 0.033424404
0002d0 d4 b0 0a be bb 3b 1b bd 73 56 72 bc 4b 10 82 3c
       -0.13544017 -0.03789876 -0.014791119 0.01587691
0002e0 7f 5d 18 bd 99 dd e2 3d d5 41 c0 bc 31 24 c3 3d
       -0.03719854 0.11077423 -0.023468891 0.09528387
0002f0 dc e6 d0 3d 24 e0 81 3d ee 47 3f 3d 73 cf fe 3d
       0.10200283 0.063415796 0.046699457 0.124419115
