models/with_mismatch/kalman_process_50n_local_params_r2_20deg.pth (torch, 269730 bytes, 28 tensors)

gkf.gat_rnn.fc_delta_y_innov.0.weight f4 [64, 3]
00000000: 3d8c e93e f280 f63e ac65 17be e913 063f
00000010: 740a 21be 0def 013e 23d0 8bbe 486d a93e
00000020: 251d 173f a3e3 d8be 44c3 083f 18f2 383e
00000030: dbcc dd3e ee99 a83d 7830 8b3e f299 a1bd
00000040: 1ed4 e43e 863e 2c3e 4207 8cbe 82d5 243e
00000050: da7b 83be 1e1a cbbc be70 8cbe 565d e73e
00000060: 0601 efbe a4e7 8bbe 3959 e8bd 8ab8 b9be
00000070: 5f26 d13d 8f24 1cbf 4667 053f c204 08bf
00000080: 6af9 023f 2b03 933d 87f4 5cbe 771b d13e
00000090: 1b7b a73d 8811 f63e db96 bc3d 6250 40be
000000a0: d50f 3e3e d787 2cbe 2b0c 683e 50dd 0c3f
000000b0: ec60 cd3e ee22 84be 4d95 bc3e c0c2 273e
000000c0: 4d5b a13e 9bc0 b5be a8d7 12bf e37b 48be
000000d0: b5e9 eebe fb55 0e3f c0c7 2a3e 1992 793e
000000e0: 58d8 6e3e 7686 cd3b ffa2 ee3e 3690 c9be
000000f0: b9ae bc3d c8d6 e2be 1b6a 7f3e deb3 5bbe
00000100: 4865 563e 4534 17be 7806 f93e 7382 b0be
00000110: e3a9 c0be 2b02 a4be 4d86 073f 1a33 3b3e
00000120: 014d 103f 17cd f3be 951c 0abf 058b ecbe
00000130: 2b12 c4be e508 983e 0928 523e d85a ff3e
00000140: 9db0 70be b2b9 bfbe d229 a83e d1e8 73be
00000150: 16b7 aa3e 6c31 10be 6023 d33e c80b e4be
00000160: 1fca 8abe 2d40 4a3e fbfa 033e 8cf0 15be
00000170: 0623 d63e bc6b d13e a88a d3be 328a 87be
00000180: e8b7 0b3f 6e1d 1bbe e306 5cbe e230 0fbf
00000190: f428 acbe a8cc 203e fb89 9fbd 5f5c d2be
000001a0: 3667 f63c da6a d8be fb19 ecbe c6bf 9dbe
000001b0: 3caf 00bf 7673 c6be e421 183f 78eb 073e
000001c0: 092d 7a3e 1ed3 14bf cdfe c5be 163d 4cbe
000001d0: 6157 983d 9a3b 09bf 649c 7cbe 2f98 afbe
000001e0: 09b9 c73a a4d4 3ebe 6575 89bc a921 d0be
000001f0: dc3b c5be a012 abbe 5a0c 2bbe 7719 f7be
00000200: b304 053f bd78 e8bd b430 fc3e f186 513e
00000210: bbfd f5be 0c08 cc3e ce45 e8bd 03fc 7dbe
00000220: dbe9 ebbe 8cb2 14bf b4f2 333e 54ef 1bbe
00000230: 2d9a 933e 7943 ffbe 93d1 ea3e 0ace d7be
00000240: 33ec cabd 2ec1 eb3d b21d a23e 63e7 f03e
00000250: ae46 0f3f 5dac e3be d94c 0e3e 5c84 84be
00000260: df70 9bbc fc31 e2be d40d 0b3f 569b dfbe
00000270: be02 9f3e a06b 603e 8486 703e 3025 a3be
00000280: e2ab 113f d368 4b3e 719f 0f3e f81f 03bf
00000290: 3255 b83e b0c6 97bd 47c7 8abe a7b7 0e3f
000002a0: b6a9 1c3e 0e3e 9dbe ece3 8fbe 017e 10bd
000002b0: d86e ad3e 05ac aabd d098 b6be 2eac 21be
000002c0: eaed e3be be2a 563e 1c3a e73e 5756 0fbf
000002d0: aa66 103e 301c a23e 1af6 b83d 4443 49be
000002e0: 5c1c a93e f03c b63e 9331 6b3e 3d97 bbbd
000002f0: e135 31be 91ab 713d 941b c5bd e0a6 0ebe
0.45614806 0.48145252 -0.14784878 0.5237413 -0.15726644 0.12688847 -0.27307233 0.33091187
0.59028846 -0.42361173 0.5342295 0.18061101 0.43320355 0.08232485 0.27185416 -0.07890691
0.44693083 0.16820726 -0.27349287 0.16097072 -0.2568043 -0.024792727 -0.27429765 0.45188397
-0.46680468 -0.27325165 -0.11345143 -0.36273605 0.10212397 -0.60993284 0.5211071 -0.5313226
0.51161826 0.071783386 -0.21577655 0.40841267 0.081777774 0.4806025 0.09208461 -0.18780664
0.18560727 -0.16848694 0.22660892 0.55025196 0.40113008 -0.258079 0.36832657 0.16382885
0.3151497 -0.3549851 -0.57360315 -0.19578509 -0.4666268 0.55599946 0.16677761 0.24372138
0.23324716 0.0062721325 0.4660873 -0.39367837 0.09213013 -0.4430449 0.2494282 -0.21455333
0.20937073 -0.14766033 0.48637748 -0.34474525 -0.37629613 -0.32032904 0.529393 0.18281212
0.563675 -0.4761741 -0.5394986 -0.46199813 -0.3829511 0.29694286 0.20523085 0.49873996
-0.23504873 -0.37446362 0.32844406 -0.23819281 0.33342808 -0.14081353 0.41237926 -0.44540238
-0.2710733 0.19751044 0.1288871 -0.14642543 0.41823596 0.40902507 -0.41316724 -0.26472622
0.54577494 -0.15147945 -0.21487002 -0.55933964 -0.33624995 0.1570307 -0.077899896 -0.410861
0.030078512 -0.4226902 -0.46113572 -0.30810374 -0.50267386 -0.38759965 0.59426713 0.13273418
0.24431242 -0.5813464 -0.3867096 -0.19945177 0.07438541 -0.5360657 -0.24669033 -0.34295794
0.001523764 -0.18635803 -0.01677961 -0.4065068 -0.38522232 -0.33412647 -0.1670393 -0.48261616
0.51960295 -0.11351154 0.49255908 0.20461632 -0.48045143 0.3984989 -0.11341439 -0.24803166
-0.46076855 -0.5808494 0.17573053 -0.15228015 0.28828564 -0.49856165 0.45863017 -0.42149383
-0.09908333 0.115114555 0.3166328 0.47051534 0.55967224 -0.4446744 0.13896503 -0.25882232
-0.01897472 -0.4417876 0.54317975 -0.436732 0.3105678 0.21916056 0.23488814 -0.3186431
0.569029 0.19864206 0.14025666 -0.51220655 0.360025 -0.074109435 -0.27105162 0.5574898
0.15299115 -0.30711406 -0.28103578 -0.035276417 0.3387363 -0.08333591 -0.35663462 -0.15788338
-0.44517452 0.20914742 0.4516152 -0.5599112 0.14101663 0.3166213 0.09031315 -0.19654566
0.3302945 0.35593367 0.2296813 -0.09159706 -0.1730571 0.05900151 -0.09624401 -0.13930845

gkf.gat_rnn.fc_delta_y_innov.0.bias f4 [64]
00000000: 3080 b33e b369 033f 5289 e7bc 82ce d0bd
00000010: 0968 c5bc 2034 67bc 07ea 253e 953c 423e
00000020: d216 febe f7eb 49be d5ab 003f 64c5 7b3e
00000030: 8f2a 10bd 6478 b2be 8d53 a5be aa70 ffbe
00000040: 81da 28be 7c7c 733e 9903 cf3e da7a 803e
00000050: 17bd ecbe 369e a7be 7a6b 92bd 957b 153f
00000060: 2cf5 de3d c70f f9bd 11b3 803e 635b 58be
00000070: 2c6c bcbe 3765 eb3e 27d5 68be b584 c0bd
00000080: d14f 0abf cc89 d43e 2970 f53e 4931 7c3e
00000090: 9026 ccbe dab4 0abf a587 ebbe b695 e63e
000000a0: d804 a93e 827b 043f 15cb a33e db97 2a3e
000000b0: 0d7d 88bc f329 cfbe 6a30 eebe a310 04bf
000000c0: 0b1e 843e 625a 83be c3aa 06be b8f5 aebe
000000d0: 26f2 b0bd 31b6 bfbe fca7 91be b2a7 703e
000000e0: f7d0 07be a1c4 c03e 99d4 28be 9d92 e5be
000000f0: 2f23 88bd 1764 79be 85a3 1ebe 14b1 0cbf
0.35058737 0.5133316 -0.028263722 -0.10195638 -0.02409746 -0.014111549 0.16202556 0.18968423
-0.49626786 -0.1971892 0.50262195 0.24587017 -0.035196837 -0.34857476 -0.32290307 -0.49890643
-0.16489603 0.23777956 0.40432432 0.25093728 -0.46238014 -0.32737893 -0.07149406 0.58391696
0.108866066 -0.121612124 0.25136617 -0.21128611 -0.3680128 0.45975658 -0.22737561 -0.09400312
-0.5402804 0.4151138 0.47937134 0.24628176 -0.3987317 -0.5418221 -0.46001926 0.45036095
0.33011508 0.5175096 0.31990877 0.16659491 -0.016661191 -0.40461692 -0.46521312 -0.51587886
0.2580417 -0.25654894 -0.13151078 -0.34171844 -0.08639936 -0.3744369 -0.28448474 0.2350147
-0.13263308 0.37650016 -0.1648735 -0.4483842 -0.06647336 -0.24354587 -0.15492065 -0.549577

gkf.gat_rnn.fc_delta_y_innov.2.weight f4 [64, 64]
00000000: 24d9 913d aab6 9abd 8c15 db3d a580 9d3d
00000010: e8e8 c53d f6cb 97bd ffa8 d53d caeb e23c
00000020: cdcc ea3c f57d b63d 9374 f03b 8003 803d
00000030: 1182 d0bc ba9c 0bbe b839 8c3d 9796 05be
00000040: 1892 853d 23d5 263e ffe4 0e3e 9e91 fabc
00000050: 0d24 7dbd aab5 2a38 130a 843d c1f8 c1bd
00000060: 6f0e 0dbd 9aa3 8abd d3e2 68bc 9bf7 58bd
00000070: 5ff2 f6bc 751d c7bb 3974 64bd 0cef cd3d
00000080: 9b25 d03d c854 7b3b aba8 393d 5234 9fbd
00000090: b5a0 b6bd 9f00 1fbe 6e73 093d 3fa8 80bd
000000a0: ad07 dfbc 9a58 0abc 853d ef3c 61f8 6ebc
000000b0: ad80 9a3c 56b9 4fbd 793b 00bc 489c 8dbd
000000c0: 8510 58bd d143 bd3d 613c 1abd 3bb3 333d
000000d0: 264d 16bd a21b de3c f54e 433e 5502 0d3e
000000e0: deda dcbd b3c2 6d3d 9bd1 af3d 5f39 ec3b
000000f0: 1598 b43d a830 1f3e d146 dcbc 208b fabb
00000100: dbb8 8ebd e213 f4bc 1d99 c23d b0ff a53d
00000110: 4a27 98bd f4ed a3bd df28 90bd 5c69 4ebe
00000120: 2e27 abbd 53a4 a2bb 5a45 9a3d ff2e c0bc
00000130: 5e7f 73bd d83d 83bd cc5f be3d 896d 79bd
00000140: 5b0f fdbb 6fc5 843c b700 60bd bea2 263c
00000150: 7c01 82bc 0a11 863b 2a34 61bd b54d debd
00000160: 654e c0bd cc59 90bd 9290 143e 76ee 17bd
00000170: 191c 9ebd cf41 c43c 885d a23c 54ef 983d
00000180: 71d5 dc3d 586d 893d 319d 43be 8b56 583c
00000190: fbd0 8b3d 2e37 103d 08cf 83bd 8aac 013e
000001a0: 1dea 04be 1b8d 8dbd 01d0 28be fd04 7d3c
000001b0: 7769 953d 0d5e 263d d032 033d 7fde 84bd
000001c0: efed 02be d9d5 da3c 5bed e93d 9f4b cb3d
000001d0: 34e8 79bd a67c 1f3c bf33 e5bd a5db f8bd
000001e0: 96b5 8c3c 281a a33d 6259 f83d 7737 97bd
000001f0: dd18 e73d 4586 91bd 4e11 743d 7fb0 f23d
00000200: 2dd0 70bc 198b ea3d c48f 9bbd 76da 3bbd
00000210: b9d0 9a3d ab29 29bd 1bf1 1cbd 96d5 973c
00000220: 4a34 b53d aabe 583d 5c4c 693d ada6 b6bc
00000230: 5275 f3bd 62aa f23b 6e39 173d 13f7 55bd
00000240: 05ce 53bd 0544 033e 4d23 283c a93c ffbc
00000250: e494 483d 0dfa efbd 038c 01be 15bd 77bd
00000260: 39f8 9bbd 4304 663d 7d27 81bd c4e2 58bd
00000270: 9409 123e d45d 833d 788f 1b3e 77cc 84bd
00000280: 6d9a 5ebd f169 813d 823c 38bd 2e1f a9bd
00000290: 6ec0 843c c408 8bbd d77a b1bd fab1 8e3d
000002a0: 9d1a 003e 519a b13c b572 d03c 11fd fabd
000002b0: 0fea 53bd 12a1 953c c33f d73d 074a a1bc
000002c0: 585b 8dbc 9f4f 3b3d 5b50 a8bd 87f3 963d
000002d0: 6ecc 48bd adca 313a c8c9 633d abbd a03d
000002e0: f470 3cbd e6a9 743d 54de 07bc 1142 853d
000002f0: a159 e23d 8aa0 18bd 4693 cebd f29e c33d
00000300: f836 cf3d a8a0 a9bd 1bfd 53bb 93b0 f4bd
00000310: 0edc cbbd 7402 8a3c 79c7 3c3d 2d0c 2c3d
00000320: 5fc6 f5bc 7d62 fb3d 640d 0e3d 3c17 57bd
00000330: 3219 b4bc 992d b93c 5c2a eb3c 2348 c7bd
00000340: db59 823d 577e 30bd bc22 c1bd f920 90bd
00000350: 2e54 b83d fdbd d13d 47bc f83d a68f b13d
00000360: 6c0c d93d 15fe 1fbc 533d 8fbd 1daf 8a3d
00000370: 516b 7cbd a0a4 87bd 2122 ebbc cc41 1d3d
00000380: b75d 8b3d 3341 06bd f618 e1bc 69de 0d3d
00000390: ae0d 95bd b795 f7bd 304b 863d 5d9e b3bb
000003a0: 2a7d 3f3e 48af 103e d694 7d3d 9584 373d
000003b0: 2e40 153d c294 a43c 600f 26bc e736 3a3b
000003c0: 9c4f 7d3d d313 e33d c8c7 8cbc 71ba 48bd
000003d0: f4d5 fdbc 31d6 83bd 5e5d 003d fac0 e63d
000003e0: c879 023e 26eb 853d d980 abbd 838d b2bd
000003f0: 0b49 15bd dcef e0bc 85a4 703c 3687 0abe
0.071214944 -0.07554372 0.10697469 0.076905526 0.09663564 -0.07411949 0.10432624 0.027700324
0.02866211 0.08910743 0.0073381155 0.062506676 -0.025452645 -0.13634005 0.068469465 -0.13045727
0.06522006 0.16292243 0.13954543 -0.030587014 -0.06180196 4.0700346e-05 0.06447234 -0.09471274
-0.034437593 -0.06769486 -0.014214235 -0.05297051 -0.030144868 -0.0060765096 -0.0557749 0.1005536
0.10163423 0.0038350094 0.04532687 -0.07773651 -0.08917371 -0.1552758 0.033557348 -0.062820904
-0.02722534 -0.008443976 0.02920414 -0.014585585 0.018860186 -0.05071386 -0.007826679 -0.06914574
-0.05275013 0.092414506 -0.037655238 0.0438721 -0.03669467 0.027112786 0.19073088 0.13770421
-0.10783933 0.058047008 0.08584901 0.0072089876 0.0881807 0.15545905 -0.026889237 -0.0076459795
-0.06968852 -0.029794637 0.0950186 0.08105409 -0.07429369 -0.0800437 -0.070390455 -0.20157379
-0.08357082 -0.0049634366 0.07532759 -0.02345991 -0.05944764 -0.0640828 0.092956156 -0.060895476
-0.007722778 0.016207425 -0.05468818 0.010170637 -0.015869848 0.0040913867 -0.05498139 -0.10854665
-0.093899526 -0.070483774 0.14508274 -0.03709265 -0.07720203 0.023957161 0.01981999 0.07467523
0.10782898 0.06710309 -0.19102933 0.013204227 0.06826969 0.035208873 -0.064359725 0.12663475
-0.12979932 -0.06911679 -0.16485597 0.015443084 0.072955064 0.040617038 0.03203088 -0.0648775
-0.12786077 0.026713299 0.11422225 0.09926533 -0.06101246 0.009734308 -0.111915104 -0.12151269
0.01717643 0.07963973 0.121264234 -0.07383626 0.11284039 -0.07105688 0.059586816 0.1185007
-0.0146980705 0.11452312 -0.075957805 -0.045862637 0.07559342 -0.041299503 -0.038315874 0.018534463
0.08847864 0.052916206 0.056957588 -0.022296274 -0.118876114 0.007405565 0.036920004 -0.05223758
-0.051710147 0.12818916 0.010262323 -0.031156855 0.04897012 -0.11717615 -0.12651066 -0.060483057
-0.07615704 0.056156408 -0.0630636 -0.052950636 0.14261466 0.06414381 0.15191448 -0.06484311
-0.05434649 0.06319035 -0.04497958 -0.082579 0.016205039 -0.06788781 -0.08666008 0.0696754
0.12510152 0.02168003 0.025445322 -0.122553 -0.051736888 0.01826528 0.105102085 -0.01968862
-0.01725547 0.04573023 -0.082184516 0.07370668 -0.049023084 0.0006782215 0.055612355 0.07848676
-0.046006158 0.05973234 -0.008292753 0.06506742 0.110522516 -0.037262477 -0.10086684 0.09551801
0.10117906 -0.08282596 -0.0032346908 -0.11947741 -0.099540815 0.016846873 0.04608867 0.0420038
-0.030001817 0.122746445 0.03468074 -0.052512392 -0.02198467 0.02260475 0.028706722 -0.09730556
0.06364795 -0.043089237 -0.09430453 -0.07037539 0.09000431 0.102413155 0.12145286 0.08669977
0.105980724 -0.009765168 -0.069941185 0.067716815 -0.061625782 -0.066231966 -0.028702797 0.038392827
0.06804984 -0.032777023 -0.027477723 0.034635935 -0.07278 -0.12089103 0.0655731 -0.005481525
0.1870009 0.14129364 0.06190952 0.044804174 0.03643816 0.020090465 -0.010135502 0.0028414072
0.0618435 0.110877655 -0.017185107 -0.04900593 -0.03098581 -0.06437338 0.031339042 0.11267276
0.12741768 0.06538992 -0.08374185 -0.087183975 -0.036446612 -0.027458124 0.014687662 -0.13528141

gkf.gat_rnn.fc_delta_y_innov.2.bias f4 [64]
00000000: 9cf0 c03c 41ca 323d 2bec 6b3c 2251 81bd
00000010: ac89 703d 9344 e73d cda4 99bd 365d 1ebd
00000020: b69a babd 5fa0 23bd 7578 d9bc ecf7 ef3c
00000030: 32f9 443c d688 9ebc 06bf d23d 164f be3c
00000040: cdfe 64bd b88e 3fbd 49a4 72bd 046d 0ebd
00000050: b50e d5bd 0575 c53c eb6e 9abd 8515 5e3d
00000060: 8fef f03d 3d4d c2bd 69bf e4bc d3c7 dcbd
00000070: dee8 f13c b8b8 b33b a621 07bd 1dd0 ca3d
00000080: 2b2e 453d 5035 e9bd f182 7d3c 7b78 fbbc
00000090: bfac 193c a8da 783d c5d5 833b 5bab b7bd
000000a0: 03f0 ca3d d935 94bd ae9d afbc 5f30 a33d
000000b0: 3ad6 093e 6542 0e3e 6c72 20bc d251 7b3d
000000c0: 0051 b8bd d12b a1ba 9886 13bc 838a 673d
000000d0: bb87 86bd 2880 913d 788b 633d cbee ed3d
000000e0: c004 c0bc d465 0b3e c801 d1bd 2820 2fbd
000000f0: c5c8 9d3d a2e7 483d 8c50 b33d 2e93 88bd
0.023552231 0.043649916 0.014399569 -0.06314303 0.058725044 0.11292376 -0.075021364 -0.03866311
-0.0911154 -0.039947864 -0.026546696 0.029293023 0.012022303 -0.019352358 0.10290341 0.02323107
-0.05590706 -0.046766967 -0.059238706 -0.034771934 -0.10403196 0.02410365 -0.07540687 0.05421974
0.11764442 -0.09487388 -0.027923303 -0.10780301 0.029529985 0.0054846667 -0.032991074 0.09902976
0.048139732 -0.11387122 0.015473113 -0.030697098 0.009379565 0.0607554 0.004023286 -0.0896823
0.0990906 -0.07236833 -0.021437492 0.079682104 0.13460627 0.13892515 -0.009792905 0.061357327
-0.089998245 -0.0012296384 -0.009004258 0.05652858 -0.06568857 0.07104522 0.05555293 0.11617812
-0.023439765 0.13613063 -0.10205418 -0.042755276 0.077043094 0.049049027 0.087555975 -0.06668697

gkf.gat_rnn.fc_r.0.weight f4 [64, 1]
00000000: 8ba3 2b3f d647 74bf c24f 31bf 8dbd 81bd
00000010: 6ac4 79bf e16e 78bf 87e6 5ebf 908a 573f
00000020: 200c 643e 7286 a4be 2bfd 38bd b66e 5fbf
00000030: afc9 75bf f4b2 39bf eaea 7cbf 4b4e 363f
00000040: 8fa7 bfbe a0b1 8dbe 4eb4 62bf 2f1a 3a3e
00000050: e37f 23be 4fb8 35bf 7059 2d3f 0569 663f
00000060: 34ea 39bf 2338 1e3f 61ad 2ebe 4749 1b3c
00000070: 3da8 e03e 9db8 41be 6a2d 653f c180 253f
00000080: 3c37 2cbf c644 23bf b4d6 81bf 4e82 a63e
00000090: a788 45bf 066f 5bbf 8d96 23bf e684 80bf
000000a0: 6610 50bf 93d8 6f3f 28a6 133f c72d 6c3f
000000b0: 806f 03bf 8b7f d2be dbff bbbe 25ff 103d
000000c0: 0122 3ebf 7c48 153e d607 25bf 04ac 243e
000000d0: a004 713f 61ba 4b3e 09cd 463f 73dc 3bbf
000000e0: eef2 1bbe b4ff 20bf 10e7 06be 52d2 cfbe
000000f0: 5036 15bf 3816 7cbf ae17 b9be 9a22 303e
0.6704642 -0.9542211 -0.69262326 -0.06334982 -0.9756533 -0.9704419 -0.87070507 0.84195805
0.2227025 -0.32133824 -0.045163315 -0.87278306 -0.9601087 -0.72538686 -0.9879595 0.71213216
-0.37432525 -0.2767458 -0.88556373 0.18174051 -0.15966754 -0.7098436 0.67714596 0.90004
-0.7262299 0.6180441 -0.17058326 0.00947792 0.43878356 -0.1891808 0.8952242 0.6464959
-0.6727178 -0.63776815 -1.0143647 0.3252129 -0.7716164 -0.85716283 -0.639016 -1.0040557
-0.8127502 0.9368984 0.5767541 0.9225735 -0.5134201 -0.41112933 -0.3671864 0.035399575
-0.74270636 0.14578432 -0.6446508 0.16081244 0.9414768 0.19895317 0.7765661 -0.73383254
-0.15229389 -0.6289017 -0.13174081 -0.4059015 -0.58286 -0.98471403 -0.3615088 0.172007

gkf.gat_rnn.fc_r.0.bias f4 [64]
00000000: 389d f3bd 3ab0 68bf 30e9 4a3f 8d56 4c3f
00000010: 5ac4 16bf d1b8 093e 9524 2d3f 0e5c 6abf
00000020: 1474 61bf 2bfc 163f a6b9 e0bb 0783 a93e
00000030: 940e c9be 1f92 623e 1b9a 333f 777f 31be
00000040: 79f8 97be 4929 74bf 0136 ffbd 3aa9 2c3f
00000050: 3795 73bf f661 4abd bb1b 493f ca41 64be
00000060: fb19 b0be 3c9f 82be c30c d0be 1f21 163e
00000070: 181e 74bf 4a3d c63e 66cb 4abe ce27 adbd
00000080: 58e5 f4bc d5ec 1b3f 22c4 17bf dc56 6abf
00000090: 1bc6 36bf 7419 36bf 56e5 f9be bfb2 533f
000000a0: 3a15 44bf ec93 0bbf af79 4abf d0bc ebbe
000000b0: b494 cc3b ce6f 1abf 99e5 433d 88d2 be3e
000000c0: e6d6 11be bc34 ec3e c806 603e 7470 803f
000000d0: 5b88 c8bb 17a6 663f 6375 4e3f 8f10 053f
000000e0: 95d9 1b3f 6d69 27bf 0e8b 26bf 02bc ee3e
000000f0: 72ce ca3e d2b0 713f ea8c 14be d09d 16be
-0.118952215 -0.908939 0.79262066 0.79819566 -0.5889336 0.13449408 0.67633945 -0.91546714
-0.88067746 0.5897853 -0.0068580685 0.33107778 -0.39268935 0.22126053 0.7015702 -0.1733378
-0.29681757 -0.95375496 -0.12461472 0.6744572 -0.9514956 -0.04940983 0.7855794 -0.22290722
-0.34394822 -0.2551211 -0.40634736 0.14661072 -0.9535842 0.38718635 -0.19804153 -0.08454858
-0.029894516 0.6090825 -0.5928365 -0.91538787 -0.71396035 -0.7113259 -0.48807782 0.8269462
-0.7659489 -0.54522586 -0.79091924 -0.4604249 0.0062433127 -0.6032685 0.047826383 0.37269998
-0.14242133 0.46133983 0.21877587 1.0034318 -0.0061197705 0.90097183 0.8064787 0.5197839
0.6087888 -0.6539524 -0.6505593 0.46627814 0.3961063 0.9441043 -0.1450688 -0.14708638

gkf.gat_rnn.fc_r.2.weight f4 [64, 64]
00000000: a515 e43d 4432 9dbc d7ba ef3d d81f 70bd
00000010: 4fca 7ebd 4af2 93ba cb95 853d adda 91bd
00000020: e03e 7dbc 7f68 ba3d 72fa 883c fdfe ab3d
00000030: 5858 65bd 1ad9 abbd 15b6 b2bd 3032 2bbd
00000040: 2ff1 eebd cfb0 183d 333f c63c 77b1 93bd
00000050: 3c13 c23d 2e80 dc3c 1e38 6a3d 9870 cdbc
00000060: 6a19 903d c617 62bd 33f8 843d f37d 78bd
00000070: e27a b03d 8729 38bd a95a dd3d 7aed a6bd
00000080: aa4a 06bd 5140 0dbd d213 c3bd 0a8b 06bd
00000090: 0858 6ebd ed0c 26bc e434 873d 36a5 b1bc
000000a0: 3a8f cb3d 79ab bfbc 9165 ddbc ea66 e13c
000000b0: fa41 f9bc 0d2d 6d3c 40aa de3d 9246 453d
000000c0: 2195 eabd c7db 0cbd 703c f3bc 6315 dcbd
000000d0: 6ff5 6e3d b529 ee3d d092 953d 33c6 90bb
000000e0: baa7 d9bb 4146 a8bd 09dc 0ebd 0213 e03d
000000f0: ade7 87bd b91e 9e3c 248b d7bd 2a5f bd3b
00000100: 2b5a 023d 6565 9ebd 5ac6 413d a5d1 aebd
00000110: de13 10bd d84c cf3d fcc3 053e 0e81 143c
00000120: 2e6b ccbd ca54 b5bd ba4f 78bc a7bb 4cbd
00000130: c0f7 ea3d bcd8 99bd aace b53d b138 443d
00000140: 6911 b0bc 240e f13d 0e8b ac3d 9e02 c63c
00000150: 5572 97bd b64e b6bc c449 8d3d b6d2 073e
00000160: 2126 dabc df43 e9bc 79fd d6bd d5f2 ce3d
00000170: 8ad0 053e 03ec cd3d da3c 39bd 677a ea3d
00000180: 7ff7 bfbc 7b5f a13d 8c19 b63d 35ab cbbd
00000190: 5663 443d 3482 883d a89d 70bd b31a 043e
000001a0: 1edc ea3d 88fb 013e 1d87 783c c0a2 33bd
000001b0: 1628 5dbd dee0 7d3d acf7 2dbc 6042 003e
000001c0: 3b6b f43d 598f 1d3d 3ffe b4bd bf87 9d3d
000001d0: 1ca3 0c3e 6f5c 60bb 3e20 17bd 8dd3 80bc
000001e0: 9969 113d 5b7e 9abd bbd1 a13d 0dcb 883d
000001f0: f73b 0cbd f2cf 06bd 1f65 34bd 05bd f13d
00000200: a20d 5c3d 55a0 2c3d 1c07 18ba 072d ce3c
00000210: 65f7 013e 922a 3b3d 4ff1 68bd ef3f 1d3d
00000220: eeef 46bd 5073 40ba 75d9 97bd 0907 113b
00000230: 3214 523c 0cf2 8ebd e2f2 af3d 3021 c33d
00000240: e2cc c8bd 84d7 373d 350a a4bd 088b 38bd
00000250: a245 8e3d 48c1 833b 05b5 843c 34ec 78bd
00000260: 9aa4 003e 25a3 a0bd 6f1c 013d d149 833a
00000270: aaae a23d fa10 823c e7cc 613d 881d 3d3c
00000280: 8705 b03d 5064 e23b 34ce 443d e767 f23d
00000290: 1b20 0cbd 93de 35bd 73b0 c63d 7410 5a3d
000002a0: 8c5a e4bd 3b18 d23c d254 04be b438 b3bd
000002b0: 6920 623d b0b0 953d bb1a b4bc 1268 b83d
000002c0: d4b6 053e baa2 9d3d c126 dfbd 3f8a 83bd
000002d0: 5b82 59bc 6407 a83d b60c 2fbd 39ce 013d
000002e0: 28d4 853d bdaa 70bd 9b19 85bd 38b9 033e
000002f0: 6f1e 393b 1fe4 bf3d e520 edbd 6996 80bd
00000300: 301f 9a3d f128 21bd 4d81 803b aa45 1dbe
00000310: a974 be3d 6917 c2bd 734b 2dbd e022 b1bd
00000320: 19fd 2abd 0387 18be 784e 10be f255 72bd
00000330: f781 adbd 2df1 713d ebbc 14bd f127 af3d
00000340: 2315 48bd 76a0 c83b 3a7f b63d 31e9 06be
00000350: b86a 77bd d1ce 9a3d 3c41 57bd 16bd 3abd
00000360: 20a7 9dbc cc9f 9ebd 9fda 62bc a50c c7bd
00000370: 769d 303d e9ab 8dbd 9f66 5dbd bf8c 76bd
00000380: 062d 8d3a 611a d13c cf76 12be aa61 a3bd
00000390: f5d8 16be 37f1 fa3c 57f1 863d ce3a 20be
000003a0: 9e5c a83b 3e79 863c 1d4e 8ebd 63c7 8d3c
000003b0: 0173 843d 1c70 c63d 60c4 b23c 4811 8bbd
000003c0: 7963 d0bd 8e4c a6bd c994 04bd b658 45bd
000003d0: 208a 9d3d 6d61 19be 5ce1 42bc a87c 9abd
000003e0: 8dee 17bd 34e9 be3d 8a4b 12bc 7ba1 75bd
000003f0: 8a8c 9fbd eaca 25be 4c14 12be 162c 483d
0.11136941 -0.019189008 0.11705559 -0.05862412 -0.062204655 -0.0011287418 0.06522711 -0.07121787
-0.015456885 0.09101962 0.016720984 0.083982445 -0.055992454 -0.08391018 -0.08726136 -0.04179591
-0.11667096 0.037277993 0.024200058 -0.07211583 0.09476325 0.02691659 0.057182424 -0.025078103
0.07036097 -0.055198453 0.06492653 -0.06066699 0.08617188 -0.04496148 0.10808308 -0.08150764
-0.03278605 -0.034485165 -0.09525265 -0.03284744 -0.058189422 -0.010134918 0.06601885 -0.021685224
0.09939428 -0.023397194 -0.02702597 0.027514894 -0.030426968 0.014476073 0.10872316 0.048163004
-0.11454225 -0.034389284 -0.029691905 -0.10746267 0.058339532 0.11629049 0.07303393 -0.0044181584
-0.006642309 -0.08216525 -0.03487781 0.109411255 -0.066359855 0.01930176 -0.10524586 0.0057791667
0.031824272 -0.07734183 0.047308303 -0.0853608 -0.035175197 0.10122079 0.13063043 0.009063972
-0.099813804 -0.08854063 -0.015155727 -0.049983647 0.11473036 -0.07512042 0.08877309 0.047905628
-0.021492677 0.11770275 0.0842496 0.02417117 -0.07394854 -0.02225433 0.06898835 0.13263974
-0.02662951 -0.028474746 -0.10497565 0.1010491 0.13067833 0.10054781 -0.04522405 0.11449128
-0.023433445 0.078795396 0.088915914 -0.099447645 0.047946297 0.06665459 -0.058744103 0.1290081
0.11467765 0.12693608 0.015168932 -0.043856382 -0.053993307 0.06198203 -0.010618132 0.1252532
0.11934515 0.038466785 -0.08837556 0.07691907 0.13734096 -0.0034234782 -0.036895983 -0.015725875
0.035501096 -0.07543632 0.07901331 0.06679354 -0.034236874 -0.032913156 -0.04404175 0.11803631
0.05372394 0.042145092 -0.0005799399 0.025167955 0.1269203 0.045694895 -0.056870755 0.03839105
-0.04856866 -0.00073414017 -0.074145235 0.0022129437 0.012822198 -0.069797605 0.08591248 0.095278144
-0.09804703 0.044883266 -0.08009759 -0.045054466 0.06946875 0.0040208437 0.016199598 -0.060772136
0.1256279 -0.07843617 0.031521257 0.0010016506 0.07943471 0.015877236 0.05512705 0.011542685
0.08594804 0.006908931 0.048048213 0.11836224 -0.034210306 -0.044401716 0.09701624 0.053238347
-0.11150083 0.02564632 -0.12922981 -0.0875105 0.05520669 0.07309091 -0.021985402 0.09004225
0.13058025 0.07697053 -0.108960636 -0.06422853 -0.013275708 0.08204535 -0.04273673 0.03169081
0.06534606 -0.05875658 -0.064990245 0.12863624 0.00282469 0.093696825 -0.1157854 -0.062786885
0.0752548 -0.039345685 0.003921664 -0.15358606 0.09299595 -0.094771214 -0.042308282 -0.0864923
-0.04174528 -0.14895253 -0.14092433 -0.059163995 -0.084720545 0.059067894 -0.03631298 0.0855254
-0.048848283 0.006122644 0.08910985 -0.13174893 -0.06040451 0.07558978 -0.052552447 -0.045590483
-0.01924473 -0.077453226 -0.013846069 -0.09719209 0.043118916 -0.06917555 -0.054052945 -0.06019282
0.0010770864 0.025525274 -0.14303134 -0.07977612 -0.147312 0.030632598 0.06589001 -0.15647432
0.005137994 0.016415235 -0.06948493 0.017306989 0.06467248 0.09689352 0.021822155 -0.067904055
-0.10175223 -0.081200704 -0.032368455 -0.048180304 0.07692361 -0.14978571 -0.01189455 -0.075433075
-0.037092734 0.09321824 -0.008929143 -0.059968453 -0.077904776 -0.16190687 -0.14265555 0.04887017

gkf.gat_rnn.fc_r.2.bias f4 [64]
00000000: 519f 293d 6760 f53d b890 5c3c 4d89 01ba
00000010: 006b 81bd af54 6cbd f2fa 22bd 0ac7 52bd
00000020: 970a 11bd d530 bfbd b2c9 f6bc ecf7 bdbd
00000030: 78a5 853d b579 393d c2b9 0f3d e88c ab3d
00000040: 932b bcbd 078c 35bc 0823 ac3c aaf2 b1bd
00000050: edf3 763d e55f d9bd 38ac 163e d10a f73d
00000060: e020 1bba 8d48 eebc f8a6 0b3e ec3e 71bd
00000070: e920 343d f27a c73d fa2f 183e d3e5 113d
00000080: 7994 a43c 7354 b33c b2ff b7bd 0d3a ab3d
00000090: 38be 89bd 3d20 1e3d 170a a7b9 8231 d83d
000000a0: 1664 d7bc 9236 973d 2ab3 ce3b d45a 3d3c
000000b0: c11d 83bd 2365 1b3e dad6 e63c c8d4 09be
000000c0: 015a 213d 0917 ad3d 0b15 4bbd 6d0f fb3d
000000d0: cb2f cc3d 357c cebc e259 273e 318e f93d
000000e0: 6a37 9bba fd9c 323c be51 903d 8633 afbc
000000f0: c4e4 ee3d 07a0 a0bd 61fb bbbd a1e6 a53d
0.0414117 0.11981278 0.013462238 -0.0004941419 -0.06319237 -0.057697948 -0.0397901 -0.05145935
-0.03541049 -0.09335486 -0.030125473 -0.09275803 0.06525701 0.045282084 0.03508926 0.08376485
-0.091879986 -0.011080748 0.021012798 -0.086888626 0.06029122 -0.106139936 0.14714134 0.1206261
-0.00059176795 -0.02908733 0.13637912 -0.058897898 0.043976698 0.09740247 0.14862052 0.035619568
0.020090329 0.021890854 -0.08984317 0.08360682 -0.067257345 0.038604964 -0.0003186024 0.10556318
-0.026292842 0.07383455 0.006307979 0.0115573 -0.064021595 0.151753 0.028178621 -0.13460076
0.039392475 0.08451659 -0.049580615 0.122588016 0.09970053 -0.02520571 0.16342881 0.12185324
-0.0011842076 0.010901687 0.07046841 -0.021386873 0.11664727 -0.07843023 -0.09178806 0.081006296

gkf.gat_rnn.r_input_gru.weight_ih_l0 f4 [192, 64]
00000000: 1b21 03be 6559 4abd 4a94 8bbd 5121 8e3d
00000010: 797f 1abb 9e94 ccbd c234 b03d a96a 83bd
00000020: 9943 97bc d1c2 2c3d 75f2 b6bd 23d1 5abc
00000030: 29ef 61bd 5c15 1ebd 1983 51bd eefd 953d
00000040: 858c 8ebd aa16 c2bd 61c0 3e3d df11 113d
00000050: 3118 6e3c 2547 a43c 2077 da3d 3db2 0dbd
00000060: ed9d d7bd 6a05 f9bd 7823 d23c 708e 1c3d
00000070: f882 333b c794 e0bd 9769 dabd 7d83 c1bd
00000080: 8a4c 943d 0fb3 7f3c 49f4 9cbd 3833 fabd
00000090: dc13 833d f231 07bb 2b2c 9f3d ae2e dcbd
000000a0: 0a72 e4bd cd3b f93c adf3 963d edcb 953d
000000b0: c4a8 f03d a5af 9d3d 405c 4d3d db7c 8abd
000000c0: e363 eb3d 772f 7ebd d35c b23d 4748 3b3d
000000d0: 2b81 aebd 0c9e 2dbc 684d ddbb 3022 b33d
000000e0: 8a17 913d abae ac3c d2fc a6bd cba5 fa3c
000000f0: a4ba c53d 230c 90bd 4abf e13d 434b fc3c
00000100: a7a1 ac3d ab2d 1d3d 2363 9b3d 9df4 d8bd
00000110: b064 423d a4d8 ebbd 4e43 b3bb da40 c23d
00000120: e365 d9bd 7124 bbbd ee4b 7cbd 7224 2abc
00000130: 8615 a8bc e319 ccbd 388a 723c 3ca7 1dbd
00000140: 21b5 7dbd ac43 8d39 78ee 1e3d a0ce 893c
00000150: 743e 94bd 6963 c03d 6c0a b43c 76d1 58bd
00000160: d2cd e53d 831c bb3c 3df9 893d d8d4 b03d
00000170: 7a92 4b39 e179 ce3d 6495 b5bb f7cb c83d
00000180: e4da 2f3c 8deb 623d 05f9 703d 14fe 8bbd
00000190: 88bf df3d be5b 0c3b 8b66 5c3d 445d cdbd
000001a0: 296a 5dbd 2580 b23d 70f3 aabd 825e 753c
000001b0: 0900 d53d 68d9 f3bd a4ea 5ebb 8a30 cf3c
000001c0: 828d 9c3d 6b7d 3dbd 3f01 f5bd 407c 9dbd
000001d0: 2b25 043d 5127 bcbd f01e d7bd 08a5 d5bb
000001e0: d388 813c 4310 a8bd 60de 54bd 5c5f 843d
000001f0: ba9f adbd b43c d2bd 4dda 02bd f839 ce3d
00000200: bf33 dfbc 3a8a a6bd 3674 a7bd 5294 01bd
00000210: fba6 bc3d d88d 533d 5b27 41bd d45a d6bd
00000220: c91e 8fbd 1739 c13c 0eea da3d 084c 973d
00000230: 4f42 49bc 5fba 933d 436d 553c 2db3 b73c
00000240: 0a46 633d 3ff3 10bd 33d0 0c3d 213a 893c
00000250: 9c66 223d 1d2d f8bc b994 ae3d 2ba5 c6bd
00000260: 6528 a03d dda5 d0bd 78d2 b1bd 9aa1 90bd
00000270: 2e25 4dbc 0745 94bc 614a ecbd 7d97 8f3d
00000280: 7279 0c3d 9a13 003e 6cef a7bd 82d2 d8bd
00000290: c0d1 033d 11f4 bf3d 1b09 ba3d a5c1 6f3d
000002a0: a033 c73c 533f 733d b4c9 37bd 78c4 02be
000002b0: 6fea c3bd 18b6 a6bd 2de1 fc3c 60d2 d93d
000002c0: a0f9 ab3d f02c 99bd 24e5 f73c 9438 de3d
000002d0: df27 193c a6b6 2dbb 8b90 89bd 6dc4 90bb
000002e0: 34a7 c23d 42ea 03bd bdf6 9fbc f661 893d
000002f0: 0381 39bd 09c3 7cbd 5ed7 673c 8f3d c13d
00000300: cc7b c5b9 a2b7 e6bc bf05 e8bd c796 cc3d
00000310: b8bf 8ebc d781 91bd ae62 11be d4d3 a6bd
00000320: e722 d6bd 98f5 1c3c 7d0c 983d ef20 04bd
00000330: 17b2 843d 7a5e 37bd b3f9 a3bd 2ee2 07be
00000340: 58be dfbd 0fb1 793d e1ce 693d be61 d53d
00000350: d2df 24bd 8af8 b53c e233 f1bc cde4 e83d
00000360: 01e9 a4bd 3c32 82bd 96db 18be 54ac 8abb
00000370: 7902 02be 748e f1bd fa41 2f3c ef16 d43d
00000380: 4211 a63d a597 7e3d 5af8 43bd 215a 16bd
00000390: cb79 0cbe aa6b 613d b82c 003d be76 c43d
000003a0: 0477 15be 0a9b 09bc 83b3 d0bd b16c febd
000003b0: 42b3 b2bd 6b53 1a3c 5be6 783d 4b7a 933d
000003c0: 8b08 84bd dbb5 1f3d 7046 123e 47ba cbbc
000003d0: 10b1 81bd faea d9bd c764 643d ed3f 4ebd
000003e0: d028 e5bd d993 493d c190 a63a 1b77 88bd
000003f0: e72b 17be 725f 73bc 2a16 bfbc f9b0 4abd
-0.12805597 -0.04940166 -0.06815393 0.06939948 -0.0023574515 -0.09989284 0.08603813 -0.06416828
-0.01846485 0.04217798 -0.08932964 -0.013355526 -0.05515972 -0.03859459 -0.051150415 0.07323824
-0.06960396 -0.09476979 0.046570186 0.035417434 0.014532135 0.020053456 0.106672525 -0.03459381
-0.10528169 -0.12159236 0.025651678 0.038221776 0.0027391296 -0.10965877 -0.10664671 -0.094489075
0.07241161 0.015606656 -0.07663781 -0.122168005 0.06400272 -0.0020629135 0.07772096 -0.10751091
-0.11154564 0.030424023 0.07370696 0.073142864 0.117509395 0.07699517 0.050136805 -0.067620955
0.11493661 -0.062056985 0.08709111 0.045723226 -0.085207306 -0.010596763 -0.0067536123 0.08746755
0.07084568 0.021079382 -0.081536904 0.030596634 0.096547395 -0.07033565 0.110228136 0.030797606
0.0842927 0.03837363 0.07587268 -0.10593531 0.047459304 -0.1151593 -0.00547067 0.09485026
-0.106151365 -0.0913781 -0.06159585 -0.010384666 -0.020518076 -0.09965875 0.014803462 -0.038489565
-0.061940316 0.00026944035 0.03880164 0.01682216 -0.072384745 0.09393961 0.021977626 -0.052934133
0.11220898 0.022840744 0.067369916 0.08634347 0.00019414155 0.1008184 -0.0055414904 0.09804528
0.01073334 0.05540042 0.058831234 -0.06835571 0.109252036 0.0021416987 0.05380873 -0.10027555
-0.05405632 0.08715848 -0.08347213 0.014976146 0.10400397 -0.11906701 -0.0034014368 0.0252917
0.07644178 -0.046262186 -0.11963128 -0.076897144 0.03226201 -0.091871865 -0.10503948 -0.0065199174
0.015812313 -0.08206227 -0.051969886 0.06463501 -0.08477731 -0.102654845 -0.03194647 0.100696504
-0.027246354 -0.081318334 -0.08176462 -0.03163559 0.092115365 0.051648945 -0.047156673 -0.10466543
-0.06988294 0.023586793 0.10689174 0.07387549 -0.012283876 0.07213282 0.013026538 0.022424305
0.055486716 -0.035388228 0.03437824 0.01675135 0.039648637 -0.03029495 0.0852446 -0.09699472
0.07820205 -0.10187886 -0.08682722 -0.07062073 -0.012521071 -0.018099321 -0.11537624 0.07011316
0.034295507 0.12507477 -0.08199963 -0.10587026 0.032182455 0.09372724 0.09083768 0.058534283
0.024316609 0.059386563 -0.044870093 -0.1277026 -0.09566199 -0.081402004 0.03086909 0.10635829
0.083972216 -0.07479274 0.03026063 0.10850635 0.009347885 -0.0026506572 -0.067170225 -0.004417947
0.09504548 -0.032205828 -0.019526834 0.06708138 -0.04528905 -0.061709438 0.014150469 0.094355695
-0.00037667004 -0.028163735 -0.11329221 0.09989696 -0.017425403 -0.07104843 -0.141978 -0.08145872
-0.10455876 0.0095800385 0.07424257 -0.03225797 0.064792804 -0.044767834 -0.08006611 -0.13269874
-0.10924977 0.06095987 0.05708206 0.104190335 -0.040252514 0.02221324 -0.029443685 0.11371765
-0.080522545 -0.06357238 -0.14927515 -0.004231969 -0.12696256 -0.11794749 0.010696882 0.10355937
0.081087604 0.06215634 -0.04784427 -0.036707047 -0.13718335 0.055034317 0.031292647 0.09592961
-0.14596182 -0.008398781 -0.10190489 -0.12423075 -0.08725597 0.009419302 0.06076656 0.0720106
-0.06446942 0.03899179 0.14284682 -0.024869097 -0.063326 -0.10640521 0.05576017 -0.050353933
-0.11189425 0.049213264 0.0012707935 -0.066633426 -0.14762841 -0.014854299 -0.023325998 -0.04948518

gkf.gat_rnn.r_input_gru.weight_hh_l0 f4 [192, 64]
00000000: 6546 f7bc d3f5 88bd 8c59 cebd c558 91bc
00000010: ba50 80bd acd7 d03d 329b de3d 0b72 97bd
00000020: bf8d 393c 7591 b0bd 673a 3b3d dcad ac3d
00000030: b890 9bbd e6e4 a6bd 7318 9dbc 38a1 cd3d
00000040: e123 ba3d 9bfa b3bd 749a 803c 3584 cfbd
00000050: e5bb 033e 81ee 853d c056 74bd 90e9 703d
00000060: fc68 b73c 72ac 9bbd 644d edbd 99e2 923d
00000070: a156 ddbd ecd2 983d e5f9 2fbd cf0e 933d
00000080: 29ea 263d 1a53 833d 9905 53bd f131 833d
00000090: 9b2f f73c e260 043c 01d8 97bc 5c15 253c
000000a0: 2ee3 8a3d a434 7e3d 97b4 fcbc 84d5 acbc
000000b0: 8d59 27bd b7d2 babc d246 883d 4661 d73d
000000c0: df02 613d cb34 36bd 8980 903d c993 d63d
000000d0: bb3c 873c 069e de3d 8941 d83c 5df7 2abd
000000e0: c6ee 0e3d e5dd 993c a16a 263d 172a ebbc
000000f0: 1209 aebd c870 f6bd 4a79 8bbd 6ef2 ae3d
00000100: ae5f fabc 6831 d5bd a8a4 f63d 488d d3bd
00000110: 9bc7 9f3c da28 d13d a85f a6bd 99f8 1bba
00000120: ea55 cf3d 0e05 013e bb7e 8e3d 639d 05bd
00000130: 4bda 973d a4e7 8c3d 1f4f db3b 6526 d93d
00000140: 7df3 3b3c 6d1f bf3d 2cff bbbd 8da8 cb3c
00000150: 16e9 c5bd 5e66 ae3c 0f75 013d 209a a03d
00000160: af24 3c3d 3fea 0fbd 1c70 843d 669e 04be
00000170: c97a e43d 952a 2c3d 5d2f 55bc 3e5b f53c
00000180: b11f 923d 9a4b e1bd 79de a53d f5d3 fc3c
00000190: a7f0 173e a4b7 fd3c 6cef c33c 7f6c 953c
000001a0: 5586 d63d 2cf9 d8bd 6845 993d ae86 9e3d
000001b0: a66a debc 32c3 85bd 7cc9 dc3d 9d3c 5d3d
000001c0: 1251 16bd a3f2 5c3a c7aa 36bd 2835 56bd
000001d0: a0e0 ca3d 0ce3 803d fa69 53bc e6df bf3d
000001e0: 51df b33d 0965 393d e5e5 6d3d 2e5c bfbd
000001f0: e52a 8cbd d767 063e d2f0 5d3d 8c9a 3b3d
00000200: 2fe9 86bd 100c 84bd b0de 0fbd 47e3 863d
00000210: 18b2 71bd 15c3 b63d b9da 81bd 8ebe 45bc
00000220: 1a11 bb3d 953c 2dbd a8b2 9bbb a292 35bd
00000230: 5af2 073d eb91 46bd e5b3 c4bd 61f0 6abd
00000240: f756 de3c 83e4 2ebd a1cc babd 810f 9fbb
00000250: dbbc 3fbd e2f3 d23d 2374 f7bc 6e43 f13c
00000260: 77b3 f53d 8801 b9bd da7e 933d 2a21 673c
00000270: 4c79 c53d a1ae 9fbc d4ab 043d 4f72 05be
00000280: 9bd5 db3d 8d60 dbbd 810a e03d ba8e 91bd
00000290: 2628 2c3d 5913 3b3c b118 973d 721a 14be
000002a0: 6f55 023e 5f55 c43d 29ec c93c d24e f43d
000002b0: c0e0 bc3d 9754 ea3c 2b56 a03d ebff aa39
000002c0: 6c2b 1b3c f3d9 c0bd 93c9 9bbb 547e 8fbd
000002d0: 19de afbd 0762 cabd dbfc 99bd c90f 17bc
000002e0: d7f4 bbbc 6d3d a33d 44e3 833d fd6c 52bd
000002f0: 951b 993d 9e0d 9cbd 8911 acbd aeec 113e
00000300: 5ef9 4e3d b607 723d b324 04be c0b3 9c3d
00000310: dc77 d6bd 6937 9c3c d5d9 10bd 9087 2a3d
00000320: 4b10 8abd 8d3f edbd 6a4b f6bd 158f bebd
00000330: 7f5c 60bd bc6a 013d 2f3f 0ebd 1679 cabc
00000340: ec98 f13c c847 eb3d e7c6 79bd b0e4 e43d
00000350: 2cb9 75bd 1651 dc3d 8b84 1fbd 32ba 90bd
00000360: 657a 12bd 869f 4fbc aca9 c1bd a6f6 ae3d
00000370: 0b91 d3bd dd87 d43a b0ca bbbd 5dfa aebd
00000380: f06f 9839 68f4 eabc 94d1 d2bc d8ce a5b9
00000390: 0ed9 3bbd 43fe e3bd 18f6 f43b cafc c53b
000003a0: b3fd d13d 0ca7 79bd a364 cabd 1e36 cebd
000003b0: b60b 713d 3d34 c2bd 17e3 c33d 49ac 963c
000003c0: a20d c03d 564b 45bd ebf2 cc3d 0d19 04bd
000003d0: 5c84 37bc ded0 fd3d 3c92 90bd c84b 32bd
000003e0: 2c12 b63c 983a 713d 12e5 623b 101e a3bd
000003f0: 537a c4bc f23f 0a3d 9a5e a6bd 869f adbd
-0.030184934 -0.06687512 -0.100756735 -0.017742524 -0.06265397 0.10197386 0.10869445 -0.07394799
0.011325299 -0.08621494 0.045709994 0.084315985 -0.07595962 -0.08149128 -0.019176697 0.10040516
0.090888746 -0.087880336 0.015698649 -0.10132638 0.12864645 0.06539632 -0.059653044 0.058816493
0.022388928 -0.07601251 -0.11587027 0.07172126 -0.10807539 0.07462105 -0.042962927 0.07180559
0.040750656 0.06412335 -0.05151901 0.0640601 0.030174067 0.008079739 -0.018535616 0.010075893
0.06781612 0.06206192 -0.03084783 -0.021097906 -0.040856887 -0.022805555 0.06654133 0.105166
0.05493438 -0.04448394 0.07055766 0.104774065 0.01650845 0.10869984 0.026398437 -0.04173981
0.03489568 0.018782565 0.040629033 -0.028706593 -0.08497824 -0.1203323 -0.068102434 0.085423335
-0.030563202 -0.10409814 0.120431244 -0.10329682 0.019504359 0.1021287 -0.08123714 -0.00059498247
0.10123809 0.12599584 0.06957766 -0.0326208 0.07414683 0.068801194 0.0066927816 0.10603026
0.011471626 0.09332166 -0.091795295 0.024860645 -0.09663598 0.021289047 0.031605776 0.07841897
0.04593342 -0.035135504 0.06466696 -0.12951049 0.11156232 0.042032797 -0.013011781 0.029950734
0.07134951 -0.11000748 0.08099074 0.030862788 0.14837895 0.030971356 0.023917876 0.018240212
0.104748406 -0.10594401 0.07483941 0.07740532 -0.027150463 -0.06531371 0.107806176 0.054012883
-0.03669841 0.00084284897 -0.04459646 -0.052296788 0.09906125 0.06293306 -0.012903685 0.09368877
0.087828286 0.04526237 0.058080573 -0.09343754 -0.06844119 0.1312555 0.054184742 0.045801684
-0.06587445 -0.06447613 -0.03512448 0.065863185 -0.059007734 0.08923928 -0.06340546 -0.012069358
0.09134121 -0.042294104 -0.004751522 -0.044329293 0.03319011 -0.048479002 -0.09604625 -0.05735815
0.027141077 -0.042698395 -0.09121061 -0.004854143 -0.046810966 0.10300423 -0.030206745 0.029451098
0.11997121 -0.09033495 0.072019294 0.014107028 0.09642276 -0.01949245 0.03239043 -0.13031887
0.107341014 -0.10711775 0.109395035 -0.07107301 0.042030476 0.011418187 0.073777564 -0.14463213
0.12727903 0.09586596 0.024648743 0.11929096 0.09222555 0.028604789 0.07828935 0.000326156
0.009470802 -0.094165705 -0.004754254 -0.07006517 -0.08587284 -0.098819785 -0.075189315 -0.009220072
-0.022943897 0.079707004 0.06439832 -0.05137347 0.07475964 -0.07619785 -0.08401782 0.14250442
0.050530784 0.059089385 -0.12904625 0.07651472 -0.1047208 0.01906939 -0.03536399 0.04163319
-0.06741389 -0.11584387 -0.12026103 -0.093046345 -0.05477571 0.03159593 -0.034728225 -0.024715941
0.029491864 0.114883006 -0.060980704 0.11176431 -0.059991047 0.107576534 -0.038944762 -0.07066764
-0.035761256 -0.012672311 -0.094561905 0.08543138 -0.10330399 0.0016214807 -0.09169519 -0.08543847
0.000290751 -0.028680995 -0.0257347 -0.00031625363 -0.045861296 -0.11132481 0.0074756257 0.0060420977
0.102534674 -0.060950324 -0.09882476 -0.10068916 0.05884906 -0.0948262 0.09564798 0.018392699
0.093776 -0.04816755 0.100072704 -0.032250453 -0.0112009905 0.12393354 -0.07059142 -0.043529302
0.022225462 0.05889377 0.00346214 -0.07964718 -0.02398411 0.03375239 -0.081235126 -0.08477692

gkf.gat_rnn.r_input_gru.bias_ih_l0 f4 [192]
00000000: 0633 013e a7c4 86bd 49fe 87bd b1e6 453d
00000010: 58bc 2bbd 9dd9 f53d 4b2c 90bd 56ea 4c3d
00000020: 9a10 303d 9d84 5f3c 103e febd d103 4ebc
00000030: 2b7e 0fbc 8145 6abd 8cff 8d3d b53d 003e
00000040: f139 d03d 389c d43d f87a c1bc 670b 8ebd
00000050: 976d ee3d 2c7b c93d ad7f 87bd c400 513d
00000060: 9949 52bd ba61 1bbd db62 cc3d 1d3e db3d
00000070: 2b01 d7bd 35ed ab3d b4c7 d93d 90cb 223d
00000080: d54f 723d 6a72 093d 4f4d d03c 52a9 863d
00000090: 64a8 7abd 7c65 a3bc afdc 9abc 0030 a63d
000000a0: f224 aebd 1cef 9e3d 93a3 26bd 4147 a93d
000000b0: 47bd 74bb 4f85 0d3b 9b9b 8b3d c003 7c3d
000000c0: 0fc1 923d 3648 b33d ed38 923b 3557 55bd
000000d0: 25bd 713d e1b1 debd 34fc 023d 59f3 a13d
000000e0: f64c f03d 3ffb e93d cf9b 69bd 73a7 bbbd
000000f0: c8ce 4cbb b332 03be c711 353d e11f 8b3d
00000100: 88a0 ea3c e3c0 28be ecdf 443d ea2a e7bd
00000110: 59c8 f4bd 6599 15be 2ab8 72bd e498 c2bd
00000120: 4b96 92bd 1dc5 583d f9db 9abd f74e 82bc
00000130: 9def 94bd 4e09 553d 0faf f6bd 9ae2 8dbd
00000140: a022 01be 53df 96bd f111 8abd 71ab fdbd
00000150: 1a77 6cbd 0bef 14be 330d 73bc d8ad e5bc
00000160: 3e74 0c3d 7826 f5bd 13d6 0ebd 78be 70bd
00000170: 0f64 0bbe 9088 fa3c d2f3 813c a691 473c
00000180: 7598 96bc e529 dfbc aee4 173d 7305 adbd
00000190: ce9f a3bc 39dc f3bb 2d4b f2bd 517f c1bd
000001a0: 85b8 b4bd 6d56 0bbe 9734 803d 636f 6ebd
000001b0: 51e0 a7bd ffc7 ecbd 9ec0 8d3d 2faf f0bc
000001c0: 2a48 be3d 231e 6c3d 763e 9fbd 0454 b9bc
000001d0: 9c4a a53c ab24 c93d 222a 4cbd 154c a8bd
000001e0: 2fd6 e43d 1b26 6d3d 313d bdbd 9b8c 183c
000001f0: b734 08be d013 5fbc aef7 113c a456 b8bd
00000200: a295 0abd d06c 6e3d 3b9c a53c c8c4 a8bd
00000210: ec16 423c 6076 693c b0b1 a9bd 4289 d43d
00000220: a66b b7bd 7254 3b3d 012d f8bd 50b7 28be
00000230: 2453 383d 2b66 eb3d e331 b5bd 3ff6 74bd
00000240: 0d75 9abd 5500 f7bd 01a0 9d3c 15bc c63d
00000250: 1f12 cb3d 17f0 31bd e1ec 73bd 68a5 32bc
00000260: fed7 94bd f010 bfbd c68e 4bbc a10f bdbc
00000270: 6393 95bd 4aa9 00be dd69 e43d b062 82bc
00000280: 5045 26bd a96e 97bd d936 bd3d 7eda be3b
00000290: 349e 1e3e d250 cebb 521f b8bd c829 b83d
000002a0: e453 56bd ad8b e13d c5fe 14bc 5f16 4eba
000002b0: 2fb9 b3bd 350c 14be a5c3 3abd 6537 4b3d
000002c0: 6951 cabd d878 14bd 0652 423c 244a ba3c
000002d0: 0e3b 19be 1f63 35bd 7fd9 05bd 5d6a 013d
000002e0: 3924 0dbd 09b5 e63d 963e c8bc cb79 b63d
000002f0: 0198 cb3d 903a a93d 6bcb 443d 2b64 153e
0.1261712 -0.06580477 -0.06640298 0.048315708 -0.041927665 0.12004397 -0.07039698 0.050028168
0.042984582 0.013642457 -0.12414181 -0.012574152 -0.008758108 -0.05719519 0.06933507 0.1252354
0.101673014 0.10381359 -0.023618206 -0.069357686 0.11641996 0.09837946 -0.06616149 0.05102612
-0.05133972 -0.037934996 0.09979793 0.107052065 -0.1049827 0.08394853 0.106337935 0.039744914
0.059158165 0.03355638 0.025427489 0.06575264 -0.061195746 -0.019945852 -0.018904058 0.08114624
-0.085031405 0.0776045 -0.04068334 0.08265544 -0.0037344263 0.002159435 0.06816789 0.061527014
0.07165729 0.087540075 0.0044623525 -0.05208512 0.059018273 -0.108737715 0.0319788 0.07907743
0.11733429 0.114248745 -0.057033356 -0.09162798 -0.003125118 -0.12812309 0.044206407 0.0679319
0.028641 -0.1647983 0.04806511 -0.11287482 -0.11952276 -0.14609297 -0.059257664 -0.09501818
-0.07157572 0.052922357 -0.07561488 -0.015906794 -0.07272265 0.052010827 -0.120451085 -0.069279864
-0.12610865 -0.073668145 -0.06741703 -0.123862155 -0.05773077 -0.14544313 -0.01483469 -0.028036997
0.034290545 -0.11970228 -0.034872126 -0.058775395 -0.13612388 0.030582696 0.015863333 0.012180721
-0.018383244 -0.027241657 0.03708332 -0.08448305 -0.019973662 -0.007442024 -0.11830745 -0.09448112
-0.08824257 -0.13607188 0.06260031 -0.058211695 -0.08197082 -0.11561584 0.069215044 -0.029380409
0.09291108 0.057645928 -0.07775585 -0.02262307 0.020177178 0.09821447 -0.04984487 -0.082176365
0.11173665 0.05789767 -0.09240187 0.009310867 -0.13301359 -0.0136155635 0.008909149 -0.090009004
-0.033834107 0.05820924 0.020216098 -0.08240658 0.011846285 0.014249414 -0.08285844 0.10377742
-0.08956079 0.04573483 -0.12117959 -0.16476178 0.045001164 0.11494096 -0.08847406 -0.05980515
-0.07541857 -0.1206061 0.019241335 0.097038426 0.09915566 -0.04344186 -0.059552077 -0.010903694
-0.0726776 -0.093294024 -0.012424177 -0.023078742 -0.073035024 -0.12564579 0.11153004 -0.015916198
-0.040593445 -0.073941536 0.09238977 0.005824386 0.15490037 -0.0062962556 -0.08990349 0.08992344
-0.052326098 0.11012969 -0.009093945 -0.000786161 -0.08775555 -0.14457782 -0.045596737 0.049613375
-0.09878809 -0.036248058 0.011860376 0.022740431 -0.14963934 -0.044283982 -0.032678124 0.031595577
-0.034458373 0.112649985 -0.024443906 0.08909949 0.09941102 0.08263123 0.048045557 0.14588992

gkf.gat_rnn.r_input_gru.bias_hh_l0 f4 [192]
00000000: 62d6 c4bd 2d79 b0bd fdf9 153d fded 74bd
00000010: f526 a0bd eac6 d1bd c388 893c 43cc a93d
00000020: 6311 b9bc ae85 253d 415a 4b3d b399 2e3c
00000030: 4554 8cbd 4c93 b63d 57b6 5c3d d8af 1cbd
00000040: 1551 943d f0ad d53d 856e 66bd a513 e3bd
00000050: 086f ab3d 86b1 943d a870 02bd c5f9 a33d
00000060: ff05 d1bb a416 37bb 0fb9 ad3d 36db dcbc
00000070: 1d30 c83d 59b3 053d 6d43 2c3d abbc 6abb
00000080: 7c72 e83a 71c8 e93c 4152 74bd e168 87bd
00000090: 535b 1e3d 728f 19bd 6b15 1bbd ae6a 8fbd
000000a0: 1803 02bd b71c 113e 2d45 57bd d49f f63c
000000b0: cb80 e13d 3c75 a03d 335e ab3c f10d 5fbc
000000c0: 05b3 fb3d 3dc0 373d 466a 97bd 390c 86bd
000000d0: 4b88 c0bc 3f95 97bb 8da1 6bbd cc69 4a3d
000000e0: 2f9a 903d 8dd9 9bbd 819e 99bd 787d 643d
000000f0: 4912 c0bd 1796 913c 2ddc 723d ef40 f6bd
00000100: d043 3ebd dedc 553d 8eb2 20bc 6f14 96bd
00000110: bf45 21be fbe8 69bd 76a3 15be 9217 423d
00000120: 943f eabd 7543 9abd 556d 65bc 9ada 93bd
00000130: 6fba a3bc 564e 37bc 85c4 57bd 38a4 a0bd
00000140: e7b8 573d a1c3 d93c ef99 a5bc 1657 0d3d
00000150: 12c1 5abc 14e9 d33c 2ad4 03bd 2c44 72bd
00000160: fb87 82bd 6c22 e9bd 5257 a9bc 4b32 0abe
00000170: 9467 6d3d e769 b83c 9b2d cbbc 0926 27be
00000180: af04 fc3b ec37 b9bc 271e 44bb 8d98 c03d
00000190: 169a e63c 6917 5ebc 36b6 e53d 2930 38bd
000001a0: ed15 863d 5874 0bbd da82 00bc 6a3e 8a3c
000001b0: cd53 8cbd 4416 f03d c3a1 7a3d 719b 93bd
000001c0: 4e7f cfbd 0905 8e3d 7c5e e53c 62cb 9fbd
000001d0: ae3c 2abe 006e eabc 9d1d 383c dd28 993d
000001e0: 15fc 283d 5771 babb 55ab b43d b1d7 47bb
000001f0: d532 683c 551c 8fbd 4e6b a83d 52fb ef3b
00000200: c6e7 b53b f87d d63c 9b7e 69bd 32ae b5bd
00000210: e595 a83d 9563 043d c47f df3b b4b6 a7bd
00000220: 4466 e73d 26f5 123c 371a 2dbc d9ef 00be
00000230: 3968 55bd fd57 6c3d 10e8 04bd 7bd7 153d
00000240: 13f7 d3bd 23a3 9ebd 9f4a bdbd edab b43d
00000250: 8b10 953d d8ee 1b3d 9b61 743d 7087 bb3d
00000260: 758e f43d df80 c43d d928 83bc f80d ca3c
00000270: 9bc8 7e3d de60 cb3c f928 f0bd e747 07be
00000280: 0ef0 14be 7abe 893d de0c ff3d 2a1f ab3d
00000290: f30e a63d 8649 f13c 7ba9 9fbd 041a fd3d
000002a0: d2bd a13d 82d9 3e3c d748 04be 9922 af3d
000002b0: fc88 b6bd d533 6abd 0e55 fb3d 2375 7fbd
000002c0: faf5 a63d 5ea9 343d cd06 1abd 88ae f3bd
000002d0: 5f4a 91bd b513 e7bd 7211 12be c738 0a3e
000002e0: 366a 15bd 5948 40bd 9856 843d 9755 4cbd
000002f0: 28fb 1fbd 7aef 9abd ad98 12bd 337d 88bd
-0.09611203 -0.086168624 0.03661536 -0.059797276 -0.078199305 -0.10243018 0.016788846 0.08290913
-0.022591298 0.04041069 0.04964662 0.010656762 -0.06852011 0.089148134 0.05388483 -0.038253635
0.07242028 0.104335666 -0.056257743 -0.11087731 0.08370787 0.072604224 -0.03184572 0.08006624
-0.0063788886 -0.002793708 0.08482563 -0.026959997 0.09774802 0.032641742 0.04205649 -0.0035818021
0.0017734314 0.02853796 -0.059648756 -0.06611801 0.038661312 -0.037490316 -0.037862223 -0.070027694
-0.03174123 0.1417111 -0.052556206 0.030105509 0.110108934 0.07834861 0.020918941 -0.013614164
0.12290005 0.044861067 -0.07393317 -0.065453 -0.02350249 -0.004625946 -0.057527114 0.049417302
0.07060658 -0.07609854 -0.07500935 0.05578372 -0.093784876 0.017771764 0.059292007 -0.12024104
-0.04645139 0.05221259 -0.009808196 -0.07328116 -0.15749262 -0.057106953 -0.14613137 0.04738576
-0.11437908 -0.07532398 -0.014003118 -0.07219429 -0.01998636 -0.01118811 -0.05267765 -0.07843822
0.05266657 0.026582541 -0.020215003 0.03450688 -0.013351696 0.025867976 -0.032184757 -0.059147045
-0.063735925 -0.113835186 -0.02067152 -0.13495748 0.057960108 0.022511436 -0.02480202 -0.16323103
0.007690988 -0.022609673 -0.0029925199 0.09404097 0.028149646 -0.013555386 0.112163946 -0.044967804
0.06547151 -0.0340465 -0.007843697 0.016875464 -0.06851921 0.11722997 0.061189424 -0.072073825
-0.10131703 0.06934554 0.027999155 -0.07802464 -0.1662471 -0.028616905 0.011237529 0.07478497
0.04125603 -0.0056897807 0.088217415 -0.0030493552 0.014172276 -0.06987826 0.08223592 0.007323661
0.005551311 0.026183113 -0.057005506 -0.08871116 0.08231715 0.03232153 0.006820651 -0.08189145
0.112988025 0.008969581 -0.010565332 -0.12591495 -0.052101348 0.0577011 -0.032447875 0.03658245
-0.1034986 -0.077459596 -0.092427485 0.08821855 0.07278546 0.038069576 0.059663396 0.09156692
0.11941234 0.09594893 -0.016010689 0.024664864 0.06220303 0.024826463 -0.11726565 -0.13211022
-0.14544699 0.06725784 0.12453626 0.083555534 0.0810832 0.029454004 -0.07795998 0.12358478
0.078975335 0.011648538 -0.12918411 0.08551521 -0.089128464 -0.057178337 0.12272082 -0.06236757
0.08152385 0.044106834 -0.037604142 -0.118985236 -0.07094263 -0.11283056 -0.14264467 0.13498221
-0.036478244 -0.046943996 0.06461829 -0.049886312 -0.03905788 -0.07565208 -0.035790134 -0.06664505

gkf.gat_rnn.gcn_nodes.bias f4 [64]
00000000: 360d a13d eb27 c5bd f5be 883d e217 9fbd
00000010: 7578 b23d 35cb 8ebd 6475 ad3d 21fc b8bd
00000020: 886e b1bd 04c1 ac3d 090e 993d 9da8 713d
00000030: 6bd5 093d 9509 b5bd 773e a1bd 3705 aabd
00000040: f73b 79bd 519b aebd ab8c b4bd 49ba bbbd
00000050: 9e2f a9bd 9581 b83d 137b 8a3d 6917 a33d
00000060: d7f8 a63d 9e4d 963d 9b26 933d 3f23 a03d
00000070: 2f52 f13c ff99 b23d 9633 b7bd 43a8 7b3c
00000080: 88f0 95bd 8c8b aebd 8584 96bd ad3c c13d
00000090: a104 adbd 3373 893d f320 153c 034c bebd
000000a0: 31d8 01bd 39b5 fb3b 9435 8bbd c9ec 8d3d
000000b0: 3d3b a0bd 4037 793d c38d 683d ca55 a63d
000000c0: 0e92 b3bd 7446 b9bd ac7f ab3d 25b6 a53d
000000d0: 827a b03d de89 bb3d 1649 a7bd e7be abbd
000000e0: 9e3d e73c 18cc 9e3d f613 603d 146e 96bd
000000f0: e576 a43d 757f aabd 4f56 b4bd a47c 9dbd
0.07863848 -0.096267544 0.06677047 -0.07768227 0.087143816 -0.069723524 0.08469656 -0.09032465
-0.0866366 0.08435252 0.0747338 0.058998693 0.033650797 -0.08839718 -0.07873242 -0.08301776
-0.060848203 -0.08525718 -0.08815893 -0.091663904 -0.082610354 0.09009091 0.06761756 0.079634495
0.08152931 0.07339023 0.07185098 0.07819223 0.029458134 0.08720779 -0.08945386 0.015359941
-0.07321268 -0.0852271 -0.07349495 0.09435401 -0.084481485 0.06711426 0.009102094 -0.09291842
-0.031700317 0.0076815155 -0.067973286 0.06929929 -0.07823799 0.060843706 0.05677582 0.08121832
-0.08768092 -0.09046641 0.08373961 0.08091382 0.086171165 0.091571555 -0.08168237 -0.08386021
0.028227624 0.077537715 0.054706536 -0.073452145 0.0803049 -0.08325092 -0.088055246 -0.07689789
