models/with_mismatch/kalman_process_50n_local_params_r_quarter_20deg.pth (torch, 269954 bytes, 28 tensors)

gkf.gat_rnn.fc_delta_y_innov.0.weight f4 [64, 3]
0.43765822 0.4630491 -0.15772523 0.5351318 -0.13783453 0.14505607 -0.26719323 0.3543602
0.5357189 -0.41124862 0.5201985 0.13115688 0.41014722 0.050819874 0.24644516 -0.06998465
0.45369285 0.10344558 -0.27211353 0.14132409 -0.2660243 -0.059608195 -0.2178639 0.41603705
-0.45369804 -0.2771685 -0.12387079 -0.35311526 0.046741758 -0.57367843 0.5290087 -0.4860574
0.48696345 0.09710118 -0.1931498 0.37704486 0.08803582 0.49705067 0.046368737 -0.17940742
0.15992402 -0.17541523 0.25117162 0.559486 0.34944132 -0.25341433 0.3500073 0.11817765
0.30673778 -0.35585546 -0.5699139 -0.20423153 -0.44342515 0.5182815 0.16549577 0.25208452
0.22910412 -0.0068651396 0.45967492 -0.31167248 0.017397542 -0.42134723 0.15308173 -0.20981288
0.17843033 -0.09524343 0.48576164 -0.35201973 -0.3343933 -0.33743215 0.54734576 0.19941026
0.5587293 -0.44221947 -0.6046562 -0.4561264 -0.39941257 0.2643196 0.2106184 0.51200455
-0.31664464 -0.39390326 0.3160874 -0.23026623 0.35281163 -0.12299836 0.36646733 -0.44790038
-0.3020009 0.20504627 0.090580635 -0.14035676 0.3974208 0.39747328 -0.39924046 -0.3525327
0.5388254 -0.1878774 -0.17441438 -0.5567177 -0.3307982 0.15891373 -0.068833135 -0.39392135
0.051078416 -0.40140513 -0.4884857 -0.31825382 -0.500536 -0.37057334 0.60240126 0.13632268
0.2287574 -0.5373556 -0.3868964 -0.1998012 0.10546409 -0.5086398 -0.2534489 -0.37408707
-0.014528527 -0.23678856 -0.060398344 -0.39451042 -0.40795204 -0.3588722 -0.1711974 -0.45104134
0.5404075 -0.10463383 0.5345573 0.18852638 -0.48125756 0.41335 -0.16731526 -0.2334889
-0.48720422 -0.5667603 0.17791255 -0.13029878 0.27121007 -0.47700745 0.44351637 -0.4344411
-0.09830398 0.09427587 0.35170475 0.4691309 0.5268457 -0.44903335 0.15401801 -0.2457811
-0.02014783 -0.4307252 0.5409013 -0.4759001 0.31044874 0.22938924 0.21133317 -0.2960217
0.5659821 0.15220352 0.08453011 -0.5160599 0.31156176 -0.06805614 -0.2752047 0.5477898
0.13610905 -0.32008675 -0.30616662 -0.029538259 0.34319627 -0.17368302 -0.32665548 -0.2053738
-0.44192216 0.19922759 0.45740995 -0.5598293 0.13202414 0.30651864 0.12614691 -0.21065587
0.29483083 0.36240956 0.22570047 -0.11691664 -0.12902093 0.07327109 -0.117007904 -0.15908766
00000000: bd14 e03e c614 ed3e b982 21be 66fe 083f
00000010: 7f24 0dbe 9489 143e 8dcd 88be b36e b53e
00000020: e024 093f 2e8f d2be bb2b 053f fd4d 063e
00000030: d1fe d13e 8028 503d 1f5c 7c3e 1d54 8fbd
00000040: 6e4a e83e 47db d33d 7752 8bbe 43b7 103e
00000050: 5634 88be b927 74bd b717 5fbe cf02 d53e
00000060: 1c4b e8be 08e9 8dbe f8af fdbd 86cb b4be
00000070: 4974 3f3d 97dc 12bf 1d6d 073f 84dc f8be
00000080: 4653 f93e fcdc c63d 10c9 45be 060c c13e
00000090: 204c b43d 6d7d fe3e 25ed 3d3d 94b6 37be
000000a0: 1fc3 233e 0da0 33be 9199 803e 793a 0f3f
000000b0: f9e9 b23e 86bf 81be 2834 b33e 2007 f23d
000000c0: bc0c 9d3e b032 b6be e1e5 11bf 1222 51be
000000d0: 9f08 e3be 19ae 043f b977 293e 3911 813e
000000e0: 459a 6a3e f7f4 e0bb 835a eb3e 8993 9fbe
000000f0: 4a85 8e3c d3ba d7be 75c1 1c3e 30d9 56be
00000100: 71b6 363e fd0e c3bd c0b5 f83e ee3b b4be
00000110: 9935 abbe e8c3 acbe da1e 0c3f 3432 4c3e
00000120: e208 0f3f 976a e2be c0ca 1abf 6689 e9be
00000130: ce7f ccbe e654 873e 5aac 573e bb12 033f
00000140: 3f1f a2be b0ad c9be 35d6 a13e e9ca 6bbe
00000150: baa3 b43e 90e6 fbbd 9ba1 bb3e 3353 e5be
00000160: dd9f 9abe a6f7 513e 5782 b93d afb9 0fbe
00000170: bd7a cb3e 9e81 cb3e 3f69 ccbe 2b7f b4be
00000180: 76f0 093f ef62 40be af99 32be 0d85 0ebf
00000190: 625e a9be 48ba 223e 63f8 8cbd 0fb0 c9be
000001a0: 9a37 513d f984 cdbe cc1a fabe 2af2 a2be
000001b0: 2123 00bf cabb bdbe f836 1a3f 2c98 0b3e
000001c0: 613f 6a3e 2390 09bf 4917 c6be b098 4cbe
000001d0: 8ffd d73d 3836 02bf 0ec4 81be 5788 bfbe
000001e0: 0f09 6ebc b378 72be 4164 77bd 45fd c9be
000001f0: 17df d0be 19be b7be 5f4e 2fbe e4ee e6be
00000200: 2558 0a3f 434a d6bd bfd8 083f 0f0d 413e
00000210: 6467 f6be 9ca2 d33e b154 2bbe b717 6fbe
00000220: d572 f9be 3417 11bf b52e 363e 0b6d 05be
00000230: 0cdc 8a3e 523a f4be 9414 e33e 106f debe
00000240: 9953 c9bd b513 c13d a512 b43e ed31 f03e
00000250: 5cdf 063f b3e7 e5be e6b6 1d3e 0aae 7bbe
00000260: 100d a5bc 0388 dcbe 8278 0a3f 2ea9 f3be
00000270: 23f3 9e3e 03e5 6a3e b967 583e 2890 97be
00000280: 34e4 103f 3ddb 1b3e 1f1e ad3d 801c 04bf
00000290: 0685 9f3e 0461 8bbd a1e7 8cbe f43b 0c3f
000002a0: 2c60 0b3e 69e2 a3be dfc1 9cbe 38fa f1bc
000002b0: 6cb7 af3e f6d9 31be 633f a7be 824d 52be
000002c0: 9f43 e2be 5102 4c3e a331 ea3e f950 0fbf
000002d0: 5631 073e 03f0 9c3e a82c 013e 2cb6 57be
000002e0: 11f4 963e bf8d b93e 061e 673e fe71 efbd
000002f0: 101e 04be 270f 963d d7a1 efbd e0e7 22be

gkf.gat_rnn.fc_delta_y_innov.0.bias f4 [64]
0.37368065 0.5036391 -0.054337908 -0.13341054 -0.014303848 -0.04131454 0.15405008 0.14756134
-0.5258657 -0.19830665 0.5018783 0.2311481 -0.024185207 -0.353524 -0.3404994 -0.51519865
-0.16949834 0.19035687 0.36556426 0.26444885 -0.52367395 -0.34406745 -0.07270839 0.5576232
0.104580976 -0.14151685 0.24922676 -0.2225813 -0.37523457 0.436236 -0.24813797 -0.099073626
-0.5554626 0.37569183 0.48725432 0.22372803 -0.40851596 -0.5336915 -0.45812485 0.44230846
0.27954918 0.5025785 0.31888112 0.14969552 -0.015248875 -0.426486 -0.47878143 -0.53230333
0.22781153 -0.27227315 -0.116574004 -0.34382233 -0.102474906 -0.39904976 -0.34531844 0.19126344
-0.16476491 0.35478708 -0.18597147 -0.4359589 -0.09398659 -0.2755364 -0.15849805 -0.5231157
00000000: 1253 bf3e 7eee 003f 6d91 5ebd c69c 08be
00000010: b05a 6abc 6f39 29bd 4ebf 1d3e 521a 173e
00000020: 229f 06bf e610 4bbe 197b 003f 16b2 6c3e
00000030: 0e20 c6bc 1901 b5be f055 aebe 0fe4 03bf
00000040: f990 2dbe e9ec 423e 3d2b bb3e d765 873e
00000050: 7f0f 06bf 9c29 b0be 23e8 94bd 65c0 0e3f
00000060: 8d2e d63d cbe9 10be 4d35 7f3e 5aec 63be
00000070: bf1e c0be 535a df3e e117 7ebe 1de7 cabd
00000080: cc32 0ebf ae5a c03e 6679 f93e f618 653e
00000090: 0129 d1be 02a0 08bf 578f eabe 4176 e23e
000000a0: 1221 8f3e fca8 003f 6344 a33e c849 193e
000000b0: 6bd6 79bc 5f5c dabe d722 f5be 0845 08bf
000000c0: 6d47 693e 6367 8bbe 5abe eebd 7b09 b0be
000000d0: 5dde d1bd 4050 ccbe 94cd b0be 90da 433e
000000e0: 22b8 28be a7a6 b53e 4e6f 3ebe 0136 dfbe
000000f0: 0b7c c0bd 1b13 8dbe 504d 22be e9ea 05bf

gkf.gat_rnn.fc_delta_y_innov.2.weight f4 [64, 64]
0.07573887 -0.075409345 0.0757205 0.03359595 0.099580616 -0.10029097 0.07904198 -0.024312617
0.04064086 0.09925716 -0.00063653634 0.024139844 -0.025583984 -0.12339705 0.06462383 -0.14346398
0.06655068 0.13350405 0.12879495 -0.022770455 -0.105771534 0.010644412 0.07252477 -0.11882754
-0.023623357 -0.044917386 -0.007955051 -0.09041465 -0.03984778 -0.014529595 -0.0884998 0.104172654
0.1032661 0.009337774 -0.00842697 -0.049968764 -0.060427353 -0.15297313 0.046171647 -0.06971688
-0.091589056 -0.0071348133 -0.006944172 -0.036322758 -0.016829802 -0.03845698 -0.016965317 -0.08878843
-0.08091583 0.10463796 -0.048014775 -0.0021283794 -0.035403118 -0.028427133 0.15959781 0.09188346
-0.13463303 0.054886606 0.10750191 0.022878077 0.08822556 0.12918124 -0.020574842 0.0015332114
-0.0981715 -0.016624097 0.091403455 0.05298221 -0.069656335 -0.13034295 -0.09533064 -0.09308367
-0.09109919 -0.030668173 0.11300109 0.061733868 -0.12195868 -0.10697056 0.04877937 -0.09810749
-0.010778571 0.081285276 -0.062269527 -0.03746453 0.010186195 -0.03432944 -0.05539239 -0.12479881
-0.09418932 -0.059077345 0.099406235 -0.067210756 -0.060557794 0.036039215 0.0920561 0.079452515
0.10030204 0.07449598 -0.10306449 0.0144692715 0.087376066 -0.039463606 -0.06732376 0.118272245
-0.029567085 -0.06928656 -0.08859444 -0.016068382 0.045576863 0.0237649 0.04979352 -0.100251585
-0.11235032 -0.014402745 0.13290764 0.06093275 -0.07260265 -0.02950511 -0.041949056 -0.029289719
0.02799152 0.04497009 0.10823653 -0.14547963 0.06584863 -0.090078145 0.051356584 0.11040526
-0.004821618 0.108119175 -0.067631535 -0.02633004 0.075388275 -0.022998853 -0.041706678 -0.026115661
0.090872765 0.054128308 0.03862974 -0.06486487 -0.10004416 0.017995227 0.050118037 -0.04437574
-0.047165576 0.10740583 0.0059154686 0.00024613555 -0.011894998 -0.106982514 -0.12291442 -0.07786407
-0.07359479 0.05570548 -0.045130126 -0.049302198 0.13646607 0.048148826 0.12029405 -0.06603522
-0.046066687 0.048831157 -0.10258389 -0.09344959 0.031816658 -0.019413386 -0.08702306 0.053901985
0.052146107 -0.009420788 -0.0017547304 -0.11686034 -0.04575596 0.02911778 0.08930679 -0.0151376845
-0.045605406 0.06734173 -0.1015697 0.078313805 -0.04420363 0.029986572 0.026189895 0.041030005
-0.07309186 0.07621514 -0.008451615 0.10166968 0.12610891 -0.0060210982 -0.09101272 0.103229485
0.08823826 -0.10659876 -0.019389106 -0.12790768 -0.1159856 0.019171938 0.033965684 0.014019223
-0.033095885 0.1096017 0.0042140298 -0.09071863 -0.019834116 0.020054456 0.026501806 -0.10039456
0.03767822 -0.0712196 -0.1153719 -0.079466775 0.11759863 0.09786616 0.10200712 0.07267556
0.08624129 -0.015844058 -0.07688784 0.057811566 -0.081990354 -0.08356563 -0.06854828 0.016573515
0.051686488 -0.047520474 -0.06310214 0.024577865 -0.07607726 -0.10286024 0.06434337 -0.016357876
0.14158511 0.12957431 0.027938113 0.037778597 0.026465632 0.013970688 -0.027935991 -0.0060986276
0.03641739 0.10525647 -0.045849662 -0.06020251 -0.044679746 -0.07040626 -0.00042521025 0.0808384
0.0929322 0.052411534 -0.09224795 -0.0805341 -0.04193661 -0.034795523 -0.0010604977 -0.10536773
00000000: fb1c 9b3d 3770 9abd 5913 9b3d e89b 093d
00000010: ecf0 cb3d 5a65 cdbd c3e0 a13d 412b c7bc
00000020: 0877 263d 5747 cb3d 3bdd 26ba ecc0 c53c
00000030: 8195 d1bc 98b7 fcbd 8059 843d 39e8 12be
00000040: b94b 883d 49b5 083e d3e2 033e 1b89 babc
00000050: bf9e d8bd e665 2e3c de87 943d da5b f3bd
00000060: c585 c1bc 4bfb 37bd e755 02bc 512b b9bd
00000070: 6d37 23bd 8a0d 6ebc 623f b5bd 7958 d53d
00000080: 2d7d d33d 76fd 183c 4611 0abc 0cac 4cbd
00000090: ac82 77bd fda4 1cbe 7b1e 3d3d b9c7 8ebd
000000a0: 0b93 bbbd 27cb e9bb f08b e3bb 2cc7 14bd
000000b0: a7de 89bc 1185 1dbd d9fa 8abc b5d6 b5bd
000000c0: 33b7 a5bd 6d4c d63d 24ab 44bd 487c 0bbb
000000d0: dc02 11bd 05e0 e8bc 9c6d 233e 652d bc3d
000000e0: 3edd 09be c7d0 603d f629 dc3d ce6a bb3c
000000f0: 9aaf b43d 1648 043e 928c a8bc 0af6 c83a
00000100: 240e c9bd 422f 88bc bc31 bb3d e003 593d
00000110: fba7 8ebd 9f78 05be b63c c3bd a7a2 bebd
00000120: 3692 babd d23b fbbc 1e6d e73d a7dc 7c3d
00000130: 79c5 f9bd 6213 dbbd e0cc 473d 94ec c8bd
00000140: 9a98 30bc e578 a63d 550e 7fbd 6874 19bd
00000150: 00e4 263c 079d 0cbd 21e3 62bd 8596 ffbd
00000160: 55e6 c0bd 16fb 71bd 7f95 cb3d cba5 89bd
00000170: 730b 78bd db9d 133d e987 bc3d 00b8 a23d
00000180: 286b cd3d 5991 983d 7a13 d3bd 8610 6d3c
00000190: 39f2 b23d 97a4 21bd 0ae1 89bd b838 f23d
000001a0: ac36 f2bc 1de6 8dbd 0071 b5bd d7a1 83bc
000001b0: ceae 3a3d 9cae c23c 4af4 4b3d b450 cdbd
000001c0: ed17 e6bd 7ef9 6bbc f118 083e 9f94 793d
000001d0: b3b0 94bd b3b4 f1bc c6d2 2bbd fef0 efbc
000001e0: 794e e53c 8f32 383d 1dab dd3d 9df8 14be
000001f0: a6db 863d e47a b8bd 485b 523d 271c e23d
00000200: aafe 9dbb 966d dd3d 6782 8abd 19b2 d7bc
00000210: 2b65 9a3d 1768 bcbc 9fd4 2abd 83f0 d5bc
00000220: 801b ba3d a5b5 5d3d 383a 1e3d dfd7 84bd
00000230: f4e3 ccbd ba6a 933c 9248 4d3d 56c3 35bd
00000240: b130 41bd 96f7 db3d 8cd6 c13b c10b 8139
00000250: 3de3 42bc a619 dbbd 8eba fbbd 3377 9fbd
00000260: deb8 96bd 6e2b 643d 5eda 38bd 1af1 49bd
00000270: c3bd 0b3e b437 453d ba5c f63d 793d 87bd
00000280: 6cb0 3cbd 2e03 483d 8117 d2bd 8062 bfbd
00000290: 2f52 023d d208 9fbc 2539 b2bd 54c8 5c3d
000002a0: 2897 553d a659 1abc fbfe e5ba 7954 efbd
000002b0: 9a6a 3bbd 6988 ee3c 7ae6 b63d 0d04 78bc
000002c0: bccc 3abd 76ea 893d c603 d0bd fd62 a03d
000002d0: de0e 35bd 66a6 f53c 318c d63c 140f 283d
000002e0: 2fb1 95bd af16 9c3d a578 0abc 3138 d03d
000002f0: b222 013e a24c c5bb e064 babd fb69 d33d
00000300: 43b6 b43d 7350 dabd e7d5 9ebc 3bfa 02be
00000310: dc89 edbd 780e 9d3c 9a1f 0b3d e2b0 653c
00000320: 8d8f 07bd db76 e03d d815 8a3b b0ca b9bd
00000330: 287b a2bc 3e49 a43c 511a d93c aa9b cdbd
00000340: 7a54 1a3d 95db 91bd 1a48 ecbd 7abf a2bd
00000350: 8dd7 f03d 0e6e c83d 1ce9 d03d edd6 943d
00000360: 469f b03d 66cb 81bc 5f77 9dbd d2cb 6c3d
00000370: 8fea a7bd 7524 abbd 0a63 8cbd 2ec5 873c
00000380: 36b5 533d d4a4 42bd b23b 81bd 8557 c93c
00000390: 65ce 9bbd 64a8 d2bd 75c6 833d f400 86bc
000003a0: b0fb 103e 21af 043e 78de e43c bbbd 1a3d
000003b0: 74ce d83c 50e5 643c 05da e4bc ffd6 c7bb
000003c0: 672a 153d b490 d73d dbcc 3bbd e896 76bd
000003d0: 1c02 37bd 2831 90bd c1ee deb9 9a8e a53d
000003e0: 3d53 be3d 7aad 563d 7eec bcbd 10ef a4bd
000003f0: b9c5 2bbd c085 0ebd 6600 8bba 09cb d7bd

gkf.gat_rnn.fc_delta_y_innov.2.bias f4 [64]
0.012061603 0.05678609 -0.0002925019 -0.094430886 0.06488676 0.05171854 -0.072638124 -0.09126829
-0.06601372 -0.063158765 -0.019685593 0.018583473 0.015009282 -0.028607571 0.08179496 0.013349356
-0.06752452 -0.025729092 -0.08162951 -0.05029833 -0.11418148 0.00995585 -0.09724988 0.05404788
0.1079814 -0.09265493 -0.046204433 -0.09129434 0.018177235 0.004041914 -0.0636253 0.061892945
0.037991505 -0.10340093 0.010983435 -0.040603105 -0.012447318 0.059428394 -0.007816291 -0.080922976
0.09210268 -0.09822258 -0.028288074 0.059912186 0.12768173 0.1189275 -0.03691708 0.03939472
-0.09827356 -0.0036049234 -0.04171233 0.059370022 -0.07011071 0.053357817 0.051837962 0.11927189
-0.036056023 0.11377755 -0.122611865 -0.049337246 0.046166625 0.041237455 0.077098444 -0.0940474
00000000: 089e 453c 8898 683d f15a 99b9 fb64 c1bd
00000010: 5ae3 843d d2d6 533d 4cc3 94bd dfea babd
00000020: 3432 87bd 6259 81bd ae43 a1bc 5e3c 983c
00000030: 7ee9 753c 6d5a eabc 1e84 a73d 42b7 5a3c
00000040: 4c4a 8abd d1c5 d2bc 5f2d a7bd 9f05 4ebd
00000050: fbd7 e9bd dd1d 233c f22a c7bd 4f61 5d3d
00000060: 5a25 dd3d dec1 bdbd dc40 3dbd 87f8 babd
00000070: 6de8 943c 0872 843b fb4d 82bd 7583 7d3d
00000080: fb9c 1b3d dec3 d3bd def3 333c 714f 26bd
00000090: d6ef 4bbc 306b 733d e70f 00bc f2ba a5bd
000000a0: 54a0 bc3d ec28 c9bd 64bc e7bc 7b66 753d
000000b0: 00bf 023e 4390 f33d 5d36 17bd 5c5c 213d
000000c0: a643 c9bd 9440 6cbb 8cda 2abd fb2d 733d
000000d0: 3496 8fbd ba8d 5a3d 0b54 543d d244 f43d
000000e0: 7baf 13bd 3404 e93d ee1b fbbd da15 4abd
000000f0: 3719 3d3d 9be8 283d cae5 9d3d ec9b c0bd

gkf.gat_rnn.fc_r.0.weight f4 [64, 1]
0.6240399 -0.934318 -0.6785284 -0.06802674 -0.97784436 -0.9592378 -0.8973246 0.8243985
0.21787223 -0.3227994 -0.049742065 -0.8756672 -0.9500487 -0.69964004 -0.9812905 0.68519795
-0.36192876 -0.27725402 -0.87417716 0.18578698 -0.14290957 -0.6816854 0.6689447 0.8758128
-0.71534395 0.5806051 -0.1668327 -0.013992962 0.44774458 -0.1870222 0.8643252 0.6064043
-0.66518986 -0.6092678 -1.0016569 0.32413328 -0.7655431 -0.8417286 -0.6524272 -0.99961805
-0.8124767 0.89139056 0.5600661 0.8823604 -0.4893944 -0.40997517 -0.34943718 0.027012052
-0.71834886 0.17666386 -0.6404319 0.1755405 0.91101986 0.16305634 0.7525254 -0.7241526
-0.14576253 -0.628799 -0.1115796 -0.3863745 -0.5719073 -0.9877653 -0.36378628 0.15006644
00000000: 14c1 1f3f 772f 6fbf 0ab4 2dbf 9a51 8bbd
00000010: 0254 7abf 9c90 75bf 11b7 65bf c80b 533f
00000020: e619 5f3e f745 a5be 56be 4bbd ba2b 60bf
00000030: 6436 73bf 9c1b 33bf db35 7bbf 2269 2f3f
00000040: ba4e b9be 3df4 8dbe 13ca 5fbf f13e 3e3e
00000050: e356 12be ef82 2ebf f63f 2b3f 4535 603f
00000060: c820 37bf 89a2 143f 31d6 2abe bd42 65bc
00000070: c73e e53e bf82 3fbe 6b44 5d3f 503d 1b3f
00000080: e249 2abf f9f8 1bbf 4b36 80bf ccf4 a53e
00000090: a2fa 43bf 877b 57bf 7805 27bf f8e6 7fbf
000000a0: 79fe 4fbf 2c32 643f 7e60 0f3f 5fe2 613f
000000b0: e791 fabe 44e8 d1be 6ee9 b2be 6148 dd3c
000000c0: b6e5 37bf 5fe7 343e 58f3 23bf e4c0 333e
000000d0: 9938 693f 3ef8 263e 81a5 403f 1162 39bf
000000e0: c642 15be f9f8 20bf d883 e4bd e1d2 c5be
000000f0: 8468 12bf 30de 7cbf 3242 babe 04ab 193e

gkf.gat_rnn.fc_r.0.bias f4 [64]
-0.1637062 -0.944709 0.77422345 0.76997954 -0.60729975 0.113959536 0.66537756 -0.93055445
-0.8869505 0.56725305 -0.011299409 0.31631157 -0.40314844 0.19852749 0.70147586 -0.1930871
-0.31280366 -0.9477311 -0.12764794 0.6451526 -0.95463073 -0.058518 0.78307635 -0.2471509
-0.35774168 -0.2883815 -0.40689567 0.12036857 -0.941891 0.4017603 -0.23247215 -0.12465936
-0.038492844 0.60609525 -0.5931951 -0.9118427 -0.70435137 -0.72623616 -0.4957125 0.8249341
-0.77326703 -0.59551114 -0.8112453 -0.51924664 -0.03209206 -0.6191515 0.018894773 0.37193534
-0.16651787 0.44765252 0.22173487 0.9921676 -0.051772445 0.8733295 0.78409344 0.49311686
0.5983773 -0.6507775 -0.6691626 0.44007757 0.39618182 0.9400897 -0.1501121 -0.16838482
00000000: 99a2 27be 73d8 71bf 8233 463f 611d 453f
00000010: ff77 1bbf 9e63 e93d 2f56 2a3f d138 6ebf
00000020: 300f 63bf 7f37 113f 2821 39bc 97f3 a13e
00000030: 7969 cebe ca4a 4b3e ec93 333f a0b8 45be
00000040: cd27 a0be 819e 72bf 24b6 02be b928 253f
00000050: ae62 74bf 92b0 6fbd b177 483f 2015 7dbe
00000060: eb29 b7be bda6 93be a154 d0be cc83 f63d
00000070: c51f 71bf 87b3 cd3e 2e0d 6ebe 684d ffbd
00000080: acaa 1dbd 0f29 1b3f a2db 17bf 866e 69bf
00000090: 5f50 34bf 9dea 39bf 07ce fdbe e22e 533f
000000a0: d4f4 45bf 6b73 18bf c6ad 4fbf 59ed 04bf
000000b0: f772 03bd b680 1ebf 36c9 9a3c 4f6e be3e
000000c0: a983 2abe b632 e53e 770e 633e b2fe 7d3f
000000d0: 580f 54bd 8692 5f3f 59ba 483f d079 fc3e
000000e0: 412f 193f 5b99 26bf 3d4e 2bbf d951 e13e
000000f0: 58d8 ca3e b8a9 703f fdb6 19be 126d 2cbe

gkf.gat_rnn.fc_r.2.weight f4 [64, 64]
0.099442884 0.012117359 0.12351596 -0.057485245 -0.033757582 0.01140975 0.072493725 -0.106459565
-0.04134857 0.09755163 0.033257138 0.094163865 -0.03547885 -0.072928235 -0.07947951 -0.056547225
-0.08604454 0.07275933 0.039974835 -0.0737017 0.11541772 0.04184512 0.059780285 -0.039006103
0.09358893 -0.075450234 0.10111211 -0.06210428 0.049044237 -0.03814431 0.0949774 -0.09093492
-0.018112268 -0.02766728 -0.06748174 -0.069684304 -0.027091712 0.020749103 0.09629039 -0.014630738
0.13047524 -0.047831412 -0.06477477 0.005725664 -0.016474046 0.048766896 0.121610396 0.047106024
-0.098062806 -0.03465566 -0.019052334 -0.11017356 0.05301602 0.11311912 0.075709574 0.0033568714
-0.0022600049 -0.050288513 -0.011421395 0.11581147 -0.058395814 0.025989806 -0.08506944 -0.03227631
0.004886285 -0.09266003 0.052942917 -0.07273879 -0.047174472 0.09621339 0.13243982 -0.016532686
-0.090622775 -0.07828152 -0.025216058 -0.052385885 0.10445308 -0.07849053 0.08997853 0.02102703
-0.035678815 0.09948432 0.076575086 0.021122197 -0.087376006 -0.029291106 0.051761057 0.10567982
-0.037649393 -0.056192055 -0.12507275 0.111692995 0.117034145 0.113286465 -0.072014354 0.087832004
-0.030269245 0.082666956 0.07704182 -0.10463746 0.033023395 0.052377805 -0.07211555 0.13144681
0.099650726 0.099320434 -0.0077737803 -0.07153615 -0.060529098 0.043447778 -0.016200809 0.1324373
0.11106067 0.031814374 -0.09099596 0.07939405 0.11157288 -0.002488792 -0.05518583 -0.014751954
0.050062943 -0.091294676 0.066691436 0.07227038 -0.03335486 -0.029085344 -0.053860523 0.09055651
0.079798624 0.03391981 -0.0038902655 0.032183807 0.11950042 0.03996731 -0.060956903 0.055599686
-0.037485406 -0.0026708718 -0.08078093 -0.002831017 0.0057339207 -0.075101174 0.081743404 0.12118173
-0.105983295 0.029432137 -0.086505465 -0.020396495 0.048078727 -0.0022380243 0.042980585 -0.03478174
0.118374474 -0.052597426 0.020009967 0.014049868 0.09329712 0.0145129245 0.08102457 0.03774437
0.07972578 0.0032317322 0.040672906 0.13272308 -0.04221916 -0.0523407 0.08936947 0.049305804
-0.119555704 0.050846566 -0.11493534 -0.061643466 0.048887163 0.06381646 -0.027953604 0.109004006
0.12378226 0.1023055 -0.11401296 -0.04136176 0.01294257 0.106010735 -0.015921464 0.02744519
0.067481585 -0.06694844 -0.088474005 0.12534897 -0.0014261149 0.09004553 -0.122700684 -0.040349904
0.09993725 -0.012910898 0.03990959 -0.09901853 0.12109868 -0.06287648 -0.007599544 -0.068242185
-0.044358358 -0.110874586 -0.10986569 -0.026207972 -0.055685353 0.09174637 -0.0018153167 0.10956826
-0.021652184 0.023853661 0.11959249 -0.0903797 -0.0589701 0.10641422 -0.019853655 -0.021355031
0.009541176 -0.05436527 0.007274329 -0.04680923 0.052962568 -0.03038801 -0.02971698 -0.03506994
0.032037906 0.060929947 -0.11482441 -0.07466343 -0.12071733 0.05763035 0.09309286 -0.121547714
0.03172224 0.038332216 -0.05337706 0.03984484 0.095936574 0.12153951 0.053594895 -0.022094294
-0.071579695 -0.0406914 0.0003699907 -0.0043704645 0.1028411 -0.10759205 0.020164285 -0.040917553
0.014691282 0.11939108 -0.0010564646 -0.023855696 -0.043519057 -0.12649134 -0.11379731 0.06829384
00000000: b6a8 cb3d e387 463c f0f5 fc3d a675 6bbd
00000010: 6445 0abd f6ef 3a3c 9777 943d 7907 dabd
00000020: 1e5d 29bd 26c9 c73d a338 083d fcd8 c03d
00000030: 4552 11bd 665b 95bd 27c6 a2bd 109e 67bd
00000040: 1f38 b0bd d802 953d a7bc 233d ebf0 96bd
00000050: 2060 ec3d ca65 2b3d 2cdc 743d ddc4 1fbd
00000060: 8eab bf3d a785 9abd de13 cf3d 0f61 7ebd
00000070: 9ce2 483d 353d 1cbd 8383 c23d 163c babd
00000080: 2e60 94bc 7ea6 e2bc de33 8abd a5b6 8ebd
00000090: 70ef ddbc 06fa a93c e533 c53d c3b5 6fbc
000000a0: 4d9b 053e dfea 43bd a2a8 84bd 5a9e bb3b
000000b0: 94f4 86bc ccbf 473d df0e f93d 3ff2 403d
000000c0: 27d5 c8bd 18f3 0dbd a413 9cbc ada2 e1bd
000000d0: 5427 593d ffaa e73d 9f0d 9b3d f5fe 5b3b
000000e0: 971c 14bb 54fb 4dbd cd20 3bbc 902e ed3d
000000f0: 7330 6fbd 93e8 d43c e338 aebd 2a34 04bd
00000100: 211d a03b 8bc4 bdbd acda 583d 13f8 94bd
00000110: 053a 41bd 870b c53d 4e9e 073e 8e6f 87bc
00000120: 6f98 b9bd 1052 a0bd e891 cebc 9592 56bd
00000130: 7feb d53d a5bf a0bd aa46 b83d e140 ac3c
00000140: f323 12bd 6fbe cb3d 66d3 9c3d 7508 ad3c
00000150: 31f2 b2bd e7f3 efbc 6703 543d a96e d83d
00000160: 4036 1abd a429 66bd 1213 00be 4cbf e43d
00000170: 99af ef3d bc02 e83d 437c 93bd 44e1 b33d
00000180: 35f7 f7bc 4b4d a93d 1ac8 9d3d 2a4c d6bd
00000190: 8a43 073d 1c8a 563d 51b1 93bd fe99 063e
000001a0: ae15 cc3d 8368 cb3d 32bb febb 8c81 92bd
000001b0: 5ced 77bd 4cf6 313d 8fb7 84bc a59d 073e
000001c0: c773 e33d ca4f 023d 175c babd 5999 a23d
000001d0: 5280 e43d 001b 23bb 890a 62bd 2eb2 71bc
000001e0: cd0e 4d3d b4f8 babd 8595 883d 7e02 943d
000001f0: 1b9f 08bd 6344 eebc da9c 5cbd b175 b93d
00000200: 766d a33d 80ef 0a3d d3f3 7ebb 2bd3 033d
00000210: a3bc f43d c3b4 233d f2ad 79bd 7fbc 633d
00000220: 4c8a 19bd cb09 2fbb 7970 a5bd 9588 39bb
00000230: 9de3 bb3b a5ce 99bd 1669 a73d 202e f83d
00000240: c50d d9bd aa1b f13c c729 b1bd 8d16 a7bc
00000250: 33ee 443d d1ab 12bb 690c 303d 4c77 0ebd
00000260: 516e f23d 6670 57bd f1eb a33c 6b31 663c
00000270: 8f12 bf3d 9ec7 6d3c 36f0 a53d d799 1a3d
00000280: 4547 a33d 78cb 533b a298 263d 8fe8 073e
00000290: ffed 2cbd 3463 56bd 5707 b73d e2f4 493d
000002a0: 9fd9 f4bd 7d44 503d 3863 ebbd dc7d 7cbd
000002b0: e83d 483d 34b2 823d f5fe e4bc 7e3d df3d
000002c0: 8e81 fd3d 8c85 d13d a07f e9bd f36a 29bd
000002d0: 130d 543c 281c d93d bb6d 82bc bcd4 e03c
000002e0: c933 8a3d 441c 89bd dc31 b5bd 7b5b 003e
000002f0: 7aec baba ca69 b83d 7f4a fbbd f145 25bd
00000300: e7ab cc3d 3b88 53bc 3d78 233d 3aca cabd
00000310: 9602 f83d 62c5 80bd 9805 f9bb 8fc2 8bbd
00000320: 1cb1 35bd 3712 e3bd 4301 e1bd 1ab2 d6bc
00000330: 5316 64bd 85e5 bb3d ecef edba 5365 e03d
00000340: ec5f b1bc c168 c33c e8ec f43d fe18 b9bd
00000350: a28a 71bd b3ef d93d 22a4 a2bc bff0 aebc
00000360: 9852 1c3c 1eae 5ebd 7f5d ee3b 09bb 3fbd
00000370: 47ef 583d 47f0 f8bc 0671 f3bc 7fa5 0fbd
00000380: 2e3a 033d ae91 793d 0f29 ebbd 24e9 98bd
00000390: a63a f7bd cd0d 6c3d 78a7 be3d 02ee f8bd
000003a0: 2eef 013d 3e02 1d3d e7a1 5abd 5834 233d
000003b0: 657a c43d b5e9 f83d 5286 5b3d 18ff b4bc
000003c0: 6098 92bd 07ac 26bd 50fb c139 1d36 8fbb
000003d0: 5b9e d23d 3959 dcbd 922f a53c 2a99 27bd
000003e0: b4b3 703c 5083 f43d 1279 8aba 056d c3bc
000003f0: 0a41 32bd f286 01be 900e e9bd a4dd 8b3d

gkf.gat_rnn.fc_r.2.bias f4 [64]
0.041374084 0.13012388 0.027174849 0.05278732 -0.08613991 -0.092200406 -0.06167981 -0.05431285
-0.034748852 -0.081708916 -0.026024094 -0.08740652 0.052982528 0.033028204 0.021476766 0.038934536
-0.09763909 -0.03583738 0.009181619 -0.09657895 0.0597572 -0.06820826 0.0924664 0.1267485
-0.009237247 -0.036592554 0.11707144 -0.07435318 0.012540393 0.06605352 0.13706686 0.008606134
0.02495028 -0.0196537 -0.1025381 0.039212815 -0.091704845 0.032849383 -0.026204877 0.09227411
-0.043594632 0.08780244 -0.017899463 -0.018145949 -0.10716327 0.11420597 0.011466338 -0.119253755
0.0019843362 0.052780043 -0.023748374 0.10290132 0.10051428 -0.029480608 0.14488584 0.101177074
-0.01972537 0.012015877 0.04051744 -0.017807262 0.09318355 -0.112118565 -0.041136626 0.080251954
00000000: df77 293d 323f 053e ca9d de3c 8437 583d
00000010: 1f6a b0bd 91d3 bcbd f8a3 7cbd 2777 5ebd
00000020: d054 0ebd 0157 a7bd 7b30 d5bc 3102 b3bd
00000030: 3504 593d 9548 073d 0bf0 af3c d279 1f3d
00000040: 01f7 c7bd 37ca 12bd 806e 163c 2fcb c5bd
00000050: f7c3 743d c6b0 8bbd 065f bd3d 5cca 013e
00000060: d257 17bc 13e2 15bd 27c3 ef3d 7b46 98bd
00000070: 3876 4d3c 1147 873d 415b 0c3e be00 0d3c
00000080: 8864 cc3c cc00 a1bc 7fff d1bd 9e9d 203d
00000090: c0cf bbbd 138d 063d 9cab d6bc 35fa bc3d
000000a0: 4990 32bd c4d1 b33d e5a1 92bc d0a6 94bc
000000b0: 6b78 dbbd d2e4 e93d 4fdd 3b3c 503b f4bd
000000c0: a30b 023b e32f 583d f38b c2bc edbd d23d
000000d0: 6eda cd3d 5181 f1bc f45c 143e ed35 cf3d
000000e0: 1997 a1bc 3ede 443c 9df5 253d 89e0 91bc
000000f0: 04d7 be3d 6b9e e5bd e17e 28bd 235b a43d

gkf.gat_rnn.r_input_gru.weight_ih_l0 f4 [192, 64]
-0.13602774 -0.055572502 -0.07864204 0.073937796 -0.0054262355 -0.100139536 0.106367625 -0.07083895
-0.030485716 0.028439635 -0.077219725 -0.023841532 -0.06064409 -0.04650012 -0.0618834 0.06330314
-0.05610719 -0.07825771 0.05922697 0.024846967 -0.0015310079 0.0056172227 0.10821712 -0.05481504
-0.09893709 -0.1282845 0.03719701 0.031884287 -0.009921282 -0.098704115 -0.114641085 -0.10197375
0.076086886 0.021590525 -0.08660798 -0.11137591 0.05533213 0.007696356 0.12838636 -0.11970867
-0.11762141 0.03273088 0.06761418 0.08706143 0.10707341 0.07805053 0.04059609 -0.06089279
0.1057351 -0.07243242 0.09581126 0.052433897 -0.07077886 -0.005497269 -0.01704517 0.07785477
0.09379207 0.011444348 -0.08251439 0.020071665 0.09107235 -0.060358997 0.11107841 0.03056631
0.07531172 0.056585297 0.09466272 -0.1063195 0.07009439 -0.110328615 0.014425237 0.11086861
-0.099121094 -0.07930402 -0.028540533 0.016800374 -0.01144948 -0.09393753 0.020377707 -0.020975787
-0.033872616 0.030763384 0.06664239 0.020287344 -0.08584237 0.106718585 0.026465345 -0.049021572
0.098054916 0.026307382 0.07293996 0.0921695 0.009751938 0.1258185 0.0036648875 0.104771934
0.034529496 0.06873145 0.06595984 -0.040236007 0.11205323 0.031310022 0.061755765 -0.0863186
-0.027962623 0.05930356 -0.066039145 0.037898842 0.115232565 -0.09387271 0.011731657 0.009649972
0.09148798 -0.037684906 -0.1308868 -0.08177944 0.045771644 -0.11745336 -0.11356223 0.008377613
0.034941696 -0.06888094 -0.029204575 0.07455004 -0.072779305 -0.07713835 -0.011057581 0.10987691
-0.036574252 -0.08341412 -0.08716756 -0.0340878 0.089059226 0.048551705 -0.042273454 -0.10716624
-0.07587263 0.026430123 0.10515547 0.06301619 -0.017747706 0.06595801 0.008773299 0.016995825
0.059392113 -0.031767763 0.03790883 0.011982292 0.04674992 -0.02069723 0.08045772 -0.11326831
0.08220191 -0.095765136 -0.07658575 -0.07723782 -0.008515407 -0.012848756 -0.12160812 0.065899186
0.033087213 0.1213397 -0.089263745 -0.099450625 0.030267758 0.09745938 0.08121369 0.049198814
0.01944134 0.062131766 -0.05000937 -0.1255214 -0.10507835 -0.076957755 0.02881983 0.11204539
0.078701094 -0.082020216 0.03400849 0.11518722 0.0020652988 -0.014109241 -0.0602916 -0.009412164
0.09633897 -0.033802606 -0.019443823 0.06118729 -0.045673635 -0.05580067 0.026743788 0.09852969
0.0072466964 -0.013363934 -0.1066474 0.07076262 -0.0030373747 -0.06456822 -0.11529167 -0.066827565
-0.09420691 0.015809687 0.08645141 -0.03329979 0.07029023 -0.032989297 -0.06572072 -0.123683065
-0.08856583 0.08789499 0.079611644 0.1155541 -0.010947837 0.039143723 -0.022787923 0.11938126
-0.09345628 -0.03332854 -0.10925634 0.0059286193 -0.10399686 -0.09445009 0.021568133 0.11761717
0.09937238 0.08200585 -0.037372325 -0.010127245 -0.11748108 0.078525394 0.028213436 0.09840298
-0.133413 -0.01996438 -0.08925209 -0.10247643 -0.08118766 0.033228215 0.07452445 0.06483483
-0.05054293 0.048234038 0.13037238 0.01029472 -0.032257356 -0.09181417 0.091233976 -0.035661846
-0.1079721 0.0647618 0.01609725 -0.055980563 -0.12779301 0.011420484 -0.033826053 -0.018647244
00000000: db4a 0bbe fe9f 63bd 140f a1bd b36c 973d
00000010: 90ce b1bb f515 cdbd 45d7 d93d 0314 91bd
00000020: 2ebd f9bc 3dfa e83c 6025 9ebd 514f c3bc
00000030: f065 78bd e976 3ebd 7379 7dbd 14a5 813d
00000040: a7d0 65bd 9445 a0bd fb97 723d de8b cb3c
00000050: 1aac c8ba ae10 b83b f0a0 dd3d bc85 60bd
00000060: 879f cabd 035d 03be e45b 183d 1999 023d
00000070: df8c 22bc 6225 cabd f2c8 eabd 9dd7 d0bd
00000080: 71d3 9b3d 9dde b03c 865f b1bd 0e19 e4bd
00000090: f2a3 623d b731 fc3b b777 033e d229 f5bd
000000a0: 7ee3 f0bd d110 063d 4e79 8a3d 434d b23d
000000b0: 4e49 db3d f5d8 9f3d 1648 263d b86a 79bd
000000c0: a58b d83d 7357 94bd b238 c43d edc4 563d
000000d0: 82f4 90bd 6f22 b4bb 50a2 8bbc 5272 9f3d
000000e0: 0f16 c03d 1381 3b3c 4efd a8bd 556d a43c
000000f0: 2484 ba3d ff3a 77bd 147d e33d 3366 fa3c
00000100: 083d 9a3d fcc5 673d 87de c13d 0abe d9bd
00000110: a68d 8f3d f8f3 e1bd d457 6c3c 150f e33d
00000120: 0000 cbbd 256a a2bd d6cd e9bc f0a0 893c
00000130: 9a96 3bbc 5262 c0bd 26ef a63c 6ad5 abbc
00000140: 03be 0abd 7e03 fc3c ce7b 883d a531 a63c
00000150: 20ce afbd 468f da3d dacd d83c d8ca 48bd
00000160: 04d1 c83d 9482 d73c 8c61 953d 5dc3 bc3d
00000170: 98c6 1f3c 91d6 003e 9c2e 703b ab92 d63d
00000180: cd6e 0d3d 13c3 8c3d f415 873d 83ce 24bd
00000190: 2a7c e53d f03e 003d 9df3 7c3d cec7 b0bd
000001a0: df11 e5bc 4ae8 723d 883f 87bd d13b 1b3d
000001b0: 0dff eb3d 5640 c0bd 2336 403c eb1a 1e3c
000001c0: 0d5e bb3d 7d5b 1abd 3007 06be fb7b a7bd
000001d0: 0c7b 3b3d 638b f0bd 5093 e8bd 4142 093c
000001e0: 061f 0f3d 7311 8dbd 6f3e efbc b1ad 983d
000001f0: 510d 95bd b6fa 9dbd db2a 35bc 2507 e13d
00000200: e2ce 15bd 06d5 aabd e884 b2bd a69f 0bbd
00000210: af64 b63d 27de 463d ee26 2dbd f979 dbbd
00000220: 1c63 9bbd fc83 d83c c05b d73d a20e 813d
00000230: a363 91bc fe14 873d e2bd 0f3c d43a 8b3c
00000240: 2545 733d ea1e 02bd 4a46 1b3d 6051 443c
00000250: d87c 3f3d 3d8d a9bc 04c7 a43d 37f9 e7bd
00000260: 7a59 a83d 8320 c4bd fdd8 9cbd dd2e 9ebd
00000270: 3584 0bbc 9783 52bc ae0d f9bd 27f6 863d
00000280: 7586 073d f380 f83d e9cf b6bd c5ac cbbd
00000290: 17f4 f73c c998 c73d 5d53 a63d b284 493d
000002a0: 7243 9f3c e17d 7e3d a0d6 4cbd af88 00be
000002b0: 5133 d7bd 079c 9dbd 9017 ec3c 0e78 e53d
000002c0: 0a2e a13d 37fa a7bd 7d4c 0b3d 47e7 eb3d
000002d0: f759 073b 722a 67bc 53f4 76bd 7a35 1abc
000002e0: 5e4d c53d 9a74 0abd a748 9fbc 869f 7a3d
000002f0: 4714 3bbd 3e8f 64bd ca15 db3c efc9 c93d
00000300: b275 ed3b 67f4 5abc f469 dabd feeb 903d
00000310: b10e 47bb 583c 84bd 0a1e ecbd e4dc 88bd
00000320: 8def c0bd 5183 813c 700d b13d 5c65 08bd
00000330: 53f4 8f3d c91f 07bd 9698 86bd 8c4d fdbd
00000340: 0062 b5bd 4a02 b43d 6e0b a33d a1a7 ec3d
00000350: 8e5e 33bc 2b55 203d bdad babc 297e f43d
00000360: 0266 bfbd 8283 08bd cac1 dfbd dd44 c23b
00000370: 4efc d4bd 0c6f c1bd a7af b03c 45e1 f03d
00000380: bf83 cb3d aff2 a73d b913 19bd bfec 25bc
00000390: ec99 f0bd ecd1 a03d dd1f e73c 8087 c93d
000003a0: 6b9d 08be 578c a3bc cdc9 b6bd 2adf d1bd
000003b0: b745 a6bd 4f1a 083d 46a0 983d 20c8 843d
000003c0: 1a06 4fbd 0e91 453d 5680 053e 2fab 283c
000003d0: 4a20 04bd 1109 bcbd e1d8 ba3d 2812 12bd
000003e0: 7a20 ddbd d6a1 843d 61de 833c e04b 65bd
000003f0: 2cdc 02be fb1c 3b3c 308d 0abd 1bc2 98bc

gkf.gat_rnn.r_input_gru.weight_hh_l0 f4 [192, 64]
-0.036649164 -0.050673045 -0.103563696 -0.022183118 -0.04380743 0.10458044 0.12520014 -0.07174561
0.0065373075 -0.10733772 0.0550882 0.096580036 -0.06087857 -0.07731662 -0.011666559 0.097870395
0.093851455 -0.06249041 0.0075850114 -0.10571332 0.11436424 0.04630883 -0.044519063 0.064445116
0.00041805918 -0.06762153 -0.12732814 0.0813908 -0.093370564 0.086413644 -0.024230761 0.080174975
0.053073283 0.085838 -0.052228563 0.06500034 0.027100619 -0.0037408622 -0.0027826598 0.0069783875
0.08357825 0.07807874 -0.041886963 -0.0001861663 -0.02465445 -0.037895963 0.05111596 0.10735471
0.06291521 -0.022129864 0.08055509 0.13343292 0.03284006 0.11709266 0.0460343 -0.024890002
0.04817002 0.038875215 0.04183434 -0.022339173 -0.10158912 -0.11656928 -0.08249112 0.072277404
-0.032829285 -0.11540563 0.10784638 -0.10102081 0.01675941 0.09100571 -0.064805835 0.007068819
0.098747455 0.122368306 0.06966049 -0.03835328 0.08530218 0.04776733 0.0029274146 0.12621424
0.018101692 0.06526711 -0.10476791 0.0383911 -0.10584554 0.025394794 0.031614855 0.07809331
0.061251875 -0.06123265 0.079631954 -0.13551767 0.0985633 0.043460067 -0.013075428 0.034897268
0.06261878 -0.103421524 0.0818615 0.040052228 0.14437212 0.014304361 -0.0018394735 0.017550344
0.10066336 -0.11436913 0.06386048 0.0907045 -0.021914897 -0.08336542 0.10105535 0.06826831
-0.021401614 0.010999649 -0.05216284 -0.048123036 0.09806564 0.06556632 -0.007610936 0.076000564
0.082879595 0.066767655 0.042108815 -0.09916242 -0.04991845 0.09696054 0.050956953 0.048969906
-0.07754617 -0.06413321 -0.046539515 0.06724409 -0.05794187 0.0964527 -0.09503907 -0.020303799
0.11231999 -0.048829433 0.0018922064 -0.04278786 0.032231547 -0.06652144 -0.1017817 -0.03656247
0.052129652 -0.03805149 -0.100892626 -0.010813015 -0.046167284 0.11304704 -0.020734321 0.062452797
0.1364141 -0.090777956 0.049095746 0.0073667644 0.10347167 0.002097717 0.039799303 -0.12785897
0.10378746 -0.100287944 0.09119744 -0.08829694 0.0303231 0.0041069943 0.08443986 -0.12157192
0.09634431 0.11835162 0.020750605 0.11087724 0.09486519 0.0025657667 0.06903298 0.011061109
0.034247257 -0.09759222 -0.042725906 -0.08111219 -0.078592494 -0.08989416 -0.06381257 0.014907178
-0.0111346785 0.053211045 0.049256284 -0.03830279 0.095979966 -0.083169766 -0.07048246 0.12546729
0.07012785 0.069849595 -0.12477683 0.085241064 -0.09654982 0.026021605 -0.05916201 0.054981638
-0.064202756 -0.10891393 -0.10676104 -0.090206966 -0.040921714 0.016803717 -0.034266677 -0.04720739
0.029811705 0.1113028 -0.034024846 0.092059724 -0.064854585 0.09534369 -0.04935758 -0.04782358
-0.030439787 -0.020019837 -0.08741147 0.086237445 -0.09787089 0.005045573 -0.11140512 -0.076294184
0.014984008 -0.018674653 -0.021571685 0.0041372185 -0.044294327 -0.12306908 0.0032167253 0.03688351
0.08723028 -0.06754281 -0.0754063 -0.10718005 0.06928948 -0.1040013 0.08970249 0.049366664
0.08617077 -0.04691605 0.08788316 -0.04514523 -0.01443841 0.09956497 -0.06642072 -0.017179146
0.018592201 0.047574848 -0.013423801 -0.09495939 -0.03513714 0.04571566 -0.10079481 -0.11044083
00000000: 6f1d 16bd 8a8e 4fbd 3419 d4bd 5fb9 b5bc
00000010: 6b6f 33bd 452e d63d 7734 003e 5def 92bd
00000020: e936 d63b e1d3 dbbd 2aa4 613d c1cb c53d
00000030: cf5b 79bd 2d58 9ebd 1825 3fbc 4670 c83d
00000040: 3135 c03d f2f5 7fbd b08b f83b 3a80 d8bd
00000050: cc37 ea3d 54ae 3d3d 9f59 36bd cdfb 833d
00000060: f42e db39 287d 8abd 4f62 02be 38b0 a63d
00000070: 1139 bfbd a3f9 b03d 977f c6bc c732 a43d
00000080: 5f63 593d d5cb af3d 9eed 55bd e61e 853d
00000090: 1e02 de3c 4129 75bb 495d 36bb f5aa e43b
000000a0: 132b ab3d bfe7 9f3d aa91 2bbd a335 43b9
000000b0: 21f8 c9bc cc38 1bbd f85e 513d c9dc db3d
000000c0: b1d9 803d b049 b5bc 11fa a43d a4a2 083e
000000d0: 4c83 063d 47ce ef3d 768e 3c3d 1ee6 cbbc
000000e0: ed4d 453d 9e3b 1f3d 7c5a 2b3d a400 b7bc
000000f0: f50d d0bd e0bb eebd 1bf1 a8bd 2d06 943d
00000100: 0078 06bd c959 ecbd 90de dc3d 00e4 cebd
00000110: 084b 893c 3461 ba3d ecb8 84bd 8da1 e73b
00000120: 1b3c ca3d 3c9c fa3d 29aa 8e3d 5418 1dbd
00000130: e9b2 ae3d ada7 433d ded9 3f3b 4e3e 013e
00000140: 004a 943c c3aa 853d 8f90 d6bd fc3f 1d3d
00000150: 8cc5 d8bd be08 d03c 947e 013d 63ef 9f3d
00000160: 3fe3 7a3d 16cf 7abd 1416 a33d 25c5 0abe
00000170: 8edb c93d 2f03 323d 523a 56bc 70f0 0e3d
00000180: 463e 803d aace d3bd 01a7 a73d ce0d 243d
00000190: 49d6 133e d75c 6a3c 7d1a f1ba bdc5 8f3c
000001a0: 9728 ce3d 5d3a eabd 49c9 823d 48c3 b93d
000001b0: df86 b3bc 7dbb aabd 1bf6 ce3d 41d0 8b3d
000001c0: 7052 afbc df37 343c b4a8 55bd a91c 45bd
000001d0: a3d6 c83d a347 863d 2965 f9bb 2fa6 9b3d
000001e0: c7bc a93d 7bbd 883d 4b7a 2c3d ab15 cbbd
000001f0: 4a77 4cbd 3f93 c63d 3db8 503d ab94 483d
00000200: 87d0 9ebd 4658 83bd 38a0 3ebd 45b7 893d
00000210: 7454 6dbd fe88 c53d d8a3 c2bd 2754 a6bc
00000220: 0608 e63d 5f01 48bd e903 f83a 5342 2fbd
00000230: 3a05 043d 653c 88bd ed72 d0bd 87c2 15bd
00000240: e785 553d e1db 1bbd cba0 cebd 1229 31bc
00000250: e819 3dbd 3585 e73d 06db a9bc 81ce 7f3d
00000260: 23b0 0b3e cbe9 b9bd 9f18 493d e664 f13b
00000270: f4e8 d33d da79 093b 9804 233d 76ed 02be
00000280: 858e d43d c463 cdbd b9c5 ba3d 07d5 b4bd
00000290: 2668 f83c f793 863b ceee ac3d b3fa f8bd
000002a0: 2a50 c53d 5662 f23d 2cfd a93c 9b13 e33d
000002b0: ae48 c23d 6c26 283b 2a61 8d3d a739 353c
000002c0: da46 0c3d 6ede c7bd 5c01 2fbd 261e a6bd
000002d0: 1af5 a0bd 6e1a b8bd 2ab0 82bd 3c3d 743c
000002e0: 3a6e 36bc d3f3 593d f5c0 493d 63e3 1cbd
000002f0: 2591 c43d e954 aabd 1c59 90bd 7f7a 003e
00000300: 319f 8f3d 4e0d 8f3d ff8a ffbd de92 ae3d
00000310: e9bb c5bd 432b d53c dd53 72bd 6d34 613d
00000320: bc7c 83bd 440e dfbd 88a5 dabd 6ebe b8bd
00000330: 879d 27bd f3a7 893c 375b 0cbd 895c 41bd
00000340: ad37 f43c b9f2 e33d a35d 0bbd cf89 bc3d
00000350: 7bd2 84bd 8d43 c33d 2c2b 4abd a9e2 43bd
00000360: dc5c f9bc a400 a4bc c904 b3bd 429d b03d
00000370: 8870 c8bd 5655 a53b 5e28 e4bd 2040 9cbd
00000380: 7c7f 753c 96fb 98bc 1ab7 b0bc 8191 873b
00000390: f86d 35bd a40b fcbd b2cf 523b 2a13 173d
000003a0: caa5 b23d e353 8abd 9e6e 9abd 3781 dbbd
000003b0: a5e7 8d3d a2fe d4bd f0b5 b73d b334 4a3d
000003c0: 4d7a b03d 0b2b 40bd 16fc b33d 34ea 38bd
000003d0: 158f 6cbc b8e8 cb3d 9607 88bd 48bb 8cbc
000003e0: ac4e 983c d8dd 423d 81ef 5bbc 127a c2bd
000003f0: f6eb 0fbd 5840 3b3d 826d cebd cd2e e2bd

gkf.gat_rnn.r_input_gru.bias_ih_l0 f4 [192]
0.11681196 -0.053830963 -0.06289246 0.07159636 -0.00731127 0.12458753 -0.058450677 0.057656314
0.015590868 0.034498032 -0.11002337 -0.012773666 -0.0135390945 -0.063220076 0.07830154 0.1379268
0.11520971 0.105708554 -0.04019994 -0.08878646 0.08903962 0.11164801 -0.05326099 0.08404059
-0.052422393 -0.04150666 0.105550274 0.12990752 -0.113303855 0.067841865 0.10495835 0.03728296
0.060468353 0.038404267 0.009263163 0.07052805 -0.07248549 -0.014388985 -0.024258517 0.08971548
-0.09584348 0.076992966 -0.059181675 0.09870112 -0.009814587 0.017070085 0.039238196 0.041352585
0.05881359 0.08680685 -0.029126337 -0.05944855 0.05348371 -0.1219219 0.038838677 0.06657543
0.11413805 0.085217655 -0.058444872 -0.09576797 -0.023829648 -0.10749477 0.026153887 0.075597316
0.04119098 -0.14590208 0.034190997 -0.065947026 -0.06802363 -0.09712053 -0.050492868 -0.07143607
-0.08532931 0.078724794 -0.027489066 0.02897262 -0.0262971 0.07306332 -0.095096946 -0.044079017
-0.10133686 -0.09715507 -0.06833506 -0.13492571 -0.013558627 -0.14669676 -0.0010307105 0.011039439
0.07325029 -0.11159545 -0.04199192 -0.01575121 -0.123074315 0.060799815 0.037613627 0.039938543
-0.04048521 -0.007496868 0.047000505 -0.065688744 0.02588473 0.02876647 -0.14102396 -0.08098861
-0.09066641 -0.09771727 0.09225549 -0.06525082 -0.040939268 -0.13266055 0.095532626 -0.034569226
0.06905656 0.097865775 -0.07724583 -0.031030761 0.03859515 0.09148648 -0.04047613 -0.05104324
0.1134282 0.052170068 -0.09140136 0.030906286 -0.12079576 0.01979972 0.022122782 -0.075573325
-0.039365422 0.05765419 -0.010272909 -0.09234375 0.056900036 0.03198169 -0.05471472 0.10912176
-0.10414873 0.045362093 -0.08750403 -0.12882881 0.06891393 0.10220663 -0.105316475 -0.06053689
-0.08602911 -0.11349405 0.0080508655 0.083380006 0.028618686 -0.05129177 -0.057214517 0.012588459
-0.08323071 -0.113702364 -0.0009349562 -0.015045702 -0.07825005 -0.08260186 0.1315012 -0.0051159095
-0.026576303 -0.074253924 0.0935864 1.889854e-05 0.110278524 -0.028781744 -0.10026772 0.10298191
-0.06462925 0.088257484 0.00779219 0.013569107 -0.06360785 -0.1160366 -0.07850449 0.02386422
-0.09275858 -0.029379949 -0.017335424 0.050765384 -0.14059103 -0.012569201 -0.025265655 0.028341256
-0.04501743 0.11763453 -0.04530773 0.10887907 0.11910776 0.051247742 0.06348972 0.13259459
00000000: 1c3b ef3d db7d 5cbd c3cd 80bd 1da1 923d
00000010: 6193 efbb bf27 ff3d fa69 6fbd 0729 6c3d
00000020: d770 7f3c cf4d 0d3d ef53 e1bd a348 51bc
00000030: 14d3 5dbc 8779 81bd 8f5c a03d af3c 0d3e
00000040: 12f3 eb3d ba7d d83d b1a8 24bd add5 b5bd
00000050: 675a b63d b6a7 e43d 3228 5abd 791d ac3d
00000060: ddb8 56bd e302 2abd be2a d83d 7a06 053e
00000070: da0b e8bd adf0 8a3d 67f4 d63d 04b6 183d
00000080: aaad 773d cb4d 1d3d 86c4 173c 0371 903d
00000090: 4673 94bd c7bf 6bbc ccb9 c6bc c0bc b73d
000000a0: 9649 c4bd 7dae 9d3d 7c68 72bd d023 ca3d
000000b0: 5dcd 20bc 90d6 8b3c 3bb8 203d 5461 293d
000000c0: 85e6 703d cac7 b13d 5b9a eebc 5380 73bd
000000d0: bc11 5b3d 30b2 f9bd 4e15 1f3d b358 883d
000000e0: 36c1 e93d 9886 ae3d e463 6fbd ff21 c4bd
000000f0: 6536 c3bc 3826 dcbd ad40 d63c c4d2 9a3d
00000100: dfb7 283d 5b67 15be dc0b 0c3d 3c0f 87bd
00000110: f94f 8bbd 21e7 c6bd 9cd1 4ebd 134d 92bd
00000120: 22c1 aebd 773a a13d c030 e1bc fd57 ed3c
00000130: 046d d7bc 39a2 953d 30c2 c2bd 338c 34bd
00000140: b389 cfbd 3df9 c6bd 40f3 8bbd f729 0abe
00000150: 0125 5ebc ad37 16be e818 87ba c3de 343c
00000160: 3f04 963d 288c e4bd b8ff 2bbd ae08 81bc
00000170: 630e fcbd 3a09 793d bf10 1a3d 9996 233d
00000180: d2d3 25bd 49a8 f5bb 9a83 403d d287 86bd
00000190: 370c d43c a9a7 eb3c 9668 10be 5bdd a5bd
000001a0: 50af b9bd fe1f c8bd 72f0 bc3d 39a2 85bd
000001b0: efaf 27bd 2bd8 07be 9ca6 c33d 7698 0dbd
000001c0: 876d 8d3d da6d c83d 1033 9ebd 3934 febc
000001d0: f315 1e3d 435d bb3d 4cca 25bd b712 51bd
000001e0: 0b4d e83d 48b0 553d a330 bbbd 2e2f fd3c
000001f0: c463 f7bd 0633 a23c d63a b53c 30c6 9abd
00000200: a33d 21bd cd26 6c3d b44f 28bc b81e bdbd
00000210: 0310 693d 3cff 023d 8b1c 60bd 3b7b df3d
00000220: ee4b d5bd 9acd 393d 5035 b3bd b3eb 03be
00000230: bf22 8d3d b651 d13d 2ab0 d7bd 88f5 77bd
00000240: 0830 b0bd 926f e8bd c7e7 033c 23c3 aa3d
00000250: bc71 ea3c 5217 52bd c559 6abd d33f 4e3c
00000260: dd74 aabd c9dc e8bd d917 75ba 4082 76bc
00000270: 9041 a0bd 2a2b a9bd 40a8 063e 5ca3 a7bb
00000280: 8cb6 d9bc 7112 98bd 3aaa bf3d 4e88 9e37
00000290: b5d9 e13d b1c7 ebbc 2a59 cdbd 2ee8 d23d
000002a0: 575c 84bd 57c0 b43d a155 ff3b f650 5e3c
000002b0: d544 82bd 99a4 edbd f6c6 a0bd e67e c33c
000002c0: 36f8 bdbd 38ae f0bc 0503 8ebc 5def 4f3d
000002d0: 18f7 0fbe 0def 4dbc ebf9 cebc ec2b e83c
000002e0: 3264 38bd 5fea f03d 9994 39bd fdfb de3d
000002f0: c5ee f33d 27e9 513d e606 823d e0c6 073e

gkf.gat_rnn.r_input_gru.bias_hh_l0 f4 [192]
-0.10547206 -0.074194714 0.040125698 -0.03651639 -0.04358283 -0.097886674 0.02873452 0.09053734
-0.049984816 0.061266217 0.063765414 0.0104572205 -0.07330085 0.08312339 0.06285236 -0.025561703
0.085956976 0.10623063 -0.07283947 -0.13030565 0.05632816 0.08587277 -0.018945213 0.1130809
-0.007461412 -0.0063652555 0.090577975 -0.0041046175 0.08942686 0.016535051 0.040677138 -0.006043815
0.0030836125 0.033385795 -0.07581316 -0.061342712 0.027371293 -0.03193345 -0.043216806 -0.061458442
-0.04255346 0.14109851 -0.07105446 0.046151053 0.1040291 0.0932597 -0.00801086 -0.033788376
0.11005592 0.044127993 -0.10752214 -0.07281679 -0.02903691 -0.01781007 -0.05066719 0.03691536
0.067410335 -0.10512963 -0.07642068 0.05164375 -0.11448908 0.038400207 0.04123982 -0.11257562
-0.033901546 0.07110917 -0.023682473 -0.02635343 -0.10599327 -0.008134491 -0.137366 0.07096767
-0.12813325 -0.04952136 0.034122624 -0.02731506 0.026439182 0.009864722 -0.027323324 -0.05323733
0.07743841 0.003095213 -0.02113279 0.023443772 0.0308206 0.02461477 -0.018380655 -0.02007051
-0.02477587 -0.10572836 -0.027791198 -0.091932476 0.07100979 0.052728746 -0.0030517543 -0.13547218
-0.014411131 -0.0028648004 0.0069246907 0.11283508 0.07400807 0.02265319 0.089446604 -0.03147478
0.06304766 0.0043077013 0.021811703 0.009836477 -0.027487734 0.10018511 0.08750695 -0.077262595
-0.12517144 0.10956545 0.028508944 -0.08643219 -0.14782879 -0.035344955 0.020606045 0.10591808
0.042947453 -0.011417443 0.08921792 0.018546069 0.02638898 -0.03646326 0.095449805 0.021759687
-0.00092678407 0.028473498 -0.093120605 -0.09715831 0.1259368 0.05081723 0.052855782 -0.075089164
0.10408866 0.009029391 0.017231325 -0.0931264 -0.028112108 0.033757444 -0.048330832 0.036174785
-0.11614228 -0.070479706 -0.103761464 0.08217208 0.0013485986 0.027090207 0.060178302 0.113996476
0.101708554 0.07101347 -0.011560915 0.02758692 0.056587294 0.06719039 -0.08026793 -0.11681039
-0.12825881 0.0641022 0.12737373 0.07770457 0.04010293 0.00788293 -0.08474796 0.13727118
0.07042601 -0.006736609 -0.110558346 0.096492626 -0.066795446 -0.03639185 0.08713646 -0.09042591
0.09288592 0.057325605 -0.0681121 -0.09207982 -0.052346803 -0.06964848 -0.13696972 0.13374151
-0.056044187 -0.043877967 0.047502108 -0.02808851 -0.019257464 -0.10567195 -0.015577254 -0.07929095
00000000: bc01 d8bd 66f3 97bd d85a 243d 3692 15bd
00000010: e983 32bd cf78 c8bd a864 eb3c a46b b93d
00000020: e1bc 4cbd 49f2 7a3d 7197 823d c354 2b3c
00000030: c21e 96bd 993c aa3d bdb8 803d c766 d1bc
00000040: 360a b03d 728f d93d dc2c 95bd d86e 05be
00000050: 5bb8 663d 10de af3d fe32 9bbc f596 e73d
00000060: dc7e f4bb a293 d0bb f280 b93d 0780 86bb
00000070: 6e25 b73d 8474 873c 129d 263d 320b c6bb
00000080: 6f16 4a3b 8bbf 083d ee43 9bbd 7f42 7bbd
00000090: c339 e03c a6cc 02bd 1b04 31bd d9bb 7bbd
000000a0: 894c 2ebd 217c 103e 0085 91bd e308 3d3d
000000b0: 350d d53d f1fe be3d fb3f 03bc ae65 0abd
000000c0: 0065 e13d 8ebf 343d 9134 dcbd f820 95bd
000000d0: d0de edbc 6de6 91bc 6688 4fbd 8f34 173d
000000e0: 6e0e 8a3d 344e d7bd 7282 9cbd 6688 533d
000000f0: 4079 eabd 8949 1d3d 16eb 283d 0c8e e6bd
00000100: 59dc 0abd afa1 913d bf01 c2bc 26e3 d7bc
00000110: 0013 d9bd 8746 05bc aca9 0cbe 7f57 913d
00000120: 5d35 03be e9d6 4abd 2ac4 0b3d d5c3 dfbc
00000130: fc96 d83c a59f 213c 2ad5 dfbc 630f 5abd
00000140: 0798 9e3d 0fd9 4a3b ac1e adbc 270d c03c
00000150: 7c7b fc3c eaa4 c93c 0793 96bc e96a a4bc
00000160: c4f6 cabc 1c88 d8bd 5eaa e3bc 1847 bcbd
00000170: 956d 913d 19fa 573d f1ff 47bb 38b9 0abe
00000180: aa1c 6cbc 60bf 3bbb 84e8 e23b 1416 e73d
00000190: 8b91 973d 2f93 b93c c82f b73d b3eb 00bd
000001a0: 221f 813d 9e27 8d3b 75ae b23c 2d29 213c
000001b0: f52d e1bc da2d cd3d d836 b33d da3b 9ebd
000001c0: f12c 00be da63 e03d 978b e93c 5c03 b1bd
000001d0: 6e60 17be dfc5 10bd 02ce a83c 94eb d83d
000001e0: abe9 2f3d 3a10 3bbc e3b7 b63d eded 973c
000001f0: b42d d83c 805a 15bd 307b c33d 5f41 b23c
00000200: 6df3 72ba 4141 e93c 04b6 bebd f0fa c6bd
00000210: 94f5 003e ba25 503d 4e7f 583d 59c8 99bd
00000220: 6f2c d53d 03f0 133c b528 8d3c 0eb9 bebd
00000230: 5d4b e6bc 3f45 0a3d 8df6 45bd 032c 143d
00000240: 01dc edbd aa57 90bd e480 d4bd d649 a83d
00000250: 76c3 b03a 48ec dd3c 867d 763d fc76 e93d
00000260: 934c d03d 836f 913d fe69 3dbc f7fd e13c
00000270: 14c8 673d 1d9b 893d 8363 a4bd 493a efbd
00000280: 4756 03be 0448 833d 426e 023e 9323 9f3d
00000290: f842 243d 6827 013c 5790 adbd d190 0c3e
000002a0: 833b 903d c6be dcbb 6a6c e2bd ed9d c53d
000002b0: 0dcc 88bd 9f0f 15bd 9a74 b23d 3831 b9bd
000002c0: f93a be3d 41ce 6a3d 5b7e 8bbd 5894 bcbd
000002d0: 9a69 56bd dda3 8ebd ca41 0cbe 89f3 083e
000002e0: 978e 65bd 62b9 33bd 9291 423d e019 e6bc
000002f0: d4c1 9dbc 896a d8bd bd37 7fbc 4b63 a2bd

gkf.gat_rnn.gcn_nodes.bias f4 [64]
0.020062506 -0.013871884 0.009289047 -0.004968242 0.017164838 0.0019947803 0.012201379 0.014456892
-0.01387364 0.017616369 0.018135963 -0.003400144 -0.008099713 -0.0044611217 -0.01675216 0.006856696
0.002260979 0.0003223561 0.0064373505 -0.0050618267 0.0026212793 -0.0019015992 0.022938764 0.028837834
0.018747358 -0.005433631 -0.0031184254 0.0064917505 -0.021438248 -0.003918414 0.0030656382 0.024225697
-0.0026888428 -0.020544758 -0.013005546 -0.0057282364 0.0100441575 0.0009934778 0.013198943 -0.011480768
0.02521795 -0.013222657 0.023581205 0.017828066 -0.020736521 -0.01145254 -0.004643714 0.003196032
0.0038369459 -0.023519013 0.017414805 0.025427282 0.017664924 0.013533988 -0.0074843946 0.015009892
0.008199659 0.026296413 0.012013379 0.011040897 0.01453459 0.011722981 0.0027793094 0.02037359
00000000: 205a a43c e646 63bc 1631 183c a2cc a2bb
00000010: 469d 8c3c dcba 023b 4be8 473c 9adc 6c3c
00000020: 444e 63bc 3450 903c df91 943c f3d4 5ebb
00000030: a9b4 04bc 9a2e 92bb d33b 89bc 23ae e03b
00000040: ef2c 143b e701 a939 69f0 d23b aedd a5bb
00000050: c5c9 2b3b 153f f9ba 13ea bb3c 523d ec3c
00000060: 0f94 993c 9a0c b2bb 7f5e 4cbb c0b8 d43b
00000070: 449f afbc 0a66 80bb e0e8 483b f874 c63c
00000080: 4c37 30bb 7b4d a8bc 3715 55bc eeb3 bbbb
00000090: 4090 243c 9537 823a 6140 583c d519 3cbc
000000a0: e095 ce3c d8a3 58bc 5f2d c13c 2a0c 923c
000000b0: a3df a9bc 6fa3 3bbc 4c2a 98bb 8574 513b
000000c0: 4575 7b3b f2aa c0bc 7ea9 8e3c e04c d03c
000000d0: 08b6 903c a9bd 5d3c a73f f5bb 0dec 753c
000000e0: dd57 063c 936b d73c c3d3 443c e1e4 343c
000000f0: 7d22 6e3c bf11 403c 1325 363b 84e6 a63c
