models/with_mismatch/kalman_process_50n_local_params_r_quarter_linear_20deg.pth (torch, 270242 bytes, 28 tensors)

gkf.gat_rnn.fc_delta_y_innov.0.weight f4 [64, 3]
000000 de 6a e9 3e 1f 35 f9 3e b7 b0 2d be 47 0c 0a 3f
       0.45589346 0.4867334 -0.16961943 0.53924984
000010 a7 a4 15 be d0 46 3c 3e 02 33 87 be 5e 44 ae 3e
       -0.14613591 0.18386388 -0.26406103 0.34036535
000020 05 6d 09 3f ac ba d8 be 09 96 04 3f 0d cb d6 3d
       0.53681976 -0.4232992 0.51791435 0.104879476
000030 4e fe e2 3e e9 02 c2 3d 6d aa 93 3e 86 ad a5 bd
       0.44334644 0.09473211 0.28840962 -0.080897376
000040 52 9b fe 3e d6 6e 6d 3d 92 20 82 be 4e c5 5b 3e
       0.49727875 0.05796703 -0.25415474 0.21461985
000050 1b e8 88 be 82 ee 34 bd bc 41 7e be b8 22 d6 3e
       -0.26739582 -0.04417277 -0.24829763 0.41823363
000060 1d 2a f0 be c0 3c 6b be 20 01 0d be 6a 4b b4 be
       -0.4690713 -0.22972393 -0.1376996 -0.35213786
000070 b6 da 31 3d 32 b6 10 bf b0 8c 07 3f 1f f2 02 bf
       0.04342147 -0.5652801 0.5294905 -0.511507
000080 44 60 fe 3e c9 87 dc 3d 51 d6 51 be 8d fa c5 3e
       0.4968282 0.107680865 -0.20491911 0.38667718
000090 f5 02 cf 3d 6a 68 fc 3e 18 a7 35 3d ac bd 3d be
       0.10107986 0.49298412 0.044348806 -0.18529385
0000a0 4b 91 17 3e 93 7c 19 be 8a ba 80 3e e6 55 0e 3f
       0.14801519 -0.14988928 0.25142318 0.5559982
0000b0 01 9a a1 3e 48 47 85 be 4f 3c c4 3e 71 30 d4 3d
       0.31562808 -0.26030946 0.38327262 0.10360802
0000c0 64 c7 9c 3e a3 56 bb be 0d e9 0a bf 0c 62 4f be
       0.30620873 -0.36589536 -0.5426186 -0.20252246
0000d0 28 12 e7 be eb 54 06 3f af cf 2f 3e ef 67 8d 3e
       -0.4513104 0.52473325 0.17169069 0.27618358
0000e0 df a0 5f 3e ec 50 b3 3b 3e 00 fe 3e 82 e1 e4 be
       0.21838711 0.005472293 0.4960956 -0.447033
0000f0 c0 67 08 3d b4 96 e3 be 26 6d f9 3d 1d 20 5f be
       0.03330207 -0.44450915 0.121790215 -0.21789594
000100 83 60 0e 3e 23 7a 97 bd 98 99 fb 3e 5c 2d 9a be
       0.13904004 -0.073963426 0.4914062 -0.3011273
000110 67 d1 b7 be 35 f5 be be a0 63 0b 3f 8d 5e 3f 3e
       -0.3590195 -0.37296453 0.5444889 0.18688412
000120 d5 62 0b 3f 59 51 f0 be 90 9a 17 bf f0 83 f3 be
       0.5444768 -0.46937063 -0.5922022 -0.47561598
000130 12 35 c4 be 42 4b 98 3e 5e 59 4d 3e 1a f9 06 3f
       -0.3832174 0.29744917 0.20053622 0.5272385
000140 f9 11 a5 be 5b b6 d0 be 3f 52 b6 3e b4 95 6c be
       -0.32240275 -0.40764126 0.35609624 -0.23103982
000150 5e cc bb 3e a8 48 03 be 6d f4 c9 3e 09 43 e7 be
       0.36679357 -0.12820685 0.39444295 -0.4516833
000160 71 05 96 be e1 af 6b 3e eb 4a 0d 3e 28 50 0c be
       -0.29301026 0.23016311 0.1379811 -0.13702452
000170 46 bb b6 3e d3 45 d4 3e 7d 8a c7 be c5 ad 9b be
       0.35689753 0.41459522 -0.38972846 -0.30406013
000180 9e 49 0c 3f 11 9f 32 be 92 af 32 be ff 38 11 bf
       0.5479983 -0.17443492 -0.17449787 -0.56727594
000190 ab 34 a8 be 88 f3 50 3e 7a b8 94 bd 6f d4 db be
       -0.32852682 0.204054 -0.072617486 -0.4293551
0001a0 ac 89 7e 3d a9 10 cf be f3 b6 f3 be be eb 9d be
       0.062143013 -0.40442398 -0.47600517 -0.3084392
0001b0 93 cf 04 bf bf cc c4 be 71 0e 1b 3f 74 a7 17 3e
       -0.51879233 -0.3843746 0.6056891 0.14809972
0001c0 25 50 58 3e 54 14 0d bf d5 a7 c4 be 20 c4 1c be
       0.21124323 -0.55109143 -0.38409296 -0.15309191
0001d0 52 30 99 3d 6d a1 06 bf f9 bd 5a be dc 2b ad be
       0.074799195 -0.52590066 -0.21361531 -0.33822525
0001e0 b4 a3 ec bb 70 9a 62 be 8a f8 72 bc ed 49 cc be
       -0.0072216634 -0.22129226 -0.014829764 -0.3990015
0001f0 93 6b c4 be 91 a8 b4 be 08 18 20 be cb 03 f2 be
       -0.38363323 -0.35284856 -0.15634167 -0.4726852
000200 55 b5 08 3f 53 5e 03 be 01 7c 0b 3f 3b c4 2b 3e
       0.5340169 -0.1282895 0.5448609 0.16774075
000210 cc 49 02 bf 19 f4 ca 3e a4 72 37 be ab 49 7e be
       -0.50893855 0.39639357 -0.17914826 -0.2483279
000220 63 10 fd be 3e fd 0a bf cd f9 3b 3e 8a 15 cd bd
       -0.49426565 -0.54292667 0.1835701 -0.10013874
000230 e7 b6 78 3e ae e1 fa be e8 a1 ec 3e 8b df d6 be
       0.24288522 -0.49000305 0.46217275 -0.41967425
000240 fb 1a c0 bd e8 b3 d5 3d 12 d6 ba 3e 34 ce ef 3e
       -0.09380146 0.10434705 0.36491448 0.46837008
000250 75 bc 12 3f bd 72 ff be a4 9a 3c 3e 14 09 76 be
       0.5731881 -0.49892226 0.18418366 -0.240269
000260 7a 3f 24 bd 38 24 e8 be fa ab 11 3f 84 42 ea be
       -0.0400996 -0.45340133 0.5690304 -0.45753872
000270 bb 74 9b 3e 64 d6 68 3e 9a 3f 35 3e 5d 88 a2 be
       0.30362496 0.22738034 0.17700043 -0.31744662
000280 ba 2f 11 3f 23 2c e5 3d 70 cc e0 3d 7c cf 09 bf
       0.5671345 0.11190059 0.10976493 -0.5383222
000290 32 98 8e 3e fb 40 be bd 89 af 89 be 6e 94 09 3f
       0.2785049 -0.09289738 -0.26891735 0.5374211
0002a0 06 2c 08 3e 69 b4 a5 be 90 8d 98 be 15 14 d9 bc
       0.13298044 -0.32364205 -0.29795504 -0.026498834
0002b0 44 1b b1 3e e6 05 e6 bd 16 a1 a9 be a3 32 56 be
       0.34591115 -0.11231594 -0.3313071 -0.20917754
0002c0 15 f1 df be 7f be 52 3e d1 eb eb 3e ba 75 13 bf
       -0.43738618 0.20580481 0.4607835 -0.5760151
0002d0 0d 41 09 3e 5c 74 96 3e 93 61 03 3e a0 77 5f be
       0.13403721 0.2938565 0.1283019 -0.21822977
0002e0 e0 39 ba 3e 92 02 8e 3e 6b 2b 6d 3e 5a f9 bc bd
       0.3637228 0.27736336 0.23161094 -0.092272475
0002f0 93 59 14 be 8a de 54 3d 75 85 bf bd 0f eb 4b be
       -0.14487295 0.051970042 -0.09351627 -0.19913886

gkf.gat_rnn.fc_delta_y_innov.0.bias f4 [64]
000000 6b 2f b5 3e 1d d8 09 3f 1b 6e 24 bd aa 5f e6 bd
       0.3538774 0.5384539 -0.040144067 -0.11248715
000010 06 3c e2 3c 2e 19 85 3b 30 17 4c 3e 3a 8f 45 3e
       0.027616512 0.0040618395 0.1993072 0.19292918
000020 90 2c f6 be da 98 60 be 50 4c 03 3f eb 66 73 3e
       -0.48080873 -0.21933308 0.5128832 0.23769729
000030 1f 1e d2 bc 9a 0e b4 be 2a ce a3 be ae 55 f3 be
       -0.025649128 -0.3516739 -0.31993228 -0.47526306
000040 6f 08 35 be f2 05 76 3e b2 4d d7 3e 57 2e 9f 3e
       -0.17678998 0.24025705 0.42051464 0.31090042
000050 ce b4 12 bf 72 2b b4 be af 3c 96 bd d3 6e 14 3f
       -0.57307136 -0.35189396 -0.07335793 0.57981604
000060 21 99 8a 3d c4 c9 d1 bd b1 6b 8b 3e 23 19 39 be
       0.06767488 -0.10243562 0.272306 -0.18075995
000070 a7 06 a9 be e9 d5 e5 3e 5f a8 7d be 67 1f cb bd
       -0.33012888 0.44889763 -0.2477126 -0.09918099
000080 30 53 09 bf ce ee d7 3e e9 7e ea 3e a1 f6 67 3e
       -0.5364256 0.4217438 0.4579995 0.22652675
000090 bc 28 c6 be 9d 5b 09 bf f6 78 f0 be e3 cb e8 3e
       -0.38702953 -0.53655416 -0.46967286 0.45468053
0000a0 ac e2 8e 3e ef e7 f6 3e 1f c0 ab 3e b3 0b 32 3e
       0.27907312 0.48223826 0.33545014 0.17387275
0000b0 7b 91 ca bc ff 3b d7 be 74 22 f4 be bb c6 01 bf
       -0.024727574 -0.4203796 -0.47682536 -0.50693864
0000c0 c8 f7 81 3e 25 ef 7d be 49 09 a0 bd 63 95 99 be
       0.25384355 -0.24798258 -0.07814271 -0.29996786
0000d0 28 cf d4 bd 74 6f be be 5d 45 af be 96 05 5c 3e
       -0.103910744 -0.37194407 -0.34232607 0.21486506
0000e0 06 7b 31 be 0d 61 c7 3e 77 3d 48 be 84 a2 d1 be
       -0.17332086 0.3894123 -0.19554697 -0.40944302
0000f0 b0 a6 c3 bd 99 5a 83 be 9c 34 28 be fb d3 0e bf
       -0.095532775 -0.25655058 -0.16426319 -0.55792207

gkf.gat_rnn.fc_delta_y_innov.2.weight f4 [64, 64]
000000 fd 5d b8 3d 5d 70 92 bd 43 e9 aa 3d 42 25 83 3c
       0.09002302 -0.07150338 0.083452724 0.016008977
000010 d1 63 c9 3d 7e 8c 58 bd fa 7d c5 3d 45 21 01 bd
       0.098334916 -0.05286836 0.09643169 -0.03152587
000020 81 1d c7 3c d1 9c c5 3d 65 5a 06 bc e4 87 89 3c
       0.02430606 0.09649051 -0.008200263 0.01678843
000030 12 32 13 bb 8e 09 ff bd 4c cb 97 3d b4 85 11 be
       -0.0022460264 -0.12452994 0.07411823 -0.1421116
000040 c4 7a 56 3d 03 97 06 3e e8 98 14 3e 11 86 93 3b
       0.052363172 0.13143544 0.14511454 0.004502066
000050 05 97 0f be cf 80 1a 3c 42 4a 68 3d cc 52 9a bd
       -0.14022453 0.009430124 0.056711443 -0.075353235
000060 39 65 1f bd 59 b8 a6 bd 13 06 5a 3c 23 fb 20 be
       -0.038914893 -0.0814063 0.013307112 -0.15720801
000070 46 d0 86 bd 56 61 37 bd f2 4a 01 be f5 1d ab 3d
       -0.06582694 -0.04477056 -0.12626246 0.08355323
000080 91 65 ac 3d 96 6c 4f bd e6 55 6e 3c 51 3c 87 bd
       0.0841781 -0.050640665 0.014546847 -0.06603301
000090 71 9a f2 bd 95 8b 21 be 03 b7 c6 3c 3a f6 1f be
       -0.118458636 -0.15775903 0.024257189 -0.15621272
0000a0 8b 37 4d bd 88 7e c5 bd bd 99 bb bb fc 27 8a 3b
       -0.050101798 -0.096432745 -0.005725114 0.0042161923
0000b0 8c 19 61 bd 52 d6 5d bd 7c 47 94 bd a2 42 09 be
       -0.054956004 -0.05415947 -0.07240197 -0.13404325
0000c0 28 0c 60 bd 12 51 ee 3d e8 0b 9b bd 78 27 49 bd
       -0.054699093 0.11636557 -0.0757063 -0.049109906
0000d0 3c 3e 06 bd 95 3c 94 bd 92 da bb 3d 7c 89 b1 3d
       -0.032774195 -0.072381176 0.09172548 0.08668801
0000e0 fa 39 22 be f1 a0 b1 3d c6 9a ca 3d 7e fb 29 3d
       -0.15842429 0.08673275 0.09892802 0.041499607
0000f0 76 43 d1 3d 96 a9 c5 3c 1a 23 1a bd 6a 0e 6e bc
       0.10217945 0.024128716 -0.03763113 -0.014529804
000100 25 d9 92 bd 7c d0 5b bc b2 0a b8 3d 99 6b 78 3d
       -0.07170323 -0.013416406 0.08986415 0.060649488
000110 63 46 94 bd b3 0a c0 bd 10 59 b4 bd f6 a8 01 be
       -0.07239988 -0.09377041 -0.0880605 -0.1266211
000120 7c 11 b6 bd ed a8 0f bd 75 05 a7 3d d4 5a 78 3c
       -0.08890054 -0.03507321 0.08155338 0.015158374
000130 18 da aa bd bd 6c c6 bd 5a 3c ab 3d 02 79 c4 bd
       -0.08342379 -0.09688709 0.083611205 -0.09593393
000140 cf 3f 80 bc b2 11 75 3d e1 06 47 bd ed ae ad bb
       -0.015655426 0.05983133 -0.048590545 -0.005300394
000150 f2 e7 8f bc dd 0e e6 bc 5a ec 7a bd 4c a0 dd bd
       -0.017566655 -0.02808326 -0.06126056 -0.1082159
000160 be c8 c6 bd 99 3f 76 bd ba 9b 09 3e 0c 97 89 bd
       -0.09706257 -0.060119245 0.13438311 -0.06718263
000170 03 bb ca bd 78 5f d8 3c db de 32 3c 82 69 84 3d
       -0.09898951 0.02641271 0.010917391 0.064654365
000180 03 34 bf 3d 70 73 87 3d 7a a8 05 be ac cc 25 3c
       0.09336092 0.06613815 -0.1305255 0.010119598
000190 fc 62 af 3d 4b 2c c4 bc 50 8d 89 bd fd 2f eb 3d
       0.08563802 -0.023946902 -0.06716406 0.114837624
0001a0 2a e0 47 bd b8 f1 99 bd a5 c0 ea bd d0 96 3e 3c
       -0.048797764 -0.07516807 -0.11462525 0.011632636
0001b0 d0 5c 4f 3d 32 5f 5f 3d ea 1d 32 3c cb 61 ce bd
       0.050625622 0.054534145 0.01087139 -0.10077246
0001c0 85 68 ea bd d8 ab eb 3c fc d8 c6 3d c1 6a 86 3d
       -0.11445717 0.028768465 0.09709355 0.065633304
0001d0 8f 54 6e bd 89 8d b8 bc 5a ce c3 bd 37 6b 84 bd
       -0.05818611 -0.022528427 -0.09560843 -0.06465762
0001e0 cc b2 33 3c 04 49 9a 3d 29 39 dc 3d 0f 71 ba bd
       0.010967921 0.07533458 0.1075309 -0.091035955
0001f0 2c cc cd 3d 2b f5 bd bd 7c c2 46 3d 9d 77 d1 3d
       0.10048708 -0.09275278 0.04852532 0.102278925
000200 d3 c9 36 39 ec da 03 3e 9b f5 80 bd 6f 39 43 bd
       0.00017432058 0.12876481 -0.062968455 -0.047662195
000210 03 92 ad 3d ca 34 34 bd 00 e8 69 bd a7 36 40 bb
       0.08475115 -0.043995656 -0.057106018 -0.002932945
000220 04 2c 54 3d 8a bd 8c 3c 6a d7 85 3d c6 11 fb bc
       0.05179979 0.017180223 0.065352276 -0.030648123
000230 6f 2f eb bd 7c 0b bb bc 21 c2 0d 3d 64 c3 c3 bd
       -0.114836566 -0.022832625 0.034608964 -0.09558752
000240 30 2c 71 bd 29 da 08 3e d6 f0 ea 3c 4d 87 8d bc
       -0.05888003 0.13364471 0.028679293 -0.01727643
000250 e0 e6 04 bd 5c 3f 24 be aa 97 f4 bd 4b 20 07 bd
       -0.032446742 -0.16039795 -0.1194299 -0.03298978
000260 3d a6 88 bd 71 92 89 3d f8 84 53 bd d2 7a 9e bd
       -0.066723324 0.067173846 -0.05164048 -0.0773827
000270 6c 0b 04 3e 38 8a b0 3d d1 a7 e5 3d 8f 43 84 bd
       0.12894982 0.08620113 0.11213649 -0.06458198
000280 b1 c7 76 bd 1c 58 ae 3d 38 06 0a bd 79 2e 91 bd
       -0.060249034 0.08512899 -0.033697337 -0.07088942
000290 ba 67 be 3c 1c ac ba bd 8a 24 eb bd 9a f1 c6 3d
       0.02324282 -0.091148585 -0.11481579 0.097140506
0002a0 4a 12 15 3e 54 8d 40 3d f5 6a e6 3c 19 c3 d6 bd
       0.14557758 0.04700978 0.028127173 -0.10486431
0002b0 76 ac 5a bd d2 22 85 3c 5d 28 4c 3d 6a 2a 79 bd
       -0.053387128 0.016251955 0.04984318 -0.060831465
0002c0 dd aa c8 bb 25 c0 5a 3d 5e 44 d2 bd 4a 85 0f 3d
       -0.006123884 0.0534059 -0.10266946 0.035039224
0002d0 0b ed 34 bd 23 66 9b bc 52 a1 9d bb 18 e6 80 3d
       -0.044171374 -0.018969601 -0.0048104906 0.06293887
0002e0 e2 d1 b0 bd b1 5d b3 3d 40 a8 3c bd f7 a2 9b 3d
       -0.08633782 0.087581046 -0.046058893 0.075994425
0002f0 e8 98 ee 3d e2 34 26 bd a9 77 cb bd a3 30 88 3d
       0.11650258 -0.040577777 -0.09934933 0.06649902
000300 d6 0a bb 3d b1 8f d2 bd 6a 2c 7f bb 28 bd ed bd
       0.09132926 -0.10281313 -0.0038936385 -0.11608344
000310 10 56 e0 bd f2 97 d4 3c 59 b0 2c 3d ec 5a 72 3c
       -0.10953915 0.02595136 0.042160366 0.014792185
000320 94 b8 13 bd 1b 0d 00 3e d5 48 26 3c 23 ce a9 bd
       -0.0360647 0.12505 0.0101492 -0.082912706
000330 5e 53 4f bc 12 ed 12 3d 55 a6 16 3d e7 7f a5 bd
       -0.012654154 0.03587062 0.03677972 -0.08081036
000340 50 d0 1b 3d da 88 89 bd 80 15 e3 bd 0d ca 93 bd
       0.03804046 -0.067155555 -0.11088085 -0.072162725
000350 cd 1d 00 3e 32 44 e8 3d e7 04 d7 3d 26 7a a1 3d
       0.12511368 0.11341132 0.10498982 0.07884626
000360 31 a1 b3 3d 5c 00 96 bc 0a 5b 98 bd cb 73 93 3d
       0.08770979 -0.018310718 -0.07439239 0.0719982
000370 53 95 95 bd 81 6e a2 bd 2b b5 4e bd 11 b0 9a 3c
       -0.07303872 -0.07931233 -0.050465744 0.018882783
000380 9e 36 69 3d 34 1c 33 bd 74 15 9c bd 28 56 9c 3c
       0.056936853 -0.04372807 -0.07621279 0.019084051
000390 91 c2 9d bd 0b f7 be bd 58 9a 7d 3d 93 57 72 bc
       -0.07703126 -0.093244635 0.06191477 -0.014791387
0003a0 5a c2 d5 3d db 56 02 3e 0b fc 0e 3d 6e c4 2c 3d
       0.1043746 0.12728445 0.034908336 0.042179517
0003b0 3f 4c 16 3d a5 4a 46 3b b1 6a 90 bc 86 7b 4c 3c
       0.036693808 0.0030256894 -0.017629 0.012480622
0003c0 3d 47 42 3d 7d b8 e0 3d 1a 94 29 bd b5 5c 2a bd
       0.04743122 0.10972688 -0.041401006 -0.04159232
0003d0 1c a2 18 bd a0 be 50 bd 92 ff 5e 3c a7 00 ac 3d
       -0.037263975 -0.050963044 0.013610737 0.08398562
0003e0 83 51 a8 3d 86 3d 58 3d 6b 68 b5 bd aa ef 97 bd
       0.08218672 0.05279305 -0.08857807 -0.07418759
0003f0 4a 79 0c bd d3 c7 8f bc 94 87 40 3b 2f 66 e0 bd
       -0.034295358 -0.017551338 0.0029377686 -0.1095699

gkf.gat_rnn.fc_delta_y_innov.2.bias f4 [64]
000000 60 e3 0d 3d 14 c3 80 3d a6 6d 41 3d e6 21 c7 bd
       0.03464067 0.06287208 0.04722371 -0.097232625
000010 02 21 6b 3d cc 90 d7 3d db 7c 33 bd d0 d0 62 bd
       0.057404526 0.10525665 -0.043820243 -0.05537492
000020 30 6d 6f bd ae b1 08 bd c7 eb 9e bc 62 b5 3e 3d
       -0.05845374 -0.033372574 -0.019399537 0.0465597
000030 df e9 4d 3c 75 09 29 bd 57 a9 9f 3d d2 5a b2 3c
       0.012567966 -0.041268785 0.07795971 0.021771822
000040 dc c7 6b bd be d3 fc bb 18 ec 45 bd 7b a7 eb bc
       -0.057563648 -0.0077156713 -0.04832086 -0.028766384
000050 3b 64 b0 bd 5c 9d 3d 3d 78 33 c4 bd 27 c7 49 3d
       -0.086128674 0.046292648 -0.095801294 0.049262192
000060 54 96 f0 3d fc df f1 bd 37 a5 72 bd 85 d6 00 be
       0.11747423 -0.118103 -0.059239592 -0.12581833
000070 c1 5c 1d 3d 79 d0 50 3c c8 94 44 bd e7 3f d1 3d
       0.038418535 0.012745016 -0.04799345 0.102172665
000080 2c 02 86 3d 67 f8 9d bd 7c 88 c3 3c c2 91 ad bd
       0.06543383 -0.077133946 0.023868792 -0.08475067
000090 2b 87 c8 ba 5f 5c 5f 3d a5 79 39 3b ce c3 a9 bd
       -0.0015299072 0.05453145 0.0028301266 -0.082893
0000a0 54 3a e3 3d 3b 8d b8 bd 8c c6 74 bc 21 14 74 3d
       0.110951096 -0.090113126 -0.014939915 0.05958951
0000b0 c8 5c 16 3e 51 d7 09 3e 27 8a 27 ba 6f c7 75 3d
       0.1468383 0.13461043 -0.0006391131 0.060004648
0000c0 97 88 d3 bd 89 80 3c bc 75 19 63 bb e3 48 6a 3d
       -0.10328787 -0.011505255 -0.0034652625 0.057198416
0000d0 aa 80 96 bd ca 85 a9 3d 67 2f b1 3d 72 b8 03 3e
       -0.073487595 0.08277471 0.086516194 0.12863329
0000e0 76 98 c8 bb 95 45 fa 3d 75 6c bf bd 63 bc d6 bc
       -0.0061216904 0.12220303 -0.093468584 -0.026212877
0000f0 9a 3a 9f 3d a9 c7 b6 3d 1a 32 82 3d e1 f8 ac bd
       0.07774849 0.08924801 0.06357212 -0.084459074

gkf.gat_rnn.fc_r.0.weight f4 [64, 1]
000000 d3 0c 25 3f bd 23 72 bf 65 f6 37 bf b2 27 4e bd
       0.64472693 -0.9458578 -0.71860343 -0.050330825
000010 fa a1 7e bf 9c ea 7a bf a9 07 64 bf ac 7f 4c 3f
       -0.99465907 -0.98014235 -0.8907419 0.7988231
000020 87 75 69 3e e4 45 a2 be 6d f0 93 bd 1e 61 61 bf
       0.2279874 -0.31693947 -0.07223592 -0.88038814
000030 ef 66 76 bf 2d 3b 39 bf 05 ae 7f bf 35 ba 2d 3f
       -0.96250814 -0.7235592 -0.9987491 0.67862254
000040 4d 87 c9 be 4b 0c 91 be 66 4f 64 bf 14 69 2c 3e
       -0.3936104 -0.2832969 -0.8918365 0.16836959
000050 e8 fd 0f be 2c 7e 2f bf 91 93 32 3f 7a 3c 61 3f
       -0.14061701 -0.685519 0.6975642 0.87982905
000060 1f 55 3a bf b1 2b 19 3f b4 c9 24 be 6c 83 dc bc
       -0.72786134 0.5983229 -0.16092569 -0.026918136
000070 ba 9d e1 3e 99 4c 33 be 26 35 63 3f 67 34 1e 3f
       0.44065648 -0.17509688 0.88752973 0.6179871
000080 6e 41 2b bf 04 bc 2a bf 2d c0 81 bf 05 57 a2 3e
       -0.6689671 -0.6669314 -1.0136772 0.31707016
000090 e1 f4 43 bf c0 7b 5a bf d6 6d 2c bf 54 02 82 bf
       -0.7654553 -0.8534508 -0.67355096 -1.015696
0000a0 19 5d 55 bf 0a 97 6d 3f b6 64 09 3f 76 e2 69 3f
       -0.8334518 0.9280859 0.536693 0.91361177
0000b0 42 b0 01 bf 5c 05 d1 be 3b 35 b5 be 35 15 f4 3c
       -0.50659573 -0.408244 -0.35392174 0.029795269
0000c0 3b c9 37 bf df 8c 28 3e 6d de 2b bf 9e 40 3a 3e
       -0.7179143 0.16459988 -0.6713627 0.18188712
0000d0 98 11 75 3f 5c 3d 57 3e a9 25 46 3f 0d f8 3b bf
       0.9572997 0.210195 0.77401215 -0.7342537
0000e0 7b 53 02 be be 36 21 bf 10 0e dc bd 66 af c3 be
       -0.12727158 -0.62974155 -0.1074487 -0.38219756
0000f0 6e f2 1b bf c7 2e 84 bf 2a 71 c5 be 0d c9 2a 3e
       -0.60916793 -1.0326775 -0.385629 0.16678257

gkf.gat_rnn.fc_r.0.bias f4 [64]
000000 67 24 0f be 48 fb 6a bf 9a 9b 47 3f 53 08 48 3f
       -0.1397873 -0.91789675 0.77971804 0.781377
000010 d7 85 14 bf 18 cd 06 3e 1b 44 2c 3f d7 33 76 bf
       -0.58016723 0.13164175 0.6729142 -0.9617285
000020 23 12 61 bf 3f 38 15 3f 24 e5 a0 3c f9 d6 a0 3e
       -0.879183 0.5828895 0.019640513 0.3141401
000030 ec 17 c0 be 03 0f 61 3e 21 0d 31 3f 5b 3d 4d be
       -0.3751825 0.21978383 0.6916066 -0.20042937
000040 2e 06 86 be 6e 6c 71 bf d6 b6 d7 bd d1 ac 20 3f
       -0.2617659 -0.94306076 -0.1053292 0.62763697
000050 e4 05 74 bf 80 e2 dd bc 16 47 43 3f b9 94 70 be
       -0.9532149 -0.027085543 0.76280344 -0.23494233
000060 74 83 ad be e2 a4 93 be 92 86 d0 be a6 ea c9 3d
       -0.33889353 -0.28836733 -0.4072767 0.09859209
000070 53 23 70 bf 5b 52 c6 3e a7 0a 50 be 7a f2 21 be
       -0.938039 0.38734707 -0.20316564 -0.15815154
000080 49 ff 21 bd 39 20 16 3f 51 ae 11 bf b9 34 6c bf
       -0.0395501 0.5864292 -0.5690661 -0.9226795
000090 e8 14 33 bf 27 93 32 bf f2 3c e5 be fa 42 4f 3f
       -0.69953775 -0.69755787 -0.4477306 0.80961573
0000a0 6e 09 3e bf 05 e4 12 bf e5 3e 5a bf 67 19 fe be
       -0.7423314 -0.5737918 -0.8525222 -0.49628755
0000b0 50 d8 e1 bc 00 6d 20 bf 2c d8 07 3d 2d 03 bc 3e
       -0.027568966 -0.6266632 0.033165142 0.36721173
0000c0 77 b8 37 be 30 2d f0 3e 18 e1 7e 3e 89 3e 80 3f
       -0.17941462 0.46909475 0.24890554 1.0019084
0000d0 f5 7c 34 3c ab 6b 5f 3f 0d 14 4e 3f 8a 80 f9 3e
       0.01101612 0.87273663 0.80499345 0.4873088
0000e0 16 46 1d 3f 22 ed 25 bf bb 90 2e bf b9 6b de 3e
       0.6143507 -0.6481496 -0.6818959 0.4344156
0000f0 20 4c c0 3e b3 98 6d 3f c8 cc 01 be bc f7 12 be
       0.3755808 0.92811126 -0.12675774 -0.14352316

gkf.gat_rnn.fc_r.2.weight f4 [64, 64]
000000 72 60 08 3e 06 cb 8e b9 41 00 d8 3d a8 e6 3d bd
       0.13318041 -0.00027235615 0.105469234 -0.04636255
000010 3c 49 42 bd e0 35 e4 bc c8 3a 45 3d 0b 2a 85 bd
       -0.047433123 -0.02785772 0.04815176 -0.0650216
000020 ac ed a2 bc d5 b4 b0 3d d9 a8 a3 bb 9d 3e 6f 3d
       -0.019888721 0.08628241 -0.0049944934 0.058409322
000030 f8 8c 64 bd 25 f7 e1 bd 54 0b d8 bd 09 67 c2 bc
       -0.0557985 -0.11033467 -0.10549036 -0.023730772
000040 c6 98 ca bd 44 0c 67 3d 9a af ab 3b 0a 84 4c bd
       -0.098924205 0.05640818 0.005239439 -0.04993061
000050 6b 2d db 3d 26 fa ae 3b 29 7c bf 3d 76 7d bb bb
       0.10702022 0.0053398786 0.093498535 -0.005721743
000060 97 6e a0 3d 35 67 30 bd 29 70 b1 3d f9 15 67 bd
       0.07833593 -0.043067176 0.08663971 -0.05641744
000070 33 30 d1 3d 87 7b 43 bd 95 bb 03 3e ab f7 6a bd
       0.102142714 -0.047725227 0.12864526 -0.0573651
000080 a9 84 61 bd d1 e6 48 bd da 9d a6 bd 8b fd 61 bc
       -0.055058155 -0.04904825 -0.081355765 -0.0137933595
000090 d2 e4 21 bd 59 39 06 3c e1 cb aa 3d 39 55 1b bd
       -0.03952486 0.008192384 0.08339668 -0.03792307
0000a0 9d c4 f1 3d 6b 61 78 bc c1 7a 92 bc 22 91 1c 3d
       0.11805079 -0.015159945 -0.0178808 0.038224347
0000b0 bf 42 5b bd 0f fa 12 3d ae 32 aa 3d 65 1c 86 3d
       -0.05353045 0.035883006 0.08310448 0.065483846
0000c0 6c 09 06 be 9e 1e 10 bc 57 cf 5f bd e8 b3 b3 bd
       -0.13089532 -0.008796362 -0.054641094 -0.08774549
0000d0 b3 0e b6 3d e5 15 0c 3e 40 10 e1 3d 8c eb be bc
       0.088895224 0.13680227 0.109894276 -0.023305677
0000e0 7a 58 63 ba 9d 70 80 bd d7 3f ae bc d8 3e c9 3d
       -0.0008672547 -0.06271479 -0.021270676 0.098264396
0000f0 31 83 b0 bd 58 9f a3 3b e0 2f eb bd 8d b0 fb 3b
       -0.08618773 0.0049933605 -0.11483741 0.0076809586
000100 a0 cf e9 3c 8e d1 dd bd a4 8f 68 3d fc 90 60 bd
       0.028541386 -0.10830985 0.05677761 -0.054825768
000110 85 93 6c bd de 02 ca 3d 1f 5d 0c 3e 05 e8 ab 3a
       -0.057757873 0.09863828 0.13707398 0.0013115412
000120 42 da ac bd 41 54 98 bd 8b 6b b9 bc 3b f2 44 bd
       -0.08440067 -0.07437945 -0.022634288 -0.04808257
000130 91 93 c7 3d ce 17 98 bd 15 01 c2 3d df 42 37 3d
       0.09744943 -0.074264154 0.09472863 0.044741508
000140 f2 9a 48 bd 15 1d c5 3d d8 36 99 3d 17 a5 24 3d
       -0.048975892 0.096246876 0.07481164 0.040196504
000150 ec 5d ca bd 29 3f f2 bc 88 46 8a 3d c3 96 04 3e
       -0.098811954 -0.029571133 0.06751734 0.12948136
000160 b2 93 3c bd d6 c1 02 bd 15 88 06 be 57 3f f9 3d
       -0.04603929 -0.031923138 -0.13137849 0.12170284
000170 25 b6 fb 3d 17 d2 ee 3d 33 01 46 bd 07 61 e2 3d
       0.12290601 0.11661165 -0.048340987 0.11053663
000180 8a 8e fa bc d5 ce b1 3d 4f dd 88 3d 8f 71 ca bd
       -0.030585546 0.08682028 0.06682836 -0.09884941
000190 11 a0 91 3c 4c dd 1c 3d f9 9e ad bd ae 39 0b 3e
       0.01777652 0.038296983 -0.08477587 0.13596222
0001a0 92 fc ac 3d 27 d3 fb 3d c7 a9 9f 3b 85 81 43 bd
       0.084466115 0.122961335 0.004872534 -0.04773094
0001b0 15 08 79 bd 5c a2 e3 3c 40 8a 6f bc 31 47 1c 3e
       -0.060798723 0.02778738 -0.014620364 0.15261532
0001c0 c3 64 db 3d 99 c8 56 3d 7c c4 b0 bd 32 f5 c9 3d
       0.10712578 0.0524374 -0.086312264 0.098612204
0001d0 0d ae 08 3e 09 fc 83 3c 9d 02 20 bd 90 07 23 bc
       0.13347645 0.01611139 -0.039064992 -0.0099505335
0001e0 af 9b 7e 3d aa 45 dc bd 6e fb 56 3d 96 c0 9b 3d
       0.06216019 -0.10755475 0.052485876 0.07605092
0001f0 6d b4 ea bc ca 54 cb bc 0b d0 70 bd 55 b0 e6 3d
       -0.028650487 -0.024820704 -0.058792155 0.112641014
000200 ba 9d a5 3d 7c 3c 0e 3d 7f c2 45 bc 17 9e de 3c
       0.080867246 0.03472565 -0.012070297 0.027174992
000210 48 2e f9 3d 11 41 1f 3d 3d af 88 bd 25 e9 51 3d
       0.121670306 0.03888041 -0.06674049 0.051247735
000220 4c 02 60 bd 46 49 5c bc c5 7b a1 bd 61 d5 c0 bb
       -0.05468969 -0.013445204 -0.07884935 -0.0058848117
000230 08 c4 02 3c 87 ec 9e bd 43 25 9c 3d c5 d5 f9 3d
       0.007981308 -0.07759958 0.076242946 0.121989764
000240 ed 61 d4 bd 8b fa d1 3c 97 f7 ae bd 5d ca bf bc
       -0.1037024 0.025632164 -0.08543318 -0.023411924
000250 00 2f 6b 3d 3f c3 d8 ba 73 00 2f 3d 3e b7 0a bd
       0.05741787 -0.001653768 0.042725038 -0.03386616
000260 77 26 f7 3d dc 52 57 bd 5d 64 86 3c 45 16 c8 3b
       0.120678835 -0.052569255 0.016405279 0.0061061704
000270 eb 99 a9 3d eb c8 6b 3b ac 1c a8 3d d7 a5 1e 3d
       0.08281311 0.003597791 0.08208594 0.038732376
000280 68 45 a4 3d 7f 93 79 bb e0 b8 2f 3d 99 42 f5 3d
       0.08021051 -0.00380823 0.04290092 0.11975593
000290 9f 9c 28 bd 01 18 50 bd 29 51 bb 3d 14 71 30 3d
       -0.04116499 -0.050804142 0.091463394 0.04307659
0002a0 87 79 f2 bd 4b 35 4d 3d 64 1c fa bd e3 16 7e bd
       -0.11839586 0.050099652 -0.12212446 -0.062033545
0002b0 44 fe 49 3d 8f 85 7c 3d 4b 33 e9 bc 26 87 d4 3d
       0.049314752 0.06165081 -0.028466841 0.1037734
0002c0 12 66 00 3e b0 7a cc 3d c8 cc ef bd f0 90 39 bd
       0.12538937 0.09984338 -0.11708981 -0.04530424
0002d0 b5 9c 71 3c aa 46 d1 3d 2d 35 82 bc 09 38 b5 3c
       0.0147468345 0.10218556 -0.015894497 0.022121446
0002e0 1a 94 7a 3d 86 48 88 bd 17 38 a0 bd 83 12 f0 3d
       0.061176397 -0.06654458 -0.07823198 0.11722281
0002f0 aa 4f d9 bb ec f9 a9 3d 3c e3 f6 bd 7e 79 31 bd
       -0.006631811 0.08299622 -0.1205506 -0.043328755
000300 ce 03 f9 3d 4e 18 c5 ba 5f 01 62 3d 8f 0b ab bd
       0.12158929 -0.0015037151 0.05517709 -0.08351814
000310 3b 6b 08 3e e3 48 4a bd b5 cc fa 3b e2 b2 29 bd
       0.13322155 -0.049385916 0.0076537975 -0.04143036
000320 17 42 56 bc 48 d3 c6 bd 2b 13 c6 bd 84 29 47 bc
       -0.0130772805 -0.097082675 -0.09671625 -0.012155894
000330 6a de 30 bd b3 4c d8 3d c7 25 5a 3c 04 b4 06 3e
       -0.04318086 0.10561504 0.013314671 0.13154608
000340 ab 25 21 bc b3 a7 ce 3c 0b be 07 3e 61 aa 96 bd
       -0.009835641 0.02522645 0.1325609 -0.07356716
000350 8f f8 60 bd c7 b8 f4 3d bf b0 83 39 67 69 f4 39
       -0.054924544 0.11949306 0.00025117953 0.00046617838
000360 98 d1 b2 3c d6 d8 00 bd bf f1 50 3c 4c 8b 14 bd
       0.021828458 -0.03145679 0.012752949 -0.036265656
000370 cd 7c a6 3d 27 7b 87 bc 54 c2 03 bc 1f 75 59 bc
       0.081292726 -0.016538216 -0.008041937 -0.013272553
000380 03 e0 38 3d 86 29 9d 3d 0d 58 d2 bd 2c f8 20 bd
       0.04513551 0.076739356 -0.102707006 -0.039299175
000390 b2 b0 df bd f6 fb 8d 3d 91 0c d7 3d 3e 29 d9 bd
       -0.10922374 0.06932823 0.10500444 -0.106035694
0003a0 b4 29 31 3d d5 d8 7e 3d a7 76 df bc a5 85 81 3d
       0.04325266 0.062218506 -0.027278258 0.06324319
0003b0 19 6c df 3d 2a a8 06 3e 43 0d 89 3d f7 48 9a bb
       0.1090929 0.13150087 0.066919826 -0.004708405
0003c0 6a ee 70 bd 87 61 ad bc 37 87 6c 3c b9 ac 6a 3c
       -0.05882112 -0.021164669 0.014436535 0.014323407
0003d0 da bd fd 3d f2 04 b6 bd ed fd 24 3d 97 e2 d3 bc
       0.12389727 -0.08887662 0.040281225 -0.025864882
0003e0 19 34 c9 3c 42 c2 05 3e 8e 3a 2d 3b 87 17 11 bc
       0.024560975 0.13062385 0.0026432606 -0.008855707
0003f0 b0 6f e9 bc 4f e2 e2 bd 83 ff ce bd d0 ad c5 3d
       -0.02849564 -0.11078321 -0.10107329 0.09652293

gkf.gat_rnn.fc_r.2.bias f4 [64]
000000 e0 3f 67 3d 77 e4 18 3e 80 6f b1 3c ce f3 8b 3d
       0.0564574 0.14930902 0.021659613 0.068336114
000010 9d 0b a4 bd 53 35 97 bd 88 cd 58 bd cc 24 5c bd
       -0.080100276 -0.07383218 -0.052930385 -0.05374603
000020 b6 cd 0b bd 7a c8 45 bd f3 f8 78 bc 99 d1 8d bd
       -0.034131728 -0.048286892 -0.015196073 -0.06924743
000030 2c eb 39 3d 1e 30 31 3d 21 2f db 3c 6a 3d 4d 3d
       0.045390293 0.04325878 0.026755871 0.050107397
000040 08 76 d0 bd 26 bd d7 bc 64 10 4f 3c 53 84 b2 bd
       -0.10178763 -0.02633531 0.012638185 -0.08716645
000050 e6 b1 7a 3d 41 01 a6 bd c9 e7 e2 3d a5 14 2f 3e
       0.061204813 -0.08105708 0.11079366 0.17097719
000060 b8 2c 61 ba 8e cd 52 bd f4 c2 f9 3d 03 3c 82 bd
       -0.00085897325 -0.051465563 0.121953875 -0.063591026
000070 a3 80 1b 3d e1 2f af 3d 0f 2f f6 3d f2 ac 22 3c
       0.037964474 0.08554054 0.120206945 0.009928929
000080 50 e7 55 3c a0 da e9 bc 09 15 b2 bd dd f1 79 3d
       0.0130556375 -0.028546631 -0.086954184 0.061021674
000090 6f 12 a9 bd c2 68 15 3d 9f f5 be bc a2 cb b5 3d
       -0.08255469 0.036476858 -0.02331048 0.088767305
0000a0 dd 89 0b bd 80 91 e3 3d 95 d1 eb bc 7e d0 51 ba
       -0.034067024 0.11111736 -0.02878646 -0.0008003785
0000b0 23 ff d4 bd 49 23 09 3e 57 a1 f5 3a 45 55 f4 bd
       -0.10400226 0.13392366 0.00187401 -0.11930326
0000c0 95 41 22 3b 22 8d 8f 3d 59 35 8e bc 85 45 de 3d
       0.0024758328 0.07009341 -0.017359423 0.108531035
0000d0 39 66 85 3d 71 45 db bc 04 d8 25 3e f0 f4 f6 3d
       0.06513638 -0.02676651 0.16195685 0.12058437
0000e0 ed 3b 81 bc 29 01 52 3b e6 f6 47 3d 2c 0d 12 bd
       -0.015775645 0.0032044149 0.048819445 -0.035657093
0000f0 c4 f9 c5 3d 31 97 d3 bd 2a 78 e2 bc 01 cf 85 3d
       0.0966678 -0.10331572 -0.02764519 0.065336235

gkf.gat_rnn.r_input_gru.weight_ih_l0 f4 [192, 64]
000000 67 3d 0d be 39 13 ed bc ec 14 64 bd 62 45 82 3d
       -0.13792954 -0.02893983 -0.055684015 0.0636089
000010 c4 eb 53 3c 44 cc 82 bd 8a 76 bc 3d 6d bc 4c bd
       0.012934629 -0.06386617 0.09202297 -0.049984384
000020 2f 8b 6a 3c c5 83 72 3d 32 73 cc bd 23 ff bc b9
       0.0143154105 0.059207696 -0.09982909 -0.00036048246
000030 09 de f8 bb fe 49 be 3a 53 f9 7b bc 9b b1 d3 3d
       -0.007594828 0.0014517901 -0.015379268 0.1033661
000040 25 c7 93 bd eb 63 e4 bd 50 1b 29 3d 3a f1 8b 3d
       -0.07215718 -0.1115187 0.041285813 0.0683312
000050 70 b6 0c bc 80 7e 8f 3d c6 2a 1d 3e 2a dd b2 bc
       -0.008588418 0.0700655 0.15348348 -0.021833975
000060 4c a9 fa bd d5 34 ea bd 98 a9 67 3d 14 c0 a0 3d
       -0.12239322 -0.11435858 0.05655822 0.07849136
000070 da e8 3d 3c 11 a0 f1 bd 28 5c 97 bd c3 70 6a bd
       0.011591161 -0.11798108 -0.07390624 -0.057236444
000080 22 f0 c3 3d 26 3d 4e 3d 2c 65 21 bd d0 13 07 be
       0.09567286 0.050351284 -0.039403126 -0.13191152
000090 7a e3 bc 3d 38 4d 71 bc 00 fc 2f 3e ad 55 93 bd
       0.09223075 -0.014727883 0.17185974 -0.07194076
0000a0 d8 af c8 bd 9b 5d 7a 3d 83 b0 c2 3d 60 5c 94 3d
       -0.097991645 0.061124425 0.09506323 0.07244182
0000b0 b1 9e 1c 3e 9c 88 89 3d 4b 3f 8b 3d 12 4e c2 bd
       0.15294911 0.06715509 0.067991816 -0.09487547
0000c0 ed 86 0c 3e d5 30 d3 bc b7 70 82 3d e3 3b 96 3d
       0.13723345 -0.02578012 0.06369155 0.07335641
0000d0 26 d9 af bd 84 af e5 bc 33 8f c2 3a a3 17 db 3d
       -0.0858634 -0.028037794 0.0014843702 0.10697868
0000e0 f8 f0 f0 3d 37 87 2c 3d 08 54 80 bd 30 dc 82 3d
       0.11764711 0.04212114 -0.06266028 0.06389654
0000f0 36 a2 03 3e b1 be 9d bd 20 bc 99 3d 53 f0 06 3d
       0.12854847 -0.07702387 0.07506585 0.032944035
000100 29 e4 e1 3d 99 06 2e 3d 4b c1 af 3d fc f2 ee bd
       0.11029846 0.04248676 0.085817896 -0.11667439
000110 63 49 84 3d f8 62 19 be 59 8c d7 bc 9a 98 d7 3d
       0.0645931 -0.1497916 -0.02631204 0.10527153
000120 fa 2b 05 be 8d 7f 9a bd 71 6a 1f bd a7 8a 75 bb
       -0.13005057 -0.0754386 -0.03891987 -0.0037466676
000130 8e 9d fb bc b8 13 ea bd 7a 1f a9 3b ef c3 7e bd
       -0.030714776 -0.11429542 0.005161223 -0.062198576
000140 5b c3 23 bd 28 29 7f ba 39 ec 5b 3d 95 d1 04 bd
       -0.039981227 -0.0009733611 0.053692076 -0.032426436
000150 08 3e fd bc 31 3f 31 3e a5 d7 d2 bc a9 cb cf bc
       -0.030913368 0.17309262 -0.025737593 -0.025365667
000160 c5 a3 d2 3d 9a 76 0b 3d 74 59 97 3d e9 2d 42 3d
       0.10285143 0.034048654 0.07390109 0.047407065
000170 14 e7 8d 3a cc e8 ed 3d 3c 09 33 bd df 74 a1 3d
       0.0010826313 0.11616668 -0.04370998 0.078836195
000180 54 3b c9 3a a6 60 17 3d 45 ee ea 3c 41 93 9a bc
       0.0015352764 0.036957406 0.028678069 -0.018869044
000190 98 ea a7 3d b3 b7 fa 3c 79 f3 53 3d d3 74 c1 bd
       0.08199042 0.030605173 0.051745865 -0.094461106
0001a0 a5 9c 60 bd af 5b 01 3d 1b 86 b5 bd b3 87 37 3c
       -0.054836888 0.031581577 -0.08863469 0.011201787
0001b0 05 cb ac 3d 23 82 cd bd 81 b5 50 bc 69 5a 2c 3d
       0.084371604 -0.10034587 -0.012738586 0.04207841
0001c0 b7 61 b3 3d 88 81 b4 bd eb ba ef bd c5 75 06 be
       0.08758872 -0.088137686 -0.11705574 -0.13130863
0001d0 b3 88 06 3d b3 95 e4 bd e9 06 b1 bd 1a bf 03 3d
       0.03284521 -0.11161365 -0.08643896 0.03216467
0001e0 15 19 f6 3c 69 c9 9c bd 8c 36 15 bd 22 2a 32 3d
       0.030041257 -0.076556034 -0.036428973 0.043497212
0001f0 37 36 ab bd b6 fb af bd ec ba 09 3d ed 6a 0c 3e
       -0.0835995 -0.08592932 0.03362553 0.13712664
000200 fe 38 64 bd 8e c1 c2 bd 73 7e c8 bd 99 fe 86 bd
       -0.055718414 -0.09509574 -0.09789743 -0.065915294
000210 8c e1 a3 3d 78 9a 01 3d fe 10 af bd 22 65 ec bd
       0.08002004 0.031641454 -0.08548163 -0.11542727
000220 d4 12 a1 bd 1e f6 b8 3c a5 f5 9c 3d f3 0f 51 3d
       -0.07864919 0.022578295 0.076640405 0.0510406
000230 6d e8 f8 bc 6a b0 83 3d 74 f9 14 3c 8a c4 9e 3b
       -0.030384267 0.06430133 0.009092677 0.0048452066
000240 62 7a 30 3d c3 7c 96 bd 73 7a 9b 3c 5b 3f 0b 3c
       0.043085463 -0.07348015 0.018979287 0.008498992
000250 46 1b 7b 3d 8a 46 ab 3a b7 e7 99 3d 67 62 da bd
       0.061305307 0.0013067287 0.07514899 -0.106633
000260 8a cc b3 3d 94 c6 ab bd d7 85 97 bd 25 df a6 bd
       0.08779247 -0.08387485 -0.07398575 -0.0814803
000270 1f 99 4f bc 8c fc 2a bd 14 26 05 be aa b1 80 3d
       -0.012670784 -0.041744754 -0.13002807 0.06283887
000280 fd 7a 8c 3c 79 d9 f2 3d a9 52 ba bd d6 07 d6 bd
       0.01714849 0.11857886 -0.090977974 -0.10450713
000290 ed 1e f8 3c 71 ae a4 3d f7 98 9b 3d 9a fc 2f 3d
       0.030288184 0.080410846 0.07597535 0.04296551
0002a0 d2 f9 4d bc 9e 97 80 3d 67 20 8e bd 34 3c 26 be
       -0.012571769 0.06278919 -0.06939774 -0.16233903
0002b0 3f af ec bd 3c 8b b9 bd e3 88 8b 3c a6 41 ff 3d
       -0.11556863 -0.0905976 0.017033046 0.12463693
0002c0 34 a1 a2 3d f2 3d b7 bd e1 fc 26 3d 16 95 f2 3d
       0.07940903 -0.08947362 0.040768508 0.11844842
0002d0 85 cc 34 3a fd b5 81 bc 95 e6 49 bd d4 e5 2c bc
       0.0006896931 -0.01583385 -0.049292166 -0.010552842
0002e0 ab 94 89 3d b1 48 21 bd 3b a2 00 bd 0d 4a 6a 3d
       0.06717809 -0.039375965 -0.031404715 0.057199527
0002f0 16 ec 3e bd 72 6f 8f bd 1a ed 22 3c b0 8e eb 3d
       -0.046611868 -0.070036784 0.009944225 0.11501825
000300 af 75 e2 3c 55 37 6b bc da 9c dc bd 0e cc 56 3d
       0.027644007 -0.014356454 -0.107721046 0.052440695
000310 5b ff 70 ba 0d 82 b2 bd 01 ed 09 be 43 fd 83 bd
       -0.00091933244 -0.087162115 -0.13469316 -0.0644479
000320 13 d2 d1 bd 17 67 b5 3c ff 62 a2 3d 05 8c 2e bd
       -0.102451466 0.022143884 0.07929038 -0.042614
000330 52 95 55 3d ac 86 26 bd ef ac 86 bd 3c 29 0a be
       0.052144356 -0.040655777 -0.06575953 -0.13492292
000340 7a b3 b5 bd a8 35 a0 3d b1 c9 9e 3d c4 1c dc 3d
       -0.08872123 0.07822734 0.07753313 0.10747674
000350 bb 11 d3 3c 7f 71 90 3d 8d 2d ee bc ed 42 13 3e
       0.02576529 0.07052898 -0.029074455 0.14380999
000360 dd 25 c4 bd c8 de d3 3b 1e ef de bd d8 a5 c8 bb
       -0.09577534 0.0064657666 -0.10885452 -0.0061232857
000370 5a 95 c8 bd e8 7f cd bd bd 6b c0 3b e7 9a de 3d
       -0.097941115 -0.10034162 0.0058722184 0.10869389
000380 97 8a bf 3d 5d f9 8c 3d 30 3a 2f bd ca 81 6c 3b
       0.09352606 0.068835 -0.0427801 0.0036088102
000390 b6 00 f1 bd 69 ce a4 3d 4d f1 0a bc 48 0f 9c 3d
       -0.11767714 0.08047182 -0.008480382 0.07620102
0003a0 ae dc 12 be 34 25 cd bc e9 91 cc bd 2d 03 e8 bd
       -0.14341995 -0.025042154 -0.09988768 -0.11328731
0003b0 70 3d d4 bd 19 38 1a 3d 47 30 8e 3d a5 7d 9b 3d
       -0.10363281 0.037651155 0.06942802 0.07592324
0003c0 fd 06 66 bd d3 d4 04 3d b1 3a 09 3e f4 b2 1a 3c
       -0.05615901 0.032429527 0.13401295 0.00944208
0003d0 fa 04 47 bd f7 d4 c3 bd 37 ad e4 3d 9b f7 06 bd
       -0.04858873 -0.09562104 0.111658506 -0.03295098
0003e0 d5 de e8 bd 9f de 82 3d 16 1c 6c 3c d4 0c 89 bd
       -0.11370627 0.06390118 0.014410993 -0.066919
0003f0 e2 7e ff bd f9 1c 4e 3c d0 5f 1e bc a2 9b 9e 3c
       -0.12475373 0.01258015 -0.009666398 0.01936132

gkf.gat_rnn.r_input_gru.weight_hh_l0 f4 [192, 64]
000000 df 17 79 bd 28 0e ba bd cf 73 05 be ca b2 a8 3c
       -0.06081378 -0.09084731 -0.13032459 0.020593066
000010 06 3d c4 bd ea 2f b7 3d f4 e4 d0 3d 9d 29 d5 bd
       -0.09581952 0.08944686 0.10199919 -0.10408328
000020 8c b1 81 bc 63 08 82 bd 9e ed e3 3c 18 10 5c 3d
       -0.015831731 -0.06349256 0.027823266 0.053726286
000030 01 4f 06 bd ee d1 d9 bd 13 a4 de bc a1 e5 0b 3e
       -0.032790188 -0.10635744 -0.027177846 0.13661815
000040 39 a3 9a 3d 95 b9 cd bd 0b 13 8f bc 7f 54 5d bd
       0.075506635 -0.100451626 -0.017465135 -0.05403566
000050 f9 a7 ec 3d 17 c4 4f 3d dd 8c b7 bd 2f d0 02 3d
       0.11555476 0.050724115 -0.089624144 0.03193682
000060 55 89 03 3d 61 01 dd bd b9 4c ce bd 9b c6 69 3d
       0.032113392 -0.10791279 -0.100732274 0.05707417
000070 86 d1 ee bd 0e 5f 60 3d f4 d8 8a bd 6a a5 3a 3d
       -0.11661057 0.05477815 -0.06779662 0.045567907
000080 c9 5d bc 3c 09 21 a8 3d 1d f9 a8 bd 55 93 a4 3d
       0.022993939 0.08209426 -0.082506396 0.08035914
000090 16 5f 85 3d 95 88 e4 3c 57 fd 20 bd 0e 05 38 bd
       0.06512277 0.027897159 -0.039304104 -0.044926696
0000a0 62 53 38 3d 78 54 3d 3d 82 00 a2 bd ab 3e 04 3d
       0.045001395 0.046223134 -0.07910253 0.032286327
0000b0 0d e7 76 bd 57 7c b6 bd 34 4e c2 3d d9 9d 17 3e
       -0.06027894 -0.08910435 0.09487572 0.14806308
0000c0 fa 57 ac 3d 39 67 6d bd 3a ef 4a 3d c8 7a ae 3d
       0.08415218 -0.05795977 0.04954455 0.085195124
0000d0 68 74 44 3b 7a d3 e2 3d 29 bd 4f 3c 87 44 f2 bb
       0.002997661 0.11075492 0.012679377 -0.007393423
0000e0 e9 c2 c3 3b ee 71 20 3d 31 48 47 3b 18 7d 8f bd
       0.005974163 0.03917115 0.003040802 -0.070062816
0000f0 e3 83 33 bd 68 c3 10 be 49 12 b4 bd a2 02 e0 3d
       -0.04382695 -0.14137042 -0.0879255 0.10938002
000100 0e 39 3d bd 02 b6 ee bd c7 70 8b 3d 85 c6 85 bd
       -0.04619699 -0.11655809 0.0680862 -0.06532005
000110 92 72 9b bc 82 3d 72 3d dc f4 a2 bd 13 2d 03 3d
       -0.01897553 0.05914069 -0.079568595 0.032025408
000120 52 4e c8 3d 4c b6 2a 3e d8 5e 4d 3d bc 57 75 bd
       0.097805634 0.16671103 0.05013928 -0.059898123
000130 a8 d0 00 3e 90 b3 49 3d b8 82 29 3d 2d 47 15 3e
       0.12579596 0.04924351 0.04138443 0.14577933
000140 51 2c 5c 3d e8 0c 34 3d d8 36 02 be c5 23 91 3d
       0.0537532 0.04395762 -0.12716234 0.070869006
000150 8d 08 fe bd f3 64 14 3d 70 9b fb bb 0d 04 0b 3e
       -0.12403975 0.036229085 -0.0076784417 0.13575764
000160 97 8d bb 3d 1d 27 73 bd 62 ef d1 3d 83 b5 1c be
       0.091578655 -0.059363473 0.10250737 -0.15303616
000170 64 30 81 3d 87 27 9b 3c 7d ec a4 3c 2a db 7b 3c
       0.06308058 0.018939747 0.020132298 0.015372077
000180 f6 e1 d6 3c d9 99 03 be 83 a6 8c 3d 10 94 6c 3d
       0.026230793 -0.12851657 0.06867697 0.05775839
000190 3f aa 34 3e 7e 00 41 3d cc 3f 01 bd 17 2f 69 bc
       0.17643069 0.04711961 -0.031554982 -0.0142324185
0001a0 39 a0 a4 3d 23 56 e9 bd a2 f4 9d 3c 0e 9c 7b 3d
       0.080383725 -0.113933824 0.01928169 0.061428122
0001b0 fc e2 16 bd 42 8b d3 bd 16 7b 19 3e 6e d5 ab 3d
       -0.036837563 -0.10329296 0.1498836 0.08390318
0001c0 ec 77 44 bc f4 b4 85 bc 34 82 66 bd b6 f1 b1 bd
       -0.011991482 -0.016321637 -0.056276515 -0.08688681
0001d0 3b aa a8 3d 0f 4c af 3d 1d 0a b8 bc 1d ba d6 3d
       0.08235594 0.08559429 -0.02246576 0.10484717
0001e0 0e c1 5a 3d dd d3 d4 3d 2f ec 1a 3b 03 e9 ef bd
       0.053406768 0.10391972 0.0023639312 -0.11714365
0001f0 fe bf 3d bd ff b3 be 3d 03 e1 cd 3b 2c 71 9e 3d
       -0.046325676 0.09311675 0.006282927 0.077364296
000200 60 e8 ec bd aa 8b 8b bd ca c7 bb bd e3 ad b0 3d
       -0.115677595 -0.06813748 -0.09168966 0.08626916
000210 7b 89 a7 bd 85 6f 7d 3d 98 ac b0 bd aa f7 d1 bc
       -0.08180519 0.06187393 -0.0862667 -0.02563079
000220 23 de d8 3d 81 76 51 bc ba 20 b7 bc 95 4a 80 bd
       0.10589244 -0.012784601 -0.022354472 -0.062642254
000230 37 59 9f 3d 94 bb cb bd 8d bb 55 bd 98 f5 82 bc
       0.07780688 -0.09947887 -0.052180815 -0.015986249
000240 98 72 b0 3d 8e d4 6a bd d1 60 f2 bd 47 37 9d ba
       0.08615607 -0.057331614 -0.118348725 -0.0011994623
000250 1b d4 85 bd 9a cf 08 3e 68 d0 5d bd 9f 94 46 3d
       -0.065345965 0.13360444 -0.05415383 0.04848158
000260 61 35 16 3e 1d c2 b1 bd 81 b0 84 3d 8e c0 34 bc
       0.146688 -0.08679602 0.06478978 -0.011032237
000270 46 14 a5 3d 9d 1c ab bc 37 26 51 3d 2c 84 1e be
       0.080605075 -0.020887667 0.051061835 -0.15480107
000280 c4 da 98 3d 6e 54 d6 bd 60 e7 4f 3d ea 57 4f bd
       0.07463601 -0.104653224 0.050757766 -0.05062095
000290 7d c8 61 3d 24 53 d9 3c 08 98 5f 3d 9b 11 11 be
       0.05512284 0.026528902 0.054588348 -0.14166872
0002a0 b4 f5 86 3d da 63 c9 3d 50 49 9d bb 92 2e ed 3d
       0.06589833 0.09833498 -0.0047999993 0.11581148
0002b0 a8 90 94 3d a4 fe 33 bc 11 a1 cd 3d e4 6a 23 3d
       0.072541535 -0.010986004 0.100404866 0.03989686
0002c0 82 12 1b 3d e8 f5 fb bd e6 c3 6b bd c8 21 c8 bd
       0.037859447 -0.12302762 -0.05755987 -0.09772068
0002d0 b3 1b c5 bd b4 a5 96 bd 76 95 a0 bd af 22 40 3d
       -0.09624424 -0.07355824 -0.078410074 0.046908077
0002e0 4c d2 13 bd fb a3 bc 3d 9c c6 bb 3c fe ac 6b bd
       -0.036089227 0.09210964 0.022921853 -0.057538025
0002f0 dd 57 d8 3d 24 5a ce bd 76 08 b1 bd c5 aa 17 3e
       0.105636336 -0.10075787 -0.08644192 0.14811237
000300 6a 26 5b 3d 28 2a fb 3c d9 bb 0a be bd ea f7 3d
       0.05350343 0.03065975 -0.1354822 0.1210532
000310 a6 ce 27 be 46 78 d5 bc 51 82 23 bd fc ba 92 3d
       -0.16387424 -0.026058327 -0.0399192 0.07164571
000320 3e 9b af bd 7a df 4e bd fc 30 10 be 8c 57 f8 bd
       -0.08574532 -0.050506093 -0.14081186 -0.12126073
000330 e6 a3 db bb c7 ed fb bc 56 3e 29 bd 1f be 44 3c
       -0.006702888 -0.03075303 -0.041319214 0.012008219
000340 db 36 c3 3c 45 de 96 3d e7 eb 43 bd 80 ca f6 3d
       0.023829868 0.07366613 -0.047832396 0.120503426
000350 5a 9a 53 bd 14 50 b6 3d 79 59 c7 bd 38 81 5d bd
       -0.051660873 0.089019924 -0.097338624 -0.05407831
000360 bd 0a 8b bc 67 04 3a bd 63 6b 64 bd cd 9a 94 3d
       -0.016972894 -0.045414355 -0.055766474 0.072560884
000370 7b b5 18 be 7a f6 85 bd 03 df 02 be a5 0f b1 bd
       -0.1491298 -0.06541152 -0.12780385 -0.08645562
000380 53 de 36 bd 4a e3 02 bc a1 e9 a0 bc 03 b2 21 3d
       -0.04464562 -0.00798876 -0.019642653 0.039476406
000390 54 a0 19 bb 58 d3 a6 bc c3 9e 1c bd fe e4 14 3c
       -0.002344151 -0.020364448 -0.038237344 0.009087799
0003a0 c9 8a ac 3d 75 45 ae bd d8 2f 19 be e1 2d b1 bd
       0.08424909 -0.085093416 -0.14959657 -0.08651329
0003b0 5f 83 f0 3c 55 9e 05 be 94 c2 10 3e 44 f9 91 3d
       0.029359518 -0.1304868 0.14136726 0.07127622
0003c0 d7 4f f8 3d 43 29 a3 bd dd db a3 3d 80 00 ec bd
       0.12124603 -0.079668544 0.0800092 -0.11523533
0003d0 01 c1 42 bd 0f d9 cd 3d 0a 29 e5 bd 00 c2 80 bc
       -0.047547344 0.10051166 -0.11189468 -0.015717506
0003e0 28 ae 0a bd 54 45 4a 3d d3 71 48 bd 45 c6 06 be
       -0.033857495 0.049382523 -0.048936676 -0.13161571
0003f0 b5 7a f1 ba 07 01 32 3d ce 77 c2 bd 45 46 6c bd
       -0.001842341 0.04345801 -0.09495507 -0.0576842

gkf.gat_rnn.r_input_gru.bias_ih_l0 f4 [192]
000000 47 8d fd 3d f7 75 3b bd b2 5f 86 bd 0f 29 ad 3d
       0.12380462 -0.045766797 -0.06561221 0.08455097
000010 8b 18 7c bb 28 30 0b 3e 3d ab 34 bd e7 fd be 3d
       -0.0038466777 0.13592589 -0.044108618 0.09325772
000020 4e a1 18 3c 6b e0 3a 3d cf da d0 bd ad 76 4a bb
       0.009315802 0.045624178 -0.101979844 -0.003089349
000030 5c 4b 24 3c 3b 26 85 bd 8c 9f c6 3d 9d b1 fa 3d
       0.010027733 -0.065014325 0.096984 0.12240908
000040 25 99 0c 3e f2 6a da 3d 06 f1 c9 bc 84 87 53 bd
       0.13730295 0.106649294 -0.024651062 -0.05164291
000050 ed f9 9c 3d e7 96 e8 3d 75 b8 40 bd 17 72 c5 3d
       0.07664857 0.11356907 -0.047050912 0.096409015
000060 f5 53 23 bd c3 e2 61 bc 36 a0 f0 3d 4b 46 15 3e
       -0.03987499 -0.013786974 0.11749308 0.14577596
000070 39 b3 e9 bd 4e 94 d4 3d e5 40 02 3e d5 0f 17 3d
       -0.11411137 0.103798494 0.12720068 0.036880333
000080 26 00 60 3d fd ce 60 3d 46 1a f5 3c a8 62 a1 3d
       0.05468764 0.0548849 0.029919755 0.07880145
000090 56 0b 3e bd 45 80 cc bc 75 cf 34 bc 15 d2 93 3d
       -0.04639753 -0.024963507 -0.01103579 0.07217804
0000a0 54 9b b9 bd 95 5d 89 3d 50 ca 60 bd 80 55 fe 3d
       -0.090628296 0.067073025 -0.05488044 0.124186516
0000b0 14 f6 b6 3b 05 31 93 3b 71 c7 7e 3d e0 fd ea 3c
       0.005583534 0.0044919276 0.06220192 0.02868551
0000c0 9f 9f 54 3d 3c ff c7 3d ec 79 b4 bc 29 f1 2a bd
       0.05191004 0.09765479 -0.022030793 -0.041733894
0000d0 51 81 8b 3d ae b5 f6 bd f8 ca 1c 3d 1d 9b 9f 3d
       0.068117745 -0.120463714 0.038279504 0.077932574
0000e0 ec 74 e6 3d 72 b8 e6 3d c7 8c 2f bd 1e b1 88 bd
       0.1125277 0.11265649 -0.042858865 -0.066744074
0000f0 b0 89 95 bc ba 05 bd bd 20 07 eb 3c fb fe 80 3d
       -0.018254131 -0.09229608 0.02868992 0.06298634
000100 db 14 27 3d 9c c2 37 be 9d e9 1e 3c ac f6 93 bd
       0.040791374 -0.17945331 0.009699252 -0.07224783
000110 00 5e ad bd 58 d1 c5 bd d8 57 a9 bd c8 37 f7 bd
       -0.08465195 -0.0965907 -0.08268708 -0.12071186
000120 66 4e f4 bd fd 9c cb 3d 29 8b 53 bd 87 83 4f bb
       -0.11929016 0.099420525 -0.051646385 -0.003166409
000130 cd 90 08 bd 93 97 7d 3c 70 db ea bd a1 22 5c bd
       -0.033341218 0.015478033 -0.11467636 -0.053743962
000140 b0 87 1d be 60 4f 00 be cb 23 05 be 64 59 44 be
       -0.15383792 -0.12530279 -0.13001935 -0.19174725
000150 4b 04 05 bd 46 8d 27 be 44 b8 dc bc ec e2 37 bd
       -0.032474797 -0.16362485 -0.026943333 -0.044894144
000160 01 b2 0c 3d ea ad 0c be 9a ff 6c bd d0 38 1c bb
       0.034349445 -0.13738218 -0.05786095 -0.0023837574
000170 02 e6 0a be a6 10 9f 3b 56 3e 0f 3b b7 f8 e8 3c
       -0.13564304 0.0048542796 0.0021857223 0.028438909
000180 3b 7d 27 bc b0 f4 15 b9 fd 60 aa 3c 71 a5 c3 bd
       -0.010222728 -0.000143009 0.0207982 -0.0955304
000190 50 40 23 3d 96 51 29 bd a3 93 0d be 17 25 c2 bd
       0.039856255 -0.041337572 -0.1382585 -0.094797306
0001a0 84 61 c0 bd 17 d8 0c be 55 34 ab 3d 44 1e cf bd
       -0.093936 -0.13754307 0.08359591 -0.101131946
0001b0 e0 2b 6a bd cd b5 23 be af c2 bb 3d 06 c1 38 bd
       -0.05717075 -0.1598732 0.09167992 -0.045105956
0001c0 99 b3 5d 3d 9b dc a2 3d 10 d5 a1 bd e9 06 1e bd
       0.054126356 0.079522334 -0.079019666 -0.03858081
0001d0 7d 82 e4 3c c1 7f 76 3d 1e 65 92 bd f9 02 85 bd
       0.027894253 0.06018043 -0.07148193 -0.064947076
0001e0 82 eb e4 3d 2b 5a 37 3d da 00 d8 bd 08 f5 26 3c
       0.11177732 0.044763725 -0.105470374 0.010190256
0001f0 b2 88 0b be 57 e7 1f 3c 40 99 0d 3a fc 56 da bd
       -0.13626364 0.009759746 0.0005401559 -0.10661122
000200 ef 2b 35 bd 81 89 5a 3d 28 e8 40 3b eb 2f bf bd
       -0.04423135 0.05335379 0.002943525 -0.093353115
000210 8b 1e 7d 3d 99 ca 48 3d 0c df 90 bd 47 9e dd 3d
       0.061796706 0.049021337 -0.07073793 0.10821205
000220 77 1b da bd a3 85 57 3c 9b 11 b1 bd 61 27 09 be
       -0.1064977 0.01315442 -0.08645936 -0.13393928
000230 21 a5 a6 3d fa 70 f8 3d 1f fa dd bd 59 1a 9e bd
       0.081369646 0.121309236 -0.108387224 -0.07719869
000240 ce 70 9a bd 55 d6 f9 bd 56 a7 3f bc 7a d6 e1 3d
       -0.07541047 -0.12199084 -0.011697611 0.11027236
000250 25 a5 ed 3c 91 4b 8c bd a4 5e 93 bd 28 91 8c 3c
       0.029009411 -0.06850351 -0.07195786 0.01715906
000260 44 d0 95 bd f0 f1 d6 bd c2 b2 44 bc 6b 71 a2 3c
       -0.07315114 -0.10495365 -0.01200551 0.019829473
000270 b4 9b a6 bd ec 30 be bd bf cb c3 3d 26 f6 23 3c
       -0.08135167 -0.09286675 0.09560346 0.010007417
000280 93 cb bd bc 8e 08 58 bd bd 9e b1 3d 0f 90 d2 3c
       -0.02316836 -0.052742533 0.08672855 0.025703458
000290 35 21 cf 3d 93 6d 04 bd 5a f8 b9 bd 67 a1 8b 3d
       0.101137556 -0.03233106 -0.090805724 0.068178944
0002a0 be 1b 38 bd c0 59 c9 3d 62 8a 5a ba b8 31 14 3d
       -0.044948332 0.098315716 -0.00083366607 0.036180228
0002b0 39 77 85 bd d1 b5 16 be e4 ca 71 bd 6a 27 1d 3d
       -0.065168805 -0.14717795 -0.059031382 0.038367666
0002c0 19 e6 dd bd d9 3b ba bc 78 eb a5 bc 6c 1e ff 3c
       -0.10834903 -0.022733616 -0.020253882 0.031142436
0002d0 cf b6 0d be 79 23 a2 bc f9 82 cb bc 27 66 09 3d
       -0.13839267 -0.019792305 -0.024842726 0.033544686
0002e0 69 f3 13 bd 08 58 ca 3d 49 76 ce bc b4 a3 c7 3d
       -0.036120806 0.09880072 -0.025202887 0.09748021
0002f0 98 64 fc 3d 75 d9 25 3d 3d ae 60 3d f5 52 06 3e
       0.12323874 0.040490586 0.054853667 0.13117583
