models/gnn-rnn/gnn_rnn_r_quarter.pth (torch, 152629 bytes, 17 tensors)

fc_measurement.0.weight f4 [32, 1]
-0.7259805 -0.8260072 -0.81627184 -0.426781 0.10801116 0.5583833 0.38702065 0.34768513
0.067743205 -0.8065808 -0.4933555 -0.9983983 1.0223647 -0.9484476 -0.4246559 1.0935943
-0.3261272 0.20412105 -0.022766862 -0.9493424 -0.22308192 0.6611889 0.7840924 0.7642033
0.8453863 -0.80937004 -0.46616715 0.611883 0.3998108 -0.8605506 -0.11428273 1.0743725
00000000: dcd9 39bf 3575 53bf 31f7 50bf 0a83 dabe
00000010: f434 dd3d 35f2 0e3f 9227 c63e c903 b23e
00000020: f3bc 8a3d 147c 4ebf 1899 fcbe 0897 7fbf
00000030: d9dc 823f 76cd 72bf 806c d9be e6fa 8b3f
00000040: 25fa a6be 1c05 513e 9281 babc 1b08 73bf
00000050: 966f 64be ad43 293f 48ba 483f d4a2 433f
00000060: 3d6b 583f e032 4fbf 76ad eebe 5da4 1c3f
00000070: 00b4 cc3e 0b4d 5cbf 100d eabd 0a85 893f

fc_measurement.0.bias f4 [32]
-0.55652046 0.6886457 0.56843483 0.02465736 -0.5887877 -0.88236755 -0.6948829 0.52392614
0.33742908 0.17860824 1.166222 -0.16138877 -0.5094111 -0.31896177 0.480515 -0.22505769
0.566081 -1.123624 0.74326444 -0.040733773 -0.49685484 0.42089665 -0.2992659 -0.61584556
-0.26097453 -0.6933493 0.046986315 0.7984725 0.60940284 0.75584143 -0.05300979 -0.83589655
00000000: 2078 0ebf 164b 303f f284 113f 3bfe c93c
00000010: caba 16bf d7e2 61bf d9e3 31bf 0620 063f
00000020: 81c3 ac3e 14e5 363e c346 953f 1943 25be
00000030: c468 02bf f54e a3be 1006 f63e 8675 66be
00000040: afea 103f e9d2 8fbf 9446 3e3f 75d8 26bd
00000050: c263 febe c47f d73e 6139 99be 0ea8 1dbf
00000060: 749e 85be 577f 31bf b974 403d b268 4c3f
00000070: d301 1c3f d37e 413f cb20 59bd 51fd 55bf

fc_measurement.2.weight f4 [32, 32]
0.106175326 0.14658302 -0.034350865 0.06031097 -0.128297 -0.056210857 0.041707896 0.12066752
-0.036308583 -0.08908575 0.134045 0.16371292 0.15529694 0.18241394 0.027309662 0.19285278
-0.15020332 0.027977068 0.10292091 -0.021871429 0.016597653 0.28310084 0.23994495 0.24966584
-0.06148815 -0.048016354 -0.0869824 0.26596707 0.11277819 0.074479364 -0.024099173 -0.04726865
0.04159551 0.067798026 -0.036473133 -0.08948861 -0.16127193 -0.06274098 -0.15326434 0.13363126
0.29742223 0.18034679 0.08715051 0.07690805 -0.053408597 -0.14036117 -0.10274475 -0.24065875
0.032982934 -0.16572478 -0.01598935 0.084019706 -0.050202526 -0.26595026 -0.08522608 -0.154955
0.013907409 -0.08387732 0.09111771 -0.0822359 -0.0012380197 0.063696295 0.015489779 -0.0723664
0.035799377 -0.13326478 -0.108428255 -0.0068640686 0.20803936 -0.24974783 -0.16237657 -0.18080318
-0.12894765 0.00039990986 -0.13747744 -0.0668618 -0.25838014 -0.18153642 -0.02778156 -0.080941856
-0.10124636 0.1468523 -0.064517096 -0.13119015 -0.025220364 -0.027641067 -0.0007290059 -0.1340863
-0.20785572 -0.10527141 -0.18116003 0.080397956 -0.10060312 0.12513794 -0.07758707 -0.030622017
-0.069177054 -0.024777578 -0.0201327 -0.13179371 0.14939077 0.22284177 0.23291007 0.15873532
0.03695955 0.050468907 -0.04749567 0.021123983 0.09386277 -0.08258218 -0.10089369 0.23947196
0.28018978 0.23038228 0.13968253 -0.061768353 0.00878773 0.18589197 0.21593812 0.23875009
0.15143049 -0.07628094 -0.0707212 0.024359066 0.20226935 -0.03286427 -0.13955761 0.24449036
-0.039325308 -0.08966204 -0.18862559 -0.11602556 0.39304912 0.09689161 0.23720875 -0.019385658
0.082427874 -0.17851563 0.23566748 -0.1555096 -0.045595203 0.102536306 0.12122956 0.18225685
-0.02568799 0.17510103 0.23018603 -0.22678995 0.086106025 -0.08138849 0.05315699 0.20381302
0.112314515 0.11338156 0.09449947 0.17134652 0.19278309 -0.1826602 0.08209269 0.097738564
0.032981105 0.08339325 0.021108657 0.11418788 -0.43993682 -0.23121245 -0.20075805 -0.058346536
0.07424712 -0.04048255 -0.028458772 -0.13458802 -0.15017554 -0.033097036 -0.1487837 -0.113922134
-0.10355079 -0.27045614 0.14720643 -0.11403547 0.10302375 -0.1842637 -0.030553171 -0.19310518
-0.16792406 0.14193456 0.047170613 -0.21168308 0.039993476 0.07972973 0.16155684 0.055414103
-0.01157146 0.2662296 0.12221134 0.10781483 -0.34427735 -0.024975255 -0.17501844 0.0051697697
0.2523378 -0.0493813 0.2670431 0.16166356 -0.025206447 0.08969106 0.113356575 -0.18360461
0.100581504 -0.31648776 0.23161714 0.010298959 -0.059096973 -0.14718777 0.14462337 -0.15902187
0.13315094 0.23600861 0.1939311 -0.07415116 0.0988468 0.05019181 0.16115294 -0.14191821
0.10162825 0.28553355 0.08637971 0.22407256 -0.22039045 -0.09811971 -0.07261965 0.032350916
0.11686388 -0.012687696 0.05568473 -0.006456798 -0.07912121 -0.02103679 0.23349532 -0.0038275993
0.23131901 -0.30903172 0.016205164 0.2284594 0.17037359 -0.13845818 -0.025068011 0.03616886
-0.119854696 0.04674488 0.315428 -0.09952039 -0.008521274 0.22764285 0.15032622 0.03176583
00000000: 7372 d93d dc19 163e 7eb3 0cbd a308 773d
00000010: 4a60 03be 5b3d 66bd e6d5 2a3d 8820 f73d
00000020: 4fb8 14bd 9772 b6bd 1843 093e 5ca4 273e
00000030: 2906 1f3e b8ca 3a3e 83b8 df3c 337b 453e
00000040: e6ce 19be 2a30 e53c 33c8 d23d b62b b3bc
00000050: cdf7 873c 98f2 903e 21b4 753e 67a8 7f3e
00000060: 00db 7bbd ccac 44bd d423 b2bd d62c 883e
00000070: 40f8 e63d a388 983d a16b c5bc c69c 41bd
00000080: 0e60 2a3d b1d9 8a3d da64 15bd ce45 b7bd
00000090: 7824 25be 587e 80bd 54f1 1cbe a2d6 083e
000000a0: ba47 983e d4ac 383e f77b b23d f881 9d3d
000000b0: f9c2 5abd d7ba 0fbe d76b d2bd 3f6f 76be
000000c0: 1d19 073d c2b3 29be 19fc 82bc 8612 ac3d
000000d0: 2aa1 4dbd a22a 88be 038b aebd 86ac 1ebe
000000e0: e7db 633c dfc7 abbd ec9b ba3d 4c6b a8bd
000000f0: 0c45 a2ba 3473 823d d8c8 7d3c d634 94bd
00000100: 5ea2 123d 9076 08be a20f debd fbeb e0bb
00000110: 4508 553e e5bd 7fbe 0b46 26be 7824 39be
00000120: da0a 04be feaa d139 e3c6 0cbe d7ee 88bd
00000130: 674a 84be afe4 39be 2796 e3bc d8c4 a5bd
00000140: 405a cfbd 7360 163e 8a21 84bd b656 06be
00000150: f09a cebc 856f e2bc c21a 3fba eb4d 09be
00000160: 21d8 54be 8998 d7bd 0482 39be afa7 a43d
00000170: 0209 cebd 2924 003e f8e5 9ebd 06db fabc
00000180: b3ac 8dbd 59fa cabc 55ed a4bc eef4 06be
00000190: e5f9 183e a230 643e fa7f 6e3e 838b 223e
000001a0: e662 173d 7cb8 4e3d d28a 42bd 340c ad3c
000001b0: 203b c03d d920 a9bd 5aa1 cebd 2338 753e
000001c0: 0975 8f3e 55e9 6b3e f008 0f3e d000 7dbd
000001d0: 69fa 0f3c 775a 3e3e e21e 5d3e e77a 743e
000001e0: 9810 1b3e 2e39 9cbd 47d6 90bd aa8c c73c
000001f0: b21f 4f3e af9c 06bd 31e8 0ebe ae5b 7a3e
00000200: 9313 21bd bba0 b7bd 1127 41be cf9e edbd
00000210: bc3d c93e 1c6f c63d dae6 723e acce 9ebc
00000220: f2cf a83d cdcc 36be d152 713e e93d 1fbe
00000230: 09c2 3abd 8efe d13d 3447 f83d 8aa1 3a3e
00000240: 9f6f d2bc af4d 333e e3b5 6b3e a03b 68be
00000250: 5b58 b03d 02af a6bd 25bb 593d 5cb4 503e
00000260: 2705 e63d 9734 e83d f088 c13d 7675 2f3e
00000270: ee68 453e 470b 3bbe 3620 a83d 282b c83d
00000280: 3217 073d 15ca aa3d 10ec ac3c 56db e93d
00000290: 663f e1be f5c2 6cbe 8593 4dbe c7fc 6ebd
000002a0: e00e 983d 08d1 25bd 5f22 e9bc 71d1 09be
000002b0: 9ec7 19be c290 07bd c15a 18be 0250 e9bd
000002c0: 7012 d4bd 3a79 8abe 48bd 163e 6e8b e9bd
000002d0: 1efe d23d a0af 3cbe a54a fabc 5dbd 45be
000002e0: 49f4 2bbe 4b57 113e f935 413d 73c3 58be
000002f0: 33d0 233d 5749 a33d 286f 253e e6f9 623d
00000300: 3996 3dbc 3f4f 883e f049 fa3d 06ce dc3d
00000310: 1f45 b0be e898 ccbc 0938 33be 2c67 a93b
00000320: 6c32 813e 0c44 4abd e0b9 883e 228b 253e
00000330: c07d cebc f2af b73d 7e27 e83d d902 3cbe
00000340: adfd cd3d af0a a2be 0b2d 6d3e f7bc 283c
00000350: ab0f 72bd 64b8 16be 2618 143e a1d6 22be
00000360: b858 083e 3eac 713e e095 463e 90dc 97bd
00000370: 3170 ca3d ed95 4d3d 4705 253e 0253 11be
00000380: 7922 d03d 7431 923e d8e7 b03d 4773 653e
00000390: 09ae 61be fdf2 c8bd 9cb9 94bd 6582 043d
000003a0: 5456 ef3d 0ee0 4fbc ac15 643d 8c93 d3bb
000003b0: 4d0a a2bd 5955 acbc 6619 6f3e 76d8 7abb
000003c0: e4de 6c3e 6839 9ebe b1c0 843c 43f1 693e
000003d0: 6a76 2e3e fbc7 0dbe 6e5b cdbc cc25 143d
000003e0: 6176 f5bd 8f77 3f3d c77f a13e 59d1 cbbd
000003f0: d09c 0bbc 351b 693e 1eef 193e e31c 023d

fc_measurement.2.bias f4 [32]
0.0046999766 0.18685704 -0.067960426 -0.10395987 0.24432242 -0.04044695 0.1860375 0.26695696
-0.124193095 -0.043494213 0.23423818 0.110657476 -0.03514924 0.02916554 0.14118369 -0.07965364
0.14652632 0.004474862 0.15180004 0.14515664 -0.1010159 0.2546463 -0.117194176 0.23523472
-0.19103266 -0.1522012 0.11961713 0.17961028 0.29093862 0.18713333 0.27854842 -0.10646685
00000000: 4302 9a3b 7457 3f3e d62e 8bbd eae8 d4bd
00000010: a82f 7a3e b3ab 25bd 9d80 3e3e 95ae 883e
00000020: f358 febd fd26 32bd 22dc 6f3e 63a0 e23d
00000030: a6f8 0fbd 92ec ee3c 7592 103e 7321 a3bd
00000040: ff0a 163e dda1 923b 7871 1b3e f1a3 143e
00000050: 6de1 cebd 0061 823e 8003 f0bd 5fe1 703e
00000060: 119e 43be a2da 1bbe d3f9 f43d c2eb 373e
00000070: e8f5 943e e19f 3f3e e69d 8e3e 4b0b dabd

type_embedding.weight f4 [2, 32]
1.2983916 0.302338 0.562139 -0.39474934 -0.3355478 -0.17564686 0.12413449 0.48116457
-1.1265336 1.114487 0.38739997 0.8602985 -0.47008777 1.1797059 -0.028624378 -0.49481633
-0.37535807 0.3677452 -0.351054 -1.6205647 0.9547335 -1.4980185 0.68842816 0.5422665
-0.8690436 0.09979268 1.3399897 1.8849025 0.8146509 -1.2203842 -1.4157124 0.7607041
-0.123099506 -0.7708896 0.55221814 -0.11742375 0.21476182 1.2208649 -0.040708452 1.2771469
0.4220188 -1.0536616 0.8698395 1.0638039 -1.8053617 1.1243521 -2.1941803 1.3261324
0.95916444 -0.961854 0.7250047 -0.28916973 1.8233773 1.8801455 -1.2233553 -0.21796252
-0.18888377 0.043232363 0.32431188 -0.5115815 0.8385627 0.69443524 -1.7358185 -1.3176614
00000000: b231 a63f 0ccc 9a3e 57e8 0f3f 961c cabe
00000010: eccc abbe c5dc 33be 393a fe3d 345b f63e
00000020: 4132 90bf 83a7 8e3f 4a59 c63e 863c 5c3f
00000030: 58af f0be 9a00 973f ac7d eabc 9158 fdbe
00000040: ef2e c0be 1949 bc3e 5abd b3be aa6e cfbf
00000050: 6a69 743f 12bf bfbf d43c 303f fad1 0a3f
00000060: a479 5ebf 1b60 cc3d c884 ab3f 7c44 f13f
00000070: f68c 503f 8d35 9cbf 1036 b5bf 81bd 423f
00000080: 981b fcbd 0559 45bf 2b5e 0d3f dd7b f0bd
00000090: 86ea 5b3e 4d45 9c3f e8bd 26bd 8d79 a33f
000000a0: d912 d83e 62de 86bf cdad 5e3f ba2a 883f
000000b0: 1816 e7bf c5ea 8f3f 736d 0cc0 b5be a93f
000000c0: cd8b 753f 103c 76bf e899 393f 0e0e 94be
000000d0: 6d64 e93f 9ca8 f03f e896 9cbf 9131 5fbe
000000e0: bf6a 41be 6b14 313d 350c a63e 01f7 02bf
000000f0: 0cac 563f 82c6 313f 4d2f debf 21a9 a8bf

gcn1.bias f4 [64]
-0.0032234732 0.010889532 0.0032001527 0.033126235 -0.000686629 -0.023696108 -0.019583095 0.019862108
-0.026174288 0.020525951 0.022345887 0.018622462 -0.034164533 -0.0014687927 -0.016248992 -0.031622257
0.0118383225 0.02643137 -0.016624203 0.0071588065 0.008504746 0.023939228 -0.014509347 0.02178617
0.0030752334 -0.04351794 0.017573018 0.021268135 -0.0032593505 -0.058532447 -0.033945687 -0.014706007
-0.0045469846 0.033447217 0.022579107 -0.06989162 -0.012844688 -0.008030716 0.017387185 0.013937875
0.0030589812 0.001235446 0.0040658396 0.014421355 0.061370578 0.014656881 0.013744723 -0.028003171
0.019151418 -0.0056095584 -0.083156854 0.025857933 0.011144554 0.015046657 -0.016073467 0.011090814
-0.01549938 0.00018348679 0.0037988902 0.018005492 0.00022547708 0.012232424 -0.009112569 0.05012185
00000000: e840 53bb 026a 323c a7b9 513b 60af 073d
00000010: e4fe 33ba 571e c2bc ba6c a0bc dcb5 a23c
00000020: 766b d6bc 0a26 a83c b90e b73c 228e 983c
00000030: 1cf0 0bbd 8184 c0ba 9b1c 85bc 5786 01bd
00000040: 86f5 413c 9a86 d83c 7b2f 88bc 6c94 ea3b
00000050: 7d57 0b3c 331c c43c 9db8 6dbc e978 b23c
00000060: db89 493b de3f 32bd 4af5 8f3c 833a ae3c
00000070: d49a 55bb b8bf 6fbd a20a 0bbd 77f1 70bc
00000080: dffe 94bb f3ff 083d d2f7 b83c 5623 8fbd
00000090: 8772 52bc 4493 03bc 926f 8e3c af5b 643c
000000a0: 3079 483b b0ee a13a bc3a 853b 8c47 6c3c
000000b0: b75f 7b3d 6a23 703c 8c31 613c e866 e5bc
000000c0: 6fe3 9c3c 63d0 b7bb 244e aabd 04d4 d33c
000000d0: a697 363c 4186 763c 81ac 83bc 3fb6 353c
000000e0: 1df1 7dbc 5c66 4039 cdf6 783b 4180 933c
000000f0: 0b6e 6c39 816a 483c e24c 15bc 924c 4d3d

gcn1.lin.weight f4 [64, 64]
0.11314939 -0.23531362 -0.07968802 0.05461085 0.18399951 -0.14419681 -0.2022674 -0.19430245
0.0452427 0.081380755 -0.045120947 -0.02056487 0.092402324 0.032474443 -0.1498048 -0.06960972
0.052125193 -0.37150228 0.23380639 0.16418225 -0.199138 -0.0030539236 -0.150378 -0.022428537
-0.031362753 0.037069976 0.25263098 -0.23689966 0.15230204 -0.14634739 0.13840747 0.1625638
0.0836048 0.17427967 0.18212114 -0.1461296 0.15810342 0.062281538 -0.008907003 -0.047305014
0.18844666 0.07222256 0.03633349 0.19510444 0.013353321 -0.17300524 0.04464166 -0.00062970695
-0.14918546 -0.19835342 0.20811169 -0.2129629 -0.049195748 -0.16562839 0.0020561777 -0.10324626
-0.17361917 -0.0939377 -0.00178665 0.055759154 -0.12423658 -0.1319583 0.09410668 -0.20937838
0.011525361 0.057071473 -0.13280106 -0.018288076 0.18754876 -0.099822015 0.0031875859 0.1780717
-0.022678483 -0.06712686 0.09847186 -0.12530065 0.1662718 0.15751924 -0.24014917 -0.2045755
-0.03486951 -0.0042930604 -0.01688125 0.032771852 -0.14642473 0.20190124 0.13557385 0.12344292
-0.18726382 0.06046735 0.1933824 0.1671803 0.12175408 -0.015379968 0.17389293 0.15116991
0.073656976 0.0012227221 0.0666123 0.014622533 -0.0397493 -0.014153849 0.22495286 0.01947938
-0.14383268 -0.08213102 0.22519062 0.04807588 -0.22538048 0.13384748 -0.19298604 -0.09815147
0.023986096 0.14002946 0.0031344555 -0.06834088 0.24436693 0.15200813 0.120853215 0.2016088
0.061038714 0.039938595 -0.076966785 0.22055954 0.06740813 -0.0062051825 -0.05629709 -0.18875313
-0.16815268 0.0003906653 0.15817681 -0.24107778 -0.2910392 0.21203381 -0.11621946 -0.15912387
0.21650374 0.23533075 -0.008643534 0.041121185 -0.07397504 0.19498497 -0.13566655 -0.08038696
-0.16384827 0.13016555 0.07102717 -0.27002335 0.014494389 0.238436 -0.09115163 -0.4102269
-0.17004748 -0.020341523 -0.31410787 0.1459363 -0.37265486 0.15284716 -0.38356736 0.007256295
-0.10536546 0.17107049 0.073172525 0.011762273 -0.11805706 0.0949443 0.17356272 0.1777667
0.051638942 0.21789968 0.19592209 0.21022764 -0.09295315 0.05568136 -0.032048117 -0.19887121
-0.17107397 0.0747855 0.20388445 -0.18088122 -0.104573004 0.023189545 0.11249679 0.08205048
-0.17276555 0.13169555 -0.18171373 -0.09512444 -0.09317943 -0.19517595 0.17465632 0.058506377
0.19243838 0.18931289 -0.15203355 0.0364633 -0.018552182 0.13264905 0.23788238 0.115388334
-0.007856519 -0.04499396 0.17888695 0.12833942 -0.03487972 0.2295516 -0.07029855 0.004120441
0.21300088 -0.21387736 0.13381809 0.2859986 -0.03543667 -0.24877952 0.13163057 0.0077700224
-0.017402336 0.0038439916 0.04043181 0.20743172 0.083914645 -0.15094475 0.117054984 0.22283328
0.08844472 -0.20283042 0.017316291 0.1578362 0.089350775 -0.11747828 0.26499966 0.24714062
0.093654364 0.16687332 -0.12001078 0.21143974 -0.025978304 0.12944156 -0.14104415 0.030036112
0.21634527 0.12919791 0.027086517 -0.22515741 0.26696128 -0.01330559 0.08501501 0.19205074
-0.15015373 -0.080205105 -0.012151997 -0.07045249 -0.0014115813 -0.1532728 0.0033198246 -0.16647393
00000000: deba e73d 0ef6 70be 7933 a3bd a0af 5f3d
00000010: 5e6a 3c3e 54a8 13be 2f1f 4fbe 39f7 46be
00000020: 6950 393d f4aa a63d bed0 38bd a977 a8bc
00000030: 6e3d bd3d ec03 053d 6e66 19be 8a8f 8ebd
00000040: 3a81 553d 8c35 bebe f16a 6f3e 641f 283e
00000050: d5ea 4bbe 5624 48bb b1fc 19be 0dbc b7bc
00000060: 3b76 00bd b0d6 173d d958 813e d395 72be
00000070: 11f5 1b3e 17dc 15be b0ba 0d3e 2077 263e
00000080: fe38 ab3d 5f76 323e f77d 3a3e ffa2 15be
00000090: dde5 213e ed1a 7f3d aeee 11bc e7c2 41bd
000000a0: 29f8 403e 6ce9 933d 6dd2 143d 75c9 473e
000000b0: e3c7 5a3c 4928 31be 2cda 363d eb12 25ba
000000c0: 13c4 18be 291d 4bbe 3b1b 553e f212 5abe
000000d0: 7b81 49bd 7d9a 29be f0c0 063b c672 d3bd
000000e0: 39c9 31be 6962 c0bd 072e eaba b663 643d
000000f0: c06f febd 1420 07be 01bb c03d 4967 56be
00000100: ded4 3c3c c7c3 693d 00fd 07be e0d0 95bc
00000110: c80c 403e 7c6f ccbd d1e6 503b 6d58 363e
00000120: 3ac8 b9bc cf79 89bd 9dab c93d d04e 00be
00000130: 2843 2a3e b94c 213e aae9 75be 3d7c 51be
00000140: 55d3 0ebd cdac 8cbb 8c4a 8abc c73b 063d
00000150: 5df0 15be 33bf 4e3e dfd3 0a3e a4cf fc3d
00000160: 16c2 3fbe 9dac 773d 0906 463e 5031 2b3e
00000170: 345a f93d 43fc 7bbc fd10 323e 49cc 1a3e
00000180: 78d9 963d bf43 a03a 086c 883d 5993 6f3c
00000190: 29d0 22bd 8ce5 67bc 0b5a 663e 3993 9f3c
000001a0: e048 13be 4f34 a8bd 5f98 663e 37eb 443d
000001b0: 24ca 66be 500f 093e 229e 45be a303 c9bd
000001c0: 7d7e c43c e263 0f3e 706b 4d3b 4ef6 8bbd
000001d0: 533b 7a3e 05a8 1b3e e481 f73d 8a72 4e3e
000001e0: bb03 7a3d a796 233d c3a0 9dbd 5cda 613e
000001f0: 460d 8a3d d854 cbbb c797 66bd 8048 41be
00000200: 3730 2cbe 35d2 cc39 1af9 213e 18dd 76be
00000210: 1703 95be 641f 593e 7804 eebd 5ef1 22be
00000220: 28b3 5d3e 8bfa 703e 9c9d 0dbc b06e 283d
00000230: 3a80 97bd 24aa 473e 2cec 0abe eba1 a4bd
00000240: d7c7 27be 1e4a 053e b176 913d 8040 8abe
00000250: e079 6d3c 9128 743e b5ad babd 4309 d2be
00000260: ed20 2ebe 44a3 a6bc bfd2 a0be 5370 153e
00000270: 9ecc bebe f783 1c3e f162 c4be 37c6 ed3b
00000280: d9c9 d7bd 1a2d 2f3e 7adb 953d 8cb6 403c
00000290: e6c7 f1bd 2872 c23d 6dba 313e 7908 363e
000002a0: 5b83 533d 1821 5f3e cd9f 483e ea45 573e
000002b0: 395e bebd 2312 643d e344 03bd e5a4 4bbe
000002c0: 042e 2fbe 2429 993d 16c7 503e ed38 39be
000002d0: 5f2a d6bd 00f8 bd3c b864 e63d 150a a83d
000002e0: 74e9 30be 33db 063e 2a13 3abe 9ad0 c2bd
000002f0: dbd4 bebd 34dc 47be 1bd9 323e 62a4 6f3d
00000300: 910e 453e 3ddb 413e afae 1bbe 8b5a 153d
00000310: bffa 97bc 27d5 073e 7097 733e b850 ec3d
00000320: a1b8 00bc 964b 38bd 242e 373e 696b 033e
00000330: 0ade 0ebd 930f 6b3e b0f8 8fbd c404 873b
00000340: e71c 5a3e ab02 5bbe 9c07 093e 696e 923e
00000350: 0b26 11bd 0fc0 7ebe 2aca 063e ac9b fe3b
00000360: 588f 8ebc 7aeb 7b3b d39b 253d fb68 543e
00000370: 71db ab3d 4391 1abe 86ba ef3d 682e 643e
00000380: 8122 b53d c7b2 4fbe e5da 8d3c d09f 213e
00000390: 8afd b63d 7498 f0bd 09ae 873e 6e12 7d3e
000003a0: dccd bf3d d7e0 2a3e 36c8 f5bd a983 583e
000003b0: 74d0 d4bc 548c 043e e16d 10be 4b0e f63c
000003c0: 9d89 5d3e 754c 043e 8be4 dd3c aa8f 66be
000003d0: 26af 883e b0ff 59bc 591c ae3d f3a8 443e
000003e0: e6c1 19be 9342 a4bd 2b19 47bc 6549 90bd
000003f0: cf04 b9ba 8bf3 1cbe 6a91 593b 2478 2abe

gcn2.bias f4 [64]
-0.035303783 -0.012658666 0.013702498 -0.017638866 0.012056676 -0.049003597 0.009886921 -0.020273266
0.033261213 0.040885635 0.046562128 0.039678372 0.014004765 0.03271178 -0.030456578 0.0032497102
0.08897247 0.022465933 0.024850566 0.0008333106 -0.0025369124 0.011831973 -0.008345276 -0.013742449
0.00037285776 -0.002066583 0.0072722333 0.032578196 -0.008345895 -0.022124069 0.04139263 0.028598864
0.0117146345 -0.02703367 0.021062963 -0.0041825343 0.027422857 0.027440825 0.02719504 0.02465737
-0.029323703 0.010203554 0.027335094 -0.016376356 0.0013027604 -0.010708707 0.030310044 0.029369079
0.0012959661 0.016164789 -0.02106839 -0.00815268 0.014600808 0.005855348 -0.028701052 0.035205398
0.032125242 -0.029192137 0.05001388 -0.00699023 0.017961219 0.0016034544 0.023244048 0.025226636
00000000: b39a 10bd 4b66 4fbc 7180 603c 627f 90bc
00000010: 5d89 453c ffb7 48bd c1fc 213c 1f14 a6bc
00000020: e93c 083d b277 273d eeb7 3e3d ca85 223d
00000030: 3e74 653c cafc 053d 1380 f9bc 17f9 543b
00000040: 3337 b63d 7a0a b83c 6a93 cb3c 8772 5a3a
00000050: 5442 26bb e4da 413c a0ba 08bc 0228 61bc
00000060: 1f7c c339 826f 07bb ea4b ee3b b770 053d
00000070: 39bd 08bc 893d b5bc 528b 293d 2a48 ea3c
00000080: bdee 3f3c b775 ddbc 3c8c ac3c a40d 89bb
00000090: e6a5 e03c 95cb e03c 22c8 de3c 41fe c93c
000000a0: 4338 f0bc cf2c 273c d9ed df3c b527 86bc
000000b0: 63c1 aa3a 9373 2fbc c54c f83c 6c97 f03c
000000c0: 68dd a93a 056c 843c 9e97 acbc d192 05bc
000000d0: 3a38 6f3c 38de bf3b 781e ebbc 8933 103d
000000e0: c295 033d 5924 efbc 5bdb 4c3d 4d0e e5bb
000000f0: 6823 933c 002b d23a 4d6a be3c 17a8 ce3c

gcn2.lin.weight f4 [64, 64]
-0.039589465 -0.17911993 0.10577374 -0.2298734 0.15661108 0.32300776 -0.006606223 -0.016158057
0.10968998 -0.2117428 -0.13696414 -0.19370727 -0.044673998 0.2077769 0.017553855 0.2232745
0.051165685 -0.10967514 0.1721003 -0.21145602 -0.0053859204 -0.21412629 0.24930099 0.040265054
-0.022219354 0.15593278 0.016925959 -0.30405915 -0.18604784 0.32673192 0.25151044 0.19787003
-0.13848917 -0.19350834 -0.06097348 0.09102919 -0.13365044 0.10910679 -0.19194339 -0.030394256
-0.20336595 -0.23485215 -0.10714221 0.085225366 -0.25580472 0.04110418 -0.14465538 0.02239536
-0.1370637 0.0030763943 0.08049648 0.08402043 -0.22529088 -0.09001456 0.21400952 -0.24177377
0.1992676 0.24986915 -0.05099097 -0.14177534 0.19699305 0.025715433 -0.04291015 0.040780317
-0.07742961 0.214244 0.100246914 0.18955265 -0.16222988 0.062788814 0.1535481 0.13712963
-0.114708714 0.22958997 -0.09796973 -0.21002118 -0.2417266 0.06429029 -0.16256611 0.034230713
-0.058005042 0.15513235 -0.14457533 0.18645298 -0.0062801237 0.052447714 -0.22023812 0.024598844
-0.10437868 0.09408476 -0.0016901223 -0.017510943 -0.041811977 0.12051842 -0.17637931 0.0027822903
-0.09174081 0.17019224 0.13322069 -0.18893065 0.10863108 0.056915198 -0.13315731 0.02395815
0.19724618 -0.10994531 -0.051584207 0.23917745 0.1639047 -0.0081868665 0.10946482 0.012595594
-0.18175432 -0.07284333 -0.054126702 -0.20163396 0.24054848 -0.13619828 -0.106929645 0.16072115
-0.016650286 0.15543652 -0.057563804 0.06471611 0.17060961 -0.11426223 0.07887622 0.09535143
0.10282402 0.17617314 -0.2746551 -0.080995604 -0.21401449 0.2548573 -0.05781987 -0.037142333
0.19660358 0.07131127 0.049173765 0.078649014 -0.09547461 0.005938948 0.048296798 -0.11811073
-0.11310551 -0.09136757 0.035711218 0.13988397 -3.1511132e-05 -0.14329152 -0.066806085 0.21417697
-0.055430863 -0.17571326 -0.21181874 -0.04975545 -0.13646378 0.119215645 0.10023714 -0.20628582
-0.2262719 0.101539165 -0.19197069 -0.07231483 0.05897676 0.116160445 -0.213915 -0.138553
0.15093525 0.21175419 0.005110861 -0.13339056 -0.18105377 0.010257311 0.1548719 -0.11114853
0.0642725 -0.1908045 -0.13966256 -0.06292091 -0.024083862 -0.24316403 -0.037942152 -0.030725127
0.0071412995 -0.17720814 0.013166464 0.13516478 0.007289238 0.06949548 0.12567233 -0.24734354
-0.047055647 -0.15448852 0.16805041 0.0060239616 0.20008986 0.23859267 -0.01599869 -0.09540747
0.013075209 0.07927766 0.064154126 -0.08055518 -0.19694863 0.15593131 -0.064449415 -0.19921622
-0.10814912 0.003635264 0.11554822 -0.1983872 0.024463037 -0.21650456 -0.16420983 0.22617616
-0.19535781 0.08094444 -0.0137444865 -0.06423236 -0.16419289 -0.059542194 -0.08464324 0.047468506
0.16702339 0.17160952 0.23493397 -0.18009633 -0.26315984 -0.096374534 0.016587567 0.2466036
-0.014685952 0.09268316 0.119116955 -0.021777878 0.101926275 0.13773479 -0.005520772 -0.1350649
0.16229078 -0.023039091 0.07503116 -0.21416326 0.09342574 -0.20932539 0.019323802 0.008513217
0.021892354 -0.07769797 -0.100817084 0.038261857 -0.16101459 -0.11881334 0.20559826 0.02446184
00000000: 9028 22bd 376b 37be e79f d83d ef63 6bbe
00000010: a85e 203e 4661 a53e 0479 d8bb e75d 84bc
00000020: 24a5 e03d 1bd3 58be 5440 0cbe 335b 46be
00000030: 15fc 36bd 78c3 543e 1acd 8f3c 12a2 643e
00000040: 1c93 513d 5c9d e0bd 103b 303e ed87 58be
00000050: 607c b0bb ec43 5bbe c248 7f3e f8ec 243d
00000060: 5d05 b6bc d8ac 1f3e 4fa8 8a3c a4ad 9bbe
00000070: 5383 3ebe 6849 a73e fac5 803e 719e 4a3e
00000080: 1bd0 0dbe 0d27 46be 54bf 79bd 836d ba3d
00000090: a9db 08be 6173 df3d cf8c 44be 60fd f8bc
000000a0: 2a3f 50be 157d 70be 606d dbbd a38a ae3d
000000b0: d6f8 82be db5c 283d 8a20 14be 7976 b73c
000000c0: 6d5a 0cbe 559d 493b 57db a43d e712 ac3d
000000d0: a7b2 66be 8e59 b8bd 5025 5b3e 8b93 77be
000000e0: ce0c 4c3e b3dd 7f3e e8db 50bd 8e2d 11be
000000f0: 8cb8 493e 2ca9 d23c 8ec2 2fbd 4309 273d
00000100: 6a93 9ebd c762 5b3e 414e cd3d 171a 423e
00000110: 971f 26be 6c97 803d b73b 1d3e b66b 0c3e
00000120: 67ec eabd a219 6b3e 5ba4 c8bd cb0f 57be
00000130: 2e87 77be a1aa 833d bb77 26be 8135 0c3d
00000140: b296 6dbd 04db 1e3e 8e0b 14be 88ed 3e3e
00000150: 7fc9 cdbb 6ad3 563d 1a86 61be 8483 c93c
00000160: 7dc4 d5bd 83af c03d 1887 ddba 1c73 8fbc
00000170: 0943 2bbd 5dd2 f63d c79c 34be 1657 363b
00000180: 9be2 bbbd e046 2e3e 016b 083e 0977 41be
00000190: f979 de3d e91f 693d 645a 08be e243 c43c
000001a0: e7fa 493e 022b e1bd f649 53bd efea 743e
000001b0: a2d6 273e 3522 06bc 172f e03d c05d 4e3c
000001c0: ce1d 3abe e22e 95bd f6b3 5dbd 2279 4ebe
000001d0: 5752 763e 9077 0bbe eefd dabd 1694 243e
000001e0: 2e66 88bc c02a 1f3e 06c8 6bbd e189 843d
000001f0: 49b4 2e3e 5102 eabd db89 a13d 9c47 c33d
00000200: 6695 d23d bb66 343e 989f 8cbe 06e1 a5bd
00000210: 9d26 5bbe a87c 823e 87d4 6cbd 8f22 18bd
00000220: 7352 493e a50b 923d 6e6a 493d bc12 a13d
00000230: 3188 c3bd 829b c23b ddd2 453d 0ae4 f1bd
00000240: dda3 e7bd ec1e bbbd ed45 123d be3d 0f3e
00000250: d22a 04b8 03bb 12be a1d1 88bd 3551 5b3e
00000260: 790b 63bd 2dee 33be 03e7 58be 5fcc 4bbd
00000270: 29bd 0bbe 5527 f43d 2149 cd3d 973c 53be
00000280: d2b3 67be c4f3 cf3d f793 44be cc19 94bd
00000290: 9d91 713d 87e5 ed3d 890c 5bbe d6e0 0dbe
000002a0: c58e 1a3e 17d6 583e 0279 a73b 8997 08be
000002b0: 2966 39be 480e 283c bd96 1e3e d7a1 e3bd
000002c0: 4da1 833d 4162 43be b403 0fbe aedc 80bd
000002d0: 854b c5bc feff 78be 3b69 1bbd 43b3 fbbc
000002e0: 9001 ea3b 0d76 35be 27b8 573c a368 0a3e
000002f0: 8fda ee3b a553 8e3d 3fb0 003e a047 7dbe
00000300: 6cbd 40bd 3d32 1ebe 6815 2c3e a764 c53b
00000310: 5be4 4c3e a351 743e af0f 83bc fe64 c3bd
00000320: 6739 563c 535c a23d 3d63 833d 1dfa a4bd
00000330: e7ac 49be 75ac 1f3e 0efe 83bd 56ff 4bbe
00000340: 497d ddbd 9c3d 6e3b 8ca4 ec3d 0426 4bbe
00000350: b566 c83c 5fb3 5dbe 9f26 28be b99a 673e
00000360: e10b 48be 33c6 a53d 8e30 61bc 418c 83bd
00000370: 2e22 28be 84e2 73bd 6f59 adbd 566e 423d
00000380: 2e08 2b3e 68ba 2f3e 8892 703e 2c6b 38be
00000390: e3bc 86be 0360 c5bd a6e2 873c a785 7c3e
000003a0: 599d 70bc abd0 bd3d 97f3 f33d 8567 b2bc
000003b0: b9be d03d 590a 0d3e 98e7 b4bb 744e 0abe
000003c0: 8e2f 263e 7abc bcbc f0a9 993d 9d4d 5bbe
000003d0: ff55 bf3d 6559 56be f34c 9e3c 057b 0b3c
000003e0: 9857 b33c 1d20 9fbd 3079 cebd 77b8 1c3d
000003f0: 02e1 24be 6954 f3bd 5a88 523e 3264 c83c

gru.weight_ih_l0 f4 [192, 64]
-0.24506883 0.10925461 0.18861006 0.315796 0.30638775 -0.15427797 -0.056960788 -0.12203435
0.16292265 0.25194907 -0.011503584 0.14118943 -0.24591835 0.14888807 -0.19494134 -0.079438806
0.027960917 0.120236136 0.22612724 -0.15959054 -0.052638195 -0.14796963 -0.12241143 0.18458624
-0.20549707 0.077262506 0.083746955 0.2564503 -0.10278059 -0.07411007 0.21744598 0.06263057
0.14931184 0.15961614 0.19774678 -0.01743107 0.05916516 0.050055772 -0.07973507 0.13520871
0.17772734 0.30902797 0.14745143 -0.21400554 0.074156225 -0.04187567 0.13481045 0.18699472
-0.13622853 -0.0035654556 -0.29652464 -0.19589189 0.20440955 0.19559304 -0.101828866 -0.27751374
0.0907245 -0.12702921 0.27979884 0.032633446 0.1581038 -0.17683664 0.077153996 -0.009704936
-0.24926871 -0.058837593 -0.07497221 0.06329024 -0.02780872 0.022608133 -0.15991463 0.068444856
-0.014222023 -0.05867137 0.05766546 -0.032309927 0.12641004 -0.06556833 0.063407265 0.025252637
0.023000747 -0.029455172 -0.041489568 -0.046573788 -0.10095931 -0.0075543188 -0.04012459 0.042725064
0.012518212 0.050365984 -0.04298109 0.07411771 -0.03154641 0.05106542 0.13960546 0.08468784
0.1723145 0.020802662 -0.060857203 0.20468181 -0.12601511 0.11103216 0.047041498 0.050536662
-0.06348288 0.033671837 -0.103625186 0.059070498 0.00403306 0.016867558 0.023972439 0.026902864
-0.058253683 0.014619463 0.0025565508 -0.082966976 0.08447212 -0.03276804 -0.029098518 -0.20316313
0.017368652 -0.10263494 0.16789949 -0.034503143 -0.0054204017 -0.1207934 0.032711472 -0.053865444
-0.15504028 -0.06500766 0.0005192617 -0.024235234 0.1650125 -0.02006793 0.038711574 0.11547814
0.08861339 0.020258086 -0.08655823 -0.098641716 -0.08498208 0.0041787424 -0.01553647 0.09098786
-0.07829652 0.029252991 0.13486837 -0.11185697 0.063516885 -0.0142243635 -0.02566624 0.024047237
-0.07925622 -0.03438848 0.019557353 0.016753858 -0.14996745 -0.0104899695 -0.08853531 0.10371985
0.0736176 -0.06915332 0.00098544 0.011280577 -0.19590142 0.21523097 -0.037484277 0.044929124
0.0031645517 0.048401684 -0.18533474 -0.023183702 -0.11613854 -0.061106447 0.18410371 0.04672569
-0.115388155 0.16737539 0.10243543 -0.056923583 0.1800259 0.033243578 -0.04994174 -0.17013814
-0.039432686 0.0645633 0.09486243 0.009577895 0.034638282 -0.0016923628 -0.010403003 0.12053633
0.013119856 -0.033463888 0.12885933 0.12070487 -0.013943839 -0.015213906 -0.009739195 -0.15736692
-0.060682893 0.091252364 -0.12628555 0.0420596 -0.09968678 0.08727337 -0.02476997 -0.1622963
0.10032444 0.09890613 -0.02297109 0.06494268 0.0575115 -0.1101522 0.050639737 0.11501998
-0.005041601 -0.01993256 -0.017490232 0.082243115 -0.078900166 -0.01301141 -0.054596927 -0.052813563
0.012668545 0.07163936 -0.02430941 0.012234144 0.017162507 -0.036725473 -0.0064934767 -0.11352126
0.046346057 -0.012807183 -0.07656167 0.032438174 0.13106923 0.028255006 -0.012978986 0.112969205
-0.05904306 0.06639056 -0.044422485 -0.12583008 -0.15761858 0.14705499 -0.0050876816 0.08033114
0.11897304 0.0056861937 0.15014929 0.12342551 0.09203804 0.061985042 0.14028704 0.08606744
00000000: 53f3 7abe e2c0 df3d ff22 413e 03b0 a13e
00000010: dbde 9c3e 0bfb 1dbe b74f 69bd 25ed f9bd
00000020: 32d5 263e 78ff 803e 8779 3cbc f693 103e
00000030: 05d2 7bbe 1d76 183e b49e 47be d0b0 a2bd
00000040: 4b0e e53c 5d3e f63d e68d 673e b46b 23be
00000050: 269b 57bd 5a85 17be d8b2 fabd 2d04 3d3e
00000060: d36d 52be ce3b 9e3d 8683 ab3d 744d 833e
00000070: a17e d2bd 05c7 97bd 29aa 5e3e 7544 803d
00000080: 34e5 183e 6a72 233e 227e 4a3e 9acb 8ebc
00000090: 2b57 723d 4807 4d3d 244c a3bd 2774 0a3e
000000a0: 28fe 353e ea38 9e3e 82fd 163e 4524 5bbe
000000b0: 38df 973d d385 2bbd c00b 0a3e 8b7b 3f3e
000000c0: 7e7f 0bbe 6baa 69bb 14d2 97be e297 48be
000000d0: bd50 513e 8b49 483e a78b d0bd 4816 8ebe
000000e0: c4cd b93d f213 02be cb41 8f3e a6aa 053d
000000f0: f6e5 213e aa14 35be ea02 9e3d 7401 1fbc
00000100: 4c40 7fbe b0ff 70bd 088b 99bd 509e 813d
00000110: 1dcf e3bc b134 b93c a9c0 23be d12c 8c3d
00000120: 7d03 69bc 6451 70bd 9e32 6c3d 6a57 04bd
00000130: a271 013e b048 86bd abdb 813d 9ede ce3c
00000140: 106c bc3c f94b f1bc f7f0 29bd 28c4 3ebd
00000150: c1c3 cebd 388a f7bb af59 24bd 7a00 2f3d
00000160: 3019 4d3c 904c 4e3d f00c 30bd 07cb 973d
00000170: cf36 01bd f929 513d bcf4 0e3e d170 ad3d
00000180: 3673 303e 586a aa3c 6745 79bd 1c98 513e
00000190: 1b0a 01be d464 e33d 96ae 403d 88ff 4e3d
000001a0: 5003 82bd 7beb 093d 7139 d4bd e8f3 713d
000001b0: c227 843b d52d 8a3c d961 c43c 6563 dc3c
000001c0: 6a9b 6ebd 7986 6f3c ce8b 273b 97ea a9bd
000001d0: b8ff ac3d c837 06bd 0460 eebc ff09 50be
000001e0: b448 8e3c 4432 d2bd d8ed 2b3e 2b53 0dbd
000001f0: a09d b1bb 8862 f7bd 77fc 053d 03a2 5cbd
00000200: e1c2 1ebe bc22 85bd 101f 083a f888 c6bc
00000210: 09f9 283e 8065 a4bc 0790 1e3d ce7f ec3d
00000220: f07a b53d 49f4 a53c 7145 b1bd ab04 cabd
00000230: 160b aebd d5ed 883b ae8c 7ebc d857 ba3d
00000240: ed59 a0bd f8a3 ef3c ef1a 0a3e 4415 e5bd
00000250: 2415 823d 4e0d 69bc 0242 d2bc b6fe c43c
00000260: 1651 a2bd efda 0cbd be36 a03c 633f 893c
00000270: 1191 19be 1fde 2bbc 0052 b5bd 136b d43d
00000280: d3c4 963d 41a0 8dbd e129 813a 2bd2 383c
00000290: 629a 48be 8265 5c3e 1d89 19bd 9a07 383d
000002a0: 5e64 4f3b d840 463d 64c8 3dbe bfeb bdbc
000002b0: 0bda edbd c14a 7abd af85 3c3e 7063 3f3d
000002c0: a050 ecbd 7464 2b3e abc9 d13d b428 69bd
000002d0: b658 383e 6b2a 083d b68f 4cbd b138 2ebe
000002e0: 2b84 21bd c339 843d 3c47 c23d 9aec 1c3c
000002f0: dfe0 0d3d 46d2 ddba 5b71 2abc c0db f63d
00000300: aaf4 563c 6e11 09bd b3f3 033e 1d34 f73d
00000310: b374 64bc bf43 79bc 2591 1fbc cb24 21be
00000320: a08e 78bd 85e2 ba3d 0051 01be b046 2c3d
00000330: 9528 ccbd 61bc b23d 64ea cabc 0031 26be
00000340: e676 cd3d 4c8f ca3d de2d bcbc ab00 853d
00000350: 2e91 6b3d 7a97 e1bd 9d6b 4f3d 988f eb3d
00000360: 0434 a5bb 9c49 a3bc ad47 8fbc 146f a83d
00000370: 6996 a1bd cf2d 55bc 07a1 5fbd 0953 58bd
00000380: bb8f 4f3c a8b7 923d 8724 c7bc b871 483c
00000390: 6398 8c3c 736d 16bd 3bc7 d4bb d67d e8bd
000003a0: 5dd5 3d3d 38d5 51bc 5dcc 9cbd e4dd 043d
000003b0: 0337 063e 0b77 e73c d0a5 54bc 665c e73d
000003c0: 23d7 71bd c6f7 873d 5af4 35bd 9ad9 00be
000003d0: c466 21be 9595 163e 91b6 a6bb a784 a43d
000003e0: 23a8 f33d 4053 ba3b bcc0 193e 84c6 fc3d
000003f0: 717e bc3d 07e4 7d3d 68a7 0f3e 2044 b03d

gru.weight_hh_l0 f4 [192, 64]
0.19885235 0.10431724 -0.05316668 -0.19509241 0.010146126 0.15643238 -0.04254371 -0.19149284
-0.04595594 0.22275841 0.15003832 -0.19806679 -0.04956045 0.24779527 -0.15955035 0.14303976
0.2042345 0.01349008 0.030743979 -0.27348712 0.02508322 -0.07783002 -0.017737115 -0.047705043
0.0636959 -0.10347889 0.09271476 -0.29308143 -0.2460245 -0.18941878 0.21087766 -0.3010748
-0.038206823 0.2036595 -0.029240707 -0.15666014 0.08153467 -0.028650783 0.04999 -0.12979937
-0.23625469 0.21775535 -0.20114616 -0.030062554 0.15640104 -0.21653217 0.10130227 -0.18676478
-0.13571994 0.24645656 -0.025520947 0.072679974 -0.22716017 -0.08875774 -0.09790956 0.118700586
-0.0055440553 0.10305913 -0.10207546 -0.20800087 -0.20963931 -0.10935877 0.016591463 0.0014114126
-0.099014305 0.15554853 0.079362184 0.06213273 -0.07597695 -0.05794631 0.08836363 0.1282652
0.07400762 -0.10134503 -0.23438868 0.16678886 -0.1654248 -0.016013563 0.15246853 0.00096899766
-0.10160718 0.00068938406 0.072763585 -0.011143176 -0.0051388945 -0.02558087 0.14455493 0.05962405
-0.06683431 -0.0076837144 -0.056509554 -0.1756825 0.16517474 -0.043394342 -0.18100114 -0.04965553
-0.36802825 -0.055204142 -0.07673933 -0.035043012 0.0883143 -0.15333225 -0.08567695 0.13341697
-0.036122285 0.027692458 -0.038515463 -0.07848643 -0.14807178 -0.123491734 0.15176593 0.13296822
0.13180125 -0.1356623 0.11342815 0.022286689 0.16866574 0.00022463038 -0.17233497 -0.18247543
0.12030549 -0.18216914 0.019492403 -0.084178515 0.14377058 0.026218455 -0.11187341 -0.14136358
0.0872996 0.16401178 0.05040907 -0.010813806 0.09033644 -0.07600653 -0.06151468 0.08668854
0.20986004 -0.24291767 -0.3188737 -0.05782828 0.004092682 0.0059529864 0.09233013 0.11525917
-0.22589105 -0.1347692 0.2409001 0.086469606 -0.09435468 0.06072909 0.2250252 0.15126273
-0.069228016 0.18035305 -0.0054317503 -0.095203206 0.054053556 0.15540181 -0.26034528 0.07485302
-0.16177668 0.016127413 0.007811767 0.33563283 -0.22726253 0.096803315 -0.25548092 0.13763042
-0.10807555 -0.019053688 -0.0067293057 0.04607833 -0.12906533 -0.5727887 0.13932517 -0.086390704
0.0043000127 -0.18865651 0.030805243 -0.00407576 0.09587453 0.11295669 -0.05174862 -0.1228455
0.17739956 0.04024839 0.18235958 0.05762178 -0.08364857 -0.111580655 0.04849177 -0.34732392
-0.19893692 -0.09790964 -0.13588318 0.07231503 -0.003432464 0.0030557532 0.14140359 0.110920824
-0.06922265 -0.086161114 -0.12564434 -0.21470936 0.01626256 0.09148657 -0.094064504 0.06438891
-0.05797855 -0.056108225 -0.14582635 0.009974269 -0.1958198 0.030652935 0.3010493 -0.1973993
-0.08680236 -0.13332698 -0.00289566 0.12149029 0.100565255 0.15394925 0.00086641655 0.061786048
-0.15241404 0.12258297 -0.028338153 0.1906363 -0.18770695 -0.05697862 -0.1896057 -0.033384316
0.12863003 0.11322273 -0.10583563 0.08885221 0.05207799 -0.32326987 0.07325563 0.018299896
0.042736746 0.035948474 0.12606867 -0.18699485 0.20267601 0.07654349 -0.2238912 -0.1518116
0.0035818676 -0.039224952 0.16347922 0.22565307 0.0016366162 0.05980253 0.08551057 -0.23130773
00000000: f39f 4b3e 47a4 d53d 4ec5 59bd 4ec6 47be
00000010: f03b 263c cf2f 203e 5042 2ebd b316 44be
00000020: 4c3c 3cbd c81a 643e a5a3 193e 05d2 4abe
00000030: e6ff 4abd 0bbe 7d3e 2b61 23be 0479 123e
00000040: d922 513e 7f05 5d3c ccda fb3c 8106 8cbe
00000050: 537b cd3c 5865 9fbd 6d4d 91bc 5d66 43bd
00000060: ff72 823d beec d3bd 3ce1 bd3d c50e 96be
00000070: d9ed 7bbe fff6 41be 50f0 573e 7a26 9abe
00000080: c27e 1cbd 1e8c 503e 358a efbc 846b 20be
00000090: a6fb a63d 0cb5 eabc 50c2 4c3d 20ea 04be
000000a0: c0ec 71be 42fb 5e3e 42f9 4dbe bf45 f6bc
000000b0: 9827 203e 9cba 5dbe 9177 cf3d 443f 3fbe
000000c0: 2bfa 0abe 1c5f 7c3e 4e11 d1bc 3dd9 943d
000000d0: ad9c 68be 9ec6 b5bd cf84 c8bd 4b19 f33d
000000e0: e8aa b5bb aa10 d33d f00c d1bd 2efe 54be
000000f0: b0ab 56be 7ef7 dfbd d2ea 873c 26ff b83a
00000100: 03c8 cabd 1d48 1f3e a488 a23d e47e 7e3d
00000110: ce99 9bbd 1c59 6dbd fef7 b43d f457 033e
00000120: 4f91 973d fc8d cfbd 9603 70be b3ca 2a3e
00000130: 1e65 29be e02e 83bc b620 1c3e 5504 7e3a
00000140: 6d17 d0bd c8b7 343a 1305 953d de91 36bc
00000150: 2c64 a8bb f98e d1bc 3506 143e 5938 743d
00000160: 6de0 88bd abc7 fbbb 9076 67bd 1de6 33be
00000170: 9123 293e 44be 31bd 5d58 39be 9963 4bbd
00000180: 336e bcbe bd1d 62bd 8329 9dbd 4389 0fbd
00000190: 21de b43d 2103 1dbe 6677 afbd 759e 083e
000001a0: f6f4 13bd 4bdb e23c 64c2 1dbd 7ebd a0bd
000001b0: 21a0 17be 3ce9 fcbd 8768 1b3e d228 083e
000001c0: e8f6 063e 0feb 0abe 054d e83d 9392 b63c
000001d0: b6b6 2c3e c28a 6b39 9478 30be d7da 3abe
000001e0: ba62 f63d 8c8a 3abe 88ae 9f3c c965 acbd
000001f0: 9838 133e 16c8 d63c e31d e5bd 9dc1 10be
00000200: 22ca b23d b4f2 273e be79 4e3d 642c 31bc
00000210: 5002 b93d 50a9 9bbd d1f6 7bbd c389 b13d
00000220: 8de5 563e 69bf 78be 6a43 a3be 59dd 6cbd
00000230: e81b 863b 4511 c33b 9417 bd3d 000d ec3d
00000240: fc4f 67be f000 0abe 84ae 763e fa16 b13d
00000250: 073d c1bd 11bf 783d 026d 663e 9ee4 1a3e
00000260: 6bc7 8dbd 78ae 383e d3fc b1bb e6f9 c2bd
00000270: 4367 5d3d a721 1f3e fa4b 85be 8a4c 993d
00000280: c9a8 25be a31d 843c daf9 ff3b 11d8 ab3e
00000290: 82b7 68be d140 c63d 65ce 82be fdee 0c3e
000002a0: b756 ddbd 7b16 9cbc 8281 dcbb a2bc 3c3d
000002b0: b429 04be 48a2 12bf 42ab 0e3e 9ced b0bd
000002c0: 1fe7 8c3b 2c2f 41be 475b fc3c f48d 85bb
000002d0: de59 c43d d655 e73d 5cf6 53bd 6c96 fbbd
000002e0: 3ba8 353e 7fdb 243d 78bc 3a3e d104 6c3d
000002f0: f14f abbd 6684 e4bd 4e9f 463d 71d4 b1be
00000300: 1fb6 4bbe d984 c8bd f624 0bbe e719 943d
00000310: 31f3 60bb 0843 483b 1acc 103e 752a e33d
00000320: 9bc4 8dbd 3d75 b0bd e9a8 00be c5dc 5bbe
00000330: 0f39 853c 505d bb3d e4a4 c0bd 55de 833d
00000340: eb7a 6dbd bdd1 65bd 8153 15be 1e6b 233c
00000350: fc84 48be dd1b fb3c 2223 9a3e 0b23 4abe
00000360: 70c5 b1bd de86 08be 1dc5 3dbb e7cf f83d
00000370: 28f5 cd3d dfa4 1d3e 3b20 633a 5e13 7d3d
00000380: 6d12 1cbe c80c fb3d 6a25 e8bc 2a36 433e
00000390: 4036 40be 6a62 69bd ff27 42be febd 08bd
000003a0: 97b7 033e 52e1 e73d 5ac0 d8bd 26f8 b53d
000003b0: bb4f 553d a183 a5be 0c07 963d aae9 953c
000003c0: ba0c 2f3d b53e 133d 2518 013e 947b 3fbe
000003d0: 4d8a 4f3e d5c2 9c3d bc43 65be 8074 1bbe
000003e0: c4bd 6a3b 58aa 20bd 1967 273e 9911 673e
000003f0: ba83 d63a 7ff3 743d 2a20 af3d efdb 6cbe

gru.bias_ih_l0 f4 [192]
0.200925 0.069281206 -0.047972444 -0.052283224 0.0064399573 -0.06876302 0.14339961 -0.052446615
0.01798304 -0.16188358 -0.07991318 0.024687394 -0.07577936 -0.13105248 0.05408126 0.09014435
0.0069574052 0.00784209 0.059211336 0.057929944 0.16328667 -0.13331759 -0.160266 0.09493874
0.16548987 0.11333168 -0.08144333 -0.005524228 0.08944089 0.058241665 -0.11070144 -0.066792026
0.09699176 0.0059967455 -0.030581929 -0.16792111 0.041163944 -0.08999143 -0.139513 0.10157611
-0.011765868 -0.015415849 -0.067270316 0.16655585 0.011575203 0.118953496 -0.14509192 0.11243121
-0.08123638 -0.045264628 -0.16958936 -0.101940356 -0.10101924 -0.041308783 -0.16139446 0.0787236
-0.03622085 -0.10712685 -0.034138992 0.015075809 0.06591732 -0.08846044 0.018108774 -0.07622666
-0.07425783 -0.18843886 -0.06557354 -0.030645542 -0.09542755 -0.008189879 -0.122168645 0.07722209
0.06974406 0.018969381 0.17983574 -0.038374532 -0.14745806 -0.074617445 0.058850776 0.052347187
0.100980885 -0.04520018 -0.09576638 -0.011718277 -0.09050625 0.004087775 -0.05187862 0.04462481
-0.11771708 -0.06002055 -0.11049024 -0.10878712 0.0100395745 0.049925942 0.03416342 -0.117602415
0.0182485 -0.07821819 -0.14248316 -0.05288409 0.009524924 -0.14152361 -0.056512933 -0.02646135
-0.09251632 -0.057131797 -0.012795672 -0.11536296 -0.13646503 -0.01478114 -0.0007226994 0.012765494
-0.05430653 -0.087525345 -0.053492833 0.011327853 -0.008274144 -0.012905537 -0.15568103 0.12990779
0.054242343 -0.026176581 -0.037726395 -0.020483846 0.04399742 0.0859001 0.035458818 -0.12262181
-0.045172106 -0.0641162 0.016322475 -0.10155857 -0.055429954 0.0022812553 -0.15233573 -0.14281681
0.036641482 -0.082558334 -0.1106777 -0.13025765 -0.040924408 0.12080797 -0.13557753 0.16768976
0.06801351 0.023348369 0.057820413 -0.098851606 0.03360652 -0.047133595 0.110443324 0.072489105
0.0009832159 -0.07905154 0.08856236 -0.06880874 -0.072084114 -0.013080567 0.08868304 0.079916455
0.115532525 -0.14770083 0.079330795 0.12452773 -0.1446646 -0.09558912 0.049273264 -0.1532044
-0.13049816 0.05637944 -0.047842737 -0.08598465 -0.112229474 -0.005437445 0.12790859 -0.027186375
-0.080009006 0.02769375 0.029929433 -0.035616077 -0.017465923 -0.0209278 0.10434978 -0.09613849
-0.15834488 0.035979703 0.06761818 0.04033293 -0.09787972 -0.09753935 -0.18729676 -0.047613107
00000000: 48bf 4d3e 4ee3 8d3d c17e 44bd ef26 56bd
00000010: 4706 d33b a0d3 8cbd 59d7 123e 43d2 56bd
00000020: 2b51 933c cfc4 25be 85a9 a3bd 383d ca3c
00000030: 3632 9bbd 9f32 06be 5084 5d3d 9a9d b83d
00000040: f2fa e33b 1c7c 003c 9687 723d f347 6d3d
00000050: 9f34 273e 6884 08be c51c 24be 3e6f c23d
00000060: 2d76 293e 711a e83d c3cb a6bd 9504 b5bb
00000070: c92c b73d d08e 6e3d 70b7 e2bd 42ca 88bd
00000080: 9ea3 c63d 5980 c43b f486 fabc 83f3 2bbe
00000090: 869b 283d 6d4d b8bd 7fdc 0ebe 2307 d03d
000000a0: a1c5 40bc c292 7cbc 05c5 89bd 9e8d 2a3e
000000b0: eca5 3d3c e49d f33d fa92 14be 5642 e63d
000000c0: 425f a6bd 6767 39bd d5a8 2dbe 1bc6 d0bd
000000d0: 2de3 cebd 6633 29bd 9744 25be d739 a13d
000000e0: 505c 14bd 5265 dbbd 54d5 0bbd 8700 773c
000000f0: a9ff 863d bf2a b5bd da58 943c b91c 9cbd
00000100: 7d14 98bd 1ef6 40be 6c4b 86bd 5c0c fbbc
00000110: 856f c3bd d82e 06bc 8e33 fabd 9d26 9e3d
00000120: f9d5 8e3d ad65 9b3c dc26 383e 9d2e 1dbd
00000130: 3fff 16be 08d1 98bd 830d 713d 016a 563d
00000140: 11cf ce3d d323 39bd 2a21 c4bd 04fe 3fbc
00000150: 575b b9bd bef2 853b ad7e 54bd 81c8 363d
00000160: a715 f1bd 1cd8 75bd b548 e2bd c8cb debd
00000170: 077d 243c 257f 4c3d f1ee 0b3d 89d9 f0bd
00000180: e17d 953c dc30 a0bd 1be7 11be fd9c 58bd
00000190: 6d0e 1c3c 91eb 10be 1b7a 67bd 79c5 d8bc
000001a0: 3279 bdbd 0803 6abd f0a4 51bc 6a43 ecbd
000001b0: 7dbd 0bbe 982c 72bc 8973 3dba 5d26 513c
000001c0: 8670 5ebd 7d40 b3bd 4d1b 5bbd 7698 393c
000001d0: 4690 07bc bf71 53bc d96a 1fbe 8c06 053e
000001e0: 382d 5e3d 4570 d6bc fe86 1abd bdcd a7bc
000001f0: a436 343d 64ec af3d 443d 113d 2521 fbbd
00000200: 6306 39bd 5b4f 83bd b6b6 853c f1fd cfbd
00000210: 850a 63bd 1d81 153b e6fd 1bbe 923e 12be
00000220: 6115 163d 5814 a9bd fdaa e2bd 4362 05be
00000230: 5aa0 27bd 2b6a f73d d6d4 0abe ddb6 2b3e
00000240: ab4a 8b3d 1445 bf3c 19d5 6c3d b672 cabd
00000250: fea6 093d 280f 41bd 1c30 e23d 2b75 943d
00000260: 40df 803a c6e5 a1bd 2f60 b53d 99eb 8cbd
00000270: d6a0 93bd e04f 56bc 749f b53d 3dab a33d
00000280: 519c ec3d e33e 17be 2f78 a23d 6508 ff3d
00000290: f522 14be 3bc4 c3bd c3d2 493d 9de1 1cbe
000002a0: 4fa1 05be 21ee 663d bff6 43bd b818 b0bd
000002b0: 91d8 e5bd 982c b2bb 78fa 023e f6b5 debc
000002c0: c3db a3bd 01de e23c 922e f53c 2ae2 11bd
000002d0: b214 8fbc c770 abbc 56b5 d53d 42e4 c4bd
000002e0: 2925 22be 745f 133d 667b 8a3d 2434 253d
000002f0: 2a75 c8bd b6c2 c7bd b9ca 3fbe f605 43bd

gru.bias_hh_l0 f4 [192]
0.24859525 0.02246369 0.15337017 -0.080437995 0.06347501 -0.066350475 0.089741565 0.11379324
-0.053338468 -0.0701207 0.050265178 0.09450994 0.05406488 -0.15594314 0.09751285 0.07741162
0.10019781 0.00792345 0.070669144 0.018458674 0.14698078 0.080148675 -0.14037699 -0.07363336
0.07510039 -0.036847707 -0.101628296 -0.060257517 0.26986203 -0.04329123 -0.059354216 0.07067953
-0.08263759 0.019100651 0.09506582 0.041904777 0.042342566 -0.051036287 -0.13177653 -0.008839104
0.03960018 -0.05189261 -0.16203743 0.06929602 0.062690556 0.04185434 -0.016186766 -0.029296743
0.013860169 0.091587245 -0.086952396 -0.13582063 0.0002487269 -0.095126644 -0.1923303 -0.08955252
0.017536392 0.12193977 0.064950846 -0.017948141 0.0146447765 0.07153259 -0.10075286 0.107470624
0.01212586 -0.17096208 0.010483431 -0.0903865 0.016971147 0.056893654 -0.34067234 -0.031111699
-0.08416521 -0.08424364 0.0792258 -0.07439144 -0.031307288 -0.074619725 0.025551675 0.01643003
-0.11588549 -0.05652525 -0.1574533 -0.09652526 -0.118202604 -0.015978018 -0.041691344 0.10151902
0.112435706 0.0009794388 -0.090610646 -0.053355686 -0.050223883 -0.079337746 -0.043809924 -0.1596942
0.051721897 -0.08400357 -0.14256334 0.021381859 0.0531644 -0.19231658 0.08498952 -0.031078016
-0.0030819937 -0.061432756 -0.050637458 0.006951659 -0.12790805 -0.002772575 -0.03982311 -0.023947526
-0.06213308 0.102599554 0.09951023 0.00023010618 0.09102512 0.032870777 0.0099006295 0.10768303
0.045300044 -0.09960512 -0.008547999 -0.20762314 -0.048839368 -0.03101152 0.117194384 0.0557558
-0.015827602 0.07861903 -0.09405404 -0.13583326 -0.0068457224 0.07813922 -0.024862204 0.07680761
-0.042789165 -0.09412793 0.08175695 -0.13168329 0.04636906 0.11712452 -0.09142789 0.09420172
-0.118588395 -0.111985095 -0.089103185 -0.082348175 -0.08235053 -0.15435943 -0.12323011 -0.04726634
0.007737734 -0.058020785 0.0561812 -0.06560214 -0.13811173 -0.012353183 0.16343357 -0.10460517
0.1170077 0.0058771516 -0.0799512 0.007395485 0.047518138 0.10520847 -0.07390242 -0.16310965
-0.1883557 0.14486991 0.070200644 -0.06291092 0.06696599 0.07969322 0.18588264 -0.13496277
-0.013232699 0.060240377 0.09364821 -0.062247597 -0.08803163 -0.11257257 0.16608356 -0.10109891
-0.029259779 0.04845847 0.13261287 -0.035101354 0.011236182 -0.12557577 0.03824817 0.11212026
00000000: c18f 7e3e c605 b83c 120d 1d3e adbc a4bd
00000010: 30ff 813d c2e2 87bd 6dca b73d 6e0c e93d
00000020: 7079 5abd 719b 8fbd dce2 4d3d 6d8e c13d
00000030: 2373 5d3d 8faf 1fbe d1b4 c73d fc89 9e3d
00000040: 8234 cd3d 5cd1 013c fcba 903d a536 973c
00000050: 2182 163e fd24 a43d fcbe 0fbe 16cd 96bd
00000060: 3cce 993d 9fed 16bd 7f22 d0bd 96d0 76bd
00000070: 5b2b 8a3e 2552 31bd 681d 73bd 6ec0 903d
00000080: e63d a9bd f878 9c3c deb1 c23d 58a4 2b3d
00000090: 666f 2d3d 6d0b 51bd 6df0 06be e4d1 10bc
000000a0: cc33 223d 588d 54bd 24ed 25be 12eb 8d3d
000000b0: e863 803d 756f 2b3d 1c9a 84bc b9ff efbc
000000c0: c315 633c 1892 bb3d 1914 b2bd 9014 0bbe
000000d0: 8f67 8239 c2d1 c2bd 3cf2 44be 5067 b7bd
000000e0: 7ba8 8f3c 8fbb f93d f304 853d fb07 93bc
000000f0: a5f0 6f3c ae7f 923d 8457 cebd 8f19 dc3d
00000100: 8bab 463c af10 2fbe b2c2 2b3c 8f1c b9bd
00000110: 1307 8b3c 5209 693d 9b6c aebe f6dd febc
00000120: cf5e acbd ee87 acbd 2341 a23d 8a5a 98bd
00000130: 123c 00bd 3ad2 98bd bf51 d13c 4598 863c
00000140: 5f55 edbd 0587 67bd 703b 21be 09af c5bd
00000150: 3514 f2bd 55e4 82bc 8bc4 2abd 34e9 cf3d
00000160: b144 e63d 8360 803a 1392 b9bd 7e8b 5abd
00000170: 8fb7 4dbd d47b a2bd 0972 33bd e086 23be
00000180: 57da 533d 100a acbd 20fc 11be 0229 af3c
00000190: eac2 593d a3ee 44be fc0e ae3d 5397 febc
000001a0: 46fb 49bb eaa0 7bbd 3969 4fbd beca e33b
000001b0: 54fa 02be 17b4 35bb 8f1d 23bd 9a2d c4bc
000001c0: 427f 7ebd b71f d23d 05cc cb3d a848 7139
000001d0: 616b ba3d 82a3 063d 4036 223c ec88 dc3d
000001e0: 8a8c 393d c5fd cbbd e80c 0cbc 299b 54be
000001f0: ca0b 48bd df0b febc 9c03 f03d 3260 643d
00000200: e3a8 81bc 0403 a13d 689f c0bd e017 0bbe
00000210: 1552 e0bb 7507 a03d d2ab cbbc 4f4d 9d3d
00000220: b143 2fbd 25c6 c0bd 3070 a73d fcd7 06be
00000230: 7ced 3d3d fbde ef3d 8c3e bbbd d5ec c03d
00000240: 79de f2bd 7158 e5bd bb7b b6bd 29a6 a8bd
00000250: 65a7 a8bd 6610 1ebe 1160 fcbd 5a9a 41bd
00000260: d18c fd3b 34a7 6dbd 421e 663d 6a5a 86bd
00000270: 296d 0dbe 0165 4abc 215b 273e 3c3b d6bd
00000280: bca1 ef3d 1f95 c03b 74bd a3bd d355 f23b
00000290: 61a2 423d 8a77 d73d 275a 97bd 3706 27be
000002a0: 51e0 40be c758 143e 5bc5 8f3d 71d7 80bd
000002b0: 7725 893d 3336 a33d 0558 3e3e ae33 0abe
000002c0: f6cd 58bc 9dbe 763d a2ca bf3d 56f7 7ebd
000002d0: ed49 b4bd 738c e6bd cf11 2a3e f20c cfbd
000002e0: 34b2 efbc 637c 463d abcb 073e 70c6 0fbd
000002f0: f717 383c ef96 00be 1daa 1c3d 4f9f e53d
