models/gnn-rnn/gnn_rnn_r_1.pth (torch, 152503 bytes, 17 tensors)

fc_measurement.0.weight f4 [32, 1]
000000 a9 30 89 3f 71 e7 97 bd d8 d9 49 3f cf 19 fa 3e
       1.0717975 -0.07417191 0.7884803 0.48847815
000010 b9 5e 6e be 52 ff f8 be 49 d2 39 bf 18 9b 6d 3d
       -0.23278321 -0.48632294 -0.72586495 0.058009237
000020 9a 39 82 bf cf de 91 bf 19 9e 00 3f bb 4c 55 3f
       -1.0173829 -1.1396121 0.5024124 0.83320206
000030 6d 58 0a 3f fb 75 ad be 7d da 68 be 72 9d ad be
       0.5404118 -0.33879074 -0.22739597 -0.33909184
000040 ee 03 cd be 00 88 2a bf a3 79 5c 3f 3a 34 86 bd
       -0.4004206 -0.6661377 0.861231 -0.0655293
000050 ce 7c 81 bf ff 7b 02 3f ac e3 29 3f 5c 39 44 3f
       -1.0116212 0.50970453 0.66363025 0.76650023
000060 f8 3f 08 bf 84 52 84 3e 57 b7 1d bf 6c 35 8b 3f
       -0.5322261 0.25844204 -0.6160788 1.0875678
000070 c0 60 6d bf 9e e1 70 bf a1 35 4e bf ac 58 2e bf
       -0.92725754 -0.94094265 -0.8055058 -0.6810405

fc_measurement.0.bias f4 [32]
000000 48 70 3f bd 8b 66 71 3f 10 6c 10 bf cd e8 07 3f
       -0.04673794 0.94297093 -0.5641489 0.530896
000010 c8 89 c6 be 30 67 d3 3e ef a1 ab 3d 73 14 0e 3f
       -0.38776994 0.41289663 0.08380496 0.55499953
000020 ef 48 38 3f 76 4f 63 bf d2 78 ef 3e 34 96 84 3e
       0.7198629 -0.8879312 0.46771866 0.25895846
000030 e0 45 28 bf 90 5c 55 bf 0f bf 79 be f9 ae b9 3e
       -0.6573162 -0.83344364 -0.2438929 0.36266306
000040 e6 91 b3 bd 61 e9 0f 3f 42 16 9f 3e 3f 67 b2 be
       -0.08768062 0.5621548 0.3107167 -0.34844396
000050 22 40 35 3e da 77 84 3e d2 10 8b 3f c7 8c 47 3e
       0.17700246 0.2587269 1.0864508 0.19487296
000060 10 c5 68 3f cc 74 8b bf d8 05 51 3f 4b ea 2c bf
       0.90925694 -1.0895019 0.8164954 -0.67545
000070 06 2c 58 bf 81 ce 87 be 16 c2 ed be 80 a2 07 3f
       -0.84442174 -0.26524737 -0.46437138 0.5298233

fc_measurement.2.weight f4 [32, 32]
000000 d6 1a 28 be b6 d0 06 3e 88 88 ea bd 3d f0 e5 bc
       -0.16416487 0.13165554 -0.114518225 -0.028068656
000010 d6 78 53 3e 46 93 59 3c 01 ec 13 3e d6 12 42 be
       0.20651564 0.013279742 0.14445497 -0.18952498
000020 38 26 8c 3e a3 0b a6 3d 0b 13 b4 bd 2d 6f d6 bd
       0.2737291 0.08107688 -0.08792695 -0.10470424
000030 7f ed 3e bd ff d6 9d 3e f9 d3 b9 3d c4 e2 0b 3e
       -0.046613213 0.30828092 0.09073634 0.13660723
000040 4d 2a 9d 3d 37 f8 09 3e 0f 29 88 bd 9e f4 aa 3e
       0.07674084 0.13473593 -0.06648456 0.33389753
000050 e7 63 e5 3c 01 bc 04 be 61 7b 78 be 7a 81 40 be
       0.028001739 -0.12962343 -0.24265815 -0.18799391
000060 0e 37 fe bc 06 df 58 be 67 06 8d bd 38 2b c8 3d
       -0.031032111 -0.21178827 -0.06885987 0.09773868
000070 17 82 15 3e a3 71 43 3e 81 c7 57 3e 31 fe 30 bc
       0.14600407 0.19086318 0.21072198 -0.010802791
000080 88 47 c2 ba 77 09 0b 3c 8d a8 eb bd a3 45 83 be
       -0.0014822343 0.008486143 -0.11506758 -0.25639066
000090 cc 46 a9 3d 00 25 58 3e 03 47 20 bd 4f d3 12 3c
       0.082654566 0.21107864 -0.039130222 0.008961513
0000a0 3c 9e 66 3e 91 60 48 3e 1e 7b 9a bb 40 96 51 be
       0.22521299 0.19568087 -0.0047143837 -0.20467472
0000b0 ef 00 f7 3d 52 52 f0 3c 19 33 22 bd 0a 7c 10 3e
       0.12060725 0.029336128 -0.03959951 0.14109817
0000c0 38 f6 5e 3e ea be 4b 3e 4a d9 5f be 31 1f a5 3c
       0.21773612 0.19897047 -0.21860233 0.020156475
0000d0 e1 11 ef 3c a4 5c a7 bd fd 84 1c be 3c 14 b5 3d
       0.02918333 -0.08171967 -0.15285106 0.0884175
0000e0 15 48 29 3e 1a d9 52 bd d5 f9 d8 bd 18 41 c9 bc
       0.16531403 -0.051476575 -0.10594527 -0.024567172
0000f0 98 ad af 3d 45 f0 aa 3d b5 48 1e 3c 2c ff 30 3e
       0.08578032 0.08346609 0.009660889 0.1728484
000100 4d db 0f be 8b ca 60 3c 1c ad 69 3d b1 2a 0e be
       -0.140485 0.013720165 0.057049856 -0.13883473
000110 1d f9 45 bd c8 63 b8 bc d5 13 2a 3e d3 30 23 3e
       -0.048333276 -0.022508517 0.16609128 0.15936594
000120 fb 1e bf 3c 46 8a a1 bc 2e 88 11 3e 45 e1 c9 3d
       0.023330202 -0.019719254 0.14212105 0.0985742
000130 76 69 5a 3d de fe 14 be 57 3d 7c bd 8c 84 80 3e
       0.05332323 -0.14550349 -0.061581936 0.25101125
000140 25 67 77 bd 53 29 74 3e f9 da 70 bd eb 26 6f be
       -0.0604011 0.23843889 -0.05880258 -0.2335469
000150 f8 75 08 3e 33 10 93 3d c3 49 a3 bd 17 88 fa 3d
       0.13326252 0.07180824 -0.07973053 0.12232988
000160 e4 c3 4a 3e 9e 3d 85 be b3 f7 d1 3d 7d 68 d7 3c
       0.19801289 -0.26023573 0.10252323 0.026294941
000170 1c 28 ca 3b d4 f3 8b bc 65 9b 40 3d fe 99 16 3e
       0.006169332 -0.01708404 0.047023196 0.14707181
000180 b7 d0 0c 3e e7 97 3b 3e 30 76 93 3d 27 cb 95 3e
       0.13751493 0.18319665 0.07200277 0.29256555
000190 e7 f5 13 be 8a fc 36 be ee ca ad 3d dd 1d e7 bd
       -0.14449273 -0.17869774 0.084859714 -0.11284993
0001a0 da a4 98 3d 24 40 c6 bc dd 54 8e 3e 38 7f 5d 3e
       0.07453318 -0.024200507 0.2779912 0.21630561
0001b0 33 6c 54 3e e5 41 df 3d e1 17 c1 bd 64 f4 69 3d
       0.207444 0.1090124 -0.09428383 0.057117835
0001c0 04 25 e7 3d d4 2f b8 3d a1 bf 93 3e 8a 19 3d be
       0.11286357 0.089934975 0.2885714 -0.18466774
0001d0 ae f3 a9 bc 9e 67 6e 3e cc 6b 3f 3e bd 3f c9 3d
       -0.020746078 0.23281714 0.18693465 0.0982661
0001e0 f3 54 88 3c 34 63 14 3e 2c 6a 04 bd 47 ef 89 3e
       0.01664207 0.14490968 -0.032327816 0.26940367
0001f0 b1 43 f3 bd fd 50 ba 3d f5 6f bf 3d 08 79 9c bc
       -0.118781455 0.090974785 0.09347526 -0.019100681
000200 8f 91 2a be ae 61 ce 3d c9 fb 15 be cf 1a 98 3d
       -0.16657089 0.10077225 -0.1464683 0.07426988
000210 5b 21 82 3d ca af 66 3e b9 d6 b0 3d 88 05 18 3e
       0.06354018 0.22527996 0.08634705 0.1484586
000220 25 6b c6 ba c3 61 c0 3c 8a 10 5b bb 45 26 b2 39
       -0.0015138133 0.023484116 -0.0033426606 0.0003397932
000230 82 49 32 bd ab de 67 bd ee 8e 92 3d 8a 21 1c bd
       -0.043527134 -0.056608837 0.07156168 -0.038117923
000240 b8 9b 28 3d 99 e7 4a 3d c4 f0 2c 3e 99 c0 b4 3d
       0.04116413 0.049537275 0.1688872 0.088257976
000250 4c 9c 8d 3c ab 1a f8 bc 22 91 16 3d 93 00 10 3e
       0.017286442 -0.030286154 0.036759503 0.14062719
000260 ce da 23 3e 55 66 e4 bc 3a b6 5e 3e 24 b9 47 3c
       0.16001436 -0.027880827 0.21749201 0.012190137
000270 6b 13 41 3e 6b 6f 15 3e 20 3b 04 3e f2 02 14 3d
       0.18855064 0.14593284 0.1291318 0.03613562
000280 0f 4c 8a 3e 69 9a b2 3d 34 6e d7 3d 5a 12 29 3e
       0.27011153 0.08720858 0.105190665 0.16510907
000290 d0 04 e3 bd f4 6f 17 3e 5b b8 a4 3d 97 8a 68 3e
       -0.11084902 0.147888 0.080429755 0.22709118
0002a0 c0 5b 58 bd aa 36 1f be a5 11 17 3e df 21 4c 3e
       -0.052821875 -0.15548196 0.14752825 0.19934796
0002b0 7e 71 48 3e 99 8f 87 bc 37 24 00 be 4b f6 45 bd
       0.19574544 -0.016547965 -0.12513815 -0.048330586
0002c0 ee e8 17 be 09 69 23 3e 73 ba 75 3e a5 bc 3d bd
       -0.1483495 0.15958036 0.23996906 -0.046322484
0002d0 27 48 2b be c3 d5 97 3e dc 33 3b 3e 89 ff 06 3e
       -0.16726743 0.29655275 0.18281502 0.13183416
0002e0 29 3a 60 3e 4c b6 31 3e 33 8d 32 bd d4 af 83 3d
       0.21897186 0.17354697 -0.04359169 0.06430021
0002f0 80 a9 4d bd 66 62 4b be 4f 93 76 be 9a 7d b6 3d
       -0.050210476 -0.19861755 -0.24079631 0.08910675
000300 41 88 fd 3d 7f b0 86 bd 06 6d 90 3e fb d3 c3 3d
       0.12379504 -0.06576633 0.28208178 0.095619164
000310 31 26 1b be 72 6f f6 3d 35 09 92 3b d3 23 68 3e
       -0.15151288 0.12032975 0.004456664 0.22669916
000320 e6 a8 24 be 80 2e cb 3d 8d 8f 0c 3e a0 90 73 3e
       -0.16080055 0.099209785 0.13726635 0.23785639
000330 d5 38 ad 3e d8 7f d0 bd d7 f5 cd bd b5 6e 0f be
       0.33832422 -0.10180634 -0.10056656 -0.14007075
000340 2e eb 3c 3d 3a 13 85 3d ba ef 80 3e 87 6a 95 bd
       0.046122722 0.06497808 0.25182897 -0.07295709
000350 66 b0 a1 3d bf 76 6f 3d ef 61 a5 3e 9d f9 90 3e
       0.078949735 0.058462854 0.3230128 0.2831544
000360 09 0d a0 bd a8 06 c0 3e fb 17 1a be f1 30 fd 3c
       -0.07814986 0.37505078 -0.1504821 0.030907126
000370 7f 68 35 3d 4f 7c a4 bd 78 72 15 3e 33 ba 14 3e
       0.04428911 -0.080315225 0.14594448 0.14524154
000380 08 38 36 3e ce 7d 28 3e 0b 58 99 bd d7 20 86 3e
       0.17794812 0.1645424 -0.07487496 0.2619693
000390 76 b7 83 bd fa be 9d bd 81 54 f5 bc 22 72 9f bc
       -0.06431477 -0.077024415 -0.029947521 -0.019463602
0003a0 6f b3 f3 bd 28 98 5c 3b f8 2a 3d 3e 8a dc aa 3d
       -0.118994586 0.0033660028 0.18473423 0.08342846
0003b0 5f fb 35 3e cb cb 2a be 0e 55 14 be b3 83 22 bd
       0.17771672 -0.16679303 -0.14485571 -0.03967638
0003c0 d7 de b8 bc d6 9f df 3d a6 0c 13 3e 50 10 1b bd
       -0.022567196 0.10919158 0.14360294 -0.037857354
0003d0 17 e1 ea 3c 78 4d 16 3d dc d4 32 3e c4 96 08 3e
       0.028671784 0.036694974 0.17464012 0.13338763
0003e0 ee 36 65 3d fa 76 87 bd bc c4 b1 bb 6c 65 30 3e
       0.05596059 -0.0661449 -0.005425064 0.1722619
0003f0 3b 2f 15 be d9 57 4e bd 72 a3 1a be 33 ec 2e 3e
       -0.14568798 -0.050376747 -0.15101412 0.1708229

fc_measurement.2.bias f4 [32]
000000 6a 33 89 bc 2a 81 c6 bd 9b 7a 18 3e 7b 7b 46 3d
       -0.016748149 -0.09692605 0.1489052 0.048457604
000010 e0 13 3e 3d 04 93 29 3e 72 cb 56 3d 67 37 47 3e
       0.046405673 0.16559988 0.052440114 0.19454728
000020 99 55 6d 3c 71 00 22 bc e5 75 16 3e 71 7c 4f bd
       0.01448574 -0.009887801 0.1469341 -0.050655786
000030 43 fd 88 3b 65 64 26 3b 22 d9 14 3e 0b 12 25 3e
       0.004180582 0.002538943 0.14535955 0.16120164
000040 02 45 43 3e e4 e6 89 bd 11 c8 28 3e c0 b6 59 3d
       0.19069293 -0.06733492 0.1648257 0.0531528
000050 61 c3 79 3e cc 67 dc bd 3d 8e 1e 3e 6a 98 16 be
       0.24390937 -0.10761985 0.15483947 -0.14706579
000060 60 3b 21 3e 9d 4a 75 3e 11 3d a9 3e d3 12 0b 3d
       0.15745306 0.23954244 0.33054402 0.0339535
000070 a6 67 93 3e 20 68 da bd 59 a1 cb 3d 4c 0b de 3c
       0.28790015 -0.106643915 0.09942884 0.027104996

type_embedding.weight f4 [2, 32]
000000 48 1f b3 3e 33 1b 8c bd 97 3f eb bf 44 4d 31 bf
       0.34984803 -0.06841125 -1.8378781 -0.69258523
000010 09 6f 09 c0 38 86 02 3f 30 7f 30 be 4e 9b be be
       -2.147402 0.5098605 -0.17236018 -0.37227863
000020 54 ea 52 bf a3 ee e8 be ad 45 43 3f a7 68 b7 3d
       -0.82388806 -0.45494565 0.7627819 0.08955508
000030 45 08 16 c0 95 f1 55 bf 85 48 e4 bf 1c 1e f4 be
       -2.3442547 -0.8357175 -1.7834631 -0.47679222
000040 1c 13 f2 3e 48 4b 36 bf 0a 6d ae 3e ef e1 85 3f
       0.47280204 -0.7120862 0.34067565 1.0459574
000050 16 82 b1 3d ce 72 de bb 93 a7 3d be 4a a2 55 bf
       0.0866739 -0.006788588 -0.18520956 -0.8345076
000060 b3 11 b2 3d 57 a2 60 bf a1 a0 31 40 40 6b 9b be
       0.08694782 -0.8774771 2.775429 -0.30355263
000070 c7 17 a3 be 44 0d 49 be 39 7b 6d 3e ce a6 67 3f
       -0.31854078 -0.19633967 0.23191537 0.904889
000080 4d 60 37 3f f9 5a df 3e e3 26 2c 3f b8 c1 22 be
       0.7163132 0.43624094 0.67246836 -0.1589421
000090 b6 69 e0 be a9 4e 1e bf 69 23 ac 3f c6 7d 87 bf
       -0.4383065 -0.61838776 1.3448306 -1.0585258
0000a0 65 16 08 bf 0e cd c3 be 71 91 13 bf ea b7 7c 3e
       -0.5315917 -0.38242382 -0.576438 0.24679533
0000b0 fb 16 b1 bd 3b 82 dc 3e 3b 59 f4 be f8 3e e6 bd
       -0.08646961 0.43068108 -0.47724327 -0.11242479
0000c0 8f a9 4f 3f e0 a9 71 3f 48 58 63 3f 10 08 0f 3f
       0.811181 0.94399834 0.8880658 0.5587168
0000d0 53 2d cb 3f ee 83 bf be f4 4f 1a bf b2 78 60 3f
       1.5873207 -0.37405342 -0.6027825 0.87684166
0000e0 8a d6 e0 bf ad 81 32 bf bd 76 e3 bc fc fa 19 3f
       -1.7565472 -0.6972912 -0.02776658 0.60148597
0000f0 88 6e 87 3f 64 2d 4b bf 42 c4 ee 3e 85 49 68 bf
       1.0580606 -0.79366136 0.46634108 -0.9073718

gcn1.bias f4 [64]
000000 9e e5 e6 bc ee 00 15 b7 04 d9 88 bd 6b fb 07 bd
       -0.028185662 -8.8813085e-06 -0.066820174 -0.033198755
000010 a5 3a 20 bd 85 da 21 bd c7 0e 4f bd 63 a5 8e bd
       -0.039118428 -0.039515037 -0.050551202 -0.06965139
000020 6f 7b e6 3c 79 77 0d 3d e0 51 80 ba 99 88 ec 3c
       0.02813503 0.034537766 -0.0009790026 0.028873729
000030 f6 1d 86 3c f5 56 7e bd 55 4a bc 3c ae 45 ee 3b
       0.016371708 -0.062094647 0.022984663 0.00727149
000040 63 32 28 bd 4c 2e 22 bd f5 bb a3 3d bd bb 35 3c
       -0.041063678 -0.039594933 0.07994834 0.011092124
000050 5a a6 a4 3c c3 34 14 bd 69 04 08 3e 88 c4 6e 3c
       0.020098854 -0.03618313 0.13282932 0.014573224
000060 8e 20 e1 3c d2 8b 37 3b 52 87 db bd 4f 06 d8 3c
       0.027481344 0.0028006923 -0.1071917 0.026370196
000070 aa f3 2e bc 7b 99 92 3c 56 35 52 3d e4 21 5e bc
       -0.010678211 0.01789545 0.051320396 -0.013557885
000080 82 11 fb 3b 6e b1 07 bc c3 2b 92 bb bc ef 49 3d
       0.007661999 -0.008282049 -0.004460783 0.049300894
000090 73 d0 fe 3c 3a 31 07 bd f2 8f 41 bc af 1e e5 bb
       0.031105256 -0.03300593 -0.011814104 -0.006992183
0000a0 54 f2 c0 3c eb 4d cd bc 16 fb 4f bd de 70 95 bd
       0.023553051 -0.025061568 -0.050776564 -0.07296918
0000b0 23 e1 82 3d af 12 16 bc 95 5b 5c 3d 9b d1 ea 3c
       0.06390598 -0.009159728 0.053798277 0.0286644
0000c0 ce d9 02 bd 8f 93 07 bd a8 06 8f 3d 4f 2a b6 3c
       -0.031945996 -0.033099707 0.069836915 0.022236971
0000d0 b4 d4 20 3c bd 0c 26 3e 79 a6 6d bb bf 8e cb 3c
       0.009816337 0.16215797 -0.0036262556 0.02484834
0000e0 33 30 d6 bc bf 41 0c bd 63 ee 1c 3c ce 72 76 3d
       -0.02614603 -0.034242388 0.00957832 0.06016808
0000f0 51 06 1e 3b d1 cf 4c 3d 5c 0a f4 3c 17 66 2d bc
       0.0024112652 0.050002877 0.029790096 -0.010583422

gcn1.lin.weight f4 [64, 64]
000000 ed d0 0b bb a8 45 5b 3e 06 af 97 3d 8e 1f 7e 3d
       -0.0021334246 0.2141329 0.0740643 0.06204181
000010 8e f2 24 3e 21 92 f4 3b 96 f2 2b 3e 88 fe 39 3e
       0.16108152 0.007463709 0.16791758 0.18163502
000020 af 5b 1f 3e f3 fd 93 3e 22 a2 01 3e f9 07 45 3d
       0.15562318 0.28904685 0.12659505 0.048103306
000030 d1 a3 d0 bd 55 f4 7d 3e be 2b 7c 3e 7a 5b fd 3d
       -0.101874955 0.24800237 0.24626061 0.123709634
000040 fe a4 50 3d 89 24 e7 3c bd eb 17 3d 37 1b 5d 3b
       0.0509386 0.028215664 0.037090052 0.0033738145
000050 56 5c d6 3d 1d d6 6d 3c 4e 3b eb 3d c4 30 85 be
       0.104668304 0.014516381 0.11485921 -0.26013768
000060 b9 be 0f be fe 3f bb 3a 11 29 cb 3d fa 4b b9 bd
       -0.14037599 0.0014286039 0.09919942 -0.090476945
000070 a3 57 5e bd b0 b5 ae bd c2 a0 0b be 56 9b 1f 3c
       -0.054282796 -0.08530748 -0.13635543 0.009741625
000080 61 84 80 3d 54 f8 5b 3e 05 be 02 be 9a 50 b4 3d
       0.06275249 0.21481448 -0.12767799 0.08804436
000090 0b 10 be bd 4b bf 67 be 23 fa 2f 3e 07 93 17 3e
       -0.09280404 -0.22631566 0.17185263 0.1480218
0000a0 fe 0a 17 be e1 ad af 3d 40 f1 6c bc b2 24 af 3d
       -0.14750287 0.08578087 -0.014461815 0.08551921
0000b0 ce 78 5b 3e 06 23 7a 3e 3a 4b d3 bd c5 40 69 3d
       0.21432802 0.24427423 -0.10317083 0.056946535
0000c0 65 fb 02 3e 7d c0 1b 3e 6e 7d 3e bb 25 71 d3 bc
       0.12791212 0.15210147 -0.002906646 -0.025810787
0000d0 6b 85 02 be 74 5a 18 3e bd ef 19 3e 87 5f 10 be
       -0.12746207 0.14878255 0.15032859 -0.14098941
0000e0 b2 cd 50 3e 79 0d d2 bc 60 1c c3 3d cf af 19 3e
       0.20390967 -0.02564119 0.095268965 0.15008472
0000f0 90 ee 10 3e 03 8f d3 3b 1a c8 aa bd ab 38 8d 3c
       0.14153504 0.0064562573 -0.083389476 0.017238935
000100 de 06 58 3d aa 52 5a be cf 7a 04 3d 9c c2 13 3e
       0.052740924 -0.21320596 0.032343682 0.14429706
000110 1c 30 dd bc 92 ee fe 3d 15 c5 2a 3e 3a ee 82 3e
       -0.02700048 0.124478474 0.16676743 0.25572377
000120 1f dc a5 3d 26 93 02 3e cb d3 5c bd 02 0a 8b bd
       0.080986254 0.12751445 -0.05391292 -0.06789018
000130 9b b6 86 3e 3f 3f 86 3d 59 f7 1e 3e 44 61 87 3e
       0.26311192 0.06555032 0.15524043 0.26441395
000140 fa a2 a8 bd 9b 0d 50 bd a5 02 34 be b6 17 d6 3d
       -0.0823421 -0.050794225 -0.17579134 0.10453741
000150 3b 39 c2 bc c2 f6 0a bd 4c b8 0b bb f2 22 1f bd
       -0.02370893 -0.033926733 -0.0021319566 -0.038851686
000160 bc f5 7a 3d 4a 4b ab bd 28 85 e7 3b 1b d9 11 3e
       0.061269507 -0.083639696 0.007065434 0.14242975
000170 8d bf 02 bd 03 91 d2 bc e5 64 15 3e 69 e1 a1 3d
       -0.03192096 -0.025703913 0.1458927 0.07904322
000180 82 21 04 3d fd a8 d1 bd 43 23 0e 3e 46 5b 15 3e
       0.032258518 -0.1023731 0.13880639 0.145856
000190 51 42 c2 3d 52 ef 2d 3e bc 9b 81 3c 42 34 13 3e
       0.09485305 0.16985825 0.01582133 0.14375404
0001a0 f7 53 ed bd 1b 9d c4 bd 27 e2 27 3d 09 31 52 be
       -0.11588281 -0.09600278 0.04098716 -0.20526518
0001b0 c0 4b 52 3e d6 c2 2a be be 7c 18 be 8c 47 01 3d
       0.20536709 -0.16675887 -0.14891335 0.031562373
0001c0 f0 77 b6 3d a1 f9 3e bd c0 ed ad bc 43 e7 1f 3e
       0.08909595 -0.046624783 -0.021231532 0.15615563
0001d0 88 96 38 be df a3 06 be 80 ce b8 bd 7a 5a a7 3d
       -0.18026173 -0.1314845 -0.09023762 0.08171554
0001e0 f4 e1 2f be 95 53 1a 3e 3c ea 8e 3d 29 4f c9 3d
       -0.17176038 0.15070947 0.069782704 0.09829552
0001f0 aa 24 3c be 95 f0 26 be 83 fe 16 be 9e b9 df 3d
       -0.18373361 -0.16302712 -0.14745526 0.109240755
000200 cf 90 61 be 28 d0 17 be c2 8f c4 bc 3c c4 aa bd
       -0.22027896 -0.14825499 -0.02399433 -0.0833821
000210 80 bf 7d be 1f 9d 26 be 87 d6 03 3e d6 5a fc bd
       -0.24780083 -0.16270874 0.12874804 -0.12322013
000220 20 48 e2 bc 30 8d 25 3e 66 a0 0e bd de 85 3c 3e
       -0.027622283 0.1616714 -0.034820937 0.18410441
000230 7c dd bf 3d 46 a6 87 bd da 95 51 be a6 40 1d 3d
       0.09368417 -0.06623511 -0.2046732 0.03839173
000240 a0 6a ba 3d 77 6a fa 3d dd f4 b7 bd d9 c8 1f be
       0.09102368 0.12227338 -0.08982251 -0.15603961
000250 d3 7d 12 3e c0 18 7b bd 68 51 35 3e cf 5e 2d 3e
       0.1430581 -0.0613029 0.17706835 0.16930698
000260 f0 80 3e 3e ef 4b fd 3c 77 9d 82 bd 3e c1 82 3e
       0.18603873 0.030919997 -0.0637769 0.25538057
000270 1e e6 dd 3c a2 4c 54 3e 7e 6d 01 3e 2e 10 fe 3d
       0.027087267 0.20732358 0.12639424 0.1240543
000280 9e dd ec 3d 21 8d 82 be 49 8c b5 bd 9f 3f 01 3e
       0.115657076 -0.25498298 -0.08864648 0.12621926
000290 6e 97 41 bd 9c 42 64 bc 13 d7 07 3e 0f 4d 87 bd
       -0.047263555 -0.013931897 0.13265638 -0.06606495
0002a0 af ea 61 3e ca d9 1f 3d cc 7f 26 be 49 9d 52 be
       0.22062181 0.03902606 -0.16259688 -0.20567812
0002b0 86 8a d2 3c db 8e 1a be b8 af 88 3e 4b 5f c4 3d
       0.025700819 -0.15093558 0.26696563 0.09588488
0002c0 f3 66 76 be 36 d4 74 bc 47 bd dd bc 0b df c2 bd
       -0.2406271 -0.014943173 -0.027067794 -0.09515198
0002d0 f2 71 91 bd 00 08 63 3b 5b 49 48 bb 31 9d 10 3d
       -0.071018115 0.003464222 -0.0030561301 0.03530616
0002e0 f2 c7 4a 3d d2 3f 01 3e e1 7f 90 bd af 3d 34 3e
       0.04950709 0.12622002 -0.07055641 0.17601655
0002f0 bc aa 95 bd 9c ce 00 bd cd b1 12 3d 8a 76 cb bc
       -0.073079556 -0.031447038 0.035814095 -0.024836797
000300 45 71 73 be f8 b6 9c bd c2 32 8a 3d 7f b0 34 3d
       -0.23773678 -0.07652086 0.067479625 0.044113632
000310 20 c1 db bd 9c e7 d8 bc cd ad 7a be 30 5e 35 3e
       -0.10730195 -0.026477627 -0.24480362 0.17711711
000320 c2 68 87 be e1 f2 d7 3d 58 77 9b bd 45 80 98 3c
       -0.2644711 0.10544372 -0.075911224 0.018615851
000330 a9 e7 bb bd c6 64 75 be 75 8a 02 be 8c 66 34 be
       -0.09175045 -0.23964223 -0.1274813 -0.17617244
000340 55 19 1e be dc 5b 54 bd a6 7e 86 be c1 cd 39 be
       -0.15439351 -0.051845416 -0.262685 -0.18144895
000350 db 16 90 bd 7c dc 47 3e 9e 0c 06 3d 39 df 3a 3e
       -0.07035609 0.19517702 0.032726876 0.18249215
000360 c2 dc 46 be 79 99 e5 3c 3a 4f 55 be 0c ef b2 3d
       -0.1942015 0.028027283 -0.20831004 0.08737001
000370 4b 39 42 3d 6a a5 21 3d e7 a4 82 3e 43 e2 36 bd
       0.04741792 0.03946439 0.25516436 -0.044649374
000380 9d 7e 6a bd 24 b1 03 3e 2a 58 47 3d 0c 9a 1c be
       -0.057249654 0.12860543 0.048668064 -0.15293139
000390 2e 2e 9a 3d 8e ca ba bd a1 70 8b be cf e6 89 3e
       0.07528339 -0.091206655 -0.27234367 0.26933905
0003a0 8d 58 92 3d 67 b3 f6 bb 9b 0c 05 3e f4 79 53 bd
       0.07145796 -0.0075287106 0.1299309 -0.051629975
0003b0 38 a9 97 3d 54 46 2c 3e 32 0b bc bd b9 02 47 3e
       0.07405323 0.16823703 -0.09181823 0.19434632
0003c0 3d 83 4a be 10 2b c8 bd 5b bb ac bc 65 63 b6 bc
       -0.19776626 -0.097738385 -0.021085432 -0.022264192
0003d0 ea 0f 75 be 85 b1 87 3e 94 78 47 3e e1 e2 28 3e
       -0.23931852 0.26502624 0.1947959 0.16492797
0003e0 25 fc d1 3c fa e2 0b 3e 95 cc 87 bd 8d 55 03 3d
       0.025632927 0.13660803 -0.06630818 0.03206401
0003f0 bf 8c d3 bd 2e 07 53 bd 0c 42 85 be d7 4e 73 3d
       -0.103295796 -0.05152052 -0.26026952 0.05940136

gcn2.bias f4 [64]
000000 03 6b 80 3c 5c a5 1f bd 06 15 50 bc 8f 91 11 3c
       0.015676027 -0.03897606 -0.012700325 0.0088848015
000010 76 91 75 3d 3e fe 0d 3d 52 f5 8d ba 32 d0 be 3c
       0.059953175 0.034666292 -0.0010830557 0.023292635
000020 c2 f2 af 3c df cb 05 3d 6b 65 0f 3d ec 46 2f bc
       0.02147806 0.03266513 0.03500883 -0.010698061
000030 f6 38 87 3d 44 b2 00 3d 8e ce 0b 3d f8 8c 24 3c
       0.06602661 0.031420007 0.034132533 0.010043375
000040 70 18 78 bc 90 c6 ea 3c 08 e4 51 bc a6 35 c7 bc
       -0.015142545 0.028659135 -0.012810715 -0.024317574
000050 5b ab af bc 4a ae 1f bd 25 d1 cd bb c3 b3 7c bb
       -0.021444013 -0.038984574 -0.0062810355 -0.0038559295
000060 73 d9 c3 bc 51 75 80 3d f0 84 0c bd d0 c2 65 bc
       -0.023907399 0.06272376 -0.034306467 -0.014023498
000070 f0 f7 30 3d f5 1e fc 3c 50 d2 9a 3d 6e a9 01 bc
       0.0432052 0.03077648 0.07559645 -0.00791393
000080 29 a8 1e 3c 91 fb 0a 3d 55 17 bd bc a8 f9 4e bd
       0.009683647 0.03393132 -0.023082415 -0.05053106
000090 10 8f dd 3c eb 65 61 3d 0f d7 94 bc 36 64 14 bc
       0.027045757 0.055028837 -0.018168954 -0.009057095
0000a0 11 df 19 3d e6 e8 37 3c 8f e9 fd 3d 9d 15 30 3d
       0.03756625 0.011224961 0.123980634 0.042989362
0000b0 e1 b0 d1 3c 8c a1 1e 3d 53 fc 09 bd 67 2b 0f 3c
       0.025597038 0.03872828 -0.0336879 0.008738375
0000c0 11 4d ed 3c 47 43 1d 3c b8 ae 46 3d 83 8b d7 3c
       0.028967412 0.00959856 0.04850647 0.026311642
0000d0 8d 42 54 3d 70 f4 71 bd 75 7e 78 bd 78 28 e3 3c
       0.05182128 -0.059071004 -0.060667474 0.027729258
0000e0 6b f4 ec bb d2 a2 61 3d 93 13 29 3d 10 9a fb 3c
       -0.0072312853 0.05508692 0.041278433 0.030713111
0000f0 4a 3f 93 3d d7 8e 31 3d 47 7a c4 bc 58 4b 30 3d
       0.07189806 0.043349113 -0.023984088 0.043040603

gcn2.lin.weight f4 [64, 64]
000000 58 ad 2f be ae 03 3e 3e 49 bf 3b bd c6 19 00 3d
       -0.17155969 0.18556091 -0.04583672 0.03127458
000010 23 3f 82 bd d1 d4 1c 3e a7 5e e4 3d 3a 19 00 bc
       -0.063596986 0.15315558 0.11150866 -0.0078185145
000020 f3 e2 8d be 0c 5d 16 3d 6d d9 4e 3e c4 37 9c bd
       -0.2771221 0.03670983 0.20200129 -0.07627824
000030 d7 f6 40 3d 37 0c a5 3d 4c 53 04 3e 24 51 97 bd
       0.047110405 0.080589704 0.129224 -0.07388523
000040 ca 96 54 ba 4b 6c 3f 3d 16 b5 e0 3c 92 08 98 be
       -0.00081096275 0.046734136 0.027430099 -0.2969404
000050 9b 1a 82 3c 40 19 e2 bd 0a 9a a1 3d 53 d8 3d 3d
       0.015881827 -0.11039972 0.07890709 0.04634888
000060 2f dc a7 bc c3 e0 ac 3c 4b 88 ba 3d da 0d 82 bc
       -0.020490734 0.021103268 0.09108027 -0.015875746
000070 8d ed 88 3e f2 f9 ed 3d 76 33 e0 bb 8e b1 02 bc
       0.26743737 0.11619939 -0.006842072 -0.007976903
000080 39 77 c2 3d dd 0e 85 3e 10 01 0d bd 7f fa 9c bd
       0.09495396 0.25987902 -0.03442484 -0.07664966
000090 de 5e 87 be 88 f0 54 3e 86 46 0d 3e c8 a6 04 3e
       -0.26439565 0.2079488 0.13796434 0.12954247
0000a0 c4 36 a8 bd 36 6d 63 3e af 11 63 3e b2 22 82 3d
       -0.08213571 0.2220963 0.22174715 0.06354274
0000b0 66 b5 65 bd f7 4d 9c 3c bc 94 6e 3e c1 bc 13 bc
       -0.0560812 0.019080145 0.23298925 -0.00901717
0000c0 97 42 5d be ef 7d f5 bc e4 8b 0d be 83 2e 92 3c
       -0.21607433 -0.029967276 -0.13822895 0.017844444
0000d0 29 d9 2f be c7 23 d7 3d ed 0e 80 be 43 b7 cc 3d
       -0.17172684 0.10504871 -0.25011387 0.09995892
0000e0 df 76 f2 bc 8b c6 35 3e 24 0b 4c 3e e1 29 a9 bd
       -0.029597698 0.1775152 0.19926125 -0.08259941
0000f0 7c 7e c5 bd 60 6b 14 be 0c 2b ed 3d 90 0a f3 3d
       -0.096432656 -0.14494085 0.11580476 0.11867249
000100 cb e5 48 be 8c 06 a1 be 0e a6 2e be a5 71 3a 3e
       -0.19618909 -0.31450307 -0.17055532 0.18207414
000110 b3 df d4 3b ff 49 44 be 41 fe 6a 3d 8d d5 94 3e
       0.0064963936 -0.19168852 0.05737138 0.29069176
000120 be 01 00 3e 85 e4 43 be 52 ce 87 3e f0 95 90 be
       0.12500665 -0.19130142 0.26524597 -0.28239393
000130 18 2a 8c be 6b f4 5c 3e 98 99 a6 bd 3f 30 0a 3e
       -0.27375865 0.21577613 -0.081347644 0.13494967
000140 32 a7 e0 3d cf d4 88 3d 0c 6c 27 3e 39 43 77 3d
       0.1096939 0.06681215 0.1634981 0.060366843
000150 54 b9 fe 3d af c8 92 3d 43 69 88 3d b6 86 2e 3e
       0.12437692 0.071671836 0.06660702 0.17043576
000160 be 6a eb 3d c7 da 55 3d d0 24 8a 3c 5a e3 90 be
       0.11494969 0.052210595 0.016863257 -0.28298455
000170 9b 13 28 3e 8f 8b 0c 3e 0b 0a 42 be 90 b5 5d 3e
       0.16413729 0.13725112 -0.18949144 0.21651292
000180 94 8e 43 3c 65 d1 9f 3c b9 c6 80 3e 5b 49 06 be
       0.011935849 0.019509027 0.25151613 -0.1311392
000190 e8 37 1f bd 37 08 e1 3c 28 c8 eb 3d c6 6d 81 3e
       -0.038871676 0.027469737 0.11512786 0.25279063
0001a0 45 eb 43 be 53 6d 25 be 58 fe 32 3e 39 5d 2e 3d
       -0.19132717 -0.16154985 0.17479837 0.042569373
0001b0 f8 3f 47 3e c1 a2 2f be 0d 12 2a 3e 53 64 14 bc
       0.19457996 -0.1715193 0.16608448 -0.009057122
0001c0 32 1e 3c be ed b2 35 bc 6a 50 0f be 3e 68 0c 3c
       -0.18370894 -0.0110900225 -0.1399552 0.008569775
0001d0 8f 14 5b 3d fb 61 26 be c5 b8 ce bd 53 2e 28 3e
       0.053486403 -0.16248314 -0.10093836 0.16423921
0001e0 62 72 a2 3e 6e e6 85 3e f5 55 cd 3d c8 78 f7 bc
       0.31727892 0.26152366 0.10026161 -0.03020896
0001f0 5a 33 b7 3b b9 40 53 be d1 dd 91 3e 55 ce d4 bd
       0.0055908384 -0.20630158 0.28489545 -0.10390917
000200 27 0e a5 bc 04 d3 0c 3e 9a 6a fd 3d 4a 92 03 3e
       -0.02014835 0.13752371 0.12373848 0.12848774
000210 df fe 71 3d c2 0d f5 3b cb 95 b6 bd e8 a3 12 be
       0.059080955 0.0074784467 -0.089152895 -0.14320338
000220 27 57 58 bd e5 24 61 3e 15 ee fb 3d 36 a9 b1 3d
       -0.05281749 0.2198673 0.1230127 0.086748526
000230 55 4e 09 bd 12 1f c8 3a c2 f4 c0 bd ce ab eb bd
       -0.03352197 0.0015268049 -0.09421684 -0.115073785
000240 1d 54 5d bd 0f bb 72 bb 6b 68 34 3e 99 ca 3c 3c
       -0.054035295 -0.0037037765 0.17617957 0.011522912
000250 37 3e bf 3d de 96 93 bd 98 72 84 3d fb 85 ab 3d
       0.093380384 -0.0720651 0.064671695 0.08375164
000260 22 f9 b2 bd e2 cf ee 3d a3 bd da 3d 69 b7 91 bc
       -0.087389246 0.11660744 0.106807016 -0.017787652
000270 1a 26 83 3d f3 03 79 3e ce 2c ce bd 48 b3 ee 3c
       0.06403752 0.24317913 -0.100671396 0.029138222
000280 26 61 49 bd 4a 23 f0 bb 73 9e c0 bd d5 61 06 3e
       -0.049164914 -0.0073284255 -0.09405222 0.13123257
000290 f6 52 35 3e 60 bb 86 be fb 0a e0 bb aa f9 63 be
       0.17707428 -0.2631483 -0.0068372465 -0.22263208
0002a0 51 0b a6 3d 02 19 84 bd c4 ef 5b be 1d 97 8b be
       0.08107627 -0.06450082 -0.21478182 -0.27263728
0002b0 4b 82 82 3d 2d aa 28 3e 60 39 18 3e 4a 93 6e 3e
       0.06372508 0.16471167 0.14865637 0.23298374
0002c0 a1 55 12 be c0 27 50 be b3 00 7c bd c8 3a 70 3e
       -0.14290477 -0.20327663 -0.061524104 0.23459923
0002d0 40 d7 ed 3d 0e f2 14 bd 8b aa 7a bc 93 bb 36 3e
       0.11613321 -0.036363654 -0.01529945 0.17844991
0002e0 ba c8 8a be e0 0e 94 be 18 2d 44 bd 61 ca 1e be
       -0.27106267 -0.289176 -0.047894567 -0.15506889
0002f0 82 6d 99 3d 95 11 11 3d d0 66 91 bd 52 43 97 3d
       0.0749159 0.03541716 -0.07099688 0.07385887
000300 a0 0e 47 be f4 d0 0d be e7 64 41 be 8d 70 0a 3e
       -0.19439173 -0.1384924 -0.18886147 0.13519497
000310 db cc ca 3d 7d 36 68 be 6f 6d 0e 3c 95 d2 36 3e
       0.09902354 -0.22677036 0.008693083 0.17853768
000320 2f c6 4a 3d c3 29 16 3d 09 bf 5a 3e ac 7b 51 be
       0.04950541 0.03666092 0.21361937 -0.20457333
000330 10 8b d0 3d df fa f3 bb 6b da 19 bd 8d 3d c3 3d
       0.10182774 -0.0074456776 -0.037561815 0.09533224
000340 bb 4b c3 be 72 50 97 bd 02 6d b4 bd 22 ab 90 3d
       -0.38143715 -0.073883906 -0.08809854 0.07063891
000350 f7 3a 3a 3e 69 fd 40 3e a3 3b 80 3e f7 ea 8e 3e
       0.18186556 0.18846668 0.250455 0.2791364
000360 6a 63 2f be a5 19 b0 3d 51 e6 67 be 25 09 75 3d
       -0.17127767 0.08598641 -0.22646452 0.059823174
000370 d5 da 59 3e 44 de 55 be 21 bf bd bd 8f 51 ae bd
       0.21274884 -0.20885569 -0.092649706 -0.0851165
000380 15 49 83 3d 4a 65 38 3e 15 dc 07 3d de 2e 37 be
       0.06410424 0.18007389 0.03316887 -0.17888972
000390 e3 c0 b0 3d 48 80 6f 3e d5 b6 64 be 84 aa 42 3e
       0.0863054 0.23388779 -0.2233537 0.19010359
0003a0 f3 1e ee bd 19 36 4f 3e c1 a1 41 3c 35 6a 80 3d
       -0.11626997 0.2023548 0.01181835 0.062702574
0003b0 13 e8 04 be 36 09 3c bd 13 03 88 bd 96 bd c0 3d
       -0.12979154 -0.04590722 -0.06641211 0.09411161
0003c0 e2 03 c0 bd 91 66 94 bc d6 31 12 3e e1 b0 17 be
       -0.093757406 -0.018115314 0.14276823 -0.14813568
0003d0 c4 bc e2 3b bc 2d 99 3e 93 06 02 bd 1c 52 bf bd
       0.0069194753 0.29917705 -0.03174455 -0.09341833
0003e0 a7 ce 0a 3e 8c d6 76 3e 59 23 fe bd b8 69 44 3d
       0.13555394 0.2410528 -0.12409086 0.047952384
0003f0 00 99 d0 bd 65 0c 6e 3e 14 dc 5a 3e d3 76 8a be
       -0.101854324 0.23246916 0.21373016 -0.2704378

gru.weight_ih_l0 f4 [192, 64]
000000 35 5d 51 3b 03 ee 43 be 98 d6 77 3e ce 4d 15 be
       0.0031946425 -0.19133763 0.24202955 -0.14580461
000010 40 78 22 3e ff 47 19 3e 07 d0 83 3e 9c 63 2c be
       0.15866184 0.1496887 0.2574465 -0.16834873
000020 12 f3 29 3e 60 fa f5 3d f1 b5 03 bf 7c d3 5b 3e
       0.1659663 0.12010646 -0.51449496 0.21467394
000030 bf 0d b3 3d cc 34 fc 3d 7e b7 be 3e c3 9a 6a be
       0.08742856 0.12314758 0.37249368 -0.229106
000040 46 f7 1a bd 2f 75 75 be fd bc 8a bd 23 f1 56 be
       -0.037833475 -0.23970483 -0.06774328 -0.20990424
000050 16 e0 83 be 97 5e 68 3d f8 d6 79 bd 2e 7c 2f 3e
       -0.25756902 0.056730833 -0.060996026 0.17137215
000060 95 84 8a 3e 2c 61 37 bc 45 1d 38 bd 73 04 9f bd
       0.27054277 -0.011192601 -0.04494979 -0.077645205
000070 03 2a 57 bd e5 56 14 3e 57 f9 75 bd 31 31 73 3e
       -0.0525303 0.14486273 -0.060052242 0.23749234
000080 04 c4 bc be f9 79 b5 be aa b3 1b 3e e3 ae 05 bd
       -0.36868298 -0.3544462 0.15205255 -0.032637488
000090 d4 98 8c bd 83 6b b9 3e 0e 18 ae be d3 55 21 3e
       -0.06865087 0.36214837 -0.34002727 0.15755396
0000a0 83 f1 1e be cf 43 00 bd cf dc fa bd 92 5a d4 bd
       -0.15521817 -0.031314667 -0.12249147 -0.103688374
0000b0 13 cd 17 3e 8a 91 d1 3d 8b 4e 85 3d 65 48 03 3e
       0.14824323 0.102328375 0.065091215 0.12820585
0000c0 47 17 02 be 86 18 f4 3d 4b ed 64 3d d7 64 e4 3d
       -0.12704192 0.1191874 0.055890363 0.11152046
0000d0 4f 88 85 be b3 54 84 bd 5d 05 21 3b 7c f3 ce 3d
       -0.26080558 -0.064614676 0.0024569847 0.10105035
0000e0 b3 9e ca bd 74 c3 2c be e4 5c b5 3e ca af 07 be
       -0.09893551 -0.16871434 0.35422432 -0.13250652
0000f0 b1 0b 8c bd 4e 15 2d be 2b c8 32 be dd 23 b6 3d
       -0.068381675 -0.16902658 -0.1745917 0.08893559
000100 30 85 19 be 03 1d cb bb c8 6f 4b 3e 26 99 b0 3d
       -0.14992213 -0.006198527 0.1986686 0.08622961
000110 85 26 14 3e b5 b9 88 bc 1f 10 b7 bc 6d fa 21 3d
       0.14467819 -0.016690115 -0.022346554 0.039545465
000120 d4 ef a0 3d ac e7 34 3e df b6 0b 3e 30 54 fc bd
       0.078582436 0.17666501 0.13643979 -0.12320745
000130 ea c6 1b be 69 58 2e 3d 0a 06 c8 3c ff f3 67 bb
       -0.15212598 0.042564783 0.024416942 -0.0035393236
000140 fc ed 27 bd a8 fc 0c 3e 5d d6 bb 3d 35 07 b5 bd
       -0.040998444 0.13768256 0.09171746 -0.08839265
000150 cd 7a 0b 3e 5d da 55 be 3c c1 29 3d b1 57 1a 3d
       0.13621064 -0.2088408 0.04144405 0.037681285
000160 80 4e 30 be 14 9c 43 3e 59 95 b4 bd f9 d0 37 3e
       -0.17217445 0.19102508 -0.08817548 0.1795081
000170 f9 7f c2 3d db 7b 37 3d 76 5f 9c bc 38 13 a0 bb
       0.09497065 0.044795852 -0.019088488 -0.0048851036
000180 2b cd 83 3e f7 21 a5 3d d8 46 c1 bb e3 57 4c be
       0.25742468 0.08063119 -0.005898338 -0.19955401
000190 07 63 b1 3d 61 b8 da bd c6 f2 31 bd a6 1d 85 3b
       0.08661466 -0.10679699 -0.043444417 0.0040623723
0001a0 e5 4c 0d 3e 02 bd d1 3d 5a b0 81 3b 83 2a 2e 3e
       0.13798864 0.102411285 0.0039577903 0.17008404
0001b0 e2 7e 0f 3e 65 ed fd bd f7 12 9c 3c da af 67 3c
       0.14013246 -0.12398795 0.019052012 0.014141047
0001c0 9d b4 4f bd ff ad d0 3d 93 a0 35 3e 9e 57 2e 3e
       -0.050709356 0.10189437 0.17737035 0.17025611
0001d0 33 ed 3c 3b cf 26 4b be 4d 70 7e bc 9a d0 52 3d
       0.0028827905 -0.19839023 -0.015529704 0.05146847
0001e0 45 8e 6e be b7 4e ae 3d 5a 2e 66 bd eb ce 8b 3e
       -0.23296459 0.085111074 -0.056196548 0.27306303
0001f0 e5 4d a9 3d ce 9f c1 bd b5 7c 20 be 3a e2 8a bc
       0.0826681 -0.094543085 -0.15672572 -0.016953576
000200 f1 db 0b be cd 6b 54 3d a5 ad 9b 3d 67 28 cb bd
       -0.1365812 0.05186062 0.076014794 -0.099198155
000210 f3 42 f2 bd 4f 82 b0 3d 37 98 c4 bc 58 e6 62 be
       -0.11829176 0.086186044 -0.023998363 -0.22158182
000220 c4 c5 9f 3d 58 db c6 bc 09 37 9d bd 4e 68 b4 3c
       0.07801393 -0.024274513 -0.07676513 0.022022393
000230 93 d9 c7 bd af ae a1 bc ae 04 6c bd 75 39 bd be
       -0.09758296 -0.019736616 -0.05762165 -0.369579
000240 33 d7 c5 bd b5 f5 f7 bc fb 59 cf 3d 66 b9 79 bd
       -0.096601866 -0.03026853 0.10124584 -0.060967825
000250 05 a3 1a be ee b2 94 3d 41 ca 12 be b0 ba 13 3e
       -0.1510125 0.07260691 -0.14334966 0.14426684
000260 a1 ef 80 3c aa c7 09 3c 2b 3d 98 bd ae f3 8f be
       0.015739264 0.00840942 -0.07433542 -0.281156
000270 8f aa 45 3d 67 2c a2 3c fd b6 bb bd 89 b8 a0 3c
       0.04825836 0.019796563 -0.091657616 0.019619243
000280 17 e2 8f be bd 2b 6e be 29 8f 9f 3e 30 e4 3f 3b
       -0.2810218 -0.23258872 0.3116391 0.0029280297
000290 66 c6 85 3d f7 01 69 bd 0c 33 eb bd 2c 85 25 3e
       0.06531982 -0.05688664 -0.11484346 0.16164082
0002a0 2c 6a d5 bd ac 08 0e bd 6b cc 00 be 79 70 0a be
       -0.10420641 -0.03467624 -0.1257798 -0.13519467
0002b0 14 c4 20 bd 2b 29 5a 3e ab ed f4 3d 99 7d 88 be
       -0.039249495 0.21304767 0.11959394 -0.26658323
0002c0 9e 0d 11 3d e5 25 3d 3d b2 cf 37 bd 0c d5 07 3e
       0.035413377 0.046178717 -0.044875808 0.13264865
0002d0 16 14 26 be cb a9 4f be 53 39 18 3d 06 3e 3f 3c
       -0.162186 -0.20279615 0.037164044 0.011672502
0002e0 96 25 39 be f5 b9 aa 3d 57 a3 cf bd e8 df a1 3b
       -0.18080744 0.0833625 -0.101385765 0.004940022
0002f0 dc 70 2e 3d 59 4f 0c be f3 6f 51 3d 13 71 57 3c
       0.0425881 -0.13702144 0.051132154 0.013149518
000300 88 36 f6 bd f2 60 ba 3d 20 95 ec 3d ae a0 a6 3d
       -0.1202212 0.09100522 0.11551881 0.08136116
000310 14 21 28 bd f9 0d e3 3d 26 6e a5 bc c9 84 0d 3b
       -0.04104717 0.110866494 -0.020194124 0.0021594039
000320 cf 57 07 3e 25 ef d3 3d 5c 7d 5f bd da 8e 2e 3a
       0.1321709 0.103483476 -0.05456291 0.000665886
000330 29 6d cf bd 59 17 b0 3d 66 fe 8c bd b4 a3 55 be
       -0.101282425 0.08598203 -0.0688446 -0.20863229
000340 7e 36 90 bd e7 06 72 bd 1f 1f 7b bd e3 9a b6 3d
       -0.070416436 -0.059088614 -0.061308976 0.08916261
000350 3c 55 83 bd ac 9d e7 bd 79 3c 9c bc 25 d5 04 3e
       -0.064127415 -0.113093704 -0.019071804 0.12971933
000360 45 05 7a bd 85 26 8c 3d 02 a4 99 bd a9 6b 3b 3c
       -0.06104018 0.068432845 -0.07501985 0.011439242
000370 d8 6a be 3d 60 f3 6a 3d 38 44 f3 bd 35 a2 4d 3d
       0.092977226 0.057361007 -0.11878246 0.05020352
000380 9a 83 0a bc 96 bf 1b bd c1 bf ed 3d 56 c7 ca bd
       -0.008454228 -0.038024507 0.1160884 -0.099013016
000390 cc 6f b2 3d e2 ec 98 3c 41 5e 2e 3c ef 5b fd 3b
       0.0871273 0.018667642 0.010642589 0.0077319066
0003a0 57 11 14 3e ad 4e 6f 3d ab 6a c9 bc b3 d9 4e 3d
       0.1445974 0.05842464 -0.024586996 0.050500583
0003b0 ff 08 a1 3d 49 49 1e bd f3 6d 24 bd db 7d e2 3d
       0.07863044 -0.03864411 -0.04014392 0.11059161
0003c0 32 5c b4 bd 1a c0 18 bd 18 8f 03 3d c6 3e 9c 3d
       -0.08806647 -0.037292577 0.032118887 0.076291606
0003d0 03 52 6a 3d 9c e8 f2 bc e1 5a 77 3c 0a 0f a3 bd
       0.05720712 -0.029651932 0.015097351 -0.07961853
0003e0 b1 df 90 3d 2b 53 59 bc cf 22 93 bd ee 45 69 3d
       0.07073916 -0.013264458 -0.071843736 0.056951456
0003f0 08 4c 60 bd b3 cd 33 3d 89 da c3 bd 04 50 1e 3e
       -0.05476001 0.043897342 -0.09563167 0.15460211

gru.weight_hh_l0 f4 [192, 64]
000000 ef 05 fe 3d 4d 3b 7e 3d 59 4e 22 3e a0 cc 82 bd
       0.124034755 0.062068272 0.158502 -0.06386685
000010 d4 d7 bd bd 8f e7 e8 3d 55 1a 7b 3d 34 87 3c be
       -0.092696816 0.11372291 0.06130441 -0.18410951
000020 0e 6c 0d 3b 9a 0b f3 bc e9 0f b9 bc 7b e5 00 be
       0.0021579298 -0.029668618 -0.022590594 -0.1258754
000030 37 0b 05 3e 73 16 45 be af 7c ec bd 7a 3a 4c be
       0.1299256 -0.19246845 -0.11547219 -0.19944182
000040 63 78 6f 3d ab 18 5c be 85 3b af 3d 02 7e 1a 3c
       0.05846442 -0.21493785 0.08556274 0.009429457
000050 d8 75 83 bc 8a b1 f1 bd 69 0b 0a 3d 94 1a 02 3e
       -0.016047403 -0.11801441 0.033702288 0.12705451
000060 90 db 33 bc 7c db 60 be 44 56 1d 3d d0 76 c6 bd
       -0.010977641 -0.21958727 0.038412347 -0.096906304
000070 22 2d ab 3a 13 e4 a8 3d 6b b0 66 bd 51 75 da 3d
       0.0013059715 0.08246627 -0.05632059 0.106669076
000080 89 25 18 be 25 ff 11 3c e4 16 bc 3c ab 30 68 3c
       -0.14858069 0.008910929 0.022960134 0.01417176
000090 09 3e 42 3d a1 44 0a be 88 e6 f9 bd ea 21 1b 3e
       0.047422443 -0.13502742 -0.122021735 0.15149656
0000a0 47 6f 20 3e 7c 76 28 bd 65 af 8b 3d 72 8d 79 bc
       0.15667449 -0.04112862 0.06820563 -0.015231477
0000b0 92 d1 f8 bc cc b6 98 3c 11 9f f8 bc 3f 7a c5 bc
       -0.030373368 0.018641852 -0.030349286 -0.024106143
0000c0 09 50 de bd ed b8 82 bd 12 5f 03 3d 31 fc 08 be
       -0.10855109 -0.06382928 0.032073088 -0.13377453
0000d0 d0 9d cd 3d 22 d7 de bd ee 63 16 3d de ec 32 be
       0.10039866 -0.10880877 0.036716394 -0.1747317
0000e0 4b f6 eb bd 79 14 eb 3c f6 9d 4f be 15 87 f7 3d
       -0.11521586 0.028696286 -0.20275101 0.12086312
0000f0 73 81 b8 3d a2 28 09 3e eb ac e7 bd 0b 65 07 3e
       0.090090655 0.13394406 -0.11312278 0.13222139
000100 31 46 81 bc 5a e4 4f be 1e 58 78 be c3 99 a4 3d
       -0.01578054 -0.20301953 -0.24252364 0.0803714
000110 4f ee e6 bc 66 75 f0 bc 67 63 ca bd 5a 9a 19 3e
       -0.028189806 -0.029352855 -0.09882241 0.15000287
000120 52 8d 06 3e b2 58 84 be 4a d5 47 be 56 48 c2 3d
       0.13139847 -0.2584892 -0.19514957 0.09486453
000130 21 16 7c bc 53 f3 85 3d b2 7c 82 3d 57 dd 33 3d
       -0.015386135 0.06540551 0.0637144 0.043912258
000140 91 df b6 bc 2d cf 00 3c 05 aa 57 3e 8f 4a fe bd
       -0.022323402 0.007861895 0.21060951 -0.12416565
000150 6d ed 15 3d 6e 64 be 3d 35 93 24 bd 02 5d 7b bd
       0.03660338 0.09296499 -0.04017945 -0.061367996
000160 cb ec 89 bd a8 ad 1f be cc d8 db 3c 9b d5 f6 3c
       -0.06734618 -0.15593588 0.026836775 0.030131152
000170 9e 51 0e be 6a da bf 3d a7 cf c0 bc b7 e4 0e 3e
       -0.13898322 0.09367831 -0.023536516 0.13954435
000180 19 e4 34 3e 78 cf a0 3c a7 e6 b1 bb 34 fa bf 3d
       0.17665137 0.019630179 -0.005429107 0.09373894
000190 d2 b9 2c bd 5d 42 70 bd 15 0f 95 3d 0b 58 24 be
       -0.0421694 -0.05865704 0.07278267 -0.1604921
0001a0 72 1b 29 3d 45 cc d6 bc cb 10 2c be 90 7f 39 bc
       0.04128594 -0.02622045 -0.16803281 -0.011321917
0001b0 85 4f 90 bd f3 c5 68 3d 94 25 e2 3c f0 41 55 3e
       -0.07046417 0.056829404 0.02760581 0.20825934
0001c0 f8 8a 58 3d 07 83 0d 3d ec 57 56 3e 2f 89 4a 3e
       0.052866906 0.034548786 0.20931977 0.19778894
0001d0 8f 4d 36 be b0 96 79 3c b7 17 1e be 20 c0 34 3e
       -0.17803024 0.015233681 -0.15438734 0.17651415
0001e0 0d 3b 7e 3d 02 21 41 be 9b 44 7f 3d 13 f1 7e 3d
       0.062068034 -0.18860248 0.062321287 0.062241625
0001f0 cf c6 26 be d4 0e 0e be ec 04 07 3e 5d f2 86 be
       -0.16286777 -0.13872844 0.13185471 -0.26356784
000200 3c a7 53 bd 46 e4 2e 3e b3 09 09 3e 3a 45 82 3e
       -0.05167316 0.17079267 0.13382606 0.2544344
000210 a2 16 6d 3e 3f 21 94 bc 91 0b 69 be 27 ce da 3d
       0.23153165 -0.01808226 -0.22758318 0.10683852
000220 9c 66 ee bd 72 f1 ae 3e cf de f2 3c 5f 79 62 be
       -0.11640665 0.34168583 0.029647259 -0.22116612
000230 b8 54 9f 3c e9 89 be bc 7e d1 75 be 34 13 8e 3d
       0.019449577 -0.02325912 -0.24005696 0.069372565
000240 68 eb 06 be c2 a2 84 3e d8 39 a5 3d 7e a8 56 bb
       -0.13175738 0.25905424 0.080676734 -0.0032754238
000250 48 d4 d7 3c 94 79 d1 bb f3 e6 b4 be 9b cf 10 bb
       0.02634634 -0.006392667 -0.3533245 -0.0022096399
000260 9f a2 d0 bc f5 15 f4 3d 56 bc 87 bc 40 a6 43 3e
       -0.025468169 0.119182505 -0.016569298 0.19106388
000270 47 38 9b 3b e0 4e 43 3c 20 95 fc bd ea 58 a0 bd
       0.0047369334 0.011920661 -0.12333131 -0.07829459
000280 e9 b5 0a bc 1f c1 58 be f1 6c cb be 8b bd aa 3e
       -0.008466222 -0.2116742 -0.39731553 0.33347735
000290 71 1a 63 be 9f 07 41 3d cc 30 07 3c 44 61 a0 bd
       -0.22178055 0.04712641 0.00825138 -0.07831052
0002a0 2f 38 17 bb d0 60 69 3e 1b a6 98 3e 95 fa 87 3e
       -0.002307426 0.22790837 0.29814228 0.26558366
0002b0 e3 a0 87 bd 5b 96 ee 3d 3b 3d 76 be 88 e8 2b 3e
       -0.066224836 0.11649772 -0.24046795 0.16787922
0002c0 0c cb 03 3e f1 b8 fd 3c c4 87 4d 3d 81 ba ee bc
       0.12870425 0.030971976 0.050178304 -0.029141666
0002d0 67 c1 b8 bd 8e 0e dd 3e 95 07 95 bd a6 ce d0 bd
       -0.090212636 0.43175167 -0.07276837 -0.10195665
0002e0 12 58 7a 3d 07 b1 74 bd 45 cf e7 3b ac c6 b8 be
       0.061119147 -0.05973914 0.007074269 -0.36089075
0002f0 af e2 7b be 68 a1 39 3d 0f 50 7d be 68 1a 49 3e
       -0.24598192 0.045319945 -0.24737571 0.1963898
000300 22 3c 39 3e ef b3 f8 3d ce c0 5a 3d be fa 5e 3d
       0.18089345 0.121436946 0.05340653 0.054438345
000310 07 e4 80 be 7f 18 42 3e 48 99 1c 3d 43 7d ac 3a
       -0.2517397 0.18954657 0.038232118 0.001315989
000320 85 eb 2c be 69 0b 18 3e 06 d5 7c 3e 6e cb 11 be
       -0.16886719 0.14848103 0.24690637 -0.14237759
000330 40 bd 37 3d 09 a4 11 be dd 48 6a bc 94 e7 ee bd
       0.044858217 -0.1422273 -0.0142995985 -0.11665264
000340 a5 89 54 bd e0 29 da 3d 06 6c 01 be e6 79 2b 3c
       -0.05188908 0.10652518 -0.12638864 0.010466075
000350 85 cc 06 be 8d 07 3f be 2e a3 b5 bd dc 9c 90 3e
       -0.13163956 -0.18655224 -0.08869015 0.28244674
000360 a3 52 ee 3d ec 7d 3c be 8f 64 b3 bc 3a 62 13 3d
       0.116368555 -0.1840741 -0.021898536 0.035982348
000370 e7 be dc 3d 6f 23 36 3d 43 17 05 3e fb e6 d6 bc
       0.10778599 0.044467386 0.12997155 -0.026233187
000380 dc f8 08 be 10 a6 ac bd 2c 00 0b 3e fb 7f 49 be
       -0.13376182 -0.084301114 0.13574284 -0.19677727
000390 0d 0f c5 3d 58 9e 66 bd ad 23 a5 bd bb 99 7e 3d
       0.09622011 -0.056303352 -0.08063445 0.062158328
0003a0 7d dc 04 3c f4 d5 00 3e 6d 2a 2b 3e d9 27 a1 3d
       0.008109209 0.12581617 0.16715403 0.078689285
0003b0 e1 93 26 3e 46 d5 7b be ec 94 2f 3d 38 ec 69 be
       0.16267349 -0.24593076 0.042866632 -0.22844017
0003c0 54 87 26 3d f5 7a 5d be b5 5b b6 bd 4c 3e e3 bd
       0.040656403 -0.21628936 -0.089042105 -0.110958666
0003d0 3a c3 8d 3d bf 88 66 3e 16 3c 40 3e 6d 2a 1b be
       0.06922002 0.22513102 0.18772921 -0.15152903
0003e0 40 19 8a bd 26 40 25 3e c3 03 92 be 80 1f c5 3c
       -0.06743097 0.16137752 -0.28518495 0.024062872
0003f0 73 df 8c 3d 1b 4e 01 3d c7 b0 e3 bc c2 2a eb 3d
       0.06878557 0.031568628 -0.027794255 0.11482765

gru.bias_ih_l0 f4 [192]
000000 c4 e5 1a 3d fc 25 f7 3d 76 7f b4 bd dc cc 31 3d
       0.037816778 0.12067792 -0.08813374 0.04340826
000010 07 31 df bd 4f 24 f6 bd cf b6 bd 3d a7 d2 e9 3d
       -0.10898023 -0.12018644 0.092633836 0.11417132
000020 8e e7 34 3e 0c ac 01 3d 52 e8 92 3d 83 78 c0 bd
       0.17666456 0.031658217 0.07173218 -0.09397986
000030 15 74 4c 3d 11 35 89 3d fd 66 ee 3d 42 e8 22 bd
       0.049915392 0.06699575 0.11640737 -0.03977228
000040 3f 97 18 3e bb e0 8f 3e 76 dd 05 be aa 74 54 bb
       0.14901446 0.28101143 -0.13072762 -0.003241817
000050 45 ef 44 bd a9 3e f5 bb 2f 6a e0 bd dd 5e 0b 3c
       -0.048079748 -0.0074842763 -0.10957753 0.008506504
000060 f5 ec 8d bd 33 85 95 bb ce f0 51 3e 12 fc 1e 3d
       -0.069299616 -0.0045629977 0.20502016 0.03881461
000070 29 5a 21 bd 94 aa 48 be 86 03 25 3d 54 0d eb bd
       -0.039392624 -0.1959632 0.040286563 -0.114771515
000080 ef ea dd 3d fa 7d 1e 3c b3 53 4d be a2 d6 ab 3d
       0.10835826 0.00967359 -0.2005146 0.08390547
000090 f6 82 a9 bc bb a6 8f bd 37 0c 1e ba ff 52 9b bd
       -0.02069233 -0.07014223 -0.0006029042 -0.075841896
0000a0 e9 0a 34 bd 48 31 68 3c 5c 9c b3 3c 46 9b f6 bd
       -0.043955717 0.014171906 0.021925144 -0.12041335
0000b0 b7 23 f1 3d fc 55 3f 3e 76 a6 10 be bd 8c 06 bd
       0.1177439 0.18685144 -0.14126 -0.032849062
0000c0 27 9c be bd 17 21 aa 3d b0 38 9d 3d e0 cd 6b bd
       -0.093071274 0.08307093 0.07676828 -0.057569385
0000d0 6f d4 31 3e 3d 34 ef 3b 57 e1 d9 3d 80 eb 3f 3c
       0.17366193 0.0072999285 0.10638683 0.011713862
0000e0 c8 fe 2e be a4 af 67 bd 2b 07 b4 3d 48 34 b8 3c
       -0.17089379 -0.05656399 0.0879043 0.022485867
0000f0 92 0e 23 bd bf 75 ae 3a 28 8c 97 bd 94 27 d9 bc
       -0.039808817 0.0013310238 -0.073997796 -0.02650813
000100 43 54 9f 3d 23 3b ce bd e4 60 4f bd d1 1d cd bd
       0.077797435 -0.10069873 -0.05062951 -0.10015453
000110 90 49 0c be 95 f0 d1 3d 5a c2 de bb 6d 96 97 bd
       -0.13699937 0.102509655 -0.006798071 -0.07401738
000120 a1 e5 08 be 53 f3 80 3d 7a ef 85 bc 4b 62 23 be
       -0.13368846 0.062964104 -0.016349543 -0.15955465
000130 f1 69 ad 3d c5 d2 bc 3d 45 37 ee bd 9b f9 be 3c
       0.08467472 0.092198886 -0.116316356 0.02331238
000140 b5 87 b1 bd fa 34 25 bc 6d 76 03 be 17 64 c2 3c
       -0.08668462 -0.010083431 -0.12838145 0.023729367
000150 56 4f dc bd c1 70 14 3d bd 4f f0 bd dd 52 00 bd
       -0.1075732 0.036240343 -0.11733959 -0.031329025
000160 b5 ba 7c 3c 7b fc 30 be ed 56 ed bb 49 5d f6 3d
       0.015425374 -0.17283814 -0.0072430284 0.120295115
000170 bf f4 4c bd 36 56 4e be 34 e3 ef bd 89 c9 d7 be
       -0.050038096 -0.20150074 -0.117132574 -0.42145947
000180 54 5e 59 3d 96 11 6f bd 58 80 02 3e 64 11 74 3c
       0.053068474 -0.05836638 0.12744272 0.014896724
000190 57 a2 0c 3e 57 5d b3 3d 97 d8 15 bd aa 66 7f bd
       0.13733803 0.087580375 -0.03658351 -0.062353767
0001a0 f5 93 ba bd 7d a8 94 3c 7b 1f 95 3d 76 bc 62 be
       -0.09110252 0.018146748 0.07281395 -0.22142205
0001b0 f4 41 85 3d a6 93 e5 bd 99 d7 39 be b7 e4 27 3b
       0.0650672 -0.11209802 -0.1814865 0.0025618502
0001c0 5c 78 0e 3d fa 7a 2b be 6b 21 25 be b0 71 1f be
       0.034782752 -0.1674613 -0.16126029 -0.15570712
0001d0 3d 15 c9 3d 9b 72 83 bd 6c 13 e7 3d a8 31 82 bc
       0.09818504 -0.06418344 0.11283001 -0.015892819
0001e0 78 47 22 be 0a 77 90 bd a8 1b 32 be 59 e8 97 ba
       -0.15847576 -0.07053955 -0.17393363 -0.0011589631
0001f0 6d 64 5f bd 12 07 f4 bd df 2d 01 3e e6 0f 22 bc
       -0.054539133 -0.11915411 0.12615155 -0.009891486
000200 f0 b5 79 3c 37 a0 a0 3d da 8e d9 bc dc 15 fc 3c
       0.015241131 0.078430586 -0.026557375 0.030772142
000210 ba b9 fe 3d 59 83 0c be 9d 59 f2 bd 88 76 9f bd
       0.12437768 -0.1372198 -0.118334986 -0.0778628
000220 00 20 30 3e e8 01 a3 3d 30 36 a9 bd cf c9 45 3d
       0.17199707 0.07959348 -0.082622886 0.048288163
000230 db 30 f0 bd 47 85 f0 3d 3e 0f 9b 3d 83 9a 3d 3e
       -0.117280684 0.11744171 0.075712666 0.18515973
000240 f9 92 59 3d 92 f2 59 3d 4d 1a 63 3c c8 05 fe bd
       0.05311868 0.05320985 0.013861251 -0.124034464
000250 39 c2 81 bd 92 f3 cd 3d 67 21 72 3d 4b 25 40 3d
       -0.06335873 0.10056223 0.059113886 0.046910565
000260 dc 08 2e bd cd 49 c3 bd 9e f5 ee bd 1f 58 07 be
       -0.042488918 -0.09535561 -0.116679415 -0.1321721
000270 d6 22 c4 bd 85 84 62 bd 66 cc ba bd b5 7b e5 bd
       -0.09576957 -0.05530216 -0.09121017 -0.11205236
000280 ba 6b 01 3e 61 54 ac bd 30 1c 0c be 14 e0 95 bd
       0.1263875 -0.084145315 -0.13682628 -0.0731813
000290 ef a6 88 3d ff 04 09 bc 7d bf 36 3d 21 54 49 bd
       0.06672465 -0.008363008 0.04461621 -0.049152497
0002a0 b8 af 11 3d ba 9b 18 3e d6 18 50 3d fb ab bd 3c
       0.03556797 0.14903155 0.050804935 0.023153296
0002b0 b1 1b 9d bd ec c7 9b bc fb 66 8a 3a f5 ab 7b 3d
       -0.07671297 -0.019016229 0.0010559255 0.061443288
0002c0 8c b5 11 3e 9a e0 7e bd fd 21 5d bb cd 81 ae 3d
       0.14229411 -0.062225915 -0.0033742182 0.08520851
0002d0 1a da 5d bd 8f 8b 57 3d f8 ba 6e 3d 08 07 aa 3d
       -0.054163076 0.052623328 0.058283776 0.08302122
0002e0 c2 b7 01 3d f6 7d 19 be c0 98 aa bc c0 28 8d 3d
       0.031669386 -0.14989457 -0.02082479 0.06892538
0002f0 ac d6 b2 3d 73 05 dc bc ca 5d ca 3d e8 90 9f bd
       0.08732352 -0.026858067 0.0988117 -0.077913105
