models/gnn-rnn/gnn_rnn_r_4.pth (torch, 152503 bytes, 17 tensors)

fc_measurement.0.weight f4 [32, 1]
0	0x3f50e664	0.8160155
1	0x3f7209e8	0.94546366
2	0xbeb8b67d	-0.36076728
3	0x3f809bfa	1.00476
4	0xbe869928	-0.26288724
5	0x3d775ea3	0.060392987
6	0xbf1af872	-0.6053535
7	0x3f35215f	0.70754045
8	0x3f7602fe	0.96098316
9	0xbf4ca570	-0.7993994
10	0x3f6fcd4f	0.9367265
11	0x3d542af2	0.05179877
12	0x3f5584f4	0.83405995
13	0x3ea0d78c	0.3141445
14	0x3f1840eb	0.59474057
15	0xbe9423fc	-0.28933704
16	0x3f5b2770	0.8560705
17	0x3ea40028	0.3203137
18	0xbf24a889	-0.64319664
19	0x3ec2e826	0.3806774
20	0xbeeac9b5	-0.45857015
21	0xbe3cf7f3	-0.1845396
22	0xbeefb3d1	-0.46816877
23	0x3f3e10b2	0.74244225
24	0xbf4c0dbf	-0.79708475
25	0xbf0aeb32	-0.5426513
26	0xbf0076e5	-0.5018142
27	0xbf29a5b3	-0.6626846
28	0x3e47bf7b	0.19506638
29	0xbf842dc7	-1.032647
30	0x3f82f6bd	1.0231549
31	0xbf75a04c	-0.9594772

fc_measurement.0.bias f4 [32]
0	0x3f44f1cb	0.76931447
1	0x3c203f8a	0.009780774
2	0xbef8a0f8	-0.4856031
3	0x3f0bc41a	0.545961
4	0x3d205ff6	0.039154015
5	0x3f9965d2	1.1984198
6	0x3d23562d	0.039877106
7	0xbf1191c3	-0.5686304
8	0x3e2e7126	0.1703535
9	0xbeae1814	-0.34002745
10	0x3ec19a4f	0.3781304
11	0x3f893a17	1.0720853
12	0x3ef475da	0.47746164
13	0xbf2fb7ab	-0.6863963
14	0x3ed0356d	0.4066576
15	0x3e30acb1	0.17253377
16	0x3ef2fb9a	0.47457582
17	0xbf3e9a44	-0.7445414
18	0xbf962189	-1.1728984
19	0xbf27b79a	-0.6551453
20	0xbf6fedcd	-0.9372223
21	0x3f7b37b2	0.9813186
22	0x3e442dea	0.1915814
23	0x3ea000ff	0.3125076
24	0x3eb7a0c2	0.35864836
25	0x3c5bf3ae	0.013424797
26	0x3f7beadc	0.9840524
27	0xbf85b67f	-1.0446318
28	0xbe6be89d	-0.23037954
29	0xbf38e15e	-0.72218883
30	0x3e07a3bf	0.13246058
31	0xbec66162	-0.38746172

fc_measurement.2.weight f4 [32, 32]
0	0xbb3646ee	-0.0027813273
1	0xbda7a787	-0.0818625
2	0x3e9b9f9a	0.30395204
3	0xbe2138fe	-0.15744397
4	0xbd38188a	-0.044945277
5	0xbf21b279	-0.6316295
6	0x3e6ca9c4	0.23111635
7	0x3cef4cba	0.02921139
8	0x3dfbdd98	0.12298125
9	0xbd426ee6	-0.047469042
10	0xbe66f7e3	-0.22555499
11	0xbf280946	-0.6563915
12	0xbe30a7e6	-0.17251548
13	0x3da5d688	0.08097559
14	0x3bb014b8	0.0053735636
15	0x3e4553e9	0.1927029
16	0xbe1344b7	-0.14381681
17	0xbdcf67c6	-0.10127215
18	0x3e934ff1	0.28771928
19	0xbda83db4	-0.08214894
20	0x3e9e0cb0	0.30869055
21	0xbdcf6bbf	-0.10127973
22	0x3e1d8a5a	0.15384808
23	0xbe419c35	-0.18907245
24	0xbcf6095a	-0.030033756
25	0x3e0898c8	0.13339531
26	0x3d14b8d5	0.036309082
27	0x3de53b91	0.11193002
28	0x3d88b3d9	0.06674928
29	0x3e71709f	0.23578118
30	0xbe3379c2	-0.17526916
31	0x3bab92ad	0.005235991
32	0x3e4a39e4	0.19748646
33	0xbce3a648	-0.02778925
34	0xbe16e5de	-0.14736125
35	0xbe0c07ff	-0.13674925
36	0xbe07bd37	-0.13255773
37	0x3de315f5	0.11088172
38	0xbd7dc801	-0.061958317
39	0xbdd0a4cb	-0.10187682
40	0x3d15f5df	0.036611434
41	0xbe30fbe4	-0.17283589
42	0xbdeea6fb	-0.11652943
43	0xbd0fa6b8	-0.035071105
44	0xbdf5ba5c	-0.11998436
45	0xbdd29349	-0.10281999
46	0x3e5a72b5	0.2133282
47	0x3c0af8a3	0.008482131
48	0x3db5c0e5	0.08874682
49	0xbe1fa9aa	-0.15592065
50	0xbe631f0b	-0.2217981
51	0xbd1c996e	-0.03823226
52	0xbda70966	-0.081560895
53	0xbe054b17	-0.13016926
54	0xbdd98402	-0.106208816
55	0xbd92d4e5	-0.07169513
56	0xbd0c802b	-0.034301918
57	0xbddf43fe	-0.1090164
58	0xbc918889	-0.0177653
59	0xbe508f07	-0.2036706
60	0xbdb6ef35	-0.08932344
61	0xbe28f645	-0.16500194
62	0xbce4ea12	-0.027943645
63	0xbe44f550	-0.19234204
64	0x3e7656bf	0.24056529
65	0x3d88b443	0.06675007
66	0x3da75a2f	0.08171498
67	0x3e18107b	0.14850037
68	0xbdb7ce52	-0.08974899
69	0x3e417962	0.1889396
70	0xbbbf7f40	-0.005844027
71	0x3d6e518d	0.05818324
72	0xbd42d0a1	-0.047562245
73	0xbe4d2ed5	-0.20037396
74	0x3e161cb0	0.14659381
75	0x3d11e489	0.03561834
76	0x3e24f26c	0.16108102
77	0x3d0f61ec	0.035005495
78	0x3e5ebfe6	0.21752891
79	0xbd3f7666	-0.046743773
80	0x3d81b255	0.06332842
81	0x3e60d3c6	0.21955785
82	0x3cc7ec6a	0.024404723
83	0x3e96761e	0.2938699
84	0x3dc9aa3b	0.09846922
85	0xbd9584a4	-0.0730069
86	0x3dfe0eb9	0.12405152
87	0x3c8ef069	0.01744862
88	0x3d5fb728	0.05461803
89	0xbdde3e38	-0.10851711
90	0x3e851012	0.25988823
91	0xbe4dab47	-0.20084868
92	0x3e536750	0.2064488
93	0x3c292345	0.01032335
94	0x3e1ff9b9	0.15622605
95	0xbdfb67b0	-0.12275636
96	0x3dcebde6	0.10094814
97	0xbca1fae1	-0.019772949
98	0x3e673a46	0.22580823
99	0xbe69601b	-0.22790568
100	0x3e3aeca4	0.18254334
101	0xbe6efc3b	-0.23338406
102	0x3d1fc702	0.039008148
103	0x3dc57afb	0.09642597
104	0xbcb86250	-0.022507817
105	0x3d329588	0.043599635
106	0xbe230d11	-0.15922953
107	0xbe4c232c	-0.19935292
108	0x3cc11ae3	0.02357239
109	0xbdc81aa1	-0.09770704
110	0xbe351ccb	-0.17686765
111	0x3d21aebc	0.03947328
112	0xbe51bf63	-0.20483164
113	0x3c397e85	0.0113216685
114	0x3ec01789	0.37517956
115	0xbe62e6ae	-0.2215831
116	0x3e8f9576	0.28043717
117	0x3df3b8cc	0.119004816
118	0x3e0b5fea	0.13610807
119	0xbe0d1091	-0.13775851
120	0x3e4f6051	0.20251586
121	0x3e61ea2c	0.22061986
122	0x3e06e720	0.13174105
123	0x3e2b6911	0.16739298
124	0xbdfdb2fd	-0.12387655
125	0x3e343d1b	0.17601435
126	0xbdc26068	-0.09491044
127	0x3db872c9	0.090062685
128	0x3dfba7aa	0.12287839
129	0x3e40993e	0.18808457
130	0xbcf9de62	-0.030501548
131	0xbca4dae1	-0.0201239
132	0xbd143bd5	-0.036189873
133	0xbddb187a	-0.10698028
134	0x3c75beda	0.014999116
135	0x3df223e2	0.1182325
136	0xbe042e59	-0.12908305
137	0xbdb1cd0a	-0.08681686
138	0x3e31a7cc	0.17349166
139	0xbc90e0e5	-0.017685363
140	0x3c1d4848	0.009599753
141	0x3d3a65a9	0.045507107
142	0xbdc7ad68	-0.097498715
143	0xbe5c0f55	-0.21490224
144	0xbd19c5c7	-0.03754213
145	0x3e690f92	0.22759846
146	0x3dd956af	0.10612237
147	0x3e42043e	0.18946931
148	0xbe24319a	-0.16034546
149	0xbed5f9a3	-0.4179202
150	0xbd9259f6	-0.07146065
151	0x3e4573d2	0.19282463
152	0xbbd87b17	-0.0066064703
153	0xbd8db737	-0.06919711
154	0xbd61d9e6	-0.055139445
155	0xbda3d432	-0.079994574
156	0xbd6978cb	-0.056999963
157	0x3ddffd18	0.10936946
158	0xbd44a5a9	-0.04800955
159	0xbd69416f	-0.056947168
160	0xbdf9b55b	-0.12192794
161	0x3e5e1206	0.21686563
162	0x3dce31fb	0.10068127
163	0x3e0a0e48	0.1348201
164	0xbe2cd56d	-0.1687829
165	0xbe9cb2e0	-0.3060522
166	0xbe37db82	-0.1795483
167	0x3e90ef83	0.28307733
168	0x3e33ce65	0.17559202
169	0x3de71166	0.11282615
170	0x3e2ffbd9	0.17185916
171	0xbd887eb5	-0.066647924
172	0x3d890683	0.06690695
173	0x3e099a10	0.13437676
174	0xbdc64759	-0.09681577
175	0xbe702f73	-0.234556
176	0x3e136571	0.14394166
177	0x3e441b63	0.19151072
178	0xbd87bd7a	-0.06627937
179	0x3dd7c532	0.10535659
180	0xbd7ab767	-0.061210062
181	0xbeeb0911	-0.45905355
182	0xbe29b314	-0.16572219
183	0x3e082633	0.13295822
184	0xbdb88d46	-0.09011321
185	0x3d9652a7	0.073399834
186	0xbe58202f	-0.21106027
187	0xbe26e5bf	-0.16298579
188	0x3dd0f467	0.10202866
189	0xbdf87ea6	-0.12133531
190	0x3d1c0efd	0.03810023
191	0xbe511d34	-0.20421296
192	0x3cd04962	0.025425617
193	0xbe296212	-0.16541317
194	0x3e331416	0.17488131
195	0x3c974682	0.018466238
196	0x3e28762f	0.16451333
197	0xbec1990e	-0.37812084
198	0x3e2ed524	0.17073494
199	0xbdf2f234	-0.11862603
200	0x3ca7da67	0.020489885
201	0x3e63e45c	0.22255081
202	0xbd9f7496	-0.07785909
203	0xbe7ce827	-0.24697934
204	0xbdda63ef	-0.10663592
205	0xbe2692ec	-0.16266984
206	0x3bd81ce7	0.0065952423
207	0xbe13e83c	-0.14444059
208	0x3d4642c7	0.048403528
209	0x3df9eba0	0.12203145
210	0x3e8c578e	0.2741055
211	0xbd89d18e	-0.067294225
212	0xbd08ec70	-0.03342861
213	0x3cbec49b	0.023287108
214	0x3e0756a6	0.13216648
215	0xbe70cbbe	-0.23515221
216	0xbb5c04cc	-0.0033572195
217	0xbd7264a0	-0.059177995
218	0xbbd95a6e	-0.0066330945
219	0x3abb66c1	0.0014297591
220	0xbdfc2e5c	-0.1231353
221	0x3c12b76e	0.008954866
222	0xbe5b4fa8	-0.21417105
223	0x3e4eddf7	0.2020186
224	0x3d91b3b7	0.07114356
225	0xbda364ed	-0.079782344
226	0x3d619e47	0.055082586
227	0xbe059440	-0.13044834
228	0xbde21947	-0.110399775
229	0xbea4711f	-0.32117555
230	0x3df333dd	0.118751265
231	0xbe16b390	-0.14716935
232	0xbe29a77d	-0.16567798
233	0x3d3e2e24	0.046430722
234	0xbde5a130	-0.11212385
235	0xbe595543	-0.21223931
236	0xbd697ca4	-0.057003632
237	0xbd9ef638	-0.07761806
238	0xbe163f51	-0.14672591
239	0xbd1d74f0	-0.0384416
240	0xbe4e88df	-0.201694
241	0x3de331b3	0.11093464
242	0x3c6610df	0.014042108
243	0x388177da	6.1735234e-05
244	0x3cc4f904	0.024044521
245	0x3d0b4f3e	0.034011118
246	0x3e59c31f	0.21265839
247	0x3ccc600b	0.02494814
248	0xbdd48b2b	-0.10378107
249	0x3e0054e5	0.12532385
250	0x3e4eb578	0.20186412
251	0x3dfa2b82	0.1221533
252	0x3d70c4f2	0.05878157
253	0x3e74eb67	0.23917924
254	0xbda2ffb9	-0.079589315
255	0x3dc719d0	0.0972172

fc_measurement.2.bias f4 [32]
0	0xbeb0daaf	-0.34541842
1	0xbdb0d14d	-0.08633671
2	0x3da7f77f	0.08201503
3	0x3d0938a6	0.03350129
4	0xbea2dae6	-0.3180763
5	0xbe3b0ec8	-0.18267357
6	0x3d771065	0.06031837
7	0xbc7e2533	-0.015511799
8	0xbdd7b462	-0.10532452
9	0x3e0021d6	0.12512907
10	0x3d443e88	0.047911197
11	0xbe6480cf	-0.22314762
12	0xbe881e53	-0.26585636
13	0x3de58469	0.11206896
14	0xbe52b534	-0.20576936
15	0x3e3760f4	0.17908078
16	0xbe04033d	-0.1289186
17	0x3e4ade0f	0.19811271
18	0x3d7e1c78	0.06203887
19	0x3d8f956b	0.07010921
20	0x3cad25f9	0.02113627
21	0x3d6d1206	0.057878517
22	0xbdb37183	-0.08761885
23	0xbea1453e	-0.3149814
24	0xbb843bd4	-0.0040354524
25	0x3ddb662d	0.10712848
26	0xbe3cbee2	-0.18432191
27	0x3e3d7e8e	0.18505308
28	0xbe0da92b	-0.13834064
29	0x3e0d0e88	0.13775074
30	0x3dfc9992	0.12333979
31	0x3da3160f	0.07963192

type_embedding.weight f4 [2, 32]
0	0xbdb4e16c	-0.08832058
1	0xbe792913	-0.24332075
2	0x3fa02c50	1.2513523
3	0x3f557cce	0.8339356
4	0xbfece932	-1.8508666
5	0x3e625154	0.22101337
6	0x3fd77310	1.6831989
7	0xbf99dd5d	-1.202068
8	0xbf613848	-0.87976503
9	0xbeddb91a	-0.43305284
10	0x3e11bb45	0.14231594
11	0xbe53990b	-0.2066385
12	0x3fa3ef13	1.2807335
13	0x3d2a76e0	0.041617274
14	0x3c144a89	0.009050974
15	0x406394ad	3.5559494
16	0xbf8f1042	-1.1176836
17	0xbf015749	-0.5052381
18	0x3dcbb8a3	0.09947326
19	0x3f054d52	0.52071106
20	0x3d99f489	0.075173445
21	0xbf76afa0	-0.9636173
22	0x3fa91c2f	1.3211726
23	0x3ec1d690	0.3785901
24	0xbe83c55d	-0.25736514
25	0x40224aa5	2.535806
26	0x3f1c1094	0.60962796
27	0x3e0b02fb	0.13575356
28	0xbfac8f2f	-1.3481196
29	0xbf28dc17	-0.6596083
30	0x3f3c46aa	0.73545325
31	0xbe89b3a3	-0.26894864
32	0xbfb82f57	-1.4389447
33	0xbdb6ee29	-0.08932144
34	0x3f108ea1	0.56467634
35	0x3fa2378f	1.2673205
36	0x400a2985	2.1587842
37	0x3fe7687a	1.8078759
38	0x3eab18fc	0.334175
39	0xc0211641	-2.5169833
40	0xbee557cd	-0.4479355
41	0xbfaf6dec	-1.370542
42	0xbee4a70c	-0.44658697
43	0xbf28bbde	-0.6591166
44	0x3ff3255f	1.899578
45	0xbf3e5934	-0.74354863
46	0x3ef2d9f9	0.47431925
47	0xbef19be8	-0.4718926
48	0x3dc60c88	0.09670359
49	0xbeb4e466	-0.35330504
50	0x3f6ad065	0.91724235
51	0xbf8ae839	-1.0852119
52	0xbf86d2de	-1.0533102
53	0xbf877f6e	-1.0585763
54	0x403df8fe	2.9683223
55	0x3fbe93bc	1.4888835
56	0xbf248b44	-0.64275
57	0xbf5a66d4	-0.85313153
58	0xbf333642	-0.70004666
59	0x3e15fe48	0.14647782
60	0xbe902bd4	-0.28158438
61	0xbf4b0d93	-0.7931759
62	0x3fa718c6	1.3054435
63	0x3f7797b5	0.9671586

gcn1.bias f4 [64]
0	0x3d6176dd	0.055044997
1	0x3d41c092	0.04730279
2	0x3c13010d	0.0089724185
3	0x3b87ba98	0.0041421168
4	0x3d3a06a9	0.045416508
5	0x3ccb202f	0.02479562
6	0x3ce277b0	0.027644962
7	0x3d9446d5	0.07240073
8	0x3cb0bf11	0.021575483
9	0x3d691140	0.056901217
10	0x3d1b30c9	0.037888322
11	0x3d9e2af3	0.07723036
12	0xbd1d4129	-0.03839222
13	0x3c2326ea	0.009958008
14	0x3cdf58a0	0.02726394
15	0x3da5af84	0.080901176
16	0x3d697333	0.05699463
17	0x3d717dbf	0.05895781
18	0x3c070fac	0.008243483
19	0xbcde3fa3	-0.027129954
20	0x3c636f3c	0.013881501
21	0xbd6d500d	-0.05793767
22	0x3beab614	0.0071628187
23	0x3cffb79d	0.031215483
24	0x3d097543	0.033559095
25	0x3d72f968	0.059319884
26	0x3d9fbf37	0.07800143
27	0x3ae2fa1d	0.0017316971
28	0x3d65b9dd	0.056085456
29	0x3b13b345	0.0022537273
30	0x3dbfb0a6	0.09359865
31	0x3d364a06	0.044504188
32	0x3d4dfe52	0.050291367
33	0x3cefee93	0.029288566
34	0x3d8a84cd	0.06763611
35	0xbba5c554	-0.0050589237
36	0x3b4ed9d2	0.0031562936
37	0x3d08fa05	0.033441562
38	0x3c981245	0.0185634
39	0xbd447bf8	-0.04796979
40	0xbcbea5b7	-0.023272378
41	0x3d10424a	0.03521947
42	0x3d1a9df9	0.03774831
43	0x3d418860	0.047249198
44	0x3d27688d	0.04087119
45	0x3cfc9dfa	0.030837048
46	0x3ce60ddb	0.028082779
47	0x3d0c871f	0.03430855
48	0x3b866a02	0.0041019926
49	0x3d9508d2	0.07277073
50	0x3cc4fb43	0.024045592
51	0xbb84649e	-0.004040315
52	0x3d28f146	0.04124572
53	0x3c112028	0.008857764
54	0xbc800370	-0.01562664
55	0x3ba0d2c1	0.0049079363
56	0x3ce167cb	0.027515313
57	0x3cae8b70	0.021306723
58	0xbbaa688f	-0.0052004526
59	0x3c1d7123	0.009609493
60	0xbd124b0d	-0.035716105
61	0x3c9e8870	0.019352168
62	0x3cc0aeee	0.023520913
63	0x3d91d2da	0.07120295

gcn1.lin.weight f4 [64, 64]
0	0x3d065838	0.032798976
1	0x3db49fbc	0.088195294
2	0x3e4bd924	0.19907051
3	0x3e2ad4c5	0.16682728
4	0xbe1fcc3d	-0.15605254
5	0xbd5378e2	-0.051628955
6	0x3e83c3c4	0.25735295
7	0x3e76d19f	0.24103402
8	0xbd8da549	-0.06916291
9	0x3e3b7151	0.18304946
10	0xbe17f541	-0.1483965
11	0x3d61b4c5	0.055104036
12	0x3e9086ee	0.28227943
13	0x3d03630c	0.03207688
14	0xbda27007	-0.07931524
15	0x3d7ceb2c	0.061747715
16	0x3dcb6e3b	0.09933134
17	0x3df5d26b	0.12003025
18	0xbe16a823	-0.14712577
19	0xbd3c225a	-0.045931198
20	0xbcd07488	-0.025446191
21	0xbcb83933	-0.022488212
22	0x3ce00bfc	0.027349465
23	0xbda0010d	-0.078127004
24	0x3d8a4780	0.06751919
25	0x3dcd727b	0.10031601
26	0x3d3d129b	0.04616032
27	0xbc268ced	-0.010165435
28	0xbbab0975	-0.005219633
29	0x3d126c98	0.035748094
30	0x3d0c8a7e	0.034311764
31	0xbca476e2	-0.020076219
32	0x3cb41baa	0.021985848
33	0x3d021f42	0.03176809
34	0x3cd6b42b	0.026208958
35	0xbe2a19d4	-0.16611415
36	0xbd9be54e	-0.07612096
37	0xbe79a4f7	-0.24379335
38	0xbe1960ab	-0.14978282
39	0x3dec9107	0.11551099
40	0x3e6c5d1f	0.23082398
41	0xbe2f1bf7	-0.17100511
42	0xbd942f1b	-0.07235547
43	0x3e37014f	0.17871593
44	0xbe2afddf	-0.16698407
45	0x3e2efe38	0.17089164
46	0xbc929919	-0.017895268
47	0xbe82f83d	-0.25580016
48	0x3db7c466	0.08973007
49	0xbd992872	-0.074784175
50	0x3c03eaf3	0.008051622
51	0xbe4af94f	-0.19821666
52	0x3e68cec5	0.22735126
53	0xbd238b80	-0.03992796
54	0x3dbde675	0.09272472
55	0xbe349b59	-0.17637385
56	0xbe0b9060	-0.13629293
57	0x3d18b5d1	0.03728277
58	0x3ddc0fa0	0.10745168
59	0xbd5e804c	-0.054321572
60	0xbe027dfc	-0.12743372
61	0xbc001c2e	-0.007819219
62	0xbe4ad928	-0.19809401
63	0x3d50ad4b	0.050946515
64	0x3c906289	0.01762511
65	0x3df56e31	0.11983908
66	0x3e90440e	0.28176922
67	0xbdd40aed	-0.103536464
68	0x3e81988d	0.253117
69	0x3e70438c	0.23463267
70	0x3ce8980a	0.02839281
71	0xbe6099fb	-0.21933739
72	0xbe54f376	-0.20795998
73	0x3dfbc0bf	0.12292623
74	0x3e7dca19	0.24784125
75	0x3e5b8c4f	0.21440242
76	0x3c5052d9	0.012715065
77	0xbd8eced5	-0.06973044
78	0xbe4cb27a	-0.19989958
79	0xbd7c09b9	-0.06153271
80	0xbd326205	-0.04355051
81	0x3daaa03f	0.08331346
82	0x3e62e010	0.22155786
83	0xbdc2a02a	-0.09503205
84	0x3e337f6b	0.17529075
85	0x3e49b59b	0.19698183
86	0xbe4b757f	-0.1986904
87	0xbd3acea3	-0.04560722
88	0xb934c950	-0.00017241132
89	0x3dda1b8b	0.10649785
90	0x3e3cc6a4	0.1843515
91	0x3daad821	0.083420046
92	0x3e5c7893	0.2153037
93	0x3e03be55	0.12865575
94	0x3e73f605	0.23824318
95	0xbe474bac	-0.1946246
96	0xbe3379b5	-0.17526896
97	0xbd8dd315	-0.06925026
98	0x3d5bffbc	0.053710684
99	0x3d8aa224	0.06769207
100	0x3e24c2fe	0.16090009
101	0x3e6f53d8	0.23371828
102	0xbc14b178	-0.009075515
103	0xbe163fce	-0.14672777
104	0xbd176562	-0.03696192
105	0xbc838d50	-0.016058594
106	0x3df306c5	0.118665256
107	0x3d0f71aa	0.035020508
108	0x3df00896	0.11720388
109	0x3d28de1f	0.041227456
110	0x3e42210e	0.18957922
111	0x3e399f1d	0.18127103
112	0xbd9884ed	-0.074472286
113	0xbe51d790	-0.20492387
114	0x3e398e95	0.18120797
115	0xbcb87851	-0.022518309
116	0xbe3c0f18	-0.18365133
117	0xbdb4469e	-0.08802532
118	0x3e526151	0.20544936
119	0xbd6d4e3d	-0.057935942
120	0xbd84aa9c	-0.06477854
121	0x3dfb8aab	0.12282308
122	0x3e30872b	0.17239062
123	0x3c98236b	0.018571576
124	0xbe570e82	-0.21001628
125	0xbe112bef	-0.14176916
126	0xbcb2ad84	-0.021811254
127	0x3d30f421	0.04320157
128	0xbe4554f7	-0.19270693
129	0x3e5ace26	0.21367702
130	0x3d0f0a0c	0.03492169
131	0xbe3a2af2	-0.18180445
132	0x3dd49c3d	0.103813626
133	0xbbc87bb5	-0.0061182627
134	0x3e402b37	0.18766485
135	0xbce139d0	-0.027493387
136	0x3d03bff9	0.0321655
137	0xbe577d52	-0.210439
138	0xbe4e0fb7	-0.20123182
139	0xbd0284b2	-0.03186483
140	0x3e1dba39	0.1540307
141	0xbe1a750c	-0.15083712
142	0x3c1d9d50	0.009620026
143	0xbe2a2536	-0.16615757
144	0xbdfbb9c3	-0.122912906
145	0xbdd29cb7	-0.10283797
146	0xbe276f52	-0.16351059
147	0xbe4a3e18	-0.1975025
148	0xbda19628	-0.07889968
149	0xbcf3cfc5	-0.029762158
150	0x3daa9697	0.08329504
151	0x3db8245f	0.08991312
152	0xbd3f358a	-0.04668192
153	0xbd8448fd	-0.06459234
154	0xbd9eaeb6	-0.07748167
155	0xbe15593f	-0.14584826
156	0x3e05318c	0.13007182
157	0x3e664de4	0.2249065
158	0xbe606ede	-0.21917292
159	0xbe668002	-0.22509769
160	0xbe1b9c98	-0.15196455
161	0xbcde1a7d	-0.02711224
162	0xbc22ffc0	-0.009948671
163	0xbe2dee9a	-0.1698555
164	0x3d426d13	0.047467303
165	0xbd04cfed	-0.032424856
166	0xbde4529d	-0.1114857
167	0xbe347781	-0.17623712
168	0x3e37c36e	0.17945644
169	0x3e8199fc	0.25312793
170	0x3db9ca18	0.090717494
171	0xbd7f8225	-0.062379975
172	0x3de129d9	0.1099431
173	0x3e3be506	0.18349084
174	0xbdb59432	-0.08866157
175	0x3e5c82b9	0.21534242
176	0xbe2ce94f	-0.16885875
177	0xbc0f7490	-0.008755818
178	0x3e08d691	0.133631
179	0xbd6f5d1d	-0.05843841
180	0xbc157527	-0.00912217
181	0xbd8e044f	-0.069344155
182	0xbdfb13ae	-0.12259613
183	0x3e190eaa	0.14947
184	0x3e2fddfa	0.17174521
185	0xbe2fea7e	-0.17179295
186	0xbd701ade	-0.058619373
187	0xbcc9810b	-0.024597665
188	0xbd8b15a0	-0.06791234
189	0xbdc28388	-0.09497744
190	0xbe798e76	-0.24370751
191	0x3dc06857	0.09394901
192	0x3e2d9a7d	0.16953464
193	0x3d5bfa51	0.053705517
194	0xbb6d2ee6	-0.0036191284
195	0xbe271187	-0.1631528
196	0x3ccc1061	0.024910154
197	0x3df944aa	0.121713
198	0xbc88c7b3	-0.016696787
199	0x3e59f3a1	0.21284343
200	0x3d2537a0	0.04033625
201	0xbc7bf2af	-0.0153776845
202	0x3df9aef9	0.121915765
203	0x3e0dbb8f	0.13841079
204	0xbdd949b9	-0.106097646
205	0x3dddd7da	0.10832186
206	0xbe112569	-0.14174427
207	0xbb69fdef	-0.0035704335
208	0xbd97e14b	-0.07416018
209	0x3e16039b	0.14649813
210	0xbe30e7c5	-0.17275913
211	0x3dedbd24	0.11608341
212	0xbe209eef	-0.15685628
213	0x3e2a7da4	0.1664949
214	0x3dbfbef9	0.09362597
215	0xbd3f004a	-0.046631135
216	0x3d8cbefc	0.06872365
217	0x3e7dfdcf	0.24803852
218	0x3e4013cb	0.1875755
219	0xbe6fed56	-0.2343038
220	0xbc679551	-0.014134721
221	0x3e4891f6	0.1958693
222	0x3da7dfba	0.08196969
223	0x3ca8f981	0.020626785
224	0x3d365494	0.044514254
225	0xbd4f68c0	-0.050637007
226	0xbdaa5910	-0.083177686
227	0xbc9a7dec	-0.018858872
228	0x3e2fea42	0.17179206
229	0xbdbe61db	-0.09296008
230	0xbd9ffd33	-0.07811966
231	0x3d990bb4	0.07472935
232	0xbd5205be	-0.051275007
233	0x3e6384eb	0.22218673
234	0x3e386f6d	0.18011256
235	0x3d267ea2	0.04064811
236	0xbe31852b	-0.17335956
237	0x3db66d81	0.08907605
238	0x3e22a254	0.15882236
239	0x3d62f95c	0.05541359
240	0x3ddac9df	0.10683035
241	0xbdad8ed1	-0.08474506
242	0xbe785d86	-0.24254426
243	0xbd921b9c	-0.07134172
244	0x3d0bf202	0.034166344
245	0x3e665b0c	0.22495669
246	0x3c3d4ca0	0.011553913
247	0xbd94d378	-0.07266897
248	0xbcb8c584	-0.02255512
249	0xbd68e0fb	-0.056855183
250	0xbdfb2883	-0.12263586
251	0xbdfb3793	-0.12266459
252	0x3d7d3cbf	0.06182551
253	0x3e37e7cc	0.17959517
254	0x3e19ebd9	0.15031375
255	0x3d78e2f3	0.06076331

gcn2.bias f4 [64]
0	0xbd79d2c6	-0.060992025
1	0x3d34d4c6	0.04414823
2	0xbd5721f8	-0.05252263
3	0x3d525c54	0.051357582
4	0xbcf9ebee	-0.030508008
5	0x3d3d24fe	0.046177857
6	0x3d401c86	0.046902202
7	0x3d1275b4	0.03575678
8	0xbc645a64	-0.013937566
9	0xbbe618c4	-0.0070219953
10	0x3d122d1a	0.035687543
11	0x3d71c378	0.059024304
12	0x3d31ecf2	0.04343886
13	0x3c7b3dbe	0.015334545
14	0x3d46ee56	0.04856714
15	0x3d15287f	0.036415573
16	0xbb211b0e	-0.0024582776
17	0x3b94118d	0.004518694
18	0x3d41c60e	0.04730802
19	0xbc88a789	-0.01668145
20	0x3d0b03d4	0.033939198
21	0xbc9cb570	-0.019129485
22	0x3a9749ca	0.0011542377
23	0xbc2bb748	-0.010480709
24	0xbbde6576	-0.0067869974
25	0xbc97d6e4	-0.018535085
26	0xbca58a79	-0.02020763
27	0x3b8f2657	0.004368584
28	0x3c71c28f	0.014755859
29	0x3d93339c	0.07187578
30	0x3cafbf4c	0.021453522
31	0xbb932c38	-0.0044913553
32	0x3c654abe	0.013994871
33	0x3db98f9d	0.09060595
34	0xbc78601d	-0.015159634
35	0x3ce8da70	0.028424472
36	0x3d42d299	0.047564123
37	0x3cbbf4a9	0.022943811
38	0x3cf8243a	0.030290712
39	0x3b7d5126	0.0038653105
40	0x3a54ad07	0.0008112941
41	0xbd122a8a	-0.0356851
42	0x3cc3dbda	0.023908544
43	0x3d2ca270	0.0421471
44	0x3d2c19ef	0.04201692
45	0x3d340b5a	0.04395614
46	0x3c7f87b9	0.015596324
47	0xbce9f2fe	-0.02855825
48	0xbbd45bcb	-0.006480669
49	0xb97c8aa1	-0.00024084236
50	0x3d15788e	0.036491923
51	0xbcaf72f8	-0.021417126
52	0x3b883723	0.0041569634
53	0x3b084834	0.002079499
54	0x3dbd0989	0.09230334
55	0x3b2b8989	0.0026174507
56	0xbc456a2a	-0.012049237
57	0x3c891988	0.016735807
58	0x3b9a7bd2	0.0047144676
59	0xbcf8c891	-0.030369075
60	0x3cce044e	0.025148537
61	0x3db1f7c3	0.08689835
62	0x3ab146e2	0.0013525153
63	0xbb3d8bcf	-0.0028922444

gcn2.lin.weight f4 [64, 64]
0	0xbd937463	-0.071999334
1	0x3c9fbd2e	0.019499388
2	0x3e79310b	0.24335115
3	0x3d7aee88	0.061262637
4	0x3da479f7	0.080310754
5	0xbe8d2d83	-0.27573785
6	0xbe01aa05	-0.12662514
7	0xbd84e1a7	-0.06488352
8	0x3e728c13	0.23686247
9	0xbd2ab972	-0.04168076
10	0x3e9b3e5e	0.3032102
11	0xbd2886fa	-0.04114435
12	0x3dbe9bbb	0.09307047
13	0x3e12a05c	0.14318985
14	0x3d603e0f	0.054746684
15	0xbd679926	-0.056542538
16	0xbe850f0a	-0.25988036
17	0x3d790b14	0.06080158
18	0xbd586099	-0.052826498
19	0x3da01e55	0.078182854
20	0x3d92f4ba	0.07175584
21	0xbe1d6eec	-0.15374345
22	0x3d4434b6	0.04790183
23	0xbe28a418	-0.16468847
24	0xbe6746a3	-0.2258554
25	0x3e37c2ab	0.17945354
26	0xbd7cc91a	-0.061715223
27	0x3de853a8	0.11344081
28	0x3d1135fb	0.03545187
29	0xbd523df9	-0.051328633
30	0x3e19329b	0.1496071
31	0x3dabe6cb	0.0839363
32	0x3e2051a5	0.15656145
33	0xbd567683	-0.052359115
34	0xbe831397	-0.25600883
35	0x3d74ac8a	0.05973486
36	0x3c8d40fc	0.017242901
37	0xbdcc6b51	-0.099814065
38	0xbe75a6e1	-0.2398944
39	0x3eaaa0be	0.33325762
40	0xbdd0dbde	-0.10198186
41	0xbb59e19e	-0.003324605
42	0x3dcd3e27	0.1002162
43	0xbdc0c54c	-0.094126314
44	0x3e1d6e79	0.15374173
45	0xbe662468	-0.22474825
46	0xbe030405	-0.12794502
47	0xbd8d1a5a	-0.06889792
48	0x3e04e4ca	0.12977901
49	0xbe20f58d	-0.1571867
50	0x3dff99b3	0.12480488
51	0xbe41708d	-0.18890591
52	0xbe6c6a37	-0.23087393
53	0xbda07f0d	-0.07836733
54	0xbe6b20e9	-0.22961773
55	0x3e7421af	0.23840974
56	0x3e42a993	0.1901
57	0xbe39cc64	-0.18144375
58	0x3e82c2b9	0.25539187
59	0xbddbe0ac	-0.10736212
60	0x3d8da6bb	0.06916567
61	0xbe2c8be4	-0.16850239
62	0xbdbc6975	-0.09199802
63	0xbe225f7c	-0.15856737
64	0x3d711413	0.058857035
65	0x3db2a032	0.08721961
66	0xbe4617d2	-0.19345024
67	0xbce255f7	-0.027628882
68	0x3e3fc77f	0.18728445
69	0x3e51718e	0.20453474
70	0x3e0889a3	0.13333754
71	0x3d079d34	0.033108905
72	0x3d546734	0.051856235
73	0x3e21b4a0	0.15791559
74	0xbe449db1	-0.1920078
75	0xbd688151	-0.05676395
76	0xbe24a78c	-0.16079539
77	0xbb42b21c	-0.0029708212
78	0x3ce5f58c	0.028071187
79	0xbdcaaf6d	-0.09896741
80	0x3da1e35e	0.07904695
81	0x3e120f01	0.14263536
82	0xbe580f16	-0.21099505
83	0xbe4d7c37	-0.20066915
84	0xbdb17416	-0.0866472
85	0xbb2f78bd	-0.0026774846
86	0xbe30c73f	-0.17263506
87	0x3a5f498d	0.0008517735
88	0x3e584fb7	0.21124159
89	0xbe34405b	-0.17602675
90	0xbd102a9a	-0.035196878
91	0xbdeaba3a	-0.11461301
92	0x3e0fb600	0.14034271
93	0xbdfbfb5f	-0.123038046
94	0x3e2d72c2	0.16938308
95	0xbdc68e71	-0.09695137
96	0x3d6b1d64	0.057401076
97	0xbcb82f2d	-0.022483433
98	0x3e606d36	0.2191666
99	0xbdc45320	-0.09586167
100	0xbdf78407	-0.12085729
101	0x3e624fad	0.22100706
102	0xbe36ef33	-0.17864685
103	0x3c8c9c8f	0.017164497
104	0x3dd49f0f	0.103819005
105	0xbd10e062	-0.035370238
106	0x3e1115d8	0.14168489
107	0xbe6e7530	-0.23286891
108	0xbd599f67	-0.053130534
109	0xbdf5f90a	-0.12010391
110	0x3e07ac44	0.13249308
111	0x3e376324	0.17908913
112	0xbe4d8e33	-0.20073776
113	0xbd432fe3	-0.04765309
114	0xbe34e2b3	-0.17664604
115	0xbdf41d1e	-0.11919616
116	0x3dcca392	0.09992136
117	0x3caf7c4f	0.02142158
118	0xbe3002a5	-0.17188509
119	0xbe273e89	-0.16332449
120	0xbe0285f5	-0.12746413
121	0x3d8fe312	0.07025732
122	0xbe662895	-0.22476418
123	0xbe176b32	-0.14786986
124	0xbe36a816	-0.17837557
125	0x3e438df1	0.19097115
126	0x3e50f470	0.20405746
127	0xbd905642	-0.07047702
128	0x3dabe5a5	0.083934106
129	0xbdd7bccc	-0.10534057
130	0xbdac6c79	-0.08419127
131	0x3e2dc709	0.16970457
132	0xbe0fedf5	-0.14055617
133	0xbcbddc1d	-0.023176247
134	0x3dc40fc5	0.0957332
135	0xbe56ede2	-0.20989183
136	0x3e89a05a	0.2688015
137	0x3dd7dc3f	0.105400555
138	0x3e438c69	0.19096531
139	0xbc03befd	-0.008041141
140	0xbdd760a7	-0.10516482
141	0xbdf5536c	-0.11978802
142	0xbe6743fb	-0.22584526
143	0xbe8db94c	-0.27680433
144	0xbd0be2a9	-0.034151707
145	0x3d88e979	0.066851564
146	0xbddd65a3	-0.10810401
147	0x3e76e5d2	0.24111107
148	0xbe27a756	-0.16372427
149	0x3da7aa84	0.0818682
150	0xbd93bbb8	-0.07213539
151	0x3e24ba13	0.16086607
152	0xbe14adc2	-0.14519408
153	0x3d08e46a	0.033420958
154	0x3cacb4e6	0.021082353
155	0x3e548da8	0.20757163
156	0xbe5f6f07	-0.21819697
157	0xbd41cb04	-0.04731275
158	0xbd305a24	-0.043054715
159	0xbe8e9a03	-0.27851877
160	0xbd4cdc78	-0.050014943
161	0xbe80bd67	-0.25144503
162	0x3d87b74d	0.06626759
163	0xbd0e78af	-0.03478306
164	0xbe2929a8	-0.16519797
165	0x3e50b422	0.20381215
166	0x3e15d300	0.14631271
167	0xbdd19af1	-0.10234631
168	0xbc9fa87a	-0.019489516
169	0x3e507a04	0.20359045
170	0xbdbfde9d	-0.09368632
171	0x3df8e531	0.1215309
172	0x3dbaf868	0.09129411
173	0xbd96548b	-0.07340344
174	0xbe2a33da	-0.16621342
175	0xbd7f9549	-0.06239823
176	0xbe6eb547	-0.2331134
177	0x3d535f36	0.051604472
178	0x3e181778	0.14852703
179	0xbdcbef50	-0.099577546
180	0xbd8dd655	-0.06925646
181	0xbca5a8d4	-0.020222105
182	0x3d8abca2	0.0677426
183	0x3e4f74a6	0.20259342
184	0xbe7f4070	-0.24926925
185	0xbe0f0c82	-0.13969615
186	0x3d3344ab	0.04376666
187	0xbe3ae205	-0.18250282
188	0x3d1f8b32	0.038951106
189	0xbdf4b74f	-0.11949026
190	0x3d8c39cb	0.06846961
191	0xbe22ec5f	-0.15910481
192	0x3e30bb68	0.1725899
193	0x3e2ee398	0.17079008
194	0xbe52d2ad	-0.20588179
195	0xbe2792ab	-0.16364543
196	0x3be168b6	0.0068789376
197	0xbe1892a0	-0.14899683
198	0xbddbb60c	-0.10728082
199	0x3e4fea6b	0.20304267
200	0x3d489d4f	0.048978146
201	0xbd993156	-0.07480113
202	0xbdc1b89a	-0.09459038
203	0x3cfc5f1d	0.030807072
204	0x3e42240c	0.18959063
205	0x3e757243	0.23969369
206	0x3e40b3f8	0.18818653
207	0x3e82b0d4	0.25525534
208	0xbe1ec993	-0.15506582
209	0xbdb4f2cb	-0.088353716
210	0x3d900a5a	0.070332244
211	0xbe00dd58	-0.12584436
212	0xbe0f3776	-0.13986
213	0x3d3d0d02	0.046154983
214	0x3e60641b	0.21913187
215	0x3e224600	0.15847015
216	0x3e60c9e8	0.21952021
217	0x3dd66a35	0.10469476
218	0x3b013adc	0.001971892
219	0xbe2e5ba5	-0.17027147
220	0x3ddc2c8c	0.10750684
221	0xbe23b604	-0.15987402
222	0x3e2ba5b2	0.16762426
223	0x3e6f51cc	0.23371047
224	0xbe0da244	-0.1383143
225	0x3e32fc85	0.17479141
226	0xbce7df1c	-0.028304629
227	0x3e72f3f7	0.23725878
228	0xbe87c268	-0.26515508
229	0x3b6d5020	0.0036211088
230	0xbd9121f9	-0.07086558
231	0x3da3aa60	0.07991481
232	0x3caf899c	0.021427922
233	0x3c97e074	0.018539645
234	0xbe897b1c	-0.26851737
235	0xbe59b7be	-0.21261498
236	0x3e711dc8	0.23546517
237	0xbde59b3b	-0.112112485
238	0x3e2d244b	0.16908376
239	0xbe08f167	-0.13373338
240	0x3e3ecf0f	0.18633674
241	0xbd10ddf1	-0.03536791
242	0xbdecedcd	-0.115687944
243	0x3e91158a	0.28336746
244	0x3e667cc5	0.22508533
245	0xbe0ed548	-0.13948548
246	0xbd897578	-0.067118585
247	0x3d6b6562	0.057469733
248	0x3c0a038a	0.008423695
249	0x3e7f2ae5	0.24918707
250	0x3dc97075	0.098359026
251	0x3d45d241	0.048296217
252	0xbe4f411b	-0.2023968
253	0x3da49504	0.08036235
254	0x3e8a311f	0.269906
255	0x3e55f584	0.20894438

gru.weight_ih_l0 f4 [192, 64]
0	0xbe4b4590	-0.19850755
1	0x3e1296c5	0.14315327
2	0x3c291845	0.010320728
3	0xbd12b25a	-0.03581462
4	0x3e1f5fa0	0.15563822
5	0x3e26e5aa	0.16298547
6	0xbe012400	-0.12611389
7	0x3cbe2b0c	0.023213886
8	0x3cdab81c	0.026699118
9	0xbd7a2b3f	-0.0610764
10	0xbe6e87c8	-0.23293984
11	0x3d2b3665	0.04179992
12	0xbb1b68a6	-0.0023713498
13	0x3bfdf484	0.007750096
14	0xbd71fac3	-0.059077036
15	0xbde67642	-0.11253025
16	0xbe2cac1b	-0.16862528
17	0x3d0e0638	0.0346739
18	0x3d86246a	0.06549914
19	0xbe059af1	-0.13047387
20	0x3e224588	0.15846837
21	0x3ca91a57	0.020642443
22	0x3cc75dd9	0.024336742
23	0x3e2f736a	0.1713387
24	0xbe3726ec	-0.17885941
25	0xbe1c881d	-0.15286298
26	0x3e009f23	0.12560706
27	0x3d7eadbd	0.06217741
28	0xbdab7827	-0.083725266
29	0x3d60125e	0.054705016
30	0xbdb9a56b	-0.09064754
31	0xbc960f6e	-0.018317904
32	0xbd464583	-0.048406135
33	0xbd01cf51	-0.031691853
34	0xbdf500ad	-0.119630195
35	0x3e11e6e0	0.14248228
36	0xbd17e942	-0.037087686
37	0x3daf6f64	0.08566168
38	0x3e1a6480	0.150774
39	0x3cbf6207	0.023362173
40	0x3da9f2f6	0.08298294
41	0xbc69033d	-0.0142219635
42	0xbd1556c5	-0.036459703
43	0xbe11179f	-0.14169167
44	0xbc9a62f4	-0.018846013
45	0xbd9d79aa	-0.07689221
46	0xbd6dbb9d	-0.05804025
47	0xbdb36ae4	-0.08760622
48	0x3d260fa2	0.040542252
49	0x3d1b8759	0.037970874
50	0x3d8180ea	0.063234165
51	0x3dc67bc6	0.09691577
52	0x3dd7ae71	0.10531319
53	0x3b96ef9e	0.0046062013
54	0x3e11d2aa	0.14240518
55	0xbb912f5c	-0.0044306945
56	0xbdba01eb	-0.09082397
57	0x3d1c16f1	0.038107816
58	0x3db86928	0.09004432
59	0x3e1b1ad1	0.15146948
60	0xbd222c1f	-0.03959286
61	0xbe4cd359	-0.20002498
62	0xbda4a70e	-0.08039676
63	0xbd864f1e	-0.06558059
64	0xbe3744a9	-0.17897286
65	0x3d2769a2	0.040872224
66	0xbda31067	-0.07962113
67	0x3d300770	0.042975843
68	0x3e0c5e36	0.13707814
69	0x3de3d195	0.11123959
70	0x3bf06e11	0.0073373397
71	0x3ddb31fc	0.10702893
72	0x3d676fe1	0.05650318
73	0x3dc67a3d	0.09691284
74	0xbdf0828b	-0.11743649
75	0xbc89029c	-0.016724877
76	0x3d916a88	0.07100397
77	0x3d6a2938	0.057168216
78	0xbd8ca5cc	-0.06867561
79	0x3e0cb79a	0.13741913
80	0x3d065823	0.032798897
81	0xbe31f4b9	-0.1737851
82	0x3c6ab78f	0.01432599
83	0xbcedab7f	-0.02901244
84	0x3d5e9a5e	0.054346435
85	0xbcce412b	-0.025177559
86	0x3c94cc97	0.018163962
87	0x3dc64765	0.09681586
88	0xbe18da59	-0.14927043
89	0xbd7f7435	-0.062366683
90	0xbd68e93c	-0.056863055
91	0xbc8f6886	-0.017505895
92	0x3d47ea3b	0.048807364
93	0x3e12b263	0.14325862
94	0xbd0bb853	-0.034111332
95	0xbbb50d68	-0.00552528
96	0x3be41bee	0.0069613373
97	0xbbdba485	-0.006702962
98	0x3d7f4995	0.062326033
99	0x3ddb5009	0.10708625
100	0x3da14ca0	0.07875943
101	0x3de3fa9b	0.111317836
102	0x3dd7fc85	0.10546211
103	0xbd0e1e63	-0.034696948
104	0x3dd6609c	0.104676455
105	0x3cb4cd3e	0.022070523
106	0x3d5a0baa	0.05323378
107	0xbd0770a1	-0.033066396
108	0x3da92d6c	0.08260617
109	0x3d7f534f	0.06233531
110	0x3d26ad21	0.040692452
111	0xbe231fc8	-0.15930092
112	0x3e145caf	0.14488481
113	0x3d230221	0.039796952
114	0x3d83a454	0.064278275
115	0x3c9e4e65	0.01932449
116	0x3dceed50	0.101038575
117	0xbdeb5a5d	-0.11491845
118	0xbd542ab8	-0.051798552
119	0xbd9df10c	-0.07711992
120	0x3d9d68ab	0.076859795
121	0x3c82d8f9	0.015972601
122	0x3d9aa999	0.075518794
123	0x3d98fef4	0.074705034
124	0x3cb7a06d	0.022415364
125	0xbb3dbaed	-0.0028950528
126	0xbdc1d763	-0.0946491
127	0xbd975290	-0.073887944
128	0xbd6ecaf2	-0.058299012
129	0xbd75d81d	-0.060020555
130	0xbd372d6a	-0.044721045
131	0x3db4c77c	0.08827111
132	0x3d99cad7	0.07509392
133	0x3c32feaa	0.010924974
134	0xbd9bf0ff	-0.07614326
135	0xbd5ced63	-0.053937327
136	0xbd5d97a3	-0.05409969
137	0x3dfe5193	0.12417903
138	0xbda33bb9	-0.079703756
139	0x3d23035d	0.03979813
140	0xbc698d41	-0.014254869
141	0x3d0cd8b1	0.03438634
142	0x3b383405	0.0028107178
143	0xbd8a7fed	-0.06762681
144	0x3da53e92	0.08068575
145	0x3d3e383b	0.046440344
146	0x3d5e7f72	0.05432076
147	0xbbcdd54b	-0.00628153
148	0xbdd6e51c	-0.10492918
149	0x3d9a4b33	0.07533874
150	0xbd34cead	-0.044142414
151	0x3bf659c7	0.0075180265
152	0xbd110fd0	-0.03541547
153	0xbde15abb	-0.110036336
154	0xbca48bd2	-0.020086203
155	0x3dc97010	0.09835827
156	0xbd8d37c7	-0.06895404
157	0x3de4d6b7	0.11173766
158	0x3dd0ae3e	0.10189484
159	0x3dd47e06	0.103755996
160	0xbd48f113	-0.04905803
161	0x3bb49168	0.005510498
162	0x3e0f56e7	0.13997994
163	0xbd47810e	-0.04870706
164	0xbdbec165	-0.09314231
165	0x3b0c5602	0.002141357
166	0x3d87a32d	0.0662292
167	0x3dc0432a	0.093878105
168	0xbc8fde62	-0.017562095
169	0xbe1ec980	-0.15506554
170	0x3dda46d8	0.106580436
171	0xbe76da59	-0.2410673
172	0x3de12fb1	0.109954245
173	0xbcdf6be1	-0.02727312
174	0xbdae78d1	-0.08519138
175	0xbd9009e0	-0.070331335
176	0x3e15e3e2	0.14637712
177	0xbdb15828	-0.086593926
178	0xbcff7235	-0.031182388
179	0x3dd19cdf	0.10234999
180	0x3d13e41f	0.036106225
181	0xbda47691	-0.08030427
182	0x3c732796	0.014840981
183	0x3d7365a1	0.059423093
184	0xbdbdb4a8	-0.09262973
185	0xbc532d35	-0.012889196
186	0xbb7cdb82	-0.0038582985
187	0x3b24724a	0.0025092536
188	0x3a63b462	0.0008686242
189	0xbe2cae15	-0.16863282
190	0x3b066d07	0.0020511763
191	0xbda0ab1b	-0.07845136
192	0x3d0bc148	0.034119874
193	0x3e17c33f	0.14820574
194	0xbd286703	-0.041113865
195	0xbd648997	-0.05579528
196	0x3de2bbe4	0.110709935
197	0xbddaa092	-0.106751576
198	0x3d62c548	0.055363923
199	0x3e09879d	0.13430639
200	0x3ddad9cd	0.106860735
201	0xbd2639ae	-0.04058235
202	0xbd1cf0f4	-0.03831573
203	0x3dfd6a8b	0.12373837
204	0x3d00c31a	0.031436063
205	0xbcc05bdc	-0.023481302
206	0x3d010ade	0.031504504
207	0x3dc713dd	0.097205855
208	0x3a908654	0.0011026361
209	0xbd578dd5	-0.052625496
210	0x3d586387	0.05282929
211	0xbdb44694	-0.08802524
212	0x3de6457c	0.11243722
213	0xbd885f6f	-0.066588275
214	0x3e424222	0.1897054
215	0x3da7c843	0.08192494
216	0xbe57c686	-0.21071824
217	0xbda1971d	-0.07890151
218	0x3d30c5e6	0.04315748
219	0xbde6dcd6	-0.1127259
220	0xbdf370dd	-0.11886761
221	0xbda5b59b	-0.08091279
222	0x3d5893a4	0.052875176
223	0xbcae4645	-0.021273741
224	0xbd7a0884	-0.061043277
225	0x3c0dce74	0.008655179
226	0xbddf5515	-0.109049
227	0xbca50a0c	-0.020146392
228	0x3cdfc38b	0.027314922
229	0x3e286a64	0.16446835
230	0x3c44c967	0.012010909
231	0xbccf18fb	-0.025280466
232	0x3c40eb3a	0.011774832
233	0xbc1c4fbd	-0.009540495
234	0xbd0c30bb	-0.03422616
235	0x3d54ef6b	0.05198614
236	0x3db4f279	0.088353105
237	0xbd2d43e6	-0.04230108
238	0xbd8efacc	-0.069814295
239	0xbe061f00	-0.13097763
240	0x3ca167e4	0.01970286
241	0xbe2f2f60	-0.17107916
242	0xbc2c6f47	-0.010524577
243	0xbd5a59d4	-0.053308323
244	0x3d53d1f6	0.051713906
245	0x3dda2970	0.10652435
246	0x3e851219	0.2599037
247	0xbda0f603	-0.07859423
248	0x3d0be609	0.034154925
249	0x3dc94f88	0.098296225
250	0x3ca56172	0.020188067
251	0x3d6f7909	0.058465037
252	0xbd3825f5	-0.044958074
253	0xbdf2ebba	-0.118613675
254	0x3d466ae6	0.04844179
255	0xbd9ebdc2	-0.07751037

gru.weight_hh_l0 f4 [192, 64]
0	0x3da53753	0.08067193
1	0x3e0015b9	0.12508287
2	0x3d821cf3	0.06353178
3	0xbd8a006c	-0.06738362
4	0xbca99986	-0.020703088
5	0x3e6575fa	0.22408286
6	0x3d1dbabf	0.038508173
7	0x3d47f873	0.048820924
8	0xbc9750e6	-0.018471193
9	0x3d1e7561	0.03868616
10	0x3d8aa4ab	0.06769689
11	0xbd90c664	-0.0706909
12	0xbd686432	-0.05673618
13	0x3e1bce46	0.15215406
14	0x3cede7a9	0.029041128
15	0x3d889aec	0.06670174
16	0x3e4b4389	0.19849981
17	0xbdb25778	-0.087080896
18	0x3e1b4b23	0.15165381
19	0xbe18b58a	-0.14913002
20	0x3ddc303d	0.10751388
21	0xbde200df	-0.110353224
22	0x3e0089d7	0.12552582
23	0x3c71d3c2	0.01475996
24	0xbb8f57c2	-0.004374475
25	0x3d4538f8	0.048150033
26	0x3d9e8e36	0.07741968
27	0x3ce34064	0.027740665
28	0x3d2344bf	0.039860483
29	0xbcd0e3ce	-0.02549925
30	0x3c561799	0.01306715
31	0xbd6ceb4e	-0.05784159
32	0xbdb829dc	-0.08992359
33	0xbd2d438e	-0.042300753
34	0xbce63cb1	-0.028105112
35	0xbd6f4201	-0.058412556
36	0xbd85d0af	-0.06533944
37	0x3df52533	0.11969986
38	0x3e29a48a	0.16566673
39	0xbcd7d1b4	-0.026345111
40	0x3d7ccde8	0.061719805
41	0xbe059f85	-0.13049133
42	0x3e2a0bde	0.1660609
43	0xbdfe38ab	-0.12413152
44	0xbdc8c3aa	-0.09802945
45	0x3ca9ecfc	0.020742886
46	0xbd58ac2b	-0.052898567
47	0xbdff80bc	-0.12475726
48	0x3c240dea	0.010013083
49	0x3c30eaf6	0.010798207
50	0xbe52d0f0	-0.20587516
51	0xbdd1f335	-0.10251466
52	0xbd5122c5	-0.05105855
53	0xbd9f5012	-0.07778944
54	0xbdc97df4	-0.09838477
55	0xbd0b8975	-0.034066636
56	0xbc409d47	-0.011756248
57	0x3d5b8ebd	0.053602923
58	0x3d560415	0.052249987
59	0x3d823fe7	0.06359845
60	0xbc7b5282	-0.015339496
61	0x3dcfec1b	0.101524554
62	0xb9ff164a	-0.00048653997
63	0x3d4fb1e4	0.05070676
64	0x3dcd252d	0.10016856
65	0x3d1eec66	0.038799666
66	0x3ead8f28	0.33898282
67	0x3db1d647	0.08683448
68	0x3dd6bbbc	0.10485026
69	0x3d91eb69	0.07124979
70	0x3db560d6	0.088563606
71	0xbd858b16	-0.06520669
72	0xbde50601	-0.11182786
73	0xbd16a292	-0.036776133
74	0x3dabe45a	0.08393164
75	0x3de230a9	0.110444374
76	0x3dd5f3a0	0.104468584
77	0x3db5d7df	0.08879065
78	0xbe23a3ed	-0.15980501
79	0x3d801074	0.06253138
80	0x3da786b0	0.081799865
81	0xbd322d19	-0.04350004
82	0xbd18b412	-0.037281103
83	0xbc8a8e6f	-0.01691362
84	0x3d2e6550	0.042577088
85	0x3db1dea8	0.086850464
86	0x3b37b42b	0.0028030972
87	0xba9efa92	-0.0012129119
88	0xbc4697b1	-0.012121127
89	0xbd122ecf	-0.03568917
90	0x3d89e65b	0.0673339
91	0xbc896c65	-0.01677532
92	0x3d1a3103	0.037644397
93	0xbdfd39d4	-0.123645455
94	0xbe16a4a6	-0.14711246
95	0xbe512181	-0.20422937
96	0x3deb6623	0.114940904
97	0xbe34a40f	-0.17640708
98	0x3cebf325	0.028802464
99	0x3dd2b492	0.10288347
100	0xbe2a6a7c	-0.16642183
101	0x3c1d2cee	0.009593232
102	0x3dd9ffbd	0.10644481
103	0xbe1af4fe	-0.1513252
104	0xbd50e86d	-0.05100291
105	0xbd550827	-0.052009728
106	0xbe4a51b6	-0.19757733
107	0x3e276553	0.16347246
108	0xbbeb0627	-0.0071723643
109	0x3d12a5fc	0.035802826
110	0x3db78904	0.089616805
111	0xbcf7989e	-0.03022414
112	0x3e476e58	0.19475687
113	0xbd8add16	-0.0678045
114	0x3c4c6aa7	0.0124766
115	0xbd4cf5d6	-0.050039135
116	0xbe373a1a	-0.17893258
117	0x3d8c717d	0.06857584
118	0x3d1d32d1	0.03837854
119	0x3d0b17a9	0.03395811
120	0x3ce7b5ca	0.028284926
121	0xbd30e558	-0.04318747
122	0x3e0b530b	0.13605897
123	0xbdc16586	-0.09443192
124	0x3c0f807e	0.008758662
125	0xbdab0b68	-0.08351785
126	0xbd5befb2	-0.05369539
127	0xbca8fdb1	-0.020628782
128	0x3d904cd6	0.07045905
129	0x3db040b9	0.08606095
130	0x3d5fa016	0.05459603
131	0x3df0a48b	0.11750134
132	0xbd6422e6	-0.055697344
133	0xbd9ac3c5	-0.07556871
134	0xbd9517e6	-0.07279949
135	0x3dd162e8	0.10223943
136	0xbe05fcaf	-0.13084672
137	0xbd220864	-0.039558783
138	0xbe0701aa	-0.13184229
139	0x3e0f0d01	0.13969804
140	0x3dc15eed	0.09441934
141	0x3c914483	0.017732864
142	0xbe2596cc	-0.16170806
143	0xbda2800d	-0.0793458
144	0x3da94a19	0.08266086
145	0x3da1bfb9	0.07897896
146	0xbe14715b	-0.14496367
147	0x3dd063bd	0.101752736
148	0xbe9b0874	-0.30279887
149	0x3e3351ee	0.17511722
150	0x3b9697ce	0.0045957332
151	0xbe1157c6	-0.14193639
152	0xbdc40709	-0.09571654
153	0xbe07272c	-0.13198537
154	0xbe1c18ad	-0.15243788
155	0xbe6b411c	-0.22974056
156	0xbe00484c	-0.12527579
157	0x3c7a2c68	0.015269376
158	0x3b21f29f	0.0024711264
159	0xbd779b26	-0.060450695
160	0xbc947531	-0.018122287
161	0xbe595a08	-0.2122575
162	0xbdb1d5d8	-0.086833656
163	0xbc6b2235	-0.014351417
164	0x3cd19637	0.025584323
165	0x3e065df3	0.13121776
166	0x3e1739a6	0.14768085
167	0xbdc37df5	-0.09545509
168	0xbdd16c8c	-0.10225782
169	0x3dcd894f	0.10035955
170	0xbb44a1ff	-0.0030003784
171	0x3eae2ffc	0.34020984
172	0xbdcab731	-0.09898222
173	0xbc9e3ce1	-0.019316139
174	0x3d36bc4c	0.044613168
175	0xbcb1ee8c	-0.021720193
176	0x3dbec181	0.09314252
177	0xbd02e6a3	-0.031958234
178	0x3e14342b	0.14473026
179	0xbd580bdc	-0.052745685
180	0xbe076171	-0.13220765
181	0x3d808a23	0.062763475
182	0xbdd41a7c	-0.10356614
183	0x3e1671d0	0.14691854
184	0xbd2a614d	-0.0415967
185	0x3e0fd7cb	0.14047162
186	0xbcdf8877	-0.027286751
187	0x3c90247d	0.017595524
188	0x3dadcd13	0.084863804
189	0xbccca06e	-0.024978843
190	0x3d486a06	0.048929237
191	0x3cdd080c	0.026981376
192	0x3d4b843c	0.049686655
193	0xbdae2d53	-0.08504739
194	0x3d530ccb	0.051525872
195	0x3d69a8b3	0.05704565
196	0x3e080ce1	0.13286163
197	0x3cf833a7	0.030298067
198	0x3df62335	0.12018434
199	0x3d5b8c0f	0.053600367
200	0x3e242f22	0.16033605
201	0xbd95da06	-0.07316975
202	0x3c527f5d	0.012847749
203	0x3d80554b	0.06266268
204	0xbd1a2ab2	-0.037638374
205	0x3de64c7c	0.11245057
206	0xbbccdd23	-0.0062519475
207	0xbd0f6009	-0.035003696
208	0x3d9e2bea	0.0772322
209	0xbd12c3de	-0.035831325
210	0xbd94fc87	-0.07274728
211	0x3cbbb5e0	0.022913873
212	0x3e8a4085	0.2700235
213	0xbdbf37ac	-0.093367904
214	0x3d2c4e49	0.042066846
215	0xbd6310c1	-0.0554359
216	0xbdc7dc60	-0.0975883
217	0xbdba6841	-0.09101916
218	0x3deb6c25	0.11495236
219	0xbcdfe15b	-0.027329138
220	0xbaf73615	-0.0018860722
221	0x3de07532	0.10959853
222	0xbdb5c4bd	-0.088754155
223	0x3d5be0da	0.053681232
224	0x3c986705	0.018603811
225	0x3c432669	0.011911013
226	0x3c879c8f	0.016554145
227	0xbd4530b1	-0.04814214
228	0xbb57f407	-0.0032951848
229	0x3c141df0	0.009040341
230	0xbd1295d7	-0.03578743
231	0xbd086932	-0.033303447
232	0xbc8875ef	-0.016657798
233	0xbd0fa9c4	-0.03507401
234	0xbe02d6f4	-0.1277731
235	0x3c8a30db	0.016869
236	0x3bd99ac8	0.006640766
237	0x3d60025b	0.054689746
238	0xbdc5660c	-0.096386045
239	0x3e66556b	0.22493522
240	0x3d58f410	0.05296713
241	0xbdba7bc5	-0.091056384
242	0x3e22a070	0.15881515
243	0xbdddb389	-0.10825259
244	0x3dea8fd6	0.11453216
245	0x3cafe4f9	0.021471487
246	0x3c9fde5b	0.019515207
247	0xbe0ad79e	-0.13558814
248	0x3e0da67f	0.13833044
249	0xbd8efcb0	-0.0698179
250	0x3e481855	0.19540532
251	0xbd00156d	-0.031270433
252	0x3c9c543e	0.019083139
253	0xbd853974	-0.06505099
254	0xbd5ef0fa	-0.054429032
255	0xbe0139c0	-0.12619686

gru.bias_ih_l0 f4 [192]
0	0x3dfd0e90	0.12356293
1	0x3dc2962f	0.095013015
2	0x3c0d0ca8	0.0086089745
3	0x3e11f3a9	0.14253105
4	0xbd8eb0a9	-0.06967289
5	0x3d240967	0.04004803
6	0x3d9bb615	0.07603089
7	0x3da654a4	0.08121613
8	0x3bea0877	0.0071421224
9	0x3dacd41f	0.084388964
10	0xbd03c38c	-0.03216891
11	0x3d40706a	0.046982206
12	0x3d3cb785	0.046073455
13	0x3ccc8237	0.024964435
14	0x3d52f80d	0.05150609
15	0x3da943f7	0.082649164
16	0x3dff723a	0.12472959
17	0xbc366412	-0.011132257
18	0xbb930a88	-0.0044873394
19	0x3cd9046b	0.026491364
20	0xbdc16fea	-0.09445174
21	0x3d1f9112	0.03895671
22	0x3e19caaa	0.15018716
23	0xbd6de510	-0.05807978
24	0xbdac4c6d	-0.084130146
25	0xbcb54dbe	-0.022131797
26	0x3d483b88	0.0488849
27	0x3d5ac68f	0.053412016
28	0x3d145b85	0.036220092
29	0x3da4b045	0.08041433
30	0x3cedf8e9	0.029049354
31	0xbd2a0887	-0.04151204
32	0xbdbe0ab5	-0.09279386
33	0xbd80b600	-0.06284714
34	0xbc89e242	-0.016831521
35	0x3e09f90b	0.13473909
36	0x3e3aee94	0.18255073
37	0xbd826f53	-0.0636889
38	0x3ce44eb3	0.027869558
39	0xbdf3d43e	-0.11905716
40	0xbc834177	-0.016022427
41	0xbdec3970	-0.11534393
42	0xbde18a56	-0.110127136
43	0x3db05789	0.08610446
44	0x3d9ecbc1	0.07753707
45	0x3da717ac	0.08158812
46	0xbd17b48f	-0.03703743
47	0xbceac358	-0.0286576
48	0xbce42bd6	-0.027852934
49	0x3d9f6035	0.07782022
50	0x3da9c281	0.08289052
51	0xbcb8922c	-0.022530638
52	0xbd9c7558	-0.07639569
53	0xbc1bfb93	-0.009520429
54	0xbd55a107	-0.05215552
55	0xbd02ae78	-0.031904668
56	0x3cdf4b3d	0.027257556
57	0x3dd95a3f	0.10612916
58	0x3ddf0846	0.1089025
59	0x3d5b1f96	0.05349692
60	0xbdad6bee	-0.084678516
61	0xbd558d3c	-0.052136645
62	0xbd8920c4	-0.06695703
63	0xbc33fc53	-0.010985452
64	0x3dd33e59	0.10314626
65	0xbe0bc3dc	-0.13648933
66	0x3d1531b6	0.03642436
67	0xbd18a962	-0.03727091
68	0x3c6bb1f7	0.014385692
69	0xbd95c2be	-0.07312535
70	0xbdc097a0	-0.0940392
71	0xbbfd2abf	-0.007726043
72	0xbd29faa9	-0.041498814
73	0x3d153a75	0.036432702
74	0xbe32330a	-0.17402282
75	0x3d179bda	0.037013866
76	0xbd82604d	-0.06366024
77	0xbe4d8eec	-0.20074052
78	0x3e207cbc	0.15672582
79	0xbc65eb94	-0.014033217
80	0xbdd8198b	-0.10551747
81	0xbc982a49	-0.01857485
82	0x3dd94467	0.1060875
83	0x3c67cff1	0.014148698
84	0x3d916355	0.07099024
85	0x3b88dc59	0.004176658
86	0xbb9fe29c	-0.004879309
87	0xbcfc9396	-0.030832093
88	0xbd837692	-0.064191
89	0xbd4a0cad	-0.049328495
90	0xbe360893	-0.17776708
91	0xbdb79b9c	-0.08965227
92	0xbe02156d	-0.12703486
93	0xbd53edc2	-0.051740415
94	0xbe07e144	-0.13269526
95	0x3d2c5380	0.04207182
96	0xbdac9bf0	-0.0842818
97	0xbd935fae	-0.07195984
98	0x3cc4aa6c	0.024007045
99	0xbdaa2773	-0.083083056
100	0x3d339c1e	0.043850057
101	0xbd9003b6	-0.07031958
102	0xbe43b29c	-0.19111103
103	0x3daf6b4d	0.08565388
104	0xbe2a3e4f	-0.16625331
105	0xbd7dcb2e	-0.061961345
106	0x3c47652c	0.012170117
107	0x3cc1ab6d	0.023641312
108	0xbc5b1b91	-0.013373272
109	0xbdf04929	-0.11732704
110	0xbdab7f29	-0.08373863
111	0xbe20be6c	-0.1569764
112	0xbe2c3d3b	-0.16820233
113	0x3c93e68f	0.018054275
114	0xbe7686b3	-0.24074821
115	0xbe2f4490	-0.17115998
116	0x3cbcf7bd	0.02306735
117	0xbe55675d	-0.20840211
118	0x3d768278	0.06018302
119	0xbde9fbaa	-0.11424954
120	0xbbbefc1e	-0.0058283946
121	0xbe8c3f1b	-0.27391896
122	0x3cd131f5	0.025536517
123	0xbc711788	-0.014715083
124	0xbb66f09f	-0.0035238636
125	0x3d67b65a	0.05657039
126	0xbe3f6ef1	-0.18694665
127	0x3d8234a2	0.06357695
128	0x3e19c9ee	0.15018436
129	0x3e00060e	0.1250231
130	0x3d6c61d5	0.057710487
131	0xbd59c4fc	-0.053166375
132	0xbe121e2d	-0.14269324
133	0xbcbd4797	-0.023105426
134	0xbd8e54a6	-0.06949739
135	0xbde6b017	-0.11264055
136	0xbd0a27d9	-0.033729408
137	0xbc646c2f	-0.013941809
138	0x3d58d033	0.05293293
139	0xbdf8222d	-0.121158935
140	0xbdd282cd	-0.102788545
141	0x3c92be30	0.017912954
142	0xbda2c667	-0.079479985
143	0x3d856111	0.065126546
144	0xbc67db9b	-0.014151479
145	0xbdb8ec41	-0.09029437
146	0x3d959997	0.073046856
147	0xbdc8c39b	-0.09802934
148	0x3db2604a	0.08709772
149	0xbd961627	-0.07328444
150	0xbd460878	-0.04834792
151	0xbe0dbf48	-0.138425
152	0x3d404730	0.04694289
153	0xbd4ae911	-0.049538676
154	0x3c276a48	0.0102182105
155	0xbdcd079d	-0.10011218
156	0x3daa59f2	0.08317937
157	0x3abdd423	0.0014482777
158	0x3d9de494	0.077096134
159	0xbddd59bb	-0.1080813
160	0x3b38df19	0.0028209148
161	0x3e05c01f	0.1306157
162	0xbd52b575	-0.051442582
163	0xbd1b186e	-0.037865095
164	0xbd3cd641	-0.046102766
165	0x3d4fc40c	0.050724074
166	0x3e129dbc	0.14317983
167	0x3dd3b520	0.10337281
168	0xbdfc6ca3	-0.12325408
169	0xbdbeb9ed	-0.09312806
170	0xbd7f9fb3	-0.06240816
171	0x3da73f8d	0.08166418
172	0xbe0d58e3	-0.13803439
173	0xbd9e2643	-0.077221416
174	0x3c9e062e	0.019290056
175	0xbd66bc4a	-0.05633191
176	0x3cb0c126	0.021576475
177	0xbd830cab	-0.063989006
178	0x3dfb308c	0.12265119
179	0x3b9737cc	0.004614806
180	0xbdbb2dac	-0.091395706
181	0x3d97ee28	0.074184716
182	0x3db0dcbe	0.08635853
183	0xbce5797b	-0.028012028
184	0xbcd65644	-0.026164182
185	0xbe343fe7	-0.17602502
186	0xbdbf4f12	-0.09341253
187	0x3d10a22e	0.035310917
188	0xbe029840	-0.12753391
189	0x3dd68ead	0.10476432
190	0xbc9e9c84	-0.019361742
191	0x3d82db80	0.063895226
