models/gnn-rnn/gnn_rnn_r_quarter_linear.pth (torch, 152840 bytes, 17 tensors)

fc_measurement.0.weight f4 [32, 1]
0.8218924 0.92709255 -0.3437604 1.0319071 -0.24424654 0.10670315 -0.66739357 0.75330555
0.9555303 -0.8699795 0.9320313 0.17736273 0.88366795 0.34573808 0.57885337 -0.26643786
0.905007 0.33820954 -0.61167336 0.3968819 -0.45834035 -0.16141498 -0.5628893 0.74938375
-0.818941 -0.58562493 -0.43812454 -0.7196094 0.25491306 -1.0514901 1.0704495 -0.9875384
00000000: 8a67 523f f055 6d3f 5d01 b0be 8815 843f
00000010: c41b 7abe 2e87 da3d 4eda 2abf a2d8 403f
00000020: a29d 743f fab6 5ebf 9a99 6e3f 939e 353e
00000030: 1038 623f 9504 b13e bc2f 143f 8b6a 88be
00000040: 8aae 673f cd29 ad3e a096 1cbf 1b34 cb3e
00000050: 96ab eabe f849 25be 8319 10bf 9dd7 3f3f
00000060: 1ea6 51bf 84eb 15bf dc51 e0be 5238 38bf
00000070: f783 823e 3a97 86bf 7d04 893f 51cf 7cbf

fc_measurement.0.bias f4 [32]
0.9359748 0.09395267 -0.2597522 0.6302286 0.27719605 0.9642423 0.3041151 -0.48318338
0.2636041 -0.24971588 0.39468715 0.98236823 0.60917616 -0.49716002 0.7154874 0.30076095
0.49957195 -0.51680845 -1.0014995 -0.456951 -0.91426164 1.1203232 0.45274994 0.45716995
0.41757768 0.06367576 1.1667731 -0.74839985 -0.16891006 -0.6836181 0.16683078 -0.29137406
00000000: 0b9c 6f3f 426a c03d 3efe 84be a956 213f
00000010: a4ec 8d3e 95d8 763f f9b4 9b3e d063 f7be
00000020: 1ef7 863e 85b5 7fbe 6f14 ca3e 7c7c 7b3f
00000030: f8f2 1b3f c28b febe 2f2a 373f 57fd 993e
00000040: e5c7 ff3e 8f4d 04bf 2331 80bf 7bf5 e9be
00000050: 0d0d 6abf c066 8f3f d7ce e73e 2e12 ea3e
00000060: becc d53e 7068 823d d258 953f 2297 3fbf
00000070: c2f6 2cbe 9901 2fbf b0d5 2a3e fb2e 95be

fc_measurement.2.weight f4 [32, 32]
-0.0009462651 -0.08383631 0.25869524 -0.15074359 -0.055235386 -0.17989384 0.21877217 0.01648907
0.12315008 -0.07027716 -0.22174361 -0.21027946 -0.16484171 0.05240405 -0.0012734231 0.19283804
-0.13725793 -0.13361849 0.22759034 -0.10572083 0.24326092 -0.02842753 0.15272164 -0.18359783
-0.033484694 0.12029467 0.06738092 0.061262563 0.06200862 0.20650922 -0.17471069 -0.018200912
0.20886165 -0.008982999 -0.087718554 -0.1238261 -0.11634177 0.07984208 -0.033074316 -0.077508755
0.054315817 -0.13397634 -0.10131755 -0.055535477 -0.1082528 -0.0429352 0.22257625 0.019859202
0.10139134 -0.103545696 -0.13350914 -0.007510479 0.023321712 -0.14675993 -0.08700728 -0.057716962
-0.009607812 -0.07607507 -0.031582072 -0.13847539 -0.078671366 -0.11917785 -0.0116191115 -0.1530696
0.2577075 0.045178607 0.045751944 0.13147168 -0.056608435 0.23887368 0.039030183 0.073973656
-0.0711779 -0.18725698 0.123472124 0.0796146 0.14712879 0.102638714 0.23935184 -0.047962356
0.041450232 0.28108573 -0.040286683 0.3309291 0.04346214 -0.08549198 0.12873167 0.0024682514
0.06405171 -0.07294208 0.22810599 -0.2544988 0.18003516 -0.013848427 0.13123323 -0.11203762
0.18662544 0.040048912 0.18347625 -0.12837462 0.20742305 0.011154204 0.042858724 0.089228235
0.05430377 0.027243847 -0.06504754 0.027051436 0.12301131 -0.08454569 -0.08021637 0.064779975
-0.10862781 0.028307151 0.2949449 -0.22390465 0.18433906 0.18418369 0.15667808 -0.03445862
0.21333992 0.21492532 0.17599039 0.11601725 -0.067637295 0.15128818 -0.023426453 0.07269959
0.11712104 0.16156691 -0.078069694 -0.033557963 -0.069157764 -0.015184768 -0.014794827 0.06779088
-0.15179771 -0.1284737 0.15623406 0.064677864 -0.0036426838 -0.037260767 -0.10510878 -0.23413497
-0.05164987 0.12880239 0.07141677 0.11743151 -0.18895604 -0.09312796 -0.08298714 0.1774215
-0.029613491 -0.10585092 -0.02738371 -0.12553254 -0.10777372 0.065827295 -0.07206837 -0.09872995
-0.10660611 0.25177106 0.1022928 0.15845563 -0.26209396 -0.26696807 -0.19126809 0.33424503
0.2069711 0.106243685 0.20064734 -0.04803283 0.09065919 0.17187165 -0.086739816 -0.32488322
0.17139447 0.21998194 -0.038956475 0.14850749 -0.01989667 -0.48928812 -0.23137242 0.15618743
-0.12734737 0.06566898 -0.3054138 -0.15697595 0.11611339 -0.123729385 0.07132978 -0.21064048
0.006175806 -0.1218635 -0.021476418 0.024948064 0.1541619 0.06580209 0.1325495 -0.078738175
0.04931949 0.13142863 -0.06261779 0.18788244 -0.09824092 -0.16266093 -0.0023731245 -0.14125276
0.06377296 0.11165755 -0.010027713 -0.039084774 -0.34407353 0.12244228 0.12093091 -0.23188017
-0.026291696 -0.11474509 0.043309256 -0.1981827 -0.11233897 -0.12101397 -0.177555 0.10867111
0.03241062 -0.07824155 0.07910577 -0.1398696 -0.08964362 -0.1558792 0.13988042 -0.14785857
-0.16355097 0.06798789 -0.11214516 -0.052560925 -0.06846657 -0.07832607 -0.17970209 -0.018090308
-0.20817542 0.10977984 0.019341359 -0.0017663579 0.013452794 0.06346004 0.23417883 0.017249383
-0.08227331 0.14761841 0.2253728 0.13684425 0.05604082 0.2597572 -0.07827042 0.11871341
00000000: c70e 78ba 5fb2 abbd b473 843e 875c 1abe
00000010: 803e 62bd 1736 38be d005 603e 1614 873c
00000020: 1c36 fc3d 79ed 8fbd c210 63be 8053 57be
00000030: 44cc 28be a1a5 563d fde8 a6ba 5677 453e
00000040: 588d 0cbe 49d3 08be 710d 693e 2a84 d8bd
00000050: 6419 793e dae0 e8bc 1063 1c3e 1201 3cbe
00000060: 3f27 09bd 0d5d f63d 02ff 893d 74ee 7a3d
00000070: c0fc 7d3d 2777 533e 5ce7 32be 141a 95bc
00000080: d4df 553e 6e2d 13bc c9a5 b3bd 8a98 fdbd
00000090: 9844 eebd 3f84 a33d ef78 07bd e9bc 9ebd
000000a0: 437a 5e3d 1831 09be 937f cfbd 2b79 63bd
000000b0: a5b3 ddbd d2dc 2fbd 07eb 633e c4af a23c
000000c0: 43a6 cf3d c40f d4bd 9fb6 08be 771a f6bb
000000d0: 2d0d bf3c 3c48 16be df30 b2bd 9f68 6cbd
000000e0: 166a 1dbc 3fcd 9bbd 345c 01bd 7ecc 0dbe
000000f0: 741e a1bd 8413 f4bd 165e 3ebc 47be 1cbe
00000100: 3df2 833e 340d 393d 6466 3b3d 83a0 063e
00000110: 3fde 67bd 4d9b 743e 1dde 1f3d 807f 973d
00000120: b8c5 91bd 4bc0 3fbe f4de fc3d fb0c a33d
00000130: eea8 163e 3f34 d23d a618 753e 2d74 44bd
00000140: b8c7 293d 78ea 8f3e a603 25bd 8a6f a93e
00000150: 5b05 323d 6b16 afbd 3cd2 033e 63c2 213b
00000160: 8b2d 833d a862 95bd 9e94 693e ab4d 82be
00000170: 235b 383e 83e4 62bc 0162 063e fb73 e5bd
00000180: bd1a 3f3e 540a 243d 33e1 3b3e a374 03be
00000190: b566 543e 1fc0 363c a18c 2f3d 4bbd b63d
000001a0: a16d 5e3d 7d2e df3c a537 85bd f99a dd3c
000001b0: 5bed fb3d 4a26 adbd 7b48 a4bd 5dab 843d
000001c0: 4278 debd 66e4 e73c 0503 973e 4347 65be
000001d0: 61c3 3c3e a69a 3c3e 3870 203e 7b24 0dbd
000001e0: c875 5a3e 6215 5c3e d336 343e 749a ed3d
000001f0: 6c85 8abd 4aeb 1a3e d5e8 bfbc 86e3 943d
00000200: 28dd ef3d cc71 253e 01e3 9fbd 1374 09bd
00000210: 96a2 8dbd 88c9 78bc 0166 72bc f2d5 8a3d
00000220: dc70 1bbe 9c8e 03be d2fb 1f3e d475 843d
00000230: 18ba 6ebb bf9e 18bd 4643 d7bd 14c1 6fbe
00000240: d08e 53bd c6e4 033e f542 923d ee7f f03d
00000250: b17d 41be dfb9 bebd 29f5 a9bd fbad 353e
00000260: fe97 f2bc 5ec8 d8bd cd53 e0bc 9a8b 00be
00000270: 78b8 dcbd 76d0 863d 9598 93bd ee32 cabd
00000280: 4e54 dabd 23e8 803e e37e d13d 3142 223e
00000290: 2e31 86be 0ab0 88be c8db 43be 2a22 ab3e
000002a0: 3bf0 533e 4a96 d93d 7f76 4d3e 13be 44bd
000002b0: 87ab b93d 1fff 2f3e a5a4 b1bd 1857 a6be
000002c0: 0882 2f3e f242 613e d390 1fbd 5912 183e
000002d0: 57fe a2bc f983 fabe e4ec 6cbe 99ef 1f3e
000002e0: 5967 02be 757d 863d 335f 9cbe 4ebe 20be
000002f0: dbcc ed3d d565 fdbd 5915 923d 23b2 57be
00000300: 6a5e ca3b 9293 f9bd 50ef afbc e25f cc3c
00000310: 9edc 1d3e 3fc3 863d 0ebb 073e 7b41 a1bd
00000320: 3c03 4a3d 3a95 063e c23d 80bd 4164 403e
00000330: 8932 c9bd 9690 26be 6c86 1bbb 90a4 10be
00000340: 669b 823d b7ac e43d 474b 24bc 5b17 20bd
00000350: 682a b0be 05c3 fa3d a0aa f73d ff71 6dbe
00000360: af61 d7bc 79ff eabd 0c65 313d 68f0 4abe
00000370: f911 e6bd 2cd6 f7bd fad0 35be f58e de3d
00000380: 00c1 043d 1b3d a0bd 3502 a23d fa39 0fbe
00000390: 1397 b7bd cc9e 1fbe d03c 0f3e 3d68 17be
000003a0: e879 27be 3c3d 8b3d 5dac e5bd 204a 57bd
000003b0: 3338 8cbd 6b69 a0bd d303 38be 2032 94bc
000003c0: f02b 55be 41d4 e03d c571 9e3c 2385 e7ba
000003d0: 1c69 5c3c 56f7 813d 93cc 6f3e 944e 8d3c
000003e0: e97e a8bd 4829 173e 21c8 663e e620 0c3e
000003f0: 0f8b 653d e5fe 843e 3e4c a0bd 0420 f33d

fc_measurement.2.bias f4 [32]
-0.10844907 -0.12331526 0.15163001 0.16604707 -0.16386239 -0.15458536 0.27174342 0.043724
-0.13828297 0.1564142 0.056417324 0.14104421 -0.074487574 0.12255663 -0.07190265 0.051097505
-0.13307817 0.30414054 0.069312535 0.079539984 0.0054487553 0.06610051 -0.020789037 -0.15693103
-0.0011018616 0.17481457 0.211541 0.12814234 -0.09089431 0.25897732 0.14005533 0.08298063
00000000: 8c1a debd b68c fcbd e644 1b3e 3e08 2a3e
00000010: 8bcb 27be a04b 1ebe f421 8b3e f017 333d
00000020: 0d9a 0dbe 0b2b 203e da15 673d e56d 103e
00000030: f18c 98bd f8fe fa3d b241 93bd 9e4b 513d
00000040: a545 08be 4fb8 9b3e bbf3 8d3d dce5 a23d
00000050: 798b b23b b45f 873d c54d aabc 87b2 20be
00000060: 576c 90ba 9702 333e 349e 583e bf37 033e
00000070: cc26 babd ad98 843e aa6a 0f3e c0f1 a93d

type_embedding.weight f4 [2, 32]
-0.053412426 -0.2501138 1.2534229 0.74914646 -1.8756872 0.24477197 1.6542263 -1.1217259
-0.8334707 -0.46615598 0.13900952 -0.21588908 1.23687 0.02728931 0.019696387 3.4945774
-1.1232098 -0.51452917 0.11724068 0.43898576 -0.051105876 -0.95480096 1.3052298 0.45762375
-0.14708611 2.541603 0.71358865 0.13558461 -1.3784282 -0.6751792 0.7204636 -0.12871435
-1.429097 -0.0693188 0.5543516 1.23986 2.1919448 1.7994974 0.3050347 -2.4950361
-0.4070306 -1.4521326 -0.45725027 -0.65960395 1.8678113 -0.73757285 0.48854452 -0.5140037
0.10739985 -0.3488476 0.9010435 -1.1506878 -1.1094038 -1.0441542 2.9633827 1.5204676
-0.57065713 -0.8893369 -0.65387416 0.14870846 -0.29986054 -0.79782116 1.289464 1.09244
00000000: fdc6 5abd ea0e 80be 2970 a03f 10c8 3f3f
00000010: 8516 f0bf 81a5 7a3e b0bd d33f b794 8fbf
00000020: 565e 55bf ffab eebe 8358 0e3e 0712 5dbe
00000030: c251 9e3f d58d df3c 515a a13c 28a7 5f40
00000040: 57c5 8fbf 2fb8 03bf e21b f03d bec2 e03e
00000050: 6554 51bd d66d 74bf c511 a73f a94d ea3e
00000060: be9d 16be a0a9 2240 bfad 363f b1d6 0a3e
00000070: 5670 b0bf 8bd8 2cbf 4d70 383f b2cd 03be
00000080: a7ec b6bf 04f7 8dbd fde9 0d3f bcb3 9e3f
00000090: d348 0c40 ee55 e63f 822d 9c3e acae 1fc0
000000a0: 5166 d0be 7bdf b9bf b51c eabe cedb 28bf
000000b0: 7114 ef3f 93d1 3cbf 8222 fa3e bf95 03bf
000000c0: 74f4 db3d 279c b2be c9aa 663f bd49 93bf
000000d0: f200 8ebf d8a6 85bf 10a8 3d40 af9e c23f
000000e0: 9616 12bf 95ab 63bf 4c64 27bf 0847 183e
000000f0: 5287 99be 023e 4cbf 280d a53f 13d5 8b3f

gcn1.bias f4 [64]
0.06945243 0.046469033 0.18447763 -0.08636686 0.023153156 -0.019703679 0.010781694 0.031496
0.110822864 0.027574308 -0.095103376 0.090369955 0.020861475 0.13822077 0.09095897 0.11623247
-0.0032943569 0.09711428 0.043845594 -0.061127078 -0.027581336 -0.03709271 0.010149873 -0.0045912685
0.006185958 0.07725728 0.03564239 0.12788576 0.042567987 0.11850712 0.1172764 0.028130017
0.06814555 0.06603188 0.072177626 0.059194367 -0.052504804 0.022466237 0.00046376605 0.05485179
0.14720851 -0.0014209938 -0.03499395 0.026737817 0.25602794 -0.0580375 0.024173046 0.068150535
0.027672732 -0.034042384 0.0772263 0.029010322 0.045956347 -0.053515032 0.04092112 -0.009089288
0.06504191 0.00078436284 0.11501789 -0.0076036793 0.10206277 -0.019154115 0.014012315 0.027512835
00000000: 133d 8e3d 5056 3e3d b4e7 3c3e 1ce1 b0bd
00000010: b0ab bd3c 9c69 a1bc b4a5 303c f301 013d
00000020: 19f7 e23d 84e3 e13c 8fc5 c2bd e213 b93d
00000030: afe5 aa3c bf89 0d3e b248 ba3d 4a0b ee3d
00000040: 23e6 57bb dae3 c63d 7097 333d 6360 7abd
00000050: 41f2 e1bc 87ee 17bd a74b 263c 5a72 96bb
00000060: 94b3 ca3b 1139 9e3d c1fd 113d 7cf4 023e
00000070: c55b 2e3d dcb3 f23d 9c2e f03d ec70 e63c
00000080: e58f 8b3d b93b 873d ddd1 933d cb75 723d
00000090: 470f 57bd 1d0b b83c a025 f339 45ac 603d
000000a0: d4bd 163e a440 baba d155 0fbd 4409 db3c
000000b0: 1816 833e bbb8 6dbd 8d06 c63c 8292 8b3d
000000c0: edb1 e23c 0770 0bbd d328 9e3d 0ea7 ed3c
000000d0: b93c 3c3d 9432 5bbd e89c 273d 3deb 14bc
000000e0: b134 853d b39d 4d3a 808e eb3d 4928 f9bb
000000f0: 4906 d13d 17e9 9cbc e993 653c 9962 e13c

gcn1.lin.weight f4 [64, 64]
-0.04533257 0.108811766 -0.56099373 0.12870266 -0.26465017 -0.32868046 0.31757796 0.20701832
-0.043694388 0.13161854 -0.39151728 0.11203871 0.23466977 -0.0783031 -0.1260121 -0.36710465
0.10850856 0.17664894 -0.23767121 -0.22112148 -0.089421585 -0.0888822 -0.0034415906 -0.65274054
0.061670147 -0.03218248 0.01238586 0.2413943 -0.3752559 0.115949124 -0.03237178 -0.040055744
-0.03994978 0.007472106 0.05540087 -0.11777061 -0.039920498 -0.1881235 -0.12972026 0.06428594
0.20031993 -0.22379324 -0.12512268 0.12047522 -0.11954331 0.11255271 0.043672215 -0.25102657
0.082177274 -0.11147966 0.069912255 -0.24821772 0.16723393 -0.08280888 0.14334072 -0.12302374
-0.19577046 0.031928867 0.0706633 -0.010119899 -0.14876887 -0.051450267 -0.14968555 0.10613705
-0.0034001698 0.12789352 0.30346942 -0.10125438 0.29566932 0.24882956 0.020732444 -0.22906639
-0.22674547 0.16882563 0.2645107 0.086489215 0.009442849 -0.060447074 -0.20545864 -0.04751179
-0.06111843 0.06161124 0.23929793 -0.076610595 0.1825819 0.1737154 -0.20147361 -0.037743833
0.013417409 0.118495345 0.18103498 0.06358165 0.2255959 0.15908235 0.24552347 -0.2013866
-0.1823702 -0.066208236 0.050786186 0.06867598 0.17922947 0.24016228 -0.013795063 -0.14908896
-0.034296352 -0.02018959 0.10459017 0.030460017 0.11805973 0.031674933 0.20048888 0.17202814
-0.06612902 -0.20340018 0.18812463 -0.036935 -0.1940145 -0.08774167 0.20826283 -0.0527306
-0.06703492 0.109552585 0.15929535 0.018208062 -0.2054807 -0.14200948 -0.019850139 0.05686619
-0.2072977 0.19829044 0.05585687 -0.15967917 -0.0074985963 -0.047351032 0.40333852 -0.023571992
-0.02873039 -0.16391173 -0.25279477 -0.019897372 0.16673517 -0.11538857 0.012503001 -0.16869801
-0.2313472 -0.025936894 -0.11497415 -0.13792683 -0.020612385 -0.033905625 0.099885166 0.076036595
0.030583093 -0.040651567 -0.06473633 0.05307489 0.124836415 0.5707279 -0.12062767 -0.18700323
-0.31104627 -0.29684645 0.25107884 0.04121909 0.094227046 0.14012739 0.16018334 -0.3760757
-0.080701776 0.063789904 -0.037504822 -0.24860136 0.32458213 0.029496325 0.0702073 0.35030752
-0.33009645 -0.25516483 0.30008337 -0.16548422 -0.16824421 -0.2986229 0.07734366 0.3373878
-0.008608209 -0.090714134 -0.09119933 0.20435269 -0.33875862 -0.32073352 -0.034896955 0.23659089
0.021160336 0.13176076 -0.08291218 -0.29424086 0.0034853406 0.06051676 -0.11340261 0.092398636
0.09383466 -0.06548784 0.0648417 0.032731872 -0.24198893 0.035097215 -0.27835608 -0.072678864
-0.009625738 0.07229024 -0.24320316 0.04242827 -0.23264578 0.15472913 -0.02746473 -0.11050471
0.01159254 0.1711599 0.04397124 -0.19171509 -0.0830827 0.25534913 -0.0069154524 -0.049336724
0.06799981 0.006302908 -0.13727063 -0.05596888 0.21094704 -0.118991606 -0.14023122 0.10835668
0.0012811655 0.25295284 0.19760577 0.071305975 -0.21088056 0.11097274 0.13201883 -0.014952575
0.17666282 -0.03638059 -0.26860327 -0.06600524 0.057056695 0.266603 -0.021787217 -0.10258696
0.007641492 -0.12776554 -0.16282943 -0.16362628 0.12342953 0.2202258 0.11447231 0.042641524
00000000: a5ae 39bd b4d8 de3d 499d 0fbf a1ca 033e
00000010: 3a80 87be ce48 a8be 9499 a23e 9cfc 533e
00000020: e3f8 32bd 03c7 063e f474 c8be 8d74 e53d
00000030: 464d 703e 605d a0bd 5109 01be 24f5 bbbe
00000040: bc39 de3d 76e3 343e 1560 73be ab6d 62be
00000050: aa22 b7bd df07 b6bd 4f8c 61bb 011a 27bf
00000060: d699 7c3d c7d1 03bd 10ee 4a3c 1130 773e
00000070: 8b21 c0be bc76 ed3d 4698 04bd 7e11 24bd
00000080: 61a2 23bd 91d8 f43b 06ec 623d b831 f1bd
00000090: ad83 23bd 72a3 40be 63d5 04be 59a8 833d
000000a0: ab20 4d3e 0e2a 65be 2920 00be b6bb f63d
000000b0: 1fd3 f4bd 0982 e63d a3e1 323d 8e86 80be
000000c0: 8f4c a83d 734f e4bd 282e 8f3d c92c 7ebe
000000d0: 5f3f 2b3e b497 a9bd e9c7 123e dff3 fbbd
000000e0: 0d78 48be d8c7 023d ecb7 903d efcd 25bc
000000f0: de56 18be 84bd 52bd 2b47 19be 625e d93d
00000100: 62d5 5ebb 85f6 023e 5860 9b3e 755e cfbd
00000110: f861 973e 2dcd 7e3e 16d7 a93c 6190 6abe
00000120: f72f 68be a0e0 2c3e f26d 873e 4221 b13d
00000130: 2eb6 1a3c 5a97 77bd c063 52be b99b 42bd
00000140: 5257 7abd 115c 7c3d 840a 753e 04e6 9cbd
00000150: c0f6 3a3e 73e2 313e 194f 4ebe 4799 1abd
00000160: b1d4 5b3c b0ad f23d 3c61 393e 1937 823d
00000170: 9d02 673e 7ce6 223e 816a 7b3e 4a38 4ebe
00000180: 41bf 3abe 2f98 87bd 2d05 503d fea5 8c3d
00000190: ee87 373e 1aed 753e b004 62bc c7aa 18be
000001a0: 557a 0cbd a464 a5bc 5f33 d63d 4987 f93c
000001b0: 4dc9 f13d 93bd 013d f54c 4d3e 2528 303e
000001c0: a76e 87bd 2348 50be bea3 403e 2849 17bd
000001d0: bdab 46be e8b1 b3bd da42 553e 0bfc 57bd
000001e0: 9b49 89bd 1b5d e03d 521e 233e 1329 953c
000001f0: 8869 52be ef6a 11be c29c a2bc 86ec 683d
00000200: d945 54be a60c 4b3e 2cca 643d f082 23be
00000210: c9b6 f5bb 28f3 41bd 6382 ce3e 0d1a c1bc
00000220: ff5b ebbc 7ad8 27be 516e 81be d0ff a2bc
00000230: a0bc 2a3e d850 ecbd 63d9 4c3c 2cbf 2cbe
00000240: 48e6 6cbe 9c79 d4bc 9177 ebbd b13c 0dbe
00000250: 4edb a8bc a0e0 0abd 9890 cc3d 13b9 9b3d
00000260: 6589 fa3c 4282 26bd 7b94 84bd 0e65 593d
00000270: 3caa ff3d 391b 123f a40b f7bd c67d 3fbe
00000280: 7541 9fbe 42fc 97be 688d 803e 59d5 283d
00000290: 1cfa c03d 8e7d 0f3e 1a07 243e ff8c c0be
000002a0: f946 a5bd 48a4 823d a89e 19bd 5b91 7ebe
000002b0: a12f a63e 47a2 f13c d8c8 8f3d 825b b33e
000002c0: 6702 a9be f7a4 82be 87a4 993e b274 29be
000002d0: 3648 2cbe 1ae5 98be 5a66 9e3d 18be ac3e
000002e0: 7209 0dbc 55c8 b9bd b7c6 babd d541 513e
000002f0: c571 adbe 2f37 a4be 1cf0 0ebd e244 723e
00000300: 7158 ad3c 4bec 063e dccd a9bd bda6 96be
00000310: 506a 643b 6ce0 773d a13f e8bd 7f3b bd3d
00000320: 632c c03d 7d1e 86bd bacb 843d db11 063d
00000330: f2cb 77be 19c2 0f3d b084 8ebe a8d8 94bd
00000340: 45b5 1dbc e80c 943d 400a 79be 44c9 2d3d
00000350: b23a 6ebe 5071 1e3e b7fd e0bc 4b50 e2bd
00000360: a3ee 3d3c 8a44 2f3e 301b 343d f650 44be
00000370: 4327 aabd 1fbd 823e 059b e2bb 4e15 4abd
00000380: 7c43 8b3d a088 ce3b ac90 0cbe a03f 65bd
00000390: 8002 583e dfb1 f3bd c698 0fbe 1bea dd3d
000003a0: c8ec a73a 0983 813e 2b59 4a3e de08 923d
000003b0: 13f1 57be ad45 e33d f22f 073e a5fb 74bc
000003c0: 19e7 343e d003 15bd 5e86 89be c12d 87bd
000003d0: 48b4 693d 3080 883e 1b7b b2bc 1d19 d2bd
000003e0: 7b65 fa3b f8d4 02be c2bc 26be a68d 27be
000003f0: 9fc8 fc3d df82 613e 7570 ea3d e1a8 2e3d

gcn2.bias f4 [64]
0.1586897 0.042066988 -0.03992035 0.054827217 0.016353155 0.031111274 0.027790701 0.039982136
0.047418375 -0.031198442 0.04116368 0.023259517 0.016666597 0.044304714 -0.015737953 0.03522662
0.0030196367 0.0010303678 0.017239578 0.07605983 0.031268917 0.17213254 0.044813596 0.007275668
0.1173271 -0.011560216 0.029636689 0.045230627 0.022338677 0.03576302 0.012933755 -0.010574747
-0.019485772 0.076785885 -0.005773374 0.038100213 0.08186134 0.014300465 0.0052829296 0.02631179
0.0127539225 0.0507789 0.052350715 0.04095854 0.01776611 0.013402149 0.042220388 0.04920118
0.02788366 0.05660661 0.027226448 -0.047736734 0.1374735 0.013125506 0.053935397 0.030103879
0.0016627755 0.045010578 0.013800014 0.0058767423 0.039490387 0.10962979 0.08050761 0.034004007
00000000: 8d7f 223e 6f4e 2c3d 8583 23bd 8192 603d
00000010: 0df7 853c 12dd fe3c 53a9 e33c 4fc4 233d
00000020: c539 423d e093 ffbc 3f9b 283d be8a be3c
00000030: 6388 883c dc78 353d e1ec 80bc ca49 103d
00000040: 19e5 453b 680d 873a 043a 8d3c 42c5 9b3d
00000050: d613 003d 8343 303e 768e 373d ba68 ee3b
00000060: 3149 f03d 0f67 3dbc a4c8 f23c c043 393d
00000070: 9aff b63c 3f7c 123d 1ae8 533c b441 2dbc
00000080: a0a0 9fbc eb41 9d3d 922e bdbb f80e 1c3d
00000090: eba6 a73d 7f4c 6a3c 6d1c ad3b d38b d73c
000000a0: d4f5 503c 89fd 4f3d b46d 563d 24c4 273d
000000b0: 3c8a 913c b094 5b3c 49ef 2c3d 2d87 493d
000000c0: 466c e43c 55dc 673d 000a df3c 9887 43bd
000000d0: dac5 0c3e 5d0c 573c 5deb 5c3d 699c f63c
000000e0: 7df1 d93a 035d 383d 7419 623c b091 c03b
000000f0: acc0 213d 9585 e03d 2de1 a43d c947 0b3d

gcn2.lin.weight f4 [64, 64]
0.19483167 0.064355284 0.4220609 -0.07226675 0.19814283 -0.16068529 -0.11322057 0.06836301
0.3226677 0.07183772 0.17183363 -0.024874287 0.4190269 0.259704 0.06292324 0.11975217
-0.19333242 0.18155232 0.1241551 0.07472194 0.14560215 -0.20388198 0.10487935 -0.069831885
-0.1624431 0.32624164 -0.0074013313 -0.15559864 0.04129908 0.1334489 0.30210838 0.017820084
0.18972424 -0.010537931 -0.0852134 -0.021074703 -0.08336007 -0.020393327 -0.1863061 0.20180705
-0.20044436 -0.011057474 0.0035376255 0.048986696 0.33177984 0.028919263 -0.017253846 -0.11805782
0.08794408 -0.15386178 0.14969882 -0.21652669 -0.20045523 -0.024309075 -0.35032526 0.2273728
0.15449198 -0.11660975 0.2909358 -0.1256153 0.21589954 -0.19829307 -0.00013607263 -0.0040274984
0.08474942 0.06774848 -0.19077294 -0.025560161 0.21489188 0.21534322 0.14147459 0.05020561
0.039920922 0.15848513 -0.18527403 0.004085848 -0.27006364 -0.0011283059 0.01088223 -0.106909536
0.11133331 0.2032377 -0.15789065 -0.16535823 -0.06957265 0.009851741 -0.22281899 0.001967979
0.2119146 -0.14544192 -0.009707655 -0.06208868 0.16152133 -0.121929385 0.18924414 -0.11437596
0.12394642 -0.05599274 0.22671257 -0.12238671 -0.11904901 0.25492698 -0.117856406 0.018000288
0.09461004 0.021866024 0.14574327 -0.19204657 -0.058648042 -0.1630316 0.13392876 0.19500732
-0.2227154 -0.058729086 -0.09181516 -0.13795958 0.09086681 0.049608674 -0.18728778 -0.11756176
-0.1259021 0.06580136 -0.14392109 -0.1830335 -0.14520925 0.18057518 0.2019677 -0.067335166
0.23406385 -0.09062553 0.0033137552 0.15048319 -0.17971899 -0.05307507 0.09821139 -0.21656398
0.3240269 0.091955215 0.13857074 0.002973444 0.104224324 -0.19886419 -0.22740035 -0.22371353
-0.075852096 0.012673254 -0.120633535 0.21602122 -0.21300282 0.07783421 -0.16616204 0.13822764
-0.15453109 0.04247848 0.035888325 0.020268682 -0.22031431 -0.2057592 0.020776618 -0.2906881
-0.10637823 -0.23630357 0.08034969 -0.048757102 -0.15177518 0.16758831 0.07771656 -0.10738767
-0.10363366 0.08608013 -0.076374814 0.13955416 0.03977806 0.08358941 -0.17114188 -0.10387959
-0.24975224 0.14559148 0.026530538 -0.1612272 -0.06431612 -0.021587646 -0.016581818 0.15758051
-0.26065382 -0.13314824 0.023170287 -0.20481275 0.0649888 -0.13438986 0.07642392 -0.13413352
0.04627039 0.15821545 -0.076539226 -0.12081649 0.004977626 -0.14368118 -0.109034434 0.20734398
0.2301508 -0.090045854 -0.05466712 0.1285068 0.07042518 0.24881192 0.18629636 0.26124385
-0.15688482 -0.02830655 0.058108795 -0.20400731 -0.1615665 0.061555646 0.20214617 0.13719647
0.20143075 0.20721976 0.043211963 -0.03279573 0.09569661 -0.023369934 0.2730874 0.22447868
-0.06500646 0.15304397 -0.014218357 0.20442097 -0.25404435 0.024487536 -0.033289492 0.122075275
0.05918847 0.120395705 -0.26809835 -0.024725495 0.34488383 0.011624453 0.15395068 -0.117416374
0.15810992 -0.060678083 -0.052032635 0.26090106 0.21097998 -0.1801206 -0.059908748 0.09906373
-0.0034834696 0.21769212 0.15722951 0.019372048 -0.094618656 0.060745724 0.25675353 0.23031375
00000000: f481 473e b4cc 833d 5e18 d83e 9700 94bd
00000010: f4e5 4a3e af8a 24be 30e0 e7bd e801 8c3d
00000020: b334 a53e a81f 933d 28f5 2f3e 29c5 cbbc
00000030: b28a d63e ecf7 843e e6dd 803d a040 f53d
00000040: eff8 45be dae8 393e 0745 fe3d d107 993d
00000050: bb18 153e 70c6 50be fcca d63d 0504 8fbd
00000060: 7c57 26be 2509 a73e de86 f2bb 4055 1fbe
00000070: 3929 293d d4a6 083e f3ad 9a3e 6dfb 913c
00000080: 1247 423e 49a7 2cbc 5d84 aebd dba4 acbc
00000090: afb8 aabd e80f a7bc 07c7 3ebe 82a6 4e3e
000000a0: 4941 4dbe 682a 35bc 82d7 673b 46a6 483d
000000b0: 0cdf a93e 17e8 ec3c f057 8dbc 4cc8 f1bd
000000c0: 071c b43d f18d 1dbe a64a 193e 2cb9 5dbe
000000d0: 2344 4dbe d323 c7bc d55d b3be 6ad4 683e
000000e0: 2533 1e3e 18d1 eebd 8af5 943e 4ca1 00be
000000f0: c514 5d3e 570d 4bbe b8ae 0eb9 1bf9 83bb
00000100: 1b91 ad3d b7bf 8a3d fb59 43be 8b63 d1bc
00000110: 9e0c 5c3e ef82 5c3e b7de 103e 66a4 4d3d
00000120: 1f84 233d ed49 223e 7ab8 3dbe 94e2 853b
00000130: c845 8abe aae3 93ba 614b 323c 63f3 dabd
00000140: b802 e43d 8b1d 503e 16ae 21be ab53 29be
00000150: 1b7c 8ebd 3269 213c a92a 64be 35f9 003b
00000160: 2400 593e baee 14be db0c 1fbc b350 7ebd
00000170: d965 253e 1db6 f9bd 37c9 413e f13d eabd
00000180: 9fd7 fd3d a558 65bd 5727 683e e2a5 fabd
00000190: f8cf f3bd ca85 823e b35e f1bd 5775 933c
000001a0: e9c2 c13d 6020 b33c b93d 153e dba7 44be
000001b0: ee38 70bd c1f1 26be 9f24 093e 00b0 473e
000001c0: 810f 64be e98d 70bd 9609 bcbd 4745 0dbe
000001d0: 6118 ba3d 7732 4b3d 5ec8 3fbe 38c4 f0bd
000001e0: 7bec 00be ddc2 863d 0d60 13be 226d 3bbe
000001f0: bcb1 14be b3e8 383e 9fd0 4e3e 05e7 89bd
00000200: 6fae 6f3e e199 b9bd 962b 593b 4418 1a3e
00000210: 4108 38be 3f65 59bd 0e23 c93d f3c2 5dbe
00000220: dbe6 a53e 0453 bc3d 7de5 0d3e 1dde 423b
00000230: 9073 d53d 0ea3 4bbe a3db 68be 2915 65be
00000240: 5858 9bbd 7ba3 4f3c b70e f7bd ab34 5d3e
00000250: 691d 5abe 8b67 9f3d 6226 2abe 8c8b 0d3e
00000260: 663d 1ebe eafd 2d3d a3ff 123d 820a a63c
00000270: 139a 61be 8ab2 52be ba33 aa3c 12d5 94be
00000280: d4dc d9bd 90f9 71be 618e a43d 87b5 47bd
00000290: f46a 1bbe 459c 2b3e dc29 9f3d 11ee dbbd
000002a0: e23d d4bd c74a b03d 666a 9cbd 49e7 0e3e
000002b0: 52ee 223d ed30 ab3d d13f 2fbe d3be d4bd
000002c0: 0dbf 7fbe ef15 153e 9256 d93c be18 25be
000002d0: 2cb8 83bd 93d8 b0bc 98d6 87bc c95c 213e
000002e0: 6b74 85be 0358 08be 9dcf bd3c 6fba 51be
000002f0: d918 853d 7f9d 09be 2584 9c3d 4c5a 09be
00000300: 0586 3d3d 3b03 223e 99c0 9cbd a36e f7bd
00000310: 5a1b a33b 2921 13be 724d dfbd fb51 543e
00000320: a7ac 6b3e f669 b8bd a1ea 5fbd 4997 033e
00000330: 143b 903d 8dc8 7e3e 79c4 3e3e c1c1 853e
00000340: 6aa6 20be 23e3 e7bc 7d03 6e3d 4be7 50be
00000350: b071 25be c621 7c3d 68ff 4e3e 3b7d 0c3e
00000360: dd43 4e3e 6b31 543e 07ff 303d d154 06bd
00000370: 96fc c33d 4e72 bfbc 1dd2 8b3e bddd 653e
00000380: 1b22 85bd 8fb7 1c3e 1df4 68bc bb53 513e
00000390: 1a12 82be 169a c83c 905a 08bd 9a02 fa3d
000003a0: 9c6f 723d 0692 f63d 3044 89be 1f8d cabc
000003b0: 9d94 b03e 7d74 3e3c 3fa5 1d3e ff77 f0bd
000003c0: 91e7 213e 9589 78bd 2c20 55bd d394 853e
000003d0: 230b 583e 8971 38be e062 75bd ede1 ca3d
000003e0: ec4a 64bb afea 5e3e c600 213e 21b2 9e3c
000003f0: 6dc7 c1bd 82d0 783d 3375 833e 5ed7 6b3e

gru.weight_ih_l0 f4 [192, 64]
0.04617677 0.10376879 -0.006661127 -0.018178888 0.16640787 0.19494979 0.05300018 0.03286153
0.012722744 -0.034579232 -0.09228934 0.048474923 0.011679488 0.19777972 0.02156665 0.033631153
-0.19735888 -0.032342903 0.03661655 0.016583452 0.17467624 0.038377985 0.014278068 0.14186147
-0.051465265 -0.17072241 0.08813918 0.13205804 0.03959276 0.04791505 -0.056850858 -0.019999254
0.0666396 0.025234738 -0.1572213 0.12722959 -0.08268449 0.09488483 0.15534557 0.035029918
0.10320438 0.10436571 0.04817621 -0.058631368 -0.0023599265 -0.077373676 0.07708486 0.061176658
0.02910841 0.080259435 0.05741553 0.11098227 0.15354246 0.18897635 0.056253802 0.020499498
0.049370687 0.0075534075 0.103181265 0.117430426 0.08694898 -0.009324793 0.13898717 -0.02276445
-0.21892042 0.004613957 -0.025209926 -0.022146907 0.0008335954 0.05704505 0.06438344 0.057471894
0.067000195 0.054507658 -0.041691765 -0.041868463 0.036973935 0.086148135 -0.027939754 0.13400343
0.09567531 -0.15264878 -0.027219066 0.035971053 0.024466507 0.03135387 -0.06476495 0.10165009
-0.17382021 -0.012410414 -0.080463655 -0.0215313 0.10179692 0.07503647 -0.072621755 0.036859624
0.011411889 -0.16709054 0.09516471 0.030683212 0.041536484 0.069532335 0.09548257 -0.1070492
0.10823116 0.115016945 0.0015132872 -0.030903475 0.036844473 0.03635978 0.04066948 -0.022007223
0.06525749 0.053289883 0.022109395 -0.029370157 0.19177149 -0.06812946 -0.058042835 -0.10447555
0.12931985 -0.045751013 -0.0006113183 0.013710784 0.10895134 -0.13105983 -0.18399566 -0.107181385
-0.3325623 -0.11044766 -0.08598569 0.05525442 -0.21897426 0.15607098 0.02511263 -0.028324224
0.30909428 0.21569717 0.33376586 0.21455611 0.37273696 0.053659923 -0.017390164 0.1677225
0.01152938 -0.106720835 0.051117208 -0.34546536 0.06865832 -0.14299458 -0.061440572 0.058347635
-0.61802286 -0.31802455 -0.043849375 0.31787553 0.097517304 0.1141528 0.37283733 0.047324345
0.1971572 -0.30960497 -0.045576707 -0.07161739 -0.054620903 0.14577791 0.31086037 0.08292143
-0.059148207 -0.09135723 -0.023815835 -0.46716636 0.21020898 0.3307538 0.20073791 0.2794767
0.06431221 0.36110005 -0.025092904 0.13963996 -0.40693262 0.10326122 -0.06020032 -0.06936329
0.33516616 -0.11162822 -0.081694946 -0.07251371 0.016830469 0.08163165 -0.5945122 0.12807181
0.26846442 0.15525772 -0.062620774 -0.025771204 0.15453178 -0.07852984 0.14070545 0.14444186
-0.017115312 -0.040888637 0.019885316 0.12504348 0.02914289 0.068945944 -0.0037263497 0.10651722
-0.005142104 -0.10421549 0.057324298 -0.0033102303 0.090796515 -0.018340884 0.15563111 0.10370599
-0.08419734 -0.079900414 0.030476732 -0.00887497 0.042323586 -0.028872477 0.10396186 0.0042907246
0.008681287 0.06401145 -0.12955391 -0.030048026 -0.008294957 0.14555931 0.02039879 -0.025485573
0.051837035 0.04489206 0.09861236 0.04637744 0.108786024 -0.056175385 -0.005481674 -0.09861716
0.0174442 -0.13258389 0.03978925 -0.038245276 0.040401343 0.15212727 0.08270249 0.071399495
0.07802331 0.14183944 0.059785407 0.08525849 0.054484177 -0.023405474 0.19288482 -0.0641122
00000000: da23 3d3d bb84 d43d 9545 dabb e4eb 94bc
00000010: d366 2a3e eba0 473e b716 593d d099 063d
00000020: 0e73 503c f4a2 0dbd 3202 bdbd a48d 463d
00000030: 535b 3f3c c486 4a3e 8bac b03c d2c0 093d
00000040: 7218 4abe fe79 04bd 3cfb 153d 05da 873c
00000050: 54de 323e 3c32 1d3d 8fee 693c 2244 113e
00000060: 3ecd 52bd dbd1 2ebe 5082 b43d 393a 073e
00000070: 052c 223d 9242 443d 72dc 68bd 7ad5 a3bc
00000080: 587a 883d 15b9 ce3c 9ffe 20be 7948 023e
00000090: 7c56 a9bd fa52 c23d e912 1f3e 887b 0f3d
000000a0: d15c d33d b0bd d53d 6b54 453d 7227 70bd
000000b0: ffa8 1abb 1776 9ebd abde 9d3d 6094 7a3d
000000c0: c374 ee3c 0f5f a43d 8c2c 6b3d ac4a e33d
000000d0: 3c3a 1d3e 0483 413e 636a 663d 90ee a73c
000000e0: eb38 4a3d 9382 f73b b350 d33d 5d7f f03d
000000f0: 4f12 b23d 04c7 18bc a752 0e3e 837c babc
00000100: ad2c 60be ad30 973b 0c85 cebc 6e6d b5bc
00000110: a485 5a3a 12a8 693d 77db 833d a667 6b3d
00000120: 6637 893d 6c43 5f3d fcc4 2abd 447e 2bbd
00000130: fb71 173d 6f6e b03d e9e1 e4bc 3238 093e
00000140: 6bf1 c33d f64f 1cbe 85fa debc 6256 133d
00000150: fc6d c83c ea6c 003d 7ca3 84bd ec2d d03d
00000160: edfd 31be 0d55 4bbc 21ca a4bd 6962 b0bc
00000170: e77a d03d b9ac 993d b7ba 94bd 1efa 163d
00000180: eff8 3a3c c819 2bbe b7e5 c23d 5c5b fb3c
00000190: 2922 2a3d f866 8e3d 5e8c c33d 9c3c dbbd
000001a0: 4ca8 dd3d 018e eb3d 7e59 c63a 4929 fdbc
000001b0: 3bea 163d feed 143d 0a95 263d 7e48 b4bc
000001c0: b8a5 853d 7e46 5a3d c31e b53c af99 f0bc
000001d0: bf5f 443e 7587 8bbd 53be 6dbd 47f7 d5bd
000001e0: 6c6c 043e 6a65 3bbd e040 20ba 32a3 603c
000001f0: e121 df3d 8c34 06be 5c69 3cbe ea81 dbbd
00000200: 9b45 aabe 6232 e2bd 4419 b0bd 7552 623d
00000210: ca3a 60be 12d1 1f3e 01b9 cd3c 3408 e8bc
00000220: 9b41 9e3e b8df 5c3e 5ce3 aa3e 99b4 5b3e
00000230: 61d7 be3e 82ca 5b3d d175 8ebc 72bf 2b3e
00000240: bae5 3c3c 7490 dabd 4760 513d d6e0 b0be
00000250: bc9c 8c3d 2c6d 12be 1ca9 7bbd eefd 6e3d
00000260: bf36 1ebf 1dd4 a2be 679b 33bd 95c0 a23e
00000270: 27b7 c73d f1c8 e93d 89e4 be3e 2cd7 413d
00000280: 94e3 493e 8b84 9ebe a4ae 3abd 23ac 92bd
00000290: 2bba 5fbd ce46 153e 1729 9f3e b6d2 a93d
000002a0: 6445 72bd 8019 bbbd 6d19 c3bc 6e30 efbe
000002b0: 0641 573e 9058 a93e 3d8e 4d3e 9217 8f3e
000002c0: 1fb6 833d 1be2 b83e a28f cdbc c7fd 0e3e
000002d0: 7959 d0be 9e7a d33d 9c94 76bd 570e 8ebd
000002e0: e69a ab3e 569d e4bd ae4f a7bd 1182 94bd
000002f0: 0de0 893c 7f2e a73d f431 18bf 4225 033e
00000300: 2b74 893e e1fb 1e3e 523f 80bd 221e d3bc
00000310: 943d 1e3e 41d4 a0bd 1715 103e 91e8 133e
00000320: 6935 8cbc d87a 27bd 88e6 a23c 660b 003e
00000330: 12bd ee3c 8833 8d3d c635 74bb b325 da3d
00000340: 187f a8bb ee6e d5bd e2cc 6a3d 73f0 58bb
00000350: 86f3 b93d 9f3f 96bc c35d 1f3e ce63 d43d
00000360: a86f acbd d4a2 a3bd 57aa f93c 5268 11bc
00000370: 7f5b 2d3d f985 ecbc f5e9 d43d 3599 8c3b
00000380: f53b 0e3c 6f18 833d c8a9 04be 4727 f6bc
00000390: 92e7 07bc 800d 153e 5d1b a73c 1fc7 d0bc
000003a0: 1253 543d bde0 373d 47f5 c93d 45f6 3d3d
000003b0: 35cb de3d 2918 66bd 9d9f b3bb cbf7 c9bd
000003c0: 24e7 8e3c 12c4 07be 0dfa 223d 14a7 1cbd
000003d0: e17b 253d 40c7 1b3e ec5f a93d e639 923d
000003e0: afca 9f3d 5c3e 113e 8be1 743d 019c ae3d
000003f0: cd2a 5f3d d6bc bfbc 9983 453e 424d 83bd

gru.weight_hh_l0 f4 [192, 64]
0.08474239 0.15969954 0.038672257 -0.019467417 -0.037665576 0.1896487 0.038428795 -0.009525377
0.029741956 0.007442785 -0.09168993 -0.016564947 -0.120445505 0.12367773 0.005705744 0.013493068
0.22445236 -0.09781737 0.15546697 -0.12558687 0.121097125 -0.17718908 0.10549598 0.020833082
0.015749045 0.035845134 0.150458 0.03458216 0.030422205 -0.09792668 -0.02094514 0.01158526
-0.15333717 0.018215815 0.060020566 -0.06750786 -0.008111878 -0.01966765 0.10649856 -0.18418829
-0.025803652 -0.1393096 0.20021205 -0.095540695 -0.12859294 0.053047705 -0.17113146 -0.15469359
0.14514494 -0.08658603 -0.1958672 -0.07113426 -6.4477805e-05 0.02610907 -0.14736427 -0.06465894
-0.06445419 0.042735785 0.046002578 -0.03854876 -0.093866795 0.15195207 0.001640262 0.044039994
0.06586923 -0.131082 0.18818691 0.09891179 0.043866713 -0.0414303 -0.049883235 0.09123698
-0.12704833 0.061775945 0.046412166 -0.09452559 -0.23152159 0.08052562 -0.10754001 0.21966068
-0.04918216 0.042814653 -0.019965453 -0.114714146 0.12489281 -0.013343956 -0.07638477 0.090535104
-0.03427454 0.12151992 0.17614421 0.12688956 0.1720854 0.054446194 -0.08976577 -0.08681892
-0.0309303 -0.09239681 -0.18361239 -0.20079105 -0.07340866 -0.25847068 -0.009539453 -0.104380436
0.024293004 0.06619974 -0.10177198 0.013719152 0.10890648 0.06646447 0.084183514 0.11601624
0.100824356 0.114395484 0.08271203 0.24203844 -0.16226694 0.14250143 0.18917485 -0.09451595
0.22156775 -0.01735183 -0.205805 -0.009366074 -0.13074738 -0.03766035 -0.032599084 0.053706124
0.008981126 0.0111088175 -0.32458952 0.054706387 -0.048058324 -0.12383443 -0.121891 0.18808182
0.028902842 0.022589862 -0.036003333 0.023953093 0.117281385 -0.008575554 -0.114446625 0.049780205
0.02759787 0.09599547 -0.10911372 0.06374212 -0.1509806 0.060350724 -0.07701058 -0.06589212
-0.07329193 0.033344757 -0.20381248 -0.09599249 -0.033433713 0.15671724 0.032575395 0.060882848
-0.024570223 -0.14061223 -0.1270454 -0.21001865 -0.15413347 0.17635505 0.05287428 0.09483924
-0.066230595 0.16394632 0.15588027 0.23489358 -0.035624254 0.009078297 -0.1135596 0.14108661
-0.004588151 0.08116531 0.26595557 0.029133592 0.24200894 -0.22619832 0.035405822 -0.06286518
0.07179854 0.20418091 -0.15792292 0.15290567 -0.0478504 -0.10336682 0.19374229 0.048269402
0.0809463 -0.0700851 0.044977747 0.016533246 0.07205525 0.047598924 -0.02078275 -0.080155805
0.0033165994 -0.12786862 0.011152263 0.065012485 -0.12219251 0.18074964 -0.0013953535 -0.05239647
0.085271746 -0.10674518 -0.022112494 0.06301234 0.13529634 -0.09198522 0.10610012 -0.11172447
0.0025505128 -0.1330909 0.1767163 -0.13264954 -0.045405507 0.017982258 -0.078165606 -0.080621235
0.038664903 0.031865533 -0.07177719 0.049292143 -0.034991596 -0.06877316 0.0152423205 -0.10617451
-0.034062207 -0.05998557 -0.07873302 0.08879592 0.001277678 0.06533213 -0.12620887 -0.020945773
0.1617017 -0.13802205 0.04168459 -0.12108195 0.070534505 0.0026735843 -0.013945228 -0.025356648
-0.028829094 -0.07202314 0.10660986 -0.12161881 0.042339083 -0.075382665 -0.016197607 -0.14161828
00000000: 6b8d ad3d 4788 233e cd66 1e3d 227a 9fbc
00000010: 3847 1abd 4533 423e 8367 1d3d 5410 1cbc
00000020: 67a5 f33c 9be2 f33b eec7 bbbd 36b3 87bc
00000030: 22ac f6bd c04a fd3d 40f7 ba3b 0712 5d3c
00000040: d7d6 653e 7954 c8bd bc32 1f3e d899 00be
00000050: c501 f83d 0e71 35be 470e d83d 24aa aa3c
00000060: 2404 813c 59d2 123d a911 1a3e 06a6 0d3d
00000070: fd37 f93c c98d c8bd 2495 abbc 1ad0 3d3c
00000080: 6b04 1dbe 5539 953c 20d8 753d 9041 8abd
00000090: afe7 04bc 0d1e a1bc eb1b da3d db9b 3cbe
000000a0: 2e62 d3bc 2da7 0ebe 6304 4d3e d7aa c3bd
000000b0: dead 03be 8d48 593d 163d 2fbe ff67 1ebe
000000c0: e0a0 143e 0454 b1bd 6991 48be d7ae 91bd
000000d0: 4238 87b8 b0e2 d53c a9e6 16be e86b 84bd
000000e0: 8f00 84bd b80b 2f3d 336d 3c3d 4ee5 1dbd
000000f0: 3c3d c0bd 5399 1b3e 0ffe d63a 4863 343d
00000100: 72e6 863d 5c3a 06be 12b4 403e 4492 ca3d
00000110: 95ad 333d d1b2 29bd 5d52 4cbd 74da ba3d
00000120: f518 02be c608 7d3d af1a 3e3d a296 c1bd
00000130: ff13 6dbe 9eea a43d f03d dcbd bbee 603e
00000140: 3c73 49bd 6b5e 2f3d 978e a3bc 40ef eabd
00000150: cdc7 ff3d 9ca0 5abc 9e6f 9cbd 786a b93d
00000160: 7663 0cbd 70df f83d 265f 343e 56ef 013e
00000170: 2837 303e f902 5f3d 1ed7 b7bd 1ece b1bd
00000180: 8a61 fdbc 8a3a bdbd e304 3cbe 2b9c 4dbe
00000190: 4857 96bd 4556 84be 5e4b 1cbc 69c5 d5bd
000001a0: 1f02 c73c bb93 873d d46d d0bd 4bc6 603c
000001b0: 5c0a df3d 861e 883d 6868 ac3d ec99 ed3d
000001c0: 007d ce3d 2e48 ea3d ed64 a93d edd8 773e
000001d0: 4e29 26be e5eb 113e 0db7 413e 9491 c1bd
000001e0: a8e2 623e 6d25 8ebc 8cbe 52be 2974 19bc
000001f0: a4e2 05be bd41 1abd 9e86 05bd f4fa 5b3d
00000200: 9325 133c c201 363c 9930 a6be ce13 603d
00000210: ced8 44bd e89c fdbd fda1 f9bd 8598 403e
00000220: a7c5 ec3c 600e b93c 3b78 13bd 4739 c43c
00000230: 3931 f03d 7b80 0cbc fe62 eabd 54e6 4b3d
00000240: ee14 e23c 4699 c43d 0477 dfbd 3b8b 823d
00000250: a99a 1abe 5232 773d b9b7 9dbd 73f2 86bd
00000260: 141a 96bd 8394 083d 38b4 50be b697 c4bd
00000270: caf1 08bd 7c7a 203e c76d 053d 4b60 793d
00000280: 7e47 c9bc a7fc 0fbe 3018 02be 210f 57be
00000290: 2ad5 1dbe 6b96 343e b392 583d 133b c23d
000002a0: e8a3 87bd 8be1 273e 149f 1f3e f187 703e
000002b0: bdea 11bd 23bd 143c f091 e8bd 0279 103e
000002c0: 3358 96bb 003a a63d 542b 883e 92a9 ee3c
000002d0: 31d1 773e 88a0 67be b205 113d 76bf 80bd
000002e0: 1d0b 933d cd14 513e 8cb6 21be 4e93 1c3e
000002f0: c8fe 43bd fcb1 d3bd 6164 463e 23b6 453d
00000300: 2cc7 a53d c788 8fbd 963a 383d bb70 873c
00000310: b491 933d 17f7 423d 9640 aabc ba28 a4bd
00000320: 4e5b 593b feef 02be fbb7 363c 4425 853d
00000330: 1140 fabd 6f16 393e 4be4 b6ba ae9d 56bd
00000340: f4a2 ae3d 389d dabd 4325 b5bc 9d0c 813d
00000350: 208b 0a3e bf62 bcbd 054b d93d cdcf e4bd
00000360: 8126 273b fb48 08be 1ef5 343e 48d5 07be
00000370: 20fb 39bd 874f 933c 4a15 a0bd bf1c a5bd
00000380: 175f 1e3d 6f85 023d ebff 92bd 8fe6 493d
00000390: 5953 0fbd f1d8 8cbd edba 793c 0672 d9bd
000003a0: d084 0bbd 6eb3 75bd c73e a1bd a3da b53d
000003b0: c277 a73a dacc 853d e63c 01be 7896 abbc
000003c0: 2195 253e a755 0dbe 76bd 2a3d d0f9 f7bd
000003d0: 6574 903d 4d37 2f3b 877a 64bc bfb8 cfbc
000003e0: fe2a ecbc de80 93bd 4556 da3d 4813 f9bd
000003f0: bf6b 2d3d 3a62 9abd d8b0 84bc 6204 11be

gru.bias_ih_l0 f4 [192]
0.12330766 0.055548437 -0.038991235 0.14203288 -0.10361834 0.06706044 0.1533759 0.06504737
0.042142186 0.081440106 0.081915475 0.01076982 -0.027537003 0.09193725 0.06515922 0.0827262
0.036453348 0.03661342 0.019136477 -0.017108962 -0.15822221 0.03103606 0.15364292 -0.06885723
-0.035987053 -0.11531855 -0.025851145 0.013630363 0.010900631 0.04764976 0.012929691 -0.071263485
-0.05648196 -0.040872347 -0.031100508 0.0433353 0.19761918 -0.067904636 0.018179882 -0.070884325
-0.041314173 -0.10846638 -0.08726384 0.06995209 0.009634854 0.0077124536 0.050123513 -0.05354561
0.085480705 0.02311467 0.007538351 -0.012706295 -0.08259957 -0.06661358 -0.05781595 0.0028785923
0.07799362 0.07807982 0.060033035 0.08561325 -0.15904483 -0.09679875 0.0044110245 0.07895321
0.06513035 -0.13573816 -0.02230903 -0.015541378 0.04161467 -0.08493637 0.030806296 -0.0046135937
-0.023295728 -0.01512613 -0.087435365 -0.035826366 -0.0029841631 -0.23325832 0.13351245 0.0022457293
-0.013264122 -0.04814877 0.09874697 0.09761201 0.073716566 0.0037392695 -0.014523969 0.03072942
-0.01567128 -0.031297006 -0.13525668 -0.10480073 -0.16345552 -0.08660654 -0.20031746 -0.10134368
-0.06178332 -0.037858363 0.124027714 -0.113674164 -0.05574142 -0.08859782 -0.11850212 0.0125867305
-0.11505509 -0.048163928 -0.0065206704 0.023731168 0.005241844 -0.04438712 -0.07999041 -0.24974169
0.030942695 -0.03814767 -0.19818488 -0.14223245 0.049286883 -0.11345805 -0.00012950583 -0.12304245
0.091175474 -0.15507868 -0.022407144 -0.11512834 -0.061411753 0.072055034 -0.11892812 -0.008179671
0.09735641 0.1474738 0.0744385 -0.015038279 -0.11973768 0.03595112 -0.036142834 -0.12352586
-0.020444656 -0.054954413 -0.046179194 -0.092914045 -0.14277382 -0.0024779919 -0.041870866 0.06973519
0.0124683725 -0.04475707 0.0918479 -0.10069616 0.102297395 -0.08034516 -0.07048223 -0.118934445
-0.017896306 0.0025914954 -0.02831697 -0.1218783 0.07280689 -0.034805413 0.13665487 -0.105684794
0.055857077 0.10131096 -0.042804897 -0.028374726 0.00064236217 0.05826604 0.14335811 0.0020878888
-0.15198751 -0.08997522 -0.07300328 0.02392954 -0.15220308 -0.09493063 0.08728482 -0.08542809
0.025388813 -0.0783332 0.13030621 -0.009517162 -0.10517404 0.08017908 0.047013506 -0.016767675
-0.05775276 -0.0591841 -0.08384479 -0.016900476 -0.130642 0.08541695 -0.05052111 0.08088863
00000000: ba88 fc3d c286 633d 46b5 1fbd 1171 113e
00000010: da35 d4bd fc56 893d 920e 1d3e 8e37 853d
00000020: 499d 2c3d 12ca a63d 4dc3 a73d e673 303c
00000030: 4895 e1bc 9949 bc3d 3272 853d 5b6c a93d
00000040: 1b50 153d f4f7 153d 1ac4 9c3c 1828 8cbc
00000050: 0105 22be 563f fe3c 9254 1d3e 0505 8dbd
00000060: 2967 13bd 222c ecbd c8c5 d3bc e351 5f3c
00000070: 8f98 323c 652c 433d 0ed7 533c 97f2 91bd
00000080: a159 67bd c369 27bd 7ec6 febc 5b80 313d
00000090: af5c 4a3e 9611 8bbd faed 943c cd2b 91bd
000000a0: 0d39 29bd 9f23 debd 62b7 b2bd 0b43 8f3d
000000b0: 82db 1d3c c0b8 fc3b 504e 4d3d a452 5bbd
000000c0: 8210 af3d fa5a bd3c 4604 f73b 102e 50bc
000000d0: f729 a9bd b36c 88bd 6bd0 6cbd c4a6 3c3b
000000e0: 1ebb 9f3d 50e8 9f3d 33e5 753d 0056 af3d
000000f0: a6dc 22be 6c3e c6bd 5b8a 903b 38b2 a13d
00000100: 1063 853d f2fe 0abe 6dc1 b6bc 44a1 7ebc
00000110: 2574 2a3d 1ff3 adbd 7c5d fc3c a12d 97bb
00000120: afd6 bebc 96d3 77bc 5011 b3bd abbe 12bd
00000130: f391 43bb 45db 6ebe 7db7 083e 162d 133b
00000140: c351 59bc a537 45bd da3b ca3d cee8 c73d
00000150: b6f8 963d 880e 753b f1f5 6dbc 44bc fb3c
00000160: 0e61 80bc 4a31 00bd ba80 0abe c4a1 d6bd
00000170: e260 27be c55e b1bd 0520 4dbe 468d cfbd
00000180: 8210 7dbd 5f11 1bbd 3e02 fe3d 00ce e8bd
00000190: 1d51 64bd c672 b5bd 3db1 f2bd 9338 4e3c
000001a0: 01a2 ebbd 8a47 45bd 59ab d5bb de67 c23c
000001b0: c6c3 ab3b 45cf 35bd 03d2 a3bd 49bc 7fbe
000001c0: 897b fd3c bb40 1cbd faf0 4abe 62a5 11be
000001d0: 0be1 493d b25c e8bd f5cb 07b9 aefd fbbd
000001e0: 35ba ba3d f2cc 1ebe 308f b7bc 68c8 ebbd
000001f0: e48a 7bbd 9791 933d 9690 f3bd 0704 06bc
00000200: cc62 c73d 5f03 173e 3673 983d 1d63 76bc
00000210: 0739 f5bd 7b41 133d 820a 14bd 20fb fcbd
00000220: 8d7b a7bc e117 61bd 6526 3dbd b849 bebd
00000230: 4d33 12be ce65 22bb c980 2bbd 53d1 8e3d
00000240: 2548 4c3c 3053 37bd c01a bc3d ca39 cebd
00000250: 4c81 d13d 018c a4bd fd58 90bd e793 f3bd
00000260: 469b 92bc 14d6 293b fef8 e7bc 559b f9bd
00000270: c71b 953d 1f90 0ebd 41ef 0b3e 4571 d8bd
00000280: 64ca 643d 1f7c cf3d 3054 2fbd 1d72 e8bc
00000290: 3264 283a 5fa8 6e3d 78cc 123e f6d4 083b
000002a0: 9da2 1bbe ee44 b8bd be82 95bd e207 c43c
000002b0: 20db 1bbe fd6a c2bd 62c2 b23d ecf4 aebd
000002c0: 33fc cf3c 286d a0bd fe6e 053e dfed 1bbc
000002d0: 7d65 d7bd ee34 a43d 3c91 403d 5d5c 89bc
000002e0: 288e 6cbd 076b 72bd d1b6 abbd de72 8abc
000002f0: 04c7 05be 15ef ae3d 39ef 4ebd f0a8 a53d

gru.bias_hh_l0 f4 [192]
0.107951805 -0.071607016 -0.17246513 0.0623446 0.021901177 0.10956532 -0.07233771 -0.045631304
0.01597805 -0.13253964 0.09913882 -0.02152718 -0.13765512 0.08475246 0.050184634 -0.046891063
0.0013309246 0.042616174 -0.08110807 -0.038419854 -0.07714693 0.054280803 0.12742926 0.026719114
-0.023471983 -0.073321894 -0.16299012 0.020592196 -0.022832384 -0.09896652 -0.11904191 -0.1596028
-0.017675193 -0.045283798 -0.13126063 -0.16006531 0.012854681 -0.09321587 0.070284165 0.008362794
-0.08199425 0.051731806 -0.1381437 0.021757824 0.042846736 -0.06940461 -0.020077586 -0.09643835
0.03768263 -0.10204531 0.024200397 0.07418962 -0.18146189 0.13464555 0.04888082 0.017608957
-0.082831174 0.03687531 0.05051917 -0.03573292 0.049945723 -0.020009357 -0.055680875 0.23667888
-0.026779393 -0.030400164 -0.15154812 -0.036794007 0.05865268 -0.01378751 0.050215103 -0.08637359
0.016701456 -0.009634638 -0.04947968 -0.04058064 -0.14112312 0.0115293795 0.07920442 -0.05570024
-0.099797204 0.047001462 -0.060699936 0.15844156 0.04109717 -0.13864602 -0.112414144 0.052469745
0.1024586 0.04707979 -0.14879234 0.09678583 -0.12333202 -0.11121815 -0.14704405 -0.105164826
0.059418716 0.0107646845 0.11409715 0.01334501 -0.010143176 0.062087376 -0.11941933 -0.22576459
-0.055676937 -0.16674446 -0.1333276 0.034629066 0.058162045 -0.13584934 0.051698916 -0.21162099
-0.012526691 -0.079696245 -0.16201729 -0.12611857 -0.04487333 0.11727995 -0.07217886 -0.04370284
-0.0663309 0.033493634 -0.03853506 0.04026447 -0.2116433 -0.15919219 -0.091576606 -0.20654419
0.015807325 -0.02215062 0.050086226 0.13309045 0.024873124 0.15214312 0.09277675 -0.08453805
0.04073277 -0.01117391 0.034761418 -0.076662265 -0.14103642 -0.058745857 -0.14283736 0.01900213
0.11445374 0.009147012 0.10607745 -0.14607415 0.09559865 0.006070568 -0.052524127 -0.046718735
0.059270695 -0.19276652 0.14247018 -0.10026652 0.02450424 -0.018965062 -0.07215217 0.020656018
-0.047780216 0.08810302 0.06446746 -0.042435307 0.17138359 -0.0009194095 0.00074949575 -0.08447238
-0.018124698 -0.11819084 0.06988456 0.05230122 -0.10254853 -0.06068305 0.10677707 0.048458107
-0.12344238 -0.0900277 -0.10599484 0.001423319 -0.019919772 -0.0021792012 -0.0080936765 -0.09537513
0.10708758 0.11816189 0.0051902314 -0.010974686 0.0021137465 0.13797876 0.023829028 -0.05411433
00000000: d615 dd3d b3a6 92bd b39a 30be 0d5d 7f3d
00000010: 196a b33c c863 e03d cb25 94bd e4e7 3abd
00000020: 66e4 823c 79b8 07be 4b09 cb3d c559 b0bc
00000030: 77f5 0cbe b392 ad3d 678e 4d3d d810 40bd
00000040: 6b72 ae3a 4c8e 2e3d fd1b a6bd 235e 1dbd
00000050: 36ff 9dbd 8c55 5e3d d17c 023e 0be2 da3c
00000060: 5148 c0bc ca29 96bd e2e6 26be f7b0 a83c
00000070: fb0a bbbc f5ae cabd 3fcc f3bd eb6e 23be
00000080: 91cb 90bc 817b 39bd 3069 06be 29e8 23be
00000090: 719c 523c f6e7 bebd 25f1 8f3d 1a04 093c
000000a0: 9aec a7bd bbe4 533d 8b75 0dbe 773d b23c
000000b0: 0f80 2f3d 0124 8ebd c079 a4bc 7881 c5bd
000000c0: 1a59 1a3d 22fd d0bd e93f c63c baf0 973d
000000d0: 25d1 39be 86e0 093e 4137 483d a940 903c
000000e0: 64a3 a9bd 910a 173d 30ed 4e3d af5c 12bd
000000f0: e393 4c3d aaea a3bc a111 64bd f35b 723e
00000100: 7560 dbbc c409 f9bc 6e2f 1bbe 50b5 16bd
00000110: cb3d 703d 02e5 61bc 5aae 4d3d a3e4 b0bd
00000120: 7ed1 883c 9ada 1dbc 34ab 4abd e337 26bd
00000130: 9482 10be b9e5 3c3c ed35 a23d ef25 64bd
00000140: 7a62 ccbd 9b84 403d 7fa0 78bd 813e 223e
00000150: 8255 283d 39f9 0dbe 6339 e6bd 84ea 563d
00000160: d1d5 d13d bdd6 403d 055d 18be a637 c63d
00000170: 8095 fcbd 57c6 e3bd b792 16be a860 d7bd
00000180: 0a61 733d 5c5e 303c c4ab e93d 07a5 5a3c
00000190: 902f 26bc 554f 7e3d 1f92 f4bd d52e 67be
000001a0: 800d 64bd 0fbf 2abe 0887 08be 35d7 0d3d
000001b0: 533b 6e3d 171c 0bbe 3ec2 533d 2cb3 58be
000001c0: c03c 4dbc c937 a3bd dce7 25be 3a25 01be
000001d0: 19cd 37bd 7830 f03d 83d2 93bd c001 33bd
000001e0: 7fd8 87bd 9f30 093d f0d6 1dbd 5bec 243d
000001f0: 05b9 58be 4703 23be 848c bbbd 5280 53be
00000200: 5d7e 813c 3875 b5bc 3727 4d3d dd48 083e
00000210: b9c2 cb3c 68cb 1b3e bd01 be3d 4922 adbd
00000220: 68d7 263d c712 37bc fd61 0e3d 1b01 9dbd
00000230: da6b 10be 7f9f 70bd f543 12be 5baa 9b3c
00000240: b966 ea3d 59dd 153c 223f d93d 7694 15be
00000250: 3ac9 c33d 9eeb c63b 8a23 57bd 255c 3fbd
00000260: d4c5 723d 9664 45be b4e3 113e 8958 cdbd
00000270: 1ebd c83c 9e5c 9bbc 84c4 93bd cf36 a93c
00000280: 30b5 43bd 5b6f b43d 8407 843d a5d0 2dbd
00000290: 2e7f 2f3e 8704 71ba cf79 443a dbff acbd
000002a0: 3f7a 94bc 0a0e f2bd a31f 8f3d ce39 563d
000002b0: f704 d2bd ca8e 78bd f0ad da3d 027c 463d
000002c0: 5ccf fcbd 7160 b8bd d313 d9bd a98e ba3a
000002d0: ca2e a3bc eed0 0ebb 579b 04bc 0954 c3bd
000002e0: bc50 db3d dcfe f13d d112 aa3b 2bcf 33bc
000002f0: c886 0a3b 4e4a 0d3e 1835 c33c fda6 5dbd
