models/gnn-rnn/gnn_rnn_r_2.pth (torch, 152503 bytes, 17 tensors)

fc_measurement.0.weight f4 [32, 1]
0.884327 0.9497587 -0.34620467 1.0486084 -0.30803046 0.06504035 -0.67245597 0.70617664
0.9724287 -0.8535125 0.9597715 0.15127197 0.86838853 0.2824256 0.7116363 -0.2614677
0.9146598 0.29592156 -0.6820461 0.38448226 -0.46413 -0.27450058 -0.47033915 0.76147723
-0.82027227 -0.65927404 -0.43812802 -0.65902895 0.22029535 -1.0444218 1.1067637 -1.0517777
00000000: 4163 623f 6323 733f bd41 b1be cd38 863f
00000010: 2bb6 9dbe e033 853d 1326 2cbf fec7 343f
00000020: 16f1 783f cc7f 5abf 96b3 753f 0ae7 1a3e
00000030: b64e 5e3f 179a 903e cc2d 363f 18df 85be
00000040: 2527 6a3f 0883 973e 939a 2ebf dcda c43e
00000050: 73a2 edbe 578b 8cbe 4bd0 f0be 2cf0 423f
00000060: 5dfd 51bf 2fc6 28bf 5152 e0be 1fb6 28bf
00000070: 1b95 613e 9daf 85bf 6faa 8d3f a7a0 86bf

fc_measurement.0.bias f4 [32]
0.866772 0.116591744 -0.2191288 0.63442355 0.19605264 1.0635647 0.083378166 -0.4256414
0.2683963 -0.28964353 0.40740484 1.1342582 0.62309086 -0.4622511 0.58873683 0.43490696
0.49750498 -0.6350913 -1.0286876 -0.44496232 -0.9735174 1.0314275 0.31336495 0.4180829
0.45060584 0.112295516 0.9931005 -0.7712662 -0.089791924 -0.7264865 0.307802 -0.3823574
00000000: c5e4 5d3f a7c7 ee3d 4d63 60be 9569 223f
00000010: 06c2 483e e322 883f 2cc2 aa3d abed d9be
00000020: 3d6b 893e 284c 94be 5e97 d03e 5f2f 913f
00000030: e282 1f3f 2dac ecbe 75b7 163f 20ac de3e
00000040: f9b8 fe3e 5895 22bf 09ac 83bf 1ad2 e3be
00000050: 7038 79bf d105 843f 5f71 a03e f60e d63e
00000060: cfb5 e63e 31fb e53d d63b 7e3f b471 45bf
00000070: d4e4 b7bd 05fb 39bf 3998 9d3e 59c4 c3be

fc_measurement.2.weight f4 [32, 32]
0.012948671 -0.061189983 0.15643235 -0.13943179 -0.12015602 -0.33411515 0.15055956 0.05120608
0.14273494 -0.14638376 -0.20629841 -0.2734763 -0.1552821 0.10633853 0.02099577 0.12339325
-0.12520604 -0.07605406 0.11799787 -0.062687166 0.13979076 -0.09162916 0.085955575 -0.17113708
-0.10057055 0.047379516 0.004089698 -0.030579176 0.08175982 0.12520376 -0.15592435 -0.094342075
0.20328623 -0.021622589 -0.1694538 -0.1308151 -0.16174276 0.11820462 -0.091642536 -0.09580815
0.042937346 -0.20287342 -0.110407755 -0.034058344 -0.11411903 -0.092458405 0.21908632 -0.028193738
0.094686404 -0.15364565 -0.25451145 -0.03181074 -0.123077236 -0.15773459 -0.13726039 -0.06565581
-0.06449652 -0.13805093 -0.06500206 -0.23625495 -0.08323997 -0.19793236 -0.021648424 -0.22337747
0.2518624 0.08528065 0.11099829 0.16359271 -0.092410855 0.19234997 -0.03851242 0.07379131
-0.029926328 -0.20793504 0.16303658 0.038482305 0.1760812 0.037763476 0.23049282 -0.019460315
0.07845906 0.22382806 0.049852267 0.30167967 0.1331579 -0.0018195895 0.10957707 0.033527724
0.02893472 -0.12233784 0.29488686 -0.17279707 0.22240686 0.018099748 0.1742166 -0.130048
0.20332143 0.020744428 0.30178905 -0.13298333 0.2887873 -0.018051729 0.13624376 0.10154673
0.036263652 0.13143359 -0.078924835 0.02865098 0.124312475 -0.110969335 -0.065733984 0.15959454
-0.11521293 -0.0036031797 0.4709693 -0.22660016 0.38425234 0.28106162 0.24400876 -0.04310578
0.30707538 0.3176429 0.27158198 0.25884745 -0.10968118 0.26712182 -0.03575019 0.18039216
0.16855715 0.23560771 -0.04559152 0.026021402 -0.077421434 -0.048440818 -0.0015690164 0.16304864
-0.082646415 -0.09619307 0.22045517 0.04995627 0.05462343 0.06727702 -0.055087443 -0.28305805
0.009182641 0.24250974 0.08952596 0.22115852 -0.17342938 -0.27970514 -0.10156173 0.23810199
-0.026219938 -0.079211146 -0.08063069 -0.093109466 -0.021341948 0.09957995 -0.002297481 -0.066341475
-0.07291245 0.2561155 0.095180176 0.17990728 -0.19731247 -0.19943239 -0.18424 0.30492315
0.21515422 0.1094365 0.21525681 0.044788454 0.11145064 0.10986955 -0.051373415 -0.2991506
0.18953842 0.16616827 -0.07239173 0.10073 -0.064997375 -0.27450633 -0.18574259 0.1758501
-0.09796651 0.07000546 -0.21723725 -0.16696414 0.1251438 -0.124618664 0.077101104 -0.20765166
-0.003976674 -0.18162446 0.17478819 -0.00054309145 0.17017002 -0.40447658 0.18473518 -0.13192911
0.0035685375 0.23741978 -0.09414279 -0.2821095 -0.12686017 -0.17483175 -0.02733695 -0.14471921
0.030508716 0.11964818 0.28037563 -0.080462046 -0.017283838 0.035199057 0.14234851 -0.2537692
0.009702567 -0.046535905 0.0006146573 0.011194786 -0.13587943 0.02570105 -0.2307328 0.21773529
0.057008106 -0.08533483 0.053079166 -0.13818698 -0.10435423 -0.24493624 0.12667856 -0.15060902
-0.17167439 0.052855965 -0.118274435 -0.169248 -0.065112315 -0.07932888 -0.16483963 -0.033163242
-0.2089213 0.11395049 0.013005666 -0.002020447 0.023501256 0.050399404 0.22065699 0.017376779
-0.09531297 0.13231422 0.21222967 0.12319702 0.05518846 0.24490254 -0.085384384 0.103878394
00000000: aa26 543c 59a2 7abd cd2f 203e 35c7 0ebe
00000010: 5c14 f6bd 2411 abbe 492c 1a3e 77bd 513d
00000020: 1c29 123e a0e5 15be e43f 53be 1605 8cbe
00000030: 4502 1fbe 04c8 d93d 52ff ab3c 9ab5 fc3d
00000040: 0336 00be 3bc2 9bbd dea8 f13d 2162 80bd
00000050: 4f25 0f3e 12a8 bbbd 7a09 b03d 8f3e 2fbe
00000060: eff7 cdbd 0611 423d e002 863b 2e81 fabc
00000070: b171 a73d 6a35 003e a2aa 1fbe 6b36 c1bd
00000080: 442a 503e db21 b1bc 4c85 2dbe 65f4 05be
00000090: e59f 25be 4415 f23d 15af bbbd 1037 c4bd
000000a0: 12df 2f3d 0dbe 4fbe 761d e2bd c380 0bbd
000000b0: 3db7 e9bd d55a bdbd 2a58 603e 8ef6 e6bc
000000c0: f2ea c13d 4955 1dbe 534f 82be fa4b 02bd
000000d0: eb0f fcbd 2d85 21be fd8d 0cbe 8e76 86bd
000000e0: c016 84bd 395d 0dbe cd1f 85bd d1ec 71be
000000f0: b879 aabd c8ae 4abe 0958 b1bc 10bd 64be
00000100: 1cf4 803e 9fa7 ae3d 1253 e33d d984 273e
00000110: e741 bdbd 64f7 443e 33bf 1dbd e61f 973d
00000120: 0f28 f5bc ecec 54be 10f3 263e 9f9f 1d3d
00000130: a14e 343e e0ad 1a3d 4f06 6c3e 3d6b 9fbc
00000140: 25af a03d 2f33 653e e431 4c3d c275 9a3e
00000150: 8b5a 083e 4b7f eeba f169 e03d 5e54 093d
00000160: 8208 ed3c 438c fabd 69fb 963e b7f1 30be
00000170: a0be 633e ec45 943c d665 323e 4e2b 05be
00000180: 7e33 503e 38f0 a93c 1884 9a3e c82c 08be
00000190: eedb 933e 38e1 93bc 7c83 0b3e bbf7 cf3d
000001a0: 3289 143d 8796 063e 58a3 a1bd 76b5 ea3c
000001b0: 8a97 fe3d e443 e3bd 8a9f 86bd c06c 233e
000001c0: c2f4 ebbd 5323 6cbb e322 f13e df09 68be
000001d0: b9bc c43e 4fe7 8f3e 6fdd 793e b08f 30bd
000001e0: fc38 9d3e 17a2 a23e cb0c 8b3e a787 843e
000001f0: 87a0 e0bd 31c4 883e cb6e 12bd b9b8 383e
00000200: 3f9a 2c3e 2643 713e 2cbe 3abd d62a d53c
00000210: 218f 9ebd e169 46bd 74a7 cdba 39f6 263e
00000220: 8642 a9bd df00 c5bd 00bf 613e f29e 4c3d
00000230: d1bc 5f3d 89c8 893d 5fa3 61bd fcec 90be
00000240: ca72 163c 7954 783e 6359 b73d 6177 623e
00000250: 7997 31be 8335 8fbe 99ff cfbd 02d1 733e
00000260: 32cb d6bc 7439 a2bd b421 a5bd 2db0 bebd
00000270: 4fd5 aebc 93f0 cb3d 5691 16bb 0ade 87bd
00000280: 1f53 95bd 9221 833e d3ed c23d 9d39 383e
00000290: 480c 4abe 0138 4cbe 69a9 3cbe e31e 9c3e
000002a0: 6351 5c3e 3e20 e03d 486c 5c3e 1974 373d
000002b0: 3c40 e43d 4903 e13d ee6c 52bd 442a 99be
000002c0: 5c16 423e 0428 2a3e 1e42 94bd 884b ce3d
000002d0: 581d 85bd 188c 8cbe 4e33 3ebe 0c12 343e
000002e0: aaa2 c8bd 065f 8f3d 7173 5ebe a6f8 2abe
000002f0: b225 003e 1238 ffbd 2fe7 9d3d a3a2 54be
00000300: c24e 82bb c3fb 39be adfb 323e 405e 0eba
00000310: 0d41 2e3e 8e17 cfbe 382b 3d3e 6d18 07be
00000320: 20de 693b 2c1e 733e efcd c0bd a870 90be
00000330: a2e7 01be 1807 33be bdf1 dfbc 4631 14be
00000340: 6aed f93c 1b0a f53d 658d 8f3e 49c9 a4bd
00000350: d696 8dbc e32c 103d cfc3 113e 09ee 81be
00000360: 84f7 1e3c 6f9c 3ebd f420 213a 566a 373c
00000370: fa23 0bbe 028b d23c 3845 6cbe 00f6 5e3e
00000380: 5581 693d 07c4 aebd 8a69 593d e380 0dbe
00000390: acb7 d5bd 91d0 7abe 06b8 013e 4039 1abe
000003a0: 69cb 2fbe 7f7f 583d de39 f2bd 594f 2dbe
000003b0: 9b59 85bd 2e77 a2bd b8cb 28be 2ed6 07bd
000003c0: 77ef 55be e05e e93d b815 553c 7a69 04bb
000003d0: b585 c03c 9b6f 4e3d e8f3 613e bf59 8e3c
000003e0: 7233 c3bd 617d 073e bc52 593e b84e fc3d
000003f0: 4b0d 623d bbc7 7a3e 02de aebd 32be d43d

fc_measurement.2.bias f4 [32]
-0.21936128 -0.086639814 0.09667694 0.22597381 -0.2525798 -0.03744217 0.061954364 0.012357185
-0.11135655 0.118063234 0.0723462 -0.0660029 -0.1515025 0.09465224 -0.13723193 0.26560998
-0.12516315 0.23799254 0.07725539 0.1401431 0.060605362 0.02769475 -0.0076822788 -0.24227604
-0.017442688 0.20903705 -0.10283149 0.21208026 -0.048508972 0.30233 0.15047884 0.08218813
00000000: 3ea0 60be 3770 b1bd 8ffe c53d ae65 673e
00000010: 2452 81be f65c 19bd dcc3 7d3d ca75 4a3c
00000020: e70e e4bd 23cb f13d 3f2a 943d 872c 87bd
00000030: 7923 1bbe 09d9 c13d 8786 0cbe 08fe 873e
00000040: c52a 00be 51b4 733e 1338 9e3d ac81 0f3e
00000050: 543d 783d 1ae0 e23c a0bb fbbb 3617 78be
00000060: f8e3 8ebc cf0d 563e 5199 d2bd 912b 593e
00000070: 58b1 46bd ffca 9a3e 2017 1a3e 4052 a83d

type_embedding.weight f4 [2, 32]
-0.078273416 -0.24438484 1.2551591 0.8862192 -1.8707889 0.23677841 1.6744761 -1.2027274
-0.88261014 -0.47919282 0.0792082 -0.20446737 1.3173021 0.028085684 0.023053553 3.533863
-1.1170979 -0.5800417 0.11216895 0.50792813 0.04762757 -0.979135 1.3309932 0.36540982
-0.26247287 2.6328654 0.66841215 0.13875078 -1.3567863 -0.68401647 0.75820744 -0.27284625
-1.4399185 -0.08764152 0.5785709 1.3025278 2.148294 1.815693 0.33316544 -2.517355
-0.44555607 -1.4016317 -0.4899891 -0.6678111 1.9052379 -0.7455661 0.4760891 -0.48572904
0.090977445 -0.40888917 0.9138133 -1.0703937 -1.0780154 -1.0622404 2.983637 1.4722795
-0.6420491 -0.784509 -0.68333095 0.15551287 -0.28715473 -0.7989608 1.3071071 0.964431
00000000: d04d a0bd 0540 7abe 0ea9 a03f 43df 623f
00000010: 0376 efbf 0a76 723e 3c55 d63f f9f2 99bf
00000020: bdf2 61bf c358 f5be e937 a23d e55f 51be
00000030: 5b9d a83f f313 e63c ceda bc3c d02a 6240
00000040: 10fd 8ebf 9d7d 14bf d6b8 e53d 9407 023f
00000050: 2015 433d 97a8 7abf fc5d aa3f ff16 bb3e
00000060: d862 86be de80 2840 0f1d 2b3f af14 0e3e
00000070: 2cab adbf b41b 2fbf e219 423f 81b2 8bbe
00000080: 404f b8bf 667d b3bd 391d 143f 3bb9 a63f
00000090: a67d 0940 a168 e83f a994 aa3e 581c 21c0
000000a0: ed1f e4be ab68 b3bf dadf fabe abf5 2abf
000000b0: d6de f33f 6cdd 3ebf f3c1 f33e 7ab1 f8be
000000c0: 6252 ba3d ec59 d1be abef 693f a902 89bf
000000d0: 69fc 89bf 7ef7 87bf e9f3 3e40 a873 bc3f
000000e0: 545d 24bf 95d5 48bf c7ee 2ebf c43e 1f3e
000000f0: f205 93be b288 4cbf 494f a73f f3e4 763f

gcn1.bias f4 [64]
0.06597065 0.042798627 -0.012540061 -0.11615287 0.044517558 0.02485307 0.037436698 0.08298529
0.035005365 0.054272816 -0.0056276694 0.16920458 -0.00019454848 0.017276896 0.038410105 0.1129829
0.06002812 0.045436464 -0.021396607 -0.010452351 0.0098046735 -0.057933025 0.010171097 0.024744224
0.050546788 0.0348574 0.08617787 -0.009142929 0.05324355 -0.015168794 0.0634036 0.043266892
0.027983712 0.032412797 0.05578546 -0.013610692 -0.016062481 0.018415395 0.004066278 -0.017598113
-0.026345273 0.032406278 -0.016421022 0.019939153 0.015016844 0.021588191 0.007264843 0.030271221
0.014388457 0.024379767 -0.02585947 -0.011893439 0.03767754 -0.014306256 -0.0015068006 0.03204142
0.03197417 0.04078928 0.03013506 0.038079765 -0.048898455 0.03366817 0.02094954 0.06025293
00000000: 9f1b 873d 9d4d 2f3d d474 4dbc 8ee1 edbd
00000010: 0b58 363d aa98 cb3c 3957 193d 31f4 a93d
00000020: c961 0f3d 2c4d 5e3d 5068 b8bb f743 2d3e
00000030: b6ff 4bb9 4788 8d3c ea53 1d3d 9463 e73d
00000040: 0ce0 753d 961b 3a3d f047 afbc 5640 2bbc
00000050: c8a3 203c 2e4b 6dbd aca4 263c 66b4 ca3c
00000060: 260a 4f3d a2c6 0e3d 067e b03d 39cc 15bc
00000070: e915 5a3d 8986 78bc bfd9 813d a038 313d
00000080: 193e e53c 48c3 043d 4b7f 643d 61ff 5ebc
00000090: 7795 83bc e2db 963c 6a3e 853b eb29 90bc
000000a0: 0bd2 d7bc 72bc 043d 6185 86bc 6f57 a33c
000000b0: 3509 763c b8d9 b03c ec0d ee3b 5afb f73c
000000c0: 90bd 6b3c 14b8 c73c 3dd7 d3bc b3dc 42bc
000000d0: c453 1a3d c964 6abc d77f c5ba dd3d 033d
000000e0: 59f7 023d a912 273d cddd f63c 87f9 1b3d
000000f0: bf49 48bd a3e7 093d 5f9e ab3c c7cb 763d

gcn1.lin.weight f4 [64, 64]
0.055795092 0.11118897 0.21241447 0.13467745 -0.18797809 -0.075074196 0.23746534 0.21436098
-0.050264943 0.1643574 -0.18061675 -0.05106559 0.25304425 0.038809337 -0.10960658 0.077150345
0.119576745 0.13512157 -0.1674358 -0.034811877 -0.0017505551 -0.105647966 -0.0028659278 -0.09718042
0.049104568 0.10703498 0.023055375 0.012967957 0.00076568476 -0.022504479 0.02905279 -0.03910748
0.031159174 0.020794522 0.036528043 -0.16325909 -0.093566045 -0.25137463 -0.13735631 0.11499414
0.22094993 -0.16811581 -0.04581611 0.18191753 -0.16376583 0.1841622 -0.03200821 -0.24104536
0.075518385 -0.08258368 -0.00026896584 -0.17824675 0.24147661 -0.045506895 0.09274262 -0.18028758
-0.13477997 0.052493975 0.124084264 -0.048656464 -0.13967396 -0.012692434 -0.19637217 0.033376783
-0.057922304 0.1117101 0.3116346 -0.09647521 0.27150768 0.2555238 0.036446802 -0.21022819
-0.23244205 0.12721433 0.2697891 0.22003648 0.022172334 -0.043922834 -0.18961036 -0.03317008
-0.060755584 0.07601234 0.2469136 -0.058376018 0.20708598 0.18614022 -0.19242302 -0.026342945
0.016836882 0.13358533 0.1941645 0.012993642 0.24335316 0.086664945 0.26368362 -0.19205813
-0.17078176 -0.07022957 0.054306354 0.06604669 0.15359618 0.23003526 -0.007254218 -0.14435421
-0.037375655 -0.013614753 0.11808779 0.03812299 0.11560441 0.045429125 0.18716317 0.1850787
-0.077708736 -0.20489602 0.17714015 -0.017306382 -0.17970869 -0.08689579 0.20298262 -0.061305437
-0.0620149 0.12722392 0.17999755 0.017455995 -0.21173391 -0.14058267 -0.023779524 0.03743951
-0.10718994 0.22735031 0.03753736 -0.20213796 0.09162843 -0.018180199 0.17512819 -0.04108297
0.03621621 -0.23778793 -0.21470079 -0.059385058 0.14853154 -0.14978786 0.0048842644 -0.16319147
-0.12510572 -0.15738398 -0.1735572 -0.19840005 -0.08086597 -0.024582613 0.05973577 0.08614241
-0.056619216 -0.06384443 -0.084774695 -0.31232795 0.12860957 0.1719893 -0.22709431 -0.25262874
-0.12837824 0.04745948 -0.08307714 -0.22597925 0.097206436 -0.06356752 -0.18828034 -0.12637775
0.2522305 0.29644585 0.08269771 -0.023289472 0.05314984 0.19950977 -0.10318314 0.13711913
-0.09016155 0.06036898 0.10732035 -0.08316674 0.004588324 -0.007148549 -0.17148948 0.110389404
0.2154486 -0.24815047 -0.107447 -0.08662398 0.008802471 -0.034372374 -0.29679108 0.097534664
0.5389212 0.12007022 -0.05178376 -0.27587527 -0.011103978 0.08508723 -0.11782205 0.10736185
0.08079161 -0.08502036 0.0928571 0.12357705 -0.21720794 0.063870504 -0.25813618 -0.047165796
-0.020948056 0.075773224 -0.2188198 0.0772739 -0.19910534 0.12926407 -0.019282974 -0.08496644
0.010142233 0.20759064 0.07048437 -0.21446969 -0.057043362 0.20971769 0.035971496 -0.05333123
0.07856402 0.04071782 -0.17254002 -0.08666001 0.23186995 -0.13463953 -0.1747187 0.1356462
0.03686996 0.27680707 0.19141094 0.09092722 -0.24179669 0.115748726 0.12942292 -0.045119554
0.20800753 -0.0012820535 -0.2800214 -0.09056969 0.05940674 0.29941577 -0.04840935 -0.12244757
0.032179475 -0.15402485 -0.18215433 -0.19726871 0.15806824 0.25230464 0.08573025 0.056350917
00000000: 6589 643d 0bb7 e33d 2e83 593e e3e8 093e
00000010: 547d 40be 80c0 99bd 1d2a 733e 7281 5b3e
00000020: 9de2 4dbd 4e4d 283e 99f3 38be 272a 51bd
00000030: 048f 813e 8af6 1e3d 6a79 e0bd 0001 9e3d
00000040: a7e4 f43d 4f5d 0a3e 4a74 2bbe e696 0ebd
00000050: e272 e5ba f65d d8bd 4ad2 3bbb 8706 c7bd
00000060: df21 493d 2835 db3d a0de bc3c 8e77 543c
00000070: 3cb8 483a 505b b8bc 1e00 ee3c 2a2f 20bd
00000080: 8641 ff3c 4659 aa3c 6e9e 153d 642d 27be
00000090: 8e9f bfbd 2db4 80be 22a7 0cbe 0c82 eb3d
000000a0: b340 623e 8d26 2cbe aca9 3bbd 9748 3a3e
000000b0: 3bb2 27be 0495 3c3e 0a1b 03bd 98d4 76be
000000c0: 62a9 9a3d a221 a9bd fc03 8db9 5186 36be
000000d0: a545 773e 7065 3abd d8ef bd3d 4f9d 38be
000000e0: c303 0abe ec03 573d e41f fe3d 004c 47bd
000000f0: b106 0fbe edf3 4fbc c915 49be 18b6 083d
00000100: f03f 6dbd 44c8 e43d 928e 9f3e cb94 c5bd
00000110: 0e03 8b3e 04d4 823e 3e49 153d 0f46 57be
00000120: 4a05 6ebe 7944 023e cc21 8a3e 3e51 613e
00000130: c1a2 b53c 6ee8 33bd 3829 42be 5add 07bd
00000140: d9da 78bd 5cac 9b3d ebd6 7c3e b11b 6fbd
00000150: 590e 543e 8b9b 3e3e 8a0a 45be 29cd d7bc
00000160: 80ed 893c 98ca 083e 0fd3 463e 49e3 543c
00000170: 9231 793e 647d b13d 8a01 873e e3aa 44be
00000180: 6ae1 2ebe 85d4 8fbd 5770 5e3d 7d43 873d
00000190: 5148 1d3e 5d8e 6b3e cbb4 edbb 97d1 13be
000001a0: 3717 19bd 6a10 5fbc 03d8 f13d da26 1c3d
000001b0: 01c2 ec3d e413 3a3d b4a7 3f3e 4585 3d3e
000001c0: c225 9fbd 43d0 51be 3a64 353e 1dc6 8dbc
000001d0: 8e05 38be 6cf6 b1bd adda 4f3e 691b 7bbd
000001e0: 5603 7ebd fd46 023e 4751 383e e0ff 8e3c
000001f0: c6d0 58be e7f4 0fbe 47cd c2bc 2c5a 193d
00000200: 6686 dbbd 85ce 683e c6c0 193d 41fd 4ebe
00000210: b0a7 bb3d a4ee 94bc ce54 333e 9e46 28bd
00000220: 7357 143d ae7e 73be 86da 5bbe bf3d 73bd
00000230: a718 183e fd61 19be 2e0c a03b aa1b 27be
00000240: b71b 00be 4429 21be fbb8 31be 6229 4bbe
00000250: 0f9d a5bd 7a61 c9bc 7fad 743d 6f6b b03d
00000260: 8de9 67bd dec0 82bd 5b9e adbd 73e9 9fbe
00000270: 3ab2 033e f71d 303e 698b 68be 8e58 81be
00000280: 9675 03be df64 423d 5924 aabd 1b67 67be
00000290: 2b14 c73d b02f 82bd 90cc 40be 2b69 01be
000002a0: 5b24 813e c0c7 973e 6b5d a93d 90c9 bebc
000002b0: a6b3 593d 4a4c 4c3e af51 d3bd f568 0c3e
000002c0: 9ea6 b8bd 7745 773d c6ca db3d 5353 aabd
000002d0: a759 963b 603e eabb f09a 2fbe d713 e23d
000002e0: 8f9e 5c3e 281b 7ebe 2c0d dcbd ea67 b1bd
000002f0: 3d38 103c 0cca 0cbd 00f5 97be 41c0 c73d
00000300: bdf6 093f 60e7 f53d 351b 54bd 863f 8dbe
00000310: 76ed 35bc 3742 ae3d b04c f1bd 88e0 db3d
00000320: 1276 a53d 281f aebd dd2b be3d f715 fd3d
00000330: c26b 5ebe 8ace 823d 6d2a 84be ec30 41bd
00000340: 429b abbc fe2e 9b3d 4c12 60be c741 9e3d
00000350: 45e2 4bbe cd5d 043e 54f7 9dbc e302 aebd
00000360: 9c2b 263c a492 543e 1c5a 903d f19d 5bbe
00000370: 4da6 69bd 3cc0 563e d956 133d d971 5abd
00000380: 2ce6 a03d bbc7 263d 55ae 30be ce7a b1bd
00000390: 516f 6d3e f2de 09be 75e9 32be d6e6 0a3e
000003a0: f504 173d a8b9 8d3e 3b01 443e 0d38 ba3d
000003b0: 8d99 77be ab0d ed3d 7187 043e 48cf 38bd
000003c0: edff 543e 940a a8ba f75e 8fbe 9a7c b9bd
000003d0: 7b54 733d 064d 993e e248 46bd cbc5 fabd
000003e0: a0ce 033d b1b8 1dbe aa86 3abe cf00 4abe
000003f0: a4dc 213e 132e 813e 5793 af3d 38d0 663d

gcn2.bias f4 [64]
-0.019795792 0.04300858 -0.0028822473 0.027353983 -0.010303351 0.067521535 0.07915561 0.043858197
0.01985111 0.004530735 -0.006080661 0.05491588 0.034843635 0.024284199 -0.022874143 0.06009743
-0.013004243 0.017959265 0.041456398 -0.028660111 0.036405273 -0.023056138 -0.0010364596 -0.025445342
-0.0145168835 0.024352312 -0.010373995 -0.0020615754 0.022659982 0.074021176 0.030861838 -0.00066901353
8.2712177e-07 0.10753502 -0.0072614457 0.04878579 0.08106251 -0.015241464 0.04273906 0.030303188
-0.006428395 0.013553394 0.032532964 -0.008281078 0.045539103 0.016064467 0.005408305 0.0007936754
0.024608126 -0.0073653585 -0.008286459 -0.0028235947 0.008523595 0.04846323 0.057292007 -0.017476035
-0.0041248696 0.025454994 -0.046032015 -0.041060355 -0.053871512 0.084102 -0.021197246 0.050864358
00000000: c92a a2bc c429 303d 16e4 3cbb 7615 e03c
00000010: 63cf 28bc bb48 8a3d 561c a23d a7a4 333d
00000020: cc9e a23c 8f76 943b 4840 c7bb 79ef 603d
00000030: 33b8 0e3d a8ef c63c 8e62 bbbc b928 763d
00000040: c00f 55bc 4f1f 933c 2fce 293d 9cc8 eabc
00000050: b21d 153d 3ae0 bcbc d0d9 87ba c072 d0bc
00000060: 39d8 6dbc 807e c73c b0f7 29bc 7f1b 07bb
00000070: 6da1 b93c 6a98 973d f7d1 fc3c bd60 2fba
00000080: 6007 5e35 523b dc3d 6cf1 edbb 9cd3 473d
00000090: 1a04 a63d 55b7 79bc 270f 2f3d 643e f83c
000000a0: 49a5 d2bb 0e0f 5e3c 4941 053d 5cad 07bc
000000b0: 3687 3a3d a199 833c 2738 b13b a80e 503a
000000c0: fb96 c93c 1b59 f1bb eec3 07bc 0f0c 39bb
000000d0: 8ca6 0b3c 6181 463d 06ab 6a3d e729 8fbc
000000e0: ea29 87bb fe86 d03c 118c 3cbd e72e 28bd
000000f0: 60a8 5cbd ab3d ac3d d9a5 adbc 2557 503d

gcn2.lin.weight f4 [64, 64]
0.04339374 -0.027619299 0.22955354 0.09315662 0.13480824 -0.23665959 -0.17767218 -0.051652916
0.17639345 -0.022944426 0.35360208 -0.124964684 0.15544015 0.10130197 0.024694137 -0.096478105
-0.20682262 0.08809252 0.09242341 0.23540556 0.13821957 -0.12806362 0.19292495 -0.11689712
-0.21372823 0.12770544 -0.1412982 0.14798552 0.000979667 -0.019661978 0.049943767 0.057481773
0.14372385 -0.09692958 -0.24008836 0.032479372 -0.013360075 -0.03559503 -0.17862138 0.25908494
-0.06159208 -0.0496238 0.06199034 -0.10366433 0.18224698 -0.17764024 -0.10788265 -0.16978484
0.09644387 -0.24538505 0.20426533 -0.15198156 -0.26085147 0.037043598 -0.18033706 0.23475908
0.17621551 -0.18188316 0.12769198 -0.12302637 0.070839874 -0.1873459 -0.09416127 -0.15599175
0.10380879 0.080251016 -0.20342404 -0.034503184 0.22205052 0.22335383 0.1329714 0.052400984
0.03458525 0.16959597 -0.15351857 -0.053256463 -0.13313401 -0.026594378 0.022542814 -0.098728575
0.10205447 0.13762313 -0.122451246 -0.16353478 -0.06585889 -0.0039931214 -0.12819284 0.014717709
0.21923485 -0.20884576 -0.026983256 -0.06771786 0.13133709 -0.09737502 0.16379392 -0.10129782
0.08083059 -0.031082757 0.23933725 -0.11986585 -0.13240609 0.231901 -0.1735925 -0.0036255815
0.11675349 -0.077718705 0.1314973 -0.22904083 -0.052022718 -0.12746115 0.14187254 0.18887192
-0.208329 -0.073723 -0.15904756 -0.13849142 0.10077435 0.07156226 -0.16452867 -0.17474999
-0.12974334 0.06908165 -0.24603075 -0.15091854 -0.18108915 0.19314466 0.19741267 -0.058147978
0.03426945 -0.08883696 -0.065202124 0.15044457 -0.17798604 -0.047464725 0.10926138 -0.2265582
0.28374436 0.08940226 0.14384535 0.0032404347 -0.14921711 -0.09862102 -0.21277031 -0.26630035
-0.06441728 0.06771522 -0.21380885 0.17169304 -0.20562576 0.07539602 -0.15852219 0.13183905
-0.15823795 0.08108552 0.03132152 0.14126864 -0.20697153 -0.08885456 -0.0020028076 -0.26693252
-0.06878456 -0.23475854 0.05630118 -0.027164644 -0.14294091 0.18972936 0.14301825 -0.059326705
-0.030722342 0.22750297 -0.06435875 0.11584036 0.08733368 -0.07942177 -0.17713672 -0.057547446
-0.22140372 0.09588955 0.114643775 -0.071201906 -0.05963584 -0.07849586 0.05810996 0.23594469
-0.23798917 -0.14334969 0.04433917 -0.17932098 0.042981252 -0.11856083 0.063132934 -0.14943852
0.18203063 0.1793595 -0.21930811 -0.15309794 0.013838191 -0.13635674 -0.09646794 0.21646796
-0.03901072 -0.043669123 -0.123525344 0.08456774 0.18434618 0.2585171 0.19062397 0.2751258
-0.1647235 -0.120714895 0.08866918 -0.15743402 -0.13878906 0.03471401 0.21877196 0.16026762
0.23168926 0.085892044 0.05652841 -0.1841488 0.11532161 -0.11183996 0.18894994 0.23462911
-0.1294575 0.18438321 -0.018319929 0.2564166 -0.2716573 -0.014954827 -0.103196196 0.06866824
0.009161797 -0.04960455 -0.29162353 -0.22028528 0.25022554 -0.15137795 0.17072652 -0.09227991
0.1922981 0.07250291 -0.10633922 0.28361514 0.22899924 -0.17170206 -0.07816344 -0.04001389
0.003742899 0.25873175 0.24557719 0.055115104 -0.20717815 0.089366294 0.28357476 0.22404818
00000000: a2bd 313d de41 e2bc 1510 6b3e e6c8 be3d
00000010: 2c0b 0a3e e456 72be b2ef 35be 0292 53bd
00000020: 7ca0 343e f3f5 bbbc 550b b53e 7ced ffbd
00000030: b42b 1f3e 6877 cf3d 5c4b ca3c 5096 c5bd
00000040: 4fc9 53be da69 b43d 7c48 bd3d 280e 713e
00000050: 6e89 0d3e 1c23 03be 1e8e 453e c267 efbd
00000060: 93db 5abe 37c5 023e 7ab0 10be 8489 173e
00000070: 2b68 803a 2812 a1bc d691 4c3d 0272 6b3d
00000080: 582c 133e 0483 c6bd b9d9 75be 1709 053d
00000090: 37e4 5abc 18cc 11bd 86e8 36be c8a6 843e
000000a0: fa47 7cbd 5342 4bbd 95e9 7d3d f74d d4bd
000000b0: f49e 3a3e 53e7 35be 94f1 dcbd 14dc 2dbe
000000c0: 5d84 c53d 3846 7bbe ee2a 513e 0ea1 1bbe
000000d0: 538e 85be 07bb 173d 47aa 38be af64 703e
000000e0: d771 343e 943f 3abe b0c1 023e 40f5 fbbd
000000f0: 7f14 913d 9bd7 3fbe a0d7 c0bd 4dbc 1fbe
00000100: b499 d43d a55a a43d 644e 50be 3653 0dbd
00000110: 3661 633e deb6 643e a829 083e 6aa2 563d
00000120: 43a9 0d3d 91aa 2d3e f933 1dbe 7323 5abd
00000130: 4854 08be 74dc d9bc b5ab b83c 3532 cabd
00000140: ef01 d13d 14ed 0c3e b8c7 fabd a975 27be
00000150: 07e1 86bd bbd8 82bb fc44 03be 8c22 713c
00000160: 1a7f 603e aadb 55be fd0b ddbc a9af 8abd
00000170: 3b7d 063e 8e6c c7bd 98b9 273e 3b75 cfbd
00000180: 828a a53d 44a1 febc d314 753e 3a7c f5bd
00000190: 7695 07be 7577 6d3e 3bc2 31be 2a9b 6dbb
000001a0: 741c ef3d fc2a 9fbd 3aa7 063e ae89 6abe
000001b0: c615 55bd 2d85 02be 0947 113e a467 413e
000001c0: 3354 55be 16fc 96bd 5ddd 22be b2d0 0dbe
000001d0: c862 ce3d 3c8f 923d 347a 28be a9f1 32be
000001e0: 70db 04be ae7a 8d3d 7cef 7bbe 648a 1abe
000001f0: 6f6f 39be b7c7 453e 8c26 4a3e 932c 6ebd
00000200: 1f5e 0c3d 27f0 b5bd b188 85bd 240e 1a3e
00000210: f941 36be 5f6a 42bd 6ec4 df3d dffe 67be
00000220: f146 913e 8818 b73d 324c 133e 795d 543b
00000230: 5fcc 18be d1f9 c9bd 76e0 59be 8558 88be
00000240: 35ed 83bd 47ae 8a3d b5f0 5abe 4dd0 2f3e
00000250: 8f8f 52be 3b69 9a3d a453 22be d100 073e
00000260: 2109 22be 2a10 a63d ff4a 003d baa8 103e
00000270: 58f0 53be 61f9 b5bd 8941 03bb 61ab 88be
00000280: ebde 8cbd 8b64 70be 119c 663d 6388 debc
00000290: 1a5f 12be 6a48 423e 6073 123e 8f00 73bd
000002a0: 6cad fbbc 8af6 683e 85ce 83bd b63d ed3d
000002b0: 00dc b23d e2a7 a2bd 5463 35be dfb6 6bbd
000002c0: a8b7 62be be61 c43d 5bca ea3d 4ed2 91bd
000002d0: b644 74bd 70c2 a0bd b604 6e3d 7c9b 713e
000002e0: 6fb3 73be 43ca 12be fd9c 353d eb9f 37be
000002f0: 1c0d 303d 05d0 f2bd d74b 813d 6906 19be
00000300: 3d66 3a3e 04aa 373e 4e92 60be b5c5 1cbe
00000310: 94b9 623c 1aa1 0bbe fc90 c5bd c7a9 5d3e
00000320: b4c9 1fbd 65de 32bd dbfa fcbd da31 ad3d
00000330: 3fc5 3c3e 5a5c 843e ee32 433e 4add 8c3e
00000340: 47ad 28be 5f39 f7bd 3098 b53d 6236 21be
00000350: b81e 0ebe 4730 0e3d c205 603e 321d 243e
00000360: f33f 6d3e 2be8 af3d 568a 673d 8191 3cbe
00000370: bc2d ec3d 590c e5bd 187c 413e 9d42 703e
00000380: 8290 04be f4ce 3c3e ad13 96bc 0949 833e
00000390: aa16 8bbe 1705 75bc 8758 d3bd efa1 8c3d
000003a0: 5d1b 163c 242e 4bbd ae4f 95be 7792 61be
000003b0: 901d 803e d202 1bbe efd2 2e3e 40fd bcbd
000003c0: cbe9 443e 687c 943d 61c8 d9bd 0136 913e
000003d0: c77e 6a3e aad2 2fbe 2714 a0bd 9be5 23bd
000003e0: 6d4b 753b 7d78 843e 9678 7b3e 60c0 613d
000003f0: 8226 54be ad05 b73d b630 913e e36c 653e

gru.weight_ih_l0 f4 [192, 64]
-0.30070707 0.23967712 -0.07344753 0.060133647 0.25322464 0.27822003 -0.11787228 0.11352062
0.11325028 0.055880643 -0.23245852 0.12750264 0.06927174 -0.011222673 -0.071706004 -0.12416147
-0.26471096 -0.08428919 0.1437746 -0.20888458 0.2455344 -0.106653124 0.10364376 0.21507984
-0.2523128 -0.20322186 0.2091518 0.16086845 -0.052120205 0.15347062 0.034779742 -0.0966626
0.0073798555 0.05063179 -0.18627636 0.23895194 0.034464754 0.16225792 0.24765183 0.100779615
0.114577934 -0.08650491 0.040443044 -0.1460642 0.074920796 0.032768484 -0.050691515 -0.17348236
0.10434938 0.045261472 0.13168514 0.18510059 0.010846654 0.0060422504 -0.038139988 -0.009899414
-0.09129277 0.051405195 0.18441764 0.22729526 -0.12568122 -0.20717064 -0.10700141 0.01974845
-0.13420862 -0.005251356 -0.04719111 0.021210669 0.07500904 0.095713 0.061854344 0.063415594
0.006410981 0.079798356 -0.087004684 -0.053175595 0.05257602 0.06953635 -0.009681237 0.14276303
0.067246504 -0.20698513 -0.042425126 0.027490446 0.006927876 0.005149776 -0.06277369 -0.0061140037
-0.07234927 -0.060791753 -0.15920396 -0.0026393824 0.0768372 0.11497431 0.0030373554 0.05764047
0.03659292 -0.18422149 0.08921245 0.05486214 -0.005441443 0.05993659 0.11416988 -0.089249365
0.018645514 0.05996617 -0.00032139267 -0.042323016 0.054986462 0.04129257 0.044178873 -0.075001754
0.080540344 0.054895595 0.020853113 -0.011316329 0.011847687 -0.11645044 -0.11781669 -0.018436342
0.0873859 -0.07037674 0.042181365 0.023212966 0.07774628 -0.10336226 -0.04182617 -0.06901153
-0.028236855 -0.14613171 -0.013270123 0.06825009 -0.14609246 0.02183376 -0.22792734 -0.07972864
0.081312574 0.10558707 -0.17288864 0.08375849 -0.006400593 0.03350573 0.05674306 0.15228164
0.074341506 0.0021832394 0.0013155524 0.028326314 -0.08113037 0.12959203 -0.022271639 -0.096238196
-0.017213782 -0.17222385 -0.15691534 -0.035569776 -0.12792401 -0.031910576 0.011760604 0.08267485
-0.10369755 -0.22275676 0.063084915 -0.113959454 -0.09238509 0.03254105 0.15563972 0.07263258
-0.2159663 -0.11755615 -0.049206343 0.0019365968 0.06945333 -0.029602002 -0.05972454 -0.063082784
0.13930272 0.017177688 -0.08317473 0.046557885 -0.017583882 -0.025925353 0.1418534 -0.17757854
-0.05963286 -0.0648483 -0.07360879 -0.1583006 0.0011398016 0.13691983 -0.01563191 -0.022870222
0.028209528 0.18782201 -0.05170069 -0.04039438 0.24004135 -0.09991744 0.12654705 0.12986925
-0.033659052 -0.039370682 0.03068864 0.08914115 0.031598154 -0.0010337362 0.057534542 -0.018623106
0.013168197 0.0176728 0.05616358 -0.08867188 0.079329275 -0.08885304 0.118080385 0.14727247
-0.11101156 0.007447524 0.11523524 -0.024105465 0.011292833 -0.0038945645 0.12001568 0.063646734
-0.005309392 0.14101264 -0.08343351 -0.01446146 -0.08879345 0.1261735 -0.014576823 -0.04001129
0.13462543 -0.027318 0.032265887 -0.076746196 0.111082956 -0.03996489 -0.024390452 -0.17782196
0.03279256 -0.16508411 0.0053614895 -0.0314861 0.07895993 0.06302342 0.059211764 -0.014599474
0.026818018 0.15446858 0.041134715 0.12365998 -0.022111293 -0.23735602 0.11663495 -0.092358015
00000000: 47f6 99be eb6d 753e a96b 96bd b34e 763d
00000010: a9a6 813e db72 8e3e 0667 f1bd 807d e83d
00000020: c3ef e73d 1ae3 643d 9b09 6ebe 0d90 023e
00000030: 58de 8d3d 4ddf 37bc 99da 92bd 5e48 febd
00000040: 3288 87be d09f acbd a639 133e d7e5 55be
00000050: 5f6d 7b3e f46c dabd 2e43 d43d e43d 5c3e
00000060: 252f 81be 6419 50be e42b 563e b3ba 243e
00000070: ff7b 55bd 6727 1d3e 3475 0e3d 0bf7 c5bd
00000080: b7d2 f13b 4863 4f3d 3bbf 3ebe d1af 743e
00000090: ea2a 0d3d f126 263e 7198 7d3e 8b65 ce3d
000000a0: d6a7 ea3d 7c29 b1bd 9ba7 253d db91 15be
000000b0: 1370 993d 3f38 063d e8a1 4fbd 5ca5 31be
000000c0: 21b5 d53d 1864 393d 78d8 063e 028b 3d3e
000000d0: 2ab6 313c 12fe c53b ad38 1cbd 2731 22bc
000000e0: b4f7 babd 418e 523d fad7 3c3e 17c0 683e
000000f0: 94b2 00be 8a24 54be 8e23 dbbd 80c7 a13c
00000100: fc6d 09be 9113 acbb 774b 41bd ffc1 ad3c
00000110: 579e 993d 2d05 c43d fb5a 7d3d 09e0 813d
00000120: 3513 d23b 526d a33d 832f b2bd a7ce 59bd
00000130: f459 573d 1369 8e3d 0d9e 1ebc 7930 123e
00000140: 89b8 893d e9f3 53be f8c5 2dbd a533 e13c
00000150: 3c03 e33b 74bf a83b 7e8f 80bd fb57 c8bb
00000160: db2b 94bd c600 79bd 5d06 23be 7df9 2cbb
00000170: d25c 9d3d a777 eb3d 5e0e 473b 6a18 6c3d
00000180: 75e2 153d 8fa4 3cbe 04b5 b63d 20b7 603d
00000190: 224e b2bb 1280 753d e6d1 e93d 5fc8 b6bd
000001a0: 7abe 983c 169f 753d 9880 a8b9 e65a 2dbd
000001b0: 7c39 613d 6622 293d e8f4 343d 859a 99bd
000001c0: 56f2 a43d 34da 603d 26d4 aa3c 2068 39bc
000001d0: cd1c 423c 917d eebd e049 f1bd d007 97bc
000001e0: 61f7 b23d ae21 90bd 5ec6 2c3d 1e29 be3c
000001f0: 7139 9f3d 98af d3bd eb51 2bbd eb55 8dbd
00000200: fa50 e7bc 8da3 15be ee6a 59bc b4c6 8b3d
00000210: 4399 15be b7dc b23c c965 69be c548 a3bd
00000220: 3587 a63d 093e d83d b809 31be 9289 ab3d
00000230: 11bc d1bb 4e3d 093d 696b 683d b8ef 1b3e
00000240: 5c40 983d ae14 0f3b 9d6e ac3a 960c e83c
00000250: ae27 a6bd c6b3 043e 0373 b6bc 8818 c5bd
00000260: eb03 8dbc 735b 30be 6aae 20be 9db1 11bd
00000270: 83fe 02be aab4 02bd 8caf 403c 6f51 a93d
00000280: 625f d4bd 591a 64be aa32 813d 9363 e9bd
00000290: 6534 bdbd c449 053d 0560 1f3e 64c0 943d
000002a0: 4526 5dbe 47c1 f0bd 978c 49bd 68d5 fd3a
000002b0: 8c3d 8e3d e67f f2bc b8a1 74bd 8c31 81bd
000002c0: 5fa5 0e3e 39b8 8c3c 8357 aabd 7bb3 3e3d
000002d0: 130c 90bc 6861 d4bc 0542 113e 26d7 35be
000002e0: 9641 74bd 2fcf 84bd 35c0 96bd 8d19 22be
000002f0: 6565 953a b634 0c3e 7e0e 80bc 555a bbbc
00000300: ab17 e73c 6a54 403e 1ac4 53bd 9474 25bd
00000310: 66cd 753e 84a1 ccbd 8d95 013e 72fc 043e
00000320: 13de 09bd 2743 21bd be66 fb3c a38f b63d
00000330: 116d 013d 6e7e 87ba 57a9 6b3d 7c8f 98bc
00000340: 6cbf 573c 8cc6 903c c80b 663d 9a99 b5bd
00000350: 6377 a23d 95f8 b5bd 21d4 f13d 98ce 163e
00000360: 075a e3bd 5c0a f43b 7400 ec3d d378 c5bc
00000370: 9305 393c f33b 7fbb c8ca f53d 3859 823d
00000380: 69fa adbb 9e65 103e 30df aabd c2ef 6cbc
00000390: 57d9 b5bd a033 013e a1d3 6ebc e1e2 23bd
000003a0: 40db 093e 00ca dfbc 3c29 043d 1c2d 9dbd
000003b0: 767f e33d 39b2 23bd 7cce c7bc f616 36be
000003c0: 7e51 063d cf0b 29be 6faf af3b 92f7 00bd
000003d0: beb5 a13d 6c12 813d 0988 723d a232 6fbc
000003e0: 76b1 db3c 032d 1e3e e07c 283d 7241 fd3d
000003f0: be22 b5bc 750d 73be 4ede ee3d 3326 bdbd

gru.weight_hh_l0 f4 [192, 64]
0.11252869 0.18927826 0.16613162 -0.13675384 -0.06726114 0.10832874 0.00039872524 -0.052838292
-0.09977418 -0.0425027 -0.031355347 0.027843203 0.066601865 0.2125584 0.08220854 -0.07391651
0.11883872 -0.17032038 0.19746488 -0.2039496 0.025578357 -0.13776152 0.21346973 -0.09470771
0.06689406 -0.03999416 0.0035296802 -0.06299199 -0.06371966 -0.12230467 0.0031908574 0.013000997
-0.0025182737 -0.00462204 0.12948021 -0.119323775 0.0027522286 0.18384117 0.2625077 -0.045652926
-0.054744896 -0.21862893 0.21623991 -0.2111382 -0.17952146 0.025760503 0.074227005 -0.22920431
0.10973282 -0.11260896 -0.16047485 -0.05548998 -0.06381643 -0.18675317 -0.19196247 0.026411274
-0.14573257 -0.011566504 0.057161927 -0.005675233 0.13701876 0.0071670776 0.07730745 -0.046126846
0.13959856 0.036627173 0.1216703 0.007951645 0.21798328 -0.08356162 -0.07355273 0.006571683
0.04993744 -0.01568883 -0.044843853 0.03513568 0.07192612 -0.006326851 -0.24108678 0.06491118
-0.049790755 0.014163075 -0.124230996 -0.09640848 0.16864365 0.0619436 -0.04680721 -0.034550462
-0.06779591 0.005868243 0.09053587 0.03616182 0.07497321 -0.053817205 -0.32566622 0.0142107
0.019075435 -0.13111155 0.10655057 0.17361376 -0.19375342 0.1291166 0.0865004 -0.23123579
-0.048795044 -0.0062538823 -0.1867432 0.20018458 -0.008056091 0.08050006 0.2005034 0.04129261
0.15868358 -0.012453784 0.03097159 -0.124793306 -0.1282067 0.111696675 0.10157451 -0.03558881
0.10320716 -0.019461248 0.13394748 -0.025554985 -0.044146977 -0.080922954 -0.13953663 -0.010891163
0.02895905 -0.068642005 -0.12379875 0.036443803 -0.13572793 0.04870253 0.03334014 0.19314198
0.04516437 -0.028879967 -0.059500016 -0.17688958 -0.0054908483 -0.027170425 -0.10402129 0.16388556
0.059205193 0.08562405 -0.101227745 0.087715864 -0.2967797 0.03386529 -0.040345225 -0.05547415
-0.08730652 -0.045270514 -0.019168952 -0.17348313 -0.047464486 -0.035099354 0.17385165 0.0097133
-0.24426264 -0.062014204 -0.13970335 -0.14201193 0.06845437 -0.09962005 0.14917326 0.092630744
-0.09162224 0.11320122 0.111177735 0.16884589 -0.10948028 -0.02646435 -0.12065299 0.06833445
0.04946119 -0.017340949 0.30355644 0.027126394 -0.01842237 0.10302442 -0.083772555 0.31629008
-0.06832779 0.1932288 -0.030830432 0.039113637 0.028998634 0.1078026 0.095261805 0.06320627
0.043180663 -0.22343445 -0.13778445 0.083533555 0.1011179 0.046693116 -0.07439221 0.14396462
0.020873956 -0.042167198 0.005672057 0.15245153 -0.04748838 0.15132937 0.00723958 -0.07731095
0.07121155 -0.024548663 -0.049018115 0.056498952 0.2348205 -0.057806343 0.059009038 -0.09871812
-0.004771556 -0.14683558 0.127501 -0.057702485 -0.04859615 0.159507 -0.09143584 -0.033314027
0.06312258 -0.0009294115 -0.023693187 -0.07504839 -0.12578557 -0.05789546 -0.044474706 -0.06228254
0.11032275 -0.023009602 -0.1228495 0.042277817 0.06697926 0.05447575 -0.14584267 -0.0015794479
0.032563716 -0.053716723 -0.0373651 -0.08032762 0.09465625 0.014934824 0.034234285 -0.19799443
-0.05847726 -0.06666342 -0.022847814 0.047929794 0.057385776 -0.059445567 -0.03640185 -0.15127492
00000000: 7175 e63d 29d2 413e 681e 2a3e 3309 0cbe
00000010: 35c0 89bd 75db dd3d ff0b d139 f76c 58bd
00000020: 6856 ccbd 5017 2ebd 776e 00bd 6e17 e43c
00000030: 8f66 883d e9a8 593e f35c a83d 8a61 97bd
00000040: b761 f33d 7768 2ebe 3c34 4a3e 2ad8 50be
00000050: b489 d13c 5b11 0dbe cf97 5a3e 1ef6 c1bd
00000060: c1ff 883d ebd0 23bd 3552 673b f201 81bd
00000070: 747f 82bd df7a fabd b41d 513b 2202 553c
00000080: 9f09 25bb 7b74 97bb 7696 043e 0660 f4bd
00000090: bc5e 343b dc40 3c3e 6967 863e 90fe 3abd
000000a0: 2f3c 60bd 43e0 5fbe ff6d 5d3e 9d34 58be
000000b0: 79d4 37be b107 d33c 5404 983d 89b4 6abe
000000c0: 9abb e03d 879f e6bd 8553 24be 7649 63bd
000000d0: 30b2 82bd 393c 3fbe cf91 44be 755c d83c
000000e0: eb3a 15be 6f81 3dbc a022 6a3d 4ef7 b9bb
000000f0: a54e 0c3e ced9 ea3b 5e53 9e3d 81ef 3cbd
00000100: edf2 0e3e 6006 163d 472e f93d 9e47 023c
00000110: 0237 5f3e 5b22 abbd d0a2 96bd 4657 d73b
00000120: 338b 4c3d dc85 80bc 30ae 37bd 6eea 0f3d
00000130: 004e 933d 7951 cfbb 74df 76be 27f0 843d
00000140: 64f1 4bbd 3e0c 683c d26c febd cf71 c5bd
00000150: ecb0 2c3e 93b8 7d3d ebb8 3fbd c984 0dbd
00000160: 95d8 8abd 644a c03b df6a b93d 6b1e 143d
00000170: 8e8b 993d 6e6f 5cbd b9bd a6be ffd3 683c
00000180: 1644 9c3c 1b42 06be 2f37 da3d cec7 313e
00000190: 4c67 46be 2437 043e 1f27 b13d 13c9 6cbe
000001a0: 50dd 47bd 5eed ccbb 9c39 3fbe 30fd 4c3e
000001b0: b2fd 03bc 37dd a43d c350 4d3e 7122 293d
000001c0: f37d 223e f50a 4cbc 22b8 fd3c a293 ffbd
000001d0: 9e48 03be 3ac1 e43d 4c06 d03d 92c5 11bd
000001e0: 475e d33d 326d 9fbc 8729 093e b058 d1bc
000001f0: 76d3 34bd efba a5bd b1e2 0ebe d970 32bc
00000200: 883b ed3c 2e94 8cbd 338a fdbd 1946 153d
00000210: 43fc 0abe 4e7c 473d ac8f 083d 03c7 453e
00000220: 46fe 383d ae95 ecbc 4ab6 73bd 8b22 35be
00000230: 93ec b3bb 8394 debc 1d09 d5bd 9ed1 273e
00000240: 2581 723d a95b af3d 7e50 cfbd 60a4 b33d
00000250: 82f3 97be 55b6 0a3d 0941 25bd dd38 63bd
00000260: c3cd b2bd 936d 39bd 3508 9dbc 90a5 31be
00000270: 1f6a 42bd 57c4 0fbd 2b06 323e 8824 1f3c
00000280: fc1f 7abe 9b02 7ebd 650e 0fbe 936b 11be
00000290: ce31 8c3d 9905 ccbd e0c0 183e 30b5 bd3d
000002a0: 71a4 bbbd 0bd6 e73d 27b1 e33d f0e5 2c3e
000002b0: 3237 e0bd c4cb d8bc ea18 f7bd eff2 8b3d
000002c0: d197 4a3d 9b0e 8ebc c06b 9b3e 2c38 de3c
000002d0: 83ea 96bc 78fe d23d f290 abbd c6f0 a13e
000002e0: 71ef 8bbd c5dd 453e 1a90 fcbc 9f35 203d
000002f0: 8b8e ed3c 9cc7 dc3d 9f18 c33d 4a72 813d
00000300: 35de 303d 00cc 64be 5e17 0dbe a413 ab3d
00000310: e716 cf3d 4841 3f3d f15a 98bd 766b 133e
00000320: dcff aa3c 83b7 2cbd aadc b93b 411c 1c3e
00000330: 2d83 42bd 16f6 1a3e 003a ed3b 3455 9ebd
00000340: 5cd7 913d 471a c9bc 38c7 48bd 726b 673d
00000350: c974 703e 58c6 6cbd 76b3 713d ba2c cabd
00000360: b65a 9cbb 115c 16be 9f8f 023e 7159 6cbd
00000370: c20c 47bd ce55 233e b742 bbbd 4a74 08bd
00000380: 6946 813d c0a3 73ba 3718 c2bc f8b2 99bd
00000390: efcd 00be ca23 6dbd 1c2b 36bd fa1b 7fbd
000003a0: e5f0 e13d a27e bcbc 8598 fbbd 812b 2d3d
000003b0: 6c2c 893d f721 5f3d c857 15be 7a05 cfba
000003c0: 8861 053d 1106 5cbd 260c 19bd cf82 a4bd
000003d0: 23db c13d 31b1 743c 4039 0c3d 0dbf 4abe
000003e0: da85 6fbd d586 88bd 572b bbbc 0852 443d
000003f0: 590d 6b3d 327d 73bd 1b1a 15bd d0e7 1abe

gru.bias_ih_l0 f4 [192]
0.20317917 0.07944638 -0.03602501 0.15102845 -0.09768104 0.13282897 0.11448228 0.10807942
0.033387486 0.10099924 -0.01158494 0.0096278135 0.014591602 0.13212691 0.020513227 0.072349906
0.070621796 -0.03166835 0.08493398 -0.01827387 -0.10266821 0.00425701 0.10786308 -0.054966234
-0.055755924 -0.054236684 0.17268886 0.04330817 0.09971609 0.06996225 0.027847452 -0.03824302
-0.17585541 -0.037787054 0.00823528 0.08582206 0.13524933 0.03612302 0.0707259 -0.12365418
-0.010805165 0.010690061 -0.098829165 0.06363441 0.064092144 0.14269039 0.036412634 0.0022477852
-0.04605219 0.0866657 0.053845745 -0.0058249133 -0.08238559 -0.04580111 -0.051070023 -0.0010528545
0.059785295 0.07266249 0.10024596 0.07993876 -0.116774835 -0.082419954 -0.0297755 0.043648314
0.08540462 -0.11092135 -0.0069488026 0.030906314 0.0459106 -0.08707923 -0.0071462714 0.0010249219
0.002391233 -0.0018608157 -0.12990531 -0.013637177 -0.12528875 -0.030636707 0.18766968 -0.03566999
-0.07545421 -0.038318273 0.12142649 0.024861649 0.05315742 0.058405843 -0.0216769 -0.12695216
-0.023104675 -0.08759934 -0.16973068 -0.14436646 -0.1364071 -0.053436633 -0.122660406 -0.06083274
-0.2845009 -0.05916316 -0.027666109 -0.08033559 -0.0695373 -0.06905124 -0.14421344 0.114762075
-0.1513446 -0.045637574 0.00083180453 0.07098105 0.0055392897 0.012699438 -0.08155529 -0.09740758
-0.15484539 0.017574858 -0.24252152 -0.1748574 0.049600568 -0.15278539 0.055494495 -0.06404908
0.013067751 -0.14874566 -0.005968548 -0.02346511 0.0097954655 0.03503455 -0.12613021 0.06518799
0.117259294 0.12957974 0.035513174 -0.036452748 -0.14957441 -0.014552878 -0.08356131 -0.1287859
-0.002367075 -0.03005613 -0.01698056 -0.100857034 -0.11271166 -0.0584385 -0.04152772 0.072820656
0.03909673 -0.103224404 0.068110295 -0.11832204 0.08896611 -0.08701125 -0.035138212 -0.161179
0.056798227 -0.050502237 -0.07583967 -0.10680838 0.023069132 -0.011642515 0.095391914 -0.072016954
-0.05930277 0.13878252 -0.034440912 -0.023982327 -0.056864362 0.09574663 0.13882436 0.116620935
-0.11623914 -0.11189425 -0.059546143 0.033964433 -0.12627286 0.034879625 0.042748567 -0.09947534
0.037977625 -0.07727834 0.093437366 -0.0012649727 -0.091877915 0.058688078 0.07645517 -0.062235605
0.006384093 -0.005106145 -0.107319124 0.025794582 -0.13276955 0.09248264 -0.021425009 0.08650028
00000000: 330e 503e c9b4 a23d f68e 13bd 34a7 1a3e
00000010: ff0c c8bd 5104 083e b075 ea3d be58 dd3d
00000020: 51c1 083d b1d8 ce3d c3ce 3dbc fabd 1d3c
00000030: 9d11 6f3c 474c 073e 5b0b a83c 302c 943d
00000040: 29a2 903d acb6 01bd def1 ad3d 15b3 95bc
00000050: b643 d2bd 637e 8b3b 52e7 dc3d 4624 61bd
00000060: 5360 64bd 4927 5ebd 59d5 303e e863 313d
00000070: f337 cc3d 5e48 8f3d 5720 e43c b7a4 1cbd
00000080: 7113 34be 99c6 1abd 45ed 063c 7ac3 af3d
00000090: cd7e 0a3e bbf5 133d bed8 903d 673e fdbd
000000a0: 2608 31bc 5e25 2f3c f266 cabd c252 823d
000000b0: be42 833d 6e1d 123e 6a25 153d 944f 133b
000000c0: 39a1 3cbd c97d b13d 5b8d 5c3d eade bebb
000000d0: c7b9 a8bd f299 3bbd cd2e 51bd efff 89ba
000000e0: 6de1 743d 12d0 943d c14d cd3d efb6 a33d
000000f0: a527 efbd cbcb a8bd c0eb f3bc 93c8 323d
00000100: 9ee8 ae3d bc2a e3bd c8b2 e3bb 3d2f fd3c
00000110: c10c 3c3d 9856 b2bd 452b eabb ac56 863a
00000120: 3cb6 1c3b 9de6 f3ba e605 05be 776e 5fbc
00000130: b24b 00be d5f9 fabc 7b2c 403e b21a 12bd
00000140: bd87 9abd 9ff3 1cbd 74ae f83d a8aa cb3c
00000150: 98bb 593d f73a 6f3d c193 b1bc bfff 01be
00000160: 0446 bdbc 4867 b3bd e1cd 2dbe cdd4 13be
00000170: 4eae 0bbe 5fe0 5abd 6135 fbbd c02b 79bd
00000180: 1aaa 91be 1255 72bd 09a4 e2bc fc86 a4bd
00000190: 9269 8ebd bd6a 8dbd b0ac 13be 6108 eb3d
000001a0: 14fa 1abe 77ee 3abd 750d 5a3a 835e 913d
000001b0: ee82 b53b 4e11 503c 7606 a7bd a07d c7bd
000001c0: ca8f 1ebe 26f9 8f3c 9057 78be d10d 33be
000001d0: f729 4b3d c673 1cbe 324e 633d 2a2c 83bd
000001e0: 1f1a 563c c850 18be cf93 c3bb e739 c0bc
000001f0: 297d 203c 6380 0f3d 4728 01be 4881 853d
00000200: a425 f03d 8db0 043e 4376 113d 7a4f 15bd
00000210: 092a 19be 326f 6ebc 3122 abbd 73e0 03be
00000220: ee20 1bbb 4638 f6bc d11a 8bbc 228e cebd
00000230: 5fd5 e6bd 355d 6fbd f818 2abd ff22 953d
00000240: e523 203d 5167 d3bd 697d 8b3d d352 f2bd
00000250: dd33 b63d f432 b2bd 16ed 0fbd 1c0c 25be
00000260: 42a5 683d 6fdb 4ebd d451 9bbd 5abe dabd
00000270: 7afb bc3c 3fc0 3ebc d65c c33d a07d 93bd
00000280: 76e7 72bd 011d 0e3e ea11 0dbd 9676 c4bc
00000290: 9bea 68bd cf16 c43d f927 0e3e f5d6 ee3d
000002a0: c90e eebd d028 e5bd a8e6 73bd 4a1e 0b3d
000002b0: ac4d 01be f0dd 0e3d 1f19 2f3d bab9 cbbd
000002c0: 6d8e 1b3d 1b44 9ebd 175c bf3d 71cd a5ba
000002d0: 7d2a bcbd e962 703d 8794 9c3d c3ea 7ebd
000002e0: a731 d13b 7351 a7bb 21ca dbbd 294f d33c
000002f0: bef4 07be 8a67 bd3d 8083 afbc 0f27 b13d

gru.bias_hh_l0 f4 [192]
0.1878233 -0.047709152 -0.169499 0.07134056 0.027837988 0.1753338 -0.11123188 -0.0025995194
0.0072233407 -0.11298061 0.005638378 -0.022669269 -0.09552705 0.12494207 0.0055386377 -0.0572674
0.035499454 -0.025665654 -0.015310072 -0.039584883 -0.021593288 0.027501557 0.08165022 0.040609896
-0.04324067 -0.012239925 0.03555067 0.050269954 0.06598325 -0.07665418 -0.10412422 -0.12658274
-0.13704793 -0.04219849 -0.091924556 -0.1175787 -0.049515393 0.010811896 0.12283036 -0.04440742
-0.051485393 0.17088802 -0.14971058 0.015440133 0.09730393 0.065573186 -0.033788458 -0.040645286
-0.09384985 -0.038494628 0.07050756 0.08107112 -0.18124773 0.15545723 0.055627238 0.013677556
-0.10103977 0.0314579 0.09073185 -0.04140722 0.0922152 -0.005630814 -0.08986758 0.2013738
-0.006505194 -0.0055845897 -0.13618721 0.00965367 0.06294887 -0.015930615 0.012262438 -0.08073499
0.042388 0.0036308516 -0.09194903 -0.018391412 -0.26342818 0.2141511 0.13336152 -0.09361631
-0.16198787 0.056832183 -0.03802035 0.085691795 0.020538477 -0.08397933 -0.11956709 -0.105211705
0.095025264 -0.009222407 -0.18326662 0.05722005 -0.09628424 -0.07804783 -0.069387056 -0.064653896
-0.16329795 -0.010539807 -0.037596054 0.046683487 -0.0239395 0.08163391 -0.14513077 -0.12358862
-0.09196593 -0.16421814 -0.12597495 0.08187921 0.05845988 -0.07876273 0.050133586 -0.059287596
-0.19831423 -0.023973692 -0.20635313 -0.15874355 -0.044559833 0.07795261 -0.016554773 0.01529061
-0.14443858 0.039827377 -0.022096395 0.13192773 -0.14043652 -0.19621213 -0.098778725 -0.1331754
0.031577032 -0.04223839 0.08856617 0.1170509 0.06305277 0.08861383 0.056149498 -0.086125314
0.05673473 -0.009024925 0.100241594 -0.12042277 -0.12846613 -0.09114033 -0.070234574 0.04211317
0.09185964 -0.04302539 0.122711666 -0.14603448 0.019686127 -0.014661128 -0.020881508 -0.1106365
0.08337645 -0.16711935 0.057171717 -0.11089433 0.0040047327 -0.009634237 -0.13142751 0.12707283
0.07835955 0.13378856 0.038517192 -0.051136743 0.12906404 0.04711079 -0.0034246792 0.02635985
0.002282829 -0.12976201 0.0706697 0.109367035 -0.08434579 -0.012835741 0.070897125 -0.03400606
-0.116850615 -0.08438653 -0.081452645 0.03379799 0.012181166 -0.04075466 0.019737124 -0.1823353
0.14625245 0.11736328 -0.033921424 0.017921407 -0.0032534471 0.1451159 0.059770685 -0.05281906
00000000: c054 403e ac6a 43bd 2591 2dbe 001b 923d
00000010: 7e0c e43c b48a 333e 8acd e3bd b35c 2abb
00000020: c6b1 ec3b 6162 e7bd 25c2 b83b e7b4 b9bc
00000030: b0a3 c3bd a1e1 ff3d 767d b53b 3991 6abd
00000040: e067 113d c740 d2bc 19d7 7abc c223 22bd
00000050: 68e4 b0bc f24a e13c 3b38 a73d 9056 263d
00000060: 211d 31bd f789 48bc 949d 113d dee7 4d3d
00000070: 3a22 873d defc 9cbd 143f d5bd e89e 01be
00000080: 4b56 0cbe 53d8 2cbd f142 bcbd 1acd f0bd
00000090: a7d0 4abd 6124 313c 7c8e fb3d 8ee4 35bd
000000a0: 59e2 52bd 45fd 2e3e bb4d 19be 9df8 7c3c
000000b0: 4847 c73d 3c4b 863d c465 0abd ac7b 26bd
000000c0: 5a34 c0bd 8bac 1dbd 4566 903d 9e08 a63d
000000d0: 0199 39be 2e30 1f3e 63d9 633d d417 603c
000000e0: f0ed cebd 00da 003d 9fd1 b93d 9e9a 29bd
000000f0: 53db bc3d b182 b8bb 7e0c b8bd ef34 4e3e
00000100: 8629 d5bb effe b6bb a974 0bbe 6d2a 1e3c
00000110: 56eb 803d ec80 82bc 65e8 483c 6358 a5bd
00000120: 0a9f 2d3d 95f3 6d3b c64f bcbd 96a9 96bc
00000130: 0fe0 86be 6d4a 5b3e ec8f 083e e8b9 bfbd
00000140: 26e0 25be ddc8 683d 3abb 1bbd 2e7f af3d
00000150: 4f40 a83c 5bfd abbd 97df f4bd 3c79 d7bd
00000160: 9b9c c23d 9419 17bc 3faa 3bbe 925f 6a3d
00000170: ac30 c5bd 8ad7 9fbd cd1a 8ebd 4369 84bd
00000180: 9437 27be 28af 2cbc 52fe 19bd 2f37 3f3d
00000190: c51c c4bc ae2f a73d 299d 14be 081c fdbd
000001a0: a258 bcbd cd28 28be 94ff 00be 4ab0 a73d
000001b0: a173 6f3d 5b4e a1bd e058 4d3d 8dd7 72bd
000001c0: e312 4bbe 7a64 c4bc 3c4e 53be ab8d 22be
000001d0: 5f84 36bd 9ea5 9f3d e09d 87bc 7785 7a3c
000001e0: b5e7 13be 0822 233d 8003 b5bc 1018 073e
000001f0: 97ce 0fbe d5eb 48be 804c cabd 225f 08be
00000200: eb56 013d 2902 2dbd 2e62 b53d 62b8 ef3d
00000210: d021 813d 2b7b b53d 04fd 653d 7862 b0bd
00000220: ad62 683d 47dd 13bc 774b cd3d 37a0 f6bd
00000230: a08c 03be c8a7 babd 25d7 8fbd dc7e 2c3d
00000240: e820 bc3d 643b 30bd 4150 fb3d 108a 15be
00000250: cd44 a13c 3a35 70bc b20f abbc 6495 e2bd
00000260: 46c1 aa3d 5621 2bbe e42c 6a3d 911c e3bd
00000270: 223a 833b ebd8 1dbc ef94 06be 611f 023e
00000280: f97a a03d deff 083e 34c4 1d3d c374 51bd
00000290: 5d29 043e 3ef7 403d 9570 60bb 9df0 d73c
000002a0: 849b 153b 55e0 04be 47bb 903d d3fb df3d
000002b0: 7cbd acbd 004d 52bc 8332 913d f049 0bbd
000002c0: 604f efbd d8d2 acbd a5d0 a6bd c36f 0a3d
000002d0: 8393 473c 5cee 26bd c0af a13c 1bb6 3abe
000002e0: 34c3 153e 295c f03d 31f1 0abd eacf 923c
000002f0: c937 55bb 4399 143e 1bd2 743d cc58 58bd
