models/gnn-rnn/gnn_rnn_r_half_linear.pth (torch, 152713 bytes, 17 tensors)

fc_measurement.0.weight f4 [32, 1]
0	0x3f541e3a	0.8285862
1	0x3f6d7943	0.92763156
2	0xbeb207ed	-0.34771672
3	0x3f8482a9	1.0352374
4	0xbe7ecb06	-0.24882135
5	0x3dd5406e	0.104126796
6	0xbf2a8529	-0.66609436
7	0x3f3fbb7e	0.74895465
8	0x3f749254	0.9553578
9	0xbf5fe655	-0.87460834
10	0x3f6edaf2	0.93302834
11	0x3e27be37	0.16381155
12	0x3f627746	0.88463247
13	0x3eb37a71	0.35054353
14	0x3f1590dd	0.5842417
15	0xbe8cead9	-0.27522925
16	0x3f67a446	0.90485036
17	0x3eae5d3b	0.34055504
18	0xbf1f4659	-0.62216717
19	0x3ece7e26	0.4033062
20	0xbeebb3c9	-0.46035603
21	0xbe1aa60a	-0.15102401
22	0xbf0ea46f	-0.55719656
23	0x3f401830	0.7503691
24	0xbf51b247	-0.81912655
25	0xbf17034e	-0.5898942
26	0xbee967e2	-0.4558707
27	0xbf379ce4	-0.7172377
28	0x3e81aeaa	0.2532857
29	0xbf86ab62	-1.0521052
30	0x3f88cbbf	1.0687178
31	0xbf7eb59f	-0.9949588

fc_measurement.0.bias f4 [32]
0	0x3f68b27c	0.90897346
1	0x3dca9f8b	0.09893712
2	0xbe868ac7	-0.26277754
3	0x3f20ce64	0.6281493
4	0x3e9381c9	0.28809956
5	0x3f7acd67	0.9796967
6	0x3e9bc3c6	0.304228
7	0xbef75819	-0.483094
8	0x3e861df4	0.26194727
9	0xbe7df716	-0.24801287
10	0x3ec8a751	0.39190152
11	0x3f7beab5	0.9840501
12	0x3f17d5d5	0.59310657
13	0xbef90e48	-0.48643708
14	0x3f30a05b	0.68994683
15	0x3e9c333f	0.30507848
16	0x3eff1345	0.4981939
17	0xbf054925	-0.52064735
18	0xbf7ef555	-0.99593097
19	0xbeea9f85	-0.4582483
20	0xbf684ecc	-0.90745234
21	0x3f921db4	1.1415315
22	0x3edf1c7d	0.43576422
23	0x3ee4ac2b	0.44662604
24	0x3ed900dc	0.42383468
25	0x3d7d3e02	0.061826713
26	0x3f96f40c	1.1793227
27	0xbf3e8a47	-0.74429744
28	0xbe2d51bc	-0.1692571
29	0xbf300ec0	-0.68772507
30	0x3e340e25	0.1758352
31	0xbe93a98f	-0.288403

fc_measurement.2.weight f4 [32, 32]
0	0xba00226c	-0.0004887942
1	0xbdacdb4c	-0.08440265
2	0x3e83ee14	0.25767577
3	0xbe1b3f7d	-0.15160938
4	0xbd62e509	-0.055394206
5	0xbe391e1b	-0.1807789
6	0x3e5f481e	0.21804854
7	0x3c83ad60	0.016073883
8	0x3dfaebf3	0.12252035
9	0xbd92c915	-0.071672596
10	0xbe63d3eb	-0.22248809
11	0xbe55e65c	-0.20888656
12	0xbe29bc58	-0.16575754
13	0x3d55e9ac	0.0522248
14	0xba7cef47	-0.0009648692
15	0x3e45464e	0.192651
16	0xbe0d77c8	-0.13815224
17	0xbe08d7f2	-0.13363627
18	0x3e67a60a	0.22621933
19	0xbdd84331	-0.10559691
20	0x3e77d4a1	0.24202205
21	0xbce5ebae	-0.028066482
22	0x3e1beb7a	0.15226546
23	0xbe3cd343	-0.18439965
24	0xbd0c80dd	-0.03430258
25	0x3df471dd	0.1193578
26	0x3d8aab42	0.06770946
27	0x3d730d80	0.059339046
28	0x3d784497	0.060612287
29	0x3e51946a	0.20466772
30	0xbe33a356	-0.17542776
31	0xbca0add7	-0.019614143
32	0x3e56aa73	0.20963459
33	0xbc0e674f	-0.008691623
34	0xbdb257b8	-0.08708137
35	0xbdfc0b3a	-0.12306829
36	0xbdf189fe	-0.11793898
37	0x3da65c07	0.081230216
38	0xbd0af20c	-0.03392224
39	0xbda0ee0c	-0.07857904
40	0x3d60594e	0.054772668
41	0xbe094662	-0.13405755
42	0xbdce31aa	-0.100680664
43	0xbd614452	-0.054996796
44	0xbddc53a7	-0.10758143
45	0xbd3fd4bd	-0.046833742
46	0x3e64a25d	0.22327562
47	0x3c966731	0.018359752
48	0x3dd12de9	0.10213835
49	0xbdde8f8b	-0.108672224
50	0xbe085ae6	-0.13315925
51	0xbc2681db	-0.010162796
52	0x3cc4d4b6	0.02402721
53	0xbe17ed2a	-0.14836565
54	0xbdb413a7	-0.08792811
55	0xbd6986de	-0.057013385
56	0xbc2e9856	-0.010656437
57	0xbd9cf009	-0.076629706
58	0xbd0bb777	-0.034110513
59	0xbe0cd0ea	-0.1375157
60	0xbda0aec8	-0.07845837
61	0xbdf34d30	-0.11879957
62	0xbc372c4a	-0.011179993
63	0xbe1cccf2	-0.15312555
64	0x3e84aaaf	0.2591147
65	0x3d460bb1	0.048350994
66	0x3d3033fe	0.043018334
67	0x3e0a3b41	0.13499166
68	0xbd6d1502	-0.057881363
69	0x3e705b68	0.23472369
70	0x3d104a07	0.035226848
71	0x3d9facc1	0.07796622
72	0xbd8a1b77	-0.0674352
73	0xbe4066e3	-0.18789248
74	0x3e023eb0	0.12719226
75	0x3d993192	0.07480158
76	0x3e195dcb	0.14977185
77	0x3ddf9e85	0.10918907
78	0x3e75f105	0.24017723
79	0xbd4afc0b	-0.049556773
80	0x3d39d093	0.045364928
81	0x3e941f2f	0.2893004
82	0xbd358700	-0.0443182
83	0x3eac68a9	0.336736
84	0x3d39faf1	0.045405332
85	0xbdb8d243	-0.09024479
86	0x3e012212	0.12610653
87	0x3bb7a44f	0.005604304
88	0x3d7d28f8	0.06180665
89	0xbda33acf	-0.07970201
90	0x3e670109	0.22558989
91	0xbe84179b	-0.2579926
92	0x3e3d7660	0.18502188
93	0xbc892f75	-0.016746262
94	0x3e0a1401	0.13484193
95	0xbde623be	-0.11237286
96	0x3e3f36b7	0.18673216
97	0x3d16214e	0.036652856
98	0x3e425e18	0.18981206
99	0xbe030cb1	-0.1279781
100	0x3e563ca2	0.20921567
101	0x3be40331	0.0069583883
102	0x3d376051	0.04476959
103	0x3dbe2ff3	0.09286489
104	0x3d5162cd	0.051119614
105	0x3d00450f	0.03131586
106	0xbd871de4	-0.06597498
107	0x3cbbde1f	0.022933064
108	0x3dfc6471	0.12323845
109	0xbdb255ab	-0.08707746
110	0xbda37fa9	-0.079833336
111	0x3d875478	0.06607908
112	0xbdde2aee	-0.10848032
113	0x3cc6c96d	0.02426597
114	0x3e99e941	0.3006077
115	0xbe6441be	-0.22290704
116	0x3e406d6a	0.18791738
117	0x3e3ca4a2	0.18422177
118	0x3e20b035	0.15692218
119	0xbd0bf3b8	-0.034167975
120	0x3e5bde98	0.21471632
121	0x3e5f97d3	0.2183526
122	0x3e363047	0.17791854
123	0x3df65bfa	0.12029262
124	0xbd9367f3	-0.07197561
125	0x3e1ef84b	0.15524404
126	0xbcdc2c35	-0.026876548
127	0x3d9d52d0	0.07681811
128	0x3deedb0f	0.11662876
129	0x3e257a30	0.16159892
130	0xbda685d1	-0.08130992
131	0xbd0a7177	-0.033799615
132	0xbd8b5dfe	-0.06805037
133	0xbc939983	-0.018017536
134	0xbc8c1723	-0.017100876
135	0x3d8b5fcb	0.068053804
136	0xbe1b82d7	-0.1518663
137	0xbe061a6e	-0.1309602
138	0x3e1fd4c0	0.15608501
139	0x3d7ce79b	0.061744314
140	0xbb799a41	-0.0038086327
141	0xbd15cc04	-0.036571518
142	0xbdd8142c	-0.105507225
143	0xbe6e12e8	-0.232494
144	0xbd5415c8	-0.051778585
145	0x3e05d16f	0.13068174
146	0x3d87abd5	0.06624571
147	0x3dee9ca8	0.116509736
148	0xbe46e779	-0.19424237
149	0xbddf49ac	-0.10902724
150	0xbdac5778	-0.08415121
151	0x3e356e49	0.17717852
152	0xbd0197e2	-0.031638987
153	0xbdde1565	-0.108439244
154	0xbd142bfb	-0.036174756
155	0xbe0377db	-0.1283869
156	0xbddaf131	-0.10690535
157	0x3d8184f9	0.06324191
158	0xbd936f8a	-0.07199009
159	0xbdcf49c8	-0.101214945
160	0xbddb95cc	-0.10721931
161	0x3e7e81db	0.24854223
162	0x3dd121d8	0.10211533
163	0x3e207723	0.15670447
164	0xbe8415e8	-0.25797963
165	0xbe886d3c	-0.2664584
166	0xbe436ebc	-0.1908521
167	0x3ea8935d	0.3292493
168	0x3e5137d2	0.2043145
169	0x3dd9c5d6	0.10633437
170	0x3e4b39eb	0.19846313
171	0xbd426f97	-0.0474697
172	0x3db6857b	0.08912178
173	0x3e2a5bac	0.16636533
174	0xbdb2b230	-0.08725393
175	0xbea5dbd6	-0.32394284
176	0x3e2d6d43	0.16936211
177	0x3e5beb22	0.21476415
178	0xbd2936b1	-0.041311923
179	0x3e128b7b	0.1431102
180	0xbcb9be35	-0.022673706
181	0xbf00dfe8	-0.50341654
182	0xbe68a2cf	-0.22718357
183	0x3e1e140d	0.15437336
184	0xbe00810f	-0.12549232
185	0x3d862a7a	0.065510705
186	0xbe9e09e5	-0.30866924
187	0xbe20b483	-0.1569386
188	0x3de5ba8f	0.11217224
189	0xbdfd45dd	-0.12366841
190	0x3d8c13d5	0.0683972
191	0xbe579c62	-0.21055749
192	0x3c8b22a5	0.016984293
193	0xbe0ddccb	-0.13853757
194	0xbcfb9afe	-0.030713554
195	0x3c9efae4	0.019406743
196	0x3e263279	0.16230191
197	0x3da1ca02	0.07899858
198	0x3e0d1c0f	0.13780235
199	0xbdab5c0a	-0.083671644
200	0x3d1afa03	0.037836086
201	0x3e06c91a	0.13162652
202	0xbd9331ce	-0.07187234
203	0x3e4fba05	0.20285805
204	0xbdd0ab84	-0.10188964
205	0xbe2bdc62	-0.16783288
206	0x3c18d386	0.009327775
207	0xbe089349	-0.13337435
208	0x3d63598a	0.055505313
209	0x3dd851c4	0.105624706
210	0xbcbe340f	-0.023218183
211	0xbd32d893	-0.043663573
212	0xbeb8146a	-0.35953075
213	0x3e0bae38	0.13640678
214	0x3e026f65	0.12737806
215	0xbe72f7b8	-0.2372731
216	0xbca3e901	-0.020008566
217	0xbde507ef	-0.11183154
218	0x3d5a0eea	0.05323688
219	0xbe550500	-0.20802689
220	0xbdf20bc4	-0.1181865
221	0xbe0007e3	-0.12503009
222	0xbe4440e2	-0.19165376
223	0x3dde9527	0.10868292
224	0x3cff5c10	0.031171829
225	0xbda0aa9c	-0.07845041
226	0x3daa6b73	0.083212756
227	0xbe0f9955	-0.14023335
228	0xbdb69e70	-0.08916938
229	0xbe29d3b0	-0.16584659
230	0x3e104297	0.14087902
231	0xbe182ca7	-0.14860784
232	0xbe2804f6	-0.16408142
233	0x3d8f3e9d	0.069943644
234	0xbde725c3	-0.11286499
235	0xbd7884cb	-0.060673516
236	0xbd8e3c05	-0.069450416
237	0xbda1d2b7	-0.07901519
238	0xbe39632e	-0.1810424
239	0xbc916271	-0.017747136
240	0xbe55f3f6	-0.20893845
241	0x3ddfbf65	0.109251775
242	0x3cd695e1	0.026194515
243	0xbb1b1111	-0.0023661295
244	0x3cac79cb	0.02105417
245	0x3d7d345a	0.061817504
246	0x3e7038ad	0.2345912
247	0x3c8a769d	0.016902262
248	0xbda70e16	-0.081569836
249	0x3e1895c9	0.14900889
250	0x3e662e04	0.22478491
251	0x3e0fd164	0.1404472
252	0x3d6328da	0.05545888
253	0x3e864de8	0.26231313
254	0xbda07a03	-0.07835772
255	0x3df73588	0.12070757

fc_measurement.2.bias f4 [32]
0	0xbddce7b3	-0.107863806
1	0xbdfdd50e	-0.123941526
2	0x3e16befb	0.14721291
3	0x3e290671	0.16506363
4	0xbe2dc48e	-0.16969511
5	0xbe1c7cdd	-0.15282007
6	0x3e946050	0.2897973
7	0x3d240dc2	0.040052183
8	0xbe0bab96	-0.13639674
9	0x3e1d41b9	0.15357102
10	0x3d58ac91	0.052898947
11	0x3e071edd	0.13195367
12	0xbd9e090c	-0.07716569
13	0x3df81e54	0.1211516
14	0xbdc5e633	-0.09663048
15	0x3d91ec8c	0.07125196
16	0xbe0b1c03	-0.13584904
17	0x3e9913e1	0.2989798
18	0x3d8bc139	0.06823964
19	0x3da31b10	0.07964146
20	0x3c5ddc70	0.013541326
21	0x3d82b990	0.063830495
22	0xbcc15d7a	-0.023604143
23	0xbe1d005a	-0.15332165
24	0xbb10068b	-0.0021976556
25	0x3e32287a	0.17398253
26	0x3e6fd736	0.2342194
27	0x3e0b8531	0.13625027
28	0xbda9672d	-0.08271632
29	0x3e870e0a	0.26377898
30	0x3e0bcf9d	0.13653417
31	0x3da9f6ec	0.0829905

type_embedding.weight f4 [2, 32]
0	0xbd69b41c	-0.05705653
1	0xbe808daf	-0.25108096
2	0x3fa0e9b9	1.2571326
3	0x3f3f5545	0.74739486
4	0xbff1e238	-1.8897161
5	0x3e776848	0.24160874
6	0x3fd48832	1.6604064
7	0xbf8f173e	-1.1178968
8	0xbf57b656	-0.842626
9	0xbef0ab51	-0.47005704
10	0x3e08ada1	0.13347484
11	0xbe55e3c7	-0.20887671
12	0x3f9f6b22	1.2454569
13	0x3ce8bb76	0.0284097
14	0x3c9f6710	0.019458324
15	0x405fa52a	3.4944558
16	0xbf8f6c3b	-1.1204904
17	0xbeff7a33	-0.49897918
18	0x3deb79ec	0.11497864
19	0x3edb9428	0.42886472
20	0xbd55f242	-0.05223299
21	0xbf75a928	-0.95961237
22	0x3fa71808	1.3054209
23	0x3eea4439	0.45755175
24	0xbe16f16a	-0.1474053
25	0x40229232	2.540173
26	0x3f35e912	0.7105876
27	0x3e0a48b7	0.13504301
28	0xbfb0b9e4	-1.3806729
29	0xbf2cf76a	-0.67565024
30	0x3f39a24a	0.7251326
31	0xbdfc7099	-0.12326164
32	0xbfb7283a	-1.4309151
33	0xbd9164f3	-0.07099333
34	0x3f0e9c9a	0.55707705
35	0x3f9e2cf1	1.2357465
36	0x400c57bb	2.1928546
37	0x3fe64ccc	1.7992187
38	0x3e9cc070	0.30615568
39	0xc01f9a21	-2.4937823
40	0xbecff023	-0.40612897
41	0xbfb85a79	-1.440261
42	0xbee9df9e	-0.4567842
43	0xbf291691	-0.6605006
44	0x3fef8930	1.8713741
45	0xbf3c9707	-0.7366795
46	0x3efa36db	0.48869976
47	0xbf046bf6	-0.51727235
48	0x3ddd868c	0.108166784
49	0xbeb12b2d	-0.34603253
50	0x3f66ba6f	0.90128225
51	0xbf941ce0	-1.1571312
52	0xbf8deb1a	-1.1087372
53	0xbf85f0fa	-1.0464165
54	0x403da579	2.9632246
55	0x3fc2db49	1.522317
56	0xbf130e97	-0.5744414
57	0xbf63f187	-0.89040416
58	0xbf26c2d5	-0.6514104
59	0x3e158ec4	0.14605242
60	0xbe990706	-0.2988817
61	0xbf4d5e6d	-0.8022221
62	0x3fa4e238	1.2881536
63	0x3f8bd4db	1.0924333

gcn1.bias f4 [64]
0	0x3da02dcf	0.07821237
1	0x3d3dcd1d	0.04633819
2	0x3e386b6c	0.18009728
3	0xbdb4b5b8	-0.088237226
4	0x3cc8aea4	0.024497338
5	0xbcc6283d	-0.024189109
6	0x3a96f4d0	0.0011517052
7	0x3d06c992	0.032907076
8	0x3dca1b47	0.09868484
9	0x3cc68436	0.024232965
10	0xbdce256d	-0.10065732
11	0x3d9a57a3	0.07536247
12	0x3c7d723a	0.015469128
13	0x3e1ba4d7	0.151996
14	0x3db7f751	0.08982719
15	0x3df4a102	0.11944772
16	0xba32b96c	-0.0006817791
17	0x3dc8ba32	0.09801139
18	0x3d3cc018	0.046081632
19	0xbd6d4bfa	-0.057933785
20	0xbcd8147d	-0.026376957
21	0xbd10e0e5	-0.035370726
22	0x3c4a0536	0.012330344
23	0xbb332dad	-0.0027340457
24	0x3c063a22	0.008192571
25	0x3dab633e	0.08368538
26	0x3d1e549f	0.03865492
27	0x3df44f18	0.119291484
28	0x3d3e8841	0.04651666
29	0x3df1296f	0.11775481
30	0x3df7d687	0.12101465
31	0x3cf52b59	0.029927896
32	0x3d904c07	0.07045751
33	0x3d9286bd	0.071546055
34	0x3d9ba830	0.076004386
35	0x3d8490a7	0.06472903
36	0xbd612e50	-0.054975808
37	0x3cb4d1f1	0.022072764
38	0x3cd92ed6	0.02651159
39	0x3d356c59	0.04429278
40	0x3e0e54e2	0.13899568
41	0xb8c09c05	-9.184334e-05
42	0xbd0ac0bd	-0.033875216
43	0x3cf1c4c1	0.029512765
44	0x3e8b8c98	0.27255702
45	0xbd907048	-0.07052666
46	0x3d02d95b	0.031945568
47	0x3d8abeda	0.06774683
48	0x3ce380ac	0.027771316
49	0xbcedf755	-0.029048601
50	0x3da3308b	0.07968243
51	0x3ce99ec0	0.02851808
52	0x3d4561f4	0.04818912
53	0xbd55c1eb	-0.052186888
54	0x3d2bedf9	0.041974995
55	0xbc833832	-0.016018007
56	0x3d7b8d03	0.061413776
57	0x3b105c6d	0.0022027746
58	0x3dbb872a	0.0915664
59	0xbbead08b	-0.0071659735
60	0x3de1f339	0.11032719
61	0xbc9f70d2	-0.019462977
62	0x3c7a2b99	0.015269184
63	0x3cee9ef4	0.02912853

gcn1.lin.weight f4 [64, 64]
0	0xbd476a7f	-0.048685547
1	0x3dddaff7	0.10824578
2	0xbf142209	-0.57864434
3	0x3e053f5f	0.13012455
4	0xbe903136	-0.28162545
5	0xbec6f645	-0.38859764
6	0x3eb10180	0.34571457
7	0x3e52cc08	0.20585644
8	0xbd3b03d2	-0.04565794
9	0x3e0915c9	0.13387217
10	0xbedf6eff	-0.4363937
11	0x3ddff319	0.10935039
12	0x3e706b75	0.23478492
13	0xbdad2507	-0.08454328
14	0xbe01e3de	-0.1268458
15	0xbef272ec	-0.47353303
16	0x3ddb7445	0.10715536
17	0x3e390ee2	0.18072084
18	0xbe70d025	-0.23516901
19	0xbe6289ff	-0.22122954
20	0xbdaa657e	-0.08320139
21	0xbdb7149c	-0.08939478
22	0xbb2aebd3	-0.0026080504
23	0xbf3b9826	-0.73279035
24	0x3d7df0ef	0.06199735
25	0xbd2952f6	-0.041338883
26	0x3c61d79e	0.013784317
27	0x3e85f68b	0.2616466
28	0xbef90f50	-0.48644495
29	0x3e2f93a5	0.17146166
30	0xbcb979e3	-0.022641128
31	0xbd2208c3	-0.039559137
32	0xbd2a78fa	-0.04161928
33	0xbbd2c10e	-0.0064317053
34	0x3d8c44e6	0.06849079
35	0xbde0a386	-0.109686896
36	0xbd579fd8	-0.052642673
37	0xbe3d529d	-0.18488546
38	0xbdebb2d6	-0.115087196
39	0x3d6b9010	0.057510436
40	0x3e3ff0bb	0.18744175
41	0xbe6abc6a	-0.22923437
42	0xbdf831a1	-0.12118841
43	0x3dec2e2b	0.11532243
44	0xbde3986b	-0.11113056
45	0x3de530b3	0.11190929
46	0x3d37792c	0.044793293
47	0xbe705b91	-0.2347243
48	0x3d875151	0.06607307
49	0xbdfc2b6e	-0.12312971
50	0x3d9492b4	0.07254544
51	0xbe77a623	-0.2418447
52	0x3e2a18a8	0.16610968
53	0xbdbdcd3c	-0.09267661
54	0x3e19a7ff	0.15005492
55	0xbdf176ba	-0.117902234
56	0xbe4d58ab	-0.20053355
57	0x3d470444	0.048588052
58	0x3dad2873	0.08454981
59	0xb942d548	-0.00018580735
60	0xbe272180	-0.16321373
61	0xbd79a165	-0.060944933
62	0xbe1163fe	-0.141983
63	0x3dd682f3	0.10474195
64	0xbb7db94e	-0.0038715187
65	0x3e033315	0.12812455
66	0x3e9c3a44	0.30513203
67	0xbdd1e947	-0.10249572
68	0x3e9d3dd8	0.30711246
69	0x3e81d266	0.25355834
70	0x3ca7fb7d	0.020505661
71	0xbe6ad229	-0.22931732
72	0xbe6955b0	-0.22786593
73	0x3e2cb175	0.1686457
74	0x3e8a1231	0.26967004
75	0x3db0e996	0.08638303
76	0x3c0eb6ff	0.008710622
77	0xbd6eca69	-0.058298502
78	0xbe5391f9	-0.20661153
79	0xbd345fe3	-0.044036757
80	0xbd798ef2	-0.06092734
81	0x3d7783b4	0.060428336
82	0x3e76936b	0.24079673
83	0xbd990e69	-0.07473452
84	0x3e3bcf91	0.18340899
85	0x3e32a979	0.17447461
86	0xbe4f6012	-0.20251492
87	0xbd06335b	-0.03276382
88	0x3c5d5fb9	0.013511592
89	0x3df73974	0.12071505
90	0x3e38a3bb	0.18031208
91	0x3d83e487	0.064400725
92	0x3e6a95be	0.22908685
93	0x3e13999e	0.14414069
94	0x3e7c2716	0.24624285
95	0xbe4e6931	-0.20157315
96	0xbe39a6dc	-0.18130058
97	0xbd852b4f	-0.06502401
98	0x3d4b1197	0.04957732
99	0x3d8a2259	0.067448325
100	0x3e37a598	0.17934263
101	0x3e74c60c	0.23903674
102	0xbc7555e6	-0.014974093
103	0xbe176fdc	-0.14788765
104	0xbd078798	-0.033088297
105	0xbc9bfbfa	-0.01904105
106	0x3dd790a1	0.10525633
107	0x3d01b4ac	0.031666443
108	0x3def50a9	0.116853066
109	0x3d05fd7e	0.032712452
110	0x3e4c334e	0.19941446
111	0x3e2f0a3e	0.17093751
112	0xbd852504	-0.06501201
113	0xbe4efac4	-0.20212847
114	0x3e3f7c0c	0.18699664
115	0xbd155b5c	-0.03646408
116	0xbe45913f	-0.19293688
117	0xbdb132c8	-0.08652264
118	0x3e540930	0.2070663
119	0xbd5cbc3c	-0.05389045
120	0xbd86e89f	-0.06587338
121	0x3dde5d3b	0.10857626
122	0x3e22ba02	0.15891269
123	0x3c8ae3d7	0.016954346
124	0xbe51318f	-0.20429061
125	0xbe102a6d	-0.14078684
126	0xbcac7161	-0.021050157
127	0x3d653f4f	0.05596858
128	0xbe582f2c	-0.21111745
129	0x3e4bebae	0.19914123
130	0x3d85dff0	0.06536853
131	0xbe25bd30	-0.1618545
132	0x3c35e36f	0.011101588
133	0xbd0ef50d	-0.034901667
134	0x3ecc1386	0.39858645
135	0xbcce608d	-0.025192523
136	0xbd1170df	-0.035508033
137	0xbe21de28	-0.15807402
138	0xbe762ac1	-0.24039747
139	0xbcb8c9fe	-0.022557255
140	0x3e28dc7b	0.16490357
141	0xbddf66b4	-0.10908261
142	0x3c36b172	0.011150705
143	0xbe234128	-0.15942824
144	0xbe70df62	-0.23522714
145	0xbce275e4	-0.027644105
146	0xbddfd5d0	-0.109294534
147	0xbe07305e	-0.13202044
148	0xbc6f980b	-0.014623652
149	0xbd09f467	-0.033680346
150	0x3dcacd61	0.09902454
151	0x3dac8070	0.08422935
152	0x3d1a245b	0.037632328
153	0xbd08375d	-0.033255924
154	0xbd87aef6	-0.06625168
155	0x3d781616	0.060567938
156	0x3e09eaa0	0.13468409
157	0x3f11133c	0.56669974
158	0xbdf7b125	-0.120943345
159	0xbe3b99a1	-0.18320324
160	0xbea0cf1e	-0.31408018
161	0xbe93d581	-0.28873828
162	0x3e788b85	0.24271972
163	0x3d11c44d	0.035587598
164	0x3ddc8456	0.107674286
165	0x3e108b15	0.14115556
166	0x3e1c811c	0.15283626
167	0xbebe95fa	-0.37223798
168	0xbd94307e	-0.07235812
169	0x3d856a2a	0.0651439
170	0xbd40fe59	-0.047117565
171	0xbe7cb172	-0.24677065
172	0x3ea34256	0.31886548
173	0x3ccc1006	0.024909984
174	0x3d976353	0.073919915
175	0x3eafefaf	0.34362552
176	0xbea556c5	-0.32292762
177	0xbe7bbee9	-0.24584545
178	0x3e9a7360	0.3016615
179	0xbe35f46d	-0.17769022
180	0xbe2f9c60	-0.17149496
181	0xbe953ac1	-0.29146388
182	0x3d96ba10	0.07359707
183	0x3eabfac6	0.33589762
184	0xbbef3a4d	-0.007300651
185	0xbdc9cd63	-0.098536275
186	0xbdd80498	-0.10547751
187	0x3e49ea3c	0.1971826
188	0xbea99041	-0.3311787
189	0xbea0ba30	-0.3139205
190	0xbd231710	-0.039816916
191	0x3e79e33b	0.24403088
192	0x3bf7f066	0.0075664995
193	0x3e0a03d6	0.13478026
194	0xbdad48a8	-0.08461124
195	0xbe96f69f	-0.29485032
196	0x3be014e5	0.0068384283
197	0x3d7074b7	0.058705058
198	0xbd9c3e55	-0.076290764
199	0x3db0b413	0.086280964
200	0x3dc4c5f7	0.09608071
201	0xbd890976	-0.06691258
202	0x3d81c79b	0.063369
203	0x3cc5d08a	0.02414729
204	0xbe7bcad4	-0.24589092
205	0x3d07f00a	0.033187903
206	0xbe9204a5	-0.28519168
207	0xbd9a6d75	-0.075404085
208	0xbbf03e18	-0.007331621
209	0x3d9fe1c5	0.07806734
210	0xbe7aa8f8	-0.24478519
211	0x3d27f2db	0.04100309
212	0xbe6fd565	-0.23421247
213	0x3e231889	0.15927328
214	0xbcedd70f	-0.029033212
215	0xbde6396d	-0.11241422
216	0x3c231b72	0.009955274
217	0x3e2d2699	0.16909255
218	0x3d2f0444	0.042728677
219	0xbe2864ef	-0.16444753
220	0xbdafc1f0	-0.085819125
221	0x3e86e8c3	0.26349458
222	0xbbde0216	-0.006775151
223	0xbd57427a	-0.05255363
224	0x3d87c375	0.06629077
225	0x3b8abe99	0.004234147
226	0xbe0a65ee	-0.13515446
227	0xbd5c7c65	-0.05382957
228	0x3e575a03	0.2103043
229	0xbdefed3c	-0.11715171
230	0xbe0d825e	-0.13819262
231	0x3dd9b1e6	0.106296346
232	0xba5affb0	-0.00083541404
233	0x3e808cf9	0.25107554
234	0x3e496091	0.19665743
235	0x3d8dd7b6	0.06925909
236	0xbe55cbe6	-0.20878562
237	0x3de00153	0.109377526
238	0x3e08df15	0.13366349
239	0xbc5672db	-0.013088907
240	0x3e32f44d	0.17476006
241	0xbd1e66c0	-0.03867221
242	0xbe8895ef	-0.2667689
243	0xbd87dbc7	-0.06633716
244	0x3d62b598	0.055348963
245	0x3e87690d	0.26447335
246	0xbca1a74c	-0.019733094
247	0xbdce1526	-0.100626275
248	0x3bb845ba	0.0056235464
249	0xbe011bb6	-0.12608227
250	0xbe25b8d4	-0.16183788
251	0xbe255ddc	-0.16149086
252	0x3df891d2	0.12137188
253	0x3e5f5624	0.21810204
254	0x3deeb3e8	0.11655408
255	0x3d33735a	0.04381118

gcn2.bias f4 [64]
0	0x3e186394	0.14881736
1	0x3d1e91e3	0.038713347
2	0xbd18bfa5	-0.03729214
3	0x3d7f5ffc	0.062347397
4	0x3cbe6682	0.023242239
5	0x3d035104	0.032059684
6	0x3cb6f06e	0.022331443
7	0x3d2171c3	0.039415132
8	0x3d53c41e	0.051700704
9	0xbd06e9b4	-0.03293772
10	0x3d09866b	0.033575457
11	0x3c9fdbc3	0.01951397
12	0x3c2a5c3b	0.010397966
13	0x3d34ea04	0.044168487
14	0xbcc1f8b7	-0.023678167
15	0x3d04f589	0.032460723
16	0x3e099ebd	0.1343946
17	0x3a92ba72	0.0011194481
18	0x3c8544e7	0.016268207
19	0x3d8514dc	0.06498119
20	0x3ce9fa46	0.028561722
21	0x3e236c94	0.15959388
22	0x3d395624	0.045248166
23	0x3c2d7a25	0.010588204
24	0x3def0a91	0.11671937
25	0xbc33f533	-0.010983753
26	0x3cfa1253	0.030526316
27	0x3d3bbe48	0.045835763
28	0x3c8a49cb	0.01688089
29	0x3d077f52	0.033080406
30	0x3c566158	0.013084732
31	0xbc4de04c	-0.012565684
32	0xbc33ae33	-0.010966825
33	0x3d902adc	0.07039425
34	0xbbceed81	-0.0063149338
35	0x3d184524	0.037175313
36	0x3da1a057	0.078919105
37	0x3c1e0da3	0.009646806
38	0x3c3b0aec	0.011416178
39	0x3c97cff6	0.01853178
40	0x3c6b17fb	0.014348979
41	0x3d48a299	0.04898319
42	0x3d576a67	0.052591708
43	0x3d1e000a	0.038574256
44	0x3cb7ee06	0.022452366
45	0x3bf9ac23	0.0076193972
46	0x3d216008	0.039398223
47	0x3d4f5752	0.050620385
48	0x3cd6caff	0.026219843
49	0x3d6b50bb	0.057450037
50	0x3cbedbf3	0.02329824
51	0xbd6eec72	-0.05833096
52	0x3e08759e	0.13326117
53	0x3c3674cf	0.011136248
54	0x3d59382b	0.05303208
55	0x3ce69cc8	0.028150931
56	0x3aa658e1	0.0012691283
57	0x3d4f47bc	0.05060552
58	0x3c18c92c	0.009325307
59	0x3bf0cb5c	0.007348461
60	0x3d365fbb	0.04452489
61	0x3df5dbb1	0.120047934
62	0x3dad973c	0.08476111
63	0x3d0c6659	0.034277294

gcn2.lin.weight f4 [64, 64]
0	0x3e377ae7	0.17917977
1	0x3d80198f	0.06254875
2	0x3ecfba16	0.4057166
3	0xbd8ccf60	-0.06875491
4	0x3e4c51f1	0.19953133
5	0xbe285a35	-0.16440661
6	0xbdefab09	-0.11702544
7	0x3d8c4a2e	0.06850086
8	0x3e722c5a	0.23649731
9	0x3d92b811	0.07164014
10	0x3e3272fa	0.17426673
11	0xbcf5bf2b	-0.029998383
12	0x3eba57e8	0.36395192
13	0x3e8d7489	0.27627972
14	0x3d95e325	0.07318715
15	0x3de5f963	0.11229207
16	0xbe452e23	-0.19255881
17	0x3e40fcb0	0.18846393
18	0x3df58bcb	0.11989554
19	0x3da4dd95	0.08050076
20	0x3e145d8a	0.14488807
21	0xbe553a76	-0.20823082
22	0x3e01f0a2	0.1268945
23	0xbd7f4a44	-0.062326685
24	0xbe23a3f8	-0.15980518
25	0x3ea28a33	0.31746063
26	0xbc36a737	-0.011148266
27	0xbdfe0d04	-0.12404826
28	0x3d539fe5	0.05166616
29	0x3e024ab8	0.12723815
30	0x3e9675fc	0.2938689
31	0x3d3af087	0.04563954
32	0x3e4088f1	0.18802239
33	0x3ba55417	0.0050454247
34	0xbdb2b47f	-0.08725833
35	0x3c25172e	0.010076327
36	0xbdae5a3d	-0.08513305
37	0xbc6ce323	-0.0144584505
38	0xbe3e620c	-0.1859209
39	0x3e4389a0	0.19095469
40	0xbe32d87b	-0.17465393
41	0xbba96e85	-0.0051706457
42	0xba0c977a	-0.0005363148
43	0x3cf6e113	0.03013662
44	0x3e9f673d	0.31133452
45	0xbb9a1d39	-0.0047031906
46	0xbc1e298a	-0.009653458
47	0xbdd9635a	-0.10614653
48	0x3decf81d	0.11570761
49	0xbe295806	-0.16537485
50	0x3e1ffb77	0.1562327
51	0xbe46ce0f	-0.19414543
52	0xbe473077	-0.19452082
53	0xbd09dda9	-0.033658657
54	0xbea01bf3	-0.31271324
55	0x3e60d2e6	0.21955451
56	0x3e2deb04	0.16984183
57	0xbde8ef17	-0.11373728
58	0x3e6f3af7	0.23362337
59	0xbdce3c13	-0.10070052
60	0x3e4b0c3f	0.1982889
61	0xbe3d27ed	-0.18472262
62	0x3b9efc95	0.0048518875
63	0xbbe3ed90	-0.00695581
64	0x3d92e337	0.07172244
65	0x3d8899a3	0.06669929
66	0xbe42bc94	-0.1901725
67	0xbccafaef	-0.024777858
68	0x3e5add6c	0.21373528
69	0x3e5b399d	0.21408696
70	0x3e110ac3	0.14164262
71	0x3d4796fc	0.048727974
72	0x3d9d8dc9	0.07693059
73	0x3e210cb3	0.157275
74	0xbe3be5a3	-0.18349318
75	0x3a056ce8	0.00050897757
76	0xbe8f5ca6	-0.28000373
77	0xb7df5b36	-2.6626145e-05
78	0x3c1e095e	0.009645788
79	0xbdddb54c	-0.10825595
80	0x3de161b7	0.11004966
81	0x3e4ecf0c	0.2019617
82	0xbe354845	-0.1770335
83	0xbe2cc85a	-0.16873303
84	0xbd900917	-0.07032984
85	0x3c3388e9	0.010957935
86	0xbe6553b9	-0.22395219
87	0x39694ad9	0.00022248494
88	0x3e57d9ab	0.21079127
89	0xbe1623ac	-0.14662045
90	0xbc368462	-0.011139961
91	0xbd8462ce	-0.06464158
92	0x3e24dba5	0.16099413
93	0xbdf63f65	-0.1202381
94	0x3e409865	0.18808134
95	0xbdece207	-0.11566549
96	0x3df7f1c7	0.12106662
97	0xbd67d92a	-0.05660359
98	0x3e66f94f	0.22556041
99	0xbdfca544	-0.123362094
100	0xbdf115cd	-0.11771736
101	0x3e816525	0.2527248
102	0xbdf86c38	-0.12130016
103	0x3ca7c3e8	0.020479158
104	0x3dbed46f	0.09317862
105	0x3cabe916	0.020985167
106	0x3e16baa5	0.14719637
107	0xbe433acf	-0.19065402
108	0xbd677b2f	-0.05651396
109	0xbe2ce0a8	-0.16882575
110	0x3e0801da	0.13281956
111	0x3e46c674	0.19411641
112	0xbe64c97f	-0.2234249
113	0xbd7462dc	-0.059664592
114	0xbdbefb50	-0.09325278
115	0xbe0df577	-0.13863169
116	0x3db84078	0.089966714
117	0x3d47621b	0.048677545
118	0xbe409abd	-0.18809028
119	0xbdf05ff5	-0.11737052
120	0xbe022b40	-0.12711811
121	0x3d841301	0.06448937
122	0xbe0f32fc	-0.13984293
123	0xbe3c533c	-0.18391126
124	0xbe116e71	-0.14202286
125	0x3e381030	0.17974925
126	0x3e4f13f4	0.20222455
127	0xbd8d3ab1	-0.0689596
128	0x3e7efa4d	0.2490017
129	0xbdb4c16c	-0.08825955
130	0x3bbabf8c	0.0056991037
131	0x3e192971	0.14957215
132	0xbe315c2f	-0.17320322
133	0xbd4c8e94	-0.04994066
134	0x3dc61bd1	0.09673274
135	0xbe578614	-0.2104724
136	0x3e89e82e	0.26934952
137	0x3dc55dfb	0.09637066
138	0x3e0904d0	0.13380742
139	0x3c8fa84f	0.01753631
140	0x3ddbec9e	0.107384905
141	0xbe55974e	-0.208585
142	0xbe67d18a	-0.22638527
143	0xbe611b22	-0.21983007
144	0xbd8fabd6	-0.07015197
145	0x3c55ba15	0.013044854
146	0xbdc9b4a4	-0.098489076
147	0x3e6534a9	0.2238337
148	0xbe58954e	-0.21150705
149	0x3d9b94db	0.07596751
150	0xbe283b99	-0.16428985
151	0x3e10bf8b	0.14135568
152	0xbe1bca3c	-0.15213865
153	0x3d40eb61	0.047099475
154	0x3d24fa91	0.04027802
155	0x3cb3c023	0.021942204
156	0xbe618eb6	-0.22027096
157	0xbe5ead20	-0.2174573
158	0x3cba63c9	0.02275266
159	0xbe9489f5	-0.29011503
160	0xbdc6f869	-0.09715349
161	0xbe731a7a	-0.23740569
162	0x3dabe857	0.08393925
163	0xbd46aca8	-0.0485045
164	0xbe1e88d2	-0.1548188
165	0x3e32c164	0.17456585
166	0x3db77d19	0.08959407
167	0xbdecf481	-0.11570073
168	0xbdd3deba	-0.10345216
169	0x3db7fe70	0.08984077
170	0xbda2e769	-0.07954294
171	0x3e0dcde9	0.1384808
172	0x3d17eec6	0.037092946
173	0x3da3cbf7	0.079978876
174	0xbe2e805a	-0.1704115
175	0xbdd2d39b	-0.10294267
176	0xbe7faab8	-0.24967468
177	0x3e160667	0.1465088
178	0x3d0576df	0.032584067
179	0xbe24e7ce	-0.16104051
180	0xbd82689b	-0.06367608
181	0xbc928e15	-0.017890016
182	0xbc8be391	-0.017076286
183	0x3e214a8d	0.15751095
184	0xbe8523ef	-0.26003978
185	0xbe0590de	-0.13043544
186	0x3c9937a7	0.018703295
187	0xbe51c3da	-0.20484868
188	0x3d708c1d	0.058727372
189	0xbe08ab90	-0.13346696
190	0x3d9fe039	0.07806439
191	0xbe03186b	-0.12802283
192	0x3d79fd89	0.061032806
193	0x3e247f71	0.1606424
194	0xbd8e87b7	-0.06959479
195	0xbe027b8c	-0.12742442
196	0x3c44e20c	0.012016784
197	0xbe10bcc6	-0.14134511
198	0xbddd6652	-0.10810532
199	0x3e5cc53e	0.21559617
200	0x3def531b	0.11685773
201	0xbdae6ce9	-0.08516867
202	0xbd79118f	-0.06080776
203	0x3dddfc07	0.10839086
204	0x3da9a6bc	0.08283755
205	0x3e7eb254	0.24872714
206	0x3e3f28e9	0.1866795
207	0x3e8ec6c9	0.27886036
208	0xbe1b7306	-0.15180597
209	0xbc9c1cfe	-0.019056793
210	0x3d755a58	0.05990061
211	0xbe4d48dc	-0.20047325
212	0xbe21c0f1	-0.15796258
213	0x3d73faa9	0.05956522
214	0x3e4dd828	0.20101988
215	0x3e0e61f0	0.13904548
216	0x3e513b5b	0.20432799
217	0x3e63e2db	0.22254507
218	0x3d60e663	0.054907214
219	0xbd0ffb74	-0.035151914
220	0x3dc7da44	0.09758428
221	0xbcea3309	-0.028588789
222	0x3e93084f	0.28717276
223	0x3e65a416	0.22425875
224	0xbd6a5c7c	-0.057217106
225	0x3e1ef610	0.15523553
226	0xbb21090f	-0.002457205
227	0x3e4f1b5f	0.20225285
228	0xbe84614f	-0.2585549
229	0x3cfe7554	0.031061806
230	0xbce0dd9c	-0.027449422
231	0x3df14025	0.11779813
232	0x3d66a47b	0.056309205
233	0x3dfc0ef0	0.123075366
234	0xbe8a3a13	-0.26997432
235	0xbd41949f	-0.047260877
236	0x3ebf81f7	0.37403843
237	0x3cf4c759	0.029880213
238	0x3e227d8d	0.15868206
239	0xbdf20f68	-0.11819345
240	0x3e2149c4	0.15750796
241	0xbd639aa1	-0.055567387
242	0xbd37c19f	-0.044862386
243	0x3e850bd3	0.25985584
244	0x3e5b3159	0.21405543
245	0xbe310e09	-0.1729051
246	0xbd803649	-0.06260354
247	0x3dcb953b	0.09940573
248	0xbb70fd6d	-0.0036772147
249	0x3e616f27	0.22015058
250	0x3e1520ce	0.14563295
251	0x3c9f71f2	0.019463513
252	0xbdcd4204	-0.10022357
253	0x3d786118	0.06063947
254	0x3e86c299	0.2632034
255	0x3e76ae37	0.24089895

gru.weight_ih_l0 f4 [192, 64]
0	0x3c994bb7	0.018712861
1	0x3da72778	0.08161825
2	0xbc000f94	-0.007816214
3	0xbc7e8e02	-0.015536787
4	0x3e2022ad	0.15638228
5	0x3e4afb39	0.19822396
6	0x3d036117	0.032075014
7	0x3cc73dcc	0.02432146
8	0x3b63eed2	0.00347798
9	0xbd39c832	-0.045356937
10	0xbdcb65e6	-0.09931545
11	0x3d26deb4	0.04073973
12	0x3c513d33	0.012770939
13	0x3e4b1469	0.19832005
14	0x3d49c7d6	0.049262844
15	0x3d05c1c6	0.0326555
16	0xbe523475	-0.20527823
17	0xbcefc99d	-0.029270941
18	0x3c32bee8	0.010909773
19	0x3d100d02	0.035168655
20	0x3e2fbe15	0.17162354
21	0x3d8635d2	0.06553234
22	0x3c6812f9	0.01416468
23	0x3ddea27f	0.108708374
24	0xbc8acf92	-0.01694468
25	0xbe2e6263	-0.17029719
26	0x3d768d4f	0.060193356
27	0x3e0ac723	0.13552527
28	0x3d26c121	0.040711526
29	0x3d3fc3fc	0.046817765
30	0xbd621df1	-0.055204336
31	0xbbce982b	-0.006304761
32	0x3d87a2cb	0.06622847
33	0x3cefb0ac	0.029259048
34	0xbe1c6662	-0.15273431
35	0x3de3397c	0.11094949
36	0xbde956e8	-0.11393529
37	0x3dbabae8	0.09117681
38	0x3e1a1239	0.15046014
39	0x3d061c1d	0.032741655
40	0x3d8e2310	0.069402814
41	0x3d9b2174	0.0757474
42	0x3d139684	0.036032215
43	0xbd550cf9	-0.052014325
44	0xbb414bcf	-0.0029494648
45	0xbd9d23ca	-0.07672842
46	0x3da29754	0.0793902
47	0x3d61ff5d	0.055175174
48	0x3c82cab8	0.015965804
49	0x3da11b01	0.07866479
50	0x3d3744b2	0.044743247
51	0x3dd8b0fc	0.10580632
52	0x3e18a0b9	0.14905061
53	0x3e443140	0.19159412
54	0x3d6ac82d	0.05731981
55	0x3b840e8e	0.0040300554
56	0x3d488a7d	0.048960198
57	0xbc755b56	-0.0149753895
58	0x3dc37ac4	0.095449
59	0x3dbfb503	0.09360697
60	0x3d4f9f94	0.050689295
61	0xbd36a49a	-0.04459057
62	0x3e2f0e74	0.17095357
63	0xbc9a6c07	-0.01885034
64	0xbe47dd23	-0.1951795
65	0x3bdb10af	0.0066853384
66	0xbcb94ae2	-0.022618715
67	0xbcc2bcdc	-0.023771696
68	0x3b5fc628	0.003414521
69	0x3d5dcb32	0.05414886
70	0x3d8317de	0.06401037
71	0x3d6801a8	0.056642205
72	0x3d7d6d29	0.06187168
73	0x3d5dae98	0.054121584
74	0xbd2eb721	-0.042655114
75	0xbd2e61db	-0.04257379
76	0x3d08d567	0.03340664
77	0x3dad5456	0.084633514
78	0xbcf7d53d	-0.030253047
79	0x3e05789d	0.13034292
80	0x3dc59188	0.096468985
81	0xbe1932c9	-0.14960779
82	0xbce653f5	-0.028116206
83	0x3cec7a1f	0.028866826
84	0x3cb71018	0.022346541
85	0x3cb2bb20	0.021817744
86	0xbd883507	-0.06650739
87	0x3dd08a9a	0.10182686
88	0xbe333300	-0.17499924
89	0xbc180a28	-0.009279765
90	0xbda35608	-0.079753935
91	0xbccaaead	-0.024741495
92	0x3dc94870	0.098282695
93	0x3d97a08e	0.0740367
94	0xbd98587c	-0.07438752
95	0x3d205c5d	0.039150584
96	0x3c2c988a	0.010534415
97	0xbe2f2531	-0.17104031
98	0x3dc5f106	0.09665112
99	0x3d07d640	0.03316331
100	0x3d3707e3	0.044685256
101	0x3d891307	0.06693082
102	0x3dba04e4	0.09082964
103	0xbddd9e7b	-0.108212434
104	0x3df289e4	0.11842707
105	0x3e02bd2f	0.1276748
106	0x3a814650	0.0009862874
107	0xbce370a3	-0.02776367
108	0x3d0d248e	0.03445869
109	0x3d081a65	0.033228297
110	0x3d2022d5	0.03909572
111	0xbcd5eac7	-0.026112927
112	0x3d857003	0.06515505
113	0x3d4fa82c	0.05069749
114	0x3cab31f3	0.020897841
115	0xbcff3fe9	-0.031158404
116	0x3e517167	0.20453416
117	0xbd8de94b	-0.06929263
118	0xbd6b54f7	-0.057454076
119	0xbdd1525b	-0.10220786
120	0x3e0318b6	0.12802395
121	0xbd2964bb	-0.04135583
122	0xbb001235	-0.0019542102
123	0x3c84be4f	0.016204027
124	0x3dfb0316	0.12256448
125	0xbe0e9135	-0.1392258
126	0xbe3df092	-0.18548802
127	0xbde0bca0	-0.10973477
128	0xbea3fb3d	-0.32027617
129	0xbde1a51e	-0.11017822
130	0xbd9a5e44	-0.07537511
131	0x3d090f5b	0.03346191
132	0xbe69f40c	-0.22847003
133	0x3e01a82d	0.1266181
134	0x3ccca856	0.024982613
135	0xbcefa1ec	-0.029252015
136	0x3ea9faa4	0.33199036
137	0x3e6189af	0.22025178
138	0x3eb673f2	0.35635334
139	0x3e63e845	0.22256573
140	0x3ea90544	0.3301183
141	0x3d1e554a	0.038655557
142	0xbca49304	-0.020089634
143	0x3e11b245	0.1422816
144	0xbdfb4d43	-0.12270596
145	0xbdce24e8	-0.10065633
146	0x3d68cd1c	0.056836233
147	0xbe72d4c1	-0.23713972
148	0x3d8acd57	0.06777447
149	0xbe29aea3	-0.16570525
150	0xbdaff967	-0.085924916
151	0x3d807f28	0.06274253
152	0xbf15c428	-0.58502436
153	0xbe97f734	-0.2968079
154	0xbd3ba10d	-0.045807887
155	0x3e90ce5a	0.28282434
156	0x3d62a34b	0.05533151
157	0x3ddfa1ac	0.10919508
158	0x3eb7973b	0.35857567
159	0x3d51d657	0.0512298
160	0x3e412484	0.18861586
161	0xbeae41ad	-0.34034482
162	0xbd352d31	-0.04423255
163	0xbd962811	-0.07331861
164	0xbd54c97a	-0.051949956
165	0x3e0fc363	0.14039378
166	0x3e9a6b8f	0.30160186
167	0x3d99b55f	0.07505297
168	0xbd5ed99c	-0.054406747
169	0xbdaacfe8	-0.08340436
170	0xbd03ebd5	-0.03220733
171	0xbeea7f0d	-0.45800057
172	0x3e5067be	0.20352075
173	0x3ea332cc	0.31874692
174	0x3e584810	0.2112124
175	0x3e98f49a	0.29874116
176	0x3d80e18a	0.06293018
177	0x3ec74e7d	0.3892707
178	0xbca294bd	-0.019846315
179	0x3e08080c	0.1328432
180	0xbecd7e2d	-0.40135327
181	0x3de8e53a	0.113718465
182	0xbdc3671e	-0.095411524
183	0xbd8c572e	-0.06852566
184	0x3eb18945	0.3467504
185	0xbdddb6cb	-0.108258806
186	0xbdc55134	-0.09634629
187	0xbd9954fb	-0.07486912
188	0x3cf50244	0.029908307
189	0x3d82e745	0.063917674
190	0xbf1942ef	-0.5986776
191	0x3df16fc5	0.117888965
192	0x3e635630	0.22200847
193	0x3e0ad80e	0.13558981
194	0xbd6faf21	-0.058516625
195	0xbcfeff08	-0.031127468
196	0x3e01fb57	0.12693535
197	0xbda5c250	-0.08093703
198	0x3dfff684	0.12498191
199	0x3e082d9d	0.1329865
200	0xbcf0ccd5	-0.029394547
201	0xbd5882f1	-0.05285925
202	0x3c3b75f0	0.011441693
203	0x3dea9ab2	0.11455287
204	0x3cd99591	0.026560577
205	0x3d842007	0.06451421
206	0x3c7e058c	0.015504252
207	0x3dcfc087	0.101441436
208	0x3d2aad0c	0.041668937
209	0xbdc436f2	-0.095807925
210	0x3d13dd20	0.036099553
211	0x39390a78	0.00017646875
212	0x3da9f442	0.082985416
213	0xbab85c10	-0.0014065523
214	0x3e16b065	0.14715727
215	0x3d9f4976	0.077776834
216	0xbda8410d	-0.082155325
217	0xbd99f6d9	-0.075177856
218	0x3c20b7b9	0.009809428
219	0xbbd19dd3	-0.006396988
220	0x3d2ec172	0.042664953
221	0xbd0607a3	-0.032722127
222	0x3dda21f1	0.10651005
223	0x3cad699a	0.021168519
224	0x3c0dd791	0.008657352
225	0x3d7b155f	0.061299678
226	0xbde8c265	-0.11365203
227	0xbd34a789	-0.044105086
228	0xbd122af6	-0.035685502
229	0x3e0de31c	0.13856167
230	0x3c898f95	0.016792098
231	0xbd10057f	-0.03516149
232	0x3cde62dd	0.027146751
233	0x3cd1fd51	0.025633486
234	0x3db5ae05	0.08871082
235	0x3d2d000f	0.042236384
236	0x3dd69c15	0.10478989
237	0xbd6e1ffb	-0.058135968
238	0xbbf64f44	-0.0075167734
239	0xbddb9760	-0.10722232
240	0x3ad27475	0.0016056435
241	0xbe0aa329	-0.13538803
242	0x3cbdfa27	0.023190571
243	0xbd3ecd0a	-0.04658226
244	0x3cace941	0.021107318
245	0x3e1841b2	0.14868811
246	0x3db793d0	0.0896374
247	0x3d70bb2d	0.058772255
248	0x3d9e97e1	0.07743812
249	0x3df65993	0.12028804
250	0x3d429bc9	0.04751185
251	0x3d86a231	0.06573904
252	0x3d1db711	0.038504664
253	0xbd1c0489	-0.038090263
254	0x3e51080c	0.20413226
255	0xbd884e15	-0.06655518

gru.weight_hh_l0 f4 [192, 64]
0	0x3daa5f44	0.08318952
1	0x3e2b0f65	0.16705091
2	0x3d7447d1	0.059638802
3	0xbc43691e	-0.011926917
4	0xbd031f4b	-0.032012265
5	0x3e47f21d	0.19525953
6	0x3cf6d0f1	0.030128928
7	0x3a3f9977	0.000730894
8	0x3cdd4a8c	0.027013086
9	0x3c136854	0.008997042
10	0xbdba2fee	-0.09091173
11	0xbcb25f90	-0.021774083
12	0xbe02dc2c	-0.12779301
13	0x3dfe8ae8	0.12428838
14	0x3c55553b	0.013020809
15	0x3c94c51b	0.018160393
16	0x3e68b595	0.22725518
17	0xbdd2d031	-0.102936156
18	0x3e21f1b1	0.15814854
19	0xbe133439	-0.1437539
20	0x3df3a91a	0.11897488
21	0xbe300022	-0.1718755
22	0x3df3f148	0.11911255
23	0x3d08c3d9	0.0333899
24	0x3cc88df8	0.024481758
25	0x3d1b33d0	0.03789121
26	0x3e240b34	0.16019899
27	0x3cfce24e	0.03086963
28	0x3cf40a8e	0.02979019
29	0xbdb1884b	-0.08668574
30	0xbc9223e2	-0.017839376
31	0x3d3200a2	0.043457635
32	0xbe21820d	-0.15772267
33	0x3cc302a8	0.023804978
34	0x3d020a66	0.031748198
35	0xbd941e04	-0.072322875
36	0xbc925a3f	-0.017865298
37	0xbc4bd18a	-0.012440095
38	0x3e01483f	0.12625216
39	0xbe402f59	-0.18768062
40	0xbcb01863	-0.021496003
41	0xbe0fd774	-0.14047033
42	0x3e519eda	0.20470753
43	0xbdc5ca1b	-0.09657689
44	0xbdfff2d1	-0.124974854
45	0x3d67ba26	0.05657401
46	0xbe47887b	-0.19485657
47	0xbe2ee155	-0.17078145
48	0x3e1a30fc	0.15057749
49	0xbdb6cc8b	-0.08925732
50	0xbe476815	-0.19473298
51	0xbd855b31	-0.06511534
52	0x3bb980d4	0.0056611095
53	0x3d657a7a	0.056025006
54	0xbe13c1f7	-0.1442946
55	0xbd859dd2	-0.065242425
56	0xbd1eb1b5	-0.038743693
57	0x3d3e92d2	0.046526738
58	0x3d15551e	0.036458127
59	0xbd282b13	-0.041056704
60	0xbdc61565	-0.096720494
61	0x3e20097c	0.15628618
62	0x3b0f466b	0.002186204
63	0x3d0a6ecc	0.03379707
64	0x3d952b27	0.07283621
65	0xbe0b7bcf	-0.13621448
66	0x3e6ab45a	0.22920361
67	0x3dbfef66	0.093718335
68	0x3d529a70	0.051416814
69	0xbd40780a	-0.04698948
70	0xbd88ca4a	-0.066792086
71	0x3dc3c53a	0.09559102
72	0xbe0ffc4d	-0.14061089
73	0x3d919dac	0.07110152
74	0x3d648c0f	0.055797633
75	0xbdb62e12	-0.08895506
76	0xbe5b57ce	-0.21420214
77	0x3dc48fc9	0.09597737
78	0xbdefa83f	-0.11702012
79	0x3e6ef6bb	0.23336308
80	0xbd7018cf	-0.05861741
81	0x3d57365f	0.052542087
82	0xbd003894	-0.031303957
83	0xbe07b2b0	-0.13251758
84	0x3dd48229	0.103763886
85	0x3cec6243	0.028855449
86	0xbd8e4315	-0.06946389
87	0x3dd962cb	0.106145464
88	0xbd1d52b6	-0.038408957
89	0x3e07ee52	0.13274506
90	0x3e32fdff	0.17479704
91	0x3dbe26fc	0.092847794
92	0x3e2c68ba	0.16836825
93	0x3d684e69	0.056715403
94	0xbdc496d7	-0.09599083
95	0xbdc569de	-0.09639333
96	0xbcd1d9a0	-0.025616467
97	0xbdf98b3b	-0.12184759
98	0xbe31630c	-0.1732294
99	0xbe4e4e5b	-0.20147078
100	0xbd56a81a	-0.052406408
101	0xbe8bcd97	-0.2730529
102	0xbc9f9c47	-0.019483699
103	0xbdc98156	-0.09839122
104	0x3d087f59	0.033324573
105	0x3d935785	0.071944274
106	0xbe04499a	-0.12918702
107	0x3cbc69c2	0.022999648
108	0x3dee164a	0.11625345
109	0x3d8acb5a	0.067770675
110	0x3d918be8	0.07106763
111	0x3dd3d038	0.10342449
112	0x3dbcecd3	0.09224858
113	0x3df20374	0.11817065
114	0x3db408ec	0.08790764
115	0x3e71084e	0.23538324
116	0xbe255e3a	-0.16149226
117	0x3dec0548	0.11524445
118	0x3e47e9b4	0.19522744
119	0xbdd7bd93	-0.10534205
120	0x3e70388b	0.2345907
121	0xbc28e96b	-0.010309557
122	0xbe30f210	-0.1727984
123	0xbc5894c2	-0.01321906
124	0xbde8da28	-0.11369735
125	0xbd930460	-0.07178569
126	0xbcce1ed8	-0.025161192
127	0x3d4b355c	0.049611434
128	0x3caf9299	0.021432208
129	0x3c9e51bc	0.019326083
130	0xbea93fbd	-0.3305644
131	0x3d849f20	0.06475663
132	0xbd284ad3	-0.041086983
133	0xbde759b8	-0.11296409
134	0xbe0bc1da	-0.13648167
135	0x3e3ad0cb	0.1824371
136	0x3d1a5a99	0.037684057
137	0x3c3fcb4f	0.011706187
138	0xbd3a2dd2	-0.045453854
139	0x3ce5e9f0	0.028065652
140	0x3d13ecae	0.036114387
141	0xbc07cac9	-0.008288094
142	0xbdcde5ef	-0.10053622
143	0x3d39d2a4	0.0453669
144	0x3cff648e	0.031175878
145	0x3dc9c4bb	0.098519765
146	0xbdc77a0d	-0.09740076
147	0x3d1a99f8	0.037744492
148	0xbe1103ba	-0.14161578
149	0x3d51e49d	0.051243413
150	0xbd8c1ed2	-0.06841816
151	0xbda18d72	-0.07888307
152	0xbd7ce574	-0.06174226
153	0x3cb2485e	0.021763023
154	0xbe1fcd35	-0.15605624
155	0xbdde227d	-0.10846422
156	0xbd359a87	-0.044336822
157	0x3e17a5d1	0.14809348
158	0x3cb6059c	0.022219472
159	0x3ddca7be	0.10774182
160	0xbd01372a	-0.03154675
161	0xbe042b4b	-0.1290714
162	0xbd89d4b8	-0.06730026
163	0xbe616164	-0.22009808
164	0xbe403700	-0.18770981
165	0x3e2c399d	0.16818853
166	0x3d648d62	0.055798896
167	0x3dac3a87	0.08409601
168	0xbd992437	-0.074776106
169	0x3e1cb5e1	0.15303756
170	0x3e1c8277	0.15284143
171	0x3e5190c2	0.20465377
172	0xbd2c1223	-0.042009484
173	0xbace05d2	-0.0015718287
174	0xbdd4450f	-0.103647344
175	0x3e02deea	0.12780347
176	0x3c138919	0.009004855
177	0x3db3f3a5	0.08786706
178	0x3e871079	0.26379755
179	0x3d33176d	0.043723512
180	0x3e462c67	0.19352876
181	0xbda0178a	-0.0781699
182	0x3cfd235a	0.030900646
183	0xbd103a0a	-0.0352116
184	0x3d943f13	0.07238593
185	0x3e5023e7	0.20326196
186	0xbe177dca	-0.14794078
187	0x3e0754cb	0.1321594
188	0xbd510b87	-0.051036384
189	0xbd4babfc	-0.049724564
190	0x3e3e0502	0.18556598
191	0x3d11bc87	0.035580184
192	0x3d96d946	0.0736566
193	0xbdba9b46	-0.09111647
194	0x3d763d3f	0.060117003
195	0x3c72c148	0.01481659
196	0x3d966ea1	0.073453195
197	0x3d1dedaf	0.03855675
198	0xbce7c588	-0.028292432
199	0xbd725f29	-0.059172783
200	0x3cbb472c	0.022861086
201	0xbde5d61f	-0.11222481
202	0x3cc3ef7f	0.023917912
203	0x3d4fa4e3	0.050694358
204	0xbe014c11	-0.12626673
205	0x3e3db989	0.18527807
206	0xbb2b4fa9	-0.002614001
207	0xbcd0b441	-0.025476577
208	0x3db19998	0.08671874
209	0xbd59c316	-0.053164564
210	0xbc622319	-0.013802313
211	0x3d86e625	0.06586865
212	0x3e13b655	0.14425023
213	0xbdbab204	-0.09115985
214	0x3dc8218b	0.09772023
215	0xbda40c56	-0.080101654
216	0xba99869b	-0.0011713089
217	0xbe0b45be	-0.13600823
218	0x3e51d5fc	0.20491785
219	0xbde30fc8	-0.110869944
220	0xbd0ba2e7	-0.034090903
221	0x3cf2874d	0.029605532
222	0xbdbfd0d2	-0.09366001
223	0xbda781b6	-0.08179037
224	0x3d49c7ac	0.049262688
225	0x3d2c3310	0.042040884
226	0xbd6b59d6	-0.05745872
227	0x3caea92f	0.021320907
228	0xbd889d6a	-0.06670649
229	0xbdb22c30	-0.08699834
230	0xbbd4b74d	-0.0064915777
231	0xbdc65c1e	-0.09685539
232	0xbc9fcf5f	-0.019508062
233	0xbd412ef4	-0.04716392
234	0xbd966e7e	-0.073452935
235	0x3da418e9	0.08012564
236	0x3c8ce023	0.01719672
237	0x3d3664f4	0.04452987
238	0xbe0cfa9e	-0.13767478
239	0xbb5d4f0c	-0.003376904
240	0x3e19851b	0.14992182
241	0xbe01ead8	-0.12687242
242	0x3d2299c4	0.039697424
243	0xbdbdfb50	-0.0927645
244	0x3d339364	0.043841735
245	0x3baf3a0b	0.0053474954
246	0x3aee9b82	0.0018204304
247	0xbd53bbef	-0.0516929
248	0xbd03cfe7	-0.032180693
249	0xbd9ddc12	-0.07707991
250	0x3dcbe7d5	0.09956328
251	0xbe002362	-0.12513497
252	0x3d36b69d	0.044607747
253	0xbd31bc98	-0.043392748
254	0xbc9eea03	-0.019398695
255	0xbe043e0c	-0.12914294

gru.bias_ih_l0 f4 [192]
0	0x3df9b7ca	0.12193258
1	0x3d49307c	0.049118504
2	0xbce76d96	-0.028250497
3	0x3e050046	0.12988386
4	0xbdd42eb3	-0.1036047
5	0x3d8d0d43	0.06887295
6	0x3e20b8f2	0.15695551
7	0x3d86887b	0.06569
8	0x3d37dc8e	0.04488807
9	0x3da7157e	0.08158396
10	0x3da8a718	0.082349956
11	0x3c23d266	0.009998893
12	0xbccf65cf	-0.0253171
13	0x3dbdfbc2	0.092765346
14	0x3d73f398	0.05955848
15	0x3db6a62e	0.08918415
16	0x3d1fc7d2	0.039008923
17	0x3d33f774	0.04393716
18	0x3ce241fb	0.027619353
19	0xbcd0035a	-0.025392223
20	0xbe288379	-0.16456403
21	0x3cfc539f	0.030801592
22	0x3e1f74f5	0.1557196
23	0xbd911374	-0.070837885
24	0xbce6f976	-0.028195124
25	0xbdefe7ec	-0.117141575
26	0xbd0967da	-0.033546306
27	0x3c6fe9b3	0.014643121
28	0x3bfd825b	0.007736487
29	0x3d637c8a	0.05553869
30	0x3cce2d9e	0.025168236
31	0xbdad913a	-0.084749654
32	0xbd7b4b45	-0.06135108
33	0xbd216fea	-0.03941337
34	0xbcc7c012	-0.024383578
35	0x3d1c52a4	0.03816475
36	0x3e4595b0	0.19295382
37	0xbd9c2609	-0.07624442
38	0x3bb1ad59	0.005422276
39	0xbd874fec	-0.06607041
40	0xbcd4d17e	-0.0259788
41	0xbde22c9c	-0.11043665
42	0xbdbc7e03	-0.09203722
43	0x3d49e98b	0.04929499
44	0x3c93afed	0.018028224
45	0x3cb57207	0.022149099
46	0x3d459eeb	0.04824726
47	0xbd66f87d	-0.05638932
48	0x3d96350c	0.07334337
49	0x3cd010c2	0.025398616
50	0x3b8f3e62	0.0043714503
51	0xbc903418	-0.017602965
52	0xbdaa15ed	-0.08304963
53	0xbd4c9c35	-0.049953658
54	0xbd627a8b	-0.055292647
55	0x39284fb8	0.00016051426
56	0x3d2bea99	0.041971777
57	0x3dbfc299	0.093632884
58	0x3d830f0d	0.06399355
59	0x3da202cf	0.07910692
60	0xbe2413a5	-0.16023119
61	0xbdc8d770	-0.098067164
62	0xbc1499a8	-0.009069838
63	0x3d7acb7e	0.06122922
64	0x3d82fed2	0.06396259
65	0xbe0a22bc	-0.13489813
66	0x3c0ed235	0.008717109
67	0xbc0aac2b	-0.0084639
68	0x3d3f022d	0.046632934
69	0xbd51cbfd	-0.05121993
70	0x3d075a6c	0.033045217
71	0xbb994763	-0.0046776994
72	0xbc15d9b2	-0.009146141
73	0xbc492e8d	-0.012279165
74	0xbdb26efa	-0.08712573
75	0xbd2472ab	-0.04014842
76	0xba0eb1a0	-0.00054433383
77	0xbe446ebf	-0.19182871
78	0x3e16a050	0.14709592
79	0x3be4fdc3	0.0069882586
80	0xbc7ad531	-0.015309618
81	0xbd880eea	-0.0664347
82	0x3dfde1b0	0.12396562
83	0x3dd38518	0.1032812
84	0x3db88337	0.09009402
85	0x3c9a81bd	0.018860692
86	0xbc9e0a0d	-0.019291902
87	0x3cf44a30	0.029820532
88	0xbc34995b	-0.011022891
89	0xbd04ad59	-0.03239188
90	0xbe1768c1	-0.14786054
91	0xbdf7ee2b	-0.12105974
92	0xbe2967d2	-0.1654351
93	0xbdba90d0	-0.09109652
94	0xbe4872dc	-0.19575065
95	0xbe092678	-0.13393581
96	0xbd74811c	-0.05969344
97	0xbd2264eb	-0.039647024
98	0x3e073398	0.13203275
99	0xbdf3ac84	-0.11898139
100	0xbd53ef76	-0.05174204
101	0xbdc6b5d1	-0.097026475
102	0xbdd79929	-0.1052726
103	0x3ca046a0	0.019564927
104	0xbdf00d52	-0.11721291
105	0xbd203165	-0.039109606
106	0xbc57f375	-0.013180603
107	0x3cedd1dc	0.029030733
108	0x3b8ed2c2	0.0043586204
109	0xbd01a076	-0.031647168
110	0xbdcb9d45	-0.09942106
111	0xbe76ec02	-0.24113467
112	0x3d59a296	0.05313357
113	0xbd1aeb95	-0.037822325
114	0xbe2d0c6b	-0.16899268
115	0xbe13d9ef	-0.14438604
116	0x3da98556	0.08277385
117	0xbe132f2f	-0.14373468
118	0x3b4b1128	0.0030985568
119	0xbde66d1d	-0.112512805
120	0x3da86d98	0.08224028
121	0xbe2f01ad	-0.17090483
122	0xbcc9c6c0	-0.024630904
123	0xbda193d2	-0.078895226
124	0xbd826c23	-0.06368282
125	0x3d91742f	0.071022384
126	0xbdcbcbf4	-0.0995101
127	0x3c3c0ca4	0.011477623
128	0x3dcf6e33	0.10128441
129	0x3e13b0e3	0.14422946
130	0x3d997d89	0.07494647
131	0xbcb23994	-0.021755971
132	0xbdf241f9	-0.118289895
133	0x3d12de80	0.035856724
134	0xbd0f6e77	-0.035017457
135	0xbdf855cd	-0.1212574
136	0xbc86525d	-0.016396696
137	0xbd71d825	-0.059044022
138	0xbd7d3e98	-0.061827272
139	0xbdc48f95	-0.095976986
140	0xbe118b5a	-0.14213315
141	0xbc0b2529	-0.008492746
142	0xbd10b018	-0.035324186
143	0x3d92a5df	0.07160544
144	0x3c8ef684	0.017451532
145	0xbd361130	-0.044449985
146	0x3dbf138b	0.093298994
147	0xbdc27933	-0.09495773
148	0x3ddd8108	0.108156264
149	0xbd9e412b	-0.077272736
150	0xbd915815	-0.070968784
151	0xbe01ac8e	-0.1266348
152	0xbcb171d1	-0.021660717
153	0xbb500d6e	-0.0031746286
154	0xbcfb0a5c	-0.030644588
155	0xbdf7108e	-0.120637044
156	0x3d951a8d	0.07280455
157	0xbd0bcd16	-0.034131132
158	0x3dff1eb8	0.12457031
159	0xbe06ac28	-0.1315161
160	0x3d740b88	0.05958131
161	0x3dc280a0	0.094971895
162	0xbd31ffb7	-0.04345676
163	0xbcf138eb	-0.029446086
164	0xbabdeb13	-0.0014489613
165	0x3d7d104d	0.061783124
166	0x3e226974	0.1586054
167	0xbaa4e5b5	-0.0012580665
168	0xbe1c7c03	-0.15281682
169	0xbdbef61c	-0.093242854
170	0xbd9efd6b	-0.077631794
171	0x3d0f187c	0.03493546
172	0xbe19df28	-0.15026534
173	0xbdad6660	-0.08466792
174	0x3da1e97b	0.07905861
175	0xbda5bd20	-0.08092713
176	0x3cfadc94	0.030622758
177	0xbda0e8c0	-0.078568935
178	0x3e0a8c30	0.1353004
179	0xbc128694	-0.008943219
180	0xbded8f71	-0.11599625
181	0x3db6c33f	0.08923959
182	0x3d2d3dfa	0.042295434
183	0xbca12b07	-0.019673837
184	0xbd527630	-0.051382244
185	0xbd5e6fc1	-0.054305796
186	0xbdab457d	-0.08362863
187	0xbc3dd305	-0.0115859555
188	0xbe07ae62	-0.13250116
189	0x3da9074b	0.08253344
190	0xbd466894	-0.048439577
191	0x3da25f58	0.079283416
