models/gnn-rnn/gnn_rnn_r_1_linear.pth (torch, 152650 bytes, 17 tensors)

fc_measurement.0.weight f4 [32, 1]
00000000: 03da d5be bd9b a8be 57c6 4ebe bc72 433e
00000010: ba68 47bf c2b3 92bd 8ef8 bc3e 04ed 99be
00000020: ed5d 473f ef8b 873e 8e8e 02bf a14e 3dbe
00000030: a265 533f af19 50bf 6cd8 603e bf77 013f
00000040: df90 fb3e 7b67 d4be f235 a6be 01d7 b6bd
00000050: 1ee3 f23e 01b7 c53e 8208 efbe 0f6c 7fbf
00000060: 121f 8d3f 7acc a83e 6d55 6dbf d714 5b3f
00000070: 3d8e 16bf 0f60 a9be 00a8 2dbf 46ea 53bf
-0.41767892 -0.3293132 -0.20192848 0.19086736 -0.77894175 -0.07163192 0.36908382 -0.3006364
0.77877694 0.26473948 -0.5099877 -0.18487026 0.82576954 -0.8128919 0.21957558 0.50573343
0.49133965 -0.414852 -0.32463032 -0.089277275 0.47438902 0.38616183 -0.46686178 -0.9977426
1.1025107 0.32968503 -0.92708474 0.85578674 -0.5881079 -0.330811 -0.6783447 -0.8277935

fc_measurement.0.bias f4 [32]
00000000: c5af e0be 4900 9dbe c0b7 82bc 6cd3 393f
00000010: a281 fabe 6fdc 843f 29ca acbe 41a6 b7be
00000020: 989d 96be 5155 f7be 8528 543f 9e30 99be
00000030: 6944 173f e7ed 903f aadb cbbe c03a 27bf
00000040: 71c6 31bf 54a3 133e 5134 1abf fa29 4fbf
00000050: d599 01bf bba7 413d fa8c a03e 3d63 cf3e
00000060: 6ad5 463f f3c9 6f3f cc77 7a3f d1be 36bf
00000070: 096f e23d 9bf8 9bbd 7976 5e3f aa87 69bf
-0.43884102 -0.3066428 -0.01595676 0.7258823 -0.48927027 1.0379771 -0.33747986 -0.3586903
-0.2941711 -0.4830728 0.8287433 -0.29919904 0.5908876 1.1322602 -0.39816028 -0.6532402
-0.6944342 0.14417773 -0.6023608 -0.80923426 -0.50625354 0.0472791 0.31357557 0.405054
0.77669394 0.93667525 0.97839046 -0.7138491 0.110563345 -0.07615777 0.86899525 -0.9122263

fc_measurement.2.weight f4 [32, 32]
00000000: da58 11be 9ce2 b0bc 59f7 04be 59cd 42bd
00000010: fa28 9dbd de0d 8e3d 8d81 623e 00a7 8bbc
00000020: 225e b03d 0ae5 9a3c bb8a d1bd 83eb 98bd
00000030: 63da 653e 3899 f03d 0404 5d3e ebc8 223d
00000040: f321 273e 5789 84bb 5a6f a5bd f310 b0bc
00000050: fba4 8b3e be1b 98bd df74 69bd d55b a43a
00000060: 9eeb 5d3e 3bae 5c3d ec25 e23d 8e14 1fbd
00000070: c0b9 f73d 1f64 c0bd 4d20 1d3e 2ca4 fa3c
00000080: 97d6 733e f4a1 f73d f9cb 99bc 9c7e e6bd
00000090: c15e 36bc dd16 8b3e 9a9d 15bc c672 a73d
000000a0: 4d5e 5abd 60e6 ebbd a1eb 433e 002e 293e
000000b0: 0137 523e 5871 1d3e a61f b23a 0c30 26bd
000000c0: 6238 d3bd e283 a6ba 279b 8d3e 2d5a 22be
000000d0: a077 40bc 9505 02be c6d2 5abd ea2f dc3d
000000e0: 0a86 f5bb 388d a339 69fd 843e 316d d9bd
000000f0: 34d9 6a3d 52c6 9b3d f5dd 883e f6d2 ae3d
00000100: ed53 14be f67f 6dbd 3609 a03d ee69 2f3e
00000110: b5fc 68be 76cf 073e 9a05 d13d 2c0f cc3d
00000120: 2009 513e 7324 303e 13d0 18be cd11 ea3d
00000130: 1a3f 983c 5b81 ccbd 35d0 55bd 9590 db3d
00000140: f850 a9bd 2363 51be b894 22be b209 e83c
00000150: 95b3 703e 5d63 013e 3b0b 41bd 2622 943d
00000160: 5074 87bd c947 903b 37bc 3bbe 6719 5bbc
00000170: 7daa d13d 3ada b7bc 1b67 32be 124d 62be
00000180: 6fdb 643c 8ea9 b63d 00f2 1ebd 784a 0d3d
00000190: 94a7 063d 77fd 5a3d 72d2 4abb 0610 00be
000001a0: 45c3 983d 6c0b 8a3e 7117 003e a728 d23d
000001b0: 48b4 263d b249 ed3d 6374 fe3d 14da 4f3d
000001c0: 9a51 c63e 8363 063d ff36 5abe 5953 6cbe
000001d0: 71e1 2d3e 5c53 21bc 2988 d5bd 8bc4 363d
000001e0: 7ea0 633e 8f64 693e 9552 dabd 2a18 553e
000001f0: d0fc 1cbe 8ee9 bb3d aa4e 233e 49bd 1a3d
00000200: 946c 533e be10 8bbb df71 b23d b709 873e
00000210: 5851 353d 606b a33d 3863 823d ff79 2f3e
00000220: 23b3 253e b0a3 ae3e a1c8 383e 89dd 2c3d
00000230: 72a1 093e 7e16 3ebd 9dcf da3d 874a 8e3e
00000240: d0d1 023e e8bb 683e 0048 21bc 4f43 ddbd
00000250: 983a 4e3e 2da4 333d 0b10 54bc 12e3 89bd
00000260: c54b 513d d867 413e 13ac 053d 42e6 b73e
00000270: 961b 403e ad9f 2bbd 4b78 fd3d e59f 96bd
00000280: f15a 393e e734 563e 5858 51bd a93a e5bd
00000290: b087 263e bee3 b03d e1e7 803d e4b0 aebd
000002a0: 40be e53d b68a 80be 430e 583e 0156 683e
000002b0: 954b e33d 0003 393e 6c56 0bbe 5873 0ebe
000002c0: 5d5f 113d 738c 1ebc 9afb 8b3e 1278 613e
000002d0: 136e abbd b27a 88bc 311b 0ebd 2d6e 493e
000002e0: d51f c53c 4402 3bbe 9fa7 533e 9a71 dd3b
000002f0: 8e8a 75bd 3096 1c3d 0a49 423e 0dd6 573d
00000300: 2657 3b3d f9cd 43be 900b 4ebd cc44 87bd
00000310: 4a84 49be 318b 14be 85b4 493d 5c2c 223e
00000320: 085e 5b3e 9882 8a3e e1c9 69bd 9f76 613d
00000330: b644 3b3e 5a46 81be d7ca 593e cbf0 4d3e
00000340: 1672 6d3e 2f2a bcbd abf8 9fbd 0919 963d
00000350: 3ed1 273e 1f35 c9bd f498 9ebd 1866 b93d
00000360: e363 e53d 1a9c 10be 31d4 ad3d 084e 56bd
00000370: afad 22be f60c 8e3d 6755 0a3c d38d b33d
00000380: cd89 423e 3622 413d 0334 70bc c10f 6f3c
00000390: f70c 703e 821c 0f3e 54f7 31be 52cb 2f3e
000003a0: 9ed1 0dbd 3400 e4bd c7aa 413e 801c 943e
000003b0: 5727 9fbc 15ea d6bd f990 1b3d 29a8 e43d
000003c0: 0058 4fbd cf73 acbd 30ec 28bc 2183 65bc
000003d0: 9e8b ab3d feae 273e ab6c ecbd 602c 403d
000003e0: ae6f f73d 7c87 a5bc f58d 593c 15e7 28be
000003f0: c6a5 ca3d e6d9 c53d 1b12 093e 2b9e d3bc
-0.1419405 -0.02159243 -0.1298498 -0.047559116 -0.07673831 0.06936239 0.22119732 -0.017047405
0.086117044 0.018908042 -0.10231539 -0.07466795 0.22446589 0.11747974 0.21583563 0.03974239
0.16321544 -0.0040446925 -0.08077879 -0.021492457 0.27274308 -0.074271664 -0.056996223 0.0012539575
0.21671912 0.053877097 0.11042389 -0.03883796 0.12095976 -0.093940966 0.15344353 0.030595861
0.23812328 0.12091437 -0.01877402 -0.112546176 -0.0111309895 0.2716588 -0.009131813 0.08176188
-0.05331259 -0.1151855 0.19132854 0.16521454 0.20528795 0.15375268 0.0013589754 -0.040573165
-0.103134885 -0.0012704099 0.27657434 -0.15854712 -0.011747271 -0.12697442 -0.053423665 0.107513264
-0.0074927853 0.00031195 0.25974587 -0.1061653 0.057336047 0.07606186 0.2673184 0.08536331
-0.1448514 -0.05798336 0.07814257 0.17130253 -0.2275265 0.13262734 0.102061465 0.09963831
0.20413637 0.17201404 -0.14923124 0.114291765 0.018584777 -0.0998561 -0.052200515 0.10720936
-0.08267397 -0.20447974 -0.15877044 0.028324936 0.23506005 0.1263556 -0.04712985 0.07233076
-0.06613982 0.0044030887 -0.18333517 -0.013372756 0.10237596 -0.022442926 -0.17422144 -0.22099712
0.013968333 0.08919059 -0.038805008 0.034494847 0.03287466 0.05346438 -0.003094819 -0.12506112
0.0745912 0.2696184 0.12508942 0.1026166 0.040699273 0.11586322 0.12424543 0.050745085
0.38734132 0.032809746 -0.21310042 -0.2307867 0.1698053 -0.009846535 -0.10426361 0.04462103
0.22229192 0.22792266 -0.106602825 0.20809999 -0.15330815 0.091754064 0.15947977 0.037778173
0.20646888 -0.004243939 0.087131254 0.263746 0.04426703 0.079794645 0.06366581 0.17136382
0.16181616 0.3410926 0.18045284 0.04220346 0.13440493 -0.04640817 0.1068413 0.27791235
0.1277535 0.2272793 -0.009843826 -0.10803854 0.20139539 0.043857742 -0.012943278 -0.06732763
0.05109765 0.1888727 0.032634806 0.3591786 0.18760523 -0.041900326 0.1237646 -0.07354716
0.18101098 0.20918618 -0.05110964 -0.11192829 0.16262698 0.086371884 0.062942274 -0.08529833
0.11217928 -0.25105828 0.2109919 0.22689058 0.110984005 0.1806755 -0.13607186 -0.13911188
0.035491336 -0.00967704 0.27340394 0.2201846 -0.08370604 -0.016660068 -0.0346939 0.19670935
0.02406303 -0.18262583 0.20669411 0.006757927 -0.05994659 0.038229167 0.18973175 0.05269437
0.045737408 -0.19121541 -0.050303996 -0.06604919 -0.1967937 -0.14506222 0.049244422 0.15837234
0.21422589 0.2705276 -0.057077292 0.055044767 0.1828793 -0.25248986 0.21268784 0.20111386
0.23188052 -0.091877334 -0.078111015 0.07328994 0.16388413 -0.09824585 -0.07744017 0.09052676
0.112006925 -0.14122048 0.08487738 -0.05232051 -0.15886568 0.06936066 0.008443213 0.08767285
0.1899788 0.047151767 -0.014660838 0.014591158 0.23442446 0.13975719 -0.17379504 0.17167404
-0.034623735 -0.11132851 0.18912803 0.28927994 -0.019427938 -0.10493866 0.037980054 0.111648865
-0.050621033 -0.08420526 -0.010310218 -0.014008314 0.08376239 0.16375348 -0.11544164 0.04691732
0.12081848 -0.020206206 0.013278474 -0.16494401 0.098949 0.096607015 0.13385813 -0.025832256

fc_measurement.2.bias f4 [32]
00000000: 230f 71bd c123 11bd 3340 01be c519 9d3d
00000010: 1a8b 703e 96ac ff3c 7a9d ba3d 2f8b 45bd
00000020: e4b4 3d3e 56e1 263d 2497 a9bd ddb2 873d
00000030: d322 0abd 0447 0b3d 44cc 3bbe 1083 dfbb
00000040: d3b1 fc3c 7aca 2abc 0013 b1bb 78fd 8abd
00000050: db6a d33d 674b 863d 78b0 8c3e 0031 af3d
00000060: 301c 26be 04b7 323d b878 2abd 8e43 6e3d
00000070: ebf6 10be c45e 0f3e 0d8e 5dbe 601d 18be
-0.058852326 -0.03543449 -0.12622146 0.07670931 0.23490563 0.031210225 0.091120675 -0.04822844
0.18526036 0.04074224 -0.08280781 0.06625912 -0.033724617 0.034003273 -0.1833964 -0.006821044
0.030846512 -0.010424251 -0.0054038763 -0.067866266 0.103231154 0.065573506 0.27478385 0.08554268
-0.1622169 0.04363157 -0.041619033 0.058169894 -0.14156692 0.14000994 -0.2163622 -0.14854956

type_embedding.weight f4 [2, 32]
00000000: 68c9 48bf 35f1 09bf 3bc7 963d cfb4 c23e
00000010: e644 72bf bf73 d43f c93a ba3e 96f0 10bf
00000020: 30e9 333e 2b23 ddbd e0fb 393f b1c5 d4bf
00000030: 57d3 b43f 70c3 a4bf 45d2 b03e 7288 833e
00000040: 8632 03bf 4642 38bf 0937 6f3f 76ae 8abd
00000050: 3346 1c3f 776d 2a3f 9baa c0be e706 99bf
00000060: 59c3 8b3f a952 7fbd 8647 463e 62c2 acbf
00000070: c4d6 2fc0 7c78 10bf fd09 2f3f 5a2d 0c40
00000080: c4d3 d53e 1d47 08bf 4ff8 29be 3cc0 7c3e
00000090: 38e0 e8be 0add c2be 786e 2b3f d35b 46be
000000a0: 9a0d 8b3f f22c 163f 7373 94bd 73eb 8f3b
000000b0: 4e7c 22bf 340e 60be 51d8 613f 0907 79be
000000c0: 1adc 023f b5e6 d03f 6930 303f 9236 a3be
000000d0: 3bc8 0340 18a0 103f 38e2 c1bf a7b9 813d
000000e0: 4fcd 9e3f 4dd5 95be 3321 6f3f 0310 d9bf
000000f0: 183b 1e3f 12ae 19be 9fa4 df3f 8ddc 7cbd
-0.7843232 -0.5388368 0.07362219 0.3802857 -0.9463638 1.6597823 0.36372975 -0.56617105
0.17569423 -0.107977234 0.72649956 -1.6622831 1.4126996 -1.2872143 0.34535423 0.25690037
-0.5124897 -0.71976125 0.9344335 -0.06771557 0.61044616 0.6657328 -0.37630162 -1.1955231
1.091899 -0.06233469 0.19363222 -1.3496821 -2.7474833 -0.56433845 0.68374616 2.190268
0.41763127 -0.5323351 -0.16598628 0.24682707 -0.45483565 -0.38059264 0.66965437 -0.19370966
1.0863526 0.5866233 -0.07248583 0.0043920814 -0.63470924 -0.21880418 0.882207 -0.2431909
0.511171 1.6320406 0.6882387 -0.3187757 2.059096 0.56494284 -1.5147161 0.063342385
1.2406405 -0.29264298 0.93410033 -1.6958011 0.6180892 -0.15007809 1.7472113 -0.06173377

gcn1.bias f4 [64]
00000000: 38f3 ed3d e864 793d 8ba9 983d 1dbd 0dbd
00000010: ed85 6cbd e66a 8f3d 8f39 993d cb3e b4bc
00000020: c2af d53d 0cf4 4bbd 60bb 32bd f5d7 c1bd
00000030: 151e 283d 3acc 323e f09e 003e f37e 4c3d
00000040: f71f 5dbd f35f 6d3d 8048 af3d 1dfe 103d
00000050: 2e5b fd3b 342d 023d a41f 3fbc 66a6 e13c
00000060: 9081 173d f7e1 ac3d 2491 773d 10d4 013d
00000070: cb37 543e d4a7 673d e014 823b 96b6 aebc
00000080: 9694 023d ac27 f53d 3213 363c a68d 8c3d
00000090: ef93 0abd 469c 9fbc 69a8 93bb a0e7 03be
000000a0: 4513 1e3d be8d c33d 4c66 153d f1e2 243d
000000b0: c6b3 1fbd 6b32 a23d 41df 933c 35b1 82bc
000000c0: 65e6 0b3e 0ad0 333e 5ec9 c33d e2fa 103c
000000d0: 670f 66bd 1057 05bd 8700 3ebc 6eb3 713d
000000e0: 8e42 723c be0d 783c 6488 b83d c20a 153e
000000f0: bbfb c43d 45ca 95bc f0bc 723c 0904 2e3d
0.11618656 0.060887247 0.07454213 -0.03460418 -0.05774491 0.07002811 0.074816816 -0.022002598
0.10433914 -0.049793288 -0.043635726 -0.09465019 0.041044313 0.17460719 0.1256063 0.049925756
-0.053985562 0.057952832 0.0855875 0.03539859 0.0077318167 0.03178139 -0.011665259 0.027545165
0.036988795 0.08441537 0.06044115 0.03169638 0.20724408 0.056556538 0.0039697737 -0.021327298
0.031879984 0.119704574 0.011112975 0.06862955 -0.033832487 -0.019483697 -0.00450616 -0.12881327
0.038592596 0.095485196 0.03647451 0.04025549 -0.038989805 0.07919773 0.018050792 -0.01595364
0.13662107 0.1755983 0.09559892 0.008848878 -0.056167033 -0.032553732 -0.011596805 0.059009008
0.014786376 0.015139995 0.090103894 0.14554885 0.09618326 -0.018284926 0.014815554 0.042484317

gcn1.lin.weight f4 [64, 64]
00000000: f5ad 453c 055a bc3d 68fd 2f3e 2fe8 3c3e
00000010: 4575 d1bd 0f0b 28be e4c3 cab9 2307 4cbe
00000020: dfb8 c6bd dc74 bbbd bec8 0c3e a34d 92bb
00000030: 2c8f 3b3c 69cb 70bc 1487 b8b9 347b 55bd
00000040: c3c6 0b3e f974 c73d cabf 19bc 5fca 303e
00000050: c666 193e 1cf8 1f3e d8e1 e4bd 6d2a 57bd
00000060: 0158 e93d ac1f 803e 15cc 6f3c 2c7e 433e
00000070: 1e0d 753c db06 7d3e a8f2 13be 24c0 443e
00000080: 3cfd 3d3d 2df5 24be 3313 573e 3eb3 b23d
00000090: 6b57 903d abc7 603e f133 bebd b629 47be
000000a0: 0db7 403e 4935 6cbc 7973 f7bd 7f58 00bc
000000b0: c052 02be 3e52 033e 4e82 58bd 8b89 14be
000000c0: 7070 b13d 40f7 523e bf41 b83d 6c8b 103e
000000d0: 0687 de3a 4b61 f0bd 0586 4e3d e8bb cfbd
000000e0: 1fd7 72bc 53ac 7abe 8bd4 553d 6b5a 10be
000000f0: 234f 8bbd 1f45 e8bc b4b5 d7bd 89a6 2c3e
00000100: b674 873e bde3 40bd da29 d9bd bb9c e13d
00000110: 4e06 823d bb00 21be fb2c 093e 002a e03d
00000120: c42b de3d 025c 493d 1e68 443e 8326 5a3e
00000130: 3faa a2bd bd09 033e a1f4 47be 5625 303d
00000140: e391 e63d 41e4 35be 9a77 1f3e 562e 27be
00000150: 8f27 853e 0f24 01be 9681 ebbc fdbc 513e
00000160: 4911 7d3d 88a2 a83d 99eb febc 23bc 0e3e
00000170: 8c5d 9d3d 31bf 253d f7f4 5f3e f129 2d3e
00000180: 1c64 143e 2020 0e3d 2269 2b3d 505a b53d
00000190: d42a 0cbd 5b20 603d e952 593e bdb1 c23d
000001a0: c76b 4ebe c614 c33d a29f 943d 8436 7c3d
000001b0: 39bf b5bd 64ad c53d 670d 0bbe 77de 0ebe
000001c0: 587b 40be eb7c 17bd 9a7f 353d 348f 3b3c
000001d0: bac6 1a3e a4b8 673d cca9 3abe 515d 82bd
000001e0: db3f 493e 42f8 463e 9606 1fbe 2362 3d3e
000001f0: bb07 abbd d33a 8b3d a482 b23d 15ef debb
00000200: a7c3 38bd e3cc edbd 454c 823e 991b 0f3e
00000210: ce13 a7bd 1bbc c1bc c79c 9d3e c94b 38be
00000220: a945 583e 0526 813d 24c3 953e 5382 96bd
00000230: a698 143e 5ea5 963d f843 ac3c daea abbd
00000240: 4c6e d33c b77c d93d 2d49 72bd 3514 c8ba
00000250: 51fa e3bd 2739 933e 3509 19be 79ff d6bd
00000260: cb87 883e 67ec 793e 7248 21bd 0f84 3f3d
00000270: 9e0d debd 88eb a33d cc75 873e 3e74 ae3e
00000280: aeb7 2f3e 05df acbd 66a9 7fbc 3b06 0bbe
00000290: 526e 6dbd 739b 3c3e 868e 03be d594 0a3d
000002a0: c1e8 443e def3 2f3e dbb8 12be 416c 5abd
000002b0: e65a 20be 3295 15be bc93 213e d1d5 ab3a
000002c0: 1e38 4dbe 7137 0e3e 6006 20be 9cba 20be
000002d0: f045 0bbe 84ec 81bd 7151 273c 101d 2cbb
000002e0: 60f1 42be 5187 4c3e 46c0 38bd f506 d33d
000002f0: 9ff8 b43d 9ccb 3dbe 0294 593b 4c32 433e
00000300: e917 0e3e 4242 dcbd 049d 193e 2558 3fbe
00000310: 4a11 93be e304 8bbe 5749 e0bd 7fe7 92be
00000320: ae0d 373d 1a39 aebd 1907 febd af36 21be
00000330: c2e1 123e c78a 59be ba0d 24be 5c95 a63d
00000340: 39e2 89be 37d5 0bbe 85a3 533e 974e 993d
00000350: 137f 94bb f882 36be dff2 77bd ea64 1ebe
00000360: 7d18 61be 849b 14be a0c7 b3bd 5b0e cebb
00000370: 339c 8ebe fe03 61bd 0a3f 25bd 1aa5 90bd
00000380: f8f8 c1bd f34b 213e 46f8 18be cc97 723d
00000390: c5be 5ebb 1e14 4abe 5eb3 a7bd 8cd9 363c
000003a0: 721a 96bd 04c2 11be 01bd b5b9 dd8c ea3d
000003b0: baad 013e 91c4 74bd dceb 3dbc 41d1 4d3e
000003c0: 68ea 75bc eaab aebd 355f 7c3d fc65 f1bd
000003d0: 96fb 6bbe d9db 153e 8b8c e33d edfc 0b3d
000003e0: 92b4 8ebe a284 9cbd 7910 92bd 016e 903c
000003f0: a35b f93d a0e8 edbd 5754 003c 5222 22be
0.0120654 0.09196857 0.1718651 0.18447946 -0.102274455 -0.16410469 -0.00038674392 -0.19924597
-0.0970323 -0.091531485 0.13748452 -0.0044648214 0.011447709 -0.014696934 -0.00035195856 -0.05211945
0.1365004 0.09739108 -0.009384105 0.17264698 0.14980611 0.1562199 -0.11175889 -0.052530695
0.113937385 0.25024164 0.014636059 0.190911 0.014956741 0.24709646 -0.14448035 0.19213921
0.04638408 -0.16109152 0.21003418 0.08725594 0.07047924 0.21951167 -0.09287251 -0.19449505
0.18819828 -0.014417001 -0.120825715 -0.007833599 -0.12726879 0.12824342 -0.052858643 -0.14505593
0.08664024 0.20602131 0.08996915 0.14115685 0.0016977496 -0.11737307 0.05042078 -0.10143262
-0.014821797 -0.24479799 0.05220465 -0.14096992 -0.068022035 -0.028353272 -0.10532704 0.16860403
0.2645623 -0.04709219 -0.10603686 0.11016222 0.06348859 -0.15722935 0.13396065 0.10945511
0.108481914 0.04916001 0.19180343 0.21303754 -0.07942628 0.12796684 -0.19526912 0.043004356
0.112582944 -0.17762853 0.15572968 -0.1632627 0.26006743 -0.12611412 -0.028748315 0.2048225
0.061784063 0.082341254 -0.031118201 0.13938956 0.07683858 0.040465537 0.2187079 0.1691053
0.14491314 0.034698606 0.04184831 0.08855116 -0.03422053 0.054718357 0.21223034 0.09506557
-0.20158301 0.095254466 0.0725701 0.061575428 -0.088743635 0.09652212 -0.13579331 -0.13952051
-0.18797052 -0.036984365 0.044311143 0.0114477165 0.1511487 0.05657257 -0.18228835 -0.06365455
0.19653265 0.1943064 -0.15529856 0.18494467 -0.08351084 0.06798329 0.08716324 -0.006803403
-0.045108464 -0.11611345 0.25448814 0.13975371 -0.08158074 -0.023649266 0.30783674 -0.1799766
0.21120323 0.0630608 0.29250443 -0.07349076 0.14511356 0.0735576 0.021028504 -0.08394404
0.02580943 0.106194906 -0.059151817 -0.0015264811 -0.111317284 0.2875454 -0.14944918 -0.10497946
0.26666102 0.24406587 -0.03937573 0.0467568 -0.10842441 0.080039084 0.2645706 0.3407306
0.17159912 -0.08440975 -0.015604353 -0.13576595 -0.057966538 0.18418674 -0.12847337 0.033833344
0.19229414 0.17182872 -0.1432833 -0.053325895 -0.15659675 -0.14607695 0.15779012 0.0013109987
-0.20040938 0.13888337 -0.15627432 -0.15696186 -0.13600898 -0.0634394 0.010212288 -0.002626244
-0.1903739 0.19973494 -0.04510524 0.10304061 0.08836483 -0.18534702 0.0033199792 0.19062155
0.13876309 -0.10754825 0.15001303 -0.18685968 -0.28724128 -0.27152166 -0.109514885 -0.28692243
0.04469078 -0.08506985 -0.124036975 -0.15743516 0.14343932 -0.21244346 -0.16020861 0.08133957
-0.26930407 -0.13655554 0.20667847 0.07485693 -0.00453175 -0.17823398 -0.060534354 -0.15468183
-0.21981998 -0.1451245 -0.0877831 -0.0062883324 -0.27853546 -0.054935448 -0.04034332 -0.070627406
-0.09471315 0.15751629 -0.14938459 0.059226796 -0.003398822 -0.19734237 -0.081885085 0.011160266
-0.07329263 -0.14234167 -0.0003466383 0.11452649 0.12663928 -0.059757773 -0.011591878 0.20099355
-0.0150095 -0.08528884 0.061614234 -0.1178703 -0.23045191 0.14634646 0.11110791 0.034176756
-0.2787214 -0.07642485 -0.07132048 0.017630579 0.121756814 -0.11616635 0.007832608 -0.15833405

gcn2.bias f4 [64]
00000000: 3594 b53d 0ee6 db3c 090a 033d 5af6 ad3c
00000010: ad75 703d 5a59 023d 5640 dd3d 17df fc3c
00000020: c136 aa3c edf2 293d b2cb 7b3c 47d7 0b3e
00000030: 5c5b 053e 847f b23c 5577 37bb a5eb 1c3c
00000040: c3db f93c 5505 f63c ae59 7b3c 51f1 6c3d
00000050: 1674 c33c 6b08 0d3d 614d 3c3c dc02 4cb8
00000060: 66ed 4a3d ae20 2d3e 0e29 2d3e cc46 43bd
00000070: 5e89 a3bc 8984 c33c 1a8e ec3d 579c 063d
00000080: 2934 273d b739 e83d 386a 64bd 4e79 ca3c
00000090: 7e7e 113d 097e cd3c d67f 84bd 2da1 493d
000000a0: 330d 223c 0421 0e3e 6251 573d 0484 003d
000000b0: 9a36 fe3c bffe e33c 14f6 c53b 50aa 103d
000000c0: 4a8e 693c 5921 b53d 0ee6 433d 8eaa e23c
000000d0: 7a9d 6b3c 35a0 873b 674c 8b3d d703 de3d
000000e0: f1e6 96bc 2867 1b3e 98cd 06bc e644 213d
000000f0: 33fd 043d 00a8 043e bcff 153d feac a93d
0.08866159 0.026843097 0.031991992 0.021235634 0.058705974 0.031823494 0.10803287 0.030868096
0.020778062 0.041491438 0.015368389 0.1365634 0.13023132 0.02178932 -0.0027994711 0.009577666
0.030500298 0.03003184 0.0153412055 0.057847325 0.023859065 0.034431856 0.011493058 -4.8640053e-05
0.049542807 0.16906998 0.16910192 -0.04767494 -0.019962963 0.023866909 0.11550541 0.03286394
0.04082123 0.11339133 -0.05576536 0.024716046 0.035521023 0.025084512 -0.06469695 0.049225975
0.009890842 0.13879782 0.052567847 0.0313759 0.031031895 0.027831433 0.0060412977 0.035318673
0.014255116 0.08844251 0.04782682 0.027669217 0.014380807 0.004138971 0.06801682 0.10840576
-0.018420668 0.1517607 -0.008227728 0.039372347 0.032468032 0.12954712 0.03662084 0.08284949

gcn2.lin.weight f4 [64, 64]
00000000: 3d5a 773d bdd4 65be d88f fbbe 33a8 afbc
00000010: c13d 4dbe fd55 8a3c 4a48 bd3d 1133 1aba
00000020: f2d8 df3b 876f 8dbd cb54 54be ff7d 283e
00000030: b8a1 9cbe 2b59 65bb c296 b0bd 02e7 61bd
00000040: 7aa3 983d 62e8 0ebe 34f2 333e a0bd 33be
00000050: 3ec0 143d 2545 873d 4c48 d53d 948c 8abd
00000060: 195c 49be 7a74 bc3c 6339 413e 9f13 a3be
00000070: 9b99 8d3e 79e2 473e dfd4 6fbd aeb4 d4bd
00000080: 20a8 363c 165c 733e ea1c 8ebd 83e3 0d3e
00000090: 57c9 343e 243a 55be 3075 c93d abfc e13d
000000a0: da04 7b3d d7a2 513e 8bec 203e c97d 19be
000000b0: 0a2c 11be 9f23 483d 587b 3a3e ab23 493c
000000c0: 6805 40bf 4a3a 833e 7dc4 87bd 1a6a 56be
000000d0: c13c 17bd bc72 63be 5d29 63be ff48 cd3d
000000e0: d265 8e3d 36f3 db3c 6c5b 893e 57ea 7d3e
000000f0: 62dc 063e ba83 14be d5d5 2abe 4fe5 903d
00000100: bc5b 413e e65c 5e3d c075 7f3e 5517 46bd
00000110: e01c c73d 47c6 123e 1760 d4bd 9079 17be
00000120: 2136 0abe 9e4e 0c3d 4602 bc3d a1bd c53d
00000130: b5dc fc3d fad5 32bd de7e 423e 48cd 063e
00000140: 6ed5 53bc cbde 373e 1720 523e bc48 313d
00000150: 5df5 6cbc c2a2 fe3d 160a 44be 21c1 e83d
00000160: 877d 3e3e cd7d 6b3e 5bc7 b5bd 88a4 3b3e
00000170: a954 9abd 99ed aa3d e2f9 3ebc e9d9 413e
00000180: d83a d8bd 7f43 973d 524f 4fbe 30bc afbd
00000190: eab5 063e 0965 5d3b c0e1 4cbe f638 80be
000001a0: 9407 3c3e 9098 30bd b221 b9bd 4f04 7ebd
000001b0: 3a58 023d 8d09 6a3e fa6e 163e 261d be3d
000001c0: 5196 84bd f1d7 2f3d 021b dabd fda1 513e
000001d0: b262 103e bd55 243d 3ecf 003e 205c de3c
000001e0: aca7 1b3e dfd4 4b3e c5d2 1d3e 728b d7bd
000001f0: a197 3cbe 5184 113e 2c4b 843e eaa4 fdbd
00000200: 9b4f 5a3e fe7d 9c3d cd0e fdbd df8f 58bd
00000210: 4126 0a3d 6077 1abd 7e31 823c 9760 173c
00000220: 7815 243c 57c5 f03d 656b 323d d2e7 52be
00000230: 4f34 553d 8e7e 06be a5a6 e33d 2581 2bbd
00000240: 3528 fbbb c2ba 313e 25f2 533e b3b0 433e
00000250: 0cb9 343e 3604 8e3d 1cdd 2e3e 3082 7b3c
00000260: 9f9a 1fbe f526 193e 404b d9bd 6d09 503e
00000270: 58dc f93c 96dd 13bc b36f 6d3e 725b 5f3d
00000280: b0a2 afba 7922 8fbd 55ba 043e aba5 793d
00000290: f6d0 5ebe 670e 47bd 8407 d6bd 27f3 6abe
000002a0: 60d5 1ebe b488 48be deb1 53be 2794 fc3d
000002b0: 1171 e0bd efdc e93d 217f 6bbd b925 e93d
000002c0: 3e54 0b3e a4ae 103e efb6 5ebd b556 523e
000002d0: 1619 6bbd 3ab3 37be 3614 ce3d 8eba 023e
000002e0: efc0 1d3e bfd7 11be e4ab 79bc 3f1b 99bd
000002f0: 08bd 3c3d 0e36 4abe e6cb f03d 30d9 4bbe
00000300: be87 e83d 2b7e 383d f871 0ebe 115c 203d
00000310: 7db4 c5bd b4ed 04be 69a1 703e c023 8abc
00000320: 28be e3bd 80e1 52be 9a3c 593c 881c 0cbe
00000330: f722 7f3e 6865 1b3e 36b5 edbd 32fb 343e
00000340: 89d4 2cbe 43ab 323e 1781 ea3d 3848 603e
00000350: b299 c63d 3127 68be 14b3 f1bd 42d3 d13d
00000360: 864b 83bd 047f eb3d 2126 643e 2b20 50bd
00000370: 6fe7 d03d 0167 953c 7d7e 533e 2689 18be
00000380: fda3 50be b10f 213e bf39 f5bd 9b63 8b3d
00000390: debf 2cbe 58c2 83bd 0c75 78bd 980c aabc
000003a0: bdcd 643e 78be f23d f6dc 73bd 7953 9b3c
000003b0: a241 73be 3fad 583e bef0 0ebe 8f51 2cbe
000003c0: b3ea 443d c84d 5abd 367e d5bd 198d d23d
000003d0: eb5b 13be 7b18 acbd 9fb3 bf3c a6fd c23d
000003e0: 8073 053e 9456 afbd c387 6c3e e8b9 c33d
000003f0: f1da f4bd 4204 393e 91ef 873e 519c aebd
0.060388792 -0.22444434 -0.49133182 -0.021442508 -0.20043088 0.016886706 0.09242304 -0.0005882243
0.006831282 -0.06906038 -0.20735471 0.16454314 -0.30592132 -0.0034995775 -0.08622505 -0.055151947
0.07453056 -0.13955835 0.17572862 -0.17552805 0.03631615 0.06604985 0.1041418 -0.067650944
-0.19664039 0.02300476 0.18869548 -0.31850907 0.27656254 0.19519986 -0.05855262 -0.103860244
0.011148483 0.23765597 -0.06939109 0.1385632 0.1765493 -0.2082296 0.09836805 0.11034521
0.061283924 0.20472275 0.15715234 -0.1498939 -0.14176956 0.048862096 0.18211114 0.01227657
-0.7500825 0.2563041 -0.06629274 -0.20938912 -0.036923174 -0.22211736 -0.22183748 0.100236885
0.069530144 0.02684937 0.26827562 0.24796425 0.13170007 -0.14503375 -0.16683133 0.07074987
0.1888265 0.054287814 0.24947262 -0.048362095 0.09722304 0.1433345 -0.1036989 -0.14792466
-0.13497211 0.034254663 0.09180121 0.096553095 0.12346784 -0.043661095 0.18993708 0.13164246
-0.012929304 0.17956083 0.20520054 0.043282256 -0.014462796 0.12433387 -0.19144472 0.113649614
0.18602572 0.22997208 -0.08875915 0.18324482 -0.07535679 0.083460994 -0.011656256 0.18930782
-0.105580986 0.07385921 -0.20245102 -0.08580816 0.13155332 0.0033782145 -0.20007992 -0.25043458
0.18362266 -0.043114245 -0.0903963 -0.062015828 0.03182242 0.22855206 0.14690772 0.092829034
-0.06473983 0.042930547 -0.106496826 0.2047195 0.1410015 0.04012083 0.12579057 0.027143538
0.1520068 0.19905423 0.15412433 -0.10524644 -0.18417217 0.14210631 0.25838602 -0.123849705
0.2131943 0.076412186 -0.12356339 -0.05287158 0.033727888 -0.0377115 0.01589274 0.009239337
0.010014884 0.117563896 0.04355945 -0.20596245 0.05205184 -0.13134214 0.11115769 -0.04187121
-0.007664705 0.17356399 0.2069784 0.19110374 0.17648715 0.06934397 0.17076534 0.015350863
-0.15586327 0.14956267 -0.10610056 0.20316096 0.030500576 -0.009024998 0.23187141 0.05453057
-0.0013399925 -0.06988997 0.12961705 0.06094901 -0.217594 -0.04859772 -0.10450652 -0.22944318
-0.15511084 -0.19583398 -0.2067332 0.12332945 -0.10959066 0.11419093 -0.057494286 0.11384148
0.13606355 0.1412912 -0.054373678 0.20540889 -0.05739697 -0.17939463 0.10062449 0.12766477
0.1540563 -0.14242457 -0.015238736 -0.074759 0.04607871 -0.19747183 0.117576405 -0.19907069
0.11354016 0.0450422 -0.13910663 0.0391503 -0.09653566 -0.12981302 0.23499073 -0.01686275
-0.11120254 -0.20593834 0.013259077 -0.13682759 0.24915682 0.15175402 -0.11606829 0.17673948
-0.1687795 0.17448144 0.11450403 0.2190255 0.09697284 -0.226712 -0.118017346 0.10245372
-0.06410889 0.11498836 0.2228017 -0.050811928 0.102003925 0.018237593 0.2065372 -0.14896068
-0.20375057 0.15728642 -0.11973905 0.068061076 -0.16870067 -0.064335525 -0.0606585 -0.020757958
0.22344108 0.11852735 -0.059536897 0.018960701 -0.23755506 0.21159838 -0.13959023 -0.16827987
0.04807539 -0.053296834 -0.104244635 0.102808185 -0.14390533 -0.08403107 0.02340108 0.09521036
0.13032341 -0.08561435 0.23098664 0.09556943 -0.11955822 0.1806803 0.26549962 -0.08525909

gru.weight_ih_l0 f4 [192, 64]
00000000: d687 793d 6fa9 b03d 1209 663d c30c 483d
00000010: ee6b 5d3d e7cf 933c 9bea cb3d 8f53 293e
00000020: 8565 76bc 1665 a13d ba05 d33d c003 ce3d
00000030: 2dca 033e d86f 673d a3a8 e43d cdca a03d
00000040: 3006 ddb9 078e 2e3e 31b9 0c3e 405a 133d
00000050: 5cff 113e c187 693d 37b7 bd3d 4f92 333d
00000060: d46e 133e d4f1 2d3d 3b99 d63d 6ea7 c83d
00000070: d94f e6bd 9eb1 d53d 1758 b13d 160f b3bd
00000080: ac4e a93c bcea 13bd a74f 96bd e7a6 553e
00000090: 5321 a43c 8490 2f3e 4605 42be e912 ed3b
000000a0: d831 cf3d dd1c 10bc 5812 5b3d 7681 8fbb
000000b0: 4af0 2c3e d8ae 813c df6a a73d 6631 023e
000000c0: f5b2 863d 2b92 693e 212b 5e3e aa95 4a3e
000000d0: 2493 773e ace1 d13d 9b01 893d 3f92 fdbc
000000e0: a20a 383e 58c5 393e 1f6a 3f3b 077b a13d
000000f0: e3c0 5a3e 9c44 d6bd 6d89 503d 9ce2 0f3e
00000100: e9d4 c0bb 9ce5 c3bd a4f1 163d 6836 57bd
00000110: b027 96bc 855d 783c c017 4bbd 8c0e 123d
00000120: a220 0a3e 5d1e 0e3e 62e8 083d 76d0 9fbc
00000130: 7ec0 4e3d 8c49 a83d ec95 d63d 5a2b 27bd
00000140: 7dff 733d 2d10 d73c 1d99 0a3e 66e5 4e3d
00000150: d41e 1e3d cdd9 b6bd 5fbc 19bc 0da5 5b3d
00000160: e66f 163d 7054 0cbe 8072 13be 4cea 22bd
00000170: 34ff 103c a57a 903d e9f8 b3bd a975 fdbd
00000180: 8236 343e 8674 063e 8295 683d cf00 7dbd
00000190: fe72 f43c ce25 b83d ad56 09be 4b36 073d
000001a0: ee42 88bc f2e7 b53d 57a8 213d e1fd e9bd
000001b0: 134a 5cbb bebf d53d 4ea6 9d3c 5cfc af3d
000001c0: 9325 083c 67c1 2c3c fedd 69bd 6974 083d
000001d0: b3b3 e73d ee3e 993d 610f 093e c5dc 473d
000001e0: db1d 9bbb 905b 23be 5981 6bbd 967c d13c
000001f0: ae31 08bc 51de febd 8040 d7bb 9d1b 56bd
00000200: 27d1 f93d 832d 82bb 35eb 02bd 884b d438
00000210: aac9 81bd d906 3f3e b457 6c3c 4095 793d
00000220: a185 453e 3018 5bbd 77f6 5f3d 3c92 073e
00000230: da03 9dbe c941 bebc e6d7 69bc a6c0 6abc
00000240: 2ac0 363e ba46 243c e566 113d 627e 7fbc
00000250: ec0c f0bc 4ae9 a13d 8e77 67bd 46ed 093d
00000260: 238f 123e d372 9dbe b83b 82be 1cc3 cf3d
00000270: e1e5 b33d f294 943c dafe 14be ee2c 7d3d
00000280: 61a2 0ebd e462 d4bd 6f04 dd3c 4753 d33d
00000290: cfeb f53d da63 5f3e 549a abbd 7e1c c33c
000002a0: ad5b 9b3d b418 7ebc 2d77 2c3d b582 94bd
000002b0: e8ce 92bc 2c44 ffbc cc30 3f3d 8dab 003e
000002c0: e690 a83d 5f87 c43d 49f2 2abd 53bd 043e
000002d0: b8a2 173e 2824 233e 048e cf3d 0f6d 543d
000002e0: ab89 f33d 95ec 68be 9ae0 8dbc a877 ee3d
000002f0: b452 8cbd 160e 193e 208b d13d c63f ba3d
00000300: cbc8 573d 976b a03d 303a b9bb 538d 073d
00000310: 5bbc 293e b0d2 c53d 5733 823d ee4b 4d3e
00000320: 6f9e 073e dcd2 3e3e d46c 673e 2623 a7bc
00000330: b290 d4bc 2684 0a3e ba86 bcbd c666 9b3d
00000340: 5b75 393e ce13 f33c 204b 7e3b b8f8 d7bd
00000350: db54 cd3d 9923 dabd ed46 0b3e 81e5 babd
00000360: b23c 84bd a154 e2bd cb07 7dbc 1f3c d1bd
00000370: 200d aabc 90cf aa3c 69d8 6dbe 0a31 613c
00000380: ea3b 0a3d dad4 2fbe fa2b 27be ff3c 04bd
00000390: 95bb b33d 38d4 173e a435 31bd 34e0 603e
000003a0: 1421 8f3d 2030 65be 1a93 063d 1677 273d
000003b0: fd4b 763d c503 013e 5a2e 463e deb8 7cbd
000003c0: befc 70bd 5e24 b13d 05d6 c0bc a332 403e
000003d0: 8ed7 bdbd e3c9 bcbd f17a 443d a74b b33b
000003e0: 9c6e 2abb 881f 17bd 9071 1abd 8110 723e
000003f0: 9306 1bbd 0d33 c53d bd59 4b3e 66af c03c
0.06092056 0.08626067 0.056160994 0.048840296 0.054058008 0.018043472 0.09956857 0.16535781
-0.015038853 0.07880609 0.10303827 0.10059309 0.12870093 0.056503147 0.111649774 0.07851181
-0.00042157015 0.17046367 0.1374252 0.03597474 0.14257568 0.05701423 0.09263461 0.043840703
0.14397746 0.042466953 0.10478445 0.0979756 -0.112456985 0.104342684 0.0865938 -0.08743112
0.020667396 -0.036112532 -0.07339411 0.2086445 0.020035421 0.17144972 -0.18947324 0.0072349203
0.10116929 -0.008795944 0.05348429 -0.0043794466 0.16888538 0.015830442 0.08174681 0.12714157
0.06577102 0.22809665 0.2169614 0.19783655 0.24177223 0.102481216 0.06689759 -0.030953525
0.17972806 0.18141687 0.002920754 0.07884794 0.21362643 -0.10462305 0.05091231 0.14051288
-0.005884756 -0.09565279 0.03685154 -0.05254212 -0.018329471 0.015159016 -0.049583197 0.035658404
0.13489011 0.1387877 0.033424743 -0.019508582 0.050476544 0.08217153 0.10477814 -0.040812828
0.059569824 0.02625283 0.1353497 0.05051174 0.03860362 -0.08928261 -0.00938329 0.0536242
0.03672781 -0.13704085 -0.14399147 -0.039774224 0.008849908 0.070546426 -0.0878771 -0.123759575
0.17598918 0.13130388 0.056783207 -0.06176835 0.029839989 0.08991586 -0.1341197 0.033010762
-0.016633477 0.08882131 0.039467182 -0.11425377 -0.0033613488 0.104369625 0.01924434 0.085930556
0.00830974 0.010544158 -0.057096474 0.033314142 0.11313572 0.07482706 0.13384773 0.048794527
-0.0047337837 -0.15952897 -0.057496402 0.025572103 -0.008312626 -0.12444747 -0.0065689683 -0.052272428
0.12198096 -0.0039727106 -0.031962592 0.000101230165 -0.063372925 0.18654956 0.014425207 0.06093335
0.19289257 -0.053489864 0.054678407 0.13239378 -0.30667 -0.023224728 -0.014272666 -0.0143281575
0.17846742 0.010026628 0.03549852 -0.015594097 -0.029303037 0.079058245 -0.0565105 0.033673547
0.14312415 -0.30751666 -0.25436187 0.10144636 0.0878408 0.018137429 -0.14550343 0.061810426
-0.034822825 -0.103704244 0.026979653 0.10318618 0.120078675 0.21815434 -0.08379045 0.023817297
0.07585845 -0.015508819 0.042105842 -0.07251493 -0.017920926 -0.031160437 0.046677396 0.12565441
0.08230762 0.095961325 -0.041734967 0.12962846 0.14808166 0.15931761 0.10134509 0.05186182
0.118914925 -0.22746499 -0.017319012 0.11643916 -0.06851712 0.1494678 0.10231614 0.09094195
0.052681725 0.07833021 -0.0056526884 0.03309376 0.16575758 0.09659326 0.063574485 0.20048496
0.13244031 0.18635124 0.22600108 -0.020402502 -0.025947902 0.13526973 -0.092053846 0.07587962
0.18111174 0.02967253 0.0038802102 -0.10545486 0.100259505 -0.10651321 0.13601275 -0.09125806
-0.06456889 -0.11051298 -0.0154437525 -0.10216545 -0.020758212 0.020850927 -0.23227085 0.013744602
0.033748545 -0.1717104 -0.1632537 -0.032284733 0.08776013 0.14827049 -0.043264046 0.21960527
0.06988731 -0.2238164 0.03285513 0.040885054 0.06013106 0.12599094 0.19353619 -0.06169974
-0.058834784 0.086495146 -0.023539552 0.18769316 -0.092696294 -0.09218194 0.04796881 0.005471665
-0.002600587 -0.036895305 -0.037705958 0.23639108 -0.037848067 0.09628878 0.19858451 0.023521136

gru.weight_hh_l0 f4 [192, 64]
00000000: 9c87 ccbd a4d3 533d 09b3 1abd c672 40bc
00000010: c721 e13d 53ac 42bd 1e9b 53bd 6b8c 78be
00000020: 9297 33bd 4a72 873d 97fb 1ebc cf36 733d
00000030: bd69 0d3d 20fa 65bd 5205 20bc 5efc 35bc
00000040: 92dc 69bd 088f 653e 2f13 cdbb 5e95 4d3e
00000050: b355 ca3c 77b7 3fbe fb73 92bd d853 04be
00000060: 58c8 5c3d b761 17be 3a49 4d3e 0638 99bc
00000070: 5717 c63c c38c 9dbd d00a bebc e256 953d
00000080: 9be0 eebd 63bd 4bbe e5cd b8bd 2977 19be
00000090: 2efd 623c a383 73bd 9574 1bbc e5d2 65bd
000000a0: 20dd 0d3e 8912 0fbe fdb8 b0bd 762e 59bd
000000b0: b111 5abd 00b9 aabd 3649 9e3d 1f6f 9a3d
000000c0: 9bfa 0dbe 30a8 053c b391 ab3c 2500 98bd
000000d0: 0d67 e43d a487 f3bc 2649 be3d 66ca 833e
000000e0: d8b7 d63d dda8 44bd 587e 913a 3925 0f3e
000000f0: 6e3a 093d 72bf 96bc 00ba a4bd 944b 41bd
00000100: adda 04be 613d bebc c77e 27bd 0af2 f2bd
00000110: 8203 233d 3c0d 033e 3d13 083e 5531 323e
00000120: e69c 8d3d 3961 72bd 80a8 c9bd 5416 3d3d
00000130: c257 90bd ddbb aa3c c215 55bd e3b0 17be
00000140: 6a5b 04be 8dff 34be 7ddb 023d 0ced 24be
00000150: 12d9 51be 841c 373e 5d4f 79bd 5771 533d
00000160: d085 523d 2791 d83a 9dcd 96bd 6c55 0e3d
00000170: 50a2 58be 9efd 0abd 0af9 933d bfbb 15be
00000180: 0e03 3c3e bee2 973c dd0d 5a3d d26d c3bc
00000190: 7b6c 97bd 9f8e 413d 9039 0ebb 0bd7 63bc
000001a0: 98f0 16bd 109f 0c3e 3cea 51bc a614 3e3d
000001b0: b67c 263e 7ea1 b4bb fef7 d73c ff4a 0f3d
000001c0: 407a 103e 72ca 0e3e 097e b83d 5f55 71bc
000001d0: 966f ecbd 65be 5f3d 16a4 93bd a262 44be
000001e0: d16a 1d3e 8168 593e d81b 2e3d cf24 633d
000001f0: 92b6 1e3d f31c 9a3d c8a6 dbbb c063 683d
00000200: e480 c23c 8f98 f9bc a612 4b3e 7b3e 04bd
00000210: 0bbb babd 4fd3 a9bd 2dc2 b93d f11a 22be
00000220: b7fd c6bd c235 fabd 8bfe b23a 7ab2 32be
00000230: 0b52 033c e90c d7bc 95ac 8cbd df37 993c
00000240: f971 d33b da48 27bd e954 993d 475e 75bd
00000250: bd2d f0bd 5413 16be 505b 803d c7e9 4cbd
00000260: 8646 d33d 6130 0abd cd8e 553d 97fd 0a3e
00000270: 9650 023e 65fc 9e3c 28ef f1bc 1100 bdbd
00000280: 9ff3 393e 07f9 50bd 2bfc 0fbd b764 24bd
00000290: 416b 0fbc 5f8f 9b3d d715 81bb 85a1 1a3d
000002a0: 00cf f63b e00b 103e 671d 2ebd a42d a6bd
000002b0: 83a2 c7bd 57e5 1a3d bced 0dbc 4d87 91bd
000002c0: 6f33 8dbd eab1 1bbe b362 4abd 6fbd 07be
000002d0: 104b 233e d756 c1bd 307e f33d dd35 0c3d
000002e0: 887f 653d d3d7 cdbc 74b1 e4bd 4f4a b4bd
000002f0: dbae 61bc 8fec 673d b522 c0bd afe7 b4bd
00000300: b842 1d3e 9b41 713d 8b8f d6bc 0baf 78bd
00000310: e29e 04be c82a 473d c043 b53d 2921 4c3e
00000320: 5bfb be3d cf6a ab3d 7f99 d23d b116 253e
00000330: 1738 e4bd a9c0 e33c 49ff bfbc 2d2f 323d
00000340: ff8b afbd 2ac1 aebd 536d 25bd f870 96bd
00000350: 9168 e7bd 313c f93c 4ac2 febb 73fe 453d
00000360: 2a41 49bd c955 113d 478b 7b3c d09d 273c
00000370: 59bf 3bbe 50c3 4ebd 33f4 683d c982 be3c
00000380: 13b9 2ebc 217e 053e 7844 ee3d 44b6 0d3e
00000390: 4f60 823d 35ff d53d 6961 58bd 2961 9f3d
000003a0: bf1e 4d3d 4229 733d f8fc a33d eb13 113d
000003b0: 3baa 4d3b 38d8 3b3d 06e5 92bd 0e0f bfbb
000003c0: a68f 0a3e 8cf5 5dbe 5ea9 f23d d34e b23c
000003d0: 63e9 febc 92d7 f1bd c358 da3d dc05 14be
000003e0: 2edc 843e ef21 853d 7f9e f03c 9b49 52be
000003f0: c56c 71bd 66d9 853c 5f0d fdbb e59d 0a3e
-0.09986803 0.051715508 -0.037768397 -0.011746114 0.10992771 -0.047527622 -0.051661603 -0.24272315
-0.04384572 0.06613596 -0.009703538 0.05937844 0.034524668 -0.05614674 -0.009766893 -0.011107532
-0.057095118 0.22417843 -0.0062583904 0.2007651 0.024699068 -0.1872233 -0.07151028 -0.12922609
0.053902 -0.14783369 0.20047465 -0.018703472 0.024181051 -0.07692864 -0.023198515 0.07291962
-0.11663934 -0.19896464 -0.09023646 -0.14986862 0.013854308 -0.05945171 -0.009488245 -0.056109328
0.13853884 -0.13971914 -0.08629034 -0.053022824 -0.053239528 -0.08336067 0.07728808 0.07540726
-0.1386513 0.008157775 0.020943498 -0.074219026 0.11152468 -0.029727764 0.09291296 0.25740355
0.10484284 -0.048012603 0.0011100275 0.13979043 0.03350299 -0.018401835 -0.08043289 -0.047191218
-0.12974043 -0.023222627 -0.04089239 -0.118625715 0.039798267 0.12798017 0.13288589 0.17401631
0.069146916 -0.05917475 -0.09846592 0.046163872 -0.070479885 0.020841533 -0.052022703 -0.1481357
-0.12925497 -0.1767561 0.0319476 -0.16106051 -0.20492962 0.17881972 -0.060866702 0.05162176
0.051397145 0.0016522751 -0.07363436 0.034749433 -0.21155667 -0.033933274 0.07225235 -0.146224
0.1836054 0.018540736 0.053235877 -0.023856077 -0.07393738 0.047255155 -0.002170179 -0.013906251
-0.03685054 0.13732553 -0.0128121935 0.04640641 0.16258511 -0.0055124154 0.02636337 0.03498363
0.14109135 0.13944414 0.09008414 -0.014729827 -0.11544721 0.054624934 -0.07209031 -0.1917825
0.15372778 0.21231271 0.042507023 0.055455025 0.03874833 0.07525053 -0.0067032315 0.056735754
0.0237431 -0.030468253 0.19831333 -0.03228615 -0.09117707 -0.08292257 0.09070239 -0.1583059
-0.09716361 -0.12217285 0.0013656182 -0.17450896 0.008015166 -0.026251273 -0.06868855 0.0187034
0.0064527956 -0.04084096 0.074868985 -0.059904363 -0.11727474 -0.1465581 0.062674165 -0.050027635
0.10316186 -0.033737544 0.05213814 0.135733 0.12726054 0.01940746 -0.029532984 -0.09228528
0.1815934 -0.05101874 -0.035152595 -0.04013511 -0.008753599 0.07595705 -0.003939371 0.037751693
0.0075320005 0.1406703 -0.04250851 -0.08114174 -0.097477935 0.03781637 -0.008662637 -0.07105885
-0.06894576 -0.15204588 -0.049410533 -0.13255857 0.15946603 -0.094403915 0.11889303 0.034231056
0.056029826 -0.025127327 -0.11166659 -0.08803236 -0.013774599 0.056622084 -0.0938162 -0.08833253
0.15357482 0.058900457 -0.026191493 -0.06071381 -0.12951234 0.048624784 0.08850813 0.19934525
0.09325286 0.083699815 0.10283183 0.16121937 -0.11143511 0.027801828 -0.02343716 0.04350202
-0.08571624 -0.08532937 -0.040387463 -0.07345766 -0.11299241 0.03042421 -0.007774626 0.048338365
-0.04913441 0.0354822 0.0153530305 0.0102304965 -0.18334712 -0.050479233 0.05687351 0.023255723
-0.010664242 0.13036396 0.11634153 0.1383906 0.06366026 0.104490675 -0.052827273 0.07782204
0.05007815 0.05936552 0.08007234 0.035419386 0.0031381983 0.0458605 -0.07172589 -0.005830652
0.1353136 -0.216757 0.118487105 0.021766102 -0.031117147 -0.11808695 0.10661461 -0.1445536
0.25949234 0.06500613 0.029372452 -0.20535891 -0.05894162 0.016339015 -0.007722541 0.13536794

gru.bias_ih_l0 f4 [192]
00000000: 7520 98bc 7b26 ae3d 2e60 373d d086 79bd
00000010: 5d70 b03b ccfe f63b 1067 633d 9f6e 0abd
00000020: a50b 7fbc e7fb 81bd c534 03bd 3ba7 643d
00000030: ca87 efbb 236f afbc 9a3f bd3d b163 4f3d
00000040: 1cac 133d 4440 233d cb84 1f3e d9d5 0bbc
00000050: 7148 0e3e 129b 29bd cf9e d9bd 79b3 dcbd
00000060: 0e1c 803d b62e 3abd 99e1 0ebe 5fe8 ab3d
00000070: f99d 39be 204b 28bd 730a c83b 036b 0f3d
00000080: 9aad e53c 9105 af3d 3e98 293c 7850 303d
00000090: 2d4a ec3a 4453 0dbd 9ebb 76bd 4bc2 393d
000000a0: 3244 28be 8e17 11bd 1c27 e1bd 4bdc 9c3d
000000b0: b6d5 cf3d 049a 003c bbd1 83bd 6c89 883a
000000c0: 14c1 2c3d 76fc 47bd e626 ddbd 6748 213e
000000d0: ec5b edbd 7d75 123c 1780 ab3d df43 853d
000000e0: 30fd 0b3d fa75 25bd 820d 14bd 5d33 6d3c
000000f0: 5987 b83c a6fb 303c 9f3a 273e f0f5 903c
00000100: d7c2 00be ef5f 263c df53 c0bd 63fe ba3c
00000110: b8a0 e7bd 0661 2dbe 5a12 e4bd 952b ccbd
00000120: d90c b2bd cccb 1c3d 425d 1cb8 aa6b 17bd
00000130: cd57 d3bc 6fc9 963d 8198 abbd b3d4 42bd
00000140: 4f24 533d b717 a73b 6cc3 e03d 8778 0f3c
00000150: e7b3 2fbd 488e 86bd a84b 073e b3f7 d7bd
00000160: 214e 093e c9cf ec3d 98db fd3c 8c35 20bd
00000170: eb71 26bd 5ed4 b5bc b93a b0bc 23c2 a83c
00000180: 0b2f 763d 8722 e0bd 629d 933d 62d7 b9bd
00000190: 7548 babd 2cef 21bd eb69 24bc 291e 6fbd
000001a0: ec6d febb 5b30 143e c196 a53c d8bc babd
000001b0: 6387 603d e11e 1d3e 29cc dabd d90b b9bd
000001c0: f6f8 2ebe b2bd 44bd c9bd 1a3c c917 ecbd
000001d0: d484 cf3d 1188 603d cdb0 7c3d 6672 d0bc
000001e0: dbb4 e1bd 1330 cbbd 2c0b bb3d e55f 0b3e
000001f0: d21d 753d 56fe 803d 4487 a7bd 3078 8d3d
00000200: 489f 9dbd d712 16be a27b e03c a94f 4c3c
00000210: 3b63 ff3c 69f2 0ebd 9300 ebbd 6604 1dbe
00000220: e823 9f3d b773 adbd 5710 713d 1fc3 c83d
00000230: cf7b 273e 9fd9 7c3d d216 d53c 2c3e 8b3d
00000240: 7de1 39be 10df 823d 306d 1939 f1ce e6bb
00000250: f0d4 643c 2255 0bbe 4f31 0d3e e3b7 c1bd
00000260: 561a 873d d449 43bd 58fa 693d 4895 993c
00000270: 27ef 223d 0901 f03d 078f 843d 76f8 c83d
00000280: 31db f83d 5354 ae3c 4a07 67bd 0870 9f3d
00000290: 9cdf a3b9 21c8 15bc 896d 01bd 158d f63d
000002a0: 952a 60bd 5744 003e 0b1b f9bd dae2 bcbd
000002b0: 66da 293d eb17 053d b697 8bbd 264a b5bc
000002c0: 8a2c 01bd 1e7f 42bd 762d 093e 36c3 b4bc
000002d0: 5ed5 9abc 0505 6fbc 4cc7 b6bd 3745 a43d
000002e0: 4b87 fa3d 4c79 fbbd 6406 83bd 8ed6 a23d
000002f0: ea26 a1bc b1e2 8f3d 346d dabd bcd9 75bc
-0.018570164 0.08503433 0.04476946 -0.060919583 0.0053844885 0.0075376984 0.05551821 -0.033796903
-0.015566741 -0.06346875 -0.032032747 0.055823546 -0.0073098885 -0.021415299 0.09240647 0.050632183
0.03605281 0.03985621 0.15578 -0.008534872 0.13894822 -0.041407652 -0.106259935 -0.10776419
0.06255351 -0.045454703 -0.13953246 0.08393931 -0.18126668 -0.04108727 0.0061047613 0.035014164
0.028036881 0.085459836 0.010351239 0.04304549 0.0018027477 -0.034503236 -0.06023752 0.045351308
-0.16432264 -0.035422854 -0.10993788 0.07659205 0.10148184 0.00784922 -0.06436487 0.0010416931
0.04217632 -0.04882475 -0.10798435 0.15750276 -0.11589798 0.008939144 0.083740406 0.06507086
0.034177005 -0.040395714 -0.036145695 0.014477578 0.022525476 0.010802185 0.16330956 0.017695397
-0.12574326 0.010154708 -0.09390997 0.02282638 -0.113099515 -0.16931543 -0.11136313 -0.0996925
-0.08693857 0.038280293 -3.728015e-05 -0.03696791 -0.025798703 0.07362639 -0.08378697 -0.047566127
0.0515483 0.0050992626 0.10974774 0.008756763 -0.042896178 -0.06570107 0.13212454 -0.10545292
0.1340871 0.115630694 0.0309885 -0.039113566 -0.040635984 -0.022195991 -0.021512376 0.020600384
0.060103457 -0.109440856 0.07207753 -0.09074284 -0.09095851 -0.039534733 -0.010035018 -0.058378372
-0.0077645686 0.14471571 0.020213487 -0.0911805 0.054816615 0.1534381 -0.10683472 -0.09035463
-0.17087159 -0.04803247 0.009444662 -0.11527974 0.10132757 0.054817263 0.061692048 -0.025445174
-0.110208236 -0.09921279 0.0913299 0.136108 0.059842892 0.06298511 -0.08180097 0.069076896
-0.07696396 -0.14655624 0.027402703 0.012470164 0.031175246 -0.03489915 -0.11474719 -0.15333709
0.077705204 -0.084693365 0.058853474 0.098028414 0.16355823 0.061730977 0.026011858 0.06798968
-0.18152423 0.06390202 0.00014631893 -0.0070437123 0.013966784 -0.13606694 0.13788341 -0.09458902
0.0659682 -0.04767783 0.057123512 0.01874794 0.039778855 0.117189474 0.06472593 0.09813015
0.121511824 0.021280443 -0.056403436 0.0778504 -0.00031256385 -0.009141953 -0.0315986 0.12038628
-0.05472811 0.1252607 -0.12163361 -0.09222956 0.041468047 0.032493513 -0.06816046 -0.022130083
-0.031536616 -0.04748451 0.13396248 -0.02206574 -0.01890057 -0.014588599 -0.089247316 0.08021014
0.12232836 -0.12278995 -0.06397703 0.07951079 -0.019671876 0.0702566 -0.1066536 -0.015005525

gru.bias_hh_l0 f4 [192]
00000000: 5ad6 3b3e 4a4b be3d 1f57 f73d 0cd1 5d3d
00000010: 9fcd 86bc 5f39 aebd d9e7 ae3c 8fb1 bb3d
00000020: 7638 b6bc 6a52 c23c a454 2b3d a69f 92bd
00000030: 7a3e ac3d 4cad 2c3e d0da ab3d 6a13 003d
00000040: 5770 513c 75f6 87bd 8722 4e3e 341e 893d
00000050: 2f42 55bd 9e73 1b3d b808 693d 9b89 d9bd
00000060: d807 02be a5d9 8ebc 9453 d1bd 8f3a 65bd
00000070: 520e d5bc 5782 f0bb e922 17be 5773 813d
00000080: 9eca 09be 5552 0abe 8add cdb8 8a95 92bd
00000090: 3a76 75bd ad1b 32bc 8eb9 88bd ad8b dfbd
000000a0: dd38 25bd b7e7 81bc b6c1 12be 02f6 8f3c
000000b0: 668e 183e 6496 b73d ee4f ffbd dd10 00be
000000c0: 4fdf 15be a1a6 d53d 7297 e5bd bef6 523d
000000d0: c0e8 293c 03bb 5cbe 1b79 dc3d c696 99bb
000000e0: 1359 18bc 19b7 9b3d e7b1 ec3d 603b fa3c
000000f0: 15db 1c3e 5733 0ebd e32b e6bb 96d7 cebc
00000100: 5858 b0bd 675f 2bbd 351e d3ba 087d e2bd
00000110: ec14 2fbc 72af 16be 7deb 77bc 875b eebd
00000120: 1898 953d b21b d9bd 5f6f fe3b 3875 23bd
00000130: 6c19 4abb a5e7 b53c 2e84 33be 0da9 993c
00000140: c943 3a3c 553e 5c3d 58cc f73d 79a1 06bd
00000150: 8510 5fbd ace6 aebd 03f8 8b3d c386 eabd
00000160: e088 123e f079 003e 90c9 2abd 0680 8dbd
00000170: 3be6 d63b 5e0c 9d3d 680b 463c 337c c5bc
00000180: 2365 6a3d d0a7 51bd 202b ec38 6504 48bc
00000190: 276d 85bc c3b6 f0bc fd66 39be 7d66 69bd
000001a0: 54ee 78bd fe9d f33d 0d02 803d cf03 1abd
000001b0: 322d 9abc 926e 363e 9b2e 86bd c4a5 473d
000001c0: b543 69bd 4fc3 bb3a fd28 5abd 07a4 0cbd
000001d0: 1aa3 8abd 65ed 113e 4836 5f3d 762c 243c
000001e0: e12d 683c 2646 1ebe 78b3 abbd b7e6 723c
000001f0: 2ea8 22be 8fd7 e93b 68f6 ab3c 3ab8 bcbd
00000200: d48d 88bc 051e 66bc f703 b9bd 59b5 1ebe
00000210: c41d 21bc d634 65bb c4e8 f0bd 639c 2ebb
00000220: cf3d b43d 2fc8 133e cc11 0cbe da05 85bc
00000230: ff0d e73d 091f ce3c b02d 9e3d 4756 8f3d
00000240: 96a5 9cbd 23ca 01be 80aa 063e 7def eebd
00000250: 6569 23bd 9d26 0d3b 74e8 37be 2790 4e3c
00000260: 73f3 593e 4f98 a4bd 10f4 89bd 25aa 54bd
00000270: 62e9 283d 714d d03c 67e5 96bd 384c 18bd
00000280: 9553 c03d ba15 a4bd 46be d0bd 2188 bbbd
00000290: 0d39 06be bbd2 58bd 345e fcbd 3a63 493d
000002a0: 365a d13c ab4c df3d d881 68bd 9ba1 253d
000002b0: d092 93bc 0d17 43bc 0900 9cbd ee0a 0d3c
000002c0: 4c94 f7bd 07bd 293d 3deb 01be ff63 523c
000002d0: d0ee b4bd 8d83 f23c 4570 dfbd bc00 963d
000002e0: 0948 1dbd a57d cebd 0b65 12bd b162 0fbd
000002f0: 9b1c dabb edbb d43d d602 40bd 0eb5 27bd
0.18343487 0.09291704 0.12077164 0.05415444 -0.01645547 -0.085070364 0.021350788 0.09164726
-0.02224372 0.023720939 0.041828766 -0.07159357 0.08410354 0.16862983 0.083913445 0.031268515
0.012783132 -0.06638805 0.20130359 0.06695214 -0.05206507 0.037952058 0.05689308 -0.10621949
-0.12698305 -0.017437765 -0.102210194 -0.05596405 -0.026007805 -0.0073397565 -0.14759411 0.063208275
-0.13456199 -0.1350797 -9.8164266e-05 -0.071574286 -0.059927203 -0.010870856 -0.06676017 -0.10915313
-0.040337432 -0.01585756 -0.14331707 0.01757336 0.1489807 0.089642316 -0.12466417 -0.12506433
-0.14635967 0.104321726 -0.112105265 0.051504843 0.010370433 -0.21555714 0.107652865 -0.004687163
-0.009298581 0.076032825 0.1155737 0.03054589 0.15317948 -0.03471693 -0.0070242747 -0.025249284
-0.086106 -0.04183903 -0.0016107025 -0.11059004 -0.0106861405 -0.14715365 -0.015131828 -0.11638551
0.073044 -0.106009856 0.0077647413 -0.03990671 -0.0030837907 0.022205183 -0.17530891 0.018757368
0.0113687 0.053770382 0.12099522 -0.032868836 -0.054459114 -0.08540091 0.06834414 -0.11451485
0.14310026 0.12546515 -0.04169613 -0.06909184 0.0065582073 0.076683745 0.01208768 -0.024107074
0.057225358 -0.05118543 0.000112613896 -0.012208079 -0.0162874 -0.029384023 -0.18105693 -0.056982506
-0.060774162 0.11895369 0.06250391 -0.03760129 -0.018820379 0.17815617 -0.06551858 0.04874207
-0.056949336 0.0014325174 -0.053261746 -0.034336116 -0.067693904 0.14250715 0.054495126 0.010020366
0.014171095 -0.15456447 -0.0838384 0.0148255145 -0.15884468 0.0071362923 0.02099152 -0.09214826
-0.016669191 -0.014045243 -0.09033959 -0.15498866 -0.009833757 -0.003497412 -0.117631465 -0.0026643507
0.088008516 0.14431833 -0.13678664 -0.016238142 0.112819664 0.025161283 0.07723558 0.06998878
-0.076487705 -0.12674765 0.13150978 -0.116667725 -0.039895434 0.0021537908 -0.17959768 0.012607611
0.21284275 -0.08036863 -0.06736004 -0.051920075 0.041238196 0.025427552 -0.07367974 -0.037182063
0.09390942 -0.080119565 -0.10192542 -0.09156824 -0.131077 -0.052935343 -0.12322655 0.049166895
0.025555711 0.10903295 -0.056764454 0.040437322 -0.018014342 -0.011907351 -0.07617194 0.008608563
-0.12088832 0.041440036 -0.12687393 0.012841224 -0.08834612 0.029603744 -0.109100856 0.07324359
-0.038398776 -0.100825585 -0.035740893 -0.03500623 -0.006656242 0.103874065 -0.046877705 -0.04094415
