models/gnn-rnn/gnn_rnn_r_4_linear.pth (torch, 152650 bytes, 17 tensors)

fc_measurement.0.weight f4 [32, 1]
00000000: 6df6 553f 2d4d 633f 8a01 7fbe c33b 7e3f
00000010: 12e4 57be 0063 9d3d 84f7 0fbf db73 2c3f
00000020: 9671 6e3f 0069 50bf f98c 6a3f 8123 883d
00000030: 9b10 543f 8d0c 8d3e 7bb1 123f 0073 4ebe
00000040: 8a4e 5f3f cf2e 913e c9e7 0abf ed5f a53e
00000050: a5ed e1be b4d5 1dbe e6fa fcbe ce02 3d3f
00000060: 7742 48bf e1c9 06bf 7f95 c0be f934 24bf
00000070: 13da 293e 8439 83bf d061 843f 6dfc 6abf
0.8357914 0.88789636 -0.24902931 0.9930994 -0.21083096 0.076848984 -0.56237054 0.6736428
0.9314207 -0.8141022 0.9162136 0.06647397 0.8283784 0.27548638 0.57302064 -0.20161057
0.87229216 0.28356025 -0.54259926 0.32299748 -0.4412662 -0.15413553 -0.4941017 0.73832405
-0.7822642 -0.5265179 -0.37614056 -0.6414333 0.16587095 -1.0251927 1.034235 -0.9179142

fc_measurement.0.bias f4 [32]
00000000: 7d1f 313f 6a30 fa3d 5850 dabe d875 093f
00000010: 2102 273e e6a3 863f 80e3 ae3d 3d14 f6be
00000020: cf36 713e 73da a0be f482 bd3e 2c18 7c3f
00000030: 7765 e73e 457c 14bf b36c f83e 0e59 273e
00000040: 1f07 c33e b11d 27bf 9e7a 90bf 1bf5 f9be
00000050: a1d1 6bbf 1b30 783f d1ef 3c3e 2fd1 ac3e
00000060: e058 bb3e 70cc e13b 6a3c 4f3f 37f4 56bf
00000070: f172 9dbd 4148 3ebf 8aa0 953d 63a4 c3be
0.6918867 0.122162655 -0.42639422 0.5369544 0.16309406 1.0518768 0.08539486 -0.48062316
0.23556064 -0.31416664 0.37013972 0.98474383 0.451946 -0.5800212 0.4852043 0.16342565
0.3809137 -0.6527968 -1.128742 -0.48819813 -0.92116743 0.96948403 0.18450858 0.33753344
0.36591244 0.006890826 0.8095156 -0.8396639 -0.07687939 -0.74329 0.07306011 -0.38211355

fc_measurement.2.weight f4 [32, 32]
00000000: d0d7 863c 8a6d 8dbd 47c8 703e ad26 10be
00000010: 5ee1 adbd be62 b2be 685c 423e 520c 133d
00000020: bb0f 0c3e a69e cfbd f627 57be fa30 b5be
00000030: 07d8 1ebe 62b6 943d 8bbb cd3c 1daa 273e
00000040: 0ac9 01be 8f7a eebd 47f4 4b3e a191 abbd
00000050: 67bb 563e 1fb5 8bbd 1154 fe3d 73f7 30be
00000060: a96d 82bd 632b b63d dd78 0d3d c138 df3c
00000070: 8410 983d 4ddb 313e f57c 24be e04e 49bd
00000080: 4b9d 2a3e c405 0cbd ce1a 98bd 2901 22be
00000090: 472f a4bd bb4e 4c3d bb8c bbbb ec65 9ebd
000000a0: bd86 d93c e1ca e0bd 5e46 07be e5bc a7bd
000000b0: 593f 12be abd3 e03c ba07 383e 46c9 6d3d
000000c0: 7c58 8d3d 3b50 5abc a37b 0bbe 896a e43c
000000d0: a68f 203c 9706 04be b690 60bd 9643 babd
000000e0: 4a33 9f3c aa6b 4fbd 737c 833c eea6 fcbd
000000f0: 0435 c8bd 6b7d c6bd 74cf 1abd 901b 04be
00000100: 4e33 2a3e 6afb 263c e963 1f3e ffe5 a93d
00000110: b94d c5bd f2ee 8d3d dbbe f3bc 51ec 773c
00000120: 81ec d8bd 4ded 33be ea0b ae3d 15e4 bebd
00000130: e0ae c33d 9bff 613d 8ddb 163e 34eb a1bd
00000140: 8675 9fb9 45bc 7b3e cfa3 cc3d 1570 8c3e
00000150: 50f3 2d3e 093d 5cbe b3b2 9d3d 8b4e 3abd
00000160: 4348 aa3c 4308 febd 8bab 3a3e cec4 07be
00000170: cfc8 0d3e c7db 673d e78d cb3d e86c c4bd
00000180: 4c06 553e 48cd f53b d3b1 2c3e 944a 14be
00000190: 0d6b 073e 1ddf 5dbd 5d15 9dbc a9cb dc3d
000001a0: b94a 853c 807d d2bc 4a33 c6bd 1b8c 26bd
000001b0: d2a6 de3d ca3c c0bd 86c9 57bd c570 d7bb
000001c0: 9fac 09be 5769 5f3c 5b65 9f3e 22a4 5abe
000001d0: 847f 573e 4f6a 023e 8a87 b43d b18a 80bd
000001e0: bafe 1b3e 6c3e 223e 91f4 e23d 94d9 af3d
000001f0: 3e78 b6bd 1878 d13d 17e3 81bd f19e a43c
00000200: 1168 b33d fc01 023e f4ee f0bd 7128 84bd
00000210: a3a8 30bd 811b adbc 4c4f 1ebc 6127 bc3c
00000220: 7ad3 3dbe 8c94 01be bc1e fe3d d3a9 753d
00000230: 5c8c 0abd 3749 09be a2ff 08be 4fe9 4ebe
00000240: f92d a9bd 52fb 013d 5844 81bb b5aa 5a3d
00000250: a1d7 89be 0833 eebd 0a7e 99bd 4786 153e
00000260: 3d79 bebc 30b3 cebd 86b2 2e3d 571e 1dbe
00000270: f357 11be 8854 783d e824 d8bd 4f10 c7bd
00000280: 1a34 ffbd 5cb8 5b3e 2d1d 093e 1b7d 073e
00000290: 58e5 38be c9d8 8bbe 5912 39be 333b 913e
000002a0: 66e0 313e a3e2 f23d 7ae5 2e3e 52cc 76bd
000002b0: 9cf4 843d 20ff 2a3e 35ff d1bd dcfc 79be
000002c0: b08b 143e 7ab4 633e 31ae d3bc 3fbb e73d
000002d0: 2480 b3bc 275d bcbe dae0 2fbe e36a 063e
000002e0: e59f c4bd 122d 963d 52bf 5cbe 78e0 10be
000002f0: f683 8b3d 22b5 e1bd 1a7b 1e3d c4bc 4abe
00000300: c2d9 ad3d 2c7d c8bd 3895 833d 5380 a13d
00000310: ac98 c23d 7227 3cbe ae4e c33d 619e 4fbd
00000320: 8d87 b03d bd5a 0b3e 2dba 76bc d747 53bd
00000330: 850f 40bd 583f debd 8e24 893d 6822 57be
00000340: cc03 e03d fd27 303e 0dbd 123e fb35 d6bb
00000350: cc55 2dbe 560f bc3a c6ed 843d 02e1 32be
00000360: 608c 92bd 49fa 0bbe 1bff 51bd 7a3b e9bd
00000370: a058 95bd e30b aebd 91e4 18be 6906 ec3d
00000380: 48f8 c13d 8622 8abd 5224 893d 7234 f6bd
00000390: b3bd 01be a550 97be 0b96 db3d 025b 07be
000003a0: 8eb7 1dbe 8e3d 1f3d b0ca cfbd 7509 33be
000003b0: 5638 39bd bdeb 71bd b48b efbd 2b52 5ebd
000003c0: f90c 44be d7de 023e 0011 f63c 8ca1 8b3c
000003d0: f067 143d 4416 3a3c 8ebe 4c3e a1bb 0f3d
000003e0: 78a5 edbd 42e9 eb3d bddf 3a3e 6007 f93d
000003f0: 8fc8 943d 36c8 6f3e fac8 89bd 2121 b83d
0.01646033 -0.069056585 0.235139 -0.14077254 -0.08490251 -0.3484096 0.18980563 0.03590042
0.13677876 -0.10137682 -0.21011338 -0.3538893 -0.15512095 0.07261349 0.025113842 0.16373487
-0.12674347 -0.1164447 0.19917403 -0.08377386 0.20969926 -0.068216555 0.12418378 -0.17281894
-0.06368572 0.08894994 0.034539092 0.027248742 0.07425025 0.17368813 -0.16063292 -0.049147487
0.16661565 -0.034185186 -0.074269876 -0.15820755 -0.0801683 0.04987977 -0.0057235635 -0.07734284
0.026553506 -0.10976196 -0.13210437 -0.08190326 -0.14281978 0.027444681 0.17971697 0.058053277
0.06901643 -0.0133247925 -0.13621382 0.027882831 0.009799873 -0.12893139 -0.054825507 -0.09094922
0.019433636 -0.050639786 0.016050553 -0.12336527 -0.09775737 -0.0969189 -0.0377955 -0.1290114
0.16621134 0.010191778 0.15565456 0.082958214 -0.09633965 0.06930341 -0.029754093 0.015132026
-0.105919845 -0.17570992 0.08498366 -0.09320847 0.09554839 0.055175405 0.1473219 -0.079061896
-0.00030414405 0.24583538 0.099921815 0.27429262 0.16987348 -0.21507658 0.077001 -0.04548506
0.02078641 -0.124039195 0.18229501 -0.13258669 0.13846134 0.05660608 0.09939175 -0.09591085
0.20803183 0.007501278 0.1686471 -0.14481574 0.1322443 -0.054167856 -0.019175226 0.107810326
0.016270982 -0.025694609 -0.09677751 -0.04066096 0.10871662 -0.093865946 -0.052682422 -0.0065747225
-0.13444756 0.013635955 0.31132016 -0.21351674 0.21044737 0.12735866 0.088149145 -0.06276453
0.15233889 0.15844125 0.110818036 0.085864216 -0.08909653 0.10227984 -0.06342142 0.02009532
0.087600835 0.1269607 -0.11764327 -0.06453026 -0.043129575 -0.021131279 -0.009662461 0.022967996
-0.18537703 -0.12654322 0.12408206 0.05997641 -0.033825263 -0.13406835 -0.13378766 -0.20206188
-0.08260722 0.03173382 -0.003944915 0.053385455 -0.26922324 -0.11630827 -0.07494743 0.14602004
-0.02325117 -0.10092771 0.042650722 -0.15343605 -0.14193706 0.06062749 -0.10553914 -0.097199075
-0.124611095 0.21457046 0.13390036 0.13231318 -0.18056238 -0.2731383 -0.18073405 0.28365478
0.17370757 0.11859634 0.17079726 -0.06025345 0.06491968 0.16698885 -0.10253755 -0.24412864
0.14506412 0.22236815 -0.025839897 0.11315011 -0.021911688 -0.3678982 -0.17175618 0.13126712
-0.0960081 0.07332815 -0.21557358 -0.14148128 0.06812279 -0.110208765 0.038691618 -0.19798571
0.084888 -0.097895 0.064249456 0.07885804 0.09501776 -0.18374422 0.09536491 -0.05068815
0.08619604 0.13608833 -0.015059036 -0.051582184 -0.0468898 -0.108519256 0.066964254 -0.21009219
0.10938224 0.17202754 0.1432993 -0.0065371967 -0.1692726 0.0014347832 0.06490664 -0.17468646
-0.07155681 -0.13669695 -0.05126868 -0.113882974 -0.072922945 -0.08498361 -0.14930941 0.1152466
0.09471184 -0.06744866 0.06696381 -0.12021722 -0.12670021 -0.29553714 0.10721978 -0.1321831
-0.15402052 0.038877062 -0.101460814 -0.17484076 -0.04521974 -0.05906271 -0.11696568 -0.05427758
-0.19145574 0.12780319 0.030037403 0.017044805 0.036231935 0.011357848 0.19994566 0.035091046
-0.11603826 0.115191 0.18249412 0.1215961 0.07264816 0.23416218 -0.06727786 0.08990694

fc_measurement.2.bias f4 [32]
00000000: 9729 35be f4b7 0abe 45fc 8ebc bcbe e33d
00000010: 244e 22be ee12 e4bd b7c8 d63d 2612 0cbd
00000020: 1148 85bd e040 e33d b244 963d 2d13 793c
00000030: 0a98 07be c538 c83d 653b 29be de3f c43c
00000040: 467d d3bd a76a 2e3e 8ad4 cabd e34d 8c3d
00000050: 6ae5 773c 868d 313d fd52 b5bd a179 4cbe
00000060: 27b5 25bd 4adb 2c3e 0fe6 2e3c a2e4 eb3d
00000070: 3b1f dabd a480 693e e1b8 bf3d 5760 953d
-0.17691647 -0.13546735 -0.017454276 0.11120364 -0.15850121 -0.11136423 0.10487502 -0.034196995
-0.06507886 0.11096358 0.07337321 0.015202326 -0.13241592 0.09776453 -0.16526563 0.023956235
-0.103266284 0.17032872 -0.0990382 0.06850793 0.01513038 0.043347858 -0.088537194 -0.19968273
-0.040455963 0.16880527 0.010674967 0.115182176 -0.10650488 0.22802979 0.09361435 0.07293766

type_embedding.weight f4 [2, 32]
00000000: d932 b6bd 7215 65be 245b 9f3f 2511 3a3f
00000010: 32ad ecbf b2e3 723e f8f2 d63f 74eb 8cbf
00000020: 5329 5cbf 8af8 ccbe e807 4b3e 304a 46be
00000030: dedb 9c3f c993 493d 297c 4fbd 05ca 5f40
00000040: d65e 8ebf a678 e6be 12f2 713d 84bb f53e
00000050: 2ba7 2e3d 211b 71bf 552b a53f c43d d33e
00000060: 5aa0 45be a246 2240 2ba9 283f ccb5 fc3d
00000070: 7218 adbf 2e03 23bf 1df8 333f 6366 35be
00000080: db18 bbbf 1206 92bd 0415 0c3f bc01 9d3f
00000090: 4508 0d40 4e9e e53f cf01 993e a653 1ec0
000000a0: f1e5 d5be f5c2 adbf 03b6 e1be 87f1 1ebf
000000b0: ba18 ee3f 66ba 39bf 4ae5 e73e 2a60 07bf
000000c0: 4da1 cd3d ddcc a9be 82ef 613f 0959 8fbf
000000d0: 05c1 85bf 6e1e 84bf 2cfc 3c40 cce2 be3f
000000e0: 2182 18bf 9358 66bf 60e7 35bf c3a0 0a3e
000000f0: 6d5a 92be f101 42bf e0a0 a53f f3c6 883f
-0.08896417 -0.22371462 1.2449689 0.7268241 -1.8490355 0.23719671 1.6792898 -1.1009355
-0.86000556 -0.4003337 0.19827235 -0.19364238 1.2254598 0.049213205 -0.050655518 3.4967053
-1.1122692 -0.45013922 0.059068747 0.47994626 0.042639893 -0.9418202 1.2903849 0.4125806
-0.1929945 2.535561 0.6588313 0.123393625 -1.3523085 -0.63676727 0.70300466 -0.17714839
-1.461696 -0.07130064 0.5471957 1.2266154 2.2036297 1.7938936 0.29884192 -2.4738555
-0.41776994 -1.3575121 -0.44084176 -0.6208729 1.8601296 -0.72550046 0.4529212 -0.5288111
0.10040531 -0.3316411 0.88256085 -1.1199046 -1.044953 -1.0321786 2.9528913 1.4912963
-0.5957356 -0.89978904 -0.71056175 0.13537888 -0.28584614 -0.7578421 1.293972 1.0685714

gcn1.bias f4 [64]
00000000: 68d3 013e 9cfb 583d 37c7 7ebd 1fc7 75bd
00000010: dff5 8c3d 056a 68bd 4bfc 823c d356 773d
00000020: 5c9e a93b 66eb 123d d245 6bbd 21cf 9b3d
00000030: 4b3a c2bc aa53 163e e78d 393d 1923 0a3e
00000040: 6d7f 453d 2385 c13d b677 edbd 058b 9fbd
00000050: d6e9 70bc e091 b0bc e3bd 003e 4a59 ea3c
00000060: b57a 8d3c d261 233d f6cf 973d f669 213e
00000070: 2809 233d 4719 023e 115a dd3d 468f 493d
00000080: c484 0a3e e95a d63d a62d 8e3d 5ce6 c43d
00000090: a6c5 36bd 14ba 233d 6fe7 123e 1b67 193c
000000a0: b2e3 c33d 0894 89bb 283e fcbc b7b8 323c
000000b0: 4b8a 283e 05c9 11be 328d 51ba 7761 c13d
000000c0: d0c7 4e3d 42f8 01bc 6095 5f3d 6c19 013d
000000d0: 5480 693d 4d31 e6bc d27f bb3d 525c 01be
000000e0: 5f1a 8f3d 6e44 ea3b ed56 933d 9990 8fbb
000000f0: 6070 b23d 6a46 1cbc fe8e 353d 391f e13c
0.12678301 0.05297433 -0.062201705 -0.06000435 0.06882834 -0.056741733 0.015989443 0.060385536
0.0051763486 0.035869025 -0.057439633 0.07607866 -0.023709437 0.14680353 0.045301344 0.13489951
0.048217226 0.09449222 -0.11595099 -0.07790188 -0.014704188 -0.021553934 0.12572436 0.02860703
0.017270425 0.03988821 0.07412712 0.15763077 0.039803654 0.12704955 0.108081944 0.0492089
0.13527209 0.104665585 0.069423005 0.0961425 -0.044622086 0.03997238 0.14346097 0.009362961
0.09564914 -0.004198555 -0.030791357 0.010908297 0.16459005 -0.14236839 -0.0007993757 0.09442418
0.050483525 -0.007932724 0.054585814 0.031518385 0.05700715 -0.02809968 0.09155239 -0.12632874
0.06987452 0.0071492707 0.07194314 -0.004381251 0.0871284 -0.009538272 0.04432582 0.027480708

gcn1.lin.weight f4 [64, 64]
00000000: cad8 2b3c 1b11 e33d 5c60 513e a9a0 0c3e
00000010: ca1c 37be f784 6ebd 4456 4f3e 92ea 5a3e
00000020: 6ff2 bbbd bde1 ff3d 15b7 20be 00ff f53d
00000030: 8fa7 7d3e 0c3c b03c ea2e dfbd d11c 813d
00000040: c6ef aa3d 99cc 4f3c f11f 16be 861a 85bd
00000050: 1be0 0bbd c9ac a1bd f64e d63a 120c b6bd
00000060: 4773 983d 9f03 c53d afdf 863c 9188 983c
00000070: 83b5 a7bb 807c e1bd 1786 223c cf7a f4bc
00000080: a155 213b 26ae d23a db7a 633d b5dc 0cbe
00000090: 299f b7bd d562 64be a19e f7bd 5f24 b53d
000000a0: 9d72 4e3e fed7 48be c82e 9cbd bc4f 1c3e
000000b0: 4c1e 0ebe 9e56 1f3e c175 44ba 092e 6abe
000000c0: 0161 7e3d cd5d d6bd e9fa f43c 3b5a 46be
000000d0: 7240 5a3e b205 8dbd 68e7 f33d 90a3 1cbe
000000e0: 7c32 28be c457 7f3d 1fa3 ef3d 87aa d3bc
000000f0: 4f2b 20be b031 15bd 40d6 2ebe a366 613d
00000100: dfa0 9bbb 4980 003e cd04 833e 34c3 e2bd
00000110: aae8 393e bafd 4b3e ebbd a93c b8a4 68be
00000120: 9fda 46be b738 143e 6d58 593e 4d1a bd3d
00000130: 72e1 a13b 8662 b4bd 766f 56be 8522 a9bd
00000140: 18be 21bd fea7 bc3d 27ae 553e 68c7 e1bd
00000150: 9a9c 203e 5d39 473e 5315 53be 5b0a 8fbd
00000160: 0dd8 ebbb 43c2 af3d d3d1 333e b7e6 c93d
00000170: 927d 423e 6e2b 443e 560b 5f3e 3d37 4ebe
00000180: 70c8 2bbe 6b9b 50bd dd51 113d 9157 573d
00000190: e9ef 343e 6c72 663e 6882 e5bc fc5c 08be
000001a0: c42b 9abc 2f1f 90bb d542 ef3d 0675 403d
000001b0: 7ebd d03d 2127 3e3d d2a7 3d3e 1f53 243e
000001c0: 0a9e 5cbd caed 3fbe dfc7 303e f4d8 dbbc
000001d0: 7632 37be 35a1 92bd 72f8 443e b24f 8cbd
000001e0: 15c7 52bd bb95 cd3d ecd6 233e eddc 083b
000001f0: 2aa2 43be 3ede 00be 1b34 13bd e831 2f3d
00000200: b5cd f6bd 0a96 133e 7a84 79bd 158b d0bd
00000210: 46c6 853d 753d 30be 039e 4d3e d2cc 3c3d
00000220: 4ebf f9bc e685 2bbe 825e b7be 2bf7 683d
00000230: efde 713e 47f5 28be 0a38 bc3d 56b1 95be
00000240: 37f6 4cbe 5ac0 203d e10d 8cbe 9ea9 49be
00000250: f621 5ebd a4cc cabd e130 263e 3ce6 0dbd
00000260: fda9 273d c3ff a3bd 5974 2d3c d998 d9bc
00000270: 1f44 023c bfbf 9d3e f6cc 39be 41de 25be
00000280: 4b08 62be 300f dbbd f526 853d 1252 d4bd
00000290: dff9 c93d b2c3 133d 4a24 c0bc 1459 78be
000002a0: 88e5 d53d f204 3f3e 081d b93c 3179 05be
000002b0: c20a 353e 9765 e93d 4cba 9ebc 3184 863e
000002c0: b526 78be a081 a1bd 7f7c 4e3e 8324 04be
000002d0: e87a a4bd b2d9 0cbe 2967 64bd a006 5f3e
000002e0: 54a3 d83d d2cb 22be 5bf8 dcbd 18ec 2d3d
000002f0: c351 1cbe c1a1 26be b2bb 34be 1d56 2b3e
00000300: 1e2a 183d 5b86 e13d 7fea b9bd e4a5 87be
00000310: 7e46 21ba b73c 3a3d 5b8a bcbd 06ae e93d
00000320: 7e71 d23d 0e88 63bd 182b 483d bb11 733d
00000330: a310 5cbe 1cab df3c 7a6a 83be cbb2 aebd
00000340: a913 66bc b73b 6f3e bf46 7fbe 9c23 183d
00000350: 2c1f 71be 7e25 043e 5d09 bfba 0ec4 f9bd
00000360: 9974 ec3c 3655 263e ef94 923d 49ed c5bd
00000370: 13f5 c5bd 028b a83e ab62 6fbb 7fd4 e9bc
00000380: 32a0 333d d355 e5bc 26ea d3bd dc72 c6bc
00000390: bd97 433e 9c97 bcbd 22f9 d9bd b74a 9f3d
000003a0: 6bb8 05bd d599 643e ed2c 383e c797 2c3d
000003b0: 2e60 37be 35e5 b13d 3241 213e 4a56 933c
000003c0: 39dc 123e bbe2 8fbd 83fc 77be c8c0 96bd
000003d0: 292b 073d 586f 6f3e 0a47 0f3c 0347 96bd
000003e0: b75a a9bc 2673 c4bd 6aa8 0fbe 1a34 06be
000003f0: 8d80 b73d 5bfe 3f3e b264 153e 74bc 7e3d
0.010488698 0.11087247 0.20446914 0.13733162 -0.17882076 -0.058232274 0.20247751 0.21378544
-0.091771 0.12494228 -0.1569484 0.12011528 0.2477095 0.021513008 -0.1089762 0.063043244
0.083465144 0.012683057 -0.14660622 -0.064991996 -0.03414927 -0.07894284 0.0016350436 -0.08889021
0.074438624 0.09619831 0.016464083 0.018619807 -0.0051180734 -0.110100746 0.009919665 -0.029843716
0.002461769 0.0016073629 0.055537086 -0.13756068 -0.08965904 -0.22303326 -0.12090803 0.08844828
0.20160909 -0.19613644 -0.0762611 0.15264791 -0.13878745 0.15560386 -0.00074943533 -0.22869124
0.06210423 -0.1046711 0.0299048 -0.19370358 0.21313646 -0.06885852 0.119093716 -0.15296769
-0.16425508 0.06233956 0.11701035 -0.02583815 -0.15641521 -0.03642434 -0.17073917 0.055029523
-0.004749402 0.12548937 0.255896 -0.11072388 0.1815516 0.19921008 0.020720443 -0.22719085
-0.19419335 0.1447476 0.21225138 0.09233532 0.0049402053 -0.08807854 -0.20940956 -0.08258537
-0.03948793 0.092117295 0.20867215 -0.11024362 0.15684739 0.19455476 -0.20613603 -0.06984397
-0.007197386 0.08581974 0.1756051 0.098584585 0.18993214 0.19157192 0.21781668 -0.20138259
-0.1677568 -0.050929468 0.03547846 0.052573744 0.17669643 0.22504586 -0.028016284 -0.1331672
-0.018819697 -0.0043982486 0.11682669 0.046986602 0.10192393 0.046424035 0.1852105 0.16047333
-0.053861655 -0.18743053 0.17263745 -0.02683685 -0.17890343 -0.07159654 0.192354 -0.06851138
-0.05145939 0.100383244 0.15999955 0.0020883635 -0.1910483 -0.12584779 -0.035938364 0.042772204
-0.12050954 0.14412704 -0.060917355 -0.10182778 0.06531958 -0.17210944 0.20079808 0.04609377
-0.030486729 -0.16750297 -0.3581429 0.056876343 0.23620199 -0.16499816 0.09190376 -0.2923686
-0.20015799 0.03924594 -0.2735434 -0.1969361 -0.054231606 -0.09902313 0.16229583 -0.034643397
0.040933598 -0.08007767 0.0105868215 -0.026562141 0.007950812 0.30810353 -0.18144593 -0.16198064
-0.22073476 -0.10696256 0.06501571 -0.10367216 0.09862112 0.0360753 -0.023454804 -0.2425273
0.1044417 0.1865423 0.022596851 -0.13034512 0.17679885 0.1139633 -0.019375943 0.2627273
-0.24233516 -0.07886052 0.20164679 -0.12904553 -0.08031255 -0.13754919 -0.055762444 0.21779871
0.10578027 -0.15898064 -0.107895575 0.042461485 -0.15265565 -0.16272642 -0.17649725 0.16732068
0.03714954 0.110119544 -0.0907793 -0.26493752 -0.0006152167 0.04546806 -0.09206077 0.114101455
0.10275553 -0.055549674 0.048869222 0.05934308 -0.21490721 0.027303271 -0.25667173 -0.08530196
-0.014042773 0.23362623 -0.24929331 0.037143335 -0.23547047 0.12904927 -0.0014574934 -0.121955976
0.028864192 0.16243443 0.07157313 -0.09664399 -0.09665885 0.32918555 -0.0036527317 -0.028543709
0.043853946 -0.027995026 -0.10347395 -0.024224691 0.19100852 -0.09208605 -0.106432214 0.077779226
-0.032646578 0.22324307 0.17985888 0.042136934 -0.17907783 0.08686296 0.15747526 0.017985482
0.14341821 -0.07025667 -0.2421742 -0.07360989 0.033000145 0.23382318 0.008744964 -0.07337763
-0.020673139 -0.09592275 -0.14029089 -0.13105813 0.08960066 0.18749373 0.14589193 0.06219144

gcn2.bias f4 [64]
00000000: b4ff c33d d677 393d da19 74bd 2cca 143d
00000010: 64c2 ce3c 5eb5 0a3d c696 ff3b 1c54 333d
00000020: ecb7 c339 9315 dcbc 8d6c faba ace8 e83c
00000030: 738d 8a3b a50d 6b3d 9e3c 103e 449f 953c
00000040: b99c 5e3d 582f 06bc a2fe 963c a0e2 443d
00000050: d0b7 073d bd23 f9bb a3a4 3b3d e210 693b
00000060: 8ff8 893d 062b 45bc 063b b63c 38f9 303d
00000070: 5e51 9b3c 6ba5 433d 3190 c23c c897 b3bc
00000080: 1dc9 0b3c e235 bc3d 9edf 12bb 6eb9 0b3d
00000090: 0f7e 5b3d 3bdd 1c3c 041e 293c 358c 6e3d
000000a0: 700c 033d 9438 ee3c ac6c 493d fa2a 343d
000000b0: 7777 1b3d 450d 333d afd6 273d 7719 e3bb
000000c0: 49bf cd3c 99fc 013d 8fa2 0a3d 851b f33c
000000d0: eedd d63c 23e6 043d d27a 0a3e 1057 0a3d
000000e0: ee90 e13b dd3c dd3c b347 f63c 7599 4b3b
000000f0: ff75 6c3d 49bd ad3a 3f2f 943d 9328 ef3c
0.09570256 0.0452803 -0.059594966 0.03632562 0.025239177 0.03386437 0.007799956 0.043781385
0.0003733033 -0.026865756 -0.0019105837 0.02843126 0.004228288 0.05738606 0.14085624 0.01826442
0.05434868 -0.008189999 0.018431965 0.04806769 0.03313428 -0.0076031373 0.045811307 0.0035563041
0.06736862 -0.012034183 0.022244941 0.043206424 0.018959697 0.047765177 0.023750396 -0.02192296
0.008531836 0.09189965 -0.0022411118 0.034112386 0.053587016 0.00957423 0.010322098 0.05823918
0.031994283 0.029079713 0.049175903 0.0439863 0.037955727 0.043713827 0.040976223 -0.006930526
0.025115626 0.031735037 0.033846434 0.029676208 0.026228871 0.032446038 0.13523415 0.033774436
0.006883732 0.027006561 0.030063486 0.003106681 0.057729717 0.0013255264 0.07235574 0.029194152

gcn2.lin.weight f4 [64, 64]
00000000: f3ff 183d dec7 5c3c 23ca 833e a5f3 68bc
00000010: a4cd 493e b3c3 32be ad4d eabd 469c 063d
00000020: cf07 103e 6b58 8c3d 91ea 533e d626 fabd
00000030: 5e50 513e 51b6 0a3d 1b7d 483d a24d 453c
00000040: 2b70 21be ca11 f23d ea5d 4f3d d80e 263e
00000050: 14c2 233e ae44 36be 41e8 adbd 5be5 3fbd
00000060: b151 17be a8b5 493e 117b 05bd 3a89 78be
00000070: 0b33 133d 71d8 dabe 9f09 2c3e e1e5 683d
00000080: e7da 383e 18e0 c6bd 5d87 19be 904b 89bd
00000090: 49f5 75bd 6a25 1b3b 4d57 36be 13e5 563e
000000a0: 2d33 56be 5a45 ddbb 20a6 453b 6995 6dbd
000000b0: 1512 303e 6f90 02be d5b0 02bd cbb3 06be
000000c0: fbdc 2f3d e9ac 6bbe 3ebd 2c3e 3f1e a2be
000000d0: 957f 5dbe 65d9 883b e069 f3be 4d73 833e
000000e0: b4e2 223e 9287 cfbd 574f 1b3e 747e 20be
000000f0: 6e87 be3d 4cb9 1cbe 70a3 e4bc 1528 78bd
00000100: 9f5e b23d 9149 9f3d 0b2c 5cbe a46b cbbc
00000110: 49da 483e a8e1 543e 459d 073e 29b6 233d
00000120: 9809 d63d 63d2 163e 1e56 3abe 3deb 0d3c
00000130: 53aa 43be ffc6 6a3c c76f 6d3c 6ed0 cdbd
00000140: 82ff b63d ea4c 413e d54e 50be 90f1 50be
00000150: ecc8 a8bd 5ecf f13b d228 68be 7664 c5bb
00000160: f597 503e 26b2 10be 94a8 9abc 9c57 9ebd
00000170: 712d 243e 44f6 f8bd dc63 533e 906e e4bd
00000180: b646 ed3d edea 14bd 7972 683e fe0b e6bd
00000190: 40d7 ebbd 8b08 6f3e b782 e5bd f499 a33d
000001a0: e5dd c33d 1d48 3c3c 384c 1b3e 7271 26be
000001b0: b6bd f4bc ebac ebbd 75ed 003e 9c99 513e
000001c0: a27a 5cbe 9aee 64bd a2ec febd 3259 f9bd
000001d0: 5736 bf3d 88b1 913c 57cb 3ebe 677c 1abe
000001e0: d2b8 fabd 4d4e 6e3d f89d 0fbe f048 30be
000001f0: a01d f7bd 1fae 3c3e 07db 4c3e 2244 8ebd
00000200: d0b3 8a3c 9868 b9bd 9474 95bd 7d8f 1c3e
00000210: 4109 39be 16af 29bd 0f64 e53d 4c3d 6cbe
00000220: 0b74 683e b05c c63d 0aca 173e 3325 a6bd
00000230: 4b30 bdbd 2c41 36be e4dc 5dbe c230 89be
00000240: afdf 9bbd ecf0 b7b9 91b8 2cbe faa7 4a3e
00000250: 3994 41be 0323 913d 62fc e7bd d227 183e
00000260: ef9b 13be 693e 213c c394 473c b837 b63d
00000270: e185 53be be5d 07be 1924 4ebd 5e06 8cbe
00000280: 814a 03be 7bab 6dbe 7ecb 3d3d 9b71 d1bc
00000290: 2485 1ebe e9c4 263e be62 7a3d 898a f5bd
000002a0: dba5 8dbd 28ab e43d 5fc7 a4bd c34d 9ebb
000002b0: ff11 e13c 9708 0ebe 783b 29be b9c3 bbbd
000002c0: 53be 61be d528 fb3d c5e9 8e3c 789d 05be
000002d0: c668 6cbd d22b b9bc 5458 ff3c a5dc 323e
000002e0: 29b4 76be fc40 06be 4323 d23c 01e3 39be
000002f0: e7ee 95bd f19a e4bd 1288 993d 5f8e 24be
00000300: 5ff9 583e df17 2c3e a530 3ebe f347 05be
00000310: 2312 8a3c 11d1 07be 9747 b7bd eca1 593e
00000320: fa59 bb3d 4273 b7bd 7002 83bd ed6c 9e3d
00000330: 7711 863d 4187 743e 0068 493e d85b 6e3e
00000340: 1113 04be 740e f6bc 0c32 483d dbcb 18be
00000350: 542e 14be 9577 453d fc39 483e 5b9b 1b3e
00000360: d337 5b3e e333 313e 780d 413d aa2a 1dbd
00000370: a2b0 e43d 962e 77bd 2a4b 643e 133b 743e
00000380: ea67 82bd 87a2 153e b6b2 80bc 1360 593e
00000390: 60e7 84be e7cc 3d3d 34b0 21bd 476b e13d
000003a0: 24b5 673d 0c86 093e cad3 8cbe 8e05 92bd
000003b0: 9882 973e 5bc0 84bd c4c2 2a3e c48b f0bd
000003c0: 96a1 2f3e 7e4c 02bd 9c93 c6bc 06fa 8e3e
000003d0: 7203 683e 7d87 1cbe b2a6 66bd 80ac ce3d
000003e0: 3dbf aa3b b789 6d3e 435a f53d 25b9 213d
000003f0: 70aa ddbd 3927 9b3d 1cce 763e d225 6b3e
0.037353467 0.013475386 0.25740156 -0.014218246 0.19707352 -0.17457466 -0.11440597 0.032863878
0.14065479 0.06852802 0.20694949 -0.122144386 0.20440814 0.033865277 0.048947435 0.012042435
-0.15765445 0.11819799 0.050626673 0.162166 0.15992004 -0.17799637 -0.084915645 -0.04684959
-0.14777257 0.19698203 -0.03258807 -0.24271098 0.03593735 -0.42743257 0.16800545 0.056859855
0.18052255 -0.09710711 -0.14993043 -0.067038655 -0.060048375 0.0023673424 -0.1780674 0.20985822
-0.2091796 -0.006752652 0.0030158833 -0.058003817 0.17194398 -0.1275041 -0.03190692 -0.13154523
0.042935353 -0.23015179 0.16869065 -0.316637 -0.216307 0.004176306 -0.47541714 0.25673905
0.15906793 -0.1013328 0.15166984 -0.15673238 0.09303175 -0.1530506 -0.027909964 -0.0605851
0.08709454 0.077777036 -0.21501176 -0.0248316 0.19614519 0.20789206 0.13243587 0.039968643
0.104510486 0.14728694 -0.18196914 0.008662042 -0.19107942 0.014329671 0.014491982 -0.100495204
0.08935453 0.18876997 -0.20342572 -0.20404649 -0.08241448 0.0073794564 -0.22671822 -0.006023939
0.20370467 -0.14130458 -0.018879212 -0.07731554 0.1603296 -0.121563464 0.20643562 -0.111539006
0.11585753 -0.036356855 0.22699918 -0.11232756 -0.11515665 0.23343103 -0.112065725 0.079883486
0.095638074 0.0114918025 0.15165794 -0.16254213 -0.029875617 -0.11507591 0.12590583 0.20468754
-0.21531156 -0.05589161 -0.12447478 -0.12175216 0.093365364 0.017784849 -0.18632255 -0.15086518
-0.12242283 0.058180142 -0.14025104 -0.17215323 -0.120661974 0.18425797 0.20005427 -0.06946589
0.016931444 -0.09053153 -0.07297626 0.15289111 -0.18069936 -0.04142674 0.11200725 -0.23070258
0.22700517 0.096856475 0.14823166 -0.08112564 -0.09237727 -0.17798299 -0.21666294 -0.26795012
-0.07611024 -0.0003508398 -0.16867281 0.1979064 -0.18904199 0.07086756 -0.11327435 0.1485894
-0.14414953 0.00984154 0.012181464 0.08897346 -0.2065654 -0.13219354 -0.050327394 -0.27348608
-0.1282139 -0.23209946 0.046336643 -0.025566867 -0.15480477 0.16286053 0.061129324 -0.11989314
-0.069164 0.11165458 -0.080458395 -0.0048310473 0.027474402 -0.13870464 -0.16526592 -0.091681905
-0.22045259 0.122636475 0.017445454 -0.13048351 -0.057717107 -0.022603903 0.031170048 0.17466982
-0.24092163 -0.13110727 0.02565158 -0.18153001 -0.07320958 -0.11162365 0.074966565 -0.16069935
0.21188878 0.16805981 -0.18573244 -0.13015728 0.016854351 -0.13263346 -0.089492016 0.21253175
0.09148021 -0.089575306 -0.06396949 0.0773562 0.065463 0.2387972 0.19668579 0.23277223
-0.12897898 -0.030036189 0.048875853 -0.14921515 -0.14470798 0.048209745 0.1955337 0.15195982
0.21408014 0.1730495 0.047131985 -0.038370766 0.111665025 -0.060347162 0.22294298 0.2385066
-0.06367476 0.1461278 -0.015710216 0.21228056 -0.25957775 0.04633799 -0.03947468 0.1100679
0.056569234 0.13430041 -0.27505332 -0.07129966 0.29591823 -0.064820014 0.1667586 -0.11745408
0.17151484 -0.03181123 -0.024240308 0.27925128 0.22657564 -0.1528606 -0.056311317 0.100914955
0.0052107857 0.23197065 0.11980107 0.03948321 -0.10823524 0.075758405 0.24102062 0.22963646

gru.weight_ih_l0 f4 [192, 64]
00000000: 8e79 a5bd 19d0 fc3d 1c14 06b9 7d35 cfbc
00000010: 2d60 263e 5109 4a3e 2e4d 7d3d 21cb 013d
00000020: 4cf0 623d 7ba3 10bd 2a53 5dbd aefd 863d
00000030: f7d6 a23c 0deb 303e b5c8 a23d e4cf 573d
00000040: 4546 95bd d645 dfbc 572d 4b3d 53b7 2dbd
00000050: 7318 333e 97e3 593d 1745 dd3c 7c5e 2e3e
00000060: 4c66 00be 141b 2bbe fe1b e93d a50b 143e
00000070: 8d80 193d 0b41 243d 4f8a 3fbd 9f4c bcbc
00000080: 0d78 8a3d 1888 4dbc 8fc1 25be aa03 013e
00000090: 43d9 12bd 7034 c33d 6ded 3b3e b9af d43c
000000a0: 8b8d 063e 3c64 e93d 3c74 4e3d 1831 c5bc
000000b0: c4d5 84bb 240f 2abd e98a b23d cef7 c03d
000000c0: 5dea f53c 6fce 123e 7053 7c3d cba8 db3d
000000d0: c179 433e bf28 3c3e 590b 7a3e 6bcc be3c
000000e0: 6bb1 803d 3f08 9d3c 612c d93d 7698 053e
000000f0: e04c a63d 80c5 89bd ab73 a53c 5fee bcbc
00000100: 29e7 33bd c5b4 34bb ac5a 06bd 30ab 13bc
00000110: 1b9d 583d a927 753d e8d6 ab3d a720 8e3d
00000120: e3c4 313d 81a2 7b3d fdcb 6ebd 1445 34bd
00000130: 9054 0c3d 7c92 ac3d b3ae c5bd 8462 0d3e
00000140: c868 5a3e 7f87 23be 3e3d 7fbc b222 973c
00000150: de41 013d aa7d 8e3d 8a3d 4dbd e109 ee3d
00000160: 6fd6 44be b8c2 82bc e8fa 9abd 3019 ccbc
00000170: 5376 da3d a43c b83d 2464 a7bd 9ea7 b83c
00000180: 3e7c 883c 6534 14be c436 b03d 1246 883d
00000190: 19c3 503d 4889 983d 4ae1 ce3d a3ba bdbd
000001a0: 41a2 e53d f2cd 0d3e 3be4 8c3c 2854 11bb
000001b0: 5c70 173d 98dc 003d d382 093d 99cb 13bd
000001c0: 4f9f bf3d f117 e23c 2db4 053d f2dd bbbc
000001d0: d9ea 5a3e 6eba 95bd 3603 b13d f940 72bd
000001e0: 17f4 ff3d 4d15 a2bc 8b69 563c a459 fc3c
000001f0: 43ff 403e 9daa e7bd 7f7f 5dbe 77e2 dcbd
00000200: 1821 17be 6cdd d7bd 446d 0cbd bd8a 9d3d
00000210: 4ac3 b8bc ecae fb3c 023e 093d 0233 12bd
00000220: 4cc3 1d3e bfd2 2b3e 287e 9a3d ef54 c93d
00000230: 986c 783c 9443 bf3d 4648 a8be d971 803d
00000240: bf55 7abd c04d 4fbd e07f 303d 5b02 5dbe
00000250: bf19 50bd 1ad8 993d fa9c 3abd 9f77 d03b
00000260: c15b d9be 2c85 26be 479e 80bd 7419 d43d
00000270: 7608 a93c f189 ad3d 1ecb 253d fce1 963d
00000280: 5742 3b3c 0034 4cbe aa3e 5f3d 328e 6bbd
00000290: f6de cabd ef4c 223d f33a 063e ce52 bd3d
000002a0: 9fef 9dbd 036d 4bbd f4a9 053d 3ed4 c53c
000002b0: 07d2 fa3d 900a ac3c 3831 18bd 5a92 e03d
000002c0: b355 eb3d d8dd a8bc 30a9 51bd f8a0 ce3d
000002d0: c213 2f3e cd60 49bc 9427 0fbd efe9 a7bc
000002e0: b812 253d 6613 97bd 0034 82bd 9424 6fbd
000002f0: 1584 b83c 40ef e8bc caca 92be c338 cfbc
00000300: 19db 9c3d cb33 1b3e d912 a8bd 1c3a 6cbc
00000310: 1181 e53d f43b 7cbd 69b7 0f3e c08b 193e
00000320: cc15 193d c8d0 cdbc 76f1 873d a596 183e
00000330: 0115 813d 96f0 933d 0806 f53d 2843 fa3d
00000340: 13d5 b03c ed8a f1bd 2fd4 543d 50d9 aabb
00000350: e09d e33d 2c61 55bd 5767 2a3e 0954 d83d
00000360: 6cec d4bd 2d94 ccbd a174 993c 20e2 bd3c
00000370: 1215 6f3d 1e39 0ebc 246a 0f3e 00e3 343b
00000380: 4322 1f3d 601b af3b 694e 17be 4b9c 1cbd
00000390: 8a78 66bc 62eb 2b3e 0bca 563d 68a7 97bc
000003a0: 6bf2 1f3d 9609 013d 33de b43d 3adf a03d
000003b0: bc12 063e 3bd4 d1bb 092e dd3c 736b 6cbd
000003c0: 1d2c 933a 54ce 76bd 113a 3f3d bc7c b1bc
000003d0: e921 a63a 90be 2d3e 4b9a 2b3e ee27 a03d
000003e0: 6aa8 df3d 7c25 013e 1922 7e3d 4132 923d
000003f0: 879f 183d 54c9 debd eff2 163e 6f4b 30bd
-0.08079825 0.12344379 -0.00012786727 -0.02529406 0.16247626 0.19730116 0.061841182 0.03168786
0.055404946 -0.035312157 -0.05403439 0.06591354 0.019877894 0.17277165 0.07948438 0.052688494
-0.072887935 -0.02725498 0.049603786 -0.04241116 0.17489795 0.053195562 0.027010484 0.1702823
-0.12539023 -0.16709548 0.11382292 0.14457567 0.03747611 0.040101092 -0.04676276 -0.022985755
0.06761179 -0.012544654 -0.16187118 0.12599054 -0.03585173 0.09531486 0.1835229 0.025962697
0.13139932 0.11396071 0.05040382 -0.024071261 -0.004053803 -0.041518345 0.08717901 0.09422265
0.03001898 0.1433656 0.06160301 0.10725554 0.19089414 0.18374918 0.24418391 0.023290833
0.0628384 0.019168971 0.10604168 0.1304644 0.081201315 -0.06727123 0.020196756 -0.023062883
-0.043921623 -0.0027573567 -0.032801315 -0.009012982 0.052884202 0.059852276 0.083905995 0.06939822
0.043400656 0.061434273 -0.058300007 -0.04401119 0.034260333 0.08426377 -0.09652462 0.13807112
0.21329033 -0.15969656 -0.015578566 0.018449161 0.031556956 0.06957562 -0.050107516 0.11622978
-0.19222425 -0.01596199 -0.07567388 -0.024914354 0.106671 0.08995941 -0.08173397 0.022540864
0.016660806 -0.14473112 0.08604196 0.0665399 0.05096731 0.07448059 0.10101564 -0.09264114
0.11212588 0.13848093 0.017198673 -0.0022175405 0.03697239 0.031460375 0.03357203 -0.036082838
0.093565576 0.027599307 0.032642532 -0.02293298 0.2137865 -0.07310949 0.086431906 -0.059143994
0.12497728 -0.019785548 0.013086687 0.030804463 0.18847375 -0.11311839 -0.21630667 -0.10785382
-0.14758718 -0.1054028 -0.03428389 0.07692478 -0.022554059 0.030723058 0.0335064 -0.035693176
0.15406531 0.16779612 0.07543594 0.09830653 0.0151626095 0.093390614 -0.3286764 0.06271715
-0.06111693 -0.050611258 0.0430907 -0.2158293 -0.050805803 0.07511921 -0.04555986 0.006361916
-0.42452815 -0.16261739 -0.06280189 0.10356417 0.020633917 0.08473576 0.04047691 0.07367322
0.011429391 -0.19941711 0.05450312 -0.057508655 -0.09905808 0.03962415 0.13108425 0.09244309
-0.0771172 -0.04966451 0.032632783 0.024149057 0.12247091 0.02100113 -0.037156314 0.10965414
0.11490955 -0.020613596 -0.05118674 0.10089296 0.17097381 -0.0122911455 -0.034949854 -0.02049729
0.040301055 -0.07376747 -0.063575745 -0.058384493 0.02252392 -0.028434396 -0.2867034 -0.02529562
0.07658977 0.15156476 -0.0820672 -0.014418151 0.11206258 -0.061580613 0.14034809 0.14994717
0.037374303 -0.025123969 0.06637852 0.14901216 0.06302834 0.072236225 0.11964041 0.1221984
0.021585977 -0.11794076 0.051960167 -0.005213894 0.11114097 -0.052094623 0.16640984 0.105629034
-0.103966564 -0.099892 0.01873237 0.023179114 0.058369704 -0.00868061 0.14005333 0.0027601123
0.038851034 0.0053438395 -0.14776005 -0.03823499 -0.014066825 0.1678901 0.052438777 -0.018512443
0.039049547 0.031503282 0.08831444 0.07855077 0.13093084 -0.0064034737 0.02699949 -0.05771966
0.0011228357 -0.060255364 0.046686236 -0.021665923 0.0012674901 0.16967225 0.16758077 0.07820116
0.10920794 0.12611955 0.062044237 0.071384914 0.037261512 -0.10878244 0.1474111 -0.04304069

gru.weight_hh_l0 f4 [192, 64]
00000000: bb51 c53d 371a 313e a3f7 ac3d 3fb6 e1bc
00000010: 5253 6dbd cfbf 393e 5c8d e93c 19d3 f13b
00000020: 6f16 773b 5911 ab3c c658 a4bd 804f c7bc
00000030: 9753 c4bd cb88 293e 8c31 cfba 91d1 c43c
00000040: 3d3d 553e a992 cabd 5614 283e a258 eebd
00000050: afa1 a63d f23d e1bd aaf5 053e a01b c738
00000060: 7c3a eabb e296 433d 1027 bd3d 588f 2e3c
00000070: 966d 013d 93ad 9abd 3afc 3ebd 1f61 0abd
00000080: 8092 1cbe 7d85 39bb 528e 203d f221 9ebc
00000090: e37b 4bbd b2cd 043d 498e 1d3e ec56 38be
000000a0: 2ea0 6d3c c1b7 07be 3bcf 103e 99b4 e1bd
000000b0: 6d05 eabd 9275 b83c 94d9 f4bd 39b1 2abe
000000c0: dc5e 053e c589 86bd b4b1 3dbe 4100 14be
000000d0: 14dd c0bd ea65 d43c 77ab 02be ee34 03bd
000000e0: f919 44bd 6baa 1c3d c56b c33d 9e1c 3c3c
000000f0: 3f39 93bc 3c3d c43d 83b7 c6bb e513 2c3d
00000100: eb72 a63d 27c9 06be c2d5 003d ce1d c53d
00000110: 1fc3 153d 5b1b 53bd a20a 5b3d aa92 e63d
00000120: 6512 0abd 261b aa3d 3640 573d 48fd 18bd
00000130: bbb2 fdbd df45 953d c29b 12be fb11 6a3e
00000140: 3728 99bc 31fb 253d 8192 38bd f23a d2bd
00000150: 5c3b 5b3e bb69 40bd fb9b c1bd 2fb1 c73d
00000160: 8baa afbd c3b1 1e3e 0258 453d 896a 143e
00000170: 781e 3e3e 5a2f 513d bf4c cbbd e4db 1bbd
00000180: e71c cebc 4e57 b3bd 7599 80bd ae9f 30be
00000190: daef e2bd 097f 12be 3871 4fbd 353d c8bd
000001a0: 2dc6 823d 3282 c63d 8f8f 77bd 151f cb3c
000001b0: c0cf ed3d 7be5 9a3d a20d e43c e5b7 173e
000001c0: c10e 893d 1f6d c23d 3ea3 ce3d 5014 313e
000001d0: 44cb 973c d969 233e 4698 483e a9a2 74bd
000001e0: 9cff 6d3e 474d f3bb 7bd1 7ebd 26bc 553d
000001f0: 0489 0abe ae63 f5bc fdd7 a5bc 720e c73d
00000200: f2dd 6c3d 243e cd3c 78ec 1fbd ac1b 983d
00000210: 32ef 7bbd b8ae 86bd be49 8e3b 3c28 003d
00000220: 5a92 44be c984 27bd ed84 89bd 205c bb3d
00000230: a9a2 053e efc4 babc d0aa 0fbe c990 98bd
00000240: 1cce 953c 4516 d63d eb97 efbd a36d 14bc
00000250: 8ae7 f4bd 8200 203e f8a1 6abd 97fb f7bd
00000260: 1943 91bd de60 efbd 3ec4 06be eb1f 03be
00000270: 7465 d2bd dc84 363d 3086 533d ca3d 4ebe
00000280: 0e67 a6bd 1212 9abd 90a8 fbbd 4845 07be
00000290: 5576 e6bc 3533 a83d 3342 863d 88be 933d
000002a0: 0d03 53be b7c9 013e 75ac c73d a257 3d3e
000002b0: b992 c0bd 4a41 a8bc 5042 1cbd f512 be3d
000002c0: 8d44 c63d 9a14 6d3d 46d4 e83d 79b7 f5bc
000002d0: d7ba 58ba 8c18 2d3e a6d8 53bd 0231 983d
000002e0: c6b1 0d3d 5f7e 2a3e 62ad ce3c 70d0 bd3d
000002f0: 203e d63d c95c 163c 1042 603d 673d 183d
00000300: 5dc8 923d 1c75 93bd 5b4a 92bc 033b e23c
00000310: 7a00 0d3d d687 483d 80b0 183d b43e a4bd
00000320: 8e25 2d3d fe7b 02be 1721 173c 704d 633d
00000330: c81e e7bd cacd 283e 0535 2d3d d7e7 c2bc
00000340: bed3 bd3d f095 d0bd bfc7 51bc dae9 c03d
00000350: 461c 113e cacc a0bd cdac c63d 1979 efbd
00000360: d586 8ebb e159 17be 5269 133e 049e f5bd
00000370: 9d46 47bd 55fd c03c 8fd3 33bd 16d9 62bd
00000380: 1754 f53c edc8 0e3d a897 64bd 7ccc 273d
00000390: 7f20 01bd da92 dcbd f32f e2bc 19e3 e0bd
000003a0: a5c2 d6bc f9f1 81bd ba09 91bd 5881 a53c
000003b0: a15d 5dbb 9b9a 723d 73e8 2abe a486 91bc
000003c0: a04d 2e3e 67dd 12be 06a9 103d 6ca1 ddbd
000003d0: 5428 5a3d e2f2 013c 2cec 91bc b53c 14bd
000003e0: 1b29 bdbc 013f b2bd fb32 aa3d e28d f0bd
000003f0: d884 a33c 3557 59bd 1dd9 8a3c e2be 0dbe
0.096347295 0.17295156 0.084456705 -0.027552722 -0.05794079 0.18139575 0.028509788 0.007379901
0.003770258 0.020882295 -0.08024745 -0.0243299 -0.09586256 0.16556089 -0.0015807613 0.02402571
0.20824142 -0.098912545 0.16414008 -0.11637999 0.081363074 -0.10998143 0.13081995 9.494205e-05
-0.007148085 0.047751315 0.09235966 0.010654293 0.03159865 -0.07552638 -0.04662726 -0.03378403
-0.1529026 -0.0028308325 0.039198227 -0.019303296 -0.049678694 0.03242273 0.15386309 -0.18001908
0.014503522 -0.1325369 0.14141552 -0.110207744 -0.11426816 0.022517 -0.11955562 -0.16669168
0.13024467 -0.06569246 -0.1852482 -0.14453222 -0.09417167 0.025927503 -0.12760721 -0.0320329
-0.047876332 0.03824846 0.0954204 0.011481432 -0.017971633 0.09581992 -0.006064357 0.04201116
0.081273876 -0.13162671 0.031453855 0.096248254 0.036563035 -0.05153976 0.053476937 0.11258443
-0.03370895 0.083059594 0.05255147 -0.037350923 -0.12387606 0.072887175 -0.1431723 0.22858422
-0.018695934 0.040522758 -0.045061592 -0.10265149 0.21409363 -0.046975832 -0.09453579 0.09750592
-0.0857745 0.15497498 0.048179634 0.14493765 0.1856631 0.05107055 -0.099267475 -0.0380515
-0.025160266 -0.087568864 -0.062792696 -0.17248413 -0.11080904 -0.14306273 -0.050645083 -0.09777299
0.06385455 0.096928015 -0.060439643 0.024795095 0.11611891 0.07563301 0.027838532 0.14816244
0.06692267 0.094934694 0.1008973 0.17292905 0.018529542 0.15958346 0.19589338 -0.059725437
0.23242038 -0.0074249837 -0.062211495 0.052181385 -0.1352883 -0.029954758 -0.020244593 0.09719552
0.05782885 0.025054045 -0.039043874 0.07427153 -0.06150741 -0.06576294 0.004342287 0.03128837
-0.19196454 -0.04089812 -0.06714807 0.09148431 0.13050331 -0.022798983 -0.14030004 -0.074494906
0.018286757 0.10453466 -0.11698898 -0.009059343 -0.11958225 0.15625194 -0.05728337 -0.12108534
-0.07092876 -0.11688398 -0.13160798 -0.12805144 -0.10273257 0.0445603 0.051641643 -0.20140758
-0.08125125 -0.07522978 -0.1228801 -0.13210022 -0.028132597 0.08212892 0.06555595 0.07214075
-0.20606633 0.12674604 0.097496904 0.1849046 -0.09402985 -0.020538945 -0.038149178 0.092809595
0.09681044 0.057880975 0.11368613 -0.029994713 -0.00082675874 0.16903895 -0.051720284 0.074312225
0.034593366 0.16649769 0.02522916 0.09268272 0.10461068 0.009177395 0.054750502 0.037167933
0.071671225 -0.07200071 -0.017857721 0.02761603 0.034424283 0.04895767 0.0372777 -0.08019772
0.042272143 -0.12742612 0.009224198 0.055493772 -0.11285168 0.16484752 0.04228689 -0.02379219
0.09268902 -0.10184848 -0.012803971 0.09419604 0.14170942 -0.078515604 0.09700928 -0.116930194
-0.0043495693 -0.1478038 0.14395645 -0.1199303 -0.048651326 0.023558298 -0.04390293 -0.05538281
0.029947324 0.034859587 -0.055808693 0.040966496 -0.03152513 -0.10770197 -0.027610755 -0.109808154
-0.02621586 -0.06344981 -0.07081933 0.020203277 -0.003377773 0.059229475 -0.16690235 -0.017764397
0.17021799 -0.14342271 0.035317443 -0.108218044 0.053261116 0.007931443 -0.01781281 -0.036190707
-0.02309089 -0.08703423 0.08310505 -0.11745812 0.019960806 -0.053061683 0.01694923 -0.13842347

gru.bias_ih_l0 f4 [192]
00000000: 6432 003e 2a08 423d ad1f c4bc b6da 103e
00000010: 5b7e 83bd f723 833d a8af f53d 6305 403d
00000020: 86e2 693d 96eb 9d3d eefd a83d 7842 4b3d
00000030: 53a0 c8bb 1e57 723d 0e4b 183d c30b 243d
00000040: 0521 9b3d 5483 a13b 23af 9b3b 30b9 31bd
00000050: 2746 e2bd aa1d 033d 8832 9e3d 09db 94bd
00000060: 91df c0bc 025b cebd fee8 1e3c fe0d 673d
00000070: b11f f33b 03a7 5c3d 75ae 793d b31c 62bd
00000080: 47d0 66bd eb9f e9bc 2fff 45bc 725f 4d3d
00000090: d689 bd3d 33c8 66bd 0958 de3a 1315 89bd
000000a0: 1ee0 29bd 0353 b2bd 8f2b e9bd c6a9 7a3d
000000b0: 10a3 7bbc 7248 bf3c c134 963b 3b68 0abd
000000c0: 2500 de3b cdea 7f3d 6876 603d 1141 8f3c
000000d0: 8a01 0bbd 24ac 43bd 7e10 44bd e13f 46bd
000000e0: f834 5d3d 749f 823d 44b0 9c3d 7314 043e
000000f0: ea49 b9bd ff46 c0bd 45cf 54bd e4dd 46bd
00000100: 9383 eb3d dfb3 f2bd 0cc5 053d 7ef8 c3bc
00000110: 0703 573d 7390 1dbd df19 22bc c8ee eb3b
00000120: d0e2 7cbc 4ac4 7e3c c893 84bd 0831 033c
00000130: 93cb 5dbd 065e 0ebe f5c2 2c3e 3a6b 2bba
00000140: 47d4 0bbd 901c c1bd 5644 fc3d 9b4e ad3d
00000150: 2789 433d 865a 043d 40e9 453b 5ea5 13bd
00000160: 28d9 56bc 8641 143d d7f1 c3bd 70fc ebbd
00000170: 8f9e ecbd 23dc c3bd e8eb 09be e30f 3d3d
00000180: 5b0f a1bd 8274 85bd 9ad6 783d 6807 f0bd
00000190: 7588 033d 00e5 b6bd 9470 a9bd fa59 603d
000001a0: db1c f6bd c352 06ba d3c4 41bc 835f 243d
000001b0: 35d9 7b3c 7dbf 1bbd aa45 aebd 5b43 93bd
000001c0: acba 98bd db25 033d 4cb8 07be 2946 0ebe
000001d0: 99b6 5e3d 0fb1 fdbd 64c8 5e3c e5ff 92bd
000001e0: 873d e13c d616 64be c7ca 54bb 725d 86bd
000001f0: dfff ffbc 2b88 af3d 6bc9 0dbe c2fa 863d
00000200: 7449 133e 3c6d 113e 2d6f e93b 117b 6c3c
00000210: 7983 00be be8d f03c c7ca 30bd 62eb d5bd
00000220: 9bd2 d63c c31f 6bbd 5f8a 61bd 1eba a4bd
00000230: cbb4 ffbd ef33 893c 3d72 8abd dfcb 5f3d
00000240: 635a 083d 72f0 98bd 1dfa b83d fe82 9bbd
00000250: 7a1c 833d 768c 9ebd cb9f 95bd 655d 13be
00000260: 9b7d 0d3d 7a09 19bd 64fc 4bbd e1d4 edbd
00000270: a17c b63d 8a35 b3bc 571f 9b3d 5a4b 84bd
00000280: dab8 453d c200 db3d 8eed edbc 45fb b4bc
00000290: fba9 78bd 5ac2 713d 1105 1d3e a82f a03c
000002a0: 5332 06be 4dbc d2bd 0c52 a6bd f55b b73c
000002b0: c487 0cbe c011 27be 8f90 1a3d 61ea 87bd
000002c0: f47a 603d 1475 b5bd f5d4 dd3d 112a d5bc
000002d0: bd23 d3bd 0e11 c13d 2540 8b3d 7eb5 f83a
000002e0: 3fd3 babd 1143 06be d055 afbd 27fb c5bc
000002f0: 2e2d 07be 8769 c73d fae1 7cbd 05c0 7c3d
0.12519222 0.047371067 -0.023940885 0.14145932 -0.06420585 0.06403344 0.119963944 0.046880137
0.057100795 0.0771095 0.08251558 0.049623936 -0.0061226278 0.059165113 0.037180953 0.04005028
0.07574657 0.0049289856 0.0047511025 -0.0433895 -0.11048537 0.03201071 0.07724482 -0.0726834
-0.023544105 -0.10075952 0.009699104 0.05640983 0.0074195494 0.053870212 0.06095739 -0.05520315
-0.056350973 -0.028518638 -0.012084766 0.050139852 0.09254806 -0.05634327 0.0016963492 -0.06693473
-0.0414735 -0.087072395 -0.11385261 0.061197065 -0.015358701 0.023349974 0.0045839255 -0.03379081
0.0067749196 0.062479783 0.05480042 0.01748708 -0.033937015 -0.047771588 -0.04786729 -0.048400763
0.054005593 0.063780695 0.076508075 0.12898426 -0.09047301 -0.093885414 -0.05195548 -0.048551455
0.11499705 -0.11850714 0.03265862 -0.023922201 0.05249312 -0.038467836 -0.009893863 0.007200096
-0.015434936 0.015549729 -0.064734995 0.008007295 -0.05414922 -0.13903055 0.16871245 -0.00065391103
-0.03413799 -0.09429276 0.123177215 0.084622584 0.04773822 0.032312892 0.0030198842 -0.03604638
-0.0131132975 0.0361953 -0.09567612 -0.11522758 -0.1155368 -0.09563472 -0.13468897 0.04615773
-0.07864257 -0.06516363 0.060751535 -0.11720163 0.032112557 -0.08930397 -0.08273426 0.05477331
-0.120172225 -0.0005124027 -0.011826712 0.04013015 0.01537161 -0.038024414 -0.08509381 -0.071905814
-0.0745748 0.032018524 -0.13253897 -0.13893951 0.054373357 -0.12387287 0.013597582 -0.07177714
0.027495159 -0.22274336 -0.0032469498 -0.06560792 -0.031249939 0.08570894 -0.13846366 0.06590797
0.14383489 0.14201826 0.007123849 0.014433638 -0.12550153 0.029364463 -0.043162134 -0.10445286
0.026223471 -0.057403337 -0.0550636 -0.080433115 -0.124856554 0.016748397 -0.067600705 0.054637786
0.033289324 -0.07467736 0.0903208 -0.07593344 0.06401916 -0.077416345 -0.07305869 -0.14391096
0.034543615 -0.037362553 -0.049801245 -0.11612869 0.0891049 -0.021876115 0.07574337 -0.06459685
0.04827199 0.10693504 -0.029043939 -0.02209247 -0.06070898 0.05902324 0.15333964 0.019553974
-0.13105135 -0.10289822 -0.08121118 0.022382716 -0.13723665 -0.16315365 0.037735518 -0.06636501
0.054804757 -0.088602215 0.10831634 -0.026021035 -0.10309551 0.09427081 0.06799344 0.0018974987
-0.09122323 -0.13111521 -0.08561289 -0.02416761 -0.13200828 0.097369246 -0.061738946 0.06170656

gru.bias_hh_l0 f4 [192]
00000000: fbf1 e03d 3b66 a3bd 4f31 21be ec03 7d3d
00000010: cd23 7b3d a030 da3d 8b93 d8bd 19a9 82bd
00000020: d66e fd3c b927 0cbe f043 cc3d 44f1 8d3c
00000030: d10f eebd 40e9 543d 56ea b53c 1c6f b7bd
00000040: 6765 263d 3b1b 333c de91 c3bd 8d81 84bd
00000050: 55ee f0bc 6253 623d ee05 513d f389 bb3c
00000060: 67b3 34bc 62b1 70bd 6f7f 02be f2c8 813d
00000070: 828f d7bc b9f1 bdbd fb6f 91bd a5fc 12be
00000080: 0ab9 8fbc c8e1 06bd 5ee0 e5bd 77f0 1cbe
00000090: f4db bcbd 463a a7bd d45e 5c3d a2b8 493c
000000a0: 0b40 a8bd f8c2 953d eeaf 28be 6e0b 553c
000000b0: dd40 923c d63a 5cbd 3e62 86bd 620c 9dbd
000000c0: c407 28bd d15e 80bd d85a 923d 7ac6 d53d
000000d0: 74fc 07be c32b 1d3e 4bf7 703d ffe9 09bd
000000e0: 27c4 dabd 9cf1 b83c 3f34 893d 4649 fa3b
000000f0: 0eb9 f23d 490e 8cbc 2d79 e5bd 8f96 df3d
00000100: 2b21 bd3c 64c8 57bc dbcb c5bd 4609 39bd
00000110: 6a66 8e3d 53dc 053d a9e4 1b3c cfb2 98bd
00000120: 5e36 c93c f95e ac3c 9d5f dbbc 522f 553b
00000130: 28e7 44be 7397 d83d 934d ea3d 7106 70bd
00000140: 6722 f7bd 1be9 603a 648f 14bd 78f1 143e
00000150: 44b5 773c 7a6d e1bd 714b c2bd 6263 6abc
00000160: 2313 d73d f0a4 ea3d 87aa dfbd e4dc b03d
00000170: 5b72 9abd b143 f6bd 46bd a6bd 2f69 2d3d
00000180: 4f53 2e3d 3c80 87bc 472a 503d 6bd8 203c
00000190: d526 9f3d ec6a 7b3d 7451 abbd ebfb 3bbe
000001a0: 2a03 79bd 02e7 f3bd f5f5 0dbe 0503 513d
000001b0: a6dc 8b3d 2898 04be b8da 3e3d 9a62 0abd
000001c0: 07c1 f1bd 8e24 1cbc 7e5e c5bd 0f8c fbbd
000001d0: d9f7 22bd a9db da3d 136b 6fbd aace f73b
000001e0: a821 05be 8cf6 0bbd dfb7 9ebc 02e1 b73d
000001f0: 26d6 39be 0808 15be eb8e e3bd 8ba2 07be
00000200: fd62 853d 4713 dfbc 083c 503d 5455 2a3e
00000210: e640 053d e086 143e 08cc b13d 733a 8abd
00000220: c61b 6f3d d6c5 2fbc 574a ad3c b91e b2bd
00000230: ff24 e8bd 5b88 5bbd 202e aebd 9b42 4e3c
00000240: dde5 fa3d 72e8 debc ce0e 023e 2fc1 eabd
00000250: 678d c83d e6ca 503c 32a8 67bd a563 abbd
00000260: efb8 e13d 167d 06be c4a0 213e ff72 fdbd
00000270: a5ca 773d 60b6 32bc 50a9 31bd 647f ba3d
00000280: 4d1f 16bd ebae bf3d 6ac9 a03d 01a8 11bd
00000290: 45c7 d33d f8b5 1e3c 5dfc aa3c b803 7bbd
000002a0: 7979 803b 0675 f8bd 05af 313d eae0 6f3d
000002b0: ad1a babd 6844 24be 7448 7e3d fe9c b73c
000002c0: cfec bcbd 19d2 bcbd 9d5f c2bd 9ca4 e9bc
000002d0: 1b2e 5e3d 43ae 8a3c 5bfa 263c 3fe4 a0bd
000002e0: 645a 063d 7e94 3e3d 555c bbbb c653 a63c
000002f0: 14b1 bbbb 87b6 0e3e 5341 fb3c 7249 a2bd
0.10983654 -0.07978483 -0.15741466 0.06177132 0.06131344 0.10653806 -0.105750166 -0.06379909
0.03093664 -0.13687028 0.099738955 0.017326958 -0.116241105 0.051980257 0.022206467 -0.08956739
0.04062405 0.010931785 -0.09549306 -0.06470022 -0.02941052 0.0552553 0.051031046 0.022892928
-0.011029101 -0.058762915 -0.12743925 0.063371554 -0.026313547 -0.092746206 -0.07101437 -0.14354189
-0.017544288 -0.032930166 -0.11224435 -0.15326105 -0.0922164 -0.08165412 0.053801373 0.012312086
-0.0821534 0.07312578 -0.16473362 0.013003213 0.017853195 -0.053767048 -0.06561707 -0.076683775
-0.04102303 -0.06268085 0.07146233 0.10438247 -0.13279897 0.15348725 0.058829587 -0.03367042
-0.10681944 0.022576146 0.06699418 0.0076381294 0.11851703 -0.017096655 -0.11204753 0.10917389
0.023087105 -0.013170335 -0.09658023 -0.04517486 0.06953128 0.03268082 0.009514966 -0.0745598
0.024562057 0.02104138 -0.02677899 0.0032529426 -0.19228804 0.10575762 0.11440577 -0.058599893
-0.120671086 0.00085796573 -0.03626956 0.14545238 0.015118901 -0.11007209 -0.094870456 -0.014305921
0.10501697 0.114572406 -0.109211974 0.086358815 -0.07541343 -0.1202463 -0.0814157 0.04233664
0.042559918 -0.01654064 0.05082157 0.009817223 0.077710785 0.061381266 -0.08365145 -0.18357818
-0.060794033 -0.119092956 -0.13863356 0.05102827 0.06829195 -0.12948668 0.046595305 -0.03378544
-0.11804395 -0.0095302 -0.096371636 -0.122825734 -0.039787147 0.10686428 -0.058451723 0.007562478
-0.1300112 -0.034170672 -0.019374786 0.08978464 -0.18148097 -0.14553845 -0.11111244 -0.13245599
0.06513021 -0.027230872 0.0508385 0.16634113 0.032532595 0.14504576 0.08681494 -0.067494296
0.058376096 -0.01072832 0.021153612 -0.08697266 -0.113351814 -0.053596836 -0.085048914 0.012589122
0.12250874 -0.027210448 0.1270096 -0.11462628 0.09792595 0.012743687 -0.056556888 -0.08368615
0.110216014 -0.13133654 0.15783983 -0.123754494 0.06049599 -0.010907739 -0.04337436 0.09106329
-0.036650945 0.09359535 0.07850917 -0.03556061 0.10340742 0.009686939 0.02087229 -0.061282843
0.0039207307 -0.121316954 0.043379802 0.058564104 -0.09087119 -0.1604172 0.062080815 0.022413727
-0.09224855 -0.092197604 -0.09490893 -0.028520875 0.05424319 0.016928798 0.010191525 -0.078560345
0.032801047 0.046528332 -0.005717794 0.020303618 -0.0057278965 0.13936816 0.030670797 -0.07924165
