models/gnn-rnn/gnn_rnn_r_2_linear.pth (torch, 152650 bytes, 17 tensors)

fc_measurement.0.weight f4 [32, 1]
00000000: daf5 583f 1ba4 693f db6d b4be e299 813f
00000010: 86ec 5fbe 82e4 ce3d 9145 1fbf 3ff4 333f
00000020: 5f14 713f a947 58bf cae5 6c3f a3bb 133e
00000030: 780b 5f3f 9893 a73e 2c92 213f 1e6a 80be
00000040: 1c40 703f 3f47 a93e d818 1bbf c58a c53e
00000050: 3e32 eebe acd9 00be 78d8 03bf 54ac 413f
00000060: e10d 4fbf 50ec 11bf 19a6 d9be 30c7 2cbf
00000070: 284a 4c3e f0c3 84bf 392e 863f 8c55 77bf
0.8475014 0.9126603 -0.35240063 1.0125086 -0.2186757 0.10102178 -0.62215525 0.70294565
0.9417171 -0.84484345 0.9253813 0.14427046 0.87126875 0.32729793 0.63113666 -0.2508096
0.93847823 0.3306217 -0.60584784 0.38582435 -0.46522707 -0.12583035 -0.5150218 0.75653577
-0.8088055 -0.5700121 -0.42509535 -0.67491436 0.19950163 -1.0372295 1.0482856 -0.9661491

fc_measurement.0.bias f4 [32]
00000000: de15 483f 7eb0 143d fbe6 c6be 98e4 133f
00000010: 5d29 023e 04c2 8d3f 6031 0c3e 9634 f3be
00000020: 67ad 763e 31b0 9cbe bf96 b63e 5cf8 7b3f
00000030: 1eda f03e 5e03 1bbf 0b56 013f 66fa 863e
00000040: 6a73 d13e 8e4c 14bf c5c9 86bf f611 1abf
00000050: 02c0 60bf 5c3b 8f3f 5cf1 6a3e 517d bd3e
00000060: ec03 cc3e 138b 603c 229c 743f 12ca 55bf
00000070: 8f39 76be c518 3cbf 3aa0 1e3e c4e5 bbbe
0.78158367 0.03630113 -0.388481 0.5777068 0.12711091 1.1074834 0.1369071 -0.47501057
0.24089585 -0.30603173 0.35661885 0.9842584 0.4704141 -0.6055201 0.50521916 0.26362914
0.40908366 -0.57929313 -1.0530325 -0.60183656 -0.8779298 1.118999 0.22943634 0.3700967
0.39846742 0.013705033 0.9555074 -0.8351146 -0.24045394 -0.73475295 0.15490809 -0.36698735

fc_measurement.2.weight f4 [32, 32]
00000000: 2e4d af3b 06c6 a7bd bcdd 863e a74d 1bbe
00000010: aa4e 85bd 9d71 8ebe 8b0f 573e 462a ae3c
00000020: 4b24 fe3d 5fa5 9cbd b017 63be 8979 9abe
00000030: 69cb 29be 02e7 853d c322 ff3b 1aec 383e
00000040: 9d40 0dbe df5a fcbd 1aea 793e 3eef c0bd
00000050: a822 853e daca 5bbd 5404 123e 088c 3cbe
00000060: 350f 37bd e8fb e43d 941b 4f3d e16f 833d
00000070: 26b9 873d 6633 4f3e 27fc 31be 96f0 c5bc
00000080: 1e47 513e a1b0 17bc 4b5a b0bd 59af 00be
00000090: 574d e4bd 5d62 973d 6f7f 08bd 70ed 91bd
000000a0: 1b94 5b3d 571d 09be 6117 d2bd 87e5 82bd
000000b0: 0eac e1bd 48ac febc 3614 5f3e 74f5 b63c
000000c0: c4d2 cc3d 9f5f a9bd 088c 11be 85cd 473b
000000d0: b397 cf3b ce8a 1dbe 2c17 aebd a989 74bd
000000e0: 767b 2cbc 03e4 9dbd efd9 01bd ae2d 0ebe
000000f0: 03f4 9ebd 2405 f3bd 6e4f 3fbc 739a 1cbe
00000100: d709 463e 75a3 353d 609d da3d 9cf0 de3d
00000110: 8ce8 3bbd 6551 fe3d b910 bb3c d667 ad3d
00000120: fcdd 9abd 6131 44be 95bb e53d 5eca 19bd
00000130: 5b13 f93d 5dba 323e 85ca 2f3e 8bc1 38bc
00000140: 1ebe ce3c ecf1 b63e 7658 833d 1b55 c13e
00000150: f0ba 103e e691 35be dceb 0d3e 6790 a0bc
00000160: 9c78 ad3d 8b51 bcbd 5d86 663e 070d 35be
00000170: 6e2d 473e e00d a83c bb01 053e 9184 e9bd
00000180: aea7 553e 5bcb c53c 83be 563e 7f0f fcbd
00000190: bc1e 2d3e def6 e5bc 22bf aa3c 31f8 e63d
000001a0: 0638 243d b7c7 9f3c 0c3e 94bd fedb 25bc
000001b0: 6c39 ff3d 0c64 bcbd b0c9 7dbd ca27 0d3d
000001c0: 979e e7bd 5b53 9f3c 8a8a b63e a75b 5cbe
000001d0: 3833 833e 90f4 243e ee37 003e 42b8 18bd
000001e0: 1901 443e 9a55 4d3e ca18 183e f2dd 103e
000001f0: 452d a7bd 7b7e 1c3e 0523 20bd 1051 863d
00000200: 0d20 bd3d 5105 033e e88d 26be 9e5e 7abd
00000210: d775 b0bd 0b65 38bc 8cba 4dbd 497c 933c
00000220: b8ec 3bbe 27ae 2abe e2b0 013e c6c1 8a3d
00000230: 2b96 f9bc d2ac 23be 27db 03be 220e 80be
00000240: 341a a3bd eaa1 593b eb46 89bd 5931 1a3d
00000250: 60d5 acbe 694d 00be 5517 eebd 71a8 183e
00000260: 288e 86bd 7d2b 11be 5381 38bc a618 54be
00000270: d22a 15be 8f7d 8a3c 7da2 d4bd 05b2 0cbe
00000280: 9f2b 05be 3b8d 723e f439 fb3d f71d 0c3e
00000290: 7f41 54be c30d b3be 6daf 3dbe 3ed9 a83e
000002a0: 2e05 423e 38b4 eb3d a507 3a3e 7bba f6bd
000002b0: f787 933d a05b 663e a9a9 d7bd a9b8 91be
000002c0: a576 1d3e a978 8c3e 8c97 b3bc 4542 343e
000002d0: 0f7c 32bc b77d 0ebf ed27 50be 2b42 0d3e
000002e0: 6042 e3bd 575b 903d 0b85 99be a2e8 0fbe
000002f0: a393 ec3d 8361 e6bd 726c 623d 9c6a 4ebe
00000300: c6e1 e93d 26ee bfbd db10 cf3c cd2e bc3d
00000310: e20e ed3d cf35 8abd 38fd e13d 53c5 6cbd
00000320: ebb3 ba3d 42e5 0b3e e37c 0cbc b7da 823d
00000330: fe4f f2bc 0923 33be c169 d23d 2aad 3cbe
00000340: 631c f83d 212b bf3d fca7 9f3d 2883 1ebd
00000350: 373d 73be 8351 bb3d fd48 b33d e105 28be
00000360: de97 5dbd 2fb4 01be ae53 7dbc 2c70 18be
00000370: baf5 91bd 00ec c5bd d1b9 14be 3571 eb3d
00000380: f6a0 ad3d 7a55 9bbd 9ed0 ac3d aeb1 05be
00000390: fd06 d5bd 5443 72be 0d39 043e b033 15be
000003a0: e081 25be 1036 7c3d e1c3 e0bd f2b5 fcbd
000003b0: 23ea 6ebd 0965 99bd a53e 07be be08 04bd
000003c0: 12c2 4fbe 4763 e63d 0459 453d c55b da3a
000003d0: f7e2 5d3d d2ae 1b3d 6b8b 623e 6ab3 c73c
000003e0: f0d2 c0bd 54a2 0d3e a318 533e d641 143e
000003f0: 5fd9 753d 50cd 833e bacf 9abd 9683 e63d
0.0053497767 -0.08192067 0.26341045 -0.15166341 -0.065091446 -0.27821055 0.21002023 0.021260392
0.12409266 -0.076487295 -0.22177005 -0.3017085 -0.16581501 0.06538202 0.0077861263 0.18058816
-0.1379418 -0.1232202 0.24405709 -0.09420632 0.26003003 -0.05366025 0.14259464 -0.18412793
-0.044692237 0.1118086 0.05056341 0.064178236 0.06627111 0.2023445 -0.17381345 -0.024162572
0.20437285 -0.00925842 -0.08610972 -0.1256689 -0.11147564 0.07391808 -0.033324655 -0.07125366
0.05360804 -0.13390099 -0.102583654 -0.06391435 -0.11019145 -0.03108801 0.21785054 0.022333838
0.10001138 -0.082701914 -0.14213574 0.003048749 0.0063352226 -0.15384981 -0.085005134 -0.059701595
-0.010527482 -0.077095054 -0.03170198 -0.13884613 -0.07761385 -0.11866215 -0.011676652 -0.15293293
0.19339691 0.044345338 0.10674548 0.10885736 -0.04587607 0.124178685 0.022835122 0.08467071
-0.075618714 -0.19159462 0.11217419 -0.037546508 0.12161895 0.17453904 0.17167099 -0.011276613
0.02523714 0.35731447 0.06413357 0.37760243 0.14133811 -0.17731437 0.13859504 -0.019600106
0.0847027 -0.091952406 0.22512193 -0.17680751 0.19450924 0.020514429 0.12988941 -0.11402238
0.20864746 0.024144819 0.20971112 -0.12307643 0.16906255 -0.028071817 0.020843092 0.112778075
0.04009249 0.019504411 -0.07238397 -0.010123251 0.12462124 -0.0919877 -0.061959922 0.034461774
-0.113095455 0.019448927 0.35652572 -0.21519338 0.25625014 0.16108918 0.12521335 -0.037285097
0.19141044 0.20052186 0.14853206 0.14147165 -0.08162931 0.15282623 -0.039095897 0.0655843
0.09234629 0.12794997 -0.1626507 -0.06112539 -0.08616226 -0.011254559 -0.050226733 0.0180036
-0.1835202 -0.16667996 0.12665132 0.067752406 -0.030467113 -0.15983894 -0.12876569 -0.25010782
-0.07963982 0.003320808 -0.0670298 0.037644718 -0.33756542 -0.1252953 -0.11625544 0.14908005
-0.06570083 -0.14176746 -0.011261302 -0.20712528 -0.14567116 0.016905574 -0.10382555 -0.13739784
-0.13004921 0.23686688 0.12266913 0.13683306 -0.2072811 -0.34971437 -0.18523951 0.32978243
0.18947288 0.115089834 0.18166979 -0.12047287 0.072036676 0.2249589 -0.10530407 -0.28461197
0.1537729 0.27435806 -0.02192285 0.17603405 -0.010893836 -0.55660576 -0.2032773 0.13794772
-0.110966444 0.07048672 -0.29984316 -0.14053586 0.11551597 -0.11249068 0.055279203 -0.20157856
0.11420016 -0.09371595 0.025276592 0.09188614 0.11575104 -0.067485444 0.11034626 -0.05780537
0.09116348 0.13661674 -0.008574697 0.06389373 -0.029579159 -0.17493834 0.10274077 -0.18425432
0.12114789 0.09334398 0.07795712 -0.0386993 -0.2375382 0.091464065 0.08754156 -0.16408493
-0.05409991 -0.12666391 -0.015461845 -0.1488654 -0.07126947 -0.09664154 -0.14524008 0.11496202
0.084779665 -0.07584663 0.08438228 -0.1305606 -0.104017235 -0.23658496 0.12912388 -0.14570498
-0.16162825 0.061574996 -0.10974861 -0.12339391 -0.05832876 -0.07489974 -0.1320749 -0.0322349
-0.20288876 0.112494044 0.048180595 0.001665943 0.05417153 0.03800852 0.22123496 0.024377543
-0.09415233 0.13831455 0.20614867 0.1447824 0.060021754 0.25742579 -0.07559152 0.11255567

fc_measurement.2.bias f4 [32]
00000000: cf64 18be f7e5 06be 88e4 303d 0691 0f3e
00000010: 3ee0 1abe 0561 7cbe 3be0 593e 15ce 993b
00000020: 07d2 b7bd 50bc 023e bafb 403d 0ee8 703d
00000030: 6182 c0bd c9c2 e33d 5e6b 7abe 31a2 c43d
00000040: 2e5b 08be 31a5 4f3e 46d2 253d 48f2 963d
00000050: 7aa7 253c 678c 7e3d e7c2 89bd 5c41 52be
00000060: 6b4c 15bd 68ff 2f3e f43e c03d 5ff9 fa3d
00000070: bab1 c2bd 9df9 733e 8a88 f33d 8324 a43d
-0.14882205 -0.13173662 0.043186694 0.14020166 -0.15124604 -0.24646385 0.21276943 0.0046937563
-0.089756064 0.12767148 0.047115065 0.058815055 -0.09399868 0.11121137 -0.2445502 0.09601248
-0.13316032 0.2027786 0.040483736 0.0737043 0.01011073 0.062145617 -0.06726628 -0.20532745
-0.03644983 0.17187274 0.09387007 0.12254595 -0.09506555 0.23825689 0.11891277 0.080147766

type_embedding.weight f4 [2, 32]
00000000: c4ec afbd a66c 6fbe 8c2d 9f3f 8043 383f
00000010: dbdd eebf e966 6f3e 7a8b d33f 262b 8ebf
00000020: 6b35 55bf 95d6 e4be dceb 0d3e 85d0 51be
00000030: fee0 9b3f 431d 1f3d f317 59bd 5663 6040
00000040: 19a4 8dbf d37c edbe 1f1c b03d e7a0 f93e
00000050: 3387 003c 3bd9 76bf e40e a83f 67dd df3e
00000060: 6834 08be 1425 2240 b69a 2f3f bdb4 fd3d
00000070: 2ea3 adbf 437c 23bf df47 353f 11c1 33be
00000080: 0c8f b9bf 551c 90bd 65b6 0c3f 5fe4 9b3f
00000090: a36c 0c40 21d1 e53f 82f4 923e 59a4 1ec0
000000a0: 446e cdbe 4708 b0bf 8946 f4be 0924 2bbf
000000b0: 5503 ee3f 46d1 3bbf d00f ea3e b2b4 04bf
000000c0: 8e85 e03d 967b a5be 8cc6 623f 2106 8fbf
000000d0: c5b2 89bf 260e 86bf 37c2 3d40 5751 c23f
000000e0: 58dc 13bf 6e1d 67bf 0b18 2dbf 670d 0b3e
000000f0: c837 91be 6b06 49bf 4cd5 a43f 7eb2 873f
-0.08590081 -0.2338129 1.2435775 0.71977997 -1.8661455 0.23379101 1.652694 -1.1106918
-0.83284634 -0.44694963 0.13859504 -0.204897 1.2178037 0.038846266 -0.053001355 3.506063
-1.1065704 -0.46384296 0.08599114 0.4875557 0.007844734 -0.9642522 1.3129544 0.43723604
-0.13301241 2.533513 0.68595445 0.12387989 -1.3565423 -0.63861483 0.7081279 -0.17554118
-1.449678 -0.07036654 0.5496581 1.2179068 2.1941307 1.7954446 0.2870217 -2.478781
-0.40123188 -1.3752526 -0.47710064 -0.6685186 1.8594767 -0.733662 0.4571519 -0.5183822
0.109629735 -0.3232085 0.8858421 -1.1173745 -1.0757681 -1.0473068 2.964979 1.5181073
-0.5775809 -0.9027928 -0.6761481 0.13579331 -0.2836287 -0.7852542 1.2877593 1.0601346

gcn1.bias f4 [64]
00000000: 3bf4 093e 728b 2f3d bfe2 e1bb a226 97bd
00000010: 7c8b 053d 7911 9ebd d7c3 3b3d 9629 cd3c
00000020: e2bc ce3c 89d7 c13c 8d58 aebd cd1e ad3d
00000030: 36b0 dd3c 50bb 223e 8b94 953d deab c23d
00000040: a531 2b3c 5b24 ca3d 6464 7d3d 3904 86bd
00000050: 376d 22bd f73b e4bc 4451 3c3d 31dd a03c
00000060: 076d db3a 0ea3 b83d 8aed 843d 2a53 4f3e
00000070: 8c85 7c3c 9def 003e 6faa f33d e243 a03c
00000080: d373 063e b679 e33d e237 933d 901e 923d
00000090: 2d4c 1cbd 6c0f 6a3d ce5b 9a3d 0f59 ed3b
000000a0: 5102 e93d 1b97 fabc f5e1 d7bc 8657 c63c
000000b0: b4f4 673e c5ec d9bc afc1 633d a305 ae3d
000000c0: 6e4b 223d 3f6f babb d2b3 a33d 0a68 803c
000000d0: fc9c 853d bc0f 14bd fefc b93d 501f d63c
000000e0: 27e8 543d 8f01 1ebc 1e16 6c3d dfdb 6e3c
000000f0: 4aee e23d 17c6 c1bc 5345 563d 1c27 1b3d
0.13472073 0.042857595 -0.0068934853 -0.073804155 0.032603726 -0.077181764 0.045841064 0.025044244
0.02523655 0.023662345 -0.085129835 0.084531404 0.027061563 0.15891767 0.07303723 0.09505437
0.010448848 0.098702155 0.061863318 -0.06543774 -0.039654937 -0.027860625 0.04597594 0.019636722
0.0016740867 0.09015475 0.064906195 0.20246568 0.015412699 0.12591405 0.11897742 0.019563619
0.13130121 0.11107199 0.07188393 0.071347356 -0.038158584 0.057143614 0.075370416 0.0072432826
0.11377395 -0.03058963 -0.026352862 0.024211656 0.2265194 -0.026602158 0.055604633 0.08497169
0.039622717 -0.005689531 0.079932824 0.01567461 0.06524083 -0.036147818 0.090814576 0.026137978
0.05197921 -0.009643926 0.05763828 0.014578789 0.11080606 -0.023654027 0.052312206 0.037879094

gcn1.lin.weight f4 [64, 64]
00000000: cc6b 7bbd 9aaa 053e c09c 81be b257 e13d
00000010: 4fb3 35be e327 b5be 3b44 303e f7f7 3a3e
00000020: d557 76bd 3500 013e 62c5 dabe 67c8 a03d
00000030: 2683 5e3e 00f8 6cbd 40e8 16be 4068 a6be
00000040: a6d6 ec3d 806a 173e fbc6 57be 7f5a 34be
00000050: 391a 93bd 483b 90bd 1f90 cfbc 6311 e5be
00000060: 382c 563d dc26 813c 7595 59bc e872 333e
00000070: a1f1 babe 207c bf3d e676 b8bc aabc 76bd
00000080: dcdc 92bb df92 2a3c 67c5 483d 3e20 0fbe
00000090: e409 a6bd 12bb 60be 3ca9 04be 2ff4 b63d
000000a0: bd8e 543e 2e5a 49be f748 a8bd af42 183e
000000b0: ba5b 10be 2698 183e dbb7 e33b c263 76be
000000c0: 1b9e 963d 62b2 cbbd 8970 143d c378 4fbe
000000d0: d5e3 513e 2f17 86bd ef24 f23d 1db0 1abe
000000e0: bad6 2bbe eb40 4d3d 08b9 de3d 48b9 e3bc
000000f0: 897d 17be b75b 07bd 87a2 30be 0859 833d
00000100: 519a bd3a 940d fc3d 8a81 8e3e 8162 d7bd
00000110: d480 3a3e 6892 713e 0470 1bbb c651 67be
00000120: 2e27 5abe 53e2 233e f40d 7f3e 5a3f be3d
00000130: 336b 0a3c f160 90bd c6a9 52be 10e5 73bd
00000140: 0066 56bd 34a2 8c3d 34ab 6a3e 5ba0 bbbd
00000150: a325 2f3e fede 333e 6420 50be fe21 41bd
00000160: 71eb c83b e996 d73d 7084 383e aeb2 ae3d
00000170: 0933 5a3e 1b16 173e 4e1e 703e e403 4cbe
00000180: 2ab6 30be 3e29 64bd 2d39 243d 583d 6c3d
00000190: 3644 363e ae7d 6b3e 7190 c3bc 778f 0dbe
000001a0: b37b c0bc f1ce 1bbc 3e55 e63d feaf 2a3d
000001b0: 7a33 db3d c7a7 293d 11a7 423e 5279 273e
000001c0: 9173 6abd 3b09 45be 1412 363e b80f f8bc
000001d0: 0954 3cbe c209 9dbd ef2e 4a3e d4de 81bd
000001e0: 5b97 67bd e13c d23d 27fa 223e e075 e43b
000001f0: dff2 47be 0018 06be 7a67 fcbc 238a 423d
00000200: c3cd 81be 4d11 d53d a108 01bc c694 a1bd
00000210: 293f 373d eebd 93bd d9f3 963e 738c 193d
00000220: 1af6 be3c 72ca 41be 857f 8bbe 022e 1c3c
00000230: f045 753e 7a3f 2abe e90d 593c cd87 66be
00000240: ffa0 33be b156 023e e18a 2bbe a3f6 49be
00000250: 2d47 93bd c555 f5bd 3b0f 433e d03e c43c
00000260: 550f 1b3c 0b53 c2bd a46b e83c ec8c 683e
00000270: a5ad 8e3d e149 c23e df67 3abe fbb6 18be
00000280: 220b 78be 5f38 19be ffc6 d23d 6c5c 9fbd
00000290: 9d51 e33d c285 6d3d 7713 be3c d9db 88be
000002a0: fd93 8a3d 36e3 253e e403 2aba 686d 1ebe
000002b0: 5132 503e 4d9c be3d b22c 9939 8ab3 923e
000002c0: 3db5 83be 4145 e6bd 31fa 653e 7cc0 15be
000002d0: 0958 d1bd fe8d 2abe f068 fdbc 046d 773e
000002e0: 353f ad3d 6494 13be cf64 ebbd 0947 923d
000002f0: b6ab 4abe 6157 43be c359 1abe 92fe 3f3e
00000300: d7a6 a63a 4e75 043e 5b2c b7bd b4b0 94be
00000310: 5244 953c 76ae 483d ed66 5abd 411a b13d
00000320: d0e2 d53d 9358 88bd 88b8 573d 6eb4 ba3c
00000330: 462e 77be a612 e93c 42c2 95be 22ea a9bd
00000340: a34e e7bb e979 c83d f745 7ebe 13de 1c3d
00000350: f003 71be 41ba 1d3e 634c d6bc 1d00 f6bd
00000360: 783a 443c c3e7 263e 6858 333d 4da2 b8bd
00000370: fee9 bfbd 1114 a53e cbe8 a4bb a65d 46bd
00000380: 36c4 473d fcac c6bc 597a dbbd fa80 edbc
00000390: b116 493e b554 c7bd 82ec e0bd 4f52 a93d
000003a0: eda9 ecbc 9812 6a3e 5eab 3e3e 9027 413d
000003b0: a115 3cbe 2bba bd3d 8cf8 1a3e ad5c 713c
000003c0: 9145 163e d50c 87bd e9ae 7dbe 1299 8fbd
000003d0: 2204 1d3d 63f4 733e f47c 7a3b 03e7 a0bd
000003e0: 1ac5 83bc cff7 cbbd 336e 14be 9e95 0abe
000003f0: f186 be3d 53a4 443e 1d76 103e bd1c 6a3d
-0.0613821 0.1305336 -0.25314903 0.11003055 -0.17744182 -0.35381994 0.17213528 0.18258654
-0.060142357 0.12597735 -0.42728716 0.07850724 0.21729717 -0.0578537 -0.14737034 -0.3250141
0.115643784 0.1478672 -0.21071999 -0.17612647 -0.07182736 -0.07042557 -0.025337277 -0.44739828
0.052288264 0.0157656 -0.013280262 0.17524302 -0.36512473 0.09349847 -0.022517633 -0.060238518
-0.004481895 0.010410993 0.049016383 -0.13977143 -0.08107355 -0.21946362 -0.12955183 0.08933293
0.20757575 -0.19663307 -0.08217042 0.14869188 -0.14097491 0.1490179 0.0069494075 -0.24061492
0.07354375 -0.09946133 0.036240134 -0.2026091 0.20497067 -0.06547391 0.11823451 -0.15106244
-0.1678113 0.05011074 0.10875136 -0.02779831 -0.14793982 -0.03304645 -0.172495 0.06413466
0.0014465546 0.12307277 0.27833205 -0.10516835 0.18213207 0.23591006 -0.002371789 -0.22589788
-0.21304008 0.16004305 0.24907666 0.09289427 0.00844841 -0.0704974 -0.20572576 -0.059544623
-0.05234337 0.06866875 0.22916871 -0.09161445 0.17104201 0.17565534 -0.20324856 -0.047151558
0.0061315824 0.10526831 0.18019271 0.08530174 0.21308531 0.14754526 0.2344906 -0.19923359
-0.1725699 -0.055703394 0.04009359 0.05767569 0.17799458 0.22997162 -0.023872586 -0.13824259
-0.023496484 -0.009509788 0.112467274 0.041671745 0.10703178 0.04141977 0.19009043 0.16354874
-0.05723912 -0.19241802 0.17780334 -0.030280933 -0.18391432 -0.07667877 0.19744466 -0.06341329
-0.05654083 0.10265518 0.15915738 0.0069720596 -0.19526242 -0.13095093 -0.03081106 0.04749502
-0.25352296 0.104036905 -0.007875592 -0.078897044 0.04473797 -0.072139606 0.29482916 0.03748746
0.02331071 -0.18924883 -0.27245727 0.0095324535 0.2395246 -0.16625777 0.013247945 -0.22512741
-0.17541884 0.12728383 -0.16752197 -0.1972299 -0.0719131 -0.1197925 0.19048779 0.023955733
0.009464105 -0.094884954 0.02837164 0.22710007 0.06966714 0.3794699 -0.18203686 -0.14913552
-0.24222997 -0.1496291 0.10291862 -0.077813 0.11099551 0.05798889 0.023202641 -0.2673023
0.06766508 0.16199955 -0.0006485565 -0.15471423 0.20331694 0.09307156 0.00029215735 0.28652602
-0.2572421 -0.11243678 0.22458722 -0.14624208 -0.102218695 -0.16655728 -0.030933827 0.2416268
0.084593214 -0.14412075 -0.11493837 0.07142455 -0.19792065 -0.19076301 -0.15073304 0.18749455
0.0012714517 0.12935373 -0.08944007 -0.29041064 0.018221054 0.048994504 -0.053320814 0.08647586
0.10443652 -0.06657519 0.052666217 0.022791114 -0.24138746 0.028451275 -0.2924977 -0.082966104
-0.007058935 0.097888775 -0.24831377 0.038297724 -0.23536658 0.15403081 -0.02615947 -0.1201174
0.011976831 0.16299348 0.043785483 -0.090153314 -0.09370802 0.32241872 -0.005032634 -0.048429154
0.048771106 -0.024252407 -0.10716695 -0.028992165 0.19637562 -0.097329535 -0.1098261 0.08267652
-0.02888962 0.22858655 0.18620059 0.04715687 -0.18367626 0.09264024 0.15133876 0.014731568
0.14674975 -0.065942444 -0.24773754 -0.07011618 0.03833402 0.23823695 0.003822145 -0.07856562
-0.016085196 -0.09959375 -0.14495163 -0.13533637 0.09303082 0.1920331 0.14107557 0.057156313

gcn2.bias f4 [64]
00000000: bdf6 7a3c 6a2e 363d 2d73 32bd acf8 793d
00000010: 201c 043d 8853 063d 2c63 583c 7177 2f3d
00000020: e4c9 f03c 6850 d9bc 9b3d 713c d9a8 483c
00000030: c19b 163b aa2c 5e3d 7408 41ba c090 943c
00000040: 2357 8b3d a4aa 2bbb 31b1 2c3c 22af 2b3d
00000050: aa42 ae3c 0176 193e 91f7 4b3d e04c 9f3b
00000060: 4fd7 c33d fa8c 90bc 765d e93c 4a41 3d3d
00000070: 9139 233c 8f20 1c3d 5a90 f1bb 1b28 ddbc
00000080: e7a4 72ba a8f0 d03d 2fab 94bb 5924 0f3d
00000090: 2f47 683d 0e4a e63b 5ff7 663c 300a 383d
000000a0: 407c e23c 7e89 193d ae64 573d 2cfa 913d
000000b0: 5b74 a93c 27d0 cc3c 6f51 143d 896c 033d
000000c0: fdcc df3c 9778 2d3d 734f a43c 9996 aa3b
000000d0: 6079 243e b921 abb9 6fa2 e53c e62d ee3c
000000e0: 8cf9 46b9 8f46 383d 2383 8a3c 1e0c 413c
000000f0: 4d66 2c3d ce64 b53d b935 bb3d e43f aa3c
0.015317616 0.044477858 -0.04356687 0.061028168 0.032253385 0.032794505 0.013207238 0.042838518
0.029393144 -0.026527599 0.014724161 0.012247288 0.002298102 0.054241814 -0.00073636253 0.018135428
0.068037294 -0.002619424 0.010540293 0.041915067 0.021272022 0.14986421 0.049796645 0.004861459
0.09562551 -0.017645348 0.028486948 0.046204843 0.009962455 0.038116988 -0.0073719444 -0.026996663
-0.000925614 0.102021515 -0.0045370082 0.034946773 0.05670851 0.007027871 0.014097064 0.04493159
0.027647138 0.03748464 0.05258625 0.071277946 0.020685365 0.025001599 0.036210474 0.03208593
0.027319426 0.04235133 0.020057416 0.005205941 0.16061926 -0.00032640787 0.028031556 0.02907462
-0.00018975715 0.044989165 0.016908234 0.011782674 0.04208975 0.088571176 0.09141106 0.020782419

gcn2.lin.weight f4 [64, 64]
00000000: 797b 883d d37a a2bb 80f0 5f3e b934 713c
00000010: f27a 373e 14a4 30be e84d 18be f4dd c13b
00000020: a9c9 193e c026 403d 3088 6c3e 43cc 6abe
00000030: ec1d 6d3e 0e2e 923d 7343 2c3d 5163 2dbd
00000040: 4620 32be 009d cf3d bbd6 4abc b37d 543e
00000050: 1a0d 2b3e cb50 28be 2ffc 7a3e d8f1 83bd
00000060: f21b 27be 8ed3 143e f0fc 81bd de44 a53d
00000070: 88bf be3c 38e6 a8bd 6765 f33d 168c 923d
00000080: ae6b 233e 1c9a d0bd 54b1 3bbe 3ac7 113d
00000090: 0ed2 27bd 8c33 b8bc 0522 3ebe 90f7 573e
000000a0: ebd9 e4bd ebbb 9ebc aa7a b43c e686 f1bd
000000b0: fcf1 f43d b7b1 43be 4ac5 52bd c598 12be
000000c0: ccc8 133e 4332 2bbe 0788 193e 155b 21be
000000d0: 2846 72be 8667 e53a ada3 23be 8f2e 0f3e
000000e0: 50ea 433e 8559 edbd 2ad1 023e a17b cbbd
000000f0: 8811 093d b254 20be fe42 87bd a4b2 bebd
00000100: fc44 e33d 8eb7 913d 20f7 51be a24c ddbc
00000110: cc49 593e 59a2 5e3e 72ac 0b3e d344 413d
00000120: 28bb bd3d a6d1 213e 4649 3dbe afee 30bb
00000130: 5e82 53be d116 0f3c c974 3c3c 0abb dabd
00000140: 4768 dd3d f374 503e 7b24 0bbe 5974 38be
00000150: 1db3 87bd d87d 0b3c 4ecc 5dbe ed6a 963a
00000160: 7b1f 593e c4a0 15be 9947 20bc d554 8ebd
00000170: 241e 273e 8fa1 f2bd ab47 433e 7031 e6bd
00000180: 24a9 fe3d 2755 55bd 234d 693e 39c2 f1bd
00000190: 8141 f7bd 3aae 7d3e c80d e4bd 6893 a43c
000001a0: 37c2 c73d 8b34 b83c ecd6 133e 6899 34be
000001b0: 0f08 45bd 7dba efbd a5ab 073e 376f 493e
000001c0: 4468 5fbe 035e 64bd 3ba4 c4bd c3bf 07be
000001d0: 6834 bc3d 5138 433d c529 3abe 0218 03be
000001e0: def6 fabd 3661 873d 87dd 11be 745d 36be
000001f0: dcb3 05be 3ea3 3c3e 6549 4e3e fd2a 8dbd
00000200: f7a1 293e 9058 c4bd cabf 7fbc 3886 1c3e
00000210: 6acc 2abe a55d 47bd 5da5 e23d 9d87 55be
00000220: c9d0 663e bccf cd3d 507c 0f3e e5df 24bd
00000230: 205a 8e39 3230 68be 649d 68be df6c 70be
00000240: c9c2 6abd 1e83 a83c 6e32 21be 56c5 543e
00000250: 85fb 51be cd7f 9d3d 162c 27be 2a90 143e
00000260: 1687 17be 5f17 033d f610 153d f924 293d
00000270: 88c2 5bbe 4cc4 38be 60f0 d8ba 819b 95be
00000280: 23b7 c7bd 5d0a 7fbe e040 9a3d 0214 5cbd
00000290: 88dd 1dbe 708a 3d3e 97c0 a13d 650c eabd
000002a0: 021b d2bd dbda bb3d cbc2 a0bd 004b 823d
000002b0: c0a8 c13c 2bdd d1bd 7f56 28be f05a e2bd
000002c0: 1744 7ebe db95 053e 4955 013d 75e2 25be
000002d0: aef3 7bbd 824c 48bc ad17 78bc 2b5b 3b3e
000002e0: 39e8 87be 6cdc 04be 01f3 f93c 8222 53be
000002f0: 9ecf c9bb 9bbd 03be ce50 b13d b41d 08be
00000300: 42db 6c3d 76fa 2a3e 2723 68be 1472 02be
00000310: 8668 db3b 7a74 14be 460f c5bd 6b40 523e
00000320: 268f cd3d 76a4 b5bd 88c5 73bd 49e7 b33d
00000330: 9e20 15bc 9139 8a3e 96dc 433e 283d 853e
00000340: 6c99 19be 175b 07bd 7847 c1ba 1eab 40be
00000350: 265b 1dbe 3bdd 573d 4e30 543e 9847 1c3e
00000360: 6682 533e 170f 553e fadf 643d 8fc8 40bd
00000370: 2727 d93d 242c 80bd d03c 733e 9b7f 703e
00000380: 468e 96bd f3f4 223e fcf4 62bc 5a90 593e
00000390: b0ab 83be f3ef 163d 9e5f 4cbd f599 f43d
000003a0: 652e 7f3d 300a eb3d 55c7 8bbe 2181 eabd
000003b0: 5191 9d3e a5ba 7dbd fc91 2d3e b592 f1bd
000003c0: 5ad5 2b3e 26ad 41bd 30cb 25bd b7b2 8c3e
000003d0: 4f80 643e 5a87 31be 7b47 73bd 798b ee3d
000003e0: b434 143c 393d 683e 6760 183e 7b51 1f3d
000003f0: a3a3 1abe e9fe 8c3d b41c 843e eaa6 683e
0.066641755 -0.0049584894 0.21869087 0.014722043 0.17917994 -0.17250091 -0.14873469 0.0059163515
0.15018333 0.046911955 0.23098826 -0.22929482 0.23155946 0.071376905 0.042056512 -0.042331044
-0.17395124 0.10137367 -0.012380297 0.20751075 0.16704217 -0.1643707 0.24510263 -0.064426124
-0.16319254 0.14533827 -0.06347072 0.08069776 0.023284689 -0.08247036 0.11884575 0.071556255
0.15959045 -0.10185644 -0.18329364 0.035590388 -0.040971808 -0.022485517 -0.18567665 0.21090531
-0.11174377 -0.019376716 0.022031147 -0.11793308 0.11960217 -0.19110762 -0.05145768 -0.1431609
0.14432067 -0.16718392 0.14993297 -0.15757401 -0.23659575 0.0017502166 -0.15980406 0.13982604
0.19132352 -0.1158934 0.12775102 -0.0993569 0.033463985 -0.15657309 -0.066045746 -0.09311417
0.11097142 0.071150884 -0.20504427 -0.02701408 0.21219558 0.21741618 0.13640001 0.047184777
0.09264213 0.15802631 -0.18484983 -0.0026997735 -0.206552 0.008733467 0.011502453 -0.10680206
0.10810905 0.20357113 -0.13588135 -0.18013133 -0.0662596 0.00851389 -0.21659967 0.0011475958
0.21203415 -0.14612108 -0.009782695 -0.06949774 0.16320091 -0.11847221 0.19070308 -0.11239898
0.12434605 -0.05208316 0.22783332 -0.11804623 -0.12073041 0.24773493 -0.11135441 0.02008982
0.097538404 0.022485992 0.14437455 -0.17636645 -0.04810339 -0.11705492 0.13249071 0.19671331
-0.21817118 -0.05575372 -0.09601637 -0.13256745 0.09189683 0.04766113 -0.18179996 -0.12802127
-0.122541174 0.066103384 -0.14244662 -0.17809087 -0.13056892 0.18421647 0.20145185 -0.06892965
0.16565691 -0.095872045 -0.015609691 0.15285575 -0.1667954 -0.04867329 0.11066697 -0.20852514
0.22540583 0.10049388 0.14012265 -0.040252585 0.000271515 -0.22674635 -0.2271629 -0.23479031
-0.057314668 0.020570334 -0.15741894 0.20778403 -0.20506103 0.07690392 -0.16325411 0.14508119
-0.14797625 0.03200471 0.03639313 0.041295025 -0.21460927 -0.18043631 -0.001655113 -0.29220203
-0.097517274 -0.24906297 0.07531905 -0.05373002 -0.15416539 0.18509841 0.07898062 -0.11428145
-0.102590576 0.09172603 -0.07849654 0.06361961 0.023640037 -0.102472626 -0.16439246 -0.11052501
-0.24830662 0.13045447 0.031575475 -0.16199668 -0.061511688 -0.012225272 -0.0151423635 0.18296497
-0.2654436 -0.1297471 0.030511381 -0.20618632 -0.006158783 -0.12865297 0.086579904 -0.13292581
0.057826288 0.16697106 -0.2266966 -0.1273883 0.00669581 -0.14497557 -0.09622054 0.20532386
0.10037069 -0.08869259 -0.059514552 0.087843485 -0.009102015 0.26997045 0.19127116 0.2602322
-0.14999932 -0.033045854 -0.0014746031 -0.18815276 -0.15366802 0.052701216 0.20721552 0.15261686
0.20655212 0.20806538 0.055877663 -0.047066268 0.10603171 -0.06258419 0.23753667 0.23486178
-0.07351355 0.15913753 -0.013852354 0.21246472 -0.25716925 0.036849927 -0.049895875 0.119434275
0.062300105 0.114765525 -0.27300516 -0.11450411 0.3077493 -0.061945576 0.1695022 -0.1179556
0.16780606 -0.047284268 -0.040476978 0.274801 0.22314571 -0.17336789 -0.05939434 0.11647696
0.0090457685 0.22679605 0.14880525 0.038896065 -0.15101485 0.06884558 0.2580315 0.22719923

gru.weight_ih_l0 f4 [192, 64]
00000000: 79d7 0bbe ddb8 0b3e 0929 c13c f95e 27bd
00000010: bd01 393e 94b9 2a3e 2ef4 7c3d e000 a23c
00000020: 11c2 05bd 4479 5bbd bb5e 08be 3126 f03c
00000030: a02f b8bc 81f4 1b3e 0180 0ebb e385 d5ba
00000040: 761c 2bbe 2992 09bc 0fd8 803d 8ce0 9fbc
00000050: 36b5 143e d34c 9abb 4e12 05bd 181b 373e
00000060: ffdf 16be f6d7 14be ed43 023e a8d9 d73d
00000070: b100 c7bb f2d2 bb3c bc7a c9bd 800c 8dbc
00000080: 5dc1 0f3d 00a1 393b 6af6 13be f993 093e
00000090: 5c5b 91bc d37f 923d dde3 0c3e 39dd 8d3c
000000a0: 2bd6 173e 0b0c 053e 00dc 7f3d f8fc 09be
000000b0: e237 e4bc 445f bebd fb25 3d3d c69b b23c
000000c0: 539b 433d 03c3 363d 9ae7 603d 67d9 c03d
000000d0: a70f e63e 50b6 0f3e 57b8 9f3d 0bc7 9b3c
000000e0: 9d58 8d3b 181d 183d 3d54 d23d d5d3 163e
000000f0: c17e df3d 4f37 753d a75a a23c 5eed 69bd
00000100: 3d78 edbd 44cd 09bb ad20 babc ca2d bbbc
00000110: 95a3 153c 93d5 523d ca72 813d 6ade 6a3d
00000120: e341 653d 31ac 543d 84be 2ebd b87b 31bd
00000130: e31b 103d 6f90 aa3d 73ec 4dbd 162b 0b3e
00000140: 2caa c13d 5aa7 1abe cd04 e2bc 8ccc 9c3c
00000150: 2977 da3c 17a1 0ebd 3267 6dbd 789b ea3d
00000160: 4e41 29be 192a 17bc 094b 88bd 9675 f8bc
00000170: 1fcc d63d 50cf 9d3d fe7c 96bd 8c75 293d
00000180: 388a 5b3c b5b6 40be b853 b43d 599f 553d
00000190: 63f1 ac3d 3fbd 8b3d e59a b43d 6711 d5bd
000001a0: 07e1 fc3d 6df4 1b3e 7aa2 c23b 3346 dc3b
000001b0: b2ec f23c 6727 d03c 569f 0e3d f6d9 c2bc
000001c0: eda6 963d 3237 2c3d c038 a53c c2ce 0dbd
000001d0: 842b 8b3e 9974 85bd 77f1 72bd ecc5 c6bd
000001e0: 21d1 003e 4ffb 22bd 5e6d 34b7 b729 0f3c
000001f0: d6c2 d93d fb5c babd c71c 4cbe 6adf e3bd
00000200: 0f75 a9bd ffd1 d3bd dbc2 54bc cc9d 1d3c
00000210: ab0c 3fbe a4c0 72bc d9c1 103d 2e69 e7bc
00000220: d6ca 903e 10ac 2b3e 8b4d 8f3e b991 1f3e
00000230: 5b6b 683d c4a2 403b 9a6f 54bd fb94 a23d
00000240: 4a39 fd3d ea13 62bd a4c2 a13d b561 6cbe
00000250: 60ef 05bd a877 11bf 9164 12be 0595 c63d
00000260: 3d5e 12bf 185a 0ebe 8538 59bb e71d 903d
00000270: 65d2 4f3c d82f 983d a152 903d 0d6d 883d
00000280: 359d 483d f213 b5be be4f 713a 76ba bbbc
00000290: d3e8 d8bc a4fc 823d 2501 423e 9496 a03d
000002a0: 5e12 a1bc c74d 61bc 2bcb 8d3c 6d15 6b3d
000002b0: d0f3 d23d ae7a 153c 04f6 81bd 34dc 813e
000002c0: 9704 f43d b112 ef3d 9ef5 a5bc e177 a73d
000002d0: 9d21 c9be cff3 b23c 2585 a43c 8e34 2bbd
000002e0: 5dee b03d e69a 92bd 9c07 d0bd 1f95 75bd
000002f0: a281 8a3d 0ff7 6a3d 7618 fbbe 09a5 47bd
00000300: 2226 2d3d 866f 2d3e e516 b7bd 4deb f13a
00000310: 542d fe3d c829 46bd 3c46 243e be7f 253e
00000320: 5a8a eeb9 e5e7 8bbc 9a71 1e3d 98da 193e
00000330: b998 763d e775 b53d 50f4 cfbb e89c 023e
00000340: b2d8 09bd c042 ffbd 2984 8e3d 2503 e8bb
00000350: c89a e03d 6c5d 31bc 8aa9 2e3e e100 eb3d
00000360: d5da b6bd 5eb9 dbbd 5abe 0d3d 315a 0f3d
00000370: 00a3 7b3d 87ad 303a 4416 0d3e b575 63bc
00000380: 45da 1f3d 127d 9d3d 4b35 1dbe 09d9 a3bc
00000390: e7b0 9aba b348 2e3e a0b8 533d bd51 94bb
000003a0: 343c 603d a876 433d 34ba fc3d 1ff6 3d3d
000003b0: baae 103e 1849 0c39 c988 183d 0c99 adbd
000003c0: 6801 fd3c 5a45 b8bd 2fcc 713d e6b9 0fbc
000003d0: f45e 0e3e 872c 363e 32d2 5f3d 350c c23d
000003e0: 32df ce3d 1b7a 1e3e bdb2 ae3d 9543 c23d
000003f0: df71 b13d 0deb 26bc 8e76 403e 94fd 11bd
-0.13656415 0.13644738 0.023579137 -0.040862057 0.1806707 0.16672355 0.061756305 0.019775808
-0.03265578 -0.053582445 -0.13317387 0.029315086 -0.022483647 0.1522999 -0.0021743777 -0.0016290512
-0.16710076 -0.008396664 0.0629121 -0.019516252 0.14522251 -0.004708865 -0.03248816 0.17881429
-0.14733885 -0.14535508 0.12721224 0.105395615 -0.0060730805 0.022927735 -0.09837863 -0.017217875
0.035096515 0.0028324723 -0.14449468 0.13435353 -0.017743759 0.07153287 0.13758798 0.017317401
0.14827792 0.12992875 0.062465668 -0.13475406 -0.027858678 -0.09295514 0.0461788 0.021802794
0.04775555 0.04461957 0.054908372 0.09416466 0.44933817 0.1403439 0.07798832 0.01901581
0.004313542 0.03713712 0.102699734 0.14729245 0.10912848 0.0598672 0.019818617 -0.057111137
-0.11595199 -0.002102689 -0.02272066 -0.022848982 0.009133239 0.05147321 0.063207224 0.057341017
0.055971038 0.051922027 -0.04266216 -0.043330878 0.035182845 0.0832833 -0.050274324 0.13590655
0.09456286 -0.15102902 -0.02759018 0.019140504 0.026668148 -0.034821596 -0.057959743 0.114554346
-0.16528818 -0.009226345 -0.06654937 -0.030329507 0.10488152 0.07705557 -0.07348059 0.041371867
0.013399653 -0.18819697 0.088050306 0.05215392 0.08444478 0.06823205 0.08818606 -0.1040371
0.12347608 0.1522996 0.005939779 0.0067222356 0.02965388 0.025409414 0.034819923 -0.023785572
0.07356057 0.042044826 0.020168662 -0.034621008 0.27181637 -0.0651638 -0.05931231 -0.09705719
0.12579776 -0.039790448 -1.07543e-05 0.008737973 0.10632865 -0.09099766 -0.19932853 -0.11126597
-0.0827428 -0.10342788 -0.01298591 0.009620141 -0.18657176 -0.014816437 0.035341118 -0.028248396
0.28279752 0.16764855 0.27988848 0.15582933 0.056743007 0.002939389 -0.051864244 0.07938572
0.12364443 -0.055194773 0.07898453 -0.23084147 -0.03269899 -0.56823206 -0.14296176 0.09696392
-0.57175046 -0.13901556 -0.003314526 0.070369534 0.012684439 0.074310005 0.0704701 0.06661425
0.04897805 -0.3536678 0.0009205303 -0.02291606 -0.026478207 0.063958436 0.18945749 0.078412205
-0.019662078 -0.013751454 0.017308792 0.05739348 0.1030041 0.009123487 -0.06345752 0.25363314
0.11914938 0.11673487 -0.020258721 0.08177162 -0.39283457 0.021844773 0.02008302 -0.041798167
0.08639214 -0.07158451 -0.101577014 -0.059956666 0.06763007 0.05736452 -0.490421 -0.048741374
0.042272694 0.16937074 -0.08939914 0.0018456966 0.124109894 -0.04837969 0.16042417 0.16162011
-0.00045497977 -0.01707835 0.038682558 0.15024793 0.06020424 0.08860379 -0.006346263 0.12755167
-0.033653922 -0.124639034 0.06958801 -0.007080453 0.10967022 -0.010825496 0.17056862 0.11474777
-0.08928458 -0.10728715 0.03460536 0.034998123 0.061434746 0.0006739725 0.13778025 -0.013883044
0.039026517 0.07689871 -0.15352361 -0.020000951 -0.0011801989 0.1701992 0.051689744 -0.0045263455
0.054744914 0.04772058 0.12340203 0.046377297 0.14129153 0.0001337867 0.037239823 -0.08476457
0.03088446 -0.08997603 0.059032615 -0.008772349 0.13903409 0.17790423 0.054643817 0.094749846
0.10101165 0.15476267 0.08530185 0.094855465 0.08664297 -0.010187876 0.18795225 -0.03564222

gru.weight_hh_l0 f4 [192, 64]
00000000: 439f b43d b795 2a3e afb4 a73d 4437 1abd
00000010: d3dd 6bbc 3ecf 353e e5cd d5bc 0ef9 3f3d
00000020: 9791 bfbc 77fb d83c 93e7 5abd 6677 34bc
00000030: e19c bebd ab7f 1f3e 2131 cebc c804 cd3c
00000040: fb93 3d3e 0211 a8bd 813d 0d3e c283 22be
00000050: 2009 ab3d 519f 8abd 6246 253e 8a2c a03c
00000060: bfcc 58bc 0a06 723d 7f20 963d 6716 793b
00000070: 90c3 093d d1d2 8ebd 9380 abbd ec82 d1bc
00000080: b988 00be 3e82 e9bc 0793 673d c55e 1fbd
00000090: 9886 5bbd 6552 553d f282 2c3e 7ee5 2bbe
000000a0: bb10 953c a59f edbd a038 0c3e 02a2 8fbd
000000b0: 2390 c5bd f196 393d 1a06 bcbd 64ae 37be
000000c0: 50e4 ef3d 12e3 6ebd b12d 19be 5d06 ffbd
000000d0: d598 adbd ae68 653c da2f f2bd 50d0 3ebd
000000e0: bc4d 31bd cb27 303d b696 c53d 0af5 a43c
000000f0: 6ae0 14bc 9bdf b63d a733 e6bc 7727 393d
00000100: 8978 563d 6509 18be 2502 a53d d95f ac3d
00000110: 937e 823d 88e3 63bd 8a0b 3fbd 6736 0d3e
00000120: 1981 79bd b069 ae3d 26a7 9f3d eef4 d9bd
00000130: 1b8a 22be ab29 973d 1b70 1dbe bd0d 883e
00000140: 681f 6dbd 35ff 4a3d bb12 9cbd afea 0cbe
00000150: f53e 9c3d 80d2 0a3d cb52 97bd d7c1 f13d
00000160: 29eb 8dbd 5587 1e3e 92b3 ad3d c3ba 0e3e
00000170: 2114 483e 8884 9f3d a3cf dbbd 0022 d2bd
00000180: f867 44bc 4bc8 98bd c53a 81bd 88b8 8bbe
00000190: afad d8bd 18ec 31be f502 7abd 72fb b5bd
000001a0: 70e4 0a3d 408b c43d 8640 83bd 6e73 3a3d
000001b0: 8e2b 023e 802e a33d 9afd 8bbc e8df 043e
000001c0: aefe 873d c326 0d3e 7875 e83d 5e23 7b3e
000001d0: ef27 22be fe3b ca3d a393 543e 3ef1 d6bd
000001e0: c1e4 6d3e b089 d83b 4a73 aebd 3704 293d
000001f0: c5ee 37be 22cf 33bd 5858 1fbd 8af5 983d
00000200: 354a c93b 21ff 163d 2b09 50bd 8208 603d
00000210: ba99 f6bc f0d1 02be 7394 8fbd b110 cd3d
00000220: 7e43 273e f4be 1a3b 63d2 5abd 98b5 1d3e
00000230: 8ca9 543e 9e26 86bd 92b9 6ebd 1c61 a5bd
00000240: d8ca a13a 000d cabd 54a7 42bd f212 3c3d
00000250: 710c b2bd 5066 fa3d 1fc2 e6bd 492e 8abe
00000260: df1f 98bd f209 3cbc 0b4e ebbd cd35 b6bd
00000270: 4119 e0bc 265d 5cbd 522e 623d 6a42 0ebe
00000280: acd2 7cbd 18f6 f7bd b231 d13d c8d0 85bd
00000290: 5d88 cf3b 6921 203e 2c70 e53c 94bf ba3d
000002a0: 7510 0cbe c207 463e cc5d 873d 3d74 113e
000002b0: 6314 65bd 762c f1bb 1db9 87bd 1fe3 203e
000002c0: 3543 9f3d 31da 28be 70df 403e 82f4 9ebd
000002d0: 6211 8fbd 9972 c93c 7be1 fc3c 5a47 59bd
000002e0: 9c2a f93d c65f 5c3e d62a 443d 723c f43d
000002f0: 0c41 2e3e 7733 1abb 2c8b b53d c658 3c3d
00000300: 55c6 9d3d 0e88 8ebd 9c38 82bc 57a5 0a3d
00000310: 95e1 d23c 29c8 643d 696b 043d de53 a4bd
00000320: ed6f a83c 5988 08be 20ba 183c d296 4f3d
00000330: ede5 11be 78d1 303e cc78 193d 5272 c6bc
00000340: cc48 e23d 8994 c5bd 666a 9e3b d147 c83d
00000350: 8877 2d3e a665 aebd 06e3 d33d 4594 f7bd
00000360: 3d9e 753c edfe 2dbe 919b 303e f441 00be
00000370: 8bb6 74bd d185 cb3c b597 52bd 088a 83bd
00000380: 7973 a03c 3dd5 5a3d 02e2 7bbd f605 013d
00000390: 4478 11bd e35c babd eab1 b23c 1e3e f0bd
000003a0: 9440 fabc e14a 8abd f7ef 86bd b7ef f43c
000003b0: 06d8 fcbb b10a 6d3d 9bd4 32be f286 dfbc
000003c0: db5a 413e f66f 0fbe 5a7c 9a3c f1f8 d3bd
000003d0: 4956 363d 3920 d93c 0022 a5bc 239e f8bc
000003e0: 6774 acbd 21b6 bfbd 6bcb 9d3d f6e7 09be
000003f0: 3501 753c 5903 2fbd a092 743c 6f47 17be
0.08819439 0.16658674 0.081887595 -0.03765036 -0.014396149 0.17754838 -0.026099155 0.046868376
-0.023384852 0.026487095 -0.053443503 -0.011014795 -0.09307266 0.15576045 -0.02516991 0.025026694
0.18513481 -0.08206369 0.13792993 -0.15870574 0.0835135 -0.067686684 0.1614013 0.019552488
-0.013232409 0.05908779 0.07330417 0.0038007738 0.03363377 -0.06973804 -0.08374133 -0.025575124
-0.12552156 -0.028504487 0.0565367 -0.03890874 -0.053595155 0.05208053 0.16846827 -0.16786763
0.018196454 -0.116027154 0.13693476 -0.070133224 -0.096466325 0.045309965 -0.09180851 -0.17937618
0.11713469 -0.05832202 -0.14958836 -0.124523856 -0.08476416 0.014002008 -0.11825533 -0.04658538
-0.043287024 0.0430067 0.096478865 0.020136375 -0.009086708 0.08929368 -0.028100802 0.045203652
0.052361045 -0.14847334 0.0805705 0.08416719 0.06371798 -0.055636913 -0.046641864 0.13790284
-0.060914133 0.08516252 0.07795553 -0.1064242 -0.15872996 0.073809944 -0.15374796 0.2657298
-0.05789128 0.04955979 -0.0762076 -0.137614 0.076291956 0.033892155 -0.073888384 0.1180455
-0.06929619 0.15481313 0.08481516 0.13938431 0.19538929 0.0778895 -0.10732963 -0.10260391
-0.011987679 -0.07460078 -0.063100375 -0.27289224 -0.105800025 -0.17375219 -0.061037976 -0.0888585
0.03390926 0.09596872 -0.06408791 0.04552024 0.12711927 0.079678535 -0.0170887 0.12976038
0.06640373 0.13784318 0.113505304 0.2452521 -0.15835546 0.09874724 0.20759444 -0.10495232
0.23231794 0.0066082105 -0.085180834 0.041263785 -0.17962177 -0.04389871 -0.03890261 0.07468708
0.0061428794 0.036864404 -0.050789993 0.054695614 -0.0301026 -0.12775397 -0.07010736 0.10012949
0.1633434 0.0023612352 -0.053423297 0.15401304 0.20767802 -0.065503344 -0.058282442 -0.08075163
0.0012343777 -0.09865761 -0.047522858 0.045916505 -0.08693779 0.12226546 -0.112674944 -0.26988438
-0.07427954 -0.0114769805 -0.11489495 -0.088969804 -0.027355792 -0.05379977 0.055219956 -0.13892522
-0.06172435 -0.121074855 0.10214557 -0.065339625 0.0063333944 0.15637745 0.02800759 0.09118572
-0.13678153 0.19338897 0.06609687 0.14204498 -0.055927645 -0.0073600365 -0.066271044 0.1571164
0.077764906 -0.16489483 0.18835235 -0.0776148 -0.069857374 0.024590777 0.030869236 -0.05304656
0.1216633 0.2152091 0.047892414 0.119255915 0.17017001 -0.002352921 0.088644356 0.0459831
0.077038445 -0.06959544 -0.015896134 0.033849087 0.025742332 0.05585495 0.032328997 -0.08023809
0.020561183 -0.13333263 0.009321719 0.050680943 -0.14247866 0.17267406 0.037468717 -0.024224434
0.11049041 -0.096474715 0.004834461 0.09779323 0.16940129 -0.08515482 0.10346036 -0.12088827
0.01499134 -0.16991778 0.17246844 -0.12525159 -0.0597444 0.024844082 -0.05141421 -0.06422812
0.019586312 0.053426016 -0.061494835 0.031499825 -0.035515085 -0.09099748 0.021813352 -0.11730598
-0.030548371 -0.06752563 -0.065887384 0.029899461 -0.0077161817 0.057871524 -0.17463915 -0.027286027
0.18882315 -0.14007553 0.018858124 -0.10350216 0.04451588 0.026504623 -0.020157814 -0.030348843
-0.084206395 -0.0936091 0.077048145 -0.13467392 0.014953901 -0.042727802 0.014927536 -0.14773344

gru.bias_ih_l0 f4 [192]
00000000: d10c df3d ddc4 1c3d 12a6 16bd 24bf 1b3e
00000010: 0729 b8bd 4b35 633d 9229 193e 4f4c 853d
00000020: 4288 2f3d 465a a83d 4655 943d bf64 073d
00000030: 5160 113b 171f 843d ac47 8d3d 8724 a73d
00000040: a1df 463d 3932 9fbd 3530 a43d 0005 a0bc
00000050: 4045 e7bd eaca bf3c 07fc ff3d 4350 b2bd
00000060: 05c7 03bd ad1a d3bd 2f15 3f3b 46ff 403d
00000070: 8058 ab3a ff93 583d 6e12 763d 37b6 41bd
00000080: eda2 83bd f962 51bc 6055 71bc a7f8 663d
00000090: ad3b 193e d794 55bd a654 473d 113d 7abd
000000a0: cfc1 42bd f3d3 b9bd a3ec d0bd 2121 763d
000000b0: a98b f4bc d4b0 ef3d cb79 033d c382 51bc
000000c0: 9663 2dbd 21d7 423d c3a6 b83d 8bf7 a53c
000000d0: 9fce aabd 6f8c 4ebd 501d 8dbd 4d35 03bd
000000e0: f15a 533d bcda ba3d 2327 a73d 3992 083e
000000f0: a158 0cbe 90a1 b5bd ca01 5abd e1f1 a2bd
00000100: e1de 573d 7617 00be 7e7a 143d 0313 d4bc
00000110: 33c8 5a3d 8de6 82bd 06bb 8c3b c176 44bc
00000120: 1195 3d3d 7b3f 01bc 47ac 8dbd 148d 1bbd
00000130: f008 9dbd 579f 21be ccd2 343e edc7 cb3c
00000140: 17a7 16bd 1b18 e6bd 18fc 123e ee2d 9c3d
00000150: 5459 c53d 039b 123d aadb 98bc ddf4 ca3b
00000160: a504 23bd 4f29 bb3c 33dc abbd 2387 10be
00000170: 4d71 2bbe 4fdb d8bd 02a5 2abe 0462 bebc
00000180: 11ac c4bd 9319 b7bd bc04 453d 7b20 f9bd
00000190: 361c 9b3c 8b51 ddbd 76c6 46be 5c32 893a
000001a0: 3380 16be e6d1 4cbc d4bd d6bc f45e 063d
000001b0: 400f 403b 2cf4 3cbd 9f03 d8bd c73f 05be
000001c0: 4c36 003d b7f1 e93b a732 25be 1b69 2ebe
000001d0: 9075 ed3d 4a9e 1dbe 83d1 573c a707 80bd
000001e0: 8bb0 563d e2f8 16be 215e c6bb 834e 763c
000001f0: fa31 79bd 75e9 963d 5726 d7bd 0d6b 1b3d
00000200: feef c33d 4276 0c3e 6827 e13c bcee cf3c
00000210: d7d2 dcbd 41c1 d4bb f9b7 f8bc a0d3 eebd
00000220: 18e4 af3a 1c08 71bd 96ad 9bbc bc1e bfbd
00000230: dde6 08be 19a9 0a3d 837a 72bd a4c8 7f3d
00000240: 8c3a 8f3c c7b2 6abd 64c5 ba3d 21a5 a2bd
00000250: 0444 a63d 2f46 98bd de64 a3bd 59c9 0fbe
00000260: fc24 543d 25f6 50bd 85dd 86bc e122 fabd
00000270: 110d af3d 3772 edbc 7461 b73d bddd 82bd
00000280: 9870 863d 96ce c33d af76 15bd 544f 05bd
00000290: add6 d4bc 6fba 7d3d 954a 463e 74e4 95bb
000002a0: 4288 0ebe 0e7c b7bd 27f5 a6bd 15e6 da3c
000002b0: 60bb 13be 4bb2 9abd 26a5 633d 78db 97bd
000002c0: cced 523d f14e 93bd 1013 f93d 7540 8ebc
000002d0: 33a4 e7bd 0100 ba3d a331 893d 65f6 60bc
000002e0: 8959 a7bd f656 f2bc 4cdd acbd 5848 17bd
000002f0: 1877 0bbe 8e89 a43d 3e7f 9fbd 71b3 933d
0.108911164 0.03827368 -0.03677947 0.15209633 -0.089922 0.055470746 0.14957264 0.06508695
0.042854555 0.08220343 0.07242827 0.033055063 0.0022182653 0.064512424 0.06898436 0.08161264
0.048553113 -0.07773251 0.08017007 -0.019533634 -0.11292505 0.023412187 0.12499242 -0.08706715
-0.03217222 -0.103078224 0.0029156914 0.047118448 0.001307264 0.052875515 0.06007617 -0.047292914
-0.0642756 -0.012779945 -0.014729828 0.056389477 0.14964171 -0.052143898 0.04866471 -0.061093394
-0.04754811 -0.09073629 -0.10201385 0.060090188 -0.029851751 0.11703649 0.032098573 -0.012787524
-0.0423313 0.047568444 0.09016182 0.02025964 -0.08340191 -0.050426897 -0.068903565 -0.032033253
0.0516004 0.091237515 0.081617616 0.1333703 -0.13705684 -0.08868706 -0.053224362 -0.07956291
0.05270279 -0.1250895 0.03624963 -0.025887972 0.05341358 -0.0639163 0.004294756 -0.011991204
0.04628474 -0.00788867 -0.06917625 -0.03797634 -0.0766772 -0.1578344 0.17658538 0.024875605
-0.036780443 -0.112350665 0.14353979 0.07625948 0.096361786 0.035792362 -0.018659431 0.0061937408
-0.03979935 0.022846846 -0.08391609 -0.1411405 -0.1674244 -0.10588705 -0.16664508 -0.023240097
-0.096031316 -0.08940425 0.04810022 -0.12164398 0.01893435 -0.10806569 -0.19411644 0.0010467279
-0.14697342 -0.012501216 -0.026213564 0.032805398 0.0029305965 -0.046131298 -0.10547566 -0.1301261
0.03130178 0.0071394104 -0.16132604 -0.17032282 0.11594689 -0.15392414 0.01317251 -0.062514596
0.05241446 -0.14743379 -0.0060537015 0.015033367 -0.060838677 0.07368747 -0.105053596 0.03794389
0.09567259 0.13716987 0.02748461 0.025382392 -0.10782402 -0.006492764 -0.030361162 -0.11661458
0.0013419418 -0.058845624 -0.01900367 -0.09332034 -0.13369317 0.03385267 -0.059198868 0.062447205
0.017483972 -0.0572994 0.091196805 -0.07941652 0.08118442 -0.074352615 -0.07978223 -0.14041652
0.051793084 -0.05101599 -0.01646305 -0.12213684 0.08547414 -0.028985126 0.089541346 -0.063899495
0.06564444 0.095608875 -0.03649014 -0.032546356 -0.025981272 0.061945375 0.19364388 -0.004574353
-0.13919166 -0.089592084 -0.08152228 0.02672104 -0.14426947 -0.07553538 0.05557742 -0.07414907
0.051496312 -0.07192791 0.12161839 -0.01736472 -0.113106154 0.09082032 0.066989206 -0.01373062
-0.08171374 -0.029582482 -0.084406465 -0.036934227 -0.1361965 0.08034049 -0.077879414 0.0721196

gru.bias_hh_l0 f4 [192]
00000000: 019a bf3d 9207 b6bd f356 2ebe bd4a 943d
00000010: a9ce 113d 89a7 c83d efef 9bbd 7fbe 3abd
00000020: bcba 883c 6cf0 06be 469b b73d 7dbf 463a
00000030: 01fb dcbd 61d0 6a3d 3f39 5d3d c1a0 44bd
00000040: d50b 5c3c 00e7 92bd 9872 a4bc c24c 27bd
00000050: f974 02bd 321b 3f3d 6c4c ca3d 3d69 0b3c
00000060: fd07 a1bc ea30 7abd aa71 09be 5883 5d3d
00000070: d8d0 04bd 4afb bfbd e93d 93bd 31e3 0abe
00000080: 5ea4 d0bc dcd4 8cbc 314b ebbd 2d8a 16be
00000090: b9dc 0fbd a0a0 9ebd 5160 ce3d c8b5 943c
000000a0: eab0 b4bd 0d42 8e3d 8a90 1cbe 9ce8 423c
000000b0: 0c35 5c3b 2b82 233d 3311 1cbd 3e11 64bd
000000c0: ac95 b8bd c6e8 9ebd 71c6 da3d 3574 db3d
000000d0: 6fa3 3abe c273 1a3e 64cd 1a3d 80be 8dbc
000000e0: 1eb1 dfbd 66ef 4c3d 25ab 933d 1f02 453c
000000f0: bb51 933d 12f0 42bc 7612 e8bd d713 a03d
00000100: 4997 20bd ffcf a1bc 1771 bebd ca16 41bd
00000110: 1549 903d ebfc ec3b b82e c23c 9a00 c0bd
00000120: 7db4 b03d 2b17 1dbb 80c1 ffbc 6306 2fbd
00000130: a6f8 5bbe 4114 b23d 326d fa3d e674 07bd
00000140: a98b fcbd b7e7 8cbc b64f 82bc 5161 0c3e
00000150: 6f8b 823d 3b4d dabd 96b1 eebd 9fd6 e43c
00000160: cd6b a03d 8c4e cf3d df94 c7bd 0e96 773d
00000170: 3a5b 02be 90a1 05be bf2f e8bd 58af ddbc
00000180: bd33 ce3c 680a 27bd 5e58 1c3d e722 b03b
00000190: 9029 843d e691 2e3d e6b6 47be 1200 73be
000001a0: 2365 b3bd 323a 06be 44b1 1cbe 5602 333d
000001b0: 91c3 643d 4de5 0cbe 27bd d63c c86d bcbd
000001c0: b05b 47bc 6df0 0cbd 7329 00be e9e8 1dbe
000001d0: 2279 b23c 4d50 9d3d 9f28 71bd 88d4 893c
000001e0: 523a d7bd af80 283d 00b6 b5bc ea83 2e3e
000001f0: d122 58be 7257 21be 0722 9fbd 4345 24be
00000200: 9a78 853c 8cd7 8bbc 4187 b33d 3959 343e
00000210: a644 2f3d 2658 d33d c3cd c13d 1599 a1bd
00000220: 0ce5 383d 1f87 7cbc 311a 7b3d 5667 adbd
00000230: 96c6 eebd b182 0dbd 26c9 10be 8d42 533c
00000240: 1b8e fa3d 6ade 983d c53f f93d f5ea f7bd
00000250: e2f1 eb3d dcc1 d13b 57fe 78bd 03dd 8fbd
00000260: 62fc 3c3e 6482 27be de42 0f3e cc0a e4bd
00000270: 51cc 0f3d dcd2 91bc ad19 70bd 69a5 ae3d
00000280: 0306 15bd b2c3 a63d 15c8 993d 1525 3fbd
00000290: c2c0 133e e7f4 f33b b436 5b3d dfb6 bebd
000002a0: 62cd 9fbb 42bf d8bd a0e0 423d 736a 6a3d
000002b0: 8946 cbbd b3fe 9dbd 3d77 9a3d 4129 c33c
000002c0: bbde b3bd 225e acbd f470 a0bd 62de 87bc
000002d0: 3404 1e3d fac2 643c cea2 6c3b 19a4 b6bd
000002e0: a167 663d 7f71 1b3e ae66 e43a c5b9 bc3b
000002f0: d055 67bb 978d 013e 53eb bf3c 79ab 2ebd
0.09355546 -0.08888163 -0.17025356 0.07240818 0.035597477 0.0979758 -0.07614123 -0.045591827
0.016690604 -0.13177651 0.08965163 0.00075816346 -0.10790063 0.05732763 0.054009672 -0.04800487
0.013430555 -0.07172966 -0.020074174 -0.040844686 -0.031849835 0.046656795 0.098778576 0.0085089775
-0.01965713 -0.061081804 -0.13422266 0.054080337 -0.03242573 -0.093741015 -0.07189543 -0.13563229
-0.025469001 -0.017191343 -0.11488951 -0.14701147 -0.035122607 -0.077454805 0.10076965 0.018153086
-0.08822806 0.06946192 -0.15289512 0.011896279 0.0033600954 0.03991906 -0.03810234 -0.055680506
-0.09012923 -0.07759242 0.10682381 0.10715524 -0.18226407 0.1508322 0.037793532 -0.017302752
-0.10922454 0.050032996 0.072103776 0.0120244315 0.07193323 -0.011898058 -0.11331646 0.07816284
-0.039206777 -0.0197525 -0.09298914 -0.047140874 0.07045189 0.0072322986 0.023703918 -0.09375115
0.086281754 -0.0023970108 -0.031220198 -0.0427307 -0.2148157 0.086952694 0.122278586 -0.033070467
-0.123313256 -0.017200334 -0.01590715 0.13708998 0.06374251 -0.10659262 -0.116549656 0.02793437
0.07833061 0.101224035 -0.09745192 0.060445838 -0.12730113 -0.13049912 -0.11337232 -0.02706115
0.025171155 -0.04078141 0.03817021 0.0053752544 0.0645324 0.04261961 -0.19503364 -0.23730496
-0.08759525 -0.13108137 -0.15301996 0.0437034 0.05585057 -0.13759346 0.026213242 -0.092006266
-0.012167856 -0.034408975 -0.12515812 -0.1542088 0.021786276 0.07681332 -0.05887663 0.016824976
-0.105091706 0.041138347 -0.02218151 0.17042509 -0.21107031 -0.15756014 -0.07770162 -0.16042046
0.016292859 -0.017070554 0.08766032 0.1761216 0.042790078 0.10319547 0.09463074 -0.07890526
0.04514031 -0.015413075 0.061304275 -0.084669754 -0.11658971 -0.034548465 -0.14139232 0.012894285
0.12234136 0.07464297 0.12170366 -0.12105361 0.11520745 0.0064012837 -0.060789432 -0.070245765
0.18455651 -0.16358334 0.13990352 -0.11134872 0.03510696 -0.01780074 -0.058618236 0.08527643
-0.036382686 0.08142795 0.07508866 -0.046666224 0.14429 0.007444966 0.053518966 -0.09312224
-0.0048767785 -0.105833545 0.0475775 0.057230424 -0.09925563 -0.07714596 0.07542274 0.023823382
-0.08782717 -0.08416392 -0.07834044 -0.016585533 0.038578227 0.013962502 0.0036107781 -0.08918018
0.056251172 0.15180014 0.001742562 0.00575945 -0.003529895 0.12651668 0.023427641 -0.042643998
