models/gnn-rnn/gnn_rnn_r_half.pth (torch, 152566 bytes, 17 tensors)

fc_measurement.0.weight f4 [32, 1]
0	0x3f62e2af	0.8862714
1	0x3f7689ab	0.96303815
2	0xbe9e6496	-0.30936116
3	0x3f869326	1.0513656
4	0xbe9186c0	-0.2842312
5	0x3db06197	0.08612364
6	0xbf1a2312	-0.60209763
7	0x3f3ab42b	0.72931165
8	0x3f7b456b	0.981528
9	0xbf62db95	-0.88616306
10	0x3f79f525	0.97639686
11	0x3e23ebaf	0.16007875
12	0x3f6490f4	0.8928368
13	0x3e647ce5	0.22313268
14	0x3f2bfe2d	0.67184716
15	0xbe765daa	-0.24059168
16	0x3f687c2c	0.9081447
17	0x3e8ae1d0	0.27125406
18	0xbf1c4410	-0.61041355
19	0x3ece60ab	0.40308127
20	0xbef3a7f3	-0.47589073
21	0xbe82bbaa	-0.255338
22	0xbf18740b	-0.5955207
23	0x3f47a4af	0.7798566
24	0xbf5049d2	-0.8136264
25	0xbf227cf9	-0.63471943
26	0xbebb6269	-0.36598518
27	0xbf304b33	-0.68864745
28	0x3e825c65	0.25461116
29	0xbf888c4b	-1.0667814
30	0x3f87d75d	1.0612599
31	0xbf882238	-1.0635443

fc_measurement.0.bias f4 [32]
0	0x3f83d740	1.0300064
1	0x3e14a894	0.14517432
2	0xbe23e5f8	-0.16005695
3	0x3f347271	0.70487124
4	0x3e8b4c35	0.2720658
5	0x3f777d58	0.96675634
6	0x3e6d9d6b	0.23204581
7	0xbe977a6e	-0.29585594
8	0x3e9ccbcd	0.30624238
9	0xbdb74ab9	-0.08949799
10	0x3ed916d2	0.42400223
11	0x3f8f801a	1.1210968
12	0x3f43699a	0.7633301
13	0xbf0f7cc4	-0.5604975
14	0x3f23cb6b	0.63982266
15	0x3e9d563b	0.3072985
16	0x3f128c43	0.5724527
17	0xbf3a9181	-0.7287827
18	0xbf8380d3	-1.0273689
19	0xbebb94ab	-0.36636862
20	0xbf5fdd41	-0.8744698
21	0x3faf28ee	1.3684366
22	0x3efbd266	0.4918396
23	0x3ee503c8	0.44729447
24	0x3f16b68f	0.5887231
25	0x3e959be5	0.292205
26	0x3f71ef49	0.94505745
27	0xbf3cf3f6	-0.73809755
28	0xbd532afc	-0.051554665
29	0xbf3769b5	-0.7164567
30	0x3e94c890	0.29059267
31	0xbe0adb95	-0.13560326

fc_measurement.2.weight f4 [32, 32]
0	0x3a72a2d0	0.00092558283
1	0xbd893ad1	-0.067006715
2	0x3e2812d0	0.16413426
3	0xbe183873	-0.14865284
4	0xbdf15cdd	-0.117852904
5	0xbeb46953	-0.35236606
6	0x3e1db147	0.15399657
7	0x3d457078	0.04820296
8	0x3e0b6e66	0.13616332
9	0xbe10b2e1	-0.14130737
10	0xbe5b07cd	-0.21389695
11	0xbeac06b8	-0.33598876
12	0xbe29bd3c	-0.16576093
13	0x3df18f52	0.11794914
14	0x3c057e4d	0.008147788
15	0x3e03993b	0.12851422
16	0xbe09b199	-0.13446654
17	0xbd92fe16	-0.07177369
18	0x3e07a549	0.13246645
19	0xbd7f930e	-0.0623961
20	0x3e16377f	0.14669608
21	0xbdc02053	-0.09381165
22	0x3db61c54	0.08892122
23	0xbe38148c	-0.17976588
24	0xbdc6aa9c	-0.0970051
25	0x3d502a83	0.050821792
26	0x3b9f1615	0.0048549273
27	0xbcc18938	-0.023625001
28	0x3d933a2d	0.071888305
29	0x3e0735cc	0.13204116
30	0xbe261531	-0.16219021
31	0xbdb6d97b	-0.089282
32	0x3e4d09be	0.20023248
33	0xbd0a8f0f	-0.033827838
34	0xbe5b038d	-0.21388073
35	0xbe0c9ee7	-0.13732491
36	0xbe51ebbd	-0.20500083
37	0x3e13fe1e	0.14452407
38	0xbe0a36ee	-0.13497517
39	0xbde6b9a4	-0.11265877
40	0x3d052238	0.032503337
41	0xbe7d5fad	-0.24743529
42	0xbdf3c030	-0.11901891
43	0xbc5297fc	-0.012853619
44	0xbdf50c74	-0.11965266
45	0xbe150822	-0.14553884
46	0x3e5db367	0.21650468
47	0xbd8492aa	-0.064732864
48	0x3db3aec9	0.08773572
49	0xbe4e6116	-0.20154223
50	0xbea40595	-0.3203551
51	0xbd549e82	-0.051908977
52	0xbe3926f8	-0.18081272
53	0xbd735291	-0.059404913
54	0xbe3997a6	-0.18124256
55	0xbd9518b0	-0.072800994
56	0xbddb2e1c	-0.10702154
57	0xbe39c86d	-0.18142863
58	0xbdaca618	-0.08430117
59	0xbe909324	-0.2823726
60	0xbdc6df55	-0.09710566
61	0xbe7a88ec	-0.24466294
62	0xbd046e6f	-0.03233188
63	0xbe8901d0	-0.26759195
64	0x3e869598	0.26286006
65	0x3dc95442	0.09830524
66	0x3e079b57	0.13242851
67	0x3e34c16e	0.17651913
68	0xbe14dd80	-0.1453762
69	0x3e24cee1	0.16094543
70	0xbda463e6	-0.080268666
71	0x3d9e5264	0.077305585
72	0xbc87fa56	-0.016598862
73	0xbe56ace5	-0.20964392
74	0x3e3472ae	0.17621872
75	0x3bfd1e57	0.007724564
76	0x3e41b30a	0.18915954
77	0x3d04f6f9	0.032462094
78	0x3e775ece	0.24157259
79	0xbdb775b6	-0.089579985
80	0x3dbc8431	0.09204901
81	0x3e67d089	0.22638144
82	0x3d98d589	0.074626036
83	0x3e97547a	0.29556638
84	0x3e15d68b	0.14632623
85	0xbe0e14cb	-0.1387512
86	0x3d393645	0.04521777
87	0x3d3f6893	0.04673059
88	0xbd161842	-0.036644228
89	0xbe2643fc	-0.16236871
90	0x3e9b98a4	0.30389893
91	0xbe1821b4	-0.14856607
92	0x3e72a73d	0.23696609
93	0x3d1de52b	0.03854863
94	0x3e3f9bef	0.18711828
95	0xbe0295c2	-0.1275244
96	0x3e1b7df8	0.15184772
97	0x3c8ad122	0.016945425
98	0x3e90449c	0.28177345
99	0xbe2cdb44	-0.16880518
100	0x3ec282d2	0.37990433
101	0x3de45bd2	0.11150326
102	0x3e49269b	0.19643633
103	0x3ddad9b6	0.10686056
104	0x3ceecd1d	0.02915054
105	0x3e23f8c7	0.1601287
106	0xbdccae99	-0.09994239
107	0x3e16a7be	0.14712426
108	0x3dadd0b1	0.0848707
109	0xbdf98367	-0.12183266
110	0xbde889bd	-0.113543965
111	0x3e827e31	0.254869
112	0xbe13fc41	-0.14451696
113	0xbc9bab79	-0.019002663
114	0x3ed57f44	0.41698658
115	0xbe6316c4	-0.22176653
116	0x3ea5276a	0.32256633
117	0x3ecc6a7f	0.39925
118	0x3eaacf75	0.33361402
119	0xbd9854af	-0.07438027
120	0x3ec1a97d	0.37824622
121	0x3ec1cb94	0.3785063
122	0x3ec384b3	0.3818718
123	0x3e5cac5f	0.2155013
124	0xbddb28eb	-0.10701164
125	0x3e866d84	0.2625543
126	0xbd4b585b	-0.04964481
127	0x3e53bd22	0.20677617
128	0x3e434272	0.19068316
129	0x3e7da0e8	0.24768412
130	0xbd39c85f	-0.045357104
131	0x3d36fe3c	0.04467605
132	0xbd50b459	-0.050953243
133	0x3bbf6903	0.005841376
134	0x3b87a354	0.0041393433
135	0x3e2755ed	0.16341372
136	0xbd8bfc79	-0.06835265
137	0xbdc22884	-0.09480384
138	0x3e72e2f2	0.23719385
139	0x3dc079fe	0.09398268
140	0x3d97658a	0.07392414
141	0x3d8964d5	0.06708685
142	0xbd026f10	-0.0318442
143	0xbe5f8ace	-0.21830294
144	0x3ce34452	0.027742539
145	0x3e75392c	0.2394759
146	0x3dba69ad	0.09102187
147	0x3e5b222d	0.21399756
148	0xbe33ded4	-0.17565471
149	0xbe6879ca	-0.22702709
150	0xbda9a8df	-0.08284163
151	0x3e837022	0.25671488
152	0xbc474fcc	-0.012165021
153	0xbd8a0ffd	-0.06741331
154	0xbc2ee798	-0.010675333
155	0xbdbe9ce5	-0.09307269
156	0xbbfc48e4	-0.007699119
157	0x3dcf0d49	0.10109956
158	0x3c414577	0.011796347
159	0xbd85234b	-0.06500872
160	0xbd5f5322	-0.05452264
161	0x3e8862fa	0.26638013
162	0x3dc54fed	0.09634385
163	0x3e4804c2	0.19533065
164	0xbe3d7d4b	-0.18504827
165	0xbe206263	-0.15662532
166	0xbe3a4b28	-0.18192732
167	0x3e9b838c	0.303738
168	0x3e685ab1	0.22690846
169	0x3de4c00c	0.111694425
170	0x3e6acbe8	0.22929347
171	0x3da1155f	0.07865404
172	0x3e022f8a	0.12713447
173	0x3e1e4c65	0.1545883
174	0xbcff2294	-0.031144418
175	0xbe7b37e5	-0.24533041
176	0x3e51dfa6	0.20495471
177	0x3e63b902	0.22238544
178	0xbd90fa9d	-0.07079051
179	0x3dc27093	0.09494128
180	0xbd857861	-0.06517101
181	0xbe272247	-0.1632167
182	0xbe38e7c2	-0.18057159
183	0x3e442669	0.19155277
184	0xbdc00b71	-0.09377182
185	0x3d994fe0	0.07485938
186	0xbdeb8436	-0.114998266
187	0xbe29d390	-0.16584611
188	0x3e0eac48	0.13932908
189	0xbdfa9bb3	-0.122367285
190	0x3db66803	0.089065574
191	0xbe525630	-0.2054069
192	0x3e086ae2	0.13322023
193	0xbe12e045	-0.14343365
194	0x3e2c6343	0.1683474
195	0x3dd65608	0.10465628
196	0x3e46af3e	0.19402787
197	0xbdccdecc	-0.10003433
198	0x3e48c200	0.19605255
199	0xbe14f00f	-0.145447
200	0x3d853b00	0.06505394
201	0x3e748dca	0.23882213
202	0xbc3e5ace	-0.011618329
203	0x3d981770	0.07426345
204	0xbc4c00d7	-0.012451372
205	0xbe752ab1	-0.23942067
206	0x3de728fb	0.11287113
207	0xbddbd791	-0.107344754
208	0x3e0872af	0.13324998
209	0x3da48808	0.080337584
210	0x3e875274	0.26430094
211	0xbe02192f	-0.1270492
212	0xbd3f0f5d	-0.04664551
213	0x3de42dcd	0.11141548
214	0x3e29d9ba	0.16586962
215	0xbe1cfbd0	-0.15330434
216	0x3ce378f4	0.027767636
217	0xbd1381ba	-0.03601239
218	0x3d65fc72	0.056148954
219	0xbb528704	-0.0032123933
220	0xbdfcb753	-0.12339654
221	0x3cae7bc4	0.02129925
222	0xbe33ef5d	-0.17571779
223	0x3e5f80a5	0.21826418
224	0x3da84b63	0.08217504
225	0xbda5762b	-0.080791794
226	0x3d22a07b	0.039703827
227	0xbdffa918	-0.12483424
228	0xbdd493f0	-0.10379779
229	0xbdfa1561	-0.12211109
230	0x3dfb5032	0.122711554
231	0xbe171797	-0.14755093
232	0xbe2a554d	-0.16634102
233	0x3d35bbc0	0.044368505
234	0xbde0ff20	-0.10986161
235	0x3d1260ae	0.035736732
236	0xbd4c5873	-0.04988904
237	0xbd9b6c8e	-0.075890645
238	0xbe072534	-0.13197786
239	0xbcecdcaf	-0.028913824
240	0xbe48a552	-0.19594315
241	0x3de0cbb5	0.10976354
242	0xbc101323	-0.008793625
243	0xbaa0a9ba	-0.0012257614
244	0xba8279ef	-0.0009954552
245	0x3d8b08d9	0.06788797
246	0x3e62b2aa	0.22138467
247	0x3cf36230	0.029709905
248	0xbdc6900c	-0.096954435
249	0x3e02e795	0.12783654
250	0x3e63581b	0.22201578
251	0x3dd8930c	0.10574922
252	0x3d8080cc	0.06274566
253	0x3e6e2dc9	0.23259653
254	0xbda45786	-0.08024506
255	0x3dc2b0bb	0.09506365

fc_measurement.2.bias f4 [32]
0	0xbe5595b8	-0.20857894
1	0xbd4df734	-0.05028458
2	0x3d6a73f5	0.05723949
3	0x3eb49632	0.3527084
4	0xbe3b0f09	-0.18267454
5	0x3b45aad2	0.0030161631
6	0x3e59a622	0.21254781
7	0x3d6f01f6	0.05835148
8	0xbdd501f2	-0.10400762
9	0x3de1f159	0.110323615
10	0x3c85a0fb	0.016312113
11	0x3c688399	0.014191532
12	0x3ccaec6a	0.024770934
13	0x3e0fa917	0.14029346
14	0x3e3ce185	0.18445404
15	0x3ec1f93f	0.37885472
16	0xbdda6e11	-0.10665525
17	0x3ee0ff19	0.43944624
18	0x3d98b4c1	0.07456351
19	0x3e6965f6	0.22792801
20	0x3d0a410a	0.033753432
21	0x3d772b03	0.060343754
22	0x3d471ce2	0.04861153
23	0xbda1a9b2	-0.07893695
24	0xbc288e36	-0.010287812
25	0x3e25b0da	0.16180745
26	0x3c3ff137	0.011715225
27	0x3e64405f	0.2229018
28	0xbdf0d975	-0.11760227
29	0x3e9b3871	0.303165
30	0x3e2db7d9	0.16964664
31	0x3da2f0b9	0.079560705

type_embedding.weight f4 [2, 32]
0	0xbd9ff219	-0.07809848
1	0xbe81268b	-0.25224718
2	0x3fa0fa70	1.2576427
3	0x3f6571a1	0.8962651
4	0xbfef5470	-1.8697643
5	0x3e797603	0.24361424
6	0x3fd3283d	1.6496655
7	0xbf9741c3	-1.1816944
8	0xbf6a91f2	-0.91628945
9	0xbf00b44d	-0.5027512
10	0x3dd6677c	0.10468957
11	0xbe3db0f4	-0.18524534
12	0x3fa867de	1.3156698
13	0x3cc590cc	0.024116896
14	0x3a9abf2c	0.0011806241
15	0x4061bd07	3.5271623
16	0xbf8e05b6	-1.1095493
17	0xbf17009a	-0.5898529
18	0x3dc978f7	0.09837525
19	0x3f0c37ba	0.5477253
20	0x3d7bdb9c	0.061488733
21	0xbf7796bd	-0.96714383
22	0x3fab9787	1.3405617
23	0x3ebd5632	0.36979824
24	0xbe6fb162	-0.2340751
25	0x402a8820	2.6645584
26	0x3f25de6f	0.6479253
27	0x3e1723df	0.14759777
28	0xbfb05f70	-1.3779125
29	0xbf2c395c	-0.67275023
30	0x3f377091	0.7165614
31	0xbe8d5386	-0.27602786
32	0xbfb896ca	-1.4421017
33	0xbda51a74	-0.08061686
34	0x3f159a52	0.584386
35	0x3fa6e72e	1.30393
36	0x40096d1d	2.1472847
37	0x3feac722	1.834202
38	0x3ea53d97	0.32273552
39	0xc01f2a52	-2.486958
40	0xbeef9168	-0.46790624
41	0xbfb5def9	-1.4208671
42	0xbef79cf5	-0.48361936
43	0xbf23108d	-0.6369713
44	0x3ff15d7b	1.8856653
45	0xbf40d72b	-0.7532832
46	0x3eec2d2e	0.4612822
47	0xbefaa172	-0.48951298
48	0x3dbf3ee5	0.09338168
49	0xbeda8b45	-0.4268438
50	0x3f68e1ed	0.90969735
51	0xbf86c971	-1.0530225
52	0xbf89ac38	-1.0755682
53	0xbf87d5f5	-1.061217
54	0x403f6d99	2.9910643
55	0x3fbd1276	1.4771259
56	0xbf22abe1	-0.63543516
57	0xbf4276ec	-0.7596271
58	0xbf314eb4	-0.69260716
59	0x3e1f59b8	0.15561569
60	0xbe9774c5	-0.29581276
61	0xbf4bb169	-0.7956758
62	0x3fa6cb75	1.303084
63	0x3f7980a0	0.9746189

gcn1.bias f4 [64]
0	0x3c96168d	0.0183213
1	0x3d1f9518	0.038960546
2	0xbad3473c	-0.0016119252
3	0xbdd30429	-0.10303528
4	0x3d2a0592	0.04150922
5	0x3ce36aaf	0.027760832
6	0x3d2497cf	0.04018384
7	0x3dad937f	0.08475398
8	0x3d0e60ed	0.034760404
9	0x3d5fb6f2	0.05461783
10	0xbd012fd9	-0.03153977
11	0x3e0301b7	0.12793623
12	0xbbb4baf4	-0.0055154506
13	0xbb9a2360	-0.004703924
14	0x3cc6a297	0.02424745
15	0x3db51201	0.088413246
16	0x3d4fe2c0	0.050753355
17	0x3d466f09	0.048445735
18	0xbd5a3b79	-0.053279374
19	0xbc9875e5	-0.018610904
20	0xbb3e8648	-0.0029071737
21	0xbd11204f	-0.035431203
22	0xbcc5603f	-0.024093745
23	0x3c1e6418	0.009667419
24	0x3d3a93f1	0.045551244
25	0x3d5a4a5e	0.05329358
26	0x3df38b58	0.11891812
27	0xbd320e93	-0.04347093
28	0x3d433894	0.04766138
29	0xbccb5698	-0.024821565
30	0x3d64f8ca	0.055901326
31	0x3d42779d	0.047477353
32	0x3d4e21cd	0.050325204
33	0x3c5e6702	0.013574364
34	0x3d564fe9	0.052322302
35	0xbcffda22	-0.031231944
36	0xbc87878c	-0.016544126
37	0x3c3e2f45	0.01160795
38	0x3bfed4d7	0.0077768373
39	0x3c2fd9cb	0.010733078
40	0xbd1cdb55	-0.03829511
41	0x3d5f68d2	0.054543324
42	0xbba286d9	-0.0049599227
43	0x3ca417b7	0.02003084
44	0xbc5d6d64	-0.01351485
45	0x3cf830ca	0.030296702
46	0xbace35e7	-0.0015732617
47	0x3d1f2fa3	0.03886379
48	0x3c565937	0.013082794
49	0x3cfa0d04	0.030523784
50	0x3c804c11	0.015661271
51	0xbc614f1f	-0.013751774
52	0x3cd9d85e	0.02659243
53	0xbcd7a0be	-0.026321765
54	0xbcea83c1	-0.028627278
55	0xba3505e0	-0.00069054775
56	0x3d0e969c	0.0348116
57	0x3d1e0999	0.03858337
58	0x3caedb26	0.021344732
59	0x3cde7e26	0.027159762
60	0xbd099a7f	-0.033594605
61	0x3cf0a8cd	0.029377365
62	0x3c21fa4a	0.009886334
63	0x3d6f3db5	0.058408458

gcn1.lin.weight f4 [64, 64]
0	0x3d932edd	0.07186673
1	0x3df39d71	0.11895264
2	0x3e5bb57c	0.2145595
3	0x3e015dd2	0.12633446
4	0xbe2fa302	-0.17152026
5	0xbd8a0bc7	-0.067405276
6	0x3e5a81e5	0.21338613
7	0x3e487a97	0.19578014
8	0xbd2bc2e9	-0.041933928
9	0x3e17666b	0.14785163
10	0xbe57b224	-0.21064049
11	0xbd0bffdc	-0.034179553
12	0x3e6a58c5	0.22885425
13	0x3ccc66ce	0.024951365
14	0xbe05bd44	-0.1306048
15	0x3db41c43	0.08794453
16	0x3e09f023	0.13470511
17	0x3df309f6	0.11867134
18	0xbe20b30f	-0.15693305
19	0xbd0bce2d	-0.03413217
20	0xbaff423c	-0.0019474695
21	0xbd2b8509	-0.04187492
22	0xbc3e78c1	-0.01162547
23	0xbdb575ff	-0.088603966
24	0x3d200486	0.039066814
25	0x3db8bbf8	0.09020227
26	0x3a959e3c	0.0011414955
27	0x3e030187	0.12793551
28	0xbc2daad0	-0.010599807
29	0x3bb5a0c1	0.005542845
30	0x3b962dad	0.0045830817
31	0xbd4d637a	-0.050143696
32	0x3ca5adef	0.02022454
33	0xbbe1e8ed	-0.006894222
34	0x3d82a00a	0.06378181
35	0xbe0f4b0e	-0.13993475
36	0xbde4b5a6	-0.11167459
37	0xbe7331fd	-0.23749538
38	0xbde09598	-0.10966033
39	0x3dc0656c	0.09394345
40	0x3e46548a	0.19368187
41	0xbe3f7bcc	-0.18699569
42	0xbd440708	-0.047858268
43	0x3e280104	0.16406637
44	0xbe0fcdfb	-0.14043419
45	0x3e345afa	0.1761283
46	0xbcba369b	-0.022731116
47	0xbe5b337f	-0.21406363
48	0x3d45fde2	0.048337825
49	0xbde01a17	-0.10942476
50	0x3c48cf31	0.0122564295
51	0xbe2cf341	-0.16889669
52	0x3e6fc08e	0.23413298
53	0xbd90525f	-0.07046961
54	0x3de849e1	0.11342216
55	0xbe273f78	-0.16332805
56	0xbe1dacf9	-0.15398015
57	0x3da05ae5	0.07829837
58	0x3e1285c1	0.14308836
59	0xbcc06135	-0.023483852
60	0xbe2b562a	-0.16732088
61	0xbd17c1ce	-0.03705006
62	0xbe325519	-0.17415275
63	0x3d0366c2	0.03208042
64	0xbdc820a1	-0.097718485
65	0x3dd0bc3d	0.101921536
66	0x3ea1b990	0.31586885
67	0xbdb025c2	-0.08600952
68	0x3e90ae86	0.2825815
69	0x3e87be71	0.26512483
70	0x3d47a9b5	0.04874583
71	0xbe4b82fa	-0.19874182
72	0xbe71fbf9	-0.23631276
73	0x3e0d11e5	0.13776357
74	0x3e8d95c8	0.27653337
75	0x3d9f4c6f	0.077782504
76	0x3d09ad26	0.033612393
77	0xbd0f22cc	-0.034945294
78	0xbe35e187	-0.17761813
79	0xbcc93b09	-0.024564283
80	0xbd90b8b7	-0.070664816
81	0x3d9cdb85	0.076590575
82	0x3e8b0083	0.27148828
83	0xbd4603c9	-0.048343454
84	0x3e59d819	0.21273841
85	0x3e37a73e	0.17934892
86	0xbe3a576a	-0.18197408
87	0xbc39170f	-0.0112970015
88	0x3cf7ad0d	0.030233884
89	0x3e0c079c	0.13674778
90	0x3e52597d	0.2054195
91	0xbd31009c	-0.04321347
92	0x3e8076ae	0.25090545
93	0x3dea9fab	0.114562355
94	0x3e8d18df	0.27558038
95	0xbe21f5db	-0.15816443
96	0xbe28fd44	-0.16502863
97	0xbd8dfa59	-0.06932516
98	0x3d579372	0.05263085
99	0x3d7d4b8f	0.061839636
100	0x3e11656d	0.14198847
101	0x3e662f70	0.22479033
102	0xbbf0b72c	-0.0073460545
103	0xbe0efee4	-0.1396442
104	0xbd10085e	-0.03516423
105	0xbc12e65d	-0.008966056
106	0x3e029cb6	0.12755093
107	0x3d3426b6	0.04398223
108	0x3de44936	0.111467764
109	0x3d536423	0.05160917
110	0x3e387b6e	0.18015835
111	0x3e40ad53	0.18816118
112	0xbda3eaab	-0.08003744
113	0xbe4eb5bb	-0.20186512
114	0x3e2f1dbd	0.17101188
115	0xbbef24f1	-0.007298105
116	0xbe318434	-0.17335588
117	0xbdaa50a5	-0.08316163
118	0x3e4b1961	0.198339
119	0xbd87cf62	-0.06631352
120	0xbd66c3f4	-0.05633922
121	0x3e075dca	0.13219371
122	0x3e43739c	0.1908707
123	0x3c634198	0.013870619
124	0xbe589313	-0.21149854
125	0xbe0bfd96	-0.13670954
126	0xbce8f4da	-0.028437067
127	0x3cf0aef0	0.029380292
128	0xbcb153f7	-0.021646483
129	0x3e62fc03	0.22166447
130	0x3cc59fc6	0.024124037
131	0xbe50039c	-0.20313877
132	0x3d7cf1be	0.06175398
133	0xbd4dc232	-0.050234027
134	0x3e34a335	0.17640384
135	0xbd1d8393	-0.038455557
136	0x3d5d8932	0.054085918
137	0xbe703059	-0.23455943
138	0xbe88c067	-0.2670929
139	0xbccf4aaa	-0.025304157
140	0x3e131042	0.1436167
141	0xbe294bb9	-0.16532792
142	0x3b5149f0	0.003193494
143	0xbe2baba1	-0.1676469
144	0xbe06d11f	-0.13165711
145	0xbe396b4b	-0.18107335
146	0xbe363937	-0.17795263
147	0xbe52f4a7	-0.2060114
148	0xbda34341	-0.07971812
149	0xbd1525e3	-0.036413085
150	0x3d68a7cf	0.05680066
151	0x3d8b8752	0.0681292
152	0xbd87444a	-0.06604822
153	0xbda542c2	-0.08069374
154	0xbd9e46ad	-0.07728324
155	0xbf0f6d69	-0.5602632
156	0x3ddd710c	0.108125776
157	0x3e32f821	0.17477466
158	0xbe782eb1	-0.24236561
159	0xbe6abd5b	-0.22923796
160	0xbe0cb300	-0.13740158
161	0x3c21fe63	0.009887311
162	0xbd3ed1e2	-0.04658688
163	0xbe4c36cf	-0.19942783
164	0x3d86019e	0.06543277
165	0xbd4f89d1	-0.05066854
166	0xbe184acb	-0.14872281
167	0xbe18cc55	-0.14921696
168	0x3e5d3239	0.2160119
169	0x3e8da56c	0.2766527
170	0x3db16b6b	0.086630665
171	0xbd262ce3	-0.04057015
172	0x3da3be78	0.079953134
173	0x3e46c462	0.19410852
174	0xbdc71f2e	-0.09722744
175	0x3e3825e2	0.17983201
176	0xbe076b47	-0.13224517
177	0x3cd99552	0.02656046
178	0x3df10a87	0.11769586
179	0xbd86d808	-0.065841734
180	0x398a1c94	0.00026342703
181	0xbd177dcd	-0.036985207
182	0xbe18ba8f	-0.14914916
183	0x3e027643	0.12740426
184	0x3e48804f	0.19580196
185	0xbe51d2eb	-0.20490615
186	0xbd995b05	-0.07488064
187	0xbd6870cf	-0.056748208
188	0xbcf9a7ad	-0.030475462
189	0xbd81ccf9	-0.063379236
190	0xbe8b4d16	-0.2720725
191	0x3dbbe16a	0.09173854
192	0x3f3cb128	0.7370782
193	0x3da41970	0.08012664
194	0xbd5c0b59	-0.05372176
195	0xbe792a21	-0.24332477
196	0xbb3d81cf	-0.0028916483
197	0x3dbd1643	0.09232762
198	0xbdba39a5	-0.09093026
199	0x3e099a55	0.13437779
200	0x3d8ede5b	0.06976005
201	0xbd55efa4	-0.052230492
202	0x3dd5d344	0.10440686
203	0x3e4854f6	0.1956366
204	0xbe4a187f	-0.19735907
205	0x3d93b4fe	0.07212256
206	0xbe722413	-0.23646574
207	0xbd231aef	-0.039820608
208	0xbd12aa11	-0.03580672
209	0x3decd2c7	0.1156364
210	0xbe5099dd	-0.20371194
211	0x3db27d7d	0.08715341
212	0xbe46c63b	-0.19411556
213	0x3e1713c3	0.14753632
214	0x3c0ffda0	0.008788496
215	0xbd966379	-0.07343192
216	0x3cb92a9f	0.022603331
217	0x3e59283f	0.21206759
218	0x3dd224a2	0.102608934
219	0xbe947c19	-0.2900093
220	0xbd5dc509	-0.054142985
221	0x3e928f27	0.28624842
222	0x3d35c885	0.044380683
223	0xbc9243d2	-0.017854605
224	0x3da033c9	0.07822377
225	0x3d6dfcb2	0.058102317
226	0xbe411a01	-0.18857576
227	0xbdc12c4c	-0.09432277
228	0x3e85e0e7	0.2614815
229	0xbe0c67ed	-0.1371152
230	0xbe4723bd	-0.19447227
231	0x3e10f367	0.1415535
232	0x3d55cd77	0.0521979
233	0x3e9048f4	0.2818066
234	0x3e399fc2	0.18127349
235	0x3dbef334	0.09323731
236	0xbe7fcf7f	-0.24981497
237	0x3de936e8	0.11387426
238	0x3e07af15	0.13250382
239	0xbd91624a	-0.07098825
240	0x3e6e3649	0.23262896
241	0x3c446c50	0.011988714
242	0xbe8f207a	-0.27954465
243	0xbdd7895f	-0.10524248
244	0x3d6a0b93	0.057139944
245	0x3e9e7a4c	0.3095268
246	0xbd5e616c	-0.054292127
247	0xbe013fbf	-0.12621973
248	0x3d1015fc	0.035177216
249	0xbe3b7880	-0.18307686
250	0xbe5732eb	-0.21015517
251	0xbe546545	-0.20741756
252	0x3e35d7e2	0.17758134
253	0x3e85f59c	0.26163948
254	0x3da21f01	0.0791607
255	0x3d833d21	0.06408144

gcn2.bias f4 [64]
0	0xbca5e451	-0.020250471
1	0x3cece32f	0.028916923
2	0xbbb995e1	-0.005663619
3	0x3cb3f45a	0.021967102
4	0xbce512c0	-0.027963042
5	0x3d6a6338	0.05722353
6	0xbc9d8bcb	-0.019231698
7	0x3d40f8f2	0.047112413
8	0x3c655405	0.013997083
9	0x3c8856e0	0.016642988
10	0x3c72d80a	0.014822016
11	0x3d630bb3	0.05543108
12	0x3d379cc1	0.044827227
13	0x3c1e6018	0.009666465
14	0xbd06a28a	-0.032869853
15	0x3d9edf02	0.07757379
16	0xbc85d0cd	-0.016334916
17	0x3c0b7bb1	0.008513377
18	0x3cd56e9f	0.026053725
19	0xbc7fea82	-0.015619876
20	0x3d0705c9	0.0329645
21	0xbb79d58f	-0.0038121676
22	0xbbf69402	-0.007524968
23	0xbcaa89e2	-0.0208177
24	0xbc844f26	-0.016151022
25	0x3c8757a0	0.016521275
26	0x3a82d063	0.0009980317
27	0xbc1f0b86	-0.009707337
28	0x3ce68ff6	0.028144818
29	0x3d86ebe2	0.0658796
30	0x3ca982f6	0.02069233
31	0xbcb5171e	-0.02210575
32	0xbb43c9d6	-0.0029874942
33	0x3dab62f7	0.083684854
34	0xbc83989a	-0.016063977
35	0x3ce5f450	0.028070599
36	0x3da10cbf	0.07863759
37	0x3bbbe5ed	0.0057341964
38	0x3d420ac5	0.047373552
39	0x3c296799	0.010339641
40	0x3a8b2e5b	0.0010618673
41	0x3c84d2f0	0.016213864
42	0x3b980b73	0.0046400367
43	0x3d0ff119	0.035142038
44	0x3d3d40dc	0.046204433
45	0x3be746f5	0.0070580193
46	0x3a86250d	0.0010234431
47	0x3c835681	0.01603246
48	0x3c0e9341	0.0087021
49	0x3d6d6486	0.057957195
50	0x3bd41ae6	0.006472933
51	0xbbcd0bff	-0.0062575336
52	0xbabc9a21	-0.0014389196
53	0x3cdd0e19	0.026984261
54	0x3d8a53f3	0.06754293
55	0xbcb97713	-0.022639787
56	0x3c44a93c	0.012003239
57	0x3b816133	0.0039483546
58	0xbd68278d	-0.056678344
59	0xbd31a595	-0.043370802
60	0xbd924e65	-0.07143859
61	0x3da10f96	0.07864301
62	0xbc6d52b2	-0.014485048
63	0x3cae571a	0.021281768

gcn2.lin.weight f4 [64, 64]
0	0x3d429a77	0.04751059
1	0xbcb199e5	-0.021679828
2	0x3e5d2068	0.21594393
3	0x3df19532	0.11796035
4	0x3e0c35ff	0.13692473
5	0xbe6fdc7d	-0.23423953
6	0xbe4856ca	-0.19564357
7	0xbd782815	-0.0605851
8	0x3e6d7fc8	0.23193276
9	0xbc8a9605	-0.016917238
10	0x3ea90fa4	0.33019745
11	0xbd1d0ed9	-0.038344238
12	0x3e28277d	0.16421314
13	0x3dbef344	0.09323743
14	0x3d0710db	0.03297506
15	0xbddc0cb9	-0.10744614
16	0xbe571ff5	-0.21008284
17	0x3d919eb6	0.0711035
18	0x3deac9e7	0.11464291
19	0x3e841b1e	0.2580194
20	0x3e0d648d	0.13807888
21	0xbe06bebc	-0.13158697
22	0x3e5b8e10	0.21440911
23	0xbdee5683	-0.116375946
24	0xbe5530ce	-0.20819399
25	0x3d9a6194	0.07538143
26	0xbe37532c	-0.17902821
27	0x3df85a38	0.12126583
28	0xbc246a78	-0.01003515
29	0xbc8c517c	-0.017128699
30	0x3d1f6d25	0.038922448
31	0x3d3d29c5	0.046182413
32	0x3e0831ca	0.13300243
33	0xbdc29d22	-0.09502627
34	0xbe7df623	-0.24800925
35	0x3d30a5fe	0.043127052
36	0xbbdedef8	-0.0068014823
37	0xbcfd19ab	-0.030896029
38	0xbe325bea	-0.17417875
39	0x3e84d79a	0.2594574
40	0xbd65b9e5	-0.056085486
41	0xbc9ba74b	-0.01900067
42	0x3d7ace79	0.061232064
43	0xbdcef7a6	-0.10105829
44	0x3e4793fa	0.19490042
45	0xbe53ce8e	-0.20684263
46	0xbdecb943	-0.11558773
47	0xbe2c6cff	-0.16838454
48	0x3dcebd8f	0.10094749
49	0xbe92f97e	-0.28705972
50	0x3e6a6888	0.22891438
51	0xbe2183d3	-0.15772943
52	0xbe881c28	-0.26583982
53	0x3ca68e20	0.020331442
54	0xbe24b9cb	-0.160865
55	0x3e5432b8	0.20722473
56	0x3e361c81	0.17784311
57	0xbe356b82	-0.17716792
58	0x3e42ab24	0.19010597
59	0xbe03f08e	-0.12884733
60	0x3d8741b8	0.06604332
61	0xbe3c951a	-0.18416253
62	0xbdb06e81	-0.08614827
63	0xbe286541	-0.16444875
64	0x3db7e7e9	0.0897978
65	0x3da4cbd9	0.08046693
66	0xbe51a661	-0.20473625
67	0xbcf8c3b5	-0.030366758
68	0x3e5ca7e9	0.21548428
69	0x3e664b9a	0.22489777
70	0x3e033306	0.12812433
71	0x3d451336	0.048114024
72	0x3dcf7888	0.101304114
73	0x3e2ac018	0.1667484
74	0xbe3a2906	-0.18179712
75	0xbdef6e0e	-0.11690913
76	0xbe058a35	-0.13041003
77	0xbcde5fbe	-0.027145263
78	0x3cb53ca8	0.02212365
79	0xbdcdfc5b	-0.100578986
80	0x3dcbcb0c	0.099508375
81	0x3e23a39e	0.15980384
82	0xbdf56225	-0.1198161
83	0xbe2775f1	-0.16353585
84	0xbd825a6c	-0.06364903
85	0xbafa2b6d	-0.0019086428
86	0xbe019355	-0.12653859
87	0x3c5523cc	0.013009023
88	0x3e605899	0.21908797
89	0xbe435007	-0.19073497
90	0xbd082a27	-0.033243325
91	0xbdaef38b	-0.08542546
92	0x3e005208	0.12531292
93	0xbdf0f277	-0.117649965
94	0x3e2adeaf	0.1668651
95	0xbdde304b	-0.10849055
96	0x3dcfbcdd	0.10143445
97	0xbcf4c4fa	-0.029879082
98	0x3e71f2ec	0.23627824
99	0xbdfb114d	-0.12259159
100	0xbe059c87	-0.13047992
101	0x3e6fbdc9	0.23412241
102	0xbe1f1651	-0.15535857
103	0x3b975d32	0.004619264
104	0x3de9bdd4	0.1141316
105	0xbd24c048	-0.040222436
106	0x3e092e39	0.13396539
107	0xbe468d93	-0.19389944
108	0xbd4e67b3	-0.050391864
109	0xbdcfaa68	-0.10139924
110	0x3e0f94ab	0.14021556
111	0x3e44f427	0.19233762
112	0xbe5676ab	-0.20943706
113	0xbdbf9a46	-0.09355597
114	0xbe2400ae	-0.16015884
115	0xbe12ad29	-0.14323868
116	0x3dcc5d8d	0.09978781
117	0x3d85f882	0.0654154
118	0xbe2a5a43	-0.16635995
119	0xbe0e92ca	-0.13923183
120	0xbe09f784	-0.13473326
121	0x3d8d7c41	0.06908465
122	0xbe72e6d4	-0.23720866
123	0xbe236107	-0.15954982
124	0xbe36273f	-0.17788409
125	0x3e446450	0.19178891
126	0x3e4a7b47	0.19773589
127	0xbd7d6ec8	-0.061873227
128	0x3cee19b8	0.029064998
129	0xbd93ab39	-0.072103925
130	0xbd8ece1b	-0.06972905
131	0x3def46a9	0.11683399
132	0xbe3cf6f2	-0.18453577
133	0xbd1949a7	-0.037423756
134	0x3dff353d	0.12461326
135	0xbe621b2d	-0.22080679
136	0x3e8c47aa	0.27398425
137	0x3dcd8f4b	0.100370966
138	0x3df33d35	0.11876909
139	0x3d8dd155	0.069246925
140	0xbe2c6973	-0.168371
141	0xbda2a43e	-0.07941483
142	0xbe591e87	-0.21203052
143	0xbe7783ed	-0.2417142
144	0xbd9bf45f	-0.076149695
145	0x3d8c759f	0.06858372
146	0xbe8da1b4	-0.27662432
147	0x3dcaed68	0.09908563
148	0xbe5efa83	-0.2177525
149	0x3d8d1b7d	0.068900086
150	0xbe71daa0	-0.23618555
151	0x3df7f1d2	0.121066704
152	0xbe21e95a	-0.15811673
153	0x3d36a171	0.044587556
154	0x3d6a5479	0.057209466
155	0x3de6d91e	0.112718806
156	0xbe4545cb	-0.19264905
157	0xbdadb1eb	-0.08481201
158	0x3cc276d4	0.023738302
159	0xbe82f8c6	-0.25580424
160	0xbd9be9e3	-0.0761297
161	0xbe615612	-0.2200549
162	0x3d787a86	0.060663722
163	0xbc776819	-0.015100502
164	0xbe11ddd2	-0.14244774
165	0x3e3645f9	0.1780013
166	0x3e0a5989	0.13510717
167	0xbd37e7c1	-0.044898752
168	0xbd25da59	-0.040491436
169	0x3e7b92ec	0.24567765
170	0xbd7c8cc3	-0.06165768
171	0x3de68c35	0.11257211
172	0x3dc03286	0.093846366
173	0xbde17712	-0.11009039
174	0xbe38ce82	-0.18047526
175	0xbd4ae9fe	-0.04953956
176	0xbe53ff45	-0.20702846
177	0x3e70b41f	0.2350621
178	0x3d2e7f45	0.042601842
179	0xbd91e3e9	-0.071235485
180	0xbd507327	-0.050891068
181	0xbe0bc663	-0.13649897
182	0x3d5c8168	0.05383435
183	0x3e4e5ff0	0.20153785
184	0xbe73e907	-0.23819362
185	0xbe0cf570	-0.13765502
186	0x3e1891b0	0.14899325
187	0xbe2f8e3c	-0.17144102
188	0x3d27f1c9	0.04100207
189	0xbde3abcc	-0.11116752
190	0x3ddf3aac	0.10899863
191	0xbe0e0ac6	-0.13871297
192	0x3e2cb7ee	0.16867039
193	0x3e2de135	0.16980441
194	0xbe5c11dd	-0.2149119
195	0xbe254ae7	-0.16141854
196	0x3d02e3a2	0.03195537
197	0xbdf778ed	-0.12083612
198	0xbd9ffeb6	-0.07812254
199	0x3e7220d9	0.23645343
200	0x3d2a19fa	0.04152868
201	0xbd75937a	-0.059955098
202	0xbdda0ce7	-0.10646992
203	0xbc2e30a5	-0.010631715
204	0x3e4c2877	0.19937311
205	0x3e4bf50e	0.199177
206	0x3e435aa4	0.19077545
207	0x3e935b71	0.28780702
208	0xbe1913ce	-0.14948961
209	0xbd9c7df1	-0.07641209
210	0x3dc70c8d	0.09719191
211	0xbe16e904	-0.14737326
212	0xbe057cb6	-0.13035855
213	0x3d06ab2c	0.032878086
214	0x3e5a5d9e	0.21324775
215	0x3e30d81d	0.1726994
216	0x3e6ee52d	0.23329611
217	0x3e348bbe	0.17631432
218	0x3d2ab6bd	0.04167818
219	0xbe1bc57a	-0.1521205
220	0x3df314c1	0.11869193
221	0xbe3664b8	-0.17811859
222	0x3e5d2d02	0.215992
223	0x3e645b80	0.2230053
224	0xbdb4cbfb	-0.08827969
225	0x3e2d9534	0.16951448
226	0x3ba0e8f1	0.0049105813
227	0x3e4faaee	0.20280048
228	0xbe8ee393	-0.27908
229	0xbc708dfa	-0.014682287
230	0xbda06bc6	-0.07833056
231	0x3d84e8c9	0.06489713
232	0xbc666b05	-0.014063601
233	0x3ac7c262	0.0015240426
234	0xbe97eb5f	-0.2967176
235	0xbe358a5e	-0.17728564
236	0x3e551449	0.2080852
237	0xbdb34bd0	-0.087546945
238	0x3e3ad4fc	0.1824531
239	0xbdb5a856	-0.08869998
240	0x3e37f503	0.17964558
241	0xbd217b58	-0.03942427
242	0xbdbdc19a	-0.09265442
243	0x3e841a0b	0.2580112
244	0x3e714c40	0.23564243
245	0xbdfcebf7	-0.12349694
246	0xbdce5679	-0.10075087
247	0x3d62e100	0.055390358
248	0xba4eb6dd	-0.0007885525
249	0x3e83b0d0	0.25720835
250	0x3dd95f5e	0.10613893
251	0x3d67e8f1	0.056618635
252	0xbe546b47	-0.20744048
253	0x3db80a0f	0.089862935
254	0x3e84339e	0.2582063
255	0x3e7cd4e2	0.24690583

gru.weight_ih_l0 f4 [192, 64]
0	0xbe614376	-0.2199839
1	0x3e39b903	0.18136983
2	0xbd01692c	-0.03159444
3	0x3b3ac3ce	0.0028498056
4	0x3e54d857	0.20785652
5	0x3e406f23	0.18792395
6	0xbdf6b052	-0.12045349
7	0x3d82b75c	0.06382629
8	0x3dffc846	0.12489371
9	0xbc98af9c	-0.018638425
10	0xbdd3c260	-0.103398085
11	0x3db024e4	0.08600786
12	0x3d36a159	0.044587467
13	0x3d2154c4	0.03938748
14	0xbd4bd4a4	-0.049763337
15	0xbdb31a1c	-0.08745214
16	0xbe57accb	-0.21062009
17	0x3da147f2	0.078750506
18	0x3de1946a	0.11014636
19	0xbe345115	-0.17609055
20	0x3e603d89	0.21898474
21	0x3ba9d559	0.0051829037
22	0x3d9203f8	0.07129663
23	0x3e5849fc	0.21121973
24	0xbe716d25	-0.23576792
25	0xbe505c09	-0.20347609
26	0x3e475df0	0.19469428
27	0x3d09aaaa	0.033610024
28	0xbe14848e	-0.1450369
29	0x3d28547c	0.041096196
30	0xbd765274	-0.060137227
31	0xbda2d2a4	-0.07950333
32	0xbda66681	-0.0812502
33	0x3d4f1a93	0.050562453
34	0xbdecce0b	-0.11562737
35	0x3e371ebf	0.17882822
36	0x3ce55a33	0.027997112
37	0x3e090edc	0.13384575
38	0x3dfff84a	0.12498529
39	0x3d95d339	0.07315678
40	0x3e2cc8e8	0.16873515
41	0xbda77b7e	-0.08177851
42	0x3a86d11a	0.0010285706
43	0xbdc01f13	-0.09380927
44	0x3cb644b1	0.022249551
45	0xbd01932b	-0.03163449
46	0xbd56f4d6	-0.052479587
47	0xbb848b12	-0.004044899
48	0x3da1399e	0.07872318
49	0x3d932549	0.07184846
50	0x3dcf12b0	0.10110986
51	0x3e103067	0.14080964
52	0x3ca5b331	0.020227047
53	0x3dab1f72	0.08355607
54	0x3d9d917e	0.07693766
55	0xbe038a33	-0.12845688
56	0xbd87cd04	-0.066309005
57	0x3da05123	0.078279756
58	0x3e13a79c	0.14419407
59	0x3e372cf1	0.17888238
60	0xbdb97049	-0.0905462
61	0xbd825bfd	-0.063652016
62	0xbcfbd0fc	-0.0307393
63	0xbd13f503	-0.036122333
64	0xbe1a815f	-0.15088414
65	0x3c968bac	0.018377148
66	0xbd3763b0	-0.044772804
67	0x3d09a175	0.033601243
68	0x3e06d56a	0.13167349
69	0x3e009383	0.12556271
70	0x3ca6252d	0.020281399
71	0x3d911d17	0.070856266
72	0x3bd88f52	0.006608882
73	0x3dde5a2d	0.108570434
74	0xbdc140a2	-0.09436156
75	0xbd2c1469	-0.042011652
76	0x3da8da92	0.08244814
77	0x3d9ed8a6	0.07756166
78	0xbb68a63e	-0.0035499479
79	0x3ddb1eb4	0.106992155
80	0x3d047299	0.03233585
81	0xbe4380f3	-0.19092159
82	0xbd780e0d	-0.060560275
83	0x3c8d1dab	0.01722606
84	0x3ce15ee2	0.027511064
85	0xbcedfd0a	-0.029051322
86	0xbd84f591	-0.064921506
87	0x3bb2a039	0.005451229
88	0xbd91b28a	-0.07114132
89	0xbd29f298	-0.04149112
90	0xbdfe00f4	-0.124025255
91	0x3cf0b508	0.029383197
92	0x3deb1ce9	0.114801235
93	0x3e0acbe5	0.13554342
94	0x3d984f94	0.07437053
95	0x3d89697f	0.06709575
96	0x3d9a1c92	0.075249806
97	0xbdc8afdc	-0.097991675
98	0x3d9053e1	0.07047249
99	0x3d98da5e	0.07463525
100	0xbaaee8ba	-0.0013344504
101	0x3da2eaee	0.079549655
102	0x3d8c5dce	0.06853829
103	0xbd98a598	-0.074534595
104	0x3d839176	0.06424229
105	0x3dd8ad6c	0.105799526
106	0xbdb213a7	-0.08695155
107	0xbe17a472	-0.14808825
108	0x3d689c77	0.05678984
109	0x3dac2fa5	0.08407525
110	0x3d67a4bc	0.056553587
111	0xbe39334e	-0.18085977
112	0x3d88b557	0.06675213
113	0xbd9d29c0	-0.07673979
114	0xbc9c5937	-0.01908551
115	0xbb190f1c	-0.0023354953
116	0x3cce6a74	0.025197245
117	0xbe1551bf	-0.14581965
118	0xbe19eab6	-0.15030941
119	0xbd62a899	-0.05533657
120	0x3db39db5	0.087703146
121	0xbdb2603b	-0.08709761
122	0x3ca1306c	0.01967641
123	0x3cacfcdc	0.021116666
124	0x3da36431	0.07978094
125	0xbe7d0386	-0.24708375
126	0xbdb5d40b	-0.088783346
127	0xbd0a7f2e	-0.033812694
128	0xbda6a277	-0.081364565
129	0xbdea7363	-0.114477895
130	0xbdcda999	-0.10042114
131	0x3dedca60	0.116108656
132	0xbe143699	-0.14473952
133	0x3e470b51	0.1943791
134	0xbe126629	-0.14296784
135	0xbd0b1bf6	-0.033962213
136	0x3e87544b	0.26431498
137	0x3e39efe6	0.1815792
138	0xbdc7c6e3	-0.097547315
139	0x3e50845f	0.20362996
140	0x3dfb4205	0.122684516
141	0xbd57d34c	-0.052691743
142	0xb9b8d0ff	-0.0003525093
143	0x3e8f7fbe	0.28027147
144	0xbd0f4609	-0.0349789
145	0xbd409b26	-0.04702296
146	0x3d071d88	0.032987148
147	0x3c3296fc	0.010900255
148	0x3bd277b1	0.0064229597
149	0x3da2f009	0.07955939
150	0x3c991396	0.018686097
151	0xbe5438a2	-0.20724729
152	0xbd0e4d2d	-0.03474157
153	0xbe038fbd	-0.128478
154	0xbe20d5ab	-0.15706508
155	0xbdac951a	-0.08426876
156	0xbe8ee616	-0.27909917
157	0x3d057ff5	0.032592732
158	0x3dea27bc	0.1143336
159	0xbc0c3409	-0.008557328
160	0xbc987157	-0.018608732
161	0xbe281fb3	-0.16418342
162	0xbe24fab3	-0.16111259
163	0xbd88f35c	-0.06687042
164	0xbd11c5b1	-0.035588924
165	0x3df97217	0.12179964
166	0x3eb08788	0.34478402
167	0x3e0208c5	0.12698658
168	0xbea23afa	-0.3168562
169	0xbe444025	-0.19165094
170	0xbe5bc8ce	-0.2146332
171	0x3e797318	0.24360311
172	0x3de033cb	0.10947379
173	0x3dc29909	0.095018454
174	0xbe2ceccc	-0.16887206
175	0xbcf876c6	-0.030330073
176	0x3d6207c2	0.05518318
177	0xbd2e54d4	-0.042561367
178	0xbce35eff	-0.027755259
179	0x3db6eebc	0.08932254
180	0xbd61c66b	-0.055120867
181	0xbcb36fc5	-0.021903882
182	0x3e506ffd	0.2035522
183	0xbe918a07	-0.2842562
184	0xbe0763e2	-0.13221696
185	0xbe5807e3	-0.21096759
186	0xbd0d4280	-0.034487247
187	0xbe1824d5	-0.148578
188	0xbd9b782d	-0.07591281
189	0x3ead1b20	0.33809757
190	0x3d97845d	0.07398293
191	0x3e3b6cf8	0.18303287
192	0x3cb4acfc	0.022055142
193	0x3e38317a	0.17987624
194	0xbd29b3bd	-0.041431177
195	0xbd0fe98e	-0.035134844
196	0x3ea36436	0.31912392
197	0xbdbc6704	-0.09199336
198	0x3dcf620b	0.10126122
199	0x3e03bc65	0.12864836
200	0xbd70738f	-0.058703955
201	0xbd1f2f0f	-0.038863238
202	0x3e1e465c	0.15456527
203	0x3dabe054	0.083923966
204	0x3cfd97b4	0.030956127
205	0x3d08933b	0.033343535
206	0x3dcbe7b6	0.09956305
207	0x3c0cf58f	0.008603468
208	0x3bffbb13	0.0078042834
209	0xbe45ea0c	-0.19327563
210	0xbdb88b35	-0.09010927
211	0xbdaf6200	-0.08563614
212	0x3d8384f5	0.06421844
213	0xbdfc1671	-0.12308968
214	0x3d8b3396	0.067969486
215	0x3d0b6380	0.034030437
216	0xbd2bbabe	-0.041926138
217	0xbe05e239	-0.13074578
218	0xbce7e136	-0.028305631
219	0xbce9533a	-0.028482068
220	0x3d8adbca	0.06780203
221	0x3be1c3cb	0.0068897954
222	0x3e23960d	0.15975209
223	0x3dacd782	0.08439542
224	0x3c75f761	0.015012593
225	0xbda5fae4	-0.08104494
226	0xbd9b7cec	-0.07592186
227	0xbba45b51	-0.0050157686
228	0xbe944ee3	-0.28966436
229	0x3ded5fc9	0.11590535
230	0xbcb37266	-0.021905135
231	0xbd790fb4	-0.06080599
232	0x3cdc774e	0.026912358
233	0x3d3d8a15	0.046274263
234	0x3cec77fc	0.028865807
235	0xbda1e1bb	-0.07904383
236	0x3dec75ef	0.115459315
237	0xbd1f10e7	-0.03883448
238	0xbd0e2939	-0.03470728
239	0xbe1452a5	-0.14484651
240	0xbd57e71d	-0.05271064
241	0xbe45ebf6	-0.19328293
242	0xbd0cd922	-0.03438676
243	0xbd051a6b	-0.032495897
244	0xbda37a50	-0.07982314
245	0x3d332149	0.043732915
246	0xbdae83e6	-0.085212514
247	0x3de574a4	0.11203888
248	0x3ccfc352	0.02536169
249	0x3df6b7ad	0.12046752
250	0x3cf3cb30	0.029759973
251	0x3e0846a1	0.13308193
252	0xbb7c8e77	-0.0038537064
253	0xbe51d884	-0.2049275
254	0x3da28a88	0.07936579
255	0xbd9d3abc	-0.07677218

gru.weight_hh_l0 f4 [192, 64]
0	0x3e1066a1	0.1410165
1	0x3e36e2f8	0.17860019
2	0x3d405c24	0.046962872
3	0xbdaee558	-0.085398376
4	0x3d6803c6	0.056644224
5	0x3e22be48	0.15892899
6	0x3dc0ba0f	0.09410488
7	0xbd1b69e0	-0.037942767
8	0xbd9662f5	-0.07343093
9	0xbb876454	-0.004131833
10	0xbd2de4b1	-0.042454425
11	0x3d9d6a96	0.07686345
12	0x3c76a5dd	0.015054193
13	0x3e4501d1	0.19238974
14	0x3ca591a5	0.02021105
15	0xbcb80edb	-0.022468021
16	0x3e8bbc73	0.27292213
17	0xbe1a2a3e	-0.15055177
18	0x3e874dc8	0.2642653
19	0xbe3a8a91	-0.18216921
20	0x3d7aeb10	0.06125933
21	0xbd86b9cd	-0.065784074
22	0x3e1f17df	0.1553645
23	0xbd216cb1	-0.039410297
24	0xbd1faf0d	-0.0389853
25	0x3c7c3e1a	0.015395666
26	0x3dcd0747	0.10011154
27	0xbd0477e7	-0.03234091
28	0x3ba55f95	0.0050467947
29	0xbdda92f5	-0.10672561
30	0xbe03173a	-0.12801829
31	0xbdd67950	-0.10472357
32	0xbde1503a	-0.1100163
33	0xbd75c6e5	-0.060004134
34	0x3df07663	0.117413305
35	0xbd81df57	-0.06341427
36	0xbe3b16d2	-0.18270424
37	0x3e4cb0ef	0.1998937
38	0x3e53c0db	0.20679037
39	0xbdb130d2	-0.0865189
40	0xbc83b043	-0.01607526
41	0xbe21b9f7	-0.15793596
42	0x3dc93657	0.09824818
43	0xbdda7eb3	-0.10668697
44	0xbe0d8745	-0.13821132
45	0xbdb8f3a1	-0.090308435
46	0xbd3350fe	-0.043778412
47	0xbe24f2ea	-0.1610829
48	0x3d77e839	0.0605242
49	0xbe41c0c8	-0.18921196
50	0xbdaf43fa	-0.085578874
51	0xbe1f8759	-0.15578975
52	0xbcc78b01	-0.024358274
53	0xbe27af1e	-0.16375396
54	0xbe0fdc0e	-0.14048788
55	0xbbccdf35	-0.0062521943
56	0xbda0e7a6	-0.078566834
57	0x3cabcaf0	0.020970792
58	0x3e584d92	0.2112334
59	0x3da12c7c	0.07869813
60	0x3e1608c5	0.14651783
61	0x3c984f5b	0.018592527
62	0xbc80b6bd	-0.015712136
63	0x3b46fda8	0.0030363593
64	0x3e1c8a07	0.15287028
65	0x3c1e9da2	0.009681137
66	0x3d0176c1	0.031607393
67	0x3d23fb22	0.04003442
68	0x3e22239b	0.15833895
69	0xbe3d6859	-0.18496837
70	0x3d487e9a	0.04894886
71	0xbce44ba4	-0.0278681
72	0xbcf23002	-0.029563908
73	0xbcba4fbd	-0.0227431
74	0x3df2d6e1	0.11857391
75	0x3e4043eb	0.18775909
76	0xbd6d5430	-0.057941616
77	0x3d00258c	0.031285807
78	0xbe887c30	-0.26657248
79	0x3d7bb8f4	0.061455682
80	0xbd93c350	-0.07214987
81	0xbd165cc5	-0.036709566
82	0xbdb22bec	-0.08699784
83	0xbdb7794a	-0.08958681
84	0x3e3fc3b9	0.18727006
85	0x3ceeba88	0.02914168
86	0xbd18b731	-0.03728408
87	0xbd4e98fe	-0.050438873
88	0xbd8ccdb6	-0.06875174
89	0xbbfef1fc	-0.0077803116
90	0x3dd173fa	0.10227199
91	0x3a815c85	0.0009869492
92	0x3d5ac8b3	0.053414058
93	0xbd37314b	-0.044724744
94	0xbe94405f	-0.2895536
95	0xbd0c9ddb	-0.03433023
96	0xbd37111c	-0.04469405
97	0xbe1e07a0	-0.15432596
98	0x3db1550f	0.08658802
99	0x3e80ff91	0.25194982
100	0xbe2042bb	-0.15650456
101	0x3dcb639b	0.099311076
102	0x3d98e3a0	0.07465291
103	0xbe4d19d8	-0.2002939
104	0xbe07a105	-0.13245018
105	0xbcaece83	-0.021338707
106	0xbe3f6a91	-0.18692996
107	0x3e7bbe50	0.24584317
108	0x3d02b376	0.03190943
109	0x3d2bc9d2	0.041940518
110	0x3e747100	0.23871231
111	0x3daa6fe3	0.08322122
112	0x3e1da476	0.15394768
113	0xbdd537d0	-0.10411036
114	0xbe4fde6e	-0.20299694
115	0xbda69dc3	-0.081355594
116	0xbea64bdd	-0.32479754
117	0x3d8e9ab9	0.06963105
118	0x3dcd28ce	0.100175485
119	0xbdecb340	-0.11557627
120	0x3e118435	0.14210589
121	0xbd7ca53c	-0.061681017
122	0xbcdf7ca0	-0.027281106
123	0x3cc32b49	0.02382435
124	0xbe18bbe1	-0.1491542
125	0xbd986acb	-0.07442244
126	0xbde61e64	-0.11236265
127	0xbd13d7a7	-0.036094334
128	0x3d84e52e	0.06489025
129	0x3de89ffb	0.11358639
130	0xbe0bc5e7	-0.13649713
131	0x3e998224	0.29982102
132	0xbe0c3c04	-0.13694769
133	0xbdcd2237	-0.100162916
134	0x3e004f74	0.12530309
135	0x3c9bac06	0.019002926
136	0xbcf0779b	-0.029353907
137	0xbd136d50	-0.03599292
138	0xbe9711b8	-0.29505706
139	0x3cbc324c	0.022973202
140	0x3c861dd9	0.016371654
141	0xbdd02048	-0.10162407
142	0xbe2c59c9	-0.16831125
143	0x3e26dd20	0.1629529
144	0x3df0c20a	0.1175576
145	0x3e3c5de6	0.18395194
146	0xbdc0e216	-0.094181225
147	0x3d87d9df	0.066333525
148	0xbe58a137	-0.21155249
149	0x3d98cb79	0.07460684
150	0xbcfdcf91	-0.030982764
151	0xbd02fc6b	-0.031979006
152	0xbd68a6d1	-0.056799714
153	0xbb598c94	-0.0033195363
154	0xbd1f614c	-0.03891115
155	0xbe286ac4	-0.16446978
156	0xbd3c84c8	-0.046025068
157	0x3d8b1614	0.067913204
158	0x3e83ad10	0.25717974
159	0xbc17fc7c	-0.009276506
160	0xbe2a7342	-0.1664553
161	0xbd738e44	-0.059461847
162	0xbe0c8852	-0.13723877
163	0xbe240187	-0.16016208
164	0xbc06237c	-0.008187171
165	0x3cb3befe	0.021941658
166	0x3dd1947d	0.102334
167	0x3d45b2d7	0.048266258
168	0xbdd15fe6	-0.10223369
169	0x3e26f694	0.16305
170	0x3d7fad92	0.06242139
171	0x3df9ead8	0.12202996
172	0xbde73b78	-0.1129064
173	0xbd2ff943	-0.042962324
174	0xbd650300	-0.055911064
175	0x3e03fa5e	0.12888476
176	0xbe07fb44	-0.13279444
177	0xbcf509be	-0.029911872
178	0x3e95ce36	0.2925889
179	0x3d0963a6	0.033542298
180	0xbd8b5146	-0.06802611
181	0x3d7272f3	0.059191655
182	0xbdc3fb2f	-0.09569394
183	0x3e8826d9	0.26592138
184	0xbd3809f4	-0.044931367
185	0x3e2023a9	0.15638603
186	0xbd97030b	-0.07373627
187	0x3d42ba97	0.047541227
188	0x3de1a6fc	0.11018178
189	0x3d524c09	0.051342044
190	0x3d87ae47	0.06625038
191	0x3d3c7c72	0.046017118
192	0xbba8527d	-0.0051367865
193	0xbda2bfc8	-0.079467356
194	0x3c938e09	0.018012064
195	0xbd24b646	-0.040212892
196	0x3e20b9ad	0.1569583
197	0xbc913e4b	-0.017729899
198	0xbd8372a1	-0.06418348
199	0x3e195d92	0.149771
200	0xbd2ec83d	-0.04267143
201	0xbd4b5a0f	-0.049646433
202	0x3b51dcf0	0.0032022558
203	0x3e764db7	0.24053083
204	0xbdb591c4	-0.08865693
205	0x3db01667	0.08598023
206	0xbcc22245	-0.023697982
207	0xbdeedeb1	-0.11663569
208	0xbb80615a	-0.003917855
209	0xbd7f5293	-0.06233461
210	0xbd9d39c1	-0.07677031
211	0x3bb4f014	0.0055217836
212	0x3decfc4b	0.115715586
213	0x3b9d3d09	0.0047985357
214	0x3cda5b39	0.026654826
215	0xbd69be25	-0.0570661
216	0xbd3816fd	-0.0449438
217	0xbde9b161	-0.114107855
218	0x3d1c52ac	0.03816478
219	0xbbdec883	-0.006798805
220	0xbce0c3ae	-0.027437057
221	0x3e0079c4	0.1254645
222	0xbe02180a	-0.12704483
223	0xbd9b999b	-0.07597657
224	0x3e35177a	0.17684737
225	0xbd88d8e7	-0.06681996
226	0x3db46d09	0.08809859
227	0xbc1287c3	-0.008943501
228	0x3ca47042	0.02007306
229	0xbc8b1911	-0.016979726
230	0xbdb986e0	-0.090589285
231	0xbdd6a475	-0.104805864
232	0xbd831e5e	-0.064022765
233	0xbc37943f	-0.011204778
234	0xbe25701d	-0.16156049
235	0x3dc8002f	0.0976566
236	0x3e042cb3	0.12907676
237	0x3e03eaae	0.12882492
238	0xbdeceb0e	-0.115682706
239	0x3d02f833	0.031974982
240	0x3e5eed41	0.21770193
241	0xbc3a866e	-0.01138459
242	0x3d79933e	0.060931437
243	0xbe1feee3	-0.15618472
244	0x3b8cfd42	0.0043026516
245	0x3e008b3d	0.12553115
246	0x3d5896d6	0.052878223
247	0xbe736442	-0.23768714
248	0xbdaae7d5	-0.08345
249	0xbd2db11b	-0.04240523
250	0x3da2ce9f	0.07949566
251	0x3de1fbaa	0.11034329
252	0x3e474939	0.19461526
253	0xbe0d6b37	-0.1381043
254	0xbddcf89a	-0.107896045
255	0xbd83acbb	-0.0642943

gru.bias_ih_l0 f4 [192]
0	0x3e316d6b	0.17326896
1	0x3dbea3ef	0.093086116
2	0xbcc8c446	-0.024507653
3	0x3d8c52d3	0.06851735
4	0xbd68d2f1	-0.056841794
5	0x3c00aae2	0.007853242
6	0x3dedb221	0.11606241
7	0x3e333143	0.1749926
8	0xbc817e9f	-0.015807448
9	0x3e37672d	0.17910452
10	0xbd1fd351	-0.039019886
11	0x3b80a1cc	0.0039255377
12	0x3b21dffc	0.0024700155
13	0x3d5029af	0.050821003
14	0x3dd27878	0.10276884
15	0x3da7c0c1	0.08191062
16	0x3e1ec80b	0.15505998
17	0xbd1997a5	-0.037498135
18	0x3dc0f293	0.09421267
19	0xbd9aa92b	-0.075517975
20	0xbde7a52a	-0.113107994
21	0x3d56ef77	0.052474465
22	0x3cbf3b1d	0.023343617
23	0x3d97ae6a	0.07406314
24	0xbd60e477	-0.05490538
25	0xbd955e8e	-0.072934255
26	0x3d8a2fd7	0.06747406
27	0x3d713772	0.058890767
28	0x3caff0b8	0.021477088
29	0x3d653e97	0.055967893
30	0x3d1a78f8	0.03771302
31	0xbd081226	-0.033220433
32	0xbe45cca2	-0.19316342
33	0xbc52e9fa	-0.012873167
34	0xbc6e101e	-0.01453021
35	0x3dd3c7c4	0.10340837
36	0x3e0d85c2	0.13820556
37	0x3cfb6007	0.030685438
38	0x3dd73b96	0.10509412
39	0xbdbc7ecf	-0.09203874
40	0xbdba8637	-0.09107631
41	0x3d88f8a0	0.066880465
42	0xbd8fc287	-0.07019525
43	0x3d2b8b88	0.041881114
44	0x3c0c201c	0.008552577
45	0x3e0e2c3b	0.1388406
46	0x3d18a4bf	0.03726649
47	0x3d3e7733	0.046500396
48	0xbd34151f	-0.043965455
49	0x3d0904a1	0.03345168
50	0x3e339d19	0.17540397
51	0x3c8fd46a	0.017557342
52	0xbc8ee993	-0.017445361
53	0xbd3b26eb	-0.045691412
54	0xbd4cb755	-0.049979527
55	0xbbc6ddbc	-0.0060689133
56	0x3d3f7eba	0.046751715
57	0x3d826e47	0.0636869
58	0x3dde4ef6	0.10854904
59	0x3d80013d	0.06250236
60	0xbdc5f67e	-0.09666155
61	0xbd9adf0f	-0.07562076
62	0x3b1fdec0	0.0024394244
63	0xbc2acf4e	-0.010425402
64	0x3db43cf7	0.088006906
65	0xbdcecb7a	-0.10097404
66	0xbb3204ce	-0.0027163508
67	0xbe293324	-0.16523415
68	0x3d563815	0.052299578
69	0xbe0df5fd	-0.13863368
70	0xbb7ebb04	-0.0038868794
71	0x3c8cb4dc	0.017176084
72	0xbcae3f10	-0.021270305
73	0xbd0afa4d	-0.03393011
74	0xbdcfa5ac	-0.10139021
75	0x3bf17309	0.0073684496
76	0xbe6b413d	-0.22974105
77	0x3d126b05	0.035746593
78	0x3e4aba67	0.1979767
79	0xbd8243d1	-0.06360591
80	0xbd03286e	-0.03202098
81	0xbba0d931	-0.0049087037
82	0x3d785387	0.060626533
83	0x3d2cb3ef	0.042163786
84	0x3da22082	0.079163566
85	0x3d50a1f9	0.05093572
86	0xbc5cf17d	-0.01348531
87	0xbde8e49e	-0.1137173
88	0x3d363786	0.044486545
89	0xbdf57727	-0.11985617
90	0x3c8272d2	0.015923891
91	0xbe099735	-0.13436587
92	0xbe343a1c	-0.17600292
93	0xbc6015ad	-0.013677043
94	0xbda972ad	-0.08273826
95	0x3a2b9f34	0.00065468554
96	0xbd147b51	-0.036250416
97	0xbcde8f06	-0.027167808
98	0xbc5af469	-0.013363936
99	0xbd9d96ae	-0.076947555
100	0x3d751088	0.05983022
101	0xbd8e6648	-0.06953102
102	0xbd65e63f	-0.056127783
103	0x3daf0abd	0.0854697
104	0xbe2fdac3	-0.17173295
105	0xbde419b0	-0.11137712
106	0xbcd4404b	-0.025909564
107	0x3d073c4c	0.033016488
108	0xbc22e4e0	-0.009942263
109	0xbade6cb6	-0.0016969654
110	0xbdda6440	-0.106636524
111	0xbe1a2080	-0.1505146
112	0xbe02a61a	-0.12758675
113	0x3cf4b419	0.029871034
114	0xbe0ce94d	-0.13760872
115	0xbe35d24a	-0.17756
116	0x3cf1e318	0.029527232
117	0xbe2b2fd3	-0.16717462
118	0x3d741841	0.059593443
119	0x3d2d22cf	0.042269524
120	0x3e354e2f	0.17705606
121	0xbe03b331	-0.12861325
122	0xbbf84261	-0.0075762724
123	0xbd7a848d	-0.061161567
124	0x3c428af1	0.0118739465
125	0x3d29141d	0.041278947
126	0xbd98c26a	-0.074589565
127	0x3dc6961d	0.096966006
128	0x3de1e3d9	0.110297866
129	0x3decd613	0.11564269
130	0x3d0baf27	0.034102585
131	0x3d3321f3	0.04373355
132	0xbe0c347e	-0.13691899
133	0x3c124dcd	0.008929682
134	0xbdb44383	-0.08801939
135	0xbe033e44	-0.12816721
136	0xbc7082c1	-0.014679612
137	0xbd0c9320	-0.034319997
138	0x3c4d8934	0.012544919
139	0xbe1f3e48	-0.15551102
140	0xbe0364df	-0.12831448
141	0xbc95661f	-0.018237172
142	0xbd4d2f61	-0.050094012
143	0x3d9220ea	0.07135184
144	0x3c827c05	0.015928278
145	0xbd843289	-0.06454951
146	0x3dc18bb7	0.094504766
147	0xbe0a00c2	-0.13476852
148	0x3e0ad99b	0.13559572
149	0xbdac09e9	-0.08400328
150	0xbd460f73	-0.048354577
151	0xbe0c5a5f	-0.13706349
152	0x3d067daf	0.032834705
153	0xbca8d1c3	-0.020607835
154	0xbcf71849	-0.030162947
155	0xbdc60840	-0.09669542
156	0x3d75ee11	0.06004149
157	0xbc82195f	-0.015881239
158	0x3dd94134	0.1060814
159	0xbdc39f72	-0.09551896
160	0xbd3b0c6e	-0.04566615
161	0x3e0b921a	0.13629952
162	0xbd2da5f4	-0.042394593
163	0xbc235e04	-0.009971146
164	0xbdaa1d9c	-0.08306429
165	0x3e02c972	0.12772158
166	0x3e14c361	0.14527656
167	0x3deb57fa	0.114913896
168	0xbde24736	-0.11048739
169	0xbdb01d30	-0.08599317
170	0xbd8cee56	-0.068813965
171	0x3cef4d3c	0.029211633
172	0xbdd83be8	-0.10558301
173	0xbd1facdd	-0.038983215
174	0x3d74218b	0.0596023
175	0xbdac675d	-0.084181525
176	0x3c9b8268	0.018983081
177	0xbd5b9975	-0.053613145
178	0x3e17e519	0.14833488
179	0xbb8b0518	-0.0042425506
180	0xbdea9181	-0.11453534
181	0x3d89633b	0.0670838
182	0x3dbb8709	0.09156615
183	0xbd814c10	-0.06313336
184	0x3b7cc825	0.0038571444
185	0xbd20662c	-0.03915994
186	0xbdc0a470	-0.09406364
187	0x3d42c8c1	0.047554735
188	0xbe1e26d8	-0.15444505
189	0x3dd92e10	0.10604489
190	0xbd0629c0	-0.03275466
191	0x3d90d8cb	0.070726
