models/no_mismatch/kalman_process_50n_local_params_r2.pth (torch, 269474 bytes, 28 tensors)

gkf.gat_rnn.fc_delta_y_innov.0.weight f4 [64, 3]
0.44039574 0.47848302 -0.17328927 0.5234653 -0.13950688 0.15729539 -0.27308744 0.32997143
0.5535642 -0.4296908 0.51159483 0.13807134 0.4344864 0.06434304 0.23648089 -0.083064295
0.45427504 0.12504241 -0.2690648 0.1636732 -0.22990353 -0.03716623 -0.26657286 0.41004992
-0.45596123 -0.26961482 -0.13562632 -0.36594176 0.07877796 -0.5915636 0.52087945 -0.5007177
0.4888462 0.07516414 -0.19568168 0.39182842 0.09194827 0.44933826 0.088197134 -0.19457163
0.16849124 -0.18128522 0.24105436 0.5303963 0.37426606 -0.26578274 0.3426864 0.12609474
0.30060005 -0.34377328 -0.5740701 -0.21089892 -0.45786652 0.51664716 0.16286191 0.2534071
0.2251501 0.003841658 0.45123747 -0.3706804 0.04378146 -0.40077448 0.17096637 -0.2065142
0.18507464 -0.13407408 0.48266467 -0.33646247 -0.32475212 -0.33647513 0.5273197 0.22917044
0.5587102 -0.46840844 -0.55668974 -0.46454927 -0.37824324 0.25407082 0.20579195 0.48885927
-0.27169585 -0.39030457 0.30911365 -0.21001814 0.34763634 -0.14195018 0.36522603 -0.44474196
-0.27306217 0.21798703 0.12311332 -0.14635824 0.35645282 0.40778616 -0.3972657 -0.30635002
0.5297374 -0.19313218 -0.1847628 -0.55598724 -0.32138392 0.17963114 -0.06731034 -0.4244578
0.05764363 -0.41188627 -0.4696266 -0.2974721 -0.4910594 -0.38182557 0.5602045 0.12665653
0.19808264 -0.5780413 -0.37942508 -0.19823785 0.11798109 -0.51776546 -0.24148361 -0.32605186
0.0011109378 -0.1994229 0.009495059 -0.39590234 -0.37582713 -0.3071506 -0.16879652 -0.486932
0.5145997 -0.1125694 0.49564013 0.22549784 -0.48748752 0.38630417 -0.16050968 -0.22023672
-0.48161364 -0.5686542 0.17578633 -0.11257695 0.23317608 -0.4928366 0.44927156 -0.40841737
-0.09554543 0.12475169 0.33902296 0.46414968 0.5459689 -0.43805927 0.15487717 -0.23621558
-0.072133705 -0.45270747 0.53090477 -0.42658484 0.30833396 0.22160226 0.22326054 -0.32557946
0.5448969 0.15013908 0.098787956 -0.5084369 0.28297353 -0.07959836 -0.27107364 0.5364537
0.12814833 -0.32094443 -0.2766327 -0.033543076 0.3284793 -0.11533017 -0.35748813 -0.16586338
-0.4435145 0.21825954 0.4272263 -0.5578346 0.13169625 0.31213164 0.13200958 -0.20665058
0.31766486 0.33878165 0.22417216 -0.08511648 -0.1555491 0.047923736 -0.08446582 -0.17670847
00000000: 8d7b e13e bafb f43e be72 31be d201 063f
00000010: e4da 0ebe 0b12 213e 1ed2 8bbe 04f2 a83e
00000020: 62b6 0d3f 6f00 dcbe e1f7 023f 9362 0d3e
00000030: 0075 de3e 49c6 833d 0c28 723e 9d1d aabd
00000040: bd96 e83e 1e0b 003e ddc2 89be f399 273e
00000050: d56b 6bbe 9e3b 18bd 3d7c 88be 10f2 d13e
00000060: c073 e9be f40a 8abe a0e1 0abe b85c bbbe
00000070: 5756 a13d b670 17bf 5b58 053f 092f 00bf
00000080: 0d4a fa3e a8ef 993d c760 48be bc9d c83e
00000090: 604f bc3d aa0f e63e b3a0 b43d c93d 47be
000000a0: f888 2c3e d5a2 39be f4d6 763e 0dc8 073f
000000b0: cd9f bf3e ad14 88be 9874 af3e fb1e 013e
000000c0: 40e8 993e 0d03 b0be 42f6 12bf e3f5 57be
000000d0: 7b6d eabe fd42 043f 46c5 263e 93be 813e
000000e0: bf8d 663e 53c4 7b3b 9908 e73e d2c9 bdbe
000000f0: 3054 333d 5032 cdbe cf11 2f3e 7578 53be
00000100: 3584 3d3e b74a 09be d31f f73e cf44 acbe
00000110: e945 a6be 7846 acbe 6dfe 063f a8ab 6a3e
00000120: a207 0f3f 3bd3 efbe 3883 0ebf 67d9 edbe
00000130: 19a9 c1be 9215 823e 20bb 523e c34b fa3e
00000140: b81b 8bbe 00d6 c7be 2544 9e3e ff0e 57be
00000150: 64fd b13e 635b 11be e8fe ba3e 38b5 e3be
00000160: cece 8bbe fe37 5f3e d622 fc3d efde 15be
00000170: fc80 b63e 59c9 d03e 6966 cbbe e9d9 9cbe
00000180: df9c 073f 71c4 45be 7632 3dbe 2e55 0ebf
00000190: 6f8c a4be 3af1 373e 01da 89bd 8852 d9be
000001a0: ba1b 6c3d c2e2 d2be e672 f0be 434e 98be
000001b0: 236c fbbe a47e c3be 9069 0f3f 40b2 013e
000001c0: 2dd6 4a3e 84fa 13bf 0144 c2be ddfe 4abe
000001d0: 12a0 f13d 478c 04bf 7b47 77be 45f0 a6be
000001e0: e39c 913a 8435 4cbe 2a91 1b3c b6b3 cabe
000001f0: 6a6c c0be d842 9dbe ffd8 2cbe 274f f9be
00000200: cebc 033f c98a e6bd 8bc4 fd3e e8e8 663e
00000210: f797 f9be a9c9 c53e a65c 24be bc85 61be
00000220: 1096 f6be 5293 11bf 5501 343e be8e e6bd
00000230: b6c5 6e3e 1455 fcbe ec06 e63e 151c d1be
00000240: 53ad c3bd d07d ff3d 6b94 ad3e 07a5 ed3e
00000250: 9ec4 0b3f 4e49 e0be 1f98 1e3e 7fe2 71be
00000260: d6ba 93bd 46c9 e7be 60e9 073f 5469 dabe
00000270: f3dd 9d3e b4eb 623e 699e 643e 5ab2 a6be
00000280: 5d7e 0b3f 0fbe 193e 5751 ca3d ec28 02bf
00000290: e8e1 903e 7704 a3bd 2aca 8abe 0855 093f
000002a0: 5139 033e d452 a4be cda2 8dbe 7764 09bd
000002b0: 702e a83e 3932 ecbd af08 b7be 17d8 29be
000002c0: 5514 e3be 6e7f 5f3e 68bd da3e 40ce 0ebf
000002d0: 62db 063e b8cf 9f3e 852d 073e 369c 53be
000002e0: f8a4 a23e ca74 ad3e 638d 653e 8d51 aebd
000002f0: 4348 1fbe ae4b 443d 6afc acbd 11f3 34be

gkf.gat_rnn.fc_delta_y_innov.0.bias f4 [64]
0.35251287 0.5153622 -0.035395097 -0.10751991 -0.0242326 -0.011277416 0.16142945 0.18047802
-0.51717424 -0.19681878 0.5126108 0.2521012 -0.03179234 -0.3409932 -0.32401845 -0.50031704
-0.18396558 0.22387694 0.4018799 0.26858717 -0.5195047 -0.34190977 -0.08046001 0.5819309
0.09342502 -0.13194366 0.25337157 -0.21200266 -0.35511702 0.45579782 -0.25046614 -0.10023728
-0.56678057 0.41272095 0.46734175 0.23376068 -0.4172567 -0.5535837 -0.45943046 0.44193333
0.31130797 0.5095517 0.31396884 0.16888687 -0.018752588 -0.44057396 -0.48144627 -0.5204438
0.26034644 -0.26180425 -0.11032102 -0.33203718 -0.07612104 -0.3832441 -0.3345873 0.22217092
-0.16993533 0.3772638 -0.16282032 -0.4464212 -0.08034945 -0.2516143 -0.16613312 -0.5449204
00000000: 917c b43e c7ee 033f 73fa 10bd 6633 dcbd
00000010: 7283 c6bc e9c4 38bc c34d 253e 3bcf 383e
00000020: 8865 04bf dd8a 49be 763a 033f 6913 813e
00000030: af38 02bd a996 aebe bfe5 a5be c714 00bf
00000040: 7961 3cbe ff3f 653e 34c3 cd3e 4284 893e
00000050: 43fe 04bf cc0e afbe 38c8 a4bd 6cf9 143f
00000060: 9e55 bf3d 3d1c 07be ebb9 813e 3a17 59be
00000070: e6d1 b5be 555e e93e 193d 80be 3449 cdbd
00000080: 8818 11bf 2950 d33e 6b47 ef3e f65e 6f3e
00000090: aca2 d5be a9b7 0dbf 783a ebbe 1645 e23e
000000a0: c263 9f3e fb71 023f 86c0 a03e aef0 2c3e
000000b0: 079f 99bc e992 e1be 2080 f6be ce3b 05bf
000000c0: 214c 853e 350b 86be fdef e1bd c700 aabe
000000d0: 59e5 9bbd 9238 c4be 074f abbe c680 633e
000000e0: 8703 2ebe b928 c13e 5fba 26be 5291 e4be
000000f0: 418e a4bd 97d3 80be cd1e 2abe e77f 0bbf

gkf.gat_rnn.fc_delta_y_innov.2.weight f4 [64, 64]
0.074583784 -0.08137812 0.09351784 0.074593596 0.09023416 -0.075533815 0.10680721 -0.017016865
0.022214314 0.101121955 -0.007837841 0.027917013 -0.02127852 -0.13103135 0.062179275 -0.13197966
0.069463775 0.13709065 0.1343275 -0.018064681 -0.12309752 0.005001708 0.0641242 -0.09741615
-0.033321697 -0.07608374 -0.0053055887 -0.050607525 -0.050888892 -0.009503891 -0.10033231 0.09716409
0.09873043 0.004263168 0.029457444 -0.06666676 -0.10423357 -0.13918462 0.024931261 -0.055389974
-0.04048019 0.0020938858 0.0017114362 -0.016238159 0.019292627 -0.045971293 -0.043962378 -0.062550634
-0.06850984 0.101205856 -0.055410095 0.045155756 -0.041974373 0.02368001 0.13252875 0.09895302
-0.11228493 0.06678969 0.094138585 0.02474347 0.088338815 0.14518085 -0.026163856 -0.0018530994
-0.078261256 -0.025582649 0.09280985 0.07809474 -0.073899046 -0.09233758 -0.06910901 -0.158548
-0.07640498 -0.0031974395 0.076429956 -0.010631252 -0.085794024 -0.07004626 0.0712483 -0.069515415
-0.0032361094 0.040175777 -0.062366504 -0.00074317853 -0.011859173 -0.0013341174 -0.05288899 -0.109703906
-0.09021439 -0.059003238 0.13081598 -0.039137457 -0.0810655 0.034098558 0.014802085 0.07813475
0.10609585 0.07712055 -0.14798912 0.027890919 0.07810118 0.013826918 -0.057923056 0.13517758
-0.07766472 -0.05647999 -0.13634215 0.0074973647 0.072221704 0.051455516 0.025051935 -0.06869387
-0.12661076 0.016732283 0.12016588 0.09486347 -0.06684373 0.0022895283 -0.11000754 -0.08898365
0.025492193 0.074860625 0.12897906 -0.094660506 0.093306966 -0.07794765 0.05912097 0.11294436
-0.012001895 0.1083771 -0.0838673 -0.04258971 0.06632502 -0.045067094 -0.028698528 -0.027157415
0.094238475 0.0646056 0.041963857 -0.056223977 -0.11751793 0.015896257 0.025902977 -0.04990633
-0.04567378 0.109399386 0.0042202 -0.015828678 -0.01513098 -0.109240554 -0.1273929 -0.058947697
-0.074313834 0.056857783 -0.05410819 -0.044928387 0.118911244 0.06520225 0.105761446 -0.06791339
-0.06043895 0.065549 -0.056953914 -0.07440099 0.013507799 -0.066071235 -0.08326048 0.07751854
0.12220762 0.030212017 0.0033817466 -0.12501442 -0.045342848 0.03275149 0.06653672 -0.010984169
-0.033093505 0.052361153 -0.09672719 0.082955755 -0.057304665 0.0033227557 -0.007090828 0.039862975
-0.043472126 0.07415639 0.0019614587 0.07690082 0.10726127 -0.041160192 -0.10199331 0.09746504
0.10003094 -0.09351734 0.007631806 -0.116649695 -0.10508516 0.03660886 0.037967138 0.06809781
-0.04487507 0.10761681 0.023333246 -0.04239668 -0.00188996 0.016342778 0.04238511 -0.092214055
0.037028346 -0.036062244 -0.09009593 -0.06194157 0.10431023 0.096988566 0.10536205 0.09092045
0.08795681 -0.014477185 -0.06476531 0.062215984 -0.06788605 -0.071301825 -0.024413906 0.01944369
0.05670831 -0.03880801 -0.040771693 0.015928498 -0.07110086 -0.10375136 0.057330273 -0.017479274
0.15352017 0.12559152 0.06991636 0.059791476 0.032904554 -0.01682162 -0.011051665 -0.0033563185
0.0727301 0.11073973 -0.03849321 -0.053680386 -0.032345034 -0.057791565 0.039192013 0.1314223
0.09203937 0.068689205 -0.104230836 -0.07747891 -0.02605903 -0.014053595 0.0018135305 -0.13758689
00000000: 62bf 983d 92a9 a6bd 4886 bf3d 87c4 983d
00000010: b0cc b83d 79b1 9abd bdbd da3d f466 8bbc
00000020: cbfa b53c 0719 cf3d 4a6a 00bc 38b2 e43c
00000030: 4a50 aebc 152d 06be b2af 7e3d ad25 07be
00000040: 0643 8e3d 7e61 0c3e 268d 093e 62fc 93bc
00000050: 8d1a fcbd 5ee5 a33b 8c53 833d 1e82 c7bd
00000060: 557c 08bd cbd1 9bbd 81da adbb d649 4fbd
00000070: df70 50bd 35b6 1bbc 077b cdbd f7fd c63d
00000080: 2e33 ca3d 0cb2 8b3b bd50 f13c 9588 88bd
00000090: 6978 d5bd 6a86 0ebe a53c cc3c 99e0 62bd
000000a0: 8ece 25bd 9339 093b 4552 e03a e305 85bc
000000b0: 920b 9e3c 654c 3cbd e511 34bd 8c1a 80bd
000000c0: e34e 8cbd 0445 cf3d b2f5 62bd 3ef5 383d
000000d0: 52ed 2bbd 95fc c13c 9eb5 073e e2a7 ca3d
000000e0: a4f5 e5bd 08c9 883d bbcb c03d d1b2 ca3c
000000f0: fbea b43d 4aaa 143e 9555 d6bc b3e3 f2ba
00000100: 7047 a0bd b492 d1bc 1713 be3d 23f0 9f3d
00000110: 6258 97bd 7c1b bdbd 0689 8dbd 685a 22be
00000120: 377a 9cbd 228c 51bb 4f87 9c3d b42e 2ebc
00000130: c7b4 afbd 6a74 8fbd a1ea 913d 195e 8ebd
00000140: e814 54bb 5b8f 243d 0574 7fbd ded1 42ba
00000150: fa4c 42bc 8ddd aeba 20a2 58bd 71ac e0bd
00000160: 52c2 b8bd 61ad 71bd a0f4 053e 994e 20bd
00000170: ab05 a6bd eeaa 0b3d 7284 723c 1d05 a03d
00000180: c848 d93d 61f1 9d3d 768a 17be 7f7b e43c
00000190: 83f3 9f3d 4c8a 623c ba40 6dbd fe6b 0a3e
000001a0: ae0e 9fbd 9057 67bd 479d 0bbe 74ac f53b
000001b0: f9e8 933d 05c3 523d b739 cd3c 5faf 8cbd
000001c0: 40a6 01be 2412 893c 8719 f63d c747 c23d
000001d0: 5ee5 88bd e90b 163b a24b e1bd 0f3d b6bd
000001e0: 01d5 d03c 8750 993d 1613 043e 5edd c1bd
000001f0: b917 bf3d 04a3 9fbd d528 723d 5f4f e73d
00000200: 99a3 44bc d0f4 dd3d 9ec2 abbd 8c72 2ebd
00000210: 69d5 873d 4698 38bd 2d19 ebbc 3a79 debc
00000220: 1a00 c13d f14f 843d 4be2 2b3d 1d4b 66bd
00000230: 3ead f0bd de38 823c 7b32 d43c 946a 4cbd
00000240: 6e14 3bbd c90c e03d 9a49 8a3b 25ab 81bc
00000250: eee7 77bc 83b9 dfbd 4973 02be 2473 71bd
00000260: da31 98bd b5e3 683d 8da0 5dbd d406 38bd
00000270: bd87 f33d c288 853d 7599 d83d 2d16 8bbd
00000280: d58e 77bd 8e3e 863d 8248 69bd 8c5f 98bd
00000290: d14f 5d3c 5b50 87bd 7884 aabd 0ac2 9e3d
000002a0: fd47 fa3d 317f f73c 4ba0 5d3b c803 00be
000002b0: 6cb9 39bd 6d26 063d 6744 883d f2f6 33bc
000002c0: 0e8d 07bd a678 563d e818 c6bd b5e4 a93d
000002d0: 4cb8 6abd 97c2 593b 2d5a e8bb 5c47 233d
000002e0: d40f 32bd 4edf 973d d18b 003b 2d7e 9d3d
000002f0: ccab db3d 9797 28bd dee1 d0bd c09b c73d
00000300: 05dd cc3d 0586 bfbd 3b14 fa3b 09e6 eebd
00000310: e336 d7bd 2cf3 153d 6e83 1b3d dd76 8b3d
00000320: ecce 37bd 3466 dc3d 5d25 bf3c 24a8 2dbd
00000330: 89b8 f7ba 4ae1 853c 029c 2d3d b9da bcbd
00000340: 09ab 173d 01b6 13bd 3784 b8bd 72b6 7dbd
00000350: 9aa0 d53d f1a1 c63d 0fc8 d73d 8034 ba3d
00000360: b322 b43d b731 6dbc ada3 84bd 30d6 7e3d
00000370: d707 8bbd b106 92bd acff c7bc 6048 9f3c
00000380: f946 683d 26f5 1ebd 3800 27bd 7b7c 823c
00000390: 549d 91bd 987b d4bd 26d3 6a3d b230 8fbc
000003a0: 6434 1d3e 109b 003e 4f30 8f3d e8e7 743d
000003b0: edc6 063d 7ecd 89bc 0b12 35bc aef5 5bbb
000003c0: 85f3 943d 83cb e23d 0eab 1dbd f7df 5bbd
000003d0: 3a7c 04bd d9b6 6cbd ce87 203d 9193 063e
000003e0: 237f bc3d edac 8c3d fa76 d5bd 43ad 9ebd
000003f0: bf79 d5bc 0d41 66bc fcb3 ed3a 94e3 0cbe

gkf.gat_rnn.fc_delta_y_innov.2.bias f4 [64]
0.02300789 0.05106153 0.017655335 -0.07022818 0.04836579 0.110425435 -0.07634709 -0.04827813
-0.09003992 -0.036473524 -0.034873277 0.039729055 0.020875474 -0.0090153655 0.097586796 0.027765026
-0.063043885 -0.042430226 -0.058654457 -0.042933315 -0.0941006 0.015968697 -0.069691844 0.042973734
0.114760704 -0.09892424 -0.03400089 -0.10074757 0.019599732 0.0008587145 -0.042852182 0.09256511
0.05443456 -0.12960666 0.017519793 -0.035442114 0.0045773154 0.048704285 0.007554324 -0.09603223
0.09718112 -0.08997759 -0.024250837 0.0670095 0.13072176 0.14123248 -0.0107091125 0.06843803
-0.09494688 -0.002213136 -0.010372401 0.06299398 -0.07168688 0.059124224 0.06898165 0.1172151
-0.013096962 0.14279217 -0.10182198 -0.04720461 0.07212387 0.047416646 0.082684465 -0.07497185
00000000: 0b7b bc3c e525 513d eca1 903c cbd3 8fbd
00000010: 351b 463d bb26 e23d dd5b 9cbd 4abf 45bd
00000020: d966 b8bd 4365 15bd 48d7 0ebd efba 223d
00000030: 0b03 ab3c 2fb5 13bc 96db c73d 7b73 e33c
00000040: 271d 81bd 51cb 2dbd a83f 70bd d8da 2fbd
00000050: d1b7 c0bd c9d0 823c 99ba 8ebd 3a05 303d
00000060: a907 eb3d cb98 cabd 8444 0bbd be54 cebd
00000070: 9e8f a03c 5b1b 613a c585 2fbd c792 bd3d
00000080: c6f6 5e3d 9cb7 04be ab85 8f3c c02b 11bd
00000090: 4efd 953b 257e 473d 438a f73b 8cac c4bd
000000a0: e506 c73d 2c46 b8bd b1a9 c6bc 473c 893d
000000b0: eddb 053e 3f9f 103e 4675 2fbc 3d29 8c3d
000000c0: 8373 c2bd 430a 11bb 01f1 29bc fd02 813d
000000d0: 92d0 92bd 3e2c 723d 4046 8d3d 780e f03d
000000e0: a494 56bc 1c38 123e 0b88 d0bd 9f59 41bd
000000f0: aeb5 933d f537 423d 7956 a93d d78a 99bd

gkf.gat_rnn.fc_r.0.weight f4 [64, 1]
0.64327043 -0.9546973 -0.69279236 -0.06975067 -0.97525984 -0.96303445 -0.88389164 0.8357646
0.21994972 -0.31007043 -0.049241096 -0.8675745 -0.96197087 -0.7139315 -0.9835493 0.6867806
-0.36699495 -0.271895 -0.88318735 0.18139553 -0.15061481 -0.69224316 0.67409587 0.8842335
-0.7268127 0.60346556 -0.1699796 0.0028143837 0.4352792 -0.18081844 0.87759024 0.6386309
-0.6674726 -0.63279784 -1.0080307 0.32375777 -0.75990456 -0.8503447 -0.6330886 -1.0018116
-0.82069266 0.9233991 0.5638363 0.9146396 -0.49858716 -0.4111126 -0.36547345 0.030942801
-0.73769873 0.14598358 -0.6430136 0.16066886 0.937785 0.18796626 0.76268184 -0.7180321
-0.14011438 -0.6287222 -0.11599207 -0.4030114 -0.58272743 -0.9829464 -0.35886407 0.16762531
00000000: 5fad 243f 0b67 74bf d75a 31bf 70d9 8ebd
00000010: a1aa 79bf 6d89 76bf b946 62bf abf4 553f
00000020: 803a 613e 8dc1 9ebe 08b1 49bd 5d19 5ebf
00000030: b943 76bf 37c4 36bf e3c9 7bbf dad0 2f3f
00000040: c3e6 bbbe d235 8bbe 9118 62bf c0bf 393e
00000050: c53a 1abe d936 31bf 8c91 2c3f 205d 623f
00000060: 6610 3abf b87c 1a3f 220f 2ebe 8671 383b
00000070: eadc de3e 7828 39be c1a9 603f 517d 233f
00000080: 7cdf 2abf 0aff 21bf 2607 81bf 94c3 a53e
00000090: 1b89 42bf 31b0 59bf 1812 22bf 5d3b 80bf
000000a0: ea18 52bf e263 6c3f 9357 103f d225 6a3f
000000b0: d146 ffbe 5a7d d2be 561f bbbe c27b fd3c
000000c0: d3d9 3cbf b87c 153e 8a9c 24bf 6186 243e
000000d0: ae12 703f 3a7a 403e 1e3f 433f f4d0 37bf
000000e0: 257a 0fbe f0f3 20bf 408d edbd 8357 cebe
000000f0: a02d 15bf 60a2 7bbf 08bd b7be f8a5 2b3e

gkf.gat_rnn.fc_r.0.bias f4 [64]
-0.13947907 -0.9078429 0.7805733 0.7787936 -0.59072834 0.13040292 0.6796088 -0.9220227
-0.88353103 0.5756522 -0.0046513733 0.3302041 -0.38770437 0.20744246 0.69442546 -0.20865045
-0.3001489 -0.9546624 -0.12574278 0.66661924 -0.95846206 -0.0565904 0.76866627 -0.2451087
-0.34690267 -0.26771218 -0.40403384 0.14675112 -0.961495 0.3817702 -0.2193401 -0.093291454
-0.036577407 0.59463155 -0.59730655 -0.9150625 -0.71440583 -0.71621376 -0.49451554 0.81831837
-0.76135254 -0.55716693 -0.8064056 -0.46950033 -0.0041453526 -0.6057829 0.036782168 0.3749586
-0.14861721 0.45739356 0.21572103 1.0022696 -0.015477365 0.89507073 0.78120255 0.50350964
0.59889954 -0.65354645 -0.66420585 0.46119273 0.39290366 0.93367124 -0.14720847 -0.1520901
00000000: 9ad3 0ebe 6468 68bf a7d3 473f 045f 473f
00000010: f939 17bf 5888 053e d8fa 2d3f ae09 6cbf
00000020: 172f 62bf f15d 133f 8c6a 98bb 8310 a93e
00000030: 3081 c6be cc6b 543e dec5 313f 77a8 55be
00000040: 1ead 99be c164 74bf b7c2 00be 8fa7 2a3f
00000050: c55d 75bf 56cb 67bd 50c7 443f c6fd 7abe
00000060: 3a9d b1be 9211 89be 86dd cebe ed45 163e
00000070: 8924 76bf 6277 c33e b19a 60be 970f bfbd
00000080: 31d2 15bd c639 183f 15e9 18bf 8941 6abf
00000090: 4de3 36bf c959 37bf 2431 fdbe 507d 513f
000000a0: 00e8 42bf 7ea2 0ebf 9970 4ebf 5962 f0be
000000b0: bdd5 87bb 9714 1bbf e6a8 163d 93fa bf3e
000000c0: 1c2f 18be 7d2f ea3e f9e5 5c3e 5f4a 803f
000000d0: c694 7dbc 5b23 653f e4fc 473f 02e6 003f
000000e0: 7b51 193f d24e 27bf 6509 2abf 7421 ec3e
000000f0: ab2a c93e 1405 6f3f d1bd 16be 82bd 1bbe

gkf.gat_rnn.fc_r.2.weight f4 [64, 64]
0.08838061 0.0011854563 0.11286557 -0.07340436 -0.04388932 0.0021721874 0.062683195 -0.09406709
-0.018712537 0.08547846 0.022984143 0.08490816 -0.045254137 -0.08217462 -0.08925881 -0.06511522
-0.09679642 0.05915282 0.030568287 -0.09291271 0.11209982 0.0325135 0.034923896 -0.048245132
0.083649665 -0.07915473 0.088295855 -0.07819786 0.07082612 -0.050873954 0.085008085 -0.10427594
-0.027452433 -0.038001955 -0.077625506 -0.043768305 -0.037935585 0.010099027 0.08586033 -0.024615
0.119666226 -0.047969077 -0.04809386 0.0032993595 -0.025734946 0.036858387 0.1123203 0.0295258
-0.107577704 -0.05549133 -0.028285025 -0.12713656 0.035866726 0.095994435 0.050719477 -0.006371585
-0.016870072 -0.061392356 -0.016409907 0.10513779 -0.06812905 0.015726576 -0.09464841 -0.01815199
0.031504083 -0.08352207 0.051205218 -0.08092987 -0.03940243 0.10076718 0.13320403 0.009437481
-0.09237339 -0.083233126 -0.016964896 -0.049249057 0.111485116 -0.07478662 0.09104134 0.047616534
-0.02680057 0.1100713 0.08247063 0.026030343 -0.08065141 -0.023691539 0.06909608 0.1323116
-0.030224621 -0.028758818 -0.11316231 0.10452296 0.13312979 0.1060364 -0.045559235 0.11415302
-0.024733122 0.08204825 0.084779896 -0.095391534 0.041883662 0.06106941 -0.06392896 0.13176686
0.10857882 0.12671919 0.01610307 -0.04414189 -0.054987505 0.054410707 -0.011183666 0.12843177
0.11735579 0.040057696 -0.087878354 0.07957013 0.13701604 -0.0012153465 -0.036875714 -0.013474175
0.041592952 -0.08195604 0.071968816 0.0707428 -0.032097947 -0.0296332 -0.047266465 0.118151784
0.056403033 0.032100722 -0.011059296 0.02151432 0.11692814 0.03531277 -0.06736923 0.031246005
-0.052720606 -0.010662893 -0.08428204 -0.008229241 0.002771292 -0.08025382 0.07540819 0.097769186
-0.1079992 0.033097427 -0.09033421 -0.042048115 0.05843113 -0.006277323 0.019631295 -0.0581921
0.11558925 -0.07628981 0.020298231 0.0012559282 0.07000608 0.006191014 0.057728533 0.014421801
0.07564848 -0.0036205421 0.0380389 0.11072541 -0.044258434 -0.054421023 0.08709325 0.042723015
-0.121528715 0.026993055 -0.13951036 -0.085406765 0.044843253 0.06247397 -0.032362897 0.09191172
0.12036379 0.079947814 -0.11938801 -0.061368607 -0.010218077 0.084947035 -0.03917769 0.021183705
0.057995886 -0.06885122 -0.07717605 0.11818071 -0.007669967 0.08318766 -0.12584691 -0.06513822
0.071262315 -0.023400307 0.02403473 -0.1313777 0.10933057 -0.077128336 -0.023157032 -0.09184147
-0.049163625 -0.1272151 -0.12410143 -0.04101953 -0.06807873 0.0770572 -0.01730538 0.081329614
-0.032709688 0.021508133 0.10622996 -0.12418711 -0.05377265 0.09286238 -0.052125007 -0.049732838
-0.0027001307 -0.08199663 0.0016865642 -0.07969218 0.037656564 -0.047060154 -0.058145825 -0.064023055
0.018376539 0.045153614 -0.12665579 -0.08545982 -0.13132149 0.046687372 0.08201519 -0.13718745
0.02108751 0.011622508 -0.07492246 0.012607747 0.082107 0.112523794 0.03940549 -0.0531097
-0.084720165 -0.07473966 -0.014343756 -0.03710167 0.07344556 -0.14062648 -0.011881241 -0.056430656
-0.013651382 0.10908326 0.0029876728 -0.03981263 -0.058983274 -0.14226323 -0.12600449 0.04367648
00000000: e500 b53d 5061 9b3a 1026 e73d 0655 96bd
00000010: 4ac5 33bd 425b 0e3b 0c60 803d 3fa6 c0bd
00000020: 094b 99bc 550f af3d 3e49 bc3c 54e4 ad3d
00000030: 675c 39bd 2b4b a8bd 53cd b6bd 215b 85bd
00000040: 343d c6bd 3a4a 723d 586a fa3c 0549 bebd
00000050: 9794 e53d e02c 053d 5c0c 0f3d b09c 45bd
00000060: 8450 ab3d e01b a2bd 75d4 b43d 3326 a0bd
00000070: 490d 913d 3561 50bd b818 ae3d a08e d5bd
00000080: ede3 e0bc f0a7 1bbd 1ffa 9ebd 6546 33bd
00000090: 5862 1bbd 6476 253c 8ad7 af3d 65a5 c9bc
000000a0: 9113 f53d 397b 44bd 11fe 44bd 113a 583b
000000b0: 18d2 d2bc d2f8 163d 2f08 e63d 17e0 f13c
000000c0: b351 dcbd e04a 63bd ffb5 e7bc 1630 02be
000000d0: fde8 123d bb98 c43d 3abf 4f3d bbc8 d0bb
000000e0: 1b33 8abc 8d76 7bbd 126e 86bc 7b52 d73d
000000f0: 3e87 8bbd 05d5 803c 07d7 c1bd 7bb3 94bc
00000100: 6d0a 013d 9e0d abbd 90bc 513d 8fbe a5bd
00000110: 7164 21bd 065f ce3d a366 083e aa9f 1a3c
00000120: 432e bdbd 2176 aabd f7f9 8abc 61b9 49bd
00000130: 4f52 e43d ba29 99bd e273 ba3d 8e09 433d
00000140: de8c dbbc 106d e13d 5de6 a83d 963d d53c
00000150: 912c a5bd c214 c2bc 3f82 8d3d b17c 073e
00000160: a099 f7bc 9d97 ebbc a4c1 e7bd 2210 d63d
00000170: 2d53 083e 9d29 d93d 529c 3abd 0fc9 e93d
00000180: 1e9d cabc ea08 a83d 15a1 ad3d a35c c3bd
00000190: 348e 2b3d eb23 7a3d 30ed 82bd e4ed 063e
000001a0: 935e de3d adc2 013e 96ea 833c 20ce 34bd
000001b0: 943a 61bd c3dd 5e3d b23b 37bc 9e83 033e
000001c0: 3c58 f03d 8a13 243d 91f9 b3bd aaf5 a23d
000001d0: ef4d 0c3e 434c 9fba fd0a 17bd c9c2 5cbc
000001e0: 5f5d 2a3d 91d8 a7bd 6364 933d 9ae1 903d
000001f0: 2379 03bd 53c1 f2bc 7b9a 41bd 90f9 f13d
00000200: de06 673d 0c7c 033d 0d32 35bc cd3e b03c
00000210: 0578 ef3d 20a4 103d e1f8 89bd 9ff7 ff3c
00000220: 90f1 57bd 6ab3 2ebc 109c acbd f0d3 06bc
00000230: 919e 353b 1d5c a4bd 9c6f 9a3d 363b c83d
00000240: af2e ddbd 2b91 073d 2401 b9bd a53a 2cbd
00000250: 7b55 6f3d 00b2 cdbb cfd1 a03c d75a 6ebd
00000260: 0fba ec3d d53d 9cbd 7a48 a63c f59d a43a
00000270: 595f 8f3d fddd ca3b c174 6c3d 6b49 6c3c
00000280: 97ed 9a3d 9e46 6dbb adce 1b3d 01c4 e23d
00000290: 5548 35bd 94e8 5ebd f25d b23d 54fe 2e3d
000002a0: 0ce4 f8bd 8a20 dd3c cedb 0ebe bee9 aebd
000002b0: 8fad 373d b5e4 7f3d f58e 04bd 363c bc3d
000002c0: 4a81 f63d aebb a33d b381 f4bd a65d 7bbd
000002d0: b969 27bc b6f8 ad3d c978 20bd 7389 ad3c
000002e0: 188d 6d3d de01 8dbd 7a0e 9ebd ba08 f23d
000002f0: 5954 fbbb 4b5e aa3d 03de 00be 3067 85bd
00000300: faf1 913d 00b2 bfbc 7be4 c43c e087 06be
00000310: b5e8 df3d 76f5 9dbd d1b3 bdbc 6117 bcbd
00000320: cc5f 49bd ad44 02be e428 febd 1804 28bd
00000330: dc6c 8bbd 2ad0 9d3d 03c4 8dbc 2490 a63d
00000340: 98fa 05bd d331 b03c 188f d93d d055 febd
00000350: b640 5cbd a22e be3d 0881 55bd a9b4 4bbd
00000360: adf4 30bb d9ed a7bd b40f dd3a a735 a3bd
00000370: c53d 1a3d 26c2 40bd 512a 6ebd 851e 83bd
00000380: 658a 963c fff2 383d 0eb2 01be 8f05 afbd
00000390: 2479 06be 423b 3f3d 94f7 a73d de7a 0cbe
000003a0: b7bf ac3c 556c 3e3c f270 99bd b990 4e3c
000003b0: b727 a83d e072 e63d a767 213d 8f89 59bd
000003c0: c481 adbd 1b11 99bd 1302 6bbc ecf7 17bd
000003d0: a06a 963d 6300 10be 89a9 42bc d523 67bd
000003e0: 0caa 5fbc 0b67 df3d d5cc 433b 9112 23bd
000003f0: 7298 71bd 74ad 11be 5207 01be 1ce6 323d

gkf.gat_rnn.fc_r.2.bias f4 [64]
0.02455499 0.12348931 0.01301823 0.019075565 -0.07186723 -0.05845915 -0.037994046 -0.04834237
-0.026484253 -0.09071089 -0.035205305 -0.087704845 0.063382626 0.0343272 0.031997725 0.08002199
-0.10853566 -0.029482737 0.010175713 -0.08599645 0.052483924 -0.10042269 0.11751278 0.11137073
-0.00039166148 -0.031460095 0.122114465 -0.062363893 0.032494847 0.08533281 0.14989686 0.031812113
0.017328653 0.011709016 -0.093303174 0.06610792 -0.07070022 0.008455738 -0.0064910874 0.10730806
-0.024840869 0.06493208 0.002186854 0.00991764 -0.0819621 0.13891166 0.033823926 -0.12758952
0.03753068 0.08154919 -0.056249257 0.12781267 0.094550215 -0.02933132 0.16010548 0.11516322
-0.01277267 0.014748458 0.052410718 -0.015525565 0.108449645 -0.08507438 -0.08168326 0.085931525
00000000: 8c27 c93c f7e7 fc3d 6a4a 553c 5c44 9c3c
00000010: 202f 93bd dd72 6fbd a59f 1bbd a602 46bd
00000020: 81f5 d8bc a2c6 b9bd 7033 10bd 999e b3bd
00000030: c0ce 813d ae9a 0c3d 0c10 033d 92e2 a33d
00000040: f247 debd c885 f1bc 09b8 263c e81e b0bd
00000050: 62f9 563d 69aa cdbd 8aaa f03d 5616 e43d
00000060: ea57 cdb9 4ddc 00bd 2617 fa3d 4871 7fbd
00000070: 5119 053d f8c2 ae3d 907e 193e 6b4d 023d
00000080: d2f4 8d3c 2cd7 3f3c bc15 bfbd 9763 873d
00000090: 47cb 90bd f089 0a3c 30b3 d4bb 54c4 db3d
000000a0: 147f cbbc 1cfb 843d 5251 0f3b 997d 223c
000000b0: bfdb a7bd dc3e 0e3e f58a 0a3d d4a6 02be
000000c0: c5b9 193d 4303 a73d 9f65 66bd 53e1 023e
000000d0: 8ba3 c13d 3d48 f0bc b1f2 233e b2da eb3d
000000e0: 7644 51bc 84a3 713c 9fac 563d f05e 7ebc
000000f0: d91a de3d 7a3b aebd 8e49 a7bd defc af3d

gkf.gat_rnn.r_input_gru.weight_ih_l0 f4 [192, 64]
-0.11118197 -0.034678817 -0.058184646 0.056354012 0.012978077 -0.08883598 0.09938347 -0.049863353
-0.007721543 0.051689375 -0.07840132 -0.00689781 -0.04643372 -0.025146171 -0.038980182 0.08512817
-0.05424596 -0.079069406 0.062950954 0.04535237 0.025540588 0.02778932 0.11748933 -0.024592986
-0.11835727 -0.10876494 0.03865482 0.05184717 0.015712386 -0.09438961 -0.0930274 -0.07974341
0.086633205 0.030832414 -0.06429797 -0.10682776 0.07740497 0.013387425 0.08621297 -0.09927347
-0.09586024 0.01572213 0.088968664 0.08916334 0.1282682 0.092503354 0.06406876 -0.08072882
0.1280463 -0.050603904 0.0734187 0.058663055 -0.073327444 -0.0024547996 0.005846083 0.10131488
0.08505311 0.03466932 -0.06606821 0.041487884 0.11109905 -0.054964006 0.09911391 0.042803958
0.06711599 0.04053746 0.080174685 -0.10771034 0.049132593 -0.110129215 -0.001671976 0.09672393
-0.10259864 -0.097787015 -0.059854496 -0.00038919633 -0.014514546 -0.09677831 0.017170904 -0.033823285
-0.062260207 0.00056533323 0.03954731 0.020443011 -0.07665184 0.09022619 0.026316853 -0.050159864
0.10945102 0.024516316 0.06945673 0.089931615 0.0019168115 0.09988603 -0.0019332921 0.099367194
0.013398127 0.055895876 0.06211739 -0.070179306 0.112234995 0.00091691467 0.060280874 -0.09425966
-0.051494442 0.08415332 -0.08120978 0.016272029 0.1082861 -0.11857908 -0.0026991456 0.021823984
0.079877965 -0.042680193 -0.121336676 -0.07663061 0.03718885 -0.0973229 -0.104216374 -0.0039035468
0.021378791 -0.07986328 -0.05251734 0.068256855 -0.08404974 -0.10122837 -0.036245015 0.10204302
-0.03658421 -0.102013506 -0.102296166 -0.011380525 0.07161105 0.03120954 -0.06778005 -0.12508622
-0.08959915 0.018544966 0.09009682 0.056361035 -0.03251954 0.051706787 -0.0069087762 0.0016919463
0.037659388 -0.053387295 0.0136453025 -0.003171216 0.022590391 -0.031288166 0.06456788 -0.11817751
0.09844191 -0.1220337 -0.10734935 -0.09146865 -0.032809287 -0.03507945 -0.13612628 0.049662616
0.013617872 0.10460116 -0.102214016 -0.124233276 0.01138582 0.0769944 0.07093578 0.03896982
0.0037531946 0.07991156 -0.0656625 -0.14868233 -0.1158672 -0.101699896 0.01101277 0.12690762
0.063390225 -0.094873585 0.050271984 0.08852867 -0.011030975 -0.016808417 -0.086980134 -0.024341637
0.074026756 -0.05239897 -0.037710957 0.04711946 -0.06554214 -0.08239679 0.0344123 0.0746267
0.010023372 -0.021661587 -0.11120279 0.09566154 -0.010097446 -0.06909429 -0.13706103 -0.07528577
-0.101233505 0.017323934 0.07587531 -0.032068763 0.06424812 -0.039618038 -0.075720966 -0.12903376
-0.099767715 0.071249925 0.06560702 0.10617555 -0.034929138 0.025135145 -0.027778605 0.114390045
-0.08460664 -0.058750257 -0.14433743 0.00083185406 -0.1224192 -0.10776377 0.0156138195 0.11024212
0.086776026 0.06956059 -0.044068925 -0.027957708 -0.13239127 0.06527979 0.030030211 0.09509461
-0.13859308 -0.013780348 -0.0949479 -0.116555445 -0.08522019 0.01715258 0.06631925 0.06913268
-0.059655268 0.042168956 0.13814779 -0.019678066 -0.059220597 -0.1034164 0.06021319 -0.04369829
-0.10335816 0.054922834 0.010728704 -0.06360433 -0.14121799 -0.0075188386 -0.023780694 -0.045347583
00000000: 5fb3 e3bd 600b 0ebd 0653 6ebd 77d3 663d
00000010: 00a2 543c a3ef b5bd 9089 cb3d 843d 4cbd
00000020: ff04 fdbb 3db8 533d df90 a0bd 0607 e2bb
00000030: 4931 3ebd 58ff cdbc afa9 1fbd ae57 ae3d
00000040: 0331 5ebd 24ef a1bd 6eec 803d 68c3 393d
00000050: 7f3a d13c 6ea6 e33c 3f9e f03d 3b77 c9bc
00000060: 4c65 f2bd 27c0 debd 8454 1e3d b35d 543d
00000070: 43b7 803c 574f c1bd 2685 bebd 8350 a3bd
00000080: c06c b13d 4294 fc3c a7ae 83bd 83c8 dabd
00000090: 7f86 9e3d ee56 5b3c 6d90 b03d e44f cbbd
000000a0: 6052 c4bd b2cb 803c 3435 b63d 459b b63d
000000b0: bd58 033e 6672 bd3d 7b36 833d 2755 a5bd
000000c0: 921e 033e 0a46 4fbd 8b5c 963d ac48 703d
000000d0: b32c 96bd b4e0 20bb 8090 bf3b 2d7e cf3d
000000e0: 5330 ae3d 6b01 0e3d c54e 87bd 33ef 293d
000000f0: e687 e33d f021 61bd 3cfc ca3d 3453 2f3d
00000100: 1c74 893d 9c0a 263d a032 a43d 3d97 dcbd
00000110: 423f 493d 6d8b e1bd 3426 dbba 3217 c63d
00000120: 3c1f d2bd 8f44 c8bd fd29 75bd 0c0d ccb9
00000130: 6bce 6dbc b533 c6bd ffa9 8c3c 498a 0abd
00000140: 8f04 7fbd df32 143a 5cfc 213d 1a78 a73c
00000150: a4fb 9cbd 82c8 b83d 7196 d73c 6e74 4dbd
00000160: db27 e03d 71d6 c83c 543f 8e3d 112e b83d
00000170: 853d fb3a 0c91 cc3d 8566 fdba 0781 cb3d
00000180: d183 5b3c 13f3 643d ce6e 7e3d 2bba 8fbd
00000190: 76db e53d 1a5d 703a 14e9 763d 350b c1bd
000001a0: d6eb 52bd 9358 ac3d 5051 a6bd eb4c 853c
000001b0: 1ac5 dd3d 97d9 f2bd 26e4 30bb 36c8 b23c
000001c0: 0f97 a33d 6dd1 2ebd 5d7f f8bd 82f0 9cbd
000001d0: 5653 183d 3b51 c7bd 656f d5bd a6d2 7fbb
000001e0: 9322 af3c 5c8f a3bd 6c1c 57bd 40ca 8b3d
000001f0: 4522 acbd d250 cfbd a775 14bd eefb d03d
00000200: 53d9 15bd 75ec d0bd a780 d1bd 6275 3abc
00000210: d0a8 923d 26ab ff3c 44d0 8abd 9a16 00be
00000220: c27f b7bd 9deb 973c ae84 b83d d4da 663d
00000230: 3633 05bd 7fca 533d 0463 e2bb 4cc4 dd3a
00000240: bb40 1a3d a3ac 5abd 8c90 5f3c 2dd4 4fbb
00000250: 7c0f b93c 0528 00bd 2a3c 843d 0d07 f2bd
00000260: ea9b c93d ceec f9bd fad9 dbbd ea53 bbbd
00000270: 0863 06bd 78af 0fbd b064 0bbe 076b 4b3d
00000280: 7f1d 5f3c 2239 d63d 9555 d1bd 046e febd
00000290: 978b 3a3c 3daf 9d3d c746 913d d19e 1f3d
000002a0: 28f8 753b aca8 a33d 107a 86bd 2e40 18be
000002b0: c84b edbd 0948 d0bd e86e 343c 12f4 013e
000002c0: bcd2 813d 154d c2bd ffe9 4d3d 854e b53d
000002d0: 43bb 34bc ceb1 89bc a422 b2bd 1d68 c7bc
000002e0: 579b 973d 4da0 56bd ce76 1abd 5600 413d
000002f0: f53a 86bd a6bf a8bd e9f3 0c3d e2d5 983d
00000300: 1239 243c a473 b1bc 4abe e3bd 33ea c33d
00000310: c26f 25bc 4f81 8dbd ba59 0cbe 6d2f 9abd
00000320: 8353 cfbd ecea 8d3c 8464 9b3d 895a 03bd
00000330: 8594 833d 8646 22bd 9813 9bbd 6d21 04be
00000340: 0453 ccbd 7beb 913d f95c 863d 9172 d93d
00000350: db11 0fbd 38e8 cd3c f58f e3bc 5445 ea3d
00000360: 3f46 adbd 1ca4 70bd 31cd 13be c810 5a3a
00000370: ebb6 fabd 40b3 dcbd 1bd1 7f3c 9fc6 e13d
00000380: a1b7 b13d c875 8e3d 9e81 34bd 9007 e5bc
00000390: 9491 07be 69b1 853d eb01 f63c f6c0 c23d
000003a0: 58eb 0dbe f8c6 61bc 0b74 c2bd 9fb4 eebd
000003b0: ec87 aebd 9183 8c3c 63d2 873d 6f95 8d3d
000003c0: 1559 74bd 5bb9 2c3d 9d76 0d3e e533 a1bc
000003d0: 4c91 72bd facb d3bd 1ba2 763d fafc 32bd
000003e0: 71ad d3bd c4f6 603d 72c7 2f3c fd42 82bd
000003f0: 739b 10be 9760 f6bb bbcf c2bc 63be 39bd

gkf.gat_rnn.r_input_gru.weight_hh_l0 f4 [192, 64]
-0.023079582 -0.07128838 -0.097143486 -0.007455816 -0.07011936 0.094534285 0.112190425 -0.06560098
0.005285686 -0.08055 0.04164171 0.075434566 -0.085090056 -0.07530941 -0.019139938 0.10899703
0.07951444 -0.08331772 0.020239396 -0.094745755 0.13484511 0.065046065 -0.065520585 0.04768591
0.02525795 -0.072280996 -0.11351966 0.06254968 -0.111752585 0.06525032 -0.044821583 0.06065393
0.037865542 0.05915254 -0.04701045 0.06100991 0.04308853 0.015804002 -0.017678719 0.009976769
0.063440196 0.057062894 -0.031604216 -0.019588877 -0.048961557 -0.027360566 0.071618125 0.110244215
0.051653937 -0.04887274 0.07046638 0.10533604 0.01207279 0.10969312 0.019819448 -0.036953006
0.028618306 0.021300122 0.03517828 -0.038694125 -0.08668178 -0.10709749 -0.07196836 0.094424225
-0.027859813 -0.10788602 0.1215222 -0.10253302 0.019452514 0.10109904 -0.08195574 0.0027996507
0.10144487 0.12340564 0.06905921 -0.030899148 0.07279257 0.07189988 0.017002534 0.112948865
0.0137406895 0.08005151 -0.09417891 0.03072791 -0.09751544 0.029849196 0.029380392 0.07562039
0.06287221 -0.03534927 0.07345842 -0.12950386 0.105000935 0.044231907 -0.023127811 0.029784545
0.063313335 -0.110914804 0.084627114 0.020532236 0.1437309 0.029613763 0.01176495 0.01182296
0.09799322 -0.10773242 0.06448338 0.06547355 -0.024869809 -0.06347246 0.10779416 0.057339724
-0.044080246 -0.00049685285 -0.032256622 -0.05868021 0.10001826 0.053713433 -0.009215485 0.07961968
0.08315079 0.056950264 0.050690226 -0.09421976 -0.07242902 0.12773608 0.045683417 0.04493943
-0.08440405 -0.042680964 -0.0571833 0.04678288 -0.03906698 0.1099726 -0.07221476 -0.026753252
0.110782 -0.0612194 0.017628318 -0.02450943 0.05272977 -0.05834805 -0.103500955 -0.0550715
0.046482425 -0.021706901 -0.08505714 -0.024010526 -0.064393945 0.11031808 -0.010593555 0.046814907
0.10530849 -0.0792901 0.05466834 0.033629738 0.11460781 -0.0030043125 0.02959043 -0.11259548
0.12760994 -0.08861403 0.09552157 -0.07189469 0.025144555 -0.0088364715 0.094894364 -0.12372091
0.108052984 0.11311632 0.045431174 0.12038806 0.11260102 0.0126167 0.060223777 0.0067132344
0.026281046 -0.0730583 -0.025042133 -0.05545861 -0.067371376 -0.07441796 -0.056200944 0.012999431
-0.013737753 0.06508436 0.043206345 -0.032210305 0.085699625 -0.09454809 -0.055878777 0.1267673
0.04339681 0.068037815 -0.13635714 0.07376363 -0.09158043 0.030983243 -0.04711559 0.032953225
-0.05880841 -0.12350486 -0.10323745 -0.08207013 -0.037297744 0.012977095 -0.03944253 -0.04236845
0.036989212 0.1205179 -0.049884666 0.09990821 -0.067058854 0.09808421 -0.035746682 -0.054428402
-0.041554827 -0.01892088 -0.093694925 0.09830181 -0.092353635 0.011922948 -0.10350072 -0.06902544
0.017039761 -0.0125376815 -0.032486927 0.0069024065 -0.05172671 -0.12475494 0.010388092 0.021250054
0.10052363 -0.05927772 -0.09361002 -0.0994586 0.07001901 -0.1086964 0.08730745 0.032624044
0.10278005 -0.03896499 0.08651087 -0.038741723 -0.0027206717 0.114474095 -0.054936334 -0.033948984
0.027798187 0.054030877 -0.0005528544 -0.07966867 -0.029950012 0.029671434 -0.079283856 -0.10936577
00000000: 6411 bdbc a4ff 91bd 2af3 c6bd eb4f f4bb
00000010: bd9a 8fbd 319b c13d 18c4 e53d ce59 86bd
00000020: 8c33 ad3b 66f7 a4bd 7f90 2a3d 707d 9a3d
00000030: b243 aebd d23b 9abd 5ccb 9cbc d639 df3d
00000040: 77d8 a23d 7ba2 aabd 17cd a53c 100a c2bd
00000050: d614 0a3e df36 853d a82f 86bd 4d52 433d
00000060: c3e9 ce3c 0f08 94bd ff7c e8bd 0c1a 803d
00000070: 8ade e4bd f6a1 853d d696 37bd 4170 783d
00000080: e618 1b3d ef49 723d 088e 40bd 87e5 793d
00000090: 997d 303d 6577 813c f6d2 90bc 9a75 233c
000000a0: efec 813d c8ba 693d 6c73 01bd da78 a0bc
000000b0: ea8b 48bd 4423 e0bc 86ac 923d b8c7 e13d
000000c0: 1493 533d c82e 48bd ad50 903d 6cba d73d
000000d0: f4cc 453c c9a6 e03d 655c a23c 095c 17bd
000000e0: f070 ea3c 987d ae3c 1a17 103d bb7d 1ebd
000000f0: 3886 b1bd ee55 dbbd 2664 93bd 7d61 c13d
00000100: 433a e4bc 58f3 dcbd a2e0 f83d d5fc d1bd
00000110: e15a 9f3c 030d cf3d 69d8 a7bd 587a 373b
00000120: 54c2 cf3d 19bc fc3d ea6e 8d3d 3620 fdbc
00000130: 4514 953d 3f40 933d e648 8b3c bc51 e73d
00000140: a120 613c 0cf2 a33d dfe0 c0bd 19b9 fb3c
00000150: 2db6 c7bd 4d86 f43c 26af f03c ddde 9a3d
00000160: 25c3 803d 65ca 10bd 5e71 963d a99c 04be
00000170: bb0a d73d 842c 353d 8976 bdbc b8fe f33c
00000180: 6caa 813d 4d27 e3bd fb50 ad3d 3833 a83c
00000190: 312e 133e 9098 f23c c7c1 403c 17b5 413c
000001a0: abb0 c83d d1a2 dcbd dd0f 843d ff16 863d
000001b0: c5bb cbbc d9fd 81bd 2fc3 dc3d 0fdd 6a3d
000001c0: 7d8d 34bd 3b3f 02ba 851f 04bd a95a 70bd
000001d0: 60d6 cc3d 9e02 5c3d 8cfc 16bc a50f a33d
000001e0: f64a aa3d ae44 693d 8ea0 4f3d 4af6 c0bd
000001f0: ab55 94bd 3fcd 023e 891e 3b3d 6812 383d
00000200: 08dc acbd 3cd2 2ebd 0939 6abd 689f 3f3d
00000210: b304 20bd 5139 e13d 55e5 93bd a329 dbbc
00000220: ace1 e23d 32c1 7abd 4369 903c 00c8 c8bc
00000230: 2cfb 573d 5dfe 6ebd 4ff8 d3bd a792 61bd
00000240: 5b64 3e3d acd2 b1bc 7032 aebd b9b1 c4bc
00000250: f9e0 83bd 72ee e13d 9790 2dbc fdc0 3f3d
00000260: faab d73d d962 a2bd e9eb 5f3d 56bf 093d
00000270: 80b7 ea3d 00e4 44bb a167 f23c 7698 e6bd
00000280: 2eac 023e 467b b5bd d0a0 c33d 863d 93bd
00000290: f4fb cd3c d9c6 10bc fa57 c23d 6361 fdbd
000002a0: e24a dd3d 87a9 e73d 0a16 3a3d 048e f63d
000002b0: 5d9b e63d 46b6 4e3c 35ad 763d b1fa db3b
000002c0: 594b d73c 979f 95bd 2925 cdbc 9128 63bd
000002d0: 01fa 89bd 7268 98bd f632 66bd 91fb 543c
000002e0: 5014 61bc f34a 853d 23f9 303d f4ee 03bd
000002f0: 4983 af3d 6ea2 c1bd 25e1 64bd 49cf 013e
00000300: dac0 313d 6957 8b3d 35a1 0bbe 6311 973d
00000310: 858e bbbd 92d0 fd3c 47fc 40bd f6f9 063d
00000320: 16e1 70bd 1ef0 fcbd 286e d3bd 6214 a8bd
00000330: 85c5 18bd e29d 543c 7e8e 21bd 8a8a 2dbd
00000340: 0082 173d 17d2 f63d dd53 4cbd ad9c cc3d
00000350: 2756 89bd 60e0 c83d 1d6b 12bd 51f0 5ebd
00000360: 6535 2abd f6ff 9abc 20e3 bfbd 7652 c93d
00000370: e723 bdbd 7858 433c 2ff8 d3bd 365d 8dbd
00000380: f896 8b3c d96a 4dbc 0311 05bd 952d e23b
00000390: 63df 53bd 857f ffbd d132 2a3c 9814 ae3c
000003a0: 55df cd3d 32cd 72bd 9cb6 bfbd f3b0 cbbd
000003b0: 2066 8f3d 389c debd 40ce b23d caa0 053d
000003c0: 597e d23d c199 1fbd 9c2c b13d a4af 1ebd
000003d0: 4c4d 32bb 6571 ea3d ec04 61bd 170e 0bbd
000003e0: 06b9 e33c 7b4f 5d3d 6eed 10ba 5429 a3bd
000003f0: ba59 f5bc 8211 f33c 935f a2bd 29fb dfbd

gkf.gat_rnn.r_input_gru.bias_ih_l0 f4 [192]
0.13996893 -0.06749814 -0.08562663 0.05498136 -0.009360445 0.13222988 -0.06371777 0.04300338
0.0436335 0.01340055 -0.11379495 0.0029076706 -0.005505813 -0.06376629 0.08199278 0.12377405
0.11045002 0.09642689 -0.03712708 -0.07935639 0.09073235 0.10144226 -0.072786294 0.05989868
-0.04720007 -0.031074971 0.124096915 0.10082929 -0.10176913 0.07015328 0.1101284 0.034891207
0.06322901 0.02991911 0.0155093735 0.064813964 -0.06792604 0.0066677574 -0.02974969 0.07662659
-0.106382 0.07225852 -0.057794746 0.0831233 0.005198958 0.021219967 0.055599827 0.051393434
0.062105957 0.086183816 -0.005559257 -0.05146566 0.056544423 -0.11424685 0.04874015 0.07129305
0.10998538 0.09849147 -0.077025846 -0.08459489 -0.017992934 -0.12116333 0.026787888 0.08034265
0.041758683 -0.13315967 0.027031891 -0.09556889 -0.086304724 -0.12725988 -0.066340245 -0.07815449
-0.05143321 0.06423879 -0.04263251 0.011191239 -0.0585309 0.05442202 -0.106301576 -0.06315749
-0.110341385 -0.07852059 -0.056351405 -0.11319603 -0.031915076 -0.15139143 -0.020078583 -0.0074774064
0.053233374 -0.11516009 -0.014034549 -0.04379978 -0.13734718 0.0369058 0.035673335 0.031932067
-0.04348847 -0.014910678 0.04493764 -0.07330535 0.010921007 0.011160752 -0.1367621 -0.073525794
-0.08637884 -0.12665881 0.08516462 -0.06576917 -0.070755355 -0.13697444 0.09687173 -0.02720265
0.08532476 0.06864301 -0.055099633 -0.009862523 0.034836598 0.10599739 -0.051026795 -0.05869101
0.10754508 0.068597645 -0.08978198 0.01673054 -0.10952085 0.0011731163 0.036705937 -0.07475874
-0.026532423 0.054352812 0.019236652 -0.07805852 0.026990917 0.023782661 -0.08403405 0.11743286
-0.07811008 0.046457198 -0.09889815 -0.1413661 0.046632063 0.116092086 -0.08898679 -0.06019627
-0.07944066 -0.1212304 0.02522857 0.093502365 0.061728068 -0.03891783 -0.06619834 -0.009945578
-0.05418685 -0.08989838 -0.0123223765 -0.022644844 -0.09156949 -0.10757365 0.10091293 -0.009882371
-0.042594623 -0.07825308 0.096402325 -0.00687614 0.12311159 0.00022900356 -0.09271659 0.098142266
-0.06937571 0.07635497 0.0075144093 -0.0048880847 -0.092933826 -0.1035013 -0.058774855 0.04573612
-0.1222906 -0.04581501 0.0052743102 0.021087667 -0.14628236 -0.044355497 -0.0372947 0.0278625
-0.050863173 0.1056021 -0.030471615 0.08877164 0.09730089 0.08313402 0.061925236 0.13734533
00000000: 0454 0f3e 773c 8abd 045d afbd 2234 613d
00000010: 8d5c 19bc 4567 073e 767e 82bd 5024 303d
00000020: 0ab9 323d fb8d 5b3c 540d e9bd 9e8e 3e3b
00000030: 1b6a b4bb e797 82bd d5eb a73d 407d fd3d
00000040: 9f33 e23d 767b c53d 9112 18bd 9a85 a2bd
00000050: e2d1 b93d f6c0 cf3d fb10 95bd 5158 753d
00000060: dc54 41bd f090 febc 8626 fe3d 967f ce3d
00000070: 556c d0bd 86ac 8f3d 008b e13d 15ea 0e3d
00000080: 367e 813d ec18 f53c 071b 7e3c 2fbd 843d
00000090: cf1c 8bbd 347d da3b 9fb5 f3bc 67ee 9c3d
000000a0: cede d9bd 46fc 933d 2fba 6cbd 8c3c aa3d
000000b0: 055c aa3b 7fd5 ad3c a5bc 633d ec81 523d
000000c0: d162 7e3d 2481 b03d 6e2a b6bb a8cd 52bd
000000d0: 209b 673d 41fa e9bd c0a3 473d 1702 923d
000000e0: 0440 e13d e5b5 c93d babf 9dbd 1640 adbd
000000f0: eb65 93bc 7b24 f8bd 4672 db3c b08a a43d
00000100: 270b 2b3d 025b 08be fc71 dd3c 9fb9 c3bd
00000110: 88c0 b0bd 6a50 02be 65dd 87bd 760f a0bd
00000120: a1ab 52bd a08f 833d 6d9f 2ebd 755b 373c
00000130: 19be 6fbd a0e9 5e3d a4b4 d9bd b758 81bd
00000140: aafa e1bd 67cf a0bd bbd0 66bd 52d3 e7bd
00000150: 62b9 02bd 5b06 1bbe d77b a4bc 0805 f5bb
00000160: 3d0b 5a3d 0ed9 ebbd 2af1 65bc 6667 33bd
00000170: bda4 0cbe 892a 173d 341e 123d 33cb 023d
00000180: f720 32bd eb4b 74bc 8810 383d 1e21 96bd
00000190: 06ee 323c 96db 363c 5d0b 0cbe b194 96bd
000001a0: 64e7 b0bd d9b2 01be ca6a ae3d fdb1 86bd
000001b0: 2fe8 90bd 0743 0cbe b064 c63d 18d8 debc
000001c0: bfbe ae3d b594 8c3d 27b0 61bd 6b96 21bc
000001d0: d2b0 0e3d 2915 d93d 7901 51bd fc65 70bd
000001e0: 9840 dc3d ec7c 8c3d 9ddf b7bd 7c0e 893c
000001f0: 784c e0bd 40c3 993a f758 163d 1c1b 99bd
00000200: 865a d9bc 0ea1 5e3d 2f96 9d3c 25dd 9fbd
00000210: 0e1c dd3c dbd3 c23c 0b1a acbd a480 f03d
00000220: 2df8 9fbd e749 3e3d 1d8b cabd 46c2 10be
00000230: 4301 3f3d b0c1 ed3d b53e b6bd 5d90 76bd
00000240: c9b1 a2bd a547 f8bd 25ac ce3c 2b7e bf3d
00000250: 92d6 7c3d 4d68 1fbd ff92 87bd c7f2 22bc
00000260: 08f3 5dbd a41c b8bd cbe3 49bc ae81 b9bc
00000270: c988 bbbd 934f dcbd 70ab ce3d abe9 21bc
00000280: b377 2ebd 2743 a0bd 956e c53d 3e51 e1bb
00000290: ee21 fc3d ad20 7039 32e2 bdbd d0fe c83d
000002a0: da14 8ebd ff5f 9c3d 6f3b f63b 3a2c a0bb
000002b0: 1754 bebd 7df8 d3bd e7bd 70bd cc55 3b3d
000002c0: 7e73 fabd 85a8 3bbd 1fd4 ac3b 0bc0 ac3c
000002d0: 0bcb 15be 1cae 35bd 54c2 18bd e63f e43c
000002e0: e755 50bd ea45 d83d 9c9f f9bc e8cd b53d
000002f0: b045 c73d 2b42 aa3d 51a5 7d3d 41a4 0c3e

gkf.gat_rnn.r_input_gru.bias_hh_l0 f4 [192]
-0.082315065 -0.08786199 0.017391343 -0.053131625 -0.045632113 -0.090244085 0.023467746 0.07588452
-0.02194235 0.04016874 0.05999377 0.02613856 -0.0652678 0.08257709 0.066542864 -0.039714828
0.081197284 0.09694897 -0.06976674 -0.120876014 0.058020197 0.07566702 -0.03847047 0.088938944
-0.0022391633 0.0040663425 0.109124616 -0.033182647 0.10096159 0.018846538 0.045846835 -0.008435452
0.0058442787 0.02490066 -0.06956698 -0.067056686 0.03193091 -0.010876837 -0.048707865 -0.07454734
-0.05309177 0.13636431 -0.069667675 0.030573776 0.11904259 0.09740901 0.008350839 -0.023747647
0.11334869 0.043505 -0.08395509 -0.06483347 -0.02597631 -0.01013511 -0.040765766 0.041633178
0.06325754 -0.09185582 -0.09500171 0.06281659 -0.10865263 0.024731392 0.041873563 -0.107830286
-0.033333734 0.08385139 -0.030841386 -0.05597516 -0.12427465 -0.038273852 -0.15321355 0.064249344
-0.094236575 -0.06400742 0.018979201 -0.045096245 -0.0057947687 -0.008776966 -0.03852789 -0.07231585
0.06843388 0.02173001 -0.0091493465 0.045172993 0.012464123 0.019919416 -0.037428536 -0.0385874
-0.04479311 -0.109293 0.00016601884 -0.11998187 0.056736875 0.028834619 -0.004992014 -0.1434794
-0.017414328 -0.010278694 0.004861983 0.105218664 0.059044357 0.005047423 0.09370938 -0.024012418
0.06733523 -0.02463378 0.014720684 0.009318057 -0.057303987 0.09587087 0.08884606 -0.06989606
-0.108903356 0.08034269 0.05065534 -0.06526398 -0.15158774 -0.020834189 0.0100556025 0.09827023
0.037064668 0.0050100116 0.09083731 0.004370325 0.03766458 -0.05508969 0.110032685 0.022573939
0.011082338 0.0249933 -0.060406715 -0.08298833 0.09627811 0.04076285 0.0027012108 -0.06697775
0.12495775 0.009735997 0.0066158953 -0.108126305 -0.051522676 0.0512623 -0.033950977 0.03667079
-0.108436465 -0.07725213 -0.084895425 0.085109524 0.034211345 0.046925023 0.05250263 0.09065199
0.12769021 0.09555412 -0.020300046 0.02449061 0.042342745 0.042623937 -0.11832154 -0.12318279
-0.14621606 0.062329777 0.1282681 0.07160778 0.051872347 0.039074745 -0.07856645 0.13126168
0.05760269 -0.020347422 -0.113954134 0.08092371 -0.0959507 -0.025593864 0.110867575 -0.06550341
0.061462782 0.038078763 -0.04454176 -0.122679114 -0.056447834 -0.10635121 -0.1478523 0.1314802
-0.05959809 -0.05292571 0.06200845 -0.049553495 -0.041787688 -0.07315076 -0.022910887 -0.07328219
00000000: cd94 a8bd fdf0 b3bd 4a78 8e3c 8ca0 59bd
00000010: bde8 3abd e4d1 b8bd 6e3f c03c 5869 9b3d
00000020: 71c0 b3bc fa87 243d 07bc 753d 8920 d63c
00000030: 20ab 85bd 2d1e a93d a047 883d 04ac 22bd
00000040: c34a a63d 2e8d c63d dde1 8ebd d88d f7bd
00000050: 96a6 6d3d 50f7 9a3d 3693 1dbd 9f25 b63d
00000060: edbe 12bb f43e 853b ba7c df3d 87ea 07bd
00000070: f3c4 ce3d 0e64 9a3c e4c9 3b3d da34 0abc
00000080: 5d81 bf3b 78fc cb3c 2279 8ebd 0455 89bd
00000090: fcc9 023d c334 32bc e681 47bd 47ac 98bd
000000a0: c176 59bd 16a3 0b3e edad 8ebd db75 fa3c
000000b0: 9acc f33d 607e c73d f5d1 083c 6d8a c2bc
000000c0: 5c23 e83d 4d32 323d a5f0 abbd 69c7 84bd
000000d0: 45cc d4bc bb0d 26bc 01fa 26bd 8d87 2a3d
000000e0: 2b8d 813d e71e bcbd 4290 c2bd fca5 803d
000000f0: 4585 debd 7d99 ca3c 9d83 2b3d 20d6 dcbd
00000100: f488 08bd 47ba ab3d 13a7 fcbc 3646 65bd
00000110: b583 febd 0bc5 1cbd 03e4 1cbe 2995 833d
00000120: 1bff c0bd 5216 83bd 457a 9b3c d7b6 38bd
00000130: 0be2 bdbb 43cd 0fbc 6ccf 1dbd 551a 94bd
00000140: 1027 8c3d 2203 b23c 24e7 15bc 5107 393d
00000150: 5236 4c3c 0b2e a33c aa4e 19bd d20d 1ebd
00000160: fb78 37bd 02d5 dfbd 5815 2e39 0eb9 f5bd
00000170: ed64 683d 9436 ec3c 0c94 a3bb 44ec 12be
00000180: 7ea8 8ebc f867 28bc 4551 9f3b e27c d73d
00000190: 7fd8 713d da64 a53b b4ea bf3d b1b5 c4bc
000001a0: 0ee7 893d c8cc c9bc 062f 713c c4aa 183c
000001b0: 96b7 6abd f257 c43d ecf4 b53d aa25 8fbd
000001c0: b908 dfbd b58a a43d f97b 4f3d 1fa9 85bd
000001d0: d139 1bbe 76ac aabc 41c0 243c e741 c93d
000001e0: 1fd1 173d 062b a43b e908 ba3d f134 8f3b
000001f0: 2d46 1a3d baa5 61bd d158 e13d fbec b83c
00000200: b292 353c c0be cc3c 086d 77bd c9f5 a9bd
00000210: 752d c53d f2f6 263d cc06 313b a12b 89bd
00000220: d9e9 ff3d bb83 1f3c 27ca d83b 5371 ddbd
00000230: 7109 53bd 6bf8 513d 2e10 0bbd 1c34 163d
00000240: f013 debd 5d36 9ebd a7dd adbd e74d ae3d
00000250: 3221 0c3d 7434 403d ff0c 573d c0a7 b93d
00000260: 39c1 023e e1b1 c33d 484c a6bc 88a0 c83c
00000270: 966f 2d3d 7096 2e3d 9052 f2bd 4247 fcbd
00000280: aab9 15be 824d 7f3d b658 033e 1aa7 923d
00000290: 1978 543d d70c 203d 72e7 a0bd 7669 063e
000002a0: ccf0 6b3d a3af a6bc c960 e9bd 54bb a53d
000002b0: cd81 c4bd 39aa d1bc 8a0e e33d a726 86bd
000002c0: 66c0 7b3d 7af8 1b3d 6c71 36bd 303f fbbd
000002d0: d835 67bd aace d9bd 9866 17be bfa2 063e
000002e0: 201d 74bd a1c8 58bd 93fc 7d3d 9bf8 4abd
000002f0: 9129 2bbd 11d0 95bd 9daf bbbc f914 96bd

gkf.gat_rnn.gcn_nodes.bias f4 [64]
0.034408577 -0.047638427 0.036955185 -0.0393526 0.042542543 -0.035634432 0.04193885 -0.041160773
-0.041706096 0.041404963 0.034083292 0.03849744 0.021561025 -0.04066537 -0.036358353 -0.040145945
-0.034907546 -0.038598113 -0.040355086 -0.045182742 -0.040188894 0.041639667 0.023816597 0.03960362
0.039909232 0.010652151 0.028540539 0.034055714 -0.022364544 0.044962373 -0.038492307 -0.018267253
-0.037832562 -0.03622378 -0.030811317 0.04838648 -0.033244513 0.029125284 -0.027119262 -0.041526504
-0.03311577 0.026135001 -0.020575564 0.035455137 -0.03406664 0.032135904 0.0073419004 0.03800329
-0.039700046 -0.041234095 0.03791027 0.04124733 0.04262503 0.03847341 -0.03490153 -0.038645532
-0.0082300715 0.04188313 0.035759814 -0.036039088 0.037614517 -0.035368826 -0.03756543 -0.039020196
00000000: 02f0 0c3d 8320 43bd 525e 173d 3130 21bd
00000010: 1741 2e3d 69f5 11bd 12c8 2b3d 3398 28bd
00000020: 03d4 2abd 4098 293d ec9a 0b3d 7eaf 1d3d
00000030: bfa0 b03c bb90 26bd 7fec 14bd 1370 24bd
00000040: 37fb 0ebd 0e19 1ebd 604b 25bd 8a11 39bd
00000050: 1c9d 24bd 5b8e 2a3d 061b c33c 6837 223d
00000060: dd77 233d 5c86 2e3c d9cd e93c 017e 0b3d
00000070: d935 b7bc 772a 383d 1caa 1dbd 35a5 95bc
00000080: 51f6 1abd 635f 14bd 0468 fcbc e730 463d
00000090: 662b 08bd 2698 ee3c 3729 debc b217 2abd
000000a0: 67a4 07bd 1219 d63c 168e a8bc 6839 113d
000000b0: 7689 0bbd f0a0 033d 5394 f03b 56a9 1b3d
000000c0: 849c 22bd 15e5 28bd cd47 1b3d f6f2 283d
000000d0: 9597 2e3d 4b96 1d3d e8f4 0ebd c74a 1ebd
000000e0: 6cd7 06bc a58d 2b3d e278 123d b99d 13bd
000000f0: ae11 1a3d e7de 10bd 35de 19bd a4d3 1fbd
