models/no_mismatch/kalman_process_50n_local_params_linear.pth (torch, 269602 bytes, 28 tensors)

gkf.gat_rnn.fc_delta_y_innov.0.weight f4 [64, 3]
0.4313618 0.50656945 -0.14155447 0.5236353 -0.08914103 0.122963235 -0.2734186 0.31416517
0.55782515 -0.42773783 0.5534855 0.12551478 0.41775012 0.043559853 0.2580423 -0.0852805
0.46294272 0.10138918 -0.2630454 0.16534679 -0.2504797 -0.014221438 -0.26511535 0.43536955
-0.47454935 -0.28814968 -0.09048989 -0.3674139 0.08551277 -0.5899909 0.51859134 -0.5079417
0.49811235 0.07621476 -0.21749142 0.3990357 0.0829152 0.47194812 0.07413643 -0.18486741
0.14901733 -0.13485043 0.24718381 0.55320543 0.35466492 -0.2596752 0.3448858 0.1015336
0.3028155 -0.35245374 -0.55098027 -0.19271311 -0.4534301 0.5299567 0.16782047 0.26483178
0.20226204 -0.018722428 0.46180183 -0.39660892 0.0240848 -0.42729387 0.15937161 -0.19371204
0.15733097 -0.09864723 0.4785004 -0.3416024 -0.32546678 -0.32702944 0.5707009 0.17193843
0.56762767 -0.43602678 -0.58615434 -0.4905602 -0.3993749 0.23145102 0.1954494 0.5047717
-0.28902152 -0.3820963 0.28074995 -0.22136444 0.3501725 -0.1531226 0.37585688 -0.43774843
-0.27545172 0.21066384 0.141643 -0.22652453 0.40071073 0.39873263 -0.39828932 -0.30830422
0.5325071 -0.18727213 -0.19321278 -0.55873626 -0.31640175 0.17473997 -0.04873128 -0.42133355
0.06640623 -0.4184133 -0.48991317 -0.2417264 -0.5208802 -0.41628024 0.61609143 0.13995518
0.20617071 -0.57103765 -0.37064138 -0.21059385 0.107212745 -0.5202673 -0.22820203 -0.31698155
0.014680843 -0.19387892 -0.021663673 -0.3918029 -0.3875396 -0.30200514 -0.14441682 -0.48551324
0.5279404 -0.08361905 0.54276717 0.17125122 -0.4881849 0.41247714 -0.16537377 -0.25052223
-0.47086728 -0.5573175 0.18338208 -0.14706807 0.27592286 -0.4881765 0.45366055 -0.41540194
-0.08059468 0.12202267 0.33200106 0.47266597 0.56689453 -0.47953105 0.17179567 -0.2844732
0.009173739 -0.46766546 0.5507667 -0.44165215 0.31453958 0.23321418 0.22237751 -0.31620094
0.5669928 0.109056294 0.14540678 -0.5759177 0.33594513 -0.06050048 -0.26994568 0.5302838
0.13739772 -0.34074345 -0.21211475 -0.031434372 0.36612526 -0.19514902 -0.35102785 -0.16750683
-0.44442606 0.23274274 0.44519532 -0.5713666 0.13958658 0.34456816 0.08844597 -0.20820728
0.31916606 0.33215192 0.22234839 -0.15577862 -0.075975545 0.047389276 -0.111640364 -0.1712629
00000000: 74db dc3e 89ae 013f a8f3 10be f70c 063f
00000010: 938f b6bd 26d4 fb3d 86fd 8bbe 42da a03e
00000020: a1cd 0e3f 7400 dbbe 3ab1 0d3f f286 003e
00000030: 58e3 d53e d16b 323d 1f1e 843e 8ba7 aebd
00000040: d406 ed3e 21a5 cf3d e3ad 86be ab50 293e
00000050: e03e 80be 0901 69bc 33bd 87be c2e8 de3e
00000060: 22f8 f2be 5b88 93be c352 b9bd ad1d bcbe
00000070: 5221 af3d a509 17bf 67c2 043f 7808 02bf
00000080: 9508 ff3e 7c16 9c3d 12b6 5ebe 684e cc3e
00000090: 72cf a93d 2fa3 f13e d7d4 973d e24d 3dbe
000000a0: 0098 183e 3b16 0abe c11d 7d3e df9e 0d3f
000000b0: a496 b53e 26f4 84be df94 b03e d9f0 cf3d
000000c0: a20a 9b3e d174 b4be 0b0d 0dbf 9656 45be
000000d0: fd27 e8be 3eab 073f 21d9 2b3e 0898 873e
000000e0: c81d 4f3e c75f 99bc 4a71 ec3e 5310 cbbe
000000f0: 7d4d c53c 43c6 dabe 5032 233e 735c 46be
00000100: 5f1b 213e 8f07 cabd 01fe f43e 83e6 aebe
00000110: 95a3 a6be 6770 a7be 7419 123f a110 303e
00000120: 0c50 113f e73e dfbe 360e 16bf b52a fbbe
00000130: de7a ccbe 7f01 6d3e e323 483e b838 013f
00000140: a1fa 93be 20a2 c3be 75be 8f3e 5cad 62be
00000150: cf49 b33e 2ccc 1cbe 5070 c03e 9020 e0be
00000160: 0208 8dbe 43b8 573e dd0a 113e 0cf6 67be
00000170: f529 cd3e af26 cc3e 94ec cbbe 0dda 9dbe
00000180: 6352 083f 44c4 3fbe 92d9 45be 5709 0fbf
00000190: 69ff a1be 09ef 323e 739a 47bd 08b9 d7be
000001a0: fdff 873d 453a d6be e6d5 fabe 2087 77be
000001b0: 6858 05bf af22 d5be 2bb8 1d3f 6950 0f3e
000001c0: 6a1e 533e 862f 12bf b5c4 bdbe eaa5 57be
000001d0: 5b92 db3d 3d30 05bf cbad 69be 684b a2be
000001e0: eb87 703c 3288 46be 0478 b1bc 649a c8be
000001f0: 976b c6be 6ba0 9abe 01e2 13be 3195 f8be
00000200: 1a27 073f 7740 abbd caf2 0a3f 7b5c 2f3e
00000210: 5ff3 f9be 3430 d33e be57 29be 7344 80be
00000220: 8415 f1be 5cac 0ebf 83c8 3b3e 0399 16be
00000230: c345 8d3e 45f2 f9be 3246 e83e 90af d4be
00000240: d30e a5bd 06e7 f93d 0bfc a93e 4601 f23e
00000250: 0020 113f 1885 f5be 34eb 2f3e 79a6 91be
00000260: 734d 163c d971 efbe 0cff 0c3f 3b20 e2be
00000270: 550b a13e b3cf 6e3e eeb6 633e 17e5 a1be
00000280: 7126 113f e858 df3d 84e5 143e 586f 13bf
00000290: 0001 ac3e 5acf 77bd 5236 8abe aec0 073f
000002a0: fdb1 0c3e ed75 aebe 9c34 59be 54c1 00bd
000002b0: c574 bb3e 25d5 47be ecb9 b3be e986 2bbe
000002c0: d08b e3be 1d54 6e3e a4f0 e33e 1545 12bf
000002d0: c9ef 0e3e 3d6b b03e 2923 b53d 4a34 55be
000002e0: bc69 a33e d10f aa3e 4caf 633e 6e84 1fbe
000002f0: 1199 9bbd 421b 423d b4a3 e4bd 8b5f 2fbe

gkf.gat_rnn.fc_delta_y_innov.0.bias f4 [64]
0.38651046 0.51462764 -0.028886894 -0.07923278 -0.02042241 -0.01622303 0.15566258 0.20522827
-0.4918326 -0.18531772 0.5188796 0.24642436 -0.017377244 -0.3480079 -0.32082504 -0.50833476
-0.18368751 0.24741723 0.39404714 0.27657366 -0.53890955 -0.35773617 -0.08323054 0.572841
0.10453642 -0.16209768 0.25951415 -0.23853943 -0.3529742 0.44821516 -0.2185136 -0.098921806
-0.56513846 0.42022738 0.46923974 0.26378015 -0.3784558 -0.5423898 -0.47142154 0.45702392
0.29633838 0.51154274 0.33376607 0.16158848 0.006310248 -0.41959727 -0.45854962 -0.51662636
0.25724158 -0.25268936 -0.06855406 -0.3159032 -0.070805274 -0.3837922 -0.28553304 0.2208864
-0.15537913 0.36200708 -0.15882567 -0.42609298 -0.080736205 -0.25583223 -0.1525852 -0.5565123
00000000: b3e4 c53e a3be 033f 35a4 ecbc cc44 a2bd
00000010: e64c a7bc 29e6 84bc 0366 1f3e 5c27 523e
00000020: 7cd1 fbbe eec3 3dbe 4bd5 043f ab56 7c3e
00000030: b95a 8ebc 172e b2be 2e43 a4be 3a22 02bf
00000040: 9418 3cbe f15a 7d3e 8cc0 c93e 109b 8d3e
00000050: faf5 09bf 3229 b7be c674 aabd b5a5 123f
00000060: 3117 d63d effc 25be 0adf 843e ae43 74be
00000070: 09b9 b4be 757c e53e 07c2 5fbe 8497 cabd
00000080: eaac 10bf 0b28 d73e 3140 f03e 310e 873e
00000090: f5c4 c1be 0fda 0abf 2a5e f1be 0aff e93e
000000a0: aab9 973e 77f4 023f 63e3 aa3e 7377 253e
000000b0: 32c6 ce3b 74d5 d6be 04c7 eabe a041 04bf
000000c0: 2bb5 833e 8060 81be 1266 8cbd 10be a1be
000000d0: 5b02 91bd 6980 c4be 6331 92be 0b30 623e
000000e0: b51b 1fbe fe58 b93e 32a3 22be dc28 dabe
000000f0: 0659 a5bd 71fc 82be 4b3f 1cbe 9777 0ebf

gkf.gat_rnn.fc_delta_y_innov.2.weight f4 [64, 64]
0.078583375 -0.08313874 0.09202394 0.09060192 0.08714404 -0.06751204 0.12518738 -0.045256957
0.029853845 0.11794121 -0.017515099 0.007507425 -0.013861953 -0.09289012 0.06239513 -0.12714218
0.06304977 0.11243793 0.13128842 -0.0066391057 -0.12512803 0.03616528 0.058595292 -0.095244914
-0.037380673 -0.0919845 0.0017555109 -0.03445672 -0.06569749 -0.013201683 -0.12621385 0.08851166
0.091688424 0.0015934751 0.004083466 -0.0885766 -0.12866777 -0.14448574 0.013766502 -0.039201494
-0.063761525 0.015774062 -0.02369948 -0.01378493 0.03840129 -0.03329248 -0.0777526 -0.059351176
-0.078225814 0.10766011 -0.087667145 0.075381055 -0.043582678 0.04806661 0.03231959 0.07368087
-0.13329795 0.07291046 0.12108586 0.034207255 0.09147994 0.14377858 -0.0331958 0.0057640485
-0.011422504 0.036038984 0.11556477 0.0989491 -0.05228395 -0.041485954 -0.046002075 -0.19292812
-0.08275054 0.0047454573 0.08587184 -0.0020196475 -0.020503497 -0.0580014 0.13225448 -0.063806
-0.010812134 0.016703052 0.010283208 0.056805994 -0.075049914 0.008839958 -0.05639591 -0.062202316
-0.08356424 -0.07581294 0.19652127 -0.031201074 -0.11792927 0.03870857 -0.042645436 0.05887299
0.08754568 0.07452035 -0.15775476 0.017932268 0.051122498 0.022435829 -0.07472709 0.14073016
-0.02103643 -0.054765392 -0.16259725 0.06432899 0.089417905 0.00593577 -0.054307204 -0.06250843
-0.07705746 0.07412461 0.054579042 0.11005206 -0.019291714 0.016672954 -0.1884301 -0.121990226
-0.042860005 0.13459036 0.13466597 -0.059661064 0.16122724 -0.0718942 0.04053273 0.05323456
-0.004760619 0.111054726 -0.1035449 -0.052135326 0.0699826 -0.038392264 -0.020085253 -0.044612393
0.09241713 0.0603409 0.040731166 -0.06606501 -0.10941494 0.013481289 0.03154807 -0.05511493
-0.035216145 0.09147827 0.0063356557 -0.005429076 -0.023363363 -0.11253544 -0.12671709 -0.0634471
-0.07344041 -0.012353123 -0.045702185 -0.043592643 0.12170338 0.037680306 0.09908665 -0.0687295
-0.058517646 0.028355764 -0.07622173 -0.06727292 -0.05877203 -0.030775595 -0.084504075 0.023071805
0.10318468 -0.02153202 -0.015145363 -0.122117266 -0.04354915 0.035103064 0.05532212 -0.015777633
-0.0473946 0.059272557 -0.0966067 0.0801655 -0.05219281 0.007841345 0.004855436 0.021639574
-0.012983263 0.08192057 -0.00085853325 0.08811609 0.113258675 -0.10890054 -0.09918675 0.102544814
0.11397143 -0.08175525 0.0048841145 -0.117592916 -0.09917539 0.047066357 0.043017462 0.049315672
-0.057308245 0.10529649 0.029875467 -0.05191651 0.013017973 0.015156711 0.05123863 -0.100733526
0.033091653 -0.046861526 -0.082265146 -0.046708014 0.09751021 0.09416214 0.105076276 0.097074695
0.08883112 -0.049955253 -0.051202767 0.06254 -0.07762096 -0.07718244 -0.031758156 0.016835
0.05466371 -0.049552877 -0.051664487 -0.007942465 -0.10643324 -0.11200918 0.038453046 -0.023011656
0.13946527 0.11905098 0.05910354 0.06748128 0.034145284 -0.02122669 -0.02456073 -0.0061909184
0.070484266 0.12221425 -0.056166124 -0.04794131 -0.02444667 -0.057276145 -0.035051335 0.11651024
0.07240639 0.08089385 -0.108420715 -0.06733417 -0.013061517 -0.028591521 0.0010714971 -0.13819708
00000000: 52f0 a03d a544 aabd 0c77 bc3d 808d b93d
00000010: 9378 b23d c143 8abd 1f31 003e 5c5f 39bd
00000020: 0d90 f43c 298b f13d d37b 8fbc d800 f63b
00000030: 3f1d 63bc 2d3d bebd 0992 7f3d 8f31 02be
00000040: 3d20 813d dc45 e63d 7970 063e db8c d9bb
00000050: 9021 00be 0b22 143d 9e01 703d c40f c3bd
00000060: 7a1c 19bd 5f62 bcbd 2c19 e63a 7d22 0dbd
00000070: 688c 86bd df4b 58bc 343e 01be 9a45 b53d
00000080: 24c7 bb3d 27dc d03a 98ce 853b a667 b5bd
00000090: 7cc1 03be 12f4 13be e58c 613c bf91 20bd
000000a0: 6795 82bd 9b38 813c 6925 c2bc 30da 61bc
000000b0: ac4a 1d3d b25d 08bd c13c 9fbd 381a 73bd
000000c0: db34 a0bd e77c dc3d d58a b3bd 6261 9a3d
000000d0: c083 32bd 7ee1 443d 8c61 043d ffe5 963d
000000e0: 427f 08be 1452 953d ddfb f73d e81c 0c3d
000000f0: d659 bb3d b13a 133e 52f8 07bd 58e0 bc3b
00000100: 7425 3bbc 9d9d 133d 39ad ec3d d3a5 ca3d
00000110: b227 56bd 2ded 29bd ac6c 3cbd f38e 45be
00000120: 1d79 a9bd c87f 9b3b 93dd af3d 105c 04bb
00000130: f3f6 a7bc e092 6dbd b86d 073e b8ac 82bd
00000140: 6025 31bc d7d4 883c e77a 283c 67ad 683d
00000150: c5b3 99bd 79d5 103c 66ff 66bd dbc7 7ebd
00000160: ba23 abbd d143 9bbd df3c 493e 6599 ffbc
00000170: e784 f1bd e18c 1e3d fbac 2ebd ce24 713d
00000180: 264b b33d 209e 983d 778a 21be b1e6 923c
00000190: d365 513d 58cb b73c 840a 99bd 911b 103e
000001a0: 9754 acbc ad51 60bd e57f 26be ebbe 833d
000001b0: bc20 b73d d980 c23b 3b71 5ebd 6b04 80bd
000001c0: 4dd0 9dbd a5ce 973d 468e 5f3d f962 e13d
000001d0: a809 9ebc b895 883c d2f3 40be 03d6 f9bd
000001e0: f98d 2fbd 0ed2 093e e0e5 093e 295f 74bd
000001f0: c118 253e 443d 93bd a605 263d 7b0c 5a3d
00000200: f7fe 9bbb a970 e33d 590f d4bd da8b 55bd
00000210: 0a53 8f3d 3541 1dbd d489 a4bc 7cbb 36bd
00000220: 3145 bd3d 0528 773d b9d5 263d 184d 87bd
00000230: f114 e0bd a0e0 5c3c 8d38 013d 31c0 61bd
00000240: ce3e 10bd f658 bb3d 559b cf3b 64e6 b1bb
00000250: 8664 bfbc fb78 e6bd 20c2 01be 8ef0 81bd
00000260: ed67 96bd c164 4abc 3732 3bbd 338e 32bd
00000270: 9f3f f93d aa56 1a3d f1ed ca3d 0dc2 8cbd
00000280: 33b0 6fbd 594a e83c 231a 9cbd 62c6 89bd
00000290: f1ba 70bd 1a1d fcbc 7910 adbd 1501 bd3c
000002a0: 7d52 d33d eb63 b0bc 4224 78bc 9e18 fabd
000002b0: 9860 32bd 3bc8 0f3d 7399 623d 1840 81bc
000002c0: d720 42bd c8c7 723d bcd9 c5bd cf2d a43d
000002d0: 21c8 55bd fc78 003c 591a 9f3b 7a45 b13c
000002e0: c0b7 54bc f9c5 a73d 310f 61ba 3576 b43d
000002f0: 2af4 e73d 3f07 dfbd 6c22 cbbd 0403 d23d
00000300: da69 e93d 4c6f a7bd ec0a a03b 8ed4 f0bd
00000310: 781c cbbd a7c8 403d 1433 303d 3bff 493d
00000320: 0dbc 6abd b0a5 d73d 65bd f43c 68a6 54bd
00000330: 5649 553c db53 783c 99df 513d 614d cebd
00000340: 1d8b 073d dff1 3fbd a17a a8bd e750 3fbd
00000350: 6fb3 c73d 14d8 c03d 3b32 d73d 19cf c63d
00000360: 17ed b53d e19d 4cbd feb9 51bd f914 803d
00000370: bdf7 9ebd d411 9ebd d714 02bd 8ee9 893c
00000380: 0ee7 5f3d f5f7 4abd 249e 53bd 1d21 02bc
00000390: acf9 d9bd 1265 e5bd f180 1d3d f182 bcbc
000003a0: fccf 0e3e 00d1 f33d 8e16 723d a033 8a3d
000003b0: eddb 0b3d 98e3 adbc 9633 c9bc 30dd cabb
000003c0: 0e5a 903d 774b fa3d 730e 66bd 1b5e 44bd
000003d0: 6244 c8bc 649a 6abd fd91 0fbd ec9c ee3d
000003e0: cd49 943d adab a53d ae0b debd 7fe6 89bd
000003f0: f9ff 55bc c438 eabc 7a71 8c3a 8983 0dbe

gkf.gat_rnn.fc_delta_y_innov.2.bias f4 [64]
0.017135015 0.11564004 0.01647202 -0.06765617 0.08051231 0.07197207 -0.048561465 -0.041504975
-0.03967653 -0.04381954 -0.029433277 0.017571833 0.0075815585 -0.008647971 0.0943169 0.018878382
-0.060156945 -0.040865093 -0.085458 -0.018879378 -0.09531382 0.039587263 -0.07859346 0.05163743
0.09488248 -0.10205134 -0.023142496 -0.12508376 0.026115617 0.0064303814 -0.017839791 0.12335867
0.045384414 -0.11177527 0.01718152 -0.037434846 -0.003435621 0.05610791 0.0054848534 -0.08968661
0.102884084 -0.088131405 -0.031220913 0.062288564 0.12063033 0.1325187 0.0065889047 0.062481854
-0.10107971 -0.0032777907 -0.010583959 0.050912745 -0.060634896 0.06650697 0.069496475 0.11455771
-0.031660814 0.12753554 -0.107964925 -0.02924908 0.042346865 0.06741638 0.08119391 -0.073371686
00000000: bb5e 8c3c afd4 ec3d 54f0 863c 518f 8abd
00000010: a3e3 a43d 1866 933d 63e8 46bd 1f01 2abd
00000020: db83 22bd 1e7c 33bd 0e1e f1bc cef2 8f3c
00000030: b96e f83b 38b0 0dbc 3829 c13d d6a6 9a3c
00000040: 2167 76bd 2862 27bd 9b04 afbd eda8 9abc
00000050: e433 c3bd 4126 223d 9cf5 a0bd c581 533d
00000060: bf51 c23d 4b00 d1bd 5595 bdbc f515 00be
00000070: 6bf0 d53c f3b5 d23b c124 92bc 78a3 fc3d
00000080: 02e5 393d 6fea e4bd 42c0 8c3c 4855 19bd
00000090: 2828 61bb 68d1 653d 49ba b33b 9dad b7bd
000000a0: e4b4 d23d 3d7e b4bd 00c3 ffbc 4b22 7f3d
000000b0: 090d f73d fbb2 073e bde7 d73b f9ec 7f3d
000000c0: e102 cfbd 34d0 56bb 5768 2dbc e289 503d
000000d0: 4c5c 78bd ce34 883d 2b54 8e3d 3c9d ea3d
000000e0: c5ae 01bd ad98 023e b71c ddbd c49b efbc
000000f0: e873 2d3d 9911 8a3d fe48 a63d e543 96bd

gkf.gat_rnn.fc_r.0.weight f4 [64, 1]
0.6384072 -0.95664316 -0.63486284 -0.040824722 -0.9901709 -0.97447306 -0.89734626 0.8211677
0.2194688 -0.29664883 -0.060850486 -0.88597476 -0.96378046 -0.7128229 -0.9807586 0.680522
-0.36905262 -0.25378904 -0.8765969 0.19322927 -0.16152051 -0.7003917 0.6729576 0.87506557
-0.7301577 0.60624754 -0.16524827 -0.011008232 0.43870908 -0.16990143 0.88230526 0.63075435
-0.68251836 -0.61551887 -1.0141188 0.32423326 -0.7684922 -0.85258096 -0.6443961 -1.0053355
-0.8394619 0.92603886 0.55623835 0.923839 -0.5096907 -0.42294464 -0.33295637 0.051543813
-0.7023488 0.16408065 -0.6444263 0.18190464 0.9528633 0.19985527 0.7628768 -0.72681445
-0.1285011 -0.64766 -0.12542331 -0.38923955 -0.57887375 -0.98566896 -0.36460608 0.17020948
00000000: a76e 233f 91e6 74bf 5f86 22bf d337 27bd
00000010: d77b 7dbf 1177 79bf 7cb8 65bf 0c38 523f
00000020: 6ebc 603e 5be2 97be 5c3e 79bd 3ecf 62bf
00000030: 51ba 76bf 907b 36bf ff12 7bbf b136 2e3f
00000040: 77f4 bcbe a3f0 81be a868 60bf e5dd 453e
00000050: a265 25be df4c 33bf f346 2c3f 4c04 603f
00000060: 9deb 3abf 0a33 1b3f d836 29be df5b 34bc
00000070: 7a9e e03e a4fa 2dbe c2de 613f 1e79 213f
00000080: 86b9 2ebf a592 1dbf a5ce 81bf e701 a63e
00000090: e8bb 44bf bf42 5abf 25f7 24bf d5ae 80bf
000000a0: fae6 56bf e210 6d3f a365 0e3f b680 6c3f
000000b0: 177b 02bf 338c d8be 4279 aabe 9b1f 533d
000000c0: 22cd 33bf c204 283e 1ff9 24bf 3645 3a3e
000000d0: d9ee 733f dca6 4c3e e54b 433f 8310 3abf
000000e0: cb95 03be 0ccd 25bf f86e 00be 684a c7be
000000f0: 1231 14bf cd54 7cbf a6ad babe 654b 2e3e

gkf.gat_rnn.fc_r.0.bias f4 [64]
-0.14299765 -0.90860057 0.7986201 0.78509325 -0.57544684 0.13250864 0.69991636 -0.936987
-0.8911238 0.5771394 0.0077781184 0.34010836 -0.38955486 0.21204458 0.69850546 -0.21528822
-0.29986763 -0.9808688 -0.13075568 0.67681015 -0.986342 -0.05068316 0.7771058 -0.2519072
-0.34399194 -0.24245726 -0.40832302 0.13254882 -0.95015043 0.42936403 -0.2170802 -0.09468558
-0.016341586 0.59959465 -0.59329474 -0.9080098 -0.7017826 -0.7154948 -0.4741544 0.8250635
-0.7421367 -0.5425993 -0.81920564 -0.45412523 0.0054969704 -0.5959895 0.023071308 0.37811342
-0.18086383 0.46737313 0.22968045 1.0097358 0.0018596293 0.9151612 0.7900927 0.51057327
0.6032551 -0.6375243 -0.650824 0.45982793 0.40652126 0.9400868 -0.13844645 -0.1344238
00000000: fa6d 12be 0c9a 68bf 5e72 4c3f dffb 483f
00000010: 7c50 13bf 58b0 073e b82d 333f 61de 6fbf
00000020: b020 64bf 68bf 133f 96df fe3b af22 ae3e
00000030: bc73 c7be 3722 593e 41d1 323f 8474 5cbe
00000040: 4088 99be 381a 7bbf d1e4 05be 6e43 2d3f
00000050: e980 7cbf 2599 4fbd 68f0 463f fbf9 80be
00000060: b61f b0be b746 78be b70f d1be e1ba 073e
00000070: 0f3d 73bf 9ad5 db3e 464a 5ebe 83ea c1bd
00000080: cade 85bc 097f 193f 2ae2 17bf 5573 68bf
00000090: 06a8 33bf ab2a 37bf 5ec4 f2be 5d37 533f
000000a0: acfc 3dbf cae7 0abf 76b7 51bf 1a83 e8be
000000b0: ee1f b43b c592 18bf 0a00 bd3c 1598 c13e
000000c0: 5e34 39be 884b ef3e 5a31 6b3e 063f 813f
000000d0: cebe f33a 0148 6a3f 8443 4a3f eeb4 023f
000000e0: ed6e 1a3f cb34 23bf 679c 26bf 916e eb3e
000000f0: 8e23 d03e 87a9 703f e8c4 0dbe 65a6 09be

gkf.gat_rnn.fc_r.2.weight f4 [64, 64]
0.12767904 -0.0058877417 0.13476087 -0.033960205 -0.04834934 0.007790334 0.08067869 -0.072797574
-0.040832512 0.11201011 0.02482104 0.095962584 -0.047899894 -0.07331391 -0.0721461 -0.028261146
-0.103111096 0.044749048 0.031211184 -0.04178876 0.08800454 0.034299042 0.08670658 -0.010542248
0.0802537 -0.04547128 0.07563335 -0.038548958 0.06588081 -0.022734446 0.12347936 -0.06296303
-0.025330646 -0.017731303 -0.08205419 -0.06056161 -0.044745725 0.003754437 0.080212645 -0.005853732
0.11298143 -0.017576369 -0.034081034 0.03559139 -0.023013415 0.027663823 0.11667863 0.07605345
-0.10825688 -0.0041933684 -0.018132476 -0.078213185 0.080642894 0.14606258 0.10241122 0.010604277
0.017245606 -0.06866699 -0.03876183 0.12710312 -0.05155491 0.036102574 -0.09696643 0.0076144724
0.027946653 -0.09270459 0.0528647 -0.08044556 -0.04663085 0.09791963 0.13349602 0.0013890358
-0.10197004 -0.08045052 -0.021162897 -0.050621532 0.105479896 -0.07679606 0.091007315 0.04370929
-0.035517678 0.08714154 0.07797726 0.023766382 -0.11202355 -0.02775812 0.067338854 0.12856302
-0.03672124 -0.03278502 -0.13084748 0.103315644 0.122098595 0.1092715 -0.0489957 0.110799454
-0.028714169 0.082930475 0.07765089 -0.10561799 0.03300609 0.052639753 -0.071802124 0.13217944
0.09972416 0.12171352 0.0065151537 -0.04861922 -0.058776442 0.0429771 -0.014399217 0.1273072
0.112234525 0.037901316 -0.08960877 0.07730899 0.13430165 -0.0035063599 -0.0386364 -0.0135250045
0.043931246 -0.091550864 0.039856665 0.072269365 -0.032221843 -0.028746208 -0.052905224 0.112056516
0.052687135 0.018367004 -0.028943507 0.0055679074 0.10230321 0.018958684 -0.08477419 0.029071186
-0.05699183 -0.028885392 -0.1036337 -0.025060603 -0.012400942 -0.09694593 0.058143836 0.094212286
-0.12229434 0.029674942 -0.10609848 -0.05074826 0.08072979 -0.022162106 0.013530926 -0.06184213
0.10058154 -0.07982829 0.0109442985 -0.012563431 0.06842427 -0.012082829 0.053895697 0.0106071
0.059485987 -0.021331197 0.023355886 0.108826496 -0.058032658 -0.06838223 0.07305689 0.025279941
-0.13535428 0.023923475 -0.141226 -0.088674426 0.028513333 0.04982762 -0.0483075 0.079543635
0.10513552 0.071610905 -0.13594146 -0.07130579 -0.014418113 0.07570188 -0.045109548 0.0038568499
0.04050939 -0.082472645 -0.05674256 0.100261144 -0.025044205 0.065598875 -0.1406877 -0.06814971
0.07962705 -0.0058711697 0.028700078 -0.13027118 0.12588462 -0.0638227 -0.015130164 -0.07910562
-0.043426678 -0.1264303 -0.10869482 -0.029711256 -0.052186865 0.08927 -0.008671947 0.09053542
-0.015398599 0.04600842 0.12112075 -0.12349664 -0.028235216 0.10736422 -0.05282639 -0.040791344
0.01347503 -0.07198877 0.023588378 -0.0769471 0.047417786 -0.047575537 -0.049673915 -0.056311004
0.032841682 0.05170435 -0.1101642 -0.07807775 -0.114040755 0.063808665 0.09874855 -0.129549
0.038345944 0.02267783 -0.062460944 0.023068344 0.0965109 0.13110362 0.05317311 -0.051456917
-0.069382384 -0.074374065 -0.0027319898 -0.035628513 0.07952243 -0.13957876 -0.012444369 -0.04769178
-0.014203903 0.12668939 0.029555196 -0.034883466 -0.0500377 -0.13583066 -0.11055741 0.055891383
00000000: 4bbe 023e f5ed c0bb c1fe 093e db19 0bbd
00000010: f509 46bd 0f46 ff3b de3a a53d e516 95bd
00000020: fe3f 27bd 8e65 e53d 7e55 cb3c 0888 c43d
00000030: ae32 44bd 9a25 96bd 56c1 93bd eb83 e7bc
00000040: e92b d3bd c74a 373d 99ae ff3c b12a 2bbd
00000050: b93b b43d 277d 0c3d 3893 b13d 65b9 2cbc
00000060: 0d5c a43d 1840 3abd a8e5 9a3d 83e5 1dbd
00000070: 85ec 863d 973d babc bfe2 fc3d c3f2 80bd
00000080: 3782 cfbc 3d41 91bc 070c a8bd 730f 78bd
00000090: 4b47 37bd 000d 763b 8746 a43d aad0 bfbb
000000a0: cf62 e73d 51fc 8fbc 8e98 0bbd 47c8 113d
000000b0: a186 bcbc 3e9f e23c 35f5 ee3d e9c1 9b3d
000000c0: c8b5 ddbd 8668 89bb 8f8a 94bc 3c2e a0bd
000000d0: 1a28 a53d 6e91 153e f9bc d13d 90bd 2d3c
000000e0: a846 8d3c 47a1 8cbd bac4 1ebd 5227 023e
000000f0: 3e2b 53bd 4be0 133d 5696 c6bd d382 f93b
00000100: 61f0 e43c e7db bdbd a888 583d a4c0 a4bd
00000110: fdff 3ebd 168a c83d 2eb3 083e 4f10 b63a
00000120: abd5 d0bd 3ec3 a4bd d05d adbc 8658 4fbd
00000130: d805 d83d 4147 9dbd 0b62 ba3d 8308 333d
00000140: fc7a 11bd 4477 b23d 8bb2 9f3d b7b1 c23c
00000150: 9a6c e5bd ff64 e3bc f4e8 893d 06a6 033e
00000160: 0369 16bd 9649 06bd e2fc 05be 2797 d33d
00000170: d40e fa3d bcc9 df3d b7af 48bd d3ea e23d
00000180: fa39 ebbc 74d7 a93d 6e07 9f3d 3f4e d8bd
00000190: 6531 073d c89c 573d fe0c 93bd 0c5a 073e
000001a0: 2e3c cc3d f044 f93d 127d d53b f224 47bd
000001b0: 91bf 70bd c108 303d b2ea 6bbc d25c 023e
000001c0: 37db e53d 693e 1b3d ce84 b7bd 2d54 9e3d
000001d0: 5f86 093e f5ca 65bb 3441 1ebd fb97 5dbc
000001e0: 40f1 333d 057f bbbd be40 233d f601 943d
000001f0: 0dfb 03bd 2b7d ebbc 26b3 58bd e37d e53d
00000200: 77ce 573d 6676 963c ef1a edbc fe72 b63b
00000210: 5884 d13d 3e4f 9b3c 179e adbd b226 ee3c
00000220: 4470 69bd 0fa1 ecbc e83d d4bd e54b cdbc
00000230: 522d 4bbc 968b c6bd 3b28 6e3d 5ff2 c03d
00000240: 7475 fabd dd18 f33c 294a d9bd 68dd 4fbd
00000250: a955 a53d 4e8d b5bc d1b0 5d3c 2c4e 7dbd
00000260: b2fd cd3d 047d a3bd b74f 333c d9d6 4dbc
00000270: 0622 8c3d 0ff7 45bc bcc1 5c3d 67c9 2d3c
00000280: 94a7 733d c3be aebc d854 bf3c 6de0 de3d
00000290: a7b3 6dbd fc0b 8cbd da9e 953d e117 cf3c
000002a0: 509a 0abe 2afb c33c 8c9d 10be f09a b5bd
000002b0: cb94 e93c 0c18 4c3d 16de 45bd c6e7 a23d
000002c0: 4b51 d73d bda8 923d 3d34 0bbe c508 92bd
000002d0: f339 6cbc 9609 9b3d cac4 38bd 34c3 7c3b
000002e0: 2ded 253d 6be7 a8bd e36a 68bd b755 cd3d
000002f0: 8129 cdbc b458 863d 7010 10be 1392 8bbd
00000300: 8213 a33d f162 c0bb 6d1c eb3c cf65 05be
00000310: e6e7 003e 7ab5 82bd 82e4 77bc 2102 a2bd
00000320: 2ce0 31bd f276 01be 649b debd 0565 f3bc
00000330: e5c1 55bd 31d3 b63d c814 0ebc a26a b93d
00000340: 684a 7cbc 5373 3c3d 280e f83d ceeb fcbd
00000350: 8a4d e7bc c6e1 db3d 7c60 58bd d314 27bd
00000360: 5fc6 5c3c d96e 93bd 6a3c c13c 7196 9dbd
00000370: 2739 423d 91de 42bd e076 4bbd 5ea6 66bd
00000380: 0085 063d f1c7 533d c59d e1bd 3ae7 9fbd
00000390: 338e e9bd 1eae 823d ae3c ca3d 7ea8 04be
000003a0: a310 1d3d dbc6 b93c 0cd7 7fbd d3f9 bc3c
000003b0: 82a7 c53d 0740 063e 0ccc 593d 7dc4 52bd
000003c0: 5a18 8ebd 6e51 98bd 2f0b 33bb 34ef 11bd
000003d0: a8dc a23d bced 0ebe 77e3 4bbc 7558 43bd
000003e0: 7db7 68bc ddba 013e bd1d f23c f7e1 0ebd
000003f0: 55f4 4cbd 3117 0bbe ec6b e2bd 5dee 643d

gkf.gat_rnn.fc_r.2.bias f4 [64]
0.06761436 0.12264446 -0.0004685315 0.021066226 -0.068373665 -0.07069256 -0.021269241 -0.058658835
-0.024783937 -0.05447032 -0.051341444 -0.07873718 0.10357797 0.034393556 0.033750404 0.08389468
-0.08205679 0.002619761 0.026122471 -0.089569874 0.058951028 -0.073846534 0.063941225 0.16488191
-0.0040755784 -0.042411402 0.1200537 -0.030003248 0.048575804 0.09901581 0.14590757 0.027951516
0.015661592 0.00619243 -0.10197788 0.068235144 -0.06901486 0.037861526 -0.0026601742 0.12784465
-0.01531073 0.14283249 0.0005205023 7.245315e-05 -0.08253709 0.14754282 0.02532117 -0.14825678
0.029393623 0.09008141 -0.0627528 0.13020958 0.0915542 -0.028690161 0.1535423 0.11794914
-0.0002531027 0.021621471 0.064932406 -0.014425538 0.104164585 -0.07589665 -0.015311981 0.07518491
00000000: 6679 8a3d 052d fb3d 3ca5 f5b9 1493 ac3c
00000010: 7e07 8cbd 43c7 90bd d53c aebc 3f44 70bd
00000020: af07 cbbc 451c 5fbd 684b 52bd f540 a1bd
00000030: b020 d43d 42e0 0c3d dd3d 0a3d f9d0 ab3d
00000040: 640d a8bd 4cb0 2b3b cbfe d53c 6970 b7bd
00000050: a276 713d da3c 97bd 9ef3 823d ced6 283e
00000060: 6e8c 85bb 94b7 2dbd b7de f53d 5fc9 f5bc
00000070: 6cf7 463d cdc8 ca3d cb68 153e 94fa e43c
00000080: bd4c 803c dee9 ca3b c7d9 d0bd debe 8b3d
00000090: aa57 8dbd b014 1b3d 5156 2ebb b5e9 023e
000000a0: dbd9 7abc ae42 123e 5172 083a fdf1 9738
000000b0: 3509 a9bd 7715 173e 586e cf3c a0d0 17be
000000c0: e5ca f03c 9a7c b83d 8a84 80bd a955 053e
000000d0: c580 bb3d a107 ebbc 313a 1d3e 528f f13d
000000e0: dfb2 84b9 831f b13c 48fb 843d 1759 6cbc
000000f0: 3e54 d53d b46f 9bbd 1adf 7abc 8cfa 993d

gkf.gat_rnn.r_input_gru.weight_ih_l0 f4 [192, 64]
-0.10807544 -0.045809075 -0.0545678 0.061525773 0.0009946502 -0.08999998 0.07257495 -0.059273303
-0.025953732 0.03748366 -0.0738087 -0.023513189 -0.07219242 -0.041544884 -0.05910586 0.07240268
-0.073566295 -0.10869682 0.05180201 0.03594243 0.019020487 0.031112945 0.12058026 -0.04453428
-0.10943218 -0.12636383 0.039957345 0.032946423 0.010119879 -0.1350304 -0.10496284 -0.08886689
0.07506364 0.019899393 -0.0837137 -0.12173134 0.07680418 0.0016317894 0.08981224 -0.12094157
-0.1155293 -0.03884132 0.07583535 0.075596265 0.114383444 0.08005679 0.049012277 -0.06301155
0.12019141 -0.06911386 0.08379836 0.05334246 -0.08857 0.005612162 0.0020409995 0.08931568
0.057927065 0.020044524 -0.08008927 0.027548943 0.09865326 -0.06929594 0.088809386 0.042275053
0.06826306 0.037033565 0.08123888 -0.10814416 0.04548021 -0.12901804 -0.03847724 0.09470216
-0.100796066 -0.09425076 -0.050542466 -0.004670924 -0.039738234 -0.09990564 0.018849688 -0.040749803
-0.061227858 -0.0031067275 0.03608714 0.017019853 -0.076983705 0.08793893 0.02461702 -0.046496876
0.11140747 0.029896494 0.07263039 0.07702831 -0.0050202427 0.09843129 -0.008085415 0.094111644
0.009914165 0.05540271 0.06329404 -0.07649964 0.09662306 -0.0021839112 0.012471646 -0.096212514
-0.052775607 0.07807603 -0.08536634 0.008954072 0.10478871 -0.118186496 -0.00097551855 0.026804967
0.07193148 -0.047516927 -0.120164745 -0.06823649 0.03206416 -0.09072962 -0.10343713 -0.0044305334
0.025570264 -0.081492424 -0.055392675 0.06711876 -0.08477043 -0.104335174 -0.011362509 0.10202207
-0.060167804 -0.10107214 -0.09473266 -0.015578302 0.07246729 0.03385695 -0.06091683 -0.1244449
-0.0967139 0.014958134 0.11119717 0.041718833 -0.039519876 0.045551497 -0.0139051275 -0.00087294885
0.041045517 -0.051804546 0.02117376 -0.003101305 0.032649864 -0.02130029 0.09537004 -0.141607
0.098021366 -0.12289512 -0.107299484 -0.098808736 -0.02692899 -0.03609922 -0.14012267 0.047992576
0.012307559 0.106539816 -0.11138244 -0.11463274 0.0134280175 0.08523995 0.06350923 0.02657463
0.0004400479 0.035233118 -0.06879382 -0.13883702 -0.12224318 -0.09520912 0.0090780575 0.13228604
0.06563748 -0.10268383 0.051752567 0.088089265 -0.024573646 -0.024119817 -0.08334379 -0.027510362
0.056665633 -0.05422893 -0.037835225 0.04185334 -0.06566716 -0.07411326 0.00048010447 0.07798102
-0.03334222 -0.0223289 -0.10944624 0.09680822 -0.011426753 -0.0677087 -0.14573854 -0.076329246
-0.1067131 0.010663785 0.0855352 -0.033175673 0.020655008 -0.04520159 -0.08616684 -0.13149002
-0.10169497 0.057775818 0.066532165 0.1026838 -0.03397785 0.009698486 0.005111255 0.06476051
-0.08275107 -0.059496284 -0.15745457 -0.009317306 -0.12288282 -0.1047809 0.013022369 0.10434014
0.08266107 0.06738519 -0.048220977 -0.030859016 -0.1436776 0.06771641 0.0021477256 0.08907254
-0.14010836 -0.07248682 -0.09646426 -0.11215581 -0.08842629 0.020217936 0.06589183 0.07055688
-0.06089402 0.03529659 0.14062609 -0.043196563 -0.07383096 -0.106431544 0.05254599 -0.051546674
-0.106743164 0.051733248 0.0058544585 -0.06868033 -0.14349745 -0.004964615 -0.13266635 -0.047417633
00000000: a856 ddbd 4ca2 3bbd 7c82 5fbd 7302 7c3d
00000010: ec5e 823a e951 b8bd 2da2 943d 90c8 72bd
00000020: ec9c d4bc 7788 193d 0429 97bd bb9e c0bc
00000030: 9fd9 93bd f82a 2abd fc18 72bd db47 943d
00000040: eda9 96bd 709c debd 582e 543d 5f38 133d
00000050: dad0 9b3c 93e0 fe3c c9f2 f63d 9469 36bd
00000060: fb1d e0bd 8565 01be 50aa 233d d4f2 063d
00000070: d9cd 253c 6945 0abe c2f6 d6bd d8ff b5bd
00000080: f7ba 993d 0d04 a33c 1772 abbd 484e f9bd
00000090: 834b 9d3d c4e1 d53a 7bef b73d 37b0 f7bd
000000a0: a09a ecbd 1318 1fbd 904f 9b3d 37d2 9a3d
000000b0: de41 ea3d d0f4 a33d 19c1 483d 330c 81bd
000000c0: ea26 f63d 918b 8dbd 799e ab3d a07d 5a3d
000000d0: 3064 b5bd 3ae6 b73b 4ac2 053b 24eb b63d
000000e0: ee44 6d3d 6a34 a43c d805 a4bd 52ae e13c
000000f0: b80a ca3d 08eb 8dbd b2e1 b53d 9b28 2d3d
00000100: 81cd 8b3d 82b0 173d 9260 a63d af7a ddbd
00000110: 7549 3a3d 4e1d 04be 4f9a 1dbd 35f3 c13d
00000120: 2b6e cebd 8b06 c1bd 9e05 4fbd 8d0e 99bb
00000130: 8fc4 22bd 549b ccbd a96a 9a3c 44e9 26bd
00000140: 10ca 7abd 3d9a 4bbb 1cd0 133d 386d 8b3c
00000150: a2a9 9dbd 5319 b43d a2a9 c93c 8273 3ebd
00000160: 9a29 e43d 7ee9 f43c 3ebf 943d 05c1 9d3d
00000170: d980 a4bb 5896 c93d b078 04bc 9bbd c03d
00000180: 066f 223c f4ed 623d 4ea0 813d d8ab 9cbd
00000190: 50e2 c53d f31f 0fbb e055 4c3c 110b c5bd
000001a0: 3c2b 58bd 53e6 9f3d 8cd4 aebd 1ab4 123c
000001b0: 779b d63d c30b f2bd f1b9 7fba 1796 db3c
000001c0: d050 933d 1ca1 42bd ef18 f6bd 93bf 8bbd
000001d0: b555 033d 73d0 b9bd d9d6 d3bd 022e 91bb
000001e0: bb78 d13c 80e5 a6bd 6ee3 62bd 8f75 893d
000001f0: 1f9c adbd aead d5bd d129 3abc f2f0 d03d
00000200: 8472 76bd e9fe cebd 3203 c2bd 223c 7fbc
00000210: bb69 943d 96ad 0a3d ed83 79bd f8dc febd
00000220: f011 c6bd f612 753c 58bb e33d 5ee1 2a3d
00000230: 98df 21bd 3594 3a3d 55d2 63bc 9bd6 64ba
00000240: 581f 283d 0131 54bd 9874 ad3c 443f 4bbb
00000250: ddbb 053d f27d aebc 5e51 c33d 6d01 11be
00000260: 6dbf c83d 70b0 fbbd d5bf dbbd 3c5c cabd
00000270: 2f9a dcbc c7dc 13bd 517c 0fbe dd93 443d
00000280: a5a5 493c 8c31 da3d 7a1c e4bd 92c4 eabd
00000290: 3001 5c3c 4892 ae3d 2111 823d 0ab3 d93c
000002a0: 3bb6 e639 9a50 103d c6e3 8cbd 4b2b 0ebe
000002b0: a25a fabd 00fd c2bd 22bc 143c fe75 073e
000002c0: f16c 863d e64b d2bd 80fa 533d 2568 b43d
000002d0: ac4e c9bc ec96 c5bc 26b0 aabd 695d e1bc
000002e0: 391a 683d 281f 5ebd 1cf9 1abd 686e 2b3d
000002f0: 817c 86bd b1c8 97bd 88b6 fb39 83b4 9f3d
00000300: da91 08bd 19eb b6bc 5a25 e0bd 6343 c63d
00000310: 4737 3bbc dcaa 8abd 7c3c 15be 8252 9cbd
00000320: 668c dabd 28b7 2e3c 142d af3d 37e3 07bd
00000330: b134 a93c 4d25 39bd 3d78 b0bd 52a5 06be
00000340: 7445 d0bd 56a6 6c3d 0442 883d e24b d23d
00000350: 5c2c 0bbd 66e6 1e3c 517c a73b 29a1 843d
00000360: 6579 a9bd 60b2 73bd c53b 21be 9da7 18bc
00000370: fda9 fbbd 5e97 d6bd c65b 553c 49b0 d53d
00000380: 354a a93d 3f01 8a3d 5c83 45bd 0ccc fcbc
00000390: 3920 13be e7ae 8a3d dbc0 0c3b aa6b b63d
000003a0: 9178 0fbe f873 94bd 0e8f c5bd f2b1 e5bd
000003b0: d818 b5bd 16a0 a53c 4cf2 863d 2080 903d
000003c0: 026c 79bd 2893 103d 4900 103e e1ee 30bd
000003d0: b034 97bd c8f8 d9bd 773a 573d 9b22 53bd
000003e0: 299c dabd 3ee6 533d c2d6 bf3b 46a8 8cbd
000003f0: fff0 12be 36ae a2bb b0d9 07be fe38 42bd

gkf.gat_rnn.r_input_gru.weight_hh_l0 f4 [192, 64]
-0.022373552 -0.07595589 -0.09927762 -0.01155399 -0.069792666 0.09752096 0.117513634 -0.06697511
-0.0041376892 -0.08204884 0.041254543 0.07682897 -0.08344264 -0.06581936 -0.033118382 0.1003108
0.08549439 -0.08097522 0.012389406 -0.092244685 0.13010973 0.06234137 -0.061234497 0.06733803
0.0036645504 -0.05941403 -0.11619738 0.06787575 -0.10373652 0.066870674 -0.0064058234 0.06878998
0.03757485 0.059636045 -0.035475988 0.073719 0.03997637 0.0049427925 -0.016055329 -0.0038611426
0.0745991 0.06053766 -0.04854134 -0.013293936 -0.046127915 -0.02710868 0.07083745 0.07051322
0.06357037 -0.04893882 0.0541219 0.10480769 0.014018571 0.13360877 0.021114197 -0.048769224
0.031111574 0.029235745 0.04957824 -0.032867085 -0.08241335 -0.119103685 -0.092928536 0.0930677
-0.034443174 -0.11000721 0.121707015 -0.09809852 0.029733764 0.10275823 -0.086282335 0.006128191
0.09598737 0.12610474 0.068022035 -0.03228597 0.085808925 0.07777757 -0.007952316 0.11016813
0.009440453 0.08205212 -0.113767534 0.018934172 -0.09429281 0.036020983 0.037379563 0.095713615
0.03403917 -0.02694128 0.0665545 -0.12819667 0.1308931 0.03914192 -0.008228281 0.025912123
0.07078454 -0.111302465 0.08400367 0.020015227 0.14520483 0.029204214 0.013329783 0.009532704
0.11091304 -0.098508805 0.058204368 0.08556574 -0.02571851 -0.05922986 0.111740954 0.049005393
-0.028189491 -0.005143464 -0.068304524 -0.037856046 0.09571635 0.05101078 -0.011785362 0.0897957
0.10073927 0.05029124 0.061773665 -0.09181149 -0.058365196 0.12958564 0.050766047 0.04462574
-0.08110272 -0.03859449 -0.047024526 0.041460246 -0.035308264 0.1096839 -0.08180541 -0.02091804
0.116222374 -0.065611154 0.017949771 -0.020829866 0.06435264 -0.057446454 -0.101918854 -0.058438852
0.052589875 -0.02151716 -0.07675383 -0.026953738 -0.060054716 0.112350985 -0.012175169 0.05147009
0.11337423 -0.07428752 0.042497672 0.030385759 0.122619495 0.0064205485 0.04224247 -0.11447521
0.13181467 -0.083701655 0.09239308 -0.082062356 0.016887777 -0.014530764 0.10065524 -0.10686762
0.10535091 0.11710896 0.049253978 0.104595594 0.1113696 0.011279946 0.054682873 -0.01296161
0.034713626 -0.071120374 -0.03930943 -0.0575382 -0.058746785 -0.070961446 -0.048919287 0.016089251
-0.0027530002 0.07852659 0.034827113 -0.024902008 0.08178862 -0.097181395 -0.055763535 0.123554766
0.042164776 0.059080545 -0.13708141 0.07354159 -0.099813454 0.022030199 -0.040331475 0.033250425
-0.054792173 -0.12314326 -0.11092491 -0.08528165 -0.058551677 0.03626387 -0.03655788 -0.024745634
0.036944997 0.11724901 -0.05859576 0.107057765 -0.072521366 0.12641335 -0.033527106 -0.07105971
-0.018110715 -0.012540151 -0.09887801 0.09427746 -0.10121388 0.00988141 -0.08822733 -0.08869738
-0.00648533 -0.02672242 -0.029667724 -0.0035928814 -0.04965043 -0.12280079 0.010322185 0.006887428
0.11583199 -0.0570355 -0.09836281 -0.11198393 0.06751153 -0.07831891 0.087289914 0.035336204
0.10996255 -0.062198114 0.09509931 -0.025490638 -0.002868664 0.12000615 -0.060525507 -0.046062224
0.029723655 0.06661697 0.018761924 -0.07534747 -0.01779813 0.025449442 -0.071770445 -0.09763547
00000000: bd48 b7bc c38e 9bbd 1152 cbbd f24c 3dbc
00000010: 75ef 8ebd 12b9 c73d fdaa f03d 3f2a 89bd
00000020: 7495 87bb 3909 a8bd 86fa 283d 8258 9d3d
00000030: fae3 aabd 4dcc 86bd 24a7 07bd c06f cd3d
00000040: af17 af3d 56d6 a5bd effc 4a3c c8ea bcbd
00000050: 7c3b 053e aa59 7f3d 06d1 7abd 85e8 893d
00000060: f428 703b 205c 73bd e4f8 edbd 7102 8b3d
00000070: d073 d4bd 7ef3 883d f1e7 d1bb c3e1 8c3d
00000080: 16e8 193d ed44 743d 454f 11bd fdf9 963d
00000090: 43be 233d 26f7 a13b 7786 83bc 390b 7dbb
000000a0: 6ac7 983d 56f6 773d 49d3 46bd cfce 59bc
000000b0: a0f0 3cbd 0613 debc 3a13 913d 3c69 903d
000000c0: 2f31 823d 1274 48bd edae 5d3d 6aa5 d63d
000000d0: 26ae 653c bdd0 083e aef7 ac3c 3dc2 47bd
000000e0: b3dd fe3c cd7f ef3c 8d12 4b3d a39f 06bd
000000f0: 55c8 a8bd a2ec f3bd 5151 bebd 479a be3d
00000100: 4914 0dbd 764b e1bd 8741 f93d e0e7 c8bd
00000110: 3994 f33c e872 d23d cbb4 b0bd fece c83b
00000120: 0795 c43d 9a21 013e 234f 8b3d 4b3e 04bd
00000130: 97bc af3d d949 9f3d 6e4a 02bc d49f e13d
00000140: 21ac 1a3c f10a a83d f4fe e8bd d61b 9b3c
00000150: 971c c1bd bd8a 133d 501b 193d 8005 c43d
00000160: a86c 0b3d f6b3 dcbc ba4d 883d fd45 03be
00000170: d708 063e 4753 203d e9cf 06bc a945 d43c
00000180: 7cf7 903d 8cf2 e3bd 1e0a ac3d f9f6 a33c
00000190: 93b0 143e ad3d ef3c 2a65 5a3c 0f2f 1c3c
000001a0: 6026 e33d fcbe c9bd b467 6e3d 173d af3d
000001b0: a0af d2bc 029b 72bd 71d8 e43d e1b9 483d
000001c0: a6ed e6bc 818a a8bb 3ee3 8bbd f10e 1bbd
000001d0: ef06 c43d aef0 503d 6417 41bc cfe6 b73d
000001e0: 6450 ce3d 30fe 4d3d 6206 7d3d aa07 bcbd
000001f0: 5810 6fbd 19b2 043e 0ff0 4f3d 7bc9 363d
00000200: 2f19 a6bd 4215 1ebd ca9c 40bd 38d2 293d
00000210: 669f 10bd f4a1 e03d 9889 a7bd 4f5c abbc
00000220: ff05 ee3d 245f 86bd 660b 933c 65a3 aabc
00000230: 51cb 833d f94c 6bbd d5ba d0bd 945d 6fbd
00000240: 7b68 573d c144 b0bc 1d31 9dbd 16ce dcbc
00000250: effb 75bd 4618 e63d 5c7a 47bc 4dd2 523d
00000260: c030 e83d 0e24 98bd 0a12 2e3d 8eeb f83c
00000270: ee1f fb3d 7763 d23b 7106 2d3d fb71 eabd
00000280: 6dfa 063e c66b abbd 9538 bd3d 4f10 a8bd
00000290: 3c58 8a3c 7112 6ebc 5624 ce3d 69dd dabd
000002a0: 38c2 d73d d3d6 ef3d 8abe 493d 3736 d63d
000002b0: bf15 e43d 86cf 383c 26fb 5f3d ef5c 54bc
000002c0: e02f 0e3d 8fa7 91bd ed02 21bd 2dad 6bbd
000002d0: 78a0 70bd 3c54 91bd 975f 48bd 9bcd 833c
000002e0: ae6b 34bb 8cd2 a03d e0a6 0e3d 4cff cbbc
000002f0: cb80 a73d 0a07 c7bd 4e68 64bd 480a fd3d
00000300: f9b4 2c3d 71fe 713d 125f 0cbe f99c 963d
00000310: ff6a ccbd ad78 b43c 9e32 25bd 9931 083d
00000320: c26d 60bd 8932 fcbd 992c e3bd 25a8 aebd
00000330: e2d3 6fbd 6c89 143d b7bd 15bd 5bb7 cabc
00000340: a353 173d 4020 f03d 1c02 70bd 1a41 db3d
00000350: 1586 94bd 8072 013e b853 09bd c187 91bd
00000360: ec5c 94bc 3575 4dbc 8e80 cabd 8a14 c13d
00000370: 3949 cfbd a3e5 213c 88b0 b4bd f9a6 b5bd
00000380: e482 d4bb fae8 dabc ba09 f3bc 8c76 6bbb
00000390: 405e 4bbd fb7e fbbd 621e 293c efaf e13b
000003a0: 5339 ed3d 0e9e 69bd 7172 c9bd d557 e5bd
000003b0: 7c43 8a3d aa65 a0bd 0ec5 b23d b2bc 103d
000003c0: 0c34 e13d 73c3 7ebd 6dc3 c23d bed1 d0bc
000003d0: 3200 3cbb c9c5 f53d 98e9 77bd beab 3cbd
000003e0: 067f f33c 7a6e 883d 9bb2 993c c64f 9abd
000003f0: 62cd 91bc 597b d03c 62fc 92bd 1bf5 c7bd

gkf.gat_rnn.r_input_gru.bias_ih_l0 f4 [192]
0.13446148 -0.06680974 -0.08010474 0.056083713 -0.020430733 0.13457541 -0.07208211 0.0373117
0.018922498 0.031850338 -0.11131757 0.000974952 0.0038202677 -0.0659997 0.07242938 0.11666496
0.10970355 0.09896369 -0.009082776 -0.0584152 0.097657 0.079054564 -0.06503387 0.073519275
-0.06756454 -0.04278676 0.08571024 0.108353354 -0.08570651 0.060636245 0.10687437 0.043934472
0.0684069 0.034111064 0.013427083 0.05723211 -0.06301023 0.022579426 -0.030872777 0.069683634
-0.10134206 0.08833141 -0.044752967 0.067260414 -0.0027348534 0.04125471 0.068987325 0.040471245
0.054347713 0.09536314 0.005201763 -0.058111258 0.06633169 -0.10336357 0.045161095 0.08811101
0.10850737 0.13244736 -0.029325416 -0.07734564 -0.026591482 -0.1311684 0.02295753 0.059753634
0.044657607 -0.1755218 0.017217616 -0.115069136 -0.10566843 -0.1356381 -0.07056677 -0.090316415
-0.112874284 0.06857469 -0.070406124 -0.00608894 -0.0774361 0.045235068 -0.13389578 -0.08658404
-0.11028205 -0.10448955 -0.111721486 -0.1657013 -0.035544094 -0.16041861 -0.02125094 -0.015060504
0.031000515 -0.13632463 -0.086431 -0.05447914 -0.1774861 0.030257571 0.002333927 0.024955986
-0.051907826 -0.023250636 0.042408828 -0.08285362 -0.003315392 -0.013984271 -0.15239435 -0.10538806
-0.09638459 -0.15111454 0.046298012 -0.08505623 -0.06524064 -0.16068168 0.041978177 -0.06711941
0.038015198 0.040245928 -0.112869665 -0.05065883 -0.0029292046 0.07812286 -0.04989786 -0.08168907
0.080138825 0.003345325 -0.14595774 -0.0052828104 -0.14845361 0.0076363524 0.009172659 -0.0725146
-0.03513519 0.052582625 0.011664989 -0.07969792 0.02569788 0.026448034 -0.078532584 0.11068443
-0.11660223 0.04083151 -0.10180471 -0.13802084 0.045485172 0.105055265 -0.11262093 -0.06412148
-0.0756296 -0.11994945 -0.020186314 0.096425794 0.038977314 -0.050083324 -0.060641587 0.007303459
-0.07166035 -0.10168106 0.023639359 -0.013942492 -0.09368592 -0.10312329 0.12153318 2.1713524e-05
-0.03595592 -0.07288854 0.08994246 -0.0010523087 0.12192065 0.012612118 -0.089062735 0.08875316
-0.066001266 0.07517115 -0.026938172 0.01509175 -0.08022224 -0.09833611 -0.04138118 0.04104234
-0.13050154 -0.041302577 0.009094459 0.025555346 -0.15558413 -0.033080146 -0.030442184 0.03351393
-0.05336032 0.08785919 0.0154299475 0.08592645 0.118210755 0.076331794 0.042093314 0.12754758
00000000: 45b0 093e 8cd3 88bd f40d a4bd 09b8 653d
00000010: 5a5e a7bc 23ce 093e c99f 93bd 27d4 183d
00000020: 5b03 9b3c 8075 023d 77fa e3bd ec93 7f3a
00000030: 755d 7a3b da2a 87bd db55 943d 0aee ee3d
00000040: 41ac e03d 7aad ca3d eccf 14bc c744 6fbd
00000050: 6500 c83d 5ce7 a13d 7a30 85bd 4691 963d
00000060: 475f 8abd 2b41 2fbd da88 af3d 5de8 dd3d
00000070: e586 afbd b65d 783d f3e0 da3d a2f4 333d
00000080: eb18 8c3d 0bb8 0b3d 45fd 5b3c 386c 6a3d
00000090: 820b 81bd 7df8 b83c e8e8 fcbc 4bb6 8e3d
000000a0: 6d8c cfbd 19e7 b43d e34e 37bd d4bf 893d
000000b0: 3a3b 33bb b3fa 283d 3a49 8d3d 2dc5 253d
000000c0: b59b 5e3d c04d c33d 8d73 aa3b 1206 6ebd
000000d0: e9d8 873d 48b0 d3bd d7fa 383d 8c73 b43d
000000e0: 1d39 de3d 48a0 073e db3b f0bc 6467 9ebd
000000f0: 61d6 d9bc 0251 06be 6e11 bc3c 3ac0 743d
00000100: e5ea 363d fdbb 33be f50b 8d3c 5ea9 ebbd
00000110: b168 d8bd b7e4 0abe 5085 90bd d0f7 b8bd
00000120: a22a e7bd e370 8c3d 1631 90bd bb85 c7bb
00000130: d196 9ebd 6848 393d fa1b 09be f952 b1bd
00000140: 8edb e1bd 9efe d5bd 3cce e4bd 9aad 29be
00000150: af96 11bd c744 24be 7416 aebc 55c0 76bc
00000160: cbf4 fd3c af98 0bbe bc02 b1bd 8525 5fbd
00000170: ebbe 35be bade f73c ccf4 183b 7f70 cc3c
00000180: 4d9d 54bd 1e78 bebc e1b4 2d3d 29af a9bd
00000190: 0c47 59bb 491e 65bc 440d 1cbe b2d5 d7bd
000001a0: 4965 c5bd c5bd 1abe fca2 3d3d f631 aebd
000001b0: e29c 85bd bd89 24be 4ff1 2b3d e775 89bd
000001c0: d3b5 1b3d ead8 243d 3628 e7bd a27f 4fbd
000001d0: e6f7 3fbb e1fe 9f3d b361 4cbd 994c a7bd
000001e0: d31f a43d 3d3d 5b3b f275 15be 6d1b adbb
000001f0: 3904 18be 5e3a fa3b ec48 163c 8982 94bd
00000200: ebe9 0fbd e160 573d 831e 3f3c aa38 a3bd
00000210: 5c84 d23c 8ca9 d83c b1d5 a0bd 85ae e23d
00000220: 26cd eebd f13e 273d fd7e d0bd 5655 0dbe
00000230: a94e 3a3d 3727 d73d cda5 e6bd 1f52 83bd
00000240: b1e3 9abd 0fa8 f5bd c55d a5bc e37a c53d
00000250: ada6 1f3d 2c24 4dbd 5063 78bd db51 ef3b
00000260: a9c2 92bd 293e d0bd 54a7 c13c 0d6f 64bc
00000270: 67de bfbd 4e32 d3bd 63e6 f83d 7025 b637
00000280: 8446 13bd 9646 95bd c133 b83d 9fed 89ba
00000290: 89b1 f93d 0fa3 4e3c 8666 b6bd 37c4 b53d
000002a0: ac2b 87bd 55f3 993d 71ad dcbc 6343 773c
000002b0: 8f4b a4bd 7164 c9bd 507f 29bd 031c 283d
000002c0: 32a2 05be e42c 29bd ed00 153c 7259 d13c
000002d0: 7251 1fbe 0c7f 07bd e361 f9bc e745 093d
000002e0: 5a90 5abd 85ef b33d e4cd 7c3c 35fa af3d
000002f0: 7b18 f23d d853 9c3d 0a6a 2c3d d59b 023e

gkf.gat_rnn.r_input_gru.bias_hh_l0 f4 [192]
-0.08782248 -0.087173596 0.02291353 -0.052029327 -0.05670238 -0.08789886 0.015103409 0.070192754
-0.046653394 0.0586185 0.0624713 0.024205845 -0.055941667 0.08034382 0.05697939 -0.046823654
0.08045081 0.09948577 -0.041722335 -0.09993481 0.06494469 0.053279355 -0.030718137 0.10255958
-0.022603648 -0.00764552 0.07073794 -0.025658356 0.1170241 0.009329706 0.042593025 0.0006077878
0.011022116 0.029092582 -0.07164898 -0.0746383 0.036846653 0.005034911 -0.049831197 -0.081490315
-0.048051827 0.15243608 -0.05662581 0.014710866 0.11110873 0.11744353 0.021738552 -0.034669798
0.10559048 0.05268444 -0.07319384 -0.07147956 -0.016189277 0.00074830547 -0.04434484 0.058450893
0.06177953 -0.05790005 -0.047301322 0.07006576 -0.11725196 0.014726463 0.038043298 -0.12841919
-0.030434867 0.04148914 -0.04065544 -0.07547536 -0.14363876 -0.046651695 -0.15744042 0.05208746
-0.1556778 -0.05967128 -0.008794374 -0.062376548 -0.024699688 -0.017964043 -0.06612239 -0.09574236
0.06849322 -0.0042390525 -0.06451914 -0.0073321327 0.008835146 0.01089228 -0.0386009 -0.046170615
-0.06702584 -0.13045762 -0.072230496 -0.13066104 0.016597727 0.022186248 -0.0383314 -0.15045495
-0.025833737 -0.018618621 0.0023333197 0.09567013 0.04480795 -0.0200976 0.078076825 -0.05587461
0.05732956 -0.049089372 -0.024145938 -0.009968913 -0.051789228 0.07216389 0.033952534 -0.109812714
-0.15621303 0.051945694 -0.007114669 -0.10606029 -0.18935378 -0.04870891 0.011184532 0.07527191
0.009658528 -0.060242333 0.034661565 -0.017643092 -0.0012684631 -0.048626423 0.08249921 0.024818111
0.0021252371 0.02232986 -0.071413636 -0.08560749 0.09565545 0.04350059 0.016677005 -0.07454972
0.090999134 0.0053330767 0.0032135684 -0.10460752 -0.054076836 0.03788908 -0.055745836 0.03203823
-0.103412695 -0.077082604 -0.13088879 0.09416332 0.011304585 0.031927265 0.058569547 0.107018314
0.10757245 0.08498429 0.010063054 0.032238703 0.03904663 0.04726661 -0.092528686 -0.11121715
-0.14009002 0.06719616 0.123901024 0.07688345 0.051271338 0.055386614 -0.074969865 0.11770097
0.0696185 -0.027726833 -0.14159517 0.09623078 -0.08378891 -0.021112155 0.12926903 -0.069364704
0.045897465 0.04168418 -0.03631063 -0.117491804 -0.06786086 -0.08984613 -0.14082268 0.13656765
-0.063181855 -0.07653674 0.113402426 -0.05230934 -0.016326573 -0.08004821 -0.039651334 -0.082280055
00000000: 46dc b3bd 1288 b2bd 28b5 bb3c b41c 55bd
00000010: c140 68bd 5104 b4bd 4a74 773c 38c1 8f3d
00000020: a117 3fbd f419 703d e8e1 7f3d 564b c63c
00000030: 1723 65bd 4d8b a43d 3963 693d 29ca 3fbd
00000040: 65c3 a43d 32bf cb3d 0ae5 2abd 9faa ccbd
00000050: b901 853d 743b 5a3d 9aa4 fbbc c20a d23d
00000060: 492b b9bc 4587 fabb 0edf 903d 7931 d2bc
00000070: 55aa ef3d a0db 183c 0676 2e3d f353 1f3a
00000080: 1b96 343c 9153 ee3c b3bc 92bd f7db 98bd
00000090: 84ec 163d e5fb a43b cc1b 4cbd 65e4 a6bd
000000a0: fed1 44bd 3418 1c3e 77f0 67bd d805 713c
000000b0: f98c e33d 3c86 f03d 0c15 b23c eb01 0ebd
000000c0: d23f d83d a4cb 573d a7e6 95bd e063 92bd
000000d0: 609f 84bc ee29 443a efa2 35bd 346a 6f3d
000000e0: 880c 7d3d 9a28 6dbd 08bf 41bd a37e 8f3d
000000f0: cc21 f0bd 4347 713c 4ad3 1b3d 5280 03be
00000100: 8b52 f9bc 84f0 293d 5286 26bd d392 9abd
00000110: 0a16 13be d915 3fbd 1038 21be a959 553d
00000120: 006a 1fbe df69 74bd 4716 10bc 8d7e 7fbd
00000130: 0057 cabc 5429 93bc 2d6b 87bd 9214 c4bd
00000140: 2c46 8c3d c0e7 8abb 9c22 84bd 6342 f0bb
00000150: 4ac1 103c 8975 323c fa1b 1ebd 661d 3dbd
00000160: d844 89bd af96 05be 95ed 93bd 02cc 05be
00000170: f5f7 873c efbf b53c 6301 1dbd dd10 1abe
00000180: 46a1 d3bc 1486 98bc 9cea 183b b3ee c33d
00000190: 8a88 373d b9a3 a4bc bee6 9f3d c6dc 64bd
000001a0: 67d2 6a3d f011 49bd b4cd c5bc a754 23bc
000001b0: f120 54bd a9ca 933d d011 0b3d 7de5 e0bd
000001c0: 4ff6 1fbe 02c5 543d 2b22 e9bb 2336 d9bd
000001d0: f5e5 41be fe82 47bd 543f 373c 2928 9a3d
000001e0: cd3e 1e3c aac0 76bd 49f9 0d3d 3f88 90bc
000001f0: 8f42 a6ba 802c 47bd 59f5 a83d 5a4f cb3c
00000200: 9047 0b3b 1ced b63c 5041 92bd fb52 afbd
00000210: 01e7 c33d ad2d 323d 379e 883c 86ad 98bd
00000220: c15d ba3d 17c1 ae3b bb9a 523b 783c d6bd
00000230: ac7f 5dbd 9431 1b3d bf55 64bd 853a 033d
00000240: 09ca d3bd 7cdd 9dbd b607 06be b3d8 c03d
00000250: de36 393c 2ac6 023d 9fe6 6f3d 6b2c db3d
00000260: f24e dc3d 3e0c ae3d 82df 243c bb0c 043d
00000270: 5cef 1f3d a29a 413d ae7f bdbd d1c5 e3bd
00000280: c273 0fbe 249e 893d d2bf fd3d 1275 9d3d
00000290: e501 523d 13dd 623d cd89 99bd 350d f13d
000002a0: 2594 8e3d 6223 e3bc 53fe 10be a514 c53d
000002b0: 8599 abbd 66f3 acbc 1a5f 043e 150f 8ebd
000002c0: fbfe 3b3d 08bd 2a3d 75ba 14bd 8b9f f0bd
000002d0: a2fa 8abd 3f01 b8bd d233 10be 64d8 0b3e
000002e0: 7d65 81bd 4bbf 9cbd 883f e83d 5242 56bd
000002f0: 4ebf 85bc 51f0 a3bd 7069 22bd 7282 a8bd

gkf.gat_rnn.gcn_nodes.bias f4 [64]
0.033351254 0.08266052 0.056831583 -0.05604919 0.059768923 -0.057768617 0.05228492 -0.08896135
-0.05324825 0.059973843 0.04725365 -0.066952914 -0.07466097 -0.07307408 -0.048727434 -0.066615
-0.050368637 -0.062352948 -0.06851388 -0.05642812 -0.09320663 0.027877187 0.08403517 0.0417444
0.064171135 -0.033338368 -0.004649987 0.054378312 0.06345734 0.054833733 -0.057288162 0.07903113
-0.020031381 -0.037313435 -0.06466892 0.08090287 -0.05016598 0.04661845 0.06923121 -0.045539577
0.08239021 -0.074883156 0.08105196 0.044919275 -0.01744032 0.02561163 0.036349177 0.06896238
0.07216204 -0.04667645 0.061606206 0.05777993 0.057274025 0.073167875 -0.048573863 -0.009721745
0.07778574 0.06258133 0.07137509 -0.055522874 0.03657783 -0.049911384 -0.059627056 -0.04209738
00000000: 539b 083d eb49 a93d 3cc8 683d d693 65bd
00000010: 42d0 743d c99e 6cbd b628 563d 5e31 b6bd
00000020: d61a 5abd 22a7 753d 0b8d 413d 9c1e 89bd
00000030: dae7 98bd dda7 95bd 6b96 47bd 726d 88bd
00000040: 584f 4ebd ce65 7fbd 0151 8cbd 2c21 67bd
00000050: 1ee3 bebd b35e e43c a21a ac3d 2dfc 2a3d
00000060: 286c 833d d08d 08bd eb5e 98bb cbbb 5e3d
00000070: ecf5 813d 5699 603d fea6 6abd 13db a13d
00000080: da18 a4bc f9d5 18bd 2471 84bd 67b0 a53d
00000090: d87a 4dbd fdf2 3e3d 18c9 8d3d b587 3abd
000000a0: 33bc a83d 575c 99bd 92fe a53d 46fd 373d
000000b0: 01df 8ebc 7bcf d13c e0e2 143d 263c 8d3d
000000c0: b1c9 933d ce2f 3fbd ca56 7c3d a6aa 6c3d
000000d0: 2b98 6a3d 0ad9 953d 63f5 46bd f447 1fbc
000000e0: 214e 9f3d a42a 803d 1a2d 923d f46b 63bd
000000f0: a2d2 153d e16f 4cbd 803b 74bd 4d6e 2cbd
