models/no_mismatch/kalman_process_50n_local_params_r_half.pth (torch, 269602 bytes, 28 tensors)

gkf.gat_rnn.fc_delta_y_innov.0.weight f4 [64, 3]
0	0x3edcf97d	0.43159094
1	0x3eebf25f	0.46083352
2	0xbe0ba8e9	-0.13638653
3	0x3f0a6fd5	0.5407689
4	0xbe00891c	-0.12552303
5	0x3e205d4b	0.15660588
6	0xbe920e72	-0.28526646
7	0x3ea8f28c	0.3299755
8	0x3f012d6e	0.50459945
9	0xbecfd99f	-0.4059572
10	0x3f05c972	0.52260506
11	0x3de4f7ef	0.11180102
12	0x3ed7e569	0.42167214
13	0x3d9a6423	0.07538631
14	0x3e8c16f7	0.2736127
15	0xbd95702c	-0.07296786
16	0x3ee301df	0.44337365
17	0x3daf5bce	0.08562432
18	0xbe8b4739	-0.27202776
19	0x3e187a63	0.14890437
20	0xbe84495a	-0.25837213
21	0xbd5c13ed	-0.05372994
22	0xbe7b49f3	-0.24539928
23	0x3ec7b95c	0.39008605
24	0xbeebcda9	-0.46055344
25	0xbe87d34d	-0.26528397
26	0xbe1e1547	-0.15437804
27	0xbeac62a5	-0.3366901
28	0x3d69a14a	0.057038583
29	0xbf151ee6	-0.5825027
30	0x3f05a7cd	0.5220917
31	0xbf008a68	-0.5021119
32	0x3ee7e409	0.45291165
33	0x3db7ac60	0.08968425
34	0xbe4af925	-0.19821604
35	0x3eb32c72	0.34994847
36	0x3dc50ad0	0.09621203
37	0x3efa299b	0.48859867
38	0x3d5808bb	0.0527427
39	0xbe429084	-0.19000441
40	0x3e35faca	0.1777145
41	0xbe336294	-0.17518073
42	0x3e777a3f	0.24167727
43	0x3f0c2b56	0.54753625
44	0x3eb9dc65	0.3630096
45	0xbe81e311	-0.2536855
46	0x3ead514a	0.3385108
47	0x3df775c6	0.120830104
48	0x3e9740c4	0.295416
49	0xbeb428a7	-0.35187265
50	0xbf12e8e4	-0.5738661
51	0xbe50dfcd	-0.20397873
52	0xbeed514f	-0.46351096
53	0x3f0204ab	0.5078837
54	0x3e23b767	0.15987931
55	0x3e6f0e56	0.23345312
56	0x3e4b8c8a	0.1987783
57	0xbafa94e3	-0.0019117858
58	0x3eed16fa	0.46306592
59	0xbecc337e	-0.39883035
60	0x3ce38bc5	0.027776608
61	0xbed2d52b	-0.4117826
62	0x3e2e7721	0.17037632
63	0xbe524d5f	-0.20537327
64	0x3e443f29	0.19164719
65	0xbdff487b	-0.124649964
66	0x3ef6378e	0.4808926
67	0xbeb487e8	-0.35259938
68	0xbeaf5512	-0.3424459
69	0xbeb512f8	-0.35366035
70	0x3f02f9a6	0.51162183
71	0x3e5a368b	0.21309869
72	0x3f10209f	0.56299776
73	0xbeec9850	-0.46209955
74	0xbf12359e	-0.57113063
75	0xbee940fa	-0.45557386
76	0xbec419f3	-0.38301048
77	0x3e7f4101	0.24927141
78	0x3e50ba81	0.20383646
79	0x3f016963	0.5055143
80	0xbea68be9	-0.32528618
81	0xbec75c8b	-0.38937792
82	0x3e9bf74f	0.3046212
83	0xbe4df533	-0.20113067
84	0x3ead7cdc	0.33884323
85	0xbe19826c	-0.14991158
86	0x3eb81def	0.35960338
87	0xbee692ca	-0.45033866
88	0xbe97b5d0	-0.296309
89	0x3e3d3d23	0.18480353
90	0x3dee3491	0.1163112
91	0xbe2173fe	-0.15766904
92	0x3eb8313c	0.35975063
93	0x3eca11d8	0.3946674
94	0xbecedd32	-0.40403134
95	0xbe9a5006	-0.30139178
96	0x3f0a7c69	0.54096085
97	0xbe505c2c	-0.20347661
98	0xbe2e43cf	-0.17018054
99	0xbf0d35ce	-0.55160224
100	0xbeafdc50	-0.34347773
101	0x3e194c69	0.14970554
102	0xbda96171	-0.082705386
103	0xbec7e316	-0.3904044
104	0x3d22b5b3	0.039724063
105	0xbec8a588	-0.3918879
106	0xbeff6f70	-0.49889708
107	0xbe8fce04	-0.28086865
108	0xbf00eeb1	-0.50364214
109	0xbebe7202	-0.37196356
110	0x3f1496d0	0.5804262
111	0x3e05c45b	0.13063185
112	0x3e5eebf3	0.21769695
113	0xbf090d28	-0.535357
114	0xbec61fcc	-0.38696134
115	0xbe44b5b6	-0.19209942
116	0x3dc0af7c	0.09408471
117	0xbf03cac3	-0.51481265
118	0xbe837a34	-0.2567917
119	0xbeb17a34	-0.34663546
120	0xbc1e38d0	-0.0096571
121	0xbe6c10f4	-0.23053342
122	0xba5de54c	-0.0008464649
123	0xbec96430	-0.3933425
124	0xbec75fb8	-0.38940215
125	0xbeaed4e2	-0.34146792
126	0xbe3dea42	-0.18546394
127	0xbee83e90	-0.4536023
128	0x3f00f717	0.5037703
129	0xbde1185e	-0.10990976
130	0x3f017b8f	0.5057916
131	0x3e4ec689	0.20192923
132	0xbef7b485	-0.48379913
133	0x3ecd2ae2	0.4007178
134	0xbe13a9af	-0.14420198
135	0xbe67a011	-0.22619654
136	0xbef43a1a	-0.47700578
137	0xbf15c327	-0.58500904
138	0x3e3eb9ff	0.1862564
139	0xbe0c48b1	-0.13699605
140	0x3e826bd3	0.25472888
141	0xbef62d6b	-0.48081526
142	0x3ee3cb7e	0.4449119
143	0xbed82f80	-0.4222374
144	0xbdda0728	-0.10645896
145	0x3decf289	0.115696974
146	0x3ea097a0	0.3136568
147	0x3ef23035	0.47302404
148	0x3f08c258	0.53421545
149	0xbed7d9f0	-0.4215846
150	0x3e27c245	0.16382702
151	0xbe847886	-0.25873202
152	0xbcd0a8f6	-0.025471192
153	0xbede82e1	-0.43459228
154	0x3f087e49	0.53317696
155	0xbed68e4a	-0.41905433
156	0x3e94e1e0	0.2907858
157	0x3e4f7388	0.20258915
158	0x3e5a31b6	0.21308026
159	0xbe97264e	-0.29521412
160	0x3f0df0cb	0.55445546
161	0x3e0ff857	0.14059578
162	0x3dcfc00b	0.10144051
163	0xbf05070b	-0.5196387
164	0x3e8b60d9	0.27222326
165	0xbdbdb87e	-0.09263705
166	0xbe80851a	-0.25101548
167	0x3f034fa0	0.51293373
168	0x3e07bba2	0.1325517
169	0xbe9c104f	-0.30481192
170	0xbea64d38	-0.32480788
171	0xbcb8be64	-0.022551723
172	0x3ea9a797	0.33135673
173	0xbe37f321	-0.1796384
174	0xbeb168be	-0.34650224
175	0xbe3dbd42	-0.18529227
176	0xbed94756	-0.42437238
177	0x3e430ecc	0.19048613
178	0x3ee4ef76	0.44713944
179	0xbf0a0aa0	-0.5392246
180	0x3e10fc1f	0.14158677
181	0x3e963e34	0.29344332
182	0x3e0a78c5	0.13522632
183	0xbe50b849	-0.20382799
184	0x3e93464e	0.28764576
185	0x3ea5cddd	0.32383624
186	0x3e6ba6d0	0.23012853
187	0xbd8fe21b	-0.07025548
188	0xbe1fbe14	-0.15599853
189	0x3d7299bc	0.059228644
190	0xbde6da47	-0.11272102
191	0xbe383312	-0.17988232

gkf.gat_rnn.fc_delta_y_innov.0.bias f4 [64]
0	0x3eb991ba	0.36243993
1	0x3f03bf1f	0.514635
2	0xbd4ab261	-0.04948652
3	0xbe069a5e	-0.13144824
4	0xbbc06ed3	-0.0058725863
5	0xbcea6593	-0.028612887
6	0x3e1a2457	0.15052925
7	0x3e1ca51f	0.15297364
8	0xbf043cb3	-0.5165512
9	0xbe6ae2f1	-0.22938134
10	0x3efeb210	0.49745226
11	0x3e6d6f77	0.23187052
12	0xbca7a384	-0.020463713
13	0xbead8914	-0.33893645
14	0xbeab712b	-0.33484778
15	0xbf04646a	-0.5171572
16	0xbe3ed303	-0.18635182
17	0x3e56e867	0.20987092
18	0x3ebc6477	0.367954
19	0x3e8eccf5	0.27890745
20	0xbf043631	-0.5164519
21	0xbeb073ce	-0.34463352
22	0xbda92337	-0.0825867
23	0x3f0ff022	0.5622579
24	0x3dbcd3c6	0.0922008
25	0xbe0e2654	-0.13881809
26	0x3e802087	0.25024816
27	0xbe5debd5	-0.21671994
28	0xbebdc185	-0.37061706
29	0x3ede267d	0.4338874
30	0xbe85a02d	-0.26098767
31	0xbde7e18b	-0.11322316
32	0xbf0f26e4	-0.5591872
33	0x3ec3cb31	0.3824096
34	0x3ef29f03	0.4738694
35	0x3e55ef7a	0.20892134
36	0xbed2c529	-0.41166046
37	0xbf0ab095	-0.5417569
38	0xbeeba28e	-0.46022457
39	0x3eddf041	0.43347362
40	0x3e8bbbcc	0.27291715
41	0x3f000965	0.50014335
42	0x3ea3eafe	0.32015222
43	0x3e1ecaec	0.15507096
44	0xbc1b060d	-0.009461892
45	0xbee15f42	-0.44017988
46	0xbeefcd40	-0.4683628
47	0xbf086e3d	-0.5329321
48	0x3e7d2ec0	0.24724865
49	0xbe88e1f5	-0.26734892
50	0xbdc87da4	-0.09789589
51	0xbeaa9e8d	-0.3332409
52	0xbdd4b4ca	-0.10386045
53	0xbec97d36	-0.3935334
54	0xbeb37982	-0.3505364
55	0x3e5f06f7	0.2178
56	0xbe2b6bb8	-0.1674031
57	0x3eb76cfe	0.35825342
58	0xbe2f721b	-0.17133372
59	0xbedfcc1a	-0.43710405
60	0xbdb56fde	-0.088592276
61	0xbe902a19	-0.28157118
62	0xbe242314	-0.16029006
63	0xbf0a0258	-0.53909826

gkf.gat_rnn.fc_delta_y_innov.2.weight f4 [64, 64]
0	0x3d77b3ff	0.060474392
1	0xbda7bf54	-0.0819079
2	0x3d978d31	0.07399977
3	0x3d214e0b	0.03938107
4	0x3dbd27a2	0.09236075
5	0xbdf3f3ca	-0.119117334
6	0x3da5bde4	0.080928594
7	0xbc904b92	-0.01761416
8	0x3d499c4d	0.049221326
9	0x3dcaa80c	0.09895334
10	0x3b586552	0.0033019376
11	0x3d1173b4	0.035510734
12	0xbd3cea94	-0.04612215
13	0xbdffbe22	-0.12487437
14	0x3d42bf83	0.04754592
15	0xbe0f9ab5	-0.1402386
16	0x3d9dcb3a	0.07704778
17	0x3e08226d	0.13294382
18	0x3deec37a	0.11658378
19	0xbd46c485	-0.04852726
20	0xbdba3caa	-0.09093602
21	0x3c06d14e	0.008228613
22	0x3d92ebf4	0.07173911
23	0xbe076b56	-0.13224539
24	0xbcde9b24	-0.027173586
25	0xbd75d505	-0.060017604
26	0xbce26cb6	-0.027639728
27	0xbd955b29	-0.07292778
28	0xbcddab4c	-0.02705922
29	0xbc8f286d	-0.017475331
30	0xbd9d6c60	-0.076866865
31	0x3de4996b	0.11162075
32	0x3dd6f388	0.10495669
33	0xbb3f37a0	-0.0029177442
34	0x3cdc60d2	0.026901636
35	0xbd252425	-0.040317673
36	0xbdc0edb2	-0.09420337
37	0xbe2a2029	-0.1661383
38	0x3d5a572f	0.0533058
39	0xbd7ed5f7	-0.06221577
40	0xbd1cc340	-0.038272142
41	0xbb04fc1d	-0.0020291873
42	0xbaac0188	-0.0013123015
43	0xbd647334	-0.05577393
44	0xbc1cb914	-0.00956561
45	0xbcdb6c63	-0.026785081
46	0xbbe2f657	-0.0069263387
47	0xbda45d74	-0.08025637
48	0xbdaef595	-0.08542935
49	0x3daf380d	0.08555613
50	0xbca0912c	-0.019600473
51	0x3c646f9b	0.013942624
52	0xbd3faf97	-0.046798315
53	0xbc5df8f2	-0.013548123
54	0x3e2168c3	0.1576262
55	0x3dca898a	0.09889515
56	0xbdd3996d	-0.10331998
57	0x3d07f731	0.033194724
58	0x3dea900d	0.11453257
59	0x3baa1669	0.00519066
60	0x3d9239bf	0.071399204
61	0x3df45b50	0.11931479
62	0xbcc35300	-0.023843288
63	0x3ca72e56	0.020407837
64	0xbd8fe811	-0.07026685
65	0xbaed4af5	-0.0018104004
66	0x3dc84247	0.097782664
67	0x3d8be1e9	0.06830198
68	0xbd633773	-0.055472802
69	0xbdcd0be7	-0.10012036
70	0xbda03991	-0.0782348
71	0xbddd9887	-0.10820108
72	0xbd9761fc	-0.07391736
73	0xbca98054	-0.020691074
74	0x3de3b0d5	0.111177124
75	0x3d31372a	0.0432655
76	0xbdb26fd4	-0.08712736
77	0xbdc4ea53	-0.09615006
78	0x3d9f2aed	0.07771859
79	0xbdb7750f	-0.08957874
80	0x3c3ae9a5	0.011408244
81	0x3d9d0b65	0.07668189
82	0xbd2d0bb8	-0.042247504
83	0xbc20331d	-0.009777811
84	0xbc8dacfc	-0.0172944
85	0xbcc6a63e	-0.024249192
86	0xbd118399	-0.035525892
87	0xbdd9cd7b	-0.106348954
88	0xbd95eeaf	-0.07320916
89	0xbd38c1ec	-0.045106813
90	0x3e06b037	0.13153158
91	0xbd5a57fe	-0.053306572
92	0xbd74066c	-0.059576437
93	0x3d43e1a7	0.04782262
94	0x3d36bf20	0.044615865
95	0x3dca4bf9	0.09877772
96	0x3df82749	0.12116868
97	0x3db44d7c	0.088038415
98	0xbdbc2423	-0.0918658
99	0x3d1c4a49	0.03815678
100	0x3dbdc259	0.092655845
101	0xbcb2fec1	-0.021849992
102	0xbd5934fd	-0.05302905
103	0x3e0a840f	0.13526939
104	0xbc692a16	-0.0142312255
105	0xbd504f66	-0.05085697
106	0xbdc0476e	-0.09388624
107	0x3c0ea33d	0.008705911
108	0x3d7d1d78	0.06179568
109	0x3ca108a2	0.019657437
110	0x3d1e804d	0.038696576
111	0xbdb681ce	-0.08911477
112	0xbddd41be	-0.10803555
113	0x3ca1dd29	0.019758778
114	0x3e16dcb3	0.14732628
115	0x3d9ac9be	0.075580105
116	0xbd525bbe	-0.051357023
117	0xbc716ff0	-0.014736161
118	0xbdb1e943	-0.08687069
119	0xbd2f7603	-0.042837154
120	0x3d0cd71d	0.034384836
121	0x3d9a0d40	0.075220585
122	0x3dfc2b26	0.123129174
123	0xbdd5821f	-0.10425209
124	0x3dc8ce71	0.098050006
125	0xbdaeb600	-0.085308075
126	0x3d95a265	0.07306365
127	0x3dbf13bb	0.09329935
128	0xbc071c70	-0.008246526
129	0x3de64ef7	0.1124553
130	0xbdb7f893	-0.08982959
131	0xbd23f218	-0.0400258
132	0x3d99cbe6	0.07509594
133	0xbd2855c0	-0.041097403
134	0xbd1e72a7	-0.03868356
135	0xbcdf9c3b	-0.027296176
136	0x3dbd1a3c	0.092335194
137	0x3d495355	0.049151737
138	0x3d47bbeb	0.048763197
139	0xbd519792	-0.05116994
140	0xbde6de73	-0.112728976
141	0x3c01b858	0.007917486
142	0x3d173be7	0.03692236
143	0xbd4d512f	-0.05012625
144	0xbd4608ef	-0.048348363
145	0x3dd53195	0.10409848
146	0x3bc563df	0.0060238685
147	0xbc525d2d	-0.012839598
148	0xbc56614b	-0.01308472
149	0xbdf042b3	-0.11731472
150	0xbdf9dd79	-0.12200446
151	0xbd8d6f70	-0.06906021
152	0xbd92f8be	-0.0717635
153	0x3d6af14a	0.057359017
154	0xbd566e1c	-0.052351102
155	0xbd6b10e7	-0.057389166
156	0x3e0f19ee	0.13974735
157	0x3d402f6a	0.046920218
158	0x3df82f42	0.12118389
159	0xbd7cf99d	-0.061761487
160	0xbd4c43cf	-0.049869355
161	0x3d423017	0.047409143
162	0xbd8e6009	-0.06951911
163	0xbdae6e90	-0.08517182
164	0x3c5bebad	0.013422889
165	0xbd411f1c	-0.04714881
166	0xbda3a689	-0.079907484
167	0x3d786e30	0.060651958
168	0x3dece878	0.115677774
169	0x3b5a6b74	0.0033328207
170	0xba8315b6	-0.0010000977
171	0xbe00f570	-0.12593627
172	0xbd512a0c	-0.05106549
173	0x3d01b06f	0.0316624
174	0x3db9e540	0.09076929
175	0xbcd0187f	-0.025402306
176	0xbd22a2bb	-0.039705973
177	0x3d63190c	0.05544381
178	0xbda65102	-0.0812092
179	0x3d8c7ffe	0.0686035
180	0xbd463ac3	-0.048395883
181	0x3c6a1341	0.014286817
182	0x3c63c99f	0.013903051
183	0x3d231d8d	0.039823104
184	0xbd2a625f	-0.04159772
185	0x3d9230ec	0.07138237
186	0xbbede17d	-0.0072595463
187	0x3da6129e	0.0810902
188	0x3debc10f	0.115114324
189	0xbd22f3b4	-0.039783195
190	0xbdc44e8e	-0.095852956
191	0x3dd48c7b	0.10378357
192	0x3dcaafdb	0.09896823
193	0xbdbc2261	-0.09186245
194	0xbbca072c	-0.0061654057
195	0xbe058549	-0.13039126
196	0xbdcbc72a	-0.09950097
197	0x3c35650b	0.011071454
198	0x3cdfa210	0.027298957
199	0x3d35a2c3	0.044344675
200	0xbd001f94	-0.031280115
201	0x3dd71bf2	0.10503377
202	0x3cc454d4	0.02396623
203	0xbd81b114	-0.06332603
204	0xbc1adbca	-0.009451816
205	0x3c8ea367	0.0174119
206	0x3d2f0803	0.04273225
207	0xbdc860fc	-0.09784123
208	0x3d618dc3	0.055066835
209	0xbd2c2673	-0.042028856
210	0xbdd1e27e	-0.10248278
211	0xbd92a647	-0.07160621
212	0x3dfacb41	0.12245799
213	0x3dc23841	0.09483386
214	0x3defeba1	0.117148645
215	0x3d735e85	0.059416313
216	0x3dcc2a6b	0.09969028
217	0xbbcc6be0	-0.0062384456
218	0xbd8dfe5b	-0.0693328
219	0x3d5aa744	0.053382173
220	0xbd725c53	-0.05917008
221	0xbd9a26fe	-0.075269684
222	0xbce41301	-0.027841093
223	0x3d087226	0.033311985
224	0x3d8cc6a9	0.06873829
225	0xbd2818f6	-0.04103943
226	0xbd33360f	-0.043752726
227	0x3cb994c5	0.022653947
228	0xbd79ed2e	-0.061017208
229	0xbdc0a012	-0.09405531
230	0x3d925bec	0.07146439
231	0xbca091b7	-0.019600732
232	0x3e032e2e	0.12810585
233	0x3e00e5cd	0.12587662
234	0x3d80e4ef	0.062936656
235	0x3d0a287f	0.033730026
236	0x3cb6d929	0.022320347
237	0x3a643540	0.00087054446
238	0x3b0e4032	0.0021705744
239	0xbc392f47	-0.011302776
240	0x3d39bb99	0.045344923
241	0x3dee00a2	0.116212144
242	0xbc9a7c42	-0.018858079
243	0xbd8823e6	-0.06647472
244	0xbceaf11d	-0.028679425
245	0xbd945768	-0.07243234
246	0x3d01370a	0.03154663
247	0x3de5c2be	0.11218785
248	0x3de1f5d6	0.110332176
249	0x3d605030	0.054763973
250	0xbdc11241	-0.0942731
251	0xbd903820	-0.07041955
252	0xbce5c10f	-0.02804616
253	0xbcd08e7c	-0.025458567
254	0x3c6bd61d	0.01439431
255	0xbdee81db	-0.11645862

gkf.gat_rnn.fc_delta_y_innov.2.bias f4 [64]
0	0x3b439e36	0.002984894
1	0x3d984632	0.07435264
2	0x3c3e2673	0.011605847
3	0xbdb347be	-0.08753918
4	0x3d23cb4d	0.039988805
5	0x3d883c48	0.06652123
6	0xbd8f369c	-0.06992838
7	0xbdb0b48c	-0.086281866
8	0xbdb3c63a	-0.08778043
9	0xbd49fe46	-0.04931476
10	0xbcdf1913	-0.027233636
11	0x3c92f0a5	0.017937014
12	0x3be7d11d	0.007074489
13	0xbd18f272	-0.03734059
14	0x3d9af29c	0.07565805
15	0x3c7eef73	0.015560019
16	0xbd90bf52	-0.070677415
17	0xbc36d4dc	-0.011159148
18	0xbd7e89ce	-0.06214314
19	0xbd180bcf	-0.037120637
20	0xbdd7dd6b	-0.10540279
21	0x3c6e4c40	0.014544547
22	0xbde15a37	-0.11003535
23	0x3d178233	0.036989402
24	0x3dea0d97	0.11428373
25	0xbdb22704	-0.08698848
26	0xbd7e5e6a	-0.06210176
27	0xbded44eb	-0.11585411
28	0x3cc88312	0.024476562
29	0x3c6b9571	0.014378891
30	0xbd6e5642	-0.05818773
31	0x3da3465d	0.07972405
32	0x3d4585b2	0.048223205
33	0xbddfa7d0	-0.109206796
34	0x3b660488	0.0035097916
35	0xbd3fb166	-0.04680004
36	0x3af69707	0.001881332
37	0x3d7cf981	0.061761383
38	0xbc053b6d	-0.008131844
39	0xbda153b9	-0.07877297
40	0x3dba2889	0.09089763
41	0xbddfba40	-0.10924196
42	0xbd0150fc	-0.031571373
43	0x3d45d682	0.048300274
44	0x3e0056e1	0.12533142
45	0x3e071e6a	0.13195196
46	0xbca76b15	-0.020436803
47	0x3d40d4dc	0.047078
48	0xbdb08a95	-0.086201824
49	0xbbb4f2e4	-0.005522119
50	0xbce48081	-0.027893307
51	0x3d42f6d5	0.04759868
52	0xbdaf232b	-0.0855163
53	0x3d35966c	0.044332907
54	0x3d5d15c3	0.05397583
55	0x3de7555d	0.11295579
56	0xbce794d6	-0.028269213
57	0x3dff748e	0.12473403
58	0xbde45c88	-0.111504614
59	0xbd0e0f1e	-0.034682386
60	0x3d678e90	0.056532443
61	0x3cf24eae	0.029578533
62	0x3d97c07b	0.074097596
63	0xbdb22ae3	-0.08699586

gkf.gat_rnn.fc_r.0.weight f4 [64, 1]
0	0x3f1be055	0.6088918
1	0xbf728356	-0.9473165
2	0xbf2f5d0c	-0.68501353
3	0xbda20e1d	-0.07912848
4	0xbf798e4e	-0.97482765
5	0xbf764e25	-0.9621299
6	0xbf650919	-0.89467007
7	0x3f5199b6	0.8187517
8	0x3e5c903f	0.215394
9	0xbe9ee4a4	-0.31033814
10	0xbd24be32	-0.040220447
11	0xbf5d9ffb	-0.86572236
12	0xbf723e83	-0.94626635
13	0xbf34a7c2	-0.7056848
14	0xbf7bae09	-0.9831243
15	0x3f2c5022	0.6730977
16	0xbeb7d106	-0.3590166
17	0xbe8a94c0	-0.27066612
18	0xbf61e066	-0.8823303
19	0x3e38b8ac	0.18039197
20	0xbe18eb3c	-0.14933485
21	0xbf2f8195	-0.685571
22	0x3f2553a5	0.64580756
23	0x3f5bbc93	0.85834616
24	0xbf37a749	-0.7173963
25	0x3f128609	0.5723577
26	0xbe34dbaa	-0.1766192
27	0xb89dee9c	-7.530788e-05
28	0x3ee2a3e9	0.4426568
29	0xbe3bd829	-0.18344177
30	0x3f5ce61a	0.8628861
31	0x3f1c8abe	0.61149204
32	0xbf2c9850	-0.6741991
33	0xbf205c21	-0.6264058
34	0xbf7fc99f	-0.99917024
35	0x3eaad554	0.3336588
36	0xbf4112d8	-0.7541938
37	0xbf586648	-0.8453107
38	0xbf25bae2	-0.64738286
39	0xbf7ef650	-0.99594593
40	0xbf4ea670	-0.80722713
41	0x3f658533	0.8965637
42	0x3f12051e	0.5703906
43	0x3f6218a8	0.8831887
44	0xbefeb77f	-0.4974937
45	0xbed28262	-0.411151
46	0xbeaa825b	-0.33302578
47	0x3cc71594	0.024302281
48	0xbf37d712	-0.71812546
49	0x3e1c13da	0.15241948
50	0xbf26f5eb	-0.6521899
51	0x3e271ebd	0.1632032
52	0x3f6aff51	0.9179583
53	0x3e1f01fe	0.15528104
54	0x3f3ead6b	0.74483365
55	0xbf391358	-0.7229514
56	0xbe12af90	-0.14324784
57	0xbf214fb8	-0.63012266
58	0xbde2edbe	-0.11080502
59	0xbec9e95a	-0.39435846
60	0xbf136188	-0.57570696
61	0xbf7c5f7a	-0.98583186
62	0xbebfe8b4	-0.37482226
63	0x3e0fe274	0.14051229

gkf.gat_rnn.fc_r.0.bias f4 [64]
0	0xbe37a1cf	-0.17932819
1	0xbf6cac11	-0.9245005
2	0x3f46944f	0.7757005
3	0x3f44ea1c	0.7691972
4	0xbf1ae573	-0.6050636
5	0x3e04bb8a	0.12962165
6	0x3f2a2ef5	0.664779
7	0xbf6ff2ff	-0.9373016
8	0xbf64c94a	-0.8936964
9	0x3f0eac34	0.5573151
10	0xbc640e55	-0.013919433
11	0x3ea09973	0.31367072
12	0xbed30765	-0.4121658
13	0x3e49d342	0.19709495
14	0x3f31b7a5	0.69420844
15	0xbe5d2a33	-0.21598129
16	0xbe9eaa50	-0.30989313
17	0xbf73a491	-0.95172983
18	0xbdff95a4	-0.124797136
19	0x3f25aa83	0.64713305
20	0xbf729a3d	-0.947666
21	0xbd8481ed	-0.06470094
22	0x3f421769	0.7581697
23	0xbe87256e	-0.26395744
24	0xbeb3ff1f	-0.3515558
25	0xbe9dc724	-0.30815995
26	0xbec7aabe	-0.38997453
27	0x3dec220a	0.1152993
28	0xbf731aea	-0.9496294
29	0x3ecad533	0.39615783
30	0xbe78ff83	-0.2431622
31	0xbe07c784	-0.13259703
32	0xbd25dcbe	-0.04049372
33	0x3f181623	0.5940878
34	0xbf1bb67f	-0.6082534
35	0xbf6558a9	-0.8958841
36	0xbf379e15	-0.7172559
37	0xbf3a532e	-0.7278317
38	0xbef7795c	-0.48334777
39	0x3f527402	0.82208264
40	0xbf4702d6	-0.777387
41	0xbf1a389d	-0.60242635
42	0xbf4bd1c1	-0.79616934
43	0xbf037808	-0.5135503
44	0xbc88ed6a	-0.01671477
45	0xbf1ab333	-0.60429686
46	0xbb856a1c	-0.004071487
47	0x3eb883fe	0.36038202
48	0xbe2ee2d5	-0.17078717
49	0x3ee3bb0f	0.44478652
50	0x3e7d6b7f	0.24748038
51	0x3f7c5e0d	0.9858101
52	0xbd8135ee	-0.063091144
53	0x3f5ba917	0.85804886
54	0x3f459e87	0.7719502
55	0x3eff09e5	0.49812236
56	0x3f16eed6	0.58958185
57	0xbf283b7c	-0.65715766
58	0xbf2bb7b3	-0.6707718
59	0x3ee197d8	0.4406116
60	0x3ec642cc	0.38722837
61	0x3f6f5b3c	0.9349859
62	0xbe0ba5b2	-0.13637426
63	0xbe37c160	-0.1794486

gkf.gat_rnn.fc_r.2.weight f4 [64, 64]
0	0x3db94203	0.09045794
1	0x3b6a303f	0.0035734323
2	0x3ddcba31	0.10777701
3	0xbd93b6bf	-0.072125904
4	0xbd2b732a	-0.041857876
5	0xbab81526	-0.0014044389
6	0x3d6bea7f	0.05759668
7	0xbdc95d18	-0.09832209
8	0xbcde5255	-0.027138868
9	0x3da653dc	0.08121464
10	0x3cc045ca	0.023470778
11	0x3da46477	0.08026975
12	0xbd35ad4c	-0.044354722
13	0xbdb15b83	-0.086600326
14	0xbdc1312b	-0.09433206
15	0xbd85bc91	-0.06530107
16	0xbdc18898	-0.09449881
17	0x3d7a9d1f	0.061185
18	0x3cf2f4ef	0.029657809
19	0xbdadba3c	-0.08482787
20	0x3deac06b	0.11462482
21	0x3cfe4d82	0.031042818
22	0x3d3946e4	0.045233622
23	0xbd43c811	-0.04779822
24	0x3dadbc03	0.08483126
25	0xbda829d6	-0.082111046
26	0x3db88ed7	0.090116195
27	0xbd9b3e1f	-0.07580208
28	0x3d7a8e76	0.061171018
29	0xbd6051d1	-0.054765526
30	0x3db013ab	0.08597501
31	0xbdcd88f1	-0.10035885
32	0xbcf0e592	-0.029406343
33	0xbd30b5d4	-0.043142155
34	0xbd9afdfb	-0.07567974
35	0xbd5bbd24	-0.053647175
36	0xbd11b680	-0.035574436
37	0x3c4b5b7f	0.012411951
38	0x3db46c79	0.08809752
39	0xbcf3853f	-0.029726623
40	0x3df9e979	0.122027345
41	0xbd574fc4	-0.052566305
42	0xbd5dfc12	-0.05419547
43	0xb9340355	-0.00017167379
44	0xbce629d3	-0.028096115
45	0x3d1fe8e1	0.03904045
46	0x3de0b130	0.10971296
47	0x3d1366cd	0.03598671
48	0xbddcc246	-0.10779242
49	0xbd4057b3	-0.046958636
50	0xbd072583	-0.03299476
51	0xbdf4b08e	-0.11947738
52	0x3d2e17a4	0.042503014
53	0x3dd47a7b	0.10374924
54	0x3d7a6cc7	0.061138894
55	0xbc3b4566	-0.01143012
56	0xbc98e99e	-0.018666085
57	0xbd71a957	-0.058999386
58	0xbc6382dd	-0.013886181
59	0x3dccf8f6	0.10008423
60	0xbd95e1df	-0.07318472
61	0x3c2db552	0.010602312
62	0xbdc0f3b6	-0.09421484
63	0xbcc238e2	-0.023708764
64	0x3bd55e74	0.006511504
65	0xbdb7baac	-0.08971152
66	0x3d51c00d	0.051208545
67	0xbda71da0	-0.081599474
68	0xbd395ed9	-0.04525647
69	0x3dc68d3d	0.09694908
70	0x3e06faa5	0.13181551
71	0xbc519a87	-0.01279319
72	0xbdb72a00	-0.08943558
73	0xbda7371b	-0.081648074
74	0xbcbf319e	-0.023339089
75	0xbd5553dd	-0.05208193
76	0x3dd90890	0.10597336
77	0xbd9fd258	-0.07803792
78	0x3db7427a	0.08948226
79	0x3cba4fc5	0.022743115
80	0xbd0733b3	-0.03300829
81	0x3dd16947	0.10225158
82	0x3d9f3917	0.07774561
83	0x3c79e26e	0.015251739
84	0xbdaea34c	-0.0852724
85	0xbce77d62	-0.02825803
86	0x3d4a31d9	0.049363945
87	0x3ddc0382	0.107428566
88	0xbd12de74	-0.03585668
89	0xbd5c2ad0	-0.053751767
90	0xbdf5c766	-0.12000923
91	0x3dd08f06	0.101835296
92	0x3df7d082	0.121003166
93	0x3dde4005	0.108520545
94	0xbd901fae	-0.070372924
95	0x3db6c0eb	0.08923515
96	0xbcef9d6a	-0.029249866
97	0x3da6a292	0.081364766
98	0x3da1afcc	0.07894859
99	0xbdcfde1c	-0.10149786
100	0x3d12658f	0.035741385
101	0x3d610839	0.054939482
102	0xbd8f16c5	-0.06986765
103	0x3e05c815	0.13064606
104	0x3dd1b719	0.10240001
105	0x3dd15c2d	0.10222659
106	0xbb828e60	-0.0039842576
107	0xbd8cf5f1	-0.06882847
108	0xbd737b7f	-0.059443947
109	0x3d44b612	0.0480252
110	0xbc80329d	-0.015649134
111	0x3dff1449	0.12455041
112	0x3de60338	0.11231083
113	0x3cdea3ba	0.02717768
114	0xbdb976a5	-0.09055833
115	0x3d9431a0	0.07236028
116	0x3de62ff0	0.11239612
117	0xbc1e0775	-0.009645333
118	0xbd6a73b6	-0.057239257
119	0xbc77cc47	-0.015124387
120	0x3d2ee8c7	0.042702463
121	0xbdb4a32b	-0.08820184
122	0x3d872826	0.065994546
123	0x3d907817	0.07054155
124	0xbd0a8286	-0.033815883
125	0xbcf7e7ac	-0.030261837
126	0xbd5622e2	-0.05227936
127	0x3dc1fe58	0.0947234
128	0x3d9987d3	0.074966095
129	0x3d165f3a	0.03671191
130	0xbc0522fe	-0.008126019
131	0x3c9e5d94	0.01933173
132	0x3df82826	0.12117033
133	0x3d1f2ce1	0.03886116
134	0xbd835d1e	-0.06414245
135	0x3d5986e9	0.053107176
136	0xbd37820e	-0.044801764
137	0xbc0ba4a3	-0.008523139
138	0xbda5961e	-0.08085273
139	0xbb9d6c0c	-0.00480414
140	0x3bddf3ee	0.0067734635
141	0xbd9d474c	-0.076796144
142	0x3da119f2	0.07866277
143	0x3deeb403	0.11655428
144	0xbdd40cca	-0.10354002
145	0x3d05c73d	0.03266071
146	0xbdb153cd	-0.08658562
147	0xbd0f0d0f	-0.034924563
148	0x3d6c77bc	0.057731375
149	0xbb27fe31	-0.0025633688
150	0x3d0a8d38	0.033826083
151	0xbd21bdf5	-0.039487798
152	0x3df51410	0.11966717
153	0xbd68b3b5	-0.056812007
154	0x3cc09ec9	0.023513215
155	0x3a25fb26	0.00063316745
156	0x3dc123b7	0.0943064
157	0x3bf68d1c	0.0075241458
158	0x3d9c249f	0.076241724
159	0x3d062a8b	0.032755416
160	0x3da285d2	0.079356804
161	0xba166969	-0.0005737753
162	0x3d2d1e6e	0.042265348
163	0x3e0813f6	0.13288864
164	0xbd225080	-0.039627552
165	0xbd4c5eba	-0.049895026
166	0x3dbb8c33	0.091576
167	0x3d3bfdc2	0.0458963
168	0xbdef6b05	-0.11690334
169	0x3d401459	0.046894405
170	0xbdeebda2	-0.11657263
171	0xbd86d506	-0.065836
172	0x3d46a391	0.048495833
173	0x3d89f2a4	0.06735733
174	0xbcecd679	-0.028910862
175	0x3dbff270	0.09372413
176	0x3dfe3299	0.124119945
177	0x3db55970	0.088549495
178	0xbded6b09	-0.11592681
179	0xbd67b3f1	-0.05656809
180	0x3bf880cf	0.0075837146
181	0x3dba379b	0.09092637
182	0xbcc9e5f3	-0.024645781
183	0x3cc84ab7	0.02444969
184	0x3d656ab1	0.056009952
185	0xbd836046	-0.06414847
186	0xbd9fe7f9	-0.07807917
187	0x3df814e1	0.12113357
188	0xbb90d54b	-0.0044199578
189	0x3db0b1a6	0.08627634
190	0xbdf95c5b	-0.121758185
191	0xbd2c5bf9	-0.0420799
192	0x3dcdc565	0.10047416
193	0xbc23973a	-0.009984786
194	0x3d302024	0.0429994
195	0xbdd38799	-0.103285976
196	0x3dfd30e2	0.12362839
197	0xbd792ecf	-0.060835656
198	0xbba9bd4b	-0.005180036
199	0xbd8a7269	-0.06760103
200	0xbd3c99a6	-0.046044968
201	0xbdda99fc	-0.106739014
202	0xbddc450b	-0.107553564
203	0xbcc5c6d6	-0.024142664
204	0xbd5a3216	-0.053270422
205	0x3dc0193b	0.09379812
206	0x3a177ba5	0.00057786173
207	0x3de182bd	0.110112645
208	0xbc9a9061	-0.018867673
209	0x3cf2a027	0.029617382
210	0x3df95da6	0.12176065
211	0xbdb721d3	-0.08941998
212	0xbd4d3917	-0.050103273
213	0x3dde4986	0.10853867
214	0xbc9509b8	-0.01819311
215	0xbcaa410d	-0.020782972
216	0x3c43b4c4	0.011944953
217	0xbd5c8147	-0.053834226
218	0x3c40dcd7	0.011771402
219	0xbd3f140e	-0.046649985
220	0x3d60741d	0.054798234
221	0xbcde32fd	-0.027123922
222	0xbcee9f88	-0.029128805
223	0xbd0d0ac6	-0.034434102
224	0x3d0bdc5c	0.034145698
225	0x3d828e49	0.06374795
226	0xbde60681	-0.11231709
227	0xbd9534b7	-0.07285445
228	0xbdf16194	-0.1178619
229	0x3d776515	0.060399134
230	0x3dc40b86	0.095725104
231	0xbdf3b2ab	-0.118993126
232	0x3d0db614	0.03459747
233	0x3d1f21f6	0.038850747
234	0xbd56cd74	-0.05244203
235	0x3d2533c0	0.040332556
236	0x3dc8c619	0.09803409
237	0x3e00095e	0.12503573
238	0x3d63ee7d	0.055647362
239	0xbc959a2b	-0.01826199
240	0xbd8e1431	-0.06937445
241	0xbd2213dc	-0.03956972
242	0x3b1efeb5	0.0024260704
243	0xbb38dd51	-0.0028208087
244	0x3dd43210	0.10361111
245	0xbdd9e2dd	-0.10638974
246	0x3cb2b6c5	0.021815667
247	0xbd1df714	-0.03856571
248	0x3bd27065	0.00642209
249	0x3dfa9f99	0.12237472
250	0x3bf883ee	0.0075840866
251	0xbcaa3555	-0.020777384
252	0xbd288f0c	-0.041152045
253	0xbdfd69ac	-0.12373671
254	0xbde43b62	-0.11144139
255	0x3d8d2236	0.06891291

gkf.gat_rnn.fc_r.2.bias f4 [64]
0	0x3cec1f7f	0.028823612
1	0x3df8b4c4	0.12143853
2	0x3c5165fa	0.012780661
3	0x3d586813	0.052833628
4	0xbda48e32	-0.08034934
5	0xbdbc7699	-0.09202308
6	0xbd82f0af	-0.06393563
7	0xbd6d539d	-0.057941068
8	0xbd1ebd8c	-0.038754985
9	0xbd720769	-0.059089098
10	0xbd3fe1f3	-0.04684634
11	0xbdb90e26	-0.09035902
12	0x3d47ce49	0.048780713
13	0x3d0a8b0e	0.03382402
14	0x3cda4d82	0.026648287
15	0x3d30dde9	0.04318038
16	0xbdd505c5	-0.10401491
17	0xbcf9bb11	-0.030484708
18	0x3b378979	0.0028005524
19	0xbdce30aa	-0.10067876
20	0x3d67e851	0.05661804
21	0xbdc80a33	-0.0976757
22	0x3dddd3f9	0.10831446
23	0x3e117495	0.14204629
24	0x3c282d05	0.01026464
25	0xbd422e68	-0.047407538
26	0x3dea5887	0.114426665
27	0xbd7a9f77	-0.061187234
28	0x3cb9679c	0.022632413
29	0x3d7d6bb4	0.06187029
30	0x3e04f9d1	0.12985922
31	0x3b92fec4	0.004485937
32	0x3c004bef	0.007830604
33	0xbc76a353	-0.015053588
34	0xbdbf918f	-0.09353935
35	0x3d212ed7	0.03935131
36	0xbdb9ea27	-0.09077864
37	0x3baf589b	0.0053511388
38	0xbc6f8a86	-0.014620429
39	0x3db08589	0.0861922
40	0xbd3e90ef	-0.04652494
41	0x3ddb638b	0.10712346
42	0xbd0981e9	-0.033571158
43	0xbc0e8894	-0.008699555
44	0xbdc52fce	-0.09628259
45	0x3df81a60	0.12114406
46	0x3c7f8aa3	0.015597018
47	0xbdf14bb1	-0.11782015
48	0x3b7eb28f	0.0038863753
49	0x3d960b33	0.07326355
50	0xbd02bd14	-0.0319186
51	0x3dc1d74c	0.09464893
52	0x3daa51a9	0.08316357
53	0xbc7f7274	-0.015591253
54	0x3e0737ac	0.13204831
55	0x3dd1b566	0.10239677
56	0xbc2c6d5c	-0.01052412
57	0x3c118e08	0.008883961
58	0x3d32b1fe	0.043626778
59	0xbca7fe69	-0.020507054
60	0x3db66d74	0.08907595
61	0xbde5ca8c	-0.112202734
62	0xbda98180	-0.08276653
63	0x3d910e5a	0.070828155

gkf.gat_rnn.r_input_gru.weight_ih_l0 f4 [192, 64]
0	0xbdfea192	-0.12433161
1	0xbd483296	-0.048876368
2	0xbd980523	-0.07422855
3	0x3d9043ca	0.0704418
4	0xba9d4f7a	-0.0012001835
5	0xbdc0f96b	-0.09422573
6	0x3dc7100e	0.09719859
7	0xbd836716	-0.064161465
8	0xbca02971	-0.01955101
9	0x3d10ed32	0.035382457
10	0xbdb2d22d	-0.08731494
11	0xbc8ea232	-0.017411325
12	0xbd4263b0	-0.04745835
13	0xbd10d9ac	-0.035363838
14	0xbd52f292	-0.051500864
15	0x3d973536	0.07383196
16	0xbd8ebaa7	-0.06969195
17	0xbdb7868e	-0.08961211
18	0x3d39a465	0.045322794
19	0x3d0e984c	0.03481321
20	0xbbe1ee33	-0.0068948506
21	0x3b4211e4	0.0029612714
22	0x3dece6d8	0.115674675
23	0xbd45fec7	-0.048338678
24	0xbdd63595	-0.10459439
25	0xbe053a54	-0.13010532
26	0x3cc961da	0.024582792
27	0x3d30a45b	0.04312549
28	0xbbcd934e	-0.0062736636
29	0xbddeb55e	-0.10874437
30	0xbdd3a57b	-0.10334297
31	0xbdb95e6a	-0.09051211
32	0x3d950c59	0.07277746
33	0x3c99f646	0.01879419
34	0xbd9a5c70	-0.07537162
35	0xbdfd7f01	-0.1237774
36	0x3d86464a	0.06556375
37	0xbb9b2ed4	-0.004735807
38	0x3df6293b	0.12019583
39	0xbddc4cc4	-0.107568294
40	0xbddb4289	-0.1070605
41	0x3c83c068	0.016082957
42	0x3d9e77c7	0.077376895
43	0x3da09e63	0.0784271
44	0x3df39a7a	0.118946984
45	0x3d8fda4b	0.07024058
46	0x3d47fa70	0.04882282
47	0xbd902f5d	-0.07040284
48	0x3df132c4	0.11777261
49	0xbd795311	-0.060870234
50	0x3db1c7a1	0.08680654
51	0x3d4cd0f3	0.050003957
52	0xbda5eb6b	-0.08101543
53	0xbc787d08	-0.0151665285
54	0xbc870987	-0.016484035
55	0x3db4c3ab	0.08826383
56	0x3dbd381b	0.09239217
57	0x3ca3226d	0.019913876
58	0xbd9f6fd6	-0.07785003
59	0x3cf3a774	0.029742934
60	0x3dc42b5d	0.095785834
61	0xbd975d66	-0.07390861
62	0x3dd8e8dd	0.1059129
63	0x3ca2fcb5	0.01989589
64	0x3d8b164e	0.06791364
65	0x3d14d1c9	0.03633288
66	0x3d94e343	0.07269909
67	0xbde2981e	-0.1106417
68	0x3d36ddbb	0.044645052
69	0xbdec9048	-0.11550957
70	0xbc2994e2	-0.010350438
71	0x3dbb2bf8	0.09139246
72	0xbdde711c	-0.10861418
73	0xbdce8318	-0.10083598
74	0xbd685329	-0.056719933
75	0xbb2d12da	-0.0026408941
76	0xbcc43691	-0.0239518
77	0xbdd54fa2	-0.104155794
78	0x3c1b1dae	0.009467525
79	0xbd210236	-0.03930875
80	0xbd80c9a1	-0.06288458
81	0xbb2e6b03	-0.0026614077
82	0x3d1d623c	0.03842376
83	0x3c638660	0.013887018
84	0xbdb1164c	-0.08646831
85	0x3daad4c3	0.08341362
86	0x3c65fb53	0.014036971
87	0xbd694742	-0.056952722
88	0x3deb66a8	0.114941895
89	0x3ca89335	0.020578006
90	0x3d69e640	0.05710435
91	0x3da900e1	0.08252121
92	0xbbe32127	-0.0069314423
93	0x3dcdd7a1	0.100508936
94	0xbbd38431	-0.0064549674
95	0x3dc10aee	0.09425913
96	0x3bcb2387	0.0061993035
97	0x3d4b2199	0.049592588
98	0x3d67632e	0.05649107
99	0xbd927d85	-0.07152847
100	0x3dd6001d	0.1044924
101	0x3a9f4cde	0.0012153646
102	0x3d3b9ba2	0.04580272
103	0xbdcaa1ef	-0.09894168
104	0xbd5e3637	-0.054250922
105	0x3d9da507	0.07697492
106	0xbdaee22c	-0.085392326
107	0x3c7474f1	0.014920459
108	0x3dd3ad27	0.103357606
109	0xbdf8cc9d	-0.12148402
110	0xbbd55f8e	-0.006511635
111	0x3cdb0e33	0.02674017
112	0x3d9ec7f5	0.077529825
113	0xbd4562d5	-0.048189957
114	0xbdedf2d7	-0.11618584
115	0xbda745d4	-0.081676155
116	0x3cda6a17	0.026661916
117	0xbdc7852c	-0.097421974
118	0xbde7a81b	-0.113113604
119	0xbc220520	-0.009888917
120	0x3cfd5b69	0.030927377
121	0xbdad60e8	-0.08465749
122	0xbd5e235b	-0.054232936
123	0x3d7dff63	0.062011134
124	0xbdb8b1d7	-0.09018295
125	0xbdd6e119	-0.10492153
126	0xbd073ec8	-0.033018857
127	0x3dc087b4	0.09400883
128	0xbd1c60f7	-0.03817841
129	0xbdb36604	-0.08759692
130	0xbdbd12d6	-0.09232108
131	0xbd052795	-0.03250845
132	0x3dadf202	0.08493425
133	0x3d3d9bc2	0.04629112
134	0xbd2da5ea	-0.042394556
135	0xbde43cf3	-0.11144438
136	0xbd9e5af9	-0.077321954
137	0x3cc0eb86	0.023549806
138	0x3dceff69	0.10107309
139	0x3d8032b8	0.06259674
140	0xbc8e4d47	-0.017370833
141	0x3d85398b	0.06505116
142	0x3bddd64f	0.0067699323
143	0x3c7a0d99	0.015262031
144	0x3d5b6bd0	0.053569615
145	0xbd22d870	-0.039757192
146	0x3cff99f6	0.031201344
147	0x3c2df62c	0.010617774
148	0x3d0ffbb6	0.03515216
149	0xbd0df243	-0.034654867
150	0x3da5616e	0.08075224
151	0xbde9e3fa	-0.11420436
152	0x3daf4650	0.08558333
153	0xbdd5951b	-0.1042883
154	0xbdb98056	-0.09057681
155	0xbd9fcfb5	-0.07803289
156	0xbc774eac	-0.01509444
157	0xbc8f0d8a	-0.01746251
158	0xbdfb1e4a	-0.122616366
159	0x3d8502bf	0.064946644
160	0x3cdf5b1d	0.027265126
161	0x3df556a5	0.11979417
162	0xbdb8c4e7	-0.09021931
163	0xbde0a7cf	-0.10969507
164	0x3ce9725c	0.028496914
165	0x3db72b8d	0.089438535
166	0x3daf145d	0.08548806
167	0x3d4b663a	0.049658038
168	0x3c9c585a	0.019085098
169	0x3d773075	0.060348947
170	0xbd55e78f	-0.052222785
171	0xbe02842a	-0.12745729
172	0xbdd80920	-0.105486155
173	0xbdb0b658	-0.08628529
174	0x3cccc463	0.024995988
175	0x3de983bf	0.11402082
176	0x3da15db6	0.07879202
177	0xbda954b7	-0.08268111
178	0x3d188fe9	0.03724662
179	0x3ded753d	0.11594627
180	0x3a70c3cb	0.0009184449
181	0xbcbd733a	-0.023126233
182	0xbd8a6ad6	-0.067586586
183	0xbc4721d0	-0.012154058
184	0x3dc55990	0.09636223
185	0xbd1b77ee	-0.03795617
186	0xbcb49205	-0.022042284
187	0x3d71645f	0.058933612
188	0xbd4d7d51	-0.05016834
189	0xbd831be0	-0.06401801
190	0x3cb1b87b	0.021694412
191	0x3db1dfe2	0.086852804
192	0x3c0b1950	0.008489922
193	0xbc0bd1d0	-0.00853391
194	0xbdd20ce2	-0.102563635
195	0x3da24bfe	0.079246506
196	0x3ad7ba3b	0.0016458699
197	0xbd6b236d	-0.05740683
198	0xbde655b9	-0.11246819
199	0xbd80e542	-0.062937275
200	0xbdb70d02	-0.08938028
201	0x3cb8bc85	0.02255083
202	0x3db3008f	0.08740341
203	0xbce2cc1f	-0.027685223
204	0x3da55c2b	0.0807422
205	0xbce10aab	-0.027470907
206	0xbd7b9a6d	-0.06142657
207	0xbdf45b9d	-0.11931536
208	0xbdb3bc41	-0.08776141
209	0x3db894e8	0.090127766
210	0x3da43bf7	0.0801925
211	0x3df10548	0.117685854
212	0xbc9e2577	-0.019304974
213	0x3d18ed2d	0.037335563
214	0xbc65f218	-0.01403477
215	0x3df341e9	0.11877806
216	0xbdc47291	-0.09592164
217	0xbd2afaab	-0.04174296
218	0xbe066550	-0.13124585
219	0x3c3b6acf	0.011439039
220	0xbdd26994	-0.10274044
221	0xbdbce62b	-0.092235886
222	0x3cdc8b00	0.02692175
223	0x3dfdaded	0.12386689
224	0x3dc931a5	0.09823922
225	0x3da59918	0.08085841
226	0xbd06d3e1	-0.032916907
227	0xbc0e5087	-0.008686191
228	0xbde6f8dd	-0.11277936
229	0x3da24d3c	0.079248875
230	0x3d085c5f	0.033291217
231	0x3dd6fe54	0.10497728
232	0xbe0027c2	-0.12515166
233	0xbcca8390	-0.024720937
234	0xbda9c471	-0.08289421
235	0xbdcb1515	-0.099161305
236	0xbd9953f7	-0.07486718
237	0x3d10ecf3	0.035382222
238	0x3da426e5	0.08015231
239	0x3d70fee9	0.05883685
240	0xbd2edee4	-0.042693034
241	0x3d5c6dfe	0.053815834
242	0x3e00f581	0.12593652
243	0xba993e23	-0.0011691492
244	0xbd3f56bc	-0.046713576
245	0xbdd80e71	-0.105496295
246	0x3da2bd1b	0.07946225
247	0xbcedaf62	-0.029014293
248	0xbdd06d82	-0.10177137
249	0x3d8be374	0.068304926
250	0x3cb892e9	0.02253099
251	0xbd570280	-0.05249262
252	0xbe024265	-0.1272064
253	0x3c4bd3e8	0.012440659
254	0xbd36da98	-0.04464206
255	0xbcfaffb9	-0.030639516

gkf.gat_rnn.r_input_gru.weight_hh_l0 f4 [192, 64]
0	0xbd2fe37d	-0.04294156
1	0xbd5e1e6e	-0.05422824
2	0xbddc0ff9	-0.10745234
3	0xbc94f13f	-0.018181441
4	0xbd3bb06c	-0.045822546
5	0x3debcf11	0.11514104
6	0x3df46c08	0.11934668
7	0xbda9f407	-0.08298498
8	0x3bfe08b0	0.0077525005
9	0xbdd12e2c	-0.10213885
10	0x3d82027e	0.063481316
11	0x3dc7e483	0.09760382
12	0xbd933adb	-0.0718896
13	0xbdba6033	-0.0910038
14	0xbcc5bdd7	-0.024138374
15	0x3dcf84f3	0.1013278
16	0x3db00591	0.08594812
17	0xbd8357e2	-0.06413247
18	0x3ad7ec1e	0.0016473567
19	0xbdbe3c38	-0.092888296
20	0x3def711d	0.116914965
21	0x3d6761ea	0.056489863
22	0xbd48fca8	-0.049069077
23	0x3d5eb0c4	0.054367796
24	0x3c07a15a	0.008278215
25	0xbd9a3a7a	-0.07530685
26	0xbdf3b5c5	-0.11899904
27	0x3d9c6af1	0.07637585
28	0xbdbc1f55	-0.091856636
29	0x3da88632	0.08228721
30	0xbd221029	-0.039566193
31	0x3d8d99ec	0.06914124
32	0x3d54eedc	0.051985607
33	0x3da62ca7	0.081139855
34	0xbd64e5e0	-0.05588329
35	0x3d7edf30	0.062224567
36	0x3d040573	0.03223176
37	0x3bcf3829	0.0063238335
38	0x3a7cd916	0.00096453854
39	0x3b6a8c4c	0.003578919
40	0x3d976198	0.073916614
41	0x3d959388	0.0730353
42	0xbd417d9c	-0.04723893
43	0xbb02da00	-0.0019966364
44	0xbcc4540d	-0.02396586
45	0xbd4b7e50	-0.049681008
46	0x3d659773	0.056052636
47	0x3df0a8c8	0.117509425
48	0x3d7b256c	0.061314985
49	0xbcf8446a	-0.03030606
50	0x3d9ad27f	0.0755968
51	0x3dfffb95	0.12499157
52	0x3d156c57	0.036480274
53	0x3ddb5528	0.10709602
54	0x3d415070	0.04719585
55	0xbca99dd5	-0.020705143
56	0x3d32c80b	0.043647807
57	0x3cfda674	0.03096316
58	0x3d0e58e3	0.034752738
59	0xbd068283	-0.03283931
60	0xbdbd0680	-0.092297554
61	0xbde50884	-0.11183265
62	0xbda27a70	-0.07933509
63	0x3d9523eb	0.072822414
64	0xbd0fe249	-0.03512791
65	0xbdd21011	-0.10256971
66	0x3dca9ae8	0.09892827
67	0xbded26a8	-0.11579639
68	0x3cd8a0c0	0.02644384
69	0x3de24435	0.11048166
70	0xbd87dd8f	-0.06634056
71	0xbb877608	-0.0041339435
72	0x3dfc1cc6	0.123101756
73	0x3ddb5c7c	0.10710999
74	0x3db363ec	0.08759293
75	0xbcaa106c	-0.020759784
76	0x3d9b2c39	0.07576794
77	0x3d5d73ea	0.054065622
78	0x3c194689	0.009355196
79	0x3de9d1d8	0.11416978
80	0x3d06794f	0.032830533
81	0x3da767a9	0.081740685
82	0xbdc3a600	-0.09553146
83	0x3d136185	0.035981674
84	0xbdea30ba	-0.11435075
85	0x3cbafad8	0.02282469
86	0x3d14a49c	0.036289796
87	0x3d9dc918	0.07704371
88	0x3d855321	0.06509996
89	0xbd551f3d	-0.052031744
90	0x3d921ceb	0.07134422
91	0xbdfa1e79	-0.122128434
92	0x3ddd00c1	0.107911594
93	0x3d6b2d04	0.057415977
94	0xbc8c0bc4	-0.017095454
95	0x3d158b26	0.036509655
96	0x3d91af12	0.0711347
97	0xbdcf6922	-0.10127474
98	0x3da07253	0.078343056
99	0x3d0f1f39	0.034941886
100	0x3df96ecf	0.12179338
101	0x3c16950b	0.009190808
102	0x3c741ebc	0.014899906
103	0x3cbadd55	0.022810617
104	0x3dcdb2fc	0.10043904
105	0xbdd08690	-0.10181916
106	0x3d8882af	0.06665551
107	0x3d94ee61	0.0727203
108	0xbc188efe	-0.009311436
109	0xbda20c32	-0.07912482
110	0x3dc50198	0.096194446
111	0x3d95a1d8	0.0730626
112	0xbceda86f	-0.02901098
113	0x3c889bb5	0.01667581
114	0xbd218bbb	-0.039439898
115	0xbd66f0b4	-0.056381896
116	0x3df6b28a	0.120457724
117	0x3d4fb515	0.050709803
118	0x3b99163e	0.004671841
119	0x3d9c3356	0.07626979
120	0x3dacc642	0.08436252
121	0x3d8654c7	0.06559139
122	0x3d662b60	0.05619371
123	0xbdb53d0e	-0.08849536
124	0xbd5822ac	-0.05276744
125	0x3ddfd865	0.10929946
126	0x3d2dcffd	0.04243468
127	0x3d0f469c	0.034979448
128	0xbda1bdfd	-0.078975655
129	0xbd7842a2	-0.06061042
130	0xbd2d31dc	-0.042283878
131	0x3d79837b	0.060916405
132	0xbd515621	-0.05110753
133	0x3dc03e32	0.09386863
134	0xbdb7616a	-0.08954127
135	0xbca7737f	-0.020440815
136	0x3dde5b81	0.10857297
137	0xbd5ddbb3	-0.0541646
138	0x3b371dc6	0.002794133
139	0xbd0d5407	-0.034503963
140	0x3d342f3b	0.043990355
141	0xbd7e75e7	-0.06212416
142	0xbdc405d6	-0.095714256
143	0xbd47d637	-0.048788276
144	0x3d4dd69c	0.050253496
145	0xbd073d6a	-0.033017553
146	0xbdbfdf32	-0.09368743
147	0xbcaec53c	-0.021334283
148	0xbd58dc5e	-0.052944534
149	0x3dd95ec7	0.106137805
150	0xbc89071a	-0.01672702
151	0x3d55fc2d	0.052242447
152	0x3df7ca18	0.12099093
153	0xbdadf4b2	-0.084939376
154	0x3d3c5912	0.04598338
155	0x3c9d3cf7	0.01919411
156	0x3ddca990	0.10774529
157	0x3bc56787	0.0060243043
158	0x3d2e2205	0.042512912
159	0xbdfef1cc	-0.12448463
160	0x3df3fbf1	0.119132884
161	0xbdbe3149	-0.09286744
162	0x3dc46a9e	0.09590648
163	0xbda7fe42	-0.08202793
164	0x3cda8575	0.026674965
165	0x3a770369	0.00094228104
166	0x3db422fe	0.08795737
167	0xbdeecb6a	-0.11659892
168	0x3dd5057d	0.104014374
169	0x3dec82d7	0.11548393
170	0x3d198e50	0.037489235
171	0x3de83669	0.11338503
172	0x3dc53f51	0.09631217
173	0x3bc3a36b	0.0059704087
174	0x3d8a1211	0.06741727
175	0x3bc8819e	0.006118967
176	0x3cf4ba4d	0.029873991
177	0xbdb36a59	-0.087605186
178	0xbd077827	-0.03307357
179	0xbd91a939	-0.07112355
180	0xbd912e07	-0.07088857
181	0xbda0ce2c	-0.07851824
182	0xbd602268	-0.054720312
183	0x3cb488c7	0.022037877
184	0xbb828583	-0.003983201
185	0x3d721845	0.059105176
186	0x3d6633db	0.056201797
187	0xbd0ed67f	-0.03487253
188	0x3db847ff	0.08998107
189	0xbdab42fa	-0.08362384
190	0xbd96ed54	-0.073694855
191	0x3df82511	0.12116445
192	0x3d688a2b	0.056772392
193	0x3d88ff5d	0.06689332
194	0xbe018b1c	-0.12650722
195	0x3dac5a14	0.084156185
196	0xbdcdc4b9	-0.100472875
197	0x3ccc96ae	0.024974193
198	0xbd777579	-0.060414765
199	0x3d315307	0.04329207
200	0xbd7b2fbc	-0.06132482
201	0xbde7cad7	-0.113179855
202	0xbddd27a3	-0.10798576
203	0xbdb0ee66	-0.08639221
204	0xbd51af3c	-0.051192507
205	0x3bc6cff2	0.0060672695
206	0xbd2649cd	-0.040597726
207	0xbd32ce86	-0.043653987
208	0x3cf8fd4d	0.03039422
209	0x3de4ee30	0.11178243
210	0xbd1511d9	-0.036393974
211	0x3dc654c0	0.096841335
212	0xbd62bd6d	-0.05535643
213	0x3dd33e4f	0.10314619
214	0xbd4c446b	-0.049869936
215	0xbd642ff0	-0.05570978
216	0xbcff8990	-0.031193525
217	0xbcb2e2c1	-0.02183664
218	0xbdabda67	-0.08391266
219	0x3db42520	0.087961435
220	0xbdcafa65	-0.0991104
221	0x3aa3b310	0.0012489278
222	0xbdf11613	-0.117717884
223	0xbda167f2	-0.07881154
224	0x3c8c69c0	0.01714027
225	0xbca6a46a	-0.02034207
226	0xbcfb5686	-0.030680906
227	0x3b55509c	0.0032549268
228	0xbd36af27	-0.044600632
229	0xbde403b8	-0.11133522
230	0x3b90c1f3	0.004417652
231	0x3d05847e	0.032597058
232	0x3db2a0fe	0.08722113
233	0xbd8b22ab	-0.06793722
234	0xbdaf9524	-0.08573368
235	0xbddb928f	-0.10721313
236	0x3d86e1e8	0.06586057
237	0xbddcf253	-0.10788407
238	0x3dc231ed	0.09482179
239	0x3d450e2f	0.04810923
240	0x3db0e575	0.086375155
241	0xbd4f9c74	-0.050686315
242	0x3daf0e99	0.08547706
243	0xbd5d4865	-0.05402412
244	0xbc0def52	-0.008663015
245	0x3dcbe4e9	0.099557705
246	0xbd7d322f	-0.061815437
247	0xbcffc26f	-0.031220643
248	0x3c943771	0.018092843
249	0x3d1f8c0b	0.038951915
250	0xbc43ee85	-0.011958723
251	0xbdc0df8c	-0.09417638
252	0xbd031265	-0.031999964
253	0x3d351cf9	0.044217084
254	0xbdc2094f	-0.09474432
255	0xbddbe07f	-0.107361786

gkf.gat_rnn.r_input_gru.bias_ih_l0 f4 [192]
0	0x3dea94c0	0.11454153
1	0xbd998d8d	-0.07497702
2	0xbd944eb1	-0.07241572
3	0x3d8e58fb	0.069505654
4	0xbccbffc6	-0.024902236
5	0x3e001429	0.1250769
6	0xbd9245a9	-0.07142193
7	0x3d8ebf7a	0.06970115
8	0x3c65b055	0.014019092
9	0x3d0b1ea1	0.033964757
10	0xbdf5ad11	-0.119959004
11	0xbc92ebed	-0.017934764
12	0xbc417d22	-0.011809619
13	0xbd9b6dc7	-0.07589298
14	0x3d85a824	0.06526211
15	0x3dec3eba	0.11535402
16	0x3df5899e	0.11989139
17	0x3d9d0bac	0.07668242
18	0xbcd6d99c	-0.026226811
19	0xbd9e207f	-0.07721042
20	0x3d8ce9ae	0.06880508
21	0x3db92939	0.09041066
22	0xbd495f2f	-0.04916304
23	0x3da5ef31	0.08102263
24	0xbd840e05	-0.064479865
25	0xbd2fdedb	-0.04293714
26	0x3dc41fe8	0.09576398
27	0x3dfd4ab0	0.12367761
28	0xbdec2776	-0.11530964
29	0x3d988266	0.074467465
30	0x3dce7510	0.10080922
31	0x3d09ca8a	0.033640422
32	0x3d7f8471	0.062382165
33	0x3d27c956	0.040963493
34	0x3c360f77	0.011112086
35	0x3d8cadaf	0.06869065
36	0xbda18ea7	-0.07888537
37	0xbc81cfeb	-0.015846213
38	0xbd17c469	-0.037052546
39	0x3d8af833	0.067856215
40	0xbdbfb21a	-0.09360142
41	0x3d510c93	0.051037382
42	0xbd49fba8	-0.049312264
43	0x3dad6e82	0.08468343
44	0x3cad18ea	0.021130044
45	0x3cc28bb1	0.02374825
46	0x3d3c6a3b	0.045999747
47	0x3d47efd7	0.048812713
48	0x3d4505ab	0.04810111
49	0x3d98cc59	0.07460851
50	0xbca5488c	-0.020176195
51	0xbd52c119	-0.051453684
52	0x3d7e270b	0.062048953
53	0xbe0b9bc8	-0.13633645
54	0x3d4036c7	0.04692724
55	0x3d94c5ae	0.07264267
56	0x3dc9d28f	0.09854614
57	0x3db4d94c	0.088305086
58	0xbd8e9cf1	-0.06963528
59	0xbdb51275	-0.08841411
60	0xbd0f064d	-0.03491812
61	0xbdc89b30	-0.09795225
62	0x3c4ae144	0.012382809
63	0x3d72943d	0.059223402
64	0x3d741062	0.059585936
65	0xbe077c9a	-0.13231125
66	0x3d1c1a50	0.03811103
67	0xbd8e7cc2	-0.069573894
68	0xbd824b57	-0.06362026
69	0xbdce61e0	-0.10077262
70	0xbd495a72	-0.04915852
71	0xbd87ebe5	-0.0663679
72	0xbda11e3d	-0.078670956
73	0x3db6cabc	0.08925387
74	0xbca900a3	-0.020630186
75	0x3ceda310	0.029008418
76	0xbd0595a8	-0.032613426
77	0x3d842d99	0.064540096
78	0xbdc84307	-0.097784095
79	0xbd4455b7	-0.047933307
80	0xbdb958d6	-0.09050147
81	0xbdb14c3e	-0.0865712
82	0xbd745f44	-0.059661165
83	0xbe08066a	-0.13283697
84	0xbc88d204	-0.016701706
85	0xbe0e7d76	-0.13915047
86	0x3aed46e8	0.0018102797
87	0x3c2e57f5	0.010641088
88	0x3d859a32	0.06523551
89	0xbddf7757	-0.10911434
90	0xbd188886	-0.037239574
91	0xbccf2c6b	-0.025289735
92	0xbe06da79	-0.13169278
93	0x3d75941d	0.059955705
94	0x3d579ec3	0.05264164
95	0x3d115a83	0.03548671
96	0xbd02e390	-0.0319553
97	0xbb435732	-0.002980661
98	0x3d7942b7	0.06085464
99	0xbd8b7a70	-0.068104625
100	0x3d035a79	0.032068703
101	0x3d163497	0.036671247
102	0xbe08f29b	-0.13373797
103	0xbda05d37	-0.07830279
104	0xbda8fbf0	-0.08251178
105	0xbde087c8	-0.10963398
106	0x3da170f2	0.07882871
107	0xbd887c44	-0.06664327
108	0xbd2b0a76	-0.041758023
109	0xbe02cf15	-0.12774308
110	0x3dc9c2f7	0.0985164
111	0xbce3f1ad	-0.0278252
112	0x3da216a7	0.07914477
113	0x3da96f1e	0.08273147
114	0xbd896405	-0.0670853
115	0xbc27f12c	-0.010250371
116	0x3d366550	0.044530213
117	0x3dcd5bb3	0.10027256
118	0xbd057688	-0.032583743
119	0xbd7243a4	-0.05914654
120	0x3dd2a5c0	0.102855206
121	0x3d839186	0.06424241
122	0xbdb67301	-0.08908654
123	0x3cf44b56	0.02982108
124	0xbdf06b3a	-0.11739202
125	0x3cba3a86	0.022732984
126	0x3cbe2e95	0.023215571
127	0xbd8bd68d	-0.06828032
128	0xbd4732ba	-0.04863236
129	0x3d826931	0.0636772
130	0x3b570147	0.0032807158
131	0xbdaa8e5f	-0.083279364
132	0x3d74799f	0.0596863
133	0x3d06d517	0.032918062
134	0xbd96af3a	-0.073576406
135	0x3dc380af	0.09546029
136	0xbdcb5b33	-0.09929504
137	0x3d240e82	0.0400529
138	0xbda811ae	-0.08206497
139	0xbdf7cfad	-0.12100158
140	0x3da59313	0.08084693
141	0x3dca2430	0.098701835
142	0xbde5d96f	-0.11223113
143	0xbd9a795f	-0.07542681
144	0xbd906caf	-0.0705198
145	0xbdb30d0c	-0.08742723
146	0xba82e3e7	-0.0009986133
147	0x3db27d02	0.087152496
148	0x3cbbe514	0.022936381
149	0xbd455aeb	-0.04818241
150	0xbd7ac78d	-0.061225463
151	0x3c7a92a7	0.015293754
152	0xbd88ad15	-0.06673638
153	0xbddedb0f	-0.10881626
154	0x3b98d7ea	0.004664411
155	0xbb4d33d0	-0.00313114
156	0xbdb4782f	-0.08811986
157	0xbdc7987d	-0.09745882
158	0x3deecb9d	0.1165993
159	0x3c04622a	0.008080045
160	0xbd10712c	-0.03526418
161	0xbd8ec9ee	-0.06972109
162	0x3db2744b	0.087135874
163	0x3c87eb2b	0.016591629
164	0x3dd7cb2b	0.10536798
165	0xbccb0146	-0.02478088
166	0xbda3c553	-0.07996621
167	0x3dc8fa7e	0.098134026
168	0xbd5ea19f	-0.054353353
169	0x3dd40ed9	0.103543945
170	0xbc4a9bc9	-0.012366244
171	0x3d014ce6	0.031567477
172	0xbdabeeff	-0.08395194
173	0xbdf7a35f	-0.120917074
174	0xbd8ef06e	-0.06979452
175	0x3d119dad	0.035550762
176	0xbdd6bb12	-0.104848996
177	0xbce6cdb5	-0.02817426
178	0xbcd84998	-0.02640228
179	0x3d2a394d	0.041558553
180	0xbe109f3d	-0.14123245
181	0xbc68721d	-0.014187363
182	0xbcf5a443	-0.029985553
183	0x3d0be4ba	0.034153678
184	0xbcf35af9	-0.029706465
185	0x3dd7681b	0.105179034
186	0xbceddf95	-0.029037276
187	0x3dd49162	0.10379292
188	0x3e068842	0.13137916
189	0x3d270178	0.040772885
190	0x3d6f3b61	0.058406238
191	0x3e0a0a99	0.13480605
