models/no_mismatch/kalman_process_50n_local_params_r_quarter_linear.pth (torch, 269986 bytes, 28 tensors)

gkf.gat_rnn.fc_delta_y_innov.0.weight f4 [64, 3]
0.43434787 0.47172964 -0.13454938 0.5330527 -0.14089705 0.1512307 -0.26951274 0.33093056
0.5407218 -0.41837937 0.50678235 0.092769854 0.41189367 0.061598737 0.261878 -0.07269774
0.45437515 0.07721213 -0.27212605 0.1521459 -0.2323002 -0.056664035 -0.24718376 0.4082313
-0.45611104 -0.26494908 -0.15714443 -0.35619658 0.06329166 -0.57855314 0.5142924 -0.5148564
0.4828935 0.08811737 -0.2132399 0.38236713 0.09368524 0.4795232 0.061667513 -0.18142855
0.154049 -0.1790524 0.25990236 0.5323376 0.3662432 -0.24956152 0.33061847 0.120425485
0.28985488 -0.36156148 -0.55917555 -0.20103203 -0.4585647 0.50137997 0.1703645 0.23717254
0.20892064 -0.0018207633 0.47602573 -0.43578386 0.024220366 -0.38856706 0.14762695 -0.18918069
0.16388202 -0.10039527 0.4801075 -0.34309906 -0.32860348 -0.3443623 0.51366544 0.18602413
0.5504403 -0.4666762 -0.60011864 -0.45311144 -0.38604674 0.22612886 0.20170248 0.5001942
-0.3217686 -0.3863209 0.299976 -0.21308103 0.35430464 -0.14398012 0.35777685 -0.4404
-0.29095677 0.2134921 0.11474823 -0.14662962 0.3309421 0.40456876 -0.40958992 -0.3198854
0.528469 -0.20120808 -0.17751376 -0.55882305 -0.33703148 0.15816602 -0.065602824 -0.41280782
0.052166883 -0.3989519 -0.48065606 -0.32157245 -0.5090913 -0.3746051 0.5965047 0.10996376
0.1715148 -0.5292372 -0.37380633 -0.19704594 0.08714842 -0.5083911 -0.25398573 -0.34888536
0.0039039422 -0.21912009 -0.032110106 -0.394816 -0.39556426 -0.34527808 -0.1728763 -0.4647009
0.51910704 -0.10660299 0.515953 0.16310334 -0.48161855 0.3958397 -0.16394494 -0.22049555
-0.49098405 -0.55559754 0.17978644 -0.13218734 0.2416334 -0.47583047 0.43542907 -0.4355872
-0.09612224 0.10876856 0.33288375 0.46737584 0.52169937 -0.45859295 0.15717778 -0.24818155
-0.03885614 -0.43672702 0.5259292 -0.44034526 0.30484882 0.21251713 0.17443003 -0.3092526
0.5309637 0.1190352 0.08974036 -0.529612 0.25920966 -0.08512523 -0.2596515 0.52454156
0.118259005 -0.30940253 -0.30985925 -0.019408952 0.33812216 -0.15420014 -0.32646677 -0.20117788
-0.43364856 0.20834993 0.44835332 -0.55879295 0.13385962 0.29492578 0.121936746 -0.20833784
0.3045553 0.31672305 0.21886583 -0.10665783 -0.11637359 0.049363546 -0.10084393 -0.18012525
00000000: d862 de3e 8c86 f13e 50c7 09be 2476 083f
00000010: 5147 10be 38dc 1a3e 93fd 89be bb6f a93e
00000020: be6c 0a3f d235 d6be 7dbc 013f 1ffe bd3d
00000030: bae3 d23e f54e 7c3d e014 863e 8de2 94bd
00000040: dca3 e83e 6521 9e3d 1b54 8bbe 23cc 1b3e
00000050: 1be0 6dbe 8c18 68bd bd1d 7dbe b103 d13e
00000060: 6387 e9be 68a7 87be 78ea 20be 665f b6be
00000070: 0f9f 813d 0f1c 14bf aba8 033f a1cd 03bf
00000080: d13d f73e e176 b43d 8f5b 5abe a0c5 c33e
00000090: 0cde bf3d 1184 f53e 1397 7c3d 68c8 39be
000000a0: 05bf 1d3e 8359 37be ec11 853e 4747 083f
000000b0: 3b84 bb3e 0e8d 7fbe d346 a93e a3a1 f63d
000000c0: dc67 943e 961e b9be 2126 0fbf 57db 4dbe
000000d0: fec8 eabe 705a 003f 0874 2e3e 5cdd 723e
000000e0: 4bef 553e aea6 eeba a5b9 f33e 101f dfbe
000000f0: ca69 c63c 43f2 c6be 852b 173e 95b8 41be
00000100: b0d0 273e 099c cdbd a6d0 f53e aeaa afbe
00000110: b73e a8be 4150 b0be 947f 033f 1c7d 3e3e
00000120: a8e9 0c3f 2ff0 eebe 60a1 19bf 39fe e7be
00000130: eba7 c5be 538e 673e 188b 4e3e ba0c 003f
00000140: dbbe a4be dacb c5be 7496 993e ea31 5abe
00000150: 6b67 b53e 866f 13be 872e b73e 1c7c e1be
00000160: 49f8 94be ac9d 5a3e 1f01 eb3d 1326 16be
00000170: 3e71 a93e a323 cf3e c5b5 d1be 05c8 a3be
00000180: bf49 073f 7e09 4ebe 2bc6 35be 070f 0fbf
00000190: 648f acbe 46f6 213e c65a 86bd 8c5b d3be
000001a0: f1ac 553d 6c43 ccbe 8d18 f6be 25a5 a4be
000001b0: cf53 02bf 3dcc bfbe 88b4 183f ae34 e13d
000001c0: 93a1 2f3e 177c 07bf 8b63 bfbe 69c6 49be
000001d0: df7a b23d eb25 02bf 6b0a 82be 1aa1 b2be
000001e0: 48d9 7f3b 0461 60be e385 03bd 5325 cabe
000001f0: 6687 cabe 4ac8 b0be 7c06 31be 47ed edbe
00000200: 33e4 043f ab52 dabd 7f15 043f 9004 273e
00000210: b596 f6be 80ab ca3e 2fe1 27be 96c9 61be
00000220: 4362 fbbe a43b 0ebf f019 383e 1e5c 07be
00000230: bf6e 773e 0da0 f3be 8ff0 de3e 4905 dfbe
00000240: bddb c4bd 0dc2 de3d bd6f aa3e e34b ef3e
00000250: 178e 053f b2cc eabe 36f3 203e 4e23 7ebe
00000260: 9e27 1fbd af9a dfbe 4ca3 063f ef74 e1be
00000270: 2515 9c3e 179e 593e c99d 323e 5b56 9ebe
00000280: 3ded 073f bac8 f33d cbc9 b73d a794 07bf
00000290: 21b7 843e 2356 aebd 0bf1 84be 5b48 063f
000002a0: c731 f23d 026a 9ebe dfa5 9ebe 86ff 9ebc
000002b0: 591e ad3e a4e6 1dbe a726 a7be 9301 4ebe
000002c0: 2f07 debe af59 553e 918e e53e 0e0d 0fbf
000002d0: 7f12 093e 8300 973e f9b9 f93d 8456 55be
000002e0: acee 9b3e 8629 a23e 5d1e 603e 6c6f dabd
000002f0: 4755 eebd 6e31 4a3d 4387 cebd c172 38be

gkf.gat_rnn.fc_delta_y_innov.0.bias f4 [64]
0.36586183 0.50709903 -0.048553552 -0.12877257 -0.00917014 -0.028851155 0.14711311 0.1747872
-0.52234685 -0.20459676 0.5045769 0.22052278 -0.015729195 -0.34950897 -0.33184096 -0.51864517
-0.19322915 0.22344187 0.37907574 0.29064366 -0.52104294 -0.35844493 -0.08619949 0.55333173
0.08110889 -0.15210742 0.24497722 -0.22345315 -0.35868526 0.4394891 -0.2756635 -0.10400363
-0.5698262 0.38859922 0.46633533 0.21473493 -0.39705554 -0.57271 -0.47326407 0.42633793
0.27122048 0.48502266 0.32393667 0.15486312 -0.008430559 -0.4374878 -0.47971535 -0.5348172
0.23766845 -0.2877213 -0.0999625 -0.33395076 -0.104977936 -0.4029094 -0.3619168 0.20577306
-0.16974796 0.37134036 -0.1884916 -0.42216304 -0.09915908 -0.27453065 -0.17097887 -0.55107635
00000000: 3e52 bb3e 3ed1 013f 17e0 46bd f5dc 03be
00000010: 5b3e 16bc 4259 ecbc d2a4 163e 6afb 323e
00000020: 86b8 05bf d081 51be f42b 013f b9d0 613e
00000030: 83da 80bc d7f2 b2be 0fe7 a9be eec5 04bf
00000040: dddd 45be f2cd 643e 3716 c23e 3fcf 943e
00000050: 1263 05bf 1886 b7be 5c89 b0bd 26a7 0d3f
00000060: 6b1c a63d 0cc2 1bbe 4fdb 7a3e e7d0 64be
00000070: 98a5 b7be b704 e13e c423 8dbe dbff d4bd
00000080: 21e0 11bf 7af6 c63e 81c3 ee3e 79e3 5b3e
00000090: dd4a cbbe 1f9d 12bf ab4f f2be f748 da3e
000000a0: 69dd 8a3e e454 f83e 07db a53e 7094 1e3e
000000b0: 5420 0abc 67fe dfbe 409d f5be c8e9 08bf
000000c0: 5c5f 733e 3550 93be 24b9 ccbd 98fb aabe
000000d0: acfe d6bd 244a cebe 294d b9be 2cb6 523e
000000e0: 69d2 2dbe 5320 be3e f103 41be c125 d8be
000000f0: ea13 cbbd 488f 8cbe 1615 2fbe 5713 0dbf

gkf.gat_rnn.fc_delta_y_innov.2.weight f4 [64, 64]
0.07078622 -0.07522427 0.094759665 0.06790172 0.098853774 -0.0967635 0.09924262 -0.018845381
0.043331157 0.09397295 0.005613742 0.033163685 -0.030911926 -0.12592825 0.059673216 -0.1351945
0.066549875 0.1368822 0.12967782 -0.034203764 -0.106279604 0.008431763 0.06446743 -0.11017617
-0.03540914 -0.048210382 -0.015325753 -0.05976052 -0.02824878 0.000496583 -0.08763722 0.10041945
0.097160675 0.021249402 0.02666762 -0.038186155 -0.08346824 -0.15582602 0.05087483 -0.051884238
-0.04617977 0.012861026 0.0002595378 -0.033753663 0.013967418 -0.04084848 -0.031198636 -0.08511706
-0.073627315 0.09495588 -0.0349829 0.036344536 -0.03986506 0.015944775 0.12047351 0.09779508
-0.12786688 0.051641807 0.10637085 0.020795254 0.082708076 0.14217857 -0.028163897 0.006688125
-0.086459875 -0.021312524 0.0982018 0.06492383 -0.074966736 -0.10179061 -0.08585312 -0.09445524
-0.08833638 -0.029402962 0.09372719 0.0424854 -0.09827486 -0.0980199 0.06455341 -0.08933487
-0.010823665 0.08279911 -0.054294534 -0.017279373 -0.01041597 -0.02722752 -0.05897167 -0.109120525
-0.096713066 -0.055229858 0.11756886 -0.059862673 -0.08342508 0.038003817 0.04733364 0.071919695
0.0998418 0.07733932 -0.10880361 0.018642697 0.09323767 -0.021586876 -0.061652694 0.1231422
-0.027871711 -0.065814346 -0.09103158 0.00641771 0.05572649 0.022863477 0.026120301 -0.093872905
-0.11026284 0.0047755144 0.11478772 0.07074779 -0.06940215 -0.01591172 -0.08958385 -0.0356559
0.019247048 0.06716247 0.10735748 -0.11164655 0.08442973 -0.083089806 0.052201208 0.10135075
-0.0038208032 0.114467554 -0.087019235 -0.044659413 0.07410381 -0.038100604 -0.0338704 -0.0328797
0.091265075 0.058634385 0.04741504 -0.055676103 -0.10972295 0.010201552 0.03271652 -0.0562833
-0.03518184 0.10432334 0.00806951 -0.0051881764 -0.022769699 -0.115116045 -0.1154636 -0.06537554
-0.06418332 0.060584154 -0.045075223 -0.04750048 0.1320087 0.06423506 0.10653567 -0.05437024
-0.046818275 0.06753902 -0.06376321 -0.065324455 0.016989065 -0.05897909 -0.0850054 0.09260779
0.113766514 0.042247567 -0.0022508882 -0.12399253 -0.045160927 0.032351814 0.07876616 -0.018209739
-0.042253897 0.061347067 -0.08122734 0.07502333 -0.050122343 0.002917451 -0.004097931 0.034176044
-0.036659926 0.082368396 -0.0021268947 0.08827819 0.114448026 -0.041908517 -0.08874147 0.09979441
0.09512733 -0.09740254 -0.014558427 -0.1341746 -0.104260124 0.016265636 0.021417227 0.033028986
-0.031393792 0.108799465 0.016832901 -0.072596446 -0.0106734065 0.02783005 0.041206524 -0.09309503
0.044592414 -0.06109503 -0.10659982 -0.07324501 0.12511879 0.10359948 0.110022806 0.0637526
0.09229358 -0.016037222 -0.07236157 0.052140187 -0.0654079 -0.087029204 -0.02609808 0.024631446
0.062494013 -0.051713753 -0.06796554 0.013759476 -0.072903186 -0.07666181 0.06778069 -0.029582968
0.11617394 0.11458452 0.04150653 0.036400285 0.017628549 0.004518071 -0.0004648634 -0.0062483894
0.043890223 0.11293558 -0.03247776 -0.06390645 -0.03251765 -0.071007945 0.034187432 0.09945908
0.10511595 0.05268564 -0.092826545 -0.07056552 -0.03034085 -0.030604452 0.008290919 -0.11162593
00000000: 5ef8 903d 2f0f 9abd 5b11 c23d 0f10 8b3d
00000010: d973 ca3d f12b c6bd b73f cb3d a161 9abc
00000020: 037c 313d e474 c03d 7bf3 b73b a5d6 073d
00000030: 023b fdbc 56f3 00be e76b 743d 6d70 0abe
00000040: 4d4b 883d d92a 0c3e 43ca 043e 3f19 0cbd
00000050: 1fa9 d9bd 6125 0a3c 8007 843d 0ba4 e1bd
00000060: 2d09 11bd 4078 45bd de18 7bbc 72c7 74bd
00000070: fc69 e7bc 1f2d 023a 257b b3bd b6a8 cd3d
00000080: 2dfc c63d 3a13 ae3c 0d76 da3c 1669 1cbd
00000090: 66f1 aabd db90 1fbe 2062 503d 9184 54bd
000000a0: 0027 3dbd 0eb7 523c 9312 8839 4841 0abd
000000b0: 99d7 643c bc50 27bd 4894 ffbc da51 aebd
000000c0: ebc9 96bd 3a78 c23d 3b4a 0fbd 02de 143d
000000d0: 8c49 23bd 9e9e 823c d1ba f63d c948 c83d
000000e0: 89ef 02be 5c86 533d f6d8 d93d cf5a aa3c
000000f0: da62 a93d 4297 113e f9b7 e6bc 0f28 db3b
00000100: e011 b1bd 9a97 aebc 061e c93d c9f6 843d
00000110: 2988 99bd 9877 d0bd c3d3 afbd c071 c1bd
00000120: b4e9 b4bd 7bde f0bc 0af4 bf3d 2c05 2e3d
00000130: 5444 c9bd a8be c8bd 9434 843d 33f5 b6bd
00000140: be55 31bc 9492 a93d f263 5ebd 798d 8dbc
00000150: bfa7 2abc 3f0c dfbc 478c 71bd 957a dfbd
00000160: 8011 c6bd b438 62bd f1c7 f03d 9032 75bd
00000170: c5da aabd e4a9 1b3d ebe0 413d a24a 933d
00000180: dc79 cc3d 1464 9e3d 6dd4 debd 92b8 983c
00000190: 64f3 be3d f6d6 b0bc 8987 7cbd fa31 fc3d
000001a0: 3753 e4bc acc9 86bd c46e babd a74b d23b
000001b0: 7641 643d 304c bb3c 3efa d53c 7040 c0bd
000001c0: 7cd1 e1bd eb7b 9c3b d315 eb3d 38e4 903d
000001d0: b722 8ebd 4c59 82bc bd77 b7bd ec0b 12bd
000001e0: fcab 9d3c 7a8c 893d 3dde db3d f2a6 e4bd
000001f0: 7fe9 ac3d fd2a aabd efd0 553d fb90 cf3d
00000200: 7166 7abb f76d ea3d 2437 b2bd caec 36bd
00000210: bdc3 973d 610f 1cbd b0bb 0abd ddac 06bd
00000220: 2fe9 ba3d 9c2a 703d 4636 423d a00c 64bd
00000230: 6db6 e0bd 6924 273c c201 063d 5189 66bd
00000240: d51a 10bd 7aa7 d53d fa35 043c 9401 aabb
00000250: 8587 babc f6c1 ebbd 2e78 ecbd 9ce3 85bd
00000260: 8b72 83bd 1727 783d cca0 38bd dd8f 42bd
00000270: 4a2d 073e ac8d 833d 602f da3d 54b3 5ebd
00000280: 85c4 3fbd e651 8a3d 4996 82bd d4c8 85bd
00000290: a72c 8b3c 0f94 71bd 5017 aebd 27a9 bd3d
000002a0: 6bfe e83d c90b 2d3d a383 13bb ccef fdbd
000002b0: aafa 38bd 5683 043d 2750 a13d 972c 95bc
000002c0: 6c12 2dbd 1047 7b3d 855a a6bd d5a5 993d
000002d0: 164d 4dbd b532 3f3b f047 86bb 2efc 0b3d
000002e0: b828 16bd c3b0 a83d 5f63 0bbb 32cb b43d
000002f0: ba63 ea3d 44a8 2bbd 16be b5bd 0361 cc3d
00000300: 1ed2 c23d fc7a c7bd 7886 6ebc 1165 09be
00000310: 5586 d5bd 833f 853c 2e73 af3c 6749 073d
00000320: c796 00bd 41d2 de3d 27e5 893c 72ad 94bd
00000330: 83df 2ebc d8fb e33c 2cc8 283d 9ba8 bebd
00000340: 89a6 363d c83e 7abd 0251 dabd 7b01 96bd
00000350: 241f 003e f72b d43d a353 e13d b990 823d
00000360: 6b04 bd3d 7e60 83bc 4e32 94bd f390 553d
00000370: 94f4 85bd 5e3c b2bd a4cb d5bc e3c7 c93c
00000380: b9f9 7f3d cdd1 53bd 8431 8bbd 6d6f 613c
00000390: 444e 95bd de00 9dbd 9ad0 8a3d fb57 f2bc
000003a0: 9aec ed3d 4aab ea3d c002 2a3d 7718 153d
000003b0: bf69 903c 540c 943b e9b8 f3b9 4abf ccbb
000003c0: 3cc6 333d c54a e73d 6607 05bd 63e1 82bd
000003d0: 3a31 05bd 9d6c 91bd 1f08 0c3d 34b1 cb3d
000003e0: 0847 d73d e6cc 573d d81b bebd a884 90bd
000003f0: 608d f8bc 30b6 fabc a2d6 073c 239c e4bd

gkf.gat_rnn.fc_delta_y_innov.2.bias f4 [64]
0.014795659 0.06211034 0.018516704 -0.09377427 0.06163317 0.09252482 -0.053841945 -0.063902505
-0.08367639 -0.06007563 -0.020425985 0.015362098 0.0017884515 -0.034146387 0.06891699 0.01191533
-0.06835092 -0.03254184 -0.08037759 -0.043207377 -0.109248064 0.018729229 -0.09337531 0.04011499
0.115275964 -0.09395179 -0.05694331 -0.112212345 0.035336547 0.01771142 -0.059066653 0.07935783
0.05262153 -0.101233386 0.008026062 -0.055410378 -0.007975291 0.07531362 -0.011147716 -0.08788097
0.094541095 -0.106278434 -0.0346827 0.05102608 0.12536626 0.12745218 -0.0057389727 0.04541265
-0.10243276 -0.009405499 -0.022614973 0.04189918 -0.073531836 0.037113637 0.055032153 0.106501706
-0.02967414 0.121763915 -0.11133385 -0.03412368 0.04547971 0.01885061 0.06263568 -0.07626218
00000000: 7e69 723c 6967 7e3d 58b0 973c b90c c0bd
00000010: 1073 7c3d a77d bd3d 5f89 5cbd 51df 82bd
00000020: 875e abbd dd11 76bd 6554 a7bc 4fb1 7b3c
00000030: 796a ea3a 15dd 0bbd 5a24 8d3d 8438 433c
00000040: 91fb 8bbd 984a 05bd 029d a4bd 38fa 30bd
00000050: 73bd dfbd 0a6e 993c 8e3b bfbd 9e4f 243d
00000060: ce15 ec3d cc69 c0bd 633d 69bd 96cf e5bd
00000070: 0ebd 103d 8a17 913c e0ef 71bd 5c86 a23d
00000080: ac89 573d 7353 cfbd be7f 033c fef5 62bd
00000090: ccaa 02bc 073e 9a3d e9a4 36bc f0fa b3bd
000000a0: c39e c13d 82a8 d9bd 720f 0ebd b900 513d
000000b0: 0360 003e d382 023e fe0d bcbb 9d02 3a3d
000000c0: 44c8 d1bd 8619 1abc 0943 b9bc 799e 2b3d
000000d0: dc97 96bd 7804 183d 6569 613d 911d da3d
000000e0: 2f17 f3bc 5c5f f93d 0003 e4bd 46c5 0bbd
000000f0: ef48 3a3d 986c 9a3c 2347 803d 592f 9cbd

gkf.gat_rnn.fc_r.0.weight f4 [64, 1]
0.6113337 -0.94123304 -0.68447405 -0.059097372 -0.9725131 -0.9532904 -0.8916197 0.8048785
0.2199309 -0.31740645 -0.046870314 -0.868956 -0.9493578 -0.6982344 -0.9606592 0.65629584
-0.35076696 -0.27212068 -0.8661546 0.16174214 -0.15158688 -0.6793191 0.6375266 0.8470626
-0.71651465 0.57191336 -0.16899955 -0.00989296 0.42710802 -0.18269636 0.85444343 0.6210398
-0.6529843 -0.6103225 -0.9929985 0.31685022 -0.76062906 -0.8373532 -0.6428257 -0.98983437
-0.8145456 0.89954805 0.55575657 0.8895339 -0.480989 -0.40817013 -0.34750324 0.019438593
-0.71856993 0.14629965 -0.64312035 0.15520686 0.9214227 0.16625322 0.7287087 -0.7090086
-0.13507152 -0.6173415 -0.112863556 -0.39097 -0.56957334 -0.9697618 -0.37044987 0.13952076
00000000: 5e80 1c3f a6f4 70bf b139 2fbf 1610 72bd
00000010: 9ef6 78bf d70a 74bf 3041 64bf 840c 4e3f
00000020: 9135 613e 1983 a2be 16fb 3fbd e773 5ebf
00000030: 1d09 73bf 7dbf 32bf c3ed 75bf 0103 283f
00000040: ba97 b3be 6753 8bbe 4fbc 5dbf bb9f 253e
00000050: 9739 1bbe dbe7 2dbf f134 233f 18d9 583f
00000060: 816d 37bf ea68 123f 380e 2dbe 1516 22bc
00000070: e7ad da3e c114 3bbe cebc 5a3f 77fc 1e3f
00000080: fb29 27bf 183e 1cbf 2635 7ebf 313a a23e
00000090: 96b8 42bf c85c 56bf 3a90 24bf c965 7dbf
000000a0: 0f86 50bf c848 663f 1046 0e3f 7eb8 633f
000000b0: 3144 f6be adfb d0be f2eb b1be af3d 9f3c
000000c0: 33f4 37bf 93cf 153e 89a3 24bf 8cee 1e3e
000000d0: 5ce2 6b3f 493e 2a3e a78c 3a3f 9681 35bf
000000e0: 3050 0abe 180a 1ebf 0225 e7bd 382d c8be
000000f0: 8fcf 11bf 4f42 78bf 9bab bdbe 88de 0e3e

gkf.gat_rnn.fc_r.0.bias f4 [64]
-0.1786936 -0.92738456 0.7699115 0.76069593 -0.6062137 0.1146036 0.6741627 -0.9431979
-0.8880459 0.55518 -0.0133288065 0.31769758 -0.40739295 0.19340977 0.6748688 -0.23579119
-0.3164097 -0.9490185 -0.13936682 0.6303762 -0.9478774 -0.0751659 0.747892 -0.2739879
-0.3633735 -0.29194996 -0.40068117 0.106577 -0.9644614 0.36933616 -0.2390148 -0.118031375
-0.05375446 0.5809657 -0.6147683 -0.91855806 -0.7095834 -0.730603 -0.48414645 0.80496955
-0.76909596 -0.57716006 -0.81912875 -0.49839115 -0.02992909 -0.611858 0.01022777 0.34599686
-0.17621787 0.4336345 0.22735265 0.9772535 -0.044479065 0.8633264 0.7661018 0.47734722
0.57768345 -0.66573155 -0.6684996 0.438967 0.37327248 0.9184539 -0.12785332 -0.17364936
00000000: 75fb 36be 1369 6dbf ec18 453f f8bc 423f
00000010: d230 1bbf 4bb5 ea3d ed95 2c3f 6b75 71bf
00000020: fa56 63bf 4720 0e3f 1161 5abc 42a9 a23e
00000030: cf95 d0be 360d 463e 34c4 2c3f 3f73 71be
00000040: 7400 a2be e0f2 72bf 2db6 0ebe 5660 213f
00000050: 18a8 72bf 94f0 99bd da75 3f3f 2448 8cbe
00000060: 170c babe 777a 95be 1526 cdbe 0b45 da3d
00000070: f1e6 76bf a119 bd3e 4cc0 74be 6fba f1bd
00000080: a32d 5cbd 2bba 143f 7561 1dbf 9f26 6bbf
00000090: 42a7 35bf cc08 3bbf 0be2 f7be 7c12 4e3f
000000a0: 79e3 44bf c3c0 13bf 6cb2 51bf 202d ffbe
000000b0: da2d f5bc baa2 1cbf 6092 273c 8026 b13e
000000c0: 7572 34be 5705 de3e 22cf 683e 492d 7a3f
000000d0: ae2f 36bd f502 5d3f 3f1f 443f db66 f43e
000000e0: 10e3 133f 626d 2abf ca22 2bbf 48c0 e03e
000000f0: 921d bf3e cb1f 6b3f fbeb 02be 23d1 31be

gkf.gat_rnn.fc_r.2.weight f4 [64, 64]
0.08492678 0.002539587 0.11375317 -0.07046566 -0.042736556 0.00189139 0.06320463 -0.10659445
-0.031091338 0.08680698 0.023501351 0.08486723 -0.044820827 -0.08232821 -0.08878665 -0.07061322
-0.095328994 0.059880335 0.030313918 -0.08682863 0.11255127 0.032224745 0.042356983 -0.053203125
0.08434641 -0.08710308 0.08896843 -0.07472127 0.056081556 -0.049376115 0.08049173 -0.10580496
-0.027756697 -0.037258137 -0.07647465 -0.05809742 -0.03652561 0.011600395 0.08744999 -0.024019783
0.12106906 -0.05698529 -0.061474472 -0.005022053 -0.026030717 0.037635274 0.11203326 0.035672434
-0.107692495 -0.049280938 -0.028344316 -0.12093909 0.03739747 0.10207926 0.058257673 -0.0059176264
-0.014705922 -0.060157847 -0.015902724 0.10605387 -0.06771421 0.016467297 -0.094511375 -0.031200085
0.011092247 -0.09264154 0.04006121 -0.09655541 -0.048422802 0.091264255 0.122763336 -0.006567059
-0.08906326 -0.09556847 -0.027156796 -0.058994066 0.10242105 -0.08450373 0.08063273 0.027596563
-0.03605657 0.10144532 0.07320917 0.003880423 -0.08700406 -0.033014696 0.045289684 0.11214873
-0.03929254 -0.048170876 -0.12332946 0.087714 0.12390073 0.09363888 -0.0657936 0.093438834
-0.03409444 0.07116286 0.07574336 -0.10067342 0.03281791 0.05195228 -0.072809786 0.12116106
0.09945082 0.10818062 0.0016805811 -0.06312631 -0.06443764 0.044423766 -0.02071154 0.109764546
0.108179614 0.017114898 -0.09755612 0.05888587 0.11579191 -0.022471078 -0.060578696 -0.023875354
0.027242083 -0.09124828 0.064806014 0.059495002 -0.042472668 -0.04049261 -0.056082565 0.100819185
0.073777735 0.03522788 -0.0075597106 0.023085313 0.12006624 0.039028704 -0.06358007 0.04803864
-0.050502617 -0.007872074 -0.08121866 -0.0043939203 0.0060057375 -0.07645353 0.07922402 0.11508975
-0.104942456 0.036160834 -0.08682782 -0.027387189 0.058689624 -0.0027010432 0.03756316 -0.040854584
0.11876532 -0.05903823 0.02463367 0.0048428024 0.08444569 0.008602438 0.07500793 0.03184415
0.07924746 9.030725e-06 0.041169714 0.12230974 -0.041087262 -0.051299967 0.09024493 0.046467364
-0.11835669 0.044107627 -0.12298796 -0.06821252 0.04842315 0.06628695 -0.028799541 0.09924002
0.12370334 0.09567853 -0.11553276 -0.04931235 0.007260217 0.09828593 -0.021259863 0.02499614
0.059244644 -0.065589555 -0.07683077 0.12172096 -0.0038679794 0.08684756 -0.122350745 -0.048043936
0.089362 -0.007909371 0.047075752 -0.09849983 0.12598443 -0.057778884 -0.0014674965 -0.08002966
-0.05438867 -0.10197896 -0.104897104 -0.020829033 -0.050746113 0.09700959 0.004222672 0.09888708
-0.016711622 0.030459067 0.12454807 -0.09531442 -0.05054038 0.11138439 -0.027548037 -0.031995554
0.014391808 -0.065347575 0.012881589 -0.045731675 0.04095834 -0.021214824 -0.04029758 -0.045489155
0.03699773 0.0676438 -0.10995648 -0.085815325 -0.115747966 0.062586196 0.09801546 -0.115230955
0.036709327 0.027163308 -0.06533201 0.028784592 0.1009184 0.12669143 0.058638036 -0.021854233
-0.066654764 -0.04627749 0.0057329624 -0.0075578373 0.09272218 -0.11144188 0.012272373 -0.034933224
0.016179657 0.12437455 0.007326688 -0.01671866 -0.037550896 -0.11982521 -0.10884379 0.05628257
00000000: 17ee ad3d 336f 263b 6cf7 e83d 4d50 90bd
00000010: 870c 2fbd 84e8 f73a 6e71 813d 314e dabd
00000020: 43b3 febc dcc7 b13d e885 c03c dfce ad3d
00000030: 0b96 37bd b19b a8bd c6d5 b5bd aa9d 90bd
00000040: d93b c3bd 1545 753d e554 f83c 35d3 b1bd
00000050: 4881 e63d 18fe 033d 847e 2d3d 85eb 59bd
00000060: d0bd ac3d 1963 b2bd 1535 b63d 7707 99bd
00000070: c6b5 653d 9c3e 4abd d9d8 a43d 45b0 d8bd
00000080: 0362 e3bc fd9b 18bd be9e 9cbd 8ff7 6dbd
00000090: e19b 15bd 950f 3e3c fb18 b33d 23c5 c4bc
000000a0: 0ef3 f73d 6869 69bd a8cc 7bbd 0990 a4bb
000000b0: 5f3e d5bc 7227 1a3d b271 e53d 421d 123d
000000c0: e28d dcbd cfda 49bd 5732 e8bc eaae f7bd
000000d0: 172e 193d ee0e d13d 999f 6e3d a6e8 c1bb
000000e0: 1cf1 70bc 1368 76bd 6e46 82bc c532 d93d
000000f0: bfad 8abd 6de6 863c 2e8f c1bd 5297 ffbc
00000100: 42bc 353c d9ba bdbd 3917 243d d8be c5bd
00000110: fd56 46bd c1e8 ba3d 586b fb3d 7c30 d7bb
00000120: cc66 b6bd 67b9 c3bd ee77 debc c3a3 71bd
00000130: 21c2 d13d 4b10 adbd c622 a53d 3012 e23c
00000140: 0eb0 13bd 90c2 cf3d b0ee 953d b24e 7e3b
00000150: 2f2f b2bd 6b3a 07bd ad81 393d 3cae e53d
00000160: 37f1 20bd d34e 45bd 2894 fcbd 66a3 b33d
00000170: aabf fd3d bec5 bf3d ccbe 86bd dc5c bf3d
00000180: 9da6 0bbd d5bd 913d 561f 9b3d de2d cebd
00000190: 136c 063d eacb 543d 4c1d 95bd 4a23 f83d
000001a0: dfac cb3d cd8d dd3d f246 dc3a 5e48 81bd
000001b0: e2f7 83bd b2f5 353d 3fab a9bc 3ccc e03d
000001c0: 468d dd3d 8b34 8c3c 81cb c7bd 4f32 713d
000001d0: 4f24 ed3d 4415 b8bc 5e21 78bd 3f96 c3bc
000001e0: ca2a df3c 61e0 babd 04b9 843d 08b1 733d
000001f0: d2f7 2dbd 94db 25bd d5b6 65bd 4a7a ce3d
00000200: c818 973d 1c4b 103d 73b7 f7bb 691d bd3c
00000210: 4ae5 f53d 90dc 1f3d 4536 82bd 2ac4 443d
00000220: d5db 4ebd dff9 00bc f855 a6bd e0fa 8fbb
00000230: c7cb c43b ab93 9cbd 3440 a23d 2db4 eb3d
00000240: 12ec d6bd 621d 143d c9d2 b1bd 195b e0bc
00000250: 8864 703d fc03 31bb d4db 193d 2357 27bd
00000260: 3b3b f33d 12d2 71bd 8dcc c93c 5fb0 9e3b
00000270: ddf1 ac3d 3df1 0c3c c29d 993d 036f 023d
00000280: 7e4c a23d ab82 1737 93a1 283d 877d fa3d
00000290: 1e4b 28bd ea1f 52bd 55d2 b83d 9054 3e3d
000002a0: fe64 f2bd 33aa 343d 1de1 fbbd 01b3 8bbd
000002b0: 5a57 463d 74c1 873d 04ed ebbc 5a3e cb3d
000002c0: 2d58 fd3d 1bf3 c33d 719c ecbd bffb 49bd
000002d0: 1de7 ed3b 224a c93d 2a29 aebc b4c4 cc3c
000002e0: 83aa 723d d153 86bd 7359 9dbd d748 f93d
000002f0: ed7d 7dbb 22dd b13d 0793 fabd b8c9 44bd
00000300: 6d03 b73d 4e96 01bc 81d2 403d 47ba c9bd
00000310: 1002 013e 8da9 6cbd 0359 c0ba 97e6 a3bd
00000320: a7c6 5ebd 58da d0bd 4bd4 d6bd a6a1 aabc
00000330: 28db 4fbd f7ac c63d 575e 8a3b 4f85 ca3d
00000340: d0e6 88bc 4b85 f93c 0f13 ff3d 3534 c3bd
00000350: 6e03 4fbd 801d e43d 6cac e1bc c50d 03bd
00000360: 9ecb 6b3c f3d4 85bd 4d0d 533c 2351 3bbd
00000370: efc3 273d b6ca adbc 130f 25bd d652 3abd
00000380: ef8a 173d d588 8a3d dd30 e1bd f2bf afbd
00000390: 450d edbd 312d 803d 54bc c83d 35fe ebbd
000003a0: 855c 163d 9685 de3c cacc 85bd aacd eb3c
000003b0: 4eae ce3d 66bb 013e 702e 703d a607 b3bc
000003c0: 4b82 88bd 778d 3dbd 93db bb3b bca7 f7bb
000003d0: 20e5 bd3d a43b e4bd 1012 493c 2416 0fbd
000003e0: 338b 843c 16b8 fe3d b714 f03b 92f5 88bc
000003f0: f8ce 19bd eb66 f5bd 7ee9 debd 8d88 663d

gkf.gat_rnn.fc_r.2.bias f4 [64]
0.028896803 0.106648326 0.01709303 0.052075207 -0.08755283 -0.08852546 -0.06952601 -0.07039284
-0.049980737 -0.07903549 -0.024111819 -0.06969471 0.03932811 0.0145112965 0.01984856 0.046782494
-0.10845779 -0.04910078 0.008380181 -0.109036915 0.052832697 -0.10832763 0.10302957 0.13834561
0.010668535 -0.05559284 0.10845115 -0.0716501 0.019735707 0.07114599 0.12933457 0.0035333454
0.0038671286 -0.01903817 -0.106995165 0.037494443 -0.09366386 0.015588421 -0.026899066 0.08538118
-0.042271882 0.101253934 -0.029521631 -0.020882204 -0.10258771 0.11790413 0.0015592678 -0.110824205
0.0010551112 0.057666887 -0.032681126 0.09122594 0.065222 -0.017264372 0.1383809 0.100381516
-0.019672662 -0.00214003 0.046237707 -0.03298321 0.08593129 -0.10691238 -0.06654857 0.06148382
00000000: fdb8 ec3c 706a da3d af06 8c3c d04c 553d
00000010: e64e b3bd d64c b5bd a763 8ebd 1f2a 90bd
00000020: 9ab8 4cbd 5cdd a1bd 2686 c5bc 1abc 8ebd
00000030: 8316 213d cac0 6d3c 7399 a23c 009f 3f3d
00000040: 1e1f debd e61d 49bd 074d 093c bf4e dfbd
00000050: 1967 583d e0da ddbd 2b01 d33d 79aa 0d3e
00000060: 14cb 2e3c 51b5 63bd a31b de3d 4abd 92bd
00000070: c7ac a13c fdb4 913d 4870 043e b38f 673b
00000080: a76f 7d3b f0f5 9bbc 4820 dbbd c693 193d
00000090: d6d2 bfbd 9466 7f3c 6e5b dcbc 54dc ae3d
000000a0: 4825 2dbd 395e cf3d 59d7 f1bc 2811 abbc
000000b0: 8119 d2bd b877 f13d 5860 cc3a cdf7 e2bd
000000c0: a84b 8a3a 1d34 6c3d a5dc 05bd aad4 ba3d
000000d0: 1d93 853d 036e 8dbc b9b3 0d3e d394 cd3d
000000e0: 9028 a1bc bf3f 0cbb c063 3d3d 6719 07bd
000000f0: bffc af3d e1f4 dabd 9e4a 88bd 75d6 7b3d

gkf.gat_rnn.r_input_gru.weight_ih_l0 f4 [192, 64]
-0.123234294 -0.039607994 -0.06448979 0.060198814 0.006293169 -0.08605126 0.09444173 -0.055138975
-0.010048898 0.04220353 -0.0885876 -0.009616336 -0.042113695 -0.025981504 -0.042318296 0.08215922
-0.06515278 -0.08988499 0.04989793 0.04520043 0.0049106376 0.011418062 0.12504168 -0.033225022
-0.1135906 -0.1253821 0.043527853 0.052709725 0.0029155975 -0.109137885 -0.094199896 -0.08165013
0.080677256 0.027427454 -0.065910436 -0.12317945 0.07667016 -0.0034325647 0.11893266 -0.09945895
-0.10583951 0.02441505 0.08616764 0.077111244 0.1276677 0.07586645 0.05901758 -0.07923814
0.12547268 -0.051502988 0.076980665 0.04893196 -0.07501347 -0.006616586 -0.0055957204 0.09361302
0.09456307 0.029305466 -0.06978228 0.039717562 0.10651076 -0.070672 0.10155395 0.029646201
0.06153433 0.035580713 0.071909554 -0.09911428 0.043462176 -0.10924732 -0.010627064 0.08992759
-0.105044745 -0.10301966 -0.061659046 0.00058382656 -0.01845256 -0.099257104 0.011455673 -0.03549837
-0.06536941 -0.0045702513 0.03561592 0.01874755 -0.09311165 0.07626002 0.022645714 -0.059360575
0.115405075 0.015533862 0.053036466 0.08738213 -0.010748054 0.096689284 -0.0034125727 0.098905675
0.006817089 0.0558501 0.06197199 -0.07741467 0.1091113 -0.0034169874 0.047054175 -0.09375149
-0.053789265 0.088490315 -0.084830604 0.01346669 0.108850375 -0.12585635 -0.007298653 0.02484748
0.080445915 -0.042668805 -0.11559146 -0.07670825 0.04392249 -0.09158801 -0.1137656 -0.015611723
0.032393206 -0.08656549 -0.055310156 0.06576811 -0.09143492 -0.10943814 -0.0481144 0.089425765
-0.036573745 -0.08678065 -0.09009479 -0.029282453 0.085306026 0.046743188 -0.04402818 -0.11016989
-0.07580344 0.023409612 0.099348076 0.06351243 -0.017832795 0.06667472 0.008870433 0.016461862
0.05344188 -0.035193138 0.032028515 0.012385235 0.03847134 -0.030718058 0.07954659 -0.114139505
0.0844268 -0.10042483 -0.08044631 -0.07632909 -0.011735152 -0.017453298 -0.12149887 0.06649949
0.028694615 0.12219926 -0.0881157 -0.1071744 0.03278141 0.09053545 0.08323377 0.049138185
0.0152868135 0.06920266 -0.05129012 -0.12766832 -0.10467689 -0.08372246 0.027495965 0.112551466
0.079608776 -0.08087376 0.035633348 0.1113839 0.0026956208 -0.015391751 -0.06235168 -0.015091683
0.092781074 -0.03718233 -0.021564577 0.06092984 -0.04776828 -0.061853413 0.0112526845 0.090581276
-0.0023349633 -0.011182938 -0.1055264 0.085504234 -0.00042219937 -0.058827184 -0.11368853 -0.06566853
-0.09231635 0.019256987 0.08802848 -0.029284613 0.07496295 -0.02997053 -0.06352253 -0.119716346
-0.088925205 0.090812944 0.07916091 0.11589267 -0.02582104 0.031718075 -0.007884802 0.10680115
-0.09351047 -0.045893595 -0.13343193 0.008634393 -0.10551885 -0.091454625 0.02415127 0.12050762
0.09857104 0.080883354 -0.03445414 -0.008355509 -0.11624974 0.079053074 0.030156063 0.103210196
-0.12473314 -0.02815144 -0.08572522 -0.0993542 -0.0774336 0.03331515 0.077085264 0.06136401
-0.047338016 0.05208244 0.12914455 -0.00024375913 -0.036706366 -0.109477766 0.07576492 -0.032900877
-0.103302084 0.06573134 0.019266143 -0.05504548 -0.13003036 0.00986751 -0.049556393 -0.033429656
00000000: 4362 fcbd fe3b 22bd 3913 84bd 0893 763d
00000010: ee36 ce3b a53b b0bd aa6a c13d 68d9 61bd
00000020: 22a4 24bc 9cdd 2c3d 6a6d b5bd d68d 1dbc
00000030: 697f 2cbd 2ad7 d4bc f355 2dbd 1843 a83d
00000040: d26e 85bd 9f15 b8bd c661 4c3d 1624 393d
00000050: 6ae9 a03b d312 3b3c ed0a 003e f616 08bd
00000060: 30a2 e8bd 2a64 00be 434a 323d 27e6 573d
00000070: 9c13 3f3b af83 dfbd e0eb c0bd 2f38 a7bd
00000080: 1e3a a53d 8aaf e03c 0dfc 86bd 8245 fcbd
00000090: 3f05 9d3d e1f4 60bb f792 f33d 22b1 cbbd
000000a0: 63c2 d8bd 1202 c83c a978 b03d 80ec 9d3d
000000b0: 52bb 023e df5f 9b3d 6bbc 713d 9b47 a2bd
000000c0: e97b 003e ccf4 52bd 0aa8 9d3d e16c 483d
000000d0: aaa0 99bd f2cf d8bb 4e5c b7bb 2fb8 bf3d
000000e0: 48aa c13d 0412 f03c 03ea 8ebd e2ae 223d
000000f0: 5022 da3d 7bbc 90bd 84fb cf3d 97dc f23c
00000100: 6c0b 7c3d 15bd 113d 5145 933d 6dfc cabd
00000110: 6505 323d 0fbd dfbd 231d 2ebc f52b b83d
00000120: b321 d7bd f9fb d2bd 328e 7cbd f00b 193a
00000130: d329 97bc 4f47 cbbd 93b0 3b3c bd66 11bd
00000140: 66e0 85bd 0cc2 95bb 00e2 113d 7694 993c
00000150: 52b1 bebd 372e 9c3d 8183 b93c 1324 73bd
00000160: 7f59 ec3d bd81 7e3c c43c 593d 67f5 b23d
00000170: 9b18 30bc 0805 c63d 78a5 5fbb 0f8f ca3d
00000180: e361 df3b 13c3 643d 57d6 7d3d 958b 9ebd
00000190: bf75 df3d 89ef 5fbb e1bb 403d c800 c0bd
000001a0: 2252 5cbd 693a b53d abbb adbd 64a3 5c3c
000001b0: f2ec de3d 7de0 00be 8a29 efbb f18c cb3c
000001c0: d4c0 a43d 7cc5 2ebd 37bb ecbd 3719 9dbd
000001d0: 12e8 333d 7f92 bbbd f0fd e8bd 50c8 7fbc
000001e0: bdae 043d 3f49 b1bd e78c 62bd 6eb1 863d
000001f0: 3b42 bbbd 1b21 e0bd 9b13 45bd db24 b73d
00000200: 5ace 15bd 0eba b1bd 9e83 b8bd c1e1 efbc
00000210: edb4 ae3d c975 3f3d e556 34bd c0a0 e1bd
00000220: d53e 9bbd 84c5 bf3c 0177 cb3d ce12 823d
00000230: 1516 92bc c18c 883d 4b55 113c 07db 863c
00000240: dfe5 5a3d ae26 10bd 5530 033d 71eb 4a3c
00000250: 2094 1d3d 70a4 fbbc 53e9 a23d f9c1 e9bd
00000260: f5e7 ac3d 89ab cdbd 09c1 a4bd 6d52 9cbd
00000270: cc44 40bc 38fa 8ebc 66d4 f8bd e230 883d
00000280: f810 eb3c 9b43 fa3d 0176 b4bd 407e dbbd
00000290: cd45 063d a66a b93d 7876 aa3d 1f45 493d
000002a0: 8b75 7a3c 20ba 8d3d 9715 52bd 7cbb 02be
000002b0: d660 d6bd ae76 abbd 383f e13c 6281 e63d
000002c0: ed09 a33d 24a1 a5bd 46f4 113d 3e1d e43d
000002d0: 03a9 303b af2d 7cbc 7a64 7fbd 1b43 77bc
000002e0: 0104 be3d 804c 18bd 32a8 b0bc 9191 793d
000002f0: aca8 43bd 015a 7dbd 2e5d 383c ad82 b93d
00000300: 2f06 19bb a438 37bc 3a1e d8bd d81c af3d
00000310: a45a ddb9 c6f4 70bd 88d5 e8bd 397d 86bd
00000320: 5b10 bdbd d4c0 9d3c 4748 b43d 49e6 efbc
00000330: 2d86 993d c284 f5bc 1a18 82bd d82d f5bd
00000340: 6b1e b6bd 23fc b93d 1d1f a23d 2359 ed3d
00000350: a586 d3bc d0ea 013d 422f 01bc 90ba da3d
00000360: 6b82 bfbd ecfa 3bbd 61a2 08be 4577 0d3c
00000370: 441a d8bd 904c bbbd e2d8 c53c b3cc f63d
00000380: 9ddf c93d 2ca6 a53d c91f 0dbd 8be5 08bc
00000390: 5814 eebd 94e6 a13d d909 f73c de5f d33d
000003a0: 1774 ffbd d99d e6bc b490 afbd 377a cbbd
000003b0: 8295 9ebd 7775 083d e1de 9d3d d458 7b3d
000003c0: 82e5 41bd 6654 553d 783e 043e 9899 7fb9
000003d0: 6a59 16bd e135 e0bd a32a 9b3d 12c3 06bd
000003e0: 0b90 d3bd 279e 863d 08d4 9d3c 5f77 61bd
000003f0: ae26 05be 56ab 213c a5fb 4abd 89ed 08bd

gkf.gat_rnn.r_input_gru.weight_hh_l0 f4 [192, 64]
-0.03936301 -0.057844687 -0.1060035 -0.015315537 -0.057823073 0.11265004 0.11694473 -0.08655406
0.005077662 -0.10291581 0.062709965 0.08806592 -0.07326652 -0.09190726 -0.024253622 0.10559478
0.08635052 -0.0729129 -0.0012728638 -0.09133372 0.11807375 0.06040625 -0.054306794 0.04878512
0.013686654 -0.078036025 -0.11099834 0.06994578 -0.09807982 0.07345137 -0.03997639 0.0664893
0.04575182 0.0773055 -0.059198238 0.06399646 0.03603404 0.008270484 -0.0037364871 -0.0023590215
0.074256934 0.06740439 -0.04758407 0.0009613254 -0.029454809 -0.04894524 0.057139535 0.11894055
0.061294053 -0.033647783 0.067642145 0.11871542 0.030303255 0.105516195 0.033282686 -0.02601782
0.032854374 0.032364354 0.034386113 -0.0372163 -0.0909513 -0.11579886 -0.08108636 0.08016529
-0.033096783 -0.101655245 0.09518354 -0.114159435 0.025951074 0.110245615 -0.06401437 -0.007891958
0.121995375 0.10568486 0.09117979 -0.016287435 0.07972255 0.053763587 0.009132883 0.10998082
0.035324596 0.08529094 -0.096517354 0.03441741 -0.11463089 0.022327235 0.036387537 0.07861338
0.059450865 -0.04917133 0.0697436 -0.12032653 0.11272485 0.05658228 -0.020723289 0.038008913
0.073217236 -0.098026864 0.07960923 0.03498934 0.119788125 0.009316879 0.017579528 0.027725382
0.09976132 -0.09825187 0.07258405 0.07136054 -0.007628647 -0.076093815 0.09582467 0.0726778
-0.029279096 0.019102365 -0.04106217 -0.055447318 0.119754985 0.051754564 0.005931014 0.08409368
0.09172367 0.06461533 0.05778976 -0.086838655 -0.055012356 0.10653995 0.04091519 0.03257408
-0.080650434 -0.056940116 -0.04500874 0.058799133 -0.04871264 0.09359337 -0.08776977 -0.02160499
0.10569203 -0.053012006 0.0026915094 -0.03646818 0.042336997 -0.06346543 -0.09317111 -0.0474455
0.05447237 -0.032818653 -0.094098926 -0.02463374 -0.05243768 0.1062125 -0.020479579 0.056565445
0.12056146 -0.08772307 0.04480435 0.017483488 0.1074464 0.0076508736 0.040305164 -0.12379266
0.1179471 -0.093304716 0.09344654 -0.08425225 0.023699911 0.0014301928 0.0916654 -0.115835994
0.10427282 0.1222738 0.03364958 0.11203579 0.09922263 0.005421442 0.06930763 0.008583234
0.03288493 -0.08578136 -0.03686747 -0.0658619 -0.07137039 -0.08207249 -0.055248152 0.024378845
-0.0022059644 0.056792222 0.059526943 -0.033557143 0.08750069 -0.086017616 -0.07354005 0.1219746
0.055094898 0.06233089 -0.12562339 0.088039525 -0.098173715 0.02402561 -0.06281613 0.04239303
-0.062308036 -0.11508181 -0.1075378 -0.08892424 -0.048226513 0.011698053 -0.03622966 -0.04131695
0.029540876 0.11294672 -0.040157717 0.09457231 -0.057484597 0.10764932 -0.050229516 -0.056878857
-0.030648926 -0.020504061 -0.08560683 0.090862386 -0.09779981 0.003183938 -0.11466792 -0.07939313
0.017727308 -0.015383496 -0.026722286 0.003918031 -0.044180684 -0.11726322 0.0010222429 0.037690464
0.0844419 -0.06801606 -0.08718139 -0.10692852 0.06415231 -0.10631107 0.09279783 0.04999955
0.08993437 -0.050448515 0.08305676 -0.04877377 -0.010222077 0.10087659 -0.06180841 -0.027903583
0.020514391 0.046266697 -0.012112656 -0.09248471 -0.03169998 0.04276848 -0.09819188 -0.108674556
00000000: 1c3b 21bd 8dee 6cbd 5d18 d9bd 05ee 7abc
00000010: e3d7 6cbd 10b5 e63d b880 ef3d 4143 b1bd
00000020: 8462 a63b 86c5 d2bd 156e 803d e85b b43d
00000030: c20c 96bd e039 bcbd 88af c6bc 1342 d83d
00000040: 8bd8 b03d 5c53 95bd 39d6 a6ba 2c0d bbbd
00000050: a6d0 f13d 8b6c 773d cd70 5ebd e8d2 473d
00000060: fd3d 603c 5ad1 9fbd 1953 e3bd bc3f 8f3d
00000070: 13de c8bd ac6d 963d 48be 23bd 8b2b 883d
00000080: 4366 3b3d 5952 9e3d da79 72bd 9310 833d
00000090: 6e98 133d ed80 073c dadf 74bb d099 1abb
000000a0: 0514 983d 500b 8a3d 84e7 42bd 7501 7c3a
000000b0: 364b f1bc ce7a 48bd 250b 6a3d 1a97 f33d
000000c0: 790f 7b3d 42d2 09bd f787 8a3d 1221 f33d
000000d0: 883e f83c e018 d83d 6d53 083d 5323 d5bc
000000e0: 4f92 063d 7c90 043d 74d8 0c3d 1e70 18bd
000000f0: ad44 babd f427 edbd 9b10 a6bd b32d a43d
00000100: 7e90 07bd a030 d0bd 96ef c23d 6ccc e9bd
00000110: 5997 d43c 74c8 e13d f719 83bd 454d 01bc
00000120: b6d8 f93d 4e71 d83d 78bc ba3d 3a6d 85bc
00000130: 9445 a33d 3537 5c3d 16a2 153c a03d e13d
00000140: 86b0 103d 04ad ae3d e4aa c5bd 45f9 0c3d
00000150: 9ac3 eabd 9be7 b63c 190b 153d 0d00 a13d
00000160: c082 733d e067 49bd bcd5 8e3d c16d f6bd
00000170: 49dc e63d d2c2 673d e3c3 a9bc 3caf 1b3d
00000180: ebf2 953d 4fc2 c8bd 2a0a a33d fb50 0f3d
00000190: 7a53 f53d d3a5 183c f102 903c 5720 e33c
000001a0: aa4f cc3d 4738 c9bd f2a6 943d 7a25 923d
000001b0: bbf9 f9bb 13d7 9bbd b93f c43d 19d8 943d
000001c0: b7da efbc 907c 9c3c ce30 28bd ba1c 63bd
000001d0: 1a42 f53d 98fc 533d f458 c23b 4f39 ac3d
000001e0: 9fd9 bb3d 0b55 843d f5b4 6c3d 77d8 b1bd
000001f0: a354 61bd 9e31 da3d b096 273d 666c 053d
00000200: 0e2c a5bd 0a3a 69bd 165b 38bd 5cd7 703d
00000210: e886 47bd e1ad bf3d a3c0 b3bd f3fc b0bc
00000220: 1075 d83d 1e23 59bd 0964 303b a95f 15bd
00000230: 8f69 2d3d 2afa 81bd 7fd0 bebd 3656 42bd
00000240: 6b1e 5f3d da6c 06bd f0b6 c0bd b2cc c9bc
00000250: e5c8 56bd f085 d93d cac4 a7bc 2bb1 673d
00000260: ede8 f63d 27a8 b3bd c484 373d 8839 8f3c
00000270: dc0c dc3d 2eb4 fa3b 0717 253d 0287 fdbd
00000280: 408e f13d 8b16 bfbd e660 bf3d 728c acbd
00000290: 5126 c23c 4f75 bb3a 12bb bb3d 6c3b edbd
000002a0: fd8c d53d b06a fa3d 24d4 093d 0573 e53d
000002b0: 3c35 cb3d 5aa6 b13b 29f1 8d3d b1a0 0c3c
000002c0: 59b2 063d 23ae afbd 5802 17bd 9be2 86bd
000002d0: a42a 92bd 9f15 a8bd e34b 62bd 25b6 c73c
000002e0: f191 10bb f69e 683d 86d2 733d 3773 09bd
000002f0: 9033 b33d 012a b0bd 2a9c 96bd d2cd f93d
00000300: 30ab 613d ad4e 7f3d 6ba3 00be 114e b43d
00000310: 4d0f c9bd 5bd1 c43c bea5 80bd 50a4 2d3d
00000320: b636 7fbd 03b0 ebbd c73c dcbd e91d b6bd
00000330: 2a89 45bd 31a9 3f3c 8d65 14bd f63b 29bd
00000340: b5ff f13c 9c50 e73d 6b7c 24bd 21af c13d
00000350: f874 6bbd 3f77 dc3d 77bd 4dbd cef9 68bd
00000360: 7513 fbbc 22f8 a7bc a252 afbd 0f16 ba3d
00000370: 444b c8bd 9ea9 503b 04d7 eabd de98 a2bd
00000380: dc38 913c 0f0b 7cbc b2e8 dabc d462 803b
00000390: cef6 34bd b327 f0bd c8fc 853a 5161 1a3d
000003a0: e0ef ac3d 014c 8bbd 288c b2bd 57fd dabd
000003b0: 4962 833d 9eb9 d9bd ca0c be3d 54cc 4c3d
000003c0: 832f b83d 1aa3 4ebd aa19 aa3d 01c7 47bd
000003d0: 807a 27bc 6398 ce3d d12a 7dbd 0e96 e4bc
000003e0: cc0d a83c 2682 3d3d 2974 46bc a068 bdbd
000003f0: d7d7 01bd 002e 2f3d d318 c9bd c490 debd

gkf.gat_rnn.r_input_gru.bias_ih_l0 f4 [192]
0.12574337 -0.07976635 -0.06950374 0.066416316 -0.023929058 0.122177094 -0.05482695 0.06284369
0.008286641 0.025391117 -0.12038286 -0.0039395597 -0.01626112 -0.07448223 0.07018831 0.11641976
0.11879021 0.08818504 -0.026934337 -0.07337256 0.06855534 0.10421228 -0.05241757 0.06988967
-0.05980022 -0.036497053 0.09192881 0.11778849 -0.11981881 0.06848102 0.11025602 0.031009277
0.05431225 0.046512675 0.009141434 0.07972448 -0.071122564 -0.018610988 -0.03338543 0.072732195
-0.088949256 0.05757326 -0.051977787 0.08235068 0.0045803026 0.013156947 0.044553295 0.039361604
0.045281135 0.07676651 -0.031007204 -0.05748646 0.05017485 -0.13169661 0.035659943 0.05606763
0.10357887 0.09218613 -0.06864645 -0.0866586 -0.03612159 -0.09735419 0.015308981 0.06300745
0.06292382 -0.13268529 0.04403051 -0.0664771 -0.064544134 -0.097201675 -0.04319263 -0.060217146
-0.073501945 0.093748435 -0.018631523 0.033980172 -0.035711743 0.063547835 -0.09367083 -0.034225542
-0.08748274 -0.08367812 -0.05804107 -0.12822342 -0.018911297 -0.12725522 0.0075676395 0.023352316
0.07223496 -0.10613706 -0.032995656 -0.024081431 -0.12471975 0.05533642 0.056621917 0.042233415
-0.02834002 0.005164351 0.05672944 -0.06737365 0.032623395 0.03595734 -0.12836297 -0.07669179
-0.079429984 -0.10577918 0.07894259 -0.05464004 -0.036563665 -0.12237079 0.091314286 -0.021494608
0.08303383 0.09357611 -0.062236715 -0.006320957 0.048552282 0.10388447 -0.02964416 -0.059716135
0.11232212 0.06702827 -0.08346619 0.040096477 -0.11006767 0.030432796 0.027632175 -0.058658894
-0.047233652 0.060970407 -0.00030242492 -0.09249774 0.062079873 0.039137192 -0.065899715 0.1006372
-0.104690015 0.027998801 -0.08213931 -0.12746805 0.06895665 0.104879215 -0.10109958 -0.07242798
-0.0640057 -0.10035565 0.011874496 0.09892144 0.030883867 -0.057503674 -0.05657312 0.012534186
-0.06898228 -0.11010661 0.0019562694 0.0040899245 -0.08883185 -0.09460287 0.11180877 0.007192259
-0.02586996 -0.06438414 0.07878117 0.026276408 0.11037432 -0.021633137 -0.08244054 0.07843087
-0.04907861 0.09580302 -0.006106386 0.019793699 -0.07627361 -0.12888755 -0.06813675 0.037607834
-0.11311534 -0.027951043 -0.0018204231 0.023398666 -0.13162103 -0.019754821 -0.018151948 0.014959939
-0.04270079 0.106616974 -0.02381241 0.10298967 0.11913806 0.05386579 0.06484029 0.12505709
00000000: dfc2 003e 8a5c a3bd fa57 8ebd 4705 883d
00000010: df06 c4bc fc37 fa3d 3992 60bd 31b4 803d
00000020: b1c4 073c 0801 d03c 4a8b f6bd 6c17 81bb
00000030: 0a36 85bc 248a 98bd e4be 8f3d 7c6d ee3d
00000040: 4848 f33d 5c9a b43d 66a5 dcbc 5a44 96bd
00000050: be66 8c3d 3f6d d53d ceb3 56bd 5122 8f3d
00000060: 13f1 74bd ef7d 15bd 2c45 bc3d 183b f13d
00000070: 9063 f5bd c73f 8c3d e9cd e13d 2b07 fe3c
00000080: 8676 5e3d 1384 3e3d f4c5 153c 9746 a33d
00000090: b5a8 91bd 1276 98bc 29bf 08bd 9ef4 943d
000000a0: 072b b6bd f0d1 6b3d a9e6 54bd 79a7 a83d
000000b0: 5d16 963b 3c90 573c 847d 363d a239 213d
000000c0: b678 393d c337 9d3d d202 febc ec76 6bbd
000000d0: 2584 4d3d 7adb 06be 2910 123d 2ca7 653d
000000e0: 2921 d43d 15cc bc3d 8396 8cbd 107a b1bd
000000f0: 3bf4 13bd a261 c7bd 85d2 7a3c 0d0a 813d
00000100: 34de 803d a7de 07be 5659 343d 2525 88bd
00000110: b72f 84bd ac11 c7bd c1ea 30bd 41a6 76bd
00000120: 3088 96bd 2eff bf3d 23a1 98bc cb2e 0b3d
00000130: 7a46 12bd 5e25 823d 7ed6 bfbd 1530 0cbd
00000140: 272a b3bd 6f5f abbd 79bc 6dbd 004d 03be
00000150: ddeb 9abc 314f 02be f6f9 f73b 5b4d bf3c
00000160: ecef 933d 635e d9bd 7426 07bd 6c46 c5bc
00000170: 116d ffbd 71a8 623d 62ec 673d f2fc 2c3d
00000180: 5429 e8bc b739 a93b 215d 683d 32fb 89bd
00000190: 1ca0 053d 0148 133d 9571 03be 9610 9dbd
000001a0: 30ac a2bd c1a2 d8bd a7ac a13d 3cce 5fbd
000001b0: c8c3 15bd 899d fabd fc02 bb3d 7615 b0bc
000001c0: a40d aa3d d5a4 bf3d edeb 7ebd 0820 cfbb
000001d0: c2de 463d 62c1 d43d 4fd8 f2bc e898 74bd
000001e0: 2409 e63d 1e46 893d 52f0 aabd 343c 243d
000001f0: 296b e1bd 334e f93c df5c e23c 4f44 70bd
00000200: 1378 41bd 1bbc 793d c98e 9eb9 756f bdbd
00000210: 7747 7e3d 524e 203d 6ef6 86bd e01a ce3d
00000220: b867 d6bd be5d e53c a838 a8bd fc86 02be
00000230: 2539 8d3d eaca d63d 4c0d cfbd 1f55 94bd
00000240: 6c15 83bd 4387 cdbd 3f8d 423c 5397 ca3d
00000250: 2a00 fd3c f988 6bbd 37b9 67bd 305c 4d3c
00000260: 9546 8dbd 937f e1bd c134 003b c604 863b
00000270: 79ed b5bd 26bf c1bd fffb e43d 0bad eb3b
00000280: 3ded d3bc d5db 83bd 0658 a13d 9f41 d73c
00000290: ee0b e23d fa37 b1bc 96d6 a8bd 5da0 a03d
000002a0: a706 49bd 6034 c43d 1418 c8bb 6526 a23c
000002b0: 5735 9cbd 19fb 03be 488b 8bbd ac0a 1a3d
000002c0: 04a9 e7bd 96f9 e4bc 439b eeba 8fae bf3c
000002d0: aac7 06be ddd4 a1bc 65b3 94bc 881a 753c
000002e0: 06e7 2ebd 005a da3d 3e12 c3bc 40ec d23d
000002f0: a8fe f33d 60a2 5c3d fcca 843d f70e 003e

gkf.gat_rnn.r_input_gru.bias_hh_l0 f4 [192]
-0.0965408 -0.1001302 0.033514403 -0.041696712 -0.060200654 -0.10029718 0.03235854 0.09572492
-0.057289157 0.052159302 0.0534059 0.019291323 -0.076023184 0.07186124 0.054738138 -0.047069035
0.08953747 0.08870712 -0.059573896 -0.114892185 0.035843365 0.07843704 -0.018101742 0.09892998
-0.0148393 -0.0013557997 0.07695651 -0.01622331 0.08291191 0.017174251 0.045974564 -0.012317427
-0.0030725095 0.04149423 -0.075934805 -0.052146092 0.028734356 -0.036155567 -0.0523437 -0.07844174
-0.035658862 0.121678896 -0.063850686 0.029801141 0.11842402 0.08934596 -0.0026956312 -0.035779472
0.09652379 0.034087986 -0.109402984 -0.07085475 -0.0323458 -0.027584923 -0.053845987 0.02640763
0.056851093 -0.09816115 -0.08662235 0.060752932 -0.12678146 0.04854037 0.030394698 -0.12516546
-0.012168603 0.08432574 -0.01384271 -0.026883276 -0.10251409 -0.008215525 -0.13006604 0.08218673
-0.11630532 -0.034497734 0.042980254 -0.022307439 0.017024487 0.00034879378 -0.025897356 -0.04338384
0.09129252 0.016572336 -0.010838977 0.030145433 0.025467962 0.044055786 -0.00978227 -0.0077576465
-0.025791451 -0.100269966 -0.018795088 -0.100263454 0.06936436 0.047265206 0.015956592 -0.13317764
-0.0022659148 0.009796371 0.016653802 0.111150116 0.080746636 0.02984398 0.1021081 -0.027178258
0.07428409 -0.0037542637 0.0084985765 0.02044713 -0.023112247 0.11047465 0.08328861 -0.06418788
-0.11119428 0.10527579 0.043518256 -0.06172229 -0.13787228 -0.022947062 0.03143813 0.097244985
0.041841757 0.0034407056 0.0971531 0.027736196 0.03711732 -0.025829952 0.10095881 0.038673896
-0.010582912 0.030720253 -0.08248289 -0.0973063 0.13102488 0.05694888 0.030435255 -0.08140782
0.10143694 -0.007358552 0.02289305 -0.09274994 -0.030332617 0.037230622 -0.04480261 0.023677375
-0.092695445 -0.056966256 -0.09877623 0.09893193 0.0032346284 0.022154925 0.06258457 0.11087375
0.111279875 0.073984474 -0.008264756 0.049905516 0.04581224 0.05526626 -0.10201878 -0.1048535
-0.12903346 0.07455519 0.11256942 0.10426412 0.038641606 0.01659882 -0.06790951 0.11070227
0.08625968 2.4117096e-05 -0.122559585 0.10366649 -0.07958566 -0.050923914 0.101681165 -0.073673084
0.068809256 0.055254735 -0.05385414 -0.12042021 -0.04166437 -0.078316115 -0.1285045 0.11769674
-0.05432429 -0.05192975 0.07052621 -0.034586847 -0.01729518 -0.10188582 -0.016295796 -0.08540324
00000000: 2fb7 c5bd 1011 cdbd 6646 093d 2cca 2abd
00000010: f694 76bd 9c68 cdbd 638a 043d 6d0b c43d
00000020: 09a8 6abd fea4 553d 25c0 5a3d d608 9e3c
00000030: 0bb2 9bbd fc2b 933d 1935 603d 76cb 40bd
00000040: 6c5f b73d 14ac b53d c203 74bd 984c ebbd
00000050: 7ed0 123d 99a3 a03d 1b4a 94bc cd9b ca3d
00000060: 8920 73bc 17b5 b1ba 609b 9d3d bfe6 84bc
00000070: b8cd a93d 04b1 8c3c d34f 3c3d 09cf 49bc
00000080: 285c 49bb dbf5 293d b583 9bbd 2497 55bd
00000090: 5064 eb3c dc17 14bd 5966 56bd 10a6 a0bd
000000a0: 070f 12bd c932 f93d 26c4 82bd 8621 f43c
000000b0: 4b88 f23d 04fb b63d 30a9 30bb 7f8d 12bd
000000c0: 44ae c53d d89f 0b3d ac0e e0bd 4c1c 91bd
000000d0: 087d 04bd c7f9 e1bc 9c8d 5cbd d054 d83c
000000e0: b1dc 683d b708 c9bd 0f67 b1bd 11d8 783d
000000f0: 00d3 01be 44d2 463d 4dfe f83c 602b 00be
00000100: d25e 47bc f9b2 ac3d 89cc 62bc 513a dcbc
00000110: e8f2 d1bd 699a 06bc 0830 05be 8451 a83d
00000120: 7c31 eebd 7f4d 0dbd 100c 303d 17be b6bc
00000130: f076 8b3c 4fde b639 b126 d4bc 41b3 31bd
00000140: 93f7 ba3d b5c2 873c f795 31bc 8ef3 f63c
00000150: 30a2 d03c d773 343d d045 20bc db33 febb
00000160: 9848 d3bc 575a cdbd 28f8 99bc ed56 cdbd
00000170: e70e 8e3d 2999 413d 66b7 823c b85f 08be
00000180: be7f 14bb f580 203c 8e6d 883c aca2 e33d
00000190: 7e5e a53d 5d7b f43c 0d1e d13d f0a4 debc
000001a0: 4222 983d 180a 76bb 9d3d 0b3c bd80 a73c
000001b0: e555 bdbc 8940 e23d 3893 aa3d ef74 83bd
000001c0: d4b9 e3bd d59a d73d 3340 323d 83d0 7cbd
000001d0: 642e 0dbe 7afb bbbc 45c5 003d 6128 c73d
000001e0: 4362 2b3d 767d 613b 34f8 c63d 0537 e33c
000001f0: 5508 183d 5699 d3bc 7ec3 ce3d 8568 1e3d
00000200: f363 2dbc 0aa9 fb3c caec a8bd 8748 c7bd
00000210: 632b 063e 3b43 693d 5b53 f93c 25b9 a6bd
00000220: 2cbe cf3d 0220 f1bb 358a bb3c aef3 bdbd
00000230: 1c7c f8bc 237f 183d f182 37bd 0ef7 c13c
00000240: 1cd7 bdbd 7355 69bd 314b cabd d39c ca3d
00000250: 0ffc 533b 3f7e b53c 572c 803d c711 e33d
00000260: b4e6 e33d 2c85 973d e668 07bc ba69 4c3d
00000270: 9ea5 3b3d e05e 623d 39ef d0bd 6fbd d6bd
00000280: 5921 04be 64b0 983d cc8a e63d 6d88 d53d
00000290: a946 1e3d 40fa 873c 2414 8bbd dfb7 e23d
000002a0: eaa8 b03d 124f ca37 8500 fbbd 194f d43d
000002b0: cefd a2bd 9895 50bd 373e d03d eae1 96bd
000002c0: deeb 8c3d ca52 623d 2996 5cbd df9e f6bd
000002d0: 42a8 2abd 3364 a0bd af96 03be fd0a f13d
000002e0: 2683 5ebd 4ab4 54bd 0c70 903d f0aa 0dbd
000002f0: 9fae 8dbc 83a9 d0bd c37e 85bc e5e7 aebd

gkf.gat_rnn.gcn_nodes.bias f4 [64]
0.0210214 -0.0088768145 0.018895974 -0.0047881557 0.01885747 -0.024409637 0.017440991 0.01185413
-0.018883254 0.020637924 0.025834722 -0.019441668 -0.008336234 -0.015931595 -0.018449059 0.0110176345
-0.011990446 -0.003503575 -0.008203848 -0.013894717 -0.01319904 -0.008758303 0.027190685 0.02313172
0.02752199 -0.0027968856 0.016190005 0.014958751 0.012541131 0.010585661 -0.010958745 0.01538448
0.0037600386 -0.018089527 -0.02510872 -0.0023033416 0.020967038 -0.0051135486 0.0045979978 -0.012857239
0.01448352 -0.00590783 0.027490783 0.019447299 -0.0017691833 -0.010255297 -0.0115613425 -0.012754312
-0.0008673581 -0.023250233 0.003144281 0.023242587 0.02495043 0.013899869 -0.015141093 0.012077273
0.009475394 0.014536186 0.020988567 -0.005294046 0.016192157 0.002378969 -0.017863406 -0.0061553954
00000000: 1235 ac3c 0f70 11bc bbcb 9a3c f6e5 9cbb
00000010: fb7a 9a3c b8f6 c7bc 69e0 8e3c d337 423c
00000020: 0eb1 9abc dd10 a93c 57a3 d33c 2244 9fbc
00000030: b394 08bc fa82 82bc 7b22 97bc 4f83 343c
00000040: 9373 44bc 3c9c 65bb 6f69 06bc aba6 63bc
00000050: c940 58bc fc7e 0fbc 00bf de3c bc7e bd3c
00000060: cc75 e13c f44b 37bb e7a0 843c 8d15 753c
00000070: 5179 4d3c 7b6f 2d3c 4f8c 33bc 300f 7c3c
00000080: fb6a 763b 7d30 94bc cdb0 cdbc a9f3 16bb
00000090: 11c3 ab3c 8e8f a7bb cdaa 963b 2ba7 52bc
000000a0: 494c 6d3c 7896 c1bb 5a34 e13c f14f 9f3c
000000b0: f1e3 e7ba d505 28bc c96b 3dbc 76f7 50bc
000000c0: 6b5f 63ba 4677 bebc 4810 4e3b 3d67 be3c
000000d0: d864 cc3c 47bc 633c 5912 78bc c1df 453c
000000e0: af3e 1b3c 2f29 6e3c 37f0 ab3c ad79 adbb
000000f0: 6aa5 843c 7ae8 1b3b 4756 92bc 33b3 c9bb
