models/no_mismatch/kalman_process_50n_local_params_r4.pth (torch, 269474 bytes, 28 tensors)

gkf.gat_rnn.fc_delta_y_innov.0.weight f4 [64, 3]
000000 b8 cd e2 3e 2f 02 f5 3e 76 8d 0e be fd 32 04 3f
       0.44297576 0.47853228 -0.1392115 0.516403
000010 c6 23 12 be 0d 6e 11 3e fc 93 90 be ee 93 b5 3e
       -0.14271459 0.14202137 -0.28237903 0.35464424
000020 10 fb 0a 3f 3c 7d db be 42 da 05 3f 68 74 13 3e
       0.5428934 -0.42868984 0.5228616 0.14399874
000030 c8 0f df 3e fb d2 5a 3d c8 68 74 3e 0e 83 ad bd
       0.43566728 0.053423863 0.23868096 -0.08472262
000040 f9 61 ef 3e c3 c4 ff 3d 3a c2 8c be 03 bf 2e 3e
       0.46754435 0.12488701 -0.27491933 0.17065053
000050 54 b5 6d be a5 a8 18 bd 7b 04 88 be 46 b6 d0 3e
       -0.23213702 -0.037270207 -0.26565918 0.40764064
000060 68 3d ec be 0b 64 86 be 6f f5 06 be bb 99 b6 be
       -0.461406 -0.26248202 -0.13179563 -0.35664162
000070 42 62 8a 3d 63 ee 11 bf 2b d2 06 3f 1f 84 f6 be
       0.067570224 -0.57004374 0.5266444 -0.48147675
000080 00 2a f8 3e 5f 0f a0 3d 50 45 3e be 05 36 c6 3e
       0.48469543 0.07815432 -0.18581128 0.3871309
000090 8f 66 a1 3d a2 e4 e7 3e ca ed a1 3d 5b c3 3b be
       0.078808896 0.4529162 0.07906683 -0.18336241
0000a0 53 9e 1f 3e 29 67 3d be 0b b5 7b 3e 38 f1 09 3f
       0.1558774 -0.18496384 0.24580781 0.53883696
0000b0 27 1f be 3e 86 f1 86 be 96 76 b0 3e 37 1d 05 3e
       0.37133142 -0.26356143 0.34465474 0.12999426
0000c0 5b 9a 9b 3e de f5 b0 be 84 cf 13 bf b1 21 63 be
       0.303912 -0.34562582 -0.5773852 -0.22180821
0000d0 67 07 e4 be 66 74 03 3f c7 c5 2a 3e 72 1a 89 3e
       -0.44536898 0.51349485 0.16677009 0.2677799
0000e0 db a7 65 3e 38 b9 26 3a 74 b2 f0 3e 9f 22 bc be
       0.22427313 0.0006359997 0.4701115 -0.36745164
0000f0 e1 db 26 3d b4 03 d4 be 4e 1b 32 3e ce 7a 4c be
       0.040737037 -0.41409075 0.17393228 -0.19968721
000100 47 ce 34 3e 41 cc 06 be a7 93 f8 3e 78 d2 a9 be
       0.17656814 -0.13163854 0.4855015 -0.33168387
000110 e3 75 a4 be 5d 09 af be 0c 30 08 3f fd 32 60 3e
       -0.3212119 -0.3418683 0.53198314 0.2189445
000120 be 34 0f 3f 23 5b ef be dc 98 0d bf 5d 83 eb be
       0.55939853 -0.4674922 -0.5531137 -0.4599866
000130 ee 8a c3 be 93 9e 88 3e 60 2d 55 3e 35 4f 00 3f
       -0.38191932 0.26683483 0.2081809 0.5012086
000140 67 93 8a be 3c 9b cb be 80 78 a4 3e 54 f3 55 be
       -0.27065584 -0.39766872 0.32123184 -0.20893604
000150 d3 b4 b5 3e 6c 1b 05 be e7 50 bb 3e 4c 5e e7 be
       0.3548952 -0.12998742 0.3658516 -0.4518913
000160 65 b5 88 be 28 89 5b 3e e5 0f 01 3e 80 53 13 be
       -0.26700893 0.2143904 0.1260372 -0.14387321
000170 03 15 b0 3e fb a0 cf 3e 9c 8e d0 be 02 32 97 be
       0.3439103 0.40552506 -0.40733802 -0.2953034
000180 5e c0 08 3f 0f 5a 3f be 9d b7 38 be 68 9e 10 bf
       0.5341853 -0.18686698 -0.18038793 -0.5649171
000190 b7 12 9f be c7 8a 36 3e 2d 2d 9d bd 5c 6a d4 be
       -0.31068966 0.17826377 -0.07674632 -0.41487396
0001a0 6c ad 5a 3d 52 4f ce be 03 c8 f5 be 95 40 96 be
       0.053388044 -0.40294892 -0.4800416 -0.29346147
0001b0 3c 13 fc be e1 85 c4 be e1 e3 13 3f fe 61 f3 3d
       -0.49233425 -0.38383391 0.5776959 0.11883925
0001c0 b3 e8 3d 3e c2 28 0d bf a5 69 c4 be 93 70 42 be
       0.18545799 -0.55140316 -0.3836185 -0.18988256
0001d0 73 13 f4 3d df 0b 04 bf 63 c4 6f be 51 4e a3 be
       0.11917772 -0.51580614 -0.2341476 -0.31895688
0001e0 e0 64 38 3b a0 2d 49 be d1 23 a7 3b bf d6 ca be
       0.0028136298 -0.19646311 0.005100705 -0.39616963
0001f0 6b 2b c1 be 52 3c 9d be 37 42 33 be 09 1a f5 be
       -0.37728438 -0.30710083 -0.17505728 -0.47871426
000200 21 0d 02 3f 9a e7 e6 bd f8 b1 03 3f e3 8f 62 3e
       0.50801283 -0.11274643 0.51443434 0.22125201
000210 69 2d f9 be d7 a7 ce 3e 40 b7 17 be 9b 04 62 be
       -0.48667458 0.40362427 -0.14815998 -0.2207207
000220 9b 79 f5 be 0b 1c 10 bf 1e be 39 3e 56 86 e0 bd
       -0.4794434 -0.5629279 0.1813893 -0.109631225
000230 ae 5b 6d 3e 30 ea f8 be ba f0 e6 3e cf 02 cd be
       0.23179504 -0.4861617 0.45105535 -0.40041205
000240 22 c6 ca bd 4b 1f 0f 3e 8f 1a ac 3e cb eb ef 3e
       -0.09901072 0.13976781 0.33614013 0.46859583
000250 8a 81 0c 3f dd b8 dd be 1a 52 17 3e 9a b1 7c be
       0.5488516 -0.43305102 0.14777413 -0.24677125
000260 41 4f 92 bd 72 a8 e7 be 5b 3f 08 3f c2 b2 d8 be
       -0.07144023 -0.452457 0.5322167 -0.4232388
000270 93 e9 a0 3e 9f 78 6a 3e 76 1d 63 3e 18 28 a3 be
       0.31428203 0.22897576 0.22179207 -0.31866527
000280 0c 75 0c 3f 68 5a 1f 3e a9 60 92 3d a6 64 05 bf
       0.548661 0.15561831 0.07147343 -0.521067
000290 02 cf 85 3e 0e 7a b0 bd ae b7 85 be b5 7c 08 3f
       0.26134497 -0.0861703 -0.261167 0.5331529
0002a0 89 a0 09 3e 47 da 9f be ea eb 8b be 22 74 08 bd
       0.13440146 -0.3122122 -0.27328426 -0.033313878
0002b0 58 59 ae 3e 58 d5 e3 bd 63 d0 b2 be 96 de 39 be
       0.3405254 -0.111246765 -0.3492461 -0.18151316
0002c0 0f af d3 be e6 e0 56 3e 59 53 d6 3e f8 d0 0f bf
       -0.41344497 0.2098423 0.41860464 -0.56178236
0002d0 8e 26 0b 3e 22 17 a2 3e f2 aa 0a 3e de ae 57 be
       0.13588926 0.31658274 0.13541773 -0.210628
0002e0 b2 13 a5 3e 9d 80 ac 3e e1 6b 59 3e a0 51 d6 bd
       0.3224159 0.33691874 0.21232559 -0.104647875
0002f0 04 d3 19 be b2 7a 7f 3d 4e 69 cf bd 50 7e 21 be
       -0.15021902 0.06237287 -0.10127507 -0.1577084

gkf.gat_rnn.fc_delta_y_innov.0.bias f4 [64]
000000 b1 a7 ba 3e 02 0c fe 3e 81 ac 00 bd 72 fa cc bd
       0.36456063 0.49618536 -0.031414513 -0.10008706
000010 1d dc cb bc ea d8 76 bb d8 b1 29 3e 5d 91 31 3e
       -0.024885232 -0.0037665912 0.16571748 0.17340608
000020 36 6e 02 bf e5 09 50 be 7d 05 04 3f ab c0 7f 3e
       -0.5094942 -0.20316274 0.51570874 0.24975841
000030 ac d5 0c bd 99 c3 b5 be 5a 0a a5 be 2e ec fe be
       -0.03438346 -0.35500792 -0.3223446 -0.49789566
000040 45 52 3d be 3f eb 62 3e cc 68 cf 3e 68 47 92 3e
       -0.18488415 0.22160052 0.4050964 0.28570104
000050 2b 23 05 bf 17 22 b3 be a2 c2 9a bd 64 2e 14 3f
       -0.5200679 -0.34986946 -0.075566545 0.57883286
000060 6b de c4 3d 46 1d 01 be be 75 86 3e 87 fc 4e be
       0.09612735 -0.12608823 0.26261705 -0.20213519
000070 27 c2 b2 be 0d 8c e8 3e 9a 1b 85 be b3 2e d2 bd
       -0.3491375 0.4541935 -0.2599762 -0.102628134
000080 74 80 0f bf e4 57 d4 3e b9 eb ee 3e 93 3f 68 3e
       -0.5605538 0.41473305 0.46664217 0.22680502
000090 fd f4 d1 be 5a 86 10 bf b1 e6 e8 be d9 bb e6 3e
       -0.41007224 -0.56455004 -0.45488504 0.4506519
0000a0 d5 50 9e 3e 28 8a 02 3f 8d 9d 9e 3e 41 23 33 3e
       0.30921045 0.5099206 0.30979577 0.17493917
0000b0 cb 2a c9 3a 8d 32 df be bf 5e f4 be d9 4a 04 bf
       0.0015347836 -0.43593255 -0.47728536 -0.5167671
0000c0 21 01 88 3e 54 9b 84 be f4 2b ef bd 93 4e a8 be
       0.2656336 -0.25899756 -0.11678305 -0.32872447
0000d0 a8 0e 99 bd 5d 91 c2 be de d1 bb be 2b b3 61 3e
       -0.074734986 -0.38001528 -0.36683553 0.22041003
0000e0 60 4e 25 be 71 0d c6 3e 48 84 29 be db b0 e7 be
       -0.16143179 0.3868213 -0.16554368 -0.45252118
0000f0 79 4a 9e bd e8 4a 81 be f4 f1 37 be 40 2f 0c bf
       -0.07729048 -0.2525246 -0.17963392 -0.547596

gkf.gat_rnn.fc_delta_y_innov.2.weight f4 [64, 64]
000000 45 8a a3 3d e4 cc a0 bd d0 8c ba 3d 9e 7f 9d 3d
       0.07985357 -0.0785158 0.09108889 0.07690357
000010 4c b7 c3 3d 28 02 8f bd be b1 df 3d 27 b6 bc bc
       0.095564455 -0.06982833 0.109225735 -0.023036076
000020 45 b0 d1 3c f7 a8 e4 3d d7 04 06 bc 3b 0c a4 3c
       0.025596747 0.1116504 -0.008179865 0.020025363
000030 16 f5 70 bc 86 16 fd bd 6d e1 8b 3d ba 1b 01 be
       -0.014706871 -0.12357812 0.06830106 -0.12608233
000040 77 11 9f 3d 40 86 03 3e c2 5b 0a 3e e6 2c 1c bc
       0.07767003 0.12844181 0.13511565 -0.009532189
000050 d2 ef fd bd 42 9d 6e 3c 46 15 93 3d 43 51 c6 bd
       -0.12399258 0.01456386 0.07181792 -0.09683468
000060 53 88 d1 bc 26 ee 9e bd 25 06 44 3a 01 1a 40 bd
       -0.0255777 -0.07760267 0.0007477722 -0.0468998
000070 a9 6f 3e bd 47 19 89 bc 7a 6d e0 bd de 74 d6 3d
       -0.046493206 -0.016735686 -0.10958381 0.104715094
000080 20 b8 da 3d 02 9a ba bb c2 c9 ab 3c 04 3a 75 bd
       0.1067965 -0.0056946287 0.020970229 -0.05986978
000090 47 db e8 bd ba ef 01 be b0 17 e0 3c f0 50 5f bd
       -0.11369949 -0.12689105 0.027355045 -0.054520547
0000a0 9a ec 3e bd c8 36 49 bb fa 17 c2 bb 29 b8 50 bc
       -0.04661236 -0.0030702818 -0.0059232684 -0.01273922
0000b0 49 1d b6 3c 8b 65 52 bd 06 af 28 bd 3a 63 75 bd
       0.022230761 -0.05136637 -0.04118254 -0.059909083
0000c0 24 13 90 bd 25 a2 e0 3d 93 6d 49 bd de 61 4a 3d
       -0.07034901 0.109684266 -0.049176764 0.04940974
0000d0 34 e0 14 bd 50 93 e3 3c 0b 4b 06 3e da 1f be 3d
       -0.03634663 0.027780205 0.13114564 0.09283419
0000e0 da cf dd bd 43 66 95 3d 6f d7 cc 3d 13 5f 0d 3d
       -0.1083066 0.072948955 0.10002028 0.034514498
0000f0 0f 39 c0 3d 1e b5 14 3e 48 0d 8f bc 02 d4 b3 3c
       0.09385883 0.14522216 -0.017462388 0.02195168
000100 c5 ff b4 bd 65 40 e2 bc e2 2c aa 3d e0 d8 7f 3d
       -0.08837847 -0.027618596 0.08309342 0.062462687
000110 ac c4 a0 bd e2 e9 de bd d8 6b ae bd e5 fa 1b be
       -0.07850012 -0.10884453 -0.08516663 -0.15232427
000120 ef 0f bf bd 21 b4 c4 bc a5 a2 a3 3d 66 97 bf ba
       -0.09329211 -0.024011673 0.07990006 -0.0014617264
000130 4c 8a cd bd b3 e4 bb bd 2d b4 7c 3d f8 5d b7 bd
       -0.10036144 -0.0917448 0.061695267 -0.0895347
000140 5a 96 fd bb d0 ce 30 3d 4a 1a 8e bd 81 70 97 bc
       -0.0077388706 0.04316598 -0.06938608 -0.018486263
000150 c2 b4 8d 3b a1 19 b9 bc c3 fd 70 bd a6 b6 f8 bd
       0.0043245265 -0.022595229 -0.058835756 -0.121442124
000160 f7 51 c5 bd 0c cb 8e bd bf c2 f2 3d d2 92 6b bd
       -0.09634774 -0.06972322 0.11853551 -0.057513066
000170 5f 00 a9 bd c3 70 c8 3c b2 9a eb 3c dc 26 96 3d
       -0.08252024 0.024467831 0.028760288 0.073316306
000180 11 3c cd 3d 9c ac 86 3d a7 6e 13 be d0 d3 4b 3c
       0.100212224 0.065758914 -0.1439768 0.012440637
000190 38 4e 91 3d bc ef 88 3b 96 bd 94 bd f8 e4 f4 3d
       0.07094997 0.004178969 -0.07262723 0.11957735
0001a0 5a e3 9d bd bc 9b 91 bd a6 cd 07 be 08 d7 de bb
       -0.077093795 -0.07109782 -0.13262042 -0.006800536
0001b0 c4 fb 63 3d 53 24 18 3d 18 bf e6 3c 0e 94 b6 bd
       0.055660024 0.037144016 0.028167292 -0.08914958
0001c0 59 ca 09 be 4e 40 da 3b 65 34 f4 3d 51 b5 9b 3d
       -0.13456096 0.0066604977 0.11924056 0.07602943
0001d0 e9 87 94 bd d8 07 7f bc f5 f8 d6 bd 6d 4e b0 bd
       -0.07252485 -0.015565835 -0.104967035 -0.086087085
0001e0 57 e6 f0 3c c1 49 6e 3d b8 51 df 3d 4a e7 d7 bd
       0.02940671 0.058175806 0.109042585 -0.10542162
0001f0 7b 8c a7 3d 28 5c bc bd a1 dc 56 3d e7 65 f7 3d
       0.081810914 -0.09197265 0.052456502 0.12079983
000200 9c fe e9 bb 39 c0 e0 3d f2 7f a4 bd 64 6d 2b bd
       -0.0071409475 0.109741636 -0.08032216 -0.04185237
000210 14 24 87 3d a9 88 3d bc 67 ec d8 bc fa f7 8b bc
       0.06598678 -0.011568227 -0.026479913 -0.017086018
000220 2a 3c 9d 3d 05 50 46 3d e2 cf 2f 3d 03 f3 29 bd
       0.07677491 0.048416156 0.042922862 -0.04149152
000230 f0 c3 e2 bd cb 38 68 bb ee c0 ea 3c c6 a2 83 bd
       -0.11072528 -0.0035434242 0.02865645 -0.06427531
000240 29 86 4b bd 35 2f ed 3d 7c 6a 84 3c 63 87 bb bb
       -0.049688492 0.1158127 0.016164057 -0.0057229265
000250 2b 9f 3c bd 2d 2e 02 be f1 cc 04 be 52 65 0d bd
       -0.046050232 -0.12712927 -0.12968804 -0.034520455
000260 66 2c 9b bd d6 6a 54 3d bc 5f 42 bd 32 75 60 bd
       -0.07576828 0.0518597 -0.04745458 -0.054799266
000270 bc 1a e3 3d 2f 58 87 3d e6 2b c9 3d f6 73 95 bd
       0.110890836 0.066086166 0.09822826 -0.072975084
000280 4f da 82 bd d5 5a 85 3d d7 e8 4a bd 35 5e ab bd
       -0.06389295 0.065114655 -0.04953846 -0.08367578
000290 d3 e6 29 3c a4 c2 86 bd 53 46 ca bd f9 a7 9a 3d
       0.010369974 -0.065800935 -0.098766945 0.075515695
0002a0 1c 29 0c 3e 18 47 d9 3c ca 69 35 3c 0c 7c b9 bd
       0.13687557 0.026523158 0.011072585 -0.09056863
0002b0 fd 06 3d bd 57 2b ce 3b a7 e4 44 3d 41 d2 d7 bc
       -0.046149243 0.0062917876 0.048069622 -0.026345374
0002c0 1e f9 87 bc f9 40 68 3d 80 61 e5 bd 08 83 91 3d
       -0.01659828 0.056702588 -0.11200237 0.0710507
0002d0 92 7e 66 bd 62 fc bb 38 e1 fe d3 bb d9 26 4a 3d
       -0.05627305 8.963865e-05 -0.006469593 0.049353454
0002e0 f4 1e 52 bd 6f 93 c9 3d ea d6 71 bc 77 76 a7 3d
       -0.05129905 0.09842574 -0.014760712 0.08176892
0002f0 da 31 e5 3d 30 e0 36 bd bd b8 d5 bd 80 da ac 3d
       0.11191149 -0.044647396 -0.10435627 0.08440113
000300 42 cc d6 3d cf c5 b8 bd 64 f1 d8 3b 29 10 e7 bd
       0.10488178 -0.09022104 0.006620573 -0.11282379
000310 1b 4a cc bd 63 9e 2f 3d 56 c5 2d 3d 8c 7f 6e 3d
       -0.09975072 0.04287566 0.042424522 0.058227107
000320 df fe 2a bd 80 5b e2 3d 81 ec c5 3c 3b e1 4c bd
       -0.04174697 0.110526085 0.024160625 -0.050019484
000330 f6 7f a4 3b 7e 12 aa 3c e9 7d 47 3d 90 e9 b5 bd
       0.005020137 0.02076077 0.04870406 -0.08882439
000340 d7 6d 30 3d b9 fb 38 bd ff 81 b4 bd 03 2a 5c bd
       0.0430735 -0.045161936 -0.08813857 -0.053751003
000350 0b d9 d4 3d fe d8 cc 3d 3a 8f e3 3d c2 c0 bc 3d
       0.1039296 0.100023255 0.11111303 0.09216453
000360 5b d2 bf 3d 12 fe 80 bc ad 06 74 bd af 49 8b 3d
       0.09366294 -0.01574615 -0.05957668 0.068011634
000370 72 d9 82 bd a4 e7 92 bd 0f 90 0a bd 50 3d cb 3c
       -0.06389131 -0.07173088 -0.03382879 0.02480951
000380 45 7a 80 3d 53 42 1b bd 57 39 4e bd 81 8e 8b 3c
       0.06273321 -0.03790505 -0.050347652 0.017035725
000390 27 91 97 bd 27 82 bb bd d6 df 71 3d af 31 59 bc
       -0.074007325 -0.09155684 0.059051357 -0.013256474
0003a0 be ff 16 3e 31 3c 04 3e ef b5 75 3d 55 74 83 3d
       0.14745995 0.12913586 0.05998796 0.06418673
0003b0 6f fd 19 3d 88 3f 78 bc 15 0a 32 bc 4b aa d3 3a
       0.03759521 -0.015151866 -0.010866662 0.0016148774
0003c0 95 b5 8f 3d 92 cc f0 3d a4 bc 0f bd 61 c2 42 bd
       0.07017056 0.11757769 -0.03509201 -0.047548655
0003d0 44 61 db bc 5c 4b 56 bd fa 9d 17 3d 4c 49 f8 3d
       -0.026779778 -0.052317962 0.037015893 0.12123355
0003e0 31 81 c0 3d 97 72 9a 3d d9 ca cb bd 65 4d 8e bd
       0.09399641 0.075413875 -0.099507995 -0.069483556
0003f0 8f 8d a7 bc b9 34 42 bc 3a 53 09 3c 26 ed 03 be
       -0.020453243 -0.01185339 0.008381659 -0.12883434

gkf.gat_rnn.fc_delta_y_innov.2.bias f4 [64]
000000 6e cd c2 3c 56 1a 22 3d 84 43 3c 3d 6f 47 8a bd
       0.023779597 0.039575897 0.045962825 -0.06751906
000010 92 e9 70 3d 91 e7 db 3d dc e4 96 bd f4 cf 50 bd
       0.0588165 0.10737527 -0.0736787 -0.05097957
000020 02 0a ce bd 1e fb 06 bd 64 84 1c bd a2 c7 3c 3d
       -0.100605026 -0.032954328 -0.038212195 0.046088822
000030 54 12 b1 3c c6 33 b8 bb 4d 1e cd 3d cb f5 f5 3c
       0.021615185 -0.0056214062 0.10015545 0.03002443
000040 b2 36 6c bd 87 12 6b bd 44 8b 81 bd 20 09 04 bd
       -0.05766935 -0.057390716 -0.06325391 -0.032235265
000050 2d be c0 bd 5d 57 96 3c fd 50 95 bd ed b1 ef 3c
       -0.09411273 0.018352205 -0.07290838 0.029259646
000060 23 4d e5 3d 34 14 e8 bd e0 64 51 bd 4a ab f0 bd
       0.11196353 -0.113319784 -0.051121593 -0.11751421
000070 83 e7 99 3c 32 67 f9 ba 4d 32 28 bd bc ea b6 3d
       0.018787151 -0.0019027947 -0.041063596 0.08931491
000080 bf 08 3e 3d 83 99 08 be 31 28 aa 3c b0 94 08 bd
       0.04639506 -0.1333981 0.020771118 -0.033344924
000090 e4 3f 83 3a 4b cb 3b 3d eb af 34 3c b0 1a c4 bd
       0.0010013548 0.045848172 0.01102827 -0.09575403
0000a0 92 c0 d8 3d 7c 86 b1 bd e6 3d 96 bc 2a 49 91 3d
       0.10583605 -0.08668229 -0.018340062 0.07094033
0000b0 7a 6d 09 3e 4c 28 15 3e ce 03 9d bb f0 95 92 3d
       0.13420668 0.14566153 -0.0047917133 0.071575046
0000c0 c6 a2 d0 bd bd 1d 01 3a ed 24 f0 bb 18 cf 85 3d
       -0.101872966 0.0004925391 -0.0073286206 0.065336406
0000d0 c8 1f 8d bd 2e d3 28 3d 26 bb 81 3d 6f 6e f7 3d
       -0.068908274 0.04121702 0.06334524 0.120816104
0000e0 28 b8 81 bb 0d 3e 13 3e 8e 18 c3 bd cd 39 29 bd
       -0.0039587207 0.14379139 -0.09526168 -0.04131489
0000f0 57 5f 1d 3d b1 8d 60 3d 99 57 ab 3d 8f 02 9b bd
       0.038421 0.054822627 0.08366317 -0.075688474

gkf.gat_rnn.fc_r.0.weight f4 [64, 1]
000000 79 b3 24 3f 9a 34 74 bf 27 3c 30 bf a0 41 81 bd
       0.64336354 -0.95392764 -0.68841785 -0.06311345
000010 7e 4a 7c bf 5d e5 78 bf c9 5e 62 bf 42 66 55 3f
       -0.98551166 -0.9722498 -0.8842588 0.8335916
000020 34 23 78 3e 43 9d a7 be 4f ad 79 bd 83 0a 5e bf
       0.24232179 -0.3273717 -0.060956296 -0.8673479
000030 d5 a0 75 bf c8 95 38 bf 64 c5 7d bf 3f 26 2f 3f
       -0.95948535 -0.7210355 -0.9912932 0.68417734
000040 fe 13 be be f2 83 88 be 93 82 63 bf b8 86 31 3e
       -0.37124628 -0.26663166 -0.88871115 0.17336547
000050 ef 94 17 be 0e fb 32 bf 31 76 2a 3f 1c d8 60 3f
       -0.14802907 -0.6991433 0.66586596 0.87829757
000060 73 ea 3b bf 7e 52 18 3f 82 c7 37 be 94 26 ed 3b
       -0.73404616 0.59500873 -0.179472 0.007237265
000070 aa 7e db 3e f9 b0 34 be 7d 9a 5f 3f 4e 92 23 3f
       0.42870075 -0.17645635 0.87345105 0.6389512
000080 b1 ed 2b bf c1 f0 22 bf 59 b6 81 bf 04 21 a1 3e
       -0.67159563 -0.6364861 -1.0133773 0.314705
000090 ce ff 43 bf f5 c8 5b bf 22 02 23 bf 32 1f 81 bf
       -0.765622 -0.8585351 -0.6367513 -1.0087645
0000a0 23 6c 55 bf 52 63 6c 3f cd 2c 12 3f 7d 27 6a 3f
       -0.8336813 0.9233905 0.5709961 0.91466504
0000b0 88 79 01 bf 53 68 d8 be 1b ef b7 be 0b 38 34 3d
       -0.50576067 -0.42267093 -0.3592461 0.04399876
0000c0 1d 76 3d bf 3b a7 05 3e 2a d0 29 bf ac aa 22 3e
       -0.7400835 0.13052075 -0.6633326 0.15885419
0000d0 8f 2a 70 3f 90 4f 42 3e 0f 15 42 3f a4 ee 3a bf
       0.9381494 0.18975663 0.7581338 -0.73020387
0000e0 b4 aa 1d be 47 b5 22 bf 33 58 00 be 58 88 c9 be
       -0.1539715 -0.6355786 -0.12533645 -0.39361835
0000f0 6a c6 17 bf 75 4f 7d bf 3f 18 b8 be e8 aa 30 3e
       -0.5928713 -0.98949367 -0.35955998 0.17252696

gkf.gat_rnn.fc_r.0.bias f4 [64]
000000 4a ab 10 be 08 1e 69 bf 20 be 45 3f e5 6c 47 3f
       -0.14127842 -0.9106145 0.7724323 0.77900535
000010 db 25 15 bf c8 c7 08 3e bd 5c 2d 3f d8 1e 6b bf
       -0.5826089 0.1335746 0.6771963 -0.9184394
000020 29 6c 5c bf 2a 5b 14 3f 49 c1 02 3c fb 1e a9 3e
       -0.8610254 0.57951605 0.007980653 0.3303145
000030 35 22 c8 be 73 79 59 3e e0 3c 32 3f 20 65 57 be
       -0.39088598 0.21237735 0.6962414 -0.2103467
000040 c4 ef 97 be 53 ed 74 bf 6f 34 fa bd 61 18 2a 3f
       -0.29675114 -0.9567463 -0.12217032 0.6644345
000050 44 3f 74 bf 93 4c 51 bd ba 1d 44 3f 7a 93 7d be
       -0.95409036 -0.051098417 0.7660786 -0.24763289
000060 cf 5b af be 7c 1e 89 be 48 a3 c7 be 19 fd 1e 3e
       -0.34249732 -0.2678107 -0.3899176 0.15526237
000070 37 68 75 bf 5b b2 bc 3e 85 a5 66 be f0 ff c1 bd
       -0.95862144 0.36854824 -0.22524078 -0.09472644
000080 c9 9a 11 bd 49 51 18 3f ff c8 17 bf e4 64 6c bf
       -0.035548005 0.5949903 -0.5929107 -0.92341447
000090 b5 57 35 bf 43 64 35 bf 21 a2 fb be f4 b9 51 3f
       -0.70836955 -0.7085611 -0.49147132 0.81924367
0000a0 c6 ac 3f bf 19 61 0e bf 65 5f 4b bf 9b ab ef be
       -0.74873006 -0.5561691 -0.79442436 -0.46810612
0000b0 0c 29 85 3a 5e 71 17 bf dc 2e 13 3d df 0a c0 3e
       0.0010159328 -0.5915736 0.03593336 0.37508294
0000c0 2f 72 14 be 5a bd e7 3e 22 42 7a 3e 88 7a 80 3f
       -0.14496683 0.4526165 0.2443929 1.0037394
0000d0 9c 99 90 bc 12 fe 64 3f 07 bc 47 3f e1 d0 01 3f
       -0.017651372 0.8945018 0.7802128 0.5070935
0000e0 52 5f 19 3f 7c 70 25 bf c8 43 27 bf fc 28 e8 3e
       0.5991107 -0.6462476 -0.653378 0.4534377
0000f0 b3 3a cb 3e 00 21 6f 3f e9 1c 14 be df ce 14 be
       0.3969322 0.9340973 -0.14464153 -0.1453204

gkf.gat_rnn.fc_r.2.weight f4 [64, 64]
000000 de 4e b1 3d f1 62 d8 39 de a4 e5 3d dc 9b 96 bd
       0.08657621 0.00041272448 0.112130865 -0.073539466
000010 6f 26 37 bd 92 7f a8 3a b3 71 7d 3d 7a 7d cf bd
       -0.044714388 0.0012855402 0.06187601 -0.10131355
000020 eb 89 81 bc 49 bf ad 3d a4 86 b2 3c 02 1b ac 3d
       -0.015812835 0.084837504 0.021792717 0.08403589
000030 97 d0 3c bd 9a 23 aa bd fd 84 b8 bd b7 f4 8b bd
       -0.046097364 -0.08307572 -0.090097405 -0.06833785
000040 b0 eb c7 bd 2f 5e 70 3d 6d 3b f3 3c 0c 30 be bd
       -0.09761751 0.05868357 0.029691422 -0.09286508
000050 09 ae e4 3d 8e 93 01 3d c8 99 15 3d d0 01 51 bd
       0.11166007 0.03163486 0.03652361 -0.05102712
000060 03 93 a9 3d b7 18 ad bd 5e 8e b3 3d 36 e9 9f bd
       0.082799934 -0.084519796 0.08767389 -0.07808153
000070 bc 28 89 3d 81 8e 52 bd 04 25 a9 3d 7b f1 d6 bd
       0.066972226 -0.051405434 0.08259013 -0.104952775
000080 39 21 e8 bc 86 f4 1e bd 00 ae a0 bd c2 35 38 bd
       -0.028336154 -0.038807414 -0.07845688 -0.044973142
000090 3a 8c 1e bd 8a 66 18 3c 50 3d ae 3d ae 57 d0 bc
       -0.03870795 0.009301791 0.08507788 -0.025432434
0000a0 f1 77 f3 3d 62 18 5f bd 56 a4 60 bd ca 09 1e bb
       0.118881114 -0.054466613 -0.054844223 -0.0024114721
0000b0 5a 30 da bc 42 04 14 3d c6 3c e4 3d de 21 f4 3c
       -0.026634384 0.036136873 0.11144404 0.029801305
0000c0 f4 1d de bd 3a 1f 62 bd 6c 0d ef bc d5 7f 02 be
       -0.10845557 -0.05520556 -0.029181205 -0.12744077
0000d0 96 5c 16 3d 3d 36 c4 3d 2a c8 56 3d 75 5a ec bb
       0.03670939 0.09580658 0.052436985 -0.0072129318
0000e0 a2 89 8d bc 88 9e 7e bd 68 a8 8a bc e7 dc d5 3d
       -0.017277543 -0.062162906 -0.016926005 0.104425244
0000f0 a7 48 8d bd 7d b1 74 3c 6b 7f c3 bd 5a bb d3 bc
       -0.06898623 0.014934895 -0.095457874 -0.025846172
000100 3c df 06 3d c4 d9 9a bd f5 3c 6d 3d 31 ee 9e bd
       0.032927737 -0.07561067 0.05791946 -0.07760275
000110 61 7c 00 bd c8 5f de 3d 8f b6 0f 3e eb 80 59 3c
       -0.031368617 0.108581126 0.14034484 0.013275365
000120 ff 05 9a bd f3 37 9e bd ed 94 02 bc 34 c3 2a bd
       -0.07520675 -0.07725515 -0.007970077 -0.041690066
000130 a1 c8 f4 3d 66 63 89 bd 1e 40 c9 3d d5 85 49 3d
       0.119523294 -0.06708412 0.098266825 0.049199898
000140 ad 54 99 bc 6c 9e e8 3d 09 41 b9 3d ee 39 db 3c
       -0.018717134 0.113583416 0.090456076 0.026761021
000150 e9 6f b0 bd cc 0d 81 bc 53 a3 8d 3d f3 08 09 3e
       -0.08615095 -0.01575365 0.06915917 0.1338232
000160 62 4b b5 bc d8 78 dc bc d4 cb d9 bd b2 c0 dc 3d
       -0.022130672 -0.026913092 -0.1063458 0.10778941
000170 b5 6b 10 3e 58 9b e4 3d 4d a0 34 bd 7a 5d ec 3d
       0.14103587 0.11162442 -0.044098187 0.11541267
000180 97 84 89 bc 83 51 b6 3d 00 17 be 3d db c4 ae bd
       -0.016786857 0.08902266 0.09281731 -0.08533641
000190 e9 ae 4b 3d df 5e 8d 3d ad 79 65 bd 99 33 0e 3e
       0.049727354 0.06902861 -0.056024242 0.1388687
0001a0 9c a1 ee 3d a5 23 04 3e 4e ed ab 3c 5f 44 2c bd
       0.11651918 0.12904222 0.02098718 -0.04205739
0001b0 a4 9f 40 bd 54 9a 7d 3d 90 9a 61 bb ce bf 05 3e
       -0.047027245 0.061914757 -0.0034424402 0.13061449
0001c0 33 74 00 3e 66 c1 25 3d ae 21 a4 bd 1e bf a5 3d
       0.12544326 0.040467642 -0.080142364 0.08093093
0001d0 d0 63 0d 3e 11 bc 2b b9 0b 98 16 bd 6d a5 cb bb
       0.13807607 -0.00016377891 -0.036766093 -0.0062147886
0001e0 7a c9 3b 3d d2 c0 97 bd ce 12 8f 3d 7d 89 9e 3d
       0.04584644 -0.074098244 0.069860086 0.077410676
0001f0 95 08 cb bc 62 e9 b9 bc bf 2b 21 bd 80 d8 f9 3d
       -0.024784366 -0.022694293 -0.03934836 0.12199497
000200 7f aa 6a 3d 6a 92 c5 3c 5d e1 99 bc 1c e4 76 3c
       0.057291504 0.024117667 -0.01878422 0.015069034
000210 6c 21 df 3d 24 e4 df 3c 7c e8 99 bd b7 35 07 3d
       0.108950466 0.027330466 -0.07515046 0.03301021
000220 2a df 6a bd 56 8e 95 bc 5f 25 bf bd ad b1 83 bc
       -0.057341732 -0.018256348 -0.093333 -0.016075933
000230 6e 0e ac bb f1 ad b4 bd 5d 59 8a 3d 43 3d ca 3d
       -0.0052507436 -0.08822239 0.06755326 0.09874966
000240 08 da ed bd 5c 78 d2 3c 50 74 c9 bd c9 a0 36 bd
       -0.11613852 0.025692157 -0.09836638 -0.04458693
000250 a0 78 50 3d e4 a8 69 bc f9 c6 9c 3c 54 66 6a bd
       0.050896287 -0.014261458 0.019137846 -0.057226494
000260 9d 3c dc 3d 24 e8 99 bd 5a de 4a 3c 07 0f a7 bb
       0.107537486 -0.075149804 0.012382114 -0.005098227
000270 b8 6a 94 3d c0 5b 96 ba 26 42 70 3d 23 d1 79 3c
       0.072469175 -0.0011471435 0.058656834 0.015247616
000280 9a 79 8a 3d 30 76 3c bc 2e 18 f6 3c ee 47 e6 3d
       0.06761475 -0.0115027875 0.030040827 0.11244188
000290 57 95 55 bd 9e 87 7f bd 17 53 a2 3d 8c df 0e 3d
       -0.052144375 -0.062385194 0.079260044 0.03488116
0002a0 3d 91 04 be b6 96 e7 3c f2 c3 0c be df 77 ac bd
       -0.12946029 0.028270107 -0.13746622 -0.08421301
0002b0 16 9e 16 3d b2 9b 5f 3d 92 6a 25 bd fd 5e b2 3d
       0.036771856 0.054591842 -0.040384836 0.08709524
0002c0 dc eb e5 3d 6a 6f 9f 3d 14 53 02 be 35 de 84 bd
       0.11226627 0.077849224 -0.12727004 -0.06487695
0002d0 37 39 1c bc 4c c8 a7 3d 56 13 22 bd 74 18 5a 3c
       -0.009535125 0.081925005 -0.03956922 0.013311494
0002e0 62 83 4f 3d ab 4f 9d bd b2 a4 af bd 97 30 e2 3d
       0.050662406 -0.07681211 -0.08576335 0.11044424
0002f0 77 63 7f bc 30 66 9a 3d 01 c9 08 be 4f 2f 82 bd
       -0.015587679 0.07539022 -0.13357927 -0.0635668
000300 f4 54 7b 3d a4 31 e7 bc ee 9e b6 3c fd 6a 06 be
       0.061360314 -0.028221913 0.02229258 -0.1312675
000310 1e ed d6 3d bd c4 a4 bd a1 7a d0 bc ef 1e da bd
       0.10494445 -0.08045337 -0.025449099 -0.10650431
000320 ce db 92 bd 25 4b 03 be bf 9c 03 be c3 e6 33 bd
       -0.07170831 -0.12821634 -0.12852763 -0.043921243
000330 98 d7 93 bd d9 7b 97 3d ed 71 a1 bc 45 76 91 3d
       -0.072188556 0.07396669 -0.019707644 0.07102636
000340 ca 49 19 bd 12 fb 6a 3c 20 e1 d1 3d 6e d2 01 be
       -0.037423886 0.014342086 0.10248017 -0.12677929
000350 32 65 7f bd 0a b3 b6 3d 9c a7 69 bd 9c 6c 75 bd
       -0.062352367 0.08920868 -0.05704461 -0.05991803
000360 fc b3 e3 bb 7d 88 be bd 0b 99 b0 bb 0e 54 a6 bd
       -0.006948946 -0.09303377 -0.005389338 -0.08121501
000370 65 c9 94 3c a3 41 43 bd 14 b3 8b bd dc 96 96 bd
       0.018162439 -0.047670018 -0.06821266 -0.07352993
000380 2b d3 71 3c 7a 90 30 3d ca 2a 06 be 6d 9e d9 bd
       0.014759819 0.043106534 -0.1310226 -0.106259204
000390 bc 55 0b be 31 16 2c 3d a2 9b 9e 3d 5c c4 0e be
       -0.13606924 0.04201335 0.07744528 -0.13942093
0003a0 33 66 85 3c 53 1d 98 b9 e7 47 ba bd 1f c1 a0 3a
       0.016284084 -0.00029013547 -0.090957455 0.0012264586
0003b0 4d d9 a0 3d 7b 7f db 3d f0 3a 14 3d 9b 97 60 bd
       0.07853947 0.10717674 0.03618902 -0.054832082
0003c0 f7 77 b5 bd ce 4b 9e bd d4 26 8f bc c4 09 21 bd
       -0.08860772 -0.07729302 -0.01747457 -0.039315954
0003d0 de 45 84 3d 9d 86 12 be 8d 1d 8c bc 0a 24 71 bd
       0.064586386 -0.14309163 -0.017103935 -0.05887226
0003e0 1c 52 59 bc 73 5d d5 3d 78 1d d5 bb d1 e9 29 bd
       -0.013264205 0.10418215 -0.006503757 -0.04148275
0003f0 b5 cb 7b bd 2d c2 13 be 22 36 05 be 2f 39 ea 3c
       -0.061473567 -0.14429541 -0.13008931 0.02859172

gkf.gat_rnn.fc_r.2.bias f4 [64]
000000 9e 0c cb 3c d2 2b 01 3e 7b 33 fc 3b 20 ec 95 3c
       0.02478629 0.12614372 0.0076965666 0.01830107
000010 b8 0c 92 bd b2 dd 61 bd 43 6f 1d bd ad e0 47 bd
       -0.07131332 -0.055143066 -0.038436186 -0.048798252
000020 ba 67 c9 bc bc d3 8e bd ea 61 03 bc b7 61 bb bd
       -0.024585593 -0.06973979 -0.00801895 -0.09149497
000030 8b dd 83 3d 6d 13 fb 3c ab f6 0e 3d 50 95 a7 3d
       0.0643874 0.030648911 0.03490321 0.08182776
000040 06 ff f2 bd 38 4a f6 bc a4 1e 9d 3c 00 19 ad bd
       -0.11865048 -0.030064687 0.01917965 -0.08452034
000050 54 f3 50 3d ec cf e0 bd 09 d3 f2 3d 68 dd e0 3d
       0.051013306 -0.10977158 0.11856658 0.1097973
000060 5b 71 2c bb c2 3a 00 bd bf 67 fb 3d 62 3d 7c bd
       -0.0026312682 -0.031306036 0.12275647 -0.061581977
000070 ea f3 db 3c ef 89 cc 3d d1 fe 17 3e 02 d4 14 3d
       0.026849706 0.09987246 0.14843298 0.036335
000080 1c f3 9d 3c 05 ad 80 3c 56 ab b7 bd e9 b7 81 3d
       0.019280963 0.015707502 -0.089682266 0.06333906
000090 f3 db 91 bd 1b 2b 38 3c 94 23 f6 bb 9a 11 dc 3d
       -0.0712203 0.011240746 -0.0075115655 0.10745545
0000a0 03 50 b7 bc 29 3f 86 3d b9 8e 9a 3a a7 55 e9 3b
       -0.02237702 0.065550156 0.0011791802 0.0071208063
0000b0 8f 1b aa bd 44 f6 0c 3e 0f 5b 10 3d 21 23 0c be
       -0.08306038 0.13765818 0.03524309 -0.13685276
0000c0 f3 6e 1d 3d ad f0 aa 3d e2 74 66 bd 20 1b 03 3e
       0.038435888 0.083466865 -0.056263812 0.12803316
0000d0 b0 ca be 3d 23 06 fb bc a5 f7 24 3e e3 52 f0 3d
       0.09316003 -0.030642575 0.16110094 0.117345594
0000e0 63 ad 8c 3b 24 8f 7a 3c 99 40 2a 3d 59 6b 4a bc
       0.0042931302 0.015292916 0.04156551 -0.012354695
0000f0 1e cf db 3d 0c f3 b4 bd 6a fc ac bd b0 79 af 3d
       0.10732864 -0.0883542 -0.08446582 0.08568132

gkf.gat_rnn.r_input_gru.weight_ih_l0 f4 [192, 64]
000000 1f c7 e4 bd 0f bc e5 bc 23 19 59 bd 24 b5 5a 3d
       -0.11170792 -0.028043775 -0.053002488 0.053395405
000010 e5 36 9e 3c da 20 a2 bd 08 e1 eb 3d 80 57 32 bd
       0.019313285 -0.07916422 0.11517531 -0.043540478
000020 da d5 da ba 13 99 59 3d 5f 1a 8d bd c6 ee 1a bb
       -0.0016695813 0.0531245 -0.068897955 -0.0023640855
000030 a6 5a 27 bd 68 42 97 bc 09 2a 05 bd a6 e7 bc 3d
       -0.040857933 -0.018464282 -0.03251079 0.09223871
000040 92 e8 43 bd 5e b8 8e bd 7e 43 8c 3d e6 54 58 3d
       -0.04782922 -0.06968759 0.068488106 0.05281534
000050 23 65 c2 3c 4a b7 46 3c 22 6a 07 3e 96 7e c5 bc
       0.023729866 0.01212866 0.1322408 -0.024108212
000060 9b d7 fd bd ca 55 d6 bd 36 cf 35 3d c1 04 6e 3d
       -0.12394639 -0.10465582 0.044387065 0.058110002
000070 d6 ae a2 3c 2e bc b7 bd 98 6e b0 bd 0d cf 97 bd
       0.019858759 -0.08971439 -0.08614844 -0.07412539
000080 d3 fd be 3d fc 1f 1a 3d 19 9b 6c bd 14 b0 d1 bd
       0.09325757 0.03762816 -0.0577651 -0.10238662
000090 18 c9 ad 3d 8d b2 8b 3c 2c a0 02 3e ae 3a bc bd
       0.08485621 0.017052913 0.12756413 -0.0919088
0000a0 24 3e b5 bd 72 6f 1b 3c aa 90 c4 3d 39 64 c5 3d
       -0.08849743 0.00948702 0.09597905 0.096382566
0000b0 23 2e 0a 3e 70 59 c5 3d a9 09 90 3d 06 93 b3 bd
       0.13494162 0.096361995 0.070330925 -0.08768277
0000c0 3f 9d 0a 3e 60 e9 33 bd ce a0 8a 3d e5 6d 85 3d
       0.13536547 -0.043923736 0.06768952 0.06515101
0000d0 c9 9f 83 bd a7 b1 2a bc 7a 58 0b 3c 57 14 db 3d
       -0.06426961 -0.010418332 0.008504981 0.10697239
0000e0 5c 10 d4 3d 0b 0a 27 3d bc 59 7b bd 65 77 42 3d
       0.10354683 0.040781062 -0.061364874 0.047477145
0000f0 78 8d ef 3d 88 7e 4d bd 21 dd b9 3d 1a ba 3d 3d
       0.11696905 -0.050169498 0.0907538 0.04632006
000100 24 43 94 3d 3d 2f e0 3c 13 df 8e 3d 89 4b c3 bd
       0.072393686 0.027366275 0.06976142 -0.095358916
000110 f8 c2 14 3d 76 66 02 be 59 39 c0 bc 28 89 aa 3d
       0.03631875 -0.12734398 -0.023464845 0.08326942
000120 a9 08 ee bd 63 28 e0 bd 01 5d 8a bd 76 d9 7d bb
       -0.116227455 -0.10945203 -0.0675602 -0.0038734353
000130 92 e7 10 bd 0b 37 e6 bd 54 aa cd 3a 6a 1a 42 bd
       -0.035377093 -0.11240967 0.001569102 -0.04738847
000140 a6 76 90 bd c4 5f 01 bc c1 9b e7 3c 0c 17 cc 3b
       -0.070538804 -0.007896367 0.028272511 0.0062283333
000150 6d 3b b1 bd 32 81 b7 3d 71 7a c1 3b 99 1a 4a bd
       -0.08653913 0.08960189 0.0059044887 -0.04934177
000160 49 ca f8 3d 26 d8 3f 3c 4e 81 5e 3d eb 90 94 3d
       0.12147958 0.011709249 0.054322533 0.072542034
000170 e9 70 64 bc ca 53 b3 3d be 55 83 bc 45 8c aa 3d
       -0.0139429355 0.08756216 -0.016032096 0.083275355
000180 51 17 d2 ba ea 53 2d 3d 0c b7 49 3d 15 d3 a7 bd
       -0.0016028677 0.042316355 0.049246833 -0.081945576
000190 ca e3 c0 3d 5c f7 c8 bb 70 90 f8 3c db c1 d9 bd
       0.09418447 -0.006133003 0.03034231 -0.10632678
0001a0 e3 b7 82 bd 34 58 c2 3d 28 6f c1 bd 8d 25 6c 3b
       -0.0638273 0.0948948 -0.094450295 0.0036033124
0001b0 ff fb c4 3d 8a 78 05 be f7 5f 73 bc 86 7c 0d 3d
       0.09618377 -0.13034263 -0.014854423 0.034542583
0001c0 26 9f 83 3d 8e b4 65 bd 78 50 df bd 37 42 b2 bd
       0.064268395 -0.056080393 -0.1090402 -0.08704036
0001d0 cd fe a3 3c 5f cc b2 bd 66 c2 f5 bd d9 a8 9a bc
       0.02001896 -0.08730387 -0.11999969 -0.018879341
0001e0 c3 c5 83 3c 78 a9 bf bd 4a 40 86 bd ac f0 5c 3d
       0.016085511 -0.093584955 -0.06555231 0.05394046
0001f0 6e 7f c9 bd cd fc eb bd b6 e7 cf bc 14 22 b3 3d
       -0.098387584 -0.11522827 -0.025379043 0.08746734
000200 14 49 12 bd cd 42 c8 bd b1 6b c7 bd f6 cb 89 bc
       -0.035714224 -0.09778366 -0.097373374 -0.016820889
000210 4d 80 9b 3d 78 d8 0e 3d c9 e7 75 bd c2 e0 f6 bd
       0.07592831 0.03487441 -0.0600355 -0.12054588
000220 f7 38 b0 bd 00 1c 75 3c d9 c1 b1 3d e5 97 70 3d
       -0.08604615 0.014960289 0.08679552 0.058738608
000230 8d 8c da bc 42 66 65 3d 85 45 0f bb 3b b5 aa 3b
       -0.026678348 0.056005724 -0.0021861505 0.0052095926
000240 25 0f 2f 3d 57 dd 47 bd a4 30 96 3c 7b 15 8c 3a
       0.042739052 -0.04879507 0.01833374 0.0010687554
000250 41 c5 fa 3c 7e f0 b0 bc 3f 14 91 3d 09 d0 ea bd
       0.030611636 -0.02159905 0.0708394 -0.11465461
000260 01 79 c1 3d 68 10 ef bd 5d 64 cc bd 97 02 b3 bd
       0.09446908 -0.11673051 -0.0998008 -0.08740728
000270 08 37 cb bc 96 12 00 bd 6e e0 07 be ce f6 59 3d
       -0.024806514 -0.031267725 -0.13269207 0.053213887
000280 92 e5 91 3c 46 16 df 3d e8 89 cb bd f0 7f f4 bd
       0.017809663 0.1089292 -0.09938413 -0.11938465
000290 66 d0 91 3c 46 ff a8 3d 4c 8c 8e 3d a0 8f 29 3d
       0.017799567 0.082518145 0.06960353 0.041396737
0002a0 30 51 ef 3b 60 a5 9d 3d ef 91 7e bd 37 a8 10 be
       0.0073033795 0.076975584 -0.062150892 -0.14126669
0002b0 a0 29 e8 bd 04 72 c3 bd 37 64 6c 3c fc 8e fd 3d
       -0.11336064 -0.09543231 0.01442819 0.12380788
0002c0 21 38 8a 3d d4 64 bb bd 58 d1 3c 3d 74 d6 c3 3d
       0.06748987 -0.09150091 0.046098083 0.09562388
0002d0 db 4c d3 bb 1f 98 96 bc 85 43 a2 bd 93 09 ab bc
       -0.006448371 -0.018383084 -0.079230346 -0.020878589
0002e0 65 bf a1 3d 7f 7c 44 bd ca 42 0c bd 32 c3 4d 3d
       0.07897834 -0.04797029 -0.034243383 0.05023498
0002f0 34 0a 76 bd bb bb 98 bd 4a f6 04 3d 9b ee a1 3d
       -0.060068324 -0.07457682 0.032461442 0.079068385
000300 55 b4 38 3c 61 3b bf bc 2f 9f e6 bd 3c a8 c3 3d
       0.011273463 -0.023343744 -0.112608306 0.095535725
000310 5e 38 40 bc 3f 6a 92 bd e7 78 0a be c9 5b 9d bd
       -0.011732189 -0.07149171 -0.13522683 -0.07683522
000320 ca 17 d4 bd 7f 9d 1e 3c 72 0e 90 3d f8 2b 06 bd
       -0.103561 0.009681105 0.07034005 -0.032756776
000330 ea c3 6e 3d b8 e9 29 bd 3d e9 9d bd f3 5c 06 be
       0.058292307 -0.041482657 -0.07710502 -0.13121395
000340 74 9a cb bd f3 e9 93 3d 9b b6 84 3d 71 54 d5 3d
       -0.09941569 0.07222357 0.06480142 0.104164965
000350 3c d9 0b bd 78 26 1c 3d 37 d8 08 bd f8 0f e9 3d
       -0.034142718 0.038122624 -0.033409324 0.11379999
000360 4f 34 a9 bd c0 33 6e bd 9f d5 13 be 9f 80 af ba
       -0.0826193 -0.05815482 -0.14436959 -0.0013389773
000370 9d a1 f9 bd a0 b8 e2 bd 64 3a 58 3c af 15 db 3d
       -0.121890284 -0.11070371 0.013197515 0.10697495
000380 f7 2e ad 3d ea 0a 8a 3d 8b 2d 3f bd 93 1b e2 bc
       0.084562235 0.06740363 -0.046674293 -0.027601039
000390 7a e7 06 be 44 85 87 3d de 13 79 3c cc 25 be 3d
       -0.13174239 0.06617215 0.015202491 0.09284553
0003a0 0d 23 10 be 90 54 41 bc ad c1 c6 bd 12 af ed bd
       -0.14075871 -0.011799946 -0.097049095 -0.11605658
0003b0 da 5e b3 bd e7 53 94 3c 84 d4 83 3d 49 e3 94 3d
       -0.08758326 0.018106414 0.064370185 0.07269914
0003c0 33 f2 7c bd 2b ee 24 3d c0 50 0f 3e 15 69 9f bc
       -0.061754417 0.040266197 0.13995647 -0.019459287
0003d0 07 0b 78 bd c9 ae cf bd a3 66 7f 3d f8 c4 3e bd
       -0.06055739 -0.101407595 0.06235374 -0.046574563
0003e0 84 2a eb bd 95 d8 5a 3d 70 15 24 3c cc a7 87 bd
       -0.114827186 0.053429205 0.010014877 -0.066238016
0003f0 18 8a 11 be c1 61 d5 bb 3d 45 a4 bc 7c f4 37 bd
       -0.14212835 -0.0065118973 -0.020052547 -0.044910893

gkf.gat_rnn.r_input_gru.weight_hh_l0 f4 [192, 64]
000000 d6 5b 9f bc 56 fd 9f bd 31 e5 b6 bd db 4d f5 ba
       -0.01945297 -0.07811992 -0.089304335 -0.0018715219
000010 58 67 97 bd 41 fe bb 3d af 3f d3 3d 61 9c 7a bd
       -0.07392758 0.091793545 0.10314881 -0.06118429
000020 50 73 98 3b db 50 9e bd 70 43 16 3d 4e c9 93 3d
       0.004652418 -0.07730266 0.036685407 0.0721613
000030 f5 ae ba bd 27 30 8a bd a6 fd 00 bc c7 df f2 3d
       -0.09115402 -0.067474656 -0.0078729745 0.118590884
000040 a3 bc 92 3d 08 4b b2 bd e3 41 ee 3c db 20 ca bd
       0.07164886 -0.08705717 0.029084152 -0.09869548
000050 c0 0c 0f 3e 86 66 98 3d b4 7d 90 bd 30 79 25 3d
       0.13969707 0.0744143 -0.07055226 0.040398777
000060 38 1e f8 3c 9b 50 70 bd 9a fd ce bd fa 58 68 3d
       0.030287847 -0.05867062 -0.101069644 0.05672548
000070 0d f8 ec bd 03 38 7b 3d 9c 49 6b bd 48 37 59 3d
       -0.115707494 0.061332714 -0.057443246 0.053031236
000080 79 89 02 3d 3c 02 5e 3d 71 a5 23 bd 92 09 41 3d
       0.031869385 0.05420135 -0.0399527 0.047128268
000090 1d 7a 43 3d 67 01 a9 3c 6b 6f b6 bc 4b 7b 97 3c
       0.04772388 0.020630552 -0.022269925 0.018491408
0000a0 34 60 54 3d b2 de 57 3d c1 f8 0c bd 83 a9 cb bc
       0.05184956 0.052702613 -0.034416918 -0.024861103
0000b0 4f c8 52 bd d1 f3 b8 bc b5 68 9e 3d 20 81 08 3e
       -0.05146056 -0.022577198 0.07734815 0.13330507
0000c0 b2 00 39 3d 8c 32 5f bd e1 0d a9 3d 4a 24 c5 3d
       0.04516668 -0.054491565 0.082546 0.09626062
0000d0 d9 3b 0c 3c 73 a5 d2 3d 50 e3 8b 3c 10 2d a0 bc
       0.008559191 0.10285463 0.017076164 -0.019552737
0000e0 bd 9f b5 3c f4 11 44 3c f2 51 ca 3c b8 ff 41 bd
       0.022170896 0.011967171 0.024697278 -0.047363013
0000f0 3f 3a d5 bd d7 c0 cb bd d7 d2 c9 bd c2 e5 c7 3d
       -0.104115 -0.09948891 -0.09854668 0.0976062
000100 ac 67 15 bd b4 c5 c7 bd 84 1c e6 3d ca b6 e4 bd
       -0.036475822 -0.09754506 0.11235908 -0.11167677
000110 04 a9 e7 3c dd 54 df 3d 45 74 a0 bd 85 93 43 bb
       0.028278835 0.10904858 -0.07834677 -0.0029842567
000120 30 d2 de 3d 77 f4 e9 3d b1 9a a2 3d 36 45 b4 bc
       0.10879934 0.11423581 0.07939661 -0.022005659
000130 fd 93 a8 3d 89 1a 85 3d 17 59 35 3c 2a e4 de 3d
       0.082313515 0.06499202 0.011068604 0.108833626
000140 6a 92 bf 3c c3 75 c2 3d d5 66 c5 bd ee 43 d4 3c
       0.023385245 0.094951175 -0.09638754 0.025911298
000150 ef c2 dc bd 2c 2e db 3c 24 72 17 3d e1 85 aa 3d
       -0.10779368 0.026755415 0.036974087 0.083263166
000160 55 f4 62 3d b4 ce 19 bd 04 ad 8b 3d f2 c6 f8 bd
       0.055408794 -0.037550643 0.068201095 -0.12147321
000170 98 08 ea 3d 36 7e 56 3d 10 a3 a9 bc b3 eb 09 3d
       0.114274204 0.052366458 -0.020707637 0.033672046
000180 82 90 9c 3d 08 dc cf bd 7c 6e a1 3d 5a 46 f1 3c
       0.0764475 -0.101493895 0.07882401 0.029452492
000190 e3 dc 06 3e 33 d4 80 3c da d3 be 3c 5a 6e 9d 3c
       0.13170199 0.015726184 0.023294378 0.019217659
0001a0 41 83 c4 3d e7 dd d2 bd be 9b 91 3d 0f 1d 93 3d
       0.09595347 -0.10296231 0.071097836 0.07183277
0001b0 f4 73 78 bc 5e 47 89 bd de 23 d2 3d d7 4e 7e 3d
       -0.015164364 -0.06703065 0.102607474 0.062086906
0001c0 23 09 08 bd fe 04 05 3c ac 95 48 bd 7e c2 70 bd
       -0.03321184 0.008118866 -0.048970863 -0.058779232
0001d0 a0 0c df 3d 33 73 5f 3d 9f 66 85 ba 11 a0 a8 3d
       0.1089108 0.054553222 -0.0010177678 0.08233655
0001e0 7f c2 cb 3d b2 81 5a 3d 0b fa 51 3d 64 86 af bd
       0.099492066 0.053346343 0.05126385 -0.08570555
0001f0 54 71 86 bd b4 7c ec 3d 85 50 67 3d 90 cf 16 3d
       -0.065645844 0.11547223 0.056473274 0.03681904
000200 cd 51 a0 bd c0 91 4b bd 72 61 56 bd aa 86 5e 3d
       -0.07828102 -0.049699545 -0.052339025 0.054327644
000210 33 8d 3e bd de 5e d1 3d 4b 48 a5 bd c4 fb bb bc
       -0.046521377 0.102231726 -0.080704294 -0.0229472
000220 fd aa e6 3d 88 3a 5d bd 36 1f 42 3c 74 59 07 bd
       0.11263082 -0.054010898 0.011848262 -0.033044294
000230 58 0d 3e 3d c0 cd 6b bd be 95 cd bd 6f 1e 47 bd
       0.046399444 -0.057569265 -0.10038327 -0.048613008
000240 f2 2c 37 3d 70 36 c4 bc f8 f8 b1 bd a0 fe df bc
       0.044720598 -0.02395174 -0.08690065 -0.027343094
000250 2c 42 78 bd 77 df e4 3d 1d 45 84 bc fd 7b 45 3d
       -0.06060998 0.11175435 -0.016146237 0.048213948
000260 01 24 e4 3d 0f 17 9f bd 32 31 67 3d e5 ec ce 3c
       0.1113968 -0.0776807 0.0564434 0.025259444
000270 b7 50 df 3d 9d d0 50 bb 03 15 e7 3c cf 3a f6 bd
       0.10904067 -0.0031862624 0.028208261 -0.120229356
000280 ce da ff 3d 67 36 c2 bd 85 26 c6 3d 59 70 99 bd
       0.124929056 -0.09483033 0.09675316 -0.07492132
000290 dc 69 f8 3c 9d 5f 96 ba fd 06 be 3d 1a 4b f7 bd
       0.030323915 -0.0011472587 0.09278677 -0.12074871
0002a0 cc 84 d2 3d 1b 7d e4 3d 12 09 4d 3d 86 c0 ec 3d
       0.10279235 0.111566745 0.05005748 0.115601584
0002b0 3d 56 d6 3d 1c 61 84 3c 85 98 84 3d de bb 59 3c
       0.104656674 0.016159587 0.06474403 0.01328942
0002c0 c5 c0 e2 3c 95 1d a4 bd d0 d5 b6 bc 86 00 80 bd
       0.02767981 -0.08013455 -0.02231875 -0.062501
0002d0 09 9a 96 bd 9e 04 98 bd 12 2d 6b bd ab eb 83 3c
       -0.073535986 -0.07422756 -0.05741603 0.016103586
0002e0 f4 0e 82 bc 47 02 77 3d d4 f2 24 3d 20 13 1b bd
       -0.01587627 0.060304906 0.04027064 -0.037860036
0002f0 d8 15 ae 3d b1 b1 b1 bd 28 34 79 bd d4 d6 02 3e
       0.0850026 -0.0867647 -0.060840756 0.12777263
000300 07 14 27 3d d3 40 98 3d bb e2 0b be fe 53 92 3d
       0.040790584 0.07434239 -0.1366071 0.071449265
000310 e4 3c b3 bd 21 d2 0d 3d c0 5a 36 bd 41 57 f6 3c
       -0.08751848 0.034624223 -0.04452014 0.030070903
000320 99 44 71 bd a1 3e 00 be 28 fa c6 bd 40 a6 a2 bd
       -0.05890331 -0.12523891 -0.09715682 -0.07941866
000330 f9 37 f8 bc 43 50 f7 39 f3 8b 47 bd 4c d8 50 bd
       -0.030300127 0.0004717131 -0.04871745 -0.050987527
000340 6f 45 25 3d 28 0e fa 3d 51 0e 65 bd e0 19 d0 3d
       0.04034942 0.12209731 -0.055921856 0.10161185
000350 d4 5a 8e bd 0f fc b5 3d 17 aa 0d bd ee 3c 40 bd
       -0.06950918 0.08885967 -0.03458604 -0.046933107
000360 11 2c 44 bd de 89 06 bd 14 34 c8 bd ec 58 d0 3d
       -0.047893587 -0.032846324 -0.09775558 0.101732105
000370 9f 23 b7 bd d1 53 68 3c 4c cc cc bd c1 4b 7d bd
       -0.08942341 0.01418014 -0.09999904 -0.061839823
000380 d2 71 d9 3c 39 a9 a6 bb 54 ce 16 bd 05 d2 9c 3c
       0.026543532 -0.005086091 -0.036817864 0.019143114
000390 93 58 59 bd da 7a 03 be 02 c6 4d 3c 0a c2 93 3c
       -0.053062987 -0.12839833 0.012559416 0.018036861
0003a0 94 db d9 3d 8d b4 65 bd 76 a3 b9 bd ac 22 be bd
       0.10637584 -0.05608039 -0.09064381 -0.09283957
0003b0 81 a6 95 3d 86 20 f1 bd 63 39 a6 3d 77 ea d1 3c
       0.07307149 -0.117737815 0.081164144 0.025624497
0003c0 e4 2e d9 3d 4a 4b ff bc 38 fe 9f 3d f2 e6 0f bd
       0.10604647 -0.03116383 0.0781216 -0.035132356
0003d0 af 20 3c 3a 22 d6 ef 3d ac 79 52 bd 3b 00 24 bd
       0.0007176501 0.117107645 -0.051385567 -0.040039282
0003e0 db 64 04 3d ea 60 69 3d c6 56 7d 3b d2 d8 a0 bd
       0.032322746 0.05697719 0.0038656457 -0.07853855
0003f0 95 47 a3 bc 30 ad e8 3c 4f 32 9c bd b9 54 eb bd
       -0.019931594 0.028402895 -0.07626783 -0.11490769

gkf.gat_rnn.r_input_gru.bias_ih_l0 f4 [192]
000000 f5 08 12 3e 9c 6c a3 bd ae 00 a3 bd e8 b5 61 3d
       0.1426123 -0.079797 -0.07959114 0.05510512
000010 e4 79 f9 bb 10 39 05 3e 2d 03 6a bd ef c1 6b 3d
       -0.0076134074 0.13010049 -0.057131935 0.057557996
000020 7a 4a 0c 3d dd 0f e4 3c 28 63 df bd 7a 3b 57 b9
       0.034250714 0.027839595 -0.109075844 -0.00020526155
000030 b9 a5 77 ba ad c9 7b bd fd a3 af 3d a3 a3 e0 3d
       -0.0009446997 -0.06147163 0.085762 0.10968711
000040 4c d5 ed 3d a6 8e cd 3d 20 32 4f bd f6 e1 a5 bd
       0.11612949 0.10036974 -0.050584912 -0.08099739
000050 c0 94 ac 3d 2a ce dd 3d 3e 10 8c bd cc 7f 8e 3d
       0.08426809 0.10830338 -0.068390355 0.06957969
000060 bd 5f 33 bd 42 eb 9e bc b6 83 c6 3d 98 3a cf 3d
       -0.043792475 -0.019399289 0.096930906 0.10118598
000070 78 38 c7 bd 50 2a 98 3d f9 79 e6 3d 06 cc e0 3c
       -0.097275674 0.074299455 0.11253733 0.027441036
000080 5f 49 86 3d e5 a2 28 3d 78 67 86 3c ab 71 a2 3d
       0.06556963 0.041170973 0.01640676 0.07931837
000090 21 e3 92 bd 23 a7 2a 3b b3 40 e0 bc bf 81 82 3d
       -0.07172228 0.0026039563 -0.027374601 0.06372403
0000a0 ef 47 d4 bd bc ea 89 3d d4 7d 3e bd 2e 6f c6 3d
       -0.10365283 0.06734225 -0.046506718 0.096891746
0000b0 19 69 87 3b fb 03 b5 3c a5 aa 7a 3d 7b be 2c 3d
       0.0041324017 0.022096625 0.061197896 0.042173844
0000c0 6d e7 8c 3d a3 6a ae 3d d3 5a 77 bc 80 36 73 bd
       0.068800785 0.08516433 -0.015097338 -0.059378147
0000d0 91 6c 52 3d e6 c7 e9 bd 8b 81 3b 3d 19 93 44 3d
       0.05137307 -0.11415081 0.04577784 0.047991846
0000e0 8d 50 ee 3d 88 8f a4 3d 88 98 86 bd 49 a9 a0 bd
       0.116364576 0.08035189 -0.06572062 -0.078447886
0000f0 26 36 80 bc ca b6 cb bd b3 b7 02 3d 84 7e a3 3d
       -0.01565082 -0.099469736 0.03191347 0.07983115
000100 55 ef 2d 3d 25 36 1b be 0d 60 d5 3c 3c 2f c0 bd
       0.042464573 -0.15157373 0.026046777 -0.09384009
000110 96 19 b0 bd 23 e3 f9 bd ef 8f 81 bd 87 4e 96 bd
       -0.0859863 -0.12201526 -0.06326281 -0.07339197
000120 06 40 89 bd d4 c2 a3 3d a5 fd 2b bd 7b 29 6d 3c
       -0.067016646 0.07996145 -0.04198994 0.014475222
000130 ca 15 67 bd 57 49 6d 3d 78 e0 e6 bd 78 b2 80 bd
       -0.056417264 0.05793127 -0.11273283 -0.0628404
000140 32 b1 d9 bd 3d cf c0 bd 34 68 7e bd d7 6e 00 be
       -0.106295004 -0.094145276 -0.062111095 -0.12542282
000150 30 ec e3 bc 9a c4 18 be ec 34 0d bc ee 5f 8b bb
       -0.027822584 -0.14918748 -0.008618575 -0.004253379
000160 17 05 57 3d 1a fa f6 bd 05 80 5e bd 5c ec ea bc
       0.05249509 -0.12059422 -0.054321308 -0.028677158
000170 43 78 13 be 0b d2 21 3d dc 60 16 3d 9b 38 43 3d
       -0.14401345 0.039506953 0.036713466 0.047661405
000180 46 c9 2e bd 18 ae 73 bc 8b 62 54 3d a6 b2 9d bd
       -0.042672418 -0.01487305 0.05185179 -0.0770009
000190 78 61 47 3c e2 11 5c 3c 97 d6 11 be 44 a1 a2 bd
       0.012169234 0.013431998 -0.14242016 -0.07940915
0001a0 60 f9 a8 bd 61 a9 f9 bd b7 49 ab 3d de a0 8c bd
       -0.082506895 -0.121905096 0.08363669 -0.068666205
0001b0 b1 ce 89 bd 48 94 11 be 56 41 a9 3d 56 60 2f bd
       -0.067288764 -0.14216721 0.08264415 -0.042816482
0001c0 08 6a 93 3d 1e 66 8c 3d ab 59 8c bd 14 06 a5 bc
       0.07197958 0.06855415 -0.0685304 -0.0201445
0001d0 c1 43 f8 3c 2b f2 c2 3d cb 50 48 bd c1 55 7f bd
       0.030305745 0.09518846 -0.048905175 -0.06233764
0001e0 5c 6b c2 3d 65 f9 8c 3d 28 16 c7 bd 86 e3 b5 3c
       0.094931334 0.06883506 -0.09721023 0.022203218
0001f0 09 fa 07 be 6b 70 7b 3b b6 83 3d 3c fa a4 99 bd
       -0.13278975 0.0038366567 0.011567047 -0.0750217
000200 a3 bb df bc 44 c0 4b 3d df f3 a6 3c 71 15 a2 bd
       -0.027311152 0.049743906 0.020379959 -0.07914246
000210 49 fa dd 3c 01 01 d3 3c f7 2d ac bd dc 29 f5 3d
       0.027096884 0.025757315 -0.084072046 0.11970875
000220 22 da a0 bd b0 2f 42 3d a1 7c ca bd 4b f4 0d be
       -0.078541055 0.04740876 -0.09887052 -0.13862722
000230 0f f1 45 3d 9b a8 eb 3d c8 fa a5 bd ed 02 74 bd
       0.048325595 0.11506768 -0.08104473 -0.059573103
000240 ec 54 a4 bd cf ef 00 be 12 55 f0 3c ac 21 ab 3d
       -0.0802401 -0.1259148 0.02933744 0.08356032
000250 d0 b3 70 3d 5c 62 1c bd 24 a4 84 bd ff 37 0b bc
       0.058765233 -0.03817974 -0.0647662 -0.008497237
000260 ea d7 58 bd 26 fa ab bd 87 9e 90 3c a0 87 a7 bc
       -0.052940287 -0.083973214 0.017653717 -0.020450413
000270 84 a4 c9 bd ac a3 da bd 7a 39 c6 3d e8 16 15 bc
       -0.09845832 -0.10675749 0.096789315 -0.0090997
000280 c8 15 30 bd ca 02 a0 bd 3d 8d c5 3d b9 72 35 bc
       -0.042989522 -0.07813032 0.0964608 -0.011074715
000290 43 ab fb 3d c0 ca 19 bb a5 95 c0 bd 7c 13 d1 3d
       0.12288525 -0.0023466796 -0.094035424 0.102087945
0002a0 03 80 8f bd ef 76 9f 3d 92 de 4b 3a 60 84 e1 bb
       -0.07006838 0.07786357 0.0007777001 -0.0068822354
0002b0 04 b5 b7 bd 40 d1 ca bd 88 9f 4b bd f9 72 69 3d
       -0.08970073 -0.099031925 -0.049712688 0.056994412
0002c0 a8 d7 00 be 4c f4 40 bd 4a 53 7a 3c 4e 15 e6 3b
       -0.12582266 -0.04710798 0.015278647 0.0070215827
0002d0 e2 7f 19 be 3d e2 4a bd 06 f5 0f bd 5d cf 0a 3d
       -0.1499019 -0.049532164 -0.035145782 0.033889163
0002e0 9a af 60 bd e7 88 c6 3d 0b ee f8 bc dc 69 b2 3d
       -0.054854967 0.09694081 -0.030386945 0.08711597
0002f0 e0 94 b4 3d cf 7c a7 3d 96 0e 17 3d 8c 15 0c 3e
       0.08817458 0.08178102 0.036879145 0.13680094
