models/no_mismatch/kalman_process_50n_local_params_r_half_linear.pth (torch, 269890 bytes, 28 tensors)

gkf.gat_rnn.fc_delta_y_innov.0.weight f4 [64, 3]
000000 e3 6f dd 3e d7 18 f5 3e 7b ed 26 be 9a 48 04 3f
       0.43249425 0.47870514 -0.16301529 0.5167328
000010 11 61 01 be 5e f6 21 3e c5 25 89 be cc bf a8 3e
       -0.12634684 0.15816638 -0.26786628 0.3295883
000020 2f 18 0c 3f 16 85 d4 be 62 24 09 3f 7f df d1 3d
       0.547244 -0.41507787 0.5357114 0.102477066
000030 e4 6f ce 3e 8d 77 6a 3d 04 51 78 3e f2 1b 8d bd
       0.4031974 0.05724292 0.24249655 -0.06890096
000040 a9 26 eb 3e f2 6d c9 3d 5c e1 89 be 0d 1e 1d 3e
       0.45927933 0.098354235 -0.26929748 0.15343495
000050 30 23 79 be de 78 0c bd eb 77 80 be 88 ac d4 3e
       -0.24329829 -0.034294955 -0.2509149 0.4153788
000060 a3 a9 e9 be a2 67 87 be 0b df 1a be 61 15 b6 be
       -0.45637235 -0.26446253 -0.15124147 -0.35563186
000070 8d db 81 3d f9 50 16 bf a6 8e 04 3f 9f a2 04 bf
       0.06340704 -0.58717304 0.51780164 -0.5181064
000080 f5 c3 fb 3e 58 1a a9 3d 38 ec 63 be 8d 4b c5 3e
       0.4917294 0.08256978 -0.22258079 0.38534203
000090 27 f4 c8 3d 80 fa ea 3e d9 e0 95 3d fc 3b 3e be
       0.09812193 0.4589424 0.07318277 -0.1857757
0000a0 35 ed 1e 3e 61 ec 2a be 8c cf 82 3e b7 fe 09 3f
       0.15520175 -0.16691734 0.2554897 0.5390429
0000b0 97 1e b4 3e 5e 2b 82 be 26 54 aa 3e 03 a5 e6 3d
       0.35179588 -0.25423712 0.33267325 0.11261942
0000c0 cf 6b 9a 3e 5e 37 b0 be 03 13 13 bf 6a 37 41 be
       0.30160376 -0.34417242 -0.57450885 -0.18868795
0000d0 4a 0d ed be d1 dc 04 3f 91 05 35 3e 87 3d 82 3e
       -0.462992 0.5189944 0.17677905 0.25437567
0000e0 c0 a1 68 3e 05 ec cb 3a 4f e8 ea 3e 2c dc d3 be
       0.22717953 0.001555801 0.45880362 -0.41378915
0000f0 19 a1 e9 3c ef 30 d1 be 59 a9 27 3e 73 54 51 be
       0.0285192 -0.40857646 0.16373195 -0.20442371
000100 54 e3 32 3e e3 54 e1 bd da 4e f7 3e c4 f6 ab be
       0.17469531 -0.11002519 0.48302346 -0.33586705
000110 24 5f ad be 7c 74 a8 be 14 c0 0a 3f 7d f0 31 3e
       -0.3386165 -0.3290137 0.5419934 0.17376895
000120 78 94 10 3f 8b 90 e1 be 79 10 18 bf fa 46 e8 be
       0.56476545 -0.4405559 -0.59400135 -0.4536665
000130 82 44 c5 be 72 17 62 3e fd de 51 3e 23 4c 00 3f
       -0.3852883 0.22079256 0.2049522 0.50116175
000140 25 92 9d be 34 d0 c3 be 9e 67 90 3e bf 27 5e be
       -0.30775562 -0.38244784 0.28204054 -0.2169485
000150 c1 e7 af 3e 02 b3 23 be 36 af c1 3e 6b 8a df be
       0.34356502 -0.15986255 0.37828988 -0.43660292
000160 3d d2 91 be 61 c0 5e 3e f5 d2 00 3e d7 52 27 be
       -0.28480712 0.21753074 0.12580474 -0.16340195
000170 6a 11 ae 3e 28 9d cb 3e a4 23 c8 be 1f c5 b0 be
       0.3399766 0.39768338 -0.39089692 -0.3452539
000180 db fc 08 3f ee de 3b be f6 0e 48 be ab a9 0c bf
       0.53510827 -0.1834676 -0.19536957 -0.5494639
000190 22 90 ad be fd 3d 29 3e f1 60 47 bd 18 54 d6 be
       -0.33899027 0.16527553 -0.048676435 -0.41861033
0001a0 ba ce 79 3d 1a ab cc be ef 76 f4 be 33 4c 9a be
       0.060988165 -0.3997429 -0.4774699 -0.3013626
0001b0 1c 83 01 bf 92 76 c8 be 3c 95 18 3f 28 4c 04 3e
       -0.5059068 -0.39152962 0.59602714 0.12919676
0001c0 3b f9 47 3e 64 5a 13 bf 16 23 c1 be 9c 6c 46 be
       0.19528668 -0.575598 -0.3772208 -0.19377369
0001d0 7b 01 bc 3d 0f 34 03 bf f3 cf 76 be f8 17 ad be
       0.0917997 -0.5125131 -0.24102764 -0.3380735
0001e0 c9 15 45 3c 53 4f 5f be 5b 61 88 bc 42 7b ca be
       0.01202912 -0.21807604 -0.016647985 -0.39547163
0001f0 2d 25 ca be 2e 29 99 be 2b d5 22 be 83 90 f2 be
       -0.39481488 -0.2991423 -0.1590163 -0.4737588
000200 23 27 07 3f 8f 29 c1 bd c0 1d 08 3f 8d 06 32 3e
       0.5279409 -0.09431755 0.53170395 0.17385311
000210 63 f8 fb be 89 2d d0 3e 30 2c 1e be 9b 90 61 be
       -0.49212942 0.4065974 -0.15446544 -0.22027819
000220 23 a9 fc be 3e b4 13 bf f5 1d 3a 3e 97 f2 05 be
       -0.4934779 -0.576969 0.1817549 -0.13080822
000230 6a f7 7b 3e 91 d0 fa be 3c d8 e3 3e c5 8b dd be
       0.246061 -0.4898725 0.4450091 -0.43270698
000240 f6 4d b8 bd f5 fe d2 3d e2 76 ac 3e e2 ac f1 3e
       -0.08999245 0.103025354 0.3368445 0.47202212
000250 f6 3e 0e 3f fc 9a f3 be 54 0d 2a 3e 77 7c 8a be
       0.5556482 -0.4757918 0.16606647 -0.27048084
000260 23 b4 cb bc 17 a1 e4 be 2c 1a 0d 3f 9a 53 e4 be
       -0.02486617 -0.44654152 0.5511806 -0.44595033
000270 f3 26 a2 3e 4a a3 69 3e fb 69 53 3e 2b 00 a3 be
       0.3167034 0.22816196 0.20645897 -0.31836066
000280 40 a2 0b 3f 17 9e ec 3d 81 ba e7 3d 95 9d 0b bf
       0.5454445 0.11553591 0.1131487 -0.54537326
000290 e3 2e 91 3e 3c 5b 7c bd 1c 06 89 be 54 6a 08 3f
       0.28356084 -0.061610445 -0.26762474 0.53287244
0002a0 f2 3f 01 3e 96 d2 9f be 43 79 9c be 8c c4 dd bc
       0.1262205 -0.31215352 -0.30561265 -0.02707126
0002b0 ce 2d b5 3e 84 08 45 be f9 f5 ab be bb ce 3d be
       0.3538651 -0.1924153 -0.335861 -0.18535893
0002c0 13 ed e6 be c0 03 60 3e 29 af de 3e dd b2 12 bf
       -0.45102748 0.2187643 0.43493012 -0.57304174
0002d0 c0 cf 15 3e 0b 8b a8 3e 6c 47 d9 3d 81 db 4c be
       0.14630032 0.3291858 0.10609326 -0.20005609
0002e0 c9 98 9f 3e 54 93 a7 3e 6a e3 64 3e 53 14 0d be
       0.31171253 0.3272959 0.22352377 -0.13777284
0002f0 75 4f d8 bd 99 f4 61 3d 62 53 e4 bd 6b 74 2a be
       -0.1056203 0.055164907 -0.111487165 -0.16645972

gkf.gat_rnn.fc_delta_y_innov.0.bias f4 [64]
000000 70 22 b2 3e e4 f1 05 3f 68 3d fe bc 2d 7c c6 bd
       0.347919 0.5232222 -0.03103514 -0.096916534
000010 10 66 bc bc f2 ce 8e bc aa 73 18 3e c7 b4 3c 3e
       -0.022997886 -0.017432664 0.14887872 0.18428336
000020 d9 31 05 bf cd 15 53 be 89 3c 03 3f 59 17 6b 3e
       -0.52029186 -0.20613785 0.51264244 0.22958125
000030 1d c9 d8 bc 93 7f b2 be e1 eb a6 be 4d 41 04 bf
       -0.026463086 -0.34862956 -0.32601836 -0.5166214
000040 07 83 3a be 0e 83 70 3e 21 f9 cd 3e f6 03 8c 3e
       -0.18214045 0.23487493 0.40229133 0.27346772
000050 15 66 07 bf 2d 29 b1 be e0 92 ac bd 4c 53 11 3f
       -0.5289014 -0.34601727 -0.08426452 0.56767726
000060 81 b9 cc 3d e6 d4 25 be 6b ee 80 3e d1 2c 74 be
       0.099963196 -0.16194496 0.25181898 -0.23845221
000070 36 f0 b7 be 93 32 e7 3e 15 cc 88 be 4a ff e1 bd
       -0.35925454 0.45155773 -0.26718202 -0.11035021
000080 17 c1 0f bf 90 28 ce 3e 40 8c ee 3e 70 e1 67 3e
       -0.56154007 0.40265322 0.46591377 0.22644591
000090 73 e8 c9 be 89 9e 0e bf cb db f0 be 84 fe e2 3e
       -0.39435157 -0.55710655 -0.4704269 0.44334805
0000a0 82 a1 90 3e 40 b7 00 3f 09 bc a6 3e 1c 18 2e 3e
       0.2824822 0.5027962 0.32565334 0.17001384
0000b0 f1 17 32 3b c3 6a e5 be 71 21 f3 be d1 bd 06 bf
       0.0027174915 -0.44808015 -0.4748645 -0.52633387
0000c0 0a b6 7a 3e c3 07 84 be 4d 1b b3 bd fc e2 9e be
       0.24483505 -0.25787172 -0.087454416 -0.3103255
0000d0 db af 9c bd 8a 31 c8 be 51 b9 ac be 3f ab 60 3e
       -0.07650729 -0.39100295 -0.33735135 0.21940325
0000e0 bf 6d 31 be 21 77 b8 3e 3b e9 35 be e3 3d df be
       -0.17327021 0.36028388 -0.17764752 -0.43601903
0000f0 5e 70 a4 bd 68 ce 87 be 58 ae 26 be 8b 81 0d bf
       -0.08029245 -0.26524663 -0.16277444 -0.5527579

gkf.gat_rnn.fc_delta_y_innov.2.weight f4 [64, 64]
000000 39 05 98 3d b3 d2 a0 bd be 27 c2 3d 4b d1 9c 3d
       0.07422871 -0.07852688 0.094802365 0.07657107
000010 fc 57 ba 3d 31 f4 a6 bd 1b d7 dc 3d 9e 63 c6 bc
       0.09098813 -0.081520446 0.107832156 -0.024217423
000020 23 46 dc 3c 1b 76 cc 3d 89 a3 85 bb 27 a2 de 3c
       0.026888913 0.09983464 -0.004078333 0.02717693
000030 c6 c8 ba bc 38 57 fd bd 9e eb 75 3d ee 8b 0f be
       -0.022800814 -0.12370151 0.060039155 -0.14018223
000040 63 03 6b 3d 3c c7 05 3e 78 19 08 3e 07 68 b2 bc
       0.057376277 0.13064283 0.13290966 -0.02177812
000050 cb c2 ef bd 6a 3b 25 3c 21 ae 64 3d bf 09 ce bd
       -0.11707076 0.010084966 0.055830125 -0.10060453
000060 2e 54 26 bd fb 4e 93 bd 33 3d ef bb b4 4b 55 bd
       -0.040607624 -0.07192799 -0.0073009967 -0.05207415
000070 94 98 62 bd b5 c6 02 bc 4c 8d d6 bd cd cc b0 3d
       -0.05532129 -0.007981946 -0.10476169 0.08632813
000080 48 f5 b1 3d 8d 33 18 3c 10 59 a3 3c 9f 11 6e bd
       0.08689362 0.009289634 0.01993993 -0.058122274
000090 24 c5 d2 bd 47 26 20 be c5 16 e0 3c 9b c1 43 bd
       -0.10291508 -0.15639602 0.027354607 -0.04779206
0000a0 49 48 4c bd 99 c9 54 3c 1c a6 b5 bb a2 87 b0 bc
       -0.049873624 0.012987518 -0.0055434834 -0.02154905
0000b0 a4 a8 b2 3c b7 86 31 bd 73 6f 7f bd 39 c1 a0 bd
       0.02180893 -0.043341365 -0.062362146 -0.07849354
0000c0 46 b0 94 bd 7e d2 cb 3d 1f c4 95 bd 72 39 4c 3d
       -0.07260184 0.099522576 -0.07312798 0.04985947
0000d0 74 24 2e bd 77 cf db 3c 03 3a b6 3d 7c 16 bd 3d
       -0.042515233 0.026832325 0.088977836 0.09232804
0000e0 75 f9 0c be 8a fe 7e 3d d8 7c cd 3d 9b 2d c2 3c
       -0.13767035 0.062254466 0.10033578 0.023703387
0000f0 9d 5b b1 3d aa 4e 10 3e 17 66 14 bd 8c 85 65 3b
       0.08660052 0.14092508 -0.036230173 0.0035022227
000100 8f 2c 44 bd 01 b5 41 3b 00 ee df 3d cf 91 b5 3d
       -0.047894057 0.002955735 0.10934067 0.088657014
000110 e2 fe 68 bd 06 34 84 bd 30 fd 76 bd 5c 85 0b be
       -0.0568837 -0.06455235 -0.060300052 -0.13625091
000120 d1 1c b1 bd df cc 73 bc ff 3d bd 3d e0 eb c1 3c
       -0.086480744 -0.014880388 0.092403404 0.023672044
000130 04 88 60 bd 2a 4a b2 bd fe 6f ca 3d b8 2c a0 bd
       -0.054817215 -0.08705552 0.09884642 -0.078210294
000140 06 b8 36 3c 95 27 80 3d 38 01 c6 bc 87 b1 dc 3c
       0.011152273 0.0625755 -0.024170503 0.02694012
000150 d4 ad 3f bd 7c 49 7d bc 93 b4 25 bd 68 1c aa bd
       -0.046796635 -0.015459415 -0.040455412 -0.08306199
000160 94 93 9a bd 88 f7 6f bd 09 2e 26 3e 0a c0 2c bd
       -0.075476795 -0.058585674 0.16228499 -0.04217533
000170 2d df aa bd d0 53 2d 3d 20 8e c9 bc 2b 31 b3 3d
       -0.08343349 0.042316258 -0.024603903 0.087496124
000180 b6 73 ec 3d 7c 49 a5 3d 1d 0e f1 bd 26 af d5 3c
       0.115455076 0.08070657 -0.1177027 0.026084494
000190 b9 4f a5 3d f7 bb 91 bc 71 6c 83 bd 39 40 0e 3e
       0.080718465 -0.017789824 -0.06417168 0.13891686
0001a0 e6 06 ec bc 3a 13 5d bd c3 0c e5 bd d5 1c 20 3d
       -0.028811883 -0.053973414 -0.11184075 0.039089996
0001b0 9c 98 a1 3d c7 53 40 bb a4 59 bb bc 65 ad a0 bd
       0.07890436 -0.002934681 -0.022869892 -0.078455724
0001c0 e7 23 c3 bd fe b9 28 3d 23 b3 d1 3d 14 97 c0 3d
       -0.09528332 0.041193 0.10239246 0.09403816
0001d0 3a 97 2d bd d6 df b4 3b e0 ab 17 be 8d 0d 89 bd
       -0.04238055 0.0055198474 -0.14811659 -0.06692038
0001e0 c0 42 08 bb 24 5c d9 3d ef 9b ee 3d e0 06 a3 bd
       -0.002079174 0.106132776 0.11650836 -0.07960296
0001f0 a0 31 fd 3d c3 db 8f bd fb e7 8a 3d a7 25 9e 3d
       0.12362981 -0.07024338 0.06782528 0.07722025
000200 51 1a cf bb 98 d1 e3 3d d3 1e c6 bd 9e 36 39 bd
       -0.006320276 0.11123961 -0.09673848 -0.045218103
000210 ff a7 8e 3d 67 db 1f bd 88 4b ef bc 0f c3 23 bd
       0.069656365 -0.039027598 -0.02921082 -0.039980944
000220 b2 47 b9 3d 94 02 72 3d 49 db 30 3d 26 73 7a bd
       0.09046878 0.05908449 0.043177877 -0.06114497
000230 dd bc e3 bd 95 df 3f 3c 9b 64 f4 3c 5c f5 67 bd
       -0.11120007 0.011711021 0.029833129 -0.056630477
000240 c7 c8 11 bd 4f 0d c5 3d 18 f6 cd 3b 3d 6b d8 bb
       -0.035591867 0.09621679 0.00628544 -0.0066045807
000250 70 71 b2 bc bb fe e9 bd 14 6c fb bd a7 a7 83 bd
       -0.021782607 -0.11425539 -0.12276474 -0.064284615
000260 f8 5b 8f bd f0 23 48 3d b8 e7 3f bd ec 4b 3d bd
       -0.069999635 0.048862398 -0.046851844 -0.046214983
000270 ef 1c 00 3e 40 f3 54 3d 75 e6 c9 3d ee 3b 83 bd
       0.12511037 0.051989794 0.09858409 -0.06407915
000280 19 40 61 bd 6a c6 5a 3d 32 a0 91 bd 31 3c 80 bd
       -0.05499277 0.05341188 -0.07110633 -0.062614806
000290 f2 b4 2b 3a 47 a5 61 bd d2 50 b2 bd 83 1f a1 3d
       0.0006550095 -0.05508926 -0.087068215 0.078673385
0002a0 e0 c1 dd 3d 00 12 d1 3c 75 da 23 bc c0 dd fd bd
       0.10827994 0.025521278 -0.010000815 -0.12395811
0002b0 81 26 3b bd 75 78 0c 3d 49 1b 83 3d aa e4 90 bc
       -0.045691017 0.034294564 0.064016886 -0.01768716
0002c0 2b 0c 31 bd 5a 21 73 3d f9 79 b2 bd 20 07 a1 3d
       -0.043224495 0.05935798 -0.08714671 0.07862687
0002d0 78 19 5b bd e2 e6 ec 3b 89 d1 7e bb 36 cf dd 3c
       -0.053491086 0.007229672 -0.0038882217 0.027076345
0002e0 88 28 09 bd b3 16 a4 3d 52 14 1b bb 56 fd b1 3d
       -0.03348592 0.08012142 -0.0023663235 0.08690898
0002f0 27 a9 e5 3d 2e 42 67 bd 34 02 c2 bd bc 08 cf 3d
       0.11213904 -0.0564596 -0.094730765 0.10109088
000300 c2 00 ef 3d 18 2d a4 bd 67 de e9 3b 4a 9d d5 bd
       0.116700664 -0.080164135 0.007137108 -0.10430391
000310 f8 9f b9 bd 81 7d 44 3d 09 2d 59 3d da df 72 3c
       -0.09063715 0.047971252 0.053021464 0.014823878
000320 6d 0f 20 bd 28 38 e9 3d 89 7d db 3c 0f a3 8d bd
       -0.03907721 0.11387664 0.026793258 -0.069158666
000330 5d fa 6e 3c da f2 e7 3c 33 32 75 3d e8 1a bd bd
       0.014586058 0.028314043 0.059862327 -0.092336476
000340 32 48 52 3d 4d 08 6a bd 20 e3 ab bd 27 1d 36 bd
       0.051338382 -0.057136822 -0.0839293 -0.044461396
000350 d9 a1 c7 3d 5d 93 d4 3d 20 c4 f4 3d 71 76 c2 3d
       0.09747667 0.1037967 0.119514704 0.09495247
000360 99 f7 d3 3d 24 25 a0 bc 02 15 43 bd 59 0d 97 3d
       0.1034996 -0.01954896 -0.047627456 0.07375593
000370 e1 39 7f bd c3 d8 93 bd ab ac 5b bd 57 0a 01 3d
       -0.062311057 -0.072190784 -0.053631466 0.031504
000380 3e 91 8e 3d ba 23 2d bd 92 3f 84 bd 93 34 50 3c
       0.069612965 -0.0422704 -0.064574376 0.012707847
000390 a1 44 9f bd 30 b1 c1 bd 48 e3 6e 3d 3e 9d e3 bb
       -0.07776762 -0.09457624 0.05832222 -0.006946235
0003a0 97 30 05 3e 8e 6e 08 3e 2b bd 27 3d 82 b3 87 3d
       0.13006817 0.13323423 0.04095189 0.06626035
0003b0 3e a2 40 3d ad ad 94 bc 6c b5 e5 bc b2 bd 06 3b
       0.047029726 -0.018149221 -0.02804061 0.0020559845
0003c0 0c 26 88 3d 0e 59 07 3e fa 21 20 bd e9 bc 0e bd
       0.06647882 0.13217565 -0.039094903 -0.034848128
0003d0 23 f5 83 bc a2 14 33 bd e5 b4 30 bc 6e 0a b2 3d
       -0.016108101 -0.04372085 -0.010785316 0.086933956
0003e0 3d 12 9d 3d cc 1f a5 3d 58 d8 c0 bd 37 b2 5d bd
       0.07669494 0.080627054 -0.09416264 -0.054125037
0003f0 b2 b9 12 bc 4b eb 4a bc ed 56 7c 3c 28 62 0b be
       -0.008955406 -0.0123852 0.015401584 -0.13611662

gkf.gat_rnn.fc_delta_y_innov.2.bias f4 [64]
000000 af 7c 99 3c 1b 37 b6 3d 66 50 8e 3c 99 03 8e bd
       0.018736212 0.08897229 0.017372321 -0.0693428
000010 52 dc 81 3d c3 97 a2 3d a1 d1 44 bd 39 77 6d bd
       0.06340851 0.079391025 -0.04805148 -0.057975028
000020 b5 55 97 bd eb 13 50 bd 93 a2 b8 bc f9 bd da 3c
       -0.07389394 -0.050800245 -0.022538459 0.026701914
000030 73 bd c0 3b 70 bd 77 bc e0 fe 9a 3d d1 a7 8c 3c
       0.005881959 -0.015120849 0.07568145 0.017169865
000040 4e bd 88 bd a7 c3 cc bc 32 37 b4 bd aa 03 da bc
       -0.06676732 -0.024995638 -0.0879959 -0.026613075
000050 7d c5 c7 bd 53 ef ff 3c 63 f6 94 bd 0c af 46 3d
       -0.09754465 0.031242048 -0.07273557 0.04850678
000060 2a 9c d7 3d 98 dd c3 bd 4b 14 52 bd e7 fa ee bd
       0.10527833 -0.0956375 -0.051288884 -0.116689496
000070 bb da ea 3c 0b a1 17 3c 0c 1e dd bc 92 7f e6 3d
       0.028668752 0.009254704 -0.026991867 0.11254801
000080 5c 98 86 3d da 33 96 bd fe 11 51 3c 3c 6c 3a bd
       0.06572029 -0.07334109 0.012760637 -0.045513377
000090 2e 89 41 bb 34 9c 6e 3d 73 b1 96 3b 92 6d c9 bd
       -0.0029531228 0.058254436 0.0045987903 -0.09835352
0000a0 df 65 c2 3d 70 a1 b8 bd 70 8e 07 bd a1 d3 6b 3d
       0.094920866 -0.09015167 -0.033094823 0.057574872
0000b0 02 35 fe 3d 76 2c 03 3e 46 7d b3 3a 99 86 3a 3d
       0.12412454 0.12809929 0.0013693951 0.04553852
0000c0 39 f2 e4 bd 1e b3 ec bb 55 d1 91 bc 98 a1 3d 3d
       -0.11179013 -0.007223501 -0.017800013 0.046296686
0000d0 b6 c2 60 bd 0f 75 6b 3d 06 4b 86 3d 5f 9c f3 3d
       -0.05487319 0.057484683 0.06557278 0.1189506
0000e0 75 ab c5 bc ac 46 fa 3d f3 1f df bd 87 d9 1d bd
       -0.024129609 0.12220511 -0.10894766 -0.03853753
0000f0 60 fd 8c 3d 26 fc 8d 3c 94 9e a1 3d b7 d5 92 bd
       0.06884265 0.017332148 0.078915745 -0.07169669

gkf.gat_rnn.fc_r.0.weight f4 [64, 1]
000000 f8 e9 20 3f 2d 50 71 bf 60 c8 2a bf d5 9c 6c bd
       0.6285701 -0.94262964 -0.66712 -0.057766754
000010 59 e6 79 bf a2 7d 78 bf 79 c5 64 bf 1b dd 51 3f
       -0.9761711 -0.970667 -0.8936382 0.81978005
000020 f7 07 61 3e 67 77 9f be c2 5a 78 bd 38 93 62 bf
       0.21975695 -0.31145784 -0.06063343 -0.8850589
000030 9f b7 74 bf f7 08 34 bf 66 bc 7a bf 68 47 2e 3f
       -0.95592684 -0.7032618 -0.97943723 0.6807771
000040 f2 94 b7 be 2d 40 8a be b4 81 60 bf 7f 4c 31 3e
       -0.35855824 -0.27002087 -0.8769791 0.17314337
000050 a4 90 1b be d2 61 31 bf b5 93 28 3f e9 45 5e 3f
       -0.15191895 -0.69289887 0.65850383 0.86825424
000060 cc b9 37 bf c0 3b 15 3f e0 b7 29 be 2e 0b 5c bc
       -0.7176788 0.58294296 -0.16574049 -0.0134304
000070 09 48 dd 3e 7c f4 3c be 5f 9b 60 3f a5 82 20 3f
       0.4321902 -0.18452638 0.8773708 0.6269935
000080 92 31 2a bf ff ee 1c bf e1 13 80 bf c0 ba a1 3e
       -0.6648189 -0.6130218 -1.0006067 0.3158779
000090 50 50 41 bf 98 09 57 bf ee a9 26 bf a3 8c 80 bf
       -0.7551317 -0.83999014 -0.6510304 -1.0042919
0000a0 90 26 52 bf 86 a2 6a 3f be 8e 0d 3f dd 38 66 3f
       -0.8209009 0.9165424 0.5529593 0.89930516
0000b0 c8 d1 f8 be c6 5b d6 be 54 f0 ac be 37 04 fe 3c
       -0.4859755 -0.41866893 -0.33777106 0.03100787
0000c0 3e 5a 36 bf c2 c9 1e 3e 9d f2 23 bf a0 a3 2d 3e
       -0.7123145 0.15506652 -0.64042073 0.16956949
0000d0 5f 25 73 3f 31 3c 36 3e 46 a7 3f 3f 2a 46 36 bf
       0.949789 0.17796399 0.74864614 -0.7120081
0000e0 23 c5 06 be 1f 75 20 bf 24 a3 f0 bd 15 16 c7 be
       -0.13161139 -0.6267871 -0.117498666 -0.38884035
0000f0 d3 73 12 bf d5 18 7b bf 95 85 bb be 18 8a 1c 3e
       -0.57207984 -0.98084766 -0.36625353 0.15287054

gkf.gat_rnn.fc_r.0.bias f4 [64]
000000 fa bc 1d be b4 2d 6c bf 70 cf 49 3f 9c 3b 48 3f
       -0.1540412 -0.9225724 0.7883215 0.78215957
000010 31 b1 17 bf 76 c8 09 3e c3 f2 2e 3f 01 e9 6e bf
       -0.5925475 0.13455376 0.68339175 -0.93324286
000020 2e fe 63 bf a1 ff 0b 3f 16 90 e2 3b 76 6f ab 3e
       -0.8905972 0.54686934 0.006914149 0.33483475
000030 b4 57 cb be de fa 4e 3e 8b 3d 34 3f 07 ca 55 be
       -0.3971535 0.20212886 0.7040641 -0.20877849
000040 87 28 9c be d9 d7 74 bf 68 7a 00 be 1c 13 26 3f
       -0.3049967 -0.9564186 -0.12546694 0.6487291
000050 30 5b 76 bf a4 4c 6a bd 70 61 43 3f 53 1b 83 be
       -0.9623289 -0.057201996 0.7632055 -0.25606784
000060 a3 2c b8 be 09 61 91 be 11 e4 ce be 3e 69 de 3d
       -0.35971555 -0.28394344 -0.40408376 0.10859917
000070 b4 34 75 bf 18 0c c9 3e b7 4e 63 be 81 fe d2 bd
       -0.95783544 0.3926704 -0.22197996 -0.10302449
000080 4f f8 1e bd 5c 5c 18 3f 99 bf 19 bf f5 c8 6a bf
       -0.038811024 0.5951593 -0.6005798 -0.91712886
000090 80 73 36 bf ae 9d 39 bf d9 3f f2 be 17 56 52 3f
       -0.7126999 -0.72506225 -0.47314337 0.8216261
0000a0 de 0b 42 bf e4 f2 10 bf fb 2c 53 bf bb c3 f7 be
       -0.7579936 -0.5662062 -0.8249051 -0.48391518
0000b0 27 33 96 bc ef 7c 19 bf a7 bd 21 bc 3c ea bf 3e
       -0.018334938 -0.5995626 -0.009871877 0.37483394
0000c0 9e 04 3b be b3 6d ea 3e ca f6 5f 3e 62 62 7f 3f
       -0.1826348 0.4578682 0.21871486 0.99759495
0000d0 c0 c1 4a bc 88 bd 66 3f d9 3c 47 3f a0 13 fc 3e
       -0.012375295 0.9013295 0.7782722 0.49233723
0000e0 01 c8 18 3f 95 16 28 bf 14 1e 2a bf c7 13 ee 3e
       0.5968018 -0.6565946 -0.66452146 0.46499464
0000f0 07 20 c9 3e 24 e2 6f 3f 2d 99 09 be 1f 42 26 be
       0.39282247 0.9370444 -0.13437338 -0.1623616

gkf.gat_rnn.fc_r.2.weight f4 [64, 64]
000000 98 07 d9 3d b2 1b 5b 3c 31 f0 0a 3e d3 c1 28 bd
       0.105971515 0.013373302 0.13568188 -0.04120047
000010 42 74 f4 bc 3d 9b a6 3c c0 21 ac 3d 24 b6 c8 bd
       -0.029840592 0.020337695 0.08404875 -0.098003656
000020 8d 47 68 bd 64 c8 e1 3d f2 31 22 3d d1 df d5 3d
       -0.05670886 0.110245496 0.039598413 0.1044308
000030 e8 3a f7 bc 24 65 81 bd 89 74 8b bd cb ae 4e bd
       -0.030179456 -0.06318119 -0.06809337 -0.050459664
000040 7c 17 ac bd 83 fe 73 3d bb 2a 41 3d fc 2f 64 bd
       -0.08402917 0.059568893 0.04715989 -0.055709824
000050 64 53 d3 3d 9b a6 4a 3d f4 45 91 3d 1a 3c 06 bd
       0.1031864 0.049475294 0.070934206 -0.03277216
000060 c4 65 c9 3d 36 59 8e bd 70 70 c2 3d 27 f4 3a bd
       0.098338634 -0.069506094 0.09494102 -0.045642998
000070 3a e3 39 3d cc 9a ce bc 72 83 cf 3d 93 60 ac bd
       0.045382716 -0.025220297 0.10132493 -0.084168576
000080 bd aa 2b bc bf 85 81 bc 0e 17 82 bd c3 5b 9e bd
       -0.010477719 -0.015810845 -0.063520536 -0.07732346
000090 0a 4d d1 bc 68 84 bb 3c 32 3c cb 3d f4 41 41 bb
       -0.02554943 0.022890285 0.09923591 -0.0029488774
0000a0 8e 4d 07 3e 15 1a 2a bd 5d 9f 6a bd c9 b5 43 3c
       0.13213179 -0.04152878 -0.057280887 0.011945196
0000b0 22 4d 0c bc d1 b2 40 3d 93 15 05 3e 8a ef 87 3d
       -0.008563312 0.047045533 0.12996511 0.06637485
0000c0 3d 5a bb bd 56 91 95 bc ad bf 12 bc ef 03 b8 bd
       -0.09148071 -0.018257778 -0.008956832 -0.08985125
0000d0 f1 5b 76 3d d6 6a 08 3e 6b 04 b1 3d 77 fe 70 3c
       0.060146276 0.13322005 0.08643421 0.014709107
0000e0 7e 17 45 3c e5 d1 4a bd c6 b8 c5 bc 7c 09 03 3e
       0.012029527 -0.049516577 -0.024135958 0.12796587
0000f0 f7 36 41 bd 4c 7b 1b 3d 46 63 a2 bd 05 05 c6 bc
       -0.04717156 0.037959382 -0.07929091 -0.024172315
000100 f1 22 ab 3c 21 10 d0 bd ed 4f 51 3d 65 8e 9d bd
       0.020890685 -0.10159326 0.051101614 -0.07693175
000110 24 20 62 bd 30 11 bb 3d cb 06 05 3e 31 b7 d5 bb
       -0.055206433 0.09134138 0.12990873 -0.0065220823
000120 f5 77 d0 bd e2 ec a3 bd be fb f1 bc 84 af 65 bd
       -0.1017913 -0.08004166 -0.029538985 -0.056075588
000130 09 e1 c6 3d c8 64 a9 bd 9a b0 b2 3d 8c 78 15 3d
       0.09710891 -0.082711756 0.0872509 0.036491916
000140 ff a2 35 bd 5d 70 ad 3d 64 21 90 3d 24 df db 3c
       -0.0443449 0.08468697 0.07037619 0.0268398
000150 ea 45 e7 bd 88 39 10 bd 72 e5 89 3d 0b 67 f8 3d
       -0.11292632 -0.035211116 0.06733216 0.12129029
000160 9b 78 39 bd e2 8c 29 bd a3 65 09 be 72 d6 d9 3d
       -0.045281034 -0.041394122 -0.13417678 0.10636605
000170 af b8 f5 3d 36 cb e2 3d 31 0f 66 bd c5 65 d5 3d
       0.11998116 0.11073916 -0.05616683 0.104198016
000180 c4 e0 13 bd e5 84 a4 3d 44 5c 8d 3d b0 14 d9 bd
       -0.036103025 0.0803316 0.06902364 -0.10599649
000190 25 68 c5 3c 57 dd 32 3d e6 f4 a4 bd 52 ff 03 3e
       0.024097512 0.043668117 -0.08054523 0.12890366
0001a0 0b 00 ba 3d 95 41 e8 3d 41 3a 71 b9 bd ff 68 bd
       0.090820394 0.11340634 -0.00023005252 -0.056884516
0001b0 ea 62 87 bd e0 8d 0d 3d 72 1c b4 bc 90 d9 05 3e
       -0.06610663 0.03455913 -0.02198622 0.13071275
0001c0 73 c2 d5 3d ac 9e 26 3d d4 c5 c2 bd 0a a8 a5 3d
       0.10437479 0.040678665 -0.09510389 0.080886915
0001d0 c8 76 03 3e 14 52 d4 b8 17 d3 1f bd 95 eb 8e bc
       0.1283828 -0.00010124236 -0.03901967 -0.017446319
0001e0 45 fe 3f 3d 44 9a cd bd 8a ca 1f 3d 21 ab 90 3d
       0.04687335 -0.100391895 0.039011516 0.0706389
0001f0 77 73 14 bd 43 76 00 bd c7 2d 79 bd eb a0 ce 3d
       -0.03624293 -0.031362783 -0.060834672 0.100892864
000200 67 d0 86 3d 2f 2f 03 3d e5 a6 67 bc 4b 40 94 3c
       0.06582718 0.03202742 -0.014138912 0.018097064
000210 e7 3b ef 3d ad 4a 0c 3d 81 cb 8e bd 5c a0 2f 3d
       0.11681347 0.034250904 -0.06972409 0.04287754
000220 d5 2b 58 bd bd 8f 6e bc af 8a ac bd 5b 19 21 bc
       -0.052776176 -0.014560637 -0.08424889 -0.009832705
000230 2c a3 21 3b 76 39 a7 bd b5 db 95 3d 98 06 dc 3d
       0.0024663908 -0.08165257 0.073172964 0.10743445
000240 d1 77 dd bd 5a 50 06 3d 91 35 ba bd 62 6d 1e bd
       -0.10813869 0.032791473 -0.09092248 -0.038678534
000250 93 e6 72 3d c6 84 e2 bb 6a e5 ce 3c 3d 14 47 bd
       0.059301924 -0.0069128005 0.025255878 -0.048603285
000260 a5 38 ec 3d a6 3f 87 bd e8 6c a6 3c 6a a1 85 3a
       0.115342416 -0.06603937 0.020315602 0.00101952
000270 7d 35 a4 3d f4 ec 02 3b 61 74 89 3d 5d 59 c1 3c
       0.080180146 0.001997766 0.06711651 0.023602182
000280 e7 6a 99 3d e2 0d d2 bb 35 10 1b 3d dc 74 f3 3d
       0.07491093 -0.0064103464 0.037857253 0.118875235
000290 5b 66 35 bd 46 53 5f bd 70 7f b2 3d 02 e0 24 3d
       -0.044287067 -0.054522775 0.08715713 0.040252693
0002a0 fd ed f8 bd ad e2 19 3d 9a b2 02 be 6f b7 99 bd
       -0.12154768 0.03756969 -0.12763444 -0.0750569
0002b0 ab 4a 34 3d 02 63 7f 3d 4e 94 08 bd 34 bb bc 3d
       0.04401652 0.06235028 -0.03334456 0.09215394
0002c0 b4 8b f5 3d 2e 67 ab 3d 4a 71 f7 bd aa a1 72 bd
       0.11989537 0.08369289 -0.12082155 -0.059236206
0002d0 db 46 d2 ba d1 cd b3 3d 7f c8 08 bd 00 15 9b 3c
       -0.0016042845 0.08779491 -0.033394333 0.018930912
0002e0 84 5e 5b 3d 06 22 8d bd 84 4e 9d bd d4 b2 eb 3d
       0.053556934 -0.06891255 -0.07680991 0.11508718
0002f0 2d e6 21 bc aa c5 a4 3d 7e 1a 01 be f3 cc 59 bd
       -0.009881538 0.08045514 -0.12607762 -0.05317397
000300 d8 73 b1 3d ec 1b 8a bb 0e a9 39 3d 3b 3b e3 bd
       0.086646736 -0.0042147543 0.04532724 -0.11095282
000310 e5 35 04 3e e6 7e 66 bd 93 ca f7 ba 9e e8 a5 bd
       0.12911184 -0.056273364 -0.0018904976 -0.08101009
000320 a9 bb 54 bd 95 8e d9 bd ed 15 d3 bd 75 0b a4 bc
       -0.05193678 -0.106228985 -0.103069164 -0.020024994
000330 8c 7d 44 bd 87 e4 c8 3d d1 8c 82 3b 7c 20 c5 3d
       -0.047971293 0.09809213 0.003984072 0.096253365
000340 e8 55 58 bc 8f 6d 17 3d 15 cc 01 3e bb ca dd bd
       -0.013204075 0.036969718 0.12675507 -0.108296834
000350 f9 7b 38 bd 4c 52 e8 3d f1 f7 09 bd f8 96 0d bd
       -0.045040105 0.11343822 -0.03368372 -0.034567803
000360 fa e7 8d 3c e1 7a 8a bd 92 b7 91 3c 6d 6c 6e bd
       0.01732253 -0.067617185 0.017787728 -0.05820887
000370 65 47 33 3d 98 90 db bc 3f cc 2f bd 9c 93 45 bd
       0.04376926 -0.026802346 -0.042919394 -0.048236474
000380 58 d5 1f 3d 79 55 88 3d 88 d5 da bd 45 f2 a8 bd
       0.03902182 0.066569276 -0.10685259 -0.08249334
000390 21 aa e5 bd c5 5d 87 3d 2b 97 cf 3d 31 49 ed bd
       -0.1121409 0.06609682 0.10136255 -0.11586226
0003a0 87 1e 25 3d 9e a7 cc 3c 26 7d 85 bd d4 43 d9 3c
       0.040312316 0.02498227 -0.06518011 0.0265216
0003b0 db b4 d2 3d 9c fd 05 3e 6f 4d 77 3d 92 0f 0a bd
       0.10288402 0.13085026 0.06037658 -0.033706255
0003c0 ec 9e 83 bd da c2 6b bd f7 9e d7 3b eb 4f a8 bc
       -0.06426796 -0.05755887 0.0065802294 -0.02054592
0003d0 0a f5 b7 3d 6a 0a 00 be 3a 1b d5 3b c0 d0 0f bd
       0.08982284 -0.12503973 0.00650349 -0.03511119
0003e0 55 a0 da 3b 66 39 03 3e fa c2 58 3c ee f0 96 bc
       0.006671945 0.12814865 0.01323008 -0.018425431
0003f0 3a 3d 1a bd 28 b1 f7 bd 6e 7a d9 bd 3d 9f 63 3d
       -0.037656046 -0.12094337 -0.10619055 0.055571783

gkf.gat_rnn.fc_r.2.bias f4 [64]
000000 5a 01 73 3d 5e 89 01 3e 6e 4e 3f 3c f9 d2 1f 3d
       0.05932746 0.12650058 0.011676414 0.03901956
000010 79 6a 98 bd 44 33 a7 bd 30 fc 87 bd db 47 72 bd
       -0.07442183 -0.08164075 -0.06639898 -0.059150558
000020 8e 0a 01 bd 80 5d 88 bd 97 9e 9d bc 97 3c a1 bd
       -0.031504206 -0.06658459 -0.01924066 -0.07872885
000030 38 ff 82 3d 37 98 08 3d 9e f6 cc 3c 69 7f 3b 3d
       0.06396335 0.03334829 0.02501994 0.045775805
000040 f5 1d c8 bd 04 bb 5e bd 5a 87 38 3c cb a1 cb bd
       -0.09771339 -0.05437757 0.011262739 -0.09942969
000050 a0 2b 58 3d b2 2b c0 bd 40 32 95 3d bb 9b 1a 3e
       0.05277598 -0.09383334 0.07284975 0.15098469
000060 38 da d1 39 94 27 4a bd 66 cc f2 3d 1f d4 74 bd
       0.00040026172 -0.04935415 0.11855392 -0.059772607
000070 59 59 10 3d e3 30 a6 3d b9 23 04 3e 18 ea 85 3c
       0.03524146 0.08114793 0.12904252 0.016346976
000080 2c 88 a7 3c ff 64 1c bc 90 cf b6 bd 1a 91 88 3d
       0.020450674 -0.009545564 -0.08926308 0.06668301
000090 2c 37 d7 bd fd 22 10 3d 5b d2 26 bc c3 77 e4 3d
       -0.1050857 0.035189617 -0.010181989 0.11155655
0000a0 47 50 b8 bc 21 7d e7 3d dd 57 12 bb 5c e3 e0 bb
       -0.022499217 0.11303163 -0.0022330203 -0.006863041
0000b0 b1 6a b2 bd 32 69 0b 3e 1d 1a 89 3c 94 ac 08 be
       -0.08711756 0.13614348 0.016736085 -0.13347083
0000c0 01 c7 1f 3c 71 de a2 3d 4b 06 30 bd f4 3a be 3d
       0.009752036 0.079525836 -0.04297475 0.09288588
0000d0 6f 1f aa 3d 83 4b e8 3b fc 1d 1c 3e c9 ca f5 3d
       0.08306777 0.00708908 0.15245813 0.12001569
0000e0 6a c7 92 bc f3 8c 54 3c 2a ff 86 3d fc d4 9b bc
       -0.017917354 0.012973058 0.065916374 -0.019022457
0000f0 67 6f c3 3d 19 fd c0 bd 43 91 68 bd 54 4d 84 3d
       0.09542733 -0.094232745 -0.056779157 0.06460062

gkf.gat_rnn.r_input_gru.weight_ih_l0 f4 [192, 64]
000000 37 8d 07 be 1e 56 50 bd 4b 4f 9b bd 14 25 80 3d
       -0.13237463 -0.050863378 -0.07583483 0.06257072
000010 b4 53 05 bb aa 40 b1 bd 5f ed bd 3d 73 e2 86 bd
       -0.002034408 -0.08654912 0.092737906 -0.065861605
000020 de 9f 9f bc 0f 7c 00 3d 58 c3 c4 bd 05 04 89 bc
       -0.01948541 0.03136831 -0.09607571 -0.01672555
000030 fd 94 5b bd de 1a 12 bd 27 cb 57 bd e9 69 9a 3d
       -0.053608883 -0.035670154 -0.052683976 0.07539732
000040 a4 e4 93 bd ca 50 a2 bd 67 c3 2a 3d c7 bd 0f 3d
       -0.07221344 -0.079255655 0.041690256 0.035093095
000050 31 8a 2a bc 16 38 53 3b de 2a 08 3e 9e 26 71 bd
       -0.010408924 0.0032229475 0.13297603 -0.05887472
000060 9b 18 d4 bd 9c 6f 0b be 12 5a 62 3c ef 2f 31 3d
       -0.103562556 -0.13616794 0.01381542 0.043258604
000070 0a 7f 38 bc c1 2c ed bd c9 46 d3 bd b9 c2 ba bd
       -0.011260757 -0.11580802 -0.103162356 -0.09119172
000080 e7 64 91 3d 61 fd 99 3c a0 d8 9a bd 25 cc 08 be
       0.07099324 0.018797578 -0.07560849 -0.13359125
000090 74 5d 83 3d 9e b1 44 bc de a3 ed 3d 83 42 da bd
       0.06414309 -0.012005238 0.11603521 -0.10657217
0000a0 ad 47 e5 bd 16 ad c0 3a 62 3f 9d 3d 32 1c 94 3d
       -0.11195312 0.0014700021 0.07678105 0.0723194
0000b0 ae d4 f6 3d 0c 76 81 3d 77 f9 43 3d 45 10 8e bd
       0.12052284 0.06321344 0.04784533 -0.06936697
0000c0 f1 04 f4 3d ed 2f 7c bd b4 64 b4 3d 1d c8 6c 3d
       0.11915005 -0.061569143 0.0880827 0.05780803
0000d0 32 9f 9e bd 84 4a 0a bd d1 55 d4 bc 2a 44 b3 3d
       -0.07745208 -0.03376247 -0.025919827 0.08753236
0000e0 3d 38 b9 3d 01 ec 8f 3c a7 c2 a4 bd 61 34 f3 3c
       0.0904393 0.01756859 -0.080449395 0.029688062
0000f0 1d 5e be 3d cc cc a6 bd a5 a3 ad 3d d2 da 95 3c
       0.092952944 -0.08144531 0.08478478 0.018292818
000100 4e 0b 6a 3d 6e 06 e2 3c 53 88 85 3d 4a 44 c6 bd
       0.057139687 0.027590957 0.065201424 -0.09680994
000110 62 32 0f 3d 9c 8e f4 bd 23 44 be bc 93 a9 ac 3d
       0.03496016 -0.11941263 -0.02322585 0.08430781
000120 9d e6 dc bd dc ad e4 bd 7a c6 92 bd b1 3c b5 bb
       -0.107861735 -0.111659735 -0.07166763 -0.0055309166
000130 83 45 b5 bc 7b bd d5 bd 11 63 09 3c e6 9d 35 bd
       -0.022127872 -0.10436531 0.008385436 -0.044340037
000140 ac 8a 9a bd 5d 43 34 3a 38 7d d5 3c e0 64 6c 3c
       -0.07545981 0.0006876493 0.026060686 0.014428347
000150 73 1c c2 bd 5c 1b 9a 3d 61 f4 1e 3d 8a 5e 7e bd
       -0.094780825 0.0752475 0.038807277 -0.06210188
000160 b8 8f fa 3d 81 ce 81 3c a8 9d 62 3d 55 f5 ad 3d
       0.122344434 0.015845539 0.055326134 0.08494059
000170 64 5e 9c bc 86 da b0 3d 9e db 06 bc a2 09 c3 3d
       -0.019087978 0.0863543 -0.008231072 0.09523322
000180 f2 89 db ba 30 a9 5b 3d 86 2c 72 3d e5 54 b1 bd
       -0.0016749485 0.053628147 0.059124492 -0.086587705
000190 a2 3c dc 3d 35 f2 49 bc 07 c4 ed 3c 19 b7 c2 bd
       0.10753752 -0.012325813 0.029024137 -0.09507579
0001a0 4a c8 79 bd 08 2d b9 3d b9 a1 ba bd 92 23 7f 3b
       -0.060982026 0.09041792 -0.091128774 0.0038931114
0001b0 da ea db 3d bd 2b 09 be aa 11 1e bc d5 8c ff 3c
       0.10738154 -0.13395591 -0.009647766 0.031195084
0001c0 df 34 9e 3d bf 8e 40 bd b8 55 e3 bd 37 7b a1 bd
       0.07724928 -0.047011133 -0.11100334 -0.078848295
0001d0 d1 73 04 3d 9e e0 c8 bd 76 34 fa bd 17 d5 9f bc
       0.032337014 -0.09808467 -0.122170374 -0.019510789
0001e0 f7 9f b3 3c fd ce bf bd 31 a1 83 bd b6 62 75 3d
       0.021926863 -0.09365652 -0.06427229 0.05990859
0001f0 4b 3c c5 bd d1 88 f2 bd 97 0c 4d bd 86 80 a9 3d
       -0.096306406 -0.11842502 -0.050060835 0.08276467
000200 82 14 2c bd 06 13 c0 bd 09 ed c6 bd 44 b5 e4 bc
       -0.042011745 -0.093786284 -0.097131796 -0.027918465
000210 86 b9 9a 3d 35 30 2b 3d 1b 95 94 bd 17 ad e9 bd
       0.07554917 0.04179402 -0.07255002 -0.114099674
000220 16 c6 8e bd 13 9c 4c 3c a8 40 93 3d 0b 83 87 3d
       -0.06971376 0.012488383 0.071900666 0.06616791
000230 58 85 a7 bb ed 8b 95 3d a7 8c 51 3c 3f 5a 30 3c
       -0.0051123314 0.07302079 0.012789882 0.010763704
000240 9f 8d 08 3d 14 e7 14 bd 9a de 62 3c 4d 6c 99 3c
       0.033338185 -0.036353186 0.013847018 0.0187284
000250 77 a1 d6 3c a0 e4 3b bd c8 a1 c4 3d 2b 78 f9 bd
       0.02620004 -0.04587233 0.0960117 -0.12181123
000260 41 4b b8 3d dc 71 d0 bd b5 d4 c3 bd 9b 15 8c bd
       0.089987285 -0.10177967 -0.09562055 -0.068400584
000270 da b5 ca bc 38 6e 30 bd a2 be ef bd 82 a5 94 3d
       -0.024744917 -0.043073863 -0.11706282 0.072581306
000280 4f 7d ba 3c 15 07 04 3e 7f 49 a3 bd 09 5f 09 be
       0.02276483 0.12893327 -0.07973003 -0.1341516
000290 e3 60 2b 3d 56 a2 87 3d 35 15 48 3d 19 a0 77 3d
       0.041840445 0.0662276 0.04884835 0.060455415
0002a0 f1 36 5c 3c e6 06 80 3d 79 29 53 bd f1 b6 1c be
       0.013440833 0.06251316 -0.051553223 -0.15304162
0002b0 02 48 c2 bd e8 88 d6 bd 6f 3f ec 3c c5 10 e5 3d
       -0.09486391 -0.104753315 0.028838841 0.11184839
0002c0 68 21 b6 3d 8d ec 95 bd e7 9e 17 3d 1b 45 d7 3d
       0.088930905 -0.07320509 0.037016775 0.10511228
0002d0 c8 4f 25 3c e8 98 a6 bc bb 32 98 bd 1d 2b 8a bc
       0.010089822 -0.020336583 -0.07431551 -0.016866261
0002e0 2f f9 9a 3d 29 f9 32 bd 52 74 ee bc 4f 79 83 3d
       0.07567059 -0.04369465 -0.0291082 0.06419622
0002f0 39 c2 4f bd 87 e2 b0 bd e8 34 01 bc ed fe 99 3d
       -0.050722335 -0.08636957 -0.007886149 0.07519326
000300 3c e3 b3 bb 09 c8 92 bc b5 40 e5 bd 34 8a c3 3d
       -0.005489735 -0.01791765 -0.111939825 0.095478445
000310 46 b7 f3 bb 0c b4 70 bd 0a e8 f0 bd 8e f9 92 bd
       -0.0074376194 -0.058765456 -0.11763008 -0.07176505
000320 4d 55 c3 bd 3d d3 3c 3c 66 91 a1 3d 39 4c fd bc
       -0.09537754 0.0115249725 0.07889061 -0.030920135
000330 90 63 ad 3d f9 78 07 bd 5b 8c 8a bd d3 59 fb bd
       0.08466256 -0.033074353 -0.06765052 -0.12272992
000340 0f 79 c6 bd cd 44 ba 3d 67 f5 90 3d 9a ae e7 3d
       -0.09691059 0.09095154 0.07078057 0.113125995
000350 df 18 04 bd 25 34 a4 3c d2 32 55 3a 6e be ce 3d
       -0.03225028 0.020044396 0.0008132878 0.10094915
000360 32 e4 b2 bd 5a 38 4d bd e3 6e 10 be 09 3c f5 3b
       -0.08734931 -0.05010257 -0.141048 0.0074839634
000370 63 2f eb bd 12 62 cc bd c7 35 b2 3c 75 d1 ef 3d
       -0.11483648 -0.09979643 0.021754159 0.11709873
000380 fa 84 b8 3d 44 36 a3 3d 34 ec 15 bd 9b f6 ac bc
       0.09009738 0.07969335 -0.036602214 -0.021113684
000390 50 5b f3 bd 1a ca 8e 3d ae 11 00 3d d6 38 d4 3d
       -0.11882651 0.069721416 0.03126686 0.10362403
0003a0 ef f6 07 be 89 8d 03 bd 69 cc b9 bd 15 e8 da bd
       -0.13277791 -0.0321174 -0.09072191 -0.106887974
0003b0 f8 2a a0 bd 48 ef c6 3c 97 07 95 3d 14 0b 85 3d
       -0.07820696 0.02428402 0.07276838 0.064962536
0003c0 d9 96 47 bd 3e 42 4b 3d 7c b3 09 3e 40 89 8c 3b
       -0.048727844 0.04962372 0.13447374 0.0042888224
0003d0 1e 7e 55 bd 8c e0 ff bd f2 de 86 3d 90 e7 2d bd
       -0.052122228 -0.12494001 0.06585492 -0.042457163
0003e0 d3 2d ce bd 63 b4 6e 3d 84 26 4f 3c 4f 07 74 bd
       -0.10067334 0.0582775 0.01264346 -0.059577283
0003f0 14 c2 0b be 3e 82 a8 3a bc 1b 8a bd 86 bc 33 bd
       -0.13648254 0.0012856198 -0.06743571 -0.04388096

gkf.gat_rnn.r_input_gru.weight_hh_l0 f4 [192, 64]
000000 7e 7a 0b bd bb 60 6b bd 47 4a e5 bd 27 5c 8d bc
       -0.034052365 -0.057465296 -0.11195808 -0.017255856
000010 40 10 5d bd 28 c3 e6 3d f9 7f f9 3d ff 00 a5 bd
       -0.053970575 0.11267692 0.12182612 -0.080568306
000020 d1 21 61 3c fe 1c c8 bd a4 ff 66 3d 18 25 c2 3d
       0.013740973 -0.09771155 0.05639614 0.09479731
000030 68 13 90 bd d2 6f a8 bd 45 06 86 bc 52 bb d1 3d
       -0.070349514 -0.08224453 -0.016360411 0.10240807
000040 58 26 c4 3d c6 5c 85 bd eb ce 60 3c d0 7c d0 bd
       0.09577626 -0.06511836 0.013721208 -0.10180056
000050 96 17 fa 3d 81 3e 7d 3d ad 7d 3f bd 36 75 81 3d
       0.1221153 0.061827186 -0.046750713 0.06321184
000060 13 a3 5e 3c 28 57 96 bd 9d f9 f4 bd b7 cd a2 3d
       0.013588685 -0.073408425 -0.119616725 0.07949393
000070 17 6a c9 bd 68 e8 a1 3d d9 b1 0f bd 2b f7 9b 3d
       -0.09834688 0.07905656 -0.035081718 0.07615503
000080 6e 11 44 3d c5 f2 9c 3d 3f 8c 5c bd d4 c1 81 3d
       0.047868185 0.07663492 -0.053844687 0.06335798
000090 ca e3 c3 3c a0 49 12 3b 12 72 40 3a 85 21 ec ba
       0.02391233 0.0022321716 0.00073412166 -0.0018015361
0000a0 c9 21 88 3d ff a3 90 3d d3 c1 32 bd 2b da 39 bc
       0.06647069 0.0706253 -0.043641876 -0.011343519
0000b0 4d 6a e1 bc 8c 76 24 bd 0c ca 66 3d 26 8b e9 3d
       -0.027516508 -0.040152118 0.05634503 0.114034936
0000c0 e3 fe 7d 3d 05 3e 24 bd 73 5a 92 3d d0 c5 de 3d
       0.062010657 -0.04009821 0.07146158 0.108775735
0000d0 2c 63 ef 3c a3 a3 ef 3d 90 b9 1a 3d 22 ba 01 bd
       0.029222094 0.11701133 0.037774622 -0.03167165
0000e0 92 af 05 3d 7a 33 11 3d 55 89 19 3d 38 68 cb bc
       0.03263814 0.035449483 0.037484486 -0.024829969
0000f0 d3 58 b2 bd 55 55 f4 bd 4c 85 a0 bd 50 8f 9f 3d
       -0.08708348 -0.11930338 -0.07837924 0.077910066
000100 95 19 2a bd aa 93 d7 bd 7d 9f de 3d 46 3b f0 bd
       -0.041528303 -0.105262116 0.10870264 -0.117300555
000110 69 bd 1d 3d b4 de ef 3d 55 16 8c bd 8f 72 f0 bb
       0.038510714 0.11712399 -0.06840197 -0.007337875
000120 20 31 e6 3d 60 13 e9 3d 54 1a a6 3d 97 d8 98 bc
       0.112398386 0.113806486 0.081104904 -0.018657966
000130 33 4c b5 3d c7 31 82 3d 57 0a 16 3c 70 31 d4 3d
       0.088524245 0.063571505 0.009157739 0.10360992
000140 76 c5 d7 3c 7b cc b6 3d b4 e0 c9 bd ed 4f e0 3c
       0.026339274 0.0892572 -0.09857312 0.027381862
000150 1b 98 d5 bd b0 6c c1 3c fd 9e 31 3d 11 ef b3 3d
       -0.104294024 0.023611397 0.043364514 0.08785833
000160 53 61 42 3d ca b0 1f bd 75 6d 82 3d 7b 1b e7 bd
       0.047456097 -0.03898696 0.063685335 -0.11284538
000170 83 45 f4 3d 74 0c 54 3d 2a b4 69 bc 09 6e 2e 3d
       0.11927321 0.05176969 -0.014264146 0.042585406
000180 1d e9 97 3d c4 1a c7 bd cc 7e 95 3d 62 5a fd 3c
       0.0741751 -0.09721902 0.07299575 0.030926887
000190 44 a6 08 3e db 1d 92 3c 5e ae a7 3c 9b ef 60 3c
       0.13344675 0.017836502 0.020468887 0.013729001
0001a0 b0 d0 cd 3d fd a0 bd bd 7e 7b 87 3d bc fc 93 3d
       0.100495696 -0.09259222 0.06615351 0.0722594
0001b0 65 ed 21 bc 41 b7 8d bd cf 07 c8 3d 4f 78 78 3d
       -0.009883259 -0.069197185 0.09767114 0.06066161
0001c0 41 58 d9 bc 3e 44 d1 3b 47 b1 4a bd d2 2b 56 bd
       -0.02653134 0.006386309 -0.04948547 -0.052287884
0001d0 d6 9b da 3d a9 58 67 3d 99 f6 df ba 56 7c 99 3d
       0.106742546 0.056481037 -0.0017087042 0.07494418
0001e0 31 27 c9 3d 1e 0f 6e 3d 4a 04 65 3d 6f 07 a0 bd
       0.09821928 0.058119886 0.055912293 -0.07813918
0001f0 92 36 6d bd c0 aa ed 3d 13 94 44 3d 07 5f fa 3c
       -0.05791337 0.116048336 0.047992777 0.03056289
000200 74 33 a0 bd 9d e7 36 bd 7e 58 25 bd df 42 5a 3d
       -0.07822314 -0.044654477 -0.040367596 0.05328643
000210 37 33 5c bd 04 97 d2 3d a6 44 a4 bd 38 f9 72 bc
       -0.05375978 0.1028271 -0.08020906 -0.014829926
000220 85 82 df 3d 5d 33 57 bd 42 f8 51 3c 6b a7 07 bd
       0.109135665 -0.05253922 0.012815537 -0.033118647
000230 21 30 47 3d fa 0a 5c bd 41 e3 d5 bd b1 a0 2f bd
       0.048629884 -0.053721406 -0.10443736 -0.042877857
000240 82 ec 30 3d 48 0d 0e bd 9b 5c b3 bd 3b 12 83 bc
       0.0431943 -0.034680635 -0.087578975 -0.015999904
000250 e3 56 5a bd ec e5 f8 3d 09 67 b8 bc a6 60 41 3d
       -0.053305518 0.12153229 -0.022510068 0.04721131
000260 a9 3f ee 3d 36 cc a6 bd 74 1b 5c 3d a2 78 82 3c
       0.11633236 -0.08144419 0.05373712 0.015926663
000270 36 90 e4 3d cb 12 d7 bb 26 cb 02 3d 2c 02 fe bd
       0.111603186 -0.0065635196 0.03193202 -0.12402758
000280 f4 72 f2 3d f9 2c c5 bd 38 b6 d2 3d ac ae 99 bd
       0.11838332 -0.096277185 0.10288662 -0.07504019
000290 a4 fc 19 3d 7e 70 c1 bb 84 39 a4 3d 8f d1 e9 bd
       0.037594453 -0.0059033027 0.08018783 -0.11416923
0002a0 16 7c d5 3d 3d e0 d7 3d 54 47 17 3d 46 d0 e2 3d
       0.10424058 0.10540817 0.03693326 0.11074881
0002b0 08 6b c4 3d c6 6e 82 3c b1 98 70 3d 93 6d 6f 38
       0.09590727 0.015921962 0.058739368 5.708409e-05
0002c0 fc 71 f4 3c f6 bb aa bd 99 13 f8 bc 80 51 72 bd
       0.029839508 -0.08336632 -0.030282782 -0.059159756
0002d0 5a 51 91 bd c8 ca 8f bd 1a f1 87 bd bd 02 79 3c
       -0.07095595 -0.07021099 -0.06637783 0.015198407
0002e0 13 9e b2 bc 1e 67 97 3d 79 87 1e 3d f0 d4 25 bd
       -0.021803891 0.07392715 0.038703416 -0.040486276
0002f0 55 3a b4 3d 5e 31 ac bd 1e fa 7d bd 5c 8e 0b 3e
       0.088001885 -0.084078535 -0.06200611 0.13628525
000300 6e c6 4d 3d 3e a8 99 3d ce 85 0b be 77 a8 a4 3d
       0.050238065 0.07502793 -0.13625261 0.080399446
000310 15 bd c0 bd 99 73 e5 3c ef b5 59 bd 66 81 20 3d
       -0.094110645 0.028009223 -0.05315202 0.039185904
000320 a8 58 55 bd 5a a6 f6 bd 50 f2 d0 bd d3 3a a5 bd
       -0.052086502 -0.12043448 -0.102024674 -0.080678605
000330 54 ca 50 bd 9e e4 a3 3c 23 63 f7 bc 74 14 3e bd
       -0.050974205 0.020006474 -0.03019864 -0.046406224
000340 e7 b0 19 3d 91 f9 f2 3d 76 92 0f bd bc 32 c3 3d
       0.037522223 0.11864007 -0.035051785 0.09531161
000350 f8 1e 85 bd 16 48 eb 3d 1a 6a 1f bd b8 70 6a bd
       -0.065000474 0.11488359 -0.038919546 -0.057236403
000360 66 3c ba bc 72 29 8e bc 82 81 c3 bd 4a bc c2 3d
       -0.022733878 -0.017353747 -0.09546186 0.095085695
000370 e6 54 c7 bd ed 9e 01 3c 43 f3 dd bd cc 95 9c bd
       -0.0973299 0.007911426 -0.10837414 -0.07645759
000380 86 94 ed 3b 51 f1 4e bc f6 f7 03 bd ff da 93 bb
       0.0072503714 -0.0126307765 -0.032218896 -0.0045121904
000390 8c f1 53 bd 65 5d f8 bd 6e 7f 25 3c f1 25 04 3d
       -0.05174403 -0.121271886 0.010101182 0.032262746
0003a0 96 0e b8 3d 79 8c 6f bd 1f 62 a2 bd 34 40 f1 bd
       0.08987157 -0.058483575 -0.07928871 -0.11779824
0003b0 72 2c 93 3d 81 81 c3 bd 89 4f b1 3d 00 75 5e 3d
       0.07186212 -0.09546185 0.08657748 0.0543108
0003c0 00 85 b7 3d 22 9d 6e bd 48 f1 b4 3d d0 bb 3f bd
       0.089609146 -0.058255322 0.08835083 -0.04680997
0003d0 72 81 f8 3a a3 29 df 3d d0 29 6d bd 00 01 ed bc
       0.0018959476 0.108966134 -0.057901204 -0.02893114
0003e0 48 8d b4 3c 5b c2 70 3d 94 b9 c7 bb 8f 8c a6 bd
       0.022040024 0.0587791 -0.0060951207 -0.08132278
0003f0 5d 6f 01 bd 64 21 fb 3c 94 41 a8 bd 2a 4d dd bd
       -0.031600345 0.03065557 -0.08215633 -0.108057335

gkf.gat_rnn.r_input_gru.bias_ih_l0 f4 [192]
000000 fa c8 e4 3d 3c e5 ae bd 4c d8 a8 bd 23 1a 6e 3d
       0.11171146 -0.08539817 -0.0824438 0.058130395
000010 75 5e e8 bc aa 3a ed 3d e9 6b 9c bd b3 06 7c 3d
       -0.028365353 0.11583455 -0.0763777 0.061529826
000020 39 aa 90 3a af c5 d7 3c db 87 f3 bd 76 b0 d8 bb
       0.0011037058 0.02633938 -0.11891147 -0.0066128327
000030 8a ac b0 bc 17 50 90 bd e3 96 9a 3d 62 c2 fd 3d
       -0.021566648 -0.07046526 0.075483106 0.12390591
000040 2d 86 fd 3d e1 f5 bd 3d e7 cc 32 bc 42 1c af bd
       0.123791076 0.09275413 -0.01091311 -0.085503116
000050 f0 ba bc 3d e7 81 b6 3d cf e1 91 bd 89 6b 94 3d
       0.09215343 0.08911496 -0.07123148 0.07247073
000060 29 d8 a2 bd 4f a3 1f bd 4d bb ba 3d 92 e8 de 3d
       -0.079513855 -0.038974103 0.09117756 0.10884203
000070 29 5a e8 bd 37 b0 85 3d 56 41 ce 3d a2 fb 03 3d
       -0.11345322 0.06527751 0.100710556 0.032222398
000080 9e f4 6e 3d 6d 52 18 3d 5b 38 82 3c 38 af 6b 3d
       0.058338754 0.037187982 0.015896013 0.05754015
000090 43 76 86 bd 9a 11 10 bc 58 3e 17 bd 7b c2 8b 3d
       -0.065655254 -0.008793259 -0.03692469 0.068242036
0000a0 f4 a9 d3 bd 4b 62 9b 3d 24 3f 30 bd c5 6f 96 3d
       -0.1033515 0.07587107 -0.043028966 0.07345537
0000b0 52 bf 01 3c 21 ce 90 3c 9f 2f 0c 3d a9 fd 1c 3d
       0.0079191495 0.017676415 0.034225103 0.038327847
0000c0 4f 18 3b 3d 3b 65 b7 3d 6d 36 cc bc 08 5b 72 bd
       0.04567748 0.08954855 -0.024928296 -0.059168845
0000d0 49 22 6c 3d 7e 29 03 be ed 95 1a 3d 8f 27 97 3d
       0.057649884 -0.12808797 0.037740637 0.07380592
0000e0 ed 34 d3 3d 44 af e0 3d 8c 5b 93 bd 00 fb ac bd
       0.10312829 0.10970929 -0.071951956 -0.08446312
0000f0 8b 50 84 bc d4 49 02 be a0 e9 41 3c fc 40 6f 3d
       -0.016151687 -0.12723476 0.011835486 0.058411583
000100 14 0d 55 3d 4c 89 19 be c4 76 8f 3c 23 91 b0 bd
       0.052014425 -0.14993781 0.017512687 -0.08621433
000110 1f 7f ac bd 8a 6b f2 bd 3e 71 6e bd 56 86 ae bd
       -0.08422684 -0.11836918 -0.058213465 -0.08521716
000120 d4 f0 ce bd e8 5b 8e 3d 92 41 22 bd 98 84 0f ba
       -0.10104528 0.069511235 -0.039613314 -0.0005474775
000130 db 34 5a bd 4c 0f 5d 3d 44 62 de bd 37 77 82 bd
       -0.053273063 0.053969666 -0.108585864 -0.06370395
000140 ce 0a db bd ad 4e db bd de 59 b1 bd fa 4e 12 be
       -0.1069542 -0.107083656 -0.08659719 -0.1428794
000150 09 5e 05 bd 4d e1 24 be 77 57 a2 bc 1b 86 20 3c
       -0.032560382 -0.1610157 -0.019817097 0.009797598
000160 b9 13 54 3d f6 4a 02 be a1 de 50 bd 64 e9 53 bd
       0.05177662 -0.12723908 -0.050993565 -0.05173625
000170 ae 2c 12 be c1 84 02 3d ec f0 10 3d 2d 1f fc 3c
       -0.14274856 0.031864885 0.03538601 0.030776585
000180 d4 ca 44 bd 73 d5 a4 bc a1 7d 2d 3d 31 3c a2 bd
       -0.048044994 -0.020121312 0.042356137 -0.07921637
000190 45 db 22 3c b5 6f a1 3c bc 89 18 be 03 41 ac bd
       0.009939973 0.019706586 -0.14896291 -0.084108375
0001a0 ed 4c c3 bd 01 48 03 be b3 be 7d 3d 13 05 9a bd
       -0.09536157 -0.12820436 0.061949443 -0.07520499
0001b0 57 bf 84 bd 3e 0d 18 be 88 e6 9b 3d 44 d9 3c bd
       -0.06481808 -0.14848801 0.0761233 -0.04610564
0001c0 1b 72 83 3d 92 db 8c 3d 98 d3 a8 bd 96 57 b8 bc
       0.06418248 0.06877817 -0.08243483 -0.022502702
0001d0 07 78 be 3c 32 4e a9 3d 4f c8 41 bd 83 c0 8d bd
       0.023250593 0.08266868 -0.04731017 -0.06921484
0001e0 e4 8a b2 3d ae 25 44 3d fb 73 d3 bd fa 3c bf 3b
       0.087178975 0.047887497 -0.10324856 0.0058361264
0001f0 52 f3 0a be 46 a0 85 3c a0 f6 87 3c 8c 9b a7 bd
       -0.13569382 0.016311776 0.016597092 -0.08183965
000200 6f b4 20 bd 71 4a 6c 3d fc dc 07 3c be e9 a6 bd
       -0.039234575 0.05768818 0.008292433 -0.081500515
000210 c6 ef 11 3d 61 d2 33 3d 01 63 9d bd fe aa c9 3d
       0.035629056 0.043901805 -0.07684899 0.09847067
000220 f1 7a e5 bd 36 c3 0a 3d 7c 83 b0 bd fe a0 0c be
       -0.1120509 0.033877574 -0.08618829 -0.13733289
000230 d7 6a 89 3d bc 78 cb 3d 38 fd dd bd 9c b8 7f bd
       0.06709831 0.09935138 -0.10839313 -0.062431917
000240 6e d1 b3 bd 7d dc f7 bd 9a 76 e8 bb ba 2b ae 3d
       -0.0878018 -0.12102602 -0.0070942165 0.08504434
000250 66 ed 46 3d 29 9f 68 bd c6 74 8c bd 88 a9 db 3b
       0.048566245 -0.056792412 -0.0685821 0.0067035593
000260 42 69 9a bd b7 d4 d6 bd 04 e4 da 3b dd f4 8b bb
       -0.075396076 -0.10489791 0.0066800136 -0.0042711333
000270 cf ac 96 bd 91 bf cf bd 57 e5 dc 3d 94 9b fe 3a
       -0.073571794 -0.1014396 0.107859306 0.0019425028
000280 e6 51 ec bc 9d fb 93 bd 9e 99 b2 3d 23 8b 0a 3c
       -0.028847646 -0.07225726 0.087207064 0.008456024
000290 28 3a f1 3d 31 75 c7 bc 3d 3c a7 bd 49 bb b3 3d
       0.117786705 -0.024347873 -0.081657864 0.08775956
0002a0 b3 0b 59 bd 58 fd b8 3d 35 27 8b bc 1d 06 d5 3c
       -0.052989673 0.090326965 -0.016986469 0.026003892
0002b0 a6 5e a0 bd 12 59 07 be b4 8c 90 bd e0 5e 21 3d
       -0.07830553 -0.13217571 -0.07058087 0.03939712
0002c0 30 84 dd bd 41 0f d1 bc 6e 10 c2 bc 54 bd 18 3d
       -0.108162284 -0.025519969 -0.023689475 0.037289932
0002d0 35 a4 0f be 74 b0 61 bc 62 2a dc bc 8b 25 ac 3c
       -0.14027484 -0.01377498 -0.026875678 0.021013996
0002e0 c5 e4 1e bd 9d b5 cd 3d 97 c1 b2 bc 9e a4 b6 3d
       -0.03879239 0.100444056 -0.021820826 0.08918117
0002f0 0c 8f de 3d 40 1e 80 3d 8c 8b 44 3d 85 96 02 3e
       0.10867128 0.0625577 0.047984645 0.12752731
