models/no_mismatch/kalman_process_50n_local_params_r_quarter.pth (torch, 269762 bytes, 28 tensors)

gkf.gat_rnn.fc_delta_y_innov.0.weight f4 [64, 3]
0.434297 0.46255514 -0.13607797 0.5206187 -0.13241135 0.13064736 -0.28338447 0.31878978
0.53813756 -0.4097363 0.5239139 0.09926345 0.41089925 0.056045774 0.256509 -0.08015161
0.43305245 0.08574972 -0.27468395 0.15240616 -0.25298527 -0.06762743 -0.21642207 0.39716125
-0.4614844 -0.27745786 -0.1293848 -0.35053104 0.055646405 -0.57831585 0.53010774 -0.49929154
0.47541538 0.094343305 -0.19027495 0.36018485 0.10487152 0.49626908 0.042726174 -0.19275604
0.15448427 -0.14414522 0.24346785 0.55537766 0.34119877 -0.25068817 0.34927353 0.078150816
0.29656935 -0.34883967 -0.5703647 -0.19393611 -0.46558794 0.5025682 0.15906239 0.22811581
0.21159479 -0.0029901017 0.45506135 -0.41032597 0.02664069 -0.39619556 0.15497817 -0.20807697
0.19513223 -0.09932102 0.48335811 -0.3553604 -0.3161358 -0.3380118 0.53655165 0.19861846
0.5627282 -0.4480386 -0.5957675 -0.44215357 -0.399043 0.24985296 0.21492015 0.50577813
-0.3082746 -0.3856173 0.31001946 -0.21937957 0.34774145 -0.14313325 0.3482491 -0.44387013
-0.29665148 0.19250338 0.08782668 -0.15513118 0.37420687 0.39293626 -0.40471664 -0.3218049
0.5280094 -0.20323902 -0.18207696 -0.55866706 -0.33106297 0.14463185 -0.07617048 -0.39232692
0.039928574 -0.40063417 -0.4883669 -0.28765592 -0.5131347 -0.36066875 0.5950181 0.12544821
0.20347436 -0.5341115 -0.3863883 -0.18511377 0.075144924 -0.51596797 -0.25017494 -0.34773046
-0.005691744 -0.2201539 -0.04618898 -0.39370546 -0.40126655 -0.34252778 -0.19022898 -0.4508416
0.51167494 -0.09957686 0.5266621 0.16309856 -0.48218852 0.40969735 -0.1650551 -0.212148
-0.48999918 -0.56103826 0.17983687 -0.13069493 0.26381314 -0.48347273 0.44881576 -0.4284702
-0.104641736 0.10041331 0.337781 0.46127844 0.55168724 -0.47044578 0.15875602 -0.2409621
-0.03012524 -0.42801845 0.5382023 -0.4330662 0.31822982 0.22288948 0.2087171 -0.28846425
0.5550365 0.11591434 0.09855346 -0.51838946 0.28683636 -0.08353537 -0.26675066 0.52069104
0.1425937 -0.30791375 -0.30093592 -0.03364227 0.33617646 -0.17192785 -0.3251745 -0.20013261
-0.4332639 0.20046942 0.4632949 -0.5486527 0.11683051 0.3136884 0.13552946 -0.2066696
0.297493 0.32865518 0.23631501 -0.0733344 -0.12813519 0.05935674 -0.119973384 -0.16243264
00000000: 2d5c de3e 07d4 ec3e 0658 0bbe 4447 053f
00000010: d796 07be 6cc8 053e c517 91be 6a38 a33e
00000020: 62c3 093f f5c8 d1be 391f 063f a34a cb3d
00000030: 6361 d23e 4190 653d 2655 833e 8726 a4bd
00000040: 0db9 dd3e 8d9d af3d 60a3 8cbe 5c10 1c3e
00000050: 4987 81be 4080 8abd bf9d 5dbe b858 cb3e
00000060: af47 ecbe f50e 8ebe 737d 04be ce78 b3be
00000070: 7ced 633d 820c 14bf 24b5 073f 24a3 ffbe
00000080: a569 f33e 1037 c13d 70d7 42be 266a b83e
00000090: e1c6 d63d fb16 fe3e a401 2f3d d761 45be
000000a0: 2031 1e3e ce9a 13be a34f 793e 3b2d 0e3f
000000b0: 9bb1 ae3e 335a 80be fbd3 b23e 890d a03d
000000c0: f0d7 973e 1d9b b2be 6c03 12bf 3097 46be
000000d0: 8b61 eebe 4fa8 003f 40e1 223e 3197 693e
000000e0: 4eac 583e 95f5 43bb cdfd e83e 3f16 d2be
000000f0: 943d da3c 25da cabe 99b2 1e3e 2112 55be
00000100: bed0 473e d268 cbbd b77a f73e ccf1 b5be
00000110: 8ddc a1be e20f adbe 735b 093f a362 4b3e
00000120: f50e 103f 5165 e5be 3884 18bf f461 e2be
00000130: 5d4f ccbe 74d9 7f3e 0714 5c3e ad7a 013f
00000140: 2bd6 9dbe a16f c5be dfba 9e3e 0aa5 60be
00000150: 2b0b b23e 8691 12be b54d b23e f242 e3be
00000160: b4e2 97be 9b1f 453e 79de b33d b5da 1ebe
00000170: 0b98 bf3e f12e c93e 0537 cfbe 9dc3 a4be
00000180: a02b 073f e41d 50be 6272 3abe ce04 0fbf
00000190: 1681 a9be 5f1a 143e 45ff 9bbd 13df c8be
000001a0: 258c 233d ec1f cdbe 3a0b fabe a347 93be
000001b0: cc5c 03bf 93a9 b8be 1b53 183f 7f75 003e
000001c0: 955b 503e 88bb 08bf b0d4 c5be 778e 3dbe
000001d0: 95e5 993d 7a16 04bf ee16 80be ba09 b2be
000001e0: cf81 babb 0670 61be a830 3dbd c393 c9be
000001f0: cf72 cdbe cd5f afbe 63cb 42be b6d4 e6be
00000200: 21fd 023f f4ee cbbd 54d3 063f 4f03 273e
00000210: 6ae1 f6be dac3 d13e 3404 29be 533d 59be
00000220: 2ce1 fabe 34a0 0fbf 2827 383e e4d4 05be
00000230: 8412 873e bd89 f7be 2ecb e53e 7260 dbbe
00000240: 684e d6bd 7ea5 cd3d a2f1 ac3e b02c ec3e
00000250: 603b 0d3f 45de f0be f090 223e c5be 76be
00000260: 35c9 f6bc 3c25 dbbe a0c7 093f daba ddbe
00000270: 05ef a23e 243d 643e efb9 553e 96b1 93be
00000280: df16 0e3f 7f64 ed3d 65d6 c93d 2cb5 04bf
00000290: 37dc 923e 9814 abbd 8b93 88be 024c 053f
000002a0: 1504 123e dfa6 9dbe 4614 9abe 7acc 09bd
000002b0: 521f ac3e db0d 30be 467d a6be 90ef 4cbe
000002c0: c4d4 ddbe db47 4d3e fd34 ed3e 8174 0cbf
000002d0: d644 ef3d c49b a03e 3cc8 0a3e 32a1 53be
000002e0: 0151 983e 7e45 a83e 90fc 713e 5930 96bd
000002f0: df35 03be 0e20 733d 9bb4 f5bd be54 26be

gkf.gat_rnn.fc_delta_y_innov.0.bias f4 [64]
0.36920428 0.51018035 -0.048731755 -0.13390791 -0.00542039 -0.03935439 0.15443183 0.160826
-0.51915336 -0.20664448 0.49592397 0.2422175 -0.012560531 -0.34055474 -0.34387523 -0.5121387
-0.18915984 0.18796338 0.3534203 0.27192432 -0.51793885 -0.33429006 -0.08062839 0.5664277
0.100381576 -0.15588261 0.24797668 -0.22576478 -0.37841168 0.43065393 -0.26054898 -0.1093782
-0.5699944 0.38950786 0.47082865 0.22142527 -0.4011842 -0.55022365 -0.45897657 0.44181448
0.28169927 0.5002886 0.31446603 0.15543348 -0.0063197836 -0.44932234 -0.47160265 -0.5243826
0.24309668 -0.27000973 -0.1075953 -0.33721364 -0.102789216 -0.4011387 -0.35059777 0.19897334
-0.1565075 0.3617582 -0.186661 -0.43148988 -0.09782551 -0.2844063 -0.15600199 -0.5436414
00000000: 5808 bd3e 2e9b 023f f39a 47bd 281f 09be
00000010: 879d b1bb 1232 21bd 6123 1e3e 92af 243e
00000020: 3ce7 04bf 9c9a 53be bfe9 fd3e dd07 783e
00000030: afca 4dbc 315d aebe 6a10 b0be 861b 03bf
00000040: 1eb3 41be 7979 403e 81f3 b43e aa39 8b3e
00000050: a497 04bf 1128 abbe 7f20 a5bd 6801 113f
00000060: db94 cd3d b19f 1fbe 99ed 7d3e e22e 67be
00000070: 2dbf c1be ac7e dc3e ad66 85be ad01 e0bd
00000080: 27eb 11bf 936d c73e 7410 f13e 4ebd 623e
00000090: 0468 cdbe 75db 0cbf fafe eabe 8235 e23e
000000a0: e33a 903e ea12 003f b101 a13e f429 1f3e
000000b0: 3016 cfbb 940d e6be e775 f1be f03d 06bf
000000c0: 56ee 783e b73e 8abe ed5a dcbd 44a7 acbe
000000d0: 2783 d2bd 0d62 cdbe 8d81 b3be abbf 4b3e
000000e0: 8143 20be 5f38 b93e 1024 3fbe 3eec dcbe
000000f0: be58 c8bd b49d 91be fcbe 1fbe 152c 0bbf

gkf.gat_rnn.fc_delta_y_innov.2.weight f4 [64, 64]
0.058128715 -0.091700025 0.0895243 0.055114165 0.08598821 -0.10927949 0.07913266 -0.016102921
0.06314087 0.11405079 -0.011195793 0.021103635 -0.041337933 -0.102131985 0.05178474 -0.10727586
0.071219064 0.14083593 0.11252112 -0.041892517 -0.08917883 0.033830926 0.059533425 -0.12756151
-0.039109465 -0.037927024 -0.025726395 -0.06148617 -0.038018785 -0.017025596 -0.0738825 0.09556404
0.096097045 0.004135443 0.01805748 -0.038466297 -0.0682545 -0.13929315 0.070702024 -0.0557506
-0.07037087 0.00074372604 0.003306671 -0.04842397 -0.002915065 -0.023872279 -0.009417663 -0.06146993
-0.08713546 0.089486964 -0.042018745 0.022045337 -0.049711518 0.0036623438 0.16286196 0.10097473
-0.115433864 0.035051506 0.12283954 0.015485967 0.07411392 0.15169512 -0.030517342 0.026901416
-0.084873155 -0.0072755557 0.08320132 0.048831828 -0.060507234 -0.12802988 -0.09407279 -0.093521655
-0.07844631 -0.03373458 0.1156817 0.054703973 -0.104868695 -0.10701101 0.061459735 -0.10225564
-0.008062914 0.08577714 -0.051504444 -0.035801776 -0.006634167 -0.03616759 -0.042916942 -0.1264912
-0.08405606 -0.056610744 0.11232764 -0.0699911 -0.047965504 0.0339894 0.07055432 0.094372965
0.11400473 0.07365039 -0.090572245 0.027087962 0.08310994 -0.034033194 -0.057172712 0.12117531
-0.009380315 -0.06390884 -0.08405553 -0.0113014225 0.044398364 0.020930609 0.06330996 -0.105205245
-0.107059956 -0.007393101 0.15603022 0.05548379 -0.06161905 -0.03661147 -0.05590599 -0.03040741
0.03145083 0.05081207 0.11624079 -0.1444441 0.080609754 -0.10198247 0.06214401 0.09832092
-0.008208838 0.10702597 -0.08283578 -0.029143736 0.072535746 -0.03162891 -0.03673098 -0.037462816
0.094055116 0.05911228 0.03970606 -0.06442931 -0.10731573 0.019357838 0.041456092 -0.037183914
-0.046284914 0.10004707 0.0036284484 -0.0039106994 -0.014763519 -0.10558116 -0.1256268 -0.06806806
-0.07616691 0.05565281 -0.048662774 -0.04567984 0.13725302 0.042333566 0.11738617 -0.06651315
-0.049328987 0.041326027 -0.09072573 -0.085216716 0.020816734 -0.035620853 -0.07939932 0.05233408
0.083087064 -0.015190884 -0.008861782 -0.12045481 -0.042908363 0.034386087 0.09198138 -0.012983508
-0.046357274 0.06103898 -0.093800254 0.08211188 -0.048943 0.026643172 0.017983563 0.030268395
-0.048712086 0.07563156 -0.0031293908 0.09272794 0.119387634 -0.023420673 -0.09454069 0.10950334
0.11032217 -0.08810923 0.0014932819 -0.108596615 -0.09452383 0.044064373 0.045932017 0.02147057
-0.04311937 0.122961484 0.020035012 -0.07513761 0.0092770085 0.037814915 0.058749765 -0.07699035
0.042416178 -0.08432832 -0.0910917 -0.052439846 0.10415616 0.11680733 0.11246096 0.090413354
0.09494942 -0.028990736 -0.0543151 0.07537234 -0.06507541 -0.08412932 -0.04499828 0.024363715
0.064546645 -0.04917601 -0.07733875 0.009603096 -0.088400014 -0.05986141 0.054204874 -0.015999587
0.11198445 0.123105295 0.023623252 0.06070462 0.041449215 -0.011209604 -0.015925283 0.017285237
0.061748177 0.12883015 -0.034535974 -0.03775729 -0.020112036 -0.043590114 0.009972619 0.08869754
0.08903605 0.07272525 -0.096475564 -0.04985115 -0.012367302 -0.012024145 0.012224937 -0.12835991
00000000: 6018 6e3d 39cd bbbd 8458 b73d 64bf 613d
00000010: 961a b03d edcd dfbd 4e10 a23d 46ea 83bc
00000020: 0050 813d 7693 e93d 8f6e 37bc 88e1 ac3c
00000030: f751 29bd 932a d1bd 3c1c 543d 72b3 dbbd
00000040: 4ddb 913d 4b37 103e 7971 e63d 7d97 2bbd
00000050: 64a3 b6bd 4c92 0a3d 52d9 733d 7c9f 02be
00000060: 3f31 20bd 5e59 1bbd 29c0 d2bc ecd8 7bbd
00000070: 96b9 1bbd 4379 8bbc b54f 97bd 14b7 c33d
00000080: 87ce c43d 9c82 873b 48ed 933c d68e 1dbd
00000090: 04c9 8bbd dda2 0ebe 39cc 903d be5a 64bd
000000a0: 9a1e 90bd 9cf6 423a bcb4 583b 3658 46bd
000000b0: ad0a 3fbb cc8f c3bc 8b4c 1abc e5c7 7bbd
000000c0: 1374 b2bd f144 b73d d91b 2cbd 6c98 b43c
000000d0: 4e9e 4bbd ef03 703b 49c5 263e d7cb ce3d
000000e0: 9768 ecbd 2b92 0f3d 4c93 fb3d dab8 7d3c
000000f0: 0ac9 973d f755 1b3e 81ff f9bc 5c60 dc3c
00000100: fad1 adbd c967 eebb 7465 aa3d e203 483d
00000110: 6fd6 77bd 441a 03be 3ca9 c0bd 4888 bfbd
00000120: 75a8 a0bd 452d 0abd 87ea ec3d 4611 603d
00000130: 66c5 d6bd 9728 dbbd 34bd 7b3d 686b d1bd
00000140: 501a 04bc edab af3d 53f6 52bd e2a4 12bd
00000150: 6d63 d9bb 7824 14bd adc9 2fbd e986 01be
00000160: 9525 acbd abe0 67bd 090c e63d 7e57 8fbd
00000170: 7a77 44bd 7838 0b3d c97e 903d 9d46 c13d
00000180: 507b e93d 04d6 963d f17d b9bd 93e7 dd3c
00000190: 8b35 aa3d 6466 0bbd ef2d 6abd c32a f83d
000001a0: e5af 19bc a3e2 82bd 4e25 acbd 9a29 39bc
000001b0: 0fdb 353d ab76 ab3c a7a8 813d d975 d7bd
000001c0: 4042 dbbd d441 f2bb 63c6 1f3e f842 633d
000001d0: 4264 7cbd e9f5 15bd aefd 64bd f618 f9bc
000001e0: 96d2 003d 5120 503d a70f ee3d 27e9 13be
000001f0: ba16 a53d 2fdc d0bd b88a 7e3d 7a5c c93d
00000200: 5d7e 06bc 6f30 db3d cea5 a9bd d8be eebc
00000210: 9f8d 943d 518d 01bd 3973 16bd 9c72 19bd
00000220: f89f c03d b81f 723d d2a2 223d 84f3 83bd
00000230: 59c8 dbbd 5494 9e3c ddcd 293d 294e 18bd
00000240: 4095 3dbd 7ae5 cc3d 43cb 6d3b 5325 80bb
00000250: b0e2 71bc ef3a d8bd 50a4 00be 4467 8bbd
00000260: 66fd 9bbd 33f4 633d 9e52 47bd c91a 3bbd
00000270: 0e8c 0c3e f665 2d3d 2968 f03d 0c38 88bd
00000280: 310d 4abd 7b45 293d 69ce b9bd 1a86 aebd
00000290: db87 aa3c 2ce7 11bd 1c9c a2bd 435c 563d
000002a0: 8d29 aa3d 2fe3 78bc 0231 11bc 03b1 f6bd
000002b0: aec0 2fbd 6dd8 0c3d bc60 bc3d c8b8 54bc
000002c0: 20e1 3dbd 0204 7a3d 591a c0bd 462a a83d
000002d0: 7578 48bd c842 da3c 4452 933c 6df5 f73c
000002e0: 5386 47bd b8e4 9a3d 7716 4dbb 25e8 bd3d
000002f0: 8181 f43d b6dc bfbc 8d9e c1bd 4a43 e03d
00000300: 97f0 e13d 9d72 b4bd 3aba c33a e767 debd
00000310: b695 c1bd d87c 343d 3623 3c3d 0ce3 af3c
00000320: f09d 30bd 3bd3 fb3d 7720 a43c bfe1 99bd
00000330: 98fe 173c d0e3 1a3d 98a3 703d 1ead 9dbd
00000340: 96bc 2d3d 54b4 acbd 498e babd 2acb 56bd
00000350: d34f d53d ae38 ef3d ef51 e63d a32a b93d
00000360: d774 c23d fb7d edbc 8379 5ebd d05c 9a3d
00000370: 4246 85bd fe4b acbd 1e50 38bd 6a96 c73c
00000380: 0831 843d c96c 49bd c763 9ebd 4e56 1d3c
00000390: 110b b5bd 3d31 75bd ee05 5e3d 9111 83bc
000003a0: 1a58 e53d a11e fc3d 8d85 c13c 68a5 783d
000003b0: a7c6 293d 7da8 37bc bd75 82bc c599 8d3c
000003c0: a8eb 7c3d 0dec 033e 9875 0dbd 63a7 1abd
000003d0: ffc1 a4bc 8c8b 32bd 3264 233c 0ea7 b53d
000003e0: 8858 b63d faf0 943d fb94 c5bd b830 4cbd
000003f0: 39a0 4abc eb00 45bc 1a4b 483c c870 03be

gkf.gat_rnn.fc_delta_y_innov.2.bias f4 [64]
-0.006718355 0.06743053 0.0050765234 -0.07844445 0.06826678 0.056265593 -0.068407446 -0.08505966
-0.06458325 -0.062725894 -0.021175932 0.017271055 0.013333234 -0.040322382 0.084931776 0.005940342
-0.072156504 -0.026965315 -0.06719582 -0.044904433 -0.11637467 0.013487765 -0.10348071 0.047943518
0.09054708 -0.0828934 -0.057221282 -0.10045176 0.023420641 0.006545676 -0.06283621 0.06572509
0.042888336 -0.10620468 0.0013067779 -0.041021947 0.0035281875 0.062010467 -0.007708867 -0.072459884
0.09471102 -0.10611212 -0.03883875 0.05378239 0.1270524 0.11872338 -0.03365056 0.039697964
-0.09478879 -0.0014876215 -0.043463726 0.059887484 -0.06617858 0.045420423 0.05154518 0.11871175
-0.02933672 0.118394576 -0.109345116 -0.038969774 0.05451554 0.035230156 0.0687585 -0.08331105
00000000: a625 dcbb 0519 8a3d f758 a63b 7ca7 a0bd
00000010: 74cf 8b3d c076 663d 3419 8cbd c233 aebd
00000020: 3944 84bd 6f76 80bd 2679 adbc 077c 8d3c
00000030: a373 5a3c 1529 25bd b6f0 ad3d 33a7 c23b
00000040: cac6 93bd 5de6 dcbc f69d 89bd b6ed 37bd
00000050: d855 eebd c9fb 5c3c b2ed d3bd 6c60 443d
00000060: bf70 b93d 04c4 a9bd dd60 6abd a7b9 cdbd
00000070: a5dc bf3c 1c7d d63b 45b0 80bd e09a 863d
00000080: aeab 2f3d d781 d9bd 3148 ab3a a106 28bd
00000090: 2a39 673b b0fe 7d3d aa9a fcbb d965 94bd
000000a0: daf7 c13d 5051 d9bd 6215 1fbd ec4a 5c3d
000000b0: 061a 023e 3e25 f33d 2bd5 09bd 559a 223d
000000c0: a020 c2bd 4bfc c2ba 0507 32bd 944c 753d
000000d0: a388 87bd c40a 3a3d 0a21 533d 251f f33d
000000e0: 9053 f0bc db78 f23d 55f0 dfbd c59e 1fbd
000000f0: b04b 5f3d 7f4d 103d 42d1 8c3d fc9e aabd

gkf.gat_rnn.fc_r.0.weight f4 [64, 1]
0.62409854 -0.9403127 -0.6860164 -0.07281167 -0.9753684 -0.9539615 -0.89434785 0.81199056
0.20072924 -0.31606773 -0.047747593 -0.8771825 -0.95113564 -0.702712 -0.98389333 0.6892631
-0.364218 -0.27239862 -0.8846427 0.1869091 -0.15591674 -0.67808944 0.6655635 0.860974
-0.71401906 0.5792863 -0.16913518 -0.005177569 0.4477428 -0.17166805 0.86572534 0.61290175
-0.6641037 -0.6126436 -0.99778575 0.32074302 -0.76237625 -0.83978707 -0.64689195 -1.0046507
-0.80931276 0.8906205 0.5568724 0.887382 -0.48604205 -0.41079313 -0.34691817 0.026894152
-0.72145295 0.1587205 -0.64555305 0.16691366 0.91492397 0.15642817 0.74998367 -0.7268097
-0.13287176 -0.626188 -0.10169245 -0.38116714 -0.5767959 -0.98231643 -0.36948478 0.15580492
00000000: ecc4 1f3f 55b8 70bf c59e 2fbf 491e 95bd
00000010: beb1 79bf d236 74bf fbf3 64bf 9dde 4f3f
00000020: f78b 4d3e a1d3 a1be fb92 43bd 088f 60bf
00000030: a07d 73bf efe4 33bf 6fe0 7bbf 8c73 303f
00000040: c87a babe d577 8bbe f277 62bf 1965 3f3e
00000050: a3a8 1fbe 4597 2dbf 5f62 2a3f cb68 5c3f
00000060: f4c9 36bf 1b4c 143f c631 2dbe 99a8 a9bb
00000070: 8b3e e53e c0c9 2fbe 2da0 5d3f 21e7 1c3f
00000080: b302 2abf 36d6 1cbf e36e 7fbf 6e38 a43e
00000090: 172b 43bf 49fc 56bf b69a 25bf 6598 80bf
000000a0: 1f2f 4fbf b5ff 633f 318f 0e3f 772b 633f
000000b0: 81da f8be 7a53 d2be 429f b1be 2051 dc3c
000000c0: 24b1 38bf a087 223e f742 25bf 6aeb 2a3e
000000d0: 7538 6a3f b52e 203e eefe 3f3f 3310 3abf
000000e0: 890f 08be db4d 20bf 2244 d0bd 5728 c3be
000000f0: e5a8 13bf 1779 7bbf 1c2d bdbe 538b 1f3e

gkf.gat_rnn.fc_r.0.bias f4 [64]
-0.15287383 -0.934286 0.7811514 0.7836031 -0.61475575 0.11450169 0.6689351 -0.9543631
-0.9076231 0.55348235 -0.019264413 0.31344038 -0.39715335 0.19500707 0.69607466 -0.2081679
-0.31655222 -0.9492716 -0.10902033 0.6458041 -0.93955564 -0.076935515 0.7781259 -0.25759187
-0.35610414 -0.30446437 -0.40146723 0.11157786 -0.9460543 0.4183032 -0.24167882 -0.11981948
-0.03848741 0.6085328 -0.6087186 -0.9147503 -0.71117204 -0.7393172 -0.49101436 0.83379173
-0.77965075 -0.598285 -0.82215595 -0.51800716 -0.02823722 -0.6098367 0.0066582775 0.3684457
-0.16710323 0.44855604 0.2321664 0.99275964 -0.052564546 0.8760152 0.7769875 0.5096289
0.59433985 -0.66185397 -0.6829292 0.46178356 0.39550602 0.9385963 -0.14128193 -0.16679505
00000000: f58a 1cbe 5e2d 6fbf 8af9 473f 369a 483f
00000010: a260 1dbf dd7f ea3d 553f 2b3f 2451 74bf
00000020: fd59 68bf 05b1 0d3f 67d0 9dbc 427b a03e
00000030: af57 cbbe efaf 473e f331 323f f729 55be
00000040: 2213 a2be 7703 73bf 0d46 dfbd 6b53 253f
00000050: b886 70bf 5e90 9dbd 4233 473f 15e3 83be
00000060: 4853 b6be c1e2 9bbe 1d8d cdbe ef82 e43d
00000070: 9d30 72bf d62b d63e a77a 77be ea63 f5bd
00000080: f9a4 1dbd cec8 1b3f fbd4 1bbf 132d 6abf
00000090: 5f0f 36bf e443 3dbf 3c66 fbbe 6073 553f
000000a0: 3197 47bf 3529 19bf d078 52bf 1e9c 04bf
000000b0: be51 e7bc 421e 1cbf ae2d da3b eaa4 bc3e
000000c0: 1c1d 2bbe 23a9 e53e 07bd 6d3e 7f25 7e3f
000000d0: ec4d 57bd 8842 603f a7e8 463f 0a77 023f
000000e0: a826 183f 436f 29bf 73d4 2ebf e56e ec3e
000000f0: c47f ca3e d947 703f 36ac 10be 52cc 2abe

gkf.gat_rnn.fc_r.2.weight f4 [64, 64]
0.10472945 0.006088399 0.120641254 -0.05452652 -0.038026553 0.009001136 0.069923915 -0.09593533
-0.03699244 0.09476092 0.029382503 0.0918946 -0.03898451 -0.07522951 -0.082062 -0.051218346
-0.09157743 0.07490398 0.03716467 -0.06524694 0.1205517 0.03916495 0.06229692 -0.03363696
0.08977096 -0.069529325 0.095858164 -0.058500722 0.05126434 -0.040258594 0.10022112 -0.0858435
-0.020778451 -0.030531099 -0.07173194 -0.06604372 -0.032875102 0.01533253 0.09138462 -0.01731414
0.12468817 -0.041590903 -0.055396207 0.011880056 -0.01903265 0.040733587 0.119098715 0.053488348
-0.101065375 -0.027209984 -0.02130846 -0.101852104 0.057434984 0.12169412 0.07806854 0.00080378813
-0.0018585827 -0.05667192 -0.0098920055 0.11291779 -0.060972188 0.023217266 -0.08829294 -0.021840926
0.008735932 -0.09140567 0.04955704 -0.07530748 -0.0469466 0.09409755 0.12909153 -0.019216988
-0.09381123 -0.081319906 -0.026205862 -0.05515109 0.10400995 -0.081094556 0.08658133 0.024271505
-0.03471298 0.09842009 0.075137064 0.02320802 -0.09493307 -0.030979753 0.058886405 0.109056994
-0.037752144 -0.05456932 -0.12513067 0.10890578 0.11197258 0.11060098 -0.06849631 0.09212407
-0.03201889 0.07926481 0.077209495 -0.110559076 0.034087803 0.053299002 -0.07141506 0.12805274
0.10073056 0.09992721 -0.011632901 -0.07016316 -0.062288657 0.04521899 -0.018283138 0.13143763
0.1099523 0.035361174 -0.093705736 0.0797753 0.11670377 -0.0017535706 -0.047697186 -0.018019842
0.047781724 -0.08999758 0.055599887 0.06912572 -0.03672608 -0.032539874 -0.054398138 0.0878535
0.08413852 0.029852452 -0.006946687 0.040799756 0.11483877 0.03468707 -0.06523112 0.052687176
-0.050195385 -0.0033081847 -0.08610479 -0.007943558 0.00096420804 -0.08032549 0.077297054 0.12508585
-0.11024549 0.03280354 -0.09155211 -0.0077643367 0.05326335 -0.0073689073 0.054623548 -0.030805323
0.11367781 -0.05037942 0.017998204 0.022928812 0.08511573 0.01589189 0.085202746 0.042614706
0.07459006 -0.0004149865 0.035967644 0.122109786 -0.04641976 -0.056617532 0.08496492 0.045206837
-0.123710915 0.051867556 -0.119805954 -0.059876848 0.043788288 0.060160372 -0.033328548 0.11931481
0.118888445 0.114864245 -0.11909309 -0.029638994 0.018949725 0.11785129 -0.00460992 0.023004426
0.07234999 -0.07101987 -0.08371142 0.12239772 -0.0059349323 0.08634223 -0.12743805 -0.04330762
0.104164116 -0.018653486 0.0325201 -0.09783881 0.1146132 -0.07007264 -0.014974189 -0.062317457
-0.043650642 -0.11491106 -0.116564676 -0.03358502 -0.062381446 0.08437881 -0.00916883 0.11388086
-0.027681664 0.022625817 0.11258527 -0.08497462 -0.059403963 0.09937903 -0.015561617 -0.017055376
0.0028630495 -0.04968522 0.0056308317 -0.044553872 0.06157822 -0.03115038 -0.025439389 -0.030896204
0.024965174 0.053488214 -0.121343695 -0.06550588 -0.12661307 0.051598802 0.08684385 -0.12890728
0.025880868 0.043206606 -0.046771098 0.04456832 0.088867545 0.11733484 0.046475098 -0.01785948
-0.07852248 -0.03542636 -0.0070201242 0.0013153481 0.106912754 -0.10220597 0.024373235 -0.048304807
0.00973416 0.11378573 -0.0015524332 -0.031321507 -0.05087841 -0.1339284 -0.12054413 0.07420185
00000000: 657c d63d 3181 c73b c312 f73d 3357 5fbd
00000010: bbc1 1bbd 8079 133c 4534 8f3d be79 c4bd
00000020: 6285 17bd 0312 c23d 93b3 f03c 3c33 bc3d
00000030: 39ae 1fbd ee11 9abd 1f10 a8bd 54ca 51bd
00000040: f38c bbbd 4267 993d fb39 183d 30a0 85bd
00000050: cfe3 f63d 6d6b 203d 0e2b 7f3d e9c6 09bd
00000060: d6d9 b73d 6465 8ebd 4951 c43d 749e 6fbd
00000070: 8efa 513d 32e6 24bd bb40 cd3d b8ce afbd
00000080: 9237 aabc 5b1c fabc 32e8 92bd ee41 87bd
00000090: 0ba8 06bd 4b35 7b3c dc27 bb3d 62d6 8dbc
000000a0: 835c ff3d 395b 2abd 22e7 62bd 91a4 423c
000000b0: 5cea 9bbc 43d8 263d 07ea f33d 9916 5b3d
000000c0: 5dfb cebd 79e7 debc 148f aebc d697 d0bd
000000d0: f240 6b3d c43a f93d 66e2 9f3d 4fb5 523a
000000e0: b09b f3ba d120 68bd 1412 22bc 7141 e73d
000000f0: f9bd 79bd 2332 be3c eed2 b4bd beeb b2bc
00000100: 2821 0f3c e532 bbbd 53fc 4a3d cf3a 9abd
00000110: 144b 40bd 37b6 c03d 9230 043e f26c 9dbc
00000120: 1a20 c0bd 0d8b a6bd adad d6bc 1ce6 61bd
00000130: 2b03 d53d e714 a6bd 8d51 b13d 09d5 c63c
00000140: 332f 0ebd 7990 c93d 76e1 993d bf1e be3c
00000150: 456c c2bd 40c9 fdbc df32 713d 4659 df3d
00000160: fea1 1abd 1484 5fbd 4122 00be fe09 df3d
00000170: e151 e53d c482 e23d cb47 8cbd 8bab bc3d
00000180: 3d26 03bd 9755 a23d 0320 9e3d cc6c e2bd
00000190: a79f 0b3d 0e50 5a3d 0f42 92bd 4220 033e
000001a0: d34b ce3d a3a6 cc3d ec97 3ebc b4b1 8fbd
000001b0: 6422 7fbd 8c37 393d 85c6 95bc 9697 063e
000001c0: ac2e e13d e1d6 103d cbe8 bfbd 3c61 a33d
000001d0: 6302 ef3d 11d8 e5ba 205e 43bd 599e 93bc
000001e0: c5b6 433d a750 b8bd b5bc 633d c991 8d3d
000001f0: 166e 16bd 8848 05bd 95d0 5ebd 89ec b33d
00000200: d150 ac3d 218d f43c 09a1 e3bb a51d 273d
00000210: 9730 eb3d 0714 0e3d e597 85bd 82ce 573d
00000220: ad99 4dbd 21ce 58bb b557 b0bd b225 02bc
00000230: e8c2 7c3a b181 a4bd eb4d 9e3d 8116 003e
00000240: 63c8 e1bd 015d 063d ac7f bbbd fa6b febb
00000250: ac2a 5a3d e076 f1bb f1bc 5f3d 725b fcbc
00000260: e9cf e83d a75a 4ebd f870 933c 34d5 bb3c
00000270: 2851 ae3d b52f 823c c77e ae3d c28c 2e3d
00000280: acc2 983d 8c92 d9b9 cf52 133d b214 fa3d
00000290: a522 3ebd c9e7 67bd 1702 ae3d ce2a 393d
000002a0: 265c fdbd 1373 543d d35c f5bd 6d41 75bd
000002b0: 595b 333d b96a 763d 8483 08bd 535b f43d
000002c0: c97b f33d f23d eb3d 14e7 f3bd 7acd f2bc
000002d0: 743c 9b3c 045c f13d d00e 97bb c773 bc3c
000002e0: 3b2c 943d de72 91bd e570 abbd a8ab fa3d
000002f0: d279 c2bb 32d4 b03d 1f7f 02be 5563 31bd
00000300: ff53 d53d 32cf 98bc cc33 053d b75f c8bd
00000310: 53ba ea3d 3f82 8fbd 4d56 75bc 9740 7fbd
00000320: 04cb 32bd 7d56 ebbd 76b9 eebd 7290 09bd
00000330: b083 7fbd ccce ac3d dc38 16bc 5e3a e93d
00000340: a8c4 e2bc c759 b93c 1b93 e63d 2c07 aebd
00000350: 9251 73bd 3c87 cb3d 27f6 7ebc b7b7 8bbc
00000360: 00a2 3b3b bb82 4bbd d782 b83b 1f7e 36bd
00000370: 7239 7c3d 152f ffbc 4466 d0bc 091a fdbc
00000380: c483 cc3c 7516 5b3d 0b83 f8bd f227 86bd
00000390: dba6 01be 4459 533d 30db b13d 4500 04be
000003a0: 1d04 d43c 69f9 303d 0d93 3fbd 458d 363d
000003b0: 3000 b63d 404d f03d ac5c 3e3d 0b4e 92bc
000003c0: 65d0 a0bd 3b1b 11bd 1209 e6bb c267 ac3a
000003d0: 13f5 da3d 5d51 d1bd 61aa c73c 43db 45bd
000003e0: 077c 1f3c 7e08 e93d 047b cbba fb4a 00bd
000003f0: e165 50bd 8724 09be d7df f6bd 24f7 973d

gkf.gat_rnn.fc_r.2.bias f4 [64]
0.046343185 0.12816623 0.036684696 0.053817745 -0.08280916 -0.09963937 -0.06693331 -0.05026582
-0.035987407 -0.06418591 -0.036706135 -0.08247346 0.052580755 0.039811656 0.019226972 0.03913867
-0.09377408 -0.031428766 0.0050511737 -0.10089465 0.06531432 -0.066035464 0.10244839 0.14259614
-0.0040635276 -0.037079096 0.11037281 -0.06444643 0.029685283 0.06879496 0.13100673 0.010013547
0.025759233 -0.018471591 -0.11301248 0.059649248 -0.08354135 0.010040647 -0.028261008 0.076824516
-0.055245645 0.08133494 -0.020893043 -0.02387373 -0.09147578 0.12488931 0.014593639 -0.12949808
0.0076258755 0.055931944 -0.034461558 0.10679109 0.100099 -0.0087349955 0.15635264 0.102349445
-0.010380096 0.011127826 0.038426522 -0.012620273 0.084909186 -0.10962171 -0.03550696 0.07427445
00000000: 5ad2 3d3d 023e 033e b142 163d ff6f 5c3d
00000010: d997 a9bd ba0f ccbd 5514 89bd 88e3 4dbd
00000020: 8867 13bd e773 83bd 2c59 16bd d8e7 a8bd
00000030: eb5e 573d 8c11 233d e281 9d3c df4f 203d
00000040: a00c c0bd 73bb 00bd 5184 a53b dba1 cebd
00000050: 84c3 853d 9a3d 87bd 76d0 d13d b904 123e
00000060: 5727 85bb 40e0 17bd 240b e23d 7dfc 83bd
00000070: 8d2e f33c 5fe4 8c3d a126 063e dc0f 243c
00000080: 0705 d33c bc51 97bc 1673 e7bd c552 743d
00000090: ba17 abbd 8781 243c a183 e7bc 2c56 9d3d
000000a0: 4249 62bd ef92 a63d e327 abbc d792 c3bc
000000b0: a757 bbbd f7c5 ff3d 291a 6f3c 259b 04be
000000c0: 7be2 f93b e518 653d 9027 0dbd 49b5 da3d
000000d0: b400 cd3d 3a1d 0fbc e81a 203e 969c d13d
000000e0: 4711 2abc 7c51 363c 2165 1d3d 43c5 4ebc
000000f0: dee4 ad3d 5981 e0bd bf6f 11bd 341d 983d

gkf.gat_rnn.r_input_gru.weight_ih_l0 f4 [192, 64]
-0.1393199 -0.05962477 -0.08603779 0.06751591 -0.012849722 -0.10096158 0.0906921 -0.075024195
-0.028858302 0.023616003 -0.09471433 -0.026295912 -0.05508634 -0.044705797 -0.06038733 0.0644635
-0.0797921 -0.09962751 0.035638373 0.025470397 -0.023215404 -0.013935483 0.10799773 -0.060075723
-0.094028905 -0.14239804 0.009711374 0.033994526 -0.016998414 -0.11628284 -0.11241467 -0.09980541
0.058427207 0.0070033423 -0.084165975 -0.13357843 0.05632302 -0.014431428 0.11721821 -0.115497686
-0.118271016 0.03917457 0.06744846 0.07300735 0.1107847 0.059350777 0.039477043 -0.060966685
0.10977876 -0.069418125 0.09698334 0.035775997 -0.08514483 -0.028301414 -0.030302757 0.07987396
0.08801798 0.008801756 -0.08859977 0.019772237 0.08383814 -0.0852127 0.08185091 0.005484327
0.06583114 0.03671362 0.07461203 -0.09975056 0.0456326 -0.11400346 -0.009629211 0.09168906
-0.108871564 -0.101418406 -0.057244197 -0.001257113 -0.026016537 -0.104396135 0.009983374 -0.03802532
-0.06200164 -0.0023425748 0.03841305 0.014702803 -0.08322062 0.080690525 0.016706547 -0.0561794
0.11388101 0.023637444 0.06593327 0.08182745 -0.008255733 0.099832505 -0.00742933 0.09328537
0.011426673 0.055556525 0.05607464 -0.07158587 0.10371901 0.00065068103 0.047121797 -0.100620456
-0.056467142 0.08748125 -0.08577985 0.01471864 0.10276583 -0.12316935 -0.00874343 0.026663315
0.0757796 -0.048675522 -0.115639865 -0.08126408 0.048051964 -0.09137182 -0.107286096 -0.010655873
0.031649478 -0.084887855 -0.055015896 0.06290255 -0.0899217 -0.10800795 -0.03618931 0.09870198
-0.03658643 -0.084324755 -0.08814412 -0.028192014 0.08901159 0.04396786 -0.0376799 -0.10815058
-0.07667915 0.026364293 0.108337715 0.06305151 -0.018674195 0.065066755 0.0077321753 0.01666938
0.06165721 -0.027024841 0.03911753 0.0125180455 0.043365892 -0.024709841 0.07873439 -0.111960635
0.08297489 -0.09867624 -0.07990297 -0.0781112 -0.011884436 -0.009398903 -0.122396104 0.06524386
0.033745546 0.121477515 -0.090511985 -0.09746935 0.02834568 0.09996574 0.087963976 0.048870016
0.021495631 0.061816707 -0.05041681 -0.12037409 -0.10585022 -0.075201385 0.027683668 0.11242802
0.079190575 -0.08347531 0.035059676 0.11493964 -0.0006251837 -0.01557725 -0.062485196 -0.010988722
0.09592762 -0.03482532 -0.019832171 0.059946723 -0.047350284 -0.053121414 0.022207832 0.09534525
0.008282229 -0.00900549 -0.103594825 0.073932685 0.0016328412 -0.057420373 -0.114424735 -0.06344658
-0.089951135 0.021512154 0.087877415 -0.026934505 0.07495299 -0.028246228 -0.061293837 -0.116594896
-0.08963456 0.09011042 0.07917955 0.11747437 -0.019389566 0.03631538 -0.012880282 0.12012306
-0.095479965 -0.040208668 -0.12664959 0.010886118 -0.10161877 -0.09204787 0.026699714 0.12271856
0.09829652 0.08155399 -0.03239146 -0.008557111 -0.11341678 0.07866054 0.02997736 0.10445751
-0.12371753 -0.027719878 -0.08322482 -0.10048174 -0.07534288 0.034801617 0.080339745 0.059198674
-0.04420654 0.053933695 0.1265103 0.0039545307 -0.043955978 -0.101691805 0.08199804 -0.031338423
-0.10283422 0.06753676 0.02191419 -0.053056106 -0.12720281 0.011048951 -0.04415984 -0.028330712
00000000: e0a9 0ebe 1a39 74bd 9534 b0bd c845 8a3d
00000010: a487 52bc f2c4 cebd c8bc b93d 49a6 99bd
00000020: 3f68 ecbc 5976 c13c 96f9 c1bd 866a d7bc
00000030: 37a2 61bd 6d1d 37bd b458 77bd 7105 843d
00000040: 0a6a a3bd 8209 ccbd 8bf9 113d 4ba7 d03c
00000050: 3b2e bebc a751 64bc ea2d dd3d f611 76bd
00000060: 3a92 c0bd cbd0 11be 741c 1f3c d83d 0b3d
00000070: 4240 8bbc b325 eebd aa39 e6bd c766 ccbd
00000080: 5e51 6f3d 4b7c e53b 365f acbd c9c8 08be
00000090: f8b2 663d cc71 6cbc 1a10 f03d 0d8a ecbd
000000a0: 1338 f2bd 8475 203d 6b22 8a3d e184 953d
000000b0: 17e3 e23d cd19 733d aeb2 213d 34b8 79bd
000000c0: b0d3 e03d 172b 8ebd 349f c63d da89 123d
000000d0: 6a60 aebd 5ed8 e7bc 7d3d f8bc f594 a33d
000000e0: c542 b43d 3e35 103c cc73 b5bd 63f9 a13c
000000f0: 55b3 ab3d ff83 aebd 73a1 a73d dfb5 b33b
00000100: 7ad2 863d 0561 163d 31ce 983d 064a ccbd
00000110: 40e9 3a3d a57a e9bd d7c3 1dbc 79c7 bb3d
00000120: 0ef8 debd 74b4 cfbd e478 6abd b6c5 a4ba
00000130: a220 d5bc a4cd d5bd 4e91 233c 70c0 1bbd
00000140: 6ff5 7dbd e285 19bb 0157 1d3d 07e4 703c
00000150: 936f aabd 1341 a53d 2bdc 883c 5f1c 66bd
00000160: 723a e93d 50a3 c13c 0608 873d 2695 a73d
00000170: 0e43 07bc fc74 cc3d bd71 f3bb 660c bf3d
00000180: f136 3b3c 3d8f 633d 86ae 653d 9d9b 92bd
00000190: a26a d43d 7792 2a3a c902 413d 1912 cebd
000001a0: 174a 67bd 5f29 b33d 59ad afbd 7326 713c
000001b0: e476 d23d 3640 fcbd 9a40 0fbc 066d da3c
000001c0: 5632 9b3d fc5f 47bd 98d4 ecbd c86d a6bd
000001d0: 23d2 443d 2621 bbbd d0b8 dbbd f995 2ebc
000001e0: e2a2 013d afd9 adbd 5958 61bd 0dd3 803d
000001f0: de28 b8bd 4633 ddbd 3e3b 14bd 4424 ca3d
00000200: a7db 15bd 75b2 acbd e884 b4bd f0f2 e6bc
00000210: b54b b63d a517 343d 3d56 1abd 0d7e ddbd
00000220: f509 9dbd eef9 d73c 2ae0 dd3d 2621 813d
00000230: a0fa 98bc b841 853d 305e fd3b 398e 883c
00000240: 458c 7c3d 3363 ddbc b439 203d 7d18 4d3c
00000250: 6fa0 313d 4b6c cabc 7f3f a13d 9e4b e5bd
00000260: bdee a93d c516 cabd 2ba4 a3bd c4f8 9fbd
00000270: f0b6 42bc dbfd 19bc cfaa fabd 939e 853d
00000280: c538 0a3d 34c9 f83d 595e b9bd 039e c7bd
00000290: 3335 e83c d7ba cc3d 7526 b43d ed2b 483d
000002a0: 9b17 b03c 8433 7d3d db81 4ebd b186 f6bd
000002b0: 00c8 d8bd 2f03 9abd dcc8 e23c a940 e63d
000002c0: ab2e a23d 1af5 aabd bc9a 0f3d 7965 eb3d
000002d0: 5ee3 23ba b937 7fbc 7af0 7fbd 0a0a 34bc
000002e0: b375 c43d ffa4 0ebd 1477 a2bc b28a 753d
000002f0: 5ff2 41bd d795 59bd 33ed b53c 5f44 c33d
00000300: 30b2 073c c38b 13bc 8629 d4bd 056a 973d
00000310: 0f05 d63a a031 6bbd 8457 eabd 48f0 81bd
00000320: 4d38 b8bd 423a b03c 13f9 b33d c0a5 dcbc
00000330: f480 993d a264 e7bc 3f0f 7bbd 4ec9 eebd
00000340: 5392 b7bd d08b b83d e328 a23d 6796 f03d
00000350: ded6 9ebc 70bf 143d d107 53bc 1403 f63d
00000360: 008b c3bd d8b1 24bd 6eb0 01be b05b 323c
00000370: 801d d0bd 9883 bcbd 5cb9 da3c de53 fb3d
00000380: b04f c93d c705 a73d e8ac 04bd 2033 0cbc
00000390: 0f47 e8bd c718 a13d 1593 f53c d2ed d53d
000003a0: 9e5f fdbd cc14 e3bc c671 aabd 5fc9 cdbd
000003b0: 5e4d 9abd 248c 0e3d 2a89 a43d 4f7a 723d
000003c0: eb11 35bd 94e9 5c3d eb8b 013e 0295 813b
000003d0: 2f0b 34bd cb43 d0bd 97ee a73d b85c 00bd
000003e0: bf9a d2bd b650 8a3d 6385 b33c 5c51 59bd
000003f0: 7441 02be a906 353c f3e0 34bd cf15 e8bc

gkf.gat_rnn.r_input_gru.weight_hh_l0 f4 [192, 64]
-0.040210195 -0.053560726 -0.11003952 -0.027994804 -0.045594778 0.11562457 0.11950215 -0.08667129
0.016534517 -0.10347507 0.06240499 0.09983903 -0.06899511 -0.086209565 -0.013238269 0.097198315
0.09074353 -0.060768176 0.012816464 -0.09536787 0.1133931 0.052588396 -0.046143528 0.05862135
0.011413649 -0.07161182 -0.12122421 0.08434585 -0.08523962 0.082667805 -0.032592695 0.07131864
0.050771415 0.07877554 -0.054925587 0.058445316 0.023756348 -0.0019215071 0.000655793 0.0009275338
0.07069808 0.075760804 -0.043475136 -0.0085511645 -0.02570607 -0.03977006 0.056104023 0.107308775
0.06369539 -0.031369235 0.079786636 0.12030365 0.03794659 0.10744662 0.046725996 -0.024452118
0.04323466 0.02924766 0.037634414 -0.024551766 -0.09695754 -0.111146145 -0.07912454 0.07262573
-0.037528366 -0.11253514 0.09929724 -0.11006676 0.02339038 0.10700495 -0.06689164 -0.00560862
0.115071304 0.1116857 0.08636019 -0.021882921 0.080331944 0.05672473 0.010553341 0.11605265
0.032353964 0.07849954 -0.09947296 0.039371036 -0.11559984 0.022623315 0.034899317 0.07894158
0.0615063 -0.04851592 0.0745898 -0.12410132 0.103904136 0.053899307 -0.012212567 0.039648965
0.066237524 -0.10647945 0.075142615 0.038775243 0.13336653 0.012365876 0.009059411 0.01896291
0.09584763 -0.100263804 0.059536036 0.07337101 -0.017827341 -0.079231255 0.09857929 0.074258246
-0.027568989 0.014317108 -0.04427496 -0.06261744 0.11021735 0.05008868 -0.00085807126 0.07548211
0.08831946 0.06726007 0.054222338 -0.094055615 -0.047875643 0.102804966 0.043398242 0.03643598
-0.07739338 -0.055613354 -0.037327614 0.060043424 -0.052992254 0.095239095 -0.08651669 -0.016007274
0.104762785 -0.049856476 -0.0015627284 -0.037962902 0.038649533 -0.060035516 -0.09341662 -0.053142045
0.05362833 -0.03904872 -0.09949237 -0.024268154 -0.046535797 0.103484675 -0.02197883 0.06325754
0.11965232 -0.08657453 0.04414198 0.010095001 0.103467464 0.002340469 0.038117547 -0.12432959
0.11764301 -0.09654995 0.093060784 -0.080823205 0.024606487 0.00349989 0.090529494 -0.12128932
0.10463921 0.119165115 0.028801512 0.116206236 0.097785726 0.0054375282 0.06897913 0.005597728
0.03307979 -0.09034327 -0.034463447 -0.06405153 -0.07433822 -0.08494525 -0.053341012 0.023075594
-0.0050052153 0.055525154 0.05718887 -0.03435804 0.08738554 -0.087938644 -0.07319978 0.119252816
0.0523949 0.05949048 -0.1280039 0.09328083 -0.10165978 0.021011956 -0.06161283 0.040864
-0.061596513 -0.11086049 -0.114536665 -0.08876688 -0.050019994 0.0042719804 -0.050228722 -0.035642613
0.025303602 0.11175079 -0.04536241 0.092436045 -0.0528824 0.10283927 -0.054747775 -0.06275046
-0.030203296 -0.02484032 -0.08525592 0.08440256 -0.10531398 -0.0014469791 -0.11688625 -0.079426564
0.018327178 -0.021978593 -0.025027685 0.0074942443 -0.040037397 -0.108559236 -0.00066542294 0.0321864
0.09192273 -0.07555629 -0.08934694 -0.10601871 0.061186895 -0.10824819 0.1020203 0.043769676
0.091722384 -0.046598766 0.08154727 -0.051006045 -0.013917519 0.101114325 -0.06570132 -0.024719723
0.015486743 0.042905916 -0.012278349 -0.10017028 -0.025332907 0.042150322 -0.09166108 -0.10214693
00000000: 72b3 24bd 7e62 5bbd 665c e1bd 5c55 e5bc
00000010: 97c1 3abd 93cc ec3d 8bbd f43d b880 b1bd
00000020: 6573 873c bdea d3bd 609c 7f3d 6878 cc3d
00000030: 4f4d 8dbd a48e b0bd 53e5 58bc e90f c73d
00000040: bed7 b93d 0de8 78bd 25fc 513c 3b50 c3bd
00000050: a43a e83d ee66 573d ff00 3dbd f11c 703d
00000060: 5000 3b3c 38a9 92bd 6644 f8bd 84bd ac3d
00000070: 1c92 aebd bd4d a93d eb7f 05bd 820f 923d
00000080: b0f5 4f3d 1255 a13d a7f9 60bd 5b64 6f3d
00000090: ac9c c23c 14db fbba 86e9 2b3a bd25 733a
000000a0: 28ca 903d 7b28 9b3d fc12 32bd 2f1a 0cbc
000000b0: 8995 d2bc eee5 22bd 55cd 653d b4c4 db3d
000000c0: bb72 823d 077d 00bd 2d67 a33d c361 f63d
000000d0: e26d 1b3d f90c dc3d c263 3f3d cf4f c8bc
000000e0: d416 313d ca98 ef3c 8b26 1a3d c920 c9bc
000000f0: ad91 c6bd 97a0 e3bd 0c0c a2bd ccbc 943d
00000100: 58b7 19bd d378 e6bd 5a5c cb3d ae6a e1bd
00000110: 2f9d bf3c 6925 db3d 7cfe 88bd 84c8 b7bb
00000120: 81aa eb3d 79bb e43d 9cdd b03d d043 b3bc
00000130: 1385 a43d 3158 683d ece7 2c3c 03ad ed3d
00000140: 9785 043d 5ec4 a03d 7bb8 cbbd 8643 213d
00000150: 9cbf ecbd 8854 b93c 96f2 0e3d 20ac a13d
00000160: 08ee 7b3d a1b8 46bd 89c2 983d d528 febd
00000170: b1cb d43d 85c5 5c3d 3817 48bc f466 223d
00000180: 8aa7 873d e611 dabd 5fe4 993d cad2 1e3d
00000190: 3c91 083e 3e9a 4a3c ec6d 143c 1b58 9b3c
000001a0: c34b c43d 1c57 cdbd 0fdc 733d 8a43 963d
000001b0: a50a 92bc ff43 a2bd f0e3 c93d b514 983d
000001c0: 5cd8 e1bc 4e92 6a3c a959 35bd 933d 80bd
000001d0: a2b9 e13d ca29 4d3d 30f0 60ba 5d96 9a3d
000001e0: d5e0 b43d a6bf 893d 3e18 5e3d 3ba0 c0bd
000001f0: 4019 44bd 698b d23d 5bc2 313d e53d 153d
00000200: 6c80 9ebd d4ca 63bd d7e4 18bd 18f0 753d
00000210: 680e 59bd b70c c33d aa2f b1bd b021 83bc
00000220: df8d d63d 4e36 4cbd 77d4 ccba fd7e 1bbd
00000230: f94e 1e3d cde7 75bd 3651 bfbd 79ab 59bd
00000240: 61a9 5b3d 8df1 1fbd a8c2 cbbd 02ce c6bc
00000250: 529c 3ebd c6ef d33d f30c b4bc 2b8d 813d
00000260: 470c f53d fd4d b1bd 39ce 343d 8165 253c
00000270: c0e6 d33d 8e62 193b 2521 1c3d 83a0 febd
00000280: d2ee f03d fbbb c5bd a796 be3d a386 a5bd
00000290: 8b93 c93c 695e 653b 8767 b93d 8966 f8bd
000002a0: 154d d63d d70c f43d 26f1 eb3c 89fd ed3d
000002b0: e243 c83d 4b2d b23b ee44 8d3d 256d b73b
000002c0: ad7e 073d e405 b9bd 8b29 0dbd 732d 83bd
000002d0: a33e 98bd c6f7 adbd 1b7c 5abd 0709 bd3c
000002e0: ca02 a4bb 586e 633d e03e 6a3d 04bb 0cbd
000002f0: 31f7 b23d 2d19 b4bd c4e9 95bd d23a f43d
00000300: 099c 563d 4aac 733d 7413 03be 050a bf3d
00000310: 0133 d0bd 4421 ac3c bc5d 7cbd 0261 273d
00000320: a04c 7cbd d30a e3bd 3392 eabd 69cb b5bd
00000330: c4e1 4cbd f8fb 8b3b a2bc 4dbd fdfd 11bd
00000340: 8049 cf3c 99dd e43d efcd 39bd 1c4f bd3d
00000350: 379b 58bd 659d d23d 343f 60bd 5083 80bd
00000360: e76c f7bc ed7d cbbc a89a aebd 40db ac3d
00000370: dbae d7bd 90a8 bdba 0f62 efbd 65aa a2bd
00000380: e122 963c 730c b4bc dc06 cdbc 4792 f53b
00000390: 41fe 23bd 4e54 debd c76f 2eba e3d5 033d
000003a0: fc41 bc3d 42bd 9abd 87fb b6bd 5620 d9bd
000003b0: 1c9f 7a3d 3ab1 ddbd 05f0 d03d d547 333d
000003c0: f2d8 bb3d 59de 3ebd 4102 a73d b7eb 50bd
000003d0: 4e06 64bc 0715 cf3d 6a8e 86bd 0481 cabc
000003e0: 1cbc 7d3c 1dbe 2f3d 212b 49bc 1326 cdbd
000003f0: f586 cfbc d1a5 2c3d ceb8 bbbd 6932 d1bd

gkf.gat_rnn.r_input_gru.bias_ih_l0 f4 [192]
0.10156922 -0.07368232 -0.065158725 0.06989692 -0.028180556 0.11837055 -0.06124253 0.06485008
0.00035920003 0.022671092 -0.11319547 -0.018740185 -0.028990291 -0.07543263 0.07065705 0.12016508
0.124473564 0.09273723 -0.0289409 -0.07981413 0.07238802 0.10920358 -0.05437385 0.081872486
-0.07603273 -0.04857545 0.09232771 0.10561558 -0.117564894 0.06667752 0.10572859 0.026910916
0.05377479 0.044579033 0.003915075 0.069269046 -0.09197225 -0.034550093 -0.036784302 0.0837694
-0.08695022 0.047632195 -0.051836923 0.08135839 0.0037934403 0.012658328 0.034262825 0.038167477
0.05527036 0.07153534 -0.032752525 -0.064501986 0.048903372 -0.13498655 0.045444828 0.055109132
0.09915304 0.08957163 -0.077019885 -0.09471286 -0.03591055 -0.10513365 0.0054365643 0.06313482
0.04472437 -0.15129419 0.031967103 -0.08525337 -0.06663722 -0.11282512 -0.064010955 -0.084085785
-0.0956636 0.07841624 -0.03133349 0.029000131 -0.040439114 0.05463089 -0.119144045 -0.056197252
-0.10501191 -0.1071107 -0.08057896 -0.1459493 -0.015277343 -0.14749303 -0.007844151 0.0011424534
0.046015013 -0.12234944 -0.04829056 -0.05127371 -0.13850139 0.056719482 0.032146942 0.030777318
-0.039248206 -0.01407092 0.040903848 -0.07634912 0.025727162 0.021056745 -0.14970402 -0.08867439
-0.09055853 -0.113736995 0.06555039 -0.0712692 -0.047215145 -0.13830826 0.07951535 -0.039029777
0.06661228 0.078412406 -0.081731446 -0.026513234 0.03369787 0.07981096 -0.046206824 -0.07150068
0.10314344 0.05328348 -0.098383896 0.030271672 -0.12299649 0.012132767 0.013241173 -0.08334068
-0.038532242 0.0653763 -0.005223402 -0.08480857 0.05007285 0.039417766 -0.055475853 0.10380904
-0.10984679 0.04166113 -0.088066936 -0.122145705 0.07761802 0.10273665 -0.116207056 -0.06658877
-0.07364358 -0.1134867 -0.007769895 0.08542381 0.030671824 -0.05164228 -0.051582396 0.024701998
-0.08334444 -0.12348255 0.0030178854 -0.021494234 -0.080862485 -0.08233793 0.11590148 -6.5018976e-05
-0.023682848 -0.06522265 0.0917395 0.011129142 0.09059467 -0.023777911 -0.08744087 0.10432114
-0.06111626 0.101468265 -0.009181992 0.020958396 -0.06586408 -0.11922109 -0.08073432 0.03276692
-0.092235334 -0.019527143 -0.026295869 0.04516407 -0.14066002 -0.009268672 -0.031349145 0.030784411
-0.036716726 0.11503799 -0.035462294 0.1048025 0.10971602 0.04904002 0.06209396 0.13421635
00000000: 8603 d03d c2e6 96bd f071 85bd 1e26 8f3d
00000010: e9da e6bc 426c f23d 72d9 7abd 1ed0 843d
00000020: 0353 bc39 bab8 b93c 07d3 e7bd 0485 99bc
00000030: 0c7d edbc 6c7c 9abd a5b4 903d 1c19 f63d
00000040: ffeb fe3d 04ed bd3d 7715 edbc 9775 a3bd
00000050: 2c40 943d 20a6 df3d 1db7 5ebd c3ac a73d
00000060: 0cb7 9bbd 0df7 46bd 4f16 bd3d fb4c d83d
00000070: ddc5 f0bd 398e 883d 3b88 d83d 4874 dc3c
00000080: f442 5c3d 8198 363d 084a 803b eedc 8d3d
00000090: f25b bcbd 6684 0dbd 23ab 16bd 4b8f ab3d
000000a0: f512 b2bd fa19 433d f452 54bd 3a9f a63d
000000b0: 5e9b 783b e064 4f3c 2d57 0c3d 8055 1c3d
000000c0: 2c63 623d 1f81 923d 8327 06bd 9e19 84bd
000000d0: e74e 483d ea39 0abe 5b24 3a3d 1dba 613d
000000e0: c010 cb3d 5571 b73d 9abc 9dbd d1f8 c1bd
000000f0: f116 13bd 5050 d7bd 3525 b23b d44c 813d
00000100: e730 373d ddec 1abe f0ef 023d 5299 aebd
00000110: 1879 88bd db10 e7bd 2d18 83bd 2b35 acbd
00000120: 47eb c3bd b298 a03d 8c57 00bd af91 ed3c
00000130: 7ca3 25bd a4c4 5f3d cb01 f4bd 172f 66bd
00000140: 7c10 d7bd db5c dbbd 9506 a5bd bc73 15be
00000150: d24d 7abc 6a08 17be c184 00bc 60be 953a
00000160: 3d7a 3c3d 5892 fabd 52cc 45bd 6204 52bd
00000170: 4fd3 0dbe b052 683d 83ac 033d b720 fc3c
00000180: bac2 20bd b789 66bc cb8a 273d ed5c 9cbd
00000190: c5c1 d23c 327f ac3c 034c 19be eb9a b5bd
000001a0: c076 b9bd f1ee e8bd 483f 863d 96f5 91bd
000001b0: ab64 41bd aea0 0dbe f2d8 a23d b0dd 1fbd
000001c0: 056c 883d af96 a03d d162 a7bd 4832 d9bc
000001d0: c706 0a3d ee73 a33d 5e43 3dbd f36e 92bd
000001e0: de3c d33d c73f 5a3d 7f7d c9bd 4cfc f73c
000001f0: 95e5 fbbd 83c8 463c 81f1 583c 85ae aabd
00000200: fcd3 1dbd 02e4 853d 1229 abbb 1eb0 adbd
00000210: 3019 4d3d 8674 213d a63a 63bd d599 d43d
00000220: 5bf7 e0bd dca4 2a3d 705c b4bd 8727 fabd
00000230: 32f6 9e3d 9867 d23d f7fd edbd b15f 88bd
00000240: 72d2 96bd b76b e8bd 9a9a febb aef2 ae3d
00000250: 7a43 fb3c db86 53bd 1048 53bd d85b ca3c
00000260: 7db0 aabd 6be4 fcbd b7c7 453b ad14 b0bc
00000270: 3b9b a5bd caa0 a8bd c15d ed3d cc5a 88b8
00000280: 8802 c2bc 7493 85bd ebe1 bb3d 0157 363c
00000290: b389 b93d e5c9 c2bc 3314 b3bd 52a6 d53d
000002a0: 0b55 7abd 98ce cf3d 1170 16bc f1b0 ab3c
000002b0: bfe3 86bd 302a f4bd 0958 a5bd 9b36 063d
000002c0: e1e5 bcbd 63f7 9fbc 6f6a d7bc f6fd 383d
000002d0: 2e09 10be a1db 17bc f667 00bd 972f fc3c
000002e0: 4764 16bd 0a99 eb3d e940 11bd b1a2 d63d
000002f0: cbb2 e03d 30de 483d 3c56 7e3d 0370 093e

gkf.gat_rnn.r_input_gru.bias_hh_l0 f4 [192]
-0.1207148 -0.094046175 0.03785947 -0.038216207 -0.064452276 -0.104103655 0.02594289 0.097731225
-0.06521671 0.0494392 0.060593437 0.004490705 -0.088752314 0.07091084 0.055207312 -0.04332365
0.09522083 0.093259305 -0.061580602 -0.121333756 0.039675802 0.08342834 -0.020058107 0.11091279
-0.031071935 -0.013434169 0.07735541 -0.028396267 0.08516582 0.0153707145 0.041446935 -0.016415805
-0.0036099213 0.03956059 -0.08116111 -0.06260165 0.00788469 -0.05209469 -0.055742573 -0.06740453
-0.03365992 0.11173769 -0.06371004 0.028808556 0.11763728 0.08884733 -0.012986053 -0.03697362
0.10651299 0.028856425 -0.111148566 -0.077870265 -0.033617307 -0.030874984 -0.0440611 0.025449082
0.05242514 -0.10077565 -0.09499578 0.05269858 -0.12657018 0.040760692 0.020522319 -0.12503815
-0.03036812 0.06571658 -0.02590595 -0.045659542 -0.10460713 -0.023839077 -0.15088429 0.058318056
-0.13846682 -0.04982976 0.030278241 -0.027287493 0.012297103 -0.008568249 -0.051370542 -0.065355524
0.073763356 -0.0068601943 -0.03337695 0.012419553 0.029101897 0.02381804 -0.02519409 -0.02996754
-0.052011494 -0.11648235 -0.03408996 -0.12745579 0.05558259 0.048648264 -0.008518447 -0.1446338
-0.013174057 -0.009438912 0.0008283857 0.10217463 0.07385047 0.014943377 0.080766566 -0.03916098
0.06315555 -0.011712124 -0.004893552 0.0038179955 -0.033763684 0.0945371 0.07148968 -0.08172317
-0.12761581 0.09011208 0.02402361 -0.08191454 -0.15272677 -0.047020786 0.014875449 0.08546046
0.03266292 -0.010304155 0.08223539 0.017911423 0.02418878 -0.04412988 0.0865678 0.013992079
-0.0012429267 0.035498902 -0.08694443 -0.09050381 0.118698455 0.05689288 0.04754517 -0.07961865
0.09573693 0.0057857144 0.016405817 -0.08863526 -0.020486137 0.034458652 -0.05903858 0.029820237
-0.10300625 -0.06989863 -0.11919893 0.086156994 0.002464643 0.028444909 0.06584026 0.125221
0.09718182 0.060273018 -0.00827393 0.023654636 0.055487156 0.06676185 -0.09850908 -0.11143417
-0.12634456 0.07362364 0.12518908 0.09079463 0.02255459 0.01506476 -0.07312203 0.1363022
0.0767131 0.0071317474 -0.12508358 0.105394706 -0.069835216 -0.040117245 0.08624371 -0.078249365
0.09128429 0.063331805 -0.076554984 -0.098038666 -0.050634947 -0.06524879 -0.14151214 0.13395163
-0.047282472 -0.04372732 0.058049243 -0.03297734 -0.027447531 -0.10791913 -0.018879123 -0.07823733
00000000: 5239 f7bd 489b c0bd 8812 1b3d 9988 1cbd
00000010: 8eff 83bd 4c34 d5bd 2f86 d43c 4f27 c83d
00000020: 5790 85bd c280 4a3d d330 783d c426 933b
00000030: c6c3 b5bd b439 913d 1021 623d 2474 31bd
00000040: 2303 c33d bcfe be3d f13b 7cbd d57d f8bd
00000050: 1883 223d 7adc aa3d e650 a4bc 3f26 e33d
00000060: 928a febc fd1a 5cbc 836c 9e3d 4a9f e8bc
00000070: 6b6b ae3d 73d5 7b3c 43c4 293d 707a 86bc
00000080: 6e94 6cbb 490a 223d cc37 a6bd 4b35 80bd
00000090: c92e 013c 3e61 55bd 5352 64bd 630b 8abd
000000a0: fcde 09bd bbd6 e43d 697a 82bd ecff eb3c
000000b0: d0eb f03d 97f5 b53d 74c3 54bc a771 17bd
000000c0: 7c23 da3d 4f64 ec3c dca1 e3bd 727a 9fbd
000000d0: 4db2 09bd 89ed fcbc 6979 34bd 987a d03c
000000e0: bebb 563d 7763 cebd 268d c2bd 77da 573d
000000f0: 9d9b 01be aff4 263d 6c1e a83c 000a 00be
00000100: 90c6 f8bc 6a96 863d b738 d4bc 8005 3bbd
00000110: 433c d6bd 2b4a c3bc 6981 1abe eade 6e3d
00000120: 3fca 0dbe 4a1a 4cbd 130a f83c 058a dfbc
00000130: ca79 493c d761 0cbc eb69 52bd 1ed9 85bd
00000140: 3e11 973d 7bcb e0bb 45b6 08bd 617b 4b3c
00000150: 1a67 ee3c 0d1e c33c d663 cebc 7d7e f5bc
00000160: 010a 55bd 4c8e eebd eaa1 0bbd c583 02be
00000170: 92aa 633d 6743 473d f590 0bbc e21a 14be
00000180: 00d8 57bc aba5 1abc 0628 593a ef40 d13d
00000190: ea3e 973d 11d5 743c f168 a53d 4467 20bd
000001a0: b257 813d 35e4 3fbc 175a a0bb 5637 7a3b
000001b0: ca4b 0abd ab9c c13d 2e69 923d 7a5e a7bd
000001c0: b8ad 02be af8c b83d 29cd c43c cfc2 a7bd
000001d0: 6864 1cbe de98 40bd 28b8 733c e505 af3d
000001e0: 8ec9 053d c2d2 28bc 076b a83d faba 923c
000001f0: 8c27 c63c 88c1 34bd 754a b13d 083f 653c
00000200: b3e9 a2ba 4c67 113d ec0f b2bd 105a b9bd
00000210: 2d18 f33d 8208 693d b9be 423d 1a0f a3bd
00000220: b911 c43d 1796 bd3b 7e65 863c 6786 b5bd
00000230: 8bd2 a7bc 8424 0d3d 70d2 71bd 9249 f43c
00000240: f1f4 d2bd 0327 8fbd 921e f4bd 1473 b03d
00000250: d985 213b 4c05 e93c 42d7 863d ef39 003e
00000260: 4307 c73d d7e0 763d 618f 07bc 5ec7 c13c
00000270: 8046 633d 70ba 883d 21bf c9bd 9937 e4bd
00000280: 7860 01be fec7 963d 9131 003e 89f2 b93d
00000290: 67c4 b83c 2fd2 763c 01c1 95bd ce92 0b3e
000002a0: c21b 9d3d 6fb1 e93b e915 00be 2ed9 d73d
000002b0: c405 8fbd fb51 24bd 8ba0 b03d 3441 a0bd
000002c0: 42f3 ba3d 1bb4 813d dcc8 9cbd 7fc8 c8bd
000002d0: 9766 4fbd 28a1 85bd 8fe8 10be 9e2a 093e
000002e0: 44ab 41bd 6b1b 33bd 0bc5 6d3d 3f13 07bd
000002f0: a5d9 e0bc b404 ddbd 64a8 9abc e53a a0bd

gkf.gat_rnn.gcn_nodes.bias f4 [64]
0.010445205 -0.00089595024 0.001985901 -0.008881796 0.0065209167 -0.008143964 0.009247177 0.013184843
-0.0174873 0.024316536 0.020981653 -0.0054889373 -0.019132316 -0.008252008 -0.024151312 -0.000107567226
-0.0071879653 0.003045889 -0.0035131646 -0.018965278 -0.0012448037 -0.0064848284 0.03518159 0.023239808
0.023978671 -0.019567546 -0.0007441765 0.0036223151 0.00090195565 0.017342791 -0.00070948055 0.013469702
0.007572712 -0.015851837 -0.012232881 0.0084253 0.021508262 -0.009011701 0.009452934 -0.004245327
0.020945406 -0.015662018 0.018142538 0.010647934 -0.017328452 0.00050310814 -0.0091837505 0.0017545049
-0.0030149745 -0.02808275 -0.0016637235 0.023277108 0.016424486 0.012625335 -0.0148554295 0.01852289
-0.0023977738 0.027177734 0.024170678 -0.011712242 0.020188846 0.009926626 0.00438557 0.013803443
00000000: 5d22 2b3c 34de 6aba e425 023b f484 11bc
00000010: 6aad d53b 436e 05bc 7981 173c 3d05 583c
00000020: 8741 8fbc 7933 c73c b7e1 ab3c 8bdc b3bb
00000030: 60bb 9cbc 6e33 07bc f9d8 c5bc b795 e1b8
00000040: 0689 ebbb 8a9d 473b 1f3d 66bb 125d 9bbc
00000050: ae28 a3ba af7e d4bb 921a 103d 6961 be3c
00000060: eb6e c43c 1e4c a0bc d714 43ba 5d64 6d3b
00000070: 3871 6c3a 7812 8e3c 6ffc 39ba 06b0 5c3c
00000080: 8324 f83b b6db 81bc 6c6c 48bc 450a 0a3c
00000090: 1832 b03c d0a5 13bc 7be0 1a3c 621c 8bbb
000000a0: b395 ab3c a24d 80bc a99f 943c ac74 2e3c
000000b0: 66f4 8dbc 04e3 033a 7177 16bc 6af7 e53a
000000c0: e196 45bb cc0d e6bc 4c11 daba a2af be3c
000000d0: a58c 863c 7eda 4e3c 3064 73bc 51bd 973c
000000e0: f823 1dbb d7a3 de3c 9601 c63c b4e4 3fbc
000000f0: 1463 a53c 4aa3 223c d4b4 8f3b d627 623c
