models/no_mismatch/kalman_process_50n_local_params_r4_linear.pth (torch, 269762 bytes, 28 tensors)

gkf.gat_rnn.fc_delta_y_innov.0.weight f4 [64, 3]
000000 e6 2b de 3e 93 44 02 3f 7d 22 06 be 0d f3 03 3f
       0.43392867 0.50885886 -0.13099094 0.5154274
000010 99 78 28 be 04 9a 21 3e a8 8b 93 be 46 b4 b8 3e
       -0.16452254 0.15781409 -0.28817487 0.36075038
000020 e7 ba 08 3f 48 c6 dd be 67 d9 08 3f 30 f7 1e 3e
       0.5341019 -0.4331534 0.5345673 0.15523982
000030 06 22 df 3e 8d 82 a7 3d 20 45 81 3e 2c 9d a1 bd
       0.43580645 0.081791975 0.2524805 -0.07891306
000040 d4 83 f8 3e b6 3c d6 3d dd 70 83 be 68 25 20 3e
       0.48538077 0.104607984 -0.25672045 0.1563927
000050 df 7b 83 be a4 40 08 bd 06 81 86 be 34 d8 d6 3e
       -0.25680444 -0.03326477 -0.26270312 0.41961825
000060 11 72 f0 be 62 1a 75 be 19 f1 28 be 07 a5 bb be
       -0.46962026 -0.23935845 -0.16498221 -0.36649343
000070 d4 29 d4 3d a8 75 11 bf bd 95 06 3f dc 81 f9 be
       0.103595406 -0.56820154 0.5257223 -0.48731887
000080 4f b2 fa 3e 76 44 92 3d c4 f4 63 be 5e 0e cb 3e
       0.48964164 0.07141964 -0.2226134 0.396594
000090 b9 3c a0 3d ed 37 f5 3e 89 76 c9 3c 22 cc 3e be
       0.07824082 0.4789423 0.024592655 -0.18632558
0000a0 1d ad 23 3e 25 aa 31 be b9 50 69 3e 64 14 07 3f
       0.15984006 -0.17350061 0.227847 0.5276549
0000b0 ec ee cc 3e b4 76 83 be a3 ba b1 3e 8e 2f 0e 3e
       0.40026033 -0.256765 0.34712705 0.13885328
0000c0 f9 b8 9f 3e 94 b7 9c be f2 f5 13 bf fb 2e 61 be
       0.3119581 -0.3060881 -0.5779716 -0.21990578
0000d0 dd a8 e5 be 44 b9 04 3f e8 43 28 3e 9f c9 83 3e
       -0.44855395 0.5184519 0.16432154 0.25739762
0000e0 8f 23 6b 3e cb 3b df bc 39 86 ef 3e 5a 83 ba be
       0.22962783 -0.027250191 0.4678209 -0.36428338
0000f0 ac c1 9e 3d e6 10 c4 be f7 d5 34 3e 8f 42 4f be
       0.07751784 -0.38294142 0.17659746 -0.20240234
000100 90 db 47 3e ea 5a 0b be 53 bd f7 3e de ca a1 be
       0.1951735 -0.136089 0.4838663 -0.31600088
000110 8c 8f b4 be f6 29 a8 be 59 6b 07 3f 8f c1 87 3e
       -0.35265768 -0.32844514 0.52898175 0.2651486
000120 b5 2f 0f 3f 3e 58 e6 be 0b 8c 08 bf e2 b8 ed be
       0.5593217 -0.44989198 -0.5333869 -0.46430117
000130 5b 43 c4 be 4f 9f a6 3e d7 d3 4f 3e 52 5f ff 3e
       -0.38332638 0.32543418 0.20295654 0.4987741
000140 2c a8 7c be 75 fe cb be 09 d6 a3 3e 2a 93 54 be
       -0.24673527 -0.39842573 0.31999233 -0.20759264
000150 b4 f6 b4 3e 6f 76 fc bd 34 4a cf 3e 47 64 e8 be
       0.3534447 -0.12327277 0.404863 -0.45389006
000160 7c 7e 89 be 9b 2e 55 3e 5f 22 f7 3d dd ec 2a be
       -0.26854312 0.2081856 0.12067103 -0.16691919
000170 bd b5 bd 3e 2e 90 cb 3e bb 29 cd be d5 0d 85 be
       0.37052718 0.39758438 -0.400709 -0.25987116
000180 e7 13 0a 3f 9f 97 28 be a7 de 53 be 2e ef 0e bf
       0.5393662 -0.16464089 -0.20690404 -0.5583371
000190 8d 06 9a be 8f 67 38 3e 98 07 8f bd 84 b7 d5 be
       -0.30083123 0.18008254 -0.0698387 -0.41741574
0001a0 a7 8d 71 3d d6 0a cf be 9d f7 ed be 7e 45 85 be
       0.05897298 -0.40437955 -0.46477976 -0.2602958
0001b0 ec 77 02 bf 52 d7 bb be f2 50 05 3f c7 fa 0b 3e
       -0.50964236 -0.36687714 0.5207664 0.13669883
0001c0 2b 8f 51 3e 38 70 0b bf be b6 c2 be c1 66 29 be
       0.2046477 -0.5446811 -0.38030046 -0.16543104
0001d0 12 04 af 3d 82 ea 04 bf 57 77 59 be 9d 01 99 be
       0.08545698 -0.5192033 -0.21236931 -0.29884043
0001e0 05 33 af bc 5b ed 7e be 86 c0 a5 3c 23 f2 cd be
       -0.021386633 -0.24895231 0.020233404 -0.40223798
0001f0 74 27 c4 be 07 90 90 be 52 4b 2d be ec 59 fd be
       -0.3831135 -0.28234884 -0.16923264 -0.49482667
000200 fb b1 07 3f 43 4c b3 bd db 8c f9 3e 17 bd 67 3e
       0.5300595 -0.0875478 0.48740277 0.22630726
000210 67 6e f8 be ed 0e da 3e 1c 64 20 be ca 02 79 be
       -0.4852173 0.42589512 -0.15663189 -0.2431747
000220 2f 58 eb be fe c8 11 bf d6 83 3f 3e de 71 b5 bd
       -0.45965716 -0.56947315 0.18702635 -0.08859609
000230 4d 83 59 3e d8 19 ff be 05 35 fc 3e 11 93 d3 be
       0.21241494 -0.49824405 0.492592 -0.4132314
000240 6d fb d7 bd 31 3d e8 3d bc 2d ac 3e 5c 31 ee 3e
       -0.105460025 0.11339796 0.33628643 0.46522033
000250 5e c1 0c 3f 26 5e d8 be f0 81 17 3e 22 dd 76 be
       0.54982555 -0.4225933 0.14795661 -0.24107793
000260 f2 64 96 bd 10 bd e3 be 22 95 0f 3f 39 8e e1 be
       -0.073434725 -0.4448018 0.56086934 -0.4405382
000270 9b f3 a4 3e 11 1c 77 3e 5d 64 75 3e 81 54 9a be
       0.32217106 0.241318 0.23964067 -0.30142596
000280 8a 29 11 3f d4 56 ea 3d 78 1d cf 3d c8 98 05 bf
       0.5670401 0.114423424 0.101130426 -0.5218625
000290 45 d8 9e 3e 26 b1 96 bd 31 0d 89 be f8 73 08 3f
       0.31024376 -0.07358007 -0.26767877 0.53301954
0002a0 65 a9 1b 3e 57 46 99 be 17 0d 7d be ae 34 c2 bc
       0.15201338 -0.29936478 -0.24712025 -0.02370676
0002b0 57 3c a8 3e 3a 11 b3 bd f7 0c b4 be b3 50 18 be
       0.32858536 -0.0874352 -0.3516614 -0.14874534
0002c0 17 ba dd be 17 a7 6e 3e 57 ea f6 3e 94 39 1a bf
       -0.43306038 0.23305927 0.48225662 -0.6024411
0002d0 97 cd 0c 3e eb 02 aa 3e c7 8e 0e 3e df 5f 57 be
       0.13750301 0.3320535 0.13921653 -0.21032666
0002e0 d6 d5 a7 3e 4f 9f b6 3e 43 59 6f 3e e7 4f 5e bd
       0.3278033 0.35668418 0.23373894 -0.05427542
0002f0 16 2f 17 be 78 ec bc 3d 36 02 8d bd bc 8a 18 be
       -0.14764056 0.0922479 -0.06885187 -0.14896673

gkf.gat_rnn.fc_delta_y_innov.0.bias f4 [64]
000000 eb 11 c7 3e 88 40 fc 3e ce a1 ac bc 48 55 b7 bd
       0.38880858 0.49267983 -0.021073248 -0.08951813
000010 01 01 79 ba 35 40 b5 bb bc 99 14 3e c8 ea 40 3e
       -0.0009498746 -0.0055313357 0.1451177 0.18839562
000020 9c f4 00 bf 6f 1e 34 be 99 d3 03 3f a2 22 79 3e
       -0.50373244 -0.17589734 0.5149475 0.24329618
000030 de f6 ba bc 41 46 b1 be 31 da a0 be c1 7e fc be
       -0.022822794 -0.34623912 -0.31416467 -0.49315456
000040 cb b2 1b be f5 87 69 3e 88 8d cb 3e b6 75 92 3e
       -0.15204923 0.2280577 0.39756417 0.2860543
000050 68 fe 00 bf 2d 9f a8 be b7 4c a3 bd 54 92 18 3f
       -0.50388193 -0.3293394 -0.079736166 0.5959828
000060 6a 05 f2 3d d1 2c ca bd 43 5e 8a 3e 72 ab 4a be
       0.11817439 -0.09871829 0.2702504 -0.19791964
000070 36 8f aa be 28 0d e8 3e eb ad 80 be 05 89 ae bd
       -0.33312386 0.45322537 -0.2513269 -0.08522228
000080 11 22 0c bf d6 00 d7 3e 4c 6e f0 3e 9b 32 84 3e
       -0.5473948 0.41992825 0.4695915 0.2581986
000090 2e 11 dd be 50 13 0a bf 2f 0a f0 be 09 80 f1 3e
       -0.4317717 -0.5393572 -0.4688277 0.47167996
0000a0 fe a2 96 3e d8 12 06 3f 46 56 a9 3e 6c 35 2c 3e
       0.29421228 0.52372503 0.33073634 0.16817254
0000b0 e8 64 86 3c 5d 21 d5 be c4 0f f4 be 99 0d fb be
       0.016405538 -0.41627017 -0.47668278 -0.49033812
0000c0 2e de 81 3e ec 0c 83 be 75 91 ef bd c8 f9 9f be
       0.25364822 -0.25595796 -0.116976656 -0.31245255
0000d0 7b 4e 66 bd ab 28 c7 be 4c 7b 9b be 0b 1a 65 3e
       -0.05622719 -0.38898215 -0.30367506 0.22373216
0000e0 cb fa 0d be f1 52 c9 3e 02 26 1b be 2c 0c cd be
       -0.13865201 0.39321092 -0.15151218 -0.4004835
0000f0 b2 e4 88 bd 62 25 79 be f8 5d 0e be 19 05 04 bf
       -0.06684245 -0.24330667 -0.13903034 -0.5157028

gkf.gat_rnn.fc_delta_y_innov.2.weight f4 [64, 64]
000000 c6 5b 8f 3d a0 d4 b5 bd 49 3d e1 3d 96 c9 a6 3d
       0.06999926 -0.088784456 0.10998017 0.08143918
000010 55 06 aa 3d d8 c5 6d bd 85 49 e9 3d cc 77 42 3c
       0.08301989 -0.058050007 0.11390976 0.011869382
000020 3e e6 28 3c 40 94 ab 3d 88 57 90 bc bc 8f d5 3c
       0.0103088 0.08377886 -0.017619863 0.026069514
000030 9a 06 ac bc f5 4e 1d be 90 ea 5f 3d a8 71 1e be
       -0.020999242 -0.15362151 0.054667056 -0.15473044
000040 e0 9c 5b 3d b1 a4 1d 3e 6e 8e 07 3e c4 93 30 bc
       0.053616405 0.15394856 0.13237926 -0.010777418
000050 25 2f 28 be 03 f7 84 bc 8b f0 5c 3d 58 13 a0 bd
       -0.16424234 -0.016231066 0.053940337 -0.078161895
000060 93 da 2e bd f2 e6 8a bd be 24 fa bb 89 b3 6b bd
       -0.042688917 -0.067823306 -0.0076337745 -0.057544265
000070 43 5f 80 bd 88 be 5b 3b 38 c1 fe bd 11 bb b0 3d
       -0.0626817 0.0033530314 -0.12439197 0.0862943
000080 27 61 b0 3d fe 50 95 3c f3 b1 5e 3d 3c 45 7b bd
       0.0861228 0.018227097 0.054368924 -0.061345324
000090 8d 2b d9 bd bf ba 29 be b6 56 94 3c e3 cf 36 bd
       -0.1060401 -0.16575144 0.018107753 -0.04463185
0000a0 7c 59 c7 bc df 05 9f 3c 70 a2 ce 3c 4e 25 9c 3b
       -0.024334662 0.01941198 0.02522394 0.0047651893
0000b0 9c 3b b9 3c 15 66 a3 bd 89 3e 83 bd 32 60 b1 bd
       0.022611432 -0.07978455 -0.06408412 -0.08660926
0000c0 18 f1 35 bd 9e 0b be 3d 2c 78 8e bd cf c5 0e 3d
       -0.044419378 0.092795596 -0.06956515 0.034856614
0000d0 26 1d 49 bd 09 6f a3 3c ea 7e fd 3d c4 5c 02 3e
       -0.049100064 0.019950407 0.123777226 0.127307
0000e0 3c 21 0d be 65 e1 a6 3d 49 ba a3 3d f8 af 45 3c
       -0.13782209 0.08148459 0.079945154 0.01206588
0000f0 2a e5 a8 3d d9 6d 18 3e 9f d4 18 bd c0 c7 fc bc
       0.082468346 0.14885654 -0.037312146 -0.030856967
000100 fd 2d a4 bd d3 c2 5e bc ef 4f d1 3d 58 94 68 3d
       -0.08016584 -0.013596254 0.10220324 0.056782097
000110 6d 19 98 bd ad e2 c3 bd 36 c0 bf bd ec 61 87 bd
       -0.074267246 -0.09564719 -0.09362833 -0.06610474
000120 b2 62 dd bd d3 ae 3a bd bf 6c d2 3d e5 ea 8a 3d
       -0.1080984 -0.04557688 0.10274648 0.06783084
000130 ff ff bb bd cd e6 ec bd a4 a1 83 3d e7 bb d7 bd
       -0.09179687 -0.11567459 0.06427315 -0.105338864
000140 f3 c2 cf bc d1 44 b9 3d f8 5d 0b bd cb 0a 8f bc
       -0.025361514 0.09046329 -0.034025162 -0.017461201
000150 48 60 c9 bc a3 a3 33 bd 63 21 89 bd 07 e4 ca bd
       -0.024582043 -0.043857228 -0.06695821 -0.09906774
000160 09 20 d7 bd a6 92 90 bd d5 56 fc 3d 42 a0 94 bd
       -0.10504157 -0.07059221 0.123212494 -0.07257129
000170 33 df a7 bd f8 2e 18 3d f5 03 6b 3d 5b 3c 85 3d
       -0.08196869 0.037154168 0.05737682 0.065056525
000180 fa 45 b8 3d b1 88 93 3d ac 9d a6 bd a0 4d ba 3a
       0.08997722 0.07203806 -0.08135542 0.0014213808
000190 32 a7 92 3d 5f 48 33 bd 42 30 ac bd 23 28 e7 3d
       0.07160796 -0.04377019 -0.08407642 0.11286952
0001a0 52 fd b3 3b 07 0f 99 bd db 26 95 bd 7a 09 a7 3c
       0.0054928446 -0.07473569 -0.07282802 0.020390261
0001b0 16 8a 3c 3d 1f b5 34 3c d8 25 c8 3c 88 e0 df bd
       0.046030127 0.011029511 0.024432108 -0.10931498
0001c0 fa df b0 bd c6 4d 57 bb 32 92 e5 3d 3a 18 73 3d
       -0.0863647 -0.0032852753 0.11209525 0.059349276
0001d0 41 1c 8d bd 93 52 df bc 90 71 74 bd 7c 28 19 bc
       -0.06890155 -0.027261054 -0.059678614 -0.009348031
0001e0 68 fb 5b 3c b1 71 a5 3d e8 79 b9 3d 36 37 06 be
       0.013426639 0.080783255 0.09056455 -0.13106999
0001f0 f3 b0 b4 3d a8 45 bf bd af 0a 25 3d da c4 9d 3d
       0.08822813 -0.09339458 0.04029339 0.07703562
000200 47 fa 02 bd 86 ee cf 3d ba 3b 6e bd 07 6c 14 bd
       -0.031976964 0.101529166 -0.05816243 -0.036235835
000210 86 09 63 3d 79 a9 a4 bc 51 7b bf bc 57 76 93 3b
       0.055429004 -0.020100342 -0.023374232 0.004500191
000220 ac b6 a9 3d c2 38 2b 3d ae 08 2f 3d d5 0c 1c bd
       0.08286795 0.041802175 0.042732887 -0.038098175
000230 4c 13 1b be 3a 2b 2d bc 11 40 f6 3b 48 0a 8b bd
       -0.1514408 -0.010569388 0.0075149615 -0.0678907
000240 50 93 6c bd ba 53 15 3e 62 c2 03 39 ea 99 3a bd
       -0.057757676 0.1458272 0.00012565547 -0.04555694
000250 ce c1 8e 3b c2 b7 08 be aa 61 0d be 11 08 b8 bc
       0.0043565994 -0.13351348 -0.13806787 -0.022464784
000260 1c ac b2 bd 83 0c 93 3d 10 bd ad bd a3 d0 6c bd
       -0.087242335 0.07180121 -0.084833264 -0.05781616
000270 ac 0e e3 3d 32 c4 ba 3d 1d cc ea 3d b9 77 9e bd
       0.11086783 0.091194525 0.11464713 -0.07737679
000280 9c 8e 8c bd 08 df b6 3d 33 f7 ae bc 1e f6 92 bd
       -0.06863138 0.089292586 -0.021358108 -0.071758494
000290 0f 7c cd 3c 98 db ab bd f9 2b b7 bd bd ef c6 3d
       0.02508357 -0.083914936 -0.08943934 0.09713695
0002a0 40 2c 1b 3e cd 5f 59 3d 6a bf 24 3d b9 c6 b8 bd
       0.15153599 0.05306988 0.04022161 -0.09022278
0002b0 1e 21 39 bd ee 38 9e 3c 0d 0c 86 3d 7a 47 0a bd
       -0.0451976 0.019314256 0.06545267 -0.03375957
0002c0 0b d1 2b 3b 95 7c f6 3c 98 36 cf bd 0a 49 7b 3d
       0.0026217129 0.030088702 -0.10117835 0.061348952
0002d0 d0 1b 91 bd f2 4a 2c bb 3b 75 89 3c 2d 7b 98 3d
       -0.07085383 -0.0026289788 0.016779533 0.07445369
0002e0 7c 2b 36 bd 80 9a 92 3d 77 29 79 bc a7 ba 42 3d
       -0.044475064 0.07158375 -0.01520764 0.047541287
0002f0 bd 10 af 3d 2f 60 02 bd d2 3f eb bd bf c2 c0 3d
       0.085481144 -0.03183001 -0.11486782 0.09412145
000300 56 3d d1 3d 16 e9 b7 bd c9 ca 50 b9 f5 12 05 be
       0.10216777 -0.089800045 -0.00019911969 -0.12995513
000310 60 25 cc bd f2 d0 fc 3c 4b bd e4 3c 8f 97 80 3d
       -0.09968066 0.030861352 0.027922293 0.062789075
000320 b9 b3 6c bd 0e fa c3 3d df 2f d3 3c e3 c6 51 bd
       -0.057788584 0.095691785 0.025779663 -0.051215064
000330 cf 99 4c bb 51 8d c3 3b e7 cc 39 3d b6 a2 dc bd
       -0.0031219607 0.005967774 0.045361426 -0.10773222
000340 f1 14 36 3d 28 55 42 bd 3e ea bc bd 68 59 87 bd
       0.044453565 -0.047444493 -0.09224366 -0.0660885
000350 53 e1 9e 3d 76 a8 ac 3d 92 38 e5 3d 63 b2 b0 3d
       0.07757821 0.08430569 0.111924306 0.086277746
000360 d8 c0 c0 3d 7a 9f 1e bd 84 7b 86 bd 15 df 55 3d
       0.09411782 -0.038726307 -0.065665275 0.0522147
000370 09 2f 83 bd 9d 4f a2 bd 1d 31 05 bd 1d e6 d3 3c
       -0.064054556 -0.07925341 -0.03251754 0.025866563
000380 62 3f 83 3d 4b 44 47 bd 5c de 35 bd cc 7d fc bb
       0.06408574 -0.048649114 -0.04440151 -0.007705426
000390 e6 53 ca bd ea 57 c5 bd 85 31 25 3d 3e 27 ed bc
       -0.098792836 -0.09635909 0.04033043 -0.028949376
0003a0 8d b1 12 3e 3d 3f ed 3d d1 ab 81 3d fa de 66 3d
       0.14325543 0.11584327 0.063315995 0.05636499
0003b0 32 20 ad 3c 9e 63 af bc d2 74 1e bc cf 67 85 bc
       0.021133516 -0.021409806 -0.009671407 -0.016284851
0003c0 80 ed 8e 3d 33 cd ed 3d 91 69 0a bd 58 d8 7b bd
       0.06978893 0.11611404 -0.033792082 -0.06148562
0003d0 9e 6c e4 bc 4b 58 8d bd 27 8d 11 3d 1e ed 01 3e
       -0.027883824 -0.06901606 0.035535004 0.1268811
0003e0 90 dc c3 3d 35 de 8c 3d bf 53 ea bd 2b ca 94 bd
       0.09563553 0.0687832 -0.114417545 -0.07265123
0003f0 71 6c c8 bc ab 4f fd bc 7e f3 0a 3c 80 a0 01 be
       -0.024465771 -0.030921778 0.008480905 -0.12658882

gkf.gat_rnn.fc_delta_y_innov.2.bias f4 [64]
000000 16 61 16 3d 5c 01 b5 3d e0 d4 0d 3d 08 60 93 bd
       0.036713682 0.0883815 0.03462684 -0.07196051
000010 fd 40 74 3d 62 60 e7 3d 30 fe ea bc fd 7e 49 bd
       0.05963229 0.112976804 -0.02868566 -0.04919337
000020 2d df d8 bd d4 18 f1 bc 21 71 45 bd f2 a1 bc 3c
       -0.105894424 -0.029430784 -0.04820359 0.02302644
000030 23 82 c8 3c 15 17 94 bc 86 21 be 3d 5e 4b b5 3c
       0.024476117 -0.018077413 0.09283738 0.022130664
000040 37 ae 2e bd 21 6c ca bc 50 43 39 bd c8 26 a7 bc
       -0.042646613 -0.024709763 -0.04523021 -0.020404235
000050 33 78 d0 bd eb de 35 3d 98 9f 9d bd f0 0e 9e 3d
       -0.10179176 0.044402044 -0.07696456 0.07717693
000060 1d 29 da 3d 9e 05 da bd 78 2e 22 38 06 c2 05 be
       0.10652373 -0.10645603 3.8667087e-05 -0.13062295
000070 a9 40 16 3d f7 e3 26 3c dc 44 fd bc b5 35 dd 3d
       0.03668276 0.010186187 -0.030916624 0.108012594
000080 1b 22 00 3d 32 fc 0f be 1c 5f 25 3c fe 4c 08 bd
       0.031282526 -0.14061049 0.010093477 -0.03327655
000090 48 f4 1f ba 33 2b 6a 3d c6 23 9a 3b fd c4 cc bd
       -0.00061017694 0.057170104 0.0047039716 -0.0999851
0000a0 c7 73 00 3e 30 98 ba bd cd 90 f8 bc 4a af 8a 3d
       0.12544166 -0.09111059 -0.030342484 0.06771715
0000b0 70 e3 fd 3d 0c 25 17 3e 21 31 26 bc f8 f0 b0 3d
       0.12396896 0.14760226 -0.010143549 0.08639711
0000c0 3b 94 a8 bd c9 a1 9d bb da 33 ae bc 40 78 6d 3d
       -0.08231398 -0.004810546 -0.02126496 0.057976007
0000d0 55 9c 23 bd 20 71 e4 3c 2d a8 3c 3d 92 09 f3 3d
       -0.03994401 0.027885973 0.046058822 0.1186706
0000e0 9f 9e 80 bc af e1 08 3e 71 40 df bd 2f e5 c9 bc
       -0.015700636 0.13367341 -0.10900963 -0.024645416
0000f0 c4 26 33 3d be 68 62 3d be f6 99 3d f6 db 47 bd
       0.04373814 0.05527567 0.075177655 -0.048793755

gkf.gat_rnn.fc_r.0.weight f4 [64, 1]
000000 dd 5e 2a 3f 44 bd 76 bf 71 e1 29 bf 0b 14 7f bc
       0.66551 -0.96382546 -0.6635962 -0.015568743
000010 07 81 7e bf aa bb 7b bf b1 12 61 bf 99 0e 5a 3f
       -0.9941563 -0.9833323 -0.87919146 0.85178524
000020 2f a1 80 3e 2b ca 8e be 2b c6 8f bd 31 0b 5f bf
       0.25122973 -0.27888617 -0.070202194 -0.8712645
000030 98 5a 79 bf 47 12 38 bf af 67 7b bf c7 78 35 3f
       -0.9740386 -0.7190289 -0.98205084 0.70887417
000040 12 37 c2 be 81 e6 89 be 94 78 65 bf 7b 19 44 3e
       -0.3793264 -0.26933673 -0.8963711 0.19150345
000050 01 da 24 be d3 33 35 bf 5f 53 32 3f 44 b9 65 3f
       -0.16098787 -0.707822 0.69658464 0.8973582
000060 07 cb 3d bf 5e c1 20 3f 39 3c 2f be 12 1f 20 3d
       -0.7413792 0.62795055 -0.17112817 0.03909213
000070 6a 75 dc 3e 45 ec 10 be 82 82 66 3f 2c a4 2a 3f
       0.4305833 -0.1415263 0.9004289 0.66656756
000080 6b 3e 2f bf 9b 4e 1d bf 27 a4 82 bf ba 7e 9a 3e
       -0.6845462 -0.6144807 -1.0206345 0.3017481
000090 dd 05 41 bf 9e c9 5c bf fb 88 23 bf da 3d 7e bf
       -0.7539957 -0.86245143 -0.6388089 -0.9931313
0000a0 21 7e 56 bf b5 9f 6f 3f 7c 45 1a 3f 8e e7 6f 3f
       -0.8378621 0.9360307 0.60262275 0.937127
0000b0 1e ce 04 bf 26 22 dc be e2 8e c3 be 73 b4 97 3d
       -0.5187701 -0.42994803 -0.38194948 0.07407465
0000c0 06 09 3f bf 80 0b 41 3e 2d cf 24 bf 87 40 5e 3e
       -0.74623144 0.18852043 -0.64378625 0.21704303
0000d0 ba 68 77 3f 90 29 5f 3e e1 9a 49 3f aa 54 39 bf
       0.96644175 0.21793199 0.7875195 -0.7239481
0000e0 78 66 cd bd a3 97 22 bf 89 c9 00 be 50 1a c9 be
       -0.1002931 -0.6351263 -0.1257688 -0.39277887
0000f0 b0 42 16 bf 5f 28 7a bf af cd b8 be bd 6c 3d 3e
       -0.5869551 -0.9771785 -0.36094424 0.18498512

gkf.gat_rnn.fc_r.0.bias f4 [64]
000000 18 1a dc bd c7 4a 64 bf 95 39 56 3f 1f 19 51 3f
       -0.107471645 -0.891766 0.83681613 0.81678957
000010 2b 86 11 bf 85 4d 25 3e 41 63 3a 3f c1 27 64 bf
       -0.5684535 0.16142853 0.728077 -0.8912316
000020 a2 ee 58 bf 0b 05 22 3f c1 f5 70 3d e5 1e c0 3e
       -0.84739125 0.63288945 0.05882812 0.3752357
000030 67 f5 bb be a6 6e 75 3e f8 61 3a 3f 53 d4 32 be
       -0.36710665 0.2396799 0.7280574 -0.17463808
000040 80 76 92 be 36 1f 79 bf 5d 06 d5 bd d4 3d 34 3f
       -0.28606033 -0.9731325 -0.10401604 0.7040684
000050 20 da 7d bf 12 78 0b bd d6 20 4e 3f 75 38 5b be
       -0.9916096 -0.034050055 0.80518854 -0.21408255
000060 ae c3 a6 be cf 54 64 be e5 b9 d4 be ab d9 48 3e
       -0.32571167 -0.22297977 -0.41548076 0.19614284
000070 42 59 74 bf 83 5d d1 3e b6 50 3d be ba 08 6d bd
       -0.95448697 0.40891656 -0.1848782 -0.05786965
000080 38 96 50 bc 2b aa 21 3f c1 de 14 bf ea 48 6d bf
       -0.012731127 0.6315028 -0.58152395 -0.92689383
000090 3d 21 38 bf fd 8c 33 bf d6 e7 f7 be b2 09 5b 3f
       -0.7192572 -0.70137006 -0.48419064 0.8556167
0000a0 e5 eb 3c bf 4e 4c 06 bf b7 06 42 bf cc 96 dd be
       -0.73797446 -0.5246018 -0.75791496 -0.4327911
0000b0 0a 4c cf 3c 62 22 15 bf cf 62 91 3d a6 d6 d1 3e
       0.025304813 -0.5825559 0.07098924 0.40984076
0000c0 b0 a5 01 be 78 84 00 3f 6e 28 7c 3e 20 5d 85 3f
       -0.12660861 0.5020213 0.24624798 1.0419044
0000d0 f2 45 a6 3c 1f 63 73 3f 6f 71 53 3f 75 19 0c 3f
       0.020297024 0.9507312 0.8259496 0.54726344
0000e0 c7 0e 23 3f a4 23 25 bf 75 fa 2d bf 1f 9a 02 3f
       0.63694423 -0.6450751 -0.6796029 0.5101642
0000f0 26 99 dc 3e e6 e9 77 3f e9 15 03 be 9f ce ef bd
       0.43085593 0.96841276 -0.12801327 -0.11709332

gkf.gat_rnn.fc_r.2.weight f4 [64, 64]
000000 93 0f 51 3d 39 b5 02 3b 33 4d bf 3d 3c 50 c9 bd
       0.051040243 0.0019944443 0.093408965 -0.098297566
000010 95 9a 3d bd 0c c2 09 bc 78 50 3b 3d 45 fd 0d be
       -0.04629 -0.008408081 0.045731038 -0.13866146
000020 16 53 22 bd c6 d7 81 3d 9e 5a 4a 3c a6 b3 92 3d
       -0.03963002 0.06339984 0.012350706 0.071631715
000030 59 76 4b bd ee 2b c1 bd a8 31 d8 bd 8c 29 d6 bd
       -0.049673412 -0.09432207 -0.10556346 -0.10457143
000040 88 39 c7 bd b2 85 88 3d 34 c5 bd 3c 44 cd f8 bd
       -0.0972777 0.06666125 0.023165323 -0.12148526
000050 50 c0 f5 3d 55 1a c9 3c 54 82 db 3b 55 77 b2 bd
       0.11999571 0.024548689 0.006698886 -0.08714167
000060 2c ed a3 3d f3 98 f9 bd 06 d8 bd 3d 7d 36 d2 bd
       0.08004221 -0.12187376 0.09269719 -0.10264299
000070 c0 88 15 3d 1d 7d 95 bd 81 d2 3e 3d 6a 40 0f be
       0.036507368 -0.07299254 0.04658747 -0.13989416
000080 f7 49 12 bd 09 8e 65 bd 95 d9 a3 bd df ad 90 bd
       -0.03571507 -0.05604366 -0.08000485 -0.07064413
000090 b4 42 17 bd 2d 3a 22 3c c0 8c ae 3d 39 8e 2b bd
       -0.036928847 0.0099015655 0.0852294 -0.04188368
0000a0 cc ea f5 3d 44 bf bc bd e6 55 ba bd fe bd 22 bd
       0.120076746 -0.092161685 -0.09098415 -0.039731972
0000b0 ee 23 0d bd 98 49 24 3d 59 ff d1 3d b7 4e 18 3b
       -0.034458093 0.040109247 0.10253782 0.0023240277
0000c0 9e f3 e9 bd cb 4e ab bd cc 04 27 bd f5 e0 20 be
       -0.114234194 -0.08364638 -0.04077606 -0.15710814
0000d0 aa cf 3b 3b 72 e8 87 3d 1d 88 b7 3c 56 d8 b8 bc
       0.0028657713 0.06636132 0.022403771 -0.022564095
0000e0 e0 fc 26 bd e6 f4 75 bd 18 d0 27 bc 38 49 b0 3d
       -0.040768504 -0.060048006 -0.0102424845 0.08607715
0000f0 9f e6 ab bd 18 cd 21 bb 0d 10 ca bd ef 42 83 bd
       -0.08393597 -0.0024688896 -0.09866343 -0.06409251
000100 df 8b 45 3d fd 9f 92 bd ff 72 9d 3d ff 88 53 bd
       0.048229095 -0.071594216 0.076879494 -0.05164432
000110 24 02 d0 bc 60 39 f3 3d 4d e2 1f 3e b9 6e ba 3c
       -0.025391646 0.11876178 0.1561367 0.022757875
000120 b6 9f 96 bd 14 5f 5d bd 83 fd 04 3c 05 75 f1 bc
       -0.07354681 -0.05404575 0.0081170825 -0.029474745
000130 a7 9b 01 3e 20 0b 64 bd 3e fc e7 3d 43 f1 82 3d
       0.12657033 -0.055674672 0.11327408 0.06393673
000140 cf 58 61 bc b7 42 cb 3d 48 9b ca 3d c3 82 49 3d
       -0.013754084 0.09924834 0.09892899 0.04919697
000150 12 be fc bd 63 88 e2 bb 9a 9c b7 3d 93 1e 18 3e
       -0.123409405 -0.006913231 0.08965416 0.14855413
000160 fa c4 7d bc a6 3e 52 bc 87 d5 e9 bd 42 22 0a 3e
       -0.015488857 -0.012832319 -0.1141768 0.13489631
000170 9c e1 15 3e d1 08 0b 3e e0 60 ee bc ae 73 06 3e
       0.14636844 0.13577582 -0.029098928 0.13130066
000180 b7 b7 fd bb 28 c4 d9 3d 23 43 ca 3d cd 24 a9 bd
       -0.007742848 0.10633117 0.098760866 -0.08258972
000190 0d e5 5a 3d 91 22 97 3d 14 ca 50 bd b6 a4 1e 3e
       0.053441096 0.0737964 -0.050973967 0.1549252
0001a0 68 77 f7 3d 42 e1 10 3e 2b 81 f2 3c 94 dd ec bc
       0.12083322 0.14148429 0.029602608 -0.02891425
0001b0 db 1f 1a bd bd b7 80 3d be ac e6 3b d2 ad 1e 3e
       -0.037628036 0.06285045 0.0070396354 0.15495995
0001c0 25 cd 08 3e ef 22 81 3d 74 57 8c bd 7c e4 d4 3d
       0.13359506 0.06305491 -0.06852618 0.103951424
0001d0 5a 42 1e 3e 53 7e b9 3c 94 3f 86 bc ec fe 11 3c
       0.15454999 0.022643244 -0.016387738 0.008910876
0001e0 71 28 94 3d c6 79 90 bd e0 43 0c 3d dd c5 c5 3d
       0.07234276 -0.070544764 0.03424442 0.0965688
0001f0 69 c4 21 bc 51 1d b6 bb 22 11 04 bd 1e b0 09 3e
       -0.009873488 -0.005557694 -0.0322429 0.1344609
000200 d1 93 cc 3d 0b 76 ea 3c fb 1f 02 3c 24 59 71 3d
       0.09989131 0.02862074 0.007942195 0.0589229
000210 d3 5e ec 3d 3e 26 26 3d d4 e1 5a bd 34 f7 84 3d
       0.11541524 0.040563814 -0.053438023 0.06492463
000220 30 7c 36 bd b0 98 7f 3c ad fd 91 bd aa 32 74 39
       -0.04455203 0.015600368 -0.07128463 0.00023288527
000230 71 89 2f 3b 04 8b 95 bd 73 96 b4 3d 16 b3 0f 3e
       0.0026784802 -0.07301906 0.088177584 0.1403316
000240 78 f4 e2 bd 02 b4 d1 3c 33 1b b4 bd 8b 33 0b 3c
       -0.11081785 0.02559853 -0.0879425 0.0084961755
000250 04 1f 3b 3d ab d7 57 bb 12 86 92 3d d0 0a 7f bc
       0.045683876 -0.0032934945 0.07154478 -0.015566543
000260 5d 5e eb 3d a1 76 0e bd b8 17 54 3c ae 06 3e 3d
       0.11492608 -0.034781102 0.012945108 0.04639309
000270 e6 f0 bf 3d 84 f3 0a 3d d7 f6 cd 3d 51 9a 70 3d
       0.093721196 0.03392364 0.100568466 0.058740918
000280 dc b1 a1 3d 1d 21 51 3c 7e 31 15 3d fa 6e 03 3e
       0.07895252 0.0127642425 0.036424153 0.12835303
000290 6c 32 44 bd fb b5 6a bd bc c1 ac 3d 13 01 6a 3d
       -0.04789965 -0.057302456 0.084353894 0.05712993
0002a0 df 56 ff bd c5 cd 86 3d ae 4a dc bd 82 11 3a bd
       -0.12467741 0.06582216 -0.107564315 -0.045426853
0002b0 d3 d3 47 3d c5 db 6a 3d f5 dd dd bc d7 ff 0c 3e
       0.048785996 0.057338495 -0.027083376 0.1376947
0002c0 38 35 fa 3d b1 61 07 3e ee cc e4 bd e8 9c 57 bc
       0.12217182 0.1322086 -0.111719 -0.013159968
0002d0 64 7a 0f 3d b2 b0 09 3e 39 54 4b 3c 35 9c 0b 3d
       0.03502883 0.1344631 0.012410217 0.034084518
0002e0 fc 58 bb 3d 32 ab 94 bd 66 7f b4 bd 90 a9 0c 3e
       0.09147832 -0.072592154 -0.08813362 0.13736558
0002f0 5a 14 a0 3b 52 79 cb 3d ee db 00 be 91 9d d0 bc
       0.0048852386 0.099352494 -0.12583897 -0.025465759
000300 62 4e 67 3d 7d d7 e1 bc 88 da c5 3b b0 bd 1d be
       0.056471236 -0.027568573 0.006038014 -0.15404391
000310 a3 38 d3 3d 76 bb b3 bd a5 7d 1e bd 45 5c d1 bd
       0.10313537 -0.0877599 -0.038694043 -0.10222677
000320 e6 38 6f bd 9c 06 18 be ce 96 0d be 9a 19 5b bd
       -0.058403872 -0.14846271 -0.13827059 -0.053491212
000330 11 47 9a bd ea c2 85 3d 19 e7 03 bd 8f 20 89 3d
       -0.07533086 0.065313175 -0.032202814 0.06695663
000340 6e 68 1a bd f1 ba d2 3c 05 72 c7 3d f6 41 13 be
       -0.03769725 0.025723906 0.097385444 -0.14380631
000350 e1 68 0c bd bf 68 ab 3d 7d 4f 90 bd 37 44 83 bd
       -0.034279708 0.08369588 -0.07046411 -0.06409495
000360 d9 13 1c bc fd af c4 bd 2d c5 33 3b 73 00 d2 bd
       -0.009526216 -0.096038796 0.0027430758 -0.10253992
000370 aa fb f1 3c 34 46 8c bd e1 ef 94 bd 8b 32 a2 bd
       0.029538948 -0.06849328 -0.07272316 -0.079197966
000380 0f 83 13 3c 03 c2 e9 3c 6c f3 07 be a1 d1 bc bd
       0.009003415 0.028534895 -0.13276452 -0.09219671
000390 37 6d 0a be eb 3d 2b 3d 3a 8a 9d 3d 2f 9e 1c be
       -0.13518225 0.041807096 0.0769238 -0.15294717
0003a0 cf 63 87 3c 18 8a 87 ba 47 8f ae bd cd 84 15 ba
       0.016527085 -0.0010340838 -0.08523422 -0.0005703688
0003b0 fb 47 94 3d 10 80 e2 3d 64 46 ed 3c 9d 37 97 bd
       0.07240292 0.11059582 0.028964229 -0.07383654
0003c0 05 e3 be bd 11 00 c1 bd 27 49 d7 bc 57 c8 6a bd
       -0.09320644 -0.09423841 -0.026279999 -0.057319965
0003d0 58 fe 6c 3d 51 8e 24 be 31 fe f6 bc 72 2e 92 bd
       0.05785975 -0.16069914 -0.030150505 -0.07137765
0003e0 1d 36 17 bd ec 8e d7 3d da c2 74 3c 67 84 6c bd
       -0.03691684 0.10525307 0.014939034 -0.057743456
0003f0 5c ea 96 bd 3c aa 22 be b2 51 08 be b5 9b f0 3c
       -0.07368919 -0.15885252 -0.13312414 0.029371122

gkf.gat_rnn.fc_r.2.bias f4 [64]
000000 94 a5 48 ba 37 f0 19 3e 26 2f 5b 3d 9f 4f 05 bb
       -0.00076540676 0.15033041 0.05351176 -0.0020341647
000010 1f 6d 2f bd be 18 ff bc 7c 63 de bb 45 46 d0 bc
       -0.042828675 -0.031139728 -0.006786762 -0.025424132
000020 81 ac e0 3b ab 62 aa bd 34 ce 17 3c 78 a5 c3 bd
       0.0068565016 -0.08319601 0.009265471 -0.09553045
000030 8f 6c 0c 3b d2 4e 8a 3d e5 9b 7c 3d 4a 38 dc 3d
       0.002142701 0.06753315 0.06167211 0.10752924
000040 70 f2 c6 bd 09 67 aa 3c ee d0 5a 3d 31 0e 50 bd
       -0.0971421 0.020801084 0.053421907 -0.050794784
000050 d8 ba 8c 3d b9 f3 08 be 57 08 fa 3c 3f b3 50 3e
       0.06871575 -0.13374223 0.030521555 0.20380877
000060 f6 ee af bc f4 42 0b bc 93 f4 16 3e 5e 87 fc bc
       -0.02147625 -0.00849985 0.14741735 -0.030826267
000070 f2 26 85 3d d4 32 03 3e d8 8d 2a 3e a3 a1 4f 3d
       0.06501569 0.12812358 0.16655672 0.05069126
000080 97 4c 1e 3d d4 cc 34 3d 28 ef 73 bd a4 c9 c4 3d
       0.03864726 0.04414065 -0.05955425 0.096087724
000090 32 22 05 bd 4a 47 28 3d 6b c8 b4 3c 0d 35 0b 3e
       -0.032503314 0.04108361 0.022068223 0.13594456
0000a0 2c 90 c1 3b 95 72 16 3d 61 0f d7 3c d0 a9 02 3d
       0.005907079 0.036730368 0.02625245 0.031900227
0000b0 3e 31 51 bd f6 15 23 3e be 69 74 3d 5a 48 29 be
       -0.05107235 0.15926346 0.059671156 -0.16531506
0000c0 64 d4 84 3d 07 86 e5 3d f7 13 a2 bd dc 21 22 3e
       0.06485823 0.11207204 -0.07913964 0.15833229
0000d0 e2 22 ff 3d 8e e5 5f bd 59 a9 44 3e 00 a5 0e 3e
       0.12457825 -0.05466228 0.19205226 0.1393013
0000e0 e8 33 e9 3c c4 0c 16 3d a1 1f ad 3d 9c 3d 80 3c
       0.028467134 0.036633268 0.08453298 0.015654378
0000f0 3a e6 09 3e 26 f7 5a bd ab 77 e1 bd 2b a8 e5 3d
       0.1346673 -0.053458355 -0.11009153 0.11213716

gkf.gat_rnn.r_input_gru.weight_ih_l0 f4 [192, 64]
000000 f5 fe c4 bd 8e 8a 16 bd 19 38 82 bd 42 0d 72 3d
       -0.09618942 -0.03675323 -0.06358356 0.059094675
000010 93 a8 2b 3c 1f 1e b3 bd 01 63 d6 3d aa 91 54 bd
       0.010477203 -0.087459795 0.10468102 -0.05189673
000020 87 b1 40 bc 0c a9 26 3d 1e c2 a5 bd 8e bf cf 3b
       -0.011761076 0.04068856 -0.080936655 0.006339974
000030 40 ef 32 bd 8e 89 e6 bc df c9 22 bd 46 2d ab 3d
       -0.043685198 -0.028141763 -0.0397433 0.083582446
000040 2d ce 83 bd 70 76 a8 bd 88 d2 6c 3d cf 92 2f 3d
       -0.06435809 -0.08225715 0.057817966 0.042864617
000050 ac 2d 34 3c d6 79 b3 3c 4d 68 eb 3d e4 e4 00 bd
       0.010997217 0.021908682 0.11494503 -0.031468287
000060 15 d8 f2 bd 12 3c ed bd 52 05 27 3d 51 66 46 3d
       -0.118576206 -0.11583723 0.04077656 0.04843742
000070 46 6c 20 3c bf 52 d2 bd 68 74 c1 bd 34 5c a4 bd
       0.009791439 -0.10269689 -0.09446031 -0.08025399
000080 16 27 b0 3d 45 51 f0 3c b2 5a 88 bd 92 f8 e9 bd
       0.08601205 0.029335627 -0.06657924 -0.11424364
000090 c1 76 9c 3d 28 5f 3b 3b 11 fb f9 3d 24 28 d3 bd
       0.07639838 0.0028590653 0.1220609 -0.103103906
0000a0 55 16 c8 bd cc 96 75 3c e4 a6 b3 3d fc 0f ae 3d
       -0.097698845 0.014989566 0.08772066 0.084991425
0000b0 67 24 fd 3d 3a b0 ad 3d b4 4d 7d 3d 2c a0 a9 bd
       0.12360459 0.08480878 0.06184168 -0.082825035
0000c0 35 00 02 3e db d1 58 bd 2a 9a 96 3d 20 6d 6c 3d
       0.12695391 -0.05293451 0.07353623 0.057721257
0000d0 b6 e8 91 bd f9 29 38 3c d4 29 2a bb 29 c0 cb 3d
       -0.07124464 0.011240476 -0.0025964873 0.09948761
0000e0 53 3b b0 3d 56 1f 03 3d 75 04 8f bd c9 1e 21 3d
       0.08605065 0.032012306 -0.06983272 0.039336
0000f0 92 f1 dd 3d ba f3 7d bd fb 41 c4 3d 4f 8d 14 3d
       0.108370915 -0.062000014 0.09582897 0.036267575
000100 db 48 9a 3d 41 83 1b 3d a9 ab 95 3d f4 cd e0 bd
       0.07533427 0.03796697 0.07308132 -0.109767824
000110 39 c5 3e 3d 35 e3 f1 bd 1a a9 15 bc e9 df be 3d
       0.046574805 -0.118109144 -0.009134555 0.09320051
000120 43 52 e0 bd 03 76 cf bd ba e6 67 bd 4e 52 4a 37
       -0.1095319 -0.10129931 -0.056616522 1.2059301e-05
000130 d7 db dd bc 4e a6 d9 bd d6 46 48 3c 3e be 1a bd
       -0.027082367 -0.10627423 0.01222392 -0.037779085
000140 fd 7a 85 bd 85 ed cb 3a d2 f1 21 3d 9d 8f 3f 3c
       -0.06517599 0.0015558457 0.03953726 0.011691955
000150 da fb a6 bd 4e 00 a9 3d 3c c2 a3 3c c2 b4 38 bd
       -0.081535056 0.08252011 0.01999008 -0.04509426
000160 22 a0 dc 3d e1 f2 ba 3c fa 66 89 3d 58 4c a1 3d
       0.107727304 0.022820892 0.06709094 0.078758895
000170 b9 14 1d bb d4 e2 ce 3d 8a cc fe bb ef cf c2 3d
       -0.002396865 0.10101858 -0.007775848 0.095123164
000180 d1 2e 20 3c 25 26 58 3d 9c fa 62 3d f1 0f 8f bd
       0.009776787 0.052770752 0.05541478 -0.069854625
000190 34 80 d6 3d 40 2a 60 3a 1c 43 33 3d 2c bf d8 bd
       0.104736716 0.00085512176 0.043765172 -0.10583338
0001a0 ac 72 53 bd 7c 59 a1 3d e4 03 ae bd 85 59 80 3c
       -0.05162303 0.07878396 -0.08496836 0.015667686
0001b0 c6 8c c5 3d 59 b5 f4 bd fe 49 a1 bb ff 27 a6 3c
       0.09645991 -0.11948652 -0.0049221506 0.020282743
0001c0 2a 87 9a 3d 54 86 4e bd 0d ac f9 bd 9d 0b 99 bd
       0.07545312 -0.050421074 -0.12191019 -0.07472918
0001d0 46 63 01 3d ea 46 b8 bd bb 54 e0 bd 9f bb 05 bc
       0.031588815 -0.08997901 -0.10953661 -0.008162408
0001e0 38 ed ac 3c 34 7d aa bd 52 dc 5e bd 99 5c 7c 3d
       0.021109208 -0.08324662 -0.054409333 0.061611746
0001f0 d2 a0 b5 bd 74 d7 d3 bd bc a2 29 bd 66 6c c8 3d
       -0.08868565 -0.10343829 -0.04141496 0.097863
000200 f7 37 1e bd 6f 72 cb bd 8d 8f d2 bd 9c 6a 9b bc
       -0.03862759 -0.09933936 -0.102812864 -0.018971734
000210 f7 79 97 3d 7c 93 f6 3c d0 f9 45 bd 88 69 fb bd
       0.0739631 0.030099623 -0.048333943 -0.12275988
000220 8a 3f b7 bd bb 5f 61 3c 48 67 b4 3d c4 3d 7b 3d
       -0.08947666 0.013755734 0.08808762 0.0613382
000230 79 59 16 bc 72 5a 55 3d cf 9f 9e bb 15 f4 d7 3a
       -0.009176605 0.05208821 -0.004840828 0.001647594
000240 bf a2 2a 3d eb 86 11 bd d8 d1 ba 3c b2 9c 6b bb
       0.041659113 -0.03552906 0.02280514 -0.0035951552
000250 6f d5 ec 3c f7 4f c0 bc 2c 79 bb 3d a5 6d d1 bd
       0.028910367 -0.02347563 0.09153971 -0.10225991
000260 24 01 c3 3d b9 bb ec bd 60 86 bf bd f4 95 ba bd
       0.09521702 -0.11559243 -0.09351802 -0.091106325
000270 ec ee 9c bc 08 18 6f bc d0 c5 0c be a3 b3 51 3d
       -0.019156896 -0.014593132 -0.13747334 0.051196706
000280 2d 95 7f 3c 7e 8d db 3d b1 1a d4 bd 01 67 e2 bd
       0.015599531 0.10720347 -0.103566535 -0.11054803
000290 b5 92 8f 3c 7e c5 aa 3d 9c 2c 8e 3d 3f 88 08 3d
       0.01752601 0.0833845 0.06942102 0.03333306
0002a0 28 9b c6 3b 7c aa 96 3d 37 7a 85 bd 29 4a 0b be
       0.0060609765 0.07356736 -0.06517451 -0.13602509
0002b0 04 54 f7 bd 4f 7f bd bd 50 b2 67 3c 14 33 fd 3d
       -0.120765716 -0.09252798 0.014141634 0.12363258
0002c0 3d cc 84 3d dd 38 c8 bd 1d 84 42 3d e1 95 d9 3d
       0.06484268 -0.09776471 0.047489274 0.1062429
0002d0 c0 06 50 bc 17 ca b8 bc ec 26 9f bd a5 19 ca bc
       -0.012696922 -0.022557301 -0.07771096 -0.024670431
0002e0 eb 9b 9a 3d fe e7 4c bd 32 c8 08 bd 74 b1 39 3d
       0.0754927 -0.050025932 -0.033394046 0.045335248
0002f0 bd 5b 7b bd 40 c6 8d bd 29 8f ee 3c cf 0f 9f 3d
       -0.061366785 -0.06922579 0.029120998 0.07766687
000300 19 e8 3f 3c ca 76 f7 bc 5f 06 fc bd 67 9b ca 3d
       0.011713051 -0.03020801 -0.12305903 0.09892922
000310 6c 02 9a bc 84 de a5 bd d2 33 10 be 00 8b ab bd
       -0.018799983 -0.08099082 -0.14082268 -0.083761215
000320 b8 88 e5 bd cb 24 a2 3b 72 80 81 3d a9 f7 f0 bc
       -0.11207718 0.0049482337 0.06323327 -0.029414969
000330 7c 12 b3 3d db 76 4d bd 92 40 b2 bd 0c 74 0e be
       0.0874376 -0.050162178 -0.08703722 -0.13911456
000340 dd 4e e2 bd e6 d6 4c 3d e1 14 71 3d 86 40 c1 3d
       -0.11050198 0.05000963 0.058857802 0.09436135
000350 44 75 23 bd 12 94 2d 3d 8e 40 02 3c f0 8c 90 3d
       -0.039906755 0.04237754 0.007949961 0.07058132
000360 ba 9c a1 bd 81 d5 83 bd e4 0d 22 be d2 ff 2d bc
       -0.07891221 -0.06437207 -0.15825611 -0.010620074
000370 c8 a0 03 be 29 e5 eb bd c4 13 a5 3b 8a 67 cc 3d
       -0.12854302 -0.11518318 0.0050377566 0.09980686
000380 06 0e 9e 3d 87 d0 75 3d 5a bb 63 bd db 32 13 bd
       0.077175185 0.06001332 -0.055598594 -0.03593717
000390 45 fb 11 be 68 0a 72 3d f6 6d df ba 29 2c a8 3d
       -0.14256008 0.059091955 -0.0017046321 0.08211548
0003a0 83 97 18 be 00 10 0d bc 0e db d5 bd 11 b2 f9 bd
       -0.14901547 -0.008609772 -0.10442172 -0.121921666
0003b0 7c d4 c7 bd 8e 3e 5f 3c 83 9e 6c 3d 64 b2 9b 3d
       -0.09757325 0.013625754 0.057768356 0.07602385
0003c0 60 77 8e bd 91 d3 f5 3c 1d ce 13 3e 36 60 10 bd
       -0.06956363 0.03000811 0.14434095 -0.035248004
0003d0 8d 5a 98 bd 41 28 d1 bd 86 7a 5b 3d da 81 62 bd
       -0.07439146 -0.10212756 0.053583644 -0.055299617
0003e0 c5 88 fb bd cb 49 3d 3d 90 38 73 3a df e9 98 bd
       -0.12281946 0.046212953 0.0009278143 -0.07466482
0003f0 1a 34 18 be 03 90 36 bc 6a 9e a7 bc e1 70 57 bd
       -0.14863625 -0.0111427335 -0.02046128 -0.052597884

gkf.gat_rnn.r_input_gru.weight_hh_l0 f4 [192, 64]
000000 d2 bb 61 bc 9d 4b b2 bd d2 20 b1 bd c7 b7 9a ba
       -0.01377769 -0.08705828 -0.08648838 -0.0011804037
000010 79 bc a9 bd 80 a4 b0 3d 9d cc ce 3d bb 59 6e bd
       -0.082879014 0.08625126 0.10097621 -0.058191042
000020 d0 89 52 bc 1d f3 89 bd 71 79 fb 3c 4e d9 86 3d
       -0.01285024 -0.06735823 0.030697556 0.06584416
000030 b1 b4 c4 bd 33 cf 69 bd 19 5f 35 bd ce 39 f5 3d
       -0.09604777 -0.057082366 -0.044280145 0.11973916
000040 33 9c 96 3d 5c ac bb bd 2d 77 28 3d 01 af 99 bd
       0.073540114 -0.09163734 0.04112928 -0.075040825
000050 00 25 18 3e 57 f8 a0 3d 8f a3 97 bd 95 7f 2c 3d
       0.14857864 0.07859867 -0.07404243 0.04211386
000060 12 94 13 3d 7e 4e 50 bd fd 8d d8 bd 5d 8e 64 3d
       0.036029883 -0.050856106 -0.10573957 0.05579983
000070 5a ab f6 bd ea 6b 68 3d 4a 16 5c bc c3 7a 5f 3d
       -0.120444015 0.05674354 -0.0134330485 0.054560434
000080 9d 2c e6 3c 4c dc 3b 3d d4 8c 03 bd d5 3f 3a 3d
       0.028097445 0.04586439 -0.032116726 0.04547103
000090 d9 f7 35 3d 3b d8 a5 3c b5 44 de bc d3 48 a0 3c
       0.04442582 0.020244708 -0.027132371 0.019565975
0000a0 43 52 20 3d 21 77 46 3d 24 81 81 bd a1 36 08 bd
       0.03914095 0.048453454 -0.0632346 -0.033255223
0000b0 e0 ca 73 bd 63 0d a9 bb b2 d9 a7 3d bf 74 ae 3d
       -0.05951965 -0.0051590665 0.08195819 0.08518361
0000c0 25 81 22 3d 77 d1 87 bd cb 83 c8 3d 78 2c ac 3d
       0.039673943 -0.06631749 0.097907625 0.08406919
0000d0 b2 4f 1f 3d 4b 9d cc 3d 90 2b 08 3c 6c 88 94 bc
       0.038894363 0.09990939 0.008311167 -0.018131457
0000e0 ef df 96 3c 47 35 c0 3b 7a 9e 8b 3d 80 43 53 bd
       0.018417327 0.005865726 0.068173364 -0.051578045
0000f0 17 23 e8 bd ef ea d0 bd 88 55 d9 bd 7e 23 d0 3d
       -0.11334818 -0.1020106 -0.10612017 0.101630196
000100 4a 50 88 bc 3f a5 f2 bd c0 bf 0a 3e 81 f2 b8 bd
       -0.016639847 -0.118479244 0.1354971 -0.09030629
000110 4c d9 32 3c 1f 27 bb 3d f9 12 d0 bd 75 0f 91 3c
       0.010916065 0.09138321 -0.10159869 0.017707566
000120 4f cc ae 3d dc af 09 3e af 51 57 3d 4e e2 2a bd
       0.085350625 0.13445991 0.052568134 -0.041719727
000130 da cb 82 3d b7 d2 b4 3d e2 45 81 bc 8e 56 01 3e
       0.06386538 0.08829253 -0.015780393 0.12630674
000140 f5 8d 72 ba b5 63 8f 3d 28 f9 99 bd 93 ac 5d 3d
       -0.00092527206 0.070014395 -0.07518226 0.054119658
000150 b4 98 a6 bd 60 b1 4a 3d 54 53 aa 3c aa 9e 87 3d
       -0.081345946 0.049485564 0.020791687 0.0662206
000160 b8 95 96 3d 45 e3 77 bc 53 88 a3 3d 66 4d 0d be
       0.07352775 -0.015129869 0.07984986 -0.13799056
000170 7a c3 c3 3d ae 42 f2 3c 57 05 60 3c b5 df 53 3c
       0.095587686 0.029572811 0.013673148 0.012931754
000180 6f 3c 5a 3d 54 54 f6 bd be 88 ca 3d e8 bb a3 3b
       0.05328029 -0.12027803 0.09889363 0.0049967654
000190 0e ad 20 3e fe f4 24 3d d6 59 a2 3a 7b 59 0f 3d
       0.15691015 0.040272705 0.0012386392 0.034997445
0001a0 92 53 93 3d 99 dd f7 bd 28 a3 1c 3d 72 1f 3e 3d
       0.07193674 -0.12102813 0.038241535 0.046416707
0001b0 5d 01 0a bd 89 35 29 bd 0b dc fb 3d 99 a4 02 3d
       -0.033692706 -0.04131082 0.12297829 0.031895254
0001c0 c0 f2 6f bd b3 ce b6 bc cc bc d6 bc 4d 18 a3 bd
       -0.058581114 -0.022315359 -0.026213072 -0.079636194
0001d0 a9 94 06 3e a5 81 e5 3c 1f 0a b4 bc 1e 88 d1 3d
       0.13142647 0.02801592 -0.021977482 0.102310404
0001e0 b9 42 a1 3d 97 b7 ec 3c 61 79 a7 3d 0d a6 d5 bd
       0.078740545 0.028896136 0.08177448 -0.10432062
0001f0 af 73 b4 bd 7a d2 0e 3e e3 1f 02 3d 66 7b 64 3d
       -0.088111274 0.13947478 0.03176869 0.055781744
000200 f2 00 85 bd 1d e3 66 bd 67 5e 26 bd 6d 2a 7e 3d
       -0.06494321 -0.056368936 -0.040617373 0.06205218
000210 bf 0f 67 bd bd 5d c7 3d 4f 69 b0 bd 1a d8 35 bc
       -0.0564115 0.09734676 -0.08613836 -0.011098886
000220 0e db c2 3d 36 4d 39 bd a1 b4 bc 3b 44 01 24 bd
       0.095144376 -0.04523965 0.0057588373 -0.04004027
000230 d2 db 03 3d be c7 22 bd ff b7 ef bd 52 5a 05 bd
       0.03219206 -0.03974127 -0.11705016 -0.03255684
000240 91 57 ee 3c 1f 66 08 bd 34 ca 81 bd 24 69 31 bc
       0.02909449 -0.033300515 -0.06337395 -0.01082829
000250 19 49 37 bd d2 c4 08 3e dc 73 de bc 23 16 e6 3c
       -0.044747446 0.13356331 -0.027154855 0.028086727
000260 38 b6 f0 3d 84 12 61 bd 53 48 93 3d af 26 9c 3c
       0.117535055 -0.0549493 0.07191529 0.019061415
000270 69 dc ca 3d 2c 47 96 bc 0c 7e 23 3d bf fd 06 be
       0.09905321 -0.018344484 0.03991513 -0.13182734
000280 3f e0 e8 3d 39 2b dd bd d0 ae ef 3d 65 c1 b4 bd
       0.113708965 -0.1079926 0.11703265 -0.088259496
000290 68 e5 26 3d 8b ff 11 3c b7 07 9d 3d 40 57 e6 bd
       0.040746123 0.008911024 0.07667487 -0.1124711
0002a0 02 fe 9b 3d 2a f3 c5 3d 70 aa 25 3d 8e f3 c5 3d
       0.076168075 0.096655205 0.040445745 0.09665595
0002b0 b0 e1 c9 3d 54 64 39 3d 73 0a 9d 3d 50 ae de bb
       0.098574996 0.045261696 0.07668009 -0.006795682
0002c0 43 32 b6 3b df 45 ba bd 4e 04 5d bb c1 9e 93 bd
       0.005560191 -0.09095358 -0.003372449 -0.07208014
0002d0 5b c7 80 bd 32 2a b9 bd 70 ed 8b bd 23 f6 db 3c
       -0.06288024 -0.09041251 -0.06832397 0.026850766
0002e0 16 74 0d bd d3 48 46 3d da 0c 58 3d 9e 90 83 bd
       -0.034534536 0.048409294 0.05274663 -0.06424068
0002f0 49 6a 8c 3d b7 a4 9d bd 20 f9 8b bd 4a 6a 0e 3e
       0.0685621 -0.076974325 -0.06834626 0.13907734
000300 a3 eb 35 3d 5e 16 86 3d 87 db 09 be 43 46 94 3d
       0.044414174 0.06547235 -0.1346265 0.07239964
000310 ff 76 c3 bd 1c a5 d3 3c 2f 77 46 bd 17 14 10 3d
       -0.09544181 0.025835566 -0.048453506 0.03517541
000320 fa 41 68 bd 7a 02 fd bd 4f e0 db bd bc 7c ac bd
       -0.056703545 -0.12353988 -0.10736143 -0.08422229
000330 0b 25 3e bd 8f d7 fb 3c ec 75 13 bd 69 d9 ee bc
       -0.046422046 0.030742435 -0.03600113 -0.029156404
000340 01 91 1b 3d 7a 3f f2 3d 19 ff 68 bd 9b 93 c6 3d
       0.037980083 0.118285134 -0.056883905 0.09696122
000350 63 0c 8b bd 3c 9c f5 3d 45 ae 16 bd c3 31 77 bd
       -0.06789472 0.1199269 -0.03678729 -0.06035019
000360 63 b1 e5 bc 85 bd fc bb 4c 50 ce bd 33 54 c3 3d
       -0.028038686 -0.007713022 -0.10073909 0.09537544
000370 bc f0 c0 bd 2a 03 1c 3c 4a 1b a5 bd 14 fe 9f bd
       -0.094209164 0.009522239 -0.080618456 -0.078121334
000380 b4 18 be bb f1 2e a7 bc f0 37 da bc 50 3a 51 bb
       -0.0058012847 -0.020408126 -0.026638001 -0.0031925626
000390 30 a1 50 bd be a0 fe bd b3 c1 18 3c b2 b7 ba 3c
       -0.05093497 -0.12433003 0.009323525 0.02279267
0003a0 38 59 c8 3d d7 dc 6f bd 11 cb bc bd 24 84 e7 bd
       0.09782642 -0.05856022 -0.09218419 -0.11304501
0003b0 e5 a5 8c 3d 53 10 96 bd ef c6 b3 3d 5b ea 22 3d
       0.06867579 -0.07327332 0.08778178 0.03977428
0003c0 08 30 d1 3d 58 dc 3f bd 62 5a b4 3d c1 a4 11 bd
       0.10214239 -0.046840996 0.08806302 -0.035557512
0003d0 7d 27 25 bc 33 49 ea 3d 8e 0e 6f bd 6b b1 14 bd
       -0.0100802155 0.11439743 -0.05836349 -0.03630201
0003e0 16 24 e6 3c 69 12 72 3d 26 be 6f 3c 7e a0 9c bd
       0.028093379 0.05909959 0.014632737 -0.07647799
0003f0 64 cb c0 bc 8c df e1 3c 8a 4d 9e bd 05 41 ca bd
       -0.023534484 0.027572416 -0.07729633 -0.09875683

gkf.gat_rnn.r_input_gru.bias_ih_l0 f4 [192]
000000 2f d9 07 3e 07 f1 90 bd 98 35 a2 bd cc 85 4f 3d
       0.13266443 -0.07077222 -0.079203784 0.050664708
000010 e5 ad cc bc b2 30 f5 3d e4 88 42 bd d7 35 1f 3d
       -0.024985263 0.119721785 -0.04749383 0.038869705
000020 f5 19 ac 3c fb ba b8 3c f9 e6 e4 bd 28 5a f1 bb
       0.021008471 0.022550097 -0.11176867 -0.007365484
000030 c2 d9 42 bc ef 14 82 bd 9e 63 78 3d cb f5 01 3e
       -0.011892738 -0.06351649 0.060641877 0.12691419
000040 9d 17 d2 3d 45 d2 bc 3d f5 7d 7d bd 9b 49 6e bd
       0.1025841 0.09219793 -0.0618877 -0.058175664
000050 3f 70 a7 3d 0d 42 e3 3d 2e 04 a5 bd 0f 0c 85 3d
       0.08175706 0.110965826 -0.08057438 0.064964406
000060 a4 41 55 bd 1b 58 b4 bc 3e ac f2 3d e8 a2 c1 3d
       -0.052064553 -0.022014668 0.11849259 0.094549
000070 8e 7a dc bd 61 92 ac 3d 12 9d 0d 3e c1 a9 0d 3d
       -0.10765563 0.08426357 0.13829449 0.034585718
000080 4a e1 64 3d dc 5e 22 3d b5 a0 46 3c 04 72 88 3d
       0.055878915 0.039641246 0.0121232765 0.06662372
000090 02 09 ab bd d7 7b 4f bb 79 4a 07 bd 82 40 8e 3d
       -0.083513275 -0.0031659508 -0.033030007 0.06945898
0000a0 3d 11 c6 bd 16 b5 84 3d 05 af 9c bc a4 f3 b4 3d
       -0.09671257 0.06479852 -0.019126425 0.08835533
0000b0 f4 5d a2 bb c3 85 2b 3c 32 8e 51 3d 2c 72 95 3d
       -0.0049550477 0.010468903 0.051161 0.07297167
0000c0 a1 9b 76 3d d9 6d a4 3d 36 14 af bc 2f 80 42 bd
       0.060207013 0.08028764 -0.021371942 -0.047485527
0000d0 02 55 94 3d 72 e4 a3 bd c8 a8 14 3d 87 78 29 3d
       0.072427765 -0.08002557 0.036293775 0.04137471
0000e0 dd 85 dd 3d fa d7 c6 3d 82 90 74 bd f6 db a6 bd
       0.10816548 0.09709163 -0.059708126 -0.08147423
0000f0 2c 5b e0 bc 49 fb d9 bd d3 f6 b1 3c c4 af 8c 3d
       -0.027387224 -0.10643632 0.02172414 0.06869462
000100 1b 5a 0e 3c 80 ab 39 be 39 2a 07 3b ab 6f 01 be
       0.008688475 -0.18131828 0.0020624532 -0.12640254
000110 ac cc ed bd 62 bc 14 be 5b 05 c3 bd 55 40 ee bd
       -0.11611304 -0.14524987 -0.09522506 -0.11633364
000120 52 fb ea bd 8f a9 13 3d 73 40 46 bd 81 89 4b bc
       -0.11473717 0.036050376 -0.048401307 -0.01242292
000130 c8 29 b1 bd d3 35 cc 3c 36 cb 03 be 90 f2 a5 bd
       -0.08650547 0.02492801 -0.12870488 -0.08102906
000140 8a be 04 be 16 46 fc bd 3c 5d ae bd e5 24 2f be
       -0.1296331 -0.12318055 -0.08513877 -0.17103918
000150 14 bf 7f bd 58 55 37 be e6 64 2d bd 56 d4 15 bd
       -0.062438086 -0.1790365 -0.042332552 -0.036579452
000160 72 32 e6 3c 6b 1b 0f be 4e 7a 01 3c f3 1d 98 bd
       0.028100226 -0.13975303 0.007902695 -0.07427587
000170 3e 88 28 be 61 6c 05 3d a0 bd 70 3d 61 83 bf 3b
       -0.16458222 0.03257406 0.05877459 0.005844519
000180 32 a1 83 bd 4e 52 12 bd 72 e3 ba 3c c1 94 dc bd
       -0.0642723 -0.035723023 0.022813533 -0.1077056
000190 e0 9b 65 bc 19 61 2c bc f4 71 28 be ad 65 b3 bd
       -0.014014214 -0.010521197 -0.1644972 -0.087596275
0001a0 45 35 ec bd fe 37 1f be b6 22 af 3d c5 79 bf bd
       -0.11533598 -0.15548703 0.085515425 -0.093493976
0001b0 df 42 bf bd 64 69 32 be 12 4c 3f 3d 5a a6 d6 bc
       -0.093389265 -0.17423016 0.046703406 -0.02620237
0001c0 89 4d 32 3d a9 84 1d 3d c3 41 c2 bd cb 3d 0a bd
       0.043530975 0.038456593 -0.09485199 -0.033750337
0001d0 db 34 79 3d 7f 96 d1 3d c7 7f 9b bd 42 30 b3 bd
       0.060841423 0.10233783 -0.07592731 -0.08749439
0001e0 8c fd 90 3d e5 38 04 3c 4f af ff bd 2f 66 94 bb
       0.0707961 0.008070205 -0.12484609 -0.004528783
0001f0 59 a7 27 be 22 07 c5 bc a4 39 11 bc 29 73 ca bd
       -0.16372432 -0.024051253 -0.00886384 -0.09885246
000200 b3 71 1c bc 49 02 08 3d dd 32 05 3d ee 4b 8a bd
       -0.009548592 0.033205304 0.03251921 -0.06752764
000210 f8 f2 51 3c dc c9 73 3c 78 cc d4 bd d1 e6 09 3e
       0.012814276 0.01487967 -0.10390562 0.13466956
000220 f2 df 00 be 9c e0 82 3d fe 02 e0 bd de 23 1c be
       -0.12585428 0.06390497 -0.10938071 -0.15248057
000230 ea 9c 03 3d e9 b5 0b 3e 27 8d 08 be cd 66 4b bd
       0.032132067 0.13643612 -0.13335095 -0.049658585
000240 75 7e b4 bd 70 bb 0b be 8c 63 41 3d 94 07 0c 3e
       -0.08813182 -0.1364572 0.047214076 0.13674766
000250 43 38 a0 3d 0a 42 a9 bc 10 35 a0 bd 71 2c a3 bc
       0.07823231 -0.020661373 -0.07822621 -0.019918652
000260 c4 a9 12 bd 5f a7 90 bd c2 a8 25 bc 87 43 f8 bc
       -0.035806432 -0.070631735 -0.010111036 -0.030305637
000270 da 70 de bd a6 d3 dc bd 20 9a 09 3e 66 b2 c8 bc
       -0.108613685 -0.10782556 0.134377 -0.02449913
000280 14 36 6f bd 42 a7 ba bd db a6 e6 3d 4c 78 f7 bc
       -0.058401182 -0.09113933 0.11262294 -0.03020873
000290 02 78 0a 3e 34 59 06 3c b7 63 de bd 4c f5 e4 3d
       0.13522342 0.008199979 -0.10858863 0.11179599
0002a0 60 28 c8 bd ec 21 85 3d ce 5e d4 ba da ac bc bc
       -0.09773326 0.06500611 -0.001620257 -0.02303164
0002b0 f7 cc d0 bd 2e 8e 97 bd 15 06 0c bd 05 f8 bd 3c
       -0.10195344 -0.074001655 -0.034185488 0.023189554
0002c0 95 69 13 be 34 1f 84 bd 21 67 00 3d d5 07 3b bc
       -0.14395745 -0.06451264 0.03134835 -0.0114154415
0002d0 0a 71 03 be 8d 6e 3b bd 06 6c 3f bd f0 e4 6a 3d
       -0.1283609 -0.045759726 -0.04673388 0.057347238
0002e0 47 27 8f bd eb 91 97 3d 9e d7 90 3c f7 87 a0 3d
       -0.069899134 0.074008785 0.01768094 0.07838433
0002f0 ad 3a 8f 3d 1c 83 c9 3d f6 f5 b0 3c c7 2d 19 3e
       0.069936134 0.0983946 0.021601658 0.14958869
