models/no_mismatch/kalman_process_50n_local_params.pth (torch, 269378 bytes, 28 tensors)

gkf.gat_rnn.fc_delta_y_innov.0.weight f4 [64, 3]
000000 17 86 e0 3e aa ef ed 3e d5 c6 1e be 75 58 07 3f
       0.43852302 0.46471912 -0.15505536 0.5286935
000010 67 26 04 be 7d 0d 0f 3e ea 9a 8d be 31 b7 a6 3e
       -0.12905274 0.13969989 -0.27657253 0.3256164
000020 a8 50 08 3f ec f3 d6 be be 1c 01 3f 55 f1 ef 3d
       0.5324807 -0.41982973 0.5043448 0.11715952
000030 a1 59 df 3e 3c 9e 82 3d b9 32 85 3e 22 f6 a9 bd
       0.4362307 0.06377837 0.2601526 -0.08298899
000040 b4 1c e8 3e 0c 69 c5 3d 50 b5 8b be 61 03 26 3e
       0.453344 0.09639177 -0.27286768 0.16212226
000050 c2 12 7e be f5 17 4b bd 3b eb 74 be dd e2 c6 3e
       -0.24811843 -0.049583394 -0.23917858 0.38844958
000060 27 3d eb be be ef 86 be 41 d7 1b be 14 7e b7 be
       -0.45945093 -0.26354784 -0.15218832 -0.35838377
000070 f3 6a 89 3d 9f 69 11 bf 73 3c 04 3f 45 48 fd be
       0.06709852 -0.5680179 0.5165474 -0.494692
000080 40 43 ea 3e 39 7b b7 3d 47 77 4a be 3c 1f b7 3e
       0.45754433 0.0895905 -0.19772063 0.35766017
000090 79 0a b4 3d 13 21 ed 3e 91 e2 8d 3d 4e 63 43 be
       0.0879106 0.46314296 0.0692798 -0.1908085
0000a0 52 fe 23 3e 1a df 1a be 87 f0 73 3e 40 80 06 3f
       0.16014984 -0.15124169 0.23822223 0.52539444
0000b0 18 e0 b8 3e 41 3a 8b be 66 03 af 3e ef 9d 07 3e
       0.3610847 -0.27192882 0.3418228 0.1324384
0000c0 a3 72 9b 3e fd 5b b0 be 9f 19 10 bf f4 00 5c be
       0.30360898 -0.3444518 -0.56289095 -0.21484739
0000d0 00 6d e4 be cc 27 ff 3e 5a 1e 24 3e eb 07 7e 3e
       -0.4461441 0.4983505 0.16027203 0.24807708
0000e0 d6 6b 4a 3e 5a 46 89 39 d5 a4 e9 3e 56 85 cd be
       0.19767699 0.00026183092 0.4563357 -0.4014079
0000f0 cf 57 63 3d 75 2f cb be d7 36 3c 3e c0 f2 4e be
       0.055503663 -0.39684644 0.18380295 -0.2020979
000100 69 da 3e 3e e2 c4 f5 bd dc 6b f5 3e 5f 08 ae be
       0.18638004 -0.12000443 0.47933853 -0.33990762
000110 68 bc b1 be ca 5c ad be 99 3f 06 3f f5 5d 53 3e
       -0.34714055 -0.33859855 0.5244079 0.2064131
000120 ff 08 11 3f f8 e6 f0 be 6f 89 0a bf 0f c7 ea be
       0.5665435 -0.47051215 -0.5411596 -0.45854995
000130 e0 fd c5 be 12 90 6f 3e b3 73 54 3e 4d 0a fa 3e
       -0.38670254 0.23394802 0.20747261 0.48835984
000140 2c 8f 92 be 47 00 c9 be ad f0 95 3e ca fa 56 be
       -0.28624856 -0.39258024 0.29285184 -0.20994106
000150 4e d8 ae 3e 06 90 19 be 1a 4b b9 3e 49 bd e2 be
       0.34149402 -0.14996347 0.3619011 -0.44285038
000160 bd 24 8e be 56 20 47 3e 6e 40 04 3e a7 ea 1c be
       -0.27762404 0.19445929 0.12915203 -0.15323888
000170 0c 70 ad 3e 8e b0 cc 3e 0f 56 cb be f3 ce a2 be
       0.33874547 0.3997845 -0.39714095 -0.31798515
000180 88 01 09 3f 17 b9 45 be 59 b7 41 be f5 24 0e bf
       0.5351796 -0.19308887 -0.18917598 -0.5552514
000190 c1 b9 ab be 46 85 2b 3e c5 47 a4 bd 55 97 d2 be
       -0.33540156 0.16750059 -0.080215015 -0.41131082
0001a0 bc e8 e1 3c c4 aa d1 be 5d 06 f7 be 55 a8 91 be
       0.027576797 -0.40950596 -0.48247042 -0.2844874
0001b0 66 fd fe be 03 91 be be de 7c 0d 3f 9b 17 fb 3d
       -0.49802703 -0.3722001 0.5526866 0.12260362
0001c0 3a e3 4d 3e 66 d8 0c bf a9 40 bf be ee c9 4c be
       0.20106211 -0.550177 -0.3735402 -0.19998905
0001d0 7a b5 bd 3d b4 50 05 bf 54 6c 81 be e7 8b a4 be
       0.092631295 -0.5207627 -0.2527796 -0.32137987
0001e0 57 21 70 ba 0a 85 49 be d1 c0 76 bc a9 75 cf be
       -0.00091602415 -0.19679657 -0.015060619 -0.40519455
0001f0 22 a5 c2 be 7e eb 9b be 51 68 42 be 60 ff ed be
       -0.3801661 -0.30453104 -0.18985106 -0.46483898
000200 bd 5f fa 3e b5 59 e4 bd e0 4f ff 3e dd 0c 4e 3e
       0.48901168 -0.11149923 0.49865627 0.20122094
000210 83 09 f9 be 89 e9 c2 3e ea 7e 21 be 80 56 6b be
       -0.4864007 0.38068798 -0.1577107 -0.22982216
000220 1b eb f1 be 76 42 15 bf 71 a7 2e 3e d8 bc fc bd
       -0.47249684 -0.58304536 0.17056061 -0.123407066
000230 43 38 77 3e 70 a8 f8 be 3d d0 dc 3e a9 a5 c9 be
       0.24142556 -0.48566008 0.43127623 -0.393842
000240 cc ea d5 bd 84 ca f6 3d 6b 72 9d 3e dd b1 ea 3e
       -0.104451746 0.120503455 0.30751356 0.45838824
000250 1b 74 0a 3f dc 41 eb be 39 46 15 3e 05 57 80 be
       0.5408341 -0.45948684 0.14577569 -0.2506639
000260 f6 96 57 bd 85 91 e7 be bb 94 07 3f 8c ab cb be
       -0.052634202 -0.4522821 0.5296132 -0.39779317
000270 aa cd 98 3e a3 6c 60 3e da 9a 50 3e bb 6a 9f be
       0.2984441 0.21916442 0.20371571 -0.31136116
000280 7a 5b 08 3f a7 78 1c 3e 97 59 d8 3d c6 27 05 bf
       0.5326458 0.152804 0.10563963 -0.52013814
000290 53 57 8c 3e 5d e3 be bd e4 d9 85 be 1b 3e 03 3f
       0.27410373 -0.0932071 -0.261428 0.5126664
0002a0 67 5b 12 3e c4 25 a0 be ca 7e 8c be dd 06 09 bd
       0.1429268 -0.31278813 -0.27440482 -0.03345381
0002b0 14 64 a9 3e 4c 84 1e be 91 53 b1 be 82 af 40 be
       0.33084166 -0.15480155 -0.3463407 -0.18816951
0002c0 c8 45 cf be 26 0d 53 3e 6a 7b e3 3e 28 bc 0b bf
       -0.40482926 0.20610484 0.44430095 -0.5458398
0002d0 1f 1e 08 3e 5b 74 9f 3e d3 cf e6 3d 86 5f 4c be
       0.1329274 0.3114346 0.11270108 -0.19958314
0002e0 a4 61 9d 3e d2 b2 a6 3e 0c e8 5c 3e 33 b0 9e bd
       0.30738556 0.32558304 0.21572894 -0.07748451
0002f0 08 b6 33 be f6 46 6d 3d ce 5d cd bd ab ce 11 be
       -0.17549908 0.057929 -0.100276574 -0.14238994

gkf.gat_rnn.fc_delta_y_innov.0.bias f4 [64]
000000 cf 73 b3 3e d4 d3 04 3f e3 45 33 bd 86 60 06 be
       0.35049292 0.51885724 -0.04376782 -0.13122758
000010 2a db 90 bc f7 57 8f bc 68 d5 22 3e 19 b8 2d 3e
       -0.01768263 -0.017498 0.1590172 0.16964759
000020 5f e0 03 bf 72 4e 52 be bc 43 00 3f 9c 6b 6c 3e
       -0.5151424 -0.20537737 0.50103354 0.23087925
000030 b0 55 c4 bc 1f 43 af be 7d c0 a9 be 88 67 fe be
       -0.02396664 -0.34230897 -0.3315467 -0.49688363
000040 47 9c 39 be 5b 82 60 3e 7e eb c8 3e d0 e4 8c 3e
       -0.18126021 0.21924727 0.39242166 0.2751832
000050 9b 92 ff be 1f 3b b0 be 69 d5 ad bd c2 32 13 3f
       -0.4991654 -0.34420106 -0.084879704 0.57499325
000060 8e 94 c8 3d dd 02 1d be 8c 3f 82 3e bb d8 67 be
       0.097939596 -0.15333124 0.25439107 -0.2264127
000070 0a 80 b9 be d8 f5 e4 3e 86 64 8d be ad 2b e1 bd
       -0.362305 0.44718814 -0.27615756 -0.109946586
000080 96 1c 10 bf 43 e4 cd 3e 45 f9 e9 3e d7 6b 68 3e
       -0.5629362 0.40213212 0.4569799 0.22697388
000090 12 44 da be c8 c4 0d bf bb ed f0 be 6e 1f df 3e
       -0.4263006 -0.5537839 -0.47056374 0.43578666
0000a0 8a 84 9c 3e cf 8e 02 3f ae a0 9c 3e 8d 6d 2a 3e
       0.3056987 0.5099916 0.3059134 0.16643353
0000b0 76 e0 be bc 1e ba de be 74 21 f6 be 89 3d 08 bf
       -0.02330039 -0.4350137 -0.48072398 -0.53218895
0000c0 8b 37 7f 3e 10 a9 88 be 78 40 f2 bd 2b 5c a7 be
       0.24923532 -0.26691484 -0.11828703 -0.32687506
0000d0 c2 f4 a9 bd b0 9b ca be 67 4a b2 be 17 fe 5a 3e
       -0.08298637 -0.39571905 -0.3482239 0.2138599
0000e0 65 7e 21 be 40 c9 bd 3e ff 2e 30 be 8e 93 de be
       -0.15770872 0.37067604 -0.17205428 -0.4347195
0000f0 81 1b aa bd bf 3f 86 be 20 4c 2f be 84 b8 07 bf
       -0.08306027 -0.2622051 -0.17118883 -0.53015924

gkf.gat_rnn.fc_delta_y_innov.2.weight f4 [64, 64]
000000 38 bc 97 3d b9 fb ab bd bc 82 c0 3d e8 bd a0 3d
       0.07408947 -0.08397622 0.093999356 0.07848722
000010 1e 16 b1 3d 8b c3 9a bd a6 f6 e8 3d 5e b8 e3 bc
       0.08646797 -0.07556828 0.113751695 -0.027797874
000020 e1 32 e9 3c 90 6b d7 3d b1 62 4e bc 2a ea 93 3c
       0.028466644 0.10518563 -0.012596772 0.018055994
000030 c0 29 9e bc 5c 0c f9 bd 10 70 76 3d 59 02 0d be
       -0.019307017 -0.121605605 0.060165465 -0.13770427
000040 63 81 8f 3d 59 f7 02 3e 44 91 07 3e c1 e3 70 bc
       0.070071004 0.12789668 0.13239008 -0.014702738
000050 3f 13 01 be f6 4d 32 3c b8 c7 7a 3d 8c 4c c6 bd
       -0.12604998 0.010882845 0.061225623 -0.09682569
000060 e6 4a 14 bd ff e1 99 bd 44 7b 82 bb 06 cc 37 bd
       -0.03620424 -0.075138085 -0.0039819796 -0.044872306
000070 e1 52 5f bd 89 b1 29 bc e0 43 db bd 1d c8 c2 3d
       -0.0545224 -0.010357269 -0.107063055 0.09510825
000080 90 ef c4 3d ad 32 aa 3a ae 5c b9 3c fa 85 8a bd
       0.096160054 0.0012985073 0.0226272 -0.06763835
000090 d1 12 e4 bd 49 09 13 be 96 85 dc 3c f0 17 62 bd
       -0.111364014 -0.14359011 0.026919167 -0.05519861
0000a0 dd 07 44 bd c9 70 0f 3a ae 17 f8 bb 23 c1 8b bc
       -0.04785906 0.00054718234 -0.007571182 -0.017059868
0000b0 4b 7f cf 3c 0b 3f 31 bd ad 82 3f bd 8c c9 7a bd
       0.025329253 -0.043273013 -0.04675548 -0.061227366
0000c0 53 ec 90 bd ea 92 ce 3d 75 1a 60 bd 5c a5 63 3d
       -0.07076325 0.100866154 -0.05471273 0.05557762
0000d0 98 f0 38 bd f5 4e f3 3c d6 17 eb 3d 57 48 b6 3d
       -0.045151323 0.029700736 0.11479156 0.089005165
0000e0 25 ff e1 bd 56 09 8b 3d 41 e6 d4 3d 0c 66 d7 3c
       -0.11034993 0.0678889 0.1039548 0.026293777
0000f0 8f 9e b2 3d 80 d8 14 3e 73 04 e7 bc 48 25 35 3a
       0.08721649 0.14535713 -0.028200364 0.00069101574
000100 6a d8 bc bd 98 24 fc bc d6 01 b8 3d a3 34 8a 3d
       -0.09220965 -0.030779168 0.08984725 0.06748321
000110 bd 42 a8 bd 9c 87 d7 bd cf ef a5 bd 10 3d 0b be
       -0.08215854 -0.10523912 -0.081023805 -0.13597512
000120 e7 7a ac bd d6 e2 8c bc c1 25 a0 3d 4e 64 21 3c
       -0.08421879 -0.017198008 0.07819701 0.009850575
000130 2c 18 d0 bd 06 dc ad bd 76 90 6b 3d 12 96 a8 bd
       -0.101608604 -0.08489232 0.057510816 -0.08231749
000140 a3 ed cf bb 8d 92 51 3d 90 84 8a bd 1c cb 93 bc
       -0.006345467 0.051165152 -0.067635655 -0.018041186
000150 05 53 1b bc f0 aa 7a bc e9 96 6e bd b1 2c ee bd
       -0.009480243 -0.015299544 -0.058249388 -0.11629618
000160 5f 65 c4 bd b7 60 80 bd 6d 33 ec 3d 9e 63 52 bd
       -0.095896475 -0.06268447 0.11533246 -0.051364534
000170 e7 3b ac bd 60 1a 01 3d 5f 67 e0 3c fd a6 99 3d
       -0.08409863 0.031519294 0.027393041 0.075025536
000180 47 24 ce 3d bd e9 94 3d 57 85 09 be 99 a7 ac 3c
       0.10065513 0.072711445 -0.13429771 0.02107601
000190 75 46 9c 3d ff 0c 58 bb 38 a2 85 bd 3c f9 00 3e
       0.07630626 -0.003296673 -0.065250814 0.12595075
0001a0 c8 99 71 bd cb af 83 bd 1e 3b fb bd 8d 2e 8e ba
       -0.058984548 -0.06430014 -0.12267135 -0.0010847613
0001b0 da 3b 79 3d 90 2a 29 3d ca 17 cc 3c 27 0f ab bd
       0.060848095 0.041300356 0.024913687 -0.083524995
0001c0 48 4d 00 be a8 c5 eb 3a 20 c6 f9 3d b5 a8 a4 3d
       -0.1252948 0.0017987983 0.121959925 0.08039991
0001d0 fd 05 9c bd 29 ee 28 bc 49 6a cb bd 4c a1 93 bd
       -0.0761833 -0.010310688 -0.09932382 -0.07208499
0001e0 65 fc 0d 3d bf 9a 80 3d 6f 91 f3 3d ce a0 eb bd
       0.03466453 0.062795155 0.11892974 -0.115052804
0001f0 db 53 9f 3d 74 24 af bd 56 e5 58 3d 8a d8 e7 3d
       0.07779666 -0.08551875 0.052953087 0.113205984
000200 a6 20 57 bb c5 4b ea 3d ce 73 e7 bd d4 5a 3e bd
       -0.0032825856 0.11440233 -0.11301385 -0.04647334
000210 4c ff 9b 3d 42 41 19 bd a2 62 f7 bc 44 ce 19 bd
       0.076170534 -0.03741575 -0.030198399 -0.037550226
000220 e1 80 be 3d 89 c0 78 3d aa b6 3d 3d d4 b5 6f bd
       0.093019255 0.06073049 0.04631678 -0.058523014
000230 d2 16 dd bd d4 1c 7f 3c 23 43 1d 3d 44 aa 38 bd
       -0.10795368 0.015570838 0.038394105 -0.045084253
000240 e5 53 2f bd f0 4a ae 3d 75 28 f3 3b 8f e4 f3 bb
       -0.042804617 0.08510387 0.0074205943 -0.007443018
000250 9f 8b de bb 30 3d e0 bd 4b db f2 bd a5 58 93 bd
       -0.0067915465 -0.109491706 -0.11858233 -0.07194642
000260 e5 78 88 bd 87 48 e3 3c 10 92 3c bd 60 7f 36 bd
       -0.06663684 0.027744545 -0.046037734 -0.044555068
000270 d7 88 08 3e b0 9d cc 3c 6c 72 e7 3d 62 65 74 bd
       0.1333345 0.024977535 0.11301121 -0.059667
000280 eb 7f 4a bd 93 aa d6 3c f3 6d a6 bd 8e 3a 99 bd
       -0.0494384 0.026204383 -0.0812644 -0.074818715
000290 75 bb 96 bc 56 e7 33 bd 06 db a9 bd 18 b5 98 3d
       -0.018399933 -0.04392179 -0.082937285 0.07456416
0002a0 62 37 d3 3d de 59 ac 3b 7f 1e 85 bc 49 eb 00 be
       0.10313298 0.0052597364 -0.016249893 -0.12589754
0002b0 56 08 3a bd d9 57 04 3d 04 57 aa 3d 9d e9 48 bc
       -0.045418106 0.03231034 0.08317378 -0.012262729
0002c0 45 4c 48 bd 92 db 79 3d 0b a0 af bd 7b 9c a3 3d
       -0.04890086 0.061000414 -0.08575448 0.07988831
0002d0 32 1c 40 bd 1d 85 70 3c df b5 86 3b 88 44 ea 3c
       -0.04690189 0.014680174 0.004111036 0.028597131
0002e0 3c 02 1e bd b1 d5 9d 3d 20 06 97 ba 3e cd ad 3d
       -0.03857635 0.07706774 -0.0011522211 0.084864125
0002f0 55 7a f1 3d 4c c8 91 bd da da be bd 0e 13 d9 3d
       0.11790911 -0.07118282 -0.093190864 0.105993375
000300 e4 32 ce 3d 73 55 be bd 4e 1b 3b 39 c2 37 e8 bd
       0.100683 -0.09293642 0.00017843882 -0.1133876
000310 52 39 d6 bd ed a0 f6 3c c7 0f 3a 3d 86 39 32 3d
       -0.10460152 0.030106032 0.045425203 0.04351189
000320 be 18 07 bd 1e 9b f3 3d 47 51 ad 3c 75 b9 80 bd
       -0.03298258 0.11894821 0.02115692 -0.06285373
000330 f0 52 b1 bb 5f b7 ed 3c cc db 1f 3d 74 41 b2 bd
       -0.0054114982 0.029018102 0.039027974 -0.087038904
000340 92 c4 49 3d 7c 69 51 bd 95 5a c8 bd 90 a6 7c bd
       0.04925973 -0.05112599 -0.09782902 -0.061682284
000350 02 eb d8 3d 0d f7 db 3d 6d a3 e6 3d 25 49 b0 3d
       0.10591699 0.107404806 0.1126164 0.08607701
000360 9a a6 c3 3d 57 4f 21 bc 72 7d 85 bd 74 04 8f 3d
       0.09553261 -0.009845576 -0.065180674 0.06983271
000370 28 e5 81 bd 26 a6 98 bd 91 1f 02 bd d4 e7 ed 3c
       -0.06342536 -0.07453565 -0.031768385 0.029041208
000380 69 78 81 3d 97 2b 26 bd 4a ef 68 bd 07 96 ca 3c
       0.063217945 -0.040568914 -0.05686883 0.024729742
000390 db 89 89 bd 51 b9 e2 bd 63 aa 88 3d 4e ce 30 bc
       -0.06715747 -0.110705025 0.06673124 -0.010791374
0003a0 9c 45 12 3e 00 31 06 3e 45 41 56 3d 0e ae 51 3d
       0.14284366 0.1310463 0.05230834 0.051191382
0003b0 0a d8 20 3d 95 1b be bb 17 89 7a bb 9f 08 9a 3b
       0.03926853 -0.005801628 -0.0038228685 0.0047007347
0003c0 fd e0 77 3d 80 1e e6 3d 99 60 cd bc 02 73 38 bd
       0.0605173 0.11236286 -0.025070475 -0.045031555
0003d0 1f 20 07 bd a3 f9 5c bd 78 ed c6 3c ca 00 e1 3d
       -0.032989617 -0.05394901 0.024283156 0.109864786
0003e0 bb 2f d1 3d 10 79 87 3d b3 f4 b5 bd 28 5d 9e bd
       0.10214182 0.06614888 -0.08884563 -0.07732612
0003f0 36 67 ec bc 43 cd 8f bc 62 5f 0b 3c 73 b8 02 be
       -0.028857809 -0.017553931 0.008506628 -0.12765674

gkf.gat_rnn.fc_delta_y_innov.2.bias f4 [64]
000000 bf f0 ad 3c 74 70 4c 3d e3 cd 4b 3c d0 69 9e bd
       0.02123296 0.04991193 0.012439224 -0.07735026
000010 52 7b 36 3d 56 3b d6 3d 57 22 94 bd 29 2a 88 bd
       0.0445512 0.10460536 -0.07233112 -0.066486664
000020 9a 52 bf bd 69 da 2a bd d0 7a fc bc 59 28 f3 3c
       -0.09341927 -0.0417122 -0.03082028 0.029682325
000030 be 58 89 3c 38 dd c5 bc 60 44 b4 3d e2 13 c6 3c
       0.016765948 -0.024153337 0.08802104 0.024179403
000040 66 a1 7a bd 63 0e 3a bd 7f ed b3 bd 88 e5 24 bd
       -0.061189078 -0.045423876 -0.08785533 -0.04025796
000050 42 59 c3 bd a4 5f 8e 3c 0e d8 b5 bd ea 31 46 3d
       -0.09538509 0.01737959 -0.088791 0.048387446
000060 6f 81 db 3d 04 b6 de bd bd 92 2b bd 8f 72 ca bd
       0.10718047 -0.108745605 -0.041887987 -0.098851316
000070 6a 21 8d 3c 5b d6 c8 3b ee 6a 54 bd 07 e1 b8 3d
       0.017227847 0.006129069 -0.05185979 0.090272956
000080 d4 c8 51 3d 8e 9b fe bd 4f 38 29 3c cb 70 13 bd
       0.051216915 -0.124320135 0.010328366 -0.03599624
000090 35 98 22 39 8e 15 53 3d 82 e3 72 3b 37 9c c2 bd
       0.00015506225 0.051534228 0.0037061875 -0.09502452
0000a0 19 82 c3 3d d3 af c2 bd 5d cd 03 bd 69 e7 85 3d
       0.095462985 -0.09506192 -0.03217827 0.065382786
0000b0 7d 2a 03 3e 34 45 0c 3e 33 c9 b7 bc 94 14 6e 3d
       0.12809177 0.13698274 -0.022434806 0.058125094
0000c0 66 42 cd bd f3 75 d8 bb ff 3c b6 bc 67 88 6f 3d
       -0.1002243 -0.0066058575 -0.022245882 0.058479693
0000d0 8b 51 93 bd 4f e0 49 3d c2 5f 5b 3d c5 fd ed 3d
       -0.071932875 0.049286183 0.05355812 0.11620668
0000e0 5a 39 bf bc 9c ac 06 3e 0b 65 d5 bd 2a 2f 4f bd
       -0.023342777 0.13151783 -0.10419663 -0.05058209
0000f0 0e 21 6b 3d 69 9b 16 3d 58 65 a8 3d ce 13 9e bd
       0.05740457 0.036769304 0.08222455 -0.07718621

gkf.gat_rnn.fc_r.0.weight f4 [64, 1]
000000 73 50 20 3f b3 6a 72 bf 1a 89 2d bf 83 94 9f bd
       0.62622756 -0.9469406 -0.67787325 -0.07791998
000010 8a 45 7b bf a9 0c 75 bf 0c 9f 63 bf 2d aa 53 3f
       -0.98152983 -0.9572244 -0.8891456 0.8268154
000020 2a c0 63 3e a2 de 9f be f9 79 39 bd ec f3 5c bf
       0.22241274 -0.31224543 -0.045282338 -0.86309695
000030 0b 6c 73 bf 17 3f 35 bf 31 27 7a bf 6d 0e 2e 3f
       -0.95086735 -0.7079939 -0.9771605 0.6799076
000040 e6 3c b9 be 2d 2b 88 be b3 1d 61 bf e2 fb 2d 3e
       -0.36179274 -0.2659544 -0.8793594 0.16990617
000050 d5 ef 18 be 4c 66 30 bf d0 ff 28 3f 26 10 60 3f
       -0.14935239 -0.6890609 0.6601534 0.8752464
000060 ce f4 37 bf 15 a4 15 3f 94 90 2d be be 31 0e bc
       -0.7185792 0.58453494 -0.16949683 -0.008678852
000070 6c 2d e1 3e 3b 42 37 be 5e de 5d 3f b4 42 1f 3f
       0.43979967 -0.17896359 0.8666743 0.62211156
000080 0e f1 2a bf f2 04 20 bf 9b 66 80 bf 89 16 aa 3e
       -0.6677407 -0.62507546 -1.0031313 0.33220318
000090 a1 ba 42 bf 4b c4 59 bf d7 c4 24 bf e9 72 7c bf
       -0.76066023 -0.85065144 -0.64362854 -0.9861284
0000a0 c7 5c 52 bf d5 d3 69 3f 0e 37 10 3f 55 c1 65 3f
       -0.82172817 0.91338855 0.56334007 0.89748126
0000b0 fb 5c fb be 6f bc d2 be 7a c3 ae be 11 bf cc 3c
       -0.49094376 -0.41159388 -0.34133512 0.024993451
0000c0 09 6b 35 bf 84 b5 1e 3e 0b ba 26 bf eb e0 18 3e
       -0.7086645 0.1549893 -0.6512763 0.1492955
0000d0 ba 50 70 3f b1 75 2f 3e b7 04 40 3f db 53 37 bf
       0.9387318 0.1713474 0.75007194 -0.7161233
0000e0 69 c4 0b be e2 27 21 bf 32 a4 ea bd 9a fd cb be
       -0.13649143 -0.6295148 -0.11457099 -0.3984192
0000f0 3e fd 13 bf 8a 01 7c bf 22 01 bd be c5 45 21 3e
       -0.5780829 -0.9843985 -0.36914927 0.15749271

gkf.gat_rnn.fc_r.0.bias f4 [64]
000000 61 cc 1b be b6 e6 6a bf d4 61 47 3f 91 7e 44 3f
       -0.15214683 -0.91758287 0.7788365 0.76755625
000010 05 0b 16 bf 5d 5d f8 3d 04 f6 2c 3f 6b 30 6f bf
       -0.58610564 0.12127183 0.6756289 -0.93433255
000020 a7 9f 62 bf 9e 63 0f 3f ed 65 3a bc f0 3f a4 3e
       -0.8852486 0.5601138 -0.01137684 0.3208003
000030 b8 dc cb be 94 cb 4c 3e 74 5d 2f 3f c9 2a 5c be
       -0.39816833 0.19999534 0.68501973 -0.21500696
000040 77 9f 9b be fb ad 74 bf 48 cf 04 be 57 2d 25 3f
       -0.303951 -0.95577973 -0.12969697 0.6452231
000050 2a ac 73 bf dc 51 80 bd 3d 46 42 3f 71 9d 84 be
       -0.95184577 -0.062656134 0.75888425 -0.25901368
000060 fa f2 b3 be 81 1c 99 be 17 af cd be eb cc 06 3e
       -0.35146314 -0.2990456 -0.40172645 0.13164108
000070 b6 7d 74 bf 40 bb c4 3e 25 d9 6e be bd 36 d5 bd
       -0.9550432 0.3842411 -0.23325022 -0.10410831
000080 6b 35 18 bd 4e 09 17 3f 2b 86 19 bf 8b 4b 67 bf
       -0.03716032 0.5899857 -0.5997035 -0.90349644
000090 0d ba 35 bf 84 2a 37 bf 91 c5 f7 be ed aa 4e 3f
       -0.70987016 -0.7154925 -0.4839292 0.8072956
0000a0 3f 94 42 bf 58 98 14 bf 7e df 4e bf 8d 10 fa be
       -0.76007456 -0.5804496 -0.8080977 -0.48840752
0000b0 3d 15 48 bc 53 e6 1a bf bc 67 49 3c 4d 9a b8 3e
       -0.012212095 -0.60507697 0.012292799 0.36055222
0000c0 a7 7d 3a be 67 6b e2 3e cf 7c 6a 3e 72 36 7c 3f
       -0.18211995 0.44222566 0.22899173 0.98520577
0000d0 e0 2a b9 bc eb 05 63 3f 95 7a 45 3f c9 ad fc 3e
       -0.022603452 0.88680905 0.7714017 0.49351338
0000e0 c6 a1 15 3f 57 24 27 bf 28 42 2a bf be 79 e7 3e
       0.5844997 -0.65289825 -0.66507196 0.4521007
0000f0 23 e5 c6 3e f4 d3 6e 3f 53 d0 0b be 46 6c 34 be
       0.38846692 0.93292165 -0.13653688 -0.17619428

gkf.gat_rnn.fc_r.2.weight f4 [64, 64]
000000 73 da a8 3d 20 0f 34 3b 59 a4 e6 3d 10 e6 9a bd
       0.08244791 0.0027474836 0.112618156 -0.07563412
000010 df 55 2d bd 47 10 61 3b fa 19 81 3d 73 b2 c7 bd
       -0.04231822 0.0034341977 0.06303783 -0.09750833
000020 43 32 b5 bc 8a f9 ac 3d 8f 03 c8 3c 6b e8 af 3d
       -0.022118693 0.08446033 0.02441576 0.08589252
000030 e6 13 33 bd 57 03 a6 bd 4e e6 b5 bd 91 72 92 bd
       -0.04372015 -0.08106106 -0.08881818 -0.07150758
000040 d0 07 c3 bd ad 2f 78 3d 76 15 03 3d 22 d4 bf bd
       -0.095229745 0.060592342 0.03200289 -0.09366633
000050 4b f2 e9 3d b4 ea 0a 3d 67 d9 08 3d 65 82 5f bd
       0.11423167 0.033915237 0.033410456 -0.054567713
000060 56 7d ae 3d a2 f9 ac bd 52 b5 b7 3d 4f ac a4 bd
       0.0852 -0.08446051 0.08970131 -0.08040678
000070 f8 11 88 3d 47 3b 56 bd 0f 6f a1 3d e3 a7 e0 bd
       0.06644052 -0.052302625 0.07882511 -0.10969522
000080 28 7d d5 bc 14 66 1b bd b9 c3 9b bd 07 03 44 bd
       -0.026060656 -0.037939146 -0.076056905 -0.04785445
000090 67 f5 14 bd 2e 46 3f 3c a1 11 b3 3d db 7f c7 bc
       -0.036366846 0.011674447 0.08743597 -0.024352958
0000a0 bf 4a f8 3d aa b2 57 bd ab 1a 54 bd 1c 1e fe ba
       0.12123632 -0.05266062 -0.051783245 -0.0019387635
0000b0 87 9e c7 bc 6a 17 1d 3d 73 b4 e8 3d 6e e3 ea 3c
       -0.024367584 0.038352408 0.11362543 0.0286729
0000c0 77 4b d9 bd 9b 06 67 bd 44 4e df bc 8f 94 02 be
       -0.10610097 -0.056402784 -0.027259 -0.12751983
0000d0 7a 07 01 3d b5 7b c3 3d fe 53 49 3d 74 ed c1 bb
       0.03150127 0.095450796 0.049152367 -0.005918199
0000e0 3f b4 9c bc ec 16 75 bd e1 5f 6c bc 5b df d6 3d
       -0.019128917 -0.059836313 -0.014427156 0.104918204
0000f0 ab 84 8a bd c8 4d 81 3c a9 ba be bd c2 61 b1 bc
       -0.06763586 0.01578416 -0.09312946 -0.02165306
000100 42 30 cc 3c d1 40 b5 bd 73 01 31 3d a5 fa b8 bd
       0.024925355 -0.088502534 0.043214273 -0.09032182
000110 73 83 37 bd 67 f2 c0 3d 76 b3 00 3e c0 a6 04 3b
       -0.044803094 0.094212346 0.12568459 0.0020240992
000120 53 d6 ca bd 8a 2a bc bd 83 ef c1 bc c9 d1 65 bd
       -0.0990416 -0.09187801 -0.023673778 -0.05610827
000130 44 bc d8 3d c1 18 a7 bd 78 2a ab 3d 3f 43 28 3d
       0.10582784 -0.08159018 0.0835771 0.041079756
000140 04 1a 03 bd 04 4c d3 3d d4 64 9c 3d a0 52 87 3c
       -0.032007232 0.10317233 0.07636419 0.01651889
000150 fa 68 b9 bd e3 d6 f4 bc 81 ce 7b 3d b8 c7 00 3e
       -0.09053226 -0.029887622 0.061476234 0.12576187
000160 db a8 12 bd ee 12 12 bd 30 88 f2 bd 52 46 c1 3d
       -0.035805564 -0.035662584 -0.11842382 0.09437241
000170 53 1d fe 3d a0 ec c7 3d b1 84 55 bd a0 58 dc 3d
       0.12407937 0.097619295 -0.052128498 0.107590914
000180 64 35 fe bc 8c f4 97 3d ea 97 a2 3d 84 94 d6 bd
       -0.031031318 0.074196905 0.079391316 -0.10477546
000190 e7 3a 17 3d e4 50 65 3d 33 5a 8d bd da 39 fe 3d
       0.036921408 0.055985346 -0.0690197 0.12413378
0001a0 9c 25 d4 3d 61 a8 f5 3d ec 0f 0b 3c 88 1a 50 bd
       0.10358736 0.11995006 0.008487683 -0.050806552
0001b0 7b 75 7b bd f6 3e 4b 3d 6b c9 90 bc c7 53 f3 3d
       -0.061391335 0.04962059 -0.017674169 0.11881214
0001c0 20 33 e4 3d cc ac fc 3c 8d e8 c1 bd 71 77 8f 3d
       0.11142564 0.030844115 -0.09468184 0.070052035
0001d0 bd a7 05 3e 03 bb 30 bc 92 a9 35 bd 71 90 ab bc
       0.13052268 -0.010786775 -0.044351168 -0.020942898
0001e0 4f fc 04 3d ba ef b1 bd 41 bc 7c 3d f1 53 80 3d
       0.032467183 -0.08688302 0.06170297 0.062660106
0001f0 e8 f9 21 bd a9 5f 19 bd 8a 18 58 bd db 4f de 3d
       -0.03954497 -0.037444744 -0.052757777 0.10855075
000200 c6 c7 89 3d bb e1 dd 3c 61 a6 6e bc 89 da b1 3c
       0.06727557 0.027085176 -0.014566035 0.021710651
000210 e9 9a e5 3d f4 e7 fd 3c 91 b2 91 bd f2 d4 2c 3d
       0.112111874 0.030994393 -0.07114137 0.042195268
000220 a7 b3 45 bd ec 5f 5f bc bb 28 b7 bd 41 c6 49 bc
       -0.048267033 -0.013633709 -0.089433156 -0.012315334
000230 80 b5 01 bb 46 fb ac bd 29 8b 92 3d 4d 7d de 3d
       -0.001979202 -0.08446364 0.07155449 0.10863743
000240 b3 90 e7 bd ad 19 ec 3c f7 59 c2 bd 4a 60 08 bd
       -0.11306896 0.028820837 -0.09489816 -0.033294953
000250 55 f6 61 3d 5c 23 30 bc 12 45 f7 3c 25 d4 41 bd
       0.05516656 -0.010750618 0.030184302 -0.047321457
000260 20 e5 e2 3d ad e1 85 bd a0 d5 77 3c 14 6b 56 3b
       0.110788584 -0.06537185 0.015126616 0.0032717632
000270 99 65 a4 3d a8 bb 5d 3b f9 88 8c 3d 3a 30 cf 3c
       0.08027191 0.0033833776 0.06862063 0.02529155
000280 75 c2 91 3d 75 5a f0 bb d3 f1 07 3d 96 78 f5 3d
       0.07117168 -0.007335002 0.033189606 0.119858906
000290 ee 8f 49 bd 12 2e 73 bd 2e 7c a8 3d 08 99 1f 3d
       -0.049209528 -0.059370108 0.082268104 0.0389643
0002a0 06 83 01 be 9a 1c 1b 3d f5 b4 03 be b6 ac 98 bd
       -0.12647638 0.037869073 -0.12861998 -0.07454817
0002b0 62 6d 25 3d 28 35 6b 3d 11 c1 16 bd 33 e3 c5 3d
       0.04038752 0.05742374 -0.036805216 0.096624754
0002c0 26 f3 ec 3d a3 be b6 3d ef e5 fc bd 85 ab 5e bd
       0.115698144 0.0892308 -0.12348544 -0.054362793
0002d0 3d 90 25 3a 30 42 be 3d 42 24 ea bc 9b eb 8d 3c
       0.00063157437 0.09289968 -0.028581742 0.01732426
0002e0 19 7e 66 3d 35 4c 97 bd 46 fb a4 bd 1b cc ea 3d
       0.0562726 -0.07387582 -0.08055739 0.11464711
0002f0 d6 cb 3d bc 53 e6 a2 3d 1e 81 05 be c6 38 5b bd
       -0.011584243 0.07954087 -0.13037536 -0.05352094
000300 ae 51 ab 3d 6a d2 42 bc 4c df 0e 3d 37 a8 f8 bd
       0.083651885 -0.011890987 0.03488092 -0.121414594
000310 8e fe f7 3d be 07 86 bd fb bb 43 bc 96 d2 a3 bd
       0.12109099 -0.065444455 -0.0119466735 -0.079991505
000320 a0 4b 48 bd f1 2d ef bd 45 0f e4 bd 68 42 f2 bc
       -0.048900247 -0.116786845 -0.11135725 -0.02957268
000330 b6 96 66 bd cb 94 b5 3d ab 10 c5 bb dd 14 c0 3d
       -0.056296073 0.08866271 -0.00601395 0.09378979
000340 90 99 ab bc 27 93 ef 3c 28 a5 f1 3d 89 b8 ea bd
       -0.020947248 0.029244972 0.11799079 -0.114609785
000350 9b 5b 41 bd e8 2b d6 3d 03 8c 2b bd b4 a4 18 bd
       -0.047206502 0.10457593 -0.041881572 -0.03726645
000360 a1 ee 14 3c fd 7b 8d bd 09 18 30 3c 92 32 8d bd
       0.009090097 -0.069084145 0.010747918 -0.06894411
000370 0a f9 37 3d 5f 99 18 bd b4 12 3b bd 66 f7 53 bd
       0.044915237 -0.03725564 -0.045672134 -0.05174961
000380 c9 f1 f6 3c d4 95 66 3d fc 4b eb bd 56 87 a6 bd
       0.030144589 0.05629523 -0.11489102 -0.08131282
000390 8b 78 f5 bd b9 be 6e 3d 7b 8c bf 3d 10 04 01 be
       -0.11985882 0.058287356 0.093529664 -0.12599206
0003a0 38 75 05 3d 4b f5 c6 3c 9d 33 83 bd 40 bd ce 3c
       0.03258249 0.024286887 -0.06406329 0.025236726
0003b0 32 5f c0 3d b7 aa fc 3d 2b df 51 3d 0a 5d 30 bd
       0.09393157 0.12337249 0.05123822 -0.04305748
0003c0 49 3e 95 bd b8 1f 85 bd b7 6b 3f bb 67 32 e1 bc
       -0.072872706 -0.065001905 -0.002920849 -0.027489854
0003d0 15 05 af 3d c8 43 06 be e9 a5 c2 ba 3b c0 38 bd
       0.08545891 -0.13111794 -0.001485047 -0.0451052
0003e0 a2 f4 7a bb 92 ca f6 3d 2a bd 21 3c a4 64 ec bc
       -0.0038292785 0.12050356 0.00987176 -0.028856583
0003f0 56 05 43 bd 7d 5b 06 be f5 a4 ea bd 99 a6 69 3d
       -0.04761251 -0.13120838 -0.11457244 0.057043646

gkf.gat_rnn.fc_r.2.bias f4 [64]
000000 9e 7a bc 3c 08 0b ea 3d f8 4f 80 3c b3 ba eb 3c
       0.023007687 0.11427885 0.015663132 0.028775549
000010 be b5 9b bd 81 f5 a7 bd 00 2a 87 bd a7 e2 82 bd
       -0.07603024 -0.08201123 -0.06599808 -0.06390887
000020 14 65 15 bd f2 b9 a3 bd 41 58 3c bd 2c ae ab bd
       -0.03647335 -0.07994451 -0.045982603 -0.0838283
000030 4b f7 61 3d c6 04 0b 3d ff 57 ee 3c 8f 88 88 3d
       0.055167478 0.0339401 0.029094694 0.066666715
000040 e9 e4 e3 bd 43 dc 2f bd 05 16 93 bb 2a 82 da bd
       -0.111276455 -0.042934667 -0.004488709 -0.10669358
000050 f5 aa 6d 3d fc c6 bf bd 90 a6 e1 3d 8a bd f6 3d
       0.058024365 -0.09364125 0.110180974 0.120478705
000060 23 a3 0a 3c 3b 67 39 bd 86 0d f0 3d 93 06 9c bd
       0.008461746 -0.045264464 0.117213294 -0.076184414
000070 f3 55 a3 3c ab 81 7e 3d e0 c6 12 3e 7d dd 26 3c
       0.019938445 0.06213538 0.14333677 0.010184643
000080 d9 bb 62 3c b5 9c 83 3b ba d4 d0 bd 1c c2 44 3d
       0.013838732 0.0040164837 -0.10196824 0.04803668
000090 69 97 bf bd eb a2 94 bb f8 49 de bc 25 94 e0 3d
       -0.09355051 -0.004536023 -0.02713488 0.10965756
0000a0 99 20 f6 bc fa 35 9c 3d ea 22 2e bb e4 b5 a5 bb
       -0.03004484 0.07627483 -0.0026571103 -0.0050570834
0000b0 fb d3 bf bd 9b f8 0d 3e 47 77 c9 3c a6 6d df bd
       -0.09366604 0.13864367 0.024593009 -0.10909586
0000c0 38 63 08 3d 68 37 aa 3d 49 b0 5d bd 60 6b f4 3d
       0.033297747 0.08311349 -0.054123197 0.11934543
0000d0 1c 01 9d 3d aa 59 e6 bc 52 08 13 3e fc 42 e3 3d
       0.07666227 -0.028118927 0.14358643 0.11096761
0000e0 ad 37 82 bc 3e c1 e9 3b 9f d3 3e 3d e1 92 ac bc
       -0.015895689 0.007133632 0.046588536 -0.021066131
0000f0 68 db b8 3d 27 b9 c5 bd b0 28 a6 bd a7 42 97 3d
       0.090262234 -0.09654456 -0.08113229 0.0738576

gkf.gat_rnn.r_input_gru.weight_ih_l0 f4 [192, 64]
000000 52 f0 df bd 4e d2 48 bd c2 fc 92 bd cd da 8f 3d
       -0.10934509 -0.049028687 -0.07177116 0.07024155
000010 84 7a 1d bb fd 58 cd bd a7 6e 99 3d e7 39 83 bd
       -0.0024029324 -0.10026739 0.074918084 -0.06407528
000020 14 75 a8 bc 48 d0 10 3d e8 fe ac bd ff 59 a8 bc
       -0.02056364 0.035354882 -0.08447057 -0.020550726
000030 0f 0d 5d bd 37 06 1e bd 49 09 5d bd 53 a2 94 3d
       -0.05396753 -0.038580146 -0.053963933 0.072575234
000040 91 57 94 bd c2 93 b4 bd ec f0 42 3d 53 74 12 3d
       -0.072432645 -0.08817245 0.047593042 0.035755467
000050 94 c8 1d 3c d5 91 98 3c 78 a2 de 3d 4d 52 0d bd
       0.009630341 0.018624226 0.10870832 -0.034502316
000060 fb 20 d6 bd 11 32 fc bd cb 3a d9 3c 4d 9a 28 3d
       -0.10455509 -0.12314237 0.026517292 0.041162778
000070 b4 94 a9 3a 6a c9 e7 bd e6 d8 d8 bd 0e cb bc bd
       0.0012937994 -0.113177136 -0.10588245 -0.09218417
000080 23 b6 94 3d b7 80 84 3c 2e 06 9e bd 47 7c 01 be
       0.07261302 0.016174657 -0.077160224 -0.12645064
000090 c8 41 81 3d 48 7f 73 bb 05 5b bd 3d ab 43 e3 bd
       0.06311375 -0.0037154723 0.09245876 -0.11096891
0000a0 1c c3 e0 bd e3 cf e6 3c ba 8d 98 3d e4 87 94 3d
       -0.10974714 0.0281753 0.07448907 0.072524816
0000b0 8a 6c f0 3d 37 d8 92 3d 21 73 46 3d 55 b0 8b bd
       0.11739452 0.07170146 0.04844964 -0.06820742
0000c0 37 29 e7 3d b3 0f 84 bd 8c 0a b4 3d 6d 0c 45 3d
       0.11287158 -0.06448307 0.08791074 0.048107553
0000d0 ca 49 a6 bd df 11 0c 3c 9b ac 11 bc 44 86 b3 3d
       -0.08119543 0.008549183 -0.00889125 0.087658435
0000e0 92 0a 9f 3d 58 d0 a7 3c ab d2 a8 bd 53 db ec 3c
       0.07765688 0.020485088 -0.08243307 0.028913176
0000f0 a8 ec c6 3d 0f 39 9b bd 87 45 e8 3d 44 21 f2 3c
       0.09713107 -0.075792424 0.11341386 0.029556878
000100 25 92 89 3d 28 d8 33 3d eb 5d a5 3d 35 b1 e0 bd
       0.06717328 0.043907315 0.08074554 -0.109712996
000110 92 53 59 3d 93 01 e0 bd 17 d8 a7 bb 5e 42 cb 3d
       0.053058214 -0.109378 -0.0051221955 0.09924768
000120 0e 71 d1 bd 0c fe bd bd f8 a7 61 bd c7 44 32 3b
       -0.102266416 -0.09276971 -0.055091828 0.002720164
000130 9b f1 8d bc 83 fd c5 bd 9d d7 95 3c cb 1b 03 bd
       -0.01732712 -0.09667494 0.018291289 -0.032008927
000140 14 54 65 bd d8 3b a2 3b e4 db 36 3d 06 dd 93 3c
       -0.055988386 0.0049509816 0.044643298 0.018049728
000150 fd dc 9c bd 08 9d b8 3d c3 df c9 3c d5 d3 45 bd
       -0.07659338 0.09014326 0.02464283 -0.048297722
000160 86 01 db 3d aa 85 dd 3c 86 e8 95 3d f5 e6 b2 3d
       0.1069365 0.027041275 0.07319741 0.08735458
000170 16 84 7f 3b b3 25 d9 3d 24 6d cc b9 0a 84 cc 3d
       0.0038988641 0.10602894 -0.00038991228 0.09986122
000180 38 2c 82 3c b0 b5 72 3d e1 11 7f 3d ee 2d 80 bd
       0.015890226 0.059255302 0.06227291 -0.062587604
000190 d7 40 e5 3d 12 82 fa 3b 7c e0 40 3d f7 27 c1 bd
       0.11194008 0.0076449 0.047089085 -0.09431451
0001a0 94 66 46 bd b8 05 a6 3d 4c 7a 9f bd bc ef bd 3c
       -0.04843767 0.081065595 -0.07786998 0.023185603
0001b0 6d d6 da 3d d5 29 e8 bd 50 eb 17 3a a7 df a8 3c
       0.1068543 -0.11336104 0.0005795257 0.020614458
0001c0 b2 a7 aa 3d aa 82 29 bd d5 b9 fd bd bf c1 92 bd
       0.083327666 -0.041384377 -0.1238896 -0.071658604
0001d0 24 6f fc 3c 87 77 c7 bd 2b 3d d4 bd 42 4a 0c bb
       0.030814715 -0.09739595 -0.10363229 -0.0021406566
0001e0 60 a6 ff 3c 96 3e 9e bd f2 f3 3f bd a4 75 8c 3d
       0.031207263 -0.07726781 -0.046863504 0.06858376
0001f0 78 dd a8 bd d7 8f c3 bd 25 f2 1f bd a5 5f d3 3d
       -0.08245367 -0.0954892 -0.039049286 0.10320977
000200 78 ff 1e bd 88 23 be bd 71 4e c2 bd 00 90 bb bc
       -0.038817853 -0.09284121 -0.09487618 -0.022895813
000210 bc 03 a4 3d 28 ba 2c 3d 3e fb 43 bd 28 8d ed bd
       0.08008525 0.04216972 -0.047847025 -0.11599189
000220 bf 51 a7 bd 65 1e 96 3c 0c e9 d7 3d f9 92 71 3d
       -0.08169889 0.01832504 0.10542497 0.058978055
000230 ef 3c aa bc cb 73 79 3d 74 93 1e 3b 93 72 32 3c
       -0.020781009 0.060901444 0.0024196776 0.010891574
000240 e2 db 3c 3d 14 f0 2d bd 04 13 c7 3c c1 f9 c7 3b
       0.046108134 -0.042465284 0.02430106 0.006102771
000250 8f 86 00 3d ed c0 10 bd 83 70 9c 3d 65 d7 ec bd
       0.031378325 -0.03534024 0.076386474 -0.11564521
000260 80 f5 b7 3d a9 de de bd ec d0 be bd 81 03 a7 bd
       0.08982372 -0.10882313 -0.093171924 -0.08154965
000270 e6 ca a5 bc 21 2e c9 bc 0c ad 02 be 81 61 79 3d
       -0.020238351 -0.024558129 -0.12761325 0.060884003
000280 5a 11 be 3c f6 23 ec 3d 37 f9 c1 bd c0 b7 e8 bd
       0.023201633 0.115302965 -0.09471362 -0.113631725
000290 ed a4 db 3c 23 e9 ac 3d 9d e6 a1 3d 00 75 39 3d
       0.026812041 0.08442905 0.07905314 0.045277596
0002a0 5a 82 46 3c 76 03 91 3d 52 70 6a bd c5 4e 0a be
       0.012116039 0.07080738 -0.057236023 -0.1350661
0002b0 bc 87 e0 bd 81 41 ba bd 5f 05 a4 3c c1 35 f2 3d
       -0.10963389 -0.09094525 0.020022092 0.11826659
0002c0 8c 1e 97 3d 98 86 b1 bd 13 6d 2b 3d 35 13 d6 3d
       0.07378873 -0.0866825 0.04185207 0.10452882
0002d0 5f bf 90 bb 5d 67 b8 bc 08 44 96 bd 2d fc 8a bc
       -0.0044173445 -0.022510225 -0.07337195 -0.01696595
0002e0 a2 2e b3 3d ba 4d 2f bd 9f 9e ed bc e6 74 61 3d
       0.08749129 -0.042798735 -0.0290063 0.055043124
0002f0 41 63 61 bd f5 e2 8e bd cc cd bc 3c 64 78 ae 3d
       -0.055026297 -0.06976882 0.02304735 0.085190564
000300 fa af 17 3c 2c 5b 95 bc 00 97 e2 bd 42 0a bc 3d
       0.009258265 -0.01823195 -0.11063957 0.09181644
000310 6c f5 e3 bb 02 9c 78 bd 3f 87 e3 bd 33 30 94 bd
       -0.006956747 -0.060695656 -0.111097805 -0.07235756
000320 38 d2 ca bd 27 aa 81 3c 2f f9 b7 3d d6 7e fe bc
       -0.09903377 0.015828205 0.08983075 -0.03106634
000330 ce 8a 89 3d e8 6c 17 bd df cb 93 bd fd 6d 00 be
       0.06715928 -0.036969095 -0.0721662 -0.12541957
000340 80 e7 c6 bd 27 f5 a5 3d fd 7b 91 3d f3 59 e0 3d
       -0.09712124 0.081034 0.07103727 0.109546565
000350 94 17 08 bd 04 cf b4 3c 9f 79 bf bc de f1 e5 3d
       -0.03322561 0.022071369 -0.023373423 0.11227773
000360 5e d2 b2 bd 69 37 5b bd a4 05 0e be c3 8d 75 3b
       -0.087315306 -0.05351964 -0.13869339 0.003746853
000370 46 8b ef bd fe 8b ca bd 00 86 95 3c 28 3b eb 3d
       -0.11696486 -0.09889983 0.018252373 0.114858925
000380 2f 28 b9 3d 45 78 97 3d 69 79 2a bd df 23 ad bc
       0.090408675 0.073959865 -0.041619692 -0.021135269
000390 f3 01 fa bd 2e c3 8f 3d cd 75 36 3d 96 5e c7 3d
       -0.12207403 0.070196494 0.044545937 0.09734838
0003a0 7f 8e 08 be db 90 99 bc e1 18 bc bd af c2 dc bd
       -0.13335608 -0.01874583 -0.09184433 -0.107793204
0003b0 1c 03 aa bd a0 15 b1 3c 7b 22 8e 3d 7e 88 86 3d
       -0.08301374 0.021616757 0.069401704 0.065690026
0003c0 52 2c 61 bd 6a 33 36 3d bd df 0a 3e 7e 63 54 bc
       -0.054973908 0.044482626 0.13561912 -0.012963174
0003d0 dd d3 58 bd 2c a9 d6 bd 8a 2b 88 3d 21 71 27 bd
       -0.052936424 -0.10481486 0.066489294 -0.040879373
0003e0 2b 49 c6 bd be 8e 6e 3d e3 5b 58 3c 54 80 7c bd
       -0.096819244 0.0582416 0.013205501 -0.06164582
0003f0 f5 b9 0c be 62 98 07 bb 99 12 02 bd 30 ff 2c bd
       -0.13742812 -0.0020690192 -0.031756017 -0.042235553

gkf.gat_rnn.r_input_gru.weight_hh_l0 f4 [192, 64]
000000 22 78 11 bd 26 cd 81 bd 5e 78 e4 bd 9a 84 c2 bc
       -0.03551496 -0.06337957 -0.11155771 -0.02374487
000010 2f 94 70 bd dd 0e de 3d f6 42 fe 3d 3f 4b 90 bd
       -0.05873507 0.10842679 0.124151155 -0.07045602
000020 45 1f 39 3c 02 48 b9 bd dd 16 4b 3d 2a 3e b6 3d
       0.011298959 -0.090469375 0.04958235 0.088985756
000030 50 00 94 bd 04 7a 9a bd 1e 80 b5 bc 24 dd cb 3d
       -0.07226622 -0.07542804 -0.022155818 0.099542886
000040 07 7c c6 3d eb dc 97 bd fd 44 80 3c 09 a6 cd bd
       0.09691625 -0.07415184 0.015657896 -0.10041434
000050 ba f3 fe 3d 1d 4d 66 3d cb 78 50 bd 61 16 89 3d
       0.12448831 0.056225885 -0.050896447 0.066937216
000060 0f 4a 7a 3c 79 26 a0 bd 95 93 f8 bd 2e 06 a0 3d
       0.015276446 -0.07819838 -0.12137524 0.07813679
000070 d7 34 c9 bd 32 40 a2 3d f4 51 17 bd 62 b9 9a 3d
       -0.098245315 0.079224005 -0.03694339 0.0755489
000080 51 58 3f 3d 19 48 8b 3d 36 dd 61 bd 4b b7 96 3d
       0.046715084 0.06800861 -0.055142604 0.07359179
000090 5f f9 be 3c 32 39 24 bb b3 dd 05 bc 52 f7 bd 3a
       0.023312269 -0.0025058505 -0.008170533 0.0014493263
0000a0 86 3c 82 3d f3 b5 90 3d d3 72 27 bd 9c 4d 65 bc
       0.063592 0.07065954 -0.04088099 -0.013995554
0000b0 0f 17 1a bd 55 51 07 bd fd 0b 80 3d 01 0f d5 3d
       -0.037619647 -0.03303655 0.062522866 0.104032524
0000c0 34 4e 82 3d c1 b8 2f bd 50 2e 90 3d 75 78 d3 3d
       0.06362572 -0.042900804 0.070400834 0.1032571
0000d0 6d 7a aa 3c bf ee f8 3d 4f aa 01 3d 5b 58 27 bd
       0.02081033 0.12154912 0.03165656 -0.040855747
0000e0 5b 55 24 3d f9 39 f9 3c 07 7b 20 3d fe ad bf bc
       0.040120464 0.030423151 0.039179828 -0.023398396
0000f0 5e 25 ae bd a6 34 00 be b8 90 9f bd 86 c7 a5 3d
       -0.08503221 -0.12520084 -0.07791275 0.08094697
000100 be 6c f2 bc f0 f8 d1 bd 60 73 e0 3d 15 f0 e7 bd
       -0.029592868 -0.10252559 0.10959506 -0.11325089
000110 ac ae d0 3c 18 08 da 3d 10 f3 93 bd e5 5d 39 bb
       0.025473915 0.10646075 -0.07224095 -0.0028284725
000120 03 70 ea 3d 55 9c e4 3d 02 e1 ac 3d c3 2b ce bc
       0.11447146 0.111626305 0.08441354 -0.025167352
000130 cd 16 a2 3d 55 03 70 3d 96 51 30 3c 69 8a e8 3d
       0.07914505 0.058596928 0.010761639 0.11354525
000140 3a fb d9 3c 3b 96 a0 3d b5 ef d1 bd a3 32 10 3d
       0.026609052 0.07841154 -0.102507986 0.03520454
000150 ad 66 e5 bd de 72 c1 3c 92 e4 14 3d ac 50 9b 3d
       -0.112012245 0.023614343 0.036350794 0.07583746
000160 2b 11 7b 3d 27 9a 46 bd 87 51 91 3d 5b d3 fd bd
       0.06129567 -0.048486855 0.07095628 -0.123938285
000170 b7 44 d7 3d e2 99 6a 3d 50 47 9c bc b6 79 25 3d
       0.10511153 0.05727566 -0.019076973 0.040399276
000180 5d ac 91 3d a5 d7 cd bd cd 1f a8 3d ec 7f 12 3d
       0.07112954 -0.100508966 0.082091905 0.035766527
000190 6c b7 06 3e 53 3d 77 3c 3f 21 53 3c 4c a3 ce 3c
       0.13155907 0.015090304 0.012886344 0.02522435
0001a0 b7 8a d3 3d d0 d3 d1 bd 27 6f 90 3d 78 80 93 3d
       0.10329192 -0.10245478 0.070524506 0.07202238
0001b0 01 5a 6f bc fc aa 93 bd 83 89 c7 3d 86 6d 8e 3d
       -0.014608861 -0.07210347 0.09743025 0.06954484
0001c0 e0 37 f0 bc 68 59 51 3c ae 1f 24 bd 2b c2 4b bd
       -0.029323518 0.012777664 -0.040069275 -0.04974572
0001d0 ee 37 e6 3d e5 d3 5d 3d 85 4c bf 3a 18 61 a5 3d
       0.112411365 0.054157156 0.0014594948 0.0807516
0001e0 c6 72 b4 3d dd 39 83 3d 31 66 64 3d 4c e4 bc bd
       0.08810954 0.06407521 0.05576152 -0.09223232
0001f0 50 33 5d bd 64 e6 e9 3d 85 69 2b 3d f6 68 15 3d
       -0.054004014 0.11420897 0.04184868 0.03647705
000200 f0 39 9f bd bb 1c 54 bd 90 5c 48 bd 2c 66 5c 3d
       -0.077747226 -0.051785212 -0.0489164 0.053808376
000210 3c 84 46 bd 0a 47 d4 3d dc 48 a7 bd ef c3 ae bc
       -0.048465952 0.10365112 -0.08168194 -0.021333663
000220 01 60 dc 3d 29 f2 65 bd 35 d0 01 3c 6c f1 09 bd
       0.10760499 -0.056139145 0.007923176 -0.033677503
000230 2f a6 42 3d f9 44 6e bd fe 73 c8 bd bb bc 50 bd
       0.047521766 -0.058171246 -0.09787749 -0.050961237
000240 65 e0 42 3d c3 8b e3 bc 7d eb b5 bd 97 77 bd bc
       0.04757728 -0.027776605 -0.088828065 -0.023128314
000250 1c 65 6a bd d7 58 dc 3d 0e 80 89 bc 3a fd 46 3d
       -0.05722533 0.10759132 -0.016784694 0.04858134
000260 df a0 e8 3d ca 8c aa bd 34 17 49 3d f5 17 c3 3c
       0.11358809 -0.08327635 0.049094394 0.023815135
000270 48 22 e1 3d 97 6d 68 3a 07 db 08 3d 4e c2 f1 bd
       0.10992867 0.0008866428 0.033412006 -0.11804639
000280 3b 16 fb 3d f4 45 c0 bd 80 19 c5 3d 8e 7f a3 bd
       0.122600995 -0.093883425 0.09624004 -0.079833135
000290 7d 8b e6 3c 4b 8a 73 ba 19 84 bf 3d 2d ba f0 bd
       0.028142685 -0.00092903216 0.093513675 -0.1175426
0002a0 f5 dd da 3d c7 6c e7 3d 5e 8e 34 3d a3 26 f0 3d
       0.10686866 0.113000445 0.044081084 0.11726119
0002b0 58 79 d7 3d 7d 53 50 3c bb 80 84 3d f5 ad 78 3b
       0.10521191 0.012715218 0.06469866 0.0037945483
0002c0 5b 06 e4 3c 9a 94 a3 bd 22 9e eb bc f9 4a 6b bd
       0.027835062 -0.07987328 -0.028761927 -0.057444546
0002d0 00 20 97 bd 1d 7b 9b bd 9d 8a 61 bd e1 34 a2 3c
       -0.073791504 -0.07591841 -0.055063833 0.019800605
0002e0 38 d4 15 bc e9 89 7b 3d dc 80 47 3d 71 c3 14 bd
       -0.009144835 0.06141082 0.048706874 -0.0363192
0002f0 25 89 a7 3d bb cf b5 bd b9 e6 87 bd ba 1a 01 3e
       0.08180455 -0.08877512 -0.06635804 0.12607852
000300 09 6b 3a 3d f7 f0 8a 3d 35 cb 08 be 33 7b 9f 3d
       0.045512233 0.06784242 -0.13358767 0.0778717
000310 3e d6 c1 bd 40 88 e8 3c 89 5f 51 bd 71 2b 17 3d
       -0.094646916 0.028385282 -0.0511165 0.036906663
000320 c1 4d 6d bd bc 64 f7 bd 56 70 d9 bd 4f 02 ad bd
       -0.05793548 -0.120797604 -0.106171295 -0.08447706
000330 5c b9 34 bd 8e 15 75 3c 4a cf 17 bd 1d 97 2f bd
       -0.044122085 0.014958752 -0.03706292 -0.042868722
000340 b5 7b 0f 3d fe 65 f0 3d d0 3f 16 bd 19 ef c9 3d
       0.035030086 0.117382035 -0.03668195 0.098600574
000350 6e 90 82 bd 31 5f c8 3d db 3b 26 bd 9c 1f 6a bd
       -0.06375204 0.09783781 -0.040584426 -0.05715905
000360 18 af 18 bd 1d 52 9a bc a5 8b ba bd 7b f0 c1 3d
       -0.037276357 -0.018837983 -0.09108666 0.09469696
000370 a2 8c c5 bd d2 ea 16 3c 17 f3 de bd 2a a1 9a bd
       -0.09645964 0.009211259 -0.108862095 -0.07550271
000380 d8 74 91 3c 78 07 49 bc ea 96 f4 bc cd cd 19 3b
       0.01775591 -0.012269847 -0.029857118 0.0023468614
000390 30 f1 48 bd a1 33 f7 bd d6 70 f6 3b f4 33 d2 3c
       -0.04905814 -0.12070394 0.0075207753 0.025659539
0003a0 e1 33 c7 3d 30 76 82 bd f9 d7 b4 bd 7b c5 e1 bd
       0.09726692 -0.06370199 -0.08830256 -0.110239945
0003b0 55 fd 90 3d dd 98 e2 bd 8b 6b b5 3d ac d8 29 3d
       0.07079569 -0.110643126 0.08858403 0.0414664
0003c0 f7 88 c9 3d 31 d9 2c bd e1 a5 ae 3d f6 de 36 bd
       0.09840577 -0.042199317 0.08527733 -0.044646226
0003d0 1d 52 33 bb 91 69 de 3d a7 45 71 bd 09 db fb bc
       -0.0027362176 0.10859979 -0.058904316 -0.030744093
0003e0 8c ed d2 3c 73 8d 4a 3d b8 43 9b bb 8e e6 a9 bd
       0.025748037 0.049451303 -0.0047382973 -0.08295928
0003f0 d4 dc 0d bd 2b b9 0b 3d 3f 50 af bd a6 d0 e0 bd
       -0.034634426 0.034112137 -0.085602276 -0.109772965

gkf.gat_rnn.r_input_gru.bias_ih_l0 f4 [192]
000000 23 b4 fd 3d 63 64 85 bd f7 e1 9b bd ed 20 6b 3d
       0.12387874 -0.06513288 -0.07611459 0.057404447
000010 35 2c 4b bc 65 ce f5 3d 13 f0 94 bd bb 48 65 3d
       -0.0124006765 0.12002257 -0.07272353 0.055977564
000020 1e e9 fe 3c 5b 72 90 3c da af f6 bd 7c a2 16 bc
       0.031117018 0.017632654 -0.1204526 -0.009194013
000030 74 96 a4 bb d3 58 83 bd db 48 b8 3d 93 86 ef 3d
       -0.005022818 -0.06413426 0.08998271 0.1169559
000040 8f e4 ef 3d c2 b9 a5 3d ee f5 90 bc fa 87 87 bd
       0.11713516 0.08092071 -0.017695393 -0.06617732
000050 9d a7 bb 3d 60 f0 ae 3d 66 df 66 bd 74 63 79 3d
       0.09162829 0.08541942 -0.056365393 0.06088586
000060 4a 3b 33 bd 72 c8 07 bd d4 49 d8 3d e7 3a d9 3d
       -0.043757714 -0.033150144 0.105609566 0.10606938
000070 11 1d b6 bd 94 18 8f 3d 59 53 ca 3d a3 41 4e 3d
       -0.08892263 0.0698711 0.098791786 0.050355565
000080 22 cf 4b 3d 54 20 fb 3c b4 df 5b 3c 45 72 91 3d
       0.049758084 0.030655064 0.013420034 0.07101873
000090 96 4c 86 bd d4 10 99 3b 3f d5 09 bd e4 05 93 3d
       -0.06557576 0.0046711955 -0.033650633 0.07178858
0000a0 6c 96 bf bd e0 05 61 3d 7a 51 7c bd 87 ca 91 3d
       -0.093548626 0.054937243 -0.06160114 0.07118707
0000b0 fb 17 2c bb 60 53 fc 3c 6c 23 52 3d 3e 67 27 3d
       -0.002625941 0.030801475 0.051303312 0.040869944
0000c0 d1 6e 8e 3d 0e 47 a8 3d d9 05 51 bc 43 bd 45 bd
       0.0695473 0.082166776 -0.012757742 -0.048276197
0000d0 aa cd 45 3d f7 d9 fd bd 1c a2 1e 3d 6a ad 92 3d
       0.04829184 -0.12395089 0.03872882 0.07161982
0000e0 d0 80 d4 3d a8 3d c1 3d 68 f6 86 bd 81 cb ad bd
       0.103761315 0.09435588 -0.06589967 -0.08486081
0000f0 17 ad 06 bd ce a3 01 be f9 6b 32 3c 2b 07 74 3d
       -0.032879915 -0.12660143 0.0108900005 0.05957715
000100 cc 8a 4c 3d 81 46 05 be 5f ab 23 3d 4d 35 9e bd
       0.049937055 -0.13015176 0.039958354 -0.0772501
000110 11 20 83 bd 04 82 d9 bd 6c f8 71 bd 21 eb 80 bd
       -0.064026006 -0.10620502 -0.059074804 -0.06294847
000120 0e e0 8a bd b1 cc 90 3d d4 bd ca bc 48 f4 6e 3c
       -0.06781016 0.07070292 -0.02474872 0.014584608
000130 15 bd 3a bd 97 01 82 3d 33 f4 ba bd bb aa 56 bd
       -0.04559048 0.063479595 -0.091286086 -0.052408915
000140 40 b3 c7 bd 5a a8 93 bd 73 39 57 bd 3f 96 ed bd
       -0.09750986 -0.07209845 -0.052545022 -0.11600923
000150 0e d4 2f bc dc e1 0f be 16 8d bd bb a2 35 16 3c
       -0.01073171 -0.14051002 -0.005784641 0.0091680605
000160 7a 48 8d 3d b9 36 cf bd b1 62 9e bc fe 0d 26 bd
       0.068985894 -0.101178594 -0.01933417 -0.040540688
000170 39 17 de bd 3a 1a 4f 3d 01 48 5b 3d 09 f8 16 3d
       -0.10844273 0.05056212 0.053535465 0.03685764
000180 b6 a4 e6 bc cc 94 c2 ba 4f 62 62 3d 4d 01 73 bd
       -0.028154712 -0.001484537 0.055269536 -0.059327412
000190 7e 1d 17 3d 77 09 26 3d aa b4 02 be e3 ef 9a bd
       0.03689336 0.04053637 -0.1276423 -0.07565286
0001a0 43 58 a9 bd 9b e5 d1 bd 6e bf b1 3d 0d 5c 4a bd
       -0.08268788 -0.10248872 0.086790904 -0.049404193
0001b0 d2 a7 89 bd f4 0a 00 be c8 96 cf 3d 08 c6 89 bc
       -0.06721462 -0.12504178 0.10136181 -0.016818061
0001c0 9c b5 c0 3d bd 5b a8 3d 8a b5 8a bd 90 a3 3d 3b
       0.09409639 0.08220623 -0.06772907 0.0028936602
0001d0 9a c4 17 3d 06 c5 e3 3d 50 56 25 bd c1 32 5b bd
       0.03705273 0.111215636 -0.040365517 -0.0535152
0001e0 7d 2e ea 3d 0f 23 9c 3d c8 6d ae bd d3 fa 03 3d
       0.11434648 0.076238744 -0.08517033 0.032221626
0001f0 6c 5c e6 bd c7 9c 71 3c 5e 1f b8 3c 0e 46 83 bd
       -0.11248097 0.014746851 0.022475895 -0.06409846
000200 b7 9f 12 bd 49 6d 6d 3d 17 14 02 3c 80 bc a0 bd
       -0.035796847 0.05796555 0.00793936 -0.078484535
000210 70 44 09 3d bd 84 09 3d 99 e3 9e bd 81 62 d0 3d
       0.033512533 0.033573855 -0.077582546 0.10175038
000220 c7 b5 aa bd 9a 98 19 3d da 3f bb bd 03 91 0c be
       -0.083354525 0.037499048 -0.09143038 -0.13727193
000230 5d 86 75 3d 77 50 de 3d df c9 b3 bd dc 8e 99 bd
       0.059942592 0.10855191 -0.08778738 -0.074979514
000240 af 7e 92 bd 74 7e c6 bd cb aa ab bb 7d 31 c8 3d
       -0.07153069 -0.09692088 -0.005238866 0.09775064
000250 e0 25 30 3d 33 6a 3d bd 11 3b 68 bd 48 08 f4 bb
       0.04300487 -0.046243858 -0.056696955 -0.0074472763
000260 c9 74 74 bd 3e 9f bd bd da b4 e3 3a cb 58 8b bc
       -0.059681688 -0.09258889 0.0017372624 -0.017010113
000270 f9 43 b1 bd c4 56 d7 bd ed d6 ec 3d ce 46 7b 3b
       -0.08655543 -0.10514596 0.11564431 0.0038341763
000280 dc ea e9 bc 24 89 90 bd 18 dc b0 3d 8e f4 8a bb
       -0.028554372 -0.070574075 0.086357296 -0.004240579
000290 7b 8a ec 3d ba 97 de bb ae b6 ae bd 87 7b bf 3d
       0.115498506 -0.0067929896 -0.08530937 0.09349733
0002a0 64 28 80 bd 9e 84 c3 3d ea 83 15 3c 88 0f e5 3b
       -0.06257704 0.09546779 0.009125689 0.006990377
0002b0 06 69 ab bd 36 73 dd bd 0a bf 91 bd 25 56 1a 3d
       -0.08369641 -0.1081299 -0.07116516 0.03767981
0002c0 47 42 fb bd 4f 86 19 bd be 6f a9 bb c2 d4 1b 3d
       -0.12268501 -0.037481602 -0.0051707914 0.0380447
0002d0 3f c4 0d be e8 b6 0a bd 9d 14 d9 bc 53 36 dc 3c
       -0.13844393 -0.03386584 -0.026499087 0.026881373
0002e0 10 47 4c bd cd 89 de 3d 34 2e e1 bc ce 73 c8 3d
       -0.049872458 0.10866127 -0.027487852 0.09787713
0002f0 5e fa e8 3d f7 85 9b 3d 11 af 62 3d b5 78 06 3e
       0.11375879 0.07593911 0.055342738 0.13131984
