models/no_mismatch/kalman_process_50n_local_params_r2_linear.pth (torch, 269762 bytes, 28 tensors)

gkf.gat_rnn.fc_delta_y_innov.0.weight f4 [64, 3]
000000 c2 e4 e1 3e 1d 01 01 3f e6 0b 0a be 1c a3 02 3f
       0.4411984 0.50392324 -0.13481101 0.51030135
000010 17 13 06 be 54 01 0b 3e e7 6b 8d be c2 05 a8 3e
       -0.1309322 0.13574725 -0.27621385 0.32816893
000020 df 65 0e 3f 4e b1 dd be 1a 4a 0c 3f 7a bb ff 3d
       0.5562419 -0.43299335 0.5480057 0.1248693
000030 f5 ed db 3e bd c4 93 3d 28 cd 79 3e 2e a8 af bd
       0.42954984 0.07215259 0.24394667 -0.085769996
000040 53 a9 e6 3e ce 0d fa 3d 9d 5d 89 be fd 37 1c 3e
       0.4505106 0.12209664 -0.26829234 0.15255733
000050 e1 2c 74 be 48 60 1d bd 91 ae 80 be 3f ca cc 3e
       -0.23845245 -0.0384219 -0.25133184 0.39998052
000060 b6 21 f8 be eb b3 77 be b3 4a f7 bd bf 75 bb be
       -0.4846322 -0.24189727 -0.120747946 -0.3661327
000070 ac ad ac 3d 6b b3 13 bf 7b d0 03 3f ed 78 fb be
       0.08431563 -0.57695645 0.5148999 -0.49115697
000080 aa f0 fa 3e fb 52 93 3d 93 a1 53 be 28 c5 c7 3e
       0.49011737 0.07193562 -0.20667104 0.39017606
000090 9c df 9e 3d 2e 14 e6 3e 99 3a af 3d bb 2a 47 be
       0.07757494 0.4493727 0.085560985 -0.19449894
0000a0 54 33 24 3e 39 aa 20 be 6c 76 75 3e 4b 66 09 3f
       0.16035205 -0.15689935 0.23970956 0.5367171
0000b0 e4 05 c0 3e b0 d3 8c be 59 2a be 3e 4d 1a f4 3d
       0.37504494 -0.27505255 0.37141684 0.11919079
0000c0 bd 61 a0 3e fb cd ad be 03 c4 11 bf 4d 5e 55 be
       0.31324568 -0.33946213 -0.56939715 -0.20836754
0000d0 11 fa e5 be ba 79 03 3f 55 91 1a 3e 37 ef 7a 3e
       -0.44917348 0.51357615 0.15094502 0.24505316
0000e0 81 c5 61 3e ba 5b 4d 3b b1 2a e0 3e 6d d2 b9 be
       0.22047998 0.003133519 0.4378257 -0.36293355
0000f0 a0 ba d0 3d 86 03 dd be c6 24 51 3e 13 06 50 be
       0.10191846 -0.4316675 0.20424184 -0.20314817
000100 4a 31 36 3e 91 62 dd bd 7f 07 f8 3e b2 0b aa be
       0.1779224 -0.10809816 0.4844322 -0.33212048
000110 82 ba a6 be a2 7a a3 be c2 ee 06 3f 54 89 64 3e
       -0.3256417 -0.319295 0.52708066 0.22318012
000120 f3 78 11 3f 71 ce e2 be 6b d6 0e bf b3 f2 f0 be
       0.5682518 -0.44298127 -0.55795926 -0.47060165
000130 96 ca c5 be 41 e6 8b 3e 58 21 4c 3e e1 5b f9 3e
       -0.38631123 0.27324107 0.19934595 0.4870291
000140 6d ca 7c be dd 15 c9 be b8 da 9c 3e c6 7b 55 be
       -0.24686594 -0.39274493 0.3063562 -0.20847997
000150 bb 37 ae 3e 81 33 24 be 41 08 c9 3e 41 aa de be
       0.34026894 -0.16035272 0.3926411 -0.43489268
000160 9c c2 8f be 92 30 5a 3e 2e c3 dc 3d 7d 14 2e be
       -0.28078163 0.2130759 0.10779415 -0.17000003
000170 81 09 b7 3e 04 83 d0 3e b7 68 d2 be 6f e1 91 be
       0.35749438 0.40724957 -0.41095516 -0.28492305
000180 ed d7 09 3f c2 62 30 be 82 18 47 be 43 14 0f bf
       0.538451 -0.17225173 -0.19442943 -0.5589029
000190 25 67 a8 be a2 bb 46 3e 45 37 7a bd c1 81 d4 be
       -0.32891193 0.19407514 -0.061087865 -0.41505244
0001a0 e8 00 50 3d ed 11 dd be cf e5 ec be a2 4d 8c be
       0.050782114 -0.4317774 -0.4626908 -0.2740298
0001b0 83 bf 03 bf 7c d6 b9 be 52 f9 0f 3f 02 a8 01 3e
       -0.514641 -0.3629645 0.5623981 0.12661746
0001c0 aa 05 46 3e ca 3c 12 bf 83 39 c2 be b9 34 45 be
       0.19338098 -0.57124007 -0.37934503 -0.19258393
0001d0 14 6e d0 3d 8f d6 0b bf 1a dd 5a be bf 34 a1 be
       0.10177246 -0.54624265 -0.21373406 -0.31485555
0001e0 be bf eb ba bc c3 62 be e8 f2 8c 3a bd d2 c3 be
       -0.0017986221 -0.22144979 0.0010753544 -0.38246718
0001f0 79 b0 cc be 9d 4c 94 be bc 31 24 be 85 c3 f6 be
       -0.39978388 -0.289647 -0.16034597 -0.48196045
000200 b1 56 04 3f b6 84 c9 bd 31 f2 fe 3e 0c 1f 5b 3e
       0.5169478 -0.09839766 0.49794152 0.21398562
000210 03 6a f7 be 91 69 d2 3e 3f f3 19 be 7d 24 69 be
       -0.48323068 0.41096166 -0.15034197 -0.22767825
000220 96 98 fa be 6d f0 0a bf ad 4c 35 3e 4b 64 07 be
       -0.4894454 -0.5427311 0.1770503 -0.13221852
000230 ce 0b 85 3e b4 89 ff be 03 b9 ee 3e ad ef ce be
       0.2598557 -0.49909747 0.46625528 -0.40417233
000240 50 91 ae bd a3 90 ee 3d ab 81 aa 3e f5 89 ee 3e
       -0.0852381 0.11648681 0.33302054 0.46589628
000250 23 1f 0e 3f c6 82 e2 be ef 73 17 3e ae 5a 83 be
       0.5551626 -0.44240397 0.14790319 -0.2565512
000260 c6 28 13 bd 51 d1 eb be 27 d0 09 3f 4d 3a dd be
       -0.035927556 -0.46058133 0.5383324 -0.43208542
000270 73 0d 9b 3e ba a4 5c 3e 87 af 6c 3e 71 0c a5 be
       0.30283698 0.21547213 0.23113833 -0.32236055
000280 d4 39 14 3f 69 b3 0a 3e b9 a0 c9 3d dc 44 0a bf
       0.5790074 0.13545002 0.098451085 -0.5401132
000290 e4 84 8a 3e 70 89 8f bd a6 f9 8a be c2 11 08 3f
       0.27054513 -0.07008636 -0.27143592 0.53152096
0002a0 c7 dc 0e 3e ee 9b a6 be c7 d2 69 be 27 dd a6 bc
       0.13951407 -0.3254084 -0.22834311 -0.020369126
0002b0 f4 3b aa 3e 62 c6 e9 bd 5e ef b8 be c3 0e 2f be
       0.33248866 -0.11414792 -0.36120123 -0.17095475
0002c0 a2 f1 d6 be 89 98 69 3e df bd e3 3e f3 73 0c bf
       -0.41981226 0.22812094 0.44480798 -0.54864424
0002d0 17 e2 15 3e 93 84 ae 3e f3 fb e4 3d 53 51 6a be
       0.14637028 0.3408552 0.11180868 -0.22882585
0002e0 c3 e9 b1 3e a6 e8 b0 3e 45 b9 6e 3e 53 86 d8 bd
       0.3474866 0.34552497 0.23312862 -0.10572495
0002f0 d7 35 e3 bd 3b 8b 3e 3d 5a f5 96 bd 0d 76 30 be
       -0.110942535 0.0465195 -0.07371016 -0.17232533

gkf.gat_rnn.fc_delta_y_innov.0.bias f4 [64]
000000 75 ed c4 3e aa 05 01 3f 99 ab cd bc 0f 3a af bd
       0.38462415 0.5039927 -0.025106238 -0.08555996
000010 9c fc a9 bc ae 36 68 bc 6a b3 18 3e 63 b5 2f 3e
       -0.020750336 -0.014173193 0.14912191 0.17159037
000020 5f 5b f7 be 57 30 3d be 81 51 05 3f 4c 0e 7a 3e
       -0.48311898 -0.18475471 0.5207749 0.24419516
000030 f1 09 29 bd ea 17 ad be a8 c0 a0 be e0 77 f4 be
       -0.041269246 -0.33807307 -0.31396985 -0.47747707
000040 70 5d 2c be c5 39 6c 3e 02 dd c9 3e f1 6e 81 3e
       -0.16832519 0.23068912 0.39426428 0.25279954
000050 c7 0a f8 be b3 59 ad be 32 c4 9a bd b0 60 14 3f
       -0.48445722 -0.33857498 -0.075569525 0.57960033
000060 5f 3c f0 3d aa e5 fb bd 5f 88 83 3e ad d5 57 be
       0.11730265 -0.12299664 0.2568998 -0.21077605
000070 65 52 b0 be 46 89 e6 3e 24 71 80 be 6a 00 b9 bd
       -0.34437862 0.45026606 -0.2508632 -0.09033282
000080 dd 3d 0c bf 23 84 d6 3e 17 38 ee 3e 63 90 87 3e
       -0.54781896 0.41897687 0.46527168 0.26477346
000090 8a 4b d4 be f4 0a 0e bf ab de ec be d2 a1 f4 3e
       -0.41463882 -0.55485463 -0.46263632 0.4777971
0000a0 19 bf 97 3e a4 c0 04 3f 3e 39 a5 3e 7b 86 28 3e
       0.29637983 0.51856446 0.32270235 0.1645755
0000b0 ef db 8c 3b af 55 dd be 93 0c f3 be 16 ac ff be
       0.004298679 -0.43229434 -0.4747053 -0.4993598
0000c0 d5 25 83 3e 3d 8e 83 be 10 74 f2 bd fa 0f a6 be
       0.256148 -0.25694457 -0.118385434 -0.32434064
0000d0 2a cd 91 bd cd b8 b4 be 08 50 b3 be 81 99 62 3e
       -0.0711921 -0.35297242 -0.35021996 0.2212887
0000e0 38 f9 1b be 0b bc be 3e de 31 1c be eb 21 d9 be
       -0.15231788 0.3725284 -0.15253398 -0.4240869
0000f0 4c d6 96 bd f5 8c 6f be e9 b7 1a be ad be 08 bf
       -0.07365093 -0.23393615 -0.15109219 -0.5341595

gkf.gat_rnn.fc_delta_y_innov.2.weight f4 [64, 64]
000000 2b 03 8e 3d 0e 87 b0 bd 36 af d8 3d e7 bf 9c 3d
       0.06934198 -0.0861951 0.10580294 0.0765379
000010 83 a3 b1 3d e5 e5 a0 bd c7 89 db 3d ae 2d 24 bc
       0.086737655 -0.07856349 0.10719638 -0.0100206565
000020 a3 d8 2e 3c 7e 9f 96 3d 26 90 4e bc 7b cc fd 3c
       0.010671767 0.073546395 -0.01260761 0.030981293
000030 9f 7c e9 bc f1 c9 1a be 3d 03 69 3d 94 4b 2a be
       -0.028501807 -0.15116097 0.056887854 -0.16630393
000040 fa 69 84 3d ca db 14 3e 1c 88 02 3e b7 7b dd bc
       0.06465526 0.14536968 0.12747234 -0.02703653
000050 5e 99 01 be 2f fb 95 bc ea ce 7c 3d 70 d9 bc bd
       -0.12656161 -0.01830825 0.061720766 -0.092211604
000060 01 d1 11 bd 81 52 77 bd 8f af 44 bc 20 65 88 bd
       -0.035599712 -0.060381416 -0.012004747 -0.06659913
000070 fc 4c 65 bd b4 89 89 39 65 33 cf bd 4b 05 c1 3d
       -0.05598162 0.00026233273 -0.101172246 0.09424838
000080 8b d8 c3 3d 1d 02 86 3c 3c 80 11 3d f3 ec 96 bd
       0.09562787 0.01635843 0.035522684 -0.07369413
000090 e1 49 c0 bd fc 32 16 be ce ea 9b 3c 8d 76 4f bd
       -0.09389091 -0.14667886 0.019032862 -0.05065017
0000a0 e9 7a 26 bd e2 5e 86 3c 93 9a 2c 3c ea c5 6f bc
       -0.04064456 0.016402666 0.0105349 -0.014634589
0000b0 7d db 9e 3c a5 f1 47 bd 18 1b 5c bd 2c f1 c4 bd
       0.01939177 -0.048814435 -0.053736776 -0.096163124
0000c0 2b 1b 7d bd cb f4 c9 3d 03 cd 78 bd fa 74 01 3d
       -0.061793488 0.09861144 -0.06074239 0.0316057
0000d0 ed bc 3b bd e8 aa 51 3c 43 ff 03 3e 8d 0c db 3d
       -0.04583447 0.012797095 0.12890343 0.10695753
0000e0 b5 84 fe bd 4c 78 75 3d 03 d2 98 3d 4f 2c b8 3c
       -0.124276556 0.059929177 0.074619316 0.022482065
0000f0 c7 d9 a7 3d c0 80 13 3e 54 33 ed bc c3 a6 91 bb
       0.081958346 0.14404583 -0.02895514 -0.0044449284
000100 af 32 a5 bd 89 fc 09 bb a9 69 d7 3d 2f d4 4d 3d
       -0.08066308 -0.0021055064 0.105182 0.050251182
000110 a1 e3 94 bd d9 6c cf bd ed 3f cb bd a6 d7 a6 bd
       -0.07269979 -0.10128183 -0.09924302 -0.081466004
000120 9d f6 e8 bd dc 54 44 bd 42 94 e9 3d 3e be 86 3d
       -0.11375163 -0.04793249 0.11405231 0.065792546
000130 96 28 bc bd 9f 8f ef bd 64 f2 78 3d f0 73 e1 bd
       -0.09187429 -0.116973154 0.060778037 -0.110084414
000140 d8 ce 12 bd 76 c5 be 3d ae 23 d8 bc 1c 68 94 bc
       -0.035841793 0.093150064 -0.0263842 -0.01811605
000150 ae a5 a9 bc cf d4 3a bd 6c 50 9a bd 65 8a cd bd
       -0.020708885 -0.045613106 -0.075348705 -0.10036162
000160 9d 03 ea bd 2d 0b 99 bd 57 b3 f4 3d 64 75 9e bd
       -0.114264704 -0.07472835 0.11948269 -0.07737234
000170 37 a6 b0 bd d3 d3 20 3d a7 cd 5d 3d c3 60 69 3d
       -0.08625453 0.03926451 0.054151203 0.056977045
000180 0a 39 a7 3d ad 97 91 3d f9 8a ae bd dc 5e f7 bb
       0.08165176 0.07109008 -0.08522601 -0.00754915
000190 ac 9c 91 3d 1f 53 37 bd a1 50 b8 bd 6a 17 d8 3d
       0.07109961 -0.044757005 -0.08999754 0.10551341
0001a0 16 e0 8e bb 27 c2 a2 bd 0a 97 98 bd 5c d6 86 3c
       -0.004360209 -0.07947188 -0.074506834 0.016459636
0001b0 15 3c 24 3d 1d 30 6c 3b c4 a5 8e 3c ee 1c e6 bd
       0.04009636 0.003603942 0.017413028 -0.11235987
0001c0 7b 4a b2 bd 1e 1d 05 bc 3f b0 d6 3d b2 5c 65 3d
       -0.08705612 -0.008124618 0.10482835 0.055996604
0001d0 a4 2b 89 bd db f6 07 bd 36 5a a9 bd f8 6b 9b bc
       -0.06697777 -0.033194404 -0.082691595 -0.018972382
0001e0 67 78 49 3b 29 21 99 3d 87 19 b2 3d 0e fa 08 be
       0.0030741931 0.07477028 0.08696275 -0.13376638
0001f0 ea c1 ab 3d 06 7a cd bd ef af 02 3d 59 a0 9f 3d
       0.083865955 -0.1003304 0.031906065 0.07794256
000200 b0 ed 10 3a ed a6 e4 3d 5a b2 e8 bd 06 0d 46 bd
       0.0005528582 0.11164651 -0.11362143 -0.048352264
000210 78 60 8f 3d ca b9 c5 bc 36 89 d7 bc d3 7e 71 bd
       0.07000822 -0.024136443 -0.026310544 -0.05895884
000220 1c 5e d3 3d d9 f6 aa 3d 6c 80 14 3d 6f 14 a1 bd
       0.10320684 0.08347864 0.036255285 -0.078652255
000230 e9 65 cf bd ae 61 04 3d bc 82 0f 3d 8a 11 1b bd
       -0.1012686 0.032319717 0.035036787 -0.037858523
000240 97 c2 04 bd f9 c9 9f 3d a8 5a 27 3c 91 67 15 3c
       -0.032412138 0.07802195 0.010214485 0.00911893
000250 c5 6f 2c bc aa fd be bd eb 00 f9 bd 8e e6 73 bd
       -0.010524695 -0.09325726 -0.12158378 -0.059546046
000260 24 b4 89 bd aa 47 22 3d 33 c9 13 bd 62 7f 11 bd
       -0.06723812 0.039619125 -0.03608055 -0.035521872
000270 11 93 e5 3d 58 cb 13 3d 6b 16 9f 3d 72 db 83 bd
       0.11209691 0.036082596 0.07767948 -0.0643834
000280 23 22 58 bd e9 d9 24 3d ac 9c b7 bd 67 65 96 bd
       -0.05276693 0.040246878 -0.0896543 -0.0734356
000290 11 fb ef bb d9 8c 17 bd 8e 6a a2 bd 58 1c 95 3d
       -0.0073236306 -0.036999557 -0.0793048 0.07280797
0002a0 24 1e c4 3d 3b fc 8d 3c 86 82 e4 bc 9a 61 e9 bd
       0.09576061 0.017332187 -0.02789427 -0.11395569
0002b0 81 e5 33 bd 16 8c 30 3d 7f 11 59 3d c9 22 d8 3b
       -0.043920044 0.043102346 0.0529952 0.0065959436
0002c0 c2 93 41 bd d9 e1 92 3d ad 4d d2 bd 8e f4 c6 3d
       -0.047260053 0.07171983 -0.10268722 0.09714614
0002d0 5c 10 51 bd 31 41 30 3c 9f af 06 bd 95 40 07 3c
       -0.051040992 0.01075773 -0.03288233 0.008255144
0002e0 32 26 ff bc 7a f2 ba 3d 4e d0 86 3c 7e 5d cf 3d
       -0.031146143 0.0912828 0.01645675 0.10125254
0002f0 d5 86 f2 3d 96 74 7b bd ae ed bb bd 2f 5b c5 3d
       0.118421234 -0.061390482 -0.09176193 0.096365325
000300 e2 d4 d0 3d a3 46 b3 bd 69 5c 96 3b ea cc 07 be
       0.10196854 -0.08753707 0.004588653 -0.13261762
000310 21 6f cb bd 67 d4 d3 3c b9 82 c8 3c fb 48 88 3d
       -0.099333055 0.025858117 0.024476396 0.06654545
000320 2f 21 74 bd 54 79 bf 3d 5b 6c 0a 3d e3 22 16 bd
       -0.05960196 0.093493134 0.033794742 -0.036654364
000330 76 73 4c bb c2 e2 54 3b 39 4e 37 3d 7d 55 e2 bd
       -0.003119675 0.003248379 0.044752333 -0.11051462
000340 17 18 19 3d 6d 28 15 bd f3 ea b8 bd 05 0a 88 bd
       0.03737649 -0.036415506 -0.09029188 -0.06642536
000350 bf 26 c6 3d dc 44 a9 3d 48 91 de 3d 34 d2 ae 3d
       0.09675359 0.08265087 0.10867554 0.08536187
000360 38 04 bb 3d 61 e7 02 bd da 58 87 bd 8f 6e 49 3d
       0.09131664 -0.03195894 -0.06608744 0.049177703
000370 50 7f 86 bd 7e 59 96 bd 3b e6 4c bc 6a 16 b4 3c
       -0.06567252 -0.07341288 -0.012506063 0.021983344
000380 45 99 72 3d 8c ad 36 bd e8 52 1a bd ac b0 ce bb
       0.0592282 -0.0445991 -0.03767672 -0.006307682
000390 0b 81 b1 bd 43 ed d4 bd 03 60 2b 3d 19 73 fb bc
       -0.08667191 -0.103968166 0.04183961 -0.030694531
0003a0 fb a8 1a 3e b5 08 ef 3d 34 d9 92 3d c3 90 5c 3d
       0.15103523 0.116715826 0.071703345 0.053848993
0003b0 5c a8 97 3c 01 a5 dc bc 36 19 84 bc 17 21 9a bc
       0.018512897 -0.026934149 -0.016125303 -0.018814607
0003c0 ab e0 97 3d c4 61 e9 3d fa 24 25 bd fa 4e 84 bd
       0.07415899 0.113956004 -0.040318467 -0.06460376
0003d0 97 fe e4 bc 08 85 95 bd ef 0b 2e 3d f9 94 07 3e
       -0.02795343 -0.07300764 0.04249185 0.13240422
0003e0 b8 6c a8 3d d5 2d 81 3d 40 ef ef bd d5 06 98 bd
       0.082238615 0.0630757 -0.11715555 -0.07423178
0003f0 65 70 cc bc bc 13 05 bd 95 86 9b 3b 59 0e 0d be
       -0.024955938 -0.032489523 0.004746268 -0.13775004

gkf.gat_rnn.fc_delta_y_innov.2.bias f4 [64]
000000 11 53 b4 3c f7 86 b0 3d 26 b8 b8 3c 20 1c 91 bd
       0.022012265 0.086194925 0.022548746 -0.070854425
000010 19 f1 7b 3d 5d c1 a0 3d 41 a8 1d bd 8c b4 4f bd
       0.061509226 0.07849381 -0.038490538 -0.050709292
000020 de 5d 90 bd 7e f1 25 bd 81 fb d4 bc 8a a4 e2 3c
       -0.07049154 -0.040513508 -0.025998833 0.027666349
000030 3c e5 8f 3c 49 c9 90 bc 1a d5 c4 3d ca c4 99 3c
       0.017565362 -0.017674105 0.096109584 0.018770594
000040 c8 f7 53 bd 09 11 1e bd 3a 94 6b bd 28 7e 0a bd
       -0.051749974 -0.038590465 -0.057514407 -0.03381172
000050 7e c1 c0 bd 56 46 e2 3c 5a 76 ab bd 0f 9c 44 3d
       -0.09411906 0.02762143 -0.08372183 0.04800039
000060 65 6e dd 3d fb ef da bd ec bb ff bc d4 2e ee bd
       0.10812072 -0.10690304 -0.031217538 -0.116300255
000070 a2 01 26 3d f4 e5 15 3a 1e 06 e8 bc 1a 7c e4 3d
       0.0405289 0.00057181646 -0.02832323 0.11156483
000080 62 7b 52 3d 25 ed c1 bd 07 72 36 3c 77 ee dc bc
       0.0513872 -0.0946906 0.011135585 -0.026969178
000090 1b 3a d1 3b f5 cc 65 3d 5d de ee 3a 98 11 99 bd
       0.0063851005 0.056103665 0.0018224228 -0.07474059
0000a0 71 62 d4 3d db 64 98 bd e6 67 c7 bc 7d 4e 8e 3d
       0.10370339 -0.07441112 -0.024341535 0.06948564
0000b0 c8 93 ff 3d a1 83 07 3e 75 da 9e ba 5c d4 7f 3d
       0.12479359 0.13233806 -0.0012119549 0.06245838
0000c0 ea df 9f bd 55 5b cb bb 5d b8 c0 bc 21 e8 5f 3d
       -0.0780638 -0.006205956 -0.023525411 0.054664735
0000d0 a0 58 4d bd d8 c2 5a 3d b8 17 89 3d a1 07 ea 3d
       -0.050133348 0.053408474 0.06693977 0.11427236
0000e0 8a 59 8f bc d5 d7 00 3e 3b 19 cc bd 65 e9 f2 bc
       -0.01749875 0.12582333 -0.0996575 -0.029652307
0000f0 19 a1 7e 3d 94 0f 5c 3d 87 2b a8 3d d3 c0 82 bd
       0.062165353 0.053725794 0.08211427 -0.063844346

gkf.gat_rnn.fc_r.0.weight f4 [64, 1]
000000 1e 6d 28 3f 51 8b 75 bf b2 bb 28 bf 7b 92 09 bd
       0.657915 -0.95915705 -0.659114 -0.03358696
000010 95 60 80 bf 67 da 7c bf 34 a6 66 bf 2c 65 56 3f
       -1.0029474 -0.98770756 -0.90097356 0.83748126
000020 eb 8c 84 3e 73 87 90 be 10 d3 95 bd 0d f1 63 bf
       0.25888762 -0.2822834 -0.073156476 -0.8903969
000030 9f 28 7c bf 21 f8 3a bf 83 34 7f bf 3b ee 31 3f
       -0.9849948 -0.73034865 -0.996895 0.69504136
000040 4b ec c3 be 5e 5d 8b be 70 3d 65 bf b9 36 39 3e
       -0.38266215 -0.2721967 -0.8954687 0.18087281
000050 8a c6 26 be 0c 6e 36 bf 0f 40 2e 3f 3c ae 62 3f
       -0.16286674 -0.7126167 0.68066496 0.8854711
000060 6b d5 3e bf fb 38 1d 3f b8 97 33 be 25 aa 5a 3c
       -0.745444 0.6141507 -0.17538345 0.01334623
000070 4a 67 dd 3e bc 33 1d be ca 2f 63 3f 85 26 28 3f
       0.43242866 -0.15351766 0.88744795 0.65683776
000080 e4 e1 2f bf c3 d5 23 bf f9 56 83 bf a4 00 a6 3e
       -0.68704057 -0.6399805 -1.0260917 0.32422364
000090 4e 52 46 bf a5 a9 5e bf 73 d3 28 bf f4 2e 82 bf
       -0.77469337 -0.86977607 -0.65947646 -1.0170579
0000a0 2d ef 57 bf 1c b9 6f 3f 95 28 13 3f fc 96 6d 3f
       -0.8434933 0.9364183 0.574838 0.9280851
0000b0 83 5d 04 bf 62 12 e3 be 97 ef b4 be 1e 63 86 3d
       -0.5170519 -0.44349962 -0.35339043 0.06561874
0000c0 25 ab 3d bf 0c c4 28 3e fe 46 1f bf b9 93 4a 3e
       -0.7408927 0.16481036 -0.622177 0.19782914
0000d0 c3 43 74 3f e3 1c 55 3e b6 3f 45 3f 99 ff 3a bf
       0.95415896 0.208118 0.7705034 -0.7304626
0000e0 fd da eb bd c0 f8 25 bf 3a 9c da bd df 38 ca be
       -0.11516378 -0.6483269 -0.10674329 -0.39496514
0000f0 ba f6 19 bf 79 df 7f bf ae 12 be be 36 61 37 3e
       -0.601421 -0.9995037 -0.37123626 0.17908177

gkf.gat_rnn.fc_r.0.bias f4 [64]
000000 c9 9e 00 be c7 e4 67 bf cb 40 4f 3f eb 27 4b 3f
       -0.12560572 -0.9058346 0.8095824 0.79357785
000010 20 38 11 bf 7d 52 1a 3e 93 7d 34 3f b2 8f 69 bf
       -0.56726265 0.1507053 0.7050411 -0.91234887
000020 c3 e1 58 bf 84 b1 19 3f 74 8b 37 3c 4f 34 b9 3e
       -0.84719485 0.6003649 0.011202682 0.3617272
000030 46 02 bc be 84 38 6d 3e 7c f2 35 3f 2f a3 49 be
       -0.36720484 0.2316609 0.71073127 -0.19691156
000040 38 c4 90 be 28 ba 79 bf 4f c5 e8 bd 72 f4 2d 3f
       -0.28274703 -0.97549677 -0.11365759 0.6795112
000050 db 63 7e bf 85 2b 14 bd d3 54 48 3f 60 93 72 be
       -0.9937112 -0.036174316 0.7825443 -0.23689032
000060 60 ba a7 be ea 13 7d be d6 3d cd be c1 86 28 3e
       -0.3275938 -0.24714628 -0.4008624 0.16457655
000070 aa 05 75 bf d1 d7 ca 3e dc c8 53 be f8 df 98 bd
       -0.9571177 0.3961778 -0.2068209 -0.07464594
000080 e8 59 68 bc 7a 1c 1d 3f 35 1c 14 bf ca 04 69 bf
       -0.014181592 0.61371577 -0.5785554 -0.9102293
000090 f8 ce 32 bf a9 0c 32 bf 4f d4 ec be 12 a6 56 3f
       -0.6984706 -0.6955057 -0.4625573 0.83847153
0000a0 ef b3 3d bf 99 49 09 bf 84 7d 48 bf 86 ab e7 be
       -0.7410268 -0.53627926 -0.7831652 -0.4524805
0000b0 71 07 8d 3c af 9a 13 bf c0 36 24 3d 15 08 c9 3e
       0.017215462 -0.57657903 0.040091276 0.3926398
0000c0 67 c1 0a be 17 ec f1 3e e2 c5 6b 3e 41 61 82 3f
       -0.1355034 0.47250435 0.23024705 1.018593
0000d0 08 04 07 bb ae d2 6c 3f 7c a3 4c 3f 31 b2 06 3f
       -0.0020601768 0.9250897 0.7993696 0.5261565
0000e0 1e 4c 1d 3f c6 68 22 bf c7 41 30 bf 03 72 f5 3e
       0.6144427 -0.6344112 -0.6885037 0.47938547
0000f0 4d f5 d0 3e 25 9d 74 3f 5e 75 07 be 90 6d 07 be
       0.4081215 0.95552284 -0.13228366 -0.13225389

gkf.gat_rnn.fc_r.2.weight f4 [64, 64]
000000 46 79 f6 3d 82 4d 23 bc 10 28 ea 3d e8 79 4d bd
       0.1203485 -0.00996721 0.114334226 -0.050165087
000010 f3 d0 5c bd 50 11 96 bb bf d0 77 3d 01 23 9b bd
       -0.053910207 -0.0045797005 0.06050181 -0.07575036
000020 8c 77 29 bd ef 3a bd 3d f7 22 78 3c fa 0b a3 3d
       -0.041373774 0.09239756 0.015145055 0.07961269
000030 94 59 5b bd 6e 86 b4 bd 6f 6e bc bd 5e 10 11 bd
       -0.053552225 -0.08814703 -0.09200751 -0.035416
000040 58 04 dd bd a7 7e 21 3d 69 37 bd 3c dd f1 7a bd
       -0.10791844 0.039427426 0.02309771 -0.061265815
000050 6a a4 b8 3d 13 9e cd 3c 05 0d 95 3d 3c 2a 93 bc
       0.090157345 0.02509979 0.07277874 -0.017964475
000060 a8 f8 98 3d bc f5 57 bd 1f 18 98 3d 31 66 53 bd
       0.074693024 -0.052724585 0.07426476 -0.05161113
000070 66 a1 7c 3d 1c f0 2c bd d5 77 ed 3d 29 22 90 bd
       0.06167736 -0.042221174 0.11595122 -0.070377655
000080 7a b8 0e bd 74 76 1e bd b7 5e b3 bd bc 97 81 bd
       -0.0348439 -0.038687184 -0.087583 -0.06327769
000090 4f 8a 49 bd 94 df 6a ba d1 60 99 3d 35 2c d8 bc
       -0.049204167 -0.00089597073 0.074891694 -0.026388267
0000a0 6b 44 de 3d 4d a7 c5 bc b2 87 13 bd 7a 8d ea 3c
       0.108528934 -0.024127627 -0.03601808 0.028631914
0000b0 b7 31 07 bd a4 27 cf 3c 9e 29 d8 3d 10 48 73 3d
       -0.033006396 0.025287457 0.10554813 0.059394896
0000c0 d9 e8 eb bd 75 17 b7 bc 21 85 0a bd bb 34 c7 bd
       -0.115190215 -0.022350052 -0.033818368 -0.097268544
0000d0 70 6e 94 3d 5b 6d 01 3e 21 4b b6 3d 97 d0 15 bc
       0.07247627 0.12639372 0.089010485 -0.00914397
0000e0 d1 1e e2 38 94 dc 94 bd 0d 3b 1c bd 4c 03 da 3d
       0.0001078226 -0.072686344 -0.038142253 0.1064516
0000f0 50 d1 91 bd eb 8d 77 3c df 77 d3 bd f0 fe 8a 3b
       -0.07120001 0.0151095195 -0.10325598 0.0042418167
000100 a5 af 3a 3d 44 78 95 bd 01 55 87 3d b3 91 89 bd
       0.045577664 -0.072983295 0.0660801 -0.06717243
000110 5f 41 e6 bc 0b a4 e8 3d 63 d4 16 3e 76 71 b5 3c
       -0.028107343 0.11359414 0.14729457 0.022148829
000120 c4 3c be bd 8b b7 8a bd e1 a1 0f bb d7 d7 12 bd
       -0.09288934 -0.06773289 -0.0021916556 -0.035850372
000130 22 82 fc 3d b5 42 7c bd 14 0c d7 3d f9 96 7c 3d
       0.12329508 -0.061587054 0.105003506 0.061667416
000140 4b 26 80 bc ed 19 bf 3d dd fa c1 3d af ce 17 3d
       -0.01564326 0.09331117 0.094716765 0.037062343
000150 5a a9 ff bd c4 99 38 bc d9 4d a6 3d a2 bd 15 3e
       -0.12483473 -0.011267129 0.08120317 0.1462312
000160 cb 09 98 bc 5c 9b 6e bc ad 2c df bd 60 5e f3 3d
       -0.018559357 -0.014563408 -0.10897193 0.11883235
000170 1b 3b 0a 3e eb f9 f8 3d 1b 66 01 bd 13 3f 03 3e
       0.1349911 0.12157043 -0.031591516 0.1281703
000180 88 20 48 bc b1 8f c5 3d c3 ea c4 3d 76 b7 ca bd
       -0.012214787 0.096465476 0.0961509 -0.09898274
000190 e4 f1 56 3d 3b 6a 93 3d ad 79 58 bd 85 70 15 3e
       0.05247678 0.07197996 -0.052850414 0.14593704
0001a0 38 62 f4 3d d9 0f 10 3e 06 61 e1 3c 3b bf f6 bc
       0.11932796 0.14068545 0.027512085 -0.030120483
0001b0 fc 51 2d bd 1a d6 82 3d 3b 20 cb 3a 8a 57 10 3e
       -0.042314515 0.06388493 0.0015497276 0.14095894
0001c0 79 8d 04 3e 10 13 52 3d 07 30 99 bd dc 2d ba 3d
       0.12944593 0.05128771 -0.074798636 0.09090778
0001d0 2c 61 1a 3e 4c dd 23 3c dc bd c9 bc b0 5a 0c 3a
       0.1507613 0.010001492 -0.024626665 0.00053540897
0001e0 bb 35 68 3d 35 53 92 bd 5b 93 df 3c fe 53 af 3d
       0.056691866 -0.07144777 0.027291944 0.08560942
0001f0 62 70 94 bc 9f b8 79 bc 8d c3 11 bd f3 3b 09 3e
       -0.018119995 -0.015241771 -0.035586882 0.13401775
000200 45 47 b0 3d 45 13 b8 3c ca fd 3b ba 80 ee 2e 3d
       0.086073436 0.022470126 -0.00071713014 0.04270792
000210 9d 04 e2 3d 7a b7 12 3d 9c 27 77 bd c9 e9 70 3d
       0.11036036 0.035819508 -0.06034051 0.058816705
000220 6b cc 1f bd bb 9c 81 3b e2 92 ac bd 24 1f a2 bb
       -0.039013308 0.0039554513 -0.08426453 -0.00494756
000230 9c 20 05 bb 41 e3 9f bd ba 6b a7 3d 1a 43 02 3e
       -0.0020313626 -0.07807017 0.08174844 0.1272091
000240 15 d3 ee bd 5e 91 55 3c c8 cf bd bd ff 74 48 bc
       -0.116613545 0.0130351465 -0.09268147 -0.012234925
000250 6c 94 28 3d a4 82 01 bc 51 aa 51 3d 8b c2 eb bc
       0.04115717 -0.007904682 0.051187817 -0.028779289
000260 e8 78 e1 3d 5e 86 40 bd 4d de 9d 3b 00 ab cd 3c
       0.11009389 -0.047003143 0.00481776 0.025105953
000270 37 13 c2 3d 31 87 b4 3c f5 97 b2 3d 23 4e 35 3d
       0.09476321 0.02203712 0.0872039 0.04426397
000280 9e 04 98 3d 46 e6 9c 3b a7 e4 00 3d bb a0 07 3e
       0.07422756 0.004788193 0.03146806 0.13244908
000290 d3 89 5c bd 1a 1a 81 bd 17 1e a2 3d 06 22 4d 3d
       -0.053842377 -0.063038066 0.079158954 0.050081275
0002a0 b4 da 05 be 06 c5 63 3d 20 90 e6 bd f1 a8 67 bd
       -0.1307171 0.055607818 -0.112579584 -0.0565576
0002b0 4d 21 34 3d ea eb 4d 3d a6 0e 04 bd 60 d3 f1 3d
       0.04397707 0.050273813 -0.032240532 0.11807895
0002c0 19 5b f0 3d 2e 1d e2 3d 1f 97 ee bd 74 57 08 bd
       0.117361255 0.11040722 -0.11649918 -0.033286527
0002d0 47 d1 a1 3c 5f 45 e9 3d 58 08 fc bb 2b 98 e1 3c
       0.019753112 0.113901846 -0.0076914243 0.02753838
0002e0 df f3 9c 3d 7a a9 a1 bd 64 8f c2 bd a6 76 03 3e
       0.07663702 -0.07893653 -0.09500006 0.1283823
0002f0 7c b5 d9 ba e3 c4 bb 3d 98 a5 05 be 34 b1 0d bd
       -0.0016609873 0.091684125 -0.1305145 -0.034592822
000300 3a d1 56 3d 83 c8 ef bc 36 e1 a6 3b 86 6b 1a be
       0.052445628 -0.029270416 0.005092765 -0.1508008
000310 30 39 d0 3d 44 37 b7 bd a5 19 23 bd 6c b5 e7 bd
       0.10167158 -0.08946088 -0.03981938 -0.113139
000320 42 5e aa bd 9f 5b 18 be d4 34 0d be 97 1c 62 bd
       -0.083187595 -0.148787 -0.13789684 -0.055203047
000330 e5 a0 9d bd f9 32 82 3d 13 59 09 bd 01 98 7f 3d
       -0.07696704 0.063573785 -0.033532213 0.06240082
000340 a2 01 22 bd b4 60 1c 3d 6d 35 c4 3d a6 d5 10 be
       -0.03955234 0.03817816 0.09580503 -0.14144
000350 06 5b 98 bc e3 c7 a7 3d 32 9c 8e bd 8d 51 8c bd
       -0.01859809 0.08192422 -0.06963386 -0.06851492
000360 be 7f 36 bc 34 bf cf bd d8 8f 97 3a 6a 3b ca bd
       -0.011138855 -0.10143891 0.0011563255 -0.098746136
000370 d8 36 3d 3c b4 a6 8d bd 55 96 9d bd df 64 a9 bd
       0.01154872 -0.06916562 -0.07694689 -0.08271193
000380 19 c2 ec 3b 52 80 e1 3c 65 9d 09 be 07 86 e9 bd
       0.0072252867 0.027527008 -0.13438947 -0.11402517
000390 6f 66 0c be dd 72 24 3d 81 ea 99 3d 87 cc 1d be
       -0.1371095 0.040148605 0.07515431 -0.15410052
0003a0 0d 84 73 3c 68 70 03 bc 75 48 c7 bd 49 31 de bb
       0.014863026 -0.008022405 -0.09730617 -0.0067807776
0003b0 b6 84 90 3d 33 b1 dc 3d fc 62 e0 3c ef ae 90 bd
       0.070565626 0.107759856 0.02739095 -0.07064616
0003c0 ca da c1 bd 4d 4b bc bd d6 11 e5 bc c3 8a 5e bd
       -0.09465559 -0.0919405 -0.027962606 -0.054331552
0003d0 ff b4 61 3d a2 c8 21 be 0d 1b f1 bc f7 e8 94 bd
       0.055104252 -0.15799192 -0.029431844 -0.07270997
0003e0 03 4f 11 bd fd 91 d3 3d b3 c0 16 3d 23 53 70 bd
       -0.035475742 0.103305794 0.036804866 -0.058673035
0003f0 d2 ad 99 bd f8 c2 23 be 76 db 09 be 51 2a a6 3c
       -0.07503857 -0.15992343 -0.13462624 0.02028385

gkf.gat_rnn.fc_r.2.bias f4 [64]
000000 df ae 4d 3d 00 36 0b 3e e2 8c 15 3d 68 23 8e 3a
       0.0502156 0.13594818 0.03651131 0.0010844292
000010 28 5e 64 bd 6e ce 2b bd 13 a1 99 bc 05 bf 2b bd
       -0.055753857 -0.041944914 -0.018753564 -0.041930217
000020 1f 6f 87 bc 3c 3a c1 bd 93 d0 40 3c 53 65 99 bd
       -0.016532479 -0.094349355 0.011768478 -0.07490029
000030 21 b5 51 3d 0e 50 5e 3d de 4c 5e 3d 7c 94 c5 3d
       0.05119813 0.054275565 0.054272525 0.09647462
000040 94 41 be bd e3 6a ac bb 2b 1c 0c 3d 08 98 98 bd
       -0.09289852 -0.0052617653 0.03420655 -0.07450873
000050 c2 b0 76 3d 0b 96 b4 bd 7d da 42 3d 9a e7 21 3e
       0.060227163 -0.08817681 0.047571648 0.15811005
000060 bb 31 1e bc d9 f4 68 bc e8 cc 0b 3e 0e a9 2c bd
       -0.009655411 -0.0142185325 0.13652384 -0.04215341
000070 33 ba 17 3d df 7e d8 3d c8 7d 23 3e 38 a5 42 3d
       0.037042808 0.10571074 0.1596595 0.047520846
000080 40 28 d8 3c 11 a2 fe 3c f5 81 b8 bd 0b 6e 79 3d
       0.02638638 0.031083139 -0.09009162 0.06089596
000090 07 6e 4d bd 5f 81 59 3b fc 59 25 3c a8 e3 06 3e
       -0.05015376 0.0033188683 0.010092255 0.13172781
0000a0 69 a3 22 bc f1 44 51 3d 8a a6 87 3c 72 bb 04 3c
       -0.009926655 0.05109114 0.016558904 0.008101331
0000b0 42 7e 93 bd 62 fe 1e 3e 9f 4d 21 3d ef 2e 14 be
       -0.07201816 0.15526727 0.039380666 -0.14471029
0000c0 09 91 62 3d 18 1f c2 3d 28 04 87 bd 81 3e 0b 3e
       0.055314098 0.09478587 -0.065925896 0.13598062
0000d0 1d 40 e6 3d 05 e9 2b bd 5f a8 2c 3e d3 df 03 3e
       0.112426974 -0.04197027 0.16861103 0.12878351
0000e0 e5 5d e1 bc 36 09 d8 3c 02 26 ab 3d 63 ec e0 ba
       -0.027510593 0.02637158 0.08356859 -0.0017160292
0000f0 b5 e2 01 3e ab 4f 90 bd 8d d2 9d bc a8 e5 b2 3d
       0.12684138 -0.070464455 -0.019265437 0.0873521

gkf.gat_rnn.r_input_gru.weight_ih_l0 f4 [192, 64]
000000 a8 3b 08 be 72 d9 41 bd 86 09 9f bd d1 c6 8a 3d
       -0.13304007 -0.047326513 -0.07765488 0.067762025
000010 f1 a2 f9 b9 51 c7 c7 bd f1 bd c8 3d 0c d5 80 bd
       -0.00047614382 -0.097548135 0.098018534 -0.062906355
000020 8d 76 a9 bc bc 79 18 3d f1 d7 b7 bd b4 bf d6 bc
       -0.020686412 0.03722547 -0.089767344 -0.026214458
000030 92 62 73 bd 25 92 1e bd 9d 9e 4c bd 71 a9 95 3d
       -0.059420176 -0.038713593 -0.049955953 0.07307709
000040 aa a1 96 bd 17 12 b4 bd f5 19 4e 3d de 08 08 3d
       -0.07355054 -0.08792513 0.050317723 0.03321158
000050 38 01 be 3b d4 6d 06 bb 2d 3d fb 3d 15 6e 12 bd
       0.005798485 -0.002051224 0.12267528 -0.035749514
000060 c1 81 de bd 4f 06 00 be c4 4a 04 3d 1e 7f 0e 3d
       -0.10864592 -0.12502407 0.032297865 0.034789197
000070 b8 f1 3d 3a 5b d6 e9 bd 9e 24 d9 bd 60 06 bc bd
       0.0007245797 -0.11417838 -0.10602687 -0.091809034
000080 73 3f 9a 3d ea 89 97 3c 2e 51 9c bd 6d 2a f8 bd
       0.07531633 0.01849838 -0.07632671 -0.12117467
000090 37 3a 8b 3d 38 3d 46 bb 62 e2 8f 3d 01 68 e6 bd
       0.06798213 -0.0030248892 0.07025601 -0.11250306
0000a0 82 4f d9 bd 06 b9 bf 3c b6 b2 9d 3d 20 d4 a0 3d
       -0.10610868 0.023403656 0.07700102 0.0785296
0000b0 d2 75 e6 3d 88 dc 9a 3d bd 46 54 3d b8 82 92 bd
       0.11252941 0.07561594 0.051825274 -0.07153839
0000c0 51 d0 ef 3d 7d c8 80 bd 49 93 ab 3d 5d b2 5d 3d
       0.11709655 -0.0628824 0.08377702 0.05412518
0000d0 34 e5 a3 bd d8 c5 9b 3c 98 3d 0e bc c7 85 b4 3d
       -0.080027014 0.019015238 -0.008681677 0.088145785
0000e0 9b 8a f2 3d b1 60 b0 3c ec e1 9e bd 28 b9 e1 3c
       0.11842843 0.021530481 -0.07757935 0.02755411
0000f0 17 8c c5 3d cf 9a 8f bd 36 cd dd 3d 81 9c e7 3c
       0.09645861 -0.07011949 0.108301565 0.028272869
000100 bf 51 b7 3d f3 be 7e 3d e9 4a c8 3d 12 3e 01 be
       0.08951139 0.062193822 0.09779913 -0.12621334
000110 63 c4 91 3d ca 41 c5 bd bd fc cd 3c 4f 9c ef 3d
       0.07117536 -0.09631689 0.025144929 0.116997354
000120 1b 0b ae bd d1 bc 9c bd be b1 c8 bc b3 56 2a 3c
       -0.08498212 -0.07653201 -0.024498817 0.010396647
000130 72 25 6f bc c3 be a8 bd 22 f0 19 3d 2a 41 6a bc
       -0.01459633 -0.0823951 0.037582524 -0.014297763
000140 77 79 11 bd 28 d5 0a 3d 49 4d 87 3d cd 13 15 3d
       -0.03551623 0.033894688 0.06606538 0.036395837
000150 e3 c4 68 bd d5 40 e0 3d 88 51 a8 3b 9f 6e 89 bc
       -0.05682839 0.10949866 0.0051366724 -0.016776381
000160 71 df be 3d a8 75 4a 3d 3c b9 bf 3d a0 df cd 3d
       0.09319962 0.049428612 0.093615025 0.10052419
000170 f7 9d bf 3c ec a5 05 3e ff 31 68 3c 14 bd f1 3d
       0.023390753 0.13051575 0.014172076 0.11803642
000180 4d e4 0b 3d 21 02 a0 3d 64 2e 9e 3d be 95 19 bd
       0.03415327 0.07812906 0.07723692 -0.03749632
000190 61 ff 05 3e 83 97 f1 3c 00 ce 0e 3d 46 1c aa bd
       0.130857 0.029491192 0.034864426 -0.08306174
0001a0 0a de d8 bc 0e e6 81 3d f1 8e 7d bd b7 e0 39 3d
       -0.026473064 0.063427076 -0.061903898 0.04538032
0001b0 9c 69 f7 3d a6 cf b9 bd ca f3 95 3c 30 61 38 3c
       0.1208069 -0.09072809 0.018304724 0.01125364
0001c0 18 79 cd 3d 1a 6b e2 bc 1c 23 0d be 12 38 3d bd
       0.100328624 -0.02763896 -0.13782924 -0.04619605
0001d0 a9 ac 67 3d dd fd cf bd 32 53 a7 bd 5a 44 87 3c
       0.056561146 -0.101558425 -0.08170165 0.016512085
0001e0 18 b6 bb 3c c6 4d 6e bd 00 20 e4 bc d0 a8 ad 3d
       0.022913978 -0.05817964 -0.02784729 0.08479464
0001f0 4d 46 83 bd 28 b3 95 bd 3f c7 19 3c 76 eb fb 3d
       -0.06409893 -0.07309562 0.009385883 0.1230077
000200 0a 6c 69 bd 51 89 dd bd 20 4f e1 bd 86 d6 df bb
       -0.0569878 -0.10817207 -0.1100142 -0.006830993
000210 75 89 86 3d e8 bb a5 3c a8 31 9f bd 7d 8d 06 be
       0.065691866 0.020231202 -0.07773143 -0.13139911
000220 ec c6 cb bd 45 35 04 3c c2 c0 96 3d 61 4b 46 3d
       -0.09950051 0.008069341 0.073609844 0.04841173
000230 4a 3c 91 bc 12 7b 2f 3d d3 86 9a bc 1d 5e d7 bb
       -0.017728943 0.04284198 -0.018863117 -0.0065724985
000240 cf 1c 12 3d 62 ed 82 bd f9 bd 51 3c e3 5c 50 bc
       0.035672005 -0.063929334 0.012801641 -0.012717458
000250 87 b8 ad 3c 6b f8 23 bd 93 02 d2 3d 12 a7 0d be
       0.021206154 -0.04003183 0.10254397 -0.13833264
000260 8a 1c d5 3d 9f 15 04 be fe 1f ee bd 22 e6 cc bd
       0.10405834 -0.12898873 -0.11627196 -0.10004832
000270 af 38 1c bd e8 24 17 bd 0b fc 13 be 84 5c 27 3d
       -0.038139995 -0.03690043 -0.14451616 0.040859714
000280 85 27 8b 3b e5 3b c5 3d a3 8b e4 bd 2e d7 04 be
       0.0042466545 0.096305646 -0.11159446 -0.1297271
000290 f6 37 0a b9 a5 84 99 3d db 2f 6f 3d 20 a9 eb 3c
       -0.00013181553 0.07496003 0.058395248 0.028767169
0002a0 da 93 96 bb 7c 78 ad 3d 7a 7f 95 bd 63 14 1a be
       -0.004595262 0.08470246 -0.07299705 -0.1504684
0002b0 83 e2 00 be dc 7a d4 bd 92 40 95 3b 6b 03 05 3e
       -0.12586407 -0.10374996 0.0045548165 0.12989585
0002c0 2d a5 5d 3d 51 5d d9 bd 56 f9 65 3d 5a 55 98 3d
       0.054112602 -0.10613502 0.05614599 0.074381545
0002d0 3a 4c fb bc 63 5d 88 bc e6 8f c3 bd c6 8d 13 bd
       -0.030675996 -0.016646093 -0.09548931 -0.036023878
0002e0 a8 ae c5 3d 0a 99 72 bd c4 61 38 bd 2b 1e 17 3d
       0.09652454 -0.05922798 -0.04501511 0.036894005
0002f0 d2 f1 92 bd e3 61 aa bd f2 43 5c bc 66 8a 86 3d
       -0.0717503 -0.08319452 -0.013443934 0.06569366
000300 5e 5f 71 b9 77 2c c5 bc e7 3e ec bd 9f a3 c3 3d
       -0.00023019078 -0.024069054 -0.11535435 0.095526926
000310 ad fe 51 bc b7 93 97 bd c1 cc 08 be dd 26 9f bd
       -0.012817067 -0.07401221 -0.13359357 -0.077710845
000320 9f 00 d6 bd 9c c1 f7 3b c9 24 8e 3d b9 b0 f2 bc
       -0.10449337 0.007560922 0.0694061 -0.029625284
000330 c8 92 a0 3d 33 b1 2d bd 35 44 a4 bd 46 e9 07 be
       0.07840496 -0.04240532 -0.08020822 -0.1327258
000340 ab 4f cd bd 02 a2 8e 3d 6b 8c 84 3d 53 03 d2 3d
       -0.10024961 0.06964494 0.06472095 0.1025454
000350 7a 0f f3 bc a7 0f d9 3c bc db b0 3b 81 13 cc 3d
       -0.029670466 0.026496721 0.005397288 0.099646576
000360 24 a7 a7 bd b6 1e 6b bd 81 e6 17 be 6c 4c 1f bb
       -0.081861764 -0.057402335 -0.14834024 -0.0024307026
000370 e7 ca f2 bd 36 e7 d2 bd 79 61 42 3c 07 c0 d7 3d
       -0.11855107 -0.10298006 0.01186406 0.10534673
000380 3b c1 a9 3d b7 a2 87 3d 0a 29 41 bd 0c 6c de bc
       0.08288809 0.06622832 -0.04715828 -0.02715113
000390 2e 8f 09 be 69 74 85 3d a2 e1 eb 3c f6 f0 bf 3d
       -0.13433525 0.06516344 0.028794114 0.093721315
0003a0 5f b9 11 be 3d c7 4a bc 1d 7b c9 bd fc 0a ec bd
       -0.1423087 -0.012376604 -0.09837935 -0.115255326
0003b0 c5 5e b7 bd 8e 62 9f 3c 98 bc 83 3d 33 f3 8e 3d
       -0.08953623 0.019456174 0.06432456 0.0697998
0003c0 75 80 81 bd 57 ef 1b 3d fa 3a 10 3e 08 3c c6 bc
       -0.06323329 0.03807005 0.14084998 -0.024198547
0003d0 ea e6 8c bd f9 55 d3 bd 92 1e 79 3d 71 a3 4b bd
       -0.06879981 -0.10319132 0.06082017 -0.049716417
0003e0 91 a8 d2 bd 8d 7e 58 3d aa a1 d4 3b 62 e8 8a bd
       -0.10286058 0.052855063 0.0064889984 -0.06782605
0003f0 f4 1d 11 be 7b fd 96 bb 57 6c a1 bd ff 99 3e bd
       -0.14171582 -0.004607854 -0.07881992 -0.04653358

gkf.gat_rnn.r_input_gru.weight_hh_l0 f4 [192, 64]
000000 e1 5c 3e bc 3b c3 b1 bd 23 29 b6 bd a3 ee 46 38
       -0.011618824 -0.086798154 -0.08894565 4.7429126e-05
000010 c2 71 a9 bd 64 b0 ac 3d a1 52 c8 3d 4a d5 60 bd
       -0.08273651 0.08432081 0.09781385 -0.05489091
000020 97 dd 6a bc d7 88 8d bd 04 3f f2 3c 39 43 87 3d
       -0.014335058 -0.06910866 0.029571064 0.066046186
000030 06 c8 c6 bd 7d be 65 bd 28 b4 2e bd 26 0f ee 3d
       -0.0970612 -0.056089867 -0.04265228 0.11623983
000040 3b 66 9d 3d 9a 9a bb bd 30 75 2b 3d c7 18 9d bd
       0.076855145 -0.09160347 0.041859806 -0.076707415
000050 8f c5 18 3e 8d fc a1 3d e2 26 9a bd 2c 04 34 3d
       0.14919113 0.07909498 -0.075269476 0.04394929
000060 50 9a 1c 3d 82 06 5a bd 45 60 d9 bd 33 18 65 3d
       0.0382331 -0.053228863 -0.10614065 0.05593128
000070 52 2a fb bd d3 cd 66 3d 07 10 48 bb 5a fa 5d 3d
       -0.12263931 0.056348633 -0.0030527131 0.054193832
000080 69 a1 e5 3c 86 5e 3a 3d b1 41 01 bd 39 c0 4d 3d
       0.028031068 0.0455003 -0.03155679 0.050232146
000090 e3 40 29 3d 02 d7 af 3c 94 bd e4 bc 62 09 f9 3c
       0.041321646 0.021464828 -0.02792243 0.030399982
0000a0 40 6f 18 3d 22 e6 2f 3d 7e 72 7b bd f1 38 09 bd
       0.03721547 0.04294408 -0.061388485 -0.03350157
0000b0 42 02 72 bd c6 bd 21 bc cf fc ad 3d 9a fb 90 3d
       -0.059084184 -0.009871906 0.08495485 0.07079239
0000c0 39 80 2e 3d 81 f2 84 bd 69 00 ba 3d a0 95 b3 3d
       0.04260275 -0.064915664 0.090821095 0.08768773
0000d0 5c 16 61 bb fc 6a d9 3d b5 12 14 3c c5 60 ff bc
       -0.0034345603 0.10616109 0.009037663 -0.031174073
0000e0 bb ab 98 3c 83 93 ec 3b 45 dd 8c 3d 98 69 2e bd
       0.018636575 0.007219733 0.06878141 -0.04258117
0000f0 37 6b e3 bd a2 a7 db bd c3 31 d5 bd 62 9e d3 3d
       -0.11104434 -0.10725333 -0.10409882 0.103329435
000100 b9 d4 18 bb 68 42 09 be b7 3f 0b 3e 08 d1 a0 bd
       -0.0023320152 -0.13404238 0.13598524 -0.078523695
000110 04 e7 5c bb 92 d0 9c 3d 83 80 b1 bd d0 42 fb 3c
       -0.0033707032 0.07656969 -0.0866709 0.030671507
000120 fe 78 a4 3d ab 34 14 3e d1 1b 40 3d 1e a6 61 bd
       0.0803089 0.14473216 0.046901528 -0.055090062
000130 9b 0f 40 3d b0 c3 bf 3d 7f ef f2 bc 96 db 0d 3e
       0.046889883 0.09363496 -0.029655216 0.13853297
000140 12 6f 0a bc 97 45 52 3d 52 19 87 bd 0d 69 7c 3d
       -0.008449333 0.051335897 -0.06596626 0.06162362
000150 b4 6a 91 bd f8 e4 67 3d 78 90 00 3c aa 84 47 3d
       -0.0710043 0.056614846 0.007846944 0.048710503
000160 68 71 a5 3d 06 90 4e bc a6 e5 ad 3d 39 92 1f be
       0.08078271 -0.01260758 0.084910676 -0.15583123
000170 46 f5 a4 3d 77 e9 bd 3c 7d fa 8a bb 8f e4 c3 3b
       0.08054595 0.023182614 -0.0042412863 0.005978174
000180 e4 2b 26 3d 9b d4 08 be f2 77 e1 3d 7d 22 29 bb
       0.0405692 -0.13362353 0.11009206 -0.002580791
000190 9d ea 27 3e 6c 08 4e 3d 9b 9c 37 bc d1 94 85 3c
       0.16398092 0.050301 -0.011206771 0.016306313
0001a0 07 1e e7 3d 67 d4 02 be 3d 3d 01 3d d0 5f 1e 3d
       0.11285024 -0.12776338 0.031552542 0.038665593
0001b0 43 c3 3f bd b7 1e 2b bd 29 08 0d 3e ae 4c 6a 3d
       -0.046817075 -0.04177734 0.13772644 0.057202034
0001c0 aa 49 8a bd 6c 99 ab bc de e8 5a bc 7d 74 b7 bd
       -0.067523316 -0.02094718 -0.013361184 -0.08957765
0001d0 06 ca a5 3d f3 87 ad 3c f6 af ef bc 33 93 d5 3d
       0.080951735 0.02118299 -0.02925871 0.10428467
0001e0 60 e7 88 3d 30 20 c7 3c 54 c1 bc 3d 7f 5c f4 bd
       0.06684756 0.02430734 0.09216562 -0.11931705
0001f0 83 83 bf bd 81 d0 17 3e 59 8a 83 3c 16 c4 8b 3d
       -0.09351256 0.14825632 0.01605718 0.0682451
000200 4e 2d 97 bd c8 8c 15 bd 70 ff 6e bd 0f 67 40 3d
       -0.07381688 -0.036511213 -0.058349073 0.046973284
000210 e1 ce 38 bd 56 3b e7 3d e4 89 8f bd 45 42 ba bc
       -0.04511917 0.11290614 -0.070087224 -0.022736678
000220 4f ed d4 3d 64 ad 6a bd 19 08 c5 3c 2e a1 ee bc
       0.103968255 -0.057294264 0.024051713 -0.02912959
000230 dd a7 2e 3d 9f 77 52 bd aa 20 de bd a2 69 48 bd
       0.042640556 -0.05138361 -0.10846074 -0.048928864
000240 84 28 0d 3d f4 cd 9f bc 4e 5a 99 bd 31 82 9f bc
       0.034462467 -0.019507386 -0.074879274 -0.01947126
000250 91 d2 73 bd a8 bf f9 3d f5 57 88 bc 20 18 14 3d
       -0.059526984 0.12194759 -0.016643504 0.03615582
000260 b1 d4 c6 3d 6c 79 8d bd 4f ea 82 3d a6 52 16 3d
       0.097085364 -0.06907925 0.06392347 0.036699913
000270 ce 54 e3 3d a2 4e 34 bc 14 f0 f6 3c c3 fc f1 bd
       0.111001596 -0.011005076 0.030143775 -0.118157886
000280 6b bd 08 3e a1 d4 c5 bd e4 e2 da 3d 90 a8 8b bd
       0.13353507 -0.09659696 0.10687807 -0.0681926
000290 75 ec 08 3d cb dd 03 bb 76 b6 b2 3d 26 11 fe bd
       0.033428628 -0.0020121213 0.08726208 -0.124056146
0002a0 6a 48 ae 3d d9 21 cc 3d 93 95 75 3d 39 96 ea 3d
       0.08509906 0.099673934 0.0599571 0.11454434
0002b0 01 65 e2 3d ba ed d5 3c e0 bf 79 3d 5a 20 2c bc
       0.11054421 0.026114333 0.060974002 -0.01050576
0002c0 59 6d 94 3c 87 0d 8e bd 33 ed 93 bc f4 62 3e bd
       0.018118547 -0.06936174 -0.018057441 -0.046481088
0002d0 5d 1b 9c bd a8 40 89 bd c7 9c 7e bd 9e fa 70 3b
       -0.07622407 -0.06701785 -0.062161233 0.0036770473
0002e0 be 1f b2 bc 4b 47 91 3d ce 05 fc 3c 1d 39 3f bd
       -0.021743651 0.07093676 0.030764487 -0.046685327
0002f0 29 2c 9d 3d 56 29 b0 bd cb bd 4f bd c5 9b 09 3e
       0.076744385 -0.08601634 -0.05071811 0.13438328
000300 76 0d 65 3d 10 ad 68 3d 0d 70 ff bd a1 3f ad 3d
       0.05592104 0.05680567 -0.12472544 0.08459402
000310 22 fc d5 bd 8e 09 8c 3c 95 33 18 bd 66 b3 36 3d
       -0.10448481 0.0170944 -0.037158567 0.04460468
000320 f7 5a 8a bd b1 ab e4 bd 5c 7e ed bd 4f 9a c2 bd
       -0.067556314 -0.1116556 -0.11596367 -0.09502088
000330 e0 91 59 bd 24 39 00 3d 8f 92 39 bd 55 f5 df bc
       -0.053117633 0.031304494 -0.045305785 -0.027338663
000340 b5 45 d0 3c 1c db da 3d 6d ac 61 bd f2 57 df 3d
       0.025423864 0.10686323 -0.05509608 0.10905446
000350 5e 95 68 bd 09 0c f5 3d ac a3 43 bd f4 f8 8a bd
       -0.056783073 0.11965186 -0.04776351 -0.06785765
000360 41 0a 0a bc 5f ce ac bb 47 68 c0 bd 22 20 b0 3d
       -0.008425296 -0.005273625 -0.09394889 0.08599879
000370 34 01 db bd bd 3e 26 38 3b e6 bb bd 11 5d ad bd
       -0.10693589 3.9635914e-05 -0.09174772 -0.08465017
000380 ac ae 36 bb 59 d1 c6 bc 69 50 bd bc e2 8c 31 bc
       -0.0027875109 -0.024269747 -0.023109632 -0.010836812
000390 d5 e9 1e bd e7 70 e5 bd 00 a1 8d ba e4 29 ee 3b
       -0.03879722 -0.11203175 -0.0010805428 0.0072681773
0003a0 b8 ec f2 3d 71 fd 8a bd 9b 4e d5 bd 0f d6 f8 bd
       0.11861557 -0.06786621 -0.104153834 -0.121502034
0003b0 4e 62 68 3d 6a 83 a9 bd f4 86 ca 3d 61 98 1f 3d
       0.056734376 -0.08277018 0.098890215 0.03896368
0003c0 b4 76 c4 3d cb 34 61 bd 97 41 c7 3d e6 56 2a bd
       0.09592953 -0.054981988 0.09729307 -0.04158678
0003d0 59 85 96 bc 6e b1 d7 3d ab 4b 8a bd ad c6 21 bd
       -0.018374132 0.10531889 -0.06752714 -0.039496113
0003e0 4d 99 a1 3c ac cb 49 3d f2 4e 91 3c 66 56 b1 bd
       0.01972642 0.049266502 0.01773784 -0.08659057
0003f0 35 55 02 bd ae 99 1c 3d 44 00 b1 bd 19 7d c7 bd
       -0.03181954 0.038232498 -0.08642629 -0.09740657

gkf.gat_rnn.r_input_gru.bias_ih_l0 f4 [192]
000000 99 81 fa 3d ca 50 3d bd a6 4e b5 bd f3 a2 66 3d
       0.1223175 -0.046219625 -0.088528916 0.056307744
000010 1b 27 bf bc 54 ed f3 3d dd 84 6c bd 8e a5 4c 3d
       -0.023334077 0.11910501 -0.057743896 0.049962573
000020 ce b7 7f 3c 71 35 d6 3c 96 95 f4 bd c2 13 95 bc
       0.015607787 0.02614853 -0.11942594 -0.018197898
000030 6a 30 68 bc 0e a8 79 bd 38 25 82 3d 75 26 00 3e
       -0.014171699 -0.060951285 0.06354755 0.1251467
000040 1c ab d1 3d b6 be b9 3d ff 36 60 bd b7 a2 80 bd
       0.10237715 0.09069578 -0.05473995 -0.062810354
000050 5b bf db 3d 59 84 e0 3d b9 59 a1 bd a9 be 52 3d
       0.107298575 0.10962743 -0.07878441 0.05145136
000060 5e d3 de bc 5e 55 fb bc cc 94 e1 3d af e0 bc 3d
       -0.027200397 -0.030680355 0.11014709 0.092225425
000070 07 44 b5 bd 83 a5 80 3d 43 6e d8 3d 82 96 0a 3d
       -0.08850866 0.06281569 0.10567906 0.03383494
000080 89 3c 8e 3d 55 29 be 3c e0 98 4b 3b 90 44 88 3d
       0.0694514 0.023213068 0.0031066462 0.06653702
000090 eb 89 a9 bd a7 8e 54 bc fc 9c fd bc 1f 39 aa 3d
       -0.08278259 -0.012973464 -0.030958645 0.08311676
0000a0 d1 9f c8 bd a5 ac 9a 3d bc f2 01 bd 5f e4 b3 3d
       -0.097961076 0.075524606 -0.03172563 0.08783793
0000b0 7e 2f 46 bc ef 30 0f 3d 8f 83 8b 3d 01 d0 39 3d
       -0.012096284 0.034958776 0.06812202 0.045364384
0000c0 bc 46 80 3d fa 77 9f 3d fa 2e 44 bc 95 44 11 bd
       0.062634915 0.077865556 -0.011974091 -0.035465796
0000d0 a0 db 87 3d 2a d3 af bd 1b 75 f9 3c 0d ae 5c 3d
       0.06633687 -0.08585198 0.030451348 0.053876925
0000e0 44 6c e1 3d 9f 04 ff 3d 96 58 eb bc 3f 99 9b bd
       0.11006978 0.12452053 -0.028728765 -0.07597589
0000f0 b0 9d 17 ba 60 1c e9 bd e3 4c 02 3d 0a 48 86 3d
       -0.000578369 -0.11382365 0.031811606 0.06556709
000100 80 a5 c9 3c 1f b5 24 be 64 8c a3 3c 2b 46 e4 bd
       0.02461505 -0.16084717 0.019964404 -0.11146196
000110 f9 7c cb bd eb 99 0b be e4 73 9a bd c6 ac ca bd
       -0.09935946 -0.13632934 -0.07541636 -0.09896235
000120 34 95 db bd 58 26 55 3d 42 bc 79 bd 9e 52 2d bb
       -0.107218176 0.05203852 -0.060970552 -0.0026446949
000130 28 7a 9a bd 14 6b 1a 3d 7c 1a f9 bd 1d 1f 9a bd
       -0.07542831 0.037699774 -0.121632546 -0.07525466
000140 d8 04 f7 bd 76 12 ee bd f6 89 71 bd 53 e1 db bd
       -0.12061471 -0.11624615 -0.05896946 -0.107363366
000150 1b 4d 15 bd e4 94 2b be 34 c3 fe bc 42 09 a9 bc
       -0.036450487 -0.16756016 -0.03109894 -0.020634297
000160 bd d7 5e 3d 9a 7f 10 be a0 a4 1c bc 1a 52 85 bd
       0.054404963 -0.14111176 -0.009560734 -0.065098
000170 43 b4 08 be ed 51 c7 3c 24 85 59 3d 73 a1 2b 3c
       -0.13350014 0.024331057 0.05310549 0.010475504
000180 66 35 5e bd ba fd 05 bd e3 a6 01 3d fe a7 bc bd
       -0.054250143 -0.032712676 0.031653296 -0.092117295
000190 c7 bd c2 3a f3 64 9c ba ea 60 1f be 13 b5 c3 bd
       0.0014857583 -0.0011931941 -0.15564314 -0.095560215
0001a0 3a 98 84 bd 10 3b e0 bd 2f d3 9d 3d cb cc a9 bd
       -0.064743474 -0.10948765 0.07706296 -0.08291014
0001b0 01 65 ac bd 2a 49 17 be 10 f8 8d 3d bf 98 06 bd
       -0.084177025 -0.14774004 0.0693208 -0.032860514
0001c0 f6 94 86 3d 64 6a 56 3d 9d 61 b2 bd fd 9f 94 bc
       0.06571381 0.052347556 -0.087100245 -0.018142695
0001d0 de a9 55 3d 5a 8c ba 3d 5d 08 83 bd 51 0f 82 bd
       0.05216395 0.09108801 -0.063980795 -0.063505776
0001e0 c8 7e c1 3d 84 c1 01 3d 35 f3 cc bd 05 2b 2a 3c
       0.0944801 0.03167869 -0.100073256 0.010386233
0001f0 01 45 12 be 8c 08 34 bc 4f ff 05 b8 26 07 ae bd
       -0.14284135 -0.010988366 -3.1947446e-05 -0.08497457
000200 dd 68 a5 bc 5c 02 31 3d ef 93 9d 3c 7d 20 93 bd
       -0.020191604 0.04321514 0.01923558 -0.07183931
000210 39 0d aa 3c c9 fa 97 3c 88 1d 9d bd e9 25 02 3e
       0.020758258 0.0185522 -0.07671648 0.12709774
000220 97 1d fb bd ef ac 5d 3d b3 6b e1 bd c9 53 16 be
       -0.12261503 0.05412 -0.1100687 -0.14680399
000230 f1 3f 1c 3d a9 be 01 3e 90 6f 10 be d9 5c 5a bd
       0.038146917 0.12670387 -0.14105058 -0.053311203
000240 e9 b5 a5 bd 0f 0f 08 be 91 1d 0b 3d 7b 02 ce 3d
       -0.08091337 -0.13286994 0.033963744 0.10059067
000250 9d be 82 3d d8 fe f4 bc 12 82 8a bd 17 11 58 bc
       0.06384013 -0.029906675 -0.0676309 -0.013187668
000260 a8 5a a4 bd 0d 93 8d bd 90 f0 f9 bb 70 5f b9 bc
       -0.08025104 -0.06912813 -0.0076275542 -0.022628516
000270 28 08 b4 bd 13 c5 e7 bd 6e 92 0b 3e c8 f8 8c bc
       -0.08790618 -0.11316886 0.13630077 -0.017208472
000280 e9 a3 4d bd f9 3b ad bd 47 2c d4 3d a1 8b ac bc
       -0.050205145 -0.084587045 0.10360008 -0.021062674
000290 18 da 04 3e 60 ad 76 3b 15 76 ce bd 8e a8 b4 3d
       0.12973821 0.003763996 -0.10081116 0.08821212
0002a0 78 3e 80 bd 12 36 e4 3d 99 dd e2 ba 01 a4 82 bc
       -0.06261915 0.111431256 -0.0017308473 -0.015947344
0002b0 f8 cc c6 bd 87 9a ca bd 1a 50 2d bd 22 a5 0d 3d
       -0.097070634 -0.09892755 -0.04231272 0.03458131
0002c0 70 9a 0a be c8 ca 60 bd 8e 63 ba 3c e1 dd c2 bb
       -0.13535476 -0.054880887 0.02275255 -0.00594686
0002d0 59 a9 0a be 11 58 68 bd 9d fe 2b bd a0 c1 16 3d
       -0.13541164 -0.05672461 -0.041990865 0.03680575
0002e0 16 81 6e bd 57 39 b0 3d 9a 21 3d 3a 5d da a8 3d
       -0.058228575 0.08604687 0.0007214785 0.082447745
0002f0 84 cc a7 3d b6 62 b8 3d 9c 7f c9 3c ab a7 10 3e
       0.08193305 0.090032026 0.024596982 0.1412646
